…
I1109 05:12:20.712615 11395 net.cpp:275] The NetState phase (0) differed from the phase (1) specified by a rule in layer accuracy
I1109 05:12:20.712973 11395 net.cpp:39] Initializing net from parameters: 
name: "small"
layers {
  top: "data"
  top: "label"
  name: "data"
  type: IMAGE_DATA
  image_data_param {
    source: "/data/ad6813/devCaffe/caffe/data/soil_high_o/train.txt"
    batch_size: 10
    new_height: 256
    new_width: 256
  }
  include {
    phase: TRAIN
  }
  transform_param {
    mirror: true
    crop_size: 224
    mean_value: 86.752
    mean_value: 101.46
    mean_value: 104.6
  }
}
layers {
  bottom: "data"
  top: "conv1_1"
  name: "conv1_1"
  type: CONVOLUTION
  convolution_param {
    num_output: 64
    pad: 1
    kernel_size: 3
    weight_filler {
      type: "gaussian"
      std: 0.01
    }
    bias_filler {
      type: "constant"
      value: 0
    }
  }
}
layers {
  bottom: "conv1_1"
  top: "conv1_1"
  name: "relu1_1"
  type: RELU
}
layers {
  bottom: "conv1_1"
  top: "conv1_2"
  name: "conv1_2"
  type: CONVOLUTION
  convolution_param {
    num_output: 64
    pad: 1
    kernel_size: 3
    weight_filler {
      type: "gaussian"
      std: 0.01
    }
    bias_filler {
      type: "constant"
      value: 0
    }
  }
}
layers {
  bottom: "conv1_2"
  top: "conv1_2"
  name: "relu1_2"
  type: RELU
}
layers {
  bottom: "conv1_2"
  top: "pool1"
  name: "pool1"
  type: POOLING
  pooling_param {
    pool: MAX
    kernel_size: 2
    stride: 2
  }
}
layers {
  bottom: "pool1"
  top: "conv2_1"
  name: "conv2_1"
  type: CONVOLUTION
  convolution_param {
    num_output: 128
    pad: 1
    kernel_size: 3
    weight_filler {
      type: "gaussian"
      std: 0.01
    }
    bias_filler {
      type: "constant"
      value: 0
    }
  }
}
layers {
  bottom: "conv2_1"
  top: "conv2_1"
  name: "relu2_1"
  type: RELU
}
layers {
  bottom: "conv2_1"
  top: "conv2_2"
  name: "conv2_2"
  type: CONVOLUTION
  convolution_param {
    num_output: 128
    pad: 1
    kernel_size: 3
    weight_filler {
      type: "gaussian"
      std: 0.01
    }
    bias_filler {
      type: "constant"
      value: 0
    }
  }
}
layers {
  bottom: "conv2_2"
  top: "conv2_2"
  name: "relu2_2"
  type: RELU
}
layers {
  bottom: "conv2_2"
  top: "pool2"
  name: "pool2"
  type: POOLING
  pooling_param {
    pool: MAX
    kernel_size: 2
    stride: 2
  }
}
layers {
  bottom: "pool2"
  top: "conv3_1"
  name: "conv3_1"
  type: CONVOLUTION
  convolution_param {
    num_output: 256
    pad: 1
    kernel_size: 3
    weight_filler {
      type: "gaussian"
      std: 0.01
    }
    bias_filler {
      type: "constant"
      value: 0
    }
  }
}
layers {
  bottom: "conv3_1"
  top: "conv3_1"
  name: "relu3_1"
  type: RELU
}
layers {
  bottom: "conv3_1"
  top: "conv3_2"
  name: "conv3_2"
  type: CONVOLUTION
  convolution_param {
    num_output: 256
    pad: 1
    kernel_size: 3
    weight_filler {
      type: "gaussian"
      std: 0.01
    }
    bias_filler {
      type: "constant"
      value: 0
    }
  }
}
layers {
  bottom: "conv3_2"
  top: "conv3_2"
  name: "relu3_2"
  type: RELU
}
layers {
  bottom: "conv3_2"
  top: "conv3_3"
  name: "conv3_3"
  type: CONVOLUTION
  convolution_param {
    num_output: 256
    pad: 1
    kernel_size: 3
    weight_filler {
      type: "gaussian"
      std: 0.01
    }
    bias_filler {
      type: "constant"
      value: 0
    }
  }
}
layers {
  bottom: "conv3_3"
  top: "conv3_3"
  name: "relu3_3"
  type: RELU
}
layers {
  bottom: "conv3_3"
  top: "pool3"
  name: "pool3"
  type: POOLING
  pooling_param {
    pool: MAX
    kernel_size: 2
    stride: 2
  }
}
layers {
  bottom: "pool3"
  top: "conv4_1"
  name: "conv4_1"
  type: CONVOLUTION
  convolution_param {
    num_output: 512
    pad: 1
    kernel_size: 3
    weight_filler {
      type: "gaussian"
      std: 0.01
    }
    bias_filler {
      type: "constant"
      value: 0
    }
  }
}
layers {
  bottom: "conv4_1"
  top: "conv4_1"
  name: "relu4_1"
  type: RELU
}
layers {
  bottom: "conv4_1"
  top: "conv4_2"
  name: "conv4_2"
  type: CONVOLUTION
  convolution_param {
    num_output: 512
    pad: 1
    kernel_size: 3
    weight_filler {
      type: "gaussian"
      std: 0.01
    }
    bias_filler {
      type: "constant"
      value: 0
    }
  }
}
layers {
  bottom: "conv4_2"
  top: "conv4_2"
  name: "relu4_2"
  type: RELU
}
layers {
  bottom: "conv4_2"
  top: "conv4_3"
  name: "conv4_3"
  type: CONVOLUTION
  convolution_param {
    num_output: 512
    pad: 1
    kernel_size: 3
    weight_filler {
      type: "gaussian"
      std: 0.01
    }
    bias_filler {
      type: "constant"
      value: 0
    }
  }
}
layers {
  bottom: "conv4_3"
  top: "conv4_3"
  name: "relu4_3"
  type: RELU
}
layers {
  bottom: "conv4_3"
  top: "pool4"
  name: "pool4"
  type: POOLING
  pooling_param {
    pool: MAX
    kernel_size: 2
    stride: 2
  }
}
layers {
  bottom: "pool4"
  top: "conv5_1"
  name: "conv5_1"
  type: CONVOLUTION
  convolution_param {
    num_output: 512
    pad: 1
    kernel_size: 3
    weight_filler {
      type: "gaussian"
      std: 0.01
    }
    bias_filler {
      type: "constant"
      value: 0
    }
  }
}
layers {
  bottom: "conv5_1"
  top: "conv5_1"
  name: "relu5_1"
  type: RELU
}
layers {
  bottom: "conv5_1"
  top: "conv5_2"
  name: "conv5_2"
  type: CONVOLUTION
  convolution_param {
    num_output: 512
    pad: 1
    kernel_size: 3
    weight_filler {
      type: "gaussian"
      std: 0.01
    }
    bias_filler {
      type: "constant"
      value: 0
    }
  }
}
layers {
  bottom: "conv5_2"
  top: "conv5_2"
  name: "relu5_2"
  type: RELU
}
layers {
  bottom: "conv5_2"
  top: "conv5_3"
  name: "conv5_3"
  type: CONVOLUTION
  convolution_param {
    num_output: 512
    pad: 1
    kernel_size: 3
    weight_filler {
      type: "gaussian"
      std: 0.01
    }
    bias_filler {
      type: "constant"
      value: 0
    }
  }
}
layers {
  bottom: "conv5_3"
  top: "conv5_3"
  name: "relu5_3"
  type: RELU
}
layers {
  bottom: "conv5_3"
  top: "pool5"
  name: "pool5"
  type: POOLING
  pooling_param {
    pool: MAX
    kernel_size: 2
    stride: 2
  }
}
layers {
  bottom: "pool5"
  top: "fc6"
  name: "fc6"
  type: INNER_PRODUCT
  inner_product_param {
    num_output: 4096
    weight_filler {
      type: "gaussian"
      std: 0.01
    }
    bias_filler {
      type: "constant"
      value: 0
    }
  }
}
layers {
  bottom: "fc6"
  top: "fc6"
  name: "relu6"
  type: RELU
}
layers {
  bottom: "fc6"
  top: "fc6"
  name: "drop6"
  type: DROPOUT
  dropout_param {
    dropout_ratio: 0.5
  }
}
layers {
  bottom: "fc6"
  top: "fc7"
  name: "fc7"
  type: INNER_PRODUCT
  inner_product_param {
    num_output: 4096
    weight_filler {
      type: "gaussian"
      std: 0.01
    }
    bias_filler {
      type: "constant"
      value: 0
    }
  }
}
layers {
  bottom: "fc7"
  top: "fc7"
  name: "relu7"
  type: RELU
}
layers {
  bottom: "fc7"
  top: "fc7"
  name: "drop7"
  type: DROPOUT
  dropout_param {
    dropout_ratio: 0.5
  }
}
layers {
  bottom: "fc7"
  top: "fc8_2"
  name: "fc8_2"
  type: INNER_PRODUCT
  inner_product_param {
    num_output: 2
    weight_filler {
      type: "gaussian"
      std: 0.01
    }
    bias_filler {
      type: "constant"
      value: 0
    }
  }
}
layers {
  bottom: "fc8_2"
  bottom: "label"
  name: "loss"
  type: SOFTMAX_LOSS
}
state {
  phase: TRAIN
}
I1109 05:12:20.713176 11395 layer_factory.hpp:78] Creating layer data
I1109 05:12:20.713204 11395 net.cpp:67] Creating Layer data
I1109 05:12:20.713217 11395 net.cpp:356] data -> data
I1109 05:12:20.713248 11395 net.cpp:356] data -> label
I1109 05:12:20.713261 11395 net.cpp:96] Setting up data
I1109 05:12:20.713271 11395 image_data_layer.cpp:34] Opening file /data/ad6813/devCaffe/caffe/data/soil_high_o/train.txt
I1109 05:12:20.788161 11395 image_data_layer.cpp:49] A total of 120113 images.
I1109 05:12:20.798699 11395 image_data_layer.cpp:78] output data size: 10,3,224,224
I1109 05:12:20.801081 11395 net.cpp:103] Top shape: 10 3 224 224 (1505280)
I1109 05:12:20.801108 11395 net.cpp:103] Top shape: 10 1 1 1 (10)
I1109 05:12:20.801116 11395 layer_factory.hpp:78] Creating layer conv1_1
I1109 05:12:20.801137 11395 net.cpp:67] Creating Layer conv1_1
I1109 05:12:20.801144 11395 net.cpp:394] conv1_1 <- data
I1109 05:12:20.801190 11395 net.cpp:356] conv1_1 -> conv1_1
I1109 05:12:20.801209 11395 net.cpp:96] Setting up conv1_1
I1109 05:12:20.831290 11395 net.cpp:103] Top shape: 10 64 224 224 (32112640)
I1109 05:12:20.831339 11395 layer_factory.hpp:78] Creating layer relu1_1
I1109 05:12:20.831360 11395 net.cpp:67] Creating Layer relu1_1
I1109 05:12:20.831368 11395 net.cpp:394] relu1_1 <- conv1_1
I1109 05:12:20.831379 11395 net.cpp:345] relu1_1 -> conv1_1 (in-place)
I1109 05:12:20.831393 11395 net.cpp:96] Setting up relu1_1
I1109 05:12:20.831408 11395 net.cpp:103] Top shape: 10 64 224 224 (32112640)
I1109 05:12:20.831414 11395 layer_factory.hpp:78] Creating layer conv1_2
I1109 05:12:20.831428 11395 net.cpp:67] Creating Layer conv1_2
I1109 05:12:20.831434 11395 net.cpp:394] conv1_2 <- conv1_1
I1109 05:12:20.831441 11395 net.cpp:356] conv1_2 -> conv1_2
I1109 05:12:20.831452 11395 net.cpp:96] Setting up conv1_2
I1109 05:12:20.833505 11395 net.cpp:103] Top shape: 10 64 224 224 (32112640)
I1109 05:12:20.833530 11395 layer_factory.hpp:78] Creating layer relu1_2
I1109 05:12:20.833544 11395 net.cpp:67] Creating Layer relu1_2
I1109 05:12:20.833550 11395 net.cpp:394] relu1_2 <- conv1_2
I1109 05:12:20.833559 11395 net.cpp:345] relu1_2 -> conv1_2 (in-place)
I1109 05:12:20.833567 11395 net.cpp:96] Setting up relu1_2
I1109 05:12:20.833577 11395 net.cpp:103] Top shape: 10 64 224 224 (32112640)
I1109 05:12:20.833583 11395 layer_factory.hpp:78] Creating layer pool1
I1109 05:12:20.833595 11395 net.cpp:67] Creating Layer pool1
I1109 05:12:20.833603 11395 net.cpp:394] pool1 <- conv1_2
I1109 05:12:20.833611 11395 net.cpp:356] pool1 -> pool1
I1109 05:12:20.833621 11395 net.cpp:96] Setting up pool1
I1109 05:12:20.833647 11395 net.cpp:103] Top shape: 10 64 112 112 (8028160)
I1109 05:12:20.833655 11395 layer_factory.hpp:78] Creating layer conv2_1
I1109 05:12:20.833664 11395 net.cpp:67] Creating Layer conv2_1
I1109 05:12:20.833669 11395 net.cpp:394] conv2_1 <- pool1
I1109 05:12:20.833681 11395 net.cpp:356] conv2_1 -> conv2_1
I1109 05:12:20.833691 11395 net.cpp:96] Setting up conv2_1
I1109 05:12:20.837461 11395 net.cpp:103] Top shape: 10 128 112 112 (16056320)
I1109 05:12:20.837486 11395 layer_factory.hpp:78] Creating layer relu2_1
I1109 05:12:20.837496 11395 net.cpp:67] Creating Layer relu2_1
I1109 05:12:20.837502 11395 net.cpp:394] relu2_1 <- conv2_1
I1109 05:12:20.837513 11395 net.cpp:345] relu2_1 -> conv2_1 (in-place)
I1109 05:12:20.837522 11395 net.cpp:96] Setting up relu2_1
I1109 05:12:20.837532 11395 net.cpp:103] Top shape: 10 128 112 112 (16056320)
I1109 05:12:20.837538 11395 layer_factory.hpp:78] Creating layer conv2_2
I1109 05:12:20.837549 11395 net.cpp:67] Creating Layer conv2_2
I1109 05:12:20.837554 11395 net.cpp:394] conv2_2 <- conv2_1
I1109 05:12:20.837566 11395 net.cpp:356] conv2_2 -> conv2_2
I1109 05:12:20.837575 11395 net.cpp:96] Setting up conv2_2
I1109 05:12:20.844981 11395 net.cpp:103] Top shape: 10 128 112 112 (16056320)
I1109 05:12:20.845006 11395 layer_factory.hpp:78] Creating layer relu2_2
I1109 05:12:20.845016 11395 net.cpp:67] Creating Layer relu2_2
I1109 05:12:20.845021 11395 net.cpp:394] relu2_2 <- conv2_2
I1109 05:12:20.845033 11395 net.cpp:345] relu2_2 -> conv2_2 (in-place)
I1109 05:12:20.845042 11395 net.cpp:96] Setting up relu2_2
I1109 05:12:20.845053 11395 net.cpp:103] Top shape: 10 128 112 112 (16056320)
I1109 05:12:20.845070 11395 layer_factory.hpp:78] Creating layer pool2
I1109 05:12:20.845079 11395 net.cpp:67] Creating Layer pool2
I1109 05:12:20.845084 11395 net.cpp:394] pool2 <- conv2_2
I1109 05:12:20.845095 11395 net.cpp:356] pool2 -> pool2
I1109 05:12:20.845104 11395 net.cpp:96] Setting up pool2
I1109 05:12:20.845115 11395 net.cpp:103] Top shape: 10 128 56 56 (4014080)
I1109 05:12:20.845121 11395 layer_factory.hpp:78] Creating layer conv3_1
I1109 05:12:20.845130 11395 net.cpp:67] Creating Layer conv3_1
I1109 05:12:20.845135 11395 net.cpp:394] conv3_1 <- pool2
I1109 05:12:20.845146 11395 net.cpp:356] conv3_1 -> conv3_1
I1109 05:12:20.845159 11395 net.cpp:96] Setting up conv3_1
I1109 05:12:20.859805 11395 net.cpp:103] Top shape: 10 256 56 56 (8028160)
I1109 05:12:20.859836 11395 layer_factory.hpp:78] Creating layer relu3_1
I1109 05:12:20.859846 11395 net.cpp:67] Creating Layer relu3_1
I1109 05:12:20.859853 11395 net.cpp:394] relu3_1 <- conv3_1
I1109 05:12:20.859864 11395 net.cpp:345] relu3_1 -> conv3_1 (in-place)
I1109 05:12:20.859875 11395 net.cpp:96] Setting up relu3_1
I1109 05:12:20.859885 11395 net.cpp:103] Top shape: 10 256 56 56 (8028160)
I1109 05:12:20.859891 11395 layer_factory.hpp:78] Creating layer conv3_2
I1109 05:12:20.859901 11395 net.cpp:67] Creating Layer conv3_2
I1109 05:12:20.859907 11395 net.cpp:394] conv3_2 <- conv3_1
I1109 05:12:20.859918 11395 net.cpp:356] conv3_2 -> conv3_2
I1109 05:12:20.859928 11395 net.cpp:96] Setting up conv3_2
I1109 05:12:20.889324 11395 net.cpp:103] Top shape: 10 256 56 56 (8028160)
I1109 05:12:20.889355 11395 layer_factory.hpp:78] Creating layer relu3_2
I1109 05:12:20.889370 11395 net.cpp:67] Creating Layer relu3_2
I1109 05:12:20.889377 11395 net.cpp:394] relu3_2 <- conv3_2
I1109 05:12:20.889387 11395 net.cpp:345] relu3_2 -> conv3_2 (in-place)
I1109 05:12:20.889399 11395 net.cpp:96] Setting up relu3_2
I1109 05:12:20.889407 11395 net.cpp:103] Top shape: 10 256 56 56 (8028160)
I1109 05:12:20.889413 11395 layer_factory.hpp:78] Creating layer conv3_3
I1109 05:12:20.889423 11395 net.cpp:67] Creating Layer conv3_3
I1109 05:12:20.889428 11395 net.cpp:394] conv3_3 <- conv3_2
I1109 05:12:20.889439 11395 net.cpp:356] conv3_3 -> conv3_3
I1109 05:12:20.889451 11395 net.cpp:96] Setting up conv3_3
I1109 05:12:20.918467 11395 net.cpp:103] Top shape: 10 256 56 56 (8028160)
I1109 05:12:20.918490 11395 layer_factory.hpp:78] Creating layer relu3_3
I1109 05:12:20.918504 11395 net.cpp:67] Creating Layer relu3_3
I1109 05:12:20.918511 11395 net.cpp:394] relu3_3 <- conv3_3
I1109 05:12:20.918519 11395 net.cpp:345] relu3_3 -> conv3_3 (in-place)
I1109 05:12:20.918527 11395 net.cpp:96] Setting up relu3_3
I1109 05:12:20.918537 11395 net.cpp:103] Top shape: 10 256 56 56 (8028160)
I1109 05:12:20.918544 11395 layer_factory.hpp:78] Creating layer pool3
I1109 05:12:20.918553 11395 net.cpp:67] Creating Layer pool3
I1109 05:12:20.918560 11395 net.cpp:394] pool3 <- conv3_3
I1109 05:12:20.918570 11395 net.cpp:356] pool3 -> pool3
I1109 05:12:20.918579 11395 net.cpp:96] Setting up pool3
I1109 05:12:20.918591 11395 net.cpp:103] Top shape: 10 256 28 28 (2007040)
I1109 05:12:20.918597 11395 layer_factory.hpp:78] Creating layer conv4_1
I1109 05:12:20.918606 11395 net.cpp:67] Creating Layer conv4_1
I1109 05:12:20.918612 11395 net.cpp:394] conv4_1 <- pool3
I1109 05:12:20.918622 11395 net.cpp:356] conv4_1 -> conv4_1
I1109 05:12:20.918632 11395 net.cpp:96] Setting up conv4_1
I1109 05:12:20.976713 11395 net.cpp:103] Top shape: 10 512 28 28 (4014080)
I1109 05:12:20.976744 11395 layer_factory.hpp:78] Creating layer relu4_1
I1109 05:12:20.976758 11395 net.cpp:67] Creating Layer relu4_1
I1109 05:12:20.976764 11395 net.cpp:394] relu4_1 <- conv4_1
I1109 05:12:20.976773 11395 net.cpp:345] relu4_1 -> conv4_1 (in-place)
I1109 05:12:20.976783 11395 net.cpp:96] Setting up relu4_1
I1109 05:12:20.976793 11395 net.cpp:103] Top shape: 10 512 28 28 (4014080)
I1109 05:12:20.976800 11395 layer_factory.hpp:78] Creating layer conv4_2
I1109 05:12:20.976811 11395 net.cpp:67] Creating Layer conv4_2
I1109 05:12:20.976817 11395 net.cpp:394] conv4_2 <- conv4_1
I1109 05:12:20.976838 11395 net.cpp:356] conv4_2 -> conv4_2
I1109 05:12:20.976848 11395 net.cpp:96] Setting up conv4_2
I1109 05:12:21.091450 11395 net.cpp:103] Top shape: 10 512 28 28 (4014080)
I1109 05:12:21.091503 11395 layer_factory.hpp:78] Creating layer relu4_2
I1109 05:12:21.091516 11395 net.cpp:67] Creating Layer relu4_2
I1109 05:12:21.091524 11395 net.cpp:394] relu4_2 <- conv4_2
I1109 05:12:21.091533 11395 net.cpp:345] relu4_2 -> conv4_2 (in-place)
I1109 05:12:21.091544 11395 net.cpp:96] Setting up relu4_2
I1109 05:12:21.091555 11395 net.cpp:103] Top shape: 10 512 28 28 (4014080)
I1109 05:12:21.091562 11395 layer_factory.hpp:78] Creating layer conv4_3
I1109 05:12:21.091572 11395 net.cpp:67] Creating Layer conv4_3
I1109 05:12:21.091577 11395 net.cpp:394] conv4_3 <- conv4_2
I1109 05:12:21.091588 11395 net.cpp:356] conv4_3 -> conv4_3
I1109 05:12:21.091598 11395 net.cpp:96] Setting up conv4_3
I1109 05:12:21.206533 11395 net.cpp:103] Top shape: 10 512 28 28 (4014080)
I1109 05:12:21.206574 11395 layer_factory.hpp:78] Creating layer relu4_3
I1109 05:12:21.206586 11395 net.cpp:67] Creating Layer relu4_3
I1109 05:12:21.206593 11395 net.cpp:394] relu4_3 <- conv4_3
I1109 05:12:21.206604 11395 net.cpp:345] relu4_3 -> conv4_3 (in-place)
I1109 05:12:21.206614 11395 net.cpp:96] Setting up relu4_3
I1109 05:12:21.206624 11395 net.cpp:103] Top shape: 10 512 28 28 (4014080)
I1109 05:12:21.206630 11395 layer_factory.hpp:78] Creating layer pool4
I1109 05:12:21.206642 11395 net.cpp:67] Creating Layer pool4
I1109 05:12:21.206648 11395 net.cpp:394] pool4 <- conv4_3
I1109 05:12:21.206656 11395 net.cpp:356] pool4 -> pool4
I1109 05:12:21.206666 11395 net.cpp:96] Setting up pool4
I1109 05:12:21.206678 11395 net.cpp:103] Top shape: 10 512 14 14 (1003520)
I1109 05:12:21.206684 11395 layer_factory.hpp:78] Creating layer conv5_1
I1109 05:12:21.206696 11395 net.cpp:67] Creating Layer conv5_1
I1109 05:12:21.206702 11395 net.cpp:394] conv5_1 <- pool4
I1109 05:12:21.206711 11395 net.cpp:356] conv5_1 -> conv5_1
I1109 05:12:21.206723 11395 net.cpp:96] Setting up conv5_1
I1109 05:12:21.321374 11395 net.cpp:103] Top shape: 10 512 14 14 (1003520)
I1109 05:12:21.321414 11395 layer_factory.hpp:78] Creating layer relu5_1
I1109 05:12:21.321427 11395 net.cpp:67] Creating Layer relu5_1
I1109 05:12:21.321435 11395 net.cpp:394] relu5_1 <- conv5_1
I1109 05:12:21.321449 11395 net.cpp:345] relu5_1 -> conv5_1 (in-place)
I1109 05:12:21.321460 11395 net.cpp:96] Setting up relu5_1
I1109 05:12:21.321470 11395 net.cpp:103] Top shape: 10 512 14 14 (1003520)
I1109 05:12:21.321476 11395 layer_factory.hpp:78] Creating layer conv5_2
I1109 05:12:21.321486 11395 net.cpp:67] Creating Layer conv5_2
I1109 05:12:21.321491 11395 net.cpp:394] conv5_2 <- conv5_1
I1109 05:12:21.321501 11395 net.cpp:356] conv5_2 -> conv5_2
I1109 05:12:21.321511 11395 net.cpp:96] Setting up conv5_2
I1109 05:12:21.436317 11395 net.cpp:103] Top shape: 10 512 14 14 (1003520)
I1109 05:12:21.436362 11395 layer_factory.hpp:78] Creating layer relu5_2
I1109 05:12:21.436374 11395 net.cpp:67] Creating Layer relu5_2
I1109 05:12:21.436383 11395 net.cpp:394] relu5_2 <- conv5_2
I1109 05:12:21.436393 11395 net.cpp:345] relu5_2 -> conv5_2 (in-place)
I1109 05:12:21.436403 11395 net.cpp:96] Setting up relu5_2
I1109 05:12:21.436414 11395 net.cpp:103] Top shape: 10 512 14 14 (1003520)
I1109 05:12:21.436419 11395 layer_factory.hpp:78] Creating layer conv5_3
I1109 05:12:21.436431 11395 net.cpp:67] Creating Layer conv5_3
I1109 05:12:21.436437 11395 net.cpp:394] conv5_3 <- conv5_2
I1109 05:12:21.436446 11395 net.cpp:356] conv5_3 -> conv5_3
I1109 05:12:21.436456 11395 net.cpp:96] Setting up conv5_3
I1109 05:12:21.551062 11395 net.cpp:103] Top shape: 10 512 14 14 (1003520)
I1109 05:12:21.551105 11395 layer_factory.hpp:78] Creating layer relu5_3
I1109 05:12:21.551118 11395 net.cpp:67] Creating Layer relu5_3
I1109 05:12:21.551126 11395 net.cpp:394] relu5_3 <- conv5_3
I1109 05:12:21.551136 11395 net.cpp:345] relu5_3 -> conv5_3 (in-place)
I1109 05:12:21.551151 11395 net.cpp:96] Setting up relu5_3
I1109 05:12:21.551175 11395 net.cpp:103] Top shape: 10 512 14 14 (1003520)
I1109 05:12:21.551182 11395 layer_factory.hpp:78] Creating layer pool5
I1109 05:12:21.551192 11395 net.cpp:67] Creating Layer pool5
I1109 05:12:21.551197 11395 net.cpp:394] pool5 <- conv5_3
I1109 05:12:21.551205 11395 net.cpp:356] pool5 -> pool5
I1109 05:12:21.551215 11395 net.cpp:96] Setting up pool5
I1109 05:12:21.551228 11395 net.cpp:103] Top shape: 10 512 7 7 (250880)
I1109 05:12:21.551234 11395 layer_factory.hpp:78] Creating layer fc6
I1109 05:12:21.551255 11395 net.cpp:67] Creating Layer fc6
I1109 05:12:21.551262 11395 net.cpp:394] fc6 <- pool5
I1109 05:12:21.551273 11395 net.cpp:356] fc6 -> fc6
I1109 05:12:21.551283 11395 net.cpp:96] Setting up fc6
I1109 05:12:26.512217 11395 net.cpp:103] Top shape: 10 4096 1 1 (40960)
I1109 05:12:26.512264 11395 layer_factory.hpp:78] Creating layer relu6
I1109 05:12:26.512276 11395 net.cpp:67] Creating Layer relu6
I1109 05:12:26.512284 11395 net.cpp:394] relu6 <- fc6
I1109 05:12:26.512295 11395 net.cpp:345] relu6 -> fc6 (in-place)
I1109 05:12:26.512305 11395 net.cpp:96] Setting up relu6
I1109 05:12:26.512326 11395 net.cpp:103] Top shape: 10 4096 1 1 (40960)
I1109 05:12:26.512332 11395 layer_factory.hpp:78] Creating layer drop6
I1109 05:12:26.512348 11395 net.cpp:67] Creating Layer drop6
I1109 05:12:26.512354 11395 net.cpp:394] drop6 <- fc6
I1109 05:12:26.512362 11395 net.cpp:345] drop6 -> fc6 (in-place)
I1109 05:12:26.512370 11395 net.cpp:96] Setting up drop6
I1109 05:12:26.512379 11395 net.cpp:103] Top shape: 10 4096 1 1 (40960)
I1109 05:12:26.512393 11395 layer_factory.hpp:78] Creating layer fc7
I1109 05:12:26.512403 11395 net.cpp:67] Creating Layer fc7
I1109 05:12:26.512408 11395 net.cpp:394] fc7 <- fc6
I1109 05:12:26.512416 11395 net.cpp:356] fc7 -> fc7
I1109 05:12:26.512426 11395 net.cpp:96] Setting up fc7
I1109 05:12:27.323874 11395 net.cpp:103] Top shape: 10 4096 1 1 (40960)
I1109 05:12:27.323918 11395 layer_factory.hpp:78] Creating layer relu7
I1109 05:12:27.323931 11395 net.cpp:67] Creating Layer relu7
I1109 05:12:27.323940 11395 net.cpp:394] relu7 <- fc7
I1109 05:12:27.323952 11395 net.cpp:345] relu7 -> fc7 (in-place)
I1109 05:12:27.323963 11395 net.cpp:96] Setting up relu7
I1109 05:12:27.323984 11395 net.cpp:103] Top shape: 10 4096 1 1 (40960)
I1109 05:12:27.323990 11395 layer_factory.hpp:78] Creating layer drop7
I1109 05:12:27.323998 11395 net.cpp:67] Creating Layer drop7
I1109 05:12:27.324003 11395 net.cpp:394] drop7 <- fc7
I1109 05:12:27.324013 11395 net.cpp:345] drop7 -> fc7 (in-place)
I1109 05:12:27.324023 11395 net.cpp:96] Setting up drop7
I1109 05:12:27.324028 11395 net.cpp:103] Top shape: 10 4096 1 1 (40960)
I1109 05:12:27.324034 11395 layer_factory.hpp:78] Creating layer fc8_2
I1109 05:12:27.324043 11395 net.cpp:67] Creating Layer fc8_2
I1109 05:12:27.324048 11395 net.cpp:394] fc8_2 <- fc7
I1109 05:12:27.324057 11395 net.cpp:356] fc8_2 -> fc8_2
I1109 05:12:27.324067 11395 net.cpp:96] Setting up fc8_2
I1109 05:12:27.324481 11395 net.cpp:103] Top shape: 10 2 1 1 (20)
I1109 05:12:27.324496 11395 layer_factory.hpp:78] Creating layer loss
I1109 05:12:27.324513 11395 net.cpp:67] Creating Layer loss
I1109 05:12:27.324519 11395 net.cpp:394] loss <- fc8_2
I1109 05:12:27.324528 11395 net.cpp:394] loss <- label
I1109 05:12:27.324539 11395 net.cpp:356] loss -> (automatic)
I1109 05:12:27.324548 11395 net.cpp:96] Setting up loss
I1109 05:12:27.324560 11395 net.cpp:103] Top shape: 1 1 1 1 (1)
I1109 05:12:27.324566 11395 net.cpp:109]     with loss weight 1
I1109 05:12:27.324606 11395 net.cpp:170] loss needs backward computation.
I1109 05:12:27.324614 11395 net.cpp:170] fc8_2 needs backward computation.
I1109 05:12:27.324619 11395 net.cpp:170] drop7 needs backward computation.
I1109 05:12:27.324623 11395 net.cpp:170] relu7 needs backward computation.
I1109 05:12:27.324627 11395 net.cpp:170] fc7 needs backward computation.
…
I1109 05:12:27.326462 11395 net.cpp:275] The NetState phase (1) differed from the phase (0) specified by a rule in layer data
I1109 05:12:27.326843 11395 net.cpp:39] Initializing net from parameters: 
name: "small"
layers {
  top: "data"
  top: "label"
  name: "data"
  type: IMAGE_DATA
  image_data_param {
    source: "/data/ad6813/devCaffe/caffe/data/soil_high_o/val.txt"
    batch_size: 4
    new_height: 256
    new_width: 256
  }
  include {
    phase: TEST
  }
  transform_param {
    mirror: true
    crop_size: 224
    mean_value: 86.752
    mean_value: 101.46
    mean_value: 104.6
  }
}
layers {
  bottom: "data"
  top: "conv1_1"
  name: "conv1_1"
  type: CONVOLUTION
  convolution_param {
    num_output: 64
    pad: 1
    kernel_size: 3
    weight_filler {
      type: "gaussian"
      std: 0.01
    }
    bias_filler {
      type: "constant"
      value: 0
    }
  }
}
layers {
  bottom: "conv1_1"
  top: "conv1_1"
  name: "relu1_1"
  type: RELU
}
layers {
  bottom: "conv1_1"
  top: "conv1_2"
  name: "conv1_2"
  type: CONVOLUTION
  convolution_param {
    num_output: 64
    pad: 1
    kernel_size: 3
    weight_filler {
      type: "gaussian"
      std: 0.01
    }
    bias_filler {
      type: "constant"
      value: 0
    }
  }
}
layers {
  bottom: "conv1_2"
  top: "conv1_2"
  name: "relu1_2"
  type: RELU
}
layers {
  bottom: "conv1_2"
  top: "pool1"
  name: "pool1"
  type: POOLING
  pooling_param {
    pool: MAX
    kernel_size: 2
    stride: 2
  }
}
layers {
  bottom: "pool1"
  top: "conv2_1"
  name: "conv2_1"
  type: CONVOLUTION
  convolution_param {
    num_output: 128
    pad: 1
    kernel_size: 3
    weight_filler {
      type: "gaussian"
      std: 0.01
    }
    bias_filler {
      type: "constant"
      value: 0
    }
  }
}
layers {
  bottom: "conv2_1"
  top: "conv2_1"
  name: "relu2_1"
  type: RELU
}
layers {
  bottom: "conv2_1"
  top: "conv2_2"
  name: "conv2_2"
  type: CONVOLUTION
  convolution_param {
    num_output: 128
    pad: 1
    kernel_size: 3
    weight_filler {
      type: "gaussian"
      std: 0.01
    }
    bias_filler {
      type: "constant"
      value: 0
    }
  }
}
layers {
  bottom: "conv2_2"
  top: "conv2_2"
  name: "relu2_2"
  type: RELU
}
layers {
  bottom: "conv2_2"
  top: "pool2"
  name: "pool2"
  type: POOLING
  pooling_param {
    pool: MAX
    kernel_size: 2
    stride: 2
  }
}
layers {
  bottom: "pool2"
  top: "conv3_1"
  name: "conv3_1"
  type: CONVOLUTION
  convolution_param {
    num_output: 256
    pad: 1
    kernel_size: 3
    weight_filler {
      type: "gaussian"
      std: 0.01
    }
    bias_filler {
      type: "constant"
      value: 0
    }
  }
}
layers {
  bottom: "conv3_1"
  top: "conv3_1"
  name: "relu3_1"
  type: RELU
}
layers {
  bottom: "conv3_1"
  top: "conv3_2"
  name: "conv3_2"
  type: CONVOLUTION
  convolution_param {
    num_output: 256
    pad: 1
    kernel_size: 3
    weight_filler {
      type: "gaussian"
      std: 0.01
    }
    bias_filler {
      type: "constant"
      value: 0
    }
  }
}
layers {
  bottom: "conv3_2"
  top: "conv3_2"
  name: "relu3_2"
  type: RELU
}
layers {
  bottom: "conv3_2"
  top: "conv3_3"
  name: "conv3_3"
  type: CONVOLUTION
  convolution_param {
    num_output: 256
    pad: 1
    kernel_size: 3
    weight_filler {
      type: "gaussian"
      std: 0.01
    }
    bias_filler {
      type: "constant"
      value: 0
    }
  }
}
layers {
  bottom: "conv3_3"
  top: "conv3_3"
  name: "relu3_3"
  type: RELU
}
layers {
  bottom: "conv3_3"
  top: "pool3"
  name: "pool3"
  type: POOLING
  pooling_param {
    pool: MAX
    kernel_size: 2
    stride: 2
  }
}
layers {
  bottom: "pool3"
  top: "conv4_1"
  name: "conv4_1"
  type: CONVOLUTION
  convolution_param {
    num_output: 512
    pad: 1
    kernel_size: 3
    weight_filler {
      type: "gaussian"
      std: 0.01
    }
    bias_filler {
      type: "constant"
      value: 0
    }
  }
}
layers {
  bottom: "conv4_1"
  top: "conv4_1"
  name: "relu4_1"
  type: RELU
}
layers {
  bottom: "conv4_1"
  top: "conv4_2"
  name: "conv4_2"
  type: CONVOLUTION
  convolution_param {
    num_output: 512
    pad: 1
    kernel_size: 3
    weight_filler {
      type: "gaussian"
      std: 0.01
    }
    bias_filler {
      type: "constant"
      value: 0
    }
  }
}
layers {
  bottom: "conv4_2"
  top: "conv4_2"
  name: "relu4_2"
  type: RELU
}
layers {
  bottom: "conv4_2"
  top: "conv4_3"
  name: "conv4_3"
  type: CONVOLUTION
  convolution_param {
    num_output: 512
    pad: 1
    kernel_size: 3
    weight_filler {
      type: "gaussian"
      std: 0.01
    }
    bias_filler {
      type: "constant"
      value: 0
    }
  }
}
layers {
  bottom: "conv4_3"
  top: "conv4_3"
  name: "relu4_3"
  type: RELU
}
layers {
  bottom: "conv4_3"
  top: "pool4"
  name: "pool4"
  type: POOLING
  pooling_param {
    pool: MAX
    kernel_size: 2
    stride: 2
  }
}
layers {
  bottom: "pool4"
  top: "conv5_1"
  name: "conv5_1"
  type: CONVOLUTION
  convolution_param {
    num_output: 512
    pad: 1
    kernel_size: 3
    weight_filler {
      type: "gaussian"
      std: 0.01
    }
    bias_filler {
      type: "constant"
      value: 0
    }
  }
}
layers {
  bottom: "conv5_1"
  top: "conv5_1"
  name: "relu5_1"
  type: RELU
}
layers {
  bottom: "conv5_1"
  top: "conv5_2"
  name: "conv5_2"
  type: CONVOLUTION
  convolution_param {
    num_output: 512
    pad: 1
    kernel_size: 3
    weight_filler {
      type: "gaussian"
      std: 0.01
    }
    bias_filler {
      type: "constant"
      value: 0
    }
  }
}
layers {
  bottom: "conv5_2"
  top: "conv5_2"
  name: "relu5_2"
  type: RELU
}
layers {
  bottom: "conv5_2"
  top: "conv5_3"
  name: "conv5_3"
  type: CONVOLUTION
  convolution_param {
    num_output: 512
    pad: 1
    kernel_size: 3
    weight_filler {
      type: "gaussian"
      std: 0.01
    }
    bias_filler {
      type: "constant"
      value: 0
    }
  }
}
layers {
  bottom: "conv5_3"
  top: "conv5_3"
  name: "relu5_3"
  type: RELU
}
layers {
  bottom: "conv5_3"
  top: "pool5"
  name: "pool5"
  type: POOLING
  pooling_param {
    pool: MAX
    kernel_size: 2
    stride: 2
  }
}
layers {
  bottom: "pool5"
  top: "fc6"
  name: "fc6"
  type: INNER_PRODUCT
  inner_product_param {
    num_output: 4096
    weight_filler {
      type: "gaussian"
      std: 0.01
    }
    bias_filler {
      type: "constant"
      value: 0
    }
  }
}
layers {
  bottom: "fc6"
  top: "fc6"
  name: "relu6"
  type: RELU
}
layers {
  bottom: "fc6"
  top: "fc6"
  name: "drop6"
  type: DROPOUT
  dropout_param {
    dropout_ratio: 0.5
  }
}
layers {
  bottom: "fc6"
  top: "fc7"
  name: "fc7"
  type: INNER_PRODUCT
  inner_product_param {
    num_output: 4096
    weight_filler {
      type: "gaussian"
      std: 0.01
    }
    bias_filler {
      type: "constant"
      value: 0
    }
  }
}
layers {
  bottom: "fc7"
  top: "fc7"
  name: "relu7"
  type: RELU
}
layers {
  bottom: "fc7"
  top: "fc7"
  name: "drop7"
  type: DROPOUT
  dropout_param {
    dropout_ratio: 0.5
  }
}
layers {
  bottom: "fc7"
  top: "fc8_2"
  name: "fc8_2"
  type: INNER_PRODUCT
  inner_product_param {
    num_output: 2
    weight_filler {
      type: "gaussian"
      std: 0.01
    }
    bias_filler {
      type: "constant"
      value: 0
    }
  }
}
layers {
  bottom: "fc8_2"
  bottom: "label"
  name: "loss"
  type: SOFTMAX_LOSS
}
layers {
  bottom: "fc8_2"
  bottom: "label"
  top: "accuracy"
  name: "accuracy"
  type: PER_CLASS_ACCURACY
  include {
    phase: TEST
  }
}
state {
  phase: TEST
}
I1109 05:12:27.327083 11395 layer_factory.hpp:78] Creating layer data
I1109 05:12:27.327101 11395 net.cpp:67] Creating Layer data
I1109 05:12:27.327110 11395 net.cpp:356] data -> data
I1109 05:12:27.327122 11395 net.cpp:356] data -> label
I1109 05:12:27.327132 11395 net.cpp:96] Setting up data
I1109 05:12:27.327138 11395 image_data_layer.cpp:34] Opening file /data/ad6813/devCaffe/caffe/data/soil_high_o/val.txt
I1109 05:12:27.327793 11395 image_data_layer.cpp:49] A total of 967 images.
I1109 05:12:27.341986 11395 image_data_layer.cpp:78] output data size: 4,3,224,224
I1109 05:12:27.342712 11395 net.cpp:103] Top shape: 4 3 224 224 (602112)
I1109 05:12:27.342730 11395 net.cpp:103] Top shape: 4 1 1 1 (4)
I1109 05:12:27.342737 11395 layer_factory.hpp:78] Creating layer label_data_1_split
I1109 05:12:27.342753 11395 net.cpp:67] Creating Layer label_data_1_split
I1109 05:12:27.342761 11395 net.cpp:394] label_data_1_split <- label
I1109 05:12:27.342771 11395 net.cpp:356] label_data_1_split -> label_data_1_split_0
I1109 05:12:27.342783 11395 net.cpp:356] label_data_1_split -> label_data_1_split_1
I1109 05:12:27.342792 11395 net.cpp:96] Setting up label_data_1_split
I1109 05:12:27.342803 11395 net.cpp:103] Top shape: 4 1 1 1 (4)
I1109 05:12:27.342808 11395 net.cpp:103] Top shape: 4 1 1 1 (4)
I1109 05:12:27.342813 11395 layer_factory.hpp:78] Creating layer conv1_1
I1109 05:12:27.342824 11395 net.cpp:67] Creating Layer conv1_1
I1109 05:12:27.342830 11395 net.cpp:394] conv1_1 <- data
I1109 05:12:27.342839 11395 net.cpp:356] conv1_1 -> conv1_1
I1109 05:12:27.342849 11395 net.cpp:96] Setting up conv1_1
I1109 05:12:27.343266 11395 net.cpp:103] Top shape: 4 64 224 224 (12845056)
I1109 05:12:27.343294 11395 layer_factory.hpp:78] Creating layer relu1_1
I1109 05:12:27.343304 11395 net.cpp:67] Creating Layer relu1_1
I1109 05:12:27.343310 11395 net.cpp:394] relu1_1 <- conv1_1
I1109 05:12:27.343319 11395 net.cpp:345] relu1_1 -> conv1_1 (in-place)
I1109 05:12:27.343338 11395 net.cpp:96] Setting up relu1_1
I1109 05:12:27.343350 11395 net.cpp:103] Top shape: 4 64 224 224 (12845056)
I1109 05:12:27.343358 11395 layer_factory.hpp:78] Creating layer conv1_2
I1109 05:12:27.343366 11395 net.cpp:67] Creating Layer conv1_2
I1109 05:12:27.343372 11395 net.cpp:394] conv1_2 <- conv1_1
I1109 05:12:27.343380 11395 net.cpp:356] conv1_2 -> conv1_2
I1109 05:12:27.343390 11395 net.cpp:96] Setting up conv1_2
I1109 05:12:27.345376 11395 net.cpp:103] Top shape: 4 64 224 224 (12845056)
I1109 05:12:27.345399 11395 layer_factory.hpp:78] Creating layer relu1_2
I1109 05:12:27.345409 11395 net.cpp:67] Creating Layer relu1_2
I1109 05:12:27.345415 11395 net.cpp:394] relu1_2 <- conv1_2
I1109 05:12:27.345423 11395 net.cpp:345] relu1_2 -> conv1_2 (in-place)
I1109 05:12:27.345432 11395 net.cpp:96] Setting up relu1_2
I1109 05:12:27.345443 11395 net.cpp:103] Top shape: 4 64 224 224 (12845056)
I1109 05:12:27.345448 11395 layer_factory.hpp:78] Creating layer pool1
I1109 05:12:27.345458 11395 net.cpp:67] Creating Layer pool1
I1109 05:12:27.345463 11395 net.cpp:394] pool1 <- conv1_2
I1109 05:12:27.345470 11395 net.cpp:356] pool1 -> pool1
I1109 05:12:27.345479 11395 net.cpp:96] Setting up pool1
I1109 05:12:27.345491 11395 net.cpp:103] Top shape: 4 64 112 112 (3211264)
I1109 05:12:27.345497 11395 layer_factory.hpp:78] Creating layer conv2_1
I1109 05:12:27.345505 11395 net.cpp:67] Creating Layer conv2_1
I1109 05:12:27.345511 11395 net.cpp:394] conv2_1 <- pool1
I1109 05:12:27.345520 11395 net.cpp:356] conv2_1 -> conv2_1
I1109 05:12:27.345528 11395 net.cpp:96] Setting up conv2_1
I1109 05:12:27.349521 11395 net.cpp:103] Top shape: 4 128 112 112 (6422528)
I1109 05:12:27.349550 11395 layer_factory.hpp:78] Creating layer relu2_1
I1109 05:12:27.349560 11395 net.cpp:67] Creating Layer relu2_1
I1109 05:12:27.349567 11395 net.cpp:394] relu2_1 <- conv2_1
I1109 05:12:27.349575 11395 net.cpp:345] relu2_1 -> conv2_1 (in-place)
I1109 05:12:27.349584 11395 net.cpp:96] Setting up relu2_1
I1109 05:12:27.349596 11395 net.cpp:103] Top shape: 4 128 112 112 (6422528)
I1109 05:12:27.349601 11395 layer_factory.hpp:78] Creating layer conv2_2
I1109 05:12:27.349611 11395 net.cpp:67] Creating Layer conv2_2
I1109 05:12:27.349616 11395 net.cpp:394] conv2_2 <- conv2_1
I1109 05:12:27.349623 11395 net.cpp:356] conv2_2 -> conv2_2
I1109 05:12:27.349633 11395 net.cpp:96] Setting up conv2_2
I1109 05:12:27.357044 11395 net.cpp:103] Top shape: 4 128 112 112 (6422528)
I1109 05:12:27.357069 11395 layer_factory.hpp:78] Creating layer relu2_2
I1109 05:12:27.357082 11395 net.cpp:67] Creating Layer relu2_2
I1109 05:12:27.357089 11395 net.cpp:394] relu2_2 <- conv2_2
I1109 05:12:27.357097 11395 net.cpp:345] relu2_2 -> conv2_2 (in-place)
I1109 05:12:27.357106 11395 net.cpp:96] Setting up relu2_2
I1109 05:12:27.357116 11395 net.cpp:103] Top shape: 4 128 112 112 (6422528)
I1109 05:12:27.357122 11395 layer_factory.hpp:78] Creating layer pool2
I1109 05:12:27.357133 11395 net.cpp:67] Creating Layer pool2
I1109 05:12:27.357139 11395 net.cpp:394] pool2 <- conv2_2
I1109 05:12:27.357147 11395 net.cpp:356] pool2 -> pool2
I1109 05:12:27.357156 11395 net.cpp:96] Setting up pool2
I1109 05:12:27.357167 11395 net.cpp:103] Top shape: 4 128 56 56 (1605632)
I1109 05:12:27.357173 11395 layer_factory.hpp:78] Creating layer conv3_1
I1109 05:12:27.357184 11395 net.cpp:67] Creating Layer conv3_1
I1109 05:12:27.357190 11395 net.cpp:394] conv3_1 <- pool2
I1109 05:12:27.357199 11395 net.cpp:356] conv3_1 -> conv3_1
I1109 05:12:27.357208 11395 net.cpp:96] Setting up conv3_1
I1109 05:12:27.371891 11395 net.cpp:103] Top shape: 4 256 56 56 (3211264)
I1109 05:12:27.371922 11395 layer_factory.hpp:78] Creating layer relu3_1
I1109 05:12:27.371933 11395 net.cpp:67] Creating Layer relu3_1
I1109 05:12:27.371940 11395 net.cpp:394] relu3_1 <- conv3_1
I1109 05:12:27.371953 11395 net.cpp:345] relu3_1 -> conv3_1 (in-place)
I1109 05:12:27.371963 11395 net.cpp:96] Setting up relu3_1
I1109 05:12:27.371973 11395 net.cpp:103] Top shape: 4 256 56 56 (3211264)
I1109 05:12:27.371978 11395 layer_factory.hpp:78] Creating layer conv3_2
I1109 05:12:27.372000 11395 net.cpp:67] Creating Layer conv3_2
I1109 05:12:27.372009 11395 net.cpp:394] conv3_2 <- conv3_1
I1109 05:12:27.372019 11395 net.cpp:356] conv3_2 -> conv3_2
I1109 05:12:27.372027 11395 net.cpp:96] Setting up conv3_2
I1109 05:12:27.401340 11395 net.cpp:103] Top shape: 4 256 56 56 (3211264)
I1109 05:12:27.401376 11395 layer_factory.hpp:78] Creating layer relu3_2
I1109 05:12:27.401388 11395 net.cpp:67] Creating Layer relu3_2
I1109 05:12:27.401396 11395 net.cpp:394] relu3_2 <- conv3_2
I1109 05:12:27.401406 11395 net.cpp:345] relu3_2 -> conv3_2 (in-place)
I1109 05:12:27.401419 11395 net.cpp:96] Setting up relu3_2
I1109 05:12:27.401429 11395 net.cpp:103] Top shape: 4 256 56 56 (3211264)
I1109 05:12:27.401435 11395 layer_factory.hpp:78] Creating layer conv3_3
I1109 05:12:27.401448 11395 net.cpp:67] Creating Layer conv3_3
I1109 05:12:27.401453 11395 net.cpp:394] conv3_3 <- conv3_2
I1109 05:12:27.401465 11395 net.cpp:356] conv3_3 -> conv3_3
I1109 05:12:27.401475 11395 net.cpp:96] Setting up conv3_3
I1109 05:12:27.430713 11395 net.cpp:103] Top shape: 4 256 56 56 (3211264)
I1109 05:12:27.430742 11395 layer_factory.hpp:78] Creating layer relu3_3
I1109 05:12:27.430753 11395 net.cpp:67] Creating Layer relu3_3
I1109 05:12:27.430759 11395 net.cpp:394] relu3_3 <- conv3_3
I1109 05:12:27.430771 11395 net.cpp:345] relu3_3 -> conv3_3 (in-place)
I1109 05:12:27.430781 11395 net.cpp:96] Setting up relu3_3
I1109 05:12:27.430790 11395 net.cpp:103] Top shape: 4 256 56 56 (3211264)
I1109 05:12:27.430798 11395 layer_factory.hpp:78] Creating layer pool3
I1109 05:12:27.430806 11395 net.cpp:67] Creating Layer pool3
I1109 05:12:27.430812 11395 net.cpp:394] pool3 <- conv3_3
I1109 05:12:27.430820 11395 net.cpp:356] pool3 -> pool3
I1109 05:12:27.430830 11395 net.cpp:96] Setting up pool3
I1109 05:12:27.430840 11395 net.cpp:103] Top shape: 4 256 28 28 (802816)
I1109 05:12:27.430846 11395 layer_factory.hpp:78] Creating layer conv4_1
I1109 05:12:27.430858 11395 net.cpp:67] Creating Layer conv4_1
I1109 05:12:27.430865 11395 net.cpp:394] conv4_1 <- pool3
I1109 05:12:27.430872 11395 net.cpp:356] conv4_1 -> conv4_1
I1109 05:12:27.430881 11395 net.cpp:96] Setting up conv4_1
I1109 05:12:27.488733 11395 net.cpp:103] Top shape: 4 512 28 28 (1605632)
I1109 05:12:27.488764 11395 layer_factory.hpp:78] Creating layer relu4_1
I1109 05:12:27.488775 11395 net.cpp:67] Creating Layer relu4_1
I1109 05:12:27.488780 11395 net.cpp:394] relu4_1 <- conv4_1
I1109 05:12:27.488793 11395 net.cpp:345] relu4_1 -> conv4_1 (in-place)
I1109 05:12:27.488803 11395 net.cpp:96] Setting up relu4_1
I1109 05:12:27.488813 11395 net.cpp:103] Top shape: 4 512 28 28 (1605632)
I1109 05:12:27.488821 11395 layer_factory.hpp:78] Creating layer conv4_2
I1109 05:12:27.488831 11395 net.cpp:67] Creating Layer conv4_2
I1109 05:12:27.488837 11395 net.cpp:394] conv4_2 <- conv4_1
I1109 05:12:27.488847 11395 net.cpp:356] conv4_2 -> conv4_2
I1109 05:12:27.488857 11395 net.cpp:96] Setting up conv4_2
I1109 05:12:27.603356 11395 net.cpp:103] Top shape: 4 512 28 28 (1605632)
I1109 05:12:27.603405 11395 layer_factory.hpp:78] Creating layer relu4_2
I1109 05:12:27.603421 11395 net.cpp:67] Creating Layer relu4_2
I1109 05:12:27.603430 11395 net.cpp:394] relu4_2 <- conv4_2
I1109 05:12:27.603440 11395 net.cpp:345] relu4_2 -> conv4_2 (in-place)
I1109 05:12:27.603451 11395 net.cpp:96] Setting up relu4_2
I1109 05:12:27.603461 11395 net.cpp:103] Top shape: 4 512 28 28 (1605632)
I1109 05:12:27.603467 11395 layer_factory.hpp:78] Creating layer conv4_3
I1109 05:12:27.603482 11395 net.cpp:67] Creating Layer conv4_3
I1109 05:12:27.603487 11395 net.cpp:394] conv4_3 <- conv4_2
I1109 05:12:27.603495 11395 net.cpp:356] conv4_3 -> conv4_3
I1109 05:12:27.603507 11395 net.cpp:96] Setting up conv4_3
I1109 05:12:27.718426 11395 net.cpp:103] Top shape: 4 512 28 28 (1605632)
I1109 05:12:27.718469 11395 layer_factory.hpp:78] Creating layer relu4_3
I1109 05:12:27.718482 11395 net.cpp:67] Creating Layer relu4_3
I1109 05:12:27.718490 11395 net.cpp:394] relu4_3 <- conv4_3
I1109 05:12:27.718500 11395 net.cpp:345] relu4_3 -> conv4_3 (in-place)
I1109 05:12:27.718526 11395 net.cpp:96] Setting up relu4_3
I1109 05:12:27.718538 11395 net.cpp:103] Top shape: 4 512 28 28 (1605632)
I1109 05:12:27.718544 11395 layer_factory.hpp:78] Creating layer pool4
I1109 05:12:27.718555 11395 net.cpp:67] Creating Layer pool4
I1109 05:12:27.718560 11395 net.cpp:394] pool4 <- conv4_3
I1109 05:12:27.718569 11395 net.cpp:356] pool4 -> pool4
I1109 05:12:27.718579 11395 net.cpp:96] Setting up pool4
I1109 05:12:27.718591 11395 net.cpp:103] Top shape: 4 512 14 14 (401408)
I1109 05:12:27.718597 11395 layer_factory.hpp:78] Creating layer conv5_1
I1109 05:12:27.718610 11395 net.cpp:67] Creating Layer conv5_1
I1109 05:12:27.718616 11395 net.cpp:394] conv5_1 <- pool4
I1109 05:12:27.718624 11395 net.cpp:356] conv5_1 -> conv5_1
I1109 05:12:27.718633 11395 net.cpp:96] Setting up conv5_1
I1109 05:12:27.833168 11395 net.cpp:103] Top shape: 4 512 14 14 (401408)
I1109 05:12:27.833212 11395 layer_factory.hpp:78] Creating layer relu5_1
I1109 05:12:27.833225 11395 net.cpp:67] Creating Layer relu5_1
I1109 05:12:27.833233 11395 net.cpp:394] relu5_1 <- conv5_1
I1109 05:12:27.833246 11395 net.cpp:345] relu5_1 -> conv5_1 (in-place)
I1109 05:12:27.833257 11395 net.cpp:96] Setting up relu5_1
I1109 05:12:27.833269 11395 net.cpp:103] Top shape: 4 512 14 14 (401408)
I1109 05:12:27.833276 11395 layer_factory.hpp:78] Creating layer conv5_2
I1109 05:12:27.833284 11395 net.cpp:67] Creating Layer conv5_2
I1109 05:12:27.833291 11395 net.cpp:394] conv5_2 <- conv5_1
I1109 05:12:27.833298 11395 net.cpp:356] conv5_2 -> conv5_2
I1109 05:12:27.833308 11395 net.cpp:96] Setting up conv5_2
I1109 05:12:27.948271 11395 net.cpp:103] Top shape: 4 512 14 14 (401408)
I1109 05:12:27.948315 11395 layer_factory.hpp:78] Creating layer relu5_2
I1109 05:12:27.948328 11395 net.cpp:67] Creating Layer relu5_2
I1109 05:12:27.948335 11395 net.cpp:394] relu5_2 <- conv5_2
I1109 05:12:27.948345 11395 net.cpp:345] relu5_2 -> conv5_2 (in-place)
I1109 05:12:27.948356 11395 net.cpp:96] Setting up relu5_2
I1109 05:12:27.948366 11395 net.cpp:103] Top shape: 4 512 14 14 (401408)
I1109 05:12:27.948372 11395 layer_factory.hpp:78] Creating layer conv5_3
I1109 05:12:27.948385 11395 net.cpp:67] Creating Layer conv5_3
I1109 05:12:27.948391 11395 net.cpp:394] conv5_3 <- conv5_2
I1109 05:12:27.948400 11395 net.cpp:356] conv5_3 -> conv5_3
I1109 05:12:27.948410 11395 net.cpp:96] Setting up conv5_3
I1109 05:12:28.063177 11395 net.cpp:103] Top shape: 4 512 14 14 (401408)
I1109 05:12:28.063221 11395 layer_factory.hpp:78] Creating layer relu5_3
I1109 05:12:28.063235 11395 net.cpp:67] Creating Layer relu5_3
I1109 05:12:28.063242 11395 net.cpp:394] relu5_3 <- conv5_3
I1109 05:12:28.063253 11395 net.cpp:345] relu5_3 -> conv5_3 (in-place)
I1109 05:12:28.063264 11395 net.cpp:96] Setting up relu5_3
I1109 05:12:28.063274 11395 net.cpp:103] Top shape: 4 512 14 14 (401408)
I1109 05:12:28.063280 11395 layer_factory.hpp:78] Creating layer pool5
I1109 05:12:28.063299 11395 net.cpp:67] Creating Layer pool5
I1109 05:12:28.063307 11395 net.cpp:394] pool5 <- conv5_3
I1109 05:12:28.063314 11395 net.cpp:356] pool5 -> pool5
I1109 05:12:28.063324 11395 net.cpp:96] Setting up pool5
I1109 05:12:28.063336 11395 net.cpp:103] Top shape: 4 512 7 7 (100352)
I1109 05:12:28.063343 11395 layer_factory.hpp:78] Creating layer fc6
I1109 05:12:28.063354 11395 net.cpp:67] Creating Layer fc6
I1109 05:12:28.063360 11395 net.cpp:394] fc6 <- pool5
I1109 05:12:28.063369 11395 net.cpp:356] fc6 -> fc6
I1109 05:12:28.063379 11395 net.cpp:96] Setting up fc6
I1109 05:12:33.027515 11395 net.cpp:103] Top shape: 4 4096 1 1 (16384)
I1109 05:12:33.027561 11395 layer_factory.hpp:78] Creating layer relu6
I1109 05:12:33.027576 11395 net.cpp:67] Creating Layer relu6
I1109 05:12:33.027585 11395 net.cpp:394] relu6 <- fc6
I1109 05:12:33.027596 11395 net.cpp:345] relu6 -> fc6 (in-place)
I1109 05:12:33.027607 11395 net.cpp:96] Setting up relu6
I1109 05:12:33.027628 11395 net.cpp:103] Top shape: 4 4096 1 1 (16384)
I1109 05:12:33.027634 11395 layer_factory.hpp:78] Creating layer drop6
I1109 05:12:33.027662 11395 net.cpp:67] Creating Layer drop6
I1109 05:12:33.027667 11395 net.cpp:394] drop6 <- fc6
I1109 05:12:33.027675 11395 net.cpp:345] drop6 -> fc6 (in-place)
I1109 05:12:33.027684 11395 net.cpp:96] Setting up drop6
I1109 05:12:33.027690 11395 net.cpp:103] Top shape: 4 4096 1 1 (16384)
I1109 05:12:33.027696 11395 layer_factory.hpp:78] Creating layer fc7
I1109 05:12:33.027705 11395 net.cpp:67] Creating Layer fc7
I1109 05:12:33.027710 11395 net.cpp:394] fc7 <- fc6
I1109 05:12:33.027722 11395 net.cpp:356] fc7 -> fc7
I1109 05:12:33.027732 11395 net.cpp:96] Setting up fc7
I1109 05:12:33.839166 11395 net.cpp:103] Top shape: 4 4096 1 1 (16384)
I1109 05:12:33.839210 11395 layer_factory.hpp:78] Creating layer relu7
I1109 05:12:33.839223 11395 net.cpp:67] Creating Layer relu7
I1109 05:12:33.839231 11395 net.cpp:394] relu7 <- fc7
I1109 05:12:33.839244 11395 net.cpp:345] relu7 -> fc7 (in-place)
I1109 05:12:33.839256 11395 net.cpp:96] Setting up relu7
I1109 05:12:33.839277 11395 net.cpp:103] Top shape: 4 4096 1 1 (16384)
I1109 05:12:33.839282 11395 layer_factory.hpp:78] Creating layer drop7
I1109 05:12:33.839290 11395 net.cpp:67] Creating Layer drop7
I1109 05:12:33.839296 11395 net.cpp:394] drop7 <- fc7
I1109 05:12:33.839303 11395 net.cpp:345] drop7 -> fc7 (in-place)
I1109 05:12:33.839311 11395 net.cpp:96] Setting up drop7
I1109 05:12:33.839318 11395 net.cpp:103] Top shape: 4 4096 1 1 (16384)
I1109 05:12:33.839323 11395 layer_factory.hpp:78] Creating layer fc8_2
I1109 05:12:33.839335 11395 net.cpp:67] Creating Layer fc8_2
I1109 05:12:33.839341 11395 net.cpp:394] fc8_2 <- fc7
I1109 05:12:33.839350 11395 net.cpp:356] fc8_2 -> fc8_2
I1109 05:12:33.839360 11395 net.cpp:96] Setting up fc8_2
I1109 05:12:33.839772 11395 net.cpp:103] Top shape: 4 2 1 1 (8)
I1109 05:12:33.839790 11395 layer_factory.hpp:78] Creating layer fc8_2_fc8_2_0_split
I1109 05:12:33.839799 11395 net.cpp:67] Creating Layer fc8_2_fc8_2_0_split
I1109 05:12:33.839804 11395 net.cpp:394] fc8_2_fc8_2_0_split <- fc8_2
I1109 05:12:33.839812 11395 net.cpp:356] fc8_2_fc8_2_0_split -> fc8_2_fc8_2_0_split_0
I1109 05:12:33.839823 11395 net.cpp:356] fc8_2_fc8_2_0_split -> fc8_2_fc8_2_0_split_1
I1109 05:12:33.839831 11395 net.cpp:96] Setting up fc8_2_fc8_2_0_split
I1109 05:12:33.839838 11395 net.cpp:103] Top shape: 4 2 1 1 (8)
I1109 05:12:33.839843 11395 net.cpp:103] Top shape: 4 2 1 1 (8)
I1109 05:12:33.839848 11395 layer_factory.hpp:78] Creating layer loss
I1109 05:12:33.839861 11395 net.cpp:67] Creating Layer loss
I1109 05:12:33.839867 11395 net.cpp:394] loss <- fc8_2_fc8_2_0_split_0
I1109 05:12:33.839874 11395 net.cpp:394] loss <- label_data_1_split_0
I1109 05:12:33.839882 11395 net.cpp:356] loss -> (automatic)
I1109 05:12:33.839890 11395 net.cpp:96] Setting up loss
I1109 05:12:33.839901 11395 net.cpp:103] Top shape: 1 1 1 1 (1)
I1109 05:12:33.839907 11395 net.cpp:109]     with loss weight 1
I1109 05:12:33.839927 11395 layer_factory.hpp:78] Creating layer accuracy
I1109 05:12:33.839941 11395 net.cpp:67] Creating Layer accuracy
I1109 05:12:33.839947 11395 net.cpp:394] accuracy <- fc8_2_fc8_2_0_split_1
I1109 05:12:33.839954 11395 net.cpp:394] accuracy <- label_data_1_split_1
I1109 05:12:33.839962 11395 net.cpp:356] accuracy -> accuracy
I1109 05:12:33.839972 11395 net.cpp:96] Setting up accuracy
I1109 05:12:33.839982 11395 net.cpp:103] Top shape: 1 1 1 4 (4)
I1109 05:12:33.839988 11395 net.cpp:172] accuracy does not need backward computation.
I1109 05:12:33.839993 11395 net.cpp:170] loss needs backward computation.
I1109 05:12:33.839999 11395 net.cpp:170] fc8_2_fc8_2_0_split needs backward computation.
I1109 05:12:33.840004 11395 net.cpp:170] fc8_2 needs backward computation.
I1109 05:12:33.840009 11395 net.cpp:170] drop7 needs backward computation.
…
