…
I1118 14:21:37.695437 11174 net.cpp:275] The NetState phase (0) differed from the phase (1) specified by a rule in layer accuracy
I1118 14:21:37.695631 11174 net.cpp:39] Initializing net from parameters: 
name: "small"
layers {
  top: "data"
  top: "label"
  name: "data"
  type: IMAGE_DATA
  image_data_param {
    source: "/data/ad6813/devCaffe/caffe/data/soil_high_o/train.txt"
    batch_size: 32
    new_height: 256
    new_width: 256
  }
  include {
    phase: TRAIN
  }
  transform_param {
    mirror: true
    crop_size: 224
    mean_value: 86.752
    mean_value: 101.46
    mean_value: 104.6
  }
}
layers {
  bottom: "data"
  top: "conv1_1"
  name: "conv1_1"
  type: CONVOLUTION
  convolution_param {
    num_output: 64
    pad: 1
    kernel_size: 3
    weight_filler {
      type: "gaussian"
      std: 0.01
    }
    bias_filler {
      type: "constant"
      value: 0
    }
  }
}
layers {
  bottom: "conv1_1"
  top: "conv1_1"
  name: "relu1_1"
  type: RELU
}
layers {
  bottom: "conv1_1"
  top: "conv1_2"
  name: "conv1_2"
  type: CONVOLUTION
  convolution_param {
    num_output: 64
    pad: 1
    kernel_size: 3
    weight_filler {
      type: "gaussian"
      std: 0.01
    }
    bias_filler {
      type: "constant"
      value: 0
    }
  }
}
layers {
  bottom: "conv1_2"
  top: "conv1_2"
  name: "relu1_2"
  type: RELU
}
layers {
  bottom: "conv1_2"
  top: "pool1"
  name: "pool1"
  type: POOLING
  pooling_param {
    pool: MAX
    kernel_size: 2
    stride: 2
  }
}
layers {
  bottom: "pool1"
  top: "conv2_1"
  name: "conv2_1"
  type: CONVOLUTION
  convolution_param {
    num_output: 128
    pad: 1
    kernel_size: 3
    weight_filler {
      type: "gaussian"
      std: 0.01
    }
    bias_filler {
      type: "constant"
      value: 0
    }
  }
}
layers {
  bottom: "conv2_1"
  top: "conv2_1"
  name: "relu2_1"
  type: RELU
}
layers {
  bottom: "conv2_1"
  top: "conv2_2"
  name: "conv2_2"
  type: CONVOLUTION
  convolution_param {
    num_output: 128
    pad: 1
    kernel_size: 3
    weight_filler {
      type: "gaussian"
      std: 0.01
    }
    bias_filler {
      type: "constant"
      value: 0
    }
  }
}
layers {
  bottom: "conv2_2"
  top: "conv2_2"
  name: "relu2_2"
  type: RELU
}
layers {
  bottom: "conv2_2"
  top: "pool2"
  name: "pool2"
  type: POOLING
  pooling_param {
    pool: MAX
    kernel_size: 2
    stride: 2
  }
}
layers {
  bottom: "pool2"
  top: "conv3_1"
  name: "conv3_1"
  type: CONVOLUTION
  convolution_param {
    num_output: 256
    pad: 1
    kernel_size: 3
    weight_filler {
      type: "gaussian"
      std: 0.01
    }
    bias_filler {
      type: "constant"
      value: 0
    }
  }
}
layers {
  bottom: "conv3_1"
  top: "conv3_1"
  name: "relu3_1"
  type: RELU
}
layers {
  bottom: "conv3_1"
  top: "conv3_2"
  name: "conv3_2"
  type: CONVOLUTION
  convolution_param {
    num_output: 256
    pad: 1
    kernel_size: 3
    weight_filler {
      type: "gaussian"
      std: 0.01
    }
    bias_filler {
      type: "constant"
      value: 0
    }
  }
}
layers {
  bottom: "conv3_2"
  top: "conv3_2"
  name: "relu3_2"
  type: RELU
}
layers {
  bottom: "conv3_2"
  top: "conv3_3"
  name: "conv3_3"
  type: CONVOLUTION
  convolution_param {
    num_output: 256
    pad: 1
    kernel_size: 3
    weight_filler {
      type: "gaussian"
      std: 0.01
    }
    bias_filler {
      type: "constant"
      value: 0
    }
  }
}
layers {
  bottom: "conv3_3"
  top: "conv3_3"
  name: "relu3_3"
  type: RELU
}
layers {
  bottom: "conv3_3"
  top: "pool3"
  name: "pool3"
  type: POOLING
  pooling_param {
    pool: MAX
    kernel_size: 2
    stride: 2
  }
}
layers {
  bottom: "pool3"
  top: "conv4_1"
  name: "conv4_1"
  type: CONVOLUTION
  convolution_param {
    num_output: 512
    pad: 1
    kernel_size: 3
    weight_filler {
      type: "gaussian"
      std: 0.01
    }
    bias_filler {
      type: "constant"
      value: 0
    }
  }
}
layers {
  bottom: "conv4_1"
  top: "conv4_1"
  name: "relu4_1"
  type: RELU
}
layers {
  bottom: "conv4_1"
  top: "conv4_2"
  name: "conv4_2"
  type: CONVOLUTION
  convolution_param {
    num_output: 512
    pad: 1
    kernel_size: 3
    weight_filler {
      type: "gaussian"
      std: 0.01
    }
    bias_filler {
      type: "constant"
      value: 0
    }
  }
}
layers {
  bottom: "conv4_2"
  top: "conv4_2"
  name: "relu4_2"
  type: RELU
}
layers {
  bottom: "conv4_2"
  top: "conv4_3"
  name: "conv4_3"
  type: CONVOLUTION
  convolution_param {
    num_output: 512
    pad: 1
    kernel_size: 3
    weight_filler {
      type: "gaussian"
      std: 0.01
    }
    bias_filler {
      type: "constant"
      value: 0
    }
  }
}
layers {
  bottom: "conv4_3"
  top: "conv4_3"
  name: "relu4_3"
  type: RELU
}
layers {
  bottom: "conv4_3"
  top: "pool4"
  name: "pool4"
  type: POOLING
  pooling_param {
    pool: MAX
    kernel_size: 2
    stride: 2
  }
}
layers {
  bottom: "pool4"
  top: "conv5_1"
  name: "conv5_1"
  type: CONVOLUTION
  convolution_param {
    num_output: 512
    pad: 1
    kernel_size: 3
    weight_filler {
      type: "gaussian"
      std: 0.01
    }
    bias_filler {
      type: "constant"
      value: 0
    }
  }
}
layers {
  bottom: "conv5_1"
  top: "conv5_1"
  name: "relu5_1"
  type: RELU
}
layers {
  bottom: "conv5_1"
  top: "conv5_2"
  name: "conv5_2"
  type: CONVOLUTION
  convolution_param {
    num_output: 512
    pad: 1
    kernel_size: 3
    weight_filler {
      type: "gaussian"
      std: 0.01
    }
    bias_filler {
      type: "constant"
      value: 0
    }
  }
}
layers {
  bottom: "conv5_2"
  top: "conv5_2"
  name: "relu5_2"
  type: RELU
}
layers {
  bottom: "conv5_2"
  top: "conv5_3"
  name: "conv5_3"
  type: CONVOLUTION
  convolution_param {
    num_output: 512
    pad: 1
    kernel_size: 3
    weight_filler {
      type: "gaussian"
      std: 0.01
    }
    bias_filler {
      type: "constant"
      value: 0
    }
  }
}
layers {
  bottom: "conv5_3"
  top: "conv5_3"
  name: "relu5_3"
  type: RELU
}
layers {
  bottom: "conv5_3"
  top: "pool5"
  name: "pool5"
  type: POOLING
  pooling_param {
    pool: MAX
    kernel_size: 2
    stride: 2
  }
}
layers {
  bottom: "pool5"
  top: "fc6"
  name: "fc6"
  type: INNER_PRODUCT
  inner_product_param {
    num_output: 4096
    weight_filler {
      type: "gaussian"
      std: 0.01
    }
    bias_filler {
      type: "constant"
      value: 0
    }
  }
}
layers {
  bottom: "fc6"
  top: "fc6"
  name: "relu6"
  type: RELU
}
layers {
  bottom: "fc6"
  top: "fc6"
  name: "drop6"
  type: DROPOUT
  dropout_param {
    dropout_ratio: 0.5
  }
}
layers {
  bottom: "fc6"
  top: "fc7"
  name: "fc7"
  type: INNER_PRODUCT
  inner_product_param {
    num_output: 4096
    weight_filler {
      type: "gaussian"
      std: 0.01
    }
    bias_filler {
      type: "constant"
      value: 0
    }
  }
}
layers {
  bottom: "fc7"
  top: "fc7"
  name: "relu7"
  type: RELU
}
layers {
  bottom: "fc7"
  top: "fc7"
  name: "drop7"
  type: DROPOUT
  dropout_param {
    dropout_ratio: 0.5
  }
}
layers {
  bottom: "fc7"
  top: "fc8_2"
  name: "fc8_2"
  type: INNER_PRODUCT
  inner_product_param {
    num_output: 2
    weight_filler {
      type: "gaussian"
      std: 0.01
    }
    bias_filler {
      type: "constant"
      value: 0
    }
  }
}
layers {
  bottom: "fc8_2"
  bottom: "label"
  name: "loss"
  type: SOFTMAX_LOSS
}
state {
  phase: TRAIN
}
I1118 14:21:37.695750 11174 layer_factory.hpp:78] Creating layer data
I1118 14:21:37.695766 11174 net.cpp:67] Creating Layer data
I1118 14:21:37.695772 11174 net.cpp:356] data -> data
I1118 14:21:37.695791 11174 net.cpp:356] data -> label
I1118 14:21:37.695798 11174 net.cpp:96] Setting up data
I1118 14:21:37.695804 11174 image_data_layer.cpp:34] Opening file /data/ad6813/devCaffe/caffe/data/soil_high_o/train.txt
I1118 14:21:37.737279 11174 image_data_layer.cpp:49] A total of 120113 images.
I1118 14:21:37.742846 11174 image_data_layer.cpp:78] output data size: 32,3,224,224
I1118 14:21:37.745820 11174 net.cpp:103] Top shape: 32 3 224 224 (4816896)
I1118 14:21:37.745844 11174 net.cpp:103] Top shape: 32 1 1 1 (32)
I1118 14:21:37.745851 11174 layer_factory.hpp:78] Creating layer conv1_1
I1118 14:21:37.745865 11174 net.cpp:67] Creating Layer conv1_1
I1118 14:21:37.745869 11174 net.cpp:394] conv1_1 <- data
I1118 14:21:37.745883 11174 net.cpp:356] conv1_1 -> conv1_1
I1118 14:21:37.745894 11174 net.cpp:96] Setting up conv1_1
I1118 14:21:37.935237 11174 net.cpp:103] Top shape: 32 64 224 224 (102760448)
I1118 14:21:37.935271 11174 layer_factory.hpp:78] Creating layer relu1_1
I1118 14:21:37.935281 11174 net.cpp:67] Creating Layer relu1_1
I1118 14:21:37.935286 11174 net.cpp:394] relu1_1 <- conv1_1
I1118 14:21:37.935292 11174 net.cpp:345] relu1_1 -> conv1_1 (in-place)
I1118 14:21:37.935299 11174 net.cpp:96] Setting up relu1_1
I1118 14:21:37.935308 11174 net.cpp:103] Top shape: 32 64 224 224 (102760448)
I1118 14:21:37.935312 11174 layer_factory.hpp:78] Creating layer conv1_2
I1118 14:21:37.935318 11174 net.cpp:67] Creating Layer conv1_2
I1118 14:21:37.935322 11174 net.cpp:394] conv1_2 <- conv1_1
I1118 14:21:37.935327 11174 net.cpp:356] conv1_2 -> conv1_2
I1118 14:21:37.935333 11174 net.cpp:96] Setting up conv1_2
I1118 14:21:37.936404 11174 net.cpp:103] Top shape: 32 64 224 224 (102760448)
I1118 14:21:37.936416 11174 layer_factory.hpp:78] Creating layer relu1_2
I1118 14:21:37.936422 11174 net.cpp:67] Creating Layer relu1_2
I1118 14:21:37.936425 11174 net.cpp:394] relu1_2 <- conv1_2
I1118 14:21:37.936431 11174 net.cpp:345] relu1_2 -> conv1_2 (in-place)
I1118 14:21:37.936436 11174 net.cpp:96] Setting up relu1_2
I1118 14:21:37.936442 11174 net.cpp:103] Top shape: 32 64 224 224 (102760448)
I1118 14:21:37.936445 11174 layer_factory.hpp:78] Creating layer pool1
I1118 14:21:37.936452 11174 net.cpp:67] Creating Layer pool1
I1118 14:21:37.936455 11174 net.cpp:394] pool1 <- conv1_2
I1118 14:21:37.936461 11174 net.cpp:356] pool1 -> pool1
I1118 14:21:37.936466 11174 net.cpp:96] Setting up pool1
I1118 14:21:37.936501 11174 net.cpp:103] Top shape: 32 64 112 112 (25690112)
I1118 14:21:37.936508 11174 layer_factory.hpp:78] Creating layer conv2_1
I1118 14:21:37.936513 11174 net.cpp:67] Creating Layer conv2_1
I1118 14:21:37.936517 11174 net.cpp:394] conv2_1 <- pool1
I1118 14:21:37.936523 11174 net.cpp:356] conv2_1 -> conv2_1
I1118 14:21:37.936535 11174 net.cpp:96] Setting up conv2_1
I1118 14:21:37.938498 11174 net.cpp:103] Top shape: 32 128 112 112 (51380224)
I1118 14:21:37.938511 11174 layer_factory.hpp:78] Creating layer relu2_1
I1118 14:21:37.938516 11174 net.cpp:67] Creating Layer relu2_1
I1118 14:21:37.938519 11174 net.cpp:394] relu2_1 <- conv2_1
I1118 14:21:37.938524 11174 net.cpp:345] relu2_1 -> conv2_1 (in-place)
I1118 14:21:37.938529 11174 net.cpp:96] Setting up relu2_1
I1118 14:21:37.938534 11174 net.cpp:103] Top shape: 32 128 112 112 (51380224)
I1118 14:21:37.938537 11174 layer_factory.hpp:78] Creating layer conv2_2
I1118 14:21:37.938544 11174 net.cpp:67] Creating Layer conv2_2
I1118 14:21:37.938549 11174 net.cpp:394] conv2_2 <- conv2_1
I1118 14:21:37.938555 11174 net.cpp:356] conv2_2 -> conv2_2
I1118 14:21:37.938560 11174 net.cpp:96] Setting up conv2_2
I1118 14:21:37.942335 11174 net.cpp:103] Top shape: 32 128 112 112 (51380224)
I1118 14:21:37.942348 11174 layer_factory.hpp:78] Creating layer relu2_2
I1118 14:21:37.942353 11174 net.cpp:67] Creating Layer relu2_2
I1118 14:21:37.942355 11174 net.cpp:394] relu2_2 <- conv2_2
I1118 14:21:37.942363 11174 net.cpp:345] relu2_2 -> conv2_2 (in-place)
I1118 14:21:37.942368 11174 net.cpp:96] Setting up relu2_2
I1118 14:21:37.942373 11174 net.cpp:103] Top shape: 32 128 112 112 (51380224)
I1118 14:21:37.942384 11174 layer_factory.hpp:78] Creating layer pool2
I1118 14:21:37.942389 11174 net.cpp:67] Creating Layer pool2
I1118 14:21:37.942391 11174 net.cpp:394] pool2 <- conv2_2
I1118 14:21:37.942396 11174 net.cpp:356] pool2 -> pool2
I1118 14:21:37.942400 11174 net.cpp:96] Setting up pool2
I1118 14:21:37.942406 11174 net.cpp:103] Top shape: 32 128 56 56 (12845056)
I1118 14:21:37.942409 11174 layer_factory.hpp:78] Creating layer conv3_1
I1118 14:21:37.942421 11174 net.cpp:67] Creating Layer conv3_1
I1118 14:21:37.942425 11174 net.cpp:394] conv3_1 <- pool2
I1118 14:21:37.942430 11174 net.cpp:356] conv3_1 -> conv3_1
I1118 14:21:37.942435 11174 net.cpp:96] Setting up conv3_1
I1118 14:21:37.949898 11174 net.cpp:103] Top shape: 32 256 56 56 (25690112)
I1118 14:21:37.949914 11174 layer_factory.hpp:78] Creating layer relu3_1
I1118 14:21:37.949919 11174 net.cpp:67] Creating Layer relu3_1
I1118 14:21:37.949923 11174 net.cpp:394] relu3_1 <- conv3_1
I1118 14:21:37.949928 11174 net.cpp:345] relu3_1 -> conv3_1 (in-place)
I1118 14:21:37.949933 11174 net.cpp:96] Setting up relu3_1
I1118 14:21:37.949937 11174 net.cpp:103] Top shape: 32 256 56 56 (25690112)
I1118 14:21:37.949940 11174 layer_factory.hpp:78] Creating layer conv3_2
I1118 14:21:37.949947 11174 net.cpp:67] Creating Layer conv3_2
I1118 14:21:37.949950 11174 net.cpp:394] conv3_2 <- conv3_1
I1118 14:21:37.949954 11174 net.cpp:356] conv3_2 -> conv3_2
I1118 14:21:37.949959 11174 net.cpp:96] Setting up conv3_2
I1118 14:21:37.964874 11174 net.cpp:103] Top shape: 32 256 56 56 (25690112)
I1118 14:21:37.964893 11174 layer_factory.hpp:78] Creating layer relu3_2
I1118 14:21:37.964900 11174 net.cpp:67] Creating Layer relu3_2
I1118 14:21:37.964903 11174 net.cpp:394] relu3_2 <- conv3_2
I1118 14:21:37.964911 11174 net.cpp:345] relu3_2 -> conv3_2 (in-place)
I1118 14:21:37.964917 11174 net.cpp:96] Setting up relu3_2
I1118 14:21:37.964922 11174 net.cpp:103] Top shape: 32 256 56 56 (25690112)
I1118 14:21:37.964926 11174 layer_factory.hpp:78] Creating layer conv3_3
I1118 14:21:37.964931 11174 net.cpp:67] Creating Layer conv3_3
I1118 14:21:37.964933 11174 net.cpp:394] conv3_3 <- conv3_2
I1118 14:21:37.964938 11174 net.cpp:356] conv3_3 -> conv3_3
I1118 14:21:37.964943 11174 net.cpp:96] Setting up conv3_3
I1118 14:21:37.979756 11174 net.cpp:103] Top shape: 32 256 56 56 (25690112)
I1118 14:21:37.979774 11174 layer_factory.hpp:78] Creating layer relu3_3
I1118 14:21:37.979784 11174 net.cpp:67] Creating Layer relu3_3
I1118 14:21:37.979787 11174 net.cpp:394] relu3_3 <- conv3_3
I1118 14:21:37.979794 11174 net.cpp:345] relu3_3 -> conv3_3 (in-place)
I1118 14:21:37.979801 11174 net.cpp:96] Setting up relu3_3
I1118 14:21:37.979806 11174 net.cpp:103] Top shape: 32 256 56 56 (25690112)
I1118 14:21:37.979809 11174 layer_factory.hpp:78] Creating layer pool3
I1118 14:21:37.979815 11174 net.cpp:67] Creating Layer pool3
I1118 14:21:37.979817 11174 net.cpp:394] pool3 <- conv3_3
I1118 14:21:37.979822 11174 net.cpp:356] pool3 -> pool3
I1118 14:21:37.979827 11174 net.cpp:96] Setting up pool3
I1118 14:21:37.979835 11174 net.cpp:103] Top shape: 32 256 28 28 (6422528)
I1118 14:21:37.979837 11174 layer_factory.hpp:78] Creating layer conv4_1
I1118 14:21:37.979845 11174 net.cpp:67] Creating Layer conv4_1
I1118 14:21:37.979847 11174 net.cpp:394] conv4_1 <- pool3
I1118 14:21:37.979853 11174 net.cpp:356] conv4_1 -> conv4_1
I1118 14:21:37.979859 11174 net.cpp:96] Setting up conv4_1
I1118 14:21:38.009218 11174 net.cpp:103] Top shape: 32 512 28 28 (12845056)
I1118 14:21:38.009246 11174 layer_factory.hpp:78] Creating layer relu4_1
I1118 14:21:38.009255 11174 net.cpp:67] Creating Layer relu4_1
I1118 14:21:38.009260 11174 net.cpp:394] relu4_1 <- conv4_1
I1118 14:21:38.009268 11174 net.cpp:345] relu4_1 -> conv4_1 (in-place)
I1118 14:21:38.009274 11174 net.cpp:96] Setting up relu4_1
I1118 14:21:38.009280 11174 net.cpp:103] Top shape: 32 512 28 28 (12845056)
I1118 14:21:38.009284 11174 layer_factory.hpp:78] Creating layer conv4_2
I1118 14:21:38.009290 11174 net.cpp:67] Creating Layer conv4_2
I1118 14:21:38.009294 11174 net.cpp:394] conv4_2 <- conv4_1
I1118 14:21:38.009310 11174 net.cpp:356] conv4_2 -> conv4_2
I1118 14:21:38.009315 11174 net.cpp:96] Setting up conv4_2
I1118 14:21:38.067119 11174 net.cpp:103] Top shape: 32 512 28 28 (12845056)
I1118 14:21:38.067152 11174 layer_factory.hpp:78] Creating layer relu4_2
I1118 14:21:38.067160 11174 net.cpp:67] Creating Layer relu4_2
I1118 14:21:38.067164 11174 net.cpp:394] relu4_2 <- conv4_2
I1118 14:21:38.067173 11174 net.cpp:345] relu4_2 -> conv4_2 (in-place)
I1118 14:21:38.067179 11174 net.cpp:96] Setting up relu4_2
I1118 14:21:38.067185 11174 net.cpp:103] Top shape: 32 512 28 28 (12845056)
I1118 14:21:38.067188 11174 layer_factory.hpp:78] Creating layer conv4_3
I1118 14:21:38.067194 11174 net.cpp:67] Creating Layer conv4_3
I1118 14:21:38.067198 11174 net.cpp:394] conv4_3 <- conv4_2
I1118 14:21:38.067201 11174 net.cpp:356] conv4_3 -> conv4_3
I1118 14:21:38.067208 11174 net.cpp:96] Setting up conv4_3
I1118 14:21:38.125278 11174 net.cpp:103] Top shape: 32 512 28 28 (12845056)
I1118 14:21:38.125303 11174 layer_factory.hpp:78] Creating layer relu4_3
I1118 14:21:38.125313 11174 net.cpp:67] Creating Layer relu4_3
I1118 14:21:38.125318 11174 net.cpp:394] relu4_3 <- conv4_3
I1118 14:21:38.125324 11174 net.cpp:345] relu4_3 -> conv4_3 (in-place)
I1118 14:21:38.125330 11174 net.cpp:96] Setting up relu4_3
I1118 14:21:38.125336 11174 net.cpp:103] Top shape: 32 512 28 28 (12845056)
I1118 14:21:38.125339 11174 layer_factory.hpp:78] Creating layer pool4
I1118 14:21:38.125344 11174 net.cpp:67] Creating Layer pool4
I1118 14:21:38.125347 11174 net.cpp:394] pool4 <- conv4_3
I1118 14:21:38.125354 11174 net.cpp:356] pool4 -> pool4
I1118 14:21:38.125358 11174 net.cpp:96] Setting up pool4
I1118 14:21:38.125366 11174 net.cpp:103] Top shape: 32 512 14 14 (3211264)
I1118 14:21:38.125370 11174 layer_factory.hpp:78] Creating layer conv5_1
I1118 14:21:38.125375 11174 net.cpp:67] Creating Layer conv5_1
I1118 14:21:38.125382 11174 net.cpp:394] conv5_1 <- pool4
I1118 14:21:38.125386 11174 net.cpp:356] conv5_1 -> conv5_1
I1118 14:21:38.125394 11174 net.cpp:96] Setting up conv5_1
I1118 14:21:38.183281 11174 net.cpp:103] Top shape: 32 512 14 14 (3211264)
I1118 14:21:38.183307 11174 layer_factory.hpp:78] Creating layer relu5_1
I1118 14:21:38.183320 11174 net.cpp:67] Creating Layer relu5_1
I1118 14:21:38.183326 11174 net.cpp:394] relu5_1 <- conv5_1
I1118 14:21:38.183332 11174 net.cpp:345] relu5_1 -> conv5_1 (in-place)
I1118 14:21:38.183338 11174 net.cpp:96] Setting up relu5_1
I1118 14:21:38.183344 11174 net.cpp:103] Top shape: 32 512 14 14 (3211264)
I1118 14:21:38.183347 11174 layer_factory.hpp:78] Creating layer conv5_2
I1118 14:21:38.183356 11174 net.cpp:67] Creating Layer conv5_2
I1118 14:21:38.183358 11174 net.cpp:394] conv5_2 <- conv5_1
I1118 14:21:38.183363 11174 net.cpp:356] conv5_2 -> conv5_2
I1118 14:21:38.183369 11174 net.cpp:96] Setting up conv5_2
I1118 14:21:38.241248 11174 net.cpp:103] Top shape: 32 512 14 14 (3211264)
I1118 14:21:38.241274 11174 layer_factory.hpp:78] Creating layer relu5_2
I1118 14:21:38.241283 11174 net.cpp:67] Creating Layer relu5_2
I1118 14:21:38.241287 11174 net.cpp:394] relu5_2 <- conv5_2
I1118 14:21:38.241294 11174 net.cpp:345] relu5_2 -> conv5_2 (in-place)
I1118 14:21:38.241300 11174 net.cpp:96] Setting up relu5_2
I1118 14:21:38.241307 11174 net.cpp:103] Top shape: 32 512 14 14 (3211264)
I1118 14:21:38.241309 11174 layer_factory.hpp:78] Creating layer conv5_3
I1118 14:21:38.241315 11174 net.cpp:67] Creating Layer conv5_3
I1118 14:21:38.241318 11174 net.cpp:394] conv5_3 <- conv5_2
I1118 14:21:38.241324 11174 net.cpp:356] conv5_3 -> conv5_3
I1118 14:21:38.241330 11174 net.cpp:96] Setting up conv5_3
I1118 14:21:38.299088 11174 net.cpp:103] Top shape: 32 512 14 14 (3211264)
I1118 14:21:38.299113 11174 layer_factory.hpp:78] Creating layer relu5_3
I1118 14:21:38.299123 11174 net.cpp:67] Creating Layer relu5_3
I1118 14:21:38.299127 11174 net.cpp:394] relu5_3 <- conv5_3
I1118 14:21:38.299134 11174 net.cpp:345] relu5_3 -> conv5_3 (in-place)
I1118 14:21:38.299140 11174 net.cpp:96] Setting up relu5_3
I1118 14:21:38.299145 11174 net.cpp:103] Top shape: 32 512 14 14 (3211264)
I1118 14:21:38.299159 11174 layer_factory.hpp:78] Creating layer pool5
I1118 14:21:38.299165 11174 net.cpp:67] Creating Layer pool5
I1118 14:21:38.299170 11174 net.cpp:394] pool5 <- conv5_3
I1118 14:21:38.299175 11174 net.cpp:356] pool5 -> pool5
I1118 14:21:38.299180 11174 net.cpp:96] Setting up pool5
I1118 14:21:38.299187 11174 net.cpp:103] Top shape: 32 512 7 7 (802816)
I1118 14:21:38.299190 11174 layer_factory.hpp:78] Creating layer fc6
I1118 14:21:38.299203 11174 net.cpp:67] Creating Layer fc6
I1118 14:21:38.299207 11174 net.cpp:394] fc6 <- pool5
I1118 14:21:38.299212 11174 net.cpp:356] fc6 -> fc6
I1118 14:21:38.299217 11174 net.cpp:96] Setting up fc6
I1118 14:21:40.799273 11174 net.cpp:103] Top shape: 32 4096 1 1 (131072)
I1118 14:21:40.799301 11174 layer_factory.hpp:78] Creating layer relu6
I1118 14:21:40.799310 11174 net.cpp:67] Creating Layer relu6
I1118 14:21:40.799314 11174 net.cpp:394] relu6 <- fc6
I1118 14:21:40.799321 11174 net.cpp:345] relu6 -> fc6 (in-place)
I1118 14:21:40.799329 11174 net.cpp:96] Setting up relu6
I1118 14:21:40.799342 11174 net.cpp:103] Top shape: 32 4096 1 1 (131072)
I1118 14:21:40.799350 11174 layer_factory.hpp:78] Creating layer drop6
I1118 14:21:40.799357 11174 net.cpp:67] Creating Layer drop6
I1118 14:21:40.799360 11174 net.cpp:394] drop6 <- fc6
I1118 14:21:40.799366 11174 net.cpp:345] drop6 -> fc6 (in-place)
I1118 14:21:40.799374 11174 net.cpp:96] Setting up drop6
I1118 14:21:40.799378 11174 net.cpp:103] Top shape: 32 4096 1 1 (131072)
I1118 14:21:40.799381 11174 layer_factory.hpp:78] Creating layer fc7
I1118 14:21:40.799386 11174 net.cpp:67] Creating Layer fc7
I1118 14:21:40.799389 11174 net.cpp:394] fc7 <- fc6
I1118 14:21:40.799394 11174 net.cpp:356] fc7 -> fc7
I1118 14:21:40.799408 11174 net.cpp:96] Setting up fc7
I1118 14:21:41.208209 11174 net.cpp:103] Top shape: 32 4096 1 1 (131072)
I1118 14:21:41.208235 11174 layer_factory.hpp:78] Creating layer relu7
I1118 14:21:41.208243 11174 net.cpp:67] Creating Layer relu7
I1118 14:21:41.208248 11174 net.cpp:394] relu7 <- fc7
I1118 14:21:41.208259 11174 net.cpp:345] relu7 -> fc7 (in-place)
I1118 14:21:41.208266 11174 net.cpp:96] Setting up relu7
I1118 14:21:41.208281 11174 net.cpp:103] Top shape: 32 4096 1 1 (131072)
I1118 14:21:41.208284 11174 layer_factory.hpp:78] Creating layer drop7
I1118 14:21:41.208289 11174 net.cpp:67] Creating Layer drop7
I1118 14:21:41.208292 11174 net.cpp:394] drop7 <- fc7
I1118 14:21:41.208297 11174 net.cpp:345] drop7 -> fc7 (in-place)
I1118 14:21:41.208302 11174 net.cpp:96] Setting up drop7
I1118 14:21:41.208304 11174 net.cpp:103] Top shape: 32 4096 1 1 (131072)
I1118 14:21:41.208307 11174 layer_factory.hpp:78] Creating layer fc8_2
I1118 14:21:41.208314 11174 net.cpp:67] Creating Layer fc8_2
I1118 14:21:41.208317 11174 net.cpp:394] fc8_2 <- fc7
I1118 14:21:41.208322 11174 net.cpp:356] fc8_2 -> fc8_2
I1118 14:21:41.208328 11174 net.cpp:96] Setting up fc8_2
I1118 14:21:41.208549 11174 net.cpp:103] Top shape: 32 2 1 1 (64)
I1118 14:21:41.208557 11174 layer_factory.hpp:78] Creating layer loss
I1118 14:21:41.208564 11174 net.cpp:67] Creating Layer loss
I1118 14:21:41.208567 11174 net.cpp:394] loss <- fc8_2
I1118 14:21:41.208571 11174 net.cpp:394] loss <- label
I1118 14:21:41.208580 11174 net.cpp:356] loss -> (automatic)
I1118 14:21:41.208586 11174 net.cpp:96] Setting up loss
I1118 14:21:41.208596 11174 net.cpp:103] Top shape: 1 1 1 1 (1)
I1118 14:21:41.208600 11174 net.cpp:109]     with loss weight 1
I1118 14:21:41.208634 11174 net.cpp:170] loss needs backward computation.
I1118 14:21:41.208638 11174 net.cpp:170] fc8_2 needs backward computation.
I1118 14:21:41.208642 11174 net.cpp:170] drop7 needs backward computation.
I1118 14:21:41.208643 11174 net.cpp:170] relu7 needs backward computation.
I1118 14:21:41.208647 11174 net.cpp:170] fc7 needs backward computation.
…
I1118 14:21:41.209702 11174 net.cpp:275] The NetState phase (1) differed from the phase (0) specified by a rule in layer data
I1118 14:21:41.209939 11174 net.cpp:39] Initializing net from parameters: 
name: "small"
layers {
  top: "data"
  top: "label"
  name: "data"
  type: IMAGE_DATA
  image_data_param {
    source: "/data/ad6813/devCaffe/caffe/data/soil_high_o/val.txt"
    batch_size: 8
    new_height: 256
    new_width: 256
  }
  include {
    phase: TEST
  }
  transform_param {
    mirror: true
    crop_size: 224
    mean_value: 86.752
    mean_value: 101.46
    mean_value: 104.6
  }
}
layers {
  bottom: "data"
  top: "conv1_1"
  name: "conv1_1"
  type: CONVOLUTION
  convolution_param {
    num_output: 64
    pad: 1
    kernel_size: 3
    weight_filler {
      type: "gaussian"
      std: 0.01
    }
    bias_filler {
      type: "constant"
      value: 0
    }
  }
}
layers {
  bottom: "conv1_1"
  top: "conv1_1"
  name: "relu1_1"
  type: RELU
}
layers {
  bottom: "conv1_1"
  top: "conv1_2"
  name: "conv1_2"
  type: CONVOLUTION
  convolution_param {
    num_output: 64
    pad: 1
    kernel_size: 3
    weight_filler {
      type: "gaussian"
      std: 0.01
    }
    bias_filler {
      type: "constant"
      value: 0
    }
  }
}
layers {
  bottom: "conv1_2"
  top: "conv1_2"
  name: "relu1_2"
  type: RELU
}
layers {
  bottom: "conv1_2"
  top: "pool1"
  name: "pool1"
  type: POOLING
  pooling_param {
    pool: MAX
    kernel_size: 2
    stride: 2
  }
}
layers {
  bottom: "pool1"
  top: "conv2_1"
  name: "conv2_1"
  type: CONVOLUTION
  convolution_param {
    num_output: 128
    pad: 1
    kernel_size: 3
    weight_filler {
      type: "gaussian"
      std: 0.01
    }
    bias_filler {
      type: "constant"
      value: 0
    }
  }
}
layers {
  bottom: "conv2_1"
  top: "conv2_1"
  name: "relu2_1"
  type: RELU
}
layers {
  bottom: "conv2_1"
  top: "conv2_2"
  name: "conv2_2"
  type: CONVOLUTION
  convolution_param {
    num_output: 128
    pad: 1
    kernel_size: 3
    weight_filler {
      type: "gaussian"
      std: 0.01
    }
    bias_filler {
      type: "constant"
      value: 0
    }
  }
}
layers {
  bottom: "conv2_2"
  top: "conv2_2"
  name: "relu2_2"
  type: RELU
}
layers {
  bottom: "conv2_2"
  top: "pool2"
  name: "pool2"
  type: POOLING
  pooling_param {
    pool: MAX
    kernel_size: 2
    stride: 2
  }
}
layers {
  bottom: "pool2"
  top: "conv3_1"
  name: "conv3_1"
  type: CONVOLUTION
  convolution_param {
    num_output: 256
    pad: 1
    kernel_size: 3
    weight_filler {
      type: "gaussian"
      std: 0.01
    }
    bias_filler {
      type: "constant"
      value: 0
    }
  }
}
layers {
  bottom: "conv3_1"
  top: "conv3_1"
  name: "relu3_1"
  type: RELU
}
layers {
  bottom: "conv3_1"
  top: "conv3_2"
  name: "conv3_2"
  type: CONVOLUTION
  convolution_param {
    num_output: 256
    pad: 1
    kernel_size: 3
    weight_filler {
      type: "gaussian"
      std: 0.01
    }
    bias_filler {
      type: "constant"
      value: 0
    }
  }
}
layers {
  bottom: "conv3_2"
  top: "conv3_2"
  name: "relu3_2"
  type: RELU
}
layers {
  bottom: "conv3_2"
  top: "conv3_3"
  name: "conv3_3"
  type: CONVOLUTION
  convolution_param {
    num_output: 256
    pad: 1
    kernel_size: 3
    weight_filler {
      type: "gaussian"
      std: 0.01
    }
    bias_filler {
      type: "constant"
      value: 0
    }
  }
}
layers {
  bottom: "conv3_3"
  top: "conv3_3"
  name: "relu3_3"
  type: RELU
}
layers {
  bottom: "conv3_3"
  top: "pool3"
  name: "pool3"
  type: POOLING
  pooling_param {
    pool: MAX
    kernel_size: 2
    stride: 2
  }
}
layers {
  bottom: "pool3"
  top: "conv4_1"
  name: "conv4_1"
  type: CONVOLUTION
  convolution_param {
    num_output: 512
    pad: 1
    kernel_size: 3
    weight_filler {
      type: "gaussian"
      std: 0.01
    }
    bias_filler {
      type: "constant"
      value: 0
    }
  }
}
layers {
  bottom: "conv4_1"
  top: "conv4_1"
  name: "relu4_1"
  type: RELU
}
layers {
  bottom: "conv4_1"
  top: "conv4_2"
  name: "conv4_2"
  type: CONVOLUTION
  convolution_param {
    num_output: 512
    pad: 1
    kernel_size: 3
    weight_filler {
      type: "gaussian"
      std: 0.01
    }
    bias_filler {
      type: "constant"
      value: 0
    }
  }
}
layers {
  bottom: "conv4_2"
  top: "conv4_2"
  name: "relu4_2"
  type: RELU
}
layers {
  bottom: "conv4_2"
  top: "conv4_3"
  name: "conv4_3"
  type: CONVOLUTION
  convolution_param {
    num_output: 512
    pad: 1
    kernel_size: 3
    weight_filler {
      type: "gaussian"
      std: 0.01
    }
    bias_filler {
      type: "constant"
      value: 0
    }
  }
}
layers {
  bottom: "conv4_3"
  top: "conv4_3"
  name: "relu4_3"
  type: RELU
}
layers {
  bottom: "conv4_3"
  top: "pool4"
  name: "pool4"
  type: POOLING
  pooling_param {
    pool: MAX
    kernel_size: 2
    stride: 2
  }
}
layers {
  bottom: "pool4"
  top: "conv5_1"
  name: "conv5_1"
  type: CONVOLUTION
  convolution_param {
    num_output: 512
    pad: 1
    kernel_size: 3
    weight_filler {
      type: "gaussian"
      std: 0.01
    }
    bias_filler {
      type: "constant"
      value: 0
    }
  }
}
layers {
  bottom: "conv5_1"
  top: "conv5_1"
  name: "relu5_1"
  type: RELU
}
layers {
  bottom: "conv5_1"
  top: "conv5_2"
  name: "conv5_2"
  type: CONVOLUTION
  convolution_param {
    num_output: 512
    pad: 1
    kernel_size: 3
    weight_filler {
      type: "gaussian"
      std: 0.01
    }
    bias_filler {
      type: "constant"
      value: 0
    }
  }
}
layers {
  bottom: "conv5_2"
  top: "conv5_2"
  name: "relu5_2"
  type: RELU
}
layers {
  bottom: "conv5_2"
  top: "conv5_3"
  name: "conv5_3"
  type: CONVOLUTION
  convolution_param {
    num_output: 512
    pad: 1
    kernel_size: 3
    weight_filler {
      type: "gaussian"
      std: 0.01
    }
    bias_filler {
      type: "constant"
      value: 0
    }
  }
}
layers {
  bottom: "conv5_3"
  top: "conv5_3"
  name: "relu5_3"
  type: RELU
}
layers {
  bottom: "conv5_3"
  top: "pool5"
  name: "pool5"
  type: POOLING
  pooling_param {
    pool: MAX
    kernel_size: 2
    stride: 2
  }
}
layers {
  bottom: "pool5"
  top: "fc6"
  name: "fc6"
  type: INNER_PRODUCT
  inner_product_param {
    num_output: 4096
    weight_filler {
      type: "gaussian"
      std: 0.01
    }
    bias_filler {
      type: "constant"
      value: 0
    }
  }
}
layers {
  bottom: "fc6"
  top: "fc6"
  name: "relu6"
  type: RELU
}
layers {
  bottom: "fc6"
  top: "fc6"
  name: "drop6"
  type: DROPOUT
  dropout_param {
    dropout_ratio: 0.5
  }
}
layers {
  bottom: "fc6"
  top: "fc7"
  name: "fc7"
  type: INNER_PRODUCT
  inner_product_param {
    num_output: 4096
    weight_filler {
      type: "gaussian"
      std: 0.01
    }
    bias_filler {
      type: "constant"
      value: 0
    }
  }
}
layers {
  bottom: "fc7"
  top: "fc7"
  name: "relu7"
  type: RELU
}
layers {
  bottom: "fc7"
  top: "fc7"
  name: "drop7"
  type: DROPOUT
  dropout_param {
    dropout_ratio: 0.5
  }
}
layers {
  bottom: "fc7"
  top: "fc8_2"
  name: "fc8_2"
  type: INNER_PRODUCT
  inner_product_param {
    num_output: 2
    weight_filler {
      type: "gaussian"
      std: 0.01
    }
    bias_filler {
      type: "constant"
      value: 0
    }
  }
}
layers {
  bottom: "fc8_2"
  bottom: "label"
  name: "loss"
  type: SOFTMAX_LOSS
}
layers {
  bottom: "fc8_2"
  bottom: "label"
  top: "accuracy"
  name: "accuracy"
  type: PER_CLASS_ACCURACY
  include {
    phase: TEST
  }
}
state {
  phase: TEST
}
I1118 14:21:41.210209 11174 layer_factory.hpp:78] Creating layer data
I1118 14:21:41.210224 11174 net.cpp:67] Creating Layer data
I1118 14:21:41.210232 11174 net.cpp:356] data -> data
I1118 14:21:41.210245 11174 net.cpp:356] data -> label
I1118 14:21:41.210255 11174 net.cpp:96] Setting up data
I1118 14:21:41.210261 11174 image_data_layer.cpp:34] Opening file /data/ad6813/devCaffe/caffe/data/soil_high_o/val.txt
I1118 14:21:41.211055 11174 image_data_layer.cpp:49] A total of 967 images.
I1118 14:21:41.219331 11174 image_data_layer.cpp:78] output data size: 8,3,224,224
I1118 14:21:41.220270 11174 net.cpp:103] Top shape: 8 3 224 224 (1204224)
I1118 14:21:41.220281 11174 net.cpp:103] Top shape: 8 1 1 1 (8)
I1118 14:21:41.220288 11174 layer_factory.hpp:78] Creating layer label_data_1_split
I1118 14:21:41.220309 11174 net.cpp:67] Creating Layer label_data_1_split
I1118 14:21:41.220322 11174 net.cpp:394] label_data_1_split <- label
I1118 14:21:41.220335 11174 net.cpp:356] label_data_1_split -> label_data_1_split_0
I1118 14:21:41.220351 11174 net.cpp:356] label_data_1_split -> label_data_1_split_1
I1118 14:21:41.220365 11174 net.cpp:96] Setting up label_data_1_split
I1118 14:21:41.220382 11174 net.cpp:103] Top shape: 8 1 1 1 (8)
I1118 14:21:41.220391 11174 net.cpp:103] Top shape: 8 1 1 1 (8)
I1118 14:21:41.220396 11174 layer_factory.hpp:78] Creating layer conv1_1
I1118 14:21:41.220409 11174 net.cpp:67] Creating Layer conv1_1
I1118 14:21:41.220417 11174 net.cpp:394] conv1_1 <- data
I1118 14:21:41.220433 11174 net.cpp:356] conv1_1 -> conv1_1
I1118 14:21:41.220446 11174 net.cpp:96] Setting up conv1_1
I1118 14:21:41.220646 11174 net.cpp:103] Top shape: 8 64 224 224 (25690112)
I1118 14:21:41.220666 11174 layer_factory.hpp:78] Creating layer relu1_1
I1118 14:21:41.220677 11174 net.cpp:67] Creating Layer relu1_1
I1118 14:21:41.220684 11174 net.cpp:394] relu1_1 <- conv1_1
I1118 14:21:41.220692 11174 net.cpp:345] relu1_1 -> conv1_1 (in-place)
I1118 14:21:41.220711 11174 net.cpp:96] Setting up relu1_1
I1118 14:21:41.220728 11174 net.cpp:103] Top shape: 8 64 224 224 (25690112)
I1118 14:21:41.220737 11174 layer_factory.hpp:78] Creating layer conv1_2
I1118 14:21:41.220747 11174 net.cpp:67] Creating Layer conv1_2
I1118 14:21:41.220753 11174 net.cpp:394] conv1_2 <- conv1_1
I1118 14:21:41.220762 11174 net.cpp:356] conv1_2 -> conv1_2
I1118 14:21:41.220773 11174 net.cpp:96] Setting up conv1_2
I1118 14:21:41.221792 11174 net.cpp:103] Top shape: 8 64 224 224 (25690112)
I1118 14:21:41.221808 11174 layer_factory.hpp:78] Creating layer relu1_2
I1118 14:21:41.221817 11174 net.cpp:67] Creating Layer relu1_2
I1118 14:21:41.221823 11174 net.cpp:394] relu1_2 <- conv1_2
I1118 14:21:41.221832 11174 net.cpp:345] relu1_2 -> conv1_2 (in-place)
I1118 14:21:41.221840 11174 net.cpp:96] Setting up relu1_2
I1118 14:21:41.221850 11174 net.cpp:103] Top shape: 8 64 224 224 (25690112)
I1118 14:21:41.221858 11174 layer_factory.hpp:78] Creating layer pool1
I1118 14:21:41.221868 11174 net.cpp:67] Creating Layer pool1
I1118 14:21:41.221873 11174 net.cpp:394] pool1 <- conv1_2
I1118 14:21:41.221881 11174 net.cpp:356] pool1 -> pool1
I1118 14:21:41.221891 11174 net.cpp:96] Setting up pool1
I1118 14:21:41.221902 11174 net.cpp:103] Top shape: 8 64 112 112 (6422528)
I1118 14:21:41.221910 11174 layer_factory.hpp:78] Creating layer conv2_1
I1118 14:21:41.221920 11174 net.cpp:67] Creating Layer conv2_1
I1118 14:21:41.221925 11174 net.cpp:394] conv2_1 <- pool1
I1118 14:21:41.221935 11174 net.cpp:356] conv2_1 -> conv2_1
I1118 14:21:41.221945 11174 net.cpp:96] Setting up conv2_1
I1118 14:21:41.224043 11174 net.cpp:103] Top shape: 8 128 112 112 (12845056)
I1118 14:21:41.224061 11174 layer_factory.hpp:78] Creating layer relu2_1
I1118 14:21:41.224071 11174 net.cpp:67] Creating Layer relu2_1
I1118 14:21:41.224078 11174 net.cpp:394] relu2_1 <- conv2_1
I1118 14:21:41.224087 11174 net.cpp:345] relu2_1 -> conv2_1 (in-place)
I1118 14:21:41.224097 11174 net.cpp:96] Setting up relu2_1
I1118 14:21:41.224107 11174 net.cpp:103] Top shape: 8 128 112 112 (12845056)
I1118 14:21:41.224119 11174 layer_factory.hpp:78] Creating layer conv2_2
I1118 14:21:41.224129 11174 net.cpp:67] Creating Layer conv2_2
I1118 14:21:41.224143 11174 net.cpp:394] conv2_2 <- conv2_1
I1118 14:21:41.224158 11174 net.cpp:356] conv2_2 -> conv2_2
I1118 14:21:41.224170 11174 net.cpp:96] Setting up conv2_2
I1118 14:21:41.227959 11174 net.cpp:103] Top shape: 8 128 112 112 (12845056)
I1118 14:21:41.227974 11174 layer_factory.hpp:78] Creating layer relu2_2
I1118 14:21:41.227985 11174 net.cpp:67] Creating Layer relu2_2
I1118 14:21:41.227993 11174 net.cpp:394] relu2_2 <- conv2_2
I1118 14:21:41.228001 11174 net.cpp:345] relu2_2 -> conv2_2 (in-place)
I1118 14:21:41.228010 11174 net.cpp:96] Setting up relu2_2
I1118 14:21:41.228019 11174 net.cpp:103] Top shape: 8 128 112 112 (12845056)
I1118 14:21:41.228026 11174 layer_factory.hpp:78] Creating layer pool2
I1118 14:21:41.228036 11174 net.cpp:67] Creating Layer pool2
I1118 14:21:41.228042 11174 net.cpp:394] pool2 <- conv2_2
I1118 14:21:41.228051 11174 net.cpp:356] pool2 -> pool2
I1118 14:21:41.228060 11174 net.cpp:96] Setting up pool2
I1118 14:21:41.228082 11174 net.cpp:103] Top shape: 8 128 56 56 (3211264)
I1118 14:21:41.228091 11174 layer_factory.hpp:78] Creating layer conv3_1
I1118 14:21:41.228099 11174 net.cpp:67] Creating Layer conv3_1
I1118 14:21:41.228106 11174 net.cpp:394] conv3_1 <- pool2
I1118 14:21:41.228122 11174 net.cpp:356] conv3_1 -> conv3_1
I1118 14:21:41.228135 11174 net.cpp:96] Setting up conv3_1
I1118 14:21:41.235601 11174 net.cpp:103] Top shape: 8 256 56 56 (6422528)
I1118 14:21:41.235622 11174 layer_factory.hpp:78] Creating layer relu3_1
I1118 14:21:41.235631 11174 net.cpp:67] Creating Layer relu3_1
I1118 14:21:41.235638 11174 net.cpp:394] relu3_1 <- conv3_1
I1118 14:21:41.235649 11174 net.cpp:345] relu3_1 -> conv3_1 (in-place)
I1118 14:21:41.235659 11174 net.cpp:96] Setting up relu3_1
I1118 14:21:41.235668 11174 net.cpp:103] Top shape: 8 256 56 56 (6422528)
I1118 14:21:41.235682 11174 layer_factory.hpp:78] Creating layer conv3_2
I1118 14:21:41.235698 11174 net.cpp:67] Creating Layer conv3_2
I1118 14:21:41.235713 11174 net.cpp:394] conv3_2 <- conv3_1
I1118 14:21:41.235728 11174 net.cpp:356] conv3_2 -> conv3_2
I1118 14:21:41.235740 11174 net.cpp:96] Setting up conv3_2
I1118 14:21:41.250275 11174 net.cpp:103] Top shape: 8 256 56 56 (6422528)
I1118 14:21:41.250298 11174 layer_factory.hpp:78] Creating layer relu3_2
I1118 14:21:41.250308 11174 net.cpp:67] Creating Layer relu3_2
I1118 14:21:41.250315 11174 net.cpp:394] relu3_2 <- conv3_2
I1118 14:21:41.250324 11174 net.cpp:345] relu3_2 -> conv3_2 (in-place)
I1118 14:21:41.250334 11174 net.cpp:96] Setting up relu3_2
I1118 14:21:41.250344 11174 net.cpp:103] Top shape: 8 256 56 56 (6422528)
I1118 14:21:41.250350 11174 layer_factory.hpp:78] Creating layer conv3_3
I1118 14:21:41.250363 11174 net.cpp:67] Creating Layer conv3_3
I1118 14:21:41.250370 11174 net.cpp:394] conv3_3 <- conv3_2
I1118 14:21:41.250378 11174 net.cpp:356] conv3_3 -> conv3_3
I1118 14:21:41.250394 11174 net.cpp:96] Setting up conv3_3
I1118 14:21:41.264962 11174 net.cpp:103] Top shape: 8 256 56 56 (6422528)
I1118 14:21:41.264986 11174 layer_factory.hpp:78] Creating layer relu3_3
I1118 14:21:41.264997 11174 net.cpp:67] Creating Layer relu3_3
I1118 14:21:41.265004 11174 net.cpp:394] relu3_3 <- conv3_3
I1118 14:21:41.265013 11174 net.cpp:345] relu3_3 -> conv3_3 (in-place)
I1118 14:21:41.265024 11174 net.cpp:96] Setting up relu3_3
I1118 14:21:41.265033 11174 net.cpp:103] Top shape: 8 256 56 56 (6422528)
I1118 14:21:41.265040 11174 layer_factory.hpp:78] Creating layer pool3
I1118 14:21:41.265053 11174 net.cpp:67] Creating Layer pool3
I1118 14:21:41.265058 11174 net.cpp:394] pool3 <- conv3_3
I1118 14:21:41.265069 11174 net.cpp:356] pool3 -> pool3
I1118 14:21:41.265077 11174 net.cpp:96] Setting up pool3
I1118 14:21:41.265094 11174 net.cpp:103] Top shape: 8 256 28 28 (1605632)
I1118 14:21:41.265102 11174 layer_factory.hpp:78] Creating layer conv4_1
I1118 14:21:41.265125 11174 net.cpp:67] Creating Layer conv4_1
I1118 14:21:41.265132 11174 net.cpp:394] conv4_1 <- pool3
I1118 14:21:41.265142 11174 net.cpp:356] conv4_1 -> conv4_1
I1118 14:21:41.265152 11174 net.cpp:96] Setting up conv4_1
I1118 14:21:41.294538 11174 net.cpp:103] Top shape: 8 512 28 28 (3211264)
I1118 14:21:41.294565 11174 layer_factory.hpp:78] Creating layer relu4_1
I1118 14:21:41.294576 11174 net.cpp:67] Creating Layer relu4_1
I1118 14:21:41.294584 11174 net.cpp:394] relu4_1 <- conv4_1
I1118 14:21:41.294592 11174 net.cpp:345] relu4_1 -> conv4_1 (in-place)
I1118 14:21:41.294603 11174 net.cpp:96] Setting up relu4_1
I1118 14:21:41.294613 11174 net.cpp:103] Top shape: 8 512 28 28 (3211264)
I1118 14:21:41.294620 11174 layer_factory.hpp:78] Creating layer conv4_2
I1118 14:21:41.294632 11174 net.cpp:67] Creating Layer conv4_2
I1118 14:21:41.294639 11174 net.cpp:394] conv4_2 <- conv4_1
I1118 14:21:41.294648 11174 net.cpp:356] conv4_2 -> conv4_2
I1118 14:21:41.294666 11174 net.cpp:96] Setting up conv4_2
I1118 14:21:41.352427 11174 net.cpp:103] Top shape: 8 512 28 28 (3211264)
I1118 14:21:41.352462 11174 layer_factory.hpp:78] Creating layer relu4_2
I1118 14:21:41.352475 11174 net.cpp:67] Creating Layer relu4_2
I1118 14:21:41.352483 11174 net.cpp:394] relu4_2 <- conv4_2
I1118 14:21:41.352494 11174 net.cpp:345] relu4_2 -> conv4_2 (in-place)
I1118 14:21:41.352504 11174 net.cpp:96] Setting up relu4_2
I1118 14:21:41.352514 11174 net.cpp:103] Top shape: 8 512 28 28 (3211264)
I1118 14:21:41.352524 11174 layer_factory.hpp:78] Creating layer conv4_3
I1118 14:21:41.352536 11174 net.cpp:67] Creating Layer conv4_3
I1118 14:21:41.352545 11174 net.cpp:394] conv4_3 <- conv4_2
I1118 14:21:41.352555 11174 net.cpp:356] conv4_3 -> conv4_3
I1118 14:21:41.352581 11174 net.cpp:96] Setting up conv4_3
I1118 14:21:41.410578 11174 net.cpp:103] Top shape: 8 512 28 28 (3211264)
I1118 14:21:41.410609 11174 layer_factory.hpp:78] Creating layer relu4_3
I1118 14:21:41.410622 11174 net.cpp:67] Creating Layer relu4_3
I1118 14:21:41.410629 11174 net.cpp:394] relu4_3 <- conv4_3
I1118 14:21:41.410640 11174 net.cpp:345] relu4_3 -> conv4_3 (in-place)
I1118 14:21:41.410660 11174 net.cpp:96] Setting up relu4_3
I1118 14:21:41.410670 11174 net.cpp:103] Top shape: 8 512 28 28 (3211264)
I1118 14:21:41.410677 11174 layer_factory.hpp:78] Creating layer pool4
I1118 14:21:41.410689 11174 net.cpp:67] Creating Layer pool4
I1118 14:21:41.410696 11174 net.cpp:394] pool4 <- conv4_3
I1118 14:21:41.410703 11174 net.cpp:356] pool4 -> pool4
I1118 14:21:41.410713 11174 net.cpp:96] Setting up pool4
I1118 14:21:41.410742 11174 net.cpp:103] Top shape: 8 512 14 14 (802816)
I1118 14:21:41.410748 11174 layer_factory.hpp:78] Creating layer conv5_1
I1118 14:21:41.410758 11174 net.cpp:67] Creating Layer conv5_1
I1118 14:21:41.410764 11174 net.cpp:394] conv5_1 <- pool4
I1118 14:21:41.410783 11174 net.cpp:356] conv5_1 -> conv5_1
I1118 14:21:41.410795 11174 net.cpp:96] Setting up conv5_1
I1118 14:21:41.468534 11174 net.cpp:103] Top shape: 8 512 14 14 (802816)
I1118 14:21:41.468564 11174 layer_factory.hpp:78] Creating layer relu5_1
I1118 14:21:41.468582 11174 net.cpp:67] Creating Layer relu5_1
I1118 14:21:41.468590 11174 net.cpp:394] relu5_1 <- conv5_1
I1118 14:21:41.468600 11174 net.cpp:345] relu5_1 -> conv5_1 (in-place)
I1118 14:21:41.468611 11174 net.cpp:96] Setting up relu5_1
I1118 14:21:41.468621 11174 net.cpp:103] Top shape: 8 512 14 14 (802816)
I1118 14:21:41.468632 11174 layer_factory.hpp:78] Creating layer conv5_2
I1118 14:21:41.468648 11174 net.cpp:67] Creating Layer conv5_2
I1118 14:21:41.468657 11174 net.cpp:394] conv5_2 <- conv5_1
I1118 14:21:41.468667 11174 net.cpp:356] conv5_2 -> conv5_2
I1118 14:21:41.468678 11174 net.cpp:96] Setting up conv5_2
I1118 14:21:41.526639 11174 net.cpp:103] Top shape: 8 512 14 14 (802816)
I1118 14:21:41.526669 11174 layer_factory.hpp:78] Creating layer relu5_2
I1118 14:21:41.526679 11174 net.cpp:67] Creating Layer relu5_2
I1118 14:21:41.526687 11174 net.cpp:394] relu5_2 <- conv5_2
I1118 14:21:41.526696 11174 net.cpp:345] relu5_2 -> conv5_2 (in-place)
I1118 14:21:41.526707 11174 net.cpp:96] Setting up relu5_2
I1118 14:21:41.526717 11174 net.cpp:103] Top shape: 8 512 14 14 (802816)
I1118 14:21:41.526723 11174 layer_factory.hpp:78] Creating layer conv5_3
I1118 14:21:41.526734 11174 net.cpp:67] Creating Layer conv5_3
I1118 14:21:41.526741 11174 net.cpp:394] conv5_3 <- conv5_2
I1118 14:21:41.526752 11174 net.cpp:356] conv5_3 -> conv5_3
I1118 14:21:41.526763 11174 net.cpp:96] Setting up conv5_3
I1118 14:21:41.584592 11174 net.cpp:103] Top shape: 8 512 14 14 (802816)
I1118 14:21:41.584622 11174 layer_factory.hpp:78] Creating layer relu5_3
I1118 14:21:41.584635 11174 net.cpp:67] Creating Layer relu5_3
I1118 14:21:41.584643 11174 net.cpp:394] relu5_3 <- conv5_3
I1118 14:21:41.584653 11174 net.cpp:345] relu5_3 -> conv5_3 (in-place)
I1118 14:21:41.584666 11174 net.cpp:96] Setting up relu5_3
I1118 14:21:41.584676 11174 net.cpp:103] Top shape: 8 512 14 14 (802816)
I1118 14:21:41.584682 11174 layer_factory.hpp:78] Creating layer pool5
I1118 14:21:41.584699 11174 net.cpp:67] Creating Layer pool5
I1118 14:21:41.584708 11174 net.cpp:394] pool5 <- conv5_3
I1118 14:21:41.584718 11174 net.cpp:356] pool5 -> pool5
I1118 14:21:41.584728 11174 net.cpp:96] Setting up pool5
I1118 14:21:41.584745 11174 net.cpp:103] Top shape: 8 512 7 7 (200704)
I1118 14:21:41.584753 11174 layer_factory.hpp:78] Creating layer fc6
I1118 14:21:41.584775 11174 net.cpp:67] Creating Layer fc6
I1118 14:21:41.584784 11174 net.cpp:394] fc6 <- pool5
I1118 14:21:41.584794 11174 net.cpp:356] fc6 -> fc6
I1118 14:21:41.584803 11174 net.cpp:96] Setting up fc6
I1118 14:21:44.084856 11174 net.cpp:103] Top shape: 8 4096 1 1 (32768)
I1118 14:21:44.084890 11174 layer_factory.hpp:78] Creating layer relu6
I1118 14:21:44.084903 11174 net.cpp:67] Creating Layer relu6
I1118 14:21:44.084911 11174 net.cpp:394] relu6 <- fc6
I1118 14:21:44.084921 11174 net.cpp:345] relu6 -> fc6 (in-place)
I1118 14:21:44.084933 11174 net.cpp:96] Setting up relu6
I1118 14:21:44.084950 11174 net.cpp:103] Top shape: 8 4096 1 1 (32768)
I1118 14:21:44.084959 11174 layer_factory.hpp:78] Creating layer drop6
I1118 14:21:44.084978 11174 net.cpp:67] Creating Layer drop6
I1118 14:21:44.084985 11174 net.cpp:394] drop6 <- fc6
I1118 14:21:44.084995 11174 net.cpp:345] drop6 -> fc6 (in-place)
I1118 14:21:44.085005 11174 net.cpp:96] Setting up drop6
I1118 14:21:44.085012 11174 net.cpp:103] Top shape: 8 4096 1 1 (32768)
I1118 14:21:44.085018 11174 layer_factory.hpp:78] Creating layer fc7
I1118 14:21:44.085027 11174 net.cpp:67] Creating Layer fc7
I1118 14:21:44.085033 11174 net.cpp:394] fc7 <- fc6
I1118 14:21:44.085055 11174 net.cpp:356] fc7 -> fc7
I1118 14:21:44.085067 11174 net.cpp:96] Setting up fc7
I1118 14:21:44.493993 11174 net.cpp:103] Top shape: 8 4096 1 1 (32768)
I1118 14:21:44.494024 11174 layer_factory.hpp:78] Creating layer relu7
I1118 14:21:44.494036 11174 net.cpp:67] Creating Layer relu7
I1118 14:21:44.494043 11174 net.cpp:394] relu7 <- fc7
I1118 14:21:44.494056 11174 net.cpp:345] relu7 -> fc7 (in-place)
I1118 14:21:44.494066 11174 net.cpp:96] Setting up relu7
I1118 14:21:44.494086 11174 net.cpp:103] Top shape: 8 4096 1 1 (32768)
I1118 14:21:44.494094 11174 layer_factory.hpp:78] Creating layer drop7
I1118 14:21:44.494103 11174 net.cpp:67] Creating Layer drop7
I1118 14:21:44.494109 11174 net.cpp:394] drop7 <- fc7
I1118 14:21:44.494118 11174 net.cpp:345] drop7 -> fc7 (in-place)
I1118 14:21:44.494127 11174 net.cpp:96] Setting up drop7
I1118 14:21:44.494134 11174 net.cpp:103] Top shape: 8 4096 1 1 (32768)
I1118 14:21:44.494140 11174 layer_factory.hpp:78] Creating layer fc8_2
I1118 14:21:44.494160 11174 net.cpp:67] Creating Layer fc8_2
I1118 14:21:44.494168 11174 net.cpp:394] fc8_2 <- fc7
I1118 14:21:44.494179 11174 net.cpp:356] fc8_2 -> fc8_2
I1118 14:21:44.494191 11174 net.cpp:96] Setting up fc8_2
I1118 14:21:44.494416 11174 net.cpp:103] Top shape: 8 2 1 1 (16)
I1118 14:21:44.494428 11174 layer_factory.hpp:78] Creating layer fc8_2_fc8_2_0_split
I1118 14:21:44.494439 11174 net.cpp:67] Creating Layer fc8_2_fc8_2_0_split
I1118 14:21:44.494446 11174 net.cpp:394] fc8_2_fc8_2_0_split <- fc8_2
I1118 14:21:44.494453 11174 net.cpp:356] fc8_2_fc8_2_0_split -> fc8_2_fc8_2_0_split_0
I1118 14:21:44.494464 11174 net.cpp:356] fc8_2_fc8_2_0_split -> fc8_2_fc8_2_0_split_1
I1118 14:21:44.494474 11174 net.cpp:96] Setting up fc8_2_fc8_2_0_split
I1118 14:21:44.494484 11174 net.cpp:103] Top shape: 8 2 1 1 (16)
I1118 14:21:44.494492 11174 net.cpp:103] Top shape: 8 2 1 1 (16)
I1118 14:21:44.494496 11174 layer_factory.hpp:78] Creating layer loss
I1118 14:21:44.494508 11174 net.cpp:67] Creating Layer loss
I1118 14:21:44.494513 11174 net.cpp:394] loss <- fc8_2_fc8_2_0_split_0
I1118 14:21:44.494521 11174 net.cpp:394] loss <- label_data_1_split_0
I1118 14:21:44.494530 11174 net.cpp:356] loss -> (automatic)
I1118 14:21:44.494537 11174 net.cpp:96] Setting up loss
I1118 14:21:44.494547 11174 net.cpp:103] Top shape: 1 1 1 1 (1)
I1118 14:21:44.494554 11174 net.cpp:109]     with loss weight 1
I1118 14:21:44.494572 11174 layer_factory.hpp:78] Creating layer accuracy
I1118 14:21:44.494585 11174 net.cpp:67] Creating Layer accuracy
I1118 14:21:44.494590 11174 net.cpp:394] accuracy <- fc8_2_fc8_2_0_split_1
I1118 14:21:44.494597 11174 net.cpp:394] accuracy <- label_data_1_split_1
I1118 14:21:44.494606 11174 net.cpp:356] accuracy -> accuracy
I1118 14:21:44.494614 11174 net.cpp:96] Setting up accuracy
I1118 14:21:44.494627 11174 net.cpp:103] Top shape: 1 1 1 4 (4)
I1118 14:21:44.494633 11174 net.cpp:172] accuracy does not need backward computation.
I1118 14:21:44.494638 11174 net.cpp:170] loss needs backward computation.
I1118 14:21:44.494644 11174 net.cpp:170] fc8_2_fc8_2_0_split needs backward computation.
I1118 14:21:44.494649 11174 net.cpp:170] fc8_2 needs backward computation.
I1118 14:21:44.494654 11174 net.cpp:170] drop7 needs backward computation.
…
