…
I1111 04:26:13.643424 17509 net.cpp:275] The NetState phase (0) differed from the phase (1) specified by a rule in layer accuracy
I1111 04:26:13.643625 17509 net.cpp:39] Initializing net from parameters: 
name: "small"
layers {
  top: "data"
  top: "label"
  name: "data"
  type: IMAGE_DATA
  image_data_param {
    source: "/data/ad6813/devCaffe/caffe/data/soil_high_o/train.txt"
    batch_size: 32
    new_height: 256
    new_width: 256
  }
  include {
    phase: TRAIN
  }
  transform_param {
    mirror: true
    crop_size: 224
    mean_value: 86.752
    mean_value: 101.46
    mean_value: 104.6
  }
}
layers {
  bottom: "data"
  top: "conv1_1"
  name: "conv1_1"
  type: CONVOLUTION
  convolution_param {
    num_output: 64
    pad: 1
    kernel_size: 3
    weight_filler {
      type: "gaussian"
      std: 0.01
    }
    bias_filler {
      type: "constant"
      value: 0
    }
  }
}
layers {
  bottom: "conv1_1"
  top: "conv1_1"
  name: "relu1_1"
  type: RELU
}
layers {
  bottom: "conv1_1"
  top: "conv1_2"
  name: "conv1_2"
  type: CONVOLUTION
  convolution_param {
    num_output: 64
    pad: 1
    kernel_size: 3
    weight_filler {
      type: "gaussian"
      std: 0.01
    }
    bias_filler {
      type: "constant"
      value: 0
    }
  }
}
layers {
  bottom: "conv1_2"
  top: "conv1_2"
  name: "relu1_2"
  type: RELU
}
layers {
  bottom: "conv1_2"
  top: "pool1"
  name: "pool1"
  type: POOLING
  pooling_param {
    pool: MAX
    kernel_size: 2
    stride: 2
  }
}
layers {
  bottom: "pool1"
  top: "conv2_1"
  name: "conv2_1"
  type: CONVOLUTION
  convolution_param {
    num_output: 128
    pad: 1
    kernel_size: 3
    weight_filler {
      type: "gaussian"
      std: 0.01
    }
    bias_filler {
      type: "constant"
      value: 0
    }
  }
}
layers {
  bottom: "conv2_1"
  top: "conv2_1"
  name: "relu2_1"
  type: RELU
}
layers {
  bottom: "conv2_1"
  top: "conv2_2"
  name: "conv2_2"
  type: CONVOLUTION
  convolution_param {
    num_output: 128
    pad: 1
    kernel_size: 3
    weight_filler {
      type: "gaussian"
      std: 0.01
    }
    bias_filler {
      type: "constant"
      value: 0
    }
  }
}
layers {
  bottom: "conv2_2"
  top: "conv2_2"
  name: "relu2_2"
  type: RELU
}
layers {
  bottom: "conv2_2"
  top: "pool2"
  name: "pool2"
  type: POOLING
  pooling_param {
    pool: MAX
    kernel_size: 2
    stride: 2
  }
}
layers {
  bottom: "pool2"
  top: "conv3_1"
  name: "conv3_1"
  type: CONVOLUTION
  convolution_param {
    num_output: 256
    pad: 1
    kernel_size: 3
    weight_filler {
      type: "gaussian"
      std: 0.01
    }
    bias_filler {
      type: "constant"
      value: 0
    }
  }
}
layers {
  bottom: "conv3_1"
  top: "conv3_1"
  name: "relu3_1"
  type: RELU
}
layers {
  bottom: "conv3_1"
  top: "conv3_2"
  name: "conv3_2"
  type: CONVOLUTION
  convolution_param {
    num_output: 256
    pad: 1
    kernel_size: 3
    weight_filler {
      type: "gaussian"
      std: 0.01
    }
    bias_filler {
      type: "constant"
      value: 0
    }
  }
}
layers {
  bottom: "conv3_2"
  top: "conv3_2"
  name: "relu3_2"
  type: RELU
}
layers {
  bottom: "conv3_2"
  top: "conv3_3"
  name: "conv3_3"
  type: CONVOLUTION
  convolution_param {
    num_output: 256
    pad: 1
    kernel_size: 3
    weight_filler {
      type: "gaussian"
      std: 0.01
    }
    bias_filler {
      type: "constant"
      value: 0
    }
  }
}
layers {
  bottom: "conv3_3"
  top: "conv3_3"
  name: "relu3_3"
  type: RELU
}
layers {
  bottom: "conv3_3"
  top: "pool3"
  name: "pool3"
  type: POOLING
  pooling_param {
    pool: MAX
    kernel_size: 2
    stride: 2
  }
}
layers {
  bottom: "pool3"
  top: "conv4_1"
  name: "conv4_1"
  type: CONVOLUTION
  convolution_param {
    num_output: 512
    pad: 1
    kernel_size: 3
    weight_filler {
      type: "gaussian"
      std: 0.01
    }
    bias_filler {
      type: "constant"
      value: 0
    }
  }
}
layers {
  bottom: "conv4_1"
  top: "conv4_1"
  name: "relu4_1"
  type: RELU
}
layers {
  bottom: "conv4_1"
  top: "conv4_2"
  name: "conv4_2"
  type: CONVOLUTION
  convolution_param {
    num_output: 512
    pad: 1
    kernel_size: 3
    weight_filler {
      type: "gaussian"
      std: 0.01
    }
    bias_filler {
      type: "constant"
      value: 0
    }
  }
}
layers {
  bottom: "conv4_2"
  top: "conv4_2"
  name: "relu4_2"
  type: RELU
}
layers {
  bottom: "conv4_2"
  top: "conv4_3"
  name: "conv4_3"
  type: CONVOLUTION
  convolution_param {
    num_output: 512
    pad: 1
    kernel_size: 3
    weight_filler {
      type: "gaussian"
      std: 0.01
    }
    bias_filler {
      type: "constant"
      value: 0
    }
  }
}
layers {
  bottom: "conv4_3"
  top: "conv4_3"
  name: "relu4_3"
  type: RELU
}
layers {
  bottom: "conv4_3"
  top: "pool4"
  name: "pool4"
  type: POOLING
  pooling_param {
    pool: MAX
    kernel_size: 2
    stride: 2
  }
}
layers {
  bottom: "pool4"
  top: "conv5_1"
  name: "conv5_1"
  type: CONVOLUTION
  convolution_param {
    num_output: 512
    pad: 1
    kernel_size: 3
    weight_filler {
      type: "gaussian"
      std: 0.01
    }
    bias_filler {
      type: "constant"
      value: 0
    }
  }
}
layers {
  bottom: "conv5_1"
  top: "conv5_1"
  name: "relu5_1"
  type: RELU
}
layers {
  bottom: "conv5_1"
  top: "conv5_2"
  name: "conv5_2"
  type: CONVOLUTION
  convolution_param {
    num_output: 512
    pad: 1
    kernel_size: 3
    weight_filler {
      type: "gaussian"
      std: 0.01
    }
    bias_filler {
      type: "constant"
      value: 0
    }
  }
}
layers {
  bottom: "conv5_2"
  top: "conv5_2"
  name: "relu5_2"
  type: RELU
}
layers {
  bottom: "conv5_2"
  top: "conv5_3"
  name: "conv5_3"
  type: CONVOLUTION
  convolution_param {
    num_output: 512
    pad: 1
    kernel_size: 3
    weight_filler {
      type: "gaussian"
      std: 0.01
    }
    bias_filler {
      type: "constant"
      value: 0
    }
  }
}
layers {
  bottom: "conv5_3"
  top: "conv5_3"
  name: "relu5_3"
  type: RELU
}
layers {
  bottom: "conv5_3"
  top: "pool5"
  name: "pool5"
  type: POOLING
  pooling_param {
    pool: MAX
    kernel_size: 2
    stride: 2
  }
}
layers {
  bottom: "pool5"
  top: "fc6"
  name: "fc6"
  type: INNER_PRODUCT
  inner_product_param {
    num_output: 4096
    weight_filler {
      type: "gaussian"
      std: 0.01
    }
    bias_filler {
      type: "constant"
      value: 0
    }
  }
}
layers {
  bottom: "fc6"
  top: "fc6"
  name: "relu6"
  type: RELU
}
layers {
  bottom: "fc6"
  top: "fc6"
  name: "drop6"
  type: DROPOUT
  dropout_param {
    dropout_ratio: 0.5
  }
}
layers {
  bottom: "fc6"
  top: "fc7"
  name: "fc7"
  type: INNER_PRODUCT
  inner_product_param {
    num_output: 4096
    weight_filler {
      type: "gaussian"
      std: 0.01
    }
    bias_filler {
      type: "constant"
      value: 0
    }
  }
}
layers {
  bottom: "fc7"
  top: "fc7"
  name: "relu7"
  type: RELU
}
layers {
  bottom: "fc7"
  top: "fc7"
  name: "drop7"
  type: DROPOUT
  dropout_param {
    dropout_ratio: 0.5
  }
}
layers {
  bottom: "fc7"
  top: "fc8_2"
  name: "fc8_2"
  type: INNER_PRODUCT
  inner_product_param {
    num_output: 2
    weight_filler {
      type: "gaussian"
      std: 0.01
    }
    bias_filler {
      type: "constant"
      value: 0
    }
  }
}
layers {
  bottom: "fc8_2"
  bottom: "label"
  name: "loss"
  type: SOFTMAX_LOSS
}
state {
  phase: TRAIN
}
I1111 04:26:13.643743 17509 layer_factory.hpp:78] Creating layer data
I1111 04:26:13.643764 17509 net.cpp:67] Creating Layer data
I1111 04:26:13.643769 17509 net.cpp:356] data -> data
I1111 04:26:13.643786 17509 net.cpp:356] data -> label
I1111 04:26:13.643797 17509 net.cpp:96] Setting up data
I1111 04:26:13.643803 17509 image_data_layer.cpp:34] Opening file /data/ad6813/devCaffe/caffe/data/soil_high_o/train.txt
I1111 04:26:13.684717 17509 image_data_layer.cpp:49] A total of 120113 images.
I1111 04:26:13.690345 17509 image_data_layer.cpp:78] output data size: 32,3,224,224
I1111 04:26:13.693222 17509 net.cpp:103] Top shape: 32 3 224 224 (4816896)
I1111 04:26:13.693249 17509 net.cpp:103] Top shape: 32 1 1 1 (32)
I1111 04:26:13.693254 17509 layer_factory.hpp:78] Creating layer conv1_1
I1111 04:26:13.693269 17509 net.cpp:67] Creating Layer conv1_1
I1111 04:26:13.693274 17509 net.cpp:394] conv1_1 <- data
I1111 04:26:13.693289 17509 net.cpp:356] conv1_1 -> conv1_1
I1111 04:26:13.693305 17509 net.cpp:96] Setting up conv1_1
I1111 04:26:13.874006 17509 net.cpp:103] Top shape: 32 64 224 224 (102760448)
I1111 04:26:13.874039 17509 layer_factory.hpp:78] Creating layer relu1_1
I1111 04:26:13.874052 17509 net.cpp:67] Creating Layer relu1_1
I1111 04:26:13.874057 17509 net.cpp:394] relu1_1 <- conv1_1
I1111 04:26:13.874063 17509 net.cpp:345] relu1_1 -> conv1_1 (in-place)
I1111 04:26:13.874070 17509 net.cpp:96] Setting up relu1_1
I1111 04:26:13.874079 17509 net.cpp:103] Top shape: 32 64 224 224 (102760448)
I1111 04:26:13.874083 17509 layer_factory.hpp:78] Creating layer conv1_2
I1111 04:26:13.874089 17509 net.cpp:67] Creating Layer conv1_2
I1111 04:26:13.874092 17509 net.cpp:394] conv1_2 <- conv1_1
I1111 04:26:13.874097 17509 net.cpp:356] conv1_2 -> conv1_2
I1111 04:26:13.874104 17509 net.cpp:96] Setting up conv1_2
I1111 04:26:13.875149 17509 net.cpp:103] Top shape: 32 64 224 224 (102760448)
I1111 04:26:13.875160 17509 layer_factory.hpp:78] Creating layer relu1_2
I1111 04:26:13.875166 17509 net.cpp:67] Creating Layer relu1_2
I1111 04:26:13.875169 17509 net.cpp:394] relu1_2 <- conv1_2
I1111 04:26:13.875175 17509 net.cpp:345] relu1_2 -> conv1_2 (in-place)
I1111 04:26:13.875180 17509 net.cpp:96] Setting up relu1_2
I1111 04:26:13.875185 17509 net.cpp:103] Top shape: 32 64 224 224 (102760448)
I1111 04:26:13.875190 17509 layer_factory.hpp:78] Creating layer pool1
I1111 04:26:13.875196 17509 net.cpp:67] Creating Layer pool1
I1111 04:26:13.875205 17509 net.cpp:394] pool1 <- conv1_2
I1111 04:26:13.875208 17509 net.cpp:356] pool1 -> pool1
I1111 04:26:13.875213 17509 net.cpp:96] Setting up pool1
I1111 04:26:13.875231 17509 net.cpp:103] Top shape: 32 64 112 112 (25690112)
I1111 04:26:13.875236 17509 layer_factory.hpp:78] Creating layer conv2_1
I1111 04:26:13.875242 17509 net.cpp:67] Creating Layer conv2_1
I1111 04:26:13.875247 17509 net.cpp:394] conv2_1 <- pool1
I1111 04:26:13.875252 17509 net.cpp:356] conv2_1 -> conv2_1
I1111 04:26:13.875257 17509 net.cpp:96] Setting up conv2_1
I1111 04:26:13.877151 17509 net.cpp:103] Top shape: 32 128 112 112 (51380224)
I1111 04:26:13.877163 17509 layer_factory.hpp:78] Creating layer relu2_1
I1111 04:26:13.877169 17509 net.cpp:67] Creating Layer relu2_1
I1111 04:26:13.877172 17509 net.cpp:394] relu2_1 <- conv2_1
I1111 04:26:13.877177 17509 net.cpp:345] relu2_1 -> conv2_1 (in-place)
I1111 04:26:13.877182 17509 net.cpp:96] Setting up relu2_1
I1111 04:26:13.877185 17509 net.cpp:103] Top shape: 32 128 112 112 (51380224)
I1111 04:26:13.877189 17509 layer_factory.hpp:78] Creating layer conv2_2
I1111 04:26:13.877197 17509 net.cpp:67] Creating Layer conv2_2
I1111 04:26:13.877199 17509 net.cpp:394] conv2_2 <- conv2_1
I1111 04:26:13.877203 17509 net.cpp:356] conv2_2 -> conv2_2
I1111 04:26:13.877208 17509 net.cpp:96] Setting up conv2_2
I1111 04:26:13.880944 17509 net.cpp:103] Top shape: 32 128 112 112 (51380224)
I1111 04:26:13.880954 17509 layer_factory.hpp:78] Creating layer relu2_2
I1111 04:26:13.880959 17509 net.cpp:67] Creating Layer relu2_2
I1111 04:26:13.880962 17509 net.cpp:394] relu2_2 <- conv2_2
I1111 04:26:13.880969 17509 net.cpp:345] relu2_2 -> conv2_2 (in-place)
I1111 04:26:13.880972 17509 net.cpp:96] Setting up relu2_2
I1111 04:26:13.880977 17509 net.cpp:103] Top shape: 32 128 112 112 (51380224)
I1111 04:26:13.880990 17509 layer_factory.hpp:78] Creating layer pool2
I1111 04:26:13.880995 17509 net.cpp:67] Creating Layer pool2
I1111 04:26:13.880997 17509 net.cpp:394] pool2 <- conv2_2
I1111 04:26:13.881002 17509 net.cpp:356] pool2 -> pool2
I1111 04:26:13.881006 17509 net.cpp:96] Setting up pool2
I1111 04:26:13.881012 17509 net.cpp:103] Top shape: 32 128 56 56 (12845056)
I1111 04:26:13.881016 17509 layer_factory.hpp:78] Creating layer conv3_1
I1111 04:26:13.881023 17509 net.cpp:67] Creating Layer conv3_1
I1111 04:26:13.881026 17509 net.cpp:394] conv3_1 <- pool2
I1111 04:26:13.881031 17509 net.cpp:356] conv3_1 -> conv3_1
I1111 04:26:13.881037 17509 net.cpp:96] Setting up conv3_1
I1111 04:26:13.888414 17509 net.cpp:103] Top shape: 32 256 56 56 (25690112)
I1111 04:26:13.888427 17509 layer_factory.hpp:78] Creating layer relu3_1
I1111 04:26:13.888434 17509 net.cpp:67] Creating Layer relu3_1
I1111 04:26:13.888437 17509 net.cpp:394] relu3_1 <- conv3_1
I1111 04:26:13.888442 17509 net.cpp:345] relu3_1 -> conv3_1 (in-place)
I1111 04:26:13.888447 17509 net.cpp:96] Setting up relu3_1
I1111 04:26:13.888453 17509 net.cpp:103] Top shape: 32 256 56 56 (25690112)
I1111 04:26:13.888455 17509 layer_factory.hpp:78] Creating layer conv3_2
I1111 04:26:13.888461 17509 net.cpp:67] Creating Layer conv3_2
I1111 04:26:13.888464 17509 net.cpp:394] conv3_2 <- conv3_1
I1111 04:26:13.888468 17509 net.cpp:356] conv3_2 -> conv3_2
I1111 04:26:13.888473 17509 net.cpp:96] Setting up conv3_2
I1111 04:26:13.903305 17509 net.cpp:103] Top shape: 32 256 56 56 (25690112)
I1111 04:26:13.903321 17509 layer_factory.hpp:78] Creating layer relu3_2
I1111 04:26:13.903328 17509 net.cpp:67] Creating Layer relu3_2
I1111 04:26:13.903332 17509 net.cpp:394] relu3_2 <- conv3_2
I1111 04:26:13.903337 17509 net.cpp:345] relu3_2 -> conv3_2 (in-place)
I1111 04:26:13.903343 17509 net.cpp:96] Setting up relu3_2
I1111 04:26:13.903348 17509 net.cpp:103] Top shape: 32 256 56 56 (25690112)
I1111 04:26:13.903352 17509 layer_factory.hpp:78] Creating layer conv3_3
I1111 04:26:13.903358 17509 net.cpp:67] Creating Layer conv3_3
I1111 04:26:13.903362 17509 net.cpp:394] conv3_3 <- conv3_2
I1111 04:26:13.903365 17509 net.cpp:356] conv3_3 -> conv3_3
I1111 04:26:13.903372 17509 net.cpp:96] Setting up conv3_3
I1111 04:26:13.918042 17509 net.cpp:103] Top shape: 32 256 56 56 (25690112)
I1111 04:26:13.918056 17509 layer_factory.hpp:78] Creating layer relu3_3
I1111 04:26:13.918063 17509 net.cpp:67] Creating Layer relu3_3
I1111 04:26:13.918067 17509 net.cpp:394] relu3_3 <- conv3_3
I1111 04:26:13.918071 17509 net.cpp:345] relu3_3 -> conv3_3 (in-place)
I1111 04:26:13.918076 17509 net.cpp:96] Setting up relu3_3
I1111 04:26:13.918081 17509 net.cpp:103] Top shape: 32 256 56 56 (25690112)
I1111 04:26:13.918084 17509 layer_factory.hpp:78] Creating layer pool3
I1111 04:26:13.918092 17509 net.cpp:67] Creating Layer pool3
I1111 04:26:13.918094 17509 net.cpp:394] pool3 <- conv3_3
I1111 04:26:13.918098 17509 net.cpp:356] pool3 -> pool3
I1111 04:26:13.918103 17509 net.cpp:96] Setting up pool3
I1111 04:26:13.918112 17509 net.cpp:103] Top shape: 32 256 28 28 (6422528)
I1111 04:26:13.918114 17509 layer_factory.hpp:78] Creating layer conv4_1
I1111 04:26:13.918120 17509 net.cpp:67] Creating Layer conv4_1
I1111 04:26:13.918123 17509 net.cpp:394] conv4_1 <- pool3
I1111 04:26:13.918128 17509 net.cpp:356] conv4_1 -> conv4_1
I1111 04:26:13.918133 17509 net.cpp:96] Setting up conv4_1
I1111 04:26:13.946995 17509 net.cpp:103] Top shape: 32 512 28 28 (12845056)
I1111 04:26:13.947017 17509 layer_factory.hpp:78] Creating layer relu4_1
I1111 04:26:13.947027 17509 net.cpp:67] Creating Layer relu4_1
I1111 04:26:13.947031 17509 net.cpp:394] relu4_1 <- conv4_1
I1111 04:26:13.947038 17509 net.cpp:345] relu4_1 -> conv4_1 (in-place)
I1111 04:26:13.947044 17509 net.cpp:96] Setting up relu4_1
I1111 04:26:13.947051 17509 net.cpp:103] Top shape: 32 512 28 28 (12845056)
I1111 04:26:13.947053 17509 layer_factory.hpp:78] Creating layer conv4_2
I1111 04:26:13.947058 17509 net.cpp:67] Creating Layer conv4_2
I1111 04:26:13.947062 17509 net.cpp:394] conv4_2 <- conv4_1
I1111 04:26:13.947077 17509 net.cpp:356] conv4_2 -> conv4_2
I1111 04:26:13.947082 17509 net.cpp:96] Setting up conv4_2
I1111 04:26:14.004912 17509 net.cpp:103] Top shape: 32 512 28 28 (12845056)
I1111 04:26:14.004942 17509 layer_factory.hpp:78] Creating layer relu4_2
I1111 04:26:14.004951 17509 net.cpp:67] Creating Layer relu4_2
I1111 04:26:14.004955 17509 net.cpp:394] relu4_2 <- conv4_2
I1111 04:26:14.004961 17509 net.cpp:345] relu4_2 -> conv4_2 (in-place)
I1111 04:26:14.004967 17509 net.cpp:96] Setting up relu4_2
I1111 04:26:14.004972 17509 net.cpp:103] Top shape: 32 512 28 28 (12845056)
I1111 04:26:14.004976 17509 layer_factory.hpp:78] Creating layer conv4_3
I1111 04:26:14.004982 17509 net.cpp:67] Creating Layer conv4_3
I1111 04:26:14.004986 17509 net.cpp:394] conv4_3 <- conv4_2
I1111 04:26:14.004992 17509 net.cpp:356] conv4_3 -> conv4_3
I1111 04:26:14.004997 17509 net.cpp:96] Setting up conv4_3
I1111 04:26:14.062588 17509 net.cpp:103] Top shape: 32 512 28 28 (12845056)
I1111 04:26:14.062613 17509 layer_factory.hpp:78] Creating layer relu4_3
I1111 04:26:14.062621 17509 net.cpp:67] Creating Layer relu4_3
I1111 04:26:14.062625 17509 net.cpp:394] relu4_3 <- conv4_3
I1111 04:26:14.062633 17509 net.cpp:345] relu4_3 -> conv4_3 (in-place)
I1111 04:26:14.062638 17509 net.cpp:96] Setting up relu4_3
I1111 04:26:14.062644 17509 net.cpp:103] Top shape: 32 512 28 28 (12845056)
I1111 04:26:14.062647 17509 layer_factory.hpp:78] Creating layer pool4
I1111 04:26:14.062654 17509 net.cpp:67] Creating Layer pool4
I1111 04:26:14.062656 17509 net.cpp:394] pool4 <- conv4_3
I1111 04:26:14.062661 17509 net.cpp:356] pool4 -> pool4
I1111 04:26:14.062667 17509 net.cpp:96] Setting up pool4
I1111 04:26:14.062674 17509 net.cpp:103] Top shape: 32 512 14 14 (3211264)
I1111 04:26:14.062679 17509 layer_factory.hpp:78] Creating layer conv5_1
I1111 04:26:14.062683 17509 net.cpp:67] Creating Layer conv5_1
I1111 04:26:14.062686 17509 net.cpp:394] conv5_1 <- pool4
I1111 04:26:14.062691 17509 net.cpp:356] conv5_1 -> conv5_1
I1111 04:26:14.062700 17509 net.cpp:96] Setting up conv5_1
I1111 04:26:14.120357 17509 net.cpp:103] Top shape: 32 512 14 14 (3211264)
I1111 04:26:14.120383 17509 layer_factory.hpp:78] Creating layer relu5_1
I1111 04:26:14.120394 17509 net.cpp:67] Creating Layer relu5_1
I1111 04:26:14.120398 17509 net.cpp:394] relu5_1 <- conv5_1
I1111 04:26:14.120405 17509 net.cpp:345] relu5_1 -> conv5_1 (in-place)
I1111 04:26:14.120411 17509 net.cpp:96] Setting up relu5_1
I1111 04:26:14.120417 17509 net.cpp:103] Top shape: 32 512 14 14 (3211264)
I1111 04:26:14.120420 17509 layer_factory.hpp:78] Creating layer conv5_2
I1111 04:26:14.120426 17509 net.cpp:67] Creating Layer conv5_2
I1111 04:26:14.120429 17509 net.cpp:394] conv5_2 <- conv5_1
I1111 04:26:14.120434 17509 net.cpp:356] conv5_2 -> conv5_2
I1111 04:26:14.120440 17509 net.cpp:96] Setting up conv5_2
I1111 04:26:14.178200 17509 net.cpp:103] Top shape: 32 512 14 14 (3211264)
I1111 04:26:14.178225 17509 layer_factory.hpp:78] Creating layer relu5_2
I1111 04:26:14.178233 17509 net.cpp:67] Creating Layer relu5_2
I1111 04:26:14.178237 17509 net.cpp:394] relu5_2 <- conv5_2
I1111 04:26:14.178246 17509 net.cpp:345] relu5_2 -> conv5_2 (in-place)
I1111 04:26:14.178252 17509 net.cpp:96] Setting up relu5_2
I1111 04:26:14.178257 17509 net.cpp:103] Top shape: 32 512 14 14 (3211264)
I1111 04:26:14.178261 17509 layer_factory.hpp:78] Creating layer conv5_3
I1111 04:26:14.178267 17509 net.cpp:67] Creating Layer conv5_3
I1111 04:26:14.178269 17509 net.cpp:394] conv5_3 <- conv5_2
I1111 04:26:14.178275 17509 net.cpp:356] conv5_3 -> conv5_3
I1111 04:26:14.178282 17509 net.cpp:96] Setting up conv5_3
I1111 04:26:14.235812 17509 net.cpp:103] Top shape: 32 512 14 14 (3211264)
I1111 04:26:14.235839 17509 layer_factory.hpp:78] Creating layer relu5_3
I1111 04:26:14.235847 17509 net.cpp:67] Creating Layer relu5_3
I1111 04:26:14.235852 17509 net.cpp:394] relu5_3 <- conv5_3
I1111 04:26:14.235857 17509 net.cpp:345] relu5_3 -> conv5_3 (in-place)
I1111 04:26:14.235863 17509 net.cpp:96] Setting up relu5_3
I1111 04:26:14.235868 17509 net.cpp:103] Top shape: 32 512 14 14 (3211264)
I1111 04:26:14.235882 17509 layer_factory.hpp:78] Creating layer pool5
I1111 04:26:14.235888 17509 net.cpp:67] Creating Layer pool5
I1111 04:26:14.235890 17509 net.cpp:394] pool5 <- conv5_3
I1111 04:26:14.235898 17509 net.cpp:356] pool5 -> pool5
I1111 04:26:14.235903 17509 net.cpp:96] Setting up pool5
I1111 04:26:14.235910 17509 net.cpp:103] Top shape: 32 512 7 7 (802816)
I1111 04:26:14.235913 17509 layer_factory.hpp:78] Creating layer fc6
I1111 04:26:14.235929 17509 net.cpp:67] Creating Layer fc6
I1111 04:26:14.235931 17509 net.cpp:394] fc6 <- pool5
I1111 04:26:14.235936 17509 net.cpp:356] fc6 -> fc6
I1111 04:26:14.235941 17509 net.cpp:96] Setting up fc6
I1111 04:26:16.646791 17509 net.cpp:103] Top shape: 32 4096 1 1 (131072)
I1111 04:26:16.646833 17509 layer_factory.hpp:78] Creating layer relu6
I1111 04:26:16.646844 17509 net.cpp:67] Creating Layer relu6
I1111 04:26:16.646848 17509 net.cpp:394] relu6 <- fc6
I1111 04:26:16.646855 17509 net.cpp:345] relu6 -> fc6 (in-place)
I1111 04:26:16.646862 17509 net.cpp:96] Setting up relu6
I1111 04:26:16.646877 17509 net.cpp:103] Top shape: 32 4096 1 1 (131072)
I1111 04:26:16.646879 17509 layer_factory.hpp:78] Creating layer drop6
I1111 04:26:16.646886 17509 net.cpp:67] Creating Layer drop6
I1111 04:26:16.646889 17509 net.cpp:394] drop6 <- fc6
I1111 04:26:16.646896 17509 net.cpp:345] drop6 -> fc6 (in-place)
I1111 04:26:16.646901 17509 net.cpp:96] Setting up drop6
I1111 04:26:16.646905 17509 net.cpp:103] Top shape: 32 4096 1 1 (131072)
I1111 04:26:16.646908 17509 layer_factory.hpp:78] Creating layer fc7
I1111 04:26:16.646914 17509 net.cpp:67] Creating Layer fc7
I1111 04:26:16.646916 17509 net.cpp:394] fc7 <- fc6
I1111 04:26:16.646920 17509 net.cpp:356] fc7 -> fc7
I1111 04:26:16.646926 17509 net.cpp:96] Setting up fc7
I1111 04:26:17.035258 17509 net.cpp:103] Top shape: 32 4096 1 1 (131072)
I1111 04:26:17.035295 17509 layer_factory.hpp:78] Creating layer relu7
I1111 04:26:17.035305 17509 net.cpp:67] Creating Layer relu7
I1111 04:26:17.035308 17509 net.cpp:394] relu7 <- fc7
I1111 04:26:17.035316 17509 net.cpp:345] relu7 -> fc7 (in-place)
I1111 04:26:17.035322 17509 net.cpp:96] Setting up relu7
I1111 04:26:17.035337 17509 net.cpp:103] Top shape: 32 4096 1 1 (131072)
I1111 04:26:17.035341 17509 layer_factory.hpp:78] Creating layer drop7
I1111 04:26:17.035346 17509 net.cpp:67] Creating Layer drop7
I1111 04:26:17.035348 17509 net.cpp:394] drop7 <- fc7
I1111 04:26:17.035352 17509 net.cpp:345] drop7 -> fc7 (in-place)
I1111 04:26:17.035356 17509 net.cpp:96] Setting up drop7
I1111 04:26:17.035359 17509 net.cpp:103] Top shape: 32 4096 1 1 (131072)
I1111 04:26:17.035362 17509 layer_factory.hpp:78] Creating layer fc8_2
I1111 04:26:17.035367 17509 net.cpp:67] Creating Layer fc8_2
I1111 04:26:17.035370 17509 net.cpp:394] fc8_2 <- fc7
I1111 04:26:17.035375 17509 net.cpp:356] fc8_2 -> fc8_2
I1111 04:26:17.035382 17509 net.cpp:96] Setting up fc8_2
I1111 04:26:17.035599 17509 net.cpp:103] Top shape: 32 2 1 1 (64)
I1111 04:26:17.035609 17509 layer_factory.hpp:78] Creating layer loss
I1111 04:26:17.035614 17509 net.cpp:67] Creating Layer loss
I1111 04:26:17.035617 17509 net.cpp:394] loss <- fc8_2
I1111 04:26:17.035621 17509 net.cpp:394] loss <- label
I1111 04:26:17.035630 17509 net.cpp:356] loss -> (automatic)
I1111 04:26:17.035637 17509 net.cpp:96] Setting up loss
I1111 04:26:17.035645 17509 net.cpp:103] Top shape: 1 1 1 1 (1)
I1111 04:26:17.035650 17509 net.cpp:109]     with loss weight 1
I1111 04:26:17.035677 17509 net.cpp:170] loss needs backward computation.
I1111 04:26:17.035682 17509 net.cpp:170] fc8_2 needs backward computation.
I1111 04:26:17.035686 17509 net.cpp:170] drop7 needs backward computation.
I1111 04:26:17.035687 17509 net.cpp:170] relu7 needs backward computation.
I1111 04:26:17.035691 17509 net.cpp:170] fc7 needs backward computation.
…
I1111 04:26:17.036638 17509 net.cpp:275] The NetState phase (1) differed from the phase (0) specified by a rule in layer data
I1111 04:26:17.036840 17509 net.cpp:39] Initializing net from parameters: 
name: "small"
layers {
  top: "data"
  top: "label"
  name: "data"
  type: IMAGE_DATA
  image_data_param {
    source: "/data/ad6813/devCaffe/caffe/data/soil_high_o/val.txt"
    batch_size: 8
    new_height: 256
    new_width: 256
  }
  include {
    phase: TEST
  }
  transform_param {
    mirror: true
    crop_size: 224
    mean_value: 86.752
    mean_value: 101.46
    mean_value: 104.6
  }
}
layers {
  bottom: "data"
  top: "conv1_1"
  name: "conv1_1"
  type: CONVOLUTION
  convolution_param {
    num_output: 64
    pad: 1
    kernel_size: 3
    weight_filler {
      type: "gaussian"
      std: 0.01
    }
    bias_filler {
      type: "constant"
      value: 0
    }
  }
}
layers {
  bottom: "conv1_1"
  top: "conv1_1"
  name: "relu1_1"
  type: RELU
}
layers {
  bottom: "conv1_1"
  top: "conv1_2"
  name: "conv1_2"
  type: CONVOLUTION
  convolution_param {
    num_output: 64
    pad: 1
    kernel_size: 3
    weight_filler {
      type: "gaussian"
      std: 0.01
    }
    bias_filler {
      type: "constant"
      value: 0
    }
  }
}
layers {
  bottom: "conv1_2"
  top: "conv1_2"
  name: "relu1_2"
  type: RELU
}
layers {
  bottom: "conv1_2"
  top: "pool1"
  name: "pool1"
  type: POOLING
  pooling_param {
    pool: MAX
    kernel_size: 2
    stride: 2
  }
}
layers {
  bottom: "pool1"
  top: "conv2_1"
  name: "conv2_1"
  type: CONVOLUTION
  convolution_param {
    num_output: 128
    pad: 1
    kernel_size: 3
    weight_filler {
      type: "gaussian"
      std: 0.01
    }
    bias_filler {
      type: "constant"
      value: 0
    }
  }
}
layers {
  bottom: "conv2_1"
  top: "conv2_1"
  name: "relu2_1"
  type: RELU
}
layers {
  bottom: "conv2_1"
  top: "conv2_2"
  name: "conv2_2"
  type: CONVOLUTION
  convolution_param {
    num_output: 128
    pad: 1
    kernel_size: 3
    weight_filler {
      type: "gaussian"
      std: 0.01
    }
    bias_filler {
      type: "constant"
      value: 0
    }
  }
}
layers {
  bottom: "conv2_2"
  top: "conv2_2"
  name: "relu2_2"
  type: RELU
}
layers {
  bottom: "conv2_2"
  top: "pool2"
  name: "pool2"
  type: POOLING
  pooling_param {
    pool: MAX
    kernel_size: 2
    stride: 2
  }
}
layers {
  bottom: "pool2"
  top: "conv3_1"
  name: "conv3_1"
  type: CONVOLUTION
  convolution_param {
    num_output: 256
    pad: 1
    kernel_size: 3
    weight_filler {
      type: "gaussian"
      std: 0.01
    }
    bias_filler {
      type: "constant"
      value: 0
    }
  }
}
layers {
  bottom: "conv3_1"
  top: "conv3_1"
  name: "relu3_1"
  type: RELU
}
layers {
  bottom: "conv3_1"
  top: "conv3_2"
  name: "conv3_2"
  type: CONVOLUTION
  convolution_param {
    num_output: 256
    pad: 1
    kernel_size: 3
    weight_filler {
      type: "gaussian"
      std: 0.01
    }
    bias_filler {
      type: "constant"
      value: 0
    }
  }
}
layers {
  bottom: "conv3_2"
  top: "conv3_2"
  name: "relu3_2"
  type: RELU
}
layers {
  bottom: "conv3_2"
  top: "conv3_3"
  name: "conv3_3"
  type: CONVOLUTION
  convolution_param {
    num_output: 256
    pad: 1
    kernel_size: 3
    weight_filler {
      type: "gaussian"
      std: 0.01
    }
    bias_filler {
      type: "constant"
      value: 0
    }
  }
}
layers {
  bottom: "conv3_3"
  top: "conv3_3"
  name: "relu3_3"
  type: RELU
}
layers {
  bottom: "conv3_3"
  top: "pool3"
  name: "pool3"
  type: POOLING
  pooling_param {
    pool: MAX
    kernel_size: 2
    stride: 2
  }
}
layers {
  bottom: "pool3"
  top: "conv4_1"
  name: "conv4_1"
  type: CONVOLUTION
  convolution_param {
    num_output: 512
    pad: 1
    kernel_size: 3
    weight_filler {
      type: "gaussian"
      std: 0.01
    }
    bias_filler {
      type: "constant"
      value: 0
    }
  }
}
layers {
  bottom: "conv4_1"
  top: "conv4_1"
  name: "relu4_1"
  type: RELU
}
layers {
  bottom: "conv4_1"
  top: "conv4_2"
  name: "conv4_2"
  type: CONVOLUTION
  convolution_param {
    num_output: 512
    pad: 1
    kernel_size: 3
    weight_filler {
      type: "gaussian"
      std: 0.01
    }
    bias_filler {
      type: "constant"
      value: 0
    }
  }
}
layers {
  bottom: "conv4_2"
  top: "conv4_2"
  name: "relu4_2"
  type: RELU
}
layers {
  bottom: "conv4_2"
  top: "conv4_3"
  name: "conv4_3"
  type: CONVOLUTION
  convolution_param {
    num_output: 512
    pad: 1
    kernel_size: 3
    weight_filler {
      type: "gaussian"
      std: 0.01
    }
    bias_filler {
      type: "constant"
      value: 0
    }
  }
}
layers {
  bottom: "conv4_3"
  top: "conv4_3"
  name: "relu4_3"
  type: RELU
}
layers {
  bottom: "conv4_3"
  top: "pool4"
  name: "pool4"
  type: POOLING
  pooling_param {
    pool: MAX
    kernel_size: 2
    stride: 2
  }
}
layers {
  bottom: "pool4"
  top: "conv5_1"
  name: "conv5_1"
  type: CONVOLUTION
  convolution_param {
    num_output: 512
    pad: 1
    kernel_size: 3
    weight_filler {
      type: "gaussian"
      std: 0.01
    }
    bias_filler {
      type: "constant"
      value: 0
    }
  }
}
layers {
  bottom: "conv5_1"
  top: "conv5_1"
  name: "relu5_1"
  type: RELU
}
layers {
  bottom: "conv5_1"
  top: "conv5_2"
  name: "conv5_2"
  type: CONVOLUTION
  convolution_param {
    num_output: 512
    pad: 1
    kernel_size: 3
    weight_filler {
      type: "gaussian"
      std: 0.01
    }
    bias_filler {
      type: "constant"
      value: 0
    }
  }
}
layers {
  bottom: "conv5_2"
  top: "conv5_2"
  name: "relu5_2"
  type: RELU
}
layers {
  bottom: "conv5_2"
  top: "conv5_3"
  name: "conv5_3"
  type: CONVOLUTION
  convolution_param {
    num_output: 512
    pad: 1
    kernel_size: 3
    weight_filler {
      type: "gaussian"
      std: 0.01
    }
    bias_filler {
      type: "constant"
      value: 0
    }
  }
}
layers {
  bottom: "conv5_3"
  top: "conv5_3"
  name: "relu5_3"
  type: RELU
}
layers {
  bottom: "conv5_3"
  top: "pool5"
  name: "pool5"
  type: POOLING
  pooling_param {
    pool: MAX
    kernel_size: 2
    stride: 2
  }
}
layers {
  bottom: "pool5"
  top: "fc6"
  name: "fc6"
  type: INNER_PRODUCT
  inner_product_param {
    num_output: 4096
    weight_filler {
      type: "gaussian"
      std: 0.01
    }
    bias_filler {
      type: "constant"
      value: 0
    }
  }
}
layers {
  bottom: "fc6"
  top: "fc6"
  name: "relu6"
  type: RELU
}
layers {
  bottom: "fc6"
  top: "fc6"
  name: "drop6"
  type: DROPOUT
  dropout_param {
    dropout_ratio: 0.5
  }
}
layers {
  bottom: "fc6"
  top: "fc7"
  name: "fc7"
  type: INNER_PRODUCT
  inner_product_param {
    num_output: 4096
    weight_filler {
      type: "gaussian"
      std: 0.01
    }
    bias_filler {
      type: "constant"
      value: 0
    }
  }
}
layers {
  bottom: "fc7"
  top: "fc7"
  name: "relu7"
  type: RELU
}
layers {
  bottom: "fc7"
  top: "fc7"
  name: "drop7"
  type: DROPOUT
  dropout_param {
    dropout_ratio: 0.5
  }
}
layers {
  bottom: "fc7"
  top: "fc8_2"
  name: "fc8_2"
  type: INNER_PRODUCT
  inner_product_param {
    num_output: 2
    weight_filler {
      type: "gaussian"
      std: 0.01
    }
    bias_filler {
      type: "constant"
      value: 0
    }
  }
}
layers {
  bottom: "fc8_2"
  bottom: "label"
  name: "loss"
  type: SOFTMAX_LOSS
}
layers {
  bottom: "fc8_2"
  bottom: "label"
  top: "accuracy"
  name: "accuracy"
  type: PER_CLASS_ACCURACY
  include {
    phase: TEST
  }
}
state {
  phase: TEST
}
I1111 04:26:17.036970 17509 layer_factory.hpp:78] Creating layer data
I1111 04:26:17.036980 17509 net.cpp:67] Creating Layer data
I1111 04:26:17.036984 17509 net.cpp:356] data -> data
I1111 04:26:17.036991 17509 net.cpp:356] data -> label
I1111 04:26:17.036998 17509 net.cpp:96] Setting up data
I1111 04:26:17.037000 17509 image_data_layer.cpp:34] Opening file /data/ad6813/devCaffe/caffe/data/soil_high_o/val.txt
I1111 04:26:17.037356 17509 image_data_layer.cpp:49] A total of 967 images.
I1111 04:26:17.044975 17509 image_data_layer.cpp:78] output data size: 8,3,224,224
I1111 04:26:17.045780 17509 net.cpp:103] Top shape: 8 3 224 224 (1204224)
I1111 04:26:17.045789 17509 net.cpp:103] Top shape: 8 1 1 1 (8)
I1111 04:26:17.045794 17509 layer_factory.hpp:78] Creating layer label_data_1_split
I1111 04:26:17.045804 17509 net.cpp:67] Creating Layer label_data_1_split
I1111 04:26:17.045807 17509 net.cpp:394] label_data_1_split <- label
I1111 04:26:17.045814 17509 net.cpp:356] label_data_1_split -> label_data_1_split_0
I1111 04:26:17.045821 17509 net.cpp:356] label_data_1_split -> label_data_1_split_1
I1111 04:26:17.045828 17509 net.cpp:96] Setting up label_data_1_split
I1111 04:26:17.045832 17509 net.cpp:103] Top shape: 8 1 1 1 (8)
I1111 04:26:17.045835 17509 net.cpp:103] Top shape: 8 1 1 1 (8)
I1111 04:26:17.045838 17509 layer_factory.hpp:78] Creating layer conv1_1
I1111 04:26:17.045845 17509 net.cpp:67] Creating Layer conv1_1
I1111 04:26:17.045847 17509 net.cpp:394] conv1_1 <- data
I1111 04:26:17.045851 17509 net.cpp:356] conv1_1 -> conv1_1
I1111 04:26:17.045857 17509 net.cpp:96] Setting up conv1_1
I1111 04:26:17.046041 17509 net.cpp:103] Top shape: 8 64 224 224 (25690112)
I1111 04:26:17.046056 17509 layer_factory.hpp:78] Creating layer relu1_1
I1111 04:26:17.046063 17509 net.cpp:67] Creating Layer relu1_1
I1111 04:26:17.046066 17509 net.cpp:394] relu1_1 <- conv1_1
I1111 04:26:17.046072 17509 net.cpp:345] relu1_1 -> conv1_1 (in-place)
I1111 04:26:17.046082 17509 net.cpp:96] Setting up relu1_1
I1111 04:26:17.046088 17509 net.cpp:103] Top shape: 8 64 224 224 (25690112)
I1111 04:26:17.046092 17509 layer_factory.hpp:78] Creating layer conv1_2
I1111 04:26:17.046097 17509 net.cpp:67] Creating Layer conv1_2
I1111 04:26:17.046099 17509 net.cpp:394] conv1_2 <- conv1_1
I1111 04:26:17.046104 17509 net.cpp:356] conv1_2 -> conv1_2
I1111 04:26:17.046109 17509 net.cpp:96] Setting up conv1_2
I1111 04:26:17.047116 17509 net.cpp:103] Top shape: 8 64 224 224 (25690112)
I1111 04:26:17.047128 17509 layer_factory.hpp:78] Creating layer relu1_2
I1111 04:26:17.047133 17509 net.cpp:67] Creating Layer relu1_2
I1111 04:26:17.047137 17509 net.cpp:394] relu1_2 <- conv1_2
I1111 04:26:17.047140 17509 net.cpp:345] relu1_2 -> conv1_2 (in-place)
I1111 04:26:17.047145 17509 net.cpp:96] Setting up relu1_2
I1111 04:26:17.047150 17509 net.cpp:103] Top shape: 8 64 224 224 (25690112)
I1111 04:26:17.047153 17509 layer_factory.hpp:78] Creating layer pool1
I1111 04:26:17.047158 17509 net.cpp:67] Creating Layer pool1
I1111 04:26:17.047161 17509 net.cpp:394] pool1 <- conv1_2
I1111 04:26:17.047165 17509 net.cpp:356] pool1 -> pool1
I1111 04:26:17.047170 17509 net.cpp:96] Setting up pool1
I1111 04:26:17.047178 17509 net.cpp:103] Top shape: 8 64 112 112 (6422528)
I1111 04:26:17.047180 17509 layer_factory.hpp:78] Creating layer conv2_1
I1111 04:26:17.047184 17509 net.cpp:67] Creating Layer conv2_1
I1111 04:26:17.047188 17509 net.cpp:394] conv2_1 <- pool1
I1111 04:26:17.047193 17509 net.cpp:356] conv2_1 -> conv2_1
I1111 04:26:17.047196 17509 net.cpp:96] Setting up conv2_1
I1111 04:26:17.049242 17509 net.cpp:103] Top shape: 8 128 112 112 (12845056)
I1111 04:26:17.049257 17509 layer_factory.hpp:78] Creating layer relu2_1
I1111 04:26:17.049263 17509 net.cpp:67] Creating Layer relu2_1
I1111 04:26:17.049265 17509 net.cpp:394] relu2_1 <- conv2_1
I1111 04:26:17.049270 17509 net.cpp:345] relu2_1 -> conv2_1 (in-place)
I1111 04:26:17.049275 17509 net.cpp:96] Setting up relu2_1
I1111 04:26:17.049280 17509 net.cpp:103] Top shape: 8 128 112 112 (12845056)
I1111 04:26:17.049283 17509 layer_factory.hpp:78] Creating layer conv2_2
I1111 04:26:17.049288 17509 net.cpp:67] Creating Layer conv2_2
I1111 04:26:17.049291 17509 net.cpp:394] conv2_2 <- conv2_1
I1111 04:26:17.049298 17509 net.cpp:356] conv2_2 -> conv2_2
I1111 04:26:17.049304 17509 net.cpp:96] Setting up conv2_2
I1111 04:26:17.053030 17509 net.cpp:103] Top shape: 8 128 112 112 (12845056)
I1111 04:26:17.053042 17509 layer_factory.hpp:78] Creating layer relu2_2
I1111 04:26:17.053047 17509 net.cpp:67] Creating Layer relu2_2
I1111 04:26:17.053051 17509 net.cpp:394] relu2_2 <- conv2_2
I1111 04:26:17.053056 17509 net.cpp:345] relu2_2 -> conv2_2 (in-place)
I1111 04:26:17.053061 17509 net.cpp:96] Setting up relu2_2
I1111 04:26:17.053066 17509 net.cpp:103] Top shape: 8 128 112 112 (12845056)
I1111 04:26:17.053068 17509 layer_factory.hpp:78] Creating layer pool2
I1111 04:26:17.053072 17509 net.cpp:67] Creating Layer pool2
I1111 04:26:17.053076 17509 net.cpp:394] pool2 <- conv2_2
I1111 04:26:17.053081 17509 net.cpp:356] pool2 -> pool2
I1111 04:26:17.053087 17509 net.cpp:96] Setting up pool2
I1111 04:26:17.053092 17509 net.cpp:103] Top shape: 8 128 56 56 (3211264)
I1111 04:26:17.053097 17509 layer_factory.hpp:78] Creating layer conv3_1
I1111 04:26:17.053102 17509 net.cpp:67] Creating Layer conv3_1
I1111 04:26:17.053105 17509 net.cpp:394] conv3_1 <- pool2
I1111 04:26:17.053109 17509 net.cpp:356] conv3_1 -> conv3_1
I1111 04:26:17.053114 17509 net.cpp:96] Setting up conv3_1
I1111 04:26:17.060480 17509 net.cpp:103] Top shape: 8 256 56 56 (6422528)
I1111 04:26:17.060494 17509 layer_factory.hpp:78] Creating layer relu3_1
I1111 04:26:17.060499 17509 net.cpp:67] Creating Layer relu3_1
I1111 04:26:17.060503 17509 net.cpp:394] relu3_1 <- conv3_1
I1111 04:26:17.060508 17509 net.cpp:345] relu3_1 -> conv3_1 (in-place)
I1111 04:26:17.060513 17509 net.cpp:96] Setting up relu3_1
I1111 04:26:17.060518 17509 net.cpp:103] Top shape: 8 256 56 56 (6422528)
I1111 04:26:17.060521 17509 layer_factory.hpp:78] Creating layer conv3_2
I1111 04:26:17.060533 17509 net.cpp:67] Creating Layer conv3_2
I1111 04:26:17.060535 17509 net.cpp:394] conv3_2 <- conv3_1
I1111 04:26:17.060540 17509 net.cpp:356] conv3_2 -> conv3_2
I1111 04:26:17.060546 17509 net.cpp:96] Setting up conv3_2
I1111 04:26:17.075032 17509 net.cpp:103] Top shape: 8 256 56 56 (6422528)
I1111 04:26:17.075052 17509 layer_factory.hpp:78] Creating layer relu3_2
I1111 04:26:17.075059 17509 net.cpp:67] Creating Layer relu3_2
I1111 04:26:17.075063 17509 net.cpp:394] relu3_2 <- conv3_2
I1111 04:26:17.075069 17509 net.cpp:345] relu3_2 -> conv3_2 (in-place)
I1111 04:26:17.075075 17509 net.cpp:96] Setting up relu3_2
I1111 04:26:17.075080 17509 net.cpp:103] Top shape: 8 256 56 56 (6422528)
I1111 04:26:17.075083 17509 layer_factory.hpp:78] Creating layer conv3_3
I1111 04:26:17.075091 17509 net.cpp:67] Creating Layer conv3_3
I1111 04:26:17.075094 17509 net.cpp:394] conv3_3 <- conv3_2
I1111 04:26:17.075099 17509 net.cpp:356] conv3_3 -> conv3_3
I1111 04:26:17.075104 17509 net.cpp:96] Setting up conv3_3
I1111 04:26:17.089603 17509 net.cpp:103] Top shape: 8 256 56 56 (6422528)
I1111 04:26:17.089623 17509 layer_factory.hpp:78] Creating layer relu3_3
I1111 04:26:17.089632 17509 net.cpp:67] Creating Layer relu3_3
I1111 04:26:17.089637 17509 net.cpp:394] relu3_3 <- conv3_3
I1111 04:26:17.089643 17509 net.cpp:345] relu3_3 -> conv3_3 (in-place)
I1111 04:26:17.089648 17509 net.cpp:96] Setting up relu3_3
I1111 04:26:17.089654 17509 net.cpp:103] Top shape: 8 256 56 56 (6422528)
I1111 04:26:17.089658 17509 layer_factory.hpp:78] Creating layer pool3
I1111 04:26:17.089663 17509 net.cpp:67] Creating Layer pool3
I1111 04:26:17.089666 17509 net.cpp:394] pool3 <- conv3_3
I1111 04:26:17.089670 17509 net.cpp:356] pool3 -> pool3
I1111 04:26:17.089676 17509 net.cpp:96] Setting up pool3
I1111 04:26:17.089684 17509 net.cpp:103] Top shape: 8 256 28 28 (1605632)
I1111 04:26:17.089687 17509 layer_factory.hpp:78] Creating layer conv4_1
I1111 04:26:17.089694 17509 net.cpp:67] Creating Layer conv4_1
I1111 04:26:17.089696 17509 net.cpp:394] conv4_1 <- pool3
I1111 04:26:17.089701 17509 net.cpp:356] conv4_1 -> conv4_1
I1111 04:26:17.089707 17509 net.cpp:96] Setting up conv4_1
I1111 04:26:17.118636 17509 net.cpp:103] Top shape: 8 512 28 28 (3211264)
I1111 04:26:17.118670 17509 layer_factory.hpp:78] Creating layer relu4_1
I1111 04:26:17.118680 17509 net.cpp:67] Creating Layer relu4_1
I1111 04:26:17.118685 17509 net.cpp:394] relu4_1 <- conv4_1
I1111 04:26:17.118692 17509 net.cpp:345] relu4_1 -> conv4_1 (in-place)
I1111 04:26:17.118700 17509 net.cpp:96] Setting up relu4_1
I1111 04:26:17.118705 17509 net.cpp:103] Top shape: 8 512 28 28 (3211264)
I1111 04:26:17.118707 17509 layer_factory.hpp:78] Creating layer conv4_2
I1111 04:26:17.118715 17509 net.cpp:67] Creating Layer conv4_2
I1111 04:26:17.118717 17509 net.cpp:394] conv4_2 <- conv4_1
I1111 04:26:17.118722 17509 net.cpp:356] conv4_2 -> conv4_2
I1111 04:26:17.118728 17509 net.cpp:96] Setting up conv4_2
I1111 04:26:17.173761 17509 net.cpp:103] Top shape: 8 512 28 28 (3211264)
I1111 04:26:17.173804 17509 layer_factory.hpp:78] Creating layer relu4_2
I1111 04:26:17.173812 17509 net.cpp:67] Creating Layer relu4_2
I1111 04:26:17.173816 17509 net.cpp:394] relu4_2 <- conv4_2
I1111 04:26:17.173822 17509 net.cpp:345] relu4_2 -> conv4_2 (in-place)
I1111 04:26:17.173828 17509 net.cpp:96] Setting up relu4_2
I1111 04:26:17.173835 17509 net.cpp:103] Top shape: 8 512 28 28 (3211264)
I1111 04:26:17.173837 17509 layer_factory.hpp:78] Creating layer conv4_3
I1111 04:26:17.173843 17509 net.cpp:67] Creating Layer conv4_3
I1111 04:26:17.173846 17509 net.cpp:394] conv4_3 <- conv4_2
I1111 04:26:17.173851 17509 net.cpp:356] conv4_3 -> conv4_3
I1111 04:26:17.173859 17509 net.cpp:96] Setting up conv4_3
I1111 04:26:17.228981 17509 net.cpp:103] Top shape: 8 512 28 28 (3211264)
I1111 04:26:17.229017 17509 layer_factory.hpp:78] Creating layer relu4_3
I1111 04:26:17.229027 17509 net.cpp:67] Creating Layer relu4_3
I1111 04:26:17.229030 17509 net.cpp:394] relu4_3 <- conv4_3
I1111 04:26:17.229037 17509 net.cpp:345] relu4_3 -> conv4_3 (in-place)
I1111 04:26:17.229050 17509 net.cpp:96] Setting up relu4_3
I1111 04:26:17.229056 17509 net.cpp:103] Top shape: 8 512 28 28 (3211264)
I1111 04:26:17.229059 17509 layer_factory.hpp:78] Creating layer pool4
I1111 04:26:17.229065 17509 net.cpp:67] Creating Layer pool4
I1111 04:26:17.229068 17509 net.cpp:394] pool4 <- conv4_3
I1111 04:26:17.229074 17509 net.cpp:356] pool4 -> pool4
I1111 04:26:17.229079 17509 net.cpp:96] Setting up pool4
I1111 04:26:17.229087 17509 net.cpp:103] Top shape: 8 512 14 14 (802816)
I1111 04:26:17.229090 17509 layer_factory.hpp:78] Creating layer conv5_1
I1111 04:26:17.229096 17509 net.cpp:67] Creating Layer conv5_1
I1111 04:26:17.229099 17509 net.cpp:394] conv5_1 <- pool4
I1111 04:26:17.229104 17509 net.cpp:356] conv5_1 -> conv5_1
I1111 04:26:17.229110 17509 net.cpp:96] Setting up conv5_1
I1111 04:26:17.283987 17509 net.cpp:103] Top shape: 8 512 14 14 (802816)
I1111 04:26:17.284023 17509 layer_factory.hpp:78] Creating layer relu5_1
I1111 04:26:17.284030 17509 net.cpp:67] Creating Layer relu5_1
I1111 04:26:17.284034 17509 net.cpp:394] relu5_1 <- conv5_1
I1111 04:26:17.284040 17509 net.cpp:345] relu5_1 -> conv5_1 (in-place)
I1111 04:26:17.284046 17509 net.cpp:96] Setting up relu5_1
I1111 04:26:17.284052 17509 net.cpp:103] Top shape: 8 512 14 14 (802816)
I1111 04:26:17.284055 17509 layer_factory.hpp:78] Creating layer conv5_2
I1111 04:26:17.284064 17509 net.cpp:67] Creating Layer conv5_2
I1111 04:26:17.284066 17509 net.cpp:394] conv5_2 <- conv5_1
I1111 04:26:17.284070 17509 net.cpp:356] conv5_2 -> conv5_2
I1111 04:26:17.284076 17509 net.cpp:96] Setting up conv5_2
I1111 04:26:17.339107 17509 net.cpp:103] Top shape: 8 512 14 14 (802816)
I1111 04:26:17.339145 17509 layer_factory.hpp:78] Creating layer relu5_2
I1111 04:26:17.339155 17509 net.cpp:67] Creating Layer relu5_2
I1111 04:26:17.339160 17509 net.cpp:394] relu5_2 <- conv5_2
I1111 04:26:17.339166 17509 net.cpp:345] relu5_2 -> conv5_2 (in-place)
I1111 04:26:17.339172 17509 net.cpp:96] Setting up relu5_2
I1111 04:26:17.339177 17509 net.cpp:103] Top shape: 8 512 14 14 (802816)
I1111 04:26:17.339180 17509 layer_factory.hpp:78] Creating layer conv5_3
I1111 04:26:17.339187 17509 net.cpp:67] Creating Layer conv5_3
I1111 04:26:17.339190 17509 net.cpp:394] conv5_3 <- conv5_2
I1111 04:26:17.339195 17509 net.cpp:356] conv5_3 -> conv5_3
I1111 04:26:17.339201 17509 net.cpp:96] Setting up conv5_3
I1111 04:26:17.394227 17509 net.cpp:103] Top shape: 8 512 14 14 (802816)
I1111 04:26:17.394263 17509 layer_factory.hpp:78] Creating layer relu5_3
I1111 04:26:17.394273 17509 net.cpp:67] Creating Layer relu5_3
I1111 04:26:17.394278 17509 net.cpp:394] relu5_3 <- conv5_3
I1111 04:26:17.394284 17509 net.cpp:345] relu5_3 -> conv5_3 (in-place)
I1111 04:26:17.394291 17509 net.cpp:96] Setting up relu5_3
I1111 04:26:17.394296 17509 net.cpp:103] Top shape: 8 512 14 14 (802816)
I1111 04:26:17.394299 17509 layer_factory.hpp:78] Creating layer pool5
I1111 04:26:17.394310 17509 net.cpp:67] Creating Layer pool5
I1111 04:26:17.394314 17509 net.cpp:394] pool5 <- conv5_3
I1111 04:26:17.394318 17509 net.cpp:356] pool5 -> pool5
I1111 04:26:17.394323 17509 net.cpp:96] Setting up pool5
I1111 04:26:17.394331 17509 net.cpp:103] Top shape: 8 512 7 7 (200704)
I1111 04:26:17.394335 17509 layer_factory.hpp:78] Creating layer fc6
I1111 04:26:17.394340 17509 net.cpp:67] Creating Layer fc6
I1111 04:26:17.394342 17509 net.cpp:394] fc6 <- pool5
I1111 04:26:17.394350 17509 net.cpp:356] fc6 -> fc6
I1111 04:26:17.394354 17509 net.cpp:96] Setting up fc6
I1111 04:26:19.776052 17509 net.cpp:103] Top shape: 8 4096 1 1 (32768)
I1111 04:26:19.776098 17509 layer_factory.hpp:78] Creating layer relu6
I1111 04:26:19.776106 17509 net.cpp:67] Creating Layer relu6
I1111 04:26:19.776111 17509 net.cpp:394] relu6 <- fc6
I1111 04:26:19.776118 17509 net.cpp:345] relu6 -> fc6 (in-place)
I1111 04:26:19.776124 17509 net.cpp:96] Setting up relu6
I1111 04:26:19.776139 17509 net.cpp:103] Top shape: 8 4096 1 1 (32768)
I1111 04:26:19.776142 17509 layer_factory.hpp:78] Creating layer drop6
I1111 04:26:19.776155 17509 net.cpp:67] Creating Layer drop6
I1111 04:26:19.776159 17509 net.cpp:394] drop6 <- fc6
I1111 04:26:19.776166 17509 net.cpp:345] drop6 -> fc6 (in-place)
I1111 04:26:19.776170 17509 net.cpp:96] Setting up drop6
I1111 04:26:19.776175 17509 net.cpp:103] Top shape: 8 4096 1 1 (32768)
I1111 04:26:19.776177 17509 layer_factory.hpp:78] Creating layer fc7
I1111 04:26:19.776183 17509 net.cpp:67] Creating Layer fc7
I1111 04:26:19.776185 17509 net.cpp:394] fc7 <- fc6
I1111 04:26:19.776190 17509 net.cpp:356] fc7 -> fc7
I1111 04:26:19.776196 17509 net.cpp:96] Setting up fc7
I1111 04:26:20.164875 17509 net.cpp:103] Top shape: 8 4096 1 1 (32768)
I1111 04:26:20.164917 17509 layer_factory.hpp:78] Creating layer relu7
I1111 04:26:20.164926 17509 net.cpp:67] Creating Layer relu7
I1111 04:26:20.164930 17509 net.cpp:394] relu7 <- fc7
I1111 04:26:20.164937 17509 net.cpp:345] relu7 -> fc7 (in-place)
I1111 04:26:20.164944 17509 net.cpp:96] Setting up relu7
I1111 04:26:20.164958 17509 net.cpp:103] Top shape: 8 4096 1 1 (32768)
I1111 04:26:20.164962 17509 layer_factory.hpp:78] Creating layer drop7
I1111 04:26:20.164968 17509 net.cpp:67] Creating Layer drop7
I1111 04:26:20.164970 17509 net.cpp:394] drop7 <- fc7
I1111 04:26:20.164974 17509 net.cpp:345] drop7 -> fc7 (in-place)
I1111 04:26:20.164979 17509 net.cpp:96] Setting up drop7
I1111 04:26:20.164983 17509 net.cpp:103] Top shape: 8 4096 1 1 (32768)
I1111 04:26:20.164985 17509 layer_factory.hpp:78] Creating layer fc8_2
I1111 04:26:20.164991 17509 net.cpp:67] Creating Layer fc8_2
I1111 04:26:20.164994 17509 net.cpp:394] fc8_2 <- fc7
I1111 04:26:20.164999 17509 net.cpp:356] fc8_2 -> fc8_2
I1111 04:26:20.165005 17509 net.cpp:96] Setting up fc8_2
I1111 04:26:20.165215 17509 net.cpp:103] Top shape: 8 2 1 1 (16)
I1111 04:26:20.165223 17509 layer_factory.hpp:78] Creating layer fc8_2_fc8_2_0_split
I1111 04:26:20.165227 17509 net.cpp:67] Creating Layer fc8_2_fc8_2_0_split
I1111 04:26:20.165230 17509 net.cpp:394] fc8_2_fc8_2_0_split <- fc8_2
I1111 04:26:20.165236 17509 net.cpp:356] fc8_2_fc8_2_0_split -> fc8_2_fc8_2_0_split_0
I1111 04:26:20.165242 17509 net.cpp:356] fc8_2_fc8_2_0_split -> fc8_2_fc8_2_0_split_1
I1111 04:26:20.165247 17509 net.cpp:96] Setting up fc8_2_fc8_2_0_split
I1111 04:26:20.165254 17509 net.cpp:103] Top shape: 8 2 1 1 (16)
I1111 04:26:20.165257 17509 net.cpp:103] Top shape: 8 2 1 1 (16)
I1111 04:26:20.165261 17509 layer_factory.hpp:78] Creating layer loss
I1111 04:26:20.165266 17509 net.cpp:67] Creating Layer loss
I1111 04:26:20.165269 17509 net.cpp:394] loss <- fc8_2_fc8_2_0_split_0
I1111 04:26:20.165273 17509 net.cpp:394] loss <- label_data_1_split_0
I1111 04:26:20.165278 17509 net.cpp:356] loss -> (automatic)
I1111 04:26:20.165282 17509 net.cpp:96] Setting up loss
I1111 04:26:20.165287 17509 net.cpp:103] Top shape: 1 1 1 1 (1)
I1111 04:26:20.165290 17509 net.cpp:109]     with loss weight 1
I1111 04:26:20.165304 17509 layer_factory.hpp:78] Creating layer accuracy
I1111 04:26:20.165315 17509 net.cpp:67] Creating Layer accuracy
I1111 04:26:20.165319 17509 net.cpp:394] accuracy <- fc8_2_fc8_2_0_split_1
I1111 04:26:20.165323 17509 net.cpp:394] accuracy <- label_data_1_split_1
I1111 04:26:20.165328 17509 net.cpp:356] accuracy -> accuracy
I1111 04:26:20.165333 17509 net.cpp:96] Setting up accuracy
I1111 04:26:20.165340 17509 net.cpp:103] Top shape: 1 1 1 4 (4)
I1111 04:26:20.165343 17509 net.cpp:172] accuracy does not need backward computation.
I1111 04:26:20.165345 17509 net.cpp:170] loss needs backward computation.
I1111 04:26:20.165349 17509 net.cpp:170] fc8_2_fc8_2_0_split needs backward computation.
I1111 04:26:20.165351 17509 net.cpp:170] fc8_2 needs backward computation.
I1111 04:26:20.165354 17509 net.cpp:170] drop7 needs backward computation.
…
