…
I1121 19:40:02.575229 29628 net.cpp:275] The NetState phase (0) differed from the phase (1) specified by a rule in layer accuracy
I1121 19:40:02.575422 29628 net.cpp:39] Initializing net from parameters: 
name: "small"
layers {
  top: "data"
  top: "label"
  name: "data"
  type: IMAGE_DATA
  image_data_param {
    source: "/data/ad6813/devCaffe/caffe/data/water_high_blue/train.txt"
    batch_size: 32
    new_height: 256
    new_width: 256
  }
  include {
    phase: TRAIN
  }
  transform_param {
    mirror: true
    crop_size: 224
    mean_value: 86.752
    mean_value: 101.46
    mean_value: 104.6
  }
}
layers {
  bottom: "data"
  top: "conv1_1"
  name: "conv1_1"
  type: CONVOLUTION
  convolution_param {
    num_output: 64
    pad: 1
    kernel_size: 3
    weight_filler {
      type: "gaussian"
      std: 0.01
    }
    bias_filler {
      type: "constant"
      value: 0
    }
  }
}
layers {
  bottom: "conv1_1"
  top: "conv1_1"
  name: "relu1_1"
  type: RELU
}
layers {
  bottom: "conv1_1"
  top: "conv1_2"
  name: "conv1_2"
  type: CONVOLUTION
  convolution_param {
    num_output: 64
    pad: 1
    kernel_size: 3
    weight_filler {
      type: "gaussian"
      std: 0.01
    }
    bias_filler {
      type: "constant"
      value: 0
    }
  }
}
layers {
  bottom: "conv1_2"
  top: "conv1_2"
  name: "relu1_2"
  type: RELU
}
layers {
  bottom: "conv1_2"
  top: "pool1"
  name: "pool1"
  type: POOLING
  pooling_param {
    pool: MAX
    kernel_size: 2
    stride: 2
  }
}
layers {
  bottom: "pool1"
  top: "conv2_1"
  name: "conv2_1"
  type: CONVOLUTION
  convolution_param {
    num_output: 128
    pad: 1
    kernel_size: 3
    weight_filler {
      type: "gaussian"
      std: 0.01
    }
    bias_filler {
      type: "constant"
      value: 0
    }
  }
}
layers {
  bottom: "conv2_1"
  top: "conv2_1"
  name: "relu2_1"
  type: RELU
}
layers {
  bottom: "conv2_1"
  top: "conv2_2"
  name: "conv2_2"
  type: CONVOLUTION
  convolution_param {
    num_output: 128
    pad: 1
    kernel_size: 3
    weight_filler {
      type: "gaussian"
      std: 0.01
    }
    bias_filler {
      type: "constant"
      value: 0
    }
  }
}
layers {
  bottom: "conv2_2"
  top: "conv2_2"
  name: "relu2_2"
  type: RELU
}
layers {
  bottom: "conv2_2"
  top: "pool2"
  name: "pool2"
  type: POOLING
  pooling_param {
    pool: MAX
    kernel_size: 2
    stride: 2
  }
}
layers {
  bottom: "pool2"
  top: "conv3_1"
  name: "conv3_1"
  type: CONVOLUTION
  convolution_param {
    num_output: 256
    pad: 1
    kernel_size: 3
    weight_filler {
      type: "gaussian"
      std: 0.01
    }
    bias_filler {
      type: "constant"
      value: 0
    }
  }
}
layers {
  bottom: "conv3_1"
  top: "conv3_1"
  name: "relu3_1"
  type: RELU
}
layers {
  bottom: "conv3_1"
  top: "conv3_2"
  name: "conv3_2"
  type: CONVOLUTION
  convolution_param {
    num_output: 256
    pad: 1
    kernel_size: 3
    weight_filler {
      type: "gaussian"
      std: 0.01
    }
    bias_filler {
      type: "constant"
      value: 0
    }
  }
}
layers {
  bottom: "conv3_2"
  top: "conv3_2"
  name: "relu3_2"
  type: RELU
}
layers {
  bottom: "conv3_2"
  top: "conv3_3"
  name: "conv3_3"
  type: CONVOLUTION
  convolution_param {
    num_output: 256
    pad: 1
    kernel_size: 3
    weight_filler {
      type: "gaussian"
      std: 0.01
    }
    bias_filler {
      type: "constant"
      value: 0
    }
  }
}
layers {
  bottom: "conv3_3"
  top: "conv3_3"
  name: "relu3_3"
  type: RELU
}
layers {
  bottom: "conv3_3"
  top: "pool3"
  name: "pool3"
  type: POOLING
  pooling_param {
    pool: MAX
    kernel_size: 2
    stride: 2
  }
}
layers {
  bottom: "pool3"
  top: "conv4_1"
  name: "conv4_1"
  type: CONVOLUTION
  convolution_param {
    num_output: 512
    pad: 1
    kernel_size: 3
    weight_filler {
      type: "gaussian"
      std: 0.01
    }
    bias_filler {
      type: "constant"
      value: 0
    }
  }
}
layers {
  bottom: "conv4_1"
  top: "conv4_1"
  name: "relu4_1"
  type: RELU
}
layers {
  bottom: "conv4_1"
  top: "conv4_2"
  name: "conv4_2"
  type: CONVOLUTION
  convolution_param {
    num_output: 512
    pad: 1
    kernel_size: 3
    weight_filler {
      type: "gaussian"
      std: 0.01
    }
    bias_filler {
      type: "constant"
      value: 0
    }
  }
}
layers {
  bottom: "conv4_2"
  top: "conv4_2"
  name: "relu4_2"
  type: RELU
}
layers {
  bottom: "conv4_2"
  top: "conv4_3"
  name: "conv4_3"
  type: CONVOLUTION
  convolution_param {
    num_output: 512
    pad: 1
    kernel_size: 3
    weight_filler {
      type: "gaussian"
      std: 0.01
    }
    bias_filler {
      type: "constant"
      value: 0
    }
  }
}
layers {
  bottom: "conv4_3"
  top: "conv4_3"
  name: "relu4_3"
  type: RELU
}
layers {
  bottom: "conv4_3"
  top: "pool4"
  name: "pool4"
  type: POOLING
  pooling_param {
    pool: MAX
    kernel_size: 2
    stride: 2
  }
}
layers {
  bottom: "pool4"
  top: "conv5_1"
  name: "conv5_1"
  type: CONVOLUTION
  convolution_param {
    num_output: 512
    pad: 1
    kernel_size: 3
    weight_filler {
      type: "gaussian"
      std: 0.01
    }
    bias_filler {
      type: "constant"
      value: 0
    }
  }
}
layers {
  bottom: "conv5_1"
  top: "conv5_1"
  name: "relu5_1"
  type: RELU
}
layers {
  bottom: "conv5_1"
  top: "conv5_2"
  name: "conv5_2"
  type: CONVOLUTION
  convolution_param {
    num_output: 512
    pad: 1
    kernel_size: 3
    weight_filler {
      type: "gaussian"
      std: 0.01
    }
    bias_filler {
      type: "constant"
      value: 0
    }
  }
}
layers {
  bottom: "conv5_2"
  top: "conv5_2"
  name: "relu5_2"
  type: RELU
}
layers {
  bottom: "conv5_2"
  top: "conv5_3"
  name: "conv5_3"
  type: CONVOLUTION
  convolution_param {
    num_output: 512
    pad: 1
    kernel_size: 3
    weight_filler {
      type: "gaussian"
      std: 0.01
    }
    bias_filler {
      type: "constant"
      value: 0
    }
  }
}
layers {
  bottom: "conv5_3"
  top: "conv5_3"
  name: "relu5_3"
  type: RELU
}
layers {
  bottom: "conv5_3"
  top: "pool5"
  name: "pool5"
  type: POOLING
  pooling_param {
    pool: MAX
    kernel_size: 2
    stride: 2
  }
}
layers {
  bottom: "pool5"
  top: "fc6"
  name: "fc6"
  type: INNER_PRODUCT
  inner_product_param {
    num_output: 4096
    weight_filler {
      type: "gaussian"
      std: 0.01
    }
    bias_filler {
      type: "constant"
      value: 0
    }
  }
}
layers {
  bottom: "fc6"
  top: "fc6"
  name: "relu6"
  type: RELU
}
layers {
  bottom: "fc6"
  top: "fc6"
  name: "drop6"
  type: DROPOUT
  dropout_param {
    dropout_ratio: 0.5
  }
}
layers {
  bottom: "fc6"
  top: "fc7"
  name: "fc7"
  type: INNER_PRODUCT
  inner_product_param {
    num_output: 4096
    weight_filler {
      type: "gaussian"
      std: 0.01
    }
    bias_filler {
      type: "constant"
      value: 0
    }
  }
}
layers {
  bottom: "fc7"
  top: "fc7"
  name: "relu7"
  type: RELU
}
layers {
  bottom: "fc7"
  top: "fc7"
  name: "drop7"
  type: DROPOUT
  dropout_param {
    dropout_ratio: 0.5
  }
}
layers {
  bottom: "fc7"
  top: "fc8_2"
  name: "fc8_2"
  type: INNER_PRODUCT
  inner_product_param {
    num_output: 2
    weight_filler {
      type: "gaussian"
      std: 0.01
    }
    bias_filler {
      type: "constant"
      value: 0
    }
  }
}
layers {
  bottom: "fc8_2"
  bottom: "label"
  name: "loss"
  type: SOFTMAX_LOSS
}
state {
  phase: TRAIN
}
I1121 19:40:02.575539 29628 layer_factory.hpp:78] Creating layer data
I1121 19:40:02.575559 29628 net.cpp:67] Creating Layer data
I1121 19:40:02.575567 29628 net.cpp:356] data -> data
I1121 19:40:02.575585 29628 net.cpp:356] data -> label
I1121 19:40:02.575593 29628 net.cpp:96] Setting up data
I1121 19:40:02.575599 29628 image_data_layer.cpp:34] Opening file /data/ad6813/devCaffe/caffe/data/water_high_blue/train.txt
I1121 19:40:02.588238 29628 image_data_layer.cpp:49] A total of 35988 images.
I1121 19:40:02.597898 29628 image_data_layer.cpp:78] output data size: 32,3,224,224
I1121 19:40:02.600715 29628 net.cpp:103] Top shape: 32 3 224 224 (4816896)
I1121 19:40:02.600744 29628 net.cpp:103] Top shape: 32 1 1 1 (32)
I1121 19:40:02.600749 29628 layer_factory.hpp:78] Creating layer conv1_1
I1121 19:40:02.600780 29628 net.cpp:67] Creating Layer conv1_1
I1121 19:40:02.600785 29628 net.cpp:394] conv1_1 <- data
I1121 19:40:02.600800 29628 net.cpp:356] conv1_1 -> conv1_1
I1121 19:40:02.600811 29628 net.cpp:96] Setting up conv1_1
I1121 19:40:02.614825 29628 net.cpp:103] Top shape: 32 64 224 224 (102760448)
I1121 19:40:02.614861 29628 layer_factory.hpp:78] Creating layer relu1_1
I1121 19:40:02.614872 29628 net.cpp:67] Creating Layer relu1_1
I1121 19:40:02.614876 29628 net.cpp:394] relu1_1 <- conv1_1
I1121 19:40:02.614883 29628 net.cpp:345] relu1_1 -> conv1_1 (in-place)
I1121 19:40:02.614892 29628 net.cpp:96] Setting up relu1_1
I1121 19:40:02.614900 29628 net.cpp:103] Top shape: 32 64 224 224 (102760448)
I1121 19:40:02.614903 29628 layer_factory.hpp:78] Creating layer conv1_2
I1121 19:40:02.614909 29628 net.cpp:67] Creating Layer conv1_2
I1121 19:40:02.614912 29628 net.cpp:394] conv1_2 <- conv1_1
I1121 19:40:02.614917 29628 net.cpp:356] conv1_2 -> conv1_2
I1121 19:40:02.614924 29628 net.cpp:96] Setting up conv1_2
I1121 19:40:02.615960 29628 net.cpp:103] Top shape: 32 64 224 224 (102760448)
I1121 19:40:02.615973 29628 layer_factory.hpp:78] Creating layer relu1_2
I1121 19:40:02.615978 29628 net.cpp:67] Creating Layer relu1_2
I1121 19:40:02.615981 29628 net.cpp:394] relu1_2 <- conv1_2
I1121 19:40:02.615986 29628 net.cpp:345] relu1_2 -> conv1_2 (in-place)
I1121 19:40:02.615991 29628 net.cpp:96] Setting up relu1_2
I1121 19:40:02.615996 29628 net.cpp:103] Top shape: 32 64 224 224 (102760448)
I1121 19:40:02.615999 29628 layer_factory.hpp:78] Creating layer pool1
I1121 19:40:02.616008 29628 net.cpp:67] Creating Layer pool1
I1121 19:40:02.616010 29628 net.cpp:394] pool1 <- conv1_2
I1121 19:40:02.616017 29628 net.cpp:356] pool1 -> pool1
I1121 19:40:02.616024 29628 net.cpp:96] Setting up pool1
I1121 19:40:02.616040 29628 net.cpp:103] Top shape: 32 64 112 112 (25690112)
I1121 19:40:02.616047 29628 layer_factory.hpp:78] Creating layer conv2_1
I1121 19:40:02.616053 29628 net.cpp:67] Creating Layer conv2_1
I1121 19:40:02.616056 29628 net.cpp:394] conv2_1 <- pool1
I1121 19:40:02.616068 29628 net.cpp:356] conv2_1 -> conv2_1
I1121 19:40:02.616075 29628 net.cpp:96] Setting up conv2_1
I1121 19:40:02.618013 29628 net.cpp:103] Top shape: 32 128 112 112 (51380224)
I1121 19:40:02.618026 29628 layer_factory.hpp:78] Creating layer relu2_1
I1121 19:40:02.618031 29628 net.cpp:67] Creating Layer relu2_1
I1121 19:40:02.618036 29628 net.cpp:394] relu2_1 <- conv2_1
I1121 19:40:02.618057 29628 net.cpp:345] relu2_1 -> conv2_1 (in-place)
I1121 19:40:02.618062 29628 net.cpp:96] Setting up relu2_1
I1121 19:40:02.618068 29628 net.cpp:103] Top shape: 32 128 112 112 (51380224)
I1121 19:40:02.618072 29628 layer_factory.hpp:78] Creating layer conv2_2
I1121 19:40:02.618077 29628 net.cpp:67] Creating Layer conv2_2
I1121 19:40:02.618080 29628 net.cpp:394] conv2_2 <- conv2_1
I1121 19:40:02.618088 29628 net.cpp:356] conv2_2 -> conv2_2
I1121 19:40:02.618094 29628 net.cpp:96] Setting up conv2_2
I1121 19:40:02.621898 29628 net.cpp:103] Top shape: 32 128 112 112 (51380224)
I1121 19:40:02.621912 29628 layer_factory.hpp:78] Creating layer relu2_2
I1121 19:40:02.621917 29628 net.cpp:67] Creating Layer relu2_2
I1121 19:40:02.621920 29628 net.cpp:394] relu2_2 <- conv2_2
I1121 19:40:02.621925 29628 net.cpp:345] relu2_2 -> conv2_2 (in-place)
I1121 19:40:02.621930 29628 net.cpp:96] Setting up relu2_2
I1121 19:40:02.621935 29628 net.cpp:103] Top shape: 32 128 112 112 (51380224)
I1121 19:40:02.621947 29628 layer_factory.hpp:78] Creating layer pool2
I1121 19:40:02.621951 29628 net.cpp:67] Creating Layer pool2
I1121 19:40:02.621954 29628 net.cpp:394] pool2 <- conv2_2
I1121 19:40:02.621958 29628 net.cpp:356] pool2 -> pool2
I1121 19:40:02.621963 29628 net.cpp:96] Setting up pool2
I1121 19:40:02.621969 29628 net.cpp:103] Top shape: 32 128 56 56 (12845056)
I1121 19:40:02.621973 29628 layer_factory.hpp:78] Creating layer conv3_1
I1121 19:40:02.621979 29628 net.cpp:67] Creating Layer conv3_1
I1121 19:40:02.621983 29628 net.cpp:394] conv3_1 <- pool2
I1121 19:40:02.621987 29628 net.cpp:356] conv3_1 -> conv3_1
I1121 19:40:02.621994 29628 net.cpp:96] Setting up conv3_1
I1121 19:40:02.629386 29628 net.cpp:103] Top shape: 32 256 56 56 (25690112)
I1121 19:40:02.629403 29628 layer_factory.hpp:78] Creating layer relu3_1
I1121 19:40:02.629410 29628 net.cpp:67] Creating Layer relu3_1
I1121 19:40:02.629412 29628 net.cpp:394] relu3_1 <- conv3_1
I1121 19:40:02.629418 29628 net.cpp:345] relu3_1 -> conv3_1 (in-place)
I1121 19:40:02.629425 29628 net.cpp:96] Setting up relu3_1
I1121 19:40:02.629429 29628 net.cpp:103] Top shape: 32 256 56 56 (25690112)
I1121 19:40:02.629432 29628 layer_factory.hpp:78] Creating layer conv3_2
I1121 19:40:02.629437 29628 net.cpp:67] Creating Layer conv3_2
I1121 19:40:02.629441 29628 net.cpp:394] conv3_2 <- conv3_1
I1121 19:40:02.629444 29628 net.cpp:356] conv3_2 -> conv3_2
I1121 19:40:02.629451 29628 net.cpp:96] Setting up conv3_2
I1121 19:40:02.644273 29628 net.cpp:103] Top shape: 32 256 56 56 (25690112)
I1121 19:40:02.644294 29628 layer_factory.hpp:78] Creating layer relu3_2
I1121 19:40:02.644302 29628 net.cpp:67] Creating Layer relu3_2
I1121 19:40:02.644306 29628 net.cpp:394] relu3_2 <- conv3_2
I1121 19:40:02.644316 29628 net.cpp:345] relu3_2 -> conv3_2 (in-place)
I1121 19:40:02.644322 29628 net.cpp:96] Setting up relu3_2
I1121 19:40:02.644328 29628 net.cpp:103] Top shape: 32 256 56 56 (25690112)
I1121 19:40:02.644331 29628 layer_factory.hpp:78] Creating layer conv3_3
I1121 19:40:02.644336 29628 net.cpp:67] Creating Layer conv3_3
I1121 19:40:02.644340 29628 net.cpp:394] conv3_3 <- conv3_2
I1121 19:40:02.644346 29628 net.cpp:356] conv3_3 -> conv3_3
I1121 19:40:02.644352 29628 net.cpp:96] Setting up conv3_3
I1121 19:40:02.659055 29628 net.cpp:103] Top shape: 32 256 56 56 (25690112)
I1121 19:40:02.659075 29628 layer_factory.hpp:78] Creating layer relu3_3
I1121 19:40:02.659083 29628 net.cpp:67] Creating Layer relu3_3
I1121 19:40:02.659087 29628 net.cpp:394] relu3_3 <- conv3_3
I1121 19:40:02.659096 29628 net.cpp:345] relu3_3 -> conv3_3 (in-place)
I1121 19:40:02.659101 29628 net.cpp:96] Setting up relu3_3
I1121 19:40:02.659106 29628 net.cpp:103] Top shape: 32 256 56 56 (25690112)
I1121 19:40:02.659109 29628 layer_factory.hpp:78] Creating layer pool3
I1121 19:40:02.659116 29628 net.cpp:67] Creating Layer pool3
I1121 19:40:02.659118 29628 net.cpp:394] pool3 <- conv3_3
I1121 19:40:02.659123 29628 net.cpp:356] pool3 -> pool3
I1121 19:40:02.659129 29628 net.cpp:96] Setting up pool3
I1121 19:40:02.659137 29628 net.cpp:103] Top shape: 32 256 28 28 (6422528)
I1121 19:40:02.659140 29628 layer_factory.hpp:78] Creating layer conv4_1
I1121 19:40:02.659145 29628 net.cpp:67] Creating Layer conv4_1
I1121 19:40:02.659148 29628 net.cpp:394] conv4_1 <- pool3
I1121 19:40:02.659154 29628 net.cpp:356] conv4_1 -> conv4_1
I1121 19:40:02.659160 29628 net.cpp:96] Setting up conv4_1
I1121 19:40:02.688184 29628 net.cpp:103] Top shape: 32 512 28 28 (12845056)
I1121 19:40:02.688208 29628 layer_factory.hpp:78] Creating layer relu4_1
I1121 19:40:02.688217 29628 net.cpp:67] Creating Layer relu4_1
I1121 19:40:02.688221 29628 net.cpp:394] relu4_1 <- conv4_1
I1121 19:40:02.688228 29628 net.cpp:345] relu4_1 -> conv4_1 (in-place)
I1121 19:40:02.688235 29628 net.cpp:96] Setting up relu4_1
I1121 19:40:02.688241 29628 net.cpp:103] Top shape: 32 512 28 28 (12845056)
I1121 19:40:02.688243 29628 layer_factory.hpp:78] Creating layer conv4_2
I1121 19:40:02.688251 29628 net.cpp:67] Creating Layer conv4_2
I1121 19:40:02.688253 29628 net.cpp:394] conv4_2 <- conv4_1
I1121 19:40:02.688267 29628 net.cpp:356] conv4_2 -> conv4_2
I1121 19:40:02.688273 29628 net.cpp:96] Setting up conv4_2
I1121 19:40:02.746002 29628 net.cpp:103] Top shape: 32 512 28 28 (12845056)
I1121 19:40:02.746032 29628 layer_factory.hpp:78] Creating layer relu4_2
I1121 19:40:02.746040 29628 net.cpp:67] Creating Layer relu4_2
I1121 19:40:02.746045 29628 net.cpp:394] relu4_2 <- conv4_2
I1121 19:40:02.746053 29628 net.cpp:345] relu4_2 -> conv4_2 (in-place)
I1121 19:40:02.746060 29628 net.cpp:96] Setting up relu4_2
I1121 19:40:02.746065 29628 net.cpp:103] Top shape: 32 512 28 28 (12845056)
I1121 19:40:02.746068 29628 layer_factory.hpp:78] Creating layer conv4_3
I1121 19:40:02.746074 29628 net.cpp:67] Creating Layer conv4_3
I1121 19:40:02.746078 29628 net.cpp:394] conv4_3 <- conv4_2
I1121 19:40:02.746083 29628 net.cpp:356] conv4_3 -> conv4_3
I1121 19:40:02.746089 29628 net.cpp:96] Setting up conv4_3
I1121 19:40:02.803666 29628 net.cpp:103] Top shape: 32 512 28 28 (12845056)
I1121 19:40:02.803691 29628 layer_factory.hpp:78] Creating layer relu4_3
I1121 19:40:02.803701 29628 net.cpp:67] Creating Layer relu4_3
I1121 19:40:02.803706 29628 net.cpp:394] relu4_3 <- conv4_3
I1121 19:40:02.803714 29628 net.cpp:345] relu4_3 -> conv4_3 (in-place)
I1121 19:40:02.803719 29628 net.cpp:96] Setting up relu4_3
I1121 19:40:02.803725 29628 net.cpp:103] Top shape: 32 512 28 28 (12845056)
I1121 19:40:02.803728 29628 layer_factory.hpp:78] Creating layer pool4
I1121 19:40:02.803735 29628 net.cpp:67] Creating Layer pool4
I1121 19:40:02.803738 29628 net.cpp:394] pool4 <- conv4_3
I1121 19:40:02.803743 29628 net.cpp:356] pool4 -> pool4
I1121 19:40:02.803748 29628 net.cpp:96] Setting up pool4
I1121 19:40:02.803756 29628 net.cpp:103] Top shape: 32 512 14 14 (3211264)
I1121 19:40:02.803760 29628 layer_factory.hpp:78] Creating layer conv5_1
I1121 19:40:02.803766 29628 net.cpp:67] Creating Layer conv5_1
I1121 19:40:02.803769 29628 net.cpp:394] conv5_1 <- pool4
I1121 19:40:02.803774 29628 net.cpp:356] conv5_1 -> conv5_1
I1121 19:40:02.803782 29628 net.cpp:96] Setting up conv5_1
I1121 19:40:02.861389 29628 net.cpp:103] Top shape: 32 512 14 14 (3211264)
I1121 19:40:02.861414 29628 layer_factory.hpp:78] Creating layer relu5_1
I1121 19:40:02.861423 29628 net.cpp:67] Creating Layer relu5_1
I1121 19:40:02.861428 29628 net.cpp:394] relu5_1 <- conv5_1
I1121 19:40:02.861434 29628 net.cpp:345] relu5_1 -> conv5_1 (in-place)
I1121 19:40:02.861441 29628 net.cpp:96] Setting up relu5_1
I1121 19:40:02.861446 29628 net.cpp:103] Top shape: 32 512 14 14 (3211264)
I1121 19:40:02.861450 29628 layer_factory.hpp:78] Creating layer conv5_2
I1121 19:40:02.861459 29628 net.cpp:67] Creating Layer conv5_2
I1121 19:40:02.861461 29628 net.cpp:394] conv5_2 <- conv5_1
I1121 19:40:02.861466 29628 net.cpp:356] conv5_2 -> conv5_2
I1121 19:40:02.861472 29628 net.cpp:96] Setting up conv5_2
I1121 19:40:02.919139 29628 net.cpp:103] Top shape: 32 512 14 14 (3211264)
I1121 19:40:02.919163 29628 layer_factory.hpp:78] Creating layer relu5_2
I1121 19:40:02.919173 29628 net.cpp:67] Creating Layer relu5_2
I1121 19:40:02.919178 29628 net.cpp:394] relu5_2 <- conv5_2
I1121 19:40:02.919184 29628 net.cpp:345] relu5_2 -> conv5_2 (in-place)
I1121 19:40:02.919191 29628 net.cpp:96] Setting up relu5_2
I1121 19:40:02.919198 29628 net.cpp:103] Top shape: 32 512 14 14 (3211264)
I1121 19:40:02.919200 29628 layer_factory.hpp:78] Creating layer conv5_3
I1121 19:40:02.919208 29628 net.cpp:67] Creating Layer conv5_3
I1121 19:40:02.919210 29628 net.cpp:394] conv5_3 <- conv5_2
I1121 19:40:02.919215 29628 net.cpp:356] conv5_3 -> conv5_3
I1121 19:40:02.919221 29628 net.cpp:96] Setting up conv5_3
I1121 19:40:02.976527 29628 net.cpp:103] Top shape: 32 512 14 14 (3211264)
I1121 19:40:02.976553 29628 layer_factory.hpp:78] Creating layer relu5_3
I1121 19:40:02.976562 29628 net.cpp:67] Creating Layer relu5_3
I1121 19:40:02.976565 29628 net.cpp:394] relu5_3 <- conv5_3
I1121 19:40:02.976572 29628 net.cpp:345] relu5_3 -> conv5_3 (in-place)
I1121 19:40:02.976578 29628 net.cpp:96] Setting up relu5_3
I1121 19:40:02.976593 29628 net.cpp:103] Top shape: 32 512 14 14 (3211264)
I1121 19:40:02.976596 29628 layer_factory.hpp:78] Creating layer pool5
I1121 19:40:02.976603 29628 net.cpp:67] Creating Layer pool5
I1121 19:40:02.976606 29628 net.cpp:394] pool5 <- conv5_3
I1121 19:40:02.976613 29628 net.cpp:356] pool5 -> pool5
I1121 19:40:02.976618 29628 net.cpp:96] Setting up pool5
I1121 19:40:02.976624 29628 net.cpp:103] Top shape: 32 512 7 7 (802816)
I1121 19:40:02.976629 29628 layer_factory.hpp:78] Creating layer fc6
I1121 19:40:02.976644 29628 net.cpp:67] Creating Layer fc6
I1121 19:40:02.976646 29628 net.cpp:394] fc6 <- pool5
I1121 19:40:02.976651 29628 net.cpp:356] fc6 -> fc6
I1121 19:40:02.976657 29628 net.cpp:96] Setting up fc6
I1121 19:40:05.355293 29628 net.cpp:103] Top shape: 32 4096 1 1 (131072)
I1121 19:40:05.355336 29628 layer_factory.hpp:78] Creating layer relu6
I1121 19:40:05.355345 29628 net.cpp:67] Creating Layer relu6
I1121 19:40:05.355350 29628 net.cpp:394] relu6 <- fc6
I1121 19:40:05.355358 29628 net.cpp:345] relu6 -> fc6 (in-place)
I1121 19:40:05.355365 29628 net.cpp:96] Setting up relu6
I1121 19:40:05.355381 29628 net.cpp:103] Top shape: 32 4096 1 1 (131072)
I1121 19:40:05.355383 29628 layer_factory.hpp:78] Creating layer drop6
I1121 19:40:05.355392 29628 net.cpp:67] Creating Layer drop6
I1121 19:40:05.355396 29628 net.cpp:394] drop6 <- fc6
I1121 19:40:05.355399 29628 net.cpp:345] drop6 -> fc6 (in-place)
I1121 19:40:05.355404 29628 net.cpp:96] Setting up drop6
I1121 19:40:05.355409 29628 net.cpp:103] Top shape: 32 4096 1 1 (131072)
I1121 19:40:05.355412 29628 layer_factory.hpp:78] Creating layer fc7
I1121 19:40:05.355418 29628 net.cpp:67] Creating Layer fc7
I1121 19:40:05.355422 29628 net.cpp:394] fc7 <- fc6
I1121 19:40:05.355427 29628 net.cpp:356] fc7 -> fc7
I1121 19:40:05.355433 29628 net.cpp:96] Setting up fc7
I1121 19:40:05.741935 29628 net.cpp:103] Top shape: 32 4096 1 1 (131072)
I1121 19:40:05.741977 29628 layer_factory.hpp:78] Creating layer relu7
I1121 19:40:05.741986 29628 net.cpp:67] Creating Layer relu7
I1121 19:40:05.741991 29628 net.cpp:394] relu7 <- fc7
I1121 19:40:05.741998 29628 net.cpp:345] relu7 -> fc7 (in-place)
I1121 19:40:05.742004 29628 net.cpp:96] Setting up relu7
I1121 19:40:05.742019 29628 net.cpp:103] Top shape: 32 4096 1 1 (131072)
I1121 19:40:05.742022 29628 layer_factory.hpp:78] Creating layer drop7
I1121 19:40:05.742027 29628 net.cpp:67] Creating Layer drop7
I1121 19:40:05.742030 29628 net.cpp:394] drop7 <- fc7
I1121 19:40:05.742034 29628 net.cpp:345] drop7 -> fc7 (in-place)
I1121 19:40:05.742038 29628 net.cpp:96] Setting up drop7
I1121 19:40:05.742043 29628 net.cpp:103] Top shape: 32 4096 1 1 (131072)
I1121 19:40:05.742045 29628 layer_factory.hpp:78] Creating layer fc8_2
I1121 19:40:05.742054 29628 net.cpp:67] Creating Layer fc8_2
I1121 19:40:05.742058 29628 net.cpp:394] fc8_2 <- fc7
I1121 19:40:05.742063 29628 net.cpp:356] fc8_2 -> fc8_2
I1121 19:40:05.742069 29628 net.cpp:96] Setting up fc8_2
I1121 19:40:05.742295 29628 net.cpp:103] Top shape: 32 2 1 1 (64)
I1121 19:40:05.742303 29628 layer_factory.hpp:78] Creating layer loss
I1121 19:40:05.742311 29628 net.cpp:67] Creating Layer loss
I1121 19:40:05.742317 29628 net.cpp:394] loss <- fc8_2
I1121 19:40:05.742321 29628 net.cpp:394] loss <- label
I1121 19:40:05.742331 29628 net.cpp:356] loss -> (automatic)
I1121 19:40:05.742336 29628 net.cpp:96] Setting up loss
I1121 19:40:05.742346 29628 net.cpp:103] Top shape: 1 1 1 1 (1)
I1121 19:40:05.742349 29628 net.cpp:109]     with loss weight 1
I1121 19:40:05.742385 29628 net.cpp:170] loss needs backward computation.
I1121 19:40:05.742388 29628 net.cpp:170] fc8_2 needs backward computation.
I1121 19:40:05.742391 29628 net.cpp:170] drop7 needs backward computation.
I1121 19:40:05.742394 29628 net.cpp:170] relu7 needs backward computation.
I1121 19:40:05.742396 29628 net.cpp:170] fc7 needs backward computation.
…
I1121 19:40:05.743453 29628 net.cpp:275] The NetState phase (1) differed from the phase (0) specified by a rule in layer data
I1121 19:40:05.743662 29628 net.cpp:39] Initializing net from parameters: 
name: "small"
layers {
  top: "data"
  top: "label"
  name: "data"
  type: IMAGE_DATA
  image_data_param {
    source: "/data/ad6813/devCaffe/caffe/data/water_high_blue/val.txt"
    batch_size: 8
    new_height: 256
    new_width: 256
  }
  include {
    phase: TEST
  }
  transform_param {
    mirror: true
    crop_size: 224
    mean_value: 86.752
    mean_value: 101.46
    mean_value: 104.6
  }
}
layers {
  bottom: "data"
  top: "conv1_1"
  name: "conv1_1"
  type: CONVOLUTION
  convolution_param {
    num_output: 64
    pad: 1
    kernel_size: 3
    weight_filler {
      type: "gaussian"
      std: 0.01
    }
    bias_filler {
      type: "constant"
      value: 0
    }
  }
}
layers {
  bottom: "conv1_1"
  top: "conv1_1"
  name: "relu1_1"
  type: RELU
}
layers {
  bottom: "conv1_1"
  top: "conv1_2"
  name: "conv1_2"
  type: CONVOLUTION
  convolution_param {
    num_output: 64
    pad: 1
    kernel_size: 3
    weight_filler {
      type: "gaussian"
      std: 0.01
    }
    bias_filler {
      type: "constant"
      value: 0
    }
  }
}
layers {
  bottom: "conv1_2"
  top: "conv1_2"
  name: "relu1_2"
  type: RELU
}
layers {
  bottom: "conv1_2"
  top: "pool1"
  name: "pool1"
  type: POOLING
  pooling_param {
    pool: MAX
    kernel_size: 2
    stride: 2
  }
}
layers {
  bottom: "pool1"
  top: "conv2_1"
  name: "conv2_1"
  type: CONVOLUTION
  convolution_param {
    num_output: 128
    pad: 1
    kernel_size: 3
    weight_filler {
      type: "gaussian"
      std: 0.01
    }
    bias_filler {
      type: "constant"
      value: 0
    }
  }
}
layers {
  bottom: "conv2_1"
  top: "conv2_1"
  name: "relu2_1"
  type: RELU
}
layers {
  bottom: "conv2_1"
  top: "conv2_2"
  name: "conv2_2"
  type: CONVOLUTION
  convolution_param {
    num_output: 128
    pad: 1
    kernel_size: 3
    weight_filler {
      type: "gaussian"
      std: 0.01
    }
    bias_filler {
      type: "constant"
      value: 0
    }
  }
}
layers {
  bottom: "conv2_2"
  top: "conv2_2"
  name: "relu2_2"
  type: RELU
}
layers {
  bottom: "conv2_2"
  top: "pool2"
  name: "pool2"
  type: POOLING
  pooling_param {
    pool: MAX
    kernel_size: 2
    stride: 2
  }
}
layers {
  bottom: "pool2"
  top: "conv3_1"
  name: "conv3_1"
  type: CONVOLUTION
  convolution_param {
    num_output: 256
    pad: 1
    kernel_size: 3
    weight_filler {
      type: "gaussian"
      std: 0.01
    }
    bias_filler {
      type: "constant"
      value: 0
    }
  }
}
layers {
  bottom: "conv3_1"
  top: "conv3_1"
  name: "relu3_1"
  type: RELU
}
layers {
  bottom: "conv3_1"
  top: "conv3_2"
  name: "conv3_2"
  type: CONVOLUTION
  convolution_param {
    num_output: 256
    pad: 1
    kernel_size: 3
    weight_filler {
      type: "gaussian"
      std: 0.01
    }
    bias_filler {
      type: "constant"
      value: 0
    }
  }
}
layers {
  bottom: "conv3_2"
  top: "conv3_2"
  name: "relu3_2"
  type: RELU
}
layers {
  bottom: "conv3_2"
  top: "conv3_3"
  name: "conv3_3"
  type: CONVOLUTION
  convolution_param {
    num_output: 256
    pad: 1
    kernel_size: 3
    weight_filler {
      type: "gaussian"
      std: 0.01
    }
    bias_filler {
      type: "constant"
      value: 0
    }
  }
}
layers {
  bottom: "conv3_3"
  top: "conv3_3"
  name: "relu3_3"
  type: RELU
}
layers {
  bottom: "conv3_3"
  top: "pool3"
  name: "pool3"
  type: POOLING
  pooling_param {
    pool: MAX
    kernel_size: 2
    stride: 2
  }
}
layers {
  bottom: "pool3"
  top: "conv4_1"
  name: "conv4_1"
  type: CONVOLUTION
  convolution_param {
    num_output: 512
    pad: 1
    kernel_size: 3
    weight_filler {
      type: "gaussian"
      std: 0.01
    }
    bias_filler {
      type: "constant"
      value: 0
    }
  }
}
layers {
  bottom: "conv4_1"
  top: "conv4_1"
  name: "relu4_1"
  type: RELU
}
layers {
  bottom: "conv4_1"
  top: "conv4_2"
  name: "conv4_2"
  type: CONVOLUTION
  convolution_param {
    num_output: 512
    pad: 1
    kernel_size: 3
    weight_filler {
      type: "gaussian"
      std: 0.01
    }
    bias_filler {
      type: "constant"
      value: 0
    }
  }
}
layers {
  bottom: "conv4_2"
  top: "conv4_2"
  name: "relu4_2"
  type: RELU
}
layers {
  bottom: "conv4_2"
  top: "conv4_3"
  name: "conv4_3"
  type: CONVOLUTION
  convolution_param {
    num_output: 512
    pad: 1
    kernel_size: 3
    weight_filler {
      type: "gaussian"
      std: 0.01
    }
    bias_filler {
      type: "constant"
      value: 0
    }
  }
}
layers {
  bottom: "conv4_3"
  top: "conv4_3"
  name: "relu4_3"
  type: RELU
}
layers {
  bottom: "conv4_3"
  top: "pool4"
  name: "pool4"
  type: POOLING
  pooling_param {
    pool: MAX
    kernel_size: 2
    stride: 2
  }
}
layers {
  bottom: "pool4"
  top: "conv5_1"
  name: "conv5_1"
  type: CONVOLUTION
  convolution_param {
    num_output: 512
    pad: 1
    kernel_size: 3
    weight_filler {
      type: "gaussian"
      std: 0.01
    }
    bias_filler {
      type: "constant"
      value: 0
    }
  }
}
layers {
  bottom: "conv5_1"
  top: "conv5_1"
  name: "relu5_1"
  type: RELU
}
layers {
  bottom: "conv5_1"
  top: "conv5_2"
  name: "conv5_2"
  type: CONVOLUTION
  convolution_param {
    num_output: 512
    pad: 1
    kernel_size: 3
    weight_filler {
      type: "gaussian"
      std: 0.01
    }
    bias_filler {
      type: "constant"
      value: 0
    }
  }
}
layers {
  bottom: "conv5_2"
  top: "conv5_2"
  name: "relu5_2"
  type: RELU
}
layers {
  bottom: "conv5_2"
  top: "conv5_3"
  name: "conv5_3"
  type: CONVOLUTION
  convolution_param {
    num_output: 512
    pad: 1
    kernel_size: 3
    weight_filler {
      type: "gaussian"
      std: 0.01
    }
    bias_filler {
      type: "constant"
      value: 0
    }
  }
}
layers {
  bottom: "conv5_3"
  top: "conv5_3"
  name: "relu5_3"
  type: RELU
}
layers {
  bottom: "conv5_3"
  top: "pool5"
  name: "pool5"
  type: POOLING
  pooling_param {
    pool: MAX
    kernel_size: 2
    stride: 2
  }
}
layers {
  bottom: "pool5"
  top: "fc6"
  name: "fc6"
  type: INNER_PRODUCT
  inner_product_param {
    num_output: 4096
    weight_filler {
      type: "gaussian"
      std: 0.01
    }
    bias_filler {
      type: "constant"
      value: 0
    }
  }
}
layers {
  bottom: "fc6"
  top: "fc6"
  name: "relu6"
  type: RELU
}
layers {
  bottom: "fc6"
  top: "fc6"
  name: "drop6"
  type: DROPOUT
  dropout_param {
    dropout_ratio: 0.5
  }
}
layers {
  bottom: "fc6"
  top: "fc7"
  name: "fc7"
  type: INNER_PRODUCT
  inner_product_param {
    num_output: 4096
    weight_filler {
      type: "gaussian"
      std: 0.01
    }
    bias_filler {
      type: "constant"
      value: 0
    }
  }
}
layers {
  bottom: "fc7"
  top: "fc7"
  name: "relu7"
  type: RELU
}
layers {
  bottom: "fc7"
  top: "fc7"
  name: "drop7"
  type: DROPOUT
  dropout_param {
    dropout_ratio: 0.5
  }
}
layers {
  bottom: "fc7"
  top: "fc8_2"
  name: "fc8_2"
  type: INNER_PRODUCT
  inner_product_param {
    num_output: 2
    weight_filler {
      type: "gaussian"
      std: 0.01
    }
    bias_filler {
      type: "constant"
      value: 0
    }
  }
}
layers {
  bottom: "fc8_2"
  bottom: "label"
  name: "loss"
  type: SOFTMAX_LOSS
}
layers {
  bottom: "fc8_2"
  bottom: "label"
  top: "accuracy"
  name: "accuracy"
  type: PER_CLASS_ACCURACY
  include {
    phase: TEST
  }
}
state {
  phase: TEST
}
I1121 19:40:05.743808 29628 layer_factory.hpp:78] Creating layer data
I1121 19:40:05.743818 29628 net.cpp:67] Creating Layer data
I1121 19:40:05.743823 29628 net.cpp:356] data -> data
I1121 19:40:05.743830 29628 net.cpp:356] data -> label
I1121 19:40:05.743836 29628 net.cpp:96] Setting up data
I1121 19:40:05.743840 29628 image_data_layer.cpp:34] Opening file /data/ad6813/devCaffe/caffe/data/water_high_blue/val.txt
I1121 19:40:05.744099 29628 image_data_layer.cpp:49] A total of 582 images.
I1121 19:40:05.751621 29628 image_data_layer.cpp:78] output data size: 8,3,224,224
I1121 19:40:05.752050 29628 net.cpp:103] Top shape: 8 3 224 224 (1204224)
I1121 19:40:05.752070 29628 net.cpp:103] Top shape: 8 1 1 1 (8)
I1121 19:40:05.752074 29628 layer_factory.hpp:78] Creating layer label_data_1_split
I1121 19:40:05.752082 29628 net.cpp:67] Creating Layer label_data_1_split
I1121 19:40:05.752085 29628 net.cpp:394] label_data_1_split <- label
I1121 19:40:05.752090 29628 net.cpp:356] label_data_1_split -> label_data_1_split_0
I1121 19:40:05.752097 29628 net.cpp:356] label_data_1_split -> label_data_1_split_1
I1121 19:40:05.752104 29628 net.cpp:96] Setting up label_data_1_split
I1121 19:40:05.752110 29628 net.cpp:103] Top shape: 8 1 1 1 (8)
I1121 19:40:05.752113 29628 net.cpp:103] Top shape: 8 1 1 1 (8)
I1121 19:40:05.752116 29628 layer_factory.hpp:78] Creating layer conv1_1
I1121 19:40:05.752121 29628 net.cpp:67] Creating Layer conv1_1
I1121 19:40:05.752125 29628 net.cpp:394] conv1_1 <- data
I1121 19:40:05.752130 29628 net.cpp:356] conv1_1 -> conv1_1
I1121 19:40:05.752135 29628 net.cpp:96] Setting up conv1_1
I1121 19:40:05.752333 29628 net.cpp:103] Top shape: 8 64 224 224 (25690112)
I1121 19:40:05.752347 29628 layer_factory.hpp:78] Creating layer relu1_1
I1121 19:40:05.752352 29628 net.cpp:67] Creating Layer relu1_1
I1121 19:40:05.752356 29628 net.cpp:394] relu1_1 <- conv1_1
I1121 19:40:05.752360 29628 net.cpp:345] relu1_1 -> conv1_1 (in-place)
I1121 19:40:05.752369 29628 net.cpp:96] Setting up relu1_1
I1121 19:40:05.752375 29628 net.cpp:103] Top shape: 8 64 224 224 (25690112)
I1121 19:40:05.752378 29628 layer_factory.hpp:78] Creating layer conv1_2
I1121 19:40:05.752385 29628 net.cpp:67] Creating Layer conv1_2
I1121 19:40:05.752388 29628 net.cpp:394] conv1_2 <- conv1_1
I1121 19:40:05.752393 29628 net.cpp:356] conv1_2 -> conv1_2
I1121 19:40:05.752398 29628 net.cpp:96] Setting up conv1_2
I1121 19:40:05.753458 29628 net.cpp:103] Top shape: 8 64 224 224 (25690112)
I1121 19:40:05.753473 29628 layer_factory.hpp:78] Creating layer relu1_2
I1121 19:40:05.753478 29628 net.cpp:67] Creating Layer relu1_2
I1121 19:40:05.753480 29628 net.cpp:394] relu1_2 <- conv1_2
I1121 19:40:05.753487 29628 net.cpp:345] relu1_2 -> conv1_2 (in-place)
I1121 19:40:05.753492 29628 net.cpp:96] Setting up relu1_2
I1121 19:40:05.753497 29628 net.cpp:103] Top shape: 8 64 224 224 (25690112)
I1121 19:40:05.753500 29628 layer_factory.hpp:78] Creating layer pool1
I1121 19:40:05.753505 29628 net.cpp:67] Creating Layer pool1
I1121 19:40:05.753509 29628 net.cpp:394] pool1 <- conv1_2
I1121 19:40:05.753515 29628 net.cpp:356] pool1 -> pool1
I1121 19:40:05.753520 29628 net.cpp:96] Setting up pool1
I1121 19:40:05.753526 29628 net.cpp:103] Top shape: 8 64 112 112 (6422528)
I1121 19:40:05.753530 29628 layer_factory.hpp:78] Creating layer conv2_1
I1121 19:40:05.753535 29628 net.cpp:67] Creating Layer conv2_1
I1121 19:40:05.753537 29628 net.cpp:394] conv2_1 <- pool1
I1121 19:40:05.753543 29628 net.cpp:356] conv2_1 -> conv2_1
I1121 19:40:05.753548 29628 net.cpp:96] Setting up conv2_1
I1121 19:40:05.755596 29628 net.cpp:103] Top shape: 8 128 112 112 (12845056)
I1121 19:40:05.755610 29628 layer_factory.hpp:78] Creating layer relu2_1
I1121 19:40:05.755619 29628 net.cpp:67] Creating Layer relu2_1
I1121 19:40:05.755621 29628 net.cpp:394] relu2_1 <- conv2_1
I1121 19:40:05.755626 29628 net.cpp:345] relu2_1 -> conv2_1 (in-place)
I1121 19:40:05.755631 29628 net.cpp:96] Setting up relu2_1
I1121 19:40:05.755636 29628 net.cpp:103] Top shape: 8 128 112 112 (12845056)
I1121 19:40:05.755640 29628 layer_factory.hpp:78] Creating layer conv2_2
I1121 19:40:05.755646 29628 net.cpp:67] Creating Layer conv2_2
I1121 19:40:05.755650 29628 net.cpp:394] conv2_2 <- conv2_1
I1121 19:40:05.755653 29628 net.cpp:356] conv2_2 -> conv2_2
I1121 19:40:05.755659 29628 net.cpp:96] Setting up conv2_2
I1121 19:40:05.759397 29628 net.cpp:103] Top shape: 8 128 112 112 (12845056)
I1121 19:40:05.759407 29628 layer_factory.hpp:78] Creating layer relu2_2
I1121 19:40:05.759414 29628 net.cpp:67] Creating Layer relu2_2
I1121 19:40:05.759418 29628 net.cpp:394] relu2_2 <- conv2_2
I1121 19:40:05.759423 29628 net.cpp:345] relu2_2 -> conv2_2 (in-place)
I1121 19:40:05.759428 29628 net.cpp:96] Setting up relu2_2
I1121 19:40:05.759433 29628 net.cpp:103] Top shape: 8 128 112 112 (12845056)
I1121 19:40:05.759436 29628 layer_factory.hpp:78] Creating layer pool2
I1121 19:40:05.759441 29628 net.cpp:67] Creating Layer pool2
I1121 19:40:05.759444 29628 net.cpp:394] pool2 <- conv2_2
I1121 19:40:05.759449 29628 net.cpp:356] pool2 -> pool2
I1121 19:40:05.759454 29628 net.cpp:96] Setting up pool2
I1121 19:40:05.759459 29628 net.cpp:103] Top shape: 8 128 56 56 (3211264)
I1121 19:40:05.759462 29628 layer_factory.hpp:78] Creating layer conv3_1
I1121 19:40:05.759469 29628 net.cpp:67] Creating Layer conv3_1
I1121 19:40:05.759472 29628 net.cpp:394] conv3_1 <- pool2
I1121 19:40:05.759477 29628 net.cpp:356] conv3_1 -> conv3_1
I1121 19:40:05.759482 29628 net.cpp:96] Setting up conv3_1
I1121 19:40:05.766856 29628 net.cpp:103] Top shape: 8 256 56 56 (6422528)
I1121 19:40:05.766871 29628 layer_factory.hpp:78] Creating layer relu3_1
I1121 19:40:05.766876 29628 net.cpp:67] Creating Layer relu3_1
I1121 19:40:05.766880 29628 net.cpp:394] relu3_1 <- conv3_1
I1121 19:40:05.766886 29628 net.cpp:345] relu3_1 -> conv3_1 (in-place)
I1121 19:40:05.766891 29628 net.cpp:96] Setting up relu3_1
I1121 19:40:05.766896 29628 net.cpp:103] Top shape: 8 256 56 56 (6422528)
I1121 19:40:05.766906 29628 layer_factory.hpp:78] Creating layer conv3_2
I1121 19:40:05.766912 29628 net.cpp:67] Creating Layer conv3_2
I1121 19:40:05.766916 29628 net.cpp:394] conv3_2 <- conv3_1
I1121 19:40:05.766921 29628 net.cpp:356] conv3_2 -> conv3_2
I1121 19:40:05.766926 29628 net.cpp:96] Setting up conv3_2
I1121 19:40:05.781373 29628 net.cpp:103] Top shape: 8 256 56 56 (6422528)
I1121 19:40:05.781394 29628 layer_factory.hpp:78] Creating layer relu3_2
I1121 19:40:05.781400 29628 net.cpp:67] Creating Layer relu3_2
I1121 19:40:05.781404 29628 net.cpp:394] relu3_2 <- conv3_2
I1121 19:40:05.781410 29628 net.cpp:345] relu3_2 -> conv3_2 (in-place)
I1121 19:40:05.781416 29628 net.cpp:96] Setting up relu3_2
I1121 19:40:05.781422 29628 net.cpp:103] Top shape: 8 256 56 56 (6422528)
I1121 19:40:05.781425 29628 layer_factory.hpp:78] Creating layer conv3_3
I1121 19:40:05.781433 29628 net.cpp:67] Creating Layer conv3_3
I1121 19:40:05.781435 29628 net.cpp:394] conv3_3 <- conv3_2
I1121 19:40:05.781440 29628 net.cpp:356] conv3_3 -> conv3_3
I1121 19:40:05.781446 29628 net.cpp:96] Setting up conv3_3
I1121 19:40:05.795892 29628 net.cpp:103] Top shape: 8 256 56 56 (6422528)
I1121 19:40:05.795912 29628 layer_factory.hpp:78] Creating layer relu3_3
I1121 19:40:05.795919 29628 net.cpp:67] Creating Layer relu3_3
I1121 19:40:05.795923 29628 net.cpp:394] relu3_3 <- conv3_3
I1121 19:40:05.795932 29628 net.cpp:345] relu3_3 -> conv3_3 (in-place)
I1121 19:40:05.795938 29628 net.cpp:96] Setting up relu3_3
I1121 19:40:05.795943 29628 net.cpp:103] Top shape: 8 256 56 56 (6422528)
I1121 19:40:05.795946 29628 layer_factory.hpp:78] Creating layer pool3
I1121 19:40:05.795951 29628 net.cpp:67] Creating Layer pool3
I1121 19:40:05.795954 29628 net.cpp:394] pool3 <- conv3_3
I1121 19:40:05.795959 29628 net.cpp:356] pool3 -> pool3
I1121 19:40:05.795965 29628 net.cpp:96] Setting up pool3
I1121 19:40:05.795972 29628 net.cpp:103] Top shape: 8 256 28 28 (1605632)
I1121 19:40:05.795975 29628 layer_factory.hpp:78] Creating layer conv4_1
I1121 19:40:05.795982 29628 net.cpp:67] Creating Layer conv4_1
I1121 19:40:05.795985 29628 net.cpp:394] conv4_1 <- pool3
I1121 19:40:05.795990 29628 net.cpp:356] conv4_1 -> conv4_1
I1121 19:40:05.795995 29628 net.cpp:96] Setting up conv4_1
I1121 19:40:05.824172 29628 net.cpp:103] Top shape: 8 512 28 28 (3211264)
I1121 19:40:05.824208 29628 layer_factory.hpp:78] Creating layer relu4_1
I1121 19:40:05.824215 29628 net.cpp:67] Creating Layer relu4_1
I1121 19:40:05.824220 29628 net.cpp:394] relu4_1 <- conv4_1
I1121 19:40:05.824229 29628 net.cpp:345] relu4_1 -> conv4_1 (in-place)
I1121 19:40:05.824235 29628 net.cpp:96] Setting up relu4_1
I1121 19:40:05.824240 29628 net.cpp:103] Top shape: 8 512 28 28 (3211264)
I1121 19:40:05.824244 29628 layer_factory.hpp:78] Creating layer conv4_2
I1121 19:40:05.824250 29628 net.cpp:67] Creating Layer conv4_2
I1121 19:40:05.824252 29628 net.cpp:394] conv4_2 <- conv4_1
I1121 19:40:05.824259 29628 net.cpp:356] conv4_2 -> conv4_2
I1121 19:40:05.824265 29628 net.cpp:96] Setting up conv4_2
I1121 19:40:05.879220 29628 net.cpp:103] Top shape: 8 512 28 28 (3211264)
I1121 19:40:05.879262 29628 layer_factory.hpp:78] Creating layer relu4_2
I1121 19:40:05.879271 29628 net.cpp:67] Creating Layer relu4_2
I1121 19:40:05.879276 29628 net.cpp:394] relu4_2 <- conv4_2
I1121 19:40:05.879281 29628 net.cpp:345] relu4_2 -> conv4_2 (in-place)
I1121 19:40:05.879287 29628 net.cpp:96] Setting up relu4_2
I1121 19:40:05.879293 29628 net.cpp:103] Top shape: 8 512 28 28 (3211264)
I1121 19:40:05.879297 29628 layer_factory.hpp:78] Creating layer conv4_3
I1121 19:40:05.879304 29628 net.cpp:67] Creating Layer conv4_3
I1121 19:40:05.879307 29628 net.cpp:394] conv4_3 <- conv4_2
I1121 19:40:05.879312 29628 net.cpp:356] conv4_3 -> conv4_3
I1121 19:40:05.879319 29628 net.cpp:96] Setting up conv4_3
I1121 19:40:05.933840 29628 net.cpp:103] Top shape: 8 512 28 28 (3211264)
I1121 19:40:05.933878 29628 layer_factory.hpp:78] Creating layer relu4_3
I1121 19:40:05.933887 29628 net.cpp:67] Creating Layer relu4_3
I1121 19:40:05.933892 29628 net.cpp:394] relu4_3 <- conv4_3
I1121 19:40:05.933907 29628 net.cpp:345] relu4_3 -> conv4_3 (in-place)
I1121 19:40:05.933915 29628 net.cpp:96] Setting up relu4_3
I1121 19:40:05.933922 29628 net.cpp:103] Top shape: 8 512 28 28 (3211264)
I1121 19:40:05.933925 29628 layer_factory.hpp:78] Creating layer pool4
I1121 19:40:05.933930 29628 net.cpp:67] Creating Layer pool4
I1121 19:40:05.933933 29628 net.cpp:394] pool4 <- conv4_3
I1121 19:40:05.933938 29628 net.cpp:356] pool4 -> pool4
I1121 19:40:05.933944 29628 net.cpp:96] Setting up pool4
I1121 19:40:05.933951 29628 net.cpp:103] Top shape: 8 512 14 14 (802816)
I1121 19:40:05.933954 29628 layer_factory.hpp:78] Creating layer conv5_1
I1121 19:40:05.933961 29628 net.cpp:67] Creating Layer conv5_1
I1121 19:40:05.933965 29628 net.cpp:394] conv5_1 <- pool4
I1121 19:40:05.933969 29628 net.cpp:356] conv5_1 -> conv5_1
I1121 19:40:05.933975 29628 net.cpp:96] Setting up conv5_1
I1121 19:40:05.988783 29628 net.cpp:103] Top shape: 8 512 14 14 (802816)
I1121 19:40:05.988821 29628 layer_factory.hpp:78] Creating layer relu5_1
I1121 19:40:05.988828 29628 net.cpp:67] Creating Layer relu5_1
I1121 19:40:05.988834 29628 net.cpp:394] relu5_1 <- conv5_1
I1121 19:40:05.988842 29628 net.cpp:345] relu5_1 -> conv5_1 (in-place)
I1121 19:40:05.988848 29628 net.cpp:96] Setting up relu5_1
I1121 19:40:05.988853 29628 net.cpp:103] Top shape: 8 512 14 14 (802816)
I1121 19:40:05.988857 29628 layer_factory.hpp:78] Creating layer conv5_2
I1121 19:40:05.988862 29628 net.cpp:67] Creating Layer conv5_2
I1121 19:40:05.988864 29628 net.cpp:394] conv5_2 <- conv5_1
I1121 19:40:05.988873 29628 net.cpp:356] conv5_2 -> conv5_2
I1121 19:40:05.988878 29628 net.cpp:96] Setting up conv5_2
I1121 19:40:06.043531 29628 net.cpp:103] Top shape: 8 512 14 14 (802816)
I1121 19:40:06.043570 29628 layer_factory.hpp:78] Creating layer relu5_2
I1121 19:40:06.043577 29628 net.cpp:67] Creating Layer relu5_2
I1121 19:40:06.043581 29628 net.cpp:394] relu5_2 <- conv5_2
I1121 19:40:06.043587 29628 net.cpp:345] relu5_2 -> conv5_2 (in-place)
I1121 19:40:06.043594 29628 net.cpp:96] Setting up relu5_2
I1121 19:40:06.043599 29628 net.cpp:103] Top shape: 8 512 14 14 (802816)
I1121 19:40:06.043603 29628 layer_factory.hpp:78] Creating layer conv5_3
I1121 19:40:06.043611 29628 net.cpp:67] Creating Layer conv5_3
I1121 19:40:06.043613 29628 net.cpp:394] conv5_3 <- conv5_2
I1121 19:40:06.043617 29628 net.cpp:356] conv5_3 -> conv5_3
I1121 19:40:06.043623 29628 net.cpp:96] Setting up conv5_3
I1121 19:40:06.098608 29628 net.cpp:103] Top shape: 8 512 14 14 (802816)
I1121 19:40:06.098645 29628 layer_factory.hpp:78] Creating layer relu5_3
I1121 19:40:06.098654 29628 net.cpp:67] Creating Layer relu5_3
I1121 19:40:06.098659 29628 net.cpp:394] relu5_3 <- conv5_3
I1121 19:40:06.098665 29628 net.cpp:345] relu5_3 -> conv5_3 (in-place)
I1121 19:40:06.098671 29628 net.cpp:96] Setting up relu5_3
I1121 19:40:06.098676 29628 net.cpp:103] Top shape: 8 512 14 14 (802816)
I1121 19:40:06.098680 29628 layer_factory.hpp:78] Creating layer pool5
I1121 19:40:06.098691 29628 net.cpp:67] Creating Layer pool5
I1121 19:40:06.098695 29628 net.cpp:394] pool5 <- conv5_3
I1121 19:40:06.098701 29628 net.cpp:356] pool5 -> pool5
I1121 19:40:06.098706 29628 net.cpp:96] Setting up pool5
I1121 19:40:06.098713 29628 net.cpp:103] Top shape: 8 512 7 7 (200704)
I1121 19:40:06.098717 29628 layer_factory.hpp:78] Creating layer fc6
I1121 19:40:06.098722 29628 net.cpp:67] Creating Layer fc6
I1121 19:40:06.098726 29628 net.cpp:394] fc6 <- pool5
I1121 19:40:06.098731 29628 net.cpp:356] fc6 -> fc6
I1121 19:40:06.098736 29628 net.cpp:96] Setting up fc6
I1121 19:40:08.463976 29628 net.cpp:103] Top shape: 8 4096 1 1 (32768)
I1121 19:40:08.464018 29628 layer_factory.hpp:78] Creating layer relu6
I1121 19:40:08.464027 29628 net.cpp:67] Creating Layer relu6
I1121 19:40:08.464031 29628 net.cpp:394] relu6 <- fc6
I1121 19:40:08.464038 29628 net.cpp:345] relu6 -> fc6 (in-place)
I1121 19:40:08.464046 29628 net.cpp:96] Setting up relu6
I1121 19:40:08.464059 29628 net.cpp:103] Top shape: 8 4096 1 1 (32768)
I1121 19:40:08.464063 29628 layer_factory.hpp:78] Creating layer drop6
I1121 19:40:08.464081 29628 net.cpp:67] Creating Layer drop6
I1121 19:40:08.464083 29628 net.cpp:394] drop6 <- fc6
I1121 19:40:08.464088 29628 net.cpp:345] drop6 -> fc6 (in-place)
I1121 19:40:08.464092 29628 net.cpp:96] Setting up drop6
I1121 19:40:08.464097 29628 net.cpp:103] Top shape: 8 4096 1 1 (32768)
I1121 19:40:08.464099 29628 layer_factory.hpp:78] Creating layer fc7
I1121 19:40:08.464104 29628 net.cpp:67] Creating Layer fc7
I1121 19:40:08.464107 29628 net.cpp:394] fc7 <- fc6
I1121 19:40:08.464113 29628 net.cpp:356] fc7 -> fc7
I1121 19:40:08.464120 29628 net.cpp:96] Setting up fc7
I1121 19:40:08.850911 29628 net.cpp:103] Top shape: 8 4096 1 1 (32768)
I1121 19:40:08.850953 29628 layer_factory.hpp:78] Creating layer relu7
I1121 19:40:08.850961 29628 net.cpp:67] Creating Layer relu7
I1121 19:40:08.850966 29628 net.cpp:394] relu7 <- fc7
I1121 19:40:08.850975 29628 net.cpp:345] relu7 -> fc7 (in-place)
I1121 19:40:08.850982 29628 net.cpp:96] Setting up relu7
I1121 19:40:08.850996 29628 net.cpp:103] Top shape: 8 4096 1 1 (32768)
I1121 19:40:08.850999 29628 layer_factory.hpp:78] Creating layer drop7
I1121 19:40:08.851004 29628 net.cpp:67] Creating Layer drop7
I1121 19:40:08.851007 29628 net.cpp:394] drop7 <- fc7
I1121 19:40:08.851011 29628 net.cpp:345] drop7 -> fc7 (in-place)
I1121 19:40:08.851016 29628 net.cpp:96] Setting up drop7
I1121 19:40:08.851021 29628 net.cpp:103] Top shape: 8 4096 1 1 (32768)
I1121 19:40:08.851022 29628 layer_factory.hpp:78] Creating layer fc8_2
I1121 19:40:08.851029 29628 net.cpp:67] Creating Layer fc8_2
I1121 19:40:08.851032 29628 net.cpp:394] fc8_2 <- fc7
I1121 19:40:08.851037 29628 net.cpp:356] fc8_2 -> fc8_2
I1121 19:40:08.851043 29628 net.cpp:96] Setting up fc8_2
I1121 19:40:08.851261 29628 net.cpp:103] Top shape: 8 2 1 1 (16)
I1121 19:40:08.851270 29628 layer_factory.hpp:78] Creating layer fc8_2_fc8_2_0_split
I1121 19:40:08.851275 29628 net.cpp:67] Creating Layer fc8_2_fc8_2_0_split
I1121 19:40:08.851279 29628 net.cpp:394] fc8_2_fc8_2_0_split <- fc8_2
I1121 19:40:08.851282 29628 net.cpp:356] fc8_2_fc8_2_0_split -> fc8_2_fc8_2_0_split_0
I1121 19:40:08.851289 29628 net.cpp:356] fc8_2_fc8_2_0_split -> fc8_2_fc8_2_0_split_1
I1121 19:40:08.851294 29628 net.cpp:96] Setting up fc8_2_fc8_2_0_split
I1121 19:40:08.851301 29628 net.cpp:103] Top shape: 8 2 1 1 (16)
I1121 19:40:08.851305 29628 net.cpp:103] Top shape: 8 2 1 1 (16)
I1121 19:40:08.851307 29628 layer_factory.hpp:78] Creating layer loss
I1121 19:40:08.851313 29628 net.cpp:67] Creating Layer loss
I1121 19:40:08.851317 29628 net.cpp:394] loss <- fc8_2_fc8_2_0_split_0
I1121 19:40:08.851321 29628 net.cpp:394] loss <- label_data_1_split_0
I1121 19:40:08.851331 29628 net.cpp:356] loss -> (automatic)
I1121 19:40:08.851338 29628 net.cpp:96] Setting up loss
I1121 19:40:08.851344 29628 net.cpp:103] Top shape: 1 1 1 1 (1)
I1121 19:40:08.851347 29628 net.cpp:109]     with loss weight 1
I1121 19:40:08.851361 29628 layer_factory.hpp:78] Creating layer accuracy
I1121 19:40:08.851366 29628 net.cpp:67] Creating Layer accuracy
I1121 19:40:08.851369 29628 net.cpp:394] accuracy <- fc8_2_fc8_2_0_split_1
I1121 19:40:08.851377 29628 net.cpp:394] accuracy <- label_data_1_split_1
I1121 19:40:08.851387 29628 net.cpp:356] accuracy -> accuracy
I1121 19:40:08.851392 29628 net.cpp:96] Setting up accuracy
I1121 19:40:08.851399 29628 net.cpp:103] Top shape: 1 1 1 4 (4)
I1121 19:40:08.851404 29628 net.cpp:172] accuracy does not need backward computation.
I1121 19:40:08.851408 29628 net.cpp:170] loss needs backward computation.
I1121 19:40:08.851410 29628 net.cpp:170] fc8_2_fc8_2_0_split needs backward computation.
I1121 19:40:08.851413 29628 net.cpp:170] fc8_2 needs backward computation.
I1121 19:40:08.851416 29628 net.cpp:170] drop7 needs backward computation.
…
