…
I1109 18:04:57.410164 10812 net.cpp:275] The NetState phase (0) differed from the phase (1) specified by a rule in layer accuracy
I1109 18:04:57.410540 10812 net.cpp:39] Initializing net from parameters: 
name: "small"
layers {
  top: "data"
  top: "label"
  name: "data"
  type: IMAGE_DATA
  image_data_param {
    source: "/data/ad6813/devCaffe/caffe/data/unsuit_o/train.txt"
    batch_size: 8
    new_height: 256
    new_width: 256
  }
  include {
    phase: TRAIN
  }
  transform_param {
    mirror: true
    crop_size: 224
    mean_value: 86.752
    mean_value: 101.46
    mean_value: 104.6
  }
}
layers {
  bottom: "data"
  top: "conv1_1"
  name: "conv1_1"
  type: CONVOLUTION
  convolution_param {
    num_output: 64
    pad: 1
    kernel_size: 3
    weight_filler {
      type: "gaussian"
      std: 0.01
    }
    bias_filler {
      type: "constant"
      value: 0
    }
  }
}
layers {
  bottom: "conv1_1"
  top: "conv1_1"
  name: "relu1_1"
  type: RELU
}
layers {
  bottom: "conv1_1"
  top: "conv1_2"
  name: "conv1_2"
  type: CONVOLUTION
  convolution_param {
    num_output: 64
    pad: 1
    kernel_size: 3
    weight_filler {
      type: "gaussian"
      std: 0.01
    }
    bias_filler {
      type: "constant"
      value: 0
    }
  }
}
layers {
  bottom: "conv1_2"
  top: "conv1_2"
  name: "relu1_2"
  type: RELU
}
layers {
  bottom: "conv1_2"
  top: "pool1"
  name: "pool1"
  type: POOLING
  pooling_param {
    pool: MAX
    kernel_size: 2
    stride: 2
  }
}
layers {
  bottom: "pool1"
  top: "conv2_1"
  name: "conv2_1"
  type: CONVOLUTION
  convolution_param {
    num_output: 128
    pad: 1
    kernel_size: 3
    weight_filler {
      type: "gaussian"
      std: 0.01
    }
    bias_filler {
      type: "constant"
      value: 0
    }
  }
}
layers {
  bottom: "conv2_1"
  top: "conv2_1"
  name: "relu2_1"
  type: RELU
}
layers {
  bottom: "conv2_1"
  top: "conv2_2"
  name: "conv2_2"
  type: CONVOLUTION
  convolution_param {
    num_output: 128
    pad: 1
    kernel_size: 3
    weight_filler {
      type: "gaussian"
      std: 0.01
    }
    bias_filler {
      type: "constant"
      value: 0
    }
  }
}
layers {
  bottom: "conv2_2"
  top: "conv2_2"
  name: "relu2_2"
  type: RELU
}
layers {
  bottom: "conv2_2"
  top: "pool2"
  name: "pool2"
  type: POOLING
  pooling_param {
    pool: MAX
    kernel_size: 2
    stride: 2
  }
}
layers {
  bottom: "pool2"
  top: "conv3_1"
  name: "conv3_1"
  type: CONVOLUTION
  convolution_param {
    num_output: 256
    pad: 1
    kernel_size: 3
    weight_filler {
      type: "gaussian"
      std: 0.01
    }
    bias_filler {
      type: "constant"
      value: 0
    }
  }
}
layers {
  bottom: "conv3_1"
  top: "conv3_1"
  name: "relu3_1"
  type: RELU
}
layers {
  bottom: "conv3_1"
  top: "conv3_2"
  name: "conv3_2"
  type: CONVOLUTION
  convolution_param {
    num_output: 256
    pad: 1
    kernel_size: 3
    weight_filler {
      type: "gaussian"
      std: 0.01
    }
    bias_filler {
      type: "constant"
      value: 0
    }
  }
}
layers {
  bottom: "conv3_2"
  top: "conv3_2"
  name: "relu3_2"
  type: RELU
}
layers {
  bottom: "conv3_2"
  top: "conv3_3"
  name: "conv3_3"
  type: CONVOLUTION
  convolution_param {
    num_output: 256
    pad: 1
    kernel_size: 3
    weight_filler {
      type: "gaussian"
      std: 0.01
    }
    bias_filler {
      type: "constant"
      value: 0
    }
  }
}
layers {
  bottom: "conv3_3"
  top: "conv3_3"
  name: "relu3_3"
  type: RELU
}
layers {
  bottom: "conv3_3"
  top: "pool3"
  name: "pool3"
  type: POOLING
  pooling_param {
    pool: MAX
    kernel_size: 2
    stride: 2
  }
}
layers {
  bottom: "pool3"
  top: "conv4_1"
  name: "conv4_1"
  type: CONVOLUTION
  convolution_param {
    num_output: 512
    pad: 1
    kernel_size: 3
    weight_filler {
      type: "gaussian"
      std: 0.01
    }
    bias_filler {
      type: "constant"
      value: 0
    }
  }
}
layers {
  bottom: "conv4_1"
  top: "conv4_1"
  name: "relu4_1"
  type: RELU
}
layers {
  bottom: "conv4_1"
  top: "conv4_2"
  name: "conv4_2"
  type: CONVOLUTION
  convolution_param {
    num_output: 512
    pad: 1
    kernel_size: 3
    weight_filler {
      type: "gaussian"
      std: 0.01
    }
    bias_filler {
      type: "constant"
      value: 0
    }
  }
}
layers {
  bottom: "conv4_2"
  top: "conv4_2"
  name: "relu4_2"
  type: RELU
}
layers {
  bottom: "conv4_2"
  top: "conv4_3"
  name: "conv4_3"
  type: CONVOLUTION
  convolution_param {
    num_output: 512
    pad: 1
    kernel_size: 3
    weight_filler {
      type: "gaussian"
      std: 0.01
    }
    bias_filler {
      type: "constant"
      value: 0
    }
  }
}
layers {
  bottom: "conv4_3"
  top: "conv4_3"
  name: "relu4_3"
  type: RELU
}
layers {
  bottom: "conv4_3"
  top: "pool4"
  name: "pool4"
  type: POOLING
  pooling_param {
    pool: MAX
    kernel_size: 2
    stride: 2
  }
}
layers {
  bottom: "pool4"
  top: "conv5_1"
  name: "conv5_1"
  type: CONVOLUTION
  convolution_param {
    num_output: 512
    pad: 1
    kernel_size: 3
    weight_filler {
      type: "gaussian"
      std: 0.01
    }
    bias_filler {
      type: "constant"
      value: 0
    }
  }
}
layers {
  bottom: "conv5_1"
  top: "conv5_1"
  name: "relu5_1"
  type: RELU
}
layers {
  bottom: "conv5_1"
  top: "conv5_2"
  name: "conv5_2"
  type: CONVOLUTION
  convolution_param {
    num_output: 512
    pad: 1
    kernel_size: 3
    weight_filler {
      type: "gaussian"
      std: 0.01
    }
    bias_filler {
      type: "constant"
      value: 0
    }
  }
}
layers {
  bottom: "conv5_2"
  top: "conv5_2"
  name: "relu5_2"
  type: RELU
}
layers {
  bottom: "conv5_2"
  top: "conv5_3"
  name: "conv5_3"
  type: CONVOLUTION
  convolution_param {
    num_output: 512
    pad: 1
    kernel_size: 3
    weight_filler {
      type: "gaussian"
      std: 0.01
    }
    bias_filler {
      type: "constant"
      value: 0
    }
  }
}
layers {
  bottom: "conv5_3"
  top: "conv5_3"
  name: "relu5_3"
  type: RELU
}
layers {
  bottom: "conv5_3"
  top: "pool5"
  name: "pool5"
  type: POOLING
  pooling_param {
    pool: MAX
    kernel_size: 2
    stride: 2
  }
}
layers {
  bottom: "pool5"
  top: "fc6"
  name: "fc6"
  type: INNER_PRODUCT
  inner_product_param {
    num_output: 4096
    weight_filler {
      type: "gaussian"
      std: 0.01
    }
    bias_filler {
      type: "constant"
      value: 0
    }
  }
}
layers {
  bottom: "fc6"
  top: "fc6"
  name: "relu6"
  type: RELU
}
layers {
  bottom: "fc6"
  top: "fc6"
  name: "drop6"
  type: DROPOUT
  dropout_param {
    dropout_ratio: 0.5
  }
}
layers {
  bottom: "fc6"
  top: "fc7"
  name: "fc7"
  type: INNER_PRODUCT
  inner_product_param {
    num_output: 4096
    weight_filler {
      type: "gaussian"
      std: 0.01
    }
    bias_filler {
      type: "constant"
      value: 0
    }
  }
}
layers {
  bottom: "fc7"
  top: "fc7"
  name: "relu7"
  type: RELU
}
layers {
  bottom: "fc7"
  top: "fc7"
  name: "drop7"
  type: DROPOUT
  dropout_param {
    dropout_ratio: 0.5
  }
}
layers {
  bottom: "fc7"
  top: "fc8_2"
  name: "fc8_2"
  type: INNER_PRODUCT
  inner_product_param {
    num_output: 2
    weight_filler {
      type: "gaussian"
      std: 0.01
    }
    bias_filler {
      type: "constant"
      value: 0
    }
  }
}
layers {
  bottom: "fc8_2"
  bottom: "label"
  name: "loss"
  type: SOFTMAX_LOSS
}
state {
  phase: TRAIN
}
I1109 18:04:57.410747 10812 layer_factory.hpp:78] Creating layer data
I1109 18:04:57.410774 10812 net.cpp:67] Creating Layer data
I1109 18:04:57.410785 10812 net.cpp:356] data -> data
I1109 18:04:57.410817 10812 net.cpp:356] data -> label
I1109 18:04:57.410831 10812 net.cpp:96] Setting up data
I1109 18:04:57.410841 10812 image_data_layer.cpp:34] Opening file /data/ad6813/devCaffe/caffe/data/unsuit_o/train.txt
I1109 18:04:57.564822 10812 image_data_layer.cpp:49] A total of 240008 images.
I1109 18:04:57.575405 10812 image_data_layer.cpp:78] output data size: 8,3,224,224
I1109 18:04:57.577285 10812 net.cpp:103] Top shape: 8 3 224 224 (1204224)
I1109 18:04:57.577306 10812 net.cpp:103] Top shape: 8 1 1 1 (8)
I1109 18:04:57.577316 10812 layer_factory.hpp:78] Creating layer conv1_1
I1109 18:04:57.577358 10812 net.cpp:67] Creating Layer conv1_1
I1109 18:04:57.577366 10812 net.cpp:394] conv1_1 <- data
I1109 18:04:57.577386 10812 net.cpp:356] conv1_1 -> conv1_1
I1109 18:04:57.577404 10812 net.cpp:96] Setting up conv1_1
I1109 18:04:57.605124 10812 net.cpp:103] Top shape: 8 64 224 224 (25690112)
I1109 18:04:57.605176 10812 layer_factory.hpp:78] Creating layer relu1_1
I1109 18:04:57.605195 10812 net.cpp:67] Creating Layer relu1_1
I1109 18:04:57.605202 10812 net.cpp:394] relu1_1 <- conv1_1
I1109 18:04:57.605213 10812 net.cpp:345] relu1_1 -> conv1_1 (in-place)
I1109 18:04:57.605227 10812 net.cpp:96] Setting up relu1_1
I1109 18:04:57.605243 10812 net.cpp:103] Top shape: 8 64 224 224 (25690112)
I1109 18:04:57.605249 10812 layer_factory.hpp:78] Creating layer conv1_2
I1109 18:04:57.605260 10812 net.cpp:67] Creating Layer conv1_2
I1109 18:04:57.605265 10812 net.cpp:394] conv1_2 <- conv1_1
I1109 18:04:57.605274 10812 net.cpp:356] conv1_2 -> conv1_2
I1109 18:04:57.605285 10812 net.cpp:96] Setting up conv1_2
I1109 18:04:57.607478 10812 net.cpp:103] Top shape: 8 64 224 224 (25690112)
I1109 18:04:57.607506 10812 layer_factory.hpp:78] Creating layer relu1_2
I1109 18:04:57.607522 10812 net.cpp:67] Creating Layer relu1_2
I1109 18:04:57.607528 10812 net.cpp:394] relu1_2 <- conv1_2
I1109 18:04:57.607537 10812 net.cpp:345] relu1_2 -> conv1_2 (in-place)
I1109 18:04:57.607545 10812 net.cpp:96] Setting up relu1_2
I1109 18:04:57.607556 10812 net.cpp:103] Top shape: 8 64 224 224 (25690112)
I1109 18:04:57.607563 10812 layer_factory.hpp:78] Creating layer pool1
I1109 18:04:57.607574 10812 net.cpp:67] Creating Layer pool1
I1109 18:04:57.607580 10812 net.cpp:394] pool1 <- conv1_2
I1109 18:04:57.607590 10812 net.cpp:356] pool1 -> pool1
I1109 18:04:57.607601 10812 net.cpp:96] Setting up pool1
I1109 18:04:57.607627 10812 net.cpp:103] Top shape: 8 64 112 112 (6422528)
I1109 18:04:57.607635 10812 layer_factory.hpp:78] Creating layer conv2_1
I1109 18:04:57.607643 10812 net.cpp:67] Creating Layer conv2_1
I1109 18:04:57.607650 10812 net.cpp:394] conv2_1 <- pool1
I1109 18:04:57.607661 10812 net.cpp:356] conv2_1 -> conv2_1
I1109 18:04:57.607671 10812 net.cpp:96] Setting up conv2_1
I1109 18:04:57.611408 10812 net.cpp:103] Top shape: 8 128 112 112 (12845056)
I1109 18:04:57.611433 10812 layer_factory.hpp:78] Creating layer relu2_1
I1109 18:04:57.611443 10812 net.cpp:67] Creating Layer relu2_1
I1109 18:04:57.611449 10812 net.cpp:394] relu2_1 <- conv2_1
I1109 18:04:57.611464 10812 net.cpp:345] relu2_1 -> conv2_1 (in-place)
I1109 18:04:57.611474 10812 net.cpp:96] Setting up relu2_1
I1109 18:04:57.611485 10812 net.cpp:103] Top shape: 8 128 112 112 (12845056)
I1109 18:04:57.611491 10812 layer_factory.hpp:78] Creating layer conv2_2
I1109 18:04:57.611502 10812 net.cpp:67] Creating Layer conv2_2
I1109 18:04:57.611507 10812 net.cpp:394] conv2_2 <- conv2_1
I1109 18:04:57.611520 10812 net.cpp:356] conv2_2 -> conv2_2
I1109 18:04:57.611528 10812 net.cpp:96] Setting up conv2_2
I1109 18:04:57.618815 10812 net.cpp:103] Top shape: 8 128 112 112 (12845056)
I1109 18:04:57.618839 10812 layer_factory.hpp:78] Creating layer relu2_2
I1109 18:04:57.618846 10812 net.cpp:67] Creating Layer relu2_2
I1109 18:04:57.618852 10812 net.cpp:394] relu2_2 <- conv2_2
I1109 18:04:57.618865 10812 net.cpp:345] relu2_2 -> conv2_2 (in-place)
I1109 18:04:57.618873 10812 net.cpp:96] Setting up relu2_2
I1109 18:04:57.618883 10812 net.cpp:103] Top shape: 8 128 112 112 (12845056)
I1109 18:04:57.618890 10812 layer_factory.hpp:78] Creating layer pool2
I1109 18:04:57.618911 10812 net.cpp:67] Creating Layer pool2
I1109 18:04:57.618916 10812 net.cpp:394] pool2 <- conv2_2
I1109 18:04:57.618927 10812 net.cpp:356] pool2 -> pool2
I1109 18:04:57.618937 10812 net.cpp:96] Setting up pool2
I1109 18:04:57.618947 10812 net.cpp:103] Top shape: 8 128 56 56 (3211264)
I1109 18:04:57.618953 10812 layer_factory.hpp:78] Creating layer conv3_1
I1109 18:04:57.618963 10812 net.cpp:67] Creating Layer conv3_1
I1109 18:04:57.618968 10812 net.cpp:394] conv3_1 <- pool2
I1109 18:04:57.618979 10812 net.cpp:356] conv3_1 -> conv3_1
I1109 18:04:57.618990 10812 net.cpp:96] Setting up conv3_1
I1109 18:04:57.633407 10812 net.cpp:103] Top shape: 8 256 56 56 (6422528)
I1109 18:04:57.633435 10812 layer_factory.hpp:78] Creating layer relu3_1
I1109 18:04:57.633446 10812 net.cpp:67] Creating Layer relu3_1
I1109 18:04:57.633452 10812 net.cpp:394] relu3_1 <- conv3_1
I1109 18:04:57.633460 10812 net.cpp:345] relu3_1 -> conv3_1 (in-place)
I1109 18:04:57.633471 10812 net.cpp:96] Setting up relu3_1
I1109 18:04:57.633479 10812 net.cpp:103] Top shape: 8 256 56 56 (6422528)
I1109 18:04:57.633486 10812 layer_factory.hpp:78] Creating layer conv3_2
I1109 18:04:57.633498 10812 net.cpp:67] Creating Layer conv3_2
I1109 18:04:57.633505 10812 net.cpp:394] conv3_2 <- conv3_1
I1109 18:04:57.633515 10812 net.cpp:356] conv3_2 -> conv3_2
I1109 18:04:57.633525 10812 net.cpp:96] Setting up conv3_2
I1109 18:04:57.662631 10812 net.cpp:103] Top shape: 8 256 56 56 (6422528)
I1109 18:04:57.662655 10812 layer_factory.hpp:78] Creating layer relu3_2
I1109 18:04:57.662665 10812 net.cpp:67] Creating Layer relu3_2
I1109 18:04:57.662672 10812 net.cpp:394] relu3_2 <- conv3_2
I1109 18:04:57.662680 10812 net.cpp:345] relu3_2 -> conv3_2 (in-place)
I1109 18:04:57.662689 10812 net.cpp:96] Setting up relu3_2
I1109 18:04:57.662699 10812 net.cpp:103] Top shape: 8 256 56 56 (6422528)
I1109 18:04:57.662705 10812 layer_factory.hpp:78] Creating layer conv3_3
I1109 18:04:57.662714 10812 net.cpp:67] Creating Layer conv3_3
I1109 18:04:57.662719 10812 net.cpp:394] conv3_3 <- conv3_2
I1109 18:04:57.662731 10812 net.cpp:356] conv3_3 -> conv3_3
I1109 18:04:57.662741 10812 net.cpp:96] Setting up conv3_3
I1109 18:04:57.691390 10812 net.cpp:103] Top shape: 8 256 56 56 (6422528)
I1109 18:04:57.691412 10812 layer_factory.hpp:78] Creating layer relu3_3
I1109 18:04:57.691424 10812 net.cpp:67] Creating Layer relu3_3
I1109 18:04:57.691431 10812 net.cpp:394] relu3_3 <- conv3_3
I1109 18:04:57.691438 10812 net.cpp:345] relu3_3 -> conv3_3 (in-place)
I1109 18:04:57.691447 10812 net.cpp:96] Setting up relu3_3
I1109 18:04:57.691457 10812 net.cpp:103] Top shape: 8 256 56 56 (6422528)
I1109 18:04:57.691462 10812 layer_factory.hpp:78] Creating layer pool3
I1109 18:04:57.691472 10812 net.cpp:67] Creating Layer pool3
I1109 18:04:57.691476 10812 net.cpp:394] pool3 <- conv3_3
I1109 18:04:57.691488 10812 net.cpp:356] pool3 -> pool3
I1109 18:04:57.691498 10812 net.cpp:96] Setting up pool3
I1109 18:04:57.691509 10812 net.cpp:103] Top shape: 8 256 28 28 (1605632)
I1109 18:04:57.691515 10812 layer_factory.hpp:78] Creating layer conv4_1
I1109 18:04:57.691524 10812 net.cpp:67] Creating Layer conv4_1
I1109 18:04:57.691530 10812 net.cpp:394] conv4_1 <- pool3
I1109 18:04:57.691539 10812 net.cpp:356] conv4_1 -> conv4_1
I1109 18:04:57.691547 10812 net.cpp:96] Setting up conv4_1
I1109 18:04:57.748368 10812 net.cpp:103] Top shape: 8 512 28 28 (3211264)
I1109 18:04:57.748395 10812 layer_factory.hpp:78] Creating layer relu4_1
I1109 18:04:57.748409 10812 net.cpp:67] Creating Layer relu4_1
I1109 18:04:57.748414 10812 net.cpp:394] relu4_1 <- conv4_1
I1109 18:04:57.748425 10812 net.cpp:345] relu4_1 -> conv4_1 (in-place)
I1109 18:04:57.748433 10812 net.cpp:96] Setting up relu4_1
I1109 18:04:57.748443 10812 net.cpp:103] Top shape: 8 512 28 28 (3211264)
I1109 18:04:57.748450 10812 layer_factory.hpp:78] Creating layer conv4_2
I1109 18:04:57.748461 10812 net.cpp:67] Creating Layer conv4_2
I1109 18:04:57.748466 10812 net.cpp:394] conv4_2 <- conv4_1
I1109 18:04:57.748488 10812 net.cpp:356] conv4_2 -> conv4_2
I1109 18:04:57.748498 10812 net.cpp:96] Setting up conv4_2
I1109 18:04:57.861613 10812 net.cpp:103] Top shape: 8 512 28 28 (3211264)
I1109 18:04:57.861663 10812 layer_factory.hpp:78] Creating layer relu4_2
I1109 18:04:57.861677 10812 net.cpp:67] Creating Layer relu4_2
I1109 18:04:57.861685 10812 net.cpp:394] relu4_2 <- conv4_2
I1109 18:04:57.861696 10812 net.cpp:345] relu4_2 -> conv4_2 (in-place)
I1109 18:04:57.861706 10812 net.cpp:96] Setting up relu4_2
I1109 18:04:57.861716 10812 net.cpp:103] Top shape: 8 512 28 28 (3211264)
I1109 18:04:57.861723 10812 layer_factory.hpp:78] Creating layer conv4_3
I1109 18:04:57.861732 10812 net.cpp:67] Creating Layer conv4_3
I1109 18:04:57.861738 10812 net.cpp:394] conv4_3 <- conv4_2
I1109 18:04:57.861749 10812 net.cpp:356] conv4_3 -> conv4_3
I1109 18:04:57.861760 10812 net.cpp:96] Setting up conv4_3
I1109 18:04:57.974916 10812 net.cpp:103] Top shape: 8 512 28 28 (3211264)
I1109 18:04:57.974961 10812 layer_factory.hpp:78] Creating layer relu4_3
I1109 18:04:57.974973 10812 net.cpp:67] Creating Layer relu4_3
I1109 18:04:57.974980 10812 net.cpp:394] relu4_3 <- conv4_3
I1109 18:04:57.974992 10812 net.cpp:345] relu4_3 -> conv4_3 (in-place)
I1109 18:04:57.975003 10812 net.cpp:96] Setting up relu4_3
I1109 18:04:57.975013 10812 net.cpp:103] Top shape: 8 512 28 28 (3211264)
I1109 18:04:57.975018 10812 layer_factory.hpp:78] Creating layer pool4
I1109 18:04:57.975031 10812 net.cpp:67] Creating Layer pool4
I1109 18:04:57.975038 10812 net.cpp:394] pool4 <- conv4_3
I1109 18:04:57.975046 10812 net.cpp:356] pool4 -> pool4
I1109 18:04:57.975055 10812 net.cpp:96] Setting up pool4
I1109 18:04:57.975069 10812 net.cpp:103] Top shape: 8 512 14 14 (802816)
I1109 18:04:57.975075 10812 layer_factory.hpp:78] Creating layer conv5_1
I1109 18:04:57.975086 10812 net.cpp:67] Creating Layer conv5_1
I1109 18:04:57.975092 10812 net.cpp:394] conv5_1 <- pool4
I1109 18:04:57.975100 10812 net.cpp:356] conv5_1 -> conv5_1
I1109 18:04:57.975113 10812 net.cpp:96] Setting up conv5_1
I1109 18:04:58.088377 10812 net.cpp:103] Top shape: 8 512 14 14 (802816)
I1109 18:04:58.088420 10812 layer_factory.hpp:78] Creating layer relu5_1
I1109 18:04:58.088438 10812 net.cpp:67] Creating Layer relu5_1
I1109 18:04:58.088446 10812 net.cpp:394] relu5_1 <- conv5_1
I1109 18:04:58.088456 10812 net.cpp:345] relu5_1 -> conv5_1 (in-place)
I1109 18:04:58.088467 10812 net.cpp:96] Setting up relu5_1
I1109 18:04:58.088477 10812 net.cpp:103] Top shape: 8 512 14 14 (802816)
I1109 18:04:58.088485 10812 layer_factory.hpp:78] Creating layer conv5_2
I1109 18:04:58.088496 10812 net.cpp:67] Creating Layer conv5_2
I1109 18:04:58.088502 10812 net.cpp:394] conv5_2 <- conv5_1
I1109 18:04:58.088510 10812 net.cpp:356] conv5_2 -> conv5_2
I1109 18:04:58.088521 10812 net.cpp:96] Setting up conv5_2
I1109 18:04:58.201900 10812 net.cpp:103] Top shape: 8 512 14 14 (802816)
I1109 18:04:58.201951 10812 layer_factory.hpp:78] Creating layer relu5_2
I1109 18:04:58.201963 10812 net.cpp:67] Creating Layer relu5_2
I1109 18:04:58.201972 10812 net.cpp:394] relu5_2 <- conv5_2
I1109 18:04:58.201982 10812 net.cpp:345] relu5_2 -> conv5_2 (in-place)
I1109 18:04:58.201992 10812 net.cpp:96] Setting up relu5_2
I1109 18:04:58.202003 10812 net.cpp:103] Top shape: 8 512 14 14 (802816)
I1109 18:04:58.202009 10812 layer_factory.hpp:78] Creating layer conv5_3
I1109 18:04:58.202018 10812 net.cpp:67] Creating Layer conv5_3
I1109 18:04:58.202024 10812 net.cpp:394] conv5_3 <- conv5_2
I1109 18:04:58.202035 10812 net.cpp:356] conv5_3 -> conv5_3
I1109 18:04:58.202046 10812 net.cpp:96] Setting up conv5_3
I1109 18:04:58.315059 10812 net.cpp:103] Top shape: 8 512 14 14 (802816)
I1109 18:04:58.315098 10812 layer_factory.hpp:78] Creating layer relu5_3
I1109 18:04:58.315112 10812 net.cpp:67] Creating Layer relu5_3
I1109 18:04:58.315120 10812 net.cpp:394] relu5_3 <- conv5_3
I1109 18:04:58.315131 10812 net.cpp:345] relu5_3 -> conv5_3 (in-place)
I1109 18:04:58.315141 10812 net.cpp:96] Setting up relu5_3
I1109 18:04:58.315151 10812 net.cpp:103] Top shape: 8 512 14 14 (802816)
I1109 18:04:58.315170 10812 layer_factory.hpp:78] Creating layer pool5
I1109 18:04:58.315181 10812 net.cpp:67] Creating Layer pool5
I1109 18:04:58.315187 10812 net.cpp:394] pool5 <- conv5_3
I1109 18:04:58.315196 10812 net.cpp:356] pool5 -> pool5
I1109 18:04:58.315207 10812 net.cpp:96] Setting up pool5
I1109 18:04:58.315218 10812 net.cpp:103] Top shape: 8 512 7 7 (200704)
I1109 18:04:58.315225 10812 layer_factory.hpp:78] Creating layer fc6
I1109 18:04:58.315245 10812 net.cpp:67] Creating Layer fc6
I1109 18:04:58.315253 10812 net.cpp:394] fc6 <- pool5
I1109 18:04:58.315263 10812 net.cpp:356] fc6 -> fc6
I1109 18:04:58.315274 10812 net.cpp:96] Setting up fc6
I1109 18:05:03.215234 10812 net.cpp:103] Top shape: 8 4096 1 1 (32768)
I1109 18:05:03.215276 10812 layer_factory.hpp:78] Creating layer relu6
I1109 18:05:03.215289 10812 net.cpp:67] Creating Layer relu6
I1109 18:05:03.215296 10812 net.cpp:394] relu6 <- fc6
I1109 18:05:03.215307 10812 net.cpp:345] relu6 -> fc6 (in-place)
I1109 18:05:03.215318 10812 net.cpp:96] Setting up relu6
I1109 18:05:03.215339 10812 net.cpp:103] Top shape: 8 4096 1 1 (32768)
I1109 18:05:03.215347 10812 layer_factory.hpp:78] Creating layer drop6
I1109 18:05:03.215363 10812 net.cpp:67] Creating Layer drop6
I1109 18:05:03.215368 10812 net.cpp:394] drop6 <- fc6
I1109 18:05:03.215376 10812 net.cpp:345] drop6 -> fc6 (in-place)
I1109 18:05:03.215385 10812 net.cpp:96] Setting up drop6
I1109 18:05:03.215394 10812 net.cpp:103] Top shape: 8 4096 1 1 (32768)
I1109 18:05:03.215399 10812 layer_factory.hpp:78] Creating layer fc7
I1109 18:05:03.215409 10812 net.cpp:67] Creating Layer fc7
I1109 18:05:03.215414 10812 net.cpp:394] fc7 <- fc6
I1109 18:05:03.215422 10812 net.cpp:356] fc7 -> fc7
I1109 18:05:03.215432 10812 net.cpp:96] Setting up fc7
I1109 18:05:04.017815 10812 net.cpp:103] Top shape: 8 4096 1 1 (32768)
I1109 18:05:04.017859 10812 layer_factory.hpp:78] Creating layer relu7
I1109 18:05:04.017871 10812 net.cpp:67] Creating Layer relu7
I1109 18:05:04.017879 10812 net.cpp:394] relu7 <- fc7
I1109 18:05:04.017894 10812 net.cpp:345] relu7 -> fc7 (in-place)
I1109 18:05:04.017905 10812 net.cpp:96] Setting up relu7
I1109 18:05:04.017925 10812 net.cpp:103] Top shape: 8 4096 1 1 (32768)
I1109 18:05:04.017932 10812 layer_factory.hpp:78] Creating layer drop7
I1109 18:05:04.017940 10812 net.cpp:67] Creating Layer drop7
I1109 18:05:04.017946 10812 net.cpp:394] drop7 <- fc7
I1109 18:05:04.017956 10812 net.cpp:345] drop7 -> fc7 (in-place)
I1109 18:05:04.017964 10812 net.cpp:96] Setting up drop7
I1109 18:05:04.017971 10812 net.cpp:103] Top shape: 8 4096 1 1 (32768)
I1109 18:05:04.017977 10812 layer_factory.hpp:78] Creating layer fc8_2
I1109 18:05:04.017987 10812 net.cpp:67] Creating Layer fc8_2
I1109 18:05:04.017992 10812 net.cpp:394] fc8_2 <- fc7
I1109 18:05:04.018000 10812 net.cpp:356] fc8_2 -> fc8_2
I1109 18:05:04.018010 10812 net.cpp:96] Setting up fc8_2
I1109 18:05:04.018447 10812 net.cpp:103] Top shape: 8 2 1 1 (16)
I1109 18:05:04.018465 10812 layer_factory.hpp:78] Creating layer loss
I1109 18:05:04.018481 10812 net.cpp:67] Creating Layer loss
I1109 18:05:04.018487 10812 net.cpp:394] loss <- fc8_2
I1109 18:05:04.018496 10812 net.cpp:394] loss <- label
I1109 18:05:04.018512 10812 net.cpp:356] loss -> (automatic)
I1109 18:05:04.018519 10812 net.cpp:96] Setting up loss
I1109 18:05:04.018532 10812 net.cpp:103] Top shape: 1 1 1 1 (1)
I1109 18:05:04.018538 10812 net.cpp:109]     with loss weight 1
I1109 18:05:04.018579 10812 net.cpp:170] loss needs backward computation.
I1109 18:05:04.018586 10812 net.cpp:170] fc8_2 needs backward computation.
I1109 18:05:04.018591 10812 net.cpp:170] drop7 needs backward computation.
I1109 18:05:04.018596 10812 net.cpp:170] relu7 needs backward computation.
I1109 18:05:04.018601 10812 net.cpp:170] fc7 needs backward computation.
…
I1109 18:05:04.020421 10812 net.cpp:275] The NetState phase (1) differed from the phase (0) specified by a rule in layer data
I1109 18:05:04.020807 10812 net.cpp:39] Initializing net from parameters: 
name: "small"
layers {
  top: "data"
  top: "label"
  name: "data"
  type: IMAGE_DATA
  image_data_param {
    source: "/data/ad6813/devCaffe/caffe/data/unsuit_o/val.txt"
    batch_size: 8
    new_height: 256
    new_width: 256
  }
  include {
    phase: TEST
  }
  transform_param {
    mirror: true
    crop_size: 224
    mean_value: 86.752
    mean_value: 101.46
    mean_value: 104.6
  }
}
layers {
  bottom: "data"
  top: "conv1_1"
  name: "conv1_1"
  type: CONVOLUTION
  convolution_param {
    num_output: 64
    pad: 1
    kernel_size: 3
    weight_filler {
      type: "gaussian"
      std: 0.01
    }
    bias_filler {
      type: "constant"
      value: 0
    }
  }
}
layers {
  bottom: "conv1_1"
  top: "conv1_1"
  name: "relu1_1"
  type: RELU
}
layers {
  bottom: "conv1_1"
  top: "conv1_2"
  name: "conv1_2"
  type: CONVOLUTION
  convolution_param {
    num_output: 64
    pad: 1
    kernel_size: 3
    weight_filler {
      type: "gaussian"
      std: 0.01
    }
    bias_filler {
      type: "constant"
      value: 0
    }
  }
}
layers {
  bottom: "conv1_2"
  top: "conv1_2"
  name: "relu1_2"
  type: RELU
}
layers {
  bottom: "conv1_2"
  top: "pool1"
  name: "pool1"
  type: POOLING
  pooling_param {
    pool: MAX
    kernel_size: 2
    stride: 2
  }
}
layers {
  bottom: "pool1"
  top: "conv2_1"
  name: "conv2_1"
  type: CONVOLUTION
  convolution_param {
    num_output: 128
    pad: 1
    kernel_size: 3
    weight_filler {
      type: "gaussian"
      std: 0.01
    }
    bias_filler {
      type: "constant"
      value: 0
    }
  }
}
layers {
  bottom: "conv2_1"
  top: "conv2_1"
  name: "relu2_1"
  type: RELU
}
layers {
  bottom: "conv2_1"
  top: "conv2_2"
  name: "conv2_2"
  type: CONVOLUTION
  convolution_param {
    num_output: 128
    pad: 1
    kernel_size: 3
    weight_filler {
      type: "gaussian"
      std: 0.01
    }
    bias_filler {
      type: "constant"
      value: 0
    }
  }
}
layers {
  bottom: "conv2_2"
  top: "conv2_2"
  name: "relu2_2"
  type: RELU
}
layers {
  bottom: "conv2_2"
  top: "pool2"
  name: "pool2"
  type: POOLING
  pooling_param {
    pool: MAX
    kernel_size: 2
    stride: 2
  }
}
layers {
  bottom: "pool2"
  top: "conv3_1"
  name: "conv3_1"
  type: CONVOLUTION
  convolution_param {
    num_output: 256
    pad: 1
    kernel_size: 3
    weight_filler {
      type: "gaussian"
      std: 0.01
    }
    bias_filler {
      type: "constant"
      value: 0
    }
  }
}
layers {
  bottom: "conv3_1"
  top: "conv3_1"
  name: "relu3_1"
  type: RELU
}
layers {
  bottom: "conv3_1"
  top: "conv3_2"
  name: "conv3_2"
  type: CONVOLUTION
  convolution_param {
    num_output: 256
    pad: 1
    kernel_size: 3
    weight_filler {
      type: "gaussian"
      std: 0.01
    }
    bias_filler {
      type: "constant"
      value: 0
    }
  }
}
layers {
  bottom: "conv3_2"
  top: "conv3_2"
  name: "relu3_2"
  type: RELU
}
layers {
  bottom: "conv3_2"
  top: "conv3_3"
  name: "conv3_3"
  type: CONVOLUTION
  convolution_param {
    num_output: 256
    pad: 1
    kernel_size: 3
    weight_filler {
      type: "gaussian"
      std: 0.01
    }
    bias_filler {
      type: "constant"
      value: 0
    }
  }
}
layers {
  bottom: "conv3_3"
  top: "conv3_3"
  name: "relu3_3"
  type: RELU
}
layers {
  bottom: "conv3_3"
  top: "pool3"
  name: "pool3"
  type: POOLING
  pooling_param {
    pool: MAX
    kernel_size: 2
    stride: 2
  }
}
layers {
  bottom: "pool3"
  top: "conv4_1"
  name: "conv4_1"
  type: CONVOLUTION
  convolution_param {
    num_output: 512
    pad: 1
    kernel_size: 3
    weight_filler {
      type: "gaussian"
      std: 0.01
    }
    bias_filler {
      type: "constant"
      value: 0
    }
  }
}
layers {
  bottom: "conv4_1"
  top: "conv4_1"
  name: "relu4_1"
  type: RELU
}
layers {
  bottom: "conv4_1"
  top: "conv4_2"
  name: "conv4_2"
  type: CONVOLUTION
  convolution_param {
    num_output: 512
    pad: 1
    kernel_size: 3
    weight_filler {
      type: "gaussian"
      std: 0.01
    }
    bias_filler {
      type: "constant"
      value: 0
    }
  }
}
layers {
  bottom: "conv4_2"
  top: "conv4_2"
  name: "relu4_2"
  type: RELU
}
layers {
  bottom: "conv4_2"
  top: "conv4_3"
  name: "conv4_3"
  type: CONVOLUTION
  convolution_param {
    num_output: 512
    pad: 1
    kernel_size: 3
    weight_filler {
      type: "gaussian"
      std: 0.01
    }
    bias_filler {
      type: "constant"
      value: 0
    }
  }
}
layers {
  bottom: "conv4_3"
  top: "conv4_3"
  name: "relu4_3"
  type: RELU
}
layers {
  bottom: "conv4_3"
  top: "pool4"
  name: "pool4"
  type: POOLING
  pooling_param {
    pool: MAX
    kernel_size: 2
    stride: 2
  }
}
layers {
  bottom: "pool4"
  top: "conv5_1"
  name: "conv5_1"
  type: CONVOLUTION
  convolution_param {
    num_output: 512
    pad: 1
    kernel_size: 3
    weight_filler {
      type: "gaussian"
      std: 0.01
    }
    bias_filler {
      type: "constant"
      value: 0
    }
  }
}
layers {
  bottom: "conv5_1"
  top: "conv5_1"
  name: "relu5_1"
  type: RELU
}
layers {
  bottom: "conv5_1"
  top: "conv5_2"
  name: "conv5_2"
  type: CONVOLUTION
  convolution_param {
    num_output: 512
    pad: 1
    kernel_size: 3
    weight_filler {
      type: "gaussian"
      std: 0.01
    }
    bias_filler {
      type: "constant"
      value: 0
    }
  }
}
layers {
  bottom: "conv5_2"
  top: "conv5_2"
  name: "relu5_2"
  type: RELU
}
layers {
  bottom: "conv5_2"
  top: "conv5_3"
  name: "conv5_3"
  type: CONVOLUTION
  convolution_param {
    num_output: 512
    pad: 1
    kernel_size: 3
    weight_filler {
      type: "gaussian"
      std: 0.01
    }
    bias_filler {
      type: "constant"
      value: 0
    }
  }
}
layers {
  bottom: "conv5_3"
  top: "conv5_3"
  name: "relu5_3"
  type: RELU
}
layers {
  bottom: "conv5_3"
  top: "pool5"
  name: "pool5"
  type: POOLING
  pooling_param {
    pool: MAX
    kernel_size: 2
    stride: 2
  }
}
layers {
  bottom: "pool5"
  top: "fc6"
  name: "fc6"
  type: INNER_PRODUCT
  inner_product_param {
    num_output: 4096
    weight_filler {
      type: "gaussian"
      std: 0.01
    }
    bias_filler {
      type: "constant"
      value: 0
    }
  }
}
layers {
  bottom: "fc6"
  top: "fc6"
  name: "relu6"
  type: RELU
}
layers {
  bottom: "fc6"
  top: "fc6"
  name: "drop6"
  type: DROPOUT
  dropout_param {
    dropout_ratio: 0.5
  }
}
layers {
  bottom: "fc6"
  top: "fc7"
  name: "fc7"
  type: INNER_PRODUCT
  inner_product_param {
    num_output: 4096
    weight_filler {
      type: "gaussian"
      std: 0.01
    }
    bias_filler {
      type: "constant"
      value: 0
    }
  }
}
layers {
  bottom: "fc7"
  top: "fc7"
  name: "relu7"
  type: RELU
}
layers {
  bottom: "fc7"
  top: "fc7"
  name: "drop7"
  type: DROPOUT
  dropout_param {
    dropout_ratio: 0.5
  }
}
layers {
  bottom: "fc7"
  top: "fc8_2"
  name: "fc8_2"
  type: INNER_PRODUCT
  inner_product_param {
    num_output: 2
    weight_filler {
      type: "gaussian"
      std: 0.01
    }
    bias_filler {
      type: "constant"
      value: 0
    }
  }
}
layers {
  bottom: "fc8_2"
  bottom: "label"
  name: "loss"
  type: SOFTMAX_LOSS
}
layers {
  bottom: "fc8_2"
  bottom: "label"
  top: "accuracy"
  name: "accuracy"
  type: PER_CLASS_ACCURACY
  include {
    phase: TEST
  }
}
state {
  phase: TEST
}
I1109 18:05:04.021033 10812 layer_factory.hpp:78] Creating layer data
I1109 18:05:04.021050 10812 net.cpp:67] Creating Layer data
I1109 18:05:04.021059 10812 net.cpp:356] data -> data
I1109 18:05:04.021071 10812 net.cpp:356] data -> label
I1109 18:05:04.021082 10812 net.cpp:96] Setting up data
I1109 18:05:04.021088 10812 image_data_layer.cpp:34] Opening file /data/ad6813/devCaffe/caffe/data/unsuit_o/val.txt
I1109 18:05:04.023565 10812 image_data_layer.cpp:49] A total of 3847 images.
I1109 18:05:04.033957 10812 image_data_layer.cpp:78] output data size: 8,3,224,224
I1109 18:05:04.035539 10812 net.cpp:103] Top shape: 8 3 224 224 (1204224)
I1109 18:05:04.035557 10812 net.cpp:103] Top shape: 8 1 1 1 (8)
I1109 18:05:04.035565 10812 layer_factory.hpp:78] Creating layer label_data_1_split
I1109 18:05:04.035581 10812 net.cpp:67] Creating Layer label_data_1_split
I1109 18:05:04.035588 10812 net.cpp:394] label_data_1_split <- label
I1109 18:05:04.035598 10812 net.cpp:356] label_data_1_split -> label_data_1_split_0
I1109 18:05:04.035612 10812 net.cpp:356] label_data_1_split -> label_data_1_split_1
I1109 18:05:04.035621 10812 net.cpp:96] Setting up label_data_1_split
I1109 18:05:04.035631 10812 net.cpp:103] Top shape: 8 1 1 1 (8)
I1109 18:05:04.035639 10812 net.cpp:103] Top shape: 8 1 1 1 (8)
I1109 18:05:04.035644 10812 layer_factory.hpp:78] Creating layer conv1_1
I1109 18:05:04.035653 10812 net.cpp:67] Creating Layer conv1_1
I1109 18:05:04.035660 10812 net.cpp:394] conv1_1 <- data
I1109 18:05:04.035668 10812 net.cpp:356] conv1_1 -> conv1_1
I1109 18:05:04.035678 10812 net.cpp:96] Setting up conv1_1
I1109 18:05:04.036036 10812 net.cpp:103] Top shape: 8 64 224 224 (25690112)
I1109 18:05:04.036062 10812 layer_factory.hpp:78] Creating layer relu1_1
I1109 18:05:04.036072 10812 net.cpp:67] Creating Layer relu1_1
I1109 18:05:04.036078 10812 net.cpp:394] relu1_1 <- conv1_1
I1109 18:05:04.036087 10812 net.cpp:345] relu1_1 -> conv1_1 (in-place)
I1109 18:05:04.036097 10812 net.cpp:96] Setting up relu1_1
I1109 18:05:04.036118 10812 net.cpp:103] Top shape: 8 64 224 224 (25690112)
I1109 18:05:04.036124 10812 layer_factory.hpp:78] Creating layer conv1_2
I1109 18:05:04.036134 10812 net.cpp:67] Creating Layer conv1_2
I1109 18:05:04.036139 10812 net.cpp:394] conv1_2 <- conv1_1
I1109 18:05:04.036149 10812 net.cpp:356] conv1_2 -> conv1_2
I1109 18:05:04.036159 10812 net.cpp:96] Setting up conv1_2
I1109 18:05:04.038125 10812 net.cpp:103] Top shape: 8 64 224 224 (25690112)
I1109 18:05:04.038151 10812 layer_factory.hpp:78] Creating layer relu1_2
I1109 18:05:04.038159 10812 net.cpp:67] Creating Layer relu1_2
I1109 18:05:04.038166 10812 net.cpp:394] relu1_2 <- conv1_2
I1109 18:05:04.038173 10812 net.cpp:345] relu1_2 -> conv1_2 (in-place)
I1109 18:05:04.038182 10812 net.cpp:96] Setting up relu1_2
I1109 18:05:04.038211 10812 net.cpp:103] Top shape: 8 64 224 224 (25690112)
I1109 18:05:04.038219 10812 layer_factory.hpp:78] Creating layer pool1
I1109 18:05:04.038229 10812 net.cpp:67] Creating Layer pool1
I1109 18:05:04.038235 10812 net.cpp:394] pool1 <- conv1_2
I1109 18:05:04.038244 10812 net.cpp:356] pool1 -> pool1
I1109 18:05:04.038252 10812 net.cpp:96] Setting up pool1
I1109 18:05:04.038264 10812 net.cpp:103] Top shape: 8 64 112 112 (6422528)
I1109 18:05:04.038271 10812 layer_factory.hpp:78] Creating layer conv2_1
I1109 18:05:04.038280 10812 net.cpp:67] Creating Layer conv2_1
I1109 18:05:04.038285 10812 net.cpp:394] conv2_1 <- pool1
I1109 18:05:04.038295 10812 net.cpp:356] conv2_1 -> conv2_1
I1109 18:05:04.038303 10812 net.cpp:96] Setting up conv2_1
I1109 18:05:04.042270 10812 net.cpp:103] Top shape: 8 128 112 112 (12845056)
I1109 18:05:04.042297 10812 layer_factory.hpp:78] Creating layer relu2_1
I1109 18:05:04.042309 10812 net.cpp:67] Creating Layer relu2_1
I1109 18:05:04.042315 10812 net.cpp:394] relu2_1 <- conv2_1
I1109 18:05:04.042322 10812 net.cpp:345] relu2_1 -> conv2_1 (in-place)
I1109 18:05:04.042332 10812 net.cpp:96] Setting up relu2_1
I1109 18:05:04.042342 10812 net.cpp:103] Top shape: 8 128 112 112 (12845056)
I1109 18:05:04.042348 10812 layer_factory.hpp:78] Creating layer conv2_2
I1109 18:05:04.042358 10812 net.cpp:67] Creating Layer conv2_2
I1109 18:05:04.042363 10812 net.cpp:394] conv2_2 <- conv2_1
I1109 18:05:04.042376 10812 net.cpp:356] conv2_2 -> conv2_2
I1109 18:05:04.042387 10812 net.cpp:96] Setting up conv2_2
I1109 18:05:04.049693 10812 net.cpp:103] Top shape: 8 128 112 112 (12845056)
I1109 18:05:04.049717 10812 layer_factory.hpp:78] Creating layer relu2_2
I1109 18:05:04.049729 10812 net.cpp:67] Creating Layer relu2_2
I1109 18:05:04.049736 10812 net.cpp:394] relu2_2 <- conv2_2
I1109 18:05:04.049744 10812 net.cpp:345] relu2_2 -> conv2_2 (in-place)
I1109 18:05:04.049754 10812 net.cpp:96] Setting up relu2_2
I1109 18:05:04.049764 10812 net.cpp:103] Top shape: 8 128 112 112 (12845056)
I1109 18:05:04.049770 10812 layer_factory.hpp:78] Creating layer pool2
I1109 18:05:04.049778 10812 net.cpp:67] Creating Layer pool2
I1109 18:05:04.049784 10812 net.cpp:394] pool2 <- conv2_2
I1109 18:05:04.049793 10812 net.cpp:356] pool2 -> pool2
I1109 18:05:04.049804 10812 net.cpp:96] Setting up pool2
I1109 18:05:04.049815 10812 net.cpp:103] Top shape: 8 128 56 56 (3211264)
I1109 18:05:04.049821 10812 layer_factory.hpp:78] Creating layer conv3_1
I1109 18:05:04.049831 10812 net.cpp:67] Creating Layer conv3_1
I1109 18:05:04.049836 10812 net.cpp:394] conv3_1 <- pool2
I1109 18:05:04.049849 10812 net.cpp:356] conv3_1 -> conv3_1
I1109 18:05:04.049859 10812 net.cpp:96] Setting up conv3_1
I1109 18:05:04.064365 10812 net.cpp:103] Top shape: 8 256 56 56 (6422528)
I1109 18:05:04.064401 10812 layer_factory.hpp:78] Creating layer relu3_1
I1109 18:05:04.064412 10812 net.cpp:67] Creating Layer relu3_1
I1109 18:05:04.064419 10812 net.cpp:394] relu3_1 <- conv3_1
I1109 18:05:04.064430 10812 net.cpp:345] relu3_1 -> conv3_1 (in-place)
I1109 18:05:04.064440 10812 net.cpp:96] Setting up relu3_1
I1109 18:05:04.064450 10812 net.cpp:103] Top shape: 8 256 56 56 (6422528)
I1109 18:05:04.064457 10812 layer_factory.hpp:78] Creating layer conv3_2
I1109 18:05:04.064466 10812 net.cpp:67] Creating Layer conv3_2
I1109 18:05:04.064483 10812 net.cpp:394] conv3_2 <- conv3_1
I1109 18:05:04.064493 10812 net.cpp:356] conv3_2 -> conv3_2
I1109 18:05:04.064503 10812 net.cpp:96] Setting up conv3_2
I1109 18:05:04.093335 10812 net.cpp:103] Top shape: 8 256 56 56 (6422528)
I1109 18:05:04.093369 10812 layer_factory.hpp:78] Creating layer relu3_2
I1109 18:05:04.093385 10812 net.cpp:67] Creating Layer relu3_2
I1109 18:05:04.093392 10812 net.cpp:394] relu3_2 <- conv3_2
I1109 18:05:04.093402 10812 net.cpp:345] relu3_2 -> conv3_2 (in-place)
I1109 18:05:04.093412 10812 net.cpp:96] Setting up relu3_2
I1109 18:05:04.093423 10812 net.cpp:103] Top shape: 8 256 56 56 (6422528)
I1109 18:05:04.093430 10812 layer_factory.hpp:78] Creating layer conv3_3
I1109 18:05:04.093446 10812 net.cpp:67] Creating Layer conv3_3
I1109 18:05:04.093452 10812 net.cpp:394] conv3_3 <- conv3_2
I1109 18:05:04.093461 10812 net.cpp:356] conv3_3 -> conv3_3
I1109 18:05:04.093472 10812 net.cpp:96] Setting up conv3_3
I1109 18:05:04.122364 10812 net.cpp:103] Top shape: 8 256 56 56 (6422528)
I1109 18:05:04.122398 10812 layer_factory.hpp:78] Creating layer relu3_3
I1109 18:05:04.122416 10812 net.cpp:67] Creating Layer relu3_3
I1109 18:05:04.122423 10812 net.cpp:394] relu3_3 <- conv3_3
I1109 18:05:04.122433 10812 net.cpp:345] relu3_3 -> conv3_3 (in-place)
I1109 18:05:04.122444 10812 net.cpp:96] Setting up relu3_3
I1109 18:05:04.122454 10812 net.cpp:103] Top shape: 8 256 56 56 (6422528)
I1109 18:05:04.122462 10812 layer_factory.hpp:78] Creating layer pool3
I1109 18:05:04.122473 10812 net.cpp:67] Creating Layer pool3
I1109 18:05:04.122479 10812 net.cpp:394] pool3 <- conv3_3
I1109 18:05:04.122488 10812 net.cpp:356] pool3 -> pool3
I1109 18:05:04.122498 10812 net.cpp:96] Setting up pool3
I1109 18:05:04.122509 10812 net.cpp:103] Top shape: 8 256 28 28 (1605632)
I1109 18:05:04.122515 10812 layer_factory.hpp:78] Creating layer conv4_1
I1109 18:05:04.122525 10812 net.cpp:67] Creating Layer conv4_1
I1109 18:05:04.122531 10812 net.cpp:394] conv4_1 <- pool3
I1109 18:05:04.122542 10812 net.cpp:356] conv4_1 -> conv4_1
I1109 18:05:04.122552 10812 net.cpp:96] Setting up conv4_1
I1109 18:05:04.179805 10812 net.cpp:103] Top shape: 8 512 28 28 (3211264)
I1109 18:05:04.179844 10812 layer_factory.hpp:78] Creating layer relu4_1
I1109 18:05:04.179860 10812 net.cpp:67] Creating Layer relu4_1
I1109 18:05:04.179868 10812 net.cpp:394] relu4_1 <- conv4_1
I1109 18:05:04.179879 10812 net.cpp:345] relu4_1 -> conv4_1 (in-place)
I1109 18:05:04.179891 10812 net.cpp:96] Setting up relu4_1
I1109 18:05:04.179901 10812 net.cpp:103] Top shape: 8 512 28 28 (3211264)
I1109 18:05:04.179908 10812 layer_factory.hpp:78] Creating layer conv4_2
I1109 18:05:04.179920 10812 net.cpp:67] Creating Layer conv4_2
I1109 18:05:04.179925 10812 net.cpp:394] conv4_2 <- conv4_1
I1109 18:05:04.179934 10812 net.cpp:356] conv4_2 -> conv4_2
I1109 18:05:04.179944 10812 net.cpp:96] Setting up conv4_2
I1109 18:05:04.293159 10812 net.cpp:103] Top shape: 8 512 28 28 (3211264)
I1109 18:05:04.293207 10812 layer_factory.hpp:78] Creating layer relu4_2
I1109 18:05:04.293223 10812 net.cpp:67] Creating Layer relu4_2
I1109 18:05:04.293231 10812 net.cpp:394] relu4_2 <- conv4_2
I1109 18:05:04.293242 10812 net.cpp:345] relu4_2 -> conv4_2 (in-place)
I1109 18:05:04.293253 10812 net.cpp:96] Setting up relu4_2
I1109 18:05:04.293264 10812 net.cpp:103] Top shape: 8 512 28 28 (3211264)
I1109 18:05:04.293270 10812 layer_factory.hpp:78] Creating layer conv4_3
I1109 18:05:04.293280 10812 net.cpp:67] Creating Layer conv4_3
I1109 18:05:04.293285 10812 net.cpp:394] conv4_3 <- conv4_2
I1109 18:05:04.293297 10812 net.cpp:356] conv4_3 -> conv4_3
I1109 18:05:04.293309 10812 net.cpp:96] Setting up conv4_3
I1109 18:05:04.406754 10812 net.cpp:103] Top shape: 8 512 28 28 (3211264)
I1109 18:05:04.406797 10812 layer_factory.hpp:78] Creating layer relu4_3
I1109 18:05:04.406813 10812 net.cpp:67] Creating Layer relu4_3
I1109 18:05:04.406821 10812 net.cpp:394] relu4_3 <- conv4_3
I1109 18:05:04.406831 10812 net.cpp:345] relu4_3 -> conv4_3 (in-place)
I1109 18:05:04.406842 10812 net.cpp:96] Setting up relu4_3
I1109 18:05:04.406869 10812 net.cpp:103] Top shape: 8 512 28 28 (3211264)
I1109 18:05:04.406877 10812 layer_factory.hpp:78] Creating layer pool4
I1109 18:05:04.406885 10812 net.cpp:67] Creating Layer pool4
I1109 18:05:04.406891 10812 net.cpp:394] pool4 <- conv4_3
I1109 18:05:04.406903 10812 net.cpp:356] pool4 -> pool4
I1109 18:05:04.406913 10812 net.cpp:96] Setting up pool4
I1109 18:05:04.406925 10812 net.cpp:103] Top shape: 8 512 14 14 (802816)
I1109 18:05:04.406931 10812 layer_factory.hpp:78] Creating layer conv5_1
I1109 18:05:04.406941 10812 net.cpp:67] Creating Layer conv5_1
I1109 18:05:04.406947 10812 net.cpp:394] conv5_1 <- pool4
I1109 18:05:04.406956 10812 net.cpp:356] conv5_1 -> conv5_1
I1109 18:05:04.406965 10812 net.cpp:96] Setting up conv5_1
I1109 18:05:04.519944 10812 net.cpp:103] Top shape: 8 512 14 14 (802816)
I1109 18:05:04.519989 10812 layer_factory.hpp:78] Creating layer relu5_1
I1109 18:05:04.520004 10812 net.cpp:67] Creating Layer relu5_1
I1109 18:05:04.520010 10812 net.cpp:394] relu5_1 <- conv5_1
I1109 18:05:04.520021 10812 net.cpp:345] relu5_1 -> conv5_1 (in-place)
I1109 18:05:04.520032 10812 net.cpp:96] Setting up relu5_1
I1109 18:05:04.520045 10812 net.cpp:103] Top shape: 8 512 14 14 (802816)
I1109 18:05:04.520051 10812 layer_factory.hpp:78] Creating layer conv5_2
I1109 18:05:04.520061 10812 net.cpp:67] Creating Layer conv5_2
I1109 18:05:04.520066 10812 net.cpp:394] conv5_2 <- conv5_1
I1109 18:05:04.520078 10812 net.cpp:356] conv5_2 -> conv5_2
I1109 18:05:04.520089 10812 net.cpp:96] Setting up conv5_2
I1109 18:05:04.633533 10812 net.cpp:103] Top shape: 8 512 14 14 (802816)
I1109 18:05:04.633579 10812 layer_factory.hpp:78] Creating layer relu5_2
I1109 18:05:04.633592 10812 net.cpp:67] Creating Layer relu5_2
I1109 18:05:04.633600 10812 net.cpp:394] relu5_2 <- conv5_2
I1109 18:05:04.633613 10812 net.cpp:345] relu5_2 -> conv5_2 (in-place)
I1109 18:05:04.633625 10812 net.cpp:96] Setting up relu5_2
I1109 18:05:04.633636 10812 net.cpp:103] Top shape: 8 512 14 14 (802816)
I1109 18:05:04.633642 10812 layer_factory.hpp:78] Creating layer conv5_3
I1109 18:05:04.633652 10812 net.cpp:67] Creating Layer conv5_3
I1109 18:05:04.633657 10812 net.cpp:394] conv5_3 <- conv5_2
I1109 18:05:04.633669 10812 net.cpp:356] conv5_3 -> conv5_3
I1109 18:05:04.633680 10812 net.cpp:96] Setting up conv5_3
I1109 18:05:04.746863 10812 net.cpp:103] Top shape: 8 512 14 14 (802816)
I1109 18:05:04.746906 10812 layer_factory.hpp:78] Creating layer relu5_3
I1109 18:05:04.746919 10812 net.cpp:67] Creating Layer relu5_3
I1109 18:05:04.746927 10812 net.cpp:394] relu5_3 <- conv5_3
I1109 18:05:04.746942 10812 net.cpp:345] relu5_3 -> conv5_3 (in-place)
I1109 18:05:04.746953 10812 net.cpp:96] Setting up relu5_3
I1109 18:05:04.746963 10812 net.cpp:103] Top shape: 8 512 14 14 (802816)
I1109 18:05:04.746970 10812 layer_factory.hpp:78] Creating layer pool5
I1109 18:05:04.746986 10812 net.cpp:67] Creating Layer pool5
I1109 18:05:04.746994 10812 net.cpp:394] pool5 <- conv5_3
I1109 18:05:04.747001 10812 net.cpp:356] pool5 -> pool5
I1109 18:05:04.747011 10812 net.cpp:96] Setting up pool5
I1109 18:05:04.747025 10812 net.cpp:103] Top shape: 8 512 7 7 (200704)
I1109 18:05:04.747030 10812 layer_factory.hpp:78] Creating layer fc6
I1109 18:05:04.747040 10812 net.cpp:67] Creating Layer fc6
I1109 18:05:04.747045 10812 net.cpp:394] fc6 <- pool5
I1109 18:05:04.747056 10812 net.cpp:356] fc6 -> fc6
I1109 18:05:04.747067 10812 net.cpp:96] Setting up fc6
I1109 18:05:09.641042 10812 net.cpp:103] Top shape: 8 4096 1 1 (32768)
I1109 18:05:09.641084 10812 layer_factory.hpp:78] Creating layer relu6
I1109 18:05:09.641099 10812 net.cpp:67] Creating Layer relu6
I1109 18:05:09.641108 10812 net.cpp:394] relu6 <- fc6
I1109 18:05:09.641119 10812 net.cpp:345] relu6 -> fc6 (in-place)
I1109 18:05:09.641129 10812 net.cpp:96] Setting up relu6
I1109 18:05:09.641150 10812 net.cpp:103] Top shape: 8 4096 1 1 (32768)
I1109 18:05:09.641157 10812 layer_factory.hpp:78] Creating layer drop6
I1109 18:05:09.641165 10812 net.cpp:67] Creating Layer drop6
I1109 18:05:09.641185 10812 net.cpp:394] drop6 <- fc6
I1109 18:05:09.641193 10812 net.cpp:345] drop6 -> fc6 (in-place)
I1109 18:05:09.641201 10812 net.cpp:96] Setting up drop6
I1109 18:05:09.641208 10812 net.cpp:103] Top shape: 8 4096 1 1 (32768)
I1109 18:05:09.641213 10812 layer_factory.hpp:78] Creating layer fc7
I1109 18:05:09.641226 10812 net.cpp:67] Creating Layer fc7
I1109 18:05:09.641232 10812 net.cpp:394] fc7 <- fc6
I1109 18:05:09.641240 10812 net.cpp:356] fc7 -> fc7
I1109 18:05:09.641252 10812 net.cpp:96] Setting up fc7
I1109 18:05:10.442351 10812 net.cpp:103] Top shape: 8 4096 1 1 (32768)
I1109 18:05:10.442394 10812 layer_factory.hpp:78] Creating layer relu7
I1109 18:05:10.442407 10812 net.cpp:67] Creating Layer relu7
I1109 18:05:10.442415 10812 net.cpp:394] relu7 <- fc7
I1109 18:05:10.442426 10812 net.cpp:345] relu7 -> fc7 (in-place)
I1109 18:05:10.442436 10812 net.cpp:96] Setting up relu7
I1109 18:05:10.442458 10812 net.cpp:103] Top shape: 8 4096 1 1 (32768)
I1109 18:05:10.442464 10812 layer_factory.hpp:78] Creating layer drop7
I1109 18:05:10.442472 10812 net.cpp:67] Creating Layer drop7
I1109 18:05:10.442478 10812 net.cpp:394] drop7 <- fc7
I1109 18:05:10.442492 10812 net.cpp:345] drop7 -> fc7 (in-place)
I1109 18:05:10.442500 10812 net.cpp:96] Setting up drop7
I1109 18:05:10.442507 10812 net.cpp:103] Top shape: 8 4096 1 1 (32768)
I1109 18:05:10.442513 10812 layer_factory.hpp:78] Creating layer fc8_2
I1109 18:05:10.442523 10812 net.cpp:67] Creating Layer fc8_2
I1109 18:05:10.442528 10812 net.cpp:394] fc8_2 <- fc7
I1109 18:05:10.442541 10812 net.cpp:356] fc8_2 -> fc8_2
I1109 18:05:10.442551 10812 net.cpp:96] Setting up fc8_2
I1109 18:05:10.442960 10812 net.cpp:103] Top shape: 8 2 1 1 (16)
I1109 18:05:10.442975 10812 layer_factory.hpp:78] Creating layer fc8_2_fc8_2_0_split
I1109 18:05:10.442984 10812 net.cpp:67] Creating Layer fc8_2_fc8_2_0_split
I1109 18:05:10.442991 10812 net.cpp:394] fc8_2_fc8_2_0_split <- fc8_2
I1109 18:05:10.443001 10812 net.cpp:356] fc8_2_fc8_2_0_split -> fc8_2_fc8_2_0_split_0
I1109 18:05:10.443011 10812 net.cpp:356] fc8_2_fc8_2_0_split -> fc8_2_fc8_2_0_split_1
I1109 18:05:10.443022 10812 net.cpp:96] Setting up fc8_2_fc8_2_0_split
I1109 18:05:10.443028 10812 net.cpp:103] Top shape: 8 2 1 1 (16)
I1109 18:05:10.443034 10812 net.cpp:103] Top shape: 8 2 1 1 (16)
I1109 18:05:10.443039 10812 layer_factory.hpp:78] Creating layer loss
I1109 18:05:10.443050 10812 net.cpp:67] Creating Layer loss
I1109 18:05:10.443056 10812 net.cpp:394] loss <- fc8_2_fc8_2_0_split_0
I1109 18:05:10.443063 10812 net.cpp:394] loss <- label_data_1_split_0
I1109 18:05:10.443071 10812 net.cpp:356] loss -> (automatic)
I1109 18:05:10.443078 10812 net.cpp:96] Setting up loss
I1109 18:05:10.443089 10812 net.cpp:103] Top shape: 1 1 1 1 (1)
I1109 18:05:10.443094 10812 net.cpp:109]     with loss weight 1
I1109 18:05:10.443114 10812 layer_factory.hpp:78] Creating layer accuracy
I1109 18:05:10.443127 10812 net.cpp:67] Creating Layer accuracy
I1109 18:05:10.443133 10812 net.cpp:394] accuracy <- fc8_2_fc8_2_0_split_1
I1109 18:05:10.443142 10812 net.cpp:394] accuracy <- label_data_1_split_1
I1109 18:05:10.443151 10812 net.cpp:356] accuracy -> accuracy
I1109 18:05:10.443161 10812 net.cpp:96] Setting up accuracy
I1109 18:05:10.443171 10812 net.cpp:103] Top shape: 1 1 1 4 (4)
I1109 18:05:10.443177 10812 net.cpp:172] accuracy does not need backward computation.
I1109 18:05:10.443183 10812 net.cpp:170] loss needs backward computation.
I1109 18:05:10.443188 10812 net.cpp:170] fc8_2_fc8_2_0_split needs backward computation.
I1109 18:05:10.443194 10812 net.cpp:170] fc8_2 needs backward computation.
I1109 18:05:10.443199 10812 net.cpp:170] drop7 needs backward computation.
…
