nohup: ignoring input
Running clamp_1flag
WARNING: Logging before InitGoogleLogging() is written to STDERR
I1110 08:49:18.425752 17290 net.cpp:39] Initializing net from parameters: 
name: "small"
layers {
  bottom: "data"
  top: "conv1_1"
  name: "conv1_1"
  type: CONVOLUTION
  convolution_param {
    num_output: 64
    pad: 1
    kernel_size: 3
  }
}
layers {
  bottom: "conv1_1"
  top: "conv1_1"
  name: "relu1_1"
  type: RELU
}
layers {
  bottom: "conv1_1"
  top: "conv1_2"
  name: "conv1_2"
  type: CONVOLUTION
  convolution_param {
    num_output: 64
    pad: 1
    kernel_size: 3
  }
}
layers {
  bottom: "conv1_2"
  top: "conv1_2"
  name: "relu1_2"
  type: RELU
}
layers {
  bottom: "conv1_2"
  top: "pool1"
  name: "pool1"
  type: POOLING
  pooling_param {
    pool: MAX
    kernel_size: 2
    stride: 2
  }
}
layers {
  bottom: "pool1"
  top: "conv2_1"
  name: "conv2_1"
  type: CONVOLUTION
  convolution_param {
    num_output: 128
    pad: 1
    kernel_size: 3
  }
}
layers {
  bottom: "conv2_1"
  top: "conv2_1"
  name: "relu2_1"
  type: RELU
}
layers {
  bottom: "conv2_1"
  top: "conv2_2"
  name: "conv2_2"
  type: CONVOLUTION
  convolution_param {
    num_output: 128
    pad: 1
    kernel_size: 3
  }
}
layers {
  bottom: "conv2_2"
  top: "conv2_2"
  name: "relu2_2"
  type: RELU
}
layers {
  bottom: "conv2_2"
  top: "pool2"
  name: "pool2"
  type: POOLING
  pooling_param {
    pool: MAX
    kernel_size: 2
    stride: 2
  }
}
layers {
  bottom: "pool2"
  top: "conv3_1"
  name: "conv3_1"
  type: CONVOLUTION
  convolution_param {
    num_output: 256
    pad: 1
    kernel_size: 3
  }
}
layers {
  bottom: "conv3_1"
  top: "conv3_1"
  name: "relu3_1"
  type: RELU
}
layers {
  bottom: "conv3_1"
  top: "conv3_2"
  name: "conv3_2"
  type: CONVOLUTION
  convolution_param {
    num_output: 256
    pad: 1
    kernel_size: 3
  }
}
layers {
  bottom: "conv3_2"
  top: "conv3_2"
  name: "relu3_2"
  type: RELU
}
layers {
  bottom: "conv3_2"
  top: "conv3_3"
  name: "conv3_3"
  type: CONVOLUTION
  convolution_param {
    num_output: 256
    pad: 1
    kernel_size: 3
  }
}
layers {
  bottom: "conv3_3"
  top: "conv3_3"
  name: "relu3_3"
  type: RELU
}
layers {
  bottom: "conv3_3"
  top: "pool3"
  name: "pool3"
  type: POOLING
  pooling_param {
    pool: MAX
    kernel_size: 2
    stride: 2
  }
}
layers {
  bottom: "pool3"
  top: "conv4_1"
  name: "conv4_1"
  type: CONVOLUTION
  convolution_param {
    num_output: 512
    pad: 1
    kernel_size: 3
  }
}
layers {
  bottom: "conv4_1"
  top: "conv4_1"
  name: "relu4_1"
  type: RELU
}
layers {
  bottom: "conv4_1"
  top: "conv4_2"
  name: "conv4_2"
  type: CONVOLUTION
  convolution_param {
    num_output: 512
    pad: 1
    kernel_size: 3
  }
}
layers {
  bottom: "conv4_2"
  top: "conv4_2"
  name: "relu4_2"
  type: RELU
}
layers {
  bottom: "conv4_2"
  top: "conv4_3"
  name: "conv4_3"
  type: CONVOLUTION
  convolution_param {
    num_output: 512
    pad: 1
    kernel_size: 3
  }
}
layers {
  bottom: "conv4_3"
  top: "conv4_3"
  name: "relu4_3"
  type: RELU
}
layers {
  bottom: "conv4_3"
  top: "pool4"
  name: "pool4"
  type: POOLING
  pooling_param {
    pool: MAX
    kernel_size: 2
    stride: 2
  }
}
layers {
  bottom: "pool4"
  top: "conv5_1"
  name: "conv5_1"
  type: CONVOLUTION
  convolution_param {
    num_output: 512
    pad: 1
    kernel_size: 3
  }
}
layers {
  bottom: "conv5_1"
  top: "conv5_1"
  name: "relu5_1"
  type: RELU
}
layers {
  bottom: "conv5_1"
  top: "conv5_2"
  name: "conv5_2"
  type: CONVOLUTION
  convolution_param {
    num_output: 512
    pad: 1
    kernel_size: 3
  }
}
layers {
  bottom: "conv5_2"
  top: "conv5_2"
  name: "relu5_2"
  type: RELU
}
layers {
  bottom: "conv5_2"
  top: "conv5_3"
  name: "conv5_3"
  type: CONVOLUTION
  convolution_param {
    num_output: 512
    pad: 1
    kernel_size: 3
  }
}
layers {
  bottom: "conv5_3"
  top: "conv5_3"
  name: "relu5_3"
  type: RELU
}
layers {
  bottom: "conv5_3"
  top: "pool5"
  name: "pool5"
  type: POOLING
  pooling_param {
    pool: MAX
    kernel_size: 2
    stride: 2
  }
}
layers {
  bottom: "pool5"
  top: "fc6"
  name: "fc6"
  type: INNER_PRODUCT
  inner_product_param {
    num_output: 4096
  }
}
layers {
  bottom: "fc6"
  top: "fc6"
  name: "relu6"
  type: RELU
}
layers {
  bottom: "fc6"
  top: "fc6"
  name: "drop6"
  type: DROPOUT
  dropout_param {
    dropout_ratio: 0.5
  }
}
layers {
  bottom: "fc6"
  top: "fc7"
  name: "fc7"
  type: INNER_PRODUCT
  inner_product_param {
    num_output: 4096
  }
}
layers {
  bottom: "fc7"
  top: "fc7"
  name: "relu7"
  type: RELU
}
layers {
  bottom: "fc7"
  top: "fc7"
  name: "drop7"
  type: DROPOUT
  dropout_param {
    dropout_ratio: 0.5
  }
}
layers {
  bottom: "fc7"
  top: "fc8_2"
  name: "fc8_2"
  type: INNER_PRODUCT
  inner_product_param {
    num_output: 2
  }
}
layers {
  bottom: "fc8_2"
  top: "prob"
  name: "prob"
  type: SOFTMAX
}
input: "data"
input_dim: 10
input_dim: 3
input_dim: 224
input_dim: 224
I1110 08:49:18.425868 17290 net.cpp:358] Input 0 -> data
I1110 08:49:18.425894 17290 layer_factory.hpp:78] Creating layer conv1_1
I1110 08:49:18.425902 17290 net.cpp:67] Creating Layer conv1_1
I1110 08:49:18.425906 17290 net.cpp:394] conv1_1 <- data
I1110 08:49:18.425914 17290 net.cpp:356] conv1_1 -> conv1_1
I1110 08:49:18.425930 17290 net.cpp:96] Setting up conv1_1
I1110 08:49:18.584254 17290 net.cpp:103] Top shape: 10 64 224 224 (32112640)
I1110 08:49:18.584290 17290 layer_factory.hpp:78] Creating layer relu1_1
I1110 08:49:18.584302 17290 net.cpp:67] Creating Layer relu1_1
I1110 08:49:18.584307 17290 net.cpp:394] relu1_1 <- conv1_1
I1110 08:49:18.584313 17290 net.cpp:345] relu1_1 -> conv1_1 (in-place)
I1110 08:49:18.584323 17290 net.cpp:96] Setting up relu1_1
I1110 08:49:18.584337 17290 net.cpp:103] Top shape: 10 64 224 224 (32112640)
I1110 08:49:18.584342 17290 layer_factory.hpp:78] Creating layer conv1_2
I1110 08:49:18.584352 17290 net.cpp:67] Creating Layer conv1_2
I1110 08:49:18.584357 17290 net.cpp:394] conv1_2 <- conv1_1
I1110 08:49:18.584364 17290 net.cpp:356] conv1_2 -> conv1_2
I1110 08:49:18.584380 17290 net.cpp:96] Setting up conv1_2
I1110 08:49:18.584563 17290 net.cpp:103] Top shape: 10 64 224 224 (32112640)
I1110 08:49:18.584576 17290 layer_factory.hpp:78] Creating layer relu1_2
I1110 08:49:18.584588 17290 net.cpp:67] Creating Layer relu1_2
I1110 08:49:18.584595 17290 net.cpp:394] relu1_2 <- conv1_2
I1110 08:49:18.584607 17290 net.cpp:345] relu1_2 -> conv1_2 (in-place)
I1110 08:49:18.584619 17290 net.cpp:96] Setting up relu1_2
I1110 08:49:18.584631 17290 net.cpp:103] Top shape: 10 64 224 224 (32112640)
I1110 08:49:18.584640 17290 layer_factory.hpp:78] Creating layer pool1
I1110 08:49:18.584656 17290 net.cpp:67] Creating Layer pool1
I1110 08:49:18.584664 17290 net.cpp:394] pool1 <- conv1_2
I1110 08:49:18.584676 17290 net.cpp:356] pool1 -> pool1
I1110 08:49:18.584687 17290 net.cpp:96] Setting up pool1
I1110 08:49:18.584708 17290 net.cpp:103] Top shape: 10 64 112 112 (8028160)
I1110 08:49:18.584718 17290 layer_factory.hpp:78] Creating layer conv2_1
I1110 08:49:18.584731 17290 net.cpp:67] Creating Layer conv2_1
I1110 08:49:18.584740 17290 net.cpp:394] conv2_1 <- pool1
I1110 08:49:18.584749 17290 net.cpp:356] conv2_1 -> conv2_1
I1110 08:49:18.584761 17290 net.cpp:96] Setting up conv2_1
I1110 08:49:18.584938 17290 net.cpp:103] Top shape: 10 128 112 112 (16056320)
I1110 08:49:18.584951 17290 layer_factory.hpp:78] Creating layer relu2_1
I1110 08:49:18.584964 17290 net.cpp:67] Creating Layer relu2_1
I1110 08:49:18.584974 17290 net.cpp:394] relu2_1 <- conv2_1
I1110 08:49:18.584983 17290 net.cpp:345] relu2_1 -> conv2_1 (in-place)
I1110 08:49:18.584995 17290 net.cpp:96] Setting up relu2_1
I1110 08:49:18.585007 17290 net.cpp:103] Top shape: 10 128 112 112 (16056320)
I1110 08:49:18.585016 17290 layer_factory.hpp:78] Creating layer conv2_2
I1110 08:49:18.585024 17290 net.cpp:67] Creating Layer conv2_2
I1110 08:49:18.585032 17290 net.cpp:394] conv2_2 <- conv2_1
I1110 08:49:18.585046 17290 net.cpp:356] conv2_2 -> conv2_2
I1110 08:49:18.585057 17290 net.cpp:96] Setting up conv2_2
I1110 08:49:18.585320 17290 net.cpp:103] Top shape: 10 128 112 112 (16056320)
I1110 08:49:18.585330 17290 layer_factory.hpp:78] Creating layer relu2_2
I1110 08:49:18.585341 17290 net.cpp:67] Creating Layer relu2_2
I1110 08:49:18.585347 17290 net.cpp:394] relu2_2 <- conv2_2
I1110 08:49:18.585356 17290 net.cpp:345] relu2_2 -> conv2_2 (in-place)
I1110 08:49:18.585366 17290 net.cpp:96] Setting up relu2_2
I1110 08:49:18.585378 17290 net.cpp:103] Top shape: 10 128 112 112 (16056320)
I1110 08:49:18.585386 17290 layer_factory.hpp:78] Creating layer pool2
I1110 08:49:18.585397 17290 net.cpp:67] Creating Layer pool2
I1110 08:49:18.585403 17290 net.cpp:394] pool2 <- conv2_2
I1110 08:49:18.585417 17290 net.cpp:356] pool2 -> pool2
I1110 08:49:18.585429 17290 net.cpp:96] Setting up pool2
I1110 08:49:18.585443 17290 net.cpp:103] Top shape: 10 128 56 56 (4014080)
I1110 08:49:18.585453 17290 layer_factory.hpp:78] Creating layer conv3_1
I1110 08:49:18.585464 17290 net.cpp:67] Creating Layer conv3_1
I1110 08:49:18.585471 17290 net.cpp:394] conv3_1 <- pool2
I1110 08:49:18.585484 17290 net.cpp:356] conv3_1 -> conv3_1
I1110 08:49:18.585495 17290 net.cpp:96] Setting up conv3_1
I1110 08:49:18.585921 17290 net.cpp:103] Top shape: 10 256 56 56 (8028160)
I1110 08:49:18.585933 17290 layer_factory.hpp:78] Creating layer relu3_1
I1110 08:49:18.585943 17290 net.cpp:67] Creating Layer relu3_1
I1110 08:49:18.585949 17290 net.cpp:394] relu3_1 <- conv3_1
I1110 08:49:18.585958 17290 net.cpp:345] relu3_1 -> conv3_1 (in-place)
I1110 08:49:18.585968 17290 net.cpp:96] Setting up relu3_1
I1110 08:49:18.585979 17290 net.cpp:103] Top shape: 10 256 56 56 (8028160)
I1110 08:49:18.585988 17290 layer_factory.hpp:78] Creating layer conv3_2
I1110 08:49:18.585999 17290 net.cpp:67] Creating Layer conv3_2
I1110 08:49:18.586009 17290 net.cpp:394] conv3_2 <- conv3_1
I1110 08:49:18.586021 17290 net.cpp:356] conv3_2 -> conv3_2
I1110 08:49:18.586038 17290 net.cpp:96] Setting up conv3_2
I1110 08:49:18.586956 17290 net.cpp:103] Top shape: 10 256 56 56 (8028160)
I1110 08:49:18.586968 17290 layer_factory.hpp:78] Creating layer relu3_2
I1110 08:49:18.586973 17290 net.cpp:67] Creating Layer relu3_2
I1110 08:49:18.586978 17290 net.cpp:394] relu3_2 <- conv3_2
I1110 08:49:18.586982 17290 net.cpp:345] relu3_2 -> conv3_2 (in-place)
I1110 08:49:18.586987 17290 net.cpp:96] Setting up relu3_2
I1110 08:49:18.586992 17290 net.cpp:103] Top shape: 10 256 56 56 (8028160)
I1110 08:49:18.586995 17290 layer_factory.hpp:78] Creating layer conv3_3
I1110 08:49:18.586999 17290 net.cpp:67] Creating Layer conv3_3
I1110 08:49:18.587002 17290 net.cpp:394] conv3_3 <- conv3_2
I1110 08:49:18.587007 17290 net.cpp:356] conv3_3 -> conv3_3
I1110 08:49:18.587012 17290 net.cpp:96] Setting up conv3_3
I1110 08:49:18.587792 17290 net.cpp:103] Top shape: 10 256 56 56 (8028160)
I1110 08:49:18.587805 17290 layer_factory.hpp:78] Creating layer relu3_3
I1110 08:49:18.587810 17290 net.cpp:67] Creating Layer relu3_3
I1110 08:49:18.587812 17290 net.cpp:394] relu3_3 <- conv3_3
I1110 08:49:18.587818 17290 net.cpp:345] relu3_3 -> conv3_3 (in-place)
I1110 08:49:18.587823 17290 net.cpp:96] Setting up relu3_3
I1110 08:49:18.587828 17290 net.cpp:103] Top shape: 10 256 56 56 (8028160)
I1110 08:49:18.587831 17290 layer_factory.hpp:78] Creating layer pool3
I1110 08:49:18.587837 17290 net.cpp:67] Creating Layer pool3
I1110 08:49:18.587841 17290 net.cpp:394] pool3 <- conv3_3
I1110 08:49:18.587844 17290 net.cpp:356] pool3 -> pool3
I1110 08:49:18.587849 17290 net.cpp:96] Setting up pool3
I1110 08:49:18.587857 17290 net.cpp:103] Top shape: 10 256 28 28 (2007040)
I1110 08:49:18.587859 17290 layer_factory.hpp:78] Creating layer conv4_1
I1110 08:49:18.587865 17290 net.cpp:67] Creating Layer conv4_1
I1110 08:49:18.587868 17290 net.cpp:394] conv4_1 <- pool3
I1110 08:49:18.587873 17290 net.cpp:356] conv4_1 -> conv4_1
I1110 08:49:18.587878 17290 net.cpp:96] Setting up conv4_1
I1110 08:49:18.588871 17290 net.cpp:103] Top shape: 10 512 28 28 (4014080)
I1110 08:49:18.588884 17290 layer_factory.hpp:78] Creating layer relu4_1
I1110 08:49:18.588891 17290 net.cpp:67] Creating Layer relu4_1
I1110 08:49:18.588894 17290 net.cpp:394] relu4_1 <- conv4_1
I1110 08:49:18.588898 17290 net.cpp:345] relu4_1 -> conv4_1 (in-place)
I1110 08:49:18.588903 17290 net.cpp:96] Setting up relu4_1
I1110 08:49:18.588908 17290 net.cpp:103] Top shape: 10 512 28 28 (4014080)
I1110 08:49:18.588912 17290 layer_factory.hpp:78] Creating layer conv4_2
I1110 08:49:18.588917 17290 net.cpp:67] Creating Layer conv4_2
I1110 08:49:18.588919 17290 net.cpp:394] conv4_2 <- conv4_1
I1110 08:49:18.588923 17290 net.cpp:356] conv4_2 -> conv4_2
I1110 08:49:18.588928 17290 net.cpp:96] Setting up conv4_2
I1110 08:49:18.591215 17290 net.cpp:103] Top shape: 10 512 28 28 (4014080)
I1110 08:49:18.591251 17290 layer_factory.hpp:78] Creating layer relu4_2
I1110 08:49:18.591259 17290 net.cpp:67] Creating Layer relu4_2
I1110 08:49:18.591264 17290 net.cpp:394] relu4_2 <- conv4_2
I1110 08:49:18.591272 17290 net.cpp:345] relu4_2 -> conv4_2 (in-place)
I1110 08:49:18.591279 17290 net.cpp:96] Setting up relu4_2
I1110 08:49:18.591285 17290 net.cpp:103] Top shape: 10 512 28 28 (4014080)
I1110 08:49:18.591289 17290 layer_factory.hpp:78] Creating layer conv4_3
I1110 08:49:18.591294 17290 net.cpp:67] Creating Layer conv4_3
I1110 08:49:18.591296 17290 net.cpp:394] conv4_3 <- conv4_2
I1110 08:49:18.591300 17290 net.cpp:356] conv4_3 -> conv4_3
I1110 08:49:18.591306 17290 net.cpp:96] Setting up conv4_3
I1110 08:49:18.593332 17290 net.cpp:103] Top shape: 10 512 28 28 (4014080)
I1110 08:49:18.593364 17290 layer_factory.hpp:78] Creating layer relu4_3
I1110 08:49:18.593374 17290 net.cpp:67] Creating Layer relu4_3
I1110 08:49:18.593379 17290 net.cpp:394] relu4_3 <- conv4_3
I1110 08:49:18.593384 17290 net.cpp:345] relu4_3 -> conv4_3 (in-place)
I1110 08:49:18.593391 17290 net.cpp:96] Setting up relu4_3
I1110 08:49:18.593397 17290 net.cpp:103] Top shape: 10 512 28 28 (4014080)
I1110 08:49:18.593400 17290 layer_factory.hpp:78] Creating layer pool4
I1110 08:49:18.593406 17290 net.cpp:67] Creating Layer pool4
I1110 08:49:18.593410 17290 net.cpp:394] pool4 <- conv4_3
I1110 08:49:18.593415 17290 net.cpp:356] pool4 -> pool4
I1110 08:49:18.593420 17290 net.cpp:96] Setting up pool4
I1110 08:49:18.593427 17290 net.cpp:103] Top shape: 10 512 14 14 (1003520)
I1110 08:49:18.593430 17290 layer_factory.hpp:78] Creating layer conv5_1
I1110 08:49:18.593436 17290 net.cpp:67] Creating Layer conv5_1
I1110 08:49:18.593439 17290 net.cpp:394] conv5_1 <- pool4
I1110 08:49:18.593444 17290 net.cpp:356] conv5_1 -> conv5_1
I1110 08:49:18.593449 17290 net.cpp:96] Setting up conv5_1
I1110 08:49:18.595934 17290 net.cpp:103] Top shape: 10 512 14 14 (1003520)
I1110 08:49:18.595960 17290 layer_factory.hpp:78] Creating layer relu5_1
I1110 08:49:18.595968 17290 net.cpp:67] Creating Layer relu5_1
I1110 08:49:18.595973 17290 net.cpp:394] relu5_1 <- conv5_1
I1110 08:49:18.595984 17290 net.cpp:345] relu5_1 -> conv5_1 (in-place)
I1110 08:49:18.595993 17290 net.cpp:96] Setting up relu5_1
I1110 08:49:18.595999 17290 net.cpp:103] Top shape: 10 512 14 14 (1003520)
I1110 08:49:18.596001 17290 layer_factory.hpp:78] Creating layer conv5_2
I1110 08:49:18.596007 17290 net.cpp:67] Creating Layer conv5_2
I1110 08:49:18.596010 17290 net.cpp:394] conv5_2 <- conv5_1
I1110 08:49:18.596019 17290 net.cpp:356] conv5_2 -> conv5_2
I1110 08:49:18.596027 17290 net.cpp:96] Setting up conv5_2
I1110 08:49:18.598044 17290 net.cpp:103] Top shape: 10 512 14 14 (1003520)
I1110 08:49:18.598075 17290 layer_factory.hpp:78] Creating layer relu5_2
I1110 08:49:18.598083 17290 net.cpp:67] Creating Layer relu5_2
I1110 08:49:18.598086 17290 net.cpp:394] relu5_2 <- conv5_2
I1110 08:49:18.598094 17290 net.cpp:345] relu5_2 -> conv5_2 (in-place)
I1110 08:49:18.598101 17290 net.cpp:96] Setting up relu5_2
I1110 08:49:18.598108 17290 net.cpp:103] Top shape: 10 512 14 14 (1003520)
I1110 08:49:18.598110 17290 layer_factory.hpp:78] Creating layer conv5_3
I1110 08:49:18.598115 17290 net.cpp:67] Creating Layer conv5_3
I1110 08:49:18.598119 17290 net.cpp:394] conv5_3 <- conv5_2
I1110 08:49:18.598122 17290 net.cpp:356] conv5_3 -> conv5_3
I1110 08:49:18.598129 17290 net.cpp:96] Setting up conv5_3
I1110 08:49:18.600457 17290 net.cpp:103] Top shape: 10 512 14 14 (1003520)
I1110 08:49:18.600488 17290 layer_factory.hpp:78] Creating layer relu5_3
I1110 08:49:18.600497 17290 net.cpp:67] Creating Layer relu5_3
I1110 08:49:18.600502 17290 net.cpp:394] relu5_3 <- conv5_3
I1110 08:49:18.600508 17290 net.cpp:345] relu5_3 -> conv5_3 (in-place)
I1110 08:49:18.600517 17290 net.cpp:96] Setting up relu5_3
I1110 08:49:18.600522 17290 net.cpp:103] Top shape: 10 512 14 14 (1003520)
I1110 08:49:18.600524 17290 layer_factory.hpp:78] Creating layer pool5
I1110 08:49:18.600530 17290 net.cpp:67] Creating Layer pool5
I1110 08:49:18.600533 17290 net.cpp:394] pool5 <- conv5_3
I1110 08:49:18.600538 17290 net.cpp:356] pool5 -> pool5
I1110 08:49:18.600544 17290 net.cpp:96] Setting up pool5
I1110 08:49:18.600553 17290 net.cpp:103] Top shape: 10 512 7 7 (250880)
I1110 08:49:18.600556 17290 layer_factory.hpp:78] Creating layer fc6
I1110 08:49:18.600564 17290 net.cpp:67] Creating Layer fc6
I1110 08:49:18.600567 17290 net.cpp:394] fc6 <- pool5
I1110 08:49:18.600571 17290 net.cpp:356] fc6 -> fc6
I1110 08:49:18.600577 17290 net.cpp:96] Setting up fc6
I1110 08:49:18.679512 17290 net.cpp:103] Top shape: 10 4096 1 1 (40960)
I1110 08:49:18.679544 17290 layer_factory.hpp:78] Creating layer relu6
I1110 08:49:18.679559 17290 net.cpp:67] Creating Layer relu6
I1110 08:49:18.679564 17290 net.cpp:394] relu6 <- fc6
I1110 08:49:18.679572 17290 net.cpp:345] relu6 -> fc6 (in-place)
I1110 08:49:18.679579 17290 net.cpp:96] Setting up relu6
I1110 08:49:18.679594 17290 net.cpp:103] Top shape: 10 4096 1 1 (40960)
I1110 08:49:18.679599 17290 layer_factory.hpp:78] Creating layer drop6
I1110 08:49:18.679608 17290 net.cpp:67] Creating Layer drop6
I1110 08:49:18.679611 17290 net.cpp:394] drop6 <- fc6
I1110 08:49:18.679615 17290 net.cpp:345] drop6 -> fc6 (in-place)
I1110 08:49:18.679620 17290 net.cpp:96] Setting up drop6
I1110 08:49:18.679625 17290 net.cpp:103] Top shape: 10 4096 1 1 (40960)
I1110 08:49:18.679628 17290 layer_factory.hpp:78] Creating layer fc7
I1110 08:49:18.679635 17290 net.cpp:67] Creating Layer fc7
I1110 08:49:18.679637 17290 net.cpp:394] fc7 <- fc6
I1110 08:49:18.679642 17290 net.cpp:356] fc7 -> fc7
I1110 08:49:18.679648 17290 net.cpp:96] Setting up fc7
I1110 08:49:18.718065 17290 net.cpp:103] Top shape: 10 4096 1 1 (40960)
I1110 08:49:18.718096 17290 layer_factory.hpp:78] Creating layer relu7
I1110 08:49:18.718108 17290 net.cpp:67] Creating Layer relu7
I1110 08:49:18.718114 17290 net.cpp:394] relu7 <- fc7
I1110 08:49:18.718121 17290 net.cpp:345] relu7 -> fc7 (in-place)
I1110 08:49:18.718127 17290 net.cpp:96] Setting up relu7
I1110 08:49:18.718142 17290 net.cpp:103] Top shape: 10 4096 1 1 (40960)
I1110 08:49:18.718144 17290 layer_factory.hpp:78] Creating layer drop7
I1110 08:49:18.718150 17290 net.cpp:67] Creating Layer drop7
I1110 08:49:18.718152 17290 net.cpp:394] drop7 <- fc7
I1110 08:49:18.718158 17290 net.cpp:345] drop7 -> fc7 (in-place)
I1110 08:49:18.718163 17290 net.cpp:96] Setting up drop7
I1110 08:49:18.718166 17290 net.cpp:103] Top shape: 10 4096 1 1 (40960)
I1110 08:49:18.718169 17290 layer_factory.hpp:78] Creating layer fc8_2
I1110 08:49:18.718174 17290 net.cpp:67] Creating Layer fc8_2
I1110 08:49:18.718178 17290 net.cpp:394] fc8_2 <- fc7
I1110 08:49:18.718183 17290 net.cpp:356] fc8_2 -> fc8_2
I1110 08:49:18.718189 17290 net.cpp:96] Setting up fc8_2
I1110 08:49:18.718206 17290 net.cpp:103] Top shape: 10 2 1 1 (20)
I1110 08:49:18.718211 17290 layer_factory.hpp:78] Creating layer prob
I1110 08:49:18.718219 17290 net.cpp:67] Creating Layer prob
I1110 08:49:18.718222 17290 net.cpp:394] prob <- fc8_2
I1110 08:49:18.718226 17290 net.cpp:356] prob -> prob
I1110 08:49:18.718231 17290 net.cpp:96] Setting up prob
I1110 08:49:18.718240 17290 net.cpp:103] Top shape: 10 2 1 1 (20)
I1110 08:49:18.718242 17290 net.cpp:172] prob does not need backward computation.
I1110 08:49:18.718245 17290 net.cpp:172] fc8_2 does not need backward computation.
I1110 08:49:18.718246 17290 net.cpp:172] drop7 does not need backward computation.
I1110 08:49:18.718250 17290 net.cpp:172] relu7 does not need backward computation.
I1110 08:49:18.718251 17290 net.cpp:172] fc7 does not need backward computation.
…
