Running clamp_1flag
WARNING: Logging before InitGoogleLogging() is written to STDERR
I1110 01:49:59.165802 18826 net.cpp:39] Initializing net from parameters: 
name: "small"
layers {
  bottom: "data"
  top: "conv1_1"
  name: "conv1_1"
  type: CONVOLUTION
  convolution_param {
    num_output: 64
    pad: 1
    kernel_size: 3
  }
}
layers {
  bottom: "conv1_1"
  top: "conv1_1"
  name: "relu1_1"
  type: RELU
}
layers {
  bottom: "conv1_1"
  top: "conv1_2"
  name: "conv1_2"
  type: CONVOLUTION
  convolution_param {
    num_output: 64
    pad: 1
    kernel_size: 3
  }
}
layers {
  bottom: "conv1_2"
  top: "conv1_2"
  name: "relu1_2"
  type: RELU
}
layers {
  bottom: "conv1_2"
  top: "pool1"
  name: "pool1"
  type: POOLING
  pooling_param {
    pool: MAX
    kernel_size: 2
    stride: 2
  }
}
layers {
  bottom: "pool1"
  top: "conv2_1"
  name: "conv2_1"
  type: CONVOLUTION
  convolution_param {
    num_output: 128
    pad: 1
    kernel_size: 3
  }
}
layers {
  bottom: "conv2_1"
  top: "conv2_1"
  name: "relu2_1"
  type: RELU
}
layers {
  bottom: "conv2_1"
  top: "conv2_2"
  name: "conv2_2"
  type: CONVOLUTION
  convolution_param {
    num_output: 128
    pad: 1
    kernel_size: 3
  }
}
layers {
  bottom: "conv2_2"
  top: "conv2_2"
  name: "relu2_2"
  type: RELU
}
layers {
  bottom: "conv2_2"
  top: "pool2"
  name: "pool2"
  type: POOLING
  pooling_param {
    pool: MAX
    kernel_size: 2
    stride: 2
  }
}
layers {
  bottom: "pool2"
  top: "conv3_1"
  name: "conv3_1"
  type: CONVOLUTION
  convolution_param {
    num_output: 256
    pad: 1
    kernel_size: 3
  }
}
layers {
  bottom: "conv3_1"
  top: "conv3_1"
  name: "relu3_1"
  type: RELU
}
layers {
  bottom: "conv3_1"
  top: "conv3_2"
  name: "conv3_2"
  type: CONVOLUTION
  convolution_param {
    num_output: 256
    pad: 1
    kernel_size: 3
  }
}
layers {
  bottom: "conv3_2"
  top: "conv3_2"
  name: "relu3_2"
  type: RELU
}
layers {
  bottom: "conv3_2"
  top: "conv3_3"
  name: "conv3_3"
  type: CONVOLUTION
  convolution_param {
    num_output: 256
    pad: 1
    kernel_size: 3
  }
}
layers {
  bottom: "conv3_3"
  top: "conv3_3"
  name: "relu3_3"
  type: RELU
}
layers {
  bottom: "conv3_3"
  top: "pool3"
  name: "pool3"
  type: POOLING
  pooling_param {
    pool: MAX
    kernel_size: 2
    stride: 2
  }
}
layers {
  bottom: "pool3"
  top: "conv4_1"
  name: "conv4_1"
  type: CONVOLUTION
  convolution_param {
    num_output: 512
    pad: 1
    kernel_size: 3
  }
}
layers {
  bottom: "conv4_1"
  top: "conv4_1"
  name: "relu4_1"
  type: RELU
}
layers {
  bottom: "conv4_1"
  top: "conv4_2"
  name: "conv4_2"
  type: CONVOLUTION
  convolution_param {
    num_output: 512
    pad: 1
    kernel_size: 3
  }
}
layers {
  bottom: "conv4_2"
  top: "conv4_2"
  name: "relu4_2"
  type: RELU
}
layers {
  bottom: "conv4_2"
  top: "conv4_3"
  name: "conv4_3"
  type: CONVOLUTION
  convolution_param {
    num_output: 512
    pad: 1
    kernel_size: 3
  }
}
layers {
  bottom: "conv4_3"
  top: "conv4_3"
  name: "relu4_3"
  type: RELU
}
layers {
  bottom: "conv4_3"
  top: "pool4"
  name: "pool4"
  type: POOLING
  pooling_param {
    pool: MAX
    kernel_size: 2
    stride: 2
  }
}
layers {
  bottom: "pool4"
  top: "conv5_1"
  name: "conv5_1"
  type: CONVOLUTION
  convolution_param {
    num_output: 512
    pad: 1
    kernel_size: 3
  }
}
layers {
  bottom: "conv5_1"
  top: "conv5_1"
  name: "relu5_1"
  type: RELU
}
layers {
  bottom: "conv5_1"
  top: "conv5_2"
  name: "conv5_2"
  type: CONVOLUTION
  convolution_param {
    num_output: 512
    pad: 1
    kernel_size: 3
  }
}
layers {
  bottom: "conv5_2"
  top: "conv5_2"
  name: "relu5_2"
  type: RELU
}
layers {
  bottom: "conv5_2"
  top: "conv5_3"
  name: "conv5_3"
  type: CONVOLUTION
  convolution_param {
    num_output: 512
    pad: 1
    kernel_size: 3
  }
}
layers {
  bottom: "conv5_3"
  top: "conv5_3"
  name: "relu5_3"
  type: RELU
}
layers {
  bottom: "conv5_3"
  top: "pool5"
  name: "pool5"
  type: POOLING
  pooling_param {
    pool: MAX
    kernel_size: 2
    stride: 2
  }
}
layers {
  bottom: "pool5"
  top: "fc6"
  name: "fc6"
  type: INNER_PRODUCT
  inner_product_param {
    num_output: 4096
  }
}
layers {
  bottom: "fc6"
  top: "fc6"
  name: "relu6"
  type: RELU
}
layers {
  bottom: "fc6"
  top: "fc6"
  name: "drop6"
  type: DROPOUT
  dropout_param {
    dropout_ratio: 0.5
  }
}
layers {
  bottom: "fc6"
  top: "fc7"
  name: "fc7"
  type: INNER_PRODUCT
  inner_product_param {
    num_output: 4096
  }
}
layers {
  bottom: "fc7"
  top: "fc7"
  name: "relu7"
  type: RELU
}
layers {
  bottom: "fc7"
  top: "fc7"
  name: "drop7"
  type: DROPOUT
  dropout_param {
    dropout_ratio: 0.5
  }
}
layers {
  bottom: "fc7"
  top: "fc8_2"
  name: "fc8_2"
  type: INNER_PRODUCT
  inner_product_param {
    num_output: 2
  }
}
layers {
  bottom: "fc8_2"
  top: "prob"
  name: "prob"
  type: SOFTMAX
}
input: "data"
input_dim: 10
input_dim: 3
input_dim: 224
input_dim: 224
I1110 01:49:59.166002 18826 net.cpp:358] Input 0 -> data
I1110 01:49:59.166040 18826 layer_factory.hpp:78] Creating layer conv1_1
I1110 01:49:59.166056 18826 net.cpp:67] Creating Layer conv1_1
I1110 01:49:59.166062 18826 net.cpp:394] conv1_1 <- data
I1110 01:49:59.166071 18826 net.cpp:356] conv1_1 -> conv1_1
I1110 01:49:59.166085 18826 net.cpp:96] Setting up conv1_1
I1110 01:49:59.684892 18826 net.cpp:103] Top shape: 10 64 224 224 (32112640)
I1110 01:49:59.684953 18826 layer_factory.hpp:78] Creating layer relu1_1
I1110 01:49:59.684973 18826 net.cpp:67] Creating Layer relu1_1
I1110 01:49:59.684980 18826 net.cpp:394] relu1_1 <- conv1_1
I1110 01:49:59.684994 18826 net.cpp:345] relu1_1 -> conv1_1 (in-place)
I1110 01:49:59.685008 18826 net.cpp:96] Setting up relu1_1
I1110 01:49:59.685022 18826 net.cpp:103] Top shape: 10 64 224 224 (32112640)
I1110 01:49:59.685029 18826 layer_factory.hpp:78] Creating layer conv1_2
I1110 01:49:59.685040 18826 net.cpp:67] Creating Layer conv1_2
I1110 01:49:59.685045 18826 net.cpp:394] conv1_2 <- conv1_1
I1110 01:49:59.685065 18826 net.cpp:356] conv1_2 -> conv1_2
I1110 01:49:59.685077 18826 net.cpp:96] Setting up conv1_2
I1110 01:49:59.685428 18826 net.cpp:103] Top shape: 10 64 224 224 (32112640)
I1110 01:49:59.685452 18826 layer_factory.hpp:78] Creating layer relu1_2
I1110 01:49:59.685462 18826 net.cpp:67] Creating Layer relu1_2
I1110 01:49:59.685467 18826 net.cpp:394] relu1_2 <- conv1_2
I1110 01:49:59.685478 18826 net.cpp:345] relu1_2 -> conv1_2 (in-place)
I1110 01:49:59.685492 18826 net.cpp:96] Setting up relu1_2
I1110 01:49:59.685503 18826 net.cpp:103] Top shape: 10 64 224 224 (32112640)
I1110 01:49:59.685508 18826 layer_factory.hpp:78] Creating layer pool1
I1110 01:49:59.685521 18826 net.cpp:67] Creating Layer pool1
I1110 01:49:59.685528 18826 net.cpp:394] pool1 <- conv1_2
I1110 01:49:59.685539 18826 net.cpp:356] pool1 -> pool1
I1110 01:49:59.685549 18826 net.cpp:96] Setting up pool1
I1110 01:49:59.685567 18826 net.cpp:103] Top shape: 10 64 112 112 (8028160)
I1110 01:49:59.685575 18826 layer_factory.hpp:78] Creating layer conv2_1
I1110 01:49:59.685582 18826 net.cpp:67] Creating Layer conv2_1
I1110 01:49:59.685595 18826 net.cpp:394] conv2_1 <- pool1
I1110 01:49:59.685603 18826 net.cpp:356] conv2_1 -> conv2_1
I1110 01:49:59.685612 18826 net.cpp:96] Setting up conv2_1
I1110 01:49:59.685943 18826 net.cpp:103] Top shape: 10 128 112 112 (16056320)
I1110 01:49:59.685967 18826 layer_factory.hpp:78] Creating layer relu2_1
I1110 01:49:59.685976 18826 net.cpp:67] Creating Layer relu2_1
I1110 01:49:59.685982 18826 net.cpp:394] relu2_1 <- conv2_1
I1110 01:49:59.685989 18826 net.cpp:345] relu2_1 -> conv2_1 (in-place)
I1110 01:49:59.685998 18826 net.cpp:96] Setting up relu2_1
I1110 01:49:59.686007 18826 net.cpp:103] Top shape: 10 128 112 112 (16056320)
I1110 01:49:59.686013 18826 layer_factory.hpp:78] Creating layer conv2_2
I1110 01:49:59.686025 18826 net.cpp:67] Creating Layer conv2_2
I1110 01:49:59.686034 18826 net.cpp:394] conv2_2 <- conv2_1
I1110 01:49:59.686043 18826 net.cpp:356] conv2_2 -> conv2_2
I1110 01:49:59.686053 18826 net.cpp:96] Setting up conv2_2
I1110 01:49:59.686589 18826 net.cpp:103] Top shape: 10 128 112 112 (16056320)
I1110 01:49:59.686609 18826 layer_factory.hpp:78] Creating layer relu2_2
I1110 01:49:59.686619 18826 net.cpp:67] Creating Layer relu2_2
I1110 01:49:59.686625 18826 net.cpp:394] relu2_2 <- conv2_2
I1110 01:49:59.686633 18826 net.cpp:345] relu2_2 -> conv2_2 (in-place)
I1110 01:49:59.686641 18826 net.cpp:96] Setting up relu2_2
I1110 01:49:59.686651 18826 net.cpp:103] Top shape: 10 128 112 112 (16056320)
I1110 01:49:59.686657 18826 layer_factory.hpp:78] Creating layer pool2
I1110 01:49:59.686668 18826 net.cpp:67] Creating Layer pool2
I1110 01:49:59.686674 18826 net.cpp:394] pool2 <- conv2_2
I1110 01:49:59.686683 18826 net.cpp:356] pool2 -> pool2
I1110 01:49:59.686691 18826 net.cpp:96] Setting up pool2
I1110 01:49:59.686702 18826 net.cpp:103] Top shape: 10 128 56 56 (4014080)
I1110 01:49:59.686708 18826 layer_factory.hpp:78] Creating layer conv3_1
I1110 01:49:59.686718 18826 net.cpp:67] Creating Layer conv3_1
I1110 01:49:59.686730 18826 net.cpp:394] conv3_1 <- pool2
I1110 01:49:59.686738 18826 net.cpp:356] conv3_1 -> conv3_1
I1110 01:49:59.686748 18826 net.cpp:96] Setting up conv3_1
I1110 01:49:59.687631 18826 net.cpp:103] Top shape: 10 256 56 56 (8028160)
I1110 01:49:59.687659 18826 layer_factory.hpp:78] Creating layer relu3_1
I1110 01:49:59.687669 18826 net.cpp:67] Creating Layer relu3_1
I1110 01:49:59.687674 18826 net.cpp:394] relu3_1 <- conv3_1
I1110 01:49:59.687681 18826 net.cpp:345] relu3_1 -> conv3_1 (in-place)
I1110 01:49:59.687690 18826 net.cpp:96] Setting up relu3_1
I1110 01:49:59.687700 18826 net.cpp:103] Top shape: 10 256 56 56 (8028160)
I1110 01:49:59.687706 18826 layer_factory.hpp:78] Creating layer conv3_2
I1110 01:49:59.687719 18826 net.cpp:67] Creating Layer conv3_2
I1110 01:49:59.687724 18826 net.cpp:394] conv3_2 <- conv3_1
I1110 01:49:59.687734 18826 net.cpp:356] conv3_2 -> conv3_2
I1110 01:49:59.687746 18826 net.cpp:96] Setting up conv3_2
I1110 01:49:59.689291 18826 net.cpp:103] Top shape: 10 256 56 56 (8028160)
I1110 01:49:59.689317 18826 layer_factory.hpp:78] Creating layer relu3_2
I1110 01:49:59.689327 18826 net.cpp:67] Creating Layer relu3_2
I1110 01:49:59.689333 18826 net.cpp:394] relu3_2 <- conv3_2
I1110 01:49:59.689342 18826 net.cpp:345] relu3_2 -> conv3_2 (in-place)
I1110 01:49:59.689352 18826 net.cpp:96] Setting up relu3_2
I1110 01:49:59.689360 18826 net.cpp:103] Top shape: 10 256 56 56 (8028160)
I1110 01:49:59.689366 18826 layer_factory.hpp:78] Creating layer conv3_3
I1110 01:49:59.689374 18826 net.cpp:67] Creating Layer conv3_3
I1110 01:49:59.689379 18826 net.cpp:394] conv3_3 <- conv3_2
I1110 01:49:59.689388 18826 net.cpp:356] conv3_3 -> conv3_3
I1110 01:49:59.689395 18826 net.cpp:96] Setting up conv3_3
I1110 01:49:59.690677 18826 net.cpp:103] Top shape: 10 256 56 56 (8028160)
I1110 01:49:59.690701 18826 layer_factory.hpp:78] Creating layer relu3_3
I1110 01:49:59.690713 18826 net.cpp:67] Creating Layer relu3_3
I1110 01:49:59.690721 18826 net.cpp:394] relu3_3 <- conv3_3
I1110 01:49:59.690729 18826 net.cpp:345] relu3_3 -> conv3_3 (in-place)
I1110 01:49:59.690737 18826 net.cpp:96] Setting up relu3_3
I1110 01:49:59.690747 18826 net.cpp:103] Top shape: 10 256 56 56 (8028160)
I1110 01:49:59.690752 18826 layer_factory.hpp:78] Creating layer pool3
I1110 01:49:59.690768 18826 net.cpp:67] Creating Layer pool3
I1110 01:49:59.690773 18826 net.cpp:394] pool3 <- conv3_3
I1110 01:49:59.690781 18826 net.cpp:356] pool3 -> pool3
I1110 01:49:59.690789 18826 net.cpp:96] Setting up pool3
I1110 01:49:59.690803 18826 net.cpp:103] Top shape: 10 256 28 28 (2007040)
I1110 01:49:59.690807 18826 layer_factory.hpp:78] Creating layer conv4_1
I1110 01:49:59.690815 18826 net.cpp:67] Creating Layer conv4_1
I1110 01:49:59.690820 18826 net.cpp:394] conv4_1 <- pool3
I1110 01:49:59.690831 18826 net.cpp:356] conv4_1 -> conv4_1
I1110 01:49:59.690840 18826 net.cpp:96] Setting up conv4_1
I1110 01:49:59.693748 18826 net.cpp:103] Top shape: 10 512 28 28 (4014080)
I1110 01:49:59.693781 18826 layer_factory.hpp:78] Creating layer relu4_1
I1110 01:49:59.693792 18826 net.cpp:67] Creating Layer relu4_1
I1110 01:49:59.693799 18826 net.cpp:394] relu4_1 <- conv4_1
I1110 01:49:59.693809 18826 net.cpp:345] relu4_1 -> conv4_1 (in-place)
I1110 01:49:59.693819 18826 net.cpp:96] Setting up relu4_1
I1110 01:49:59.693828 18826 net.cpp:103] Top shape: 10 512 28 28 (4014080)
I1110 01:49:59.693835 18826 layer_factory.hpp:78] Creating layer conv4_2
I1110 01:49:59.693846 18826 net.cpp:67] Creating Layer conv4_2
I1110 01:49:59.693852 18826 net.cpp:394] conv4_2 <- conv4_1
I1110 01:49:59.693861 18826 net.cpp:356] conv4_2 -> conv4_2
I1110 01:49:59.693869 18826 net.cpp:96] Setting up conv4_2
I1110 01:49:59.699131 18826 net.cpp:103] Top shape: 10 512 28 28 (4014080)
I1110 01:49:59.699184 18826 layer_factory.hpp:78] Creating layer relu4_2
I1110 01:49:59.699200 18826 net.cpp:67] Creating Layer relu4_2
I1110 01:49:59.699208 18826 net.cpp:394] relu4_2 <- conv4_2
I1110 01:49:59.699218 18826 net.cpp:345] relu4_2 -> conv4_2 (in-place)
I1110 01:49:59.699230 18826 net.cpp:96] Setting up relu4_2
I1110 01:49:59.699241 18826 net.cpp:103] Top shape: 10 512 28 28 (4014080)
I1110 01:49:59.699247 18826 layer_factory.hpp:78] Creating layer conv4_3
I1110 01:49:59.699257 18826 net.cpp:67] Creating Layer conv4_3
I1110 01:49:59.699262 18826 net.cpp:394] conv4_3 <- conv4_2
I1110 01:49:59.699272 18826 net.cpp:356] conv4_3 -> conv4_3
I1110 01:49:59.699283 18826 net.cpp:96] Setting up conv4_3
I1110 01:49:59.704296 18826 net.cpp:103] Top shape: 10 512 28 28 (4014080)
I1110 01:49:59.704347 18826 layer_factory.hpp:78] Creating layer relu4_3
I1110 01:49:59.704363 18826 net.cpp:67] Creating Layer relu4_3
I1110 01:49:59.704371 18826 net.cpp:394] relu4_3 <- conv4_3
I1110 01:49:59.704381 18826 net.cpp:345] relu4_3 -> conv4_3 (in-place)
I1110 01:49:59.704393 18826 net.cpp:96] Setting up relu4_3
I1110 01:49:59.704404 18826 net.cpp:103] Top shape: 10 512 28 28 (4014080)
I1110 01:49:59.704411 18826 layer_factory.hpp:78] Creating layer pool4
I1110 01:49:59.704422 18826 net.cpp:67] Creating Layer pool4
I1110 01:49:59.704428 18826 net.cpp:394] pool4 <- conv4_3
I1110 01:49:59.704437 18826 net.cpp:356] pool4 -> pool4
I1110 01:49:59.704445 18826 net.cpp:96] Setting up pool4
I1110 01:49:59.704458 18826 net.cpp:103] Top shape: 10 512 14 14 (1003520)
I1110 01:49:59.704464 18826 layer_factory.hpp:78] Creating layer conv5_1
I1110 01:49:59.704476 18826 net.cpp:67] Creating Layer conv5_1
I1110 01:49:59.704481 18826 net.cpp:394] conv5_1 <- pool4
I1110 01:49:59.704489 18826 net.cpp:356] conv5_1 -> conv5_1
I1110 01:49:59.704499 18826 net.cpp:96] Setting up conv5_1
I1110 01:49:59.710078 18826 net.cpp:103] Top shape: 10 512 14 14 (1003520)
I1110 01:49:59.710129 18826 layer_factory.hpp:78] Creating layer relu5_1
I1110 01:49:59.710144 18826 net.cpp:67] Creating Layer relu5_1
I1110 01:49:59.710151 18826 net.cpp:394] relu5_1 <- conv5_1
I1110 01:49:59.710161 18826 net.cpp:345] relu5_1 -> conv5_1 (in-place)
I1110 01:49:59.710175 18826 net.cpp:96] Setting up relu5_1
I1110 01:49:59.710185 18826 net.cpp:103] Top shape: 10 512 14 14 (1003520)
I1110 01:49:59.710191 18826 layer_factory.hpp:78] Creating layer conv5_2
I1110 01:49:59.710201 18826 net.cpp:67] Creating Layer conv5_2
I1110 01:49:59.710206 18826 net.cpp:394] conv5_2 <- conv5_1
I1110 01:49:59.710224 18826 net.cpp:356] conv5_2 -> conv5_2
I1110 01:49:59.710238 18826 net.cpp:96] Setting up conv5_2
I1110 01:49:59.715198 18826 net.cpp:103] Top shape: 10 512 14 14 (1003520)
I1110 01:49:59.715250 18826 layer_factory.hpp:78] Creating layer relu5_2
I1110 01:49:59.715266 18826 net.cpp:67] Creating Layer relu5_2
I1110 01:49:59.715275 18826 net.cpp:394] relu5_2 <- conv5_2
I1110 01:49:59.715286 18826 net.cpp:345] relu5_2 -> conv5_2 (in-place)
I1110 01:49:59.715296 18826 net.cpp:96] Setting up relu5_2
I1110 01:49:59.715306 18826 net.cpp:103] Top shape: 10 512 14 14 (1003520)
I1110 01:49:59.715312 18826 layer_factory.hpp:78] Creating layer conv5_3
I1110 01:49:59.715322 18826 net.cpp:67] Creating Layer conv5_3
I1110 01:49:59.715327 18826 net.cpp:394] conv5_3 <- conv5_2
I1110 01:49:59.715337 18826 net.cpp:356] conv5_3 -> conv5_3
I1110 01:49:59.715347 18826 net.cpp:96] Setting up conv5_3
I1110 01:49:59.720662 18826 net.cpp:103] Top shape: 10 512 14 14 (1003520)
I1110 01:49:59.720715 18826 layer_factory.hpp:78] Creating layer relu5_3
I1110 01:49:59.720729 18826 net.cpp:67] Creating Layer relu5_3
I1110 01:49:59.720737 18826 net.cpp:394] relu5_3 <- conv5_3
I1110 01:49:59.720748 18826 net.cpp:345] relu5_3 -> conv5_3 (in-place)
I1110 01:49:59.720759 18826 net.cpp:96] Setting up relu5_3
I1110 01:49:59.720770 18826 net.cpp:103] Top shape: 10 512 14 14 (1003520)
I1110 01:49:59.720777 18826 layer_factory.hpp:78] Creating layer pool5
I1110 01:49:59.720785 18826 net.cpp:67] Creating Layer pool5
I1110 01:49:59.720792 18826 net.cpp:394] pool5 <- conv5_3
I1110 01:49:59.720803 18826 net.cpp:356] pool5 -> pool5
I1110 01:49:59.720813 18826 net.cpp:96] Setting up pool5
I1110 01:49:59.720826 18826 net.cpp:103] Top shape: 10 512 7 7 (250880)
I1110 01:49:59.720832 18826 layer_factory.hpp:78] Creating layer fc6
I1110 01:49:59.720840 18826 net.cpp:67] Creating Layer fc6
I1110 01:49:59.720846 18826 net.cpp:394] fc6 <- pool5
I1110 01:49:59.720856 18826 net.cpp:356] fc6 -> fc6
I1110 01:49:59.720866 18826 net.cpp:96] Setting up fc6
I1110 01:49:59.914460 18826 net.cpp:103] Top shape: 10 4096 1 1 (40960)
I1110 01:49:59.914510 18826 layer_factory.hpp:78] Creating layer relu6
I1110 01:49:59.914531 18826 net.cpp:67] Creating Layer relu6
I1110 01:49:59.914540 18826 net.cpp:394] relu6 <- fc6
I1110 01:49:59.914551 18826 net.cpp:345] relu6 -> fc6 (in-place)
I1110 01:49:59.914562 18826 net.cpp:96] Setting up relu6
I1110 01:49:59.914583 18826 net.cpp:103] Top shape: 10 4096 1 1 (40960)
I1110 01:49:59.914590 18826 layer_factory.hpp:78] Creating layer drop6
I1110 01:49:59.914605 18826 net.cpp:67] Creating Layer drop6
I1110 01:49:59.914610 18826 net.cpp:394] drop6 <- fc6
I1110 01:49:59.914620 18826 net.cpp:345] drop6 -> fc6 (in-place)
I1110 01:49:59.914629 18826 net.cpp:96] Setting up drop6
I1110 01:49:59.914640 18826 net.cpp:103] Top shape: 10 4096 1 1 (40960)
I1110 01:49:59.914646 18826 layer_factory.hpp:78] Creating layer fc7
I1110 01:49:59.914655 18826 net.cpp:67] Creating Layer fc7
I1110 01:49:59.914660 18826 net.cpp:394] fc7 <- fc6
I1110 01:49:59.914669 18826 net.cpp:356] fc7 -> fc7
I1110 01:49:59.914680 18826 net.cpp:96] Setting up fc7
I1110 01:49:59.947705 18826 net.cpp:103] Top shape: 10 4096 1 1 (40960)
I1110 01:49:59.947757 18826 layer_factory.hpp:78] Creating layer relu7
I1110 01:49:59.947770 18826 net.cpp:67] Creating Layer relu7
I1110 01:49:59.947778 18826 net.cpp:394] relu7 <- fc7
I1110 01:49:59.947788 18826 net.cpp:345] relu7 -> fc7 (in-place)
I1110 01:49:59.947799 18826 net.cpp:96] Setting up relu7
I1110 01:49:59.947821 18826 net.cpp:103] Top shape: 10 4096 1 1 (40960)
I1110 01:49:59.947829 18826 layer_factory.hpp:78] Creating layer drop7
I1110 01:49:59.947840 18826 net.cpp:67] Creating Layer drop7
I1110 01:49:59.947846 18826 net.cpp:394] drop7 <- fc7
I1110 01:49:59.947854 18826 net.cpp:345] drop7 -> fc7 (in-place)
I1110 01:49:59.947861 18826 net.cpp:96] Setting up drop7
I1110 01:49:59.947867 18826 net.cpp:103] Top shape: 10 4096 1 1 (40960)
I1110 01:49:59.947873 18826 layer_factory.hpp:78] Creating layer fc8_2
I1110 01:49:59.947881 18826 net.cpp:67] Creating Layer fc8_2
I1110 01:49:59.947886 18826 net.cpp:394] fc8_2 <- fc7
I1110 01:49:59.947899 18826 net.cpp:356] fc8_2 -> fc8_2
I1110 01:49:59.947911 18826 net.cpp:96] Setting up fc8_2
I1110 01:49:59.947942 18826 net.cpp:103] Top shape: 10 2 1 1 (20)
I1110 01:49:59.947953 18826 layer_factory.hpp:78] Creating layer prob
I1110 01:49:59.947968 18826 net.cpp:67] Creating Layer prob
I1110 01:49:59.947973 18826 net.cpp:394] prob <- fc8_2
I1110 01:49:59.947983 18826 net.cpp:356] prob -> prob
I1110 01:49:59.947993 18826 net.cpp:96] Setting up prob
I1110 01:49:59.948009 18826 net.cpp:103] Top shape: 10 2 1 1 (20)
I1110 01:49:59.948019 18826 net.cpp:172] prob does not need backward computation.
I1110 01:49:59.948024 18826 net.cpp:172] fc8_2 does not need backward computation.
I1110 01:49:59.948029 18826 net.cpp:172] drop7 does not need backward computation.
I1110 01:49:59.948032 18826 net.cpp:172] relu7 does not need backward computation.
I1110 01:49:59.948036 18826 net.cpp:172] fc7 does not need backward computation.
…
