nohup: ignoring input
WARNING: Logging before InitGoogleLogging() is written to STDERR
I1111 10:05:35.763968 10881 net.cpp:39] Initializing net from parameters: 
name: "small"
layers {
  bottom: "data"
  top: "conv1_1"
  name: "conv1_1"
  type: CONVOLUTION
  convolution_param {
    num_output: 64
    pad: 1
    kernel_size: 3
  }
}
layers {
  bottom: "conv1_1"
  top: "conv1_1"
  name: "relu1_1"
  type: RELU
}
layers {
  bottom: "conv1_1"
  top: "conv1_2"
  name: "conv1_2"
  type: CONVOLUTION
  convolution_param {
    num_output: 64
    pad: 1
    kernel_size: 3
  }
}
layers {
  bottom: "conv1_2"
  top: "conv1_2"
  name: "relu1_2"
  type: RELU
}
layers {
  bottom: "conv1_2"
  top: "pool1"
  name: "pool1"
  type: POOLING
  pooling_param {
    pool: MAX
    kernel_size: 2
    stride: 2
  }
}
layers {
  bottom: "pool1"
  top: "conv2_1"
  name: "conv2_1"
  type: CONVOLUTION
  convolution_param {
    num_output: 128
    pad: 1
    kernel_size: 3
  }
}
layers {
  bottom: "conv2_1"
  top: "conv2_1"
  name: "relu2_1"
  type: RELU
}
layers {
  bottom: "conv2_1"
  top: "conv2_2"
  name: "conv2_2"
  type: CONVOLUTION
  convolution_param {
    num_output: 128
    pad: 1
    kernel_size: 3
  }
}
layers {
  bottom: "conv2_2"
  top: "conv2_2"
  name: "relu2_2"
  type: RELU
}
layers {
  bottom: "conv2_2"
  top: "pool2"
  name: "pool2"
  type: POOLING
  pooling_param {
    pool: MAX
    kernel_size: 2
    stride: 2
  }
}
layers {
  bottom: "pool2"
  top: "conv3_1"
  name: "conv3_1"
  type: CONVOLUTION
  convolution_param {
    num_output: 256
    pad: 1
    kernel_size: 3
  }
}
layers {
  bottom: "conv3_1"
  top: "conv3_1"
  name: "relu3_1"
  type: RELU
}
layers {
  bottom: "conv3_1"
  top: "conv3_2"
  name: "conv3_2"
  type: CONVOLUTION
  convolution_param {
    num_output: 256
    pad: 1
    kernel_size: 3
  }
}
layers {
  bottom: "conv3_2"
  top: "conv3_2"
  name: "relu3_2"
  type: RELU
}
layers {
  bottom: "conv3_2"
  top: "conv3_3"
  name: "conv3_3"
  type: CONVOLUTION
  convolution_param {
    num_output: 256
    pad: 1
    kernel_size: 3
  }
}
layers {
  bottom: "conv3_3"
  top: "conv3_3"
  name: "relu3_3"
  type: RELU
}
layers {
  bottom: "conv3_3"
  top: "pool3"
  name: "pool3"
  type: POOLING
  pooling_param {
    pool: MAX
    kernel_size: 2
    stride: 2
  }
}
layers {
  bottom: "pool3"
  top: "conv4_1"
  name: "conv4_1"
  type: CONVOLUTION
  convolution_param {
    num_output: 512
    pad: 1
    kernel_size: 3
  }
}
layers {
  bottom: "conv4_1"
  top: "conv4_1"
  name: "relu4_1"
  type: RELU
}
layers {
  bottom: "conv4_1"
  top: "conv4_2"
  name: "conv4_2"
  type: CONVOLUTION
  convolution_param {
    num_output: 512
    pad: 1
    kernel_size: 3
  }
}
layers {
  bottom: "conv4_2"
  top: "conv4_2"
  name: "relu4_2"
  type: RELU
}
layers {
  bottom: "conv4_2"
  top: "conv4_3"
  name: "conv4_3"
  type: CONVOLUTION
  convolution_param {
    num_output: 512
    pad: 1
    kernel_size: 3
  }
}
layers {
  bottom: "conv4_3"
  top: "conv4_3"
  name: "relu4_3"
  type: RELU
}
layers {
  bottom: "conv4_3"
  top: "pool4"
  name: "pool4"
  type: POOLING
  pooling_param {
    pool: MAX
    kernel_size: 2
    stride: 2
  }
}
layers {
  bottom: "pool4"
  top: "conv5_1"
  name: "conv5_1"
  type: CONVOLUTION
  convolution_param {
    num_output: 512
    pad: 1
    kernel_size: 3
  }
}
layers {
  bottom: "conv5_1"
  top: "conv5_1"
  name: "relu5_1"
  type: RELU
}
layers {
  bottom: "conv5_1"
  top: "conv5_2"
  name: "conv5_2"
  type: CONVOLUTION
  convolution_param {
    num_output: 512
    pad: 1
    kernel_size: 3
  }
}
layers {
  bottom: "conv5_2"
  top: "conv5_2"
  name: "relu5_2"
  type: RELU
}
layers {
  bottom: "conv5_2"
  top: "conv5_3"
  name: "conv5_3"
  type: CONVOLUTION
  convolution_param {
    num_output: 512
    pad: 1
    kernel_size: 3
  }
}
layers {
  bottom: "conv5_3"
  top: "conv5_3"
  name: "relu5_3"
  type: RELU
}
layers {
  bottom: "conv5_3"
  top: "pool5"
  name: "pool5"
  type: POOLING
  pooling_param {
    pool: MAX
    kernel_size: 2
    stride: 2
  }
}
layers {
  bottom: "pool5"
  top: "fc6"
  name: "fc6"
  type: INNER_PRODUCT
  inner_product_param {
    num_output: 4096
  }
}
layers {
  bottom: "fc6"
  top: "fc6"
  name: "relu6"
  type: RELU
}
layers {
  bottom: "fc6"
  top: "fc6"
  name: "drop6"
  type: DROPOUT
  dropout_param {
    dropout_ratio: 0.5
  }
}
layers {
  bottom: "fc6"
  top: "fc7"
  name: "fc7"
  type: INNER_PRODUCT
  inner_product_param {
    num_output: 4096
  }
}
layers {
  bottom: "fc7"
  top: "fc7"
  name: "relu7"
  type: RELU
}
layers {
  bottom: "fc7"
  top: "fc7"
  name: "drop7"
  type: DROPOUT
  dropout_param {
    dropout_ratio: 0.5
  }
}
layers {
  bottom: "fc7"
  top: "fc8_2"
  name: "fc8_2"
  type: INNER_PRODUCT
  inner_product_param {
    num_output: 2
  }
}
layers {
  bottom: "fc8_2"
  top: "prob"
  name: "prob"
  type: SOFTMAX
}
input: "data"
input_dim: 10
input_dim: 3
input_dim: 224
input_dim: 224
I1111 10:05:35.764085 10881 net.cpp:358] Input 0 -> data
I1111 10:05:35.775914 10881 layer_factory.hpp:78] Creating layer conv1_1
I1111 10:05:35.775928 10881 net.cpp:67] Creating Layer conv1_1
I1111 10:05:35.775933 10881 net.cpp:394] conv1_1 <- data
I1111 10:05:35.775938 10881 net.cpp:356] conv1_1 -> conv1_1
I1111 10:05:35.775946 10881 net.cpp:96] Setting up conv1_1
I1111 10:05:36.004652 10881 net.cpp:103] Top shape: 10 64 224 224 (32112640)
I1111 10:05:36.004700 10881 layer_factory.hpp:78] Creating layer relu1_1
I1111 10:05:36.004716 10881 net.cpp:67] Creating Layer relu1_1
I1111 10:05:36.004722 10881 net.cpp:394] relu1_1 <- conv1_1
I1111 10:05:36.004729 10881 net.cpp:345] relu1_1 -> conv1_1 (in-place)
I1111 10:05:36.004739 10881 net.cpp:96] Setting up relu1_1
I1111 10:05:36.004751 10881 net.cpp:103] Top shape: 10 64 224 224 (32112640)
I1111 10:05:36.004760 10881 layer_factory.hpp:78] Creating layer conv1_2
I1111 10:05:36.004768 10881 net.cpp:67] Creating Layer conv1_2
I1111 10:05:36.004771 10881 net.cpp:394] conv1_2 <- conv1_1
I1111 10:05:36.004777 10881 net.cpp:356] conv1_2 -> conv1_2
I1111 10:05:36.004786 10881 net.cpp:96] Setting up conv1_2
I1111 10:05:36.004992 10881 net.cpp:103] Top shape: 10 64 224 224 (32112640)
I1111 10:05:36.005009 10881 layer_factory.hpp:78] Creating layer relu1_2
I1111 10:05:36.005019 10881 net.cpp:67] Creating Layer relu1_2
I1111 10:05:36.005023 10881 net.cpp:394] relu1_2 <- conv1_2
I1111 10:05:36.005029 10881 net.cpp:345] relu1_2 -> conv1_2 (in-place)
I1111 10:05:36.005035 10881 net.cpp:96] Setting up relu1_2
I1111 10:05:36.005041 10881 net.cpp:103] Top shape: 10 64 224 224 (32112640)
I1111 10:05:36.005045 10881 layer_factory.hpp:78] Creating layer pool1
I1111 10:05:36.005055 10881 net.cpp:67] Creating Layer pool1
I1111 10:05:36.005064 10881 net.cpp:394] pool1 <- conv1_2
I1111 10:05:36.005071 10881 net.cpp:356] pool1 -> pool1
I1111 10:05:36.005079 10881 net.cpp:96] Setting up pool1
I1111 10:05:36.005092 10881 net.cpp:103] Top shape: 10 64 112 112 (8028160)
I1111 10:05:36.005100 10881 layer_factory.hpp:78] Creating layer conv2_1
I1111 10:05:36.005106 10881 net.cpp:67] Creating Layer conv2_1
I1111 10:05:36.005110 10881 net.cpp:394] conv2_1 <- pool1
I1111 10:05:36.005116 10881 net.cpp:356] conv2_1 -> conv2_1
I1111 10:05:36.005122 10881 net.cpp:96] Setting up conv2_1
I1111 10:05:36.005321 10881 net.cpp:103] Top shape: 10 128 112 112 (16056320)
I1111 10:05:36.005336 10881 layer_factory.hpp:78] Creating layer relu2_1
I1111 10:05:36.005342 10881 net.cpp:67] Creating Layer relu2_1
I1111 10:05:36.005350 10881 net.cpp:394] relu2_1 <- conv2_1
I1111 10:05:36.005357 10881 net.cpp:345] relu2_1 -> conv2_1 (in-place)
I1111 10:05:36.005362 10881 net.cpp:96] Setting up relu2_1
I1111 10:05:36.005368 10881 net.cpp:103] Top shape: 10 128 112 112 (16056320)
I1111 10:05:36.005373 10881 layer_factory.hpp:78] Creating layer conv2_2
I1111 10:05:36.005378 10881 net.cpp:67] Creating Layer conv2_2
I1111 10:05:36.005381 10881 net.cpp:394] conv2_2 <- conv2_1
I1111 10:05:36.005386 10881 net.cpp:356] conv2_2 -> conv2_2
I1111 10:05:36.005393 10881 net.cpp:96] Setting up conv2_2
I1111 10:05:36.005709 10881 net.cpp:103] Top shape: 10 128 112 112 (16056320)
I1111 10:05:36.005722 10881 layer_factory.hpp:78] Creating layer relu2_2
I1111 10:05:36.005733 10881 net.cpp:67] Creating Layer relu2_2
I1111 10:05:36.005736 10881 net.cpp:394] relu2_2 <- conv2_2
I1111 10:05:36.005741 10881 net.cpp:345] relu2_2 -> conv2_2 (in-place)
I1111 10:05:36.005748 10881 net.cpp:96] Setting up relu2_2
I1111 10:05:36.005753 10881 net.cpp:103] Top shape: 10 128 112 112 (16056320)
I1111 10:05:36.005758 10881 layer_factory.hpp:78] Creating layer pool2
I1111 10:05:36.005764 10881 net.cpp:67] Creating Layer pool2
I1111 10:05:36.005766 10881 net.cpp:394] pool2 <- conv2_2
I1111 10:05:36.005772 10881 net.cpp:356] pool2 -> pool2
I1111 10:05:36.005777 10881 net.cpp:96] Setting up pool2
I1111 10:05:36.005785 10881 net.cpp:103] Top shape: 10 128 56 56 (4014080)
I1111 10:05:36.005789 10881 layer_factory.hpp:78] Creating layer conv3_1
I1111 10:05:36.005796 10881 net.cpp:67] Creating Layer conv3_1
I1111 10:05:36.005800 10881 net.cpp:394] conv3_1 <- pool2
I1111 10:05:36.005806 10881 net.cpp:356] conv3_1 -> conv3_1
I1111 10:05:36.005812 10881 net.cpp:96] Setting up conv3_1
I1111 10:05:36.006348 10881 net.cpp:103] Top shape: 10 256 56 56 (8028160)
I1111 10:05:36.006366 10881 layer_factory.hpp:78] Creating layer relu3_1
I1111 10:05:36.006371 10881 net.cpp:67] Creating Layer relu3_1
I1111 10:05:36.006376 10881 net.cpp:394] relu3_1 <- conv3_1
I1111 10:05:36.006381 10881 net.cpp:345] relu3_1 -> conv3_1 (in-place)
I1111 10:05:36.006386 10881 net.cpp:96] Setting up relu3_1
I1111 10:05:36.006392 10881 net.cpp:103] Top shape: 10 256 56 56 (8028160)
I1111 10:05:36.006397 10881 layer_factory.hpp:78] Creating layer conv3_2
I1111 10:05:36.006403 10881 net.cpp:67] Creating Layer conv3_2
I1111 10:05:36.006407 10881 net.cpp:394] conv3_2 <- conv3_1
I1111 10:05:36.006412 10881 net.cpp:356] conv3_2 -> conv3_2
I1111 10:05:36.006419 10881 net.cpp:96] Setting up conv3_2
I1111 10:05:36.007586 10881 net.cpp:103] Top shape: 10 256 56 56 (8028160)
I1111 10:05:36.007596 10881 layer_factory.hpp:78] Creating layer relu3_2
I1111 10:05:36.007601 10881 net.cpp:67] Creating Layer relu3_2
I1111 10:05:36.007604 10881 net.cpp:394] relu3_2 <- conv3_2
I1111 10:05:36.007608 10881 net.cpp:345] relu3_2 -> conv3_2 (in-place)
I1111 10:05:36.007613 10881 net.cpp:96] Setting up relu3_2
I1111 10:05:36.007618 10881 net.cpp:103] Top shape: 10 256 56 56 (8028160)
I1111 10:05:36.007621 10881 layer_factory.hpp:78] Creating layer conv3_3
I1111 10:05:36.007627 10881 net.cpp:67] Creating Layer conv3_3
I1111 10:05:36.007630 10881 net.cpp:394] conv3_3 <- conv3_2
I1111 10:05:36.007634 10881 net.cpp:356] conv3_3 -> conv3_3
I1111 10:05:36.007638 10881 net.cpp:96] Setting up conv3_3
I1111 10:05:36.008162 10881 net.cpp:103] Top shape: 10 256 56 56 (8028160)
I1111 10:05:36.008172 10881 layer_factory.hpp:78] Creating layer relu3_3
I1111 10:05:36.008177 10881 net.cpp:67] Creating Layer relu3_3
I1111 10:05:36.008179 10881 net.cpp:394] relu3_3 <- conv3_3
I1111 10:05:36.008183 10881 net.cpp:345] relu3_3 -> conv3_3 (in-place)
I1111 10:05:36.008188 10881 net.cpp:96] Setting up relu3_3
I1111 10:05:36.008191 10881 net.cpp:103] Top shape: 10 256 56 56 (8028160)
I1111 10:05:36.008194 10881 layer_factory.hpp:78] Creating layer pool3
I1111 10:05:36.008203 10881 net.cpp:67] Creating Layer pool3
I1111 10:05:36.008205 10881 net.cpp:394] pool3 <- conv3_3
I1111 10:05:36.008209 10881 net.cpp:356] pool3 -> pool3
I1111 10:05:36.008214 10881 net.cpp:96] Setting up pool3
I1111 10:05:36.008219 10881 net.cpp:103] Top shape: 10 256 28 28 (2007040)
I1111 10:05:36.008222 10881 layer_factory.hpp:78] Creating layer conv4_1
I1111 10:05:36.008229 10881 net.cpp:67] Creating Layer conv4_1
I1111 10:05:36.008230 10881 net.cpp:394] conv4_1 <- pool3
I1111 10:05:36.008234 10881 net.cpp:356] conv4_1 -> conv4_1
I1111 10:05:36.008239 10881 net.cpp:96] Setting up conv4_1
I1111 10:05:36.009472 10881 net.cpp:103] Top shape: 10 512 28 28 (4014080)
I1111 10:05:36.009485 10881 layer_factory.hpp:78] Creating layer relu4_1
I1111 10:05:36.009491 10881 net.cpp:67] Creating Layer relu4_1
I1111 10:05:36.009495 10881 net.cpp:394] relu4_1 <- conv4_1
I1111 10:05:36.009498 10881 net.cpp:345] relu4_1 -> conv4_1 (in-place)
I1111 10:05:36.009503 10881 net.cpp:96] Setting up relu4_1
I1111 10:05:36.009507 10881 net.cpp:103] Top shape: 10 512 28 28 (4014080)
I1111 10:05:36.009510 10881 layer_factory.hpp:78] Creating layer conv4_2
I1111 10:05:36.009515 10881 net.cpp:67] Creating Layer conv4_2
I1111 10:05:36.009517 10881 net.cpp:394] conv4_2 <- conv4_1
I1111 10:05:36.009522 10881 net.cpp:356] conv4_2 -> conv4_2
I1111 10:05:36.009527 10881 net.cpp:96] Setting up conv4_2
I1111 10:05:36.011536 10881 net.cpp:103] Top shape: 10 512 28 28 (4014080)
I1111 10:05:36.011571 10881 layer_factory.hpp:78] Creating layer relu4_2
I1111 10:05:36.011579 10881 net.cpp:67] Creating Layer relu4_2
I1111 10:05:36.011585 10881 net.cpp:394] relu4_2 <- conv4_2
I1111 10:05:36.011590 10881 net.cpp:345] relu4_2 -> conv4_2 (in-place)
I1111 10:05:36.011597 10881 net.cpp:96] Setting up relu4_2
I1111 10:05:36.011603 10881 net.cpp:103] Top shape: 10 512 28 28 (4014080)
I1111 10:05:36.011606 10881 layer_factory.hpp:78] Creating layer conv4_3
I1111 10:05:36.011612 10881 net.cpp:67] Creating Layer conv4_3
I1111 10:05:36.011615 10881 net.cpp:394] conv4_3 <- conv4_2
I1111 10:05:36.011620 10881 net.cpp:356] conv4_3 -> conv4_3
I1111 10:05:36.011625 10881 net.cpp:96] Setting up conv4_3
I1111 10:05:36.013859 10881 net.cpp:103] Top shape: 10 512 28 28 (4014080)
I1111 10:05:36.013883 10881 layer_factory.hpp:78] Creating layer relu4_3
I1111 10:05:36.013890 10881 net.cpp:67] Creating Layer relu4_3
I1111 10:05:36.013895 10881 net.cpp:394] relu4_3 <- conv4_3
I1111 10:05:36.013900 10881 net.cpp:345] relu4_3 -> conv4_3 (in-place)
I1111 10:05:36.013906 10881 net.cpp:96] Setting up relu4_3
I1111 10:05:36.013911 10881 net.cpp:103] Top shape: 10 512 28 28 (4014080)
I1111 10:05:36.013914 10881 layer_factory.hpp:78] Creating layer pool4
I1111 10:05:36.013921 10881 net.cpp:67] Creating Layer pool4
I1111 10:05:36.013923 10881 net.cpp:394] pool4 <- conv4_3
I1111 10:05:36.013929 10881 net.cpp:356] pool4 -> pool4
I1111 10:05:36.013934 10881 net.cpp:96] Setting up pool4
I1111 10:05:36.013942 10881 net.cpp:103] Top shape: 10 512 14 14 (1003520)
I1111 10:05:36.013944 10881 layer_factory.hpp:78] Creating layer conv5_1
I1111 10:05:36.013949 10881 net.cpp:67] Creating Layer conv5_1
I1111 10:05:36.013952 10881 net.cpp:394] conv5_1 <- pool4
I1111 10:05:36.013957 10881 net.cpp:356] conv5_1 -> conv5_1
I1111 10:05:36.013960 10881 net.cpp:96] Setting up conv5_1
I1111 10:05:36.016361 10881 net.cpp:103] Top shape: 10 512 14 14 (1003520)
I1111 10:05:36.016391 10881 layer_factory.hpp:78] Creating layer relu5_1
I1111 10:05:36.016398 10881 net.cpp:67] Creating Layer relu5_1
I1111 10:05:36.016403 10881 net.cpp:394] relu5_1 <- conv5_1
I1111 10:05:36.016410 10881 net.cpp:345] relu5_1 -> conv5_1 (in-place)
I1111 10:05:36.016417 10881 net.cpp:96] Setting up relu5_1
I1111 10:05:36.016422 10881 net.cpp:103] Top shape: 10 512 14 14 (1003520)
I1111 10:05:36.016425 10881 layer_factory.hpp:78] Creating layer conv5_2
I1111 10:05:36.016430 10881 net.cpp:67] Creating Layer conv5_2
I1111 10:05:36.016433 10881 net.cpp:394] conv5_2 <- conv5_1
I1111 10:05:36.016438 10881 net.cpp:356] conv5_2 -> conv5_2
I1111 10:05:36.016445 10881 net.cpp:96] Setting up conv5_2
I1111 10:05:36.018424 10881 net.cpp:103] Top shape: 10 512 14 14 (1003520)
I1111 10:05:36.018452 10881 layer_factory.hpp:78] Creating layer relu5_2
I1111 10:05:36.018460 10881 net.cpp:67] Creating Layer relu5_2
I1111 10:05:36.018463 10881 net.cpp:394] relu5_2 <- conv5_2
I1111 10:05:36.018470 10881 net.cpp:345] relu5_2 -> conv5_2 (in-place)
I1111 10:05:36.018476 10881 net.cpp:96] Setting up relu5_2
I1111 10:05:36.018481 10881 net.cpp:103] Top shape: 10 512 14 14 (1003520)
I1111 10:05:36.018483 10881 layer_factory.hpp:78] Creating layer conv5_3
I1111 10:05:36.018491 10881 net.cpp:67] Creating Layer conv5_3
I1111 10:05:36.018493 10881 net.cpp:394] conv5_3 <- conv5_2
I1111 10:05:36.018497 10881 net.cpp:356] conv5_3 -> conv5_3
I1111 10:05:36.018502 10881 net.cpp:96] Setting up conv5_3
I1111 10:05:36.020766 10881 net.cpp:103] Top shape: 10 512 14 14 (1003520)
I1111 10:05:36.020794 10881 layer_factory.hpp:78] Creating layer relu5_3
I1111 10:05:36.020802 10881 net.cpp:67] Creating Layer relu5_3
I1111 10:05:36.020807 10881 net.cpp:394] relu5_3 <- conv5_3
I1111 10:05:36.020813 10881 net.cpp:345] relu5_3 -> conv5_3 (in-place)
I1111 10:05:36.020820 10881 net.cpp:96] Setting up relu5_3
I1111 10:05:36.020825 10881 net.cpp:103] Top shape: 10 512 14 14 (1003520)
I1111 10:05:36.020828 10881 layer_factory.hpp:78] Creating layer pool5
I1111 10:05:36.020834 10881 net.cpp:67] Creating Layer pool5
I1111 10:05:36.020836 10881 net.cpp:394] pool5 <- conv5_3
I1111 10:05:36.020841 10881 net.cpp:356] pool5 -> pool5
I1111 10:05:36.020846 10881 net.cpp:96] Setting up pool5
I1111 10:05:36.020853 10881 net.cpp:103] Top shape: 10 512 7 7 (250880)
I1111 10:05:36.020856 10881 layer_factory.hpp:78] Creating layer fc6
I1111 10:05:36.020867 10881 net.cpp:67] Creating Layer fc6
I1111 10:05:36.020870 10881 net.cpp:394] fc6 <- pool5
I1111 10:05:36.020875 10881 net.cpp:356] fc6 -> fc6
I1111 10:05:36.020880 10881 net.cpp:96] Setting up fc6
I1111 10:05:36.099395 10881 net.cpp:103] Top shape: 10 4096 1 1 (40960)
I1111 10:05:36.099436 10881 layer_factory.hpp:78] Creating layer relu6
I1111 10:05:36.099449 10881 net.cpp:67] Creating Layer relu6
I1111 10:05:36.099454 10881 net.cpp:394] relu6 <- fc6
I1111 10:05:36.099460 10881 net.cpp:345] relu6 -> fc6 (in-place)
I1111 10:05:36.099467 10881 net.cpp:96] Setting up relu6
I1111 10:05:36.099490 10881 net.cpp:103] Top shape: 10 4096 1 1 (40960)
I1111 10:05:36.099493 10881 layer_factory.hpp:78] Creating layer drop6
I1111 10:05:36.099506 10881 net.cpp:67] Creating Layer drop6
I1111 10:05:36.099509 10881 net.cpp:394] drop6 <- fc6
I1111 10:05:36.099514 10881 net.cpp:345] drop6 -> fc6 (in-place)
I1111 10:05:36.099519 10881 net.cpp:96] Setting up drop6
I1111 10:05:36.099522 10881 net.cpp:103] Top shape: 10 4096 1 1 (40960)
I1111 10:05:36.099525 10881 layer_factory.hpp:78] Creating layer fc7
I1111 10:05:36.099530 10881 net.cpp:67] Creating Layer fc7
I1111 10:05:36.099534 10881 net.cpp:394] fc7 <- fc6
I1111 10:05:36.099537 10881 net.cpp:356] fc7 -> fc7
I1111 10:05:36.099545 10881 net.cpp:96] Setting up fc7
I1111 10:05:36.113247 10881 net.cpp:103] Top shape: 10 4096 1 1 (40960)
I1111 10:05:36.113283 10881 layer_factory.hpp:78] Creating layer relu7
I1111 10:05:36.113292 10881 net.cpp:67] Creating Layer relu7
I1111 10:05:36.113297 10881 net.cpp:394] relu7 <- fc7
I1111 10:05:36.113306 10881 net.cpp:345] relu7 -> fc7 (in-place)
I1111 10:05:36.113312 10881 net.cpp:96] Setting up relu7
I1111 10:05:36.113327 10881 net.cpp:103] Top shape: 10 4096 1 1 (40960)
I1111 10:05:36.113329 10881 layer_factory.hpp:78] Creating layer drop7
I1111 10:05:36.113334 10881 net.cpp:67] Creating Layer drop7
I1111 10:05:36.113337 10881 net.cpp:394] drop7 <- fc7
I1111 10:05:36.113342 10881 net.cpp:345] drop7 -> fc7 (in-place)
I1111 10:05:36.113349 10881 net.cpp:96] Setting up drop7
I1111 10:05:36.113353 10881 net.cpp:103] Top shape: 10 4096 1 1 (40960)
I1111 10:05:36.113355 10881 layer_factory.hpp:78] Creating layer fc8_2
I1111 10:05:36.113360 10881 net.cpp:67] Creating Layer fc8_2
I1111 10:05:36.113363 10881 net.cpp:394] fc8_2 <- fc7
I1111 10:05:36.113368 10881 net.cpp:356] fc8_2 -> fc8_2
I1111 10:05:36.113373 10881 net.cpp:96] Setting up fc8_2
I1111 10:05:36.113391 10881 net.cpp:103] Top shape: 10 2 1 1 (20)
I1111 10:05:36.113396 10881 layer_factory.hpp:78] Creating layer prob
I1111 10:05:36.113405 10881 net.cpp:67] Creating Layer prob
I1111 10:05:36.113415 10881 net.cpp:394] prob <- fc8_2
I1111 10:05:36.113420 10881 net.cpp:356] prob -> prob
I1111 10:05:36.113423 10881 net.cpp:96] Setting up prob
I1111 10:05:36.113432 10881 net.cpp:103] Top shape: 10 2 1 1 (20)
I1111 10:05:36.113438 10881 net.cpp:172] prob does not need backward computation.
I1111 10:05:36.113441 10881 net.cpp:172] fc8_2 does not need backward computation.
I1111 10:05:36.113443 10881 net.cpp:172] drop7 does not need backward computation.
I1111 10:05:36.113445 10881 net.cpp:172] relu7 does not need backward computation.
I1111 10:05:36.113447 10881 net.cpp:172] fc7 does not need backward computation.
…
