…
I1109 12:50:00.555223   878 net.cpp:275] The NetState phase (0) differed from the phase (1) specified by a rule in layer accuracy
I1109 12:50:00.555583   878 net.cpp:39] Initializing net from parameters: 
name: "small"
layers {
  top: "data"
  top: "label"
  name: "data"
  type: IMAGE_DATA
  image_data_param {
    source: "/data/ad6813/devCaffe/caffe/data/inadcl_o/train.txt"
    batch_size: 8
    new_height: 256
    new_width: 256
  }
  include {
    phase: TRAIN
  }
  transform_param {
    mirror: true
    crop_size: 224
    mean_value: 86.752
    mean_value: 101.46
    mean_value: 104.6
  }
}
layers {
  bottom: "data"
  top: "conv1_1"
  name: "conv1_1"
  type: CONVOLUTION
  convolution_param {
    num_output: 64
    pad: 1
    kernel_size: 3
    weight_filler {
      type: "gaussian"
      std: 0.01
    }
    bias_filler {
      type: "constant"
      value: 0
    }
  }
}
layers {
  bottom: "conv1_1"
  top: "conv1_1"
  name: "relu1_1"
  type: RELU
}
layers {
  bottom: "conv1_1"
  top: "conv1_2"
  name: "conv1_2"
  type: CONVOLUTION
  convolution_param {
    num_output: 64
    pad: 1
    kernel_size: 3
    weight_filler {
      type: "gaussian"
      std: 0.01
    }
    bias_filler {
      type: "constant"
      value: 0
    }
  }
}
layers {
  bottom: "conv1_2"
  top: "conv1_2"
  name: "relu1_2"
  type: RELU
}
layers {
  bottom: "conv1_2"
  top: "pool1"
  name: "pool1"
  type: POOLING
  pooling_param {
    pool: MAX
    kernel_size: 2
    stride: 2
  }
}
layers {
  bottom: "pool1"
  top: "conv2_1"
  name: "conv2_1"
  type: CONVOLUTION
  convolution_param {
    num_output: 128
    pad: 1
    kernel_size: 3
    weight_filler {
      type: "gaussian"
      std: 0.01
    }
    bias_filler {
      type: "constant"
      value: 0
    }
  }
}
layers {
  bottom: "conv2_1"
  top: "conv2_1"
  name: "relu2_1"
  type: RELU
}
layers {
  bottom: "conv2_1"
  top: "conv2_2"
  name: "conv2_2"
  type: CONVOLUTION
  convolution_param {
    num_output: 128
    pad: 1
    kernel_size: 3
    weight_filler {
      type: "gaussian"
      std: 0.01
    }
    bias_filler {
      type: "constant"
      value: 0
    }
  }
}
layers {
  bottom: "conv2_2"
  top: "conv2_2"
  name: "relu2_2"
  type: RELU
}
layers {
  bottom: "conv2_2"
  top: "pool2"
  name: "pool2"
  type: POOLING
  pooling_param {
    pool: MAX
    kernel_size: 2
    stride: 2
  }
}
layers {
  bottom: "pool2"
  top: "conv3_1"
  name: "conv3_1"
  type: CONVOLUTION
  convolution_param {
    num_output: 256
    pad: 1
    kernel_size: 3
    weight_filler {
      type: "gaussian"
      std: 0.01
    }
    bias_filler {
      type: "constant"
      value: 0
    }
  }
}
layers {
  bottom: "conv3_1"
  top: "conv3_1"
  name: "relu3_1"
  type: RELU
}
layers {
  bottom: "conv3_1"
  top: "conv3_2"
  name: "conv3_2"
  type: CONVOLUTION
  convolution_param {
    num_output: 256
    pad: 1
    kernel_size: 3
    weight_filler {
      type: "gaussian"
      std: 0.01
    }
    bias_filler {
      type: "constant"
      value: 0
    }
  }
}
layers {
  bottom: "conv3_2"
  top: "conv3_2"
  name: "relu3_2"
  type: RELU
}
layers {
  bottom: "conv3_2"
  top: "conv3_3"
  name: "conv3_3"
  type: CONVOLUTION
  convolution_param {
    num_output: 256
    pad: 1
    kernel_size: 3
    weight_filler {
      type: "gaussian"
      std: 0.01
    }
    bias_filler {
      type: "constant"
      value: 0
    }
  }
}
layers {
  bottom: "conv3_3"
  top: "conv3_3"
  name: "relu3_3"
  type: RELU
}
layers {
  bottom: "conv3_3"
  top: "pool3"
  name: "pool3"
  type: POOLING
  pooling_param {
    pool: MAX
    kernel_size: 2
    stride: 2
  }
}
layers {
  bottom: "pool3"
  top: "conv4_1"
  name: "conv4_1"
  type: CONVOLUTION
  convolution_param {
    num_output: 512
    pad: 1
    kernel_size: 3
    weight_filler {
      type: "gaussian"
      std: 0.01
    }
    bias_filler {
      type: "constant"
      value: 0
    }
  }
}
layers {
  bottom: "conv4_1"
  top: "conv4_1"
  name: "relu4_1"
  type: RELU
}
layers {
  bottom: "conv4_1"
  top: "conv4_2"
  name: "conv4_2"
  type: CONVOLUTION
  convolution_param {
    num_output: 512
    pad: 1
    kernel_size: 3
    weight_filler {
      type: "gaussian"
      std: 0.01
    }
    bias_filler {
      type: "constant"
      value: 0
    }
  }
}
layers {
  bottom: "conv4_2"
  top: "conv4_2"
  name: "relu4_2"
  type: RELU
}
layers {
  bottom: "conv4_2"
  top: "conv4_3"
  name: "conv4_3"
  type: CONVOLUTION
  convolution_param {
    num_output: 512
    pad: 1
    kernel_size: 3
    weight_filler {
      type: "gaussian"
      std: 0.01
    }
    bias_filler {
      type: "constant"
      value: 0
    }
  }
}
layers {
  bottom: "conv4_3"
  top: "conv4_3"
  name: "relu4_3"
  type: RELU
}
layers {
  bottom: "conv4_3"
  top: "pool4"
  name: "pool4"
  type: POOLING
  pooling_param {
    pool: MAX
    kernel_size: 2
    stride: 2
  }
}
layers {
  bottom: "pool4"
  top: "conv5_1"
  name: "conv5_1"
  type: CONVOLUTION
  convolution_param {
    num_output: 512
    pad: 1
    kernel_size: 3
    weight_filler {
      type: "gaussian"
      std: 0.01
    }
    bias_filler {
      type: "constant"
      value: 0
    }
  }
}
layers {
  bottom: "conv5_1"
  top: "conv5_1"
  name: "relu5_1"
  type: RELU
}
layers {
  bottom: "conv5_1"
  top: "conv5_2"
  name: "conv5_2"
  type: CONVOLUTION
  convolution_param {
    num_output: 512
    pad: 1
    kernel_size: 3
    weight_filler {
      type: "gaussian"
      std: 0.01
    }
    bias_filler {
      type: "constant"
      value: 0
    }
  }
}
layers {
  bottom: "conv5_2"
  top: "conv5_2"
  name: "relu5_2"
  type: RELU
}
layers {
  bottom: "conv5_2"
  top: "conv5_3"
  name: "conv5_3"
  type: CONVOLUTION
  convolution_param {
    num_output: 512
    pad: 1
    kernel_size: 3
    weight_filler {
      type: "gaussian"
      std: 0.01
    }
    bias_filler {
      type: "constant"
      value: 0
    }
  }
}
layers {
  bottom: "conv5_3"
  top: "conv5_3"
  name: "relu5_3"
  type: RELU
}
layers {
  bottom: "conv5_3"
  top: "pool5"
  name: "pool5"
  type: POOLING
  pooling_param {
    pool: MAX
    kernel_size: 2
    stride: 2
  }
}
layers {
  bottom: "pool5"
  top: "fc6"
  name: "fc6"
  type: INNER_PRODUCT
  inner_product_param {
    num_output: 4096
    weight_filler {
      type: "gaussian"
      std: 0.01
    }
    bias_filler {
      type: "constant"
      value: 0
    }
  }
}
layers {
  bottom: "fc6"
  top: "fc6"
  name: "relu6"
  type: RELU
}
layers {
  bottom: "fc6"
  top: "fc6"
  name: "drop6"
  type: DROPOUT
  dropout_param {
    dropout_ratio: 0.5
  }
}
layers {
  bottom: "fc6"
  top: "fc7"
  name: "fc7"
  type: INNER_PRODUCT
  inner_product_param {
    num_output: 4096
    weight_filler {
      type: "gaussian"
      std: 0.01
    }
    bias_filler {
      type: "constant"
      value: 0
    }
  }
}
layers {
  bottom: "fc7"
  top: "fc7"
  name: "relu7"
  type: RELU
}
layers {
  bottom: "fc7"
  top: "fc7"
  name: "drop7"
  type: DROPOUT
  dropout_param {
    dropout_ratio: 0.5
  }
}
layers {
  bottom: "fc7"
  top: "fc8_2"
  name: "fc8_2"
  type: INNER_PRODUCT
  inner_product_param {
    num_output: 2
    weight_filler {
      type: "gaussian"
      std: 0.01
    }
    bias_filler {
      type: "constant"
      value: 0
    }
  }
}
layers {
  bottom: "fc8_2"
  bottom: "label"
  name: "loss"
  type: SOFTMAX_LOSS
}
state {
  phase: TRAIN
}
I1109 12:50:00.555794   878 layer_factory.hpp:78] Creating layer data
I1109 12:50:00.555824   878 net.cpp:67] Creating Layer data
I1109 12:50:00.555835   878 net.cpp:356] data -> data
I1109 12:50:00.555857   878 net.cpp:356] data -> label
I1109 12:50:00.555878   878 net.cpp:96] Setting up data
I1109 12:50:00.555889   878 image_data_layer.cpp:34] Opening file /data/ad6813/devCaffe/caffe/data/inadcl_o/train.txt
I1109 12:50:00.569327   878 image_data_layer.cpp:49] A total of 20637 images.
I1109 12:50:00.580026   878 image_data_layer.cpp:78] output data size: 8,3,224,224
I1109 12:50:00.581948   878 net.cpp:103] Top shape: 8 3 224 224 (1204224)
I1109 12:50:00.581969   878 net.cpp:103] Top shape: 8 1 1 1 (8)
I1109 12:50:00.581979   878 layer_factory.hpp:78] Creating layer conv1_1
I1109 12:50:00.581997   878 net.cpp:67] Creating Layer conv1_1
I1109 12:50:00.582005   878 net.cpp:394] conv1_1 <- data
I1109 12:50:00.582049   878 net.cpp:356] conv1_1 -> conv1_1
I1109 12:50:00.582069   878 net.cpp:96] Setting up conv1_1
I1109 12:50:00.611404   878 net.cpp:103] Top shape: 8 64 224 224 (25690112)
I1109 12:50:00.611454   878 layer_factory.hpp:78] Creating layer relu1_1
I1109 12:50:00.611474   878 net.cpp:67] Creating Layer relu1_1
I1109 12:50:00.611481   878 net.cpp:394] relu1_1 <- conv1_1
I1109 12:50:00.611491   878 net.cpp:345] relu1_1 -> conv1_1 (in-place)
I1109 12:50:00.611505   878 net.cpp:96] Setting up relu1_1
I1109 12:50:00.611521   878 net.cpp:103] Top shape: 8 64 224 224 (25690112)
I1109 12:50:00.611527   878 layer_factory.hpp:78] Creating layer conv1_2
I1109 12:50:00.611541   878 net.cpp:67] Creating Layer conv1_2
I1109 12:50:00.611556   878 net.cpp:394] conv1_2 <- conv1_1
I1109 12:50:00.611565   878 net.cpp:356] conv1_2 -> conv1_2
I1109 12:50:00.611575   878 net.cpp:96] Setting up conv1_2
I1109 12:50:00.613652   878 net.cpp:103] Top shape: 8 64 224 224 (25690112)
I1109 12:50:00.613678   878 layer_factory.hpp:78] Creating layer relu1_2
I1109 12:50:00.613689   878 net.cpp:67] Creating Layer relu1_2
I1109 12:50:00.613695   878 net.cpp:394] relu1_2 <- conv1_2
I1109 12:50:00.613703   878 net.cpp:345] relu1_2 -> conv1_2 (in-place)
I1109 12:50:00.613711   878 net.cpp:96] Setting up relu1_2
I1109 12:50:00.613723   878 net.cpp:103] Top shape: 8 64 224 224 (25690112)
I1109 12:50:00.613729   878 layer_factory.hpp:78] Creating layer pool1
I1109 12:50:00.613744   878 net.cpp:67] Creating Layer pool1
I1109 12:50:00.613751   878 net.cpp:394] pool1 <- conv1_2
I1109 12:50:00.613759   878 net.cpp:356] pool1 -> pool1
I1109 12:50:00.613770   878 net.cpp:96] Setting up pool1
I1109 12:50:00.613795   878 net.cpp:103] Top shape: 8 64 112 112 (6422528)
I1109 12:50:00.613803   878 layer_factory.hpp:78] Creating layer conv2_1
I1109 12:50:00.613816   878 net.cpp:67] Creating Layer conv2_1
I1109 12:50:00.613822   878 net.cpp:394] conv2_1 <- pool1
I1109 12:50:00.613831   878 net.cpp:356] conv2_1 -> conv2_1
I1109 12:50:00.613840   878 net.cpp:96] Setting up conv2_1
I1109 12:50:00.617579   878 net.cpp:103] Top shape: 8 128 112 112 (12845056)
I1109 12:50:00.617609   878 layer_factory.hpp:78] Creating layer relu2_1
I1109 12:50:00.617619   878 net.cpp:67] Creating Layer relu2_1
I1109 12:50:00.617624   878 net.cpp:394] relu2_1 <- conv2_1
I1109 12:50:00.617632   878 net.cpp:345] relu2_1 -> conv2_1 (in-place)
I1109 12:50:00.617641   878 net.cpp:96] Setting up relu2_1
I1109 12:50:00.617650   878 net.cpp:103] Top shape: 8 128 112 112 (12845056)
I1109 12:50:00.617657   878 layer_factory.hpp:78] Creating layer conv2_2
I1109 12:50:00.617671   878 net.cpp:67] Creating Layer conv2_2
I1109 12:50:00.617676   878 net.cpp:394] conv2_2 <- conv2_1
I1109 12:50:00.617686   878 net.cpp:356] conv2_2 -> conv2_2
I1109 12:50:00.617694   878 net.cpp:96] Setting up conv2_2
I1109 12:50:00.625033   878 net.cpp:103] Top shape: 8 128 112 112 (12845056)
I1109 12:50:00.625061   878 layer_factory.hpp:78] Creating layer relu2_2
I1109 12:50:00.625072   878 net.cpp:67] Creating Layer relu2_2
I1109 12:50:00.625077   878 net.cpp:394] relu2_2 <- conv2_2
I1109 12:50:00.625085   878 net.cpp:345] relu2_2 -> conv2_2 (in-place)
I1109 12:50:00.625094   878 net.cpp:96] Setting up relu2_2
I1109 12:50:00.625104   878 net.cpp:103] Top shape: 8 128 112 112 (12845056)
I1109 12:50:00.625110   878 layer_factory.hpp:78] Creating layer pool2
I1109 12:50:00.625145   878 net.cpp:67] Creating Layer pool2
I1109 12:50:00.625154   878 net.cpp:394] pool2 <- conv2_2
I1109 12:50:00.625166   878 net.cpp:356] pool2 -> pool2
I1109 12:50:00.625176   878 net.cpp:96] Setting up pool2
I1109 12:50:00.625190   878 net.cpp:103] Top shape: 8 128 56 56 (3211264)
I1109 12:50:00.625195   878 layer_factory.hpp:78] Creating layer conv3_1
I1109 12:50:00.625206   878 net.cpp:67] Creating Layer conv3_1
I1109 12:50:00.625212   878 net.cpp:394] conv3_1 <- pool2
I1109 12:50:00.625221   878 net.cpp:356] conv3_1 -> conv3_1
I1109 12:50:00.625232   878 net.cpp:96] Setting up conv3_1
I1109 12:50:00.639660   878 net.cpp:103] Top shape: 8 256 56 56 (6422528)
I1109 12:50:00.639696   878 layer_factory.hpp:78] Creating layer relu3_1
I1109 12:50:00.639708   878 net.cpp:67] Creating Layer relu3_1
I1109 12:50:00.639714   878 net.cpp:394] relu3_1 <- conv3_1
I1109 12:50:00.639724   878 net.cpp:345] relu3_1 -> conv3_1 (in-place)
I1109 12:50:00.639734   878 net.cpp:96] Setting up relu3_1
I1109 12:50:00.639744   878 net.cpp:103] Top shape: 8 256 56 56 (6422528)
I1109 12:50:00.639750   878 layer_factory.hpp:78] Creating layer conv3_2
I1109 12:50:00.639758   878 net.cpp:67] Creating Layer conv3_2
I1109 12:50:00.639763   878 net.cpp:394] conv3_2 <- conv3_1
I1109 12:50:00.639775   878 net.cpp:356] conv3_2 -> conv3_2
I1109 12:50:00.639786   878 net.cpp:96] Setting up conv3_2
I1109 12:50:00.668728   878 net.cpp:103] Top shape: 8 256 56 56 (6422528)
I1109 12:50:00.668764   878 layer_factory.hpp:78] Creating layer relu3_2
I1109 12:50:00.668781   878 net.cpp:67] Creating Layer relu3_2
I1109 12:50:00.668788   878 net.cpp:394] relu3_2 <- conv3_2
I1109 12:50:00.668798   878 net.cpp:345] relu3_2 -> conv3_2 (in-place)
I1109 12:50:00.668809   878 net.cpp:96] Setting up relu3_2
I1109 12:50:00.668819   878 net.cpp:103] Top shape: 8 256 56 56 (6422528)
I1109 12:50:00.668825   878 layer_factory.hpp:78] Creating layer conv3_3
I1109 12:50:00.668838   878 net.cpp:67] Creating Layer conv3_3
I1109 12:50:00.668844   878 net.cpp:394] conv3_3 <- conv3_2
I1109 12:50:00.668853   878 net.cpp:356] conv3_3 -> conv3_3
I1109 12:50:00.668862   878 net.cpp:96] Setting up conv3_3
I1109 12:50:00.697818   878 net.cpp:103] Top shape: 8 256 56 56 (6422528)
I1109 12:50:00.697854   878 layer_factory.hpp:78] Creating layer relu3_3
I1109 12:50:00.697870   878 net.cpp:67] Creating Layer relu3_3
I1109 12:50:00.697877   878 net.cpp:394] relu3_3 <- conv3_3
I1109 12:50:00.697888   878 net.cpp:345] relu3_3 -> conv3_3 (in-place)
I1109 12:50:00.697897   878 net.cpp:96] Setting up relu3_3
I1109 12:50:00.697908   878 net.cpp:103] Top shape: 8 256 56 56 (6422528)
I1109 12:50:00.697914   878 layer_factory.hpp:78] Creating layer pool3
I1109 12:50:00.697926   878 net.cpp:67] Creating Layer pool3
I1109 12:50:00.697932   878 net.cpp:394] pool3 <- conv3_3
I1109 12:50:00.697940   878 net.cpp:356] pool3 -> pool3
I1109 12:50:00.697949   878 net.cpp:96] Setting up pool3
I1109 12:50:00.697962   878 net.cpp:103] Top shape: 8 256 28 28 (1605632)
I1109 12:50:00.697968   878 layer_factory.hpp:78] Creating layer conv4_1
I1109 12:50:00.697979   878 net.cpp:67] Creating Layer conv4_1
I1109 12:50:00.697985   878 net.cpp:394] conv4_1 <- pool3
I1109 12:50:00.697994   878 net.cpp:356] conv4_1 -> conv4_1
I1109 12:50:00.698004   878 net.cpp:96] Setting up conv4_1
I1109 12:50:00.754784   878 net.cpp:103] Top shape: 8 512 28 28 (3211264)
I1109 12:50:00.754812   878 layer_factory.hpp:78] Creating layer relu4_1
I1109 12:50:00.754822   878 net.cpp:67] Creating Layer relu4_1
I1109 12:50:00.754827   878 net.cpp:394] relu4_1 <- conv4_1
I1109 12:50:00.754837   878 net.cpp:345] relu4_1 -> conv4_1 (in-place)
I1109 12:50:00.754845   878 net.cpp:96] Setting up relu4_1
I1109 12:50:00.754855   878 net.cpp:103] Top shape: 8 512 28 28 (3211264)
I1109 12:50:00.754861   878 layer_factory.hpp:78] Creating layer conv4_2
I1109 12:50:00.754873   878 net.cpp:67] Creating Layer conv4_2
I1109 12:50:00.754879   878 net.cpp:394] conv4_2 <- conv4_1
I1109 12:50:00.754889   878 net.cpp:356] conv4_2 -> conv4_2
I1109 12:50:00.754899   878 net.cpp:96] Setting up conv4_2
I1109 12:50:00.867835   878 net.cpp:103] Top shape: 8 512 28 28 (3211264)
I1109 12:50:00.867882   878 layer_factory.hpp:78] Creating layer relu4_2
I1109 12:50:00.867898   878 net.cpp:67] Creating Layer relu4_2
I1109 12:50:00.867907   878 net.cpp:394] relu4_2 <- conv4_2
I1109 12:50:00.867916   878 net.cpp:345] relu4_2 -> conv4_2 (in-place)
I1109 12:50:00.867928   878 net.cpp:96] Setting up relu4_2
I1109 12:50:00.867938   878 net.cpp:103] Top shape: 8 512 28 28 (3211264)
I1109 12:50:00.867944   878 layer_factory.hpp:78] Creating layer conv4_3
I1109 12:50:00.867956   878 net.cpp:67] Creating Layer conv4_3
I1109 12:50:00.867962   878 net.cpp:394] conv4_3 <- conv4_2
I1109 12:50:00.867970   878 net.cpp:356] conv4_3 -> conv4_3
I1109 12:50:00.867980   878 net.cpp:96] Setting up conv4_3
I1109 12:50:00.981326   878 net.cpp:103] Top shape: 8 512 28 28 (3211264)
I1109 12:50:00.981369   878 layer_factory.hpp:78] Creating layer relu4_3
I1109 12:50:00.981382   878 net.cpp:67] Creating Layer relu4_3
I1109 12:50:00.981389   878 net.cpp:394] relu4_3 <- conv4_3
I1109 12:50:00.981403   878 net.cpp:345] relu4_3 -> conv4_3 (in-place)
I1109 12:50:00.981415   878 net.cpp:96] Setting up relu4_3
I1109 12:50:00.981426   878 net.cpp:103] Top shape: 8 512 28 28 (3211264)
I1109 12:50:00.981432   878 layer_factory.hpp:78] Creating layer pool4
I1109 12:50:00.981441   878 net.cpp:67] Creating Layer pool4
I1109 12:50:00.981447   878 net.cpp:394] pool4 <- conv4_3
I1109 12:50:00.981456   878 net.cpp:356] pool4 -> pool4
I1109 12:50:00.981466   878 net.cpp:96] Setting up pool4
I1109 12:50:00.981478   878 net.cpp:103] Top shape: 8 512 14 14 (802816)
I1109 12:50:00.981484   878 layer_factory.hpp:78] Creating layer conv5_1
I1109 12:50:00.981498   878 net.cpp:67] Creating Layer conv5_1
I1109 12:50:00.981503   878 net.cpp:394] conv5_1 <- pool4
I1109 12:50:00.981518   878 net.cpp:356] conv5_1 -> conv5_1
I1109 12:50:00.981533   878 net.cpp:96] Setting up conv5_1
I1109 12:50:01.094698   878 net.cpp:103] Top shape: 8 512 14 14 (802816)
I1109 12:50:01.094741   878 layer_factory.hpp:78] Creating layer relu5_1
I1109 12:50:01.094755   878 net.cpp:67] Creating Layer relu5_1
I1109 12:50:01.094763   878 net.cpp:394] relu5_1 <- conv5_1
I1109 12:50:01.094782   878 net.cpp:345] relu5_1 -> conv5_1 (in-place)
I1109 12:50:01.094795   878 net.cpp:96] Setting up relu5_1
I1109 12:50:01.094805   878 net.cpp:103] Top shape: 8 512 14 14 (802816)
I1109 12:50:01.094812   878 layer_factory.hpp:78] Creating layer conv5_2
I1109 12:50:01.094822   878 net.cpp:67] Creating Layer conv5_2
I1109 12:50:01.094828   878 net.cpp:394] conv5_2 <- conv5_1
I1109 12:50:01.094840   878 net.cpp:356] conv5_2 -> conv5_2
I1109 12:50:01.094851   878 net.cpp:96] Setting up conv5_2
I1109 12:50:01.208222   878 net.cpp:103] Top shape: 8 512 14 14 (802816)
I1109 12:50:01.208266   878 layer_factory.hpp:78] Creating layer relu5_2
I1109 12:50:01.208279   878 net.cpp:67] Creating Layer relu5_2
I1109 12:50:01.208287   878 net.cpp:394] relu5_2 <- conv5_2
I1109 12:50:01.208297   878 net.cpp:345] relu5_2 -> conv5_2 (in-place)
I1109 12:50:01.208307   878 net.cpp:96] Setting up relu5_2
I1109 12:50:01.208318   878 net.cpp:103] Top shape: 8 512 14 14 (802816)
I1109 12:50:01.208324   878 layer_factory.hpp:78] Creating layer conv5_3
I1109 12:50:01.208336   878 net.cpp:67] Creating Layer conv5_3
I1109 12:50:01.208343   878 net.cpp:394] conv5_3 <- conv5_2
I1109 12:50:01.208351   878 net.cpp:356] conv5_3 -> conv5_3
I1109 12:50:01.208361   878 net.cpp:96] Setting up conv5_3
I1109 12:50:01.321156   878 net.cpp:103] Top shape: 8 512 14 14 (802816)
I1109 12:50:01.321200   878 layer_factory.hpp:78] Creating layer relu5_3
I1109 12:50:01.321214   878 net.cpp:67] Creating Layer relu5_3
I1109 12:50:01.321221   878 net.cpp:394] relu5_3 <- conv5_3
I1109 12:50:01.321234   878 net.cpp:345] relu5_3 -> conv5_3 (in-place)
I1109 12:50:01.321245   878 net.cpp:96] Setting up relu5_3
I1109 12:50:01.321257   878 net.cpp:103] Top shape: 8 512 14 14 (802816)
I1109 12:50:01.321264   878 layer_factory.hpp:78] Creating layer pool5
I1109 12:50:01.321287   878 net.cpp:67] Creating Layer pool5
I1109 12:50:01.321295   878 net.cpp:394] pool5 <- conv5_3
I1109 12:50:01.321303   878 net.cpp:356] pool5 -> pool5
I1109 12:50:01.321313   878 net.cpp:96] Setting up pool5
I1109 12:50:01.321329   878 net.cpp:103] Top shape: 8 512 7 7 (200704)
I1109 12:50:01.321336   878 layer_factory.hpp:78] Creating layer fc6
I1109 12:50:01.321354   878 net.cpp:67] Creating Layer fc6
I1109 12:50:01.321360   878 net.cpp:394] fc6 <- pool5
I1109 12:50:01.321372   878 net.cpp:356] fc6 -> fc6
I1109 12:50:01.321382   878 net.cpp:96] Setting up fc6
I1109 12:50:06.211477   878 net.cpp:103] Top shape: 8 4096 1 1 (32768)
I1109 12:50:06.211521   878 layer_factory.hpp:78] Creating layer relu6
I1109 12:50:06.211534   878 net.cpp:67] Creating Layer relu6
I1109 12:50:06.211541   878 net.cpp:394] relu6 <- fc6
I1109 12:50:06.211555   878 net.cpp:345] relu6 -> fc6 (in-place)
I1109 12:50:06.211567   878 net.cpp:96] Setting up relu6
I1109 12:50:06.211587   878 net.cpp:103] Top shape: 8 4096 1 1 (32768)
I1109 12:50:06.211594   878 layer_factory.hpp:78] Creating layer drop6
I1109 12:50:06.211607   878 net.cpp:67] Creating Layer drop6
I1109 12:50:06.211612   878 net.cpp:394] drop6 <- fc6
I1109 12:50:06.211621   878 net.cpp:345] drop6 -> fc6 (in-place)
I1109 12:50:06.211628   878 net.cpp:96] Setting up drop6
I1109 12:50:06.211637   878 net.cpp:103] Top shape: 8 4096 1 1 (32768)
I1109 12:50:06.211643   878 layer_factory.hpp:78] Creating layer fc7
I1109 12:50:06.211654   878 net.cpp:67] Creating Layer fc7
I1109 12:50:06.211660   878 net.cpp:394] fc7 <- fc6
I1109 12:50:06.211669   878 net.cpp:356] fc7 -> fc7
I1109 12:50:06.211680   878 net.cpp:96] Setting up fc7
I1109 12:50:07.012435   878 net.cpp:103] Top shape: 8 4096 1 1 (32768)
I1109 12:50:07.012486   878 layer_factory.hpp:78] Creating layer relu7
I1109 12:50:07.012500   878 net.cpp:67] Creating Layer relu7
I1109 12:50:07.012507   878 net.cpp:394] relu7 <- fc7
I1109 12:50:07.012518   878 net.cpp:345] relu7 -> fc7 (in-place)
I1109 12:50:07.012528   878 net.cpp:96] Setting up relu7
I1109 12:50:07.012549   878 net.cpp:103] Top shape: 8 4096 1 1 (32768)
I1109 12:50:07.012555   878 layer_factory.hpp:78] Creating layer drop7
I1109 12:50:07.012563   878 net.cpp:67] Creating Layer drop7
I1109 12:50:07.012569   878 net.cpp:394] drop7 <- fc7
I1109 12:50:07.012579   878 net.cpp:345] drop7 -> fc7 (in-place)
I1109 12:50:07.012588   878 net.cpp:96] Setting up drop7
I1109 12:50:07.012594   878 net.cpp:103] Top shape: 8 4096 1 1 (32768)
I1109 12:50:07.012600   878 layer_factory.hpp:78] Creating layer fc8_2
I1109 12:50:07.012610   878 net.cpp:67] Creating Layer fc8_2
I1109 12:50:07.012615   878 net.cpp:394] fc8_2 <- fc7
I1109 12:50:07.012627   878 net.cpp:356] fc8_2 -> fc8_2
I1109 12:50:07.012637   878 net.cpp:96] Setting up fc8_2
I1109 12:50:07.013051   878 net.cpp:103] Top shape: 8 2 1 1 (16)
I1109 12:50:07.013067   878 layer_factory.hpp:78] Creating layer loss
I1109 12:50:07.013083   878 net.cpp:67] Creating Layer loss
I1109 12:50:07.013090   878 net.cpp:394] loss <- fc8_2
I1109 12:50:07.013098   878 net.cpp:394] loss <- label
I1109 12:50:07.013109   878 net.cpp:356] loss -> (automatic)
I1109 12:50:07.013118   878 net.cpp:96] Setting up loss
I1109 12:50:07.013146   878 net.cpp:103] Top shape: 1 1 1 1 (1)
I1109 12:50:07.013154   878 net.cpp:109]     with loss weight 1
I1109 12:50:07.013196   878 net.cpp:170] loss needs backward computation.
I1109 12:50:07.013202   878 net.cpp:170] fc8_2 needs backward computation.
I1109 12:50:07.013208   878 net.cpp:170] drop7 needs backward computation.
I1109 12:50:07.013213   878 net.cpp:170] relu7 needs backward computation.
I1109 12:50:07.013218   878 net.cpp:170] fc7 needs backward computation.
…
I1109 12:50:07.015043   878 net.cpp:275] The NetState phase (1) differed from the phase (0) specified by a rule in layer data
I1109 12:50:07.015427   878 net.cpp:39] Initializing net from parameters: 
name: "small"
layers {
  top: "data"
  top: "label"
  name: "data"
  type: IMAGE_DATA
  image_data_param {
    source: "/data/ad6813/devCaffe/caffe/data/inadcl_o/val.txt"
    batch_size: 8
    new_height: 256
    new_width: 256
  }
  include {
    phase: TEST
  }
  transform_param {
    mirror: true
    crop_size: 224
    mean_value: 86.752
    mean_value: 101.46
    mean_value: 104.6
  }
}
layers {
  bottom: "data"
  top: "conv1_1"
  name: "conv1_1"
  type: CONVOLUTION
  convolution_param {
    num_output: 64
    pad: 1
    kernel_size: 3
    weight_filler {
      type: "gaussian"
      std: 0.01
    }
    bias_filler {
      type: "constant"
      value: 0
    }
  }
}
layers {
  bottom: "conv1_1"
  top: "conv1_1"
  name: "relu1_1"
  type: RELU
}
layers {
  bottom: "conv1_1"
  top: "conv1_2"
  name: "conv1_2"
  type: CONVOLUTION
  convolution_param {
    num_output: 64
    pad: 1
    kernel_size: 3
    weight_filler {
      type: "gaussian"
      std: 0.01
    }
    bias_filler {
      type: "constant"
      value: 0
    }
  }
}
layers {
  bottom: "conv1_2"
  top: "conv1_2"
  name: "relu1_2"
  type: RELU
}
layers {
  bottom: "conv1_2"
  top: "pool1"
  name: "pool1"
  type: POOLING
  pooling_param {
    pool: MAX
    kernel_size: 2
    stride: 2
  }
}
layers {
  bottom: "pool1"
  top: "conv2_1"
  name: "conv2_1"
  type: CONVOLUTION
  convolution_param {
    num_output: 128
    pad: 1
    kernel_size: 3
    weight_filler {
      type: "gaussian"
      std: 0.01
    }
    bias_filler {
      type: "constant"
      value: 0
    }
  }
}
layers {
  bottom: "conv2_1"
  top: "conv2_1"
  name: "relu2_1"
  type: RELU
}
layers {
  bottom: "conv2_1"
  top: "conv2_2"
  name: "conv2_2"
  type: CONVOLUTION
  convolution_param {
    num_output: 128
    pad: 1
    kernel_size: 3
    weight_filler {
      type: "gaussian"
      std: 0.01
    }
    bias_filler {
      type: "constant"
      value: 0
    }
  }
}
layers {
  bottom: "conv2_2"
  top: "conv2_2"
  name: "relu2_2"
  type: RELU
}
layers {
  bottom: "conv2_2"
  top: "pool2"
  name: "pool2"
  type: POOLING
  pooling_param {
    pool: MAX
    kernel_size: 2
    stride: 2
  }
}
layers {
  bottom: "pool2"
  top: "conv3_1"
  name: "conv3_1"
  type: CONVOLUTION
  convolution_param {
    num_output: 256
    pad: 1
    kernel_size: 3
    weight_filler {
      type: "gaussian"
      std: 0.01
    }
    bias_filler {
      type: "constant"
      value: 0
    }
  }
}
layers {
  bottom: "conv3_1"
  top: "conv3_1"
  name: "relu3_1"
  type: RELU
}
layers {
  bottom: "conv3_1"
  top: "conv3_2"
  name: "conv3_2"
  type: CONVOLUTION
  convolution_param {
    num_output: 256
    pad: 1
    kernel_size: 3
    weight_filler {
      type: "gaussian"
      std: 0.01
    }
    bias_filler {
      type: "constant"
      value: 0
    }
  }
}
layers {
  bottom: "conv3_2"
  top: "conv3_2"
  name: "relu3_2"
  type: RELU
}
layers {
  bottom: "conv3_2"
  top: "conv3_3"
  name: "conv3_3"
  type: CONVOLUTION
  convolution_param {
    num_output: 256
    pad: 1
    kernel_size: 3
    weight_filler {
      type: "gaussian"
      std: 0.01
    }
    bias_filler {
      type: "constant"
      value: 0
    }
  }
}
layers {
  bottom: "conv3_3"
  top: "conv3_3"
  name: "relu3_3"
  type: RELU
}
layers {
  bottom: "conv3_3"
  top: "pool3"
  name: "pool3"
  type: POOLING
  pooling_param {
    pool: MAX
    kernel_size: 2
    stride: 2
  }
}
layers {
  bottom: "pool3"
  top: "conv4_1"
  name: "conv4_1"
  type: CONVOLUTION
  convolution_param {
    num_output: 512
    pad: 1
    kernel_size: 3
    weight_filler {
      type: "gaussian"
      std: 0.01
    }
    bias_filler {
      type: "constant"
      value: 0
    }
  }
}
layers {
  bottom: "conv4_1"
  top: "conv4_1"
  name: "relu4_1"
  type: RELU
}
layers {
  bottom: "conv4_1"
  top: "conv4_2"
  name: "conv4_2"
  type: CONVOLUTION
  convolution_param {
    num_output: 512
    pad: 1
    kernel_size: 3
    weight_filler {
      type: "gaussian"
      std: 0.01
    }
    bias_filler {
      type: "constant"
      value: 0
    }
  }
}
layers {
  bottom: "conv4_2"
  top: "conv4_2"
  name: "relu4_2"
  type: RELU
}
layers {
  bottom: "conv4_2"
  top: "conv4_3"
  name: "conv4_3"
  type: CONVOLUTION
  convolution_param {
    num_output: 512
    pad: 1
    kernel_size: 3
    weight_filler {
      type: "gaussian"
      std: 0.01
    }
    bias_filler {
      type: "constant"
      value: 0
    }
  }
}
layers {
  bottom: "conv4_3"
  top: "conv4_3"
  name: "relu4_3"
  type: RELU
}
layers {
  bottom: "conv4_3"
  top: "pool4"
  name: "pool4"
  type: POOLING
  pooling_param {
    pool: MAX
    kernel_size: 2
    stride: 2
  }
}
layers {
  bottom: "pool4"
  top: "conv5_1"
  name: "conv5_1"
  type: CONVOLUTION
  convolution_param {
    num_output: 512
    pad: 1
    kernel_size: 3
    weight_filler {
      type: "gaussian"
      std: 0.01
    }
    bias_filler {
      type: "constant"
      value: 0
    }
  }
}
layers {
  bottom: "conv5_1"
  top: "conv5_1"
  name: "relu5_1"
  type: RELU
}
layers {
  bottom: "conv5_1"
  top: "conv5_2"
  name: "conv5_2"
  type: CONVOLUTION
  convolution_param {
    num_output: 512
    pad: 1
    kernel_size: 3
    weight_filler {
      type: "gaussian"
      std: 0.01
    }
    bias_filler {
      type: "constant"
      value: 0
    }
  }
}
layers {
  bottom: "conv5_2"
  top: "conv5_2"
  name: "relu5_2"
  type: RELU
}
layers {
  bottom: "conv5_2"
  top: "conv5_3"
  name: "conv5_3"
  type: CONVOLUTION
  convolution_param {
    num_output: 512
    pad: 1
    kernel_size: 3
    weight_filler {
      type: "gaussian"
      std: 0.01
    }
    bias_filler {
      type: "constant"
      value: 0
    }
  }
}
layers {
  bottom: "conv5_3"
  top: "conv5_3"
  name: "relu5_3"
  type: RELU
}
layers {
  bottom: "conv5_3"
  top: "pool5"
  name: "pool5"
  type: POOLING
  pooling_param {
    pool: MAX
    kernel_size: 2
    stride: 2
  }
}
layers {
  bottom: "pool5"
  top: "fc6"
  name: "fc6"
  type: INNER_PRODUCT
  inner_product_param {
    num_output: 4096
    weight_filler {
      type: "gaussian"
      std: 0.01
    }
    bias_filler {
      type: "constant"
      value: 0
    }
  }
}
layers {
  bottom: "fc6"
  top: "fc6"
  name: "relu6"
  type: RELU
}
layers {
  bottom: "fc6"
  top: "fc6"
  name: "drop6"
  type: DROPOUT
  dropout_param {
    dropout_ratio: 0.5
  }
}
layers {
  bottom: "fc6"
  top: "fc7"
  name: "fc7"
  type: INNER_PRODUCT
  inner_product_param {
    num_output: 4096
    weight_filler {
      type: "gaussian"
      std: 0.01
    }
    bias_filler {
      type: "constant"
      value: 0
    }
  }
}
layers {
  bottom: "fc7"
  top: "fc7"
  name: "relu7"
  type: RELU
}
layers {
  bottom: "fc7"
  top: "fc7"
  name: "drop7"
  type: DROPOUT
  dropout_param {
    dropout_ratio: 0.5
  }
}
layers {
  bottom: "fc7"
  top: "fc8_2"
  name: "fc8_2"
  type: INNER_PRODUCT
  inner_product_param {
    num_output: 2
    weight_filler {
      type: "gaussian"
      std: 0.01
    }
    bias_filler {
      type: "constant"
      value: 0
    }
  }
}
layers {
  bottom: "fc8_2"
  bottom: "label"
  name: "loss"
  type: SOFTMAX_LOSS
}
layers {
  bottom: "fc8_2"
  bottom: "label"
  top: "accuracy"
  name: "accuracy"
  type: PER_CLASS_ACCURACY
  include {
    phase: TEST
  }
}
state {
  phase: TEST
}
I1109 12:50:07.015663   878 layer_factory.hpp:78] Creating layer data
I1109 12:50:07.015682   878 net.cpp:67] Creating Layer data
I1109 12:50:07.015691   878 net.cpp:356] data -> data
I1109 12:50:07.015702   878 net.cpp:356] data -> label
I1109 12:50:07.015713   878 net.cpp:96] Setting up data
I1109 12:50:07.015719   878 image_data_layer.cpp:34] Opening file /data/ad6813/devCaffe/caffe/data/inadcl_o/val.txt
I1109 12:50:07.015964   878 image_data_layer.cpp:49] A total of 315 images.
I1109 12:50:07.030625   878 image_data_layer.cpp:78] output data size: 8,3,224,224
I1109 12:50:07.032480   878 net.cpp:103] Top shape: 8 3 224 224 (1204224)
I1109 12:50:07.032502   878 net.cpp:103] Top shape: 8 1 1 1 (8)
I1109 12:50:07.032510   878 layer_factory.hpp:78] Creating layer label_data_1_split
I1109 12:50:07.032528   878 net.cpp:67] Creating Layer label_data_1_split
I1109 12:50:07.032536   878 net.cpp:394] label_data_1_split <- label
I1109 12:50:07.032547   878 net.cpp:356] label_data_1_split -> label_data_1_split_0
I1109 12:50:07.032562   878 net.cpp:356] label_data_1_split -> label_data_1_split_1
I1109 12:50:07.032572   878 net.cpp:96] Setting up label_data_1_split
I1109 12:50:07.032582   878 net.cpp:103] Top shape: 8 1 1 1 (8)
I1109 12:50:07.032588   878 net.cpp:103] Top shape: 8 1 1 1 (8)
I1109 12:50:07.032593   878 layer_factory.hpp:78] Creating layer conv1_1
I1109 12:50:07.032604   878 net.cpp:67] Creating Layer conv1_1
I1109 12:50:07.032610   878 net.cpp:394] conv1_1 <- data
I1109 12:50:07.032619   878 net.cpp:356] conv1_1 -> conv1_1
I1109 12:50:07.032629   878 net.cpp:96] Setting up conv1_1
I1109 12:50:07.032918   878 net.cpp:103] Top shape: 8 64 224 224 (25690112)
I1109 12:50:07.032946   878 layer_factory.hpp:78] Creating layer relu1_1
I1109 12:50:07.032956   878 net.cpp:67] Creating Layer relu1_1
I1109 12:50:07.032961   878 net.cpp:394] relu1_1 <- conv1_1
I1109 12:50:07.032970   878 net.cpp:345] relu1_1 -> conv1_1 (in-place)
I1109 12:50:07.032979   878 net.cpp:96] Setting up relu1_1
I1109 12:50:07.032989   878 net.cpp:103] Top shape: 8 64 224 224 (25690112)
I1109 12:50:07.033009   878 layer_factory.hpp:78] Creating layer conv1_2
I1109 12:50:07.033018   878 net.cpp:67] Creating Layer conv1_2
I1109 12:50:07.033023   878 net.cpp:394] conv1_2 <- conv1_1
I1109 12:50:07.033032   878 net.cpp:356] conv1_2 -> conv1_2
I1109 12:50:07.033042   878 net.cpp:96] Setting up conv1_2
I1109 12:50:07.034960   878 net.cpp:103] Top shape: 8 64 224 224 (25690112)
I1109 12:50:07.034986   878 layer_factory.hpp:78] Creating layer relu1_2
I1109 12:50:07.034996   878 net.cpp:67] Creating Layer relu1_2
I1109 12:50:07.035001   878 net.cpp:394] relu1_2 <- conv1_2
I1109 12:50:07.035011   878 net.cpp:345] relu1_2 -> conv1_2 (in-place)
I1109 12:50:07.035018   878 net.cpp:96] Setting up relu1_2
I1109 12:50:07.035028   878 net.cpp:103] Top shape: 8 64 224 224 (25690112)
I1109 12:50:07.035034   878 layer_factory.hpp:78] Creating layer pool1
I1109 12:50:07.035043   878 net.cpp:67] Creating Layer pool1
I1109 12:50:07.035049   878 net.cpp:394] pool1 <- conv1_2
I1109 12:50:07.035058   878 net.cpp:356] pool1 -> pool1
I1109 12:50:07.035065   878 net.cpp:96] Setting up pool1
I1109 12:50:07.035078   878 net.cpp:103] Top shape: 8 64 112 112 (6422528)
I1109 12:50:07.035084   878 layer_factory.hpp:78] Creating layer conv2_1
I1109 12:50:07.035092   878 net.cpp:67] Creating Layer conv2_1
I1109 12:50:07.035099   878 net.cpp:394] conv2_1 <- pool1
I1109 12:50:07.035106   878 net.cpp:356] conv2_1 -> conv2_1
I1109 12:50:07.035115   878 net.cpp:96] Setting up conv2_1
I1109 12:50:07.038961   878 net.cpp:103] Top shape: 8 128 112 112 (12845056)
I1109 12:50:07.038987   878 layer_factory.hpp:78] Creating layer relu2_1
I1109 12:50:07.038998   878 net.cpp:67] Creating Layer relu2_1
I1109 12:50:07.039005   878 net.cpp:394] relu2_1 <- conv2_1
I1109 12:50:07.039013   878 net.cpp:345] relu2_1 -> conv2_1 (in-place)
I1109 12:50:07.039022   878 net.cpp:96] Setting up relu2_1
I1109 12:50:07.039032   878 net.cpp:103] Top shape: 8 128 112 112 (12845056)
I1109 12:50:07.039038   878 layer_factory.hpp:78] Creating layer conv2_2
I1109 12:50:07.039047   878 net.cpp:67] Creating Layer conv2_2
I1109 12:50:07.039052   878 net.cpp:394] conv2_2 <- conv2_1
I1109 12:50:07.039062   878 net.cpp:356] conv2_2 -> conv2_2
I1109 12:50:07.039072   878 net.cpp:96] Setting up conv2_2
I1109 12:50:07.046190   878 net.cpp:103] Top shape: 8 128 112 112 (12845056)
I1109 12:50:07.046213   878 layer_factory.hpp:78] Creating layer relu2_2
I1109 12:50:07.046223   878 net.cpp:67] Creating Layer relu2_2
I1109 12:50:07.046229   878 net.cpp:394] relu2_2 <- conv2_2
I1109 12:50:07.046237   878 net.cpp:345] relu2_2 -> conv2_2 (in-place)
I1109 12:50:07.046247   878 net.cpp:96] Setting up relu2_2
I1109 12:50:07.046257   878 net.cpp:103] Top shape: 8 128 112 112 (12845056)
I1109 12:50:07.046262   878 layer_factory.hpp:78] Creating layer pool2
I1109 12:50:07.046270   878 net.cpp:67] Creating Layer pool2
I1109 12:50:07.046275   878 net.cpp:394] pool2 <- conv2_2
I1109 12:50:07.046284   878 net.cpp:356] pool2 -> pool2
I1109 12:50:07.046293   878 net.cpp:96] Setting up pool2
I1109 12:50:07.046303   878 net.cpp:103] Top shape: 8 128 56 56 (3211264)
I1109 12:50:07.046309   878 layer_factory.hpp:78] Creating layer conv3_1
I1109 12:50:07.046319   878 net.cpp:67] Creating Layer conv3_1
I1109 12:50:07.046324   878 net.cpp:394] conv3_1 <- pool2
I1109 12:50:07.046332   878 net.cpp:356] conv3_1 -> conv3_1
I1109 12:50:07.046341   878 net.cpp:96] Setting up conv3_1
I1109 12:50:07.060487   878 net.cpp:103] Top shape: 8 256 56 56 (6422528)
I1109 12:50:07.060519   878 layer_factory.hpp:78] Creating layer relu3_1
I1109 12:50:07.060530   878 net.cpp:67] Creating Layer relu3_1
I1109 12:50:07.060536   878 net.cpp:394] relu3_1 <- conv3_1
I1109 12:50:07.060545   878 net.cpp:345] relu3_1 -> conv3_1 (in-place)
I1109 12:50:07.060555   878 net.cpp:96] Setting up relu3_1
I1109 12:50:07.060564   878 net.cpp:103] Top shape: 8 256 56 56 (6422528)
I1109 12:50:07.060570   878 layer_factory.hpp:78] Creating layer conv3_2
I1109 12:50:07.060580   878 net.cpp:67] Creating Layer conv3_2
I1109 12:50:07.060585   878 net.cpp:394] conv3_2 <- conv3_1
I1109 12:50:07.060609   878 net.cpp:356] conv3_2 -> conv3_2
I1109 12:50:07.060619   878 net.cpp:96] Setting up conv3_2
I1109 12:50:07.089376   878 net.cpp:103] Top shape: 8 256 56 56 (6422528)
I1109 12:50:07.089412   878 layer_factory.hpp:78] Creating layer relu3_2
I1109 12:50:07.089428   878 net.cpp:67] Creating Layer relu3_2
I1109 12:50:07.089436   878 net.cpp:394] relu3_2 <- conv3_2
I1109 12:50:07.089445   878 net.cpp:345] relu3_2 -> conv3_2 (in-place)
I1109 12:50:07.089457   878 net.cpp:96] Setting up relu3_2
I1109 12:50:07.089467   878 net.cpp:103] Top shape: 8 256 56 56 (6422528)
I1109 12:50:07.089473   878 layer_factory.hpp:78] Creating layer conv3_3
I1109 12:50:07.089488   878 net.cpp:67] Creating Layer conv3_3
I1109 12:50:07.089494   878 net.cpp:394] conv3_3 <- conv3_2
I1109 12:50:07.089504   878 net.cpp:356] conv3_3 -> conv3_3
I1109 12:50:07.089514   878 net.cpp:96] Setting up conv3_3
I1109 12:50:07.118510   878 net.cpp:103] Top shape: 8 256 56 56 (6422528)
I1109 12:50:07.118543   878 layer_factory.hpp:78] Creating layer relu3_3
I1109 12:50:07.118556   878 net.cpp:67] Creating Layer relu3_3
I1109 12:50:07.118562   878 net.cpp:394] relu3_3 <- conv3_3
I1109 12:50:07.118572   878 net.cpp:345] relu3_3 -> conv3_3 (in-place)
I1109 12:50:07.118583   878 net.cpp:96] Setting up relu3_3
I1109 12:50:07.118593   878 net.cpp:103] Top shape: 8 256 56 56 (6422528)
I1109 12:50:07.118600   878 layer_factory.hpp:78] Creating layer pool3
I1109 12:50:07.118613   878 net.cpp:67] Creating Layer pool3
I1109 12:50:07.118618   878 net.cpp:394] pool3 <- conv3_3
I1109 12:50:07.118628   878 net.cpp:356] pool3 -> pool3
I1109 12:50:07.118636   878 net.cpp:96] Setting up pool3
I1109 12:50:07.118649   878 net.cpp:103] Top shape: 8 256 28 28 (1605632)
I1109 12:50:07.118655   878 layer_factory.hpp:78] Creating layer conv4_1
I1109 12:50:07.118667   878 net.cpp:67] Creating Layer conv4_1
I1109 12:50:07.118674   878 net.cpp:394] conv4_1 <- pool3
I1109 12:50:07.118682   878 net.cpp:356] conv4_1 -> conv4_1
I1109 12:50:07.118692   878 net.cpp:96] Setting up conv4_1
I1109 12:50:07.175922   878 net.cpp:103] Top shape: 8 512 28 28 (3211264)
I1109 12:50:07.175961   878 layer_factory.hpp:78] Creating layer relu4_1
I1109 12:50:07.175973   878 net.cpp:67] Creating Layer relu4_1
I1109 12:50:07.175981   878 net.cpp:394] relu4_1 <- conv4_1
I1109 12:50:07.175992   878 net.cpp:345] relu4_1 -> conv4_1 (in-place)
I1109 12:50:07.176002   878 net.cpp:96] Setting up relu4_1
I1109 12:50:07.176012   878 net.cpp:103] Top shape: 8 512 28 28 (3211264)
I1109 12:50:07.176019   878 layer_factory.hpp:78] Creating layer conv4_2
I1109 12:50:07.176033   878 net.cpp:67] Creating Layer conv4_2
I1109 12:50:07.176038   878 net.cpp:394] conv4_2 <- conv4_1
I1109 12:50:07.176048   878 net.cpp:356] conv4_2 -> conv4_2
I1109 12:50:07.176059   878 net.cpp:96] Setting up conv4_2
I1109 12:50:07.288851   878 net.cpp:103] Top shape: 8 512 28 28 (3211264)
I1109 12:50:07.288903   878 layer_factory.hpp:78] Creating layer relu4_2
I1109 12:50:07.288919   878 net.cpp:67] Creating Layer relu4_2
I1109 12:50:07.288926   878 net.cpp:394] relu4_2 <- conv4_2
I1109 12:50:07.288938   878 net.cpp:345] relu4_2 -> conv4_2 (in-place)
I1109 12:50:07.288949   878 net.cpp:96] Setting up relu4_2
I1109 12:50:07.288959   878 net.cpp:103] Top shape: 8 512 28 28 (3211264)
I1109 12:50:07.288966   878 layer_factory.hpp:78] Creating layer conv4_3
I1109 12:50:07.288979   878 net.cpp:67] Creating Layer conv4_3
I1109 12:50:07.288985   878 net.cpp:394] conv4_3 <- conv4_2
I1109 12:50:07.288993   878 net.cpp:356] conv4_3 -> conv4_3
I1109 12:50:07.289005   878 net.cpp:96] Setting up conv4_3
I1109 12:50:07.402252   878 net.cpp:103] Top shape: 8 512 28 28 (3211264)
I1109 12:50:07.402298   878 layer_factory.hpp:78] Creating layer relu4_3
I1109 12:50:07.402314   878 net.cpp:67] Creating Layer relu4_3
I1109 12:50:07.402323   878 net.cpp:394] relu4_3 <- conv4_3
I1109 12:50:07.402331   878 net.cpp:345] relu4_3 -> conv4_3 (in-place)
I1109 12:50:07.402343   878 net.cpp:96] Setting up relu4_3
I1109 12:50:07.402354   878 net.cpp:103] Top shape: 8 512 28 28 (3211264)
I1109 12:50:07.402375   878 layer_factory.hpp:78] Creating layer pool4
I1109 12:50:07.402387   878 net.cpp:67] Creating Layer pool4
I1109 12:50:07.402393   878 net.cpp:394] pool4 <- conv4_3
I1109 12:50:07.402401   878 net.cpp:356] pool4 -> pool4
I1109 12:50:07.402411   878 net.cpp:96] Setting up pool4
I1109 12:50:07.402425   878 net.cpp:103] Top shape: 8 512 14 14 (802816)
I1109 12:50:07.402431   878 layer_factory.hpp:78] Creating layer conv5_1
I1109 12:50:07.402441   878 net.cpp:67] Creating Layer conv5_1
I1109 12:50:07.402446   878 net.cpp:394] conv5_1 <- pool4
I1109 12:50:07.402457   878 net.cpp:356] conv5_1 -> conv5_1
I1109 12:50:07.402467   878 net.cpp:96] Setting up conv5_1
I1109 12:50:07.515305   878 net.cpp:103] Top shape: 8 512 14 14 (802816)
I1109 12:50:07.515352   878 layer_factory.hpp:78] Creating layer relu5_1
I1109 12:50:07.515374   878 net.cpp:67] Creating Layer relu5_1
I1109 12:50:07.515383   878 net.cpp:394] relu5_1 <- conv5_1
I1109 12:50:07.515393   878 net.cpp:345] relu5_1 -> conv5_1 (in-place)
I1109 12:50:07.515406   878 net.cpp:96] Setting up relu5_1
I1109 12:50:07.515418   878 net.cpp:103] Top shape: 8 512 14 14 (802816)
I1109 12:50:07.515424   878 layer_factory.hpp:78] Creating layer conv5_2
I1109 12:50:07.515435   878 net.cpp:67] Creating Layer conv5_2
I1109 12:50:07.515441   878 net.cpp:394] conv5_2 <- conv5_1
I1109 12:50:07.515450   878 net.cpp:356] conv5_2 -> conv5_2
I1109 12:50:07.515460   878 net.cpp:96] Setting up conv5_2
I1109 12:50:07.628669   878 net.cpp:103] Top shape: 8 512 14 14 (802816)
I1109 12:50:07.628713   878 layer_factory.hpp:78] Creating layer relu5_2
I1109 12:50:07.628726   878 net.cpp:67] Creating Layer relu5_2
I1109 12:50:07.628733   878 net.cpp:394] relu5_2 <- conv5_2
I1109 12:50:07.628743   878 net.cpp:345] relu5_2 -> conv5_2 (in-place)
I1109 12:50:07.628754   878 net.cpp:96] Setting up relu5_2
I1109 12:50:07.628764   878 net.cpp:103] Top shape: 8 512 14 14 (802816)
I1109 12:50:07.628770   878 layer_factory.hpp:78] Creating layer conv5_3
I1109 12:50:07.628780   878 net.cpp:67] Creating Layer conv5_3
I1109 12:50:07.628785   878 net.cpp:394] conv5_3 <- conv5_2
I1109 12:50:07.628798   878 net.cpp:356] conv5_3 -> conv5_3
I1109 12:50:07.628808   878 net.cpp:96] Setting up conv5_3
I1109 12:50:07.742524   878 net.cpp:103] Top shape: 8 512 14 14 (802816)
I1109 12:50:07.742564   878 layer_factory.hpp:78] Creating layer relu5_3
I1109 12:50:07.742580   878 net.cpp:67] Creating Layer relu5_3
I1109 12:50:07.742588   878 net.cpp:394] relu5_3 <- conv5_3
I1109 12:50:07.742599   878 net.cpp:345] relu5_3 -> conv5_3 (in-place)
I1109 12:50:07.742611   878 net.cpp:96] Setting up relu5_3
I1109 12:50:07.742621   878 net.cpp:103] Top shape: 8 512 14 14 (802816)
I1109 12:50:07.742627   878 layer_factory.hpp:78] Creating layer pool5
I1109 12:50:07.742645   878 net.cpp:67] Creating Layer pool5
I1109 12:50:07.742650   878 net.cpp:394] pool5 <- conv5_3
I1109 12:50:07.742660   878 net.cpp:356] pool5 -> pool5
I1109 12:50:07.742668   878 net.cpp:96] Setting up pool5
I1109 12:50:07.742681   878 net.cpp:103] Top shape: 8 512 7 7 (200704)
I1109 12:50:07.742687   878 layer_factory.hpp:78] Creating layer fc6
I1109 12:50:07.742699   878 net.cpp:67] Creating Layer fc6
I1109 12:50:07.742705   878 net.cpp:394] fc6 <- pool5
I1109 12:50:07.742713   878 net.cpp:356] fc6 -> fc6
I1109 12:50:07.742722   878 net.cpp:96] Setting up fc6
I1109 12:50:12.633862   878 net.cpp:103] Top shape: 8 4096 1 1 (32768)
I1109 12:50:12.633908   878 layer_factory.hpp:78] Creating layer relu6
I1109 12:50:12.633923   878 net.cpp:67] Creating Layer relu6
I1109 12:50:12.633931   878 net.cpp:394] relu6 <- fc6
I1109 12:50:12.633942   878 net.cpp:345] relu6 -> fc6 (in-place)
I1109 12:50:12.633954   878 net.cpp:96] Setting up relu6
I1109 12:50:12.633973   878 net.cpp:103] Top shape: 8 4096 1 1 (32768)
I1109 12:50:12.633980   878 layer_factory.hpp:78] Creating layer drop6
I1109 12:50:12.633988   878 net.cpp:67] Creating Layer drop6
I1109 12:50:12.633993   878 net.cpp:394] drop6 <- fc6
I1109 12:50:12.634003   878 net.cpp:345] drop6 -> fc6 (in-place)
I1109 12:50:12.634027   878 net.cpp:96] Setting up drop6
I1109 12:50:12.634034   878 net.cpp:103] Top shape: 8 4096 1 1 (32768)
I1109 12:50:12.634040   878 layer_factory.hpp:78] Creating layer fc7
I1109 12:50:12.634049   878 net.cpp:67] Creating Layer fc7
I1109 12:50:12.634055   878 net.cpp:394] fc7 <- fc6
I1109 12:50:12.634063   878 net.cpp:356] fc7 -> fc7
I1109 12:50:12.634073   878 net.cpp:96] Setting up fc7
I1109 12:50:13.434325   878 net.cpp:103] Top shape: 8 4096 1 1 (32768)
I1109 12:50:13.434371   878 layer_factory.hpp:78] Creating layer relu7
I1109 12:50:13.434384   878 net.cpp:67] Creating Layer relu7
I1109 12:50:13.434392   878 net.cpp:394] relu7 <- fc7
I1109 12:50:13.434406   878 net.cpp:345] relu7 -> fc7 (in-place)
I1109 12:50:13.434417   878 net.cpp:96] Setting up relu7
I1109 12:50:13.434437   878 net.cpp:103] Top shape: 8 4096 1 1 (32768)
I1109 12:50:13.434443   878 layer_factory.hpp:78] Creating layer drop7
I1109 12:50:13.434453   878 net.cpp:67] Creating Layer drop7
I1109 12:50:13.434458   878 net.cpp:394] drop7 <- fc7
I1109 12:50:13.434465   878 net.cpp:345] drop7 -> fc7 (in-place)
I1109 12:50:13.434473   878 net.cpp:96] Setting up drop7
I1109 12:50:13.434479   878 net.cpp:103] Top shape: 8 4096 1 1 (32768)
I1109 12:50:13.434485   878 layer_factory.hpp:78] Creating layer fc8_2
I1109 12:50:13.434494   878 net.cpp:67] Creating Layer fc8_2
I1109 12:50:13.434499   878 net.cpp:394] fc8_2 <- fc7
I1109 12:50:13.434510   878 net.cpp:356] fc8_2 -> fc8_2
I1109 12:50:13.434521   878 net.cpp:96] Setting up fc8_2
I1109 12:50:13.434937   878 net.cpp:103] Top shape: 8 2 1 1 (16)
I1109 12:50:13.434954   878 layer_factory.hpp:78] Creating layer fc8_2_fc8_2_0_split
I1109 12:50:13.434965   878 net.cpp:67] Creating Layer fc8_2_fc8_2_0_split
I1109 12:50:13.434972   878 net.cpp:394] fc8_2_fc8_2_0_split <- fc8_2
I1109 12:50:13.434979   878 net.cpp:356] fc8_2_fc8_2_0_split -> fc8_2_fc8_2_0_split_0
I1109 12:50:13.434989   878 net.cpp:356] fc8_2_fc8_2_0_split -> fc8_2_fc8_2_0_split_1
I1109 12:50:13.434998   878 net.cpp:96] Setting up fc8_2_fc8_2_0_split
I1109 12:50:13.435005   878 net.cpp:103] Top shape: 8 2 1 1 (16)
I1109 12:50:13.435011   878 net.cpp:103] Top shape: 8 2 1 1 (16)
I1109 12:50:13.435016   878 layer_factory.hpp:78] Creating layer loss
I1109 12:50:13.435027   878 net.cpp:67] Creating Layer loss
I1109 12:50:13.435034   878 net.cpp:394] loss <- fc8_2_fc8_2_0_split_0
I1109 12:50:13.435039   878 net.cpp:394] loss <- label_data_1_split_0
I1109 12:50:13.435048   878 net.cpp:356] loss -> (automatic)
I1109 12:50:13.435055   878 net.cpp:96] Setting up loss
I1109 12:50:13.435065   878 net.cpp:103] Top shape: 1 1 1 1 (1)
I1109 12:50:13.435071   878 net.cpp:109]     with loss weight 1
I1109 12:50:13.435091   878 layer_factory.hpp:78] Creating layer accuracy
I1109 12:50:13.435107   878 net.cpp:67] Creating Layer accuracy
I1109 12:50:13.435113   878 net.cpp:394] accuracy <- fc8_2_fc8_2_0_split_1
I1109 12:50:13.435120   878 net.cpp:394] accuracy <- label_data_1_split_1
I1109 12:50:13.435128   878 net.cpp:356] accuracy -> accuracy
I1109 12:50:13.435137   878 net.cpp:96] Setting up accuracy
I1109 12:50:13.435148   878 net.cpp:103] Top shape: 1 1 1 4 (4)
I1109 12:50:13.435154   878 net.cpp:172] accuracy does not need backward computation.
I1109 12:50:13.435159   878 net.cpp:170] loss needs backward computation.
I1109 12:50:13.435165   878 net.cpp:170] fc8_2_fc8_2_0_split needs backward computation.
I1109 12:50:13.435170   878 net.cpp:170] fc8_2 needs backward computation.
I1109 12:50:13.435175   878 net.cpp:170] drop7 needs backward computation.
…
