…
I1109 17:26:05.573390 15924 net.cpp:275] The NetState phase (0) differed from the phase (1) specified by a rule in layer accuracy
I1109 17:26:05.573745 15924 net.cpp:39] Initializing net from parameters: 
name: "small"
layers {
  top: "data"
  top: "label"
  name: "data"
  type: IMAGE_DATA
  image_data_param {
    source: "/data/ad6813/devCaffe/caffe/data/inadcl_o/train.txt"
    batch_size: 8
    new_height: 256
    new_width: 256
  }
  include {
    phase: TRAIN
  }
  transform_param {
    mirror: true
    crop_size: 224
    mean_value: 86.752
    mean_value: 101.46
    mean_value: 104.6
  }
}
layers {
  bottom: "data"
  top: "conv1_1"
  name: "conv1_1"
  type: CONVOLUTION
  convolution_param {
    num_output: 64
    pad: 1
    kernel_size: 3
    weight_filler {
      type: "gaussian"
      std: 0.01
    }
    bias_filler {
      type: "constant"
      value: 0
    }
  }
}
layers {
  bottom: "conv1_1"
  top: "conv1_1"
  name: "relu1_1"
  type: RELU
}
layers {
  bottom: "conv1_1"
  top: "conv1_2"
  name: "conv1_2"
  type: CONVOLUTION
  convolution_param {
    num_output: 64
    pad: 1
    kernel_size: 3
    weight_filler {
      type: "gaussian"
      std: 0.01
    }
    bias_filler {
      type: "constant"
      value: 0
    }
  }
}
layers {
  bottom: "conv1_2"
  top: "conv1_2"
  name: "relu1_2"
  type: RELU
}
layers {
  bottom: "conv1_2"
  top: "pool1"
  name: "pool1"
  type: POOLING
  pooling_param {
    pool: MAX
    kernel_size: 2
    stride: 2
  }
}
layers {
  bottom: "pool1"
  top: "conv2_1"
  name: "conv2_1"
  type: CONVOLUTION
  convolution_param {
    num_output: 128
    pad: 1
    kernel_size: 3
    weight_filler {
      type: "gaussian"
      std: 0.01
    }
    bias_filler {
      type: "constant"
      value: 0
    }
  }
}
layers {
  bottom: "conv2_1"
  top: "conv2_1"
  name: "relu2_1"
  type: RELU
}
layers {
  bottom: "conv2_1"
  top: "conv2_2"
  name: "conv2_2"
  type: CONVOLUTION
  convolution_param {
    num_output: 128
    pad: 1
    kernel_size: 3
    weight_filler {
      type: "gaussian"
      std: 0.01
    }
    bias_filler {
      type: "constant"
      value: 0
    }
  }
}
layers {
  bottom: "conv2_2"
  top: "conv2_2"
  name: "relu2_2"
  type: RELU
}
layers {
  bottom: "conv2_2"
  top: "pool2"
  name: "pool2"
  type: POOLING
  pooling_param {
    pool: MAX
    kernel_size: 2
    stride: 2
  }
}
layers {
  bottom: "pool2"
  top: "conv3_1"
  name: "conv3_1"
  type: CONVOLUTION
  convolution_param {
    num_output: 256
    pad: 1
    kernel_size: 3
    weight_filler {
      type: "gaussian"
      std: 0.01
    }
    bias_filler {
      type: "constant"
      value: 0
    }
  }
}
layers {
  bottom: "conv3_1"
  top: "conv3_1"
  name: "relu3_1"
  type: RELU
}
layers {
  bottom: "conv3_1"
  top: "conv3_2"
  name: "conv3_2"
  type: CONVOLUTION
  convolution_param {
    num_output: 256
    pad: 1
    kernel_size: 3
    weight_filler {
      type: "gaussian"
      std: 0.01
    }
    bias_filler {
      type: "constant"
      value: 0
    }
  }
}
layers {
  bottom: "conv3_2"
  top: "conv3_2"
  name: "relu3_2"
  type: RELU
}
layers {
  bottom: "conv3_2"
  top: "conv3_3"
  name: "conv3_3"
  type: CONVOLUTION
  convolution_param {
    num_output: 256
    pad: 1
    kernel_size: 3
    weight_filler {
      type: "gaussian"
      std: 0.01
    }
    bias_filler {
      type: "constant"
      value: 0
    }
  }
}
layers {
  bottom: "conv3_3"
  top: "conv3_3"
  name: "relu3_3"
  type: RELU
}
layers {
  bottom: "conv3_3"
  top: "pool3"
  name: "pool3"
  type: POOLING
  pooling_param {
    pool: MAX
    kernel_size: 2
    stride: 2
  }
}
layers {
  bottom: "pool3"
  top: "conv4_1"
  name: "conv4_1"
  type: CONVOLUTION
  convolution_param {
    num_output: 512
    pad: 1
    kernel_size: 3
    weight_filler {
      type: "gaussian"
      std: 0.01
    }
    bias_filler {
      type: "constant"
      value: 0
    }
  }
}
layers {
  bottom: "conv4_1"
  top: "conv4_1"
  name: "relu4_1"
  type: RELU
}
layers {
  bottom: "conv4_1"
  top: "conv4_2"
  name: "conv4_2"
  type: CONVOLUTION
  convolution_param {
    num_output: 512
    pad: 1
    kernel_size: 3
    weight_filler {
      type: "gaussian"
      std: 0.01
    }
    bias_filler {
      type: "constant"
      value: 0
    }
  }
}
layers {
  bottom: "conv4_2"
  top: "conv4_2"
  name: "relu4_2"
  type: RELU
}
layers {
  bottom: "conv4_2"
  top: "conv4_3"
  name: "conv4_3"
  type: CONVOLUTION
  convolution_param {
    num_output: 512
    pad: 1
    kernel_size: 3
    weight_filler {
      type: "gaussian"
      std: 0.01
    }
    bias_filler {
      type: "constant"
      value: 0
    }
  }
}
layers {
  bottom: "conv4_3"
  top: "conv4_3"
  name: "relu4_3"
  type: RELU
}
layers {
  bottom: "conv4_3"
  top: "pool4"
  name: "pool4"
  type: POOLING
  pooling_param {
    pool: MAX
    kernel_size: 2
    stride: 2
  }
}
layers {
  bottom: "pool4"
  top: "conv5_1"
  name: "conv5_1"
  type: CONVOLUTION
  convolution_param {
    num_output: 512
    pad: 1
    kernel_size: 3
    weight_filler {
      type: "gaussian"
      std: 0.01
    }
    bias_filler {
      type: "constant"
      value: 0
    }
  }
}
layers {
  bottom: "conv5_1"
  top: "conv5_1"
  name: "relu5_1"
  type: RELU
}
layers {
  bottom: "conv5_1"
  top: "conv5_2"
  name: "conv5_2"
  type: CONVOLUTION
  convolution_param {
    num_output: 512
    pad: 1
    kernel_size: 3
    weight_filler {
      type: "gaussian"
      std: 0.01
    }
    bias_filler {
      type: "constant"
      value: 0
    }
  }
}
layers {
  bottom: "conv5_2"
  top: "conv5_2"
  name: "relu5_2"
  type: RELU
}
layers {
  bottom: "conv5_2"
  top: "conv5_3"
  name: "conv5_3"
  type: CONVOLUTION
  convolution_param {
    num_output: 512
    pad: 1
    kernel_size: 3
    weight_filler {
      type: "gaussian"
      std: 0.01
    }
    bias_filler {
      type: "constant"
      value: 0
    }
  }
}
layers {
  bottom: "conv5_3"
  top: "conv5_3"
  name: "relu5_3"
  type: RELU
}
layers {
  bottom: "conv5_3"
  top: "pool5"
  name: "pool5"
  type: POOLING
  pooling_param {
    pool: MAX
    kernel_size: 2
    stride: 2
  }
}
layers {
  bottom: "pool5"
  top: "fc6"
  name: "fc6"
  type: INNER_PRODUCT
  inner_product_param {
    num_output: 4096
    weight_filler {
      type: "gaussian"
      std: 0.01
    }
    bias_filler {
      type: "constant"
      value: 0
    }
  }
}
layers {
  bottom: "fc6"
  top: "fc6"
  name: "relu6"
  type: RELU
}
layers {
  bottom: "fc6"
  top: "fc6"
  name: "drop6"
  type: DROPOUT
  dropout_param {
    dropout_ratio: 0.5
  }
}
layers {
  bottom: "fc6"
  top: "fc7"
  name: "fc7"
  type: INNER_PRODUCT
  inner_product_param {
    num_output: 4096
    weight_filler {
      type: "gaussian"
      std: 0.01
    }
    bias_filler {
      type: "constant"
      value: 0
    }
  }
}
layers {
  bottom: "fc7"
  top: "fc7"
  name: "relu7"
  type: RELU
}
layers {
  bottom: "fc7"
  top: "fc7"
  name: "drop7"
  type: DROPOUT
  dropout_param {
    dropout_ratio: 0.5
  }
}
layers {
  bottom: "fc7"
  top: "fc8_2"
  name: "fc8_2"
  type: INNER_PRODUCT
  inner_product_param {
    num_output: 2
    weight_filler {
      type: "gaussian"
      std: 0.01
    }
    bias_filler {
      type: "constant"
      value: 0
    }
  }
}
layers {
  bottom: "fc8_2"
  bottom: "label"
  name: "loss"
  type: SOFTMAX_LOSS
}
state {
  phase: TRAIN
}
I1109 17:26:05.573953 15924 layer_factory.hpp:78] Creating layer data
I1109 17:26:05.573982 15924 net.cpp:67] Creating Layer data
I1109 17:26:05.573994 15924 net.cpp:356] data -> data
I1109 17:26:05.574017 15924 net.cpp:356] data -> label
I1109 17:26:05.574038 15924 net.cpp:96] Setting up data
I1109 17:26:05.574048 15924 image_data_layer.cpp:34] Opening file /data/ad6813/devCaffe/caffe/data/inadcl_o/train.txt
I1109 17:26:05.587332 15924 image_data_layer.cpp:49] A total of 20637 images.
I1109 17:26:05.598194 15924 image_data_layer.cpp:78] output data size: 8,3,224,224
I1109 17:26:05.600074 15924 net.cpp:103] Top shape: 8 3 224 224 (1204224)
I1109 17:26:05.600095 15924 net.cpp:103] Top shape: 8 1 1 1 (8)
I1109 17:26:05.600103 15924 layer_factory.hpp:78] Creating layer conv1_1
I1109 17:26:05.600121 15924 net.cpp:67] Creating Layer conv1_1
I1109 17:26:05.600128 15924 net.cpp:394] conv1_1 <- data
I1109 17:26:05.600170 15924 net.cpp:356] conv1_1 -> conv1_1
I1109 17:26:05.600189 15924 net.cpp:96] Setting up conv1_1
I1109 17:26:05.630879 15924 net.cpp:103] Top shape: 8 64 224 224 (25690112)
I1109 17:26:05.630930 15924 layer_factory.hpp:78] Creating layer relu1_1
I1109 17:26:05.630950 15924 net.cpp:67] Creating Layer relu1_1
I1109 17:26:05.630957 15924 net.cpp:394] relu1_1 <- conv1_1
I1109 17:26:05.630967 15924 net.cpp:345] relu1_1 -> conv1_1 (in-place)
I1109 17:26:05.630981 15924 net.cpp:96] Setting up relu1_1
I1109 17:26:05.630995 15924 net.cpp:103] Top shape: 8 64 224 224 (25690112)
I1109 17:26:05.631002 15924 layer_factory.hpp:78] Creating layer conv1_2
I1109 17:26:05.631012 15924 net.cpp:67] Creating Layer conv1_2
I1109 17:26:05.631017 15924 net.cpp:394] conv1_2 <- conv1_1
I1109 17:26:05.631026 15924 net.cpp:356] conv1_2 -> conv1_2
I1109 17:26:05.631042 15924 net.cpp:96] Setting up conv1_2
I1109 17:26:05.633088 15924 net.cpp:103] Top shape: 8 64 224 224 (25690112)
I1109 17:26:05.633113 15924 layer_factory.hpp:78] Creating layer relu1_2
I1109 17:26:05.633123 15924 net.cpp:67] Creating Layer relu1_2
I1109 17:26:05.633201 15924 net.cpp:394] relu1_2 <- conv1_2
I1109 17:26:05.633218 15924 net.cpp:345] relu1_2 -> conv1_2 (in-place)
I1109 17:26:05.633227 15924 net.cpp:96] Setting up relu1_2
I1109 17:26:05.633239 15924 net.cpp:103] Top shape: 8 64 224 224 (25690112)
I1109 17:26:05.633244 15924 layer_factory.hpp:78] Creating layer pool1
I1109 17:26:05.633256 15924 net.cpp:67] Creating Layer pool1
I1109 17:26:05.633262 15924 net.cpp:394] pool1 <- conv1_2
I1109 17:26:05.633275 15924 net.cpp:356] pool1 -> pool1
I1109 17:26:05.633290 15924 net.cpp:96] Setting up pool1
I1109 17:26:05.633316 15924 net.cpp:103] Top shape: 8 64 112 112 (6422528)
I1109 17:26:05.633327 15924 layer_factory.hpp:78] Creating layer conv2_1
I1109 17:26:05.633335 15924 net.cpp:67] Creating Layer conv2_1
I1109 17:26:05.633342 15924 net.cpp:394] conv2_1 <- pool1
I1109 17:26:05.633352 15924 net.cpp:356] conv2_1 -> conv2_1
I1109 17:26:05.633363 15924 net.cpp:96] Setting up conv2_1
I1109 17:26:05.637078 15924 net.cpp:103] Top shape: 8 128 112 112 (12845056)
I1109 17:26:05.637102 15924 layer_factory.hpp:78] Creating layer relu2_1
I1109 17:26:05.637111 15924 net.cpp:67] Creating Layer relu2_1
I1109 17:26:05.637116 15924 net.cpp:394] relu2_1 <- conv2_1
I1109 17:26:05.637125 15924 net.cpp:345] relu2_1 -> conv2_1 (in-place)
I1109 17:26:05.637145 15924 net.cpp:96] Setting up relu2_1
I1109 17:26:05.637156 15924 net.cpp:103] Top shape: 8 128 112 112 (12845056)
I1109 17:26:05.637162 15924 layer_factory.hpp:78] Creating layer conv2_2
I1109 17:26:05.637176 15924 net.cpp:67] Creating Layer conv2_2
I1109 17:26:05.637182 15924 net.cpp:394] conv2_2 <- conv2_1
I1109 17:26:05.637193 15924 net.cpp:356] conv2_2 -> conv2_2
I1109 17:26:05.637202 15924 net.cpp:96] Setting up conv2_2
I1109 17:26:05.644520 15924 net.cpp:103] Top shape: 8 128 112 112 (12845056)
I1109 17:26:05.644546 15924 layer_factory.hpp:78] Creating layer relu2_2
I1109 17:26:05.644554 15924 net.cpp:67] Creating Layer relu2_2
I1109 17:26:05.644561 15924 net.cpp:394] relu2_2 <- conv2_2
I1109 17:26:05.644574 15924 net.cpp:345] relu2_2 -> conv2_2 (in-place)
I1109 17:26:05.644583 15924 net.cpp:96] Setting up relu2_2
I1109 17:26:05.644593 15924 net.cpp:103] Top shape: 8 128 112 112 (12845056)
I1109 17:26:05.644599 15924 layer_factory.hpp:78] Creating layer pool2
I1109 17:26:05.644620 15924 net.cpp:67] Creating Layer pool2
I1109 17:26:05.644626 15924 net.cpp:394] pool2 <- conv2_2
I1109 17:26:05.644634 15924 net.cpp:356] pool2 -> pool2
I1109 17:26:05.644646 15924 net.cpp:96] Setting up pool2
I1109 17:26:05.644657 15924 net.cpp:103] Top shape: 8 128 56 56 (3211264)
I1109 17:26:05.644664 15924 layer_factory.hpp:78] Creating layer conv3_1
I1109 17:26:05.644672 15924 net.cpp:67] Creating Layer conv3_1
I1109 17:26:05.644678 15924 net.cpp:394] conv3_1 <- pool2
I1109 17:26:05.644686 15924 net.cpp:356] conv3_1 -> conv3_1
I1109 17:26:05.644697 15924 net.cpp:96] Setting up conv3_1
I1109 17:26:05.659126 15924 net.cpp:103] Top shape: 8 256 56 56 (6422528)
I1109 17:26:05.659157 15924 layer_factory.hpp:78] Creating layer relu3_1
I1109 17:26:05.659168 15924 net.cpp:67] Creating Layer relu3_1
I1109 17:26:05.659174 15924 net.cpp:394] relu3_1 <- conv3_1
I1109 17:26:05.659183 15924 net.cpp:345] relu3_1 -> conv3_1 (in-place)
I1109 17:26:05.659191 15924 net.cpp:96] Setting up relu3_1
I1109 17:26:05.659201 15924 net.cpp:103] Top shape: 8 256 56 56 (6422528)
I1109 17:26:05.659207 15924 layer_factory.hpp:78] Creating layer conv3_2
I1109 17:26:05.659222 15924 net.cpp:67] Creating Layer conv3_2
I1109 17:26:05.659229 15924 net.cpp:394] conv3_2 <- conv3_1
I1109 17:26:05.659236 15924 net.cpp:356] conv3_2 -> conv3_2
I1109 17:26:05.659246 15924 net.cpp:96] Setting up conv3_2
I1109 17:26:05.688798 15924 net.cpp:103] Top shape: 8 256 56 56 (6422528)
I1109 17:26:05.688834 15924 layer_factory.hpp:78] Creating layer relu3_2
I1109 17:26:05.688846 15924 net.cpp:67] Creating Layer relu3_2
I1109 17:26:05.688854 15924 net.cpp:394] relu3_2 <- conv3_2
I1109 17:26:05.688868 15924 net.cpp:345] relu3_2 -> conv3_2 (in-place)
I1109 17:26:05.688879 15924 net.cpp:96] Setting up relu3_2
I1109 17:26:05.688889 15924 net.cpp:103] Top shape: 8 256 56 56 (6422528)
I1109 17:26:05.688895 15924 layer_factory.hpp:78] Creating layer conv3_3
I1109 17:26:05.688905 15924 net.cpp:67] Creating Layer conv3_3
I1109 17:26:05.688910 15924 net.cpp:394] conv3_3 <- conv3_2
I1109 17:26:05.688918 15924 net.cpp:356] conv3_3 -> conv3_3
I1109 17:26:05.688928 15924 net.cpp:96] Setting up conv3_3
I1109 17:26:05.717521 15924 net.cpp:103] Top shape: 8 256 56 56 (6422528)
I1109 17:26:05.717555 15924 layer_factory.hpp:78] Creating layer relu3_3
I1109 17:26:05.717571 15924 net.cpp:67] Creating Layer relu3_3
I1109 17:26:05.717581 15924 net.cpp:394] relu3_3 <- conv3_3
I1109 17:26:05.717592 15924 net.cpp:345] relu3_3 -> conv3_3 (in-place)
I1109 17:26:05.717600 15924 net.cpp:96] Setting up relu3_3
I1109 17:26:05.717612 15924 net.cpp:103] Top shape: 8 256 56 56 (6422528)
I1109 17:26:05.717617 15924 layer_factory.hpp:78] Creating layer pool3
I1109 17:26:05.717627 15924 net.cpp:67] Creating Layer pool3
I1109 17:26:05.717633 15924 net.cpp:394] pool3 <- conv3_3
I1109 17:26:05.717640 15924 net.cpp:356] pool3 -> pool3
I1109 17:26:05.717649 15924 net.cpp:96] Setting up pool3
I1109 17:26:05.717661 15924 net.cpp:103] Top shape: 8 256 28 28 (1605632)
I1109 17:26:05.717667 15924 layer_factory.hpp:78] Creating layer conv4_1
I1109 17:26:05.717679 15924 net.cpp:67] Creating Layer conv4_1
I1109 17:26:05.717685 15924 net.cpp:394] conv4_1 <- pool3
I1109 17:26:05.717697 15924 net.cpp:356] conv4_1 -> conv4_1
I1109 17:26:05.717707 15924 net.cpp:96] Setting up conv4_1
I1109 17:26:05.774268 15924 net.cpp:103] Top shape: 8 512 28 28 (3211264)
I1109 17:26:05.774296 15924 layer_factory.hpp:78] Creating layer relu4_1
I1109 17:26:05.774308 15924 net.cpp:67] Creating Layer relu4_1
I1109 17:26:05.774315 15924 net.cpp:394] relu4_1 <- conv4_1
I1109 17:26:05.774324 15924 net.cpp:345] relu4_1 -> conv4_1 (in-place)
I1109 17:26:05.774333 15924 net.cpp:96] Setting up relu4_1
I1109 17:26:05.774343 15924 net.cpp:103] Top shape: 8 512 28 28 (3211264)
I1109 17:26:05.774351 15924 layer_factory.hpp:78] Creating layer conv4_2
I1109 17:26:05.774363 15924 net.cpp:67] Creating Layer conv4_2
I1109 17:26:05.774369 15924 net.cpp:394] conv4_2 <- conv4_1
I1109 17:26:05.774376 15924 net.cpp:356] conv4_2 -> conv4_2
I1109 17:26:05.774386 15924 net.cpp:96] Setting up conv4_2
I1109 17:26:05.887930 15924 net.cpp:103] Top shape: 8 512 28 28 (3211264)
I1109 17:26:05.887984 15924 layer_factory.hpp:78] Creating layer relu4_2
I1109 17:26:05.887997 15924 net.cpp:67] Creating Layer relu4_2
I1109 17:26:05.888005 15924 net.cpp:394] relu4_2 <- conv4_2
I1109 17:26:05.888017 15924 net.cpp:345] relu4_2 -> conv4_2 (in-place)
I1109 17:26:05.888028 15924 net.cpp:96] Setting up relu4_2
I1109 17:26:05.888038 15924 net.cpp:103] Top shape: 8 512 28 28 (3211264)
I1109 17:26:05.888046 15924 layer_factory.hpp:78] Creating layer conv4_3
I1109 17:26:05.888056 15924 net.cpp:67] Creating Layer conv4_3
I1109 17:26:05.888061 15924 net.cpp:394] conv4_3 <- conv4_2
I1109 17:26:05.888072 15924 net.cpp:356] conv4_3 -> conv4_3
I1109 17:26:05.888082 15924 net.cpp:96] Setting up conv4_3
I1109 17:26:06.001365 15924 net.cpp:103] Top shape: 8 512 28 28 (3211264)
I1109 17:26:06.001413 15924 layer_factory.hpp:78] Creating layer relu4_3
I1109 17:26:06.001427 15924 net.cpp:67] Creating Layer relu4_3
I1109 17:26:06.001435 15924 net.cpp:394] relu4_3 <- conv4_3
I1109 17:26:06.001445 15924 net.cpp:345] relu4_3 -> conv4_3 (in-place)
I1109 17:26:06.001456 15924 net.cpp:96] Setting up relu4_3
I1109 17:26:06.001466 15924 net.cpp:103] Top shape: 8 512 28 28 (3211264)
I1109 17:26:06.001472 15924 layer_factory.hpp:78] Creating layer pool4
I1109 17:26:06.001480 15924 net.cpp:67] Creating Layer pool4
I1109 17:26:06.001487 15924 net.cpp:394] pool4 <- conv4_3
I1109 17:26:06.001497 15924 net.cpp:356] pool4 -> pool4
I1109 17:26:06.001507 15924 net.cpp:96] Setting up pool4
I1109 17:26:06.001519 15924 net.cpp:103] Top shape: 8 512 14 14 (802816)
I1109 17:26:06.001526 15924 layer_factory.hpp:78] Creating layer conv5_1
I1109 17:26:06.001541 15924 net.cpp:67] Creating Layer conv5_1
I1109 17:26:06.001549 15924 net.cpp:394] conv5_1 <- pool4
I1109 17:26:06.001556 15924 net.cpp:356] conv5_1 -> conv5_1
I1109 17:26:06.001569 15924 net.cpp:96] Setting up conv5_1
I1109 17:26:06.115332 15924 net.cpp:103] Top shape: 8 512 14 14 (802816)
I1109 17:26:06.115375 15924 layer_factory.hpp:78] Creating layer relu5_1
I1109 17:26:06.115397 15924 net.cpp:67] Creating Layer relu5_1
I1109 17:26:06.115406 15924 net.cpp:394] relu5_1 <- conv5_1
I1109 17:26:06.115417 15924 net.cpp:345] relu5_1 -> conv5_1 (in-place)
I1109 17:26:06.115427 15924 net.cpp:96] Setting up relu5_1
I1109 17:26:06.115437 15924 net.cpp:103] Top shape: 8 512 14 14 (802816)
I1109 17:26:06.115444 15924 layer_factory.hpp:78] Creating layer conv5_2
I1109 17:26:06.115456 15924 net.cpp:67] Creating Layer conv5_2
I1109 17:26:06.115461 15924 net.cpp:394] conv5_2 <- conv5_1
I1109 17:26:06.115470 15924 net.cpp:356] conv5_2 -> conv5_2
I1109 17:26:06.115480 15924 net.cpp:96] Setting up conv5_2
I1109 17:26:06.228694 15924 net.cpp:103] Top shape: 8 512 14 14 (802816)
I1109 17:26:06.228739 15924 layer_factory.hpp:78] Creating layer relu5_2
I1109 17:26:06.228754 15924 net.cpp:67] Creating Layer relu5_2
I1109 17:26:06.228762 15924 net.cpp:394] relu5_2 <- conv5_2
I1109 17:26:06.228772 15924 net.cpp:345] relu5_2 -> conv5_2 (in-place)
I1109 17:26:06.228782 15924 net.cpp:96] Setting up relu5_2
I1109 17:26:06.228793 15924 net.cpp:103] Top shape: 8 512 14 14 (802816)
I1109 17:26:06.228799 15924 layer_factory.hpp:78] Creating layer conv5_3
I1109 17:26:06.228809 15924 net.cpp:67] Creating Layer conv5_3
I1109 17:26:06.228814 15924 net.cpp:394] conv5_3 <- conv5_2
I1109 17:26:06.228826 15924 net.cpp:356] conv5_3 -> conv5_3
I1109 17:26:06.228837 15924 net.cpp:96] Setting up conv5_3
I1109 17:26:06.342355 15924 net.cpp:103] Top shape: 8 512 14 14 (802816)
I1109 17:26:06.342401 15924 layer_factory.hpp:78] Creating layer relu5_3
I1109 17:26:06.342417 15924 net.cpp:67] Creating Layer relu5_3
I1109 17:26:06.342424 15924 net.cpp:394] relu5_3 <- conv5_3
I1109 17:26:06.342435 15924 net.cpp:345] relu5_3 -> conv5_3 (in-place)
I1109 17:26:06.342445 15924 net.cpp:96] Setting up relu5_3
I1109 17:26:06.342456 15924 net.cpp:103] Top shape: 8 512 14 14 (802816)
I1109 17:26:06.342463 15924 layer_factory.hpp:78] Creating layer pool5
I1109 17:26:06.342489 15924 net.cpp:67] Creating Layer pool5
I1109 17:26:06.342496 15924 net.cpp:394] pool5 <- conv5_3
I1109 17:26:06.342505 15924 net.cpp:356] pool5 -> pool5
I1109 17:26:06.342514 15924 net.cpp:96] Setting up pool5
I1109 17:26:06.342527 15924 net.cpp:103] Top shape: 8 512 7 7 (200704)
I1109 17:26:06.342535 15924 layer_factory.hpp:78] Creating layer fc6
I1109 17:26:06.342555 15924 net.cpp:67] Creating Layer fc6
I1109 17:26:06.342562 15924 net.cpp:394] fc6 <- pool5
I1109 17:26:06.342571 15924 net.cpp:356] fc6 -> fc6
I1109 17:26:06.342581 15924 net.cpp:96] Setting up fc6
I1109 17:26:11.248014 15924 net.cpp:103] Top shape: 8 4096 1 1 (32768)
I1109 17:26:11.248060 15924 layer_factory.hpp:78] Creating layer relu6
I1109 17:26:11.248072 15924 net.cpp:67] Creating Layer relu6
I1109 17:26:11.248080 15924 net.cpp:394] relu6 <- fc6
I1109 17:26:11.248090 15924 net.cpp:345] relu6 -> fc6 (in-place)
I1109 17:26:11.248101 15924 net.cpp:96] Setting up relu6
I1109 17:26:11.248121 15924 net.cpp:103] Top shape: 8 4096 1 1 (32768)
I1109 17:26:11.248128 15924 layer_factory.hpp:78] Creating layer drop6
I1109 17:26:11.248142 15924 net.cpp:67] Creating Layer drop6
I1109 17:26:11.248147 15924 net.cpp:394] drop6 <- fc6
I1109 17:26:11.248158 15924 net.cpp:345] drop6 -> fc6 (in-place)
I1109 17:26:11.248167 15924 net.cpp:96] Setting up drop6
I1109 17:26:11.248181 15924 net.cpp:103] Top shape: 8 4096 1 1 (32768)
I1109 17:26:11.248188 15924 layer_factory.hpp:78] Creating layer fc7
I1109 17:26:11.248196 15924 net.cpp:67] Creating Layer fc7
I1109 17:26:11.248203 15924 net.cpp:394] fc7 <- fc6
I1109 17:26:11.248210 15924 net.cpp:356] fc7 -> fc7
I1109 17:26:11.248220 15924 net.cpp:96] Setting up fc7
I1109 17:26:12.050838 15924 net.cpp:103] Top shape: 8 4096 1 1 (32768)
I1109 17:26:12.050884 15924 layer_factory.hpp:78] Creating layer relu7
I1109 17:26:12.050896 15924 net.cpp:67] Creating Layer relu7
I1109 17:26:12.050904 15924 net.cpp:394] relu7 <- fc7
I1109 17:26:12.050920 15924 net.cpp:345] relu7 -> fc7 (in-place)
I1109 17:26:12.050931 15924 net.cpp:96] Setting up relu7
I1109 17:26:12.050952 15924 net.cpp:103] Top shape: 8 4096 1 1 (32768)
I1109 17:26:12.050958 15924 layer_factory.hpp:78] Creating layer drop7
I1109 17:26:12.050967 15924 net.cpp:67] Creating Layer drop7
I1109 17:26:12.050972 15924 net.cpp:394] drop7 <- fc7
I1109 17:26:12.050981 15924 net.cpp:345] drop7 -> fc7 (in-place)
I1109 17:26:12.050988 15924 net.cpp:96] Setting up drop7
I1109 17:26:12.050995 15924 net.cpp:103] Top shape: 8 4096 1 1 (32768)
I1109 17:26:12.051000 15924 layer_factory.hpp:78] Creating layer fc8_2
I1109 17:26:12.051017 15924 net.cpp:67] Creating Layer fc8_2
I1109 17:26:12.051023 15924 net.cpp:394] fc8_2 <- fc7
I1109 17:26:12.051031 15924 net.cpp:356] fc8_2 -> fc8_2
I1109 17:26:12.051041 15924 net.cpp:96] Setting up fc8_2
I1109 17:26:12.051452 15924 net.cpp:103] Top shape: 8 2 1 1 (16)
I1109 17:26:12.051468 15924 layer_factory.hpp:78] Creating layer loss
I1109 17:26:12.051486 15924 net.cpp:67] Creating Layer loss
I1109 17:26:12.051492 15924 net.cpp:394] loss <- fc8_2
I1109 17:26:12.051499 15924 net.cpp:394] loss <- label
I1109 17:26:12.051512 15924 net.cpp:356] loss -> (automatic)
I1109 17:26:12.051520 15924 net.cpp:96] Setting up loss
I1109 17:26:12.051535 15924 net.cpp:103] Top shape: 1 1 1 1 (1)
I1109 17:26:12.051542 15924 net.cpp:109]     with loss weight 1
I1109 17:26:12.051583 15924 net.cpp:170] loss needs backward computation.
I1109 17:26:12.051589 15924 net.cpp:170] fc8_2 needs backward computation.
I1109 17:26:12.051594 15924 net.cpp:170] drop7 needs backward computation.
I1109 17:26:12.051599 15924 net.cpp:170] relu7 needs backward computation.
I1109 17:26:12.051602 15924 net.cpp:170] fc7 needs backward computation.
…
I1109 17:26:12.053433 15924 net.cpp:275] The NetState phase (1) differed from the phase (0) specified by a rule in layer data
I1109 17:26:12.053818 15924 net.cpp:39] Initializing net from parameters: 
name: "small"
layers {
  top: "data"
  top: "label"
  name: "data"
  type: IMAGE_DATA
  image_data_param {
    source: "/data/ad6813/devCaffe/caffe/data/inadcl_o/val.txt"
    batch_size: 8
    new_height: 256
    new_width: 256
  }
  include {
    phase: TEST
  }
  transform_param {
    mirror: true
    crop_size: 224
    mean_value: 86.752
    mean_value: 101.46
    mean_value: 104.6
  }
}
layers {
  bottom: "data"
  top: "conv1_1"
  name: "conv1_1"
  type: CONVOLUTION
  convolution_param {
    num_output: 64
    pad: 1
    kernel_size: 3
    weight_filler {
      type: "gaussian"
      std: 0.01
    }
    bias_filler {
      type: "constant"
      value: 0
    }
  }
}
layers {
  bottom: "conv1_1"
  top: "conv1_1"
  name: "relu1_1"
  type: RELU
}
layers {
  bottom: "conv1_1"
  top: "conv1_2"
  name: "conv1_2"
  type: CONVOLUTION
  convolution_param {
    num_output: 64
    pad: 1
    kernel_size: 3
    weight_filler {
      type: "gaussian"
      std: 0.01
    }
    bias_filler {
      type: "constant"
      value: 0
    }
  }
}
layers {
  bottom: "conv1_2"
  top: "conv1_2"
  name: "relu1_2"
  type: RELU
}
layers {
  bottom: "conv1_2"
  top: "pool1"
  name: "pool1"
  type: POOLING
  pooling_param {
    pool: MAX
    kernel_size: 2
    stride: 2
  }
}
layers {
  bottom: "pool1"
  top: "conv2_1"
  name: "conv2_1"
  type: CONVOLUTION
  convolution_param {
    num_output: 128
    pad: 1
    kernel_size: 3
    weight_filler {
      type: "gaussian"
      std: 0.01
    }
    bias_filler {
      type: "constant"
      value: 0
    }
  }
}
layers {
  bottom: "conv2_1"
  top: "conv2_1"
  name: "relu2_1"
  type: RELU
}
layers {
  bottom: "conv2_1"
  top: "conv2_2"
  name: "conv2_2"
  type: CONVOLUTION
  convolution_param {
    num_output: 128
    pad: 1
    kernel_size: 3
    weight_filler {
      type: "gaussian"
      std: 0.01
    }
    bias_filler {
      type: "constant"
      value: 0
    }
  }
}
layers {
  bottom: "conv2_2"
  top: "conv2_2"
  name: "relu2_2"
  type: RELU
}
layers {
  bottom: "conv2_2"
  top: "pool2"
  name: "pool2"
  type: POOLING
  pooling_param {
    pool: MAX
    kernel_size: 2
    stride: 2
  }
}
layers {
  bottom: "pool2"
  top: "conv3_1"
  name: "conv3_1"
  type: CONVOLUTION
  convolution_param {
    num_output: 256
    pad: 1
    kernel_size: 3
    weight_filler {
      type: "gaussian"
      std: 0.01
    }
    bias_filler {
      type: "constant"
      value: 0
    }
  }
}
layers {
  bottom: "conv3_1"
  top: "conv3_1"
  name: "relu3_1"
  type: RELU
}
layers {
  bottom: "conv3_1"
  top: "conv3_2"
  name: "conv3_2"
  type: CONVOLUTION
  convolution_param {
    num_output: 256
    pad: 1
    kernel_size: 3
    weight_filler {
      type: "gaussian"
      std: 0.01
    }
    bias_filler {
      type: "constant"
      value: 0
    }
  }
}
layers {
  bottom: "conv3_2"
  top: "conv3_2"
  name: "relu3_2"
  type: RELU
}
layers {
  bottom: "conv3_2"
  top: "conv3_3"
  name: "conv3_3"
  type: CONVOLUTION
  convolution_param {
    num_output: 256
    pad: 1
    kernel_size: 3
    weight_filler {
      type: "gaussian"
      std: 0.01
    }
    bias_filler {
      type: "constant"
      value: 0
    }
  }
}
layers {
  bottom: "conv3_3"
  top: "conv3_3"
  name: "relu3_3"
  type: RELU
}
layers {
  bottom: "conv3_3"
  top: "pool3"
  name: "pool3"
  type: POOLING
  pooling_param {
    pool: MAX
    kernel_size: 2
    stride: 2
  }
}
layers {
  bottom: "pool3"
  top: "conv4_1"
  name: "conv4_1"
  type: CONVOLUTION
  convolution_param {
    num_output: 512
    pad: 1
    kernel_size: 3
    weight_filler {
      type: "gaussian"
      std: 0.01
    }
    bias_filler {
      type: "constant"
      value: 0
    }
  }
}
layers {
  bottom: "conv4_1"
  top: "conv4_1"
  name: "relu4_1"
  type: RELU
}
layers {
  bottom: "conv4_1"
  top: "conv4_2"
  name: "conv4_2"
  type: CONVOLUTION
  convolution_param {
    num_output: 512
    pad: 1
    kernel_size: 3
    weight_filler {
      type: "gaussian"
      std: 0.01
    }
    bias_filler {
      type: "constant"
      value: 0
    }
  }
}
layers {
  bottom: "conv4_2"
  top: "conv4_2"
  name: "relu4_2"
  type: RELU
}
layers {
  bottom: "conv4_2"
  top: "conv4_3"
  name: "conv4_3"
  type: CONVOLUTION
  convolution_param {
    num_output: 512
    pad: 1
    kernel_size: 3
    weight_filler {
      type: "gaussian"
      std: 0.01
    }
    bias_filler {
      type: "constant"
      value: 0
    }
  }
}
layers {
  bottom: "conv4_3"
  top: "conv4_3"
  name: "relu4_3"
  type: RELU
}
layers {
  bottom: "conv4_3"
  top: "pool4"
  name: "pool4"
  type: POOLING
  pooling_param {
    pool: MAX
    kernel_size: 2
    stride: 2
  }
}
layers {
  bottom: "pool4"
  top: "conv5_1"
  name: "conv5_1"
  type: CONVOLUTION
  convolution_param {
    num_output: 512
    pad: 1
    kernel_size: 3
    weight_filler {
      type: "gaussian"
      std: 0.01
    }
    bias_filler {
      type: "constant"
      value: 0
    }
  }
}
layers {
  bottom: "conv5_1"
  top: "conv5_1"
  name: "relu5_1"
  type: RELU
}
layers {
  bottom: "conv5_1"
  top: "conv5_2"
  name: "conv5_2"
  type: CONVOLUTION
  convolution_param {
    num_output: 512
    pad: 1
    kernel_size: 3
    weight_filler {
      type: "gaussian"
      std: 0.01
    }
    bias_filler {
      type: "constant"
      value: 0
    }
  }
}
layers {
  bottom: "conv5_2"
  top: "conv5_2"
  name: "relu5_2"
  type: RELU
}
layers {
  bottom: "conv5_2"
  top: "conv5_3"
  name: "conv5_3"
  type: CONVOLUTION
  convolution_param {
    num_output: 512
    pad: 1
    kernel_size: 3
    weight_filler {
      type: "gaussian"
      std: 0.01
    }
    bias_filler {
      type: "constant"
      value: 0
    }
  }
}
layers {
  bottom: "conv5_3"
  top: "conv5_3"
  name: "relu5_3"
  type: RELU
}
layers {
  bottom: "conv5_3"
  top: "pool5"
  name: "pool5"
  type: POOLING
  pooling_param {
    pool: MAX
    kernel_size: 2
    stride: 2
  }
}
layers {
  bottom: "pool5"
  top: "fc6"
  name: "fc6"
  type: INNER_PRODUCT
  inner_product_param {
    num_output: 4096
    weight_filler {
      type: "gaussian"
      std: 0.01
    }
    bias_filler {
      type: "constant"
      value: 0
    }
  }
}
layers {
  bottom: "fc6"
  top: "fc6"
  name: "relu6"
  type: RELU
}
layers {
  bottom: "fc6"
  top: "fc6"
  name: "drop6"
  type: DROPOUT
  dropout_param {
    dropout_ratio: 0.5
  }
}
layers {
  bottom: "fc6"
  top: "fc7"
  name: "fc7"
  type: INNER_PRODUCT
  inner_product_param {
    num_output: 4096
    weight_filler {
      type: "gaussian"
      std: 0.01
    }
    bias_filler {
      type: "constant"
      value: 0
    }
  }
}
layers {
  bottom: "fc7"
  top: "fc7"
  name: "relu7"
  type: RELU
}
layers {
  bottom: "fc7"
  top: "fc7"
  name: "drop7"
  type: DROPOUT
  dropout_param {
    dropout_ratio: 0.5
  }
}
layers {
  bottom: "fc7"
  top: "fc8_2"
  name: "fc8_2"
  type: INNER_PRODUCT
  inner_product_param {
    num_output: 2
    weight_filler {
      type: "gaussian"
      std: 0.01
    }
    bias_filler {
      type: "constant"
      value: 0
    }
  }
}
layers {
  bottom: "fc8_2"
  bottom: "label"
  name: "loss"
  type: SOFTMAX_LOSS
}
layers {
  bottom: "fc8_2"
  bottom: "label"
  top: "accuracy"
  name: "accuracy"
  type: PER_CLASS_ACCURACY
  include {
    phase: TEST
  }
}
state {
  phase: TEST
}
I1109 17:26:12.054054 15924 layer_factory.hpp:78] Creating layer data
I1109 17:26:12.054071 15924 net.cpp:67] Creating Layer data
I1109 17:26:12.054080 15924 net.cpp:356] data -> data
I1109 17:26:12.054092 15924 net.cpp:356] data -> label
I1109 17:26:12.054102 15924 net.cpp:96] Setting up data
I1109 17:26:12.054110 15924 image_data_layer.cpp:34] Opening file /data/ad6813/devCaffe/caffe/data/inadcl_o/val.txt
I1109 17:26:12.054360 15924 image_data_layer.cpp:49] A total of 315 images.
E1109 17:26:12.054395 15924 io.cpp:75] Could not open or find file /data/ad6813/pipe-data/Blueboxttt/184501.jpg
I1109 17:26:12.054539 15924 image_data_layer.cpp:78] output data size: 8,1,224,224
I1109 17:26:12.055412 15924 net.cpp:103] Top shape: 8 1 224 224 (401408)
I1109 17:26:12.055424 15924 net.cpp:103] Top shape: 8 1 1 1 (8)
I1109 17:26:12.055430 15924 layer_factory.hpp:78] Creating layer label_data_1_split
I1109 17:26:12.055445 15924 net.cpp:67] Creating Layer label_data_1_split
I1109 17:26:12.055452 15924 net.cpp:394] label_data_1_split <- label
I1109 17:26:12.055460 15924 net.cpp:356] label_data_1_split -> label_data_1_split_0
I1109 17:26:12.055472 15924 net.cpp:356] label_data_1_split -> label_data_1_split_1
I1109 17:26:12.055481 15924 net.cpp:96] Setting up label_data_1_split
I1109 17:26:12.055491 15924 net.cpp:103] Top shape: 8 1 1 1 (8)
E1109 17:26:12.055493 15931 io.cpp:75] Could not open or find file /data/ad6813/pipe-data/Blueboxttt/184501.jpg
I1109 17:26:12.055496 15924 net.cpp:103] Top shape: 8 1 1 1 (8)
E1109 17:26:12.055534 15931 io.cpp:75] Could not open or find file /data/ad6813/pipe-data/Blueboxttt/184501.jpg
E1109 17:26:12.055618 15931 io.cpp:75] Could not open or find file /data/ad6813/pipe-data/Blueboxttt/184501.jpg
I1109 17:26:12.055548 15924 layer_factory.hpp:78] Creating layer conv1_1
E1109 17:26:12.055645 15931 io.cpp:75] Could not open or find file /data/ad6813/pipe-data/Blueboxttt/184501.jpg
E1109 17:26:12.055667 15931 io.cpp:75] Could not open or find file /data/ad6813/pipe-data/Blueboxttt/184501.jpg
I1109 17:26:12.055667 15924 net.cpp:67] Creating Layer conv1_1
I1109 17:26:12.055721 15924 net.cpp:394] conv1_1 <- data
E1109 17:26:12.055694 15931 io.cpp:75] Could not open or find file /data/ad6813/pipe-data/Blueboxttt/184501.jpg
I1109 17:26:12.055743 15924 net.cpp:356] conv1_1 -> conv1_1
E1109 17:26:12.055759 15931 io.cpp:75] Could not open or find file /data/ad6813/pipe-data/Blueboxttt/184501.jpg
I1109 17:26:12.055763 15924 net.cpp:96] Setting up conv1_1
E1109 17:26:12.055790 15931 io.cpp:75] Could not open or find file /data/ad6813/pipe-data/Blueboxttt/184501.jpg
I1109 17:26:12.056104 15924 net.cpp:103] Top shape: 8 64 224 224 (25690112)
I1109 17:26:12.056130 15924 layer_factory.hpp:78] Creating layer relu1_1
I1109 17:26:12.056139 15924 net.cpp:67] Creating Layer relu1_1
I1109 17:26:12.056145 15924 net.cpp:394] relu1_1 <- conv1_1
I1109 17:26:12.056154 15924 net.cpp:345] relu1_1 -> conv1_1 (in-place)
I1109 17:26:12.056164 15924 net.cpp:96] Setting up relu1_1
I1109 17:26:12.056174 15924 net.cpp:103] Top shape: 8 64 224 224 (25690112)
I1109 17:26:12.056180 15924 layer_factory.hpp:78] Creating layer conv1_2
I1109 17:26:12.056195 15924 net.cpp:67] Creating Layer conv1_2
I1109 17:26:12.056202 15924 net.cpp:394] conv1_2 <- conv1_1
I1109 17:26:12.056210 15924 net.cpp:356] conv1_2 -> conv1_2
I1109 17:26:12.056221 15924 net.cpp:96] Setting up conv1_2
I1109 17:26:12.058282 15924 net.cpp:103] Top shape: 8 64 224 224 (25690112)
I1109 17:26:12.058312 15924 layer_factory.hpp:78] Creating layer relu1_2
I1109 17:26:12.058321 15924 net.cpp:67] Creating Layer relu1_2
I1109 17:26:12.058327 15924 net.cpp:394] relu1_2 <- conv1_2
I1109 17:26:12.058336 15924 net.cpp:345] relu1_2 -> conv1_2 (in-place)
I1109 17:26:12.058344 15924 net.cpp:96] Setting up relu1_2
I1109 17:26:12.058354 15924 net.cpp:103] Top shape: 8 64 224 224 (25690112)
I1109 17:26:12.058361 15924 layer_factory.hpp:78] Creating layer pool1
I1109 17:26:12.058368 15924 net.cpp:67] Creating Layer pool1
I1109 17:26:12.058373 15924 net.cpp:394] pool1 <- conv1_2
I1109 17:26:12.058382 15924 net.cpp:356] pool1 -> pool1
I1109 17:26:12.058390 15924 net.cpp:96] Setting up pool1
I1109 17:26:12.058401 15924 net.cpp:103] Top shape: 8 64 112 112 (6422528)
I1109 17:26:12.058408 15924 layer_factory.hpp:78] Creating layer conv2_1
I1109 17:26:12.058415 15924 net.cpp:67] Creating Layer conv2_1
I1109 17:26:12.058420 15924 net.cpp:394] conv2_1 <- pool1
I1109 17:26:12.058429 15924 net.cpp:356] conv2_1 -> conv2_1
I1109 17:26:12.058439 15924 net.cpp:96] Setting up conv2_1
I1109 17:26:12.062405 15924 net.cpp:103] Top shape: 8 128 112 112 (12845056)
I1109 17:26:12.062434 15924 layer_factory.hpp:78] Creating layer relu2_1
I1109 17:26:12.062446 15924 net.cpp:67] Creating Layer relu2_1
I1109 17:26:12.062453 15924 net.cpp:394] relu2_1 <- conv2_1
I1109 17:26:12.062460 15924 net.cpp:345] relu2_1 -> conv2_1 (in-place)
I1109 17:26:12.062469 15924 net.cpp:96] Setting up relu2_1
I1109 17:26:12.062479 15924 net.cpp:103] Top shape: 8 128 112 112 (12845056)
I1109 17:26:12.062485 15924 layer_factory.hpp:78] Creating layer conv2_2
I1109 17:26:12.062494 15924 net.cpp:67] Creating Layer conv2_2
I1109 17:26:12.062499 15924 net.cpp:394] conv2_2 <- conv2_1
I1109 17:26:12.062510 15924 net.cpp:356] conv2_2 -> conv2_2
I1109 17:26:12.062521 15924 net.cpp:96] Setting up conv2_2
I1109 17:26:12.069850 15924 net.cpp:103] Top shape: 8 128 112 112 (12845056)
I1109 17:26:12.069874 15924 layer_factory.hpp:78] Creating layer relu2_2
I1109 17:26:12.069882 15924 net.cpp:67] Creating Layer relu2_2
I1109 17:26:12.069888 15924 net.cpp:394] relu2_2 <- conv2_2
I1109 17:26:12.069896 15924 net.cpp:345] relu2_2 -> conv2_2 (in-place)
I1109 17:26:12.069905 15924 net.cpp:96] Setting up relu2_2
I1109 17:26:12.069914 15924 net.cpp:103] Top shape: 8 128 112 112 (12845056)
I1109 17:26:12.069921 15924 layer_factory.hpp:78] Creating layer pool2
I1109 17:26:12.069931 15924 net.cpp:67] Creating Layer pool2
I1109 17:26:12.069936 15924 net.cpp:394] pool2 <- conv2_2
I1109 17:26:12.069946 15924 net.cpp:356] pool2 -> pool2
I1109 17:26:12.069953 15924 net.cpp:96] Setting up pool2
I1109 17:26:12.069964 15924 net.cpp:103] Top shape: 8 128 56 56 (3211264)
I1109 17:26:12.069978 15924 layer_factory.hpp:78] Creating layer conv3_1
I1109 17:26:12.069991 15924 net.cpp:67] Creating Layer conv3_1
I1109 17:26:12.069998 15924 net.cpp:394] conv3_1 <- pool2
I1109 17:26:12.070006 15924 net.cpp:356] conv3_1 -> conv3_1
I1109 17:26:12.070015 15924 net.cpp:96] Setting up conv3_1
I1109 17:26:12.084452 15924 net.cpp:103] Top shape: 8 256 56 56 (6422528)
I1109 17:26:12.084478 15924 layer_factory.hpp:78] Creating layer relu3_1
I1109 17:26:12.084491 15924 net.cpp:67] Creating Layer relu3_1
I1109 17:26:12.084497 15924 net.cpp:394] relu3_1 <- conv3_1
I1109 17:26:12.084506 15924 net.cpp:345] relu3_1 -> conv3_1 (in-place)
I1109 17:26:12.084513 15924 net.cpp:96] Setting up relu3_1
I1109 17:26:12.084523 15924 net.cpp:103] Top shape: 8 256 56 56 (6422528)
I1109 17:26:12.084529 15924 layer_factory.hpp:78] Creating layer conv3_2
I1109 17:26:12.084537 15924 net.cpp:67] Creating Layer conv3_2
I1109 17:26:12.084543 15924 net.cpp:394] conv3_2 <- conv3_1
I1109 17:26:12.084554 15924 net.cpp:356] conv3_2 -> conv3_2
I1109 17:26:12.084564 15924 net.cpp:96] Setting up conv3_2
I1109 17:26:12.113373 15924 net.cpp:103] Top shape: 8 256 56 56 (6422528)
I1109 17:26:12.113397 15924 layer_factory.hpp:78] Creating layer relu3_2
I1109 17:26:12.113406 15924 net.cpp:67] Creating Layer relu3_2
I1109 17:26:12.113412 15924 net.cpp:394] relu3_2 <- conv3_2
I1109 17:26:12.113420 15924 net.cpp:345] relu3_2 -> conv3_2 (in-place)
I1109 17:26:12.113430 15924 net.cpp:96] Setting up relu3_2
I1109 17:26:12.113440 15924 net.cpp:103] Top shape: 8 256 56 56 (6422528)
I1109 17:26:12.113445 15924 layer_factory.hpp:78] Creating layer conv3_3
I1109 17:26:12.113461 15924 net.cpp:67] Creating Layer conv3_3
I1109 17:26:12.113466 15924 net.cpp:394] conv3_3 <- conv3_2
I1109 17:26:12.113477 15924 net.cpp:356] conv3_3 -> conv3_3
I1109 17:26:12.113487 15924 net.cpp:96] Setting up conv3_3
I1109 17:26:12.142199 15924 net.cpp:103] Top shape: 8 256 56 56 (6422528)
I1109 17:26:12.142225 15924 layer_factory.hpp:78] Creating layer relu3_3
I1109 17:26:12.142235 15924 net.cpp:67] Creating Layer relu3_3
I1109 17:26:12.142241 15924 net.cpp:394] relu3_3 <- conv3_3
I1109 17:26:12.142251 15924 net.cpp:345] relu3_3 -> conv3_3 (in-place)
I1109 17:26:12.142261 15924 net.cpp:96] Setting up relu3_3
I1109 17:26:12.142271 15924 net.cpp:103] Top shape: 8 256 56 56 (6422528)
I1109 17:26:12.142277 15924 layer_factory.hpp:78] Creating layer pool3
I1109 17:26:12.142284 15924 net.cpp:67] Creating Layer pool3
I1109 17:26:12.142290 15924 net.cpp:394] pool3 <- conv3_3
I1109 17:26:12.142298 15924 net.cpp:356] pool3 -> pool3
I1109 17:26:12.142307 15924 net.cpp:96] Setting up pool3
I1109 17:26:12.142318 15924 net.cpp:103] Top shape: 8 256 28 28 (1605632)
I1109 17:26:12.142324 15924 layer_factory.hpp:78] Creating layer conv4_1
I1109 17:26:12.142335 15924 net.cpp:67] Creating Layer conv4_1
I1109 17:26:12.142341 15924 net.cpp:394] conv4_1 <- pool3
I1109 17:26:12.142349 15924 net.cpp:356] conv4_1 -> conv4_1
I1109 17:26:12.142361 15924 net.cpp:96] Setting up conv4_1
I1109 17:26:12.199409 15924 net.cpp:103] Top shape: 8 512 28 28 (3211264)
I1109 17:26:12.199442 15924 layer_factory.hpp:78] Creating layer relu4_1
I1109 17:26:12.199453 15924 net.cpp:67] Creating Layer relu4_1
I1109 17:26:12.199460 15924 net.cpp:394] relu4_1 <- conv4_1
I1109 17:26:12.199471 15924 net.cpp:345] relu4_1 -> conv4_1 (in-place)
I1109 17:26:12.199482 15924 net.cpp:96] Setting up relu4_1
I1109 17:26:12.199492 15924 net.cpp:103] Top shape: 8 512 28 28 (3211264)
I1109 17:26:12.199498 15924 layer_factory.hpp:78] Creating layer conv4_2
I1109 17:26:12.199507 15924 net.cpp:67] Creating Layer conv4_2
I1109 17:26:12.199512 15924 net.cpp:394] conv4_2 <- conv4_1
I1109 17:26:12.199522 15924 net.cpp:356] conv4_2 -> conv4_2
I1109 17:26:12.199530 15924 net.cpp:96] Setting up conv4_2
I1109 17:26:12.313244 15924 net.cpp:103] Top shape: 8 512 28 28 (3211264)
I1109 17:26:12.313297 15924 layer_factory.hpp:78] Creating layer relu4_2
I1109 17:26:12.313310 15924 net.cpp:67] Creating Layer relu4_2
I1109 17:26:12.313333 15924 net.cpp:394] relu4_2 <- conv4_2
I1109 17:26:12.313343 15924 net.cpp:345] relu4_2 -> conv4_2 (in-place)
I1109 17:26:12.313354 15924 net.cpp:96] Setting up relu4_2
I1109 17:26:12.313364 15924 net.cpp:103] Top shape: 8 512 28 28 (3211264)
I1109 17:26:12.313370 15924 layer_factory.hpp:78] Creating layer conv4_3
I1109 17:26:12.313382 15924 net.cpp:67] Creating Layer conv4_3
I1109 17:26:12.313388 15924 net.cpp:394] conv4_3 <- conv4_2
I1109 17:26:12.313396 15924 net.cpp:356] conv4_3 -> conv4_3
I1109 17:26:12.313410 15924 net.cpp:96] Setting up conv4_3
I1109 17:26:12.426808 15924 net.cpp:103] Top shape: 8 512 28 28 (3211264)
I1109 17:26:12.426854 15924 layer_factory.hpp:78] Creating layer relu4_3
I1109 17:26:12.426867 15924 net.cpp:67] Creating Layer relu4_3
I1109 17:26:12.426875 15924 net.cpp:394] relu4_3 <- conv4_3
I1109 17:26:12.426885 15924 net.cpp:345] relu4_3 -> conv4_3 (in-place)
I1109 17:26:12.426895 15924 net.cpp:96] Setting up relu4_3
I1109 17:26:12.426906 15924 net.cpp:103] Top shape: 8 512 28 28 (3211264)
I1109 17:26:12.426913 15924 layer_factory.hpp:78] Creating layer pool4
I1109 17:26:12.426924 15924 net.cpp:67] Creating Layer pool4
I1109 17:26:12.426930 15924 net.cpp:394] pool4 <- conv4_3
I1109 17:26:12.426939 15924 net.cpp:356] pool4 -> pool4
I1109 17:26:12.426949 15924 net.cpp:96] Setting up pool4
I1109 17:26:12.426961 15924 net.cpp:103] Top shape: 8 512 14 14 (802816)
I1109 17:26:12.426967 15924 layer_factory.hpp:78] Creating layer conv5_1
I1109 17:26:12.426983 15924 net.cpp:67] Creating Layer conv5_1
I1109 17:26:12.426990 15924 net.cpp:394] conv5_1 <- pool4
I1109 17:26:12.426998 15924 net.cpp:356] conv5_1 -> conv5_1
I1109 17:26:12.427007 15924 net.cpp:96] Setting up conv5_1
I1109 17:26:12.540725 15924 net.cpp:103] Top shape: 8 512 14 14 (802816)
I1109 17:26:12.540771 15924 layer_factory.hpp:78] Creating layer relu5_1
I1109 17:26:12.540783 15924 net.cpp:67] Creating Layer relu5_1
I1109 17:26:12.540791 15924 net.cpp:394] relu5_1 <- conv5_1
I1109 17:26:12.540802 15924 net.cpp:345] relu5_1 -> conv5_1 (in-place)
I1109 17:26:12.540812 15924 net.cpp:96] Setting up relu5_1
I1109 17:26:12.540822 15924 net.cpp:103] Top shape: 8 512 14 14 (802816)
I1109 17:26:12.540828 15924 layer_factory.hpp:78] Creating layer conv5_2
I1109 17:26:12.540849 15924 net.cpp:67] Creating Layer conv5_2
I1109 17:26:12.540855 15924 net.cpp:394] conv5_2 <- conv5_1
I1109 17:26:12.540866 15924 net.cpp:356] conv5_2 -> conv5_2
I1109 17:26:12.540877 15924 net.cpp:96] Setting up conv5_2
I1109 17:26:12.654324 15924 net.cpp:103] Top shape: 8 512 14 14 (802816)
I1109 17:26:12.654366 15924 layer_factory.hpp:78] Creating layer relu5_2
I1109 17:26:12.654381 15924 net.cpp:67] Creating Layer relu5_2
I1109 17:26:12.654389 15924 net.cpp:394] relu5_2 <- conv5_2
I1109 17:26:12.654399 15924 net.cpp:345] relu5_2 -> conv5_2 (in-place)
I1109 17:26:12.654410 15924 net.cpp:96] Setting up relu5_2
I1109 17:26:12.654422 15924 net.cpp:103] Top shape: 8 512 14 14 (802816)
I1109 17:26:12.654428 15924 layer_factory.hpp:78] Creating layer conv5_3
I1109 17:26:12.654439 15924 net.cpp:67] Creating Layer conv5_3
I1109 17:26:12.654445 15924 net.cpp:394] conv5_3 <- conv5_2
I1109 17:26:12.654454 15924 net.cpp:356] conv5_3 -> conv5_3
I1109 17:26:12.654464 15924 net.cpp:96] Setting up conv5_3
I1109 17:26:12.768559 15924 net.cpp:103] Top shape: 8 512 14 14 (802816)
I1109 17:26:12.768604 15924 layer_factory.hpp:78] Creating layer relu5_3
I1109 17:26:12.768620 15924 net.cpp:67] Creating Layer relu5_3
I1109 17:26:12.768627 15924 net.cpp:394] relu5_3 <- conv5_3
I1109 17:26:12.768637 15924 net.cpp:345] relu5_3 -> conv5_3 (in-place)
I1109 17:26:12.768648 15924 net.cpp:96] Setting up relu5_3
I1109 17:26:12.768659 15924 net.cpp:103] Top shape: 8 512 14 14 (802816)
I1109 17:26:12.768666 15924 layer_factory.hpp:78] Creating layer pool5
I1109 17:26:12.768685 15924 net.cpp:67] Creating Layer pool5
I1109 17:26:12.768692 15924 net.cpp:394] pool5 <- conv5_3
I1109 17:26:12.768700 15924 net.cpp:356] pool5 -> pool5
I1109 17:26:12.768709 15924 net.cpp:96] Setting up pool5
I1109 17:26:12.768738 15924 net.cpp:103] Top shape: 8 512 7 7 (200704)
I1109 17:26:12.768744 15924 layer_factory.hpp:78] Creating layer fc6
I1109 17:26:12.768756 15924 net.cpp:67] Creating Layer fc6
I1109 17:26:12.768762 15924 net.cpp:394] fc6 <- pool5
I1109 17:26:12.768771 15924 net.cpp:356] fc6 -> fc6
I1109 17:26:12.768781 15924 net.cpp:96] Setting up fc6
I1109 17:26:17.672638 15924 net.cpp:103] Top shape: 8 4096 1 1 (32768)
I1109 17:26:17.672685 15924 layer_factory.hpp:78] Creating layer relu6
I1109 17:26:17.672698 15924 net.cpp:67] Creating Layer relu6
I1109 17:26:17.672706 15924 net.cpp:394] relu6 <- fc6
I1109 17:26:17.672715 15924 net.cpp:345] relu6 -> fc6 (in-place)
I1109 17:26:17.672726 15924 net.cpp:96] Setting up relu6
I1109 17:26:17.672749 15924 net.cpp:103] Top shape: 8 4096 1 1 (32768)
I1109 17:26:17.672755 15924 layer_factory.hpp:78] Creating layer drop6
I1109 17:26:17.672762 15924 net.cpp:67] Creating Layer drop6
I1109 17:26:17.672768 15924 net.cpp:394] drop6 <- fc6
I1109 17:26:17.672780 15924 net.cpp:345] drop6 -> fc6 (in-place)
I1109 17:26:17.672788 15924 net.cpp:96] Setting up drop6
I1109 17:26:17.672794 15924 net.cpp:103] Top shape: 8 4096 1 1 (32768)
I1109 17:26:17.672801 15924 layer_factory.hpp:78] Creating layer fc7
I1109 17:26:17.672809 15924 net.cpp:67] Creating Layer fc7
I1109 17:26:17.672814 15924 net.cpp:394] fc7 <- fc6
I1109 17:26:17.672822 15924 net.cpp:356] fc7 -> fc7
I1109 17:26:17.672832 15924 net.cpp:96] Setting up fc7
I1109 17:26:18.475739 15924 net.cpp:103] Top shape: 8 4096 1 1 (32768)
I1109 17:26:18.475783 15924 layer_factory.hpp:78] Creating layer relu7
I1109 17:26:18.475796 15924 net.cpp:67] Creating Layer relu7
I1109 17:26:18.475805 15924 net.cpp:394] relu7 <- fc7
I1109 17:26:18.475814 15924 net.cpp:345] relu7 -> fc7 (in-place)
I1109 17:26:18.475826 15924 net.cpp:96] Setting up relu7
I1109 17:26:18.475846 15924 net.cpp:103] Top shape: 8 4096 1 1 (32768)
I1109 17:26:18.475852 15924 layer_factory.hpp:78] Creating layer drop7
I1109 17:26:18.475863 15924 net.cpp:67] Creating Layer drop7
I1109 17:26:18.475875 15924 net.cpp:394] drop7 <- fc7
I1109 17:26:18.475883 15924 net.cpp:345] drop7 -> fc7 (in-place)
I1109 17:26:18.475891 15924 net.cpp:96] Setting up drop7
I1109 17:26:18.475898 15924 net.cpp:103] Top shape: 8 4096 1 1 (32768)
I1109 17:26:18.475904 15924 layer_factory.hpp:78] Creating layer fc8_2
I1109 17:26:18.475916 15924 net.cpp:67] Creating Layer fc8_2
I1109 17:26:18.475921 15924 net.cpp:394] fc8_2 <- fc7
I1109 17:26:18.475930 15924 net.cpp:356] fc8_2 -> fc8_2
I1109 17:26:18.475939 15924 net.cpp:96] Setting up fc8_2
I1109 17:26:18.476352 15924 net.cpp:103] Top shape: 8 2 1 1 (16)
I1109 17:26:18.476367 15924 layer_factory.hpp:78] Creating layer fc8_2_fc8_2_0_split
I1109 17:26:18.476379 15924 net.cpp:67] Creating Layer fc8_2_fc8_2_0_split
I1109 17:26:18.476385 15924 net.cpp:394] fc8_2_fc8_2_0_split <- fc8_2
I1109 17:26:18.476393 15924 net.cpp:356] fc8_2_fc8_2_0_split -> fc8_2_fc8_2_0_split_0
I1109 17:26:18.476403 15924 net.cpp:356] fc8_2_fc8_2_0_split -> fc8_2_fc8_2_0_split_1
I1109 17:26:18.476413 15924 net.cpp:96] Setting up fc8_2_fc8_2_0_split
I1109 17:26:18.476419 15924 net.cpp:103] Top shape: 8 2 1 1 (16)
I1109 17:26:18.476425 15924 net.cpp:103] Top shape: 8 2 1 1 (16)
I1109 17:26:18.476430 15924 layer_factory.hpp:78] Creating layer loss
I1109 17:26:18.476441 15924 net.cpp:67] Creating Layer loss
I1109 17:26:18.476447 15924 net.cpp:394] loss <- fc8_2_fc8_2_0_split_0
I1109 17:26:18.476454 15924 net.cpp:394] loss <- label_data_1_split_0
I1109 17:26:18.476462 15924 net.cpp:356] loss -> (automatic)
I1109 17:26:18.476474 15924 net.cpp:96] Setting up loss
I1109 17:26:18.476483 15924 net.cpp:103] Top shape: 1 1 1 1 (1)
I1109 17:26:18.476490 15924 net.cpp:109]     with loss weight 1
I1109 17:26:18.476508 15924 layer_factory.hpp:78] Creating layer accuracy
I1109 17:26:18.476526 15924 net.cpp:67] Creating Layer accuracy
I1109 17:26:18.476532 15924 net.cpp:394] accuracy <- fc8_2_fc8_2_0_split_1
I1109 17:26:18.476538 15924 net.cpp:394] accuracy <- label_data_1_split_1
I1109 17:26:18.476547 15924 net.cpp:356] accuracy -> accuracy
I1109 17:26:18.476568 15924 net.cpp:96] Setting up accuracy
I1109 17:26:18.476588 15924 net.cpp:103] Top shape: 1 1 1 4 (4)
I1109 17:26:18.476598 15924 net.cpp:172] accuracy does not need backward computation.
I1109 17:26:18.476603 15924 net.cpp:170] loss needs backward computation.
I1109 17:26:18.476608 15924 net.cpp:170] fc8_2_fc8_2_0_split needs backward computation.
I1109 17:26:18.476613 15924 net.cpp:170] fc8_2 needs backward computation.
I1109 17:26:18.476619 15924 net.cpp:170] drop7 needs backward computation.
…
