…
I1105 13:55:01.518465 23098 net.cpp:275] The NetState phase (0) differed from the phase (1) specified by a rule in layer accuracy
I1105 13:55:01.518652 23098 net.cpp:39] Initializing net from parameters: 
name: "small"
layers {
  top: "data"
  top: "label"
  name: "data"
  type: IMAGE_DATA
  image_data_param {
    source: "/data/ad6813/devCaffe/caffe/task/clamp/clampTrain.txt"
    batch_size: 32
    new_height: 256
    new_width: 256
  }
  include {
    phase: TRAIN
  }
  transform_param {
    mirror: true
    crop_size: 224
    mean_file: "/data/ad6813/devCaffe/caffe/clampdetMeanVal"
  }
}
layers {
  bottom: "data"
  top: "conv1_1"
  name: "conv1_1"
  type: CONVOLUTION
  convolution_param {
    num_output: 64
    pad: 1
    kernel_size: 3
    weight_filler {
      type: "gaussian"
      std: 0.01
    }
    bias_filler {
      type: "constant"
      value: 0
    }
  }
}
layers {
  bottom: "conv1_1"
  top: "conv1_1"
  name: "relu1_1"
  type: RELU
}
layers {
  bottom: "conv1_1"
  top: "conv1_2"
  name: "conv1_2"
  type: CONVOLUTION
  convolution_param {
    num_output: 64
    pad: 1
    kernel_size: 3
    weight_filler {
      type: "gaussian"
      std: 0.01
    }
    bias_filler {
      type: "constant"
      value: 0
    }
  }
}
layers {
  bottom: "conv1_2"
  top: "conv1_2"
  name: "relu1_2"
  type: RELU
}
layers {
  bottom: "conv1_2"
  top: "pool1"
  name: "pool1"
  type: POOLING
  pooling_param {
    pool: MAX
    kernel_size: 2
    stride: 2
  }
}
layers {
  bottom: "pool1"
  top: "conv2_1"
  name: "conv2_1"
  type: CONVOLUTION
  convolution_param {
    num_output: 128
    pad: 1
    kernel_size: 3
    weight_filler {
      type: "gaussian"
      std: 0.01
    }
    bias_filler {
      type: "constant"
      value: 0
    }
  }
}
layers {
  bottom: "conv2_1"
  top: "conv2_1"
  name: "relu2_1"
  type: RELU
}
layers {
  bottom: "conv2_1"
  top: "conv2_2"
  name: "conv2_2"
  type: CONVOLUTION
  convolution_param {
    num_output: 128
    pad: 1
    kernel_size: 3
    weight_filler {
      type: "gaussian"
      std: 0.01
    }
    bias_filler {
      type: "constant"
      value: 0
    }
  }
}
layers {
  bottom: "conv2_2"
  top: "conv2_2"
  name: "relu2_2"
  type: RELU
}
layers {
  bottom: "conv2_2"
  top: "pool2"
  name: "pool2"
  type: POOLING
  pooling_param {
    pool: MAX
    kernel_size: 2
    stride: 2
  }
}
layers {
  bottom: "pool2"
  top: "conv3_1"
  name: "conv3_1"
  type: CONVOLUTION
  convolution_param {
    num_output: 256
    pad: 1
    kernel_size: 3
    weight_filler {
      type: "gaussian"
      std: 0.01
    }
    bias_filler {
      type: "constant"
      value: 0
    }
  }
}
layers {
  bottom: "conv3_1"
  top: "conv3_1"
  name: "relu3_1"
  type: RELU
}
layers {
  bottom: "conv3_1"
  top: "conv3_2"
  name: "conv3_2"
  type: CONVOLUTION
  convolution_param {
    num_output: 256
    pad: 1
    kernel_size: 3
    weight_filler {
      type: "gaussian"
      std: 0.01
    }
    bias_filler {
      type: "constant"
      value: 0
    }
  }
}
layers {
  bottom: "conv3_2"
  top: "conv3_2"
  name: "relu3_2"
  type: RELU
}
layers {
  bottom: "conv3_2"
  top: "conv3_3"
  name: "conv3_3"
  type: CONVOLUTION
  convolution_param {
    num_output: 256
    pad: 1
    kernel_size: 3
    weight_filler {
      type: "gaussian"
      std: 0.01
    }
    bias_filler {
      type: "constant"
      value: 0
    }
  }
}
layers {
  bottom: "conv3_3"
  top: "conv3_3"
  name: "relu3_3"
  type: RELU
}
layers {
  bottom: "conv3_3"
  top: "pool3"
  name: "pool3"
  type: POOLING
  pooling_param {
    pool: MAX
    kernel_size: 2
    stride: 2
  }
}
layers {
  bottom: "pool3"
  top: "conv4_1"
  name: "conv4_1"
  type: CONVOLUTION
  convolution_param {
    num_output: 512
    pad: 1
    kernel_size: 3
    weight_filler {
      type: "gaussian"
      std: 0.01
    }
    bias_filler {
      type: "constant"
      value: 0
    }
  }
}
layers {
  bottom: "conv4_1"
  top: "conv4_1"
  name: "relu4_1"
  type: RELU
}
layers {
  bottom: "conv4_1"
  top: "conv4_2"
  name: "conv4_2"
  type: CONVOLUTION
  convolution_param {
    num_output: 512
    pad: 1
    kernel_size: 3
    weight_filler {
      type: "gaussian"
      std: 0.01
    }
    bias_filler {
      type: "constant"
      value: 0
    }
  }
}
layers {
  bottom: "conv4_2"
  top: "conv4_2"
  name: "relu4_2"
  type: RELU
}
layers {
  bottom: "conv4_2"
  top: "conv4_3"
  name: "conv4_3"
  type: CONVOLUTION
  convolution_param {
    num_output: 512
    pad: 1
    kernel_size: 3
    weight_filler {
      type: "gaussian"
      std: 0.01
    }
    bias_filler {
      type: "constant"
      value: 0
    }
  }
}
layers {
  bottom: "conv4_3"
  top: "conv4_3"
  name: "relu4_3"
  type: RELU
}
layers {
  bottom: "conv4_3"
  top: "pool4"
  name: "pool4"
  type: POOLING
  pooling_param {
    pool: MAX
    kernel_size: 2
    stride: 2
  }
}
layers {
  bottom: "pool4"
  top: "conv5_1"
  name: "conv5_1"
  type: CONVOLUTION
  convolution_param {
    num_output: 512
    pad: 1
    kernel_size: 3
    weight_filler {
      type: "gaussian"
      std: 0.01
    }
    bias_filler {
      type: "constant"
      value: 0
    }
  }
}
layers {
  bottom: "conv5_1"
  top: "conv5_1"
  name: "relu5_1"
  type: RELU
}
layers {
  bottom: "conv5_1"
  top: "conv5_2"
  name: "conv5_2"
  type: CONVOLUTION
  convolution_param {
    num_output: 512
    pad: 1
    kernel_size: 3
    weight_filler {
      type: "gaussian"
      std: 0.01
    }
    bias_filler {
      type: "constant"
      value: 0
    }
  }
}
layers {
  bottom: "conv5_2"
  top: "conv5_2"
  name: "relu5_2"
  type: RELU
}
layers {
  bottom: "conv5_2"
  top: "conv5_3"
  name: "conv5_3"
  type: CONVOLUTION
  convolution_param {
    num_output: 512
    pad: 1
    kernel_size: 3
    weight_filler {
      type: "gaussian"
      std: 0.01
    }
    bias_filler {
      type: "constant"
      value: 0
    }
  }
}
layers {
  bottom: "conv5_3"
  top: "conv5_3"
  name: "relu5_3"
  type: RELU
}
layers {
  bottom: "conv5_3"
  top: "pool5"
  name: "pool5"
  type: POOLING
  pooling_param {
    pool: MAX
    kernel_size: 2
    stride: 2
  }
}
layers {
  bottom: "pool5"
  top: "fc6"
  name: "fc6"
  type: INNER_PRODUCT
  inner_product_param {
    num_output: 4096
    weight_filler {
      type: "gaussian"
      std: 0.01
    }
    bias_filler {
      type: "constant"
      value: 0
    }
  }
}
layers {
  bottom: "fc6"
  top: "fc6"
  name: "relu6"
  type: RELU
}
layers {
  bottom: "fc6"
  top: "fc6"
  name: "drop6"
  type: DROPOUT
  dropout_param {
    dropout_ratio: 0.5
  }
}
layers {
  bottom: "fc6"
  top: "fc7"
  name: "fc7"
  type: INNER_PRODUCT
  inner_product_param {
    num_output: 4096
    weight_filler {
      type: "gaussian"
      std: 0.01
    }
    bias_filler {
      type: "constant"
      value: 0
    }
  }
}
layers {
  bottom: "fc7"
  top: "fc7"
  name: "relu7"
  type: RELU
}
layers {
  bottom: "fc7"
  top: "fc7"
  name: "drop7"
  type: DROPOUT
  dropout_param {
    dropout_ratio: 0.5
  }
}
layers {
  bottom: "fc7"
  top: "fc8_2"
  name: "fc8_2"
  type: INNER_PRODUCT
  inner_product_param {
    num_output: 2
    weight_filler {
      type: "gaussian"
      std: 0.01
    }
    bias_filler {
      type: "constant"
      value: 0
    }
  }
}
layers {
  bottom: "fc8_2"
  bottom: "label"
  name: "loss"
  type: SOFTMAX_LOSS
}
state {
  phase: TRAIN
}
I1105 13:55:01.518777 23098 layer_factory.hpp:78] Creating layer data
I1105 13:55:01.518789 23098 data_transformer.cpp:25] Loading mean file from/data/ad6813/devCaffe/caffe/clampdetMeanVal
I1105 13:55:01.520369 23098 net.cpp:67] Creating Layer data
I1105 13:55:01.520382 23098 net.cpp:356] data -> data
I1105 13:55:01.520396 23098 net.cpp:356] data -> label
I1105 13:55:01.520407 23098 net.cpp:96] Setting up data
I1105 13:55:01.520413 23098 image_data_layer.cpp:34] Opening file /data/ad6813/devCaffe/caffe/task/clamp/clampTrain.txt
I1105 13:55:01.528308 23098 image_data_layer.cpp:49] A total of 23494 images.
I1105 13:55:01.559569 23098 image_data_layer.cpp:78] output data size: 32,3,224,224
I1105 13:55:01.564383 23098 net.cpp:103] Top shape: 32 3 224 224 (4816896)
I1105 13:55:01.564407 23098 net.cpp:103] Top shape: 32 1 1 1 (32)
I1105 13:55:01.564412 23098 layer_factory.hpp:78] Creating layer conv1_1
I1105 13:55:01.564429 23098 net.cpp:67] Creating Layer conv1_1
I1105 13:55:01.564434 23098 net.cpp:394] conv1_1 <- data
I1105 13:55:01.564446 23098 net.cpp:356] conv1_1 -> conv1_1
I1105 13:55:01.564457 23098 net.cpp:96] Setting up conv1_1
I1105 13:55:01.577489 23098 net.cpp:103] Top shape: 32 64 224 224 (102760448)
I1105 13:55:01.577523 23098 layer_factory.hpp:78] Creating layer relu1_1
I1105 13:55:01.577535 23098 net.cpp:67] Creating Layer relu1_1
I1105 13:55:01.577540 23098 net.cpp:394] relu1_1 <- conv1_1
I1105 13:55:01.577546 23098 net.cpp:345] relu1_1 -> conv1_1 (in-place)
I1105 13:55:01.577555 23098 net.cpp:96] Setting up relu1_1
I1105 13:55:01.577564 23098 net.cpp:103] Top shape: 32 64 224 224 (102760448)
I1105 13:55:01.577566 23098 layer_factory.hpp:78] Creating layer conv1_2
I1105 13:55:01.577574 23098 net.cpp:67] Creating Layer conv1_2
I1105 13:55:01.577576 23098 net.cpp:394] conv1_2 <- conv1_1
I1105 13:55:01.577581 23098 net.cpp:356] conv1_2 -> conv1_2
I1105 13:55:01.577587 23098 net.cpp:96] Setting up conv1_2
I1105 13:55:01.578613 23098 net.cpp:103] Top shape: 32 64 224 224 (102760448)
I1105 13:55:01.578624 23098 layer_factory.hpp:78] Creating layer relu1_2
I1105 13:55:01.578629 23098 net.cpp:67] Creating Layer relu1_2
I1105 13:55:01.578632 23098 net.cpp:394] relu1_2 <- conv1_2
I1105 13:55:01.578636 23098 net.cpp:345] relu1_2 -> conv1_2 (in-place)
I1105 13:55:01.578641 23098 net.cpp:96] Setting up relu1_2
I1105 13:55:01.578646 23098 net.cpp:103] Top shape: 32 64 224 224 (102760448)
I1105 13:55:01.578649 23098 layer_factory.hpp:78] Creating layer pool1
I1105 13:55:01.578656 23098 net.cpp:67] Creating Layer pool1
I1105 13:55:01.578660 23098 net.cpp:394] pool1 <- conv1_2
I1105 13:55:01.578665 23098 net.cpp:356] pool1 -> pool1
I1105 13:55:01.578671 23098 net.cpp:96] Setting up pool1
I1105 13:55:01.578687 23098 net.cpp:103] Top shape: 32 64 112 112 (25690112)
I1105 13:55:01.578696 23098 layer_factory.hpp:78] Creating layer conv2_1
I1105 13:55:01.578701 23098 net.cpp:67] Creating Layer conv2_1
I1105 13:55:01.578703 23098 net.cpp:394] conv2_1 <- pool1
I1105 13:55:01.578709 23098 net.cpp:356] conv2_1 -> conv2_1
I1105 13:55:01.578716 23098 net.cpp:96] Setting up conv2_1
I1105 13:55:01.580624 23098 net.cpp:103] Top shape: 32 128 112 112 (51380224)
I1105 13:55:01.580637 23098 layer_factory.hpp:78] Creating layer relu2_1
I1105 13:55:01.580642 23098 net.cpp:67] Creating Layer relu2_1
I1105 13:55:01.580646 23098 net.cpp:394] relu2_1 <- conv2_1
I1105 13:55:01.580649 23098 net.cpp:345] relu2_1 -> conv2_1 (in-place)
I1105 13:55:01.580654 23098 net.cpp:96] Setting up relu2_1
I1105 13:55:01.580659 23098 net.cpp:103] Top shape: 32 128 112 112 (51380224)
I1105 13:55:01.580662 23098 layer_factory.hpp:78] Creating layer conv2_2
I1105 13:55:01.580670 23098 net.cpp:67] Creating Layer conv2_2
I1105 13:55:01.580673 23098 net.cpp:394] conv2_2 <- conv2_1
I1105 13:55:01.580679 23098 net.cpp:356] conv2_2 -> conv2_2
I1105 13:55:01.580684 23098 net.cpp:96] Setting up conv2_2
I1105 13:55:01.584419 23098 net.cpp:103] Top shape: 32 128 112 112 (51380224)
I1105 13:55:01.584430 23098 layer_factory.hpp:78] Creating layer relu2_2
I1105 13:55:01.584435 23098 net.cpp:67] Creating Layer relu2_2
I1105 13:55:01.584439 23098 net.cpp:394] relu2_2 <- conv2_2
I1105 13:55:01.584444 23098 net.cpp:345] relu2_2 -> conv2_2 (in-place)
I1105 13:55:01.584456 23098 net.cpp:96] Setting up relu2_2
I1105 13:55:01.584461 23098 net.cpp:103] Top shape: 32 128 112 112 (51380224)
I1105 13:55:01.584465 23098 layer_factory.hpp:78] Creating layer pool2
I1105 13:55:01.584471 23098 net.cpp:67] Creating Layer pool2
I1105 13:55:01.584475 23098 net.cpp:394] pool2 <- conv2_2
I1105 13:55:01.584478 23098 net.cpp:356] pool2 -> pool2
I1105 13:55:01.584483 23098 net.cpp:96] Setting up pool2
I1105 13:55:01.584489 23098 net.cpp:103] Top shape: 32 128 56 56 (12845056)
I1105 13:55:01.584492 23098 layer_factory.hpp:78] Creating layer conv3_1
I1105 13:55:01.584506 23098 net.cpp:67] Creating Layer conv3_1
I1105 13:55:01.584511 23098 net.cpp:394] conv3_1 <- pool2
I1105 13:55:01.584517 23098 net.cpp:356] conv3_1 -> conv3_1
I1105 13:55:01.584522 23098 net.cpp:96] Setting up conv3_1
I1105 13:55:01.591888 23098 net.cpp:103] Top shape: 32 256 56 56 (25690112)
I1105 13:55:01.591904 23098 layer_factory.hpp:78] Creating layer relu3_1
I1105 13:55:01.591910 23098 net.cpp:67] Creating Layer relu3_1
I1105 13:55:01.591913 23098 net.cpp:394] relu3_1 <- conv3_1
I1105 13:55:01.591917 23098 net.cpp:345] relu3_1 -> conv3_1 (in-place)
I1105 13:55:01.591922 23098 net.cpp:96] Setting up relu3_1
I1105 13:55:01.591928 23098 net.cpp:103] Top shape: 32 256 56 56 (25690112)
I1105 13:55:01.591930 23098 layer_factory.hpp:78] Creating layer conv3_2
I1105 13:55:01.591938 23098 net.cpp:67] Creating Layer conv3_2
I1105 13:55:01.591940 23098 net.cpp:394] conv3_2 <- conv3_1
I1105 13:55:01.591945 23098 net.cpp:356] conv3_2 -> conv3_2
I1105 13:55:01.591950 23098 net.cpp:96] Setting up conv3_2
I1105 13:55:01.606698 23098 net.cpp:103] Top shape: 32 256 56 56 (25690112)
I1105 13:55:01.606716 23098 layer_factory.hpp:78] Creating layer relu3_2
I1105 13:55:01.606724 23098 net.cpp:67] Creating Layer relu3_2
I1105 13:55:01.606727 23098 net.cpp:394] relu3_2 <- conv3_2
I1105 13:55:01.606735 23098 net.cpp:345] relu3_2 -> conv3_2 (in-place)
I1105 13:55:01.606740 23098 net.cpp:96] Setting up relu3_2
I1105 13:55:01.606746 23098 net.cpp:103] Top shape: 32 256 56 56 (25690112)
I1105 13:55:01.606750 23098 layer_factory.hpp:78] Creating layer conv3_3
I1105 13:55:01.606755 23098 net.cpp:67] Creating Layer conv3_3
I1105 13:55:01.606757 23098 net.cpp:394] conv3_3 <- conv3_2
I1105 13:55:01.606761 23098 net.cpp:356] conv3_3 -> conv3_3
I1105 13:55:01.606767 23098 net.cpp:96] Setting up conv3_3
I1105 13:55:01.621439 23098 net.cpp:103] Top shape: 32 256 56 56 (25690112)
I1105 13:55:01.621459 23098 layer_factory.hpp:78] Creating layer relu3_3
I1105 13:55:01.621470 23098 net.cpp:67] Creating Layer relu3_3
I1105 13:55:01.621474 23098 net.cpp:394] relu3_3 <- conv3_3
I1105 13:55:01.621481 23098 net.cpp:345] relu3_3 -> conv3_3 (in-place)
I1105 13:55:01.621487 23098 net.cpp:96] Setting up relu3_3
I1105 13:55:01.621492 23098 net.cpp:103] Top shape: 32 256 56 56 (25690112)
I1105 13:55:01.621496 23098 layer_factory.hpp:78] Creating layer pool3
I1105 13:55:01.621501 23098 net.cpp:67] Creating Layer pool3
I1105 13:55:01.621505 23098 net.cpp:394] pool3 <- conv3_3
I1105 13:55:01.621508 23098 net.cpp:356] pool3 -> pool3
I1105 13:55:01.621513 23098 net.cpp:96] Setting up pool3
I1105 13:55:01.621520 23098 net.cpp:103] Top shape: 32 256 28 28 (6422528)
I1105 13:55:01.621525 23098 layer_factory.hpp:78] Creating layer conv4_1
I1105 13:55:01.621531 23098 net.cpp:67] Creating Layer conv4_1
I1105 13:55:01.621534 23098 net.cpp:394] conv4_1 <- pool3
I1105 13:55:01.621541 23098 net.cpp:356] conv4_1 -> conv4_1
I1105 13:55:01.621546 23098 net.cpp:96] Setting up conv4_1
I1105 13:55:01.650719 23098 net.cpp:103] Top shape: 32 512 28 28 (12845056)
I1105 13:55:01.650737 23098 layer_factory.hpp:78] Creating layer relu4_1
I1105 13:55:01.650743 23098 net.cpp:67] Creating Layer relu4_1
I1105 13:55:01.650746 23098 net.cpp:394] relu4_1 <- conv4_1
I1105 13:55:01.650753 23098 net.cpp:345] relu4_1 -> conv4_1 (in-place)
I1105 13:55:01.650758 23098 net.cpp:96] Setting up relu4_1
I1105 13:55:01.650763 23098 net.cpp:103] Top shape: 32 512 28 28 (12845056)
I1105 13:55:01.650774 23098 layer_factory.hpp:78] Creating layer conv4_2
I1105 13:55:01.650779 23098 net.cpp:67] Creating Layer conv4_2
I1105 13:55:01.650782 23098 net.cpp:394] conv4_2 <- conv4_1
I1105 13:55:01.650789 23098 net.cpp:356] conv4_2 -> conv4_2
I1105 13:55:01.650794 23098 net.cpp:96] Setting up conv4_2
I1105 13:55:01.709040 23098 net.cpp:103] Top shape: 32 512 28 28 (12845056)
I1105 13:55:01.709069 23098 layer_factory.hpp:78] Creating layer relu4_2
I1105 13:55:01.709077 23098 net.cpp:67] Creating Layer relu4_2
I1105 13:55:01.709081 23098 net.cpp:394] relu4_2 <- conv4_2
I1105 13:55:01.709089 23098 net.cpp:345] relu4_2 -> conv4_2 (in-place)
I1105 13:55:01.709095 23098 net.cpp:96] Setting up relu4_2
I1105 13:55:01.709101 23098 net.cpp:103] Top shape: 32 512 28 28 (12845056)
I1105 13:55:01.709105 23098 layer_factory.hpp:78] Creating layer conv4_3
I1105 13:55:01.709110 23098 net.cpp:67] Creating Layer conv4_3
I1105 13:55:01.709113 23098 net.cpp:394] conv4_3 <- conv4_2
I1105 13:55:01.709118 23098 net.cpp:356] conv4_3 -> conv4_3
I1105 13:55:01.709123 23098 net.cpp:96] Setting up conv4_3
I1105 13:55:01.767484 23098 net.cpp:103] Top shape: 32 512 28 28 (12845056)
I1105 13:55:01.767506 23098 layer_factory.hpp:78] Creating layer relu4_3
I1105 13:55:01.767518 23098 net.cpp:67] Creating Layer relu4_3
I1105 13:55:01.767521 23098 net.cpp:394] relu4_3 <- conv4_3
I1105 13:55:01.767527 23098 net.cpp:345] relu4_3 -> conv4_3 (in-place)
I1105 13:55:01.767534 23098 net.cpp:96] Setting up relu4_3
I1105 13:55:01.767539 23098 net.cpp:103] Top shape: 32 512 28 28 (12845056)
I1105 13:55:01.767542 23098 layer_factory.hpp:78] Creating layer pool4
I1105 13:55:01.767549 23098 net.cpp:67] Creating Layer pool4
I1105 13:55:01.767551 23098 net.cpp:394] pool4 <- conv4_3
I1105 13:55:01.767557 23098 net.cpp:356] pool4 -> pool4
I1105 13:55:01.767563 23098 net.cpp:96] Setting up pool4
I1105 13:55:01.767570 23098 net.cpp:103] Top shape: 32 512 14 14 (3211264)
I1105 13:55:01.767573 23098 layer_factory.hpp:78] Creating layer conv5_1
I1105 13:55:01.767580 23098 net.cpp:67] Creating Layer conv5_1
I1105 13:55:01.767582 23098 net.cpp:394] conv5_1 <- pool4
I1105 13:55:01.767588 23098 net.cpp:356] conv5_1 -> conv5_1
I1105 13:55:01.767596 23098 net.cpp:96] Setting up conv5_1
I1105 13:55:01.826122 23098 net.cpp:103] Top shape: 32 512 14 14 (3211264)
I1105 13:55:01.826146 23098 layer_factory.hpp:78] Creating layer relu5_1
I1105 13:55:01.826159 23098 net.cpp:67] Creating Layer relu5_1
I1105 13:55:01.826164 23098 net.cpp:394] relu5_1 <- conv5_1
I1105 13:55:01.826171 23098 net.cpp:345] relu5_1 -> conv5_1 (in-place)
I1105 13:55:01.826179 23098 net.cpp:96] Setting up relu5_1
I1105 13:55:01.826184 23098 net.cpp:103] Top shape: 32 512 14 14 (3211264)
I1105 13:55:01.826187 23098 layer_factory.hpp:78] Creating layer conv5_2
I1105 13:55:01.826195 23098 net.cpp:67] Creating Layer conv5_2
I1105 13:55:01.826197 23098 net.cpp:394] conv5_2 <- conv5_1
I1105 13:55:01.826201 23098 net.cpp:356] conv5_2 -> conv5_2
I1105 13:55:01.826208 23098 net.cpp:96] Setting up conv5_2
I1105 13:55:01.884536 23098 net.cpp:103] Top shape: 32 512 14 14 (3211264)
I1105 13:55:01.884559 23098 layer_factory.hpp:78] Creating layer relu5_2
I1105 13:55:01.884567 23098 net.cpp:67] Creating Layer relu5_2
I1105 13:55:01.884572 23098 net.cpp:394] relu5_2 <- conv5_2
I1105 13:55:01.884578 23098 net.cpp:345] relu5_2 -> conv5_2 (in-place)
I1105 13:55:01.884585 23098 net.cpp:96] Setting up relu5_2
I1105 13:55:01.884591 23098 net.cpp:103] Top shape: 32 512 14 14 (3211264)
I1105 13:55:01.884594 23098 layer_factory.hpp:78] Creating layer conv5_3
I1105 13:55:01.884600 23098 net.cpp:67] Creating Layer conv5_3
I1105 13:55:01.884603 23098 net.cpp:394] conv5_3 <- conv5_2
I1105 13:55:01.884608 23098 net.cpp:356] conv5_3 -> conv5_3
I1105 13:55:01.884614 23098 net.cpp:96] Setting up conv5_3
I1105 13:55:01.942731 23098 net.cpp:103] Top shape: 32 512 14 14 (3211264)
I1105 13:55:01.942757 23098 layer_factory.hpp:78] Creating layer relu5_3
I1105 13:55:01.942765 23098 net.cpp:67] Creating Layer relu5_3
I1105 13:55:01.942770 23098 net.cpp:394] relu5_3 <- conv5_3
I1105 13:55:01.942785 23098 net.cpp:345] relu5_3 -> conv5_3 (in-place)
I1105 13:55:01.942790 23098 net.cpp:96] Setting up relu5_3
I1105 13:55:01.942796 23098 net.cpp:103] Top shape: 32 512 14 14 (3211264)
I1105 13:55:01.942800 23098 layer_factory.hpp:78] Creating layer pool5
I1105 13:55:01.942805 23098 net.cpp:67] Creating Layer pool5
I1105 13:55:01.942807 23098 net.cpp:394] pool5 <- conv5_3
I1105 13:55:01.942814 23098 net.cpp:356] pool5 -> pool5
I1105 13:55:01.942819 23098 net.cpp:96] Setting up pool5
I1105 13:55:01.942827 23098 net.cpp:103] Top shape: 32 512 7 7 (802816)
I1105 13:55:01.942831 23098 layer_factory.hpp:78] Creating layer fc6
I1105 13:55:01.942843 23098 net.cpp:67] Creating Layer fc6
I1105 13:55:01.942847 23098 net.cpp:394] fc6 <- pool5
I1105 13:55:01.942852 23098 net.cpp:356] fc6 -> fc6
I1105 13:55:01.942857 23098 net.cpp:96] Setting up fc6
I1105 13:55:04.388094 23098 net.cpp:103] Top shape: 32 4096 1 1 (131072)
I1105 13:55:04.388137 23098 layer_factory.hpp:78] Creating layer relu6
I1105 13:55:04.388146 23098 net.cpp:67] Creating Layer relu6
I1105 13:55:04.388151 23098 net.cpp:394] relu6 <- fc6
I1105 13:55:04.388157 23098 net.cpp:345] relu6 -> fc6 (in-place)
I1105 13:55:04.388164 23098 net.cpp:96] Setting up relu6
I1105 13:55:04.388177 23098 net.cpp:103] Top shape: 32 4096 1 1 (131072)
I1105 13:55:04.388180 23098 layer_factory.hpp:78] Creating layer drop6
I1105 13:55:04.388190 23098 net.cpp:67] Creating Layer drop6
I1105 13:55:04.388193 23098 net.cpp:394] drop6 <- fc6
I1105 13:55:04.388198 23098 net.cpp:345] drop6 -> fc6 (in-place)
I1105 13:55:04.388203 23098 net.cpp:96] Setting up drop6
I1105 13:55:04.388208 23098 net.cpp:103] Top shape: 32 4096 1 1 (131072)
I1105 13:55:04.388211 23098 layer_factory.hpp:78] Creating layer fc7
I1105 13:55:04.388217 23098 net.cpp:67] Creating Layer fc7
I1105 13:55:04.388219 23098 net.cpp:394] fc7 <- fc6
I1105 13:55:04.388224 23098 net.cpp:356] fc7 -> fc7
I1105 13:55:04.388231 23098 net.cpp:96] Setting up fc7
I1105 13:55:04.786682 23098 net.cpp:103] Top shape: 32 4096 1 1 (131072)
I1105 13:55:04.786725 23098 layer_factory.hpp:78] Creating layer relu7
I1105 13:55:04.786732 23098 net.cpp:67] Creating Layer relu7
I1105 13:55:04.786737 23098 net.cpp:394] relu7 <- fc7
I1105 13:55:04.786743 23098 net.cpp:345] relu7 -> fc7 (in-place)
I1105 13:55:04.786749 23098 net.cpp:96] Setting up relu7
I1105 13:55:04.786764 23098 net.cpp:103] Top shape: 32 4096 1 1 (131072)
I1105 13:55:04.786767 23098 layer_factory.hpp:78] Creating layer drop7
I1105 13:55:04.786774 23098 net.cpp:67] Creating Layer drop7
I1105 13:55:04.786777 23098 net.cpp:394] drop7 <- fc7
I1105 13:55:04.786782 23098 net.cpp:345] drop7 -> fc7 (in-place)
I1105 13:55:04.786787 23098 net.cpp:96] Setting up drop7
I1105 13:55:04.786789 23098 net.cpp:103] Top shape: 32 4096 1 1 (131072)
I1105 13:55:04.786792 23098 layer_factory.hpp:78] Creating layer fc8_2
I1105 13:55:04.786799 23098 net.cpp:67] Creating Layer fc8_2
I1105 13:55:04.786803 23098 net.cpp:394] fc8_2 <- fc7
I1105 13:55:04.786806 23098 net.cpp:356] fc8_2 -> fc8_2
I1105 13:55:04.786813 23098 net.cpp:96] Setting up fc8_2
I1105 13:55:04.787027 23098 net.cpp:103] Top shape: 32 2 1 1 (64)
I1105 13:55:04.787035 23098 layer_factory.hpp:78] Creating layer loss
I1105 13:55:04.787046 23098 net.cpp:67] Creating Layer loss
I1105 13:55:04.787051 23098 net.cpp:394] loss <- fc8_2
I1105 13:55:04.787055 23098 net.cpp:394] loss <- label
I1105 13:55:04.787063 23098 net.cpp:356] loss -> (automatic)
I1105 13:55:04.787068 23098 net.cpp:96] Setting up loss
I1105 13:55:04.787076 23098 net.cpp:103] Top shape: 1 1 1 1 (1)
I1105 13:55:04.787081 23098 net.cpp:109]     with loss weight 1
I1105 13:55:04.787117 23098 net.cpp:170] loss needs backward computation.
I1105 13:55:04.787120 23098 net.cpp:170] fc8_2 needs backward computation.
I1105 13:55:04.787123 23098 net.cpp:170] drop7 needs backward computation.
I1105 13:55:04.787127 23098 net.cpp:170] relu7 needs backward computation.
I1105 13:55:04.787128 23098 net.cpp:170] fc7 needs backward computation.
…
I1105 13:55:04.788044 23098 solver.cpp:151] Creating test net (#0) specified by net file: /data/ad6813/devCaffe/caffe/oxford/small.train
I1105 13:55:04.788091 23098 net.cpp:275] The NetState phase (1) differed from the phase (0) specified by a rule in layer data
I1105 13:55:04.788291 23098 net.cpp:39] Initializing net from parameters: 
name: "small"
layers {
  top: "data"
  top: "label"
  name: "data"
  type: IMAGE_DATA
  image_data_param {
    source: "/data/ad6813/devCaffe/caffe/task/clamp/clampVal.txt"
    batch_size: 8
    new_height: 256
    new_width: 256
  }
  include {
    phase: TEST
  }
  transform_param {
    mirror: true
    crop_size: 224
    mean_file: "/data/ad6813/devCaffe/caffe/clampdetMeanVal"
  }
}
layers {
  bottom: "data"
  top: "conv1_1"
  name: "conv1_1"
  type: CONVOLUTION
  convolution_param {
    num_output: 64
    pad: 1
    kernel_size: 3
    weight_filler {
      type: "gaussian"
      std: 0.01
    }
    bias_filler {
      type: "constant"
      value: 0
    }
  }
}
layers {
  bottom: "conv1_1"
  top: "conv1_1"
  name: "relu1_1"
  type: RELU
}
layers {
  bottom: "conv1_1"
  top: "conv1_2"
  name: "conv1_2"
  type: CONVOLUTION
  convolution_param {
    num_output: 64
    pad: 1
    kernel_size: 3
    weight_filler {
      type: "gaussian"
      std: 0.01
    }
    bias_filler {
      type: "constant"
      value: 0
    }
  }
}
layers {
  bottom: "conv1_2"
  top: "conv1_2"
  name: "relu1_2"
  type: RELU
}
layers {
  bottom: "conv1_2"
  top: "pool1"
  name: "pool1"
  type: POOLING
  pooling_param {
    pool: MAX
    kernel_size: 2
    stride: 2
  }
}
layers {
  bottom: "pool1"
  top: "conv2_1"
  name: "conv2_1"
  type: CONVOLUTION
  convolution_param {
    num_output: 128
    pad: 1
    kernel_size: 3
    weight_filler {
      type: "gaussian"
      std: 0.01
    }
    bias_filler {
      type: "constant"
      value: 0
    }
  }
}
layers {
  bottom: "conv2_1"
  top: "conv2_1"
  name: "relu2_1"
  type: RELU
}
layers {
  bottom: "conv2_1"
  top: "conv2_2"
  name: "conv2_2"
  type: CONVOLUTION
  convolution_param {
    num_output: 128
    pad: 1
    kernel_size: 3
    weight_filler {
      type: "gaussian"
      std: 0.01
    }
    bias_filler {
      type: "constant"
      value: 0
    }
  }
}
layers {
  bottom: "conv2_2"
  top: "conv2_2"
  name: "relu2_2"
  type: RELU
}
layers {
  bottom: "conv2_2"
  top: "pool2"
  name: "pool2"
  type: POOLING
  pooling_param {
    pool: MAX
    kernel_size: 2
    stride: 2
  }
}
layers {
  bottom: "pool2"
  top: "conv3_1"
  name: "conv3_1"
  type: CONVOLUTION
  convolution_param {
    num_output: 256
    pad: 1
    kernel_size: 3
    weight_filler {
      type: "gaussian"
      std: 0.01
    }
    bias_filler {
      type: "constant"
      value: 0
    }
  }
}
layers {
  bottom: "conv3_1"
  top: "conv3_1"
  name: "relu3_1"
  type: RELU
}
layers {
  bottom: "conv3_1"
  top: "conv3_2"
  name: "conv3_2"
  type: CONVOLUTION
  convolution_param {
    num_output: 256
    pad: 1
    kernel_size: 3
    weight_filler {
      type: "gaussian"
      std: 0.01
    }
    bias_filler {
      type: "constant"
      value: 0
    }
  }
}
layers {
  bottom: "conv3_2"
  top: "conv3_2"
  name: "relu3_2"
  type: RELU
}
layers {
  bottom: "conv3_2"
  top: "conv3_3"
  name: "conv3_3"
  type: CONVOLUTION
  convolution_param {
    num_output: 256
    pad: 1
    kernel_size: 3
    weight_filler {
      type: "gaussian"
      std: 0.01
    }
    bias_filler {
      type: "constant"
      value: 0
    }
  }
}
layers {
  bottom: "conv3_3"
  top: "conv3_3"
  name: "relu3_3"
  type: RELU
}
layers {
  bottom: "conv3_3"
  top: "pool3"
  name: "pool3"
  type: POOLING
  pooling_param {
    pool: MAX
    kernel_size: 2
    stride: 2
  }
}
layers {
  bottom: "pool3"
  top: "conv4_1"
  name: "conv4_1"
  type: CONVOLUTION
  convolution_param {
    num_output: 512
    pad: 1
    kernel_size: 3
    weight_filler {
      type: "gaussian"
      std: 0.01
    }
    bias_filler {
      type: "constant"
      value: 0
    }
  }
}
layers {
  bottom: "conv4_1"
  top: "conv4_1"
  name: "relu4_1"
  type: RELU
}
layers {
  bottom: "conv4_1"
  top: "conv4_2"
  name: "conv4_2"
  type: CONVOLUTION
  convolution_param {
    num_output: 512
    pad: 1
    kernel_size: 3
    weight_filler {
      type: "gaussian"
      std: 0.01
    }
    bias_filler {
      type: "constant"
      value: 0
    }
  }
}
layers {
  bottom: "conv4_2"
  top: "conv4_2"
  name: "relu4_2"
  type: RELU
}
layers {
  bottom: "conv4_2"
  top: "conv4_3"
  name: "conv4_3"
  type: CONVOLUTION
  convolution_param {
    num_output: 512
    pad: 1
    kernel_size: 3
    weight_filler {
      type: "gaussian"
      std: 0.01
    }
    bias_filler {
      type: "constant"
      value: 0
    }
  }
}
layers {
  bottom: "conv4_3"
  top: "conv4_3"
  name: "relu4_3"
  type: RELU
}
layers {
  bottom: "conv4_3"
  top: "pool4"
  name: "pool4"
  type: POOLING
  pooling_param {
    pool: MAX
    kernel_size: 2
    stride: 2
  }
}
layers {
  bottom: "pool4"
  top: "conv5_1"
  name: "conv5_1"
  type: CONVOLUTION
  convolution_param {
    num_output: 512
    pad: 1
    kernel_size: 3
    weight_filler {
      type: "gaussian"
      std: 0.01
    }
    bias_filler {
      type: "constant"
      value: 0
    }
  }
}
layers {
  bottom: "conv5_1"
  top: "conv5_1"
  name: "relu5_1"
  type: RELU
}
layers {
  bottom: "conv5_1"
  top: "conv5_2"
  name: "conv5_2"
  type: CONVOLUTION
  convolution_param {
    num_output: 512
    pad: 1
    kernel_size: 3
    weight_filler {
      type: "gaussian"
      std: 0.01
    }
    bias_filler {
      type: "constant"
      value: 0
    }
  }
}
layers {
  bottom: "conv5_2"
  top: "conv5_2"
  name: "relu5_2"
  type: RELU
}
layers {
  bottom: "conv5_2"
  top: "conv5_3"
  name: "conv5_3"
  type: CONVOLUTION
  convolution_param {
    num_output: 512
    pad: 1
    kernel_size: 3
    weight_filler {
      type: "gaussian"
      std: 0.01
    }
    bias_filler {
      type: "constant"
      value: 0
    }
  }
}
layers {
  bottom: "conv5_3"
  top: "conv5_3"
  name: "relu5_3"
  type: RELU
}
layers {
  bottom: "conv5_3"
  top: "pool5"
  name: "pool5"
  type: POOLING
  pooling_param {
    pool: MAX
    kernel_size: 2
    stride: 2
  }
}
layers {
  bottom: "pool5"
  top: "fc6"
  name: "fc6"
  type: INNER_PRODUCT
  inner_product_param {
    num_output: 4096
    weight_filler {
      type: "gaussian"
      std: 0.01
    }
    bias_filler {
      type: "constant"
      value: 0
    }
  }
}
layers {
  bottom: "fc6"
  top: "fc6"
  name: "relu6"
  type: RELU
}
layers {
  bottom: "fc6"
  top: "fc6"
  name: "drop6"
  type: DROPOUT
  dropout_param {
    dropout_ratio: 0.5
  }
}
layers {
  bottom: "fc6"
  top: "fc7"
  name: "fc7"
  type: INNER_PRODUCT
  inner_product_param {
    num_output: 4096
    weight_filler {
      type: "gaussian"
      std: 0.01
    }
    bias_filler {
      type: "constant"
      value: 0
    }
  }
}
layers {
  bottom: "fc7"
  top: "fc7"
  name: "relu7"
  type: RELU
}
layers {
  bottom: "fc7"
  top: "fc7"
  name: "drop7"
  type: DROPOUT
  dropout_param {
    dropout_ratio: 0.5
  }
}
layers {
  bottom: "fc7"
  top: "fc8_2"
  name: "fc8_2"
  type: INNER_PRODUCT
  inner_product_param {
    num_output: 2
    weight_filler {
      type: "gaussian"
      std: 0.01
    }
    bias_filler {
      type: "constant"
      value: 0
    }
  }
}
layers {
  bottom: "fc8_2"
  bottom: "label"
  name: "loss"
  type: SOFTMAX_LOSS
}
layers {
  bottom: "fc8_2"
  bottom: "label"
  top: "accuracy"
  name: "accuracy"
  type: PER_CLASS_ACCURACY
  include {
    phase: TEST
  }
}
state {
  phase: TEST
}
I1105 13:55:04.788426 23098 layer_factory.hpp:78] Creating layer data
I1105 13:55:04.788434 23098 data_transformer.cpp:25] Loading mean file from/data/ad6813/devCaffe/caffe/clampdetMeanVal
I1105 13:55:04.789856 23098 net.cpp:67] Creating Layer data
I1105 13:55:04.789870 23098 net.cpp:356] data -> data
I1105 13:55:04.789877 23098 net.cpp:356] data -> label
I1105 13:55:04.789883 23098 net.cpp:96] Setting up data
I1105 13:55:04.789887 23098 image_data_layer.cpp:34] Opening file /data/ad6813/devCaffe/caffe/task/clamp/clampVal.txt
I1105 13:55:04.790573 23098 image_data_layer.cpp:49] A total of 2005 images.
I1105 13:55:04.796476 23098 image_data_layer.cpp:78] output data size: 8,3,224,224
I1105 13:55:04.797768 23098 net.cpp:103] Top shape: 8 3 224 224 (1204224)
I1105 13:55:04.797780 23098 net.cpp:103] Top shape: 8 1 1 1 (8)
I1105 13:55:04.797785 23098 layer_factory.hpp:78] Creating layer label_data_1_split
I1105 13:55:04.797794 23098 net.cpp:67] Creating Layer label_data_1_split
I1105 13:55:04.797798 23098 net.cpp:394] label_data_1_split <- label
I1105 13:55:04.797803 23098 net.cpp:356] label_data_1_split -> label_data_1_split_0
I1105 13:55:04.797811 23098 net.cpp:356] label_data_1_split -> label_data_1_split_1
I1105 13:55:04.797816 23098 net.cpp:96] Setting up label_data_1_split
I1105 13:55:04.797822 23098 net.cpp:103] Top shape: 8 1 1 1 (8)
I1105 13:55:04.797826 23098 net.cpp:103] Top shape: 8 1 1 1 (8)
I1105 13:55:04.797828 23098 layer_factory.hpp:78] Creating layer conv1_1
I1105 13:55:04.797833 23098 net.cpp:67] Creating Layer conv1_1
I1105 13:55:04.797837 23098 net.cpp:394] conv1_1 <- data
I1105 13:55:04.797842 23098 net.cpp:356] conv1_1 -> conv1_1
I1105 13:55:04.797848 23098 net.cpp:96] Setting up conv1_1
I1105 13:55:04.798002 23098 net.cpp:103] Top shape: 8 64 224 224 (25690112)
I1105 13:55:04.798020 23098 layer_factory.hpp:78] Creating layer relu1_1
I1105 13:55:04.798029 23098 net.cpp:67] Creating Layer relu1_1
I1105 13:55:04.798032 23098 net.cpp:394] relu1_1 <- conv1_1
I1105 13:55:04.798038 23098 net.cpp:345] relu1_1 -> conv1_1 (in-place)
I1105 13:55:04.798043 23098 net.cpp:96] Setting up relu1_1
I1105 13:55:04.798048 23098 net.cpp:103] Top shape: 8 64 224 224 (25690112)
I1105 13:55:04.798050 23098 layer_factory.hpp:78] Creating layer conv1_2
I1105 13:55:04.798055 23098 net.cpp:67] Creating Layer conv1_2
I1105 13:55:04.798058 23098 net.cpp:394] conv1_2 <- conv1_1
I1105 13:55:04.798063 23098 net.cpp:356] conv1_2 -> conv1_2
I1105 13:55:04.798068 23098 net.cpp:96] Setting up conv1_2
I1105 13:55:04.799036 23098 net.cpp:103] Top shape: 8 64 224 224 (25690112)
I1105 13:55:04.799046 23098 layer_factory.hpp:78] Creating layer relu1_2
I1105 13:55:04.799051 23098 net.cpp:67] Creating Layer relu1_2
I1105 13:55:04.799053 23098 net.cpp:394] relu1_2 <- conv1_2
I1105 13:55:04.799057 23098 net.cpp:345] relu1_2 -> conv1_2 (in-place)
I1105 13:55:04.799062 23098 net.cpp:96] Setting up relu1_2
I1105 13:55:04.799067 23098 net.cpp:103] Top shape: 8 64 224 224 (25690112)
I1105 13:55:04.799069 23098 layer_factory.hpp:78] Creating layer pool1
I1105 13:55:04.799074 23098 net.cpp:67] Creating Layer pool1
I1105 13:55:04.799077 23098 net.cpp:394] pool1 <- conv1_2
I1105 13:55:04.799082 23098 net.cpp:356] pool1 -> pool1
I1105 13:55:04.799085 23098 net.cpp:96] Setting up pool1
I1105 13:55:04.799093 23098 net.cpp:103] Top shape: 8 64 112 112 (6422528)
I1105 13:55:04.799095 23098 layer_factory.hpp:78] Creating layer conv2_1
I1105 13:55:04.799099 23098 net.cpp:67] Creating Layer conv2_1
I1105 13:55:04.799103 23098 net.cpp:394] conv2_1 <- pool1
I1105 13:55:04.799108 23098 net.cpp:356] conv2_1 -> conv2_1
I1105 13:55:04.799111 23098 net.cpp:96] Setting up conv2_1
I1105 13:55:04.801089 23098 net.cpp:103] Top shape: 8 128 112 112 (12845056)
I1105 13:55:04.801102 23098 layer_factory.hpp:78] Creating layer relu2_1
I1105 13:55:04.801108 23098 net.cpp:67] Creating Layer relu2_1
I1105 13:55:04.801111 23098 net.cpp:394] relu2_1 <- conv2_1
I1105 13:55:04.801115 23098 net.cpp:345] relu2_1 -> conv2_1 (in-place)
I1105 13:55:04.801121 23098 net.cpp:96] Setting up relu2_1
I1105 13:55:04.801126 23098 net.cpp:103] Top shape: 8 128 112 112 (12845056)
I1105 13:55:04.801129 23098 layer_factory.hpp:78] Creating layer conv2_2
I1105 13:55:04.801134 23098 net.cpp:67] Creating Layer conv2_2
I1105 13:55:04.801136 23098 net.cpp:394] conv2_2 <- conv2_1
I1105 13:55:04.801141 23098 net.cpp:356] conv2_2 -> conv2_2
I1105 13:55:04.801147 23098 net.cpp:96] Setting up conv2_2
I1105 13:55:04.804787 23098 net.cpp:103] Top shape: 8 128 112 112 (12845056)
I1105 13:55:04.804800 23098 layer_factory.hpp:78] Creating layer relu2_2
I1105 13:55:04.804805 23098 net.cpp:67] Creating Layer relu2_2
I1105 13:55:04.804810 23098 net.cpp:394] relu2_2 <- conv2_2
I1105 13:55:04.804813 23098 net.cpp:345] relu2_2 -> conv2_2 (in-place)
I1105 13:55:04.804818 23098 net.cpp:96] Setting up relu2_2
I1105 13:55:04.804823 23098 net.cpp:103] Top shape: 8 128 112 112 (12845056)
I1105 13:55:04.804826 23098 layer_factory.hpp:78] Creating layer pool2
I1105 13:55:04.804831 23098 net.cpp:67] Creating Layer pool2
I1105 13:55:04.804833 23098 net.cpp:394] pool2 <- conv2_2
I1105 13:55:04.804838 23098 net.cpp:356] pool2 -> pool2
I1105 13:55:04.804842 23098 net.cpp:96] Setting up pool2
I1105 13:55:04.804848 23098 net.cpp:103] Top shape: 8 128 56 56 (3211264)
I1105 13:55:04.804852 23098 layer_factory.hpp:78] Creating layer conv3_1
I1105 13:55:04.804857 23098 net.cpp:67] Creating Layer conv3_1
I1105 13:55:04.804860 23098 net.cpp:394] conv3_1 <- pool2
I1105 13:55:04.804864 23098 net.cpp:356] conv3_1 -> conv3_1
I1105 13:55:04.804869 23098 net.cpp:96] Setting up conv3_1
I1105 13:55:04.812083 23098 net.cpp:103] Top shape: 8 256 56 56 (6422528)
I1105 13:55:04.812099 23098 layer_factory.hpp:78] Creating layer relu3_1
I1105 13:55:04.812105 23098 net.cpp:67] Creating Layer relu3_1
I1105 13:55:04.812115 23098 net.cpp:394] relu3_1 <- conv3_1
I1105 13:55:04.812121 23098 net.cpp:345] relu3_1 -> conv3_1 (in-place)
I1105 13:55:04.812126 23098 net.cpp:96] Setting up relu3_1
I1105 13:55:04.812131 23098 net.cpp:103] Top shape: 8 256 56 56 (6422528)
I1105 13:55:04.812135 23098 layer_factory.hpp:78] Creating layer conv3_2
I1105 13:55:04.812140 23098 net.cpp:67] Creating Layer conv3_2
I1105 13:55:04.812142 23098 net.cpp:394] conv3_2 <- conv3_1
I1105 13:55:04.812147 23098 net.cpp:356] conv3_2 -> conv3_2
I1105 13:55:04.812152 23098 net.cpp:96] Setting up conv3_2
I1105 13:55:04.826843 23098 net.cpp:103] Top shape: 8 256 56 56 (6422528)
I1105 13:55:04.826859 23098 layer_factory.hpp:78] Creating layer relu3_2
I1105 13:55:04.826866 23098 net.cpp:67] Creating Layer relu3_2
I1105 13:55:04.826869 23098 net.cpp:394] relu3_2 <- conv3_2
I1105 13:55:04.826875 23098 net.cpp:345] relu3_2 -> conv3_2 (in-place)
I1105 13:55:04.826880 23098 net.cpp:96] Setting up relu3_2
I1105 13:55:04.826886 23098 net.cpp:103] Top shape: 8 256 56 56 (6422528)
I1105 13:55:04.826889 23098 layer_factory.hpp:78] Creating layer conv3_3
I1105 13:55:04.826897 23098 net.cpp:67] Creating Layer conv3_3
I1105 13:55:04.826900 23098 net.cpp:394] conv3_3 <- conv3_2
I1105 13:55:04.826905 23098 net.cpp:356] conv3_3 -> conv3_3
I1105 13:55:04.826910 23098 net.cpp:96] Setting up conv3_3
I1105 13:55:04.841666 23098 net.cpp:103] Top shape: 8 256 56 56 (6422528)
I1105 13:55:04.841681 23098 layer_factory.hpp:78] Creating layer relu3_3
I1105 13:55:04.841688 23098 net.cpp:67] Creating Layer relu3_3
I1105 13:55:04.841692 23098 net.cpp:394] relu3_3 <- conv3_3
I1105 13:55:04.841696 23098 net.cpp:345] relu3_3 -> conv3_3 (in-place)
I1105 13:55:04.841701 23098 net.cpp:96] Setting up relu3_3
I1105 13:55:04.841706 23098 net.cpp:103] Top shape: 8 256 56 56 (6422528)
I1105 13:55:04.841709 23098 layer_factory.hpp:78] Creating layer pool3
I1105 13:55:04.841714 23098 net.cpp:67] Creating Layer pool3
I1105 13:55:04.841719 23098 net.cpp:394] pool3 <- conv3_3
I1105 13:55:04.841723 23098 net.cpp:356] pool3 -> pool3
I1105 13:55:04.841728 23098 net.cpp:96] Setting up pool3
I1105 13:55:04.841734 23098 net.cpp:103] Top shape: 8 256 28 28 (1605632)
I1105 13:55:04.841737 23098 layer_factory.hpp:78] Creating layer conv4_1
I1105 13:55:04.841742 23098 net.cpp:67] Creating Layer conv4_1
I1105 13:55:04.841745 23098 net.cpp:394] conv4_1 <- pool3
I1105 13:55:04.841752 23098 net.cpp:356] conv4_1 -> conv4_1
I1105 13:55:04.841756 23098 net.cpp:96] Setting up conv4_1
I1105 13:55:04.870241 23098 net.cpp:103] Top shape: 8 512 28 28 (3211264)
I1105 13:55:04.870271 23098 layer_factory.hpp:78] Creating layer relu4_1
I1105 13:55:04.870280 23098 net.cpp:67] Creating Layer relu4_1
I1105 13:55:04.870285 23098 net.cpp:394] relu4_1 <- conv4_1
I1105 13:55:04.870290 23098 net.cpp:345] relu4_1 -> conv4_1 (in-place)
I1105 13:55:04.870296 23098 net.cpp:96] Setting up relu4_1
I1105 13:55:04.870301 23098 net.cpp:103] Top shape: 8 512 28 28 (3211264)
I1105 13:55:04.870306 23098 layer_factory.hpp:78] Creating layer conv4_2
I1105 13:55:04.870311 23098 net.cpp:67] Creating Layer conv4_2
I1105 13:55:04.870314 23098 net.cpp:394] conv4_2 <- conv4_1
I1105 13:55:04.870319 23098 net.cpp:356] conv4_2 -> conv4_2
I1105 13:55:04.870324 23098 net.cpp:96] Setting up conv4_2
I1105 13:55:04.926079 23098 net.cpp:103] Top shape: 8 512 28 28 (3211264)
I1105 13:55:04.926116 23098 layer_factory.hpp:78] Creating layer relu4_2
I1105 13:55:04.926125 23098 net.cpp:67] Creating Layer relu4_2
I1105 13:55:04.926128 23098 net.cpp:394] relu4_2 <- conv4_2
I1105 13:55:04.926136 23098 net.cpp:345] relu4_2 -> conv4_2 (in-place)
I1105 13:55:04.926141 23098 net.cpp:96] Setting up relu4_2
I1105 13:55:04.926146 23098 net.cpp:103] Top shape: 8 512 28 28 (3211264)
I1105 13:55:04.926149 23098 layer_factory.hpp:78] Creating layer conv4_3
I1105 13:55:04.926156 23098 net.cpp:67] Creating Layer conv4_3
I1105 13:55:04.926158 23098 net.cpp:394] conv4_3 <- conv4_2
I1105 13:55:04.926163 23098 net.cpp:356] conv4_3 -> conv4_3
I1105 13:55:04.926172 23098 net.cpp:96] Setting up conv4_3
I1105 13:55:04.981793 23098 net.cpp:103] Top shape: 8 512 28 28 (3211264)
I1105 13:55:04.981830 23098 layer_factory.hpp:78] Creating layer relu4_3
I1105 13:55:04.981840 23098 net.cpp:67] Creating Layer relu4_3
I1105 13:55:04.981844 23098 net.cpp:394] relu4_3 <- conv4_3
I1105 13:55:04.981850 23098 net.cpp:345] relu4_3 -> conv4_3 (in-place)
I1105 13:55:04.981856 23098 net.cpp:96] Setting up relu4_3
I1105 13:55:04.981861 23098 net.cpp:103] Top shape: 8 512 28 28 (3211264)
I1105 13:55:04.981865 23098 layer_factory.hpp:78] Creating layer pool4
I1105 13:55:04.981870 23098 net.cpp:67] Creating Layer pool4
I1105 13:55:04.981873 23098 net.cpp:394] pool4 <- conv4_3
I1105 13:55:04.981878 23098 net.cpp:356] pool4 -> pool4
I1105 13:55:04.981883 23098 net.cpp:96] Setting up pool4
I1105 13:55:04.981889 23098 net.cpp:103] Top shape: 8 512 14 14 (802816)
I1105 13:55:04.981892 23098 layer_factory.hpp:78] Creating layer conv5_1
I1105 13:55:04.981900 23098 net.cpp:67] Creating Layer conv5_1
I1105 13:55:04.981904 23098 net.cpp:394] conv5_1 <- pool4
I1105 13:55:04.981909 23098 net.cpp:356] conv5_1 -> conv5_1
I1105 13:55:04.981914 23098 net.cpp:96] Setting up conv5_1
I1105 13:55:05.037503 23098 net.cpp:103] Top shape: 8 512 14 14 (802816)
I1105 13:55:05.037528 23098 layer_factory.hpp:78] Creating layer relu5_1
I1105 13:55:05.037536 23098 net.cpp:67] Creating Layer relu5_1
I1105 13:55:05.037540 23098 net.cpp:394] relu5_1 <- conv5_1
I1105 13:55:05.037546 23098 net.cpp:345] relu5_1 -> conv5_1 (in-place)
I1105 13:55:05.037552 23098 net.cpp:96] Setting up relu5_1
I1105 13:55:05.037559 23098 net.cpp:103] Top shape: 8 512 14 14 (802816)
I1105 13:55:05.037561 23098 layer_factory.hpp:78] Creating layer conv5_2
I1105 13:55:05.037567 23098 net.cpp:67] Creating Layer conv5_2
I1105 13:55:05.037569 23098 net.cpp:394] conv5_2 <- conv5_1
I1105 13:55:05.037577 23098 net.cpp:356] conv5_2 -> conv5_2
I1105 13:55:05.037583 23098 net.cpp:96] Setting up conv5_2
I1105 13:55:05.093062 23098 net.cpp:103] Top shape: 8 512 14 14 (802816)
I1105 13:55:05.093099 23098 layer_factory.hpp:78] Creating layer relu5_2
I1105 13:55:05.093107 23098 net.cpp:67] Creating Layer relu5_2
I1105 13:55:05.093111 23098 net.cpp:394] relu5_2 <- conv5_2
I1105 13:55:05.093118 23098 net.cpp:345] relu5_2 -> conv5_2 (in-place)
I1105 13:55:05.093124 23098 net.cpp:96] Setting up relu5_2
I1105 13:55:05.093129 23098 net.cpp:103] Top shape: 8 512 14 14 (802816)
I1105 13:55:05.093132 23098 layer_factory.hpp:78] Creating layer conv5_3
I1105 13:55:05.093139 23098 net.cpp:67] Creating Layer conv5_3
I1105 13:55:05.093142 23098 net.cpp:394] conv5_3 <- conv5_2
I1105 13:55:05.093147 23098 net.cpp:356] conv5_3 -> conv5_3
I1105 13:55:05.093153 23098 net.cpp:96] Setting up conv5_3
I1105 13:55:05.148907 23098 net.cpp:103] Top shape: 8 512 14 14 (802816)
I1105 13:55:05.148942 23098 layer_factory.hpp:78] Creating layer relu5_3
I1105 13:55:05.148952 23098 net.cpp:67] Creating Layer relu5_3
I1105 13:55:05.148957 23098 net.cpp:394] relu5_3 <- conv5_3
I1105 13:55:05.148964 23098 net.cpp:345] relu5_3 -> conv5_3 (in-place)
I1105 13:55:05.148972 23098 net.cpp:96] Setting up relu5_3
I1105 13:55:05.148977 23098 net.cpp:103] Top shape: 8 512 14 14 (802816)
I1105 13:55:05.148979 23098 layer_factory.hpp:78] Creating layer pool5
I1105 13:55:05.148993 23098 net.cpp:67] Creating Layer pool5
I1105 13:55:05.148995 23098 net.cpp:394] pool5 <- conv5_3
I1105 13:55:05.149000 23098 net.cpp:356] pool5 -> pool5
I1105 13:55:05.149005 23098 net.cpp:96] Setting up pool5
I1105 13:55:05.149013 23098 net.cpp:103] Top shape: 8 512 7 7 (200704)
I1105 13:55:05.149015 23098 layer_factory.hpp:78] Creating layer fc6
I1105 13:55:05.149021 23098 net.cpp:67] Creating Layer fc6
I1105 13:55:05.149024 23098 net.cpp:394] fc6 <- pool5
I1105 13:55:05.149030 23098 net.cpp:356] fc6 -> fc6
I1105 13:55:05.149036 23098 net.cpp:96] Setting up fc6
I1105 13:55:07.571095 23098 net.cpp:103] Top shape: 8 4096 1 1 (32768)
I1105 13:55:07.571140 23098 layer_factory.hpp:78] Creating layer relu6
I1105 13:55:07.571149 23098 net.cpp:67] Creating Layer relu6
I1105 13:55:07.571166 23098 net.cpp:394] relu6 <- fc6
I1105 13:55:07.571174 23098 net.cpp:345] relu6 -> fc6 (in-place)
I1105 13:55:07.571182 23098 net.cpp:96] Setting up relu6
I1105 13:55:07.571198 23098 net.cpp:103] Top shape: 8 4096 1 1 (32768)
I1105 13:55:07.571202 23098 layer_factory.hpp:78] Creating layer drop6
I1105 13:55:07.571207 23098 net.cpp:67] Creating Layer drop6
I1105 13:55:07.571209 23098 net.cpp:394] drop6 <- fc6
I1105 13:55:07.571213 23098 net.cpp:345] drop6 -> fc6 (in-place)
I1105 13:55:07.571218 23098 net.cpp:96] Setting up drop6
I1105 13:55:07.571221 23098 net.cpp:103] Top shape: 8 4096 1 1 (32768)
I1105 13:55:07.571224 23098 layer_factory.hpp:78] Creating layer fc7
I1105 13:55:07.571233 23098 net.cpp:67] Creating Layer fc7
I1105 13:55:07.571236 23098 net.cpp:394] fc7 <- fc6
I1105 13:55:07.571241 23098 net.cpp:356] fc7 -> fc7
I1105 13:55:07.571248 23098 net.cpp:96] Setting up fc7
I1105 13:55:07.968375 23098 net.cpp:103] Top shape: 8 4096 1 1 (32768)
I1105 13:55:07.968420 23098 layer_factory.hpp:78] Creating layer relu7
I1105 13:55:07.968428 23098 net.cpp:67] Creating Layer relu7
I1105 13:55:07.968433 23098 net.cpp:394] relu7 <- fc7
I1105 13:55:07.968439 23098 net.cpp:345] relu7 -> fc7 (in-place)
I1105 13:55:07.968446 23098 net.cpp:96] Setting up relu7
I1105 13:55:07.968461 23098 net.cpp:103] Top shape: 8 4096 1 1 (32768)
I1105 13:55:07.968466 23098 layer_factory.hpp:78] Creating layer drop7
I1105 13:55:07.968472 23098 net.cpp:67] Creating Layer drop7
I1105 13:55:07.968474 23098 net.cpp:394] drop7 <- fc7
I1105 13:55:07.968480 23098 net.cpp:345] drop7 -> fc7 (in-place)
I1105 13:55:07.968485 23098 net.cpp:96] Setting up drop7
I1105 13:55:07.968488 23098 net.cpp:103] Top shape: 8 4096 1 1 (32768)
I1105 13:55:07.968492 23098 layer_factory.hpp:78] Creating layer fc8_2
I1105 13:55:07.968497 23098 net.cpp:67] Creating Layer fc8_2
I1105 13:55:07.968500 23098 net.cpp:394] fc8_2 <- fc7
I1105 13:55:07.968507 23098 net.cpp:356] fc8_2 -> fc8_2
I1105 13:55:07.968513 23098 net.cpp:96] Setting up fc8_2
I1105 13:55:07.968729 23098 net.cpp:103] Top shape: 8 2 1 1 (16)
I1105 13:55:07.968735 23098 layer_factory.hpp:78] Creating layer fc8_2_fc8_2_0_split
I1105 13:55:07.968742 23098 net.cpp:67] Creating Layer fc8_2_fc8_2_0_split
I1105 13:55:07.968745 23098 net.cpp:394] fc8_2_fc8_2_0_split <- fc8_2
I1105 13:55:07.968751 23098 net.cpp:356] fc8_2_fc8_2_0_split -> fc8_2_fc8_2_0_split_0
I1105 13:55:07.968760 23098 net.cpp:356] fc8_2_fc8_2_0_split -> fc8_2_fc8_2_0_split_1
I1105 13:55:07.968766 23098 net.cpp:96] Setting up fc8_2_fc8_2_0_split
I1105 13:55:07.968772 23098 net.cpp:103] Top shape: 8 2 1 1 (16)
I1105 13:55:07.968775 23098 net.cpp:103] Top shape: 8 2 1 1 (16)
I1105 13:55:07.968780 23098 layer_factory.hpp:78] Creating layer loss
I1105 13:55:07.968786 23098 net.cpp:67] Creating Layer loss
I1105 13:55:07.968791 23098 net.cpp:394] loss <- fc8_2_fc8_2_0_split_0
I1105 13:55:07.968794 23098 net.cpp:394] loss <- label_data_1_split_0
I1105 13:55:07.968801 23098 net.cpp:356] loss -> (automatic)
I1105 13:55:07.968806 23098 net.cpp:96] Setting up loss
I1105 13:55:07.968812 23098 net.cpp:103] Top shape: 1 1 1 1 (1)
I1105 13:55:07.968817 23098 net.cpp:109]     with loss weight 1
I1105 13:55:07.968832 23098 layer_factory.hpp:78] Creating layer accuracy
I1105 13:55:07.968840 23098 net.cpp:67] Creating Layer accuracy
I1105 13:55:07.968845 23098 net.cpp:394] accuracy <- fc8_2_fc8_2_0_split_1
I1105 13:55:07.968848 23098 net.cpp:394] accuracy <- label_data_1_split_1
I1105 13:55:07.968857 23098 net.cpp:356] accuracy -> accuracy
I1105 13:55:07.968864 23098 net.cpp:96] Setting up accuracy
I1105 13:55:07.968873 23098 net.cpp:103] Top shape: 1 1 1 4 (4)
I1105 13:55:07.968878 23098 net.cpp:172] accuracy does not need backward computation.
I1105 13:55:07.968880 23098 net.cpp:170] loss needs backward computation.
I1105 13:55:07.968883 23098 net.cpp:170] fc8_2_fc8_2_0_split needs backward computation.
I1105 13:55:07.968888 23098 net.cpp:170] fc8_2 needs backward computation.
I1105 13:55:07.968890 23098 net.cpp:170] drop7 needs backward computation.
…
