…
I1104 13:55:15.227336 28903 net.cpp:275] The NetState phase (0) differed from the phase (1) specified by a rule in layer accuracy
I1104 13:55:15.227524 28903 net.cpp:39] Initializing net from parameters: 
name: "VGG_ILSVRC_16_layers"
layers {
  top: "data"
  top: "label"
  name: "data"
  type: IMAGE_DATA
  image_data_param {
    source: "/data/ad6813/devCaffe/caffe/task/clamp/clampTrain.txt"
    batch_size: 32
    new_height: 256
    new_width: 256
  }
  include {
    phase: TRAIN
  }
  transform_param {
    mirror: true
    crop_size: 224
    mean_file: "/data/ad6813/devCaffe/caffe/clampdetMeanVal"
  }
}
layers {
  bottom: "data"
  top: "conv1_1"
  name: "conv1_1"
  type: CONVOLUTION
  convolution_param {
    num_output: 64
    pad: 1
    kernel_size: 3
    weight_filler {
      type: "gaussian"
      std: 0.01
    }
    bias_filler {
      type: "constant"
      value: 0
    }
  }
}
layers {
  bottom: "conv1_1"
  top: "conv1_1"
  name: "relu1_1"
  type: RELU
}
layers {
  bottom: "conv1_1"
  top: "conv1_2"
  name: "conv1_2"
  type: CONVOLUTION
  convolution_param {
    num_output: 64
    pad: 1
    kernel_size: 3
    weight_filler {
      type: "gaussian"
      std: 0.01
    }
    bias_filler {
      type: "constant"
      value: 0
    }
  }
}
layers {
  bottom: "conv1_2"
  top: "conv1_2"
  name: "relu1_2"
  type: RELU
}
layers {
  bottom: "conv1_2"
  top: "pool1"
  name: "pool1"
  type: POOLING
  pooling_param {
    pool: MAX
    kernel_size: 2
    stride: 2
  }
}
layers {
  bottom: "pool1"
  top: "conv2_1"
  name: "conv2_1"
  type: CONVOLUTION
  convolution_param {
    num_output: 128
    pad: 1
    kernel_size: 3
    weight_filler {
      type: "gaussian"
      std: 0.01
    }
    bias_filler {
      type: "constant"
      value: 0
    }
  }
}
layers {
  bottom: "conv2_1"
  top: "conv2_1"
  name: "relu2_1"
  type: RELU
}
layers {
  bottom: "conv2_1"
  top: "conv2_2"
  name: "conv2_2"
  type: CONVOLUTION
  convolution_param {
    num_output: 128
    pad: 1
    kernel_size: 3
    weight_filler {
      type: "gaussian"
      std: 0.01
    }
    bias_filler {
      type: "constant"
      value: 0
    }
  }
}
layers {
  bottom: "conv2_2"
  top: "conv2_2"
  name: "relu2_2"
  type: RELU
}
layers {
  bottom: "conv2_2"
  top: "pool2"
  name: "pool2"
  type: POOLING
  pooling_param {
    pool: MAX
    kernel_size: 2
    stride: 2
  }
}
layers {
  bottom: "pool2"
  top: "conv3_1"
  name: "conv3_1"
  type: CONVOLUTION
  convolution_param {
    num_output: 256
    pad: 1
    kernel_size: 3
    weight_filler {
      type: "gaussian"
      std: 0.01
    }
    bias_filler {
      type: "constant"
      value: 0
    }
  }
}
layers {
  bottom: "conv3_1"
  top: "conv3_1"
  name: "relu3_1"
  type: RELU
}
layers {
  bottom: "conv3_1"
  top: "conv3_2"
  name: "conv3_2"
  type: CONVOLUTION
  convolution_param {
    num_output: 256
    pad: 1
    kernel_size: 3
    weight_filler {
      type: "gaussian"
      std: 0.01
    }
    bias_filler {
      type: "constant"
      value: 0
    }
  }
}
layers {
  bottom: "conv3_2"
  top: "conv3_2"
  name: "relu3_2"
  type: RELU
}
layers {
  bottom: "conv3_2"
  top: "conv3_3"
  name: "conv3_3"
  type: CONVOLUTION
  convolution_param {
    num_output: 256
    pad: 1
    kernel_size: 3
    weight_filler {
      type: "gaussian"
      std: 0.01
    }
    bias_filler {
      type: "constant"
      value: 0
    }
  }
}
layers {
  bottom: "conv3_3"
  top: "conv3_3"
  name: "relu3_3"
  type: RELU
}
layers {
  bottom: "conv3_3"
  top: "pool3"
  name: "pool3"
  type: POOLING
  pooling_param {
    pool: MAX
    kernel_size: 2
    stride: 2
  }
}
layers {
  bottom: "pool3"
  top: "conv4_1"
  name: "conv4_1"
  type: CONVOLUTION
  convolution_param {
    num_output: 512
    pad: 1
    kernel_size: 3
    weight_filler {
      type: "gaussian"
      std: 0.01
    }
    bias_filler {
      type: "constant"
      value: 0
    }
  }
}
layers {
  bottom: "conv4_1"
  top: "conv4_1"
  name: "relu4_1"
  type: RELU
}
layers {
  bottom: "conv4_1"
  top: "conv4_2"
  name: "conv4_2"
  type: CONVOLUTION
  convolution_param {
    num_output: 512
    pad: 1
    kernel_size: 3
    weight_filler {
      type: "gaussian"
      std: 0.01
    }
    bias_filler {
      type: "constant"
      value: 0
    }
  }
}
layers {
  bottom: "conv4_2"
  top: "conv4_2"
  name: "relu4_2"
  type: RELU
}
layers {
  bottom: "conv4_2"
  top: "conv4_3"
  name: "conv4_3"
  type: CONVOLUTION
  convolution_param {
    num_output: 512
    pad: 1
    kernel_size: 3
    weight_filler {
      type: "gaussian"
      std: 0.01
    }
    bias_filler {
      type: "constant"
      value: 0
    }
  }
}
layers {
  bottom: "conv4_3"
  top: "conv4_3"
  name: "relu4_3"
  type: RELU
}
layers {
  bottom: "conv4_3"
  top: "pool4"
  name: "pool4"
  type: POOLING
  pooling_param {
    pool: MAX
    kernel_size: 2
    stride: 2
  }
}
layers {
  bottom: "pool4"
  top: "conv5_1"
  name: "conv5_1"
  type: CONVOLUTION
  convolution_param {
    num_output: 512
    pad: 1
    kernel_size: 3
    weight_filler {
      type: "gaussian"
      std: 0.01
    }
    bias_filler {
      type: "constant"
      value: 0
    }
  }
}
layers {
  bottom: "conv5_1"
  top: "conv5_1"
  name: "relu5_1"
  type: RELU
}
layers {
  bottom: "conv5_1"
  top: "conv5_2"
  name: "conv5_2"
  type: CONVOLUTION
  convolution_param {
    num_output: 512
    pad: 1
    kernel_size: 3
    weight_filler {
      type: "gaussian"
      std: 0.01
    }
    bias_filler {
      type: "constant"
      value: 0
    }
  }
}
layers {
  bottom: "conv5_2"
  top: "conv5_2"
  name: "relu5_2"
  type: RELU
}
layers {
  bottom: "conv5_2"
  top: "conv5_3"
  name: "conv5_3"
  type: CONVOLUTION
  convolution_param {
    num_output: 512
    pad: 1
    kernel_size: 3
    weight_filler {
      type: "gaussian"
      std: 0.01
    }
    bias_filler {
      type: "constant"
      value: 0
    }
  }
}
layers {
  bottom: "conv5_3"
  top: "conv5_3"
  name: "relu5_3"
  type: RELU
}
layers {
  bottom: "conv5_3"
  top: "pool5"
  name: "pool5"
  type: POOLING
  pooling_param {
    pool: MAX
    kernel_size: 2
    stride: 2
  }
}
layers {
  bottom: "pool5"
  top: "fc6"
  name: "fc6"
  type: INNER_PRODUCT
  inner_product_param {
    num_output: 4096
    weight_filler {
      type: "gaussian"
      std: 0.01
    }
    bias_filler {
      type: "constant"
      value: 0
    }
  }
}
layers {
  bottom: "fc6"
  top: "fc6"
  name: "relu6"
  type: RELU
}
layers {
  bottom: "fc6"
  top: "fc6"
  name: "drop6"
  type: DROPOUT
  dropout_param {
    dropout_ratio: 0.5
  }
}
layers {
  bottom: "fc6"
  top: "fc7"
  name: "fc7"
  type: INNER_PRODUCT
  inner_product_param {
    num_output: 4096
    weight_filler {
      type: "gaussian"
      std: 0.01
    }
    bias_filler {
      type: "constant"
      value: 0
    }
  }
}
layers {
  bottom: "fc7"
  top: "fc7"
  name: "relu7"
  type: RELU
}
layers {
  bottom: "fc7"
  top: "fc7"
  name: "drop7"
  type: DROPOUT
  dropout_param {
    dropout_ratio: 0.5
  }
}
layers {
  bottom: "fc7"
  top: "fc8_2"
  name: "fc8_2"
  type: INNER_PRODUCT
  inner_product_param {
    num_output: 2
    weight_filler {
      type: "gaussian"
      std: 0.01
    }
    bias_filler {
      type: "constant"
      value: 0
    }
  }
}
layers {
  bottom: "fc8_2"
  bottom: "label"
  name: "loss"
  type: SOFTMAX_LOSS
}
state {
  phase: TRAIN
}
I1104 13:55:15.227650 28903 layer_factory.hpp:78] Creating layer data
I1104 13:55:15.227669 28903 data_transformer.cpp:24] Loading mean file from/data/ad6813/devCaffe/caffe/clampdetMeanVal
I1104 13:55:15.229219 28903 net.cpp:67] Creating Layer data
I1104 13:55:15.229233 28903 net.cpp:356] data -> data
I1104 13:55:15.229249 28903 net.cpp:356] data -> label
I1104 13:55:15.229259 28903 net.cpp:96] Setting up data
I1104 13:55:15.229264 28903 image_data_layer.cpp:34] Opening file /data/ad6813/devCaffe/caffe/task/clamp/clampTrain.txt
I1104 13:55:15.237149 28903 image_data_layer.cpp:49] A total of 23494 images.
I1104 13:55:15.248649 28903 image_data_layer.cpp:78] output data size: 32,3,224,224
I1104 13:55:15.251735 28903 net.cpp:103] Top shape: 32 3 224 224 (4816896)
I1104 13:55:15.251785 28903 net.cpp:103] Top shape: 32 1 1 1 (32)
I1104 13:55:15.251791 28903 layer_factory.hpp:78] Creating layer conv1_1
I1104 13:55:15.251806 28903 net.cpp:67] Creating Layer conv1_1
I1104 13:55:15.251809 28903 net.cpp:394] conv1_1 <- data
I1104 13:55:15.251822 28903 net.cpp:356] conv1_1 -> conv1_1
I1104 13:55:15.251832 28903 net.cpp:96] Setting up conv1_1
I1104 13:55:15.268777 28903 net.cpp:103] Top shape: 32 64 224 224 (102760448)
I1104 13:55:15.268810 28903 layer_factory.hpp:78] Creating layer relu1_1
I1104 13:55:15.268822 28903 net.cpp:67] Creating Layer relu1_1
I1104 13:55:15.268826 28903 net.cpp:394] relu1_1 <- conv1_1
I1104 13:55:15.268833 28903 net.cpp:345] relu1_1 -> conv1_1 (in-place)
I1104 13:55:15.268841 28903 net.cpp:96] Setting up relu1_1
I1104 13:55:15.268849 28903 net.cpp:103] Top shape: 32 64 224 224 (102760448)
I1104 13:55:15.268852 28903 layer_factory.hpp:78] Creating layer conv1_2
I1104 13:55:15.268859 28903 net.cpp:67] Creating Layer conv1_2
I1104 13:55:15.268862 28903 net.cpp:394] conv1_2 <- conv1_1
I1104 13:55:15.268867 28903 net.cpp:356] conv1_2 -> conv1_2
I1104 13:55:15.268873 28903 net.cpp:96] Setting up conv1_2
I1104 13:55:15.269942 28903 net.cpp:103] Top shape: 32 64 224 224 (102760448)
I1104 13:55:15.269954 28903 layer_factory.hpp:78] Creating layer relu1_2
I1104 13:55:15.269963 28903 net.cpp:67] Creating Layer relu1_2
I1104 13:55:15.269965 28903 net.cpp:394] relu1_2 <- conv1_2
I1104 13:55:15.269970 28903 net.cpp:345] relu1_2 -> conv1_2 (in-place)
I1104 13:55:15.269974 28903 net.cpp:96] Setting up relu1_2
I1104 13:55:15.269979 28903 net.cpp:103] Top shape: 32 64 224 224 (102760448)
I1104 13:55:15.269984 28903 layer_factory.hpp:78] Creating layer pool1
I1104 13:55:15.269994 28903 net.cpp:67] Creating Layer pool1
I1104 13:55:15.269996 28903 net.cpp:394] pool1 <- conv1_2
I1104 13:55:15.270001 28903 net.cpp:356] pool1 -> pool1
I1104 13:55:15.270006 28903 net.cpp:96] Setting up pool1
I1104 13:55:15.270022 28903 net.cpp:103] Top shape: 32 64 112 112 (25690112)
I1104 13:55:15.270028 28903 layer_factory.hpp:78] Creating layer conv2_1
I1104 13:55:15.270033 28903 net.cpp:67] Creating Layer conv2_1
I1104 13:55:15.270036 28903 net.cpp:394] conv2_1 <- pool1
I1104 13:55:15.270043 28903 net.cpp:356] conv2_1 -> conv2_1
I1104 13:55:15.270048 28903 net.cpp:96] Setting up conv2_1
I1104 13:55:15.271985 28903 net.cpp:103] Top shape: 32 128 112 112 (51380224)
I1104 13:55:15.271997 28903 layer_factory.hpp:78] Creating layer relu2_1
I1104 13:55:15.272003 28903 net.cpp:67] Creating Layer relu2_1
I1104 13:55:15.272006 28903 net.cpp:394] relu2_1 <- conv2_1
I1104 13:55:15.272012 28903 net.cpp:345] relu2_1 -> conv2_1 (in-place)
I1104 13:55:15.272017 28903 net.cpp:96] Setting up relu2_1
I1104 13:55:15.272022 28903 net.cpp:103] Top shape: 32 128 112 112 (51380224)
I1104 13:55:15.272025 28903 layer_factory.hpp:78] Creating layer conv2_2
I1104 13:55:15.272032 28903 net.cpp:67] Creating Layer conv2_2
I1104 13:55:15.272035 28903 net.cpp:394] conv2_2 <- conv2_1
I1104 13:55:15.272039 28903 net.cpp:356] conv2_2 -> conv2_2
I1104 13:55:15.272044 28903 net.cpp:96] Setting up conv2_2
I1104 13:55:15.275813 28903 net.cpp:103] Top shape: 32 128 112 112 (51380224)
I1104 13:55:15.275826 28903 layer_factory.hpp:78] Creating layer relu2_2
I1104 13:55:15.275833 28903 net.cpp:67] Creating Layer relu2_2
I1104 13:55:15.275836 28903 net.cpp:394] relu2_2 <- conv2_2
I1104 13:55:15.275848 28903 net.cpp:345] relu2_2 -> conv2_2 (in-place)
I1104 13:55:15.275854 28903 net.cpp:96] Setting up relu2_2
I1104 13:55:15.275858 28903 net.cpp:103] Top shape: 32 128 112 112 (51380224)
I1104 13:55:15.275862 28903 layer_factory.hpp:78] Creating layer pool2
I1104 13:55:15.275866 28903 net.cpp:67] Creating Layer pool2
I1104 13:55:15.275869 28903 net.cpp:394] pool2 <- conv2_2
I1104 13:55:15.275876 28903 net.cpp:356] pool2 -> pool2
I1104 13:55:15.275879 28903 net.cpp:96] Setting up pool2
I1104 13:55:15.275885 28903 net.cpp:103] Top shape: 32 128 56 56 (12845056)
I1104 13:55:15.275888 28903 layer_factory.hpp:78] Creating layer conv3_1
I1104 13:55:15.275893 28903 net.cpp:67] Creating Layer conv3_1
I1104 13:55:15.275897 28903 net.cpp:394] conv3_1 <- pool2
I1104 13:55:15.275902 28903 net.cpp:356] conv3_1 -> conv3_1
I1104 13:55:15.275907 28903 net.cpp:96] Setting up conv3_1
I1104 13:55:15.283308 28903 net.cpp:103] Top shape: 32 256 56 56 (25690112)
I1104 13:55:15.283324 28903 layer_factory.hpp:78] Creating layer relu3_1
I1104 13:55:15.283331 28903 net.cpp:67] Creating Layer relu3_1
I1104 13:55:15.283334 28903 net.cpp:394] relu3_1 <- conv3_1
I1104 13:55:15.283340 28903 net.cpp:345] relu3_1 -> conv3_1 (in-place)
I1104 13:55:15.283346 28903 net.cpp:96] Setting up relu3_1
I1104 13:55:15.283351 28903 net.cpp:103] Top shape: 32 256 56 56 (25690112)
I1104 13:55:15.283354 28903 layer_factory.hpp:78] Creating layer conv3_2
I1104 13:55:15.283360 28903 net.cpp:67] Creating Layer conv3_2
I1104 13:55:15.283362 28903 net.cpp:394] conv3_2 <- conv3_1
I1104 13:55:15.283370 28903 net.cpp:356] conv3_2 -> conv3_2
I1104 13:55:15.283375 28903 net.cpp:96] Setting up conv3_2
I1104 13:55:15.298280 28903 net.cpp:103] Top shape: 32 256 56 56 (25690112)
I1104 13:55:15.298301 28903 layer_factory.hpp:78] Creating layer relu3_2
I1104 13:55:15.298310 28903 net.cpp:67] Creating Layer relu3_2
I1104 13:55:15.298313 28903 net.cpp:394] relu3_2 <- conv3_2
I1104 13:55:15.298318 28903 net.cpp:345] relu3_2 -> conv3_2 (in-place)
I1104 13:55:15.298324 28903 net.cpp:96] Setting up relu3_2
I1104 13:55:15.298329 28903 net.cpp:103] Top shape: 32 256 56 56 (25690112)
I1104 13:55:15.298332 28903 layer_factory.hpp:78] Creating layer conv3_3
I1104 13:55:15.298338 28903 net.cpp:67] Creating Layer conv3_3
I1104 13:55:15.298341 28903 net.cpp:394] conv3_3 <- conv3_2
I1104 13:55:15.298346 28903 net.cpp:356] conv3_3 -> conv3_3
I1104 13:55:15.298352 28903 net.cpp:96] Setting up conv3_3
I1104 13:55:15.313149 28903 net.cpp:103] Top shape: 32 256 56 56 (25690112)
I1104 13:55:15.313171 28903 layer_factory.hpp:78] Creating layer relu3_3
I1104 13:55:15.313185 28903 net.cpp:67] Creating Layer relu3_3
I1104 13:55:15.313189 28903 net.cpp:394] relu3_3 <- conv3_3
I1104 13:55:15.313195 28903 net.cpp:345] relu3_3 -> conv3_3 (in-place)
I1104 13:55:15.313201 28903 net.cpp:96] Setting up relu3_3
I1104 13:55:15.313206 28903 net.cpp:103] Top shape: 32 256 56 56 (25690112)
I1104 13:55:15.313210 28903 layer_factory.hpp:78] Creating layer pool3
I1104 13:55:15.313215 28903 net.cpp:67] Creating Layer pool3
I1104 13:55:15.313218 28903 net.cpp:394] pool3 <- conv3_3
I1104 13:55:15.313225 28903 net.cpp:356] pool3 -> pool3
I1104 13:55:15.313230 28903 net.cpp:96] Setting up pool3
I1104 13:55:15.313237 28903 net.cpp:103] Top shape: 32 256 28 28 (6422528)
I1104 13:55:15.313241 28903 layer_factory.hpp:78] Creating layer conv4_1
I1104 13:55:15.313246 28903 net.cpp:67] Creating Layer conv4_1
I1104 13:55:15.313251 28903 net.cpp:394] conv4_1 <- pool3
I1104 13:55:15.313256 28903 net.cpp:356] conv4_1 -> conv4_1
I1104 13:55:15.313261 28903 net.cpp:96] Setting up conv4_1
I1104 13:55:15.342382 28903 net.cpp:103] Top shape: 32 512 28 28 (12845056)
I1104 13:55:15.342404 28903 layer_factory.hpp:78] Creating layer relu4_1
I1104 13:55:15.342414 28903 net.cpp:67] Creating Layer relu4_1
I1104 13:55:15.342419 28903 net.cpp:394] relu4_1 <- conv4_1
I1104 13:55:15.342425 28903 net.cpp:345] relu4_1 -> conv4_1 (in-place)
I1104 13:55:15.342432 28903 net.cpp:96] Setting up relu4_1
I1104 13:55:15.342448 28903 net.cpp:103] Top shape: 32 512 28 28 (12845056)
I1104 13:55:15.342452 28903 layer_factory.hpp:78] Creating layer conv4_2
I1104 13:55:15.342459 28903 net.cpp:67] Creating Layer conv4_2
I1104 13:55:15.342463 28903 net.cpp:394] conv4_2 <- conv4_1
I1104 13:55:15.342468 28903 net.cpp:356] conv4_2 -> conv4_2
I1104 13:55:15.342473 28903 net.cpp:96] Setting up conv4_2
I1104 13:55:15.400270 28903 net.cpp:103] Top shape: 32 512 28 28 (12845056)
I1104 13:55:15.400301 28903 layer_factory.hpp:78] Creating layer relu4_2
I1104 13:55:15.400310 28903 net.cpp:67] Creating Layer relu4_2
I1104 13:55:15.400315 28903 net.cpp:394] relu4_2 <- conv4_2
I1104 13:55:15.400321 28903 net.cpp:345] relu4_2 -> conv4_2 (in-place)
I1104 13:55:15.400327 28903 net.cpp:96] Setting up relu4_2
I1104 13:55:15.400332 28903 net.cpp:103] Top shape: 32 512 28 28 (12845056)
I1104 13:55:15.400336 28903 layer_factory.hpp:78] Creating layer conv4_3
I1104 13:55:15.400342 28903 net.cpp:67] Creating Layer conv4_3
I1104 13:55:15.400346 28903 net.cpp:394] conv4_3 <- conv4_2
I1104 13:55:15.400352 28903 net.cpp:356] conv4_3 -> conv4_3
I1104 13:55:15.400357 28903 net.cpp:96] Setting up conv4_3
I1104 13:55:15.457908 28903 net.cpp:103] Top shape: 32 512 28 28 (12845056)
I1104 13:55:15.457933 28903 layer_factory.hpp:78] Creating layer relu4_3
I1104 13:55:15.457942 28903 net.cpp:67] Creating Layer relu4_3
I1104 13:55:15.457947 28903 net.cpp:394] relu4_3 <- conv4_3
I1104 13:55:15.457953 28903 net.cpp:345] relu4_3 -> conv4_3 (in-place)
I1104 13:55:15.457960 28903 net.cpp:96] Setting up relu4_3
I1104 13:55:15.457965 28903 net.cpp:103] Top shape: 32 512 28 28 (12845056)
I1104 13:55:15.457969 28903 layer_factory.hpp:78] Creating layer pool4
I1104 13:55:15.457976 28903 net.cpp:67] Creating Layer pool4
I1104 13:55:15.457979 28903 net.cpp:394] pool4 <- conv4_3
I1104 13:55:15.457984 28903 net.cpp:356] pool4 -> pool4
I1104 13:55:15.457990 28903 net.cpp:96] Setting up pool4
I1104 13:55:15.457998 28903 net.cpp:103] Top shape: 32 512 14 14 (3211264)
I1104 13:55:15.458001 28903 layer_factory.hpp:78] Creating layer conv5_1
I1104 13:55:15.458009 28903 net.cpp:67] Creating Layer conv5_1
I1104 13:55:15.458011 28903 net.cpp:394] conv5_1 <- pool4
I1104 13:55:15.458016 28903 net.cpp:356] conv5_1 -> conv5_1
I1104 13:55:15.458024 28903 net.cpp:96] Setting up conv5_1
I1104 13:55:15.515974 28903 net.cpp:103] Top shape: 32 512 14 14 (3211264)
I1104 13:55:15.515996 28903 layer_factory.hpp:78] Creating layer relu5_1
I1104 13:55:15.516005 28903 net.cpp:67] Creating Layer relu5_1
I1104 13:55:15.516010 28903 net.cpp:394] relu5_1 <- conv5_1
I1104 13:55:15.516017 28903 net.cpp:345] relu5_1 -> conv5_1 (in-place)
I1104 13:55:15.516024 28903 net.cpp:96] Setting up relu5_1
I1104 13:55:15.516029 28903 net.cpp:103] Top shape: 32 512 14 14 (3211264)
I1104 13:55:15.516032 28903 layer_factory.hpp:78] Creating layer conv5_2
I1104 13:55:15.516039 28903 net.cpp:67] Creating Layer conv5_2
I1104 13:55:15.516042 28903 net.cpp:394] conv5_2 <- conv5_1
I1104 13:55:15.516047 28903 net.cpp:356] conv5_2 -> conv5_2
I1104 13:55:15.516052 28903 net.cpp:96] Setting up conv5_2
I1104 13:55:15.573417 28903 net.cpp:103] Top shape: 32 512 14 14 (3211264)
I1104 13:55:15.573448 28903 layer_factory.hpp:78] Creating layer relu5_2
I1104 13:55:15.573456 28903 net.cpp:67] Creating Layer relu5_2
I1104 13:55:15.573459 28903 net.cpp:394] relu5_2 <- conv5_2
I1104 13:55:15.573465 28903 net.cpp:345] relu5_2 -> conv5_2 (in-place)
I1104 13:55:15.573472 28903 net.cpp:96] Setting up relu5_2
I1104 13:55:15.573477 28903 net.cpp:103] Top shape: 32 512 14 14 (3211264)
I1104 13:55:15.573479 28903 layer_factory.hpp:78] Creating layer conv5_3
I1104 13:55:15.573487 28903 net.cpp:67] Creating Layer conv5_3
I1104 13:55:15.573489 28903 net.cpp:394] conv5_3 <- conv5_2
I1104 13:55:15.573494 28903 net.cpp:356] conv5_3 -> conv5_3
I1104 13:55:15.573499 28903 net.cpp:96] Setting up conv5_3
I1104 13:55:15.631162 28903 net.cpp:103] Top shape: 32 512 14 14 (3211264)
I1104 13:55:15.631189 28903 layer_factory.hpp:78] Creating layer relu5_3
I1104 13:55:15.631197 28903 net.cpp:67] Creating Layer relu5_3
I1104 13:55:15.631211 28903 net.cpp:394] relu5_3 <- conv5_3
I1104 13:55:15.631218 28903 net.cpp:345] relu5_3 -> conv5_3 (in-place)
I1104 13:55:15.631225 28903 net.cpp:96] Setting up relu5_3
I1104 13:55:15.631230 28903 net.cpp:103] Top shape: 32 512 14 14 (3211264)
I1104 13:55:15.631234 28903 layer_factory.hpp:78] Creating layer pool5
I1104 13:55:15.631239 28903 net.cpp:67] Creating Layer pool5
I1104 13:55:15.631242 28903 net.cpp:394] pool5 <- conv5_3
I1104 13:55:15.631247 28903 net.cpp:356] pool5 -> pool5
I1104 13:55:15.631253 28903 net.cpp:96] Setting up pool5
I1104 13:55:15.631259 28903 net.cpp:103] Top shape: 32 512 7 7 (802816)
I1104 13:55:15.631263 28903 layer_factory.hpp:78] Creating layer fc6
I1104 13:55:15.631278 28903 net.cpp:67] Creating Layer fc6
I1104 13:55:15.631280 28903 net.cpp:394] fc6 <- pool5
I1104 13:55:15.631286 28903 net.cpp:356] fc6 -> fc6
I1104 13:55:15.631292 28903 net.cpp:96] Setting up fc6
I1104 13:55:18.040884 28903 net.cpp:103] Top shape: 32 4096 1 1 (131072)
I1104 13:55:18.040927 28903 layer_factory.hpp:78] Creating layer relu6
I1104 13:55:18.040936 28903 net.cpp:67] Creating Layer relu6
I1104 13:55:18.040941 28903 net.cpp:394] relu6 <- fc6
I1104 13:55:18.040949 28903 net.cpp:345] relu6 -> fc6 (in-place)
I1104 13:55:18.040956 28903 net.cpp:96] Setting up relu6
I1104 13:55:18.040971 28903 net.cpp:103] Top shape: 32 4096 1 1 (131072)
I1104 13:55:18.040973 28903 layer_factory.hpp:78] Creating layer drop6
I1104 13:55:18.040983 28903 net.cpp:67] Creating Layer drop6
I1104 13:55:18.040987 28903 net.cpp:394] drop6 <- fc6
I1104 13:55:18.040990 28903 net.cpp:345] drop6 -> fc6 (in-place)
I1104 13:55:18.040994 28903 net.cpp:96] Setting up drop6
I1104 13:55:18.040999 28903 net.cpp:103] Top shape: 32 4096 1 1 (131072)
I1104 13:55:18.041002 28903 layer_factory.hpp:78] Creating layer fc7
I1104 13:55:18.041008 28903 net.cpp:67] Creating Layer fc7
I1104 13:55:18.041010 28903 net.cpp:394] fc7 <- fc6
I1104 13:55:18.041015 28903 net.cpp:356] fc7 -> fc7
I1104 13:55:18.041021 28903 net.cpp:96] Setting up fc7
I1104 13:55:18.436751 28903 net.cpp:103] Top shape: 32 4096 1 1 (131072)
I1104 13:55:18.436794 28903 layer_factory.hpp:78] Creating layer relu7
I1104 13:55:18.436803 28903 net.cpp:67] Creating Layer relu7
I1104 13:55:18.436808 28903 net.cpp:394] relu7 <- fc7
I1104 13:55:18.436815 28903 net.cpp:345] relu7 -> fc7 (in-place)
I1104 13:55:18.436821 28903 net.cpp:96] Setting up relu7
I1104 13:55:18.436836 28903 net.cpp:103] Top shape: 32 4096 1 1 (131072)
I1104 13:55:18.436838 28903 layer_factory.hpp:78] Creating layer drop7
I1104 13:55:18.436843 28903 net.cpp:67] Creating Layer drop7
I1104 13:55:18.436846 28903 net.cpp:394] drop7 <- fc7
I1104 13:55:18.436851 28903 net.cpp:345] drop7 -> fc7 (in-place)
I1104 13:55:18.436856 28903 net.cpp:96] Setting up drop7
I1104 13:55:18.436859 28903 net.cpp:103] Top shape: 32 4096 1 1 (131072)
I1104 13:55:18.436863 28903 layer_factory.hpp:78] Creating layer fc8_2
I1104 13:55:18.436868 28903 net.cpp:67] Creating Layer fc8_2
I1104 13:55:18.436872 28903 net.cpp:394] fc8_2 <- fc7
I1104 13:55:18.436875 28903 net.cpp:356] fc8_2 -> fc8_2
I1104 13:55:18.436882 28903 net.cpp:96] Setting up fc8_2
I1104 13:55:18.437099 28903 net.cpp:103] Top shape: 32 2 1 1 (64)
I1104 13:55:18.437108 28903 layer_factory.hpp:78] Creating layer loss
I1104 13:55:18.437119 28903 net.cpp:67] Creating Layer loss
I1104 13:55:18.437124 28903 net.cpp:394] loss <- fc8_2
I1104 13:55:18.437126 28903 net.cpp:394] loss <- label
I1104 13:55:18.437134 28903 net.cpp:356] loss -> (automatic)
I1104 13:55:18.437137 28903 net.cpp:96] Setting up loss
I1104 13:55:18.437145 28903 net.cpp:103] Top shape: 1 1 1 1 (1)
I1104 13:55:18.437150 28903 net.cpp:109]     with loss weight 1
I1104 13:55:18.437186 28903 net.cpp:170] loss needs backward computation.
I1104 13:55:18.437191 28903 net.cpp:170] fc8_2 needs backward computation.
I1104 13:55:18.437193 28903 net.cpp:170] drop7 needs backward computation.
I1104 13:55:18.437196 28903 net.cpp:170] relu7 needs backward computation.
I1104 13:55:18.437197 28903 net.cpp:170] fc7 needs backward computation.
…
I1104 13:55:18.438207 28903 net.cpp:275] The NetState phase (1) differed from the phase (0) specified by a rule in layer data
I1104 13:55:18.438426 28903 net.cpp:39] Initializing net from parameters: 
name: "VGG_ILSVRC_16_layers"
layers {
  top: "data"
  top: "label"
  name: "data"
  type: IMAGE_DATA
  image_data_param {
    source: "/data/ad6813/devCaffe/caffe/task/clamp/clampVal.txt"
    batch_size: 8
    new_height: 256
    new_width: 256
  }
  include {
    phase: TEST
  }
  transform_param {
    mirror: true
    crop_size: 224
    mean_file: "/data/ad6813/devCaffe/caffe/clampdetMeanVal"
  }
}
layers {
  bottom: "data"
  top: "conv1_1"
  name: "conv1_1"
  type: CONVOLUTION
  convolution_param {
    num_output: 64
    pad: 1
    kernel_size: 3
    weight_filler {
      type: "gaussian"
      std: 0.01
    }
    bias_filler {
      type: "constant"
      value: 0
    }
  }
}
layers {
  bottom: "conv1_1"
  top: "conv1_1"
  name: "relu1_1"
  type: RELU
}
layers {
  bottom: "conv1_1"
  top: "conv1_2"
  name: "conv1_2"
  type: CONVOLUTION
  convolution_param {
    num_output: 64
    pad: 1
    kernel_size: 3
    weight_filler {
      type: "gaussian"
      std: 0.01
    }
    bias_filler {
      type: "constant"
      value: 0
    }
  }
}
layers {
  bottom: "conv1_2"
  top: "conv1_2"
  name: "relu1_2"
  type: RELU
}
layers {
  bottom: "conv1_2"
  top: "pool1"
  name: "pool1"
  type: POOLING
  pooling_param {
    pool: MAX
    kernel_size: 2
    stride: 2
  }
}
layers {
  bottom: "pool1"
  top: "conv2_1"
  name: "conv2_1"
  type: CONVOLUTION
  convolution_param {
    num_output: 128
    pad: 1
    kernel_size: 3
    weight_filler {
      type: "gaussian"
      std: 0.01
    }
    bias_filler {
      type: "constant"
      value: 0
    }
  }
}
layers {
  bottom: "conv2_1"
  top: "conv2_1"
  name: "relu2_1"
  type: RELU
}
layers {
  bottom: "conv2_1"
  top: "conv2_2"
  name: "conv2_2"
  type: CONVOLUTION
  convolution_param {
    num_output: 128
    pad: 1
    kernel_size: 3
    weight_filler {
      type: "gaussian"
      std: 0.01
    }
    bias_filler {
      type: "constant"
      value: 0
    }
  }
}
layers {
  bottom: "conv2_2"
  top: "conv2_2"
  name: "relu2_2"
  type: RELU
}
layers {
  bottom: "conv2_2"
  top: "pool2"
  name: "pool2"
  type: POOLING
  pooling_param {
    pool: MAX
    kernel_size: 2
    stride: 2
  }
}
layers {
  bottom: "pool2"
  top: "conv3_1"
  name: "conv3_1"
  type: CONVOLUTION
  convolution_param {
    num_output: 256
    pad: 1
    kernel_size: 3
    weight_filler {
      type: "gaussian"
      std: 0.01
    }
    bias_filler {
      type: "constant"
      value: 0
    }
  }
}
layers {
  bottom: "conv3_1"
  top: "conv3_1"
  name: "relu3_1"
  type: RELU
}
layers {
  bottom: "conv3_1"
  top: "conv3_2"
  name: "conv3_2"
  type: CONVOLUTION
  convolution_param {
    num_output: 256
    pad: 1
    kernel_size: 3
    weight_filler {
      type: "gaussian"
      std: 0.01
    }
    bias_filler {
      type: "constant"
      value: 0
    }
  }
}
layers {
  bottom: "conv3_2"
  top: "conv3_2"
  name: "relu3_2"
  type: RELU
}
layers {
  bottom: "conv3_2"
  top: "conv3_3"
  name: "conv3_3"
  type: CONVOLUTION
  convolution_param {
    num_output: 256
    pad: 1
    kernel_size: 3
    weight_filler {
      type: "gaussian"
      std: 0.01
    }
    bias_filler {
      type: "constant"
      value: 0
    }
  }
}
layers {
  bottom: "conv3_3"
  top: "conv3_3"
  name: "relu3_3"
  type: RELU
}
layers {
  bottom: "conv3_3"
  top: "pool3"
  name: "pool3"
  type: POOLING
  pooling_param {
    pool: MAX
    kernel_size: 2
    stride: 2
  }
}
layers {
  bottom: "pool3"
  top: "conv4_1"
  name: "conv4_1"
  type: CONVOLUTION
  convolution_param {
    num_output: 512
    pad: 1
    kernel_size: 3
    weight_filler {
      type: "gaussian"
      std: 0.01
    }
    bias_filler {
      type: "constant"
      value: 0
    }
  }
}
layers {
  bottom: "conv4_1"
  top: "conv4_1"
  name: "relu4_1"
  type: RELU
}
layers {
  bottom: "conv4_1"
  top: "conv4_2"
  name: "conv4_2"
  type: CONVOLUTION
  convolution_param {
    num_output: 512
    pad: 1
    kernel_size: 3
    weight_filler {
      type: "gaussian"
      std: 0.01
    }
    bias_filler {
      type: "constant"
      value: 0
    }
  }
}
layers {
  bottom: "conv4_2"
  top: "conv4_2"
  name: "relu4_2"
  type: RELU
}
layers {
  bottom: "conv4_2"
  top: "conv4_3"
  name: "conv4_3"
  type: CONVOLUTION
  convolution_param {
    num_output: 512
    pad: 1
    kernel_size: 3
    weight_filler {
      type: "gaussian"
      std: 0.01
    }
    bias_filler {
      type: "constant"
      value: 0
    }
  }
}
layers {
  bottom: "conv4_3"
  top: "conv4_3"
  name: "relu4_3"
  type: RELU
}
layers {
  bottom: "conv4_3"
  top: "pool4"
  name: "pool4"
  type: POOLING
  pooling_param {
    pool: MAX
    kernel_size: 2
    stride: 2
  }
}
layers {
  bottom: "pool4"
  top: "conv5_1"
  name: "conv5_1"
  type: CONVOLUTION
  convolution_param {
    num_output: 512
    pad: 1
    kernel_size: 3
    weight_filler {
      type: "gaussian"
      std: 0.01
    }
    bias_filler {
      type: "constant"
      value: 0
    }
  }
}
layers {
  bottom: "conv5_1"
  top: "conv5_1"
  name: "relu5_1"
  type: RELU
}
layers {
  bottom: "conv5_1"
  top: "conv5_2"
  name: "conv5_2"
  type: CONVOLUTION
  convolution_param {
    num_output: 512
    pad: 1
    kernel_size: 3
    weight_filler {
      type: "gaussian"
      std: 0.01
    }
    bias_filler {
      type: "constant"
      value: 0
    }
  }
}
layers {
  bottom: "conv5_2"
  top: "conv5_2"
  name: "relu5_2"
  type: RELU
}
layers {
  bottom: "conv5_2"
  top: "conv5_3"
  name: "conv5_3"
  type: CONVOLUTION
  convolution_param {
    num_output: 512
    pad: 1
    kernel_size: 3
    weight_filler {
      type: "gaussian"
      std: 0.01
    }
    bias_filler {
      type: "constant"
      value: 0
    }
  }
}
layers {
  bottom: "conv5_3"
  top: "conv5_3"
  name: "relu5_3"
  type: RELU
}
layers {
  bottom: "conv5_3"
  top: "pool5"
  name: "pool5"
  type: POOLING
  pooling_param {
    pool: MAX
    kernel_size: 2
    stride: 2
  }
}
layers {
  bottom: "pool5"
  top: "fc6"
  name: "fc6"
  type: INNER_PRODUCT
  inner_product_param {
    num_output: 4096
    weight_filler {
      type: "gaussian"
      std: 0.01
    }
    bias_filler {
      type: "constant"
      value: 0
    }
  }
}
layers {
  bottom: "fc6"
  top: "fc6"
  name: "relu6"
  type: RELU
}
layers {
  bottom: "fc6"
  top: "fc6"
  name: "drop6"
  type: DROPOUT
  dropout_param {
    dropout_ratio: 0.5
  }
}
layers {
  bottom: "fc6"
  top: "fc7"
  name: "fc7"
  type: INNER_PRODUCT
  inner_product_param {
    num_output: 4096
    weight_filler {
      type: "gaussian"
      std: 0.01
    }
    bias_filler {
      type: "constant"
      value: 0
    }
  }
}
layers {
  bottom: "fc7"
  top: "fc7"
  name: "relu7"
  type: RELU
}
layers {
  bottom: "fc7"
  top: "fc7"
  name: "drop7"
  type: DROPOUT
  dropout_param {
    dropout_ratio: 0.5
  }
}
layers {
  bottom: "fc7"
  top: "fc8_2"
  name: "fc8_2"
  type: INNER_PRODUCT
  inner_product_param {
    num_output: 2
    weight_filler {
      type: "gaussian"
      std: 0.01
    }
    bias_filler {
      type: "constant"
      value: 0
    }
  }
}
layers {
  bottom: "fc8_2"
  bottom: "label"
  name: "loss"
  type: SOFTMAX_LOSS
}
layers {
  bottom: "fc8_2"
  bottom: "label"
  top: "accuracy"
  name: "accuracy"
  type: ACCURACY
  include {
    phase: TEST
  }
}
state {
  phase: TEST
}
I1104 13:55:18.438568 28903 layer_factory.hpp:78] Creating layer data
I1104 13:55:18.438575 28903 data_transformer.cpp:24] Loading mean file from/data/ad6813/devCaffe/caffe/clampdetMeanVal
I1104 13:55:18.439971 28903 net.cpp:67] Creating Layer data
I1104 13:55:18.440006 28903 net.cpp:356] data -> data
I1104 13:55:18.440016 28903 net.cpp:356] data -> label
I1104 13:55:18.440021 28903 net.cpp:96] Setting up data
I1104 13:55:18.440026 28903 image_data_layer.cpp:34] Opening file /data/ad6813/devCaffe/caffe/task/clamp/clampVal.txt
I1104 13:55:18.440690 28903 image_data_layer.cpp:49] A total of 2005 images.
I1104 13:55:18.446535 28903 image_data_layer.cpp:78] output data size: 8,3,224,224
I1104 13:55:18.447700 28903 net.cpp:103] Top shape: 8 3 224 224 (1204224)
I1104 13:55:18.447710 28903 net.cpp:103] Top shape: 8 1 1 1 (8)
I1104 13:55:18.447715 28903 layer_factory.hpp:78] Creating layer label_data_1_split
I1104 13:55:18.447724 28903 net.cpp:67] Creating Layer label_data_1_split
I1104 13:55:18.447728 28903 net.cpp:394] label_data_1_split <- label
I1104 13:55:18.447734 28903 net.cpp:356] label_data_1_split -> label_data_1_split_0
I1104 13:55:18.447742 28903 net.cpp:356] label_data_1_split -> label_data_1_split_1
I1104 13:55:18.447747 28903 net.cpp:96] Setting up label_data_1_split
I1104 13:55:18.447762 28903 net.cpp:103] Top shape: 8 1 1 1 (8)
I1104 13:55:18.447767 28903 net.cpp:103] Top shape: 8 1 1 1 (8)
I1104 13:55:18.447769 28903 layer_factory.hpp:78] Creating layer conv1_1
I1104 13:55:18.447775 28903 net.cpp:67] Creating Layer conv1_1
I1104 13:55:18.447779 28903 net.cpp:394] conv1_1 <- data
I1104 13:55:18.447783 28903 net.cpp:356] conv1_1 -> conv1_1
I1104 13:55:18.447798 28903 net.cpp:96] Setting up conv1_1
I1104 13:55:18.447950 28903 net.cpp:103] Top shape: 8 64 224 224 (25690112)
I1104 13:55:18.447964 28903 layer_factory.hpp:78] Creating layer relu1_1
I1104 13:55:18.447973 28903 net.cpp:67] Creating Layer relu1_1
I1104 13:55:18.447976 28903 net.cpp:394] relu1_1 <- conv1_1
I1104 13:55:18.447980 28903 net.cpp:345] relu1_1 -> conv1_1 (in-place)
I1104 13:55:18.447985 28903 net.cpp:96] Setting up relu1_1
I1104 13:55:18.447990 28903 net.cpp:103] Top shape: 8 64 224 224 (25690112)
I1104 13:55:18.447993 28903 layer_factory.hpp:78] Creating layer conv1_2
I1104 13:55:18.447999 28903 net.cpp:67] Creating Layer conv1_2
I1104 13:55:18.448001 28903 net.cpp:394] conv1_2 <- conv1_1
I1104 13:55:18.448006 28903 net.cpp:356] conv1_2 -> conv1_2
I1104 13:55:18.448010 28903 net.cpp:96] Setting up conv1_2
I1104 13:55:18.448995 28903 net.cpp:103] Top shape: 8 64 224 224 (25690112)
I1104 13:55:18.449008 28903 layer_factory.hpp:78] Creating layer relu1_2
I1104 13:55:18.449013 28903 net.cpp:67] Creating Layer relu1_2
I1104 13:55:18.449017 28903 net.cpp:394] relu1_2 <- conv1_2
I1104 13:55:18.449022 28903 net.cpp:345] relu1_2 -> conv1_2 (in-place)
I1104 13:55:18.449025 28903 net.cpp:96] Setting up relu1_2
I1104 13:55:18.449030 28903 net.cpp:103] Top shape: 8 64 224 224 (25690112)
I1104 13:55:18.449033 28903 layer_factory.hpp:78] Creating layer pool1
I1104 13:55:18.449038 28903 net.cpp:67] Creating Layer pool1
I1104 13:55:18.449041 28903 net.cpp:394] pool1 <- conv1_2
I1104 13:55:18.449045 28903 net.cpp:356] pool1 -> pool1
I1104 13:55:18.449050 28903 net.cpp:96] Setting up pool1
I1104 13:55:18.449056 28903 net.cpp:103] Top shape: 8 64 112 112 (6422528)
I1104 13:55:18.449060 28903 layer_factory.hpp:78] Creating layer conv2_1
I1104 13:55:18.449064 28903 net.cpp:67] Creating Layer conv2_1
I1104 13:55:18.449067 28903 net.cpp:394] conv2_1 <- pool1
I1104 13:55:18.449071 28903 net.cpp:356] conv2_1 -> conv2_1
I1104 13:55:18.449076 28903 net.cpp:96] Setting up conv2_1
I1104 13:55:18.451056 28903 net.cpp:103] Top shape: 8 128 112 112 (12845056)
I1104 13:55:18.451069 28903 layer_factory.hpp:78] Creating layer relu2_1
I1104 13:55:18.451076 28903 net.cpp:67] Creating Layer relu2_1
I1104 13:55:18.451078 28903 net.cpp:394] relu2_1 <- conv2_1
I1104 13:55:18.451083 28903 net.cpp:345] relu2_1 -> conv2_1 (in-place)
I1104 13:55:18.451087 28903 net.cpp:96] Setting up relu2_1
I1104 13:55:18.451092 28903 net.cpp:103] Top shape: 8 128 112 112 (12845056)
I1104 13:55:18.451095 28903 layer_factory.hpp:78] Creating layer conv2_2
I1104 13:55:18.451100 28903 net.cpp:67] Creating Layer conv2_2
I1104 13:55:18.451103 28903 net.cpp:394] conv2_2 <- conv2_1
I1104 13:55:18.451107 28903 net.cpp:356] conv2_2 -> conv2_2
I1104 13:55:18.451113 28903 net.cpp:96] Setting up conv2_2
I1104 13:55:18.454743 28903 net.cpp:103] Top shape: 8 128 112 112 (12845056)
I1104 13:55:18.454756 28903 layer_factory.hpp:78] Creating layer relu2_2
I1104 13:55:18.454761 28903 net.cpp:67] Creating Layer relu2_2
I1104 13:55:18.454763 28903 net.cpp:394] relu2_2 <- conv2_2
I1104 13:55:18.454768 28903 net.cpp:345] relu2_2 -> conv2_2 (in-place)
I1104 13:55:18.454772 28903 net.cpp:96] Setting up relu2_2
I1104 13:55:18.454777 28903 net.cpp:103] Top shape: 8 128 112 112 (12845056)
I1104 13:55:18.454780 28903 layer_factory.hpp:78] Creating layer pool2
I1104 13:55:18.454785 28903 net.cpp:67] Creating Layer pool2
I1104 13:55:18.454788 28903 net.cpp:394] pool2 <- conv2_2
I1104 13:55:18.454792 28903 net.cpp:356] pool2 -> pool2
I1104 13:55:18.454797 28903 net.cpp:96] Setting up pool2
I1104 13:55:18.454802 28903 net.cpp:103] Top shape: 8 128 56 56 (3211264)
I1104 13:55:18.454805 28903 layer_factory.hpp:78] Creating layer conv3_1
I1104 13:55:18.454810 28903 net.cpp:67] Creating Layer conv3_1
I1104 13:55:18.454813 28903 net.cpp:394] conv3_1 <- pool2
I1104 13:55:18.454818 28903 net.cpp:356] conv3_1 -> conv3_1
I1104 13:55:18.454823 28903 net.cpp:96] Setting up conv3_1
I1104 13:55:18.462020 28903 net.cpp:103] Top shape: 8 256 56 56 (6422528)
I1104 13:55:18.462035 28903 layer_factory.hpp:78] Creating layer relu3_1
I1104 13:55:18.462049 28903 net.cpp:67] Creating Layer relu3_1
I1104 13:55:18.462051 28903 net.cpp:394] relu3_1 <- conv3_1
I1104 13:55:18.462056 28903 net.cpp:345] relu3_1 -> conv3_1 (in-place)
I1104 13:55:18.462061 28903 net.cpp:96] Setting up relu3_1
I1104 13:55:18.462065 28903 net.cpp:103] Top shape: 8 256 56 56 (6422528)
I1104 13:55:18.462069 28903 layer_factory.hpp:78] Creating layer conv3_2
I1104 13:55:18.462074 28903 net.cpp:67] Creating Layer conv3_2
I1104 13:55:18.462076 28903 net.cpp:394] conv3_2 <- conv3_1
I1104 13:55:18.462080 28903 net.cpp:356] conv3_2 -> conv3_2
I1104 13:55:18.462085 28903 net.cpp:96] Setting up conv3_2
I1104 13:55:18.476727 28903 net.cpp:103] Top shape: 8 256 56 56 (6422528)
I1104 13:55:18.476745 28903 layer_factory.hpp:78] Creating layer relu3_2
I1104 13:55:18.476752 28903 net.cpp:67] Creating Layer relu3_2
I1104 13:55:18.476757 28903 net.cpp:394] relu3_2 <- conv3_2
I1104 13:55:18.476761 28903 net.cpp:345] relu3_2 -> conv3_2 (in-place)
I1104 13:55:18.476766 28903 net.cpp:96] Setting up relu3_2
I1104 13:55:18.476771 28903 net.cpp:103] Top shape: 8 256 56 56 (6422528)
I1104 13:55:18.476775 28903 layer_factory.hpp:78] Creating layer conv3_3
I1104 13:55:18.476784 28903 net.cpp:67] Creating Layer conv3_3
I1104 13:55:18.476788 28903 net.cpp:394] conv3_3 <- conv3_2
I1104 13:55:18.476794 28903 net.cpp:356] conv3_3 -> conv3_3
I1104 13:55:18.476799 28903 net.cpp:96] Setting up conv3_3
I1104 13:55:18.491557 28903 net.cpp:103] Top shape: 8 256 56 56 (6422528)
I1104 13:55:18.491575 28903 layer_factory.hpp:78] Creating layer relu3_3
I1104 13:55:18.491582 28903 net.cpp:67] Creating Layer relu3_3
I1104 13:55:18.491586 28903 net.cpp:394] relu3_3 <- conv3_3
I1104 13:55:18.491593 28903 net.cpp:345] relu3_3 -> conv3_3 (in-place)
I1104 13:55:18.491600 28903 net.cpp:96] Setting up relu3_3
I1104 13:55:18.491605 28903 net.cpp:103] Top shape: 8 256 56 56 (6422528)
I1104 13:55:18.491607 28903 layer_factory.hpp:78] Creating layer pool3
I1104 13:55:18.491612 28903 net.cpp:67] Creating Layer pool3
I1104 13:55:18.491616 28903 net.cpp:394] pool3 <- conv3_3
I1104 13:55:18.491621 28903 net.cpp:356] pool3 -> pool3
I1104 13:55:18.491626 28903 net.cpp:96] Setting up pool3
I1104 13:55:18.491632 28903 net.cpp:103] Top shape: 8 256 28 28 (1605632)
I1104 13:55:18.491636 28903 layer_factory.hpp:78] Creating layer conv4_1
I1104 13:55:18.491641 28903 net.cpp:67] Creating Layer conv4_1
I1104 13:55:18.491646 28903 net.cpp:394] conv4_1 <- pool3
I1104 13:55:18.491649 28903 net.cpp:356] conv4_1 -> conv4_1
I1104 13:55:18.491655 28903 net.cpp:96] Setting up conv4_1
I1104 13:55:18.520088 28903 net.cpp:103] Top shape: 8 512 28 28 (3211264)
I1104 13:55:18.520123 28903 layer_factory.hpp:78] Creating layer relu4_1
I1104 13:55:18.520130 28903 net.cpp:67] Creating Layer relu4_1
I1104 13:55:18.520134 28903 net.cpp:394] relu4_1 <- conv4_1
I1104 13:55:18.520143 28903 net.cpp:345] relu4_1 -> conv4_1 (in-place)
I1104 13:55:18.520148 28903 net.cpp:96] Setting up relu4_1
I1104 13:55:18.520154 28903 net.cpp:103] Top shape: 8 512 28 28 (3211264)
I1104 13:55:18.520158 28903 layer_factory.hpp:78] Creating layer conv4_2
I1104 13:55:18.520164 28903 net.cpp:67] Creating Layer conv4_2
I1104 13:55:18.520166 28903 net.cpp:394] conv4_2 <- conv4_1
I1104 13:55:18.520170 28903 net.cpp:356] conv4_2 -> conv4_2
I1104 13:55:18.520176 28903 net.cpp:96] Setting up conv4_2
I1104 13:55:18.575700 28903 net.cpp:103] Top shape: 8 512 28 28 (3211264)
I1104 13:55:18.575742 28903 layer_factory.hpp:78] Creating layer relu4_2
I1104 13:55:18.575749 28903 net.cpp:67] Creating Layer relu4_2
I1104 13:55:18.575760 28903 net.cpp:394] relu4_2 <- conv4_2
I1104 13:55:18.575768 28903 net.cpp:345] relu4_2 -> conv4_2 (in-place)
I1104 13:55:18.575774 28903 net.cpp:96] Setting up relu4_2
I1104 13:55:18.575780 28903 net.cpp:103] Top shape: 8 512 28 28 (3211264)
I1104 13:55:18.575783 28903 layer_factory.hpp:78] Creating layer conv4_3
I1104 13:55:18.575790 28903 net.cpp:67] Creating Layer conv4_3
I1104 13:55:18.575793 28903 net.cpp:394] conv4_3 <- conv4_2
I1104 13:55:18.575806 28903 net.cpp:356] conv4_3 -> conv4_3
I1104 13:55:18.575814 28903 net.cpp:96] Setting up conv4_3
I1104 13:55:18.631559 28903 net.cpp:103] Top shape: 8 512 28 28 (3211264)
I1104 13:55:18.631597 28903 layer_factory.hpp:78] Creating layer relu4_3
I1104 13:55:18.631603 28903 net.cpp:67] Creating Layer relu4_3
I1104 13:55:18.631608 28903 net.cpp:394] relu4_3 <- conv4_3
I1104 13:55:18.631613 28903 net.cpp:345] relu4_3 -> conv4_3 (in-place)
I1104 13:55:18.631619 28903 net.cpp:96] Setting up relu4_3
I1104 13:55:18.631624 28903 net.cpp:103] Top shape: 8 512 28 28 (3211264)
I1104 13:55:18.631628 28903 layer_factory.hpp:78] Creating layer pool4
I1104 13:55:18.631635 28903 net.cpp:67] Creating Layer pool4
I1104 13:55:18.631639 28903 net.cpp:394] pool4 <- conv4_3
I1104 13:55:18.631642 28903 net.cpp:356] pool4 -> pool4
I1104 13:55:18.631647 28903 net.cpp:96] Setting up pool4
I1104 13:55:18.631655 28903 net.cpp:103] Top shape: 8 512 14 14 (802816)
I1104 13:55:18.631659 28903 layer_factory.hpp:78] Creating layer conv5_1
I1104 13:55:18.631664 28903 net.cpp:67] Creating Layer conv5_1
I1104 13:55:18.631667 28903 net.cpp:394] conv5_1 <- pool4
I1104 13:55:18.631672 28903 net.cpp:356] conv5_1 -> conv5_1
I1104 13:55:18.631677 28903 net.cpp:96] Setting up conv5_1
I1104 13:55:18.687822 28903 net.cpp:103] Top shape: 8 512 14 14 (802816)
I1104 13:55:18.687860 28903 layer_factory.hpp:78] Creating layer relu5_1
I1104 13:55:18.687867 28903 net.cpp:67] Creating Layer relu5_1
I1104 13:55:18.687872 28903 net.cpp:394] relu5_1 <- conv5_1
I1104 13:55:18.687878 28903 net.cpp:345] relu5_1 -> conv5_1 (in-place)
I1104 13:55:18.687885 28903 net.cpp:96] Setting up relu5_1
I1104 13:55:18.687891 28903 net.cpp:103] Top shape: 8 512 14 14 (802816)
I1104 13:55:18.687893 28903 layer_factory.hpp:78] Creating layer conv5_2
I1104 13:55:18.687903 28903 net.cpp:67] Creating Layer conv5_2
I1104 13:55:18.687906 28903 net.cpp:394] conv5_2 <- conv5_1
I1104 13:55:18.687913 28903 net.cpp:356] conv5_2 -> conv5_2
I1104 13:55:18.687919 28903 net.cpp:96] Setting up conv5_2
I1104 13:55:18.743451 28903 net.cpp:103] Top shape: 8 512 14 14 (802816)
I1104 13:55:18.743489 28903 layer_factory.hpp:78] Creating layer relu5_2
I1104 13:55:18.743497 28903 net.cpp:67] Creating Layer relu5_2
I1104 13:55:18.743502 28903 net.cpp:394] relu5_2 <- conv5_2
I1104 13:55:18.743509 28903 net.cpp:345] relu5_2 -> conv5_2 (in-place)
I1104 13:55:18.743513 28903 net.cpp:96] Setting up relu5_2
I1104 13:55:18.743518 28903 net.cpp:103] Top shape: 8 512 14 14 (802816)
I1104 13:55:18.743522 28903 layer_factory.hpp:78] Creating layer conv5_3
I1104 13:55:18.743528 28903 net.cpp:67] Creating Layer conv5_3
I1104 13:55:18.743531 28903 net.cpp:394] conv5_3 <- conv5_2
I1104 13:55:18.743536 28903 net.cpp:356] conv5_3 -> conv5_3
I1104 13:55:18.743541 28903 net.cpp:96] Setting up conv5_3
I1104 13:55:18.799269 28903 net.cpp:103] Top shape: 8 512 14 14 (802816)
I1104 13:55:18.799306 28903 layer_factory.hpp:78] Creating layer relu5_3
I1104 13:55:18.799319 28903 net.cpp:67] Creating Layer relu5_3
I1104 13:55:18.799324 28903 net.cpp:394] relu5_3 <- conv5_3
I1104 13:55:18.799330 28903 net.cpp:345] relu5_3 -> conv5_3 (in-place)
I1104 13:55:18.799336 28903 net.cpp:96] Setting up relu5_3
I1104 13:55:18.799342 28903 net.cpp:103] Top shape: 8 512 14 14 (802816)
I1104 13:55:18.799345 28903 layer_factory.hpp:78] Creating layer pool5
I1104 13:55:18.799356 28903 net.cpp:67] Creating Layer pool5
I1104 13:55:18.799360 28903 net.cpp:394] pool5 <- conv5_3
I1104 13:55:18.799365 28903 net.cpp:356] pool5 -> pool5
I1104 13:55:18.799370 28903 net.cpp:96] Setting up pool5
I1104 13:55:18.799377 28903 net.cpp:103] Top shape: 8 512 7 7 (200704)
I1104 13:55:18.799381 28903 layer_factory.hpp:78] Creating layer fc6
I1104 13:55:18.799387 28903 net.cpp:67] Creating Layer fc6
I1104 13:55:18.799391 28903 net.cpp:394] fc6 <- pool5
I1104 13:55:18.799396 28903 net.cpp:356] fc6 -> fc6
I1104 13:55:18.799401 28903 net.cpp:96] Setting up fc6
I1104 13:55:21.217499 28903 net.cpp:103] Top shape: 8 4096 1 1 (32768)
I1104 13:55:21.217541 28903 layer_factory.hpp:78] Creating layer relu6
I1104 13:55:21.217561 28903 net.cpp:67] Creating Layer relu6
I1104 13:55:21.217566 28903 net.cpp:394] relu6 <- fc6
I1104 13:55:21.217572 28903 net.cpp:345] relu6 -> fc6 (in-place)
I1104 13:55:21.217579 28903 net.cpp:96] Setting up relu6
I1104 13:55:21.217593 28903 net.cpp:103] Top shape: 8 4096 1 1 (32768)
I1104 13:55:21.217597 28903 layer_factory.hpp:78] Creating layer drop6
I1104 13:55:21.217602 28903 net.cpp:67] Creating Layer drop6
I1104 13:55:21.217605 28903 net.cpp:394] drop6 <- fc6
I1104 13:55:21.217614 28903 net.cpp:345] drop6 -> fc6 (in-place)
I1104 13:55:21.217619 28903 net.cpp:96] Setting up drop6
I1104 13:55:21.217623 28903 net.cpp:103] Top shape: 8 4096 1 1 (32768)
I1104 13:55:21.217627 28903 layer_factory.hpp:78] Creating layer fc7
I1104 13:55:21.217633 28903 net.cpp:67] Creating Layer fc7
I1104 13:55:21.217634 28903 net.cpp:394] fc7 <- fc6
I1104 13:55:21.217639 28903 net.cpp:356] fc7 -> fc7
I1104 13:55:21.217645 28903 net.cpp:96] Setting up fc7
I1104 13:55:21.612455 28903 net.cpp:103] Top shape: 8 4096 1 1 (32768)
I1104 13:55:21.612498 28903 layer_factory.hpp:78] Creating layer relu7
I1104 13:55:21.612505 28903 net.cpp:67] Creating Layer relu7
I1104 13:55:21.612510 28903 net.cpp:394] relu7 <- fc7
I1104 13:55:21.612517 28903 net.cpp:345] relu7 -> fc7 (in-place)
I1104 13:55:21.612524 28903 net.cpp:96] Setting up relu7
I1104 13:55:21.612537 28903 net.cpp:103] Top shape: 8 4096 1 1 (32768)
I1104 13:55:21.612540 28903 layer_factory.hpp:78] Creating layer drop7
I1104 13:55:21.612547 28903 net.cpp:67] Creating Layer drop7
I1104 13:55:21.612550 28903 net.cpp:394] drop7 <- fc7
I1104 13:55:21.612555 28903 net.cpp:345] drop7 -> fc7 (in-place)
I1104 13:55:21.612558 28903 net.cpp:96] Setting up drop7
I1104 13:55:21.612562 28903 net.cpp:103] Top shape: 8 4096 1 1 (32768)
I1104 13:55:21.612565 28903 layer_factory.hpp:78] Creating layer fc8_2
I1104 13:55:21.612573 28903 net.cpp:67] Creating Layer fc8_2
I1104 13:55:21.612576 28903 net.cpp:394] fc8_2 <- fc7
I1104 13:55:21.612581 28903 net.cpp:356] fc8_2 -> fc8_2
I1104 13:55:21.612587 28903 net.cpp:96] Setting up fc8_2
I1104 13:55:21.612807 28903 net.cpp:103] Top shape: 8 2 1 1 (16)
I1104 13:55:21.612815 28903 layer_factory.hpp:78] Creating layer fc8_2_fc8_2_0_split
I1104 13:55:21.612821 28903 net.cpp:67] Creating Layer fc8_2_fc8_2_0_split
I1104 13:55:21.612824 28903 net.cpp:394] fc8_2_fc8_2_0_split <- fc8_2
I1104 13:55:21.612829 28903 net.cpp:356] fc8_2_fc8_2_0_split -> fc8_2_fc8_2_0_split_0
I1104 13:55:21.612834 28903 net.cpp:356] fc8_2_fc8_2_0_split -> fc8_2_fc8_2_0_split_1
I1104 13:55:21.612839 28903 net.cpp:96] Setting up fc8_2_fc8_2_0_split
I1104 13:55:21.612843 28903 net.cpp:103] Top shape: 8 2 1 1 (16)
I1104 13:55:21.612846 28903 net.cpp:103] Top shape: 8 2 1 1 (16)
I1104 13:55:21.612849 28903 layer_factory.hpp:78] Creating layer loss
I1104 13:55:21.612855 28903 net.cpp:67] Creating Layer loss
I1104 13:55:21.612859 28903 net.cpp:394] loss <- fc8_2_fc8_2_0_split_0
I1104 13:55:21.612862 28903 net.cpp:394] loss <- label_data_1_split_0
I1104 13:55:21.612866 28903 net.cpp:356] loss -> (automatic)
I1104 13:55:21.612875 28903 net.cpp:96] Setting up loss
I1104 13:55:21.612884 28903 net.cpp:103] Top shape: 1 1 1 1 (1)
I1104 13:55:21.612890 28903 net.cpp:109]     with loss weight 1
I1104 13:55:21.612905 28903 layer_factory.hpp:78] Creating layer accuracy
I1104 13:55:21.612915 28903 net.cpp:67] Creating Layer accuracy
I1104 13:55:21.612925 28903 net.cpp:394] accuracy <- fc8_2_fc8_2_0_split_1
I1104 13:55:21.612931 28903 net.cpp:394] accuracy <- label_data_1_split_1
I1104 13:55:21.612936 28903 net.cpp:356] accuracy -> accuracy
I1104 13:55:21.612941 28903 net.cpp:96] Setting up accuracy
I1104 13:55:21.612946 28903 net.cpp:103] Top shape: 1 1 1 1 (1)
I1104 13:55:21.612949 28903 net.cpp:172] accuracy does not need backward computation.
I1104 13:55:21.612951 28903 net.cpp:170] loss needs backward computation.
I1104 13:55:21.612954 28903 net.cpp:170] fc8_2_fc8_2_0_split needs backward computation.
I1104 13:55:21.612957 28903 net.cpp:170] fc8_2 needs backward computation.
I1104 13:55:21.612967 28903 net.cpp:170] drop7 needs backward computation.
…
