…
I1105 14:42:32.258852  3468 net.cpp:275] The NetState phase (0) differed from the phase (1) specified by a rule in layer accuracy
I1105 14:42:32.259052  3468 net.cpp:39] Initializing net from parameters: 
name: "small"
layers {
  top: "data"
  top: "label"
  name: "data"
  type: IMAGE_DATA
  image_data_param {
    source: "/data/ad6813/devCaffe/caffe/task/clamp/clampTrain.txt"
    batch_size: 32
    new_height: 256
    new_width: 256
  }
  include {
    phase: TRAIN
  }
  transform_param {
    mirror: true
    crop_size: 224
    mean_value: 86.75
    mean_value: 101.4
    mean_value: 104.6
  }
}
layers {
  bottom: "data"
  top: "conv1_1"
  name: "conv1_1"
  type: CONVOLUTION
  convolution_param {
    num_output: 64
    pad: 1
    kernel_size: 3
    weight_filler {
      type: "gaussian"
      std: 0.01
    }
    bias_filler {
      type: "constant"
      value: 0
    }
  }
}
layers {
  bottom: "conv1_1"
  top: "conv1_1"
  name: "relu1_1"
  type: RELU
}
layers {
  bottom: "conv1_1"
  top: "conv1_2"
  name: "conv1_2"
  type: CONVOLUTION
  convolution_param {
    num_output: 64
    pad: 1
    kernel_size: 3
    weight_filler {
      type: "gaussian"
      std: 0.01
    }
    bias_filler {
      type: "constant"
      value: 0
    }
  }
}
layers {
  bottom: "conv1_2"
  top: "conv1_2"
  name: "relu1_2"
  type: RELU
}
layers {
  bottom: "conv1_2"
  top: "pool1"
  name: "pool1"
  type: POOLING
  pooling_param {
    pool: MAX
    kernel_size: 2
    stride: 2
  }
}
layers {
  bottom: "pool1"
  top: "conv2_1"
  name: "conv2_1"
  type: CONVOLUTION
  convolution_param {
    num_output: 128
    pad: 1
    kernel_size: 3
    weight_filler {
      type: "gaussian"
      std: 0.01
    }
    bias_filler {
      type: "constant"
      value: 0
    }
  }
}
layers {
  bottom: "conv2_1"
  top: "conv2_1"
  name: "relu2_1"
  type: RELU
}
layers {
  bottom: "conv2_1"
  top: "conv2_2"
  name: "conv2_2"
  type: CONVOLUTION
  convolution_param {
    num_output: 128
    pad: 1
    kernel_size: 3
    weight_filler {
      type: "gaussian"
      std: 0.01
    }
    bias_filler {
      type: "constant"
      value: 0
    }
  }
}
layers {
  bottom: "conv2_2"
  top: "conv2_2"
  name: "relu2_2"
  type: RELU
}
layers {
  bottom: "conv2_2"
  top: "pool2"
  name: "pool2"
  type: POOLING
  pooling_param {
    pool: MAX
    kernel_size: 2
    stride: 2
  }
}
layers {
  bottom: "pool2"
  top: "conv3_1"
  name: "conv3_1"
  type: CONVOLUTION
  convolution_param {
    num_output: 256
    pad: 1
    kernel_size: 3
    weight_filler {
      type: "gaussian"
      std: 0.01
    }
    bias_filler {
      type: "constant"
      value: 0
    }
  }
}
layers {
  bottom: "conv3_1"
  top: "conv3_1"
  name: "relu3_1"
  type: RELU
}
layers {
  bottom: "conv3_1"
  top: "conv3_2"
  name: "conv3_2"
  type: CONVOLUTION
  convolution_param {
    num_output: 256
    pad: 1
    kernel_size: 3
    weight_filler {
      type: "gaussian"
      std: 0.01
    }
    bias_filler {
      type: "constant"
      value: 0
    }
  }
}
layers {
  bottom: "conv3_2"
  top: "conv3_2"
  name: "relu3_2"
  type: RELU
}
layers {
  bottom: "conv3_2"
  top: "conv3_3"
  name: "conv3_3"
  type: CONVOLUTION
  convolution_param {
    num_output: 256
    pad: 1
    kernel_size: 3
    weight_filler {
      type: "gaussian"
      std: 0.01
    }
    bias_filler {
      type: "constant"
      value: 0
    }
  }
}
layers {
  bottom: "conv3_3"
  top: "conv3_3"
  name: "relu3_3"
  type: RELU
}
layers {
  bottom: "conv3_3"
  top: "pool3"
  name: "pool3"
  type: POOLING
  pooling_param {
    pool: MAX
    kernel_size: 2
    stride: 2
  }
}
layers {
  bottom: "pool3"
  top: "conv4_1"
  name: "conv4_1"
  type: CONVOLUTION
  convolution_param {
    num_output: 512
    pad: 1
    kernel_size: 3
    weight_filler {
      type: "gaussian"
      std: 0.01
    }
    bias_filler {
      type: "constant"
      value: 0
    }
  }
}
layers {
  bottom: "conv4_1"
  top: "conv4_1"
  name: "relu4_1"
  type: RELU
}
layers {
  bottom: "conv4_1"
  top: "conv4_2"
  name: "conv4_2"
  type: CONVOLUTION
  convolution_param {
    num_output: 512
    pad: 1
    kernel_size: 3
    weight_filler {
      type: "gaussian"
      std: 0.01
    }
    bias_filler {
      type: "constant"
      value: 0
    }
  }
}
layers {
  bottom: "conv4_2"
  top: "conv4_2"
  name: "relu4_2"
  type: RELU
}
layers {
  bottom: "conv4_2"
  top: "conv4_3"
  name: "conv4_3"
  type: CONVOLUTION
  convolution_param {
    num_output: 512
    pad: 1
    kernel_size: 3
    weight_filler {
      type: "gaussian"
      std: 0.01
    }
    bias_filler {
      type: "constant"
      value: 0
    }
  }
}
layers {
  bottom: "conv4_3"
  top: "conv4_3"
  name: "relu4_3"
  type: RELU
}
layers {
  bottom: "conv4_3"
  top: "pool4"
  name: "pool4"
  type: POOLING
  pooling_param {
    pool: MAX
    kernel_size: 2
    stride: 2
  }
}
layers {
  bottom: "pool4"
  top: "conv5_1"
  name: "conv5_1"
  type: CONVOLUTION
  convolution_param {
    num_output: 512
    pad: 1
    kernel_size: 3
    weight_filler {
      type: "gaussian"
      std: 0.01
    }
    bias_filler {
      type: "constant"
      value: 0
    }
  }
}
layers {
  bottom: "conv5_1"
  top: "conv5_1"
  name: "relu5_1"
  type: RELU
}
layers {
  bottom: "conv5_1"
  top: "conv5_2"
  name: "conv5_2"
  type: CONVOLUTION
  convolution_param {
    num_output: 512
    pad: 1
    kernel_size: 3
    weight_filler {
      type: "gaussian"
      std: 0.01
    }
    bias_filler {
      type: "constant"
      value: 0
    }
  }
}
layers {
  bottom: "conv5_2"
  top: "conv5_2"
  name: "relu5_2"
  type: RELU
}
layers {
  bottom: "conv5_2"
  top: "conv5_3"
  name: "conv5_3"
  type: CONVOLUTION
  convolution_param {
    num_output: 512
    pad: 1
    kernel_size: 3
    weight_filler {
      type: "gaussian"
      std: 0.01
    }
    bias_filler {
      type: "constant"
      value: 0
    }
  }
}
layers {
  bottom: "conv5_3"
  top: "conv5_3"
  name: "relu5_3"
  type: RELU
}
layers {
  bottom: "conv5_3"
  top: "pool5"
  name: "pool5"
  type: POOLING
  pooling_param {
    pool: MAX
    kernel_size: 2
    stride: 2
  }
}
layers {
  bottom: "pool5"
  top: "fc6"
  name: "fc6"
  type: INNER_PRODUCT
  inner_product_param {
    num_output: 4096
    weight_filler {
      type: "gaussian"
      std: 0.01
    }
    bias_filler {
      type: "constant"
      value: 0
    }
  }
}
layers {
  bottom: "fc6"
  top: "fc6"
  name: "relu6"
  type: RELU
}
layers {
  bottom: "fc6"
  top: "fc6"
  name: "drop6"
  type: DROPOUT
  dropout_param {
    dropout_ratio: 0.5
  }
}
layers {
  bottom: "fc6"
  top: "fc7"
  name: "fc7"
  type: INNER_PRODUCT
  inner_product_param {
    num_output: 4096
    weight_filler {
      type: "gaussian"
      std: 0.01
    }
    bias_filler {
      type: "constant"
      value: 0
    }
  }
}
layers {
  bottom: "fc7"
  top: "fc7"
  name: "relu7"
  type: RELU
}
layers {
  bottom: "fc7"
  top: "fc7"
  name: "drop7"
  type: DROPOUT
  dropout_param {
    dropout_ratio: 0.5
  }
}
layers {
  bottom: "fc7"
  top: "fc8_2"
  name: "fc8_2"
  type: INNER_PRODUCT
  inner_product_param {
    num_output: 2
    weight_filler {
      type: "gaussian"
      std: 0.01
    }
    bias_filler {
      type: "constant"
      value: 0
    }
  }
}
layers {
  bottom: "fc8_2"
  bottom: "label"
  name: "loss"
  type: SOFTMAX_LOSS
}
state {
  phase: TRAIN
}
I1105 14:42:32.259263  3468 layer_factory.hpp:78] Creating layer data
I1105 14:42:32.259289  3468 net.cpp:67] Creating Layer data
I1105 14:42:32.259340  3468 net.cpp:356] data -> data
I1105 14:42:32.259379  3468 net.cpp:356] data -> label
I1105 14:42:32.259394  3468 net.cpp:96] Setting up data
I1105 14:42:32.259402  3468 image_data_layer.cpp:34] Opening file /data/ad6813/devCaffe/caffe/task/clamp/clampTrain.txt
I1105 14:42:32.268352  3468 image_data_layer.cpp:49] A total of 23494 images.
I1105 14:42:32.279197  3468 image_data_layer.cpp:78] output data size: 32,3,224,224
I1105 14:42:32.282016  3468 net.cpp:103] Top shape: 32 3 224 224 (4816896)
I1105 14:42:32.282045  3468 net.cpp:103] Top shape: 32 1 1 1 (32)
I1105 14:42:32.282052  3468 layer_factory.hpp:78] Creating layer conv1_1
I1105 14:42:32.282071  3468 net.cpp:67] Creating Layer conv1_1
I1105 14:42:32.282078  3468 net.cpp:394] conv1_1 <- data
I1105 14:42:32.282099  3468 net.cpp:356] conv1_1 -> conv1_1
I1105 14:42:32.282115  3468 net.cpp:96] Setting up conv1_1
I1105 14:42:32.294471  3468 net.cpp:103] Top shape: 32 64 224 224 (102760448)
I1105 14:42:32.294512  3468 layer_factory.hpp:78] Creating layer relu1_1
I1105 14:42:32.294529  3468 net.cpp:67] Creating Layer relu1_1
I1105 14:42:32.294538  3468 net.cpp:394] relu1_1 <- conv1_1
I1105 14:42:32.294548  3468 net.cpp:345] relu1_1 -> conv1_1 (in-place)
I1105 14:42:32.294561  3468 net.cpp:96] Setting up relu1_1
I1105 14:42:32.294582  3468 net.cpp:103] Top shape: 32 64 224 224 (102760448)
I1105 14:42:32.294591  3468 layer_factory.hpp:78] Creating layer conv1_2
I1105 14:42:32.294603  3468 net.cpp:67] Creating Layer conv1_2
I1105 14:42:32.294612  3468 net.cpp:394] conv1_2 <- conv1_1
I1105 14:42:32.294622  3468 net.cpp:356] conv1_2 -> conv1_2
I1105 14:42:32.294648  3468 net.cpp:96] Setting up conv1_2
I1105 14:42:32.295724  3468 net.cpp:103] Top shape: 32 64 224 224 (102760448)
I1105 14:42:32.295740  3468 layer_factory.hpp:78] Creating layer relu1_2
I1105 14:42:32.295752  3468 net.cpp:67] Creating Layer relu1_2
I1105 14:42:32.295765  3468 net.cpp:394] relu1_2 <- conv1_2
I1105 14:42:32.295776  3468 net.cpp:345] relu1_2 -> conv1_2 (in-place)
I1105 14:42:32.295786  3468 net.cpp:96] Setting up relu1_2
I1105 14:42:32.295795  3468 net.cpp:103] Top shape: 32 64 224 224 (102760448)
I1105 14:42:32.295814  3468 layer_factory.hpp:78] Creating layer pool1
I1105 14:42:32.295831  3468 net.cpp:67] Creating Layer pool1
I1105 14:42:32.295838  3468 net.cpp:394] pool1 <- conv1_2
I1105 14:42:32.295847  3468 net.cpp:356] pool1 -> pool1
I1105 14:42:32.295864  3468 net.cpp:96] Setting up pool1
I1105 14:42:32.295888  3468 net.cpp:103] Top shape: 32 64 112 112 (25690112)
I1105 14:42:32.295897  3468 layer_factory.hpp:78] Creating layer conv2_1
I1105 14:42:32.295914  3468 net.cpp:67] Creating Layer conv2_1
I1105 14:42:32.295923  3468 net.cpp:394] conv2_1 <- pool1
I1105 14:42:32.295933  3468 net.cpp:356] conv2_1 -> conv2_1
I1105 14:42:32.295943  3468 net.cpp:96] Setting up conv2_1
I1105 14:42:32.297873  3468 net.cpp:103] Top shape: 32 128 112 112 (51380224)
I1105 14:42:32.297889  3468 layer_factory.hpp:78] Creating layer relu2_1
I1105 14:42:32.297901  3468 net.cpp:67] Creating Layer relu2_1
I1105 14:42:32.297909  3468 net.cpp:394] relu2_1 <- conv2_1
I1105 14:42:32.297919  3468 net.cpp:345] relu2_1 -> conv2_1 (in-place)
I1105 14:42:32.297930  3468 net.cpp:96] Setting up relu2_1
I1105 14:42:32.297940  3468 net.cpp:103] Top shape: 32 128 112 112 (51380224)
I1105 14:42:32.297948  3468 layer_factory.hpp:78] Creating layer conv2_2
I1105 14:42:32.297969  3468 net.cpp:67] Creating Layer conv2_2
I1105 14:42:32.297976  3468 net.cpp:394] conv2_2 <- conv2_1
I1105 14:42:32.297986  3468 net.cpp:356] conv2_2 -> conv2_2
I1105 14:42:32.297996  3468 net.cpp:96] Setting up conv2_2
I1105 14:42:32.301776  3468 net.cpp:103] Top shape: 32 128 112 112 (51380224)
I1105 14:42:32.301791  3468 layer_factory.hpp:78] Creating layer relu2_2
I1105 14:42:32.301802  3468 net.cpp:67] Creating Layer relu2_2
I1105 14:42:32.301810  3468 net.cpp:394] relu2_2 <- conv2_2
I1105 14:42:32.301817  3468 net.cpp:345] relu2_2 -> conv2_2 (in-place)
I1105 14:42:32.301826  3468 net.cpp:96] Setting up relu2_2
I1105 14:42:32.301836  3468 net.cpp:103] Top shape: 32 128 112 112 (51380224)
I1105 14:42:32.301851  3468 layer_factory.hpp:78] Creating layer pool2
I1105 14:42:32.301869  3468 net.cpp:67] Creating Layer pool2
I1105 14:42:32.301878  3468 net.cpp:394] pool2 <- conv2_2
I1105 14:42:32.301887  3468 net.cpp:356] pool2 -> pool2
I1105 14:42:32.301897  3468 net.cpp:96] Setting up pool2
I1105 14:42:32.301918  3468 net.cpp:103] Top shape: 32 128 56 56 (12845056)
I1105 14:42:32.301925  3468 layer_factory.hpp:78] Creating layer conv3_1
I1105 14:42:32.301934  3468 net.cpp:67] Creating Layer conv3_1
I1105 14:42:32.301940  3468 net.cpp:394] conv3_1 <- pool2
I1105 14:42:32.301951  3468 net.cpp:356] conv3_1 -> conv3_1
I1105 14:42:32.301970  3468 net.cpp:96] Setting up conv3_1
I1105 14:42:32.309371  3468 net.cpp:103] Top shape: 32 256 56 56 (25690112)
I1105 14:42:32.309393  3468 layer_factory.hpp:78] Creating layer relu3_1
I1105 14:42:32.309403  3468 net.cpp:67] Creating Layer relu3_1
I1105 14:42:32.309409  3468 net.cpp:394] relu3_1 <- conv3_1
I1105 14:42:32.309420  3468 net.cpp:345] relu3_1 -> conv3_1 (in-place)
I1105 14:42:32.309430  3468 net.cpp:96] Setting up relu3_1
I1105 14:42:32.309440  3468 net.cpp:103] Top shape: 32 256 56 56 (25690112)
I1105 14:42:32.309447  3468 layer_factory.hpp:78] Creating layer conv3_2
I1105 14:42:32.309456  3468 net.cpp:67] Creating Layer conv3_2
I1105 14:42:32.309466  3468 net.cpp:394] conv3_2 <- conv3_1
I1105 14:42:32.309486  3468 net.cpp:356] conv3_2 -> conv3_2
I1105 14:42:32.309499  3468 net.cpp:96] Setting up conv3_2
I1105 14:42:32.324420  3468 net.cpp:103] Top shape: 32 256 56 56 (25690112)
I1105 14:42:32.324448  3468 layer_factory.hpp:78] Creating layer relu3_2
I1105 14:42:32.324460  3468 net.cpp:67] Creating Layer relu3_2
I1105 14:42:32.324467  3468 net.cpp:394] relu3_2 <- conv3_2
I1105 14:42:32.324477  3468 net.cpp:345] relu3_2 -> conv3_2 (in-place)
I1105 14:42:32.324488  3468 net.cpp:96] Setting up relu3_2
I1105 14:42:32.324498  3468 net.cpp:103] Top shape: 32 256 56 56 (25690112)
I1105 14:42:32.324504  3468 layer_factory.hpp:78] Creating layer conv3_3
I1105 14:42:32.324514  3468 net.cpp:67] Creating Layer conv3_3
I1105 14:42:32.324525  3468 net.cpp:394] conv3_3 <- conv3_2
I1105 14:42:32.324537  3468 net.cpp:356] conv3_3 -> conv3_3
I1105 14:42:32.324550  3468 net.cpp:96] Setting up conv3_3
I1105 14:42:32.339354  3468 net.cpp:103] Top shape: 32 256 56 56 (25690112)
I1105 14:42:32.339380  3468 layer_factory.hpp:78] Creating layer relu3_3
I1105 14:42:32.339397  3468 net.cpp:67] Creating Layer relu3_3
I1105 14:42:32.339404  3468 net.cpp:394] relu3_3 <- conv3_3
I1105 14:42:32.339414  3468 net.cpp:345] relu3_3 -> conv3_3 (in-place)
I1105 14:42:32.339426  3468 net.cpp:96] Setting up relu3_3
I1105 14:42:32.339436  3468 net.cpp:103] Top shape: 32 256 56 56 (25690112)
I1105 14:42:32.339447  3468 layer_factory.hpp:78] Creating layer pool3
I1105 14:42:32.339457  3468 net.cpp:67] Creating Layer pool3
I1105 14:42:32.339465  3468 net.cpp:394] pool3 <- conv3_3
I1105 14:42:32.339485  3468 net.cpp:356] pool3 -> pool3
I1105 14:42:32.339498  3468 net.cpp:96] Setting up pool3
I1105 14:42:32.339514  3468 net.cpp:103] Top shape: 32 256 28 28 (6422528)
I1105 14:42:32.339521  3468 layer_factory.hpp:78] Creating layer conv4_1
I1105 14:42:32.339540  3468 net.cpp:67] Creating Layer conv4_1
I1105 14:42:32.339546  3468 net.cpp:394] conv4_1 <- pool3
I1105 14:42:32.339555  3468 net.cpp:356] conv4_1 -> conv4_1
I1105 14:42:32.339565  3468 net.cpp:96] Setting up conv4_1
I1105 14:42:32.368479  3468 net.cpp:103] Top shape: 32 512 28 28 (12845056)
I1105 14:42:32.368506  3468 layer_factory.hpp:78] Creating layer relu4_1
I1105 14:42:32.368518  3468 net.cpp:67] Creating Layer relu4_1
I1105 14:42:32.368526  3468 net.cpp:394] relu4_1 <- conv4_1
I1105 14:42:32.368538  3468 net.cpp:345] relu4_1 -> conv4_1 (in-place)
I1105 14:42:32.368549  3468 net.cpp:96] Setting up relu4_1
I1105 14:42:32.368559  3468 net.cpp:103] Top shape: 32 512 28 28 (12845056)
I1105 14:42:32.368566  3468 layer_factory.hpp:78] Creating layer conv4_2
I1105 14:42:32.368577  3468 net.cpp:67] Creating Layer conv4_2
I1105 14:42:32.368592  3468 net.cpp:394] conv4_2 <- conv4_1
I1105 14:42:32.368602  3468 net.cpp:356] conv4_2 -> conv4_2
I1105 14:42:32.368613  3468 net.cpp:96] Setting up conv4_2
I1105 14:42:32.426600  3468 net.cpp:103] Top shape: 32 512 28 28 (12845056)
I1105 14:42:32.426636  3468 layer_factory.hpp:78] Creating layer relu4_2
I1105 14:42:32.426648  3468 net.cpp:67] Creating Layer relu4_2
I1105 14:42:32.426655  3468 net.cpp:394] relu4_2 <- conv4_2
I1105 14:42:32.426664  3468 net.cpp:345] relu4_2 -> conv4_2 (in-place)
I1105 14:42:32.426676  3468 net.cpp:96] Setting up relu4_2
I1105 14:42:32.426686  3468 net.cpp:103] Top shape: 32 512 28 28 (12845056)
I1105 14:42:32.426692  3468 layer_factory.hpp:78] Creating layer conv4_3
I1105 14:42:32.426704  3468 net.cpp:67] Creating Layer conv4_3
I1105 14:42:32.426718  3468 net.cpp:394] conv4_3 <- conv4_2
I1105 14:42:32.426729  3468 net.cpp:356] conv4_3 -> conv4_3
I1105 14:42:32.426741  3468 net.cpp:96] Setting up conv4_3
I1105 14:42:32.484335  3468 net.cpp:103] Top shape: 32 512 28 28 (12845056)
I1105 14:42:32.484362  3468 layer_factory.hpp:78] Creating layer relu4_3
I1105 14:42:32.484375  3468 net.cpp:67] Creating Layer relu4_3
I1105 14:42:32.484381  3468 net.cpp:394] relu4_3 <- conv4_3
I1105 14:42:32.484391  3468 net.cpp:345] relu4_3 -> conv4_3 (in-place)
I1105 14:42:32.484401  3468 net.cpp:96] Setting up relu4_3
I1105 14:42:32.484412  3468 net.cpp:103] Top shape: 32 512 28 28 (12845056)
I1105 14:42:32.484418  3468 layer_factory.hpp:78] Creating layer pool4
I1105 14:42:32.484431  3468 net.cpp:67] Creating Layer pool4
I1105 14:42:32.484442  3468 net.cpp:394] pool4 <- conv4_3
I1105 14:42:32.484452  3468 net.cpp:356] pool4 -> pool4
I1105 14:42:32.484467  3468 net.cpp:96] Setting up pool4
I1105 14:42:32.484491  3468 net.cpp:103] Top shape: 32 512 14 14 (3211264)
I1105 14:42:32.484499  3468 layer_factory.hpp:78] Creating layer conv5_1
I1105 14:42:32.484513  3468 net.cpp:67] Creating Layer conv5_1
I1105 14:42:32.484521  3468 net.cpp:394] conv5_1 <- pool4
I1105 14:42:32.484537  3468 net.cpp:356] conv5_1 -> conv5_1
I1105 14:42:32.484552  3468 net.cpp:96] Setting up conv5_1
I1105 14:42:32.542484  3468 net.cpp:103] Top shape: 32 512 14 14 (3211264)
I1105 14:42:32.542520  3468 layer_factory.hpp:78] Creating layer relu5_1
I1105 14:42:32.542532  3468 net.cpp:67] Creating Layer relu5_1
I1105 14:42:32.542539  3468 net.cpp:394] relu5_1 <- conv5_1
I1105 14:42:32.542551  3468 net.cpp:345] relu5_1 -> conv5_1 (in-place)
I1105 14:42:32.542562  3468 net.cpp:96] Setting up relu5_1
I1105 14:42:32.542572  3468 net.cpp:103] Top shape: 32 512 14 14 (3211264)
I1105 14:42:32.542578  3468 layer_factory.hpp:78] Creating layer conv5_2
I1105 14:42:32.542588  3468 net.cpp:67] Creating Layer conv5_2
I1105 14:42:32.542594  3468 net.cpp:394] conv5_2 <- conv5_1
I1105 14:42:32.542605  3468 net.cpp:356] conv5_2 -> conv5_2
I1105 14:42:32.542618  3468 net.cpp:96] Setting up conv5_2
I1105 14:42:32.600152  3468 net.cpp:103] Top shape: 32 512 14 14 (3211264)
I1105 14:42:32.600185  3468 layer_factory.hpp:78] Creating layer relu5_2
I1105 14:42:32.600196  3468 net.cpp:67] Creating Layer relu5_2
I1105 14:42:32.600203  3468 net.cpp:394] relu5_2 <- conv5_2
I1105 14:42:32.600213  3468 net.cpp:345] relu5_2 -> conv5_2 (in-place)
I1105 14:42:32.600222  3468 net.cpp:96] Setting up relu5_2
I1105 14:42:32.600232  3468 net.cpp:103] Top shape: 32 512 14 14 (3211264)
I1105 14:42:32.600239  3468 layer_factory.hpp:78] Creating layer conv5_3
I1105 14:42:32.600256  3468 net.cpp:67] Creating Layer conv5_3
I1105 14:42:32.600265  3468 net.cpp:394] conv5_3 <- conv5_2
I1105 14:42:32.600275  3468 net.cpp:356] conv5_3 -> conv5_3
I1105 14:42:32.600286  3468 net.cpp:96] Setting up conv5_3
I1105 14:42:32.657654  3468 net.cpp:103] Top shape: 32 512 14 14 (3211264)
I1105 14:42:32.657686  3468 layer_factory.hpp:78] Creating layer relu5_3
I1105 14:42:32.657697  3468 net.cpp:67] Creating Layer relu5_3
I1105 14:42:32.657704  3468 net.cpp:394] relu5_3 <- conv5_3
I1105 14:42:32.657713  3468 net.cpp:345] relu5_3 -> conv5_3 (in-place)
I1105 14:42:32.657734  3468 net.cpp:96] Setting up relu5_3
I1105 14:42:32.657743  3468 net.cpp:103] Top shape: 32 512 14 14 (3211264)
I1105 14:42:32.657750  3468 layer_factory.hpp:78] Creating layer pool5
I1105 14:42:32.657759  3468 net.cpp:67] Creating Layer pool5
I1105 14:42:32.657765  3468 net.cpp:394] pool5 <- conv5_3
I1105 14:42:32.657774  3468 net.cpp:356] pool5 -> pool5
I1105 14:42:32.657784  3468 net.cpp:96] Setting up pool5
I1105 14:42:32.657796  3468 net.cpp:103] Top shape: 32 512 7 7 (802816)
I1105 14:42:32.657806  3468 layer_factory.hpp:78] Creating layer fc6
I1105 14:42:32.657835  3468 net.cpp:67] Creating Layer fc6
I1105 14:42:32.657843  3468 net.cpp:394] fc6 <- pool5
I1105 14:42:32.657855  3468 net.cpp:356] fc6 -> fc6
I1105 14:42:32.657866  3468 net.cpp:96] Setting up fc6
I1105 14:42:35.179738  3468 net.cpp:103] Top shape: 32 4096 1 1 (131072)
I1105 14:42:35.179780  3468 layer_factory.hpp:78] Creating layer relu6
I1105 14:42:35.179792  3468 net.cpp:67] Creating Layer relu6
I1105 14:42:35.179800  3468 net.cpp:394] relu6 <- fc6
I1105 14:42:35.179812  3468 net.cpp:345] relu6 -> fc6 (in-place)
I1105 14:42:35.179824  3468 net.cpp:96] Setting up relu6
I1105 14:42:35.179847  3468 net.cpp:103] Top shape: 32 4096 1 1 (131072)
I1105 14:42:35.179854  3468 layer_factory.hpp:78] Creating layer drop6
I1105 14:42:35.179877  3468 net.cpp:67] Creating Layer drop6
I1105 14:42:35.179884  3468 net.cpp:394] drop6 <- fc6
I1105 14:42:35.179893  3468 net.cpp:345] drop6 -> fc6 (in-place)
I1105 14:42:35.179903  3468 net.cpp:96] Setting up drop6
I1105 14:42:35.179918  3468 net.cpp:103] Top shape: 32 4096 1 1 (131072)
I1105 14:42:35.179925  3468 layer_factory.hpp:78] Creating layer fc7
I1105 14:42:35.179939  3468 net.cpp:67] Creating Layer fc7
I1105 14:42:35.179947  3468 net.cpp:394] fc7 <- fc6
I1105 14:42:35.179957  3468 net.cpp:356] fc7 -> fc7
I1105 14:42:35.179975  3468 net.cpp:96] Setting up fc7
I1105 14:42:35.588701  3468 net.cpp:103] Top shape: 32 4096 1 1 (131072)
I1105 14:42:35.588737  3468 layer_factory.hpp:78] Creating layer relu7
I1105 14:42:35.588750  3468 net.cpp:67] Creating Layer relu7
I1105 14:42:35.588757  3468 net.cpp:394] relu7 <- fc7
I1105 14:42:35.588768  3468 net.cpp:345] relu7 -> fc7 (in-place)
I1105 14:42:35.588778  3468 net.cpp:96] Setting up relu7
I1105 14:42:35.588796  3468 net.cpp:103] Top shape: 32 4096 1 1 (131072)
I1105 14:42:35.588809  3468 layer_factory.hpp:78] Creating layer drop7
I1105 14:42:35.588820  3468 net.cpp:67] Creating Layer drop7
I1105 14:42:35.588829  3468 net.cpp:394] drop7 <- fc7
I1105 14:42:35.588839  3468 net.cpp:345] drop7 -> fc7 (in-place)
I1105 14:42:35.588847  3468 net.cpp:96] Setting up drop7
I1105 14:42:35.588856  3468 net.cpp:103] Top shape: 32 4096 1 1 (131072)
I1105 14:42:35.588863  3468 layer_factory.hpp:78] Creating layer fc8_2
I1105 14:42:35.588872  3468 net.cpp:67] Creating Layer fc8_2
I1105 14:42:35.588888  3468 net.cpp:394] fc8_2 <- fc7
I1105 14:42:35.588902  3468 net.cpp:356] fc8_2 -> fc8_2
I1105 14:42:35.588914  3468 net.cpp:96] Setting up fc8_2
I1105 14:42:35.589139  3468 net.cpp:103] Top shape: 32 2 1 1 (64)
I1105 14:42:35.589151  3468 layer_factory.hpp:78] Creating layer loss
I1105 14:42:35.589167  3468 net.cpp:67] Creating Layer loss
I1105 14:42:35.589175  3468 net.cpp:394] loss <- fc8_2
I1105 14:42:35.589184  3468 net.cpp:394] loss <- label
I1105 14:42:35.589195  3468 net.cpp:356] loss -> (automatic)
I1105 14:42:35.589203  3468 net.cpp:96] Setting up loss
I1105 14:42:35.589216  3468 net.cpp:103] Top shape: 1 1 1 1 (1)
I1105 14:42:35.589223  3468 net.cpp:109]     with loss weight 1
I1105 14:42:35.589257  3468 net.cpp:170] loss needs backward computation.
I1105 14:42:35.589264  3468 net.cpp:170] fc8_2 needs backward computation.
I1105 14:42:35.589270  3468 net.cpp:170] drop7 needs backward computation.
I1105 14:42:35.589275  3468 net.cpp:170] relu7 needs backward computation.
I1105 14:42:35.589280  3468 net.cpp:170] fc7 needs backward computation.
…
I1105 14:42:35.590514  3468 net.cpp:275] The NetState phase (1) differed from the phase (0) specified by a rule in layer data
I1105 14:42:35.590737  3468 net.cpp:39] Initializing net from parameters: 
name: "small"
layers {
  top: "data"
  top: "label"
  name: "data"
  type: IMAGE_DATA
  image_data_param {
    source: "/data/ad6813/devCaffe/caffe/task/clamp/clampVal.txt"
    batch_size: 8
    new_height: 256
    new_width: 256
  }
  include {
    phase: TEST
  }
  transform_param {
    mirror: true
    crop_size: 224
    mean_value: 86.75
    mean_value: 101.4
    mean_value: 104.6
  }
}
layers {
  bottom: "data"
  top: "conv1_1"
  name: "conv1_1"
  type: CONVOLUTION
  convolution_param {
    num_output: 64
    pad: 1
    kernel_size: 3
    weight_filler {
      type: "gaussian"
      std: 0.01
    }
    bias_filler {
      type: "constant"
      value: 0
    }
  }
}
layers {
  bottom: "conv1_1"
  top: "conv1_1"
  name: "relu1_1"
  type: RELU
}
layers {
  bottom: "conv1_1"
  top: "conv1_2"
  name: "conv1_2"
  type: CONVOLUTION
  convolution_param {
    num_output: 64
    pad: 1
    kernel_size: 3
    weight_filler {
      type: "gaussian"
      std: 0.01
    }
    bias_filler {
      type: "constant"
      value: 0
    }
  }
}
layers {
  bottom: "conv1_2"
  top: "conv1_2"
  name: "relu1_2"
  type: RELU
}
layers {
  bottom: "conv1_2"
  top: "pool1"
  name: "pool1"
  type: POOLING
  pooling_param {
    pool: MAX
    kernel_size: 2
    stride: 2
  }
}
layers {
  bottom: "pool1"
  top: "conv2_1"
  name: "conv2_1"
  type: CONVOLUTION
  convolution_param {
    num_output: 128
    pad: 1
    kernel_size: 3
    weight_filler {
      type: "gaussian"
      std: 0.01
    }
    bias_filler {
      type: "constant"
      value: 0
    }
  }
}
layers {
  bottom: "conv2_1"
  top: "conv2_1"
  name: "relu2_1"
  type: RELU
}
layers {
  bottom: "conv2_1"
  top: "conv2_2"
  name: "conv2_2"
  type: CONVOLUTION
  convolution_param {
    num_output: 128
    pad: 1
    kernel_size: 3
    weight_filler {
      type: "gaussian"
      std: 0.01
    }
    bias_filler {
      type: "constant"
      value: 0
    }
  }
}
layers {
  bottom: "conv2_2"
  top: "conv2_2"
  name: "relu2_2"
  type: RELU
}
layers {
  bottom: "conv2_2"
  top: "pool2"
  name: "pool2"
  type: POOLING
  pooling_param {
    pool: MAX
    kernel_size: 2
    stride: 2
  }
}
layers {
  bottom: "pool2"
  top: "conv3_1"
  name: "conv3_1"
  type: CONVOLUTION
  convolution_param {
    num_output: 256
    pad: 1
    kernel_size: 3
    weight_filler {
      type: "gaussian"
      std: 0.01
    }
    bias_filler {
      type: "constant"
      value: 0
    }
  }
}
layers {
  bottom: "conv3_1"
  top: "conv3_1"
  name: "relu3_1"
  type: RELU
}
layers {
  bottom: "conv3_1"
  top: "conv3_2"
  name: "conv3_2"
  type: CONVOLUTION
  convolution_param {
    num_output: 256
    pad: 1
    kernel_size: 3
    weight_filler {
      type: "gaussian"
      std: 0.01
    }
    bias_filler {
      type: "constant"
      value: 0
    }
  }
}
layers {
  bottom: "conv3_2"
  top: "conv3_2"
  name: "relu3_2"
  type: RELU
}
layers {
  bottom: "conv3_2"
  top: "conv3_3"
  name: "conv3_3"
  type: CONVOLUTION
  convolution_param {
    num_output: 256
    pad: 1
    kernel_size: 3
    weight_filler {
      type: "gaussian"
      std: 0.01
    }
    bias_filler {
      type: "constant"
      value: 0
    }
  }
}
layers {
  bottom: "conv3_3"
  top: "conv3_3"
  name: "relu3_3"
  type: RELU
}
layers {
  bottom: "conv3_3"
  top: "pool3"
  name: "pool3"
  type: POOLING
  pooling_param {
    pool: MAX
    kernel_size: 2
    stride: 2
  }
}
layers {
  bottom: "pool3"
  top: "conv4_1"
  name: "conv4_1"
  type: CONVOLUTION
  convolution_param {
    num_output: 512
    pad: 1
    kernel_size: 3
    weight_filler {
      type: "gaussian"
      std: 0.01
    }
    bias_filler {
      type: "constant"
      value: 0
    }
  }
}
layers {
  bottom: "conv4_1"
  top: "conv4_1"
  name: "relu4_1"
  type: RELU
}
layers {
  bottom: "conv4_1"
  top: "conv4_2"
  name: "conv4_2"
  type: CONVOLUTION
  convolution_param {
    num_output: 512
    pad: 1
    kernel_size: 3
    weight_filler {
      type: "gaussian"
      std: 0.01
    }
    bias_filler {
      type: "constant"
      value: 0
    }
  }
}
layers {
  bottom: "conv4_2"
  top: "conv4_2"
  name: "relu4_2"
  type: RELU
}
layers {
  bottom: "conv4_2"
  top: "conv4_3"
  name: "conv4_3"
  type: CONVOLUTION
  convolution_param {
    num_output: 512
    pad: 1
    kernel_size: 3
    weight_filler {
      type: "gaussian"
      std: 0.01
    }
    bias_filler {
      type: "constant"
      value: 0
    }
  }
}
layers {
  bottom: "conv4_3"
  top: "conv4_3"
  name: "relu4_3"
  type: RELU
}
layers {
  bottom: "conv4_3"
  top: "pool4"
  name: "pool4"
  type: POOLING
  pooling_param {
    pool: MAX
    kernel_size: 2
    stride: 2
  }
}
layers {
  bottom: "pool4"
  top: "conv5_1"
  name: "conv5_1"
  type: CONVOLUTION
  convolution_param {
    num_output: 512
    pad: 1
    kernel_size: 3
    weight_filler {
      type: "gaussian"
      std: 0.01
    }
    bias_filler {
      type: "constant"
      value: 0
    }
  }
}
layers {
  bottom: "conv5_1"
  top: "conv5_1"
  name: "relu5_1"
  type: RELU
}
layers {
  bottom: "conv5_1"
  top: "conv5_2"
  name: "conv5_2"
  type: CONVOLUTION
  convolution_param {
    num_output: 512
    pad: 1
    kernel_size: 3
    weight_filler {
      type: "gaussian"
      std: 0.01
    }
    bias_filler {
      type: "constant"
      value: 0
    }
  }
}
layers {
  bottom: "conv5_2"
  top: "conv5_2"
  name: "relu5_2"
  type: RELU
}
layers {
  bottom: "conv5_2"
  top: "conv5_3"
  name: "conv5_3"
  type: CONVOLUTION
  convolution_param {
    num_output: 512
    pad: 1
    kernel_size: 3
    weight_filler {
      type: "gaussian"
      std: 0.01
    }
    bias_filler {
      type: "constant"
      value: 0
    }
  }
}
layers {
  bottom: "conv5_3"
  top: "conv5_3"
  name: "relu5_3"
  type: RELU
}
layers {
  bottom: "conv5_3"
  top: "pool5"
  name: "pool5"
  type: POOLING
  pooling_param {
    pool: MAX
    kernel_size: 2
    stride: 2
  }
}
layers {
  bottom: "pool5"
  top: "fc6"
  name: "fc6"
  type: INNER_PRODUCT
  inner_product_param {
    num_output: 4096
    weight_filler {
      type: "gaussian"
      std: 0.01
    }
    bias_filler {
      type: "constant"
      value: 0
    }
  }
}
layers {
  bottom: "fc6"
  top: "fc6"
  name: "relu6"
  type: RELU
}
layers {
  bottom: "fc6"
  top: "fc6"
  name: "drop6"
  type: DROPOUT
  dropout_param {
    dropout_ratio: 0.5
  }
}
layers {
  bottom: "fc6"
  top: "fc7"
  name: "fc7"
  type: INNER_PRODUCT
  inner_product_param {
    num_output: 4096
    weight_filler {
      type: "gaussian"
      std: 0.01
    }
    bias_filler {
      type: "constant"
      value: 0
    }
  }
}
layers {
  bottom: "fc7"
  top: "fc7"
  name: "relu7"
  type: RELU
}
layers {
  bottom: "fc7"
  top: "fc7"
  name: "drop7"
  type: DROPOUT
  dropout_param {
    dropout_ratio: 0.5
  }
}
layers {
  bottom: "fc7"
  top: "fc8_2"
  name: "fc8_2"
  type: INNER_PRODUCT
  inner_product_param {
    num_output: 2
    weight_filler {
      type: "gaussian"
      std: 0.01
    }
    bias_filler {
      type: "constant"
      value: 0
    }
  }
}
layers {
  bottom: "fc8_2"
  bottom: "label"
  name: "loss"
  type: SOFTMAX_LOSS
}
layers {
  bottom: "fc8_2"
  bottom: "label"
  top: "accuracy"
  name: "accuracy"
  type: PER_CLASS_ACCURACY
  include {
    phase: TEST
  }
}
state {
  phase: TEST
}
I1105 14:42:35.590977  3468 layer_factory.hpp:78] Creating layer data
I1105 14:42:35.590992  3468 net.cpp:67] Creating Layer data
I1105 14:42:35.591001  3468 net.cpp:356] data -> data
I1105 14:42:35.591013  3468 net.cpp:356] data -> label
I1105 14:42:35.591023  3468 net.cpp:96] Setting up data
I1105 14:42:35.591030  3468 image_data_layer.cpp:34] Opening file /data/ad6813/devCaffe/caffe/task/clamp/clampVal.txt
I1105 14:42:35.592571  3468 image_data_layer.cpp:49] A total of 2005 images.
I1105 14:42:35.598567  3468 image_data_layer.cpp:78] output data size: 8,3,224,224
I1105 14:42:35.599509  3468 net.cpp:103] Top shape: 8 3 224 224 (1204224)
I1105 14:42:35.599521  3468 net.cpp:103] Top shape: 8 1 1 1 (8)
I1105 14:42:35.599529  3468 layer_factory.hpp:78] Creating layer label_data_1_split
I1105 14:42:35.599545  3468 net.cpp:67] Creating Layer label_data_1_split
I1105 14:42:35.599552  3468 net.cpp:394] label_data_1_split <- label
I1105 14:42:35.599563  3468 net.cpp:356] label_data_1_split -> label_data_1_split_0
I1105 14:42:35.599582  3468 net.cpp:356] label_data_1_split -> label_data_1_split_1
I1105 14:42:35.599594  3468 net.cpp:96] Setting up label_data_1_split
I1105 14:42:35.599604  3468 net.cpp:103] Top shape: 8 1 1 1 (8)
I1105 14:42:35.599619  3468 net.cpp:103] Top shape: 8 1 1 1 (8)
I1105 14:42:35.599628  3468 layer_factory.hpp:78] Creating layer conv1_1
I1105 14:42:35.599639  3468 net.cpp:67] Creating Layer conv1_1
I1105 14:42:35.599649  3468 net.cpp:394] conv1_1 <- data
I1105 14:42:35.599659  3468 net.cpp:356] conv1_1 -> conv1_1
I1105 14:42:35.599678  3468 net.cpp:96] Setting up conv1_1
I1105 14:42:35.599864  3468 net.cpp:103] Top shape: 8 64 224 224 (25690112)
I1105 14:42:35.599881  3468 layer_factory.hpp:78] Creating layer relu1_1
I1105 14:42:35.599891  3468 net.cpp:67] Creating Layer relu1_1
I1105 14:42:35.599899  3468 net.cpp:394] relu1_1 <- conv1_1
I1105 14:42:35.599915  3468 net.cpp:345] relu1_1 -> conv1_1 (in-place)
I1105 14:42:35.599923  3468 net.cpp:96] Setting up relu1_1
I1105 14:42:35.599935  3468 net.cpp:103] Top shape: 8 64 224 224 (25690112)
I1105 14:42:35.599947  3468 layer_factory.hpp:78] Creating layer conv1_2
I1105 14:42:35.599961  3468 net.cpp:67] Creating Layer conv1_2
I1105 14:42:35.599967  3468 net.cpp:394] conv1_2 <- conv1_1
I1105 14:42:35.599977  3468 net.cpp:356] conv1_2 -> conv1_2
I1105 14:42:35.599987  3468 net.cpp:96] Setting up conv1_2
I1105 14:42:35.601002  3468 net.cpp:103] Top shape: 8 64 224 224 (25690112)
I1105 14:42:35.601019  3468 layer_factory.hpp:78] Creating layer relu1_2
I1105 14:42:35.601028  3468 net.cpp:67] Creating Layer relu1_2
I1105 14:42:35.601034  3468 net.cpp:394] relu1_2 <- conv1_2
I1105 14:42:35.601043  3468 net.cpp:345] relu1_2 -> conv1_2 (in-place)
I1105 14:42:35.601052  3468 net.cpp:96] Setting up relu1_2
I1105 14:42:35.601064  3468 net.cpp:103] Top shape: 8 64 224 224 (25690112)
I1105 14:42:35.601073  3468 layer_factory.hpp:78] Creating layer pool1
I1105 14:42:35.601089  3468 net.cpp:67] Creating Layer pool1
I1105 14:42:35.601096  3468 net.cpp:394] pool1 <- conv1_2
I1105 14:42:35.601105  3468 net.cpp:356] pool1 -> pool1
I1105 14:42:35.601115  3468 net.cpp:96] Setting up pool1
I1105 14:42:35.601130  3468 net.cpp:103] Top shape: 8 64 112 112 (6422528)
I1105 14:42:35.601142  3468 layer_factory.hpp:78] Creating layer conv2_1
I1105 14:42:35.601152  3468 net.cpp:67] Creating Layer conv2_1
I1105 14:42:35.601157  3468 net.cpp:394] conv2_1 <- pool1
I1105 14:42:35.601166  3468 net.cpp:356] conv2_1 -> conv2_1
I1105 14:42:35.601176  3468 net.cpp:96] Setting up conv2_1
I1105 14:42:35.603179  3468 net.cpp:103] Top shape: 8 128 112 112 (12845056)
I1105 14:42:35.603196  3468 layer_factory.hpp:78] Creating layer relu2_1
I1105 14:42:35.603206  3468 net.cpp:67] Creating Layer relu2_1
I1105 14:42:35.603214  3468 net.cpp:394] relu2_1 <- conv2_1
I1105 14:42:35.603221  3468 net.cpp:345] relu2_1 -> conv2_1 (in-place)
I1105 14:42:35.603230  3468 net.cpp:96] Setting up relu2_1
I1105 14:42:35.603242  3468 net.cpp:103] Top shape: 8 128 112 112 (12845056)
I1105 14:42:35.603250  3468 layer_factory.hpp:78] Creating layer conv2_2
I1105 14:42:35.603266  3468 net.cpp:67] Creating Layer conv2_2
I1105 14:42:35.603274  3468 net.cpp:394] conv2_2 <- conv2_1
I1105 14:42:35.603283  3468 net.cpp:356] conv2_2 -> conv2_2
I1105 14:42:35.603294  3468 net.cpp:96] Setting up conv2_2
I1105 14:42:35.606955  3468 net.cpp:103] Top shape: 8 128 112 112 (12845056)
I1105 14:42:35.606969  3468 layer_factory.hpp:78] Creating layer relu2_2
I1105 14:42:35.606978  3468 net.cpp:67] Creating Layer relu2_2
I1105 14:42:35.606984  3468 net.cpp:394] relu2_2 <- conv2_2
I1105 14:42:35.606993  3468 net.cpp:345] relu2_2 -> conv2_2 (in-place)
I1105 14:42:35.607002  3468 net.cpp:96] Setting up relu2_2
I1105 14:42:35.607012  3468 net.cpp:103] Top shape: 8 128 112 112 (12845056)
I1105 14:42:35.607018  3468 layer_factory.hpp:78] Creating layer pool2
I1105 14:42:35.607027  3468 net.cpp:67] Creating Layer pool2
I1105 14:42:35.607033  3468 net.cpp:394] pool2 <- conv2_2
I1105 14:42:35.607040  3468 net.cpp:356] pool2 -> pool2
I1105 14:42:35.607055  3468 net.cpp:96] Setting up pool2
I1105 14:42:35.607070  3468 net.cpp:103] Top shape: 8 128 56 56 (3211264)
I1105 14:42:35.607079  3468 layer_factory.hpp:78] Creating layer conv3_1
I1105 14:42:35.607089  3468 net.cpp:67] Creating Layer conv3_1
I1105 14:42:35.607095  3468 net.cpp:394] conv3_1 <- pool2
I1105 14:42:35.607110  3468 net.cpp:356] conv3_1 -> conv3_1
I1105 14:42:35.607121  3468 net.cpp:96] Setting up conv3_1
I1105 14:42:35.614379  3468 net.cpp:103] Top shape: 8 256 56 56 (6422528)
I1105 14:42:35.614401  3468 layer_factory.hpp:78] Creating layer relu3_1
I1105 14:42:35.614411  3468 net.cpp:67] Creating Layer relu3_1
I1105 14:42:35.614418  3468 net.cpp:394] relu3_1 <- conv3_1
I1105 14:42:35.614428  3468 net.cpp:345] relu3_1 -> conv3_1 (in-place)
I1105 14:42:35.614436  3468 net.cpp:96] Setting up relu3_1
I1105 14:42:35.614446  3468 net.cpp:103] Top shape: 8 256 56 56 (6422528)
I1105 14:42:35.614461  3468 layer_factory.hpp:78] Creating layer conv3_2
I1105 14:42:35.614471  3468 net.cpp:67] Creating Layer conv3_2
I1105 14:42:35.614477  3468 net.cpp:394] conv3_2 <- conv3_1
I1105 14:42:35.614486  3468 net.cpp:356] conv3_2 -> conv3_2
I1105 14:42:35.614506  3468 net.cpp:96] Setting up conv3_2
I1105 14:42:35.629266  3468 net.cpp:103] Top shape: 8 256 56 56 (6422528)
I1105 14:42:35.629292  3468 layer_factory.hpp:78] Creating layer relu3_2
I1105 14:42:35.629303  3468 net.cpp:67] Creating Layer relu3_2
I1105 14:42:35.629310  3468 net.cpp:394] relu3_2 <- conv3_2
I1105 14:42:35.629319  3468 net.cpp:345] relu3_2 -> conv3_2 (in-place)
I1105 14:42:35.629329  3468 net.cpp:96] Setting up relu3_2
I1105 14:42:35.629340  3468 net.cpp:103] Top shape: 8 256 56 56 (6422528)
I1105 14:42:35.629346  3468 layer_factory.hpp:78] Creating layer conv3_3
I1105 14:42:35.629364  3468 net.cpp:67] Creating Layer conv3_3
I1105 14:42:35.629371  3468 net.cpp:394] conv3_3 <- conv3_2
I1105 14:42:35.629384  3468 net.cpp:356] conv3_3 -> conv3_3
I1105 14:42:35.629395  3468 net.cpp:96] Setting up conv3_3
I1105 14:42:35.644160  3468 net.cpp:103] Top shape: 8 256 56 56 (6422528)
I1105 14:42:35.644186  3468 layer_factory.hpp:78] Creating layer relu3_3
I1105 14:42:35.644196  3468 net.cpp:67] Creating Layer relu3_3
I1105 14:42:35.644203  3468 net.cpp:394] relu3_3 <- conv3_3
I1105 14:42:35.644215  3468 net.cpp:345] relu3_3 -> conv3_3 (in-place)
I1105 14:42:35.644227  3468 net.cpp:96] Setting up relu3_3
I1105 14:42:35.644237  3468 net.cpp:103] Top shape: 8 256 56 56 (6422528)
I1105 14:42:35.644243  3468 layer_factory.hpp:78] Creating layer pool3
I1105 14:42:35.644253  3468 net.cpp:67] Creating Layer pool3
I1105 14:42:35.644258  3468 net.cpp:394] pool3 <- conv3_3
I1105 14:42:35.644268  3468 net.cpp:356] pool3 -> pool3
I1105 14:42:35.644278  3468 net.cpp:96] Setting up pool3
I1105 14:42:35.644294  3468 net.cpp:103] Top shape: 8 256 28 28 (1605632)
I1105 14:42:35.644310  3468 layer_factory.hpp:78] Creating layer conv4_1
I1105 14:42:35.644325  3468 net.cpp:67] Creating Layer conv4_1
I1105 14:42:35.644330  3468 net.cpp:394] conv4_1 <- pool3
I1105 14:42:35.644341  3468 net.cpp:356] conv4_1 -> conv4_1
I1105 14:42:35.644359  3468 net.cpp:96] Setting up conv4_1
I1105 14:42:35.673598  3468 net.cpp:103] Top shape: 8 512 28 28 (3211264)
I1105 14:42:35.673629  3468 layer_factory.hpp:78] Creating layer relu4_1
I1105 14:42:35.673640  3468 net.cpp:67] Creating Layer relu4_1
I1105 14:42:35.673647  3468 net.cpp:394] relu4_1 <- conv4_1
I1105 14:42:35.673660  3468 net.cpp:345] relu4_1 -> conv4_1 (in-place)
I1105 14:42:35.673671  3468 net.cpp:96] Setting up relu4_1
I1105 14:42:35.673681  3468 net.cpp:103] Top shape: 8 512 28 28 (3211264)
I1105 14:42:35.673687  3468 layer_factory.hpp:78] Creating layer conv4_2
I1105 14:42:35.673697  3468 net.cpp:67] Creating Layer conv4_2
I1105 14:42:35.673702  3468 net.cpp:394] conv4_2 <- conv4_1
I1105 14:42:35.673712  3468 net.cpp:356] conv4_2 -> conv4_2
I1105 14:42:35.673723  3468 net.cpp:96] Setting up conv4_2
I1105 14:42:35.731256  3468 net.cpp:103] Top shape: 8 512 28 28 (3211264)
I1105 14:42:35.731299  3468 layer_factory.hpp:78] Creating layer relu4_2
I1105 14:42:35.731312  3468 net.cpp:67] Creating Layer relu4_2
I1105 14:42:35.731318  3468 net.cpp:394] relu4_2 <- conv4_2
I1105 14:42:35.731328  3468 net.cpp:345] relu4_2 -> conv4_2 (in-place)
I1105 14:42:35.731338  3468 net.cpp:96] Setting up relu4_2
I1105 14:42:35.731348  3468 net.cpp:103] Top shape: 8 512 28 28 (3211264)
I1105 14:42:35.731354  3468 layer_factory.hpp:78] Creating layer conv4_3
I1105 14:42:35.731367  3468 net.cpp:67] Creating Layer conv4_3
I1105 14:42:35.731374  3468 net.cpp:394] conv4_3 <- conv4_2
I1105 14:42:35.731382  3468 net.cpp:356] conv4_3 -> conv4_3
I1105 14:42:35.731397  3468 net.cpp:96] Setting up conv4_3
I1105 14:42:35.789306  3468 net.cpp:103] Top shape: 8 512 28 28 (3211264)
I1105 14:42:35.789342  3468 layer_factory.hpp:78] Creating layer relu4_3
I1105 14:42:35.789353  3468 net.cpp:67] Creating Layer relu4_3
I1105 14:42:35.789371  3468 net.cpp:394] relu4_3 <- conv4_3
I1105 14:42:35.789381  3468 net.cpp:345] relu4_3 -> conv4_3 (in-place)
I1105 14:42:35.789392  3468 net.cpp:96] Setting up relu4_3
I1105 14:42:35.789402  3468 net.cpp:103] Top shape: 8 512 28 28 (3211264)
I1105 14:42:35.789407  3468 layer_factory.hpp:78] Creating layer pool4
I1105 14:42:35.789419  3468 net.cpp:67] Creating Layer pool4
I1105 14:42:35.789425  3468 net.cpp:394] pool4 <- conv4_3
I1105 14:42:35.789435  3468 net.cpp:356] pool4 -> pool4
I1105 14:42:35.789445  3468 net.cpp:96] Setting up pool4
I1105 14:42:35.789458  3468 net.cpp:103] Top shape: 8 512 14 14 (802816)
I1105 14:42:35.789468  3468 layer_factory.hpp:78] Creating layer conv5_1
I1105 14:42:35.789479  3468 net.cpp:67] Creating Layer conv5_1
I1105 14:42:35.789496  3468 net.cpp:394] conv5_1 <- pool4
I1105 14:42:35.789508  3468 net.cpp:356] conv5_1 -> conv5_1
I1105 14:42:35.789518  3468 net.cpp:96] Setting up conv5_1
I1105 14:42:35.847126  3468 net.cpp:103] Top shape: 8 512 14 14 (802816)
I1105 14:42:35.847158  3468 layer_factory.hpp:78] Creating layer relu5_1
I1105 14:42:35.847169  3468 net.cpp:67] Creating Layer relu5_1
I1105 14:42:35.847177  3468 net.cpp:394] relu5_1 <- conv5_1
I1105 14:42:35.847185  3468 net.cpp:345] relu5_1 -> conv5_1 (in-place)
I1105 14:42:35.847196  3468 net.cpp:96] Setting up relu5_1
I1105 14:42:35.847206  3468 net.cpp:103] Top shape: 8 512 14 14 (802816)
I1105 14:42:35.847213  3468 layer_factory.hpp:78] Creating layer conv5_2
I1105 14:42:35.847229  3468 net.cpp:67] Creating Layer conv5_2
I1105 14:42:35.847242  3468 net.cpp:394] conv5_2 <- conv5_1
I1105 14:42:35.847254  3468 net.cpp:356] conv5_2 -> conv5_2
I1105 14:42:35.847268  3468 net.cpp:96] Setting up conv5_2
I1105 14:42:35.906700  3468 net.cpp:103] Top shape: 8 512 14 14 (802816)
I1105 14:42:35.906744  3468 layer_factory.hpp:78] Creating layer relu5_2
I1105 14:42:35.907269  3468 net.cpp:67] Creating Layer relu5_2
I1105 14:42:35.907284  3468 net.cpp:394] relu5_2 <- conv5_2
I1105 14:42:35.907295  3468 net.cpp:345] relu5_2 -> conv5_2 (in-place)
I1105 14:42:35.907311  3468 net.cpp:96] Setting up relu5_2
I1105 14:42:35.907331  3468 net.cpp:103] Top shape: 8 512 14 14 (802816)
I1105 14:42:35.907338  3468 layer_factory.hpp:78] Creating layer conv5_3
I1105 14:42:35.907832  3468 net.cpp:67] Creating Layer conv5_3
I1105 14:42:35.907843  3468 net.cpp:394] conv5_3 <- conv5_2
I1105 14:42:35.907853  3468 net.cpp:356] conv5_3 -> conv5_3
I1105 14:42:35.907881  3468 net.cpp:96] Setting up conv5_3
I1105 14:42:35.966302  3468 net.cpp:103] Top shape: 8 512 14 14 (802816)
I1105 14:42:35.966341  3468 layer_factory.hpp:78] Creating layer relu5_3
I1105 14:42:35.966354  3468 net.cpp:67] Creating Layer relu5_3
I1105 14:42:35.966362  3468 net.cpp:394] relu5_3 <- conv5_3
I1105 14:42:35.966373  3468 net.cpp:345] relu5_3 -> conv5_3 (in-place)
I1105 14:42:35.966384  3468 net.cpp:96] Setting up relu5_3
I1105 14:42:35.966394  3468 net.cpp:103] Top shape: 8 512 14 14 (802816)
I1105 14:42:35.966402  3468 layer_factory.hpp:78] Creating layer pool5
I1105 14:42:35.966419  3468 net.cpp:67] Creating Layer pool5
I1105 14:42:35.966428  3468 net.cpp:394] pool5 <- conv5_3
I1105 14:42:35.966438  3468 net.cpp:356] pool5 -> pool5
I1105 14:42:35.966449  3468 net.cpp:96] Setting up pool5
I1105 14:42:35.966464  3468 net.cpp:103] Top shape: 8 512 7 7 (200704)
I1105 14:42:35.966482  3468 layer_factory.hpp:78] Creating layer fc6
I1105 14:42:35.966498  3468 net.cpp:67] Creating Layer fc6
I1105 14:42:35.966506  3468 net.cpp:394] fc6 <- pool5
I1105 14:42:35.966514  3468 net.cpp:356] fc6 -> fc6
I1105 14:42:35.966534  3468 net.cpp:96] Setting up fc6
I1105 14:42:38.468153  3468 net.cpp:103] Top shape: 8 4096 1 1 (32768)
I1105 14:42:38.468189  3468 layer_factory.hpp:78] Creating layer relu6
I1105 14:42:38.468199  3468 net.cpp:67] Creating Layer relu6
I1105 14:42:38.468207  3468 net.cpp:394] relu6 <- fc6
I1105 14:42:38.468219  3468 net.cpp:345] relu6 -> fc6 (in-place)
I1105 14:42:38.468228  3468 net.cpp:96] Setting up relu6
I1105 14:42:38.468247  3468 net.cpp:103] Top shape: 8 4096 1 1 (32768)
I1105 14:42:38.468264  3468 layer_factory.hpp:78] Creating layer drop6
I1105 14:42:38.468274  3468 net.cpp:67] Creating Layer drop6
I1105 14:42:38.468281  3468 net.cpp:394] drop6 <- fc6
I1105 14:42:38.468291  3468 net.cpp:345] drop6 -> fc6 (in-place)
I1105 14:42:38.468304  3468 net.cpp:96] Setting up drop6
I1105 14:42:38.468328  3468 net.cpp:103] Top shape: 8 4096 1 1 (32768)
I1105 14:42:38.468335  3468 layer_factory.hpp:78] Creating layer fc7
I1105 14:42:38.468345  3468 net.cpp:67] Creating Layer fc7
I1105 14:42:38.468351  3468 net.cpp:394] fc7 <- fc6
I1105 14:42:38.468359  3468 net.cpp:356] fc7 -> fc7
I1105 14:42:38.468376  3468 net.cpp:96] Setting up fc7
I1105 14:42:38.907567  3468 net.cpp:103] Top shape: 8 4096 1 1 (32768)
I1105 14:42:38.907603  3468 layer_factory.hpp:78] Creating layer relu7
I1105 14:42:38.907613  3468 net.cpp:67] Creating Layer relu7
I1105 14:42:38.907621  3468 net.cpp:394] relu7 <- fc7
I1105 14:42:38.907634  3468 net.cpp:345] relu7 -> fc7 (in-place)
I1105 14:42:38.907644  3468 net.cpp:96] Setting up relu7
I1105 14:42:38.907662  3468 net.cpp:103] Top shape: 8 4096 1 1 (32768)
I1105 14:42:38.907670  3468 layer_factory.hpp:78] Creating layer drop7
I1105 14:42:38.907678  3468 net.cpp:67] Creating Layer drop7
I1105 14:42:38.907692  3468 net.cpp:394] drop7 <- fc7
I1105 14:42:38.907701  3468 net.cpp:345] drop7 -> fc7 (in-place)
I1105 14:42:38.907711  3468 net.cpp:96] Setting up drop7
I1105 14:42:38.907721  3468 net.cpp:103] Top shape: 8 4096 1 1 (32768)
I1105 14:42:38.907727  3468 layer_factory.hpp:78] Creating layer fc8_2
I1105 14:42:38.907739  3468 net.cpp:67] Creating Layer fc8_2
I1105 14:42:38.907747  3468 net.cpp:394] fc8_2 <- fc7
I1105 14:42:38.907778  3468 net.cpp:356] fc8_2 -> fc8_2
I1105 14:42:38.907793  3468 net.cpp:96] Setting up fc8_2
I1105 14:42:38.908020  3468 net.cpp:103] Top shape: 8 2 1 1 (16)
I1105 14:42:38.908031  3468 layer_factory.hpp:78] Creating layer fc8_2_fc8_2_0_split
I1105 14:42:38.908043  3468 net.cpp:67] Creating Layer fc8_2_fc8_2_0_split
I1105 14:42:38.908049  3468 net.cpp:394] fc8_2_fc8_2_0_split <- fc8_2
I1105 14:42:38.908058  3468 net.cpp:356] fc8_2_fc8_2_0_split -> fc8_2_fc8_2_0_split_0
I1105 14:42:38.908069  3468 net.cpp:356] fc8_2_fc8_2_0_split -> fc8_2_fc8_2_0_split_1
I1105 14:42:38.908081  3468 net.cpp:96] Setting up fc8_2_fc8_2_0_split
I1105 14:42:38.908088  3468 net.cpp:103] Top shape: 8 2 1 1 (16)
I1105 14:42:38.908094  3468 net.cpp:103] Top shape: 8 2 1 1 (16)
I1105 14:42:38.908100  3468 layer_factory.hpp:78] Creating layer loss
I1105 14:42:38.908112  3468 net.cpp:67] Creating Layer loss
I1105 14:42:38.908118  3468 net.cpp:394] loss <- fc8_2_fc8_2_0_split_0
I1105 14:42:38.908125  3468 net.cpp:394] loss <- label_data_1_split_0
I1105 14:42:38.908134  3468 net.cpp:356] loss -> (automatic)
I1105 14:42:38.908141  3468 net.cpp:96] Setting up loss
I1105 14:42:38.908151  3468 net.cpp:103] Top shape: 1 1 1 1 (1)
I1105 14:42:38.908159  3468 net.cpp:109]     with loss weight 1
I1105 14:42:38.908176  3468 layer_factory.hpp:78] Creating layer accuracy
I1105 14:42:38.908188  3468 net.cpp:67] Creating Layer accuracy
I1105 14:42:38.908195  3468 net.cpp:394] accuracy <- fc8_2_fc8_2_0_split_1
I1105 14:42:38.908202  3468 net.cpp:394] accuracy <- label_data_1_split_1
I1105 14:42:38.908211  3468 net.cpp:356] accuracy -> accuracy
I1105 14:42:38.908226  3468 net.cpp:96] Setting up accuracy
I1105 14:42:38.908239  3468 net.cpp:103] Top shape: 1 1 1 4 (4)
I1105 14:42:38.908247  3468 net.cpp:172] accuracy does not need backward computation.
I1105 14:42:38.908253  3468 net.cpp:170] loss needs backward computation.
I1105 14:42:38.908259  3468 net.cpp:170] fc8_2_fc8_2_0_split needs backward computation.
I1105 14:42:38.908265  3468 net.cpp:170] fc8_2 needs backward computation.
I1105 14:42:38.908272  3468 net.cpp:170] drop7 needs backward computation.
…
