…
I1105 14:40:43.309591 32197 net.cpp:275] The NetState phase (0) differed from the phase (1) specified by a rule in layer accuracy
I1105 14:40:43.309777 32197 net.cpp:39] Initializing net from parameters: 
name: "small"
layers {
  top: "data"
  top: "label"
  name: "data"
  type: IMAGE_DATA
  image_data_param {
    source: "/data/ad6813/devCaffe/caffe/task/clamp/clampTrain.txt"
    batch_size: 32
    new_height: 256
    new_width: 256
  }
  include {
    phase: TRAIN
  }
  transform_param {
    mirror: true
    crop_size: 224
    mean_file: "/data/ad6813/devCaffe/caffe/clampdetMeanVal"
  }
}
layers {
  bottom: "data"
  top: "conv1_1"
  name: "conv1_1"
  type: CONVOLUTION
  convolution_param {
    num_output: 64
    pad: 1
    kernel_size: 3
    weight_filler {
      type: "gaussian"
      std: 0.01
    }
    bias_filler {
      type: "constant"
      value: 0
    }
  }
}
layers {
  bottom: "conv1_1"
  top: "conv1_1"
  name: "relu1_1"
  type: RELU
}
layers {
  bottom: "conv1_1"
  top: "conv1_2"
  name: "conv1_2"
  type: CONVOLUTION
  convolution_param {
    num_output: 64
    pad: 1
    kernel_size: 3
    weight_filler {
      type: "gaussian"
      std: 0.01
    }
    bias_filler {
      type: "constant"
      value: 0
    }
  }
}
layers {
  bottom: "conv1_2"
  top: "conv1_2"
  name: "relu1_2"
  type: RELU
}
layers {
  bottom: "conv1_2"
  top: "pool1"
  name: "pool1"
  type: POOLING
  pooling_param {
    pool: MAX
    kernel_size: 2
    stride: 2
  }
}
layers {
  bottom: "pool1"
  top: "conv2_1"
  name: "conv2_1"
  type: CONVOLUTION
  convolution_param {
    num_output: 128
    pad: 1
    kernel_size: 3
    weight_filler {
      type: "gaussian"
      std: 0.01
    }
    bias_filler {
      type: "constant"
      value: 0
    }
  }
}
layers {
  bottom: "conv2_1"
  top: "conv2_1"
  name: "relu2_1"
  type: RELU
}
layers {
  bottom: "conv2_1"
  top: "conv2_2"
  name: "conv2_2"
  type: CONVOLUTION
  convolution_param {
    num_output: 128
    pad: 1
    kernel_size: 3
    weight_filler {
      type: "gaussian"
      std: 0.01
    }
    bias_filler {
      type: "constant"
      value: 0
    }
  }
}
layers {
  bottom: "conv2_2"
  top: "conv2_2"
  name: "relu2_2"
  type: RELU
}
layers {
  bottom: "conv2_2"
  top: "pool2"
  name: "pool2"
  type: POOLING
  pooling_param {
    pool: MAX
    kernel_size: 2
    stride: 2
  }
}
layers {
  bottom: "pool2"
  top: "conv3_1"
  name: "conv3_1"
  type: CONVOLUTION
  convolution_param {
    num_output: 256
    pad: 1
    kernel_size: 3
    weight_filler {
      type: "gaussian"
      std: 0.01
    }
    bias_filler {
      type: "constant"
      value: 0
    }
  }
}
layers {
  bottom: "conv3_1"
  top: "conv3_1"
  name: "relu3_1"
  type: RELU
}
layers {
  bottom: "conv3_1"
  top: "conv3_2"
  name: "conv3_2"
  type: CONVOLUTION
  convolution_param {
    num_output: 256
    pad: 1
    kernel_size: 3
    weight_filler {
      type: "gaussian"
      std: 0.01
    }
    bias_filler {
      type: "constant"
      value: 0
    }
  }
}
layers {
  bottom: "conv3_2"
  top: "conv3_2"
  name: "relu3_2"
  type: RELU
}
layers {
  bottom: "conv3_2"
  top: "conv3_3"
  name: "conv3_3"
  type: CONVOLUTION
  convolution_param {
    num_output: 256
    pad: 1
    kernel_size: 3
    weight_filler {
      type: "gaussian"
      std: 0.01
    }
    bias_filler {
      type: "constant"
      value: 0
    }
  }
}
layers {
  bottom: "conv3_3"
  top: "conv3_3"
  name: "relu3_3"
  type: RELU
}
layers {
  bottom: "conv3_3"
  top: "pool3"
  name: "pool3"
  type: POOLING
  pooling_param {
    pool: MAX
    kernel_size: 2
    stride: 2
  }
}
layers {
  bottom: "pool3"
  top: "conv4_1"
  name: "conv4_1"
  type: CONVOLUTION
  convolution_param {
    num_output: 512
    pad: 1
    kernel_size: 3
    weight_filler {
      type: "gaussian"
      std: 0.01
    }
    bias_filler {
      type: "constant"
      value: 0
    }
  }
}
layers {
  bottom: "conv4_1"
  top: "conv4_1"
  name: "relu4_1"
  type: RELU
}
layers {
  bottom: "conv4_1"
  top: "conv4_2"
  name: "conv4_2"
  type: CONVOLUTION
  convolution_param {
    num_output: 512
    pad: 1
    kernel_size: 3
    weight_filler {
      type: "gaussian"
      std: 0.01
    }
    bias_filler {
      type: "constant"
      value: 0
    }
  }
}
layers {
  bottom: "conv4_2"
  top: "conv4_2"
  name: "relu4_2"
  type: RELU
}
layers {
  bottom: "conv4_2"
  top: "conv4_3"
  name: "conv4_3"
  type: CONVOLUTION
  convolution_param {
    num_output: 512
    pad: 1
    kernel_size: 3
    weight_filler {
      type: "gaussian"
      std: 0.01
    }
    bias_filler {
      type: "constant"
      value: 0
    }
  }
}
layers {
  bottom: "conv4_3"
  top: "conv4_3"
  name: "relu4_3"
  type: RELU
}
layers {
  bottom: "conv4_3"
  top: "pool4"
  name: "pool4"
  type: POOLING
  pooling_param {
    pool: MAX
    kernel_size: 2
    stride: 2
  }
}
layers {
  bottom: "pool4"
  top: "conv5_1"
  name: "conv5_1"
  type: CONVOLUTION
  convolution_param {
    num_output: 512
    pad: 1
    kernel_size: 3
    weight_filler {
      type: "gaussian"
      std: 0.01
    }
    bias_filler {
      type: "constant"
      value: 0
    }
  }
}
layers {
  bottom: "conv5_1"
  top: "conv5_1"
  name: "relu5_1"
  type: RELU
}
layers {
  bottom: "conv5_1"
  top: "conv5_2"
  name: "conv5_2"
  type: CONVOLUTION
  convolution_param {
    num_output: 512
    pad: 1
    kernel_size: 3
    weight_filler {
      type: "gaussian"
      std: 0.01
    }
    bias_filler {
      type: "constant"
      value: 0
    }
  }
}
layers {
  bottom: "conv5_2"
  top: "conv5_2"
  name: "relu5_2"
  type: RELU
}
layers {
  bottom: "conv5_2"
  top: "conv5_3"
  name: "conv5_3"
  type: CONVOLUTION
  convolution_param {
    num_output: 512
    pad: 1
    kernel_size: 3
    weight_filler {
      type: "gaussian"
      std: 0.01
    }
    bias_filler {
      type: "constant"
      value: 0
    }
  }
}
layers {
  bottom: "conv5_3"
  top: "conv5_3"
  name: "relu5_3"
  type: RELU
}
layers {
  bottom: "conv5_3"
  top: "pool5"
  name: "pool5"
  type: POOLING
  pooling_param {
    pool: MAX
    kernel_size: 2
    stride: 2
  }
}
layers {
  bottom: "pool5"
  top: "fc6"
  name: "fc6"
  type: INNER_PRODUCT
  inner_product_param {
    num_output: 4096
    weight_filler {
      type: "gaussian"
      std: 0.01
    }
    bias_filler {
      type: "constant"
      value: 0
    }
  }
}
layers {
  bottom: "fc6"
  top: "fc6"
  name: "relu6"
  type: RELU
}
layers {
  bottom: "fc6"
  top: "fc6"
  name: "drop6"
  type: DROPOUT
  dropout_param {
    dropout_ratio: 0.5
  }
}
layers {
  bottom: "fc6"
  top: "fc7"
  name: "fc7"
  type: INNER_PRODUCT
  inner_product_param {
    num_output: 4096
    weight_filler {
      type: "gaussian"
      std: 0.01
    }
    bias_filler {
      type: "constant"
      value: 0
    }
  }
}
layers {
  bottom: "fc7"
  top: "fc7"
  name: "relu7"
  type: RELU
}
layers {
  bottom: "fc7"
  top: "fc7"
  name: "drop7"
  type: DROPOUT
  dropout_param {
    dropout_ratio: 0.5
  }
}
layers {
  bottom: "fc7"
  top: "fc8_2"
  name: "fc8_2"
  type: INNER_PRODUCT
  inner_product_param {
    num_output: 2
    weight_filler {
      type: "gaussian"
      std: 0.01
    }
    bias_filler {
      type: "constant"
      value: 0
    }
  }
}
layers {
  bottom: "fc8_2"
  bottom: "label"
  name: "loss"
  type: SOFTMAX_LOSS
}
state {
  phase: TRAIN
}
I1105 14:40:43.309902 32197 layer_factory.hpp:78] Creating layer data
I1105 14:40:43.309919 32197 data_transformer.cpp:25] Loading mean file from/data/ad6813/devCaffe/caffe/clampdetMeanVal
I1105 14:40:43.311395 32197 net.cpp:67] Creating Layer data
I1105 14:40:43.311408 32197 net.cpp:356] data -> data
I1105 14:40:43.311422 32197 net.cpp:356] data -> label
I1105 14:40:43.311434 32197 net.cpp:96] Setting up data
I1105 14:40:43.311439 32197 image_data_layer.cpp:34] Opening file /data/ad6813/devCaffe/caffe/task/clamp/clampTrain.txt
I1105 14:40:43.319274 32197 image_data_layer.cpp:49] A total of 23494 images.
I1105 14:40:43.330194 32197 image_data_layer.cpp:78] output data size: 32,3,224,224
I1105 14:40:43.333039 32197 net.cpp:103] Top shape: 32 3 224 224 (4816896)
I1105 14:40:43.333063 32197 net.cpp:103] Top shape: 32 1 1 1 (32)
I1105 14:40:43.333070 32197 layer_factory.hpp:78] Creating layer conv1_1
I1105 14:40:43.333084 32197 net.cpp:67] Creating Layer conv1_1
I1105 14:40:43.333088 32197 net.cpp:394] conv1_1 <- data
I1105 14:40:43.333102 32197 net.cpp:356] conv1_1 -> conv1_1
I1105 14:40:43.333112 32197 net.cpp:96] Setting up conv1_1
I1105 14:40:43.349730 32197 net.cpp:103] Top shape: 32 64 224 224 (102760448)
I1105 14:40:43.349766 32197 layer_factory.hpp:78] Creating layer relu1_1
I1105 14:40:43.349779 32197 net.cpp:67] Creating Layer relu1_1
I1105 14:40:43.349784 32197 net.cpp:394] relu1_1 <- conv1_1
I1105 14:40:43.349791 32197 net.cpp:345] relu1_1 -> conv1_1 (in-place)
I1105 14:40:43.349800 32197 net.cpp:96] Setting up relu1_1
I1105 14:40:43.349808 32197 net.cpp:103] Top shape: 32 64 224 224 (102760448)
I1105 14:40:43.349812 32197 layer_factory.hpp:78] Creating layer conv1_2
I1105 14:40:43.349819 32197 net.cpp:67] Creating Layer conv1_2
I1105 14:40:43.349822 32197 net.cpp:394] conv1_2 <- conv1_1
I1105 14:40:43.349827 32197 net.cpp:356] conv1_2 -> conv1_2
I1105 14:40:43.349833 32197 net.cpp:96] Setting up conv1_2
I1105 14:40:43.351065 32197 net.cpp:103] Top shape: 32 64 224 224 (102760448)
I1105 14:40:43.351078 32197 layer_factory.hpp:78] Creating layer relu1_2
I1105 14:40:43.351083 32197 net.cpp:67] Creating Layer relu1_2
I1105 14:40:43.351088 32197 net.cpp:394] relu1_2 <- conv1_2
I1105 14:40:43.351091 32197 net.cpp:345] relu1_2 -> conv1_2 (in-place)
I1105 14:40:43.351096 32197 net.cpp:96] Setting up relu1_2
I1105 14:40:43.351101 32197 net.cpp:103] Top shape: 32 64 224 224 (102760448)
I1105 14:40:43.351105 32197 layer_factory.hpp:78] Creating layer pool1
I1105 14:40:43.351112 32197 net.cpp:67] Creating Layer pool1
I1105 14:40:43.351115 32197 net.cpp:394] pool1 <- conv1_2
I1105 14:40:43.351120 32197 net.cpp:356] pool1 -> pool1
I1105 14:40:43.351126 32197 net.cpp:96] Setting up pool1
I1105 14:40:43.351143 32197 net.cpp:103] Top shape: 32 64 112 112 (25690112)
I1105 14:40:43.351150 32197 layer_factory.hpp:78] Creating layer conv2_1
I1105 14:40:43.351155 32197 net.cpp:67] Creating Layer conv2_1
I1105 14:40:43.351158 32197 net.cpp:394] conv2_1 <- pool1
I1105 14:40:43.351164 32197 net.cpp:356] conv2_1 -> conv2_1
I1105 14:40:43.351169 32197 net.cpp:96] Setting up conv2_1
I1105 14:40:43.353489 32197 net.cpp:103] Top shape: 32 128 112 112 (51380224)
I1105 14:40:43.353503 32197 layer_factory.hpp:78] Creating layer relu2_1
I1105 14:40:43.353508 32197 net.cpp:67] Creating Layer relu2_1
I1105 14:40:43.353512 32197 net.cpp:394] relu2_1 <- conv2_1
I1105 14:40:43.353518 32197 net.cpp:345] relu2_1 -> conv2_1 (in-place)
I1105 14:40:43.353523 32197 net.cpp:96] Setting up relu2_1
I1105 14:40:43.353528 32197 net.cpp:103] Top shape: 32 128 112 112 (51380224)
I1105 14:40:43.353531 32197 layer_factory.hpp:78] Creating layer conv2_2
I1105 14:40:43.353538 32197 net.cpp:67] Creating Layer conv2_2
I1105 14:40:43.353540 32197 net.cpp:394] conv2_2 <- conv2_1
I1105 14:40:43.353546 32197 net.cpp:356] conv2_2 -> conv2_2
I1105 14:40:43.353551 32197 net.cpp:96] Setting up conv2_2
I1105 14:40:43.358078 32197 net.cpp:103] Top shape: 32 128 112 112 (51380224)
I1105 14:40:43.358090 32197 layer_factory.hpp:78] Creating layer relu2_2
I1105 14:40:43.358098 32197 net.cpp:67] Creating Layer relu2_2
I1105 14:40:43.358101 32197 net.cpp:394] relu2_2 <- conv2_2
I1105 14:40:43.358105 32197 net.cpp:345] relu2_2 -> conv2_2 (in-place)
I1105 14:40:43.358119 32197 net.cpp:96] Setting up relu2_2
I1105 14:40:43.358124 32197 net.cpp:103] Top shape: 32 128 112 112 (51380224)
I1105 14:40:43.358127 32197 layer_factory.hpp:78] Creating layer pool2
I1105 14:40:43.358132 32197 net.cpp:67] Creating Layer pool2
I1105 14:40:43.358135 32197 net.cpp:394] pool2 <- conv2_2
I1105 14:40:43.358140 32197 net.cpp:356] pool2 -> pool2
I1105 14:40:43.358144 32197 net.cpp:96] Setting up pool2
I1105 14:40:43.358150 32197 net.cpp:103] Top shape: 32 128 56 56 (12845056)
I1105 14:40:43.358153 32197 layer_factory.hpp:78] Creating layer conv3_1
I1105 14:40:43.358160 32197 net.cpp:67] Creating Layer conv3_1
I1105 14:40:43.358163 32197 net.cpp:394] conv3_1 <- pool2
I1105 14:40:43.358170 32197 net.cpp:356] conv3_1 -> conv3_1
I1105 14:40:43.358175 32197 net.cpp:96] Setting up conv3_1
I1105 14:40:43.367085 32197 net.cpp:103] Top shape: 32 256 56 56 (25690112)
I1105 14:40:43.367105 32197 layer_factory.hpp:78] Creating layer relu3_1
I1105 14:40:43.367111 32197 net.cpp:67] Creating Layer relu3_1
I1105 14:40:43.367115 32197 net.cpp:394] relu3_1 <- conv3_1
I1105 14:40:43.367122 32197 net.cpp:345] relu3_1 -> conv3_1 (in-place)
I1105 14:40:43.367128 32197 net.cpp:96] Setting up relu3_1
I1105 14:40:43.367133 32197 net.cpp:103] Top shape: 32 256 56 56 (25690112)
I1105 14:40:43.367137 32197 layer_factory.hpp:78] Creating layer conv3_2
I1105 14:40:43.367142 32197 net.cpp:67] Creating Layer conv3_2
I1105 14:40:43.367146 32197 net.cpp:394] conv3_2 <- conv3_1
I1105 14:40:43.367149 32197 net.cpp:356] conv3_2 -> conv3_2
I1105 14:40:43.367154 32197 net.cpp:96] Setting up conv3_2
I1105 14:40:43.384809 32197 net.cpp:103] Top shape: 32 256 56 56 (25690112)
I1105 14:40:43.384829 32197 layer_factory.hpp:78] Creating layer relu3_2
I1105 14:40:43.384836 32197 net.cpp:67] Creating Layer relu3_2
I1105 14:40:43.384841 32197 net.cpp:394] relu3_2 <- conv3_2
I1105 14:40:43.384847 32197 net.cpp:345] relu3_2 -> conv3_2 (in-place)
I1105 14:40:43.384853 32197 net.cpp:96] Setting up relu3_2
I1105 14:40:43.384860 32197 net.cpp:103] Top shape: 32 256 56 56 (25690112)
I1105 14:40:43.384862 32197 layer_factory.hpp:78] Creating layer conv3_3
I1105 14:40:43.384868 32197 net.cpp:67] Creating Layer conv3_3
I1105 14:40:43.384871 32197 net.cpp:394] conv3_3 <- conv3_2
I1105 14:40:43.384876 32197 net.cpp:356] conv3_3 -> conv3_3
I1105 14:40:43.384881 32197 net.cpp:96] Setting up conv3_3
I1105 14:40:43.402427 32197 net.cpp:103] Top shape: 32 256 56 56 (25690112)
I1105 14:40:43.402448 32197 layer_factory.hpp:78] Creating layer relu3_3
I1105 14:40:43.402459 32197 net.cpp:67] Creating Layer relu3_3
I1105 14:40:43.402463 32197 net.cpp:394] relu3_3 <- conv3_3
I1105 14:40:43.402472 32197 net.cpp:345] relu3_3 -> conv3_3 (in-place)
I1105 14:40:43.402478 32197 net.cpp:96] Setting up relu3_3
I1105 14:40:43.402484 32197 net.cpp:103] Top shape: 32 256 56 56 (25690112)
I1105 14:40:43.402487 32197 layer_factory.hpp:78] Creating layer pool3
I1105 14:40:43.402493 32197 net.cpp:67] Creating Layer pool3
I1105 14:40:43.402495 32197 net.cpp:394] pool3 <- conv3_3
I1105 14:40:43.402501 32197 net.cpp:356] pool3 -> pool3
I1105 14:40:43.402508 32197 net.cpp:96] Setting up pool3
I1105 14:40:43.402514 32197 net.cpp:103] Top shape: 32 256 28 28 (6422528)
I1105 14:40:43.402518 32197 layer_factory.hpp:78] Creating layer conv4_1
I1105 14:40:43.402523 32197 net.cpp:67] Creating Layer conv4_1
I1105 14:40:43.402526 32197 net.cpp:394] conv4_1 <- pool3
I1105 14:40:43.402534 32197 net.cpp:356] conv4_1 -> conv4_1
I1105 14:40:43.402539 32197 net.cpp:96] Setting up conv4_1
I1105 14:40:43.437728 32197 net.cpp:103] Top shape: 32 512 28 28 (12845056)
I1105 14:40:43.437753 32197 layer_factory.hpp:78] Creating layer relu4_1
I1105 14:40:43.437762 32197 net.cpp:67] Creating Layer relu4_1
I1105 14:40:43.437767 32197 net.cpp:394] relu4_1 <- conv4_1
I1105 14:40:43.437774 32197 net.cpp:345] relu4_1 -> conv4_1 (in-place)
I1105 14:40:43.437780 32197 net.cpp:96] Setting up relu4_1
I1105 14:40:43.437786 32197 net.cpp:103] Top shape: 32 512 28 28 (12845056)
I1105 14:40:43.437800 32197 layer_factory.hpp:78] Creating layer conv4_2
I1105 14:40:43.437809 32197 net.cpp:67] Creating Layer conv4_2
I1105 14:40:43.437813 32197 net.cpp:394] conv4_2 <- conv4_1
I1105 14:40:43.437819 32197 net.cpp:356] conv4_2 -> conv4_2
I1105 14:40:43.437824 32197 net.cpp:96] Setting up conv4_2
I1105 14:40:43.507869 32197 net.cpp:103] Top shape: 32 512 28 28 (12845056)
I1105 14:40:43.507896 32197 layer_factory.hpp:78] Creating layer relu4_2
I1105 14:40:43.507905 32197 net.cpp:67] Creating Layer relu4_2
I1105 14:40:43.507908 32197 net.cpp:394] relu4_2 <- conv4_2
I1105 14:40:43.507917 32197 net.cpp:345] relu4_2 -> conv4_2 (in-place)
I1105 14:40:43.507925 32197 net.cpp:96] Setting up relu4_2
I1105 14:40:43.507930 32197 net.cpp:103] Top shape: 32 512 28 28 (12845056)
I1105 14:40:43.507933 32197 layer_factory.hpp:78] Creating layer conv4_3
I1105 14:40:43.507940 32197 net.cpp:67] Creating Layer conv4_3
I1105 14:40:43.507942 32197 net.cpp:394] conv4_3 <- conv4_2
I1105 14:40:43.507948 32197 net.cpp:356] conv4_3 -> conv4_3
I1105 14:40:43.507954 32197 net.cpp:96] Setting up conv4_3
I1105 14:40:43.577760 32197 net.cpp:103] Top shape: 32 512 28 28 (12845056)
I1105 14:40:43.577785 32197 layer_factory.hpp:78] Creating layer relu4_3
I1105 14:40:43.577795 32197 net.cpp:67] Creating Layer relu4_3
I1105 14:40:43.577800 32197 net.cpp:394] relu4_3 <- conv4_3
I1105 14:40:43.577806 32197 net.cpp:345] relu4_3 -> conv4_3 (in-place)
I1105 14:40:43.577813 32197 net.cpp:96] Setting up relu4_3
I1105 14:40:43.577819 32197 net.cpp:103] Top shape: 32 512 28 28 (12845056)
I1105 14:40:43.577822 32197 layer_factory.hpp:78] Creating layer pool4
I1105 14:40:43.577831 32197 net.cpp:67] Creating Layer pool4
I1105 14:40:43.577833 32197 net.cpp:394] pool4 <- conv4_3
I1105 14:40:43.577838 32197 net.cpp:356] pool4 -> pool4
I1105 14:40:43.577844 32197 net.cpp:96] Setting up pool4
I1105 14:40:43.577852 32197 net.cpp:103] Top shape: 32 512 14 14 (3211264)
I1105 14:40:43.577857 32197 layer_factory.hpp:78] Creating layer conv5_1
I1105 14:40:43.577864 32197 net.cpp:67] Creating Layer conv5_1
I1105 14:40:43.577867 32197 net.cpp:394] conv5_1 <- pool4
I1105 14:40:43.577872 32197 net.cpp:356] conv5_1 -> conv5_1
I1105 14:40:43.577880 32197 net.cpp:96] Setting up conv5_1
I1105 14:40:43.647696 32197 net.cpp:103] Top shape: 32 512 14 14 (3211264)
I1105 14:40:43.647722 32197 layer_factory.hpp:78] Creating layer relu5_1
I1105 14:40:43.647730 32197 net.cpp:67] Creating Layer relu5_1
I1105 14:40:43.647735 32197 net.cpp:394] relu5_1 <- conv5_1
I1105 14:40:43.647742 32197 net.cpp:345] relu5_1 -> conv5_1 (in-place)
I1105 14:40:43.647749 32197 net.cpp:96] Setting up relu5_1
I1105 14:40:43.647761 32197 net.cpp:103] Top shape: 32 512 14 14 (3211264)
I1105 14:40:43.647764 32197 layer_factory.hpp:78] Creating layer conv5_2
I1105 14:40:43.647778 32197 net.cpp:67] Creating Layer conv5_2
I1105 14:40:43.647783 32197 net.cpp:394] conv5_2 <- conv5_1
I1105 14:40:43.647788 32197 net.cpp:356] conv5_2 -> conv5_2
I1105 14:40:43.647794 32197 net.cpp:96] Setting up conv5_2
I1105 14:40:43.717449 32197 net.cpp:103] Top shape: 32 512 14 14 (3211264)
I1105 14:40:43.717476 32197 layer_factory.hpp:78] Creating layer relu5_2
I1105 14:40:43.717488 32197 net.cpp:67] Creating Layer relu5_2
I1105 14:40:43.717494 32197 net.cpp:394] relu5_2 <- conv5_2
I1105 14:40:43.717500 32197 net.cpp:345] relu5_2 -> conv5_2 (in-place)
I1105 14:40:43.717506 32197 net.cpp:96] Setting up relu5_2
I1105 14:40:43.717512 32197 net.cpp:103] Top shape: 32 512 14 14 (3211264)
I1105 14:40:43.717516 32197 layer_factory.hpp:78] Creating layer conv5_3
I1105 14:40:43.717524 32197 net.cpp:67] Creating Layer conv5_3
I1105 14:40:43.717526 32197 net.cpp:394] conv5_3 <- conv5_2
I1105 14:40:43.717531 32197 net.cpp:356] conv5_3 -> conv5_3
I1105 14:40:43.717537 32197 net.cpp:96] Setting up conv5_3
I1105 14:40:43.787426 32197 net.cpp:103] Top shape: 32 512 14 14 (3211264)
I1105 14:40:43.787451 32197 layer_factory.hpp:78] Creating layer relu5_3
I1105 14:40:43.787459 32197 net.cpp:67] Creating Layer relu5_3
I1105 14:40:43.787464 32197 net.cpp:394] relu5_3 <- conv5_3
I1105 14:40:43.787480 32197 net.cpp:345] relu5_3 -> conv5_3 (in-place)
I1105 14:40:43.787488 32197 net.cpp:96] Setting up relu5_3
I1105 14:40:43.787494 32197 net.cpp:103] Top shape: 32 512 14 14 (3211264)
I1105 14:40:43.787497 32197 layer_factory.hpp:78] Creating layer pool5
I1105 14:40:43.787506 32197 net.cpp:67] Creating Layer pool5
I1105 14:40:43.787510 32197 net.cpp:394] pool5 <- conv5_3
I1105 14:40:43.787514 32197 net.cpp:356] pool5 -> pool5
I1105 14:40:43.787520 32197 net.cpp:96] Setting up pool5
I1105 14:40:43.787528 32197 net.cpp:103] Top shape: 32 512 7 7 (802816)
I1105 14:40:43.787531 32197 layer_factory.hpp:78] Creating layer fc6
I1105 14:40:43.787545 32197 net.cpp:67] Creating Layer fc6
I1105 14:40:43.787549 32197 net.cpp:394] fc6 <- pool5
I1105 14:40:43.787554 32197 net.cpp:356] fc6 -> fc6
I1105 14:40:43.787559 32197 net.cpp:96] Setting up fc6
I1105 14:40:46.195247 32197 net.cpp:103] Top shape: 32 4096 1 1 (131072)
I1105 14:40:46.195289 32197 layer_factory.hpp:78] Creating layer relu6
I1105 14:40:46.195298 32197 net.cpp:67] Creating Layer relu6
I1105 14:40:46.195303 32197 net.cpp:394] relu6 <- fc6
I1105 14:40:46.195310 32197 net.cpp:345] relu6 -> fc6 (in-place)
I1105 14:40:46.195319 32197 net.cpp:96] Setting up relu6
I1105 14:40:46.195333 32197 net.cpp:103] Top shape: 32 4096 1 1 (131072)
I1105 14:40:46.195336 32197 layer_factory.hpp:78] Creating layer drop6
I1105 14:40:46.195345 32197 net.cpp:67] Creating Layer drop6
I1105 14:40:46.195348 32197 net.cpp:394] drop6 <- fc6
I1105 14:40:46.195353 32197 net.cpp:345] drop6 -> fc6 (in-place)
I1105 14:40:46.195358 32197 net.cpp:96] Setting up drop6
I1105 14:40:46.195363 32197 net.cpp:103] Top shape: 32 4096 1 1 (131072)
I1105 14:40:46.195365 32197 layer_factory.hpp:78] Creating layer fc7
I1105 14:40:46.195371 32197 net.cpp:67] Creating Layer fc7
I1105 14:40:46.195374 32197 net.cpp:394] fc7 <- fc6
I1105 14:40:46.195380 32197 net.cpp:356] fc7 -> fc7
I1105 14:40:46.195387 32197 net.cpp:96] Setting up fc7
I1105 14:40:46.587221 32197 net.cpp:103] Top shape: 32 4096 1 1 (131072)
I1105 14:40:46.587250 32197 layer_factory.hpp:78] Creating layer relu7
I1105 14:40:46.587260 32197 net.cpp:67] Creating Layer relu7
I1105 14:40:46.587265 32197 net.cpp:394] relu7 <- fc7
I1105 14:40:46.587272 32197 net.cpp:345] relu7 -> fc7 (in-place)
I1105 14:40:46.587280 32197 net.cpp:96] Setting up relu7
I1105 14:40:46.587293 32197 net.cpp:103] Top shape: 32 4096 1 1 (131072)
I1105 14:40:46.587301 32197 layer_factory.hpp:78] Creating layer drop7
I1105 14:40:46.587306 32197 net.cpp:67] Creating Layer drop7
I1105 14:40:46.587309 32197 net.cpp:394] drop7 <- fc7
I1105 14:40:46.587313 32197 net.cpp:345] drop7 -> fc7 (in-place)
I1105 14:40:46.587317 32197 net.cpp:96] Setting up drop7
I1105 14:40:46.587321 32197 net.cpp:103] Top shape: 32 4096 1 1 (131072)
I1105 14:40:46.587324 32197 layer_factory.hpp:78] Creating layer fc8_2
I1105 14:40:46.587332 32197 net.cpp:67] Creating Layer fc8_2
I1105 14:40:46.587338 32197 net.cpp:394] fc8_2 <- fc7
I1105 14:40:46.587343 32197 net.cpp:356] fc8_2 -> fc8_2
I1105 14:40:46.587349 32197 net.cpp:96] Setting up fc8_2
I1105 14:40:46.587566 32197 net.cpp:103] Top shape: 32 2 1 1 (64)
I1105 14:40:46.587575 32197 layer_factory.hpp:78] Creating layer loss
I1105 14:40:46.587584 32197 net.cpp:67] Creating Layer loss
I1105 14:40:46.587589 32197 net.cpp:394] loss <- fc8_2
I1105 14:40:46.587594 32197 net.cpp:394] loss <- label
I1105 14:40:46.587601 32197 net.cpp:356] loss -> (automatic)
I1105 14:40:46.587607 32197 net.cpp:96] Setting up loss
I1105 14:40:46.587616 32197 net.cpp:103] Top shape: 1 1 1 1 (1)
I1105 14:40:46.587620 32197 net.cpp:109]     with loss weight 1
I1105 14:40:46.587656 32197 net.cpp:170] loss needs backward computation.
I1105 14:40:46.587659 32197 net.cpp:170] fc8_2 needs backward computation.
I1105 14:40:46.587662 32197 net.cpp:170] drop7 needs backward computation.
I1105 14:40:46.587666 32197 net.cpp:170] relu7 needs backward computation.
I1105 14:40:46.587667 32197 net.cpp:170] fc7 needs backward computation.
…
I1105 14:40:46.588644 32197 solver.cpp:151] Creating test net (#0) specified by net file: /data/ad6813/devCaffe/caffe/oxford/small.train
I1105 14:40:46.588690 32197 net.cpp:275] The NetState phase (1) differed from the phase (0) specified by a rule in layer data
I1105 14:40:46.588903 32197 net.cpp:39] Initializing net from parameters: 
name: "small"
layers {
  top: "data"
  top: "label"
  name: "data"
  type: IMAGE_DATA
  image_data_param {
    source: "/data/ad6813/devCaffe/caffe/task/clamp/clampVal.txt"
    batch_size: 6
    new_height: 256
    new_width: 256
  }
  include {
    phase: TEST
  }
  transform_param {
    mirror: true
    crop_size: 224
    mean_file: "/data/ad6813/devCaffe/caffe/clampdetMeanVal"
  }
}
layers {
  bottom: "data"
  top: "conv1_1"
  name: "conv1_1"
  type: CONVOLUTION
  convolution_param {
    num_output: 64
    pad: 1
    kernel_size: 3
    weight_filler {
      type: "gaussian"
      std: 0.01
    }
    bias_filler {
      type: "constant"
      value: 0
    }
  }
}
layers {
  bottom: "conv1_1"
  top: "conv1_1"
  name: "relu1_1"
  type: RELU
}
layers {
  bottom: "conv1_1"
  top: "conv1_2"
  name: "conv1_2"
  type: CONVOLUTION
  convolution_param {
    num_output: 64
    pad: 1
    kernel_size: 3
    weight_filler {
      type: "gaussian"
      std: 0.01
    }
    bias_filler {
      type: "constant"
      value: 0
    }
  }
}
layers {
  bottom: "conv1_2"
  top: "conv1_2"
  name: "relu1_2"
  type: RELU
}
layers {
  bottom: "conv1_2"
  top: "pool1"
  name: "pool1"
  type: POOLING
  pooling_param {
    pool: MAX
    kernel_size: 2
    stride: 2
  }
}
layers {
  bottom: "pool1"
  top: "conv2_1"
  name: "conv2_1"
  type: CONVOLUTION
  convolution_param {
    num_output: 128
    pad: 1
    kernel_size: 3
    weight_filler {
      type: "gaussian"
      std: 0.01
    }
    bias_filler {
      type: "constant"
      value: 0
    }
  }
}
layers {
  bottom: "conv2_1"
  top: "conv2_1"
  name: "relu2_1"
  type: RELU
}
layers {
  bottom: "conv2_1"
  top: "conv2_2"
  name: "conv2_2"
  type: CONVOLUTION
  convolution_param {
    num_output: 128
    pad: 1
    kernel_size: 3
    weight_filler {
      type: "gaussian"
      std: 0.01
    }
    bias_filler {
      type: "constant"
      value: 0
    }
  }
}
layers {
  bottom: "conv2_2"
  top: "conv2_2"
  name: "relu2_2"
  type: RELU
}
layers {
  bottom: "conv2_2"
  top: "pool2"
  name: "pool2"
  type: POOLING
  pooling_param {
    pool: MAX
    kernel_size: 2
    stride: 2
  }
}
layers {
  bottom: "pool2"
  top: "conv3_1"
  name: "conv3_1"
  type: CONVOLUTION
  convolution_param {
    num_output: 256
    pad: 1
    kernel_size: 3
    weight_filler {
      type: "gaussian"
      std: 0.01
    }
    bias_filler {
      type: "constant"
      value: 0
    }
  }
}
layers {
  bottom: "conv3_1"
  top: "conv3_1"
  name: "relu3_1"
  type: RELU
}
layers {
  bottom: "conv3_1"
  top: "conv3_2"
  name: "conv3_2"
  type: CONVOLUTION
  convolution_param {
    num_output: 256
    pad: 1
    kernel_size: 3
    weight_filler {
      type: "gaussian"
      std: 0.01
    }
    bias_filler {
      type: "constant"
      value: 0
    }
  }
}
layers {
  bottom: "conv3_2"
  top: "conv3_2"
  name: "relu3_2"
  type: RELU
}
layers {
  bottom: "conv3_2"
  top: "conv3_3"
  name: "conv3_3"
  type: CONVOLUTION
  convolution_param {
    num_output: 256
    pad: 1
    kernel_size: 3
    weight_filler {
      type: "gaussian"
      std: 0.01
    }
    bias_filler {
      type: "constant"
      value: 0
    }
  }
}
layers {
  bottom: "conv3_3"
  top: "conv3_3"
  name: "relu3_3"
  type: RELU
}
layers {
  bottom: "conv3_3"
  top: "pool3"
  name: "pool3"
  type: POOLING
  pooling_param {
    pool: MAX
    kernel_size: 2
    stride: 2
  }
}
layers {
  bottom: "pool3"
  top: "conv4_1"
  name: "conv4_1"
  type: CONVOLUTION
  convolution_param {
    num_output: 512
    pad: 1
    kernel_size: 3
    weight_filler {
      type: "gaussian"
      std: 0.01
    }
    bias_filler {
      type: "constant"
      value: 0
    }
  }
}
layers {
  bottom: "conv4_1"
  top: "conv4_1"
  name: "relu4_1"
  type: RELU
}
layers {
  bottom: "conv4_1"
  top: "conv4_2"
  name: "conv4_2"
  type: CONVOLUTION
  convolution_param {
    num_output: 512
    pad: 1
    kernel_size: 3
    weight_filler {
      type: "gaussian"
      std: 0.01
    }
    bias_filler {
      type: "constant"
      value: 0
    }
  }
}
layers {
  bottom: "conv4_2"
  top: "conv4_2"
  name: "relu4_2"
  type: RELU
}
layers {
  bottom: "conv4_2"
  top: "conv4_3"
  name: "conv4_3"
  type: CONVOLUTION
  convolution_param {
    num_output: 512
    pad: 1
    kernel_size: 3
    weight_filler {
      type: "gaussian"
      std: 0.01
    }
    bias_filler {
      type: "constant"
      value: 0
    }
  }
}
layers {
  bottom: "conv4_3"
  top: "conv4_3"
  name: "relu4_3"
  type: RELU
}
layers {
  bottom: "conv4_3"
  top: "pool4"
  name: "pool4"
  type: POOLING
  pooling_param {
    pool: MAX
    kernel_size: 2
    stride: 2
  }
}
layers {
  bottom: "pool4"
  top: "conv5_1"
  name: "conv5_1"
  type: CONVOLUTION
  convolution_param {
    num_output: 512
    pad: 1
    kernel_size: 3
    weight_filler {
      type: "gaussian"
      std: 0.01
    }
    bias_filler {
      type: "constant"
      value: 0
    }
  }
}
layers {
  bottom: "conv5_1"
  top: "conv5_1"
  name: "relu5_1"
  type: RELU
}
layers {
  bottom: "conv5_1"
  top: "conv5_2"
  name: "conv5_2"
  type: CONVOLUTION
  convolution_param {
    num_output: 512
    pad: 1
    kernel_size: 3
    weight_filler {
      type: "gaussian"
      std: 0.01
    }
    bias_filler {
      type: "constant"
      value: 0
    }
  }
}
layers {
  bottom: "conv5_2"
  top: "conv5_2"
  name: "relu5_2"
  type: RELU
}
layers {
  bottom: "conv5_2"
  top: "conv5_3"
  name: "conv5_3"
  type: CONVOLUTION
  convolution_param {
    num_output: 512
    pad: 1
    kernel_size: 3
    weight_filler {
      type: "gaussian"
      std: 0.01
    }
    bias_filler {
      type: "constant"
      value: 0
    }
  }
}
layers {
  bottom: "conv5_3"
  top: "conv5_3"
  name: "relu5_3"
  type: RELU
}
layers {
  bottom: "conv5_3"
  top: "pool5"
  name: "pool5"
  type: POOLING
  pooling_param {
    pool: MAX
    kernel_size: 2
    stride: 2
  }
}
layers {
  bottom: "pool5"
  top: "fc6"
  name: "fc6"
  type: INNER_PRODUCT
  inner_product_param {
    num_output: 4096
    weight_filler {
      type: "gaussian"
      std: 0.01
    }
    bias_filler {
      type: "constant"
      value: 0
    }
  }
}
layers {
  bottom: "fc6"
  top: "fc6"
  name: "relu6"
  type: RELU
}
layers {
  bottom: "fc6"
  top: "fc6"
  name: "drop6"
  type: DROPOUT
  dropout_param {
    dropout_ratio: 0.5
  }
}
layers {
  bottom: "fc6"
  top: "fc7"
  name: "fc7"
  type: INNER_PRODUCT
  inner_product_param {
    num_output: 4096
    weight_filler {
      type: "gaussian"
      std: 0.01
    }
    bias_filler {
      type: "constant"
      value: 0
    }
  }
}
layers {
  bottom: "fc7"
  top: "fc7"
  name: "relu7"
  type: RELU
}
layers {
  bottom: "fc7"
  top: "fc7"
  name: "drop7"
  type: DROPOUT
  dropout_param {
    dropout_ratio: 0.5
  }
}
layers {
  bottom: "fc7"
  top: "fc8_2"
  name: "fc8_2"
  type: INNER_PRODUCT
  inner_product_param {
    num_output: 2
    weight_filler {
      type: "gaussian"
      std: 0.01
    }
    bias_filler {
      type: "constant"
      value: 0
    }
  }
}
layers {
  bottom: "fc8_2"
  bottom: "label"
  name: "loss"
  type: SOFTMAX_LOSS
}
layers {
  bottom: "fc8_2"
  bottom: "label"
  top: "accuracy"
  name: "accuracy"
  type: PER_CLASS_ACCURACY
  include {
    phase: TEST
  }
}
state {
  phase: TEST
}
I1105 14:40:46.589052 32197 layer_factory.hpp:78] Creating layer data
I1105 14:40:46.589061 32197 data_transformer.cpp:25] Loading mean file from/data/ad6813/devCaffe/caffe/clampdetMeanVal
I1105 14:40:46.590464 32197 net.cpp:67] Creating Layer data
I1105 14:40:46.590476 32197 net.cpp:356] data -> data
I1105 14:40:46.590483 32197 net.cpp:356] data -> label
I1105 14:40:46.590490 32197 net.cpp:96] Setting up data
I1105 14:40:46.590494 32197 image_data_layer.cpp:34] Opening file /data/ad6813/devCaffe/caffe/task/clamp/clampVal.txt
I1105 14:40:46.591178 32197 image_data_layer.cpp:49] A total of 2005 images.
I1105 14:40:46.597049 32197 image_data_layer.cpp:78] output data size: 6,3,224,224
I1105 14:40:46.597373 32197 net.cpp:103] Top shape: 6 3 224 224 (903168)
I1105 14:40:46.597381 32197 net.cpp:103] Top shape: 6 1 1 1 (6)
I1105 14:40:46.597385 32197 layer_factory.hpp:78] Creating layer label_data_1_split
I1105 14:40:46.597393 32197 net.cpp:67] Creating Layer label_data_1_split
I1105 14:40:46.597398 32197 net.cpp:394] label_data_1_split <- label
I1105 14:40:46.597404 32197 net.cpp:356] label_data_1_split -> label_data_1_split_0
I1105 14:40:46.597409 32197 net.cpp:356] label_data_1_split -> label_data_1_split_1
I1105 14:40:46.597415 32197 net.cpp:96] Setting up label_data_1_split
I1105 14:40:46.597420 32197 net.cpp:103] Top shape: 6 1 1 1 (6)
I1105 14:40:46.597424 32197 net.cpp:103] Top shape: 6 1 1 1 (6)
I1105 14:40:46.597427 32197 layer_factory.hpp:78] Creating layer conv1_1
I1105 14:40:46.597432 32197 net.cpp:67] Creating Layer conv1_1
I1105 14:40:46.597435 32197 net.cpp:394] conv1_1 <- data
I1105 14:40:46.597442 32197 net.cpp:356] conv1_1 -> conv1_1
I1105 14:40:46.597448 32197 net.cpp:96] Setting up conv1_1
I1105 14:40:46.597640 32197 net.cpp:103] Top shape: 6 64 224 224 (19267584)
I1105 14:40:46.597657 32197 layer_factory.hpp:78] Creating layer relu1_1
I1105 14:40:46.597663 32197 net.cpp:67] Creating Layer relu1_1
I1105 14:40:46.597669 32197 net.cpp:394] relu1_1 <- conv1_1
I1105 14:40:46.597676 32197 net.cpp:345] relu1_1 -> conv1_1 (in-place)
I1105 14:40:46.597679 32197 net.cpp:96] Setting up relu1_1
I1105 14:40:46.597686 32197 net.cpp:103] Top shape: 6 64 224 224 (19267584)
I1105 14:40:46.597692 32197 layer_factory.hpp:78] Creating layer conv1_2
I1105 14:40:46.597698 32197 net.cpp:67] Creating Layer conv1_2
I1105 14:40:46.597702 32197 net.cpp:394] conv1_2 <- conv1_1
I1105 14:40:46.597707 32197 net.cpp:356] conv1_2 -> conv1_2
I1105 14:40:46.597718 32197 net.cpp:96] Setting up conv1_2
I1105 14:40:46.598767 32197 net.cpp:103] Top shape: 6 64 224 224 (19267584)
I1105 14:40:46.598780 32197 layer_factory.hpp:78] Creating layer relu1_2
I1105 14:40:46.598785 32197 net.cpp:67] Creating Layer relu1_2
I1105 14:40:46.598788 32197 net.cpp:394] relu1_2 <- conv1_2
I1105 14:40:46.598793 32197 net.cpp:345] relu1_2 -> conv1_2 (in-place)
I1105 14:40:46.598798 32197 net.cpp:96] Setting up relu1_2
I1105 14:40:46.598803 32197 net.cpp:103] Top shape: 6 64 224 224 (19267584)
I1105 14:40:46.598806 32197 layer_factory.hpp:78] Creating layer pool1
I1105 14:40:46.598814 32197 net.cpp:67] Creating Layer pool1
I1105 14:40:46.598816 32197 net.cpp:394] pool1 <- conv1_2
I1105 14:40:46.598820 32197 net.cpp:356] pool1 -> pool1
I1105 14:40:46.598825 32197 net.cpp:96] Setting up pool1
I1105 14:40:46.598832 32197 net.cpp:103] Top shape: 6 64 112 112 (4816896)
I1105 14:40:46.598836 32197 layer_factory.hpp:78] Creating layer conv2_1
I1105 14:40:46.598842 32197 net.cpp:67] Creating Layer conv2_1
I1105 14:40:46.598845 32197 net.cpp:394] conv2_1 <- pool1
I1105 14:40:46.598850 32197 net.cpp:356] conv2_1 -> conv2_1
I1105 14:40:46.598855 32197 net.cpp:96] Setting up conv2_1
I1105 14:40:46.600918 32197 net.cpp:103] Top shape: 6 128 112 112 (9633792)
I1105 14:40:46.600931 32197 layer_factory.hpp:78] Creating layer relu2_1
I1105 14:40:46.600937 32197 net.cpp:67] Creating Layer relu2_1
I1105 14:40:46.600941 32197 net.cpp:394] relu2_1 <- conv2_1
I1105 14:40:46.600947 32197 net.cpp:345] relu2_1 -> conv2_1 (in-place)
I1105 14:40:46.600953 32197 net.cpp:96] Setting up relu2_1
I1105 14:40:46.600958 32197 net.cpp:103] Top shape: 6 128 112 112 (9633792)
I1105 14:40:46.600961 32197 layer_factory.hpp:78] Creating layer conv2_2
I1105 14:40:46.600966 32197 net.cpp:67] Creating Layer conv2_2
I1105 14:40:46.600970 32197 net.cpp:394] conv2_2 <- conv2_1
I1105 14:40:46.600975 32197 net.cpp:356] conv2_2 -> conv2_2
I1105 14:40:46.600981 32197 net.cpp:96] Setting up conv2_2
I1105 14:40:46.604720 32197 net.cpp:103] Top shape: 6 128 112 112 (9633792)
I1105 14:40:46.604732 32197 layer_factory.hpp:78] Creating layer relu2_2
I1105 14:40:46.604739 32197 net.cpp:67] Creating Layer relu2_2
I1105 14:40:46.604743 32197 net.cpp:394] relu2_2 <- conv2_2
I1105 14:40:46.604748 32197 net.cpp:345] relu2_2 -> conv2_2 (in-place)
I1105 14:40:46.604753 32197 net.cpp:96] Setting up relu2_2
I1105 14:40:46.604758 32197 net.cpp:103] Top shape: 6 128 112 112 (9633792)
I1105 14:40:46.604760 32197 layer_factory.hpp:78] Creating layer pool2
I1105 14:40:46.604766 32197 net.cpp:67] Creating Layer pool2
I1105 14:40:46.604769 32197 net.cpp:394] pool2 <- conv2_2
I1105 14:40:46.604773 32197 net.cpp:356] pool2 -> pool2
I1105 14:40:46.604779 32197 net.cpp:96] Setting up pool2
I1105 14:40:46.604784 32197 net.cpp:103] Top shape: 6 128 56 56 (2408448)
I1105 14:40:46.604787 32197 layer_factory.hpp:78] Creating layer conv3_1
I1105 14:40:46.604792 32197 net.cpp:67] Creating Layer conv3_1
I1105 14:40:46.604795 32197 net.cpp:394] conv3_1 <- pool2
I1105 14:40:46.604802 32197 net.cpp:356] conv3_1 -> conv3_1
I1105 14:40:46.604807 32197 net.cpp:96] Setting up conv3_1
I1105 14:40:46.612272 32197 net.cpp:103] Top shape: 6 256 56 56 (4816896)
I1105 14:40:46.612287 32197 layer_factory.hpp:78] Creating layer relu3_1
I1105 14:40:46.612293 32197 net.cpp:67] Creating Layer relu3_1
I1105 14:40:46.612303 32197 net.cpp:394] relu3_1 <- conv3_1
I1105 14:40:46.612310 32197 net.cpp:345] relu3_1 -> conv3_1 (in-place)
I1105 14:40:46.612316 32197 net.cpp:96] Setting up relu3_1
I1105 14:40:46.612321 32197 net.cpp:103] Top shape: 6 256 56 56 (4816896)
I1105 14:40:46.612325 32197 layer_factory.hpp:78] Creating layer conv3_2
I1105 14:40:46.612330 32197 net.cpp:67] Creating Layer conv3_2
I1105 14:40:46.612334 32197 net.cpp:394] conv3_2 <- conv3_1
I1105 14:40:46.612339 32197 net.cpp:356] conv3_2 -> conv3_2
I1105 14:40:46.612344 32197 net.cpp:96] Setting up conv3_2
I1105 14:40:46.627027 32197 net.cpp:103] Top shape: 6 256 56 56 (4816896)
I1105 14:40:46.627048 32197 layer_factory.hpp:78] Creating layer relu3_2
I1105 14:40:46.627058 32197 net.cpp:67] Creating Layer relu3_2
I1105 14:40:46.627063 32197 net.cpp:394] relu3_2 <- conv3_2
I1105 14:40:46.627069 32197 net.cpp:345] relu3_2 -> conv3_2 (in-place)
I1105 14:40:46.627075 32197 net.cpp:96] Setting up relu3_2
I1105 14:40:46.627081 32197 net.cpp:103] Top shape: 6 256 56 56 (4816896)
I1105 14:40:46.627084 32197 layer_factory.hpp:78] Creating layer conv3_3
I1105 14:40:46.627094 32197 net.cpp:67] Creating Layer conv3_3
I1105 14:40:46.627096 32197 net.cpp:394] conv3_3 <- conv3_2
I1105 14:40:46.627101 32197 net.cpp:356] conv3_3 -> conv3_3
I1105 14:40:46.627107 32197 net.cpp:96] Setting up conv3_3
I1105 14:40:46.641358 32197 net.cpp:103] Top shape: 6 256 56 56 (4816896)
I1105 14:40:46.641388 32197 layer_factory.hpp:78] Creating layer relu3_3
I1105 14:40:46.641396 32197 net.cpp:67] Creating Layer relu3_3
I1105 14:40:46.641402 32197 net.cpp:394] relu3_3 <- conv3_3
I1105 14:40:46.641407 32197 net.cpp:345] relu3_3 -> conv3_3 (in-place)
I1105 14:40:46.641413 32197 net.cpp:96] Setting up relu3_3
I1105 14:40:46.641419 32197 net.cpp:103] Top shape: 6 256 56 56 (4816896)
I1105 14:40:46.641422 32197 layer_factory.hpp:78] Creating layer pool3
I1105 14:40:46.641429 32197 net.cpp:67] Creating Layer pool3
I1105 14:40:46.641433 32197 net.cpp:394] pool3 <- conv3_3
I1105 14:40:46.641438 32197 net.cpp:356] pool3 -> pool3
I1105 14:40:46.641443 32197 net.cpp:96] Setting up pool3
I1105 14:40:46.641450 32197 net.cpp:103] Top shape: 6 256 28 28 (1204224)
I1105 14:40:46.641453 32197 layer_factory.hpp:78] Creating layer conv4_1
I1105 14:40:46.641460 32197 net.cpp:67] Creating Layer conv4_1
I1105 14:40:46.641463 32197 net.cpp:394] conv4_1 <- pool3
I1105 14:40:46.641469 32197 net.cpp:356] conv4_1 -> conv4_1
I1105 14:40:46.641474 32197 net.cpp:96] Setting up conv4_1
I1105 14:40:46.669209 32197 net.cpp:103] Top shape: 6 512 28 28 (2408448)
I1105 14:40:46.669220 32197 layer_factory.hpp:78] Creating layer relu4_1
I1105 14:40:46.669239 32197 net.cpp:67] Creating Layer relu4_1
I1105 14:40:46.669242 32197 net.cpp:394] relu4_1 <- conv4_1
I1105 14:40:46.669247 32197 net.cpp:345] relu4_1 -> conv4_1 (in-place)
I1105 14:40:46.669252 32197 net.cpp:96] Setting up relu4_1
I1105 14:40:46.669258 32197 net.cpp:103] Top shape: 6 512 28 28 (2408448)
I1105 14:40:46.669261 32197 layer_factory.hpp:78] Creating layer conv4_2
I1105 14:40:46.669268 32197 net.cpp:67] Creating Layer conv4_2
I1105 14:40:46.669271 32197 net.cpp:394] conv4_2 <- conv4_1
I1105 14:40:46.669276 32197 net.cpp:356] conv4_2 -> conv4_2
I1105 14:40:46.669281 32197 net.cpp:96] Setting up conv4_2
I1105 14:40:46.724016 32197 net.cpp:103] Top shape: 6 512 28 28 (2408448)
I1105 14:40:46.724058 32197 layer_factory.hpp:78] Creating layer relu4_2
I1105 14:40:46.724068 32197 net.cpp:67] Creating Layer relu4_2
I1105 14:40:46.724073 32197 net.cpp:394] relu4_2 <- conv4_2
I1105 14:40:46.724079 32197 net.cpp:345] relu4_2 -> conv4_2 (in-place)
I1105 14:40:46.724086 32197 net.cpp:96] Setting up relu4_2
I1105 14:40:46.724092 32197 net.cpp:103] Top shape: 6 512 28 28 (2408448)
I1105 14:40:46.724095 32197 layer_factory.hpp:78] Creating layer conv4_3
I1105 14:40:46.724102 32197 net.cpp:67] Creating Layer conv4_3
I1105 14:40:46.724105 32197 net.cpp:394] conv4_3 <- conv4_2
I1105 14:40:46.724110 32197 net.cpp:356] conv4_3 -> conv4_3
I1105 14:40:46.724118 32197 net.cpp:96] Setting up conv4_3
I1105 14:40:46.779706 32197 net.cpp:103] Top shape: 6 512 28 28 (2408448)
I1105 14:40:46.779743 32197 layer_factory.hpp:78] Creating layer relu4_3
I1105 14:40:46.779757 32197 net.cpp:67] Creating Layer relu4_3
I1105 14:40:46.779763 32197 net.cpp:394] relu4_3 <- conv4_3
I1105 14:40:46.779770 32197 net.cpp:345] relu4_3 -> conv4_3 (in-place)
I1105 14:40:46.779778 32197 net.cpp:96] Setting up relu4_3
I1105 14:40:46.779783 32197 net.cpp:103] Top shape: 6 512 28 28 (2408448)
I1105 14:40:46.779786 32197 layer_factory.hpp:78] Creating layer pool4
I1105 14:40:46.779793 32197 net.cpp:67] Creating Layer pool4
I1105 14:40:46.779796 32197 net.cpp:394] pool4 <- conv4_3
I1105 14:40:46.779801 32197 net.cpp:356] pool4 -> pool4
I1105 14:40:46.779806 32197 net.cpp:96] Setting up pool4
I1105 14:40:46.779814 32197 net.cpp:103] Top shape: 6 512 14 14 (602112)
I1105 14:40:46.779817 32197 layer_factory.hpp:78] Creating layer conv5_1
I1105 14:40:46.779822 32197 net.cpp:67] Creating Layer conv5_1
I1105 14:40:46.779825 32197 net.cpp:394] conv5_1 <- pool4
I1105 14:40:46.779832 32197 net.cpp:356] conv5_1 -> conv5_1
I1105 14:40:46.779839 32197 net.cpp:96] Setting up conv5_1
I1105 14:40:46.834694 32197 net.cpp:103] Top shape: 6 512 14 14 (602112)
I1105 14:40:46.834731 32197 layer_factory.hpp:78] Creating layer relu5_1
I1105 14:40:46.834744 32197 net.cpp:67] Creating Layer relu5_1
I1105 14:40:46.834749 32197 net.cpp:394] relu5_1 <- conv5_1
I1105 14:40:46.834755 32197 net.cpp:345] relu5_1 -> conv5_1 (in-place)
I1105 14:40:46.834761 32197 net.cpp:96] Setting up relu5_1
I1105 14:40:46.834767 32197 net.cpp:103] Top shape: 6 512 14 14 (602112)
I1105 14:40:46.834770 32197 layer_factory.hpp:78] Creating layer conv5_2
I1105 14:40:46.834777 32197 net.cpp:67] Creating Layer conv5_2
I1105 14:40:46.834781 32197 net.cpp:394] conv5_2 <- conv5_1
I1105 14:40:46.834785 32197 net.cpp:356] conv5_2 -> conv5_2
I1105 14:40:46.834791 32197 net.cpp:96] Setting up conv5_2
I1105 14:40:46.889925 32197 net.cpp:103] Top shape: 6 512 14 14 (602112)
I1105 14:40:46.889963 32197 layer_factory.hpp:78] Creating layer relu5_2
I1105 14:40:46.889971 32197 net.cpp:67] Creating Layer relu5_2
I1105 14:40:46.889976 32197 net.cpp:394] relu5_2 <- conv5_2
I1105 14:40:46.889983 32197 net.cpp:345] relu5_2 -> conv5_2 (in-place)
I1105 14:40:46.889991 32197 net.cpp:96] Setting up relu5_2
I1105 14:40:46.889997 32197 net.cpp:103] Top shape: 6 512 14 14 (602112)
I1105 14:40:46.889999 32197 layer_factory.hpp:78] Creating layer conv5_3
I1105 14:40:46.890005 32197 net.cpp:67] Creating Layer conv5_3
I1105 14:40:46.890008 32197 net.cpp:394] conv5_3 <- conv5_2
I1105 14:40:46.890017 32197 net.cpp:356] conv5_3 -> conv5_3
I1105 14:40:46.890022 32197 net.cpp:96] Setting up conv5_3
I1105 14:40:46.946517 32197 net.cpp:103] Top shape: 6 512 14 14 (602112)
I1105 14:40:46.946543 32197 layer_factory.hpp:78] Creating layer relu5_3
I1105 14:40:46.946553 32197 net.cpp:67] Creating Layer relu5_3
I1105 14:40:46.946558 32197 net.cpp:394] relu5_3 <- conv5_3
I1105 14:40:46.946565 32197 net.cpp:345] relu5_3 -> conv5_3 (in-place)
I1105 14:40:46.946573 32197 net.cpp:96] Setting up relu5_3
I1105 14:40:46.946578 32197 net.cpp:103] Top shape: 6 512 14 14 (602112)
I1105 14:40:46.946581 32197 layer_factory.hpp:78] Creating layer pool5
I1105 14:40:46.946591 32197 net.cpp:67] Creating Layer pool5
I1105 14:40:46.946595 32197 net.cpp:394] pool5 <- conv5_3
I1105 14:40:46.946600 32197 net.cpp:356] pool5 -> pool5
I1105 14:40:46.946605 32197 net.cpp:96] Setting up pool5
I1105 14:40:46.946614 32197 net.cpp:103] Top shape: 6 512 7 7 (150528)
I1105 14:40:46.946616 32197 layer_factory.hpp:78] Creating layer fc6
I1105 14:40:46.946624 32197 net.cpp:67] Creating Layer fc6
I1105 14:40:46.946626 32197 net.cpp:394] fc6 <- pool5
I1105 14:40:46.946631 32197 net.cpp:356] fc6 -> fc6
I1105 14:40:46.946637 32197 net.cpp:96] Setting up fc6
I1105 14:40:49.340245 32197 net.cpp:103] Top shape: 6 4096 1 1 (24576)
I1105 14:40:49.340276 32197 layer_factory.hpp:78] Creating layer relu6
I1105 14:40:49.340286 32197 net.cpp:67] Creating Layer relu6
I1105 14:40:49.340291 32197 net.cpp:394] relu6 <- fc6
I1105 14:40:49.340309 32197 net.cpp:345] relu6 -> fc6 (in-place)
I1105 14:40:49.340317 32197 net.cpp:96] Setting up relu6
I1105 14:40:49.340332 32197 net.cpp:103] Top shape: 6 4096 1 1 (24576)
I1105 14:40:49.340335 32197 layer_factory.hpp:78] Creating layer drop6
I1105 14:40:49.340342 32197 net.cpp:67] Creating Layer drop6
I1105 14:40:49.340344 32197 net.cpp:394] drop6 <- fc6
I1105 14:40:49.340350 32197 net.cpp:345] drop6 -> fc6 (in-place)
I1105 14:40:49.340354 32197 net.cpp:96] Setting up drop6
I1105 14:40:49.340358 32197 net.cpp:103] Top shape: 6 4096 1 1 (24576)
I1105 14:40:49.340361 32197 layer_factory.hpp:78] Creating layer fc7
I1105 14:40:49.340368 32197 net.cpp:67] Creating Layer fc7
I1105 14:40:49.340370 32197 net.cpp:394] fc7 <- fc6
I1105 14:40:49.340374 32197 net.cpp:356] fc7 -> fc7
I1105 14:40:49.340381 32197 net.cpp:96] Setting up fc7
I1105 14:40:49.731927 32197 net.cpp:103] Top shape: 6 4096 1 1 (24576)
I1105 14:40:49.731969 32197 layer_factory.hpp:78] Creating layer relu7
I1105 14:40:49.731978 32197 net.cpp:67] Creating Layer relu7
I1105 14:40:49.731982 32197 net.cpp:394] relu7 <- fc7
I1105 14:40:49.731989 32197 net.cpp:345] relu7 -> fc7 (in-place)
I1105 14:40:49.731999 32197 net.cpp:96] Setting up relu7
I1105 14:40:49.732013 32197 net.cpp:103] Top shape: 6 4096 1 1 (24576)
I1105 14:40:49.732017 32197 layer_factory.hpp:78] Creating layer drop7
I1105 14:40:49.732023 32197 net.cpp:67] Creating Layer drop7
I1105 14:40:49.732025 32197 net.cpp:394] drop7 <- fc7
I1105 14:40:49.732029 32197 net.cpp:345] drop7 -> fc7 (in-place)
I1105 14:40:49.732034 32197 net.cpp:96] Setting up drop7
I1105 14:40:49.732038 32197 net.cpp:103] Top shape: 6 4096 1 1 (24576)
I1105 14:40:49.732040 32197 layer_factory.hpp:78] Creating layer fc8_2
I1105 14:40:49.732046 32197 net.cpp:67] Creating Layer fc8_2
I1105 14:40:49.732049 32197 net.cpp:394] fc8_2 <- fc7
I1105 14:40:49.732055 32197 net.cpp:356] fc8_2 -> fc8_2
I1105 14:40:49.732061 32197 net.cpp:96] Setting up fc8_2
I1105 14:40:49.732280 32197 net.cpp:103] Top shape: 6 2 1 1 (12)
I1105 14:40:49.732290 32197 layer_factory.hpp:78] Creating layer fc8_2_fc8_2_0_split
I1105 14:40:49.732295 32197 net.cpp:67] Creating Layer fc8_2_fc8_2_0_split
I1105 14:40:49.732298 32197 net.cpp:394] fc8_2_fc8_2_0_split <- fc8_2
I1105 14:40:49.732302 32197 net.cpp:356] fc8_2_fc8_2_0_split -> fc8_2_fc8_2_0_split_0
I1105 14:40:49.732308 32197 net.cpp:356] fc8_2_fc8_2_0_split -> fc8_2_fc8_2_0_split_1
I1105 14:40:49.732314 32197 net.cpp:96] Setting up fc8_2_fc8_2_0_split
I1105 14:40:49.732318 32197 net.cpp:103] Top shape: 6 2 1 1 (12)
I1105 14:40:49.732321 32197 net.cpp:103] Top shape: 6 2 1 1 (12)
I1105 14:40:49.732323 32197 layer_factory.hpp:78] Creating layer loss
I1105 14:40:49.732331 32197 net.cpp:67] Creating Layer loss
I1105 14:40:49.732333 32197 net.cpp:394] loss <- fc8_2_fc8_2_0_split_0
I1105 14:40:49.732337 32197 net.cpp:394] loss <- label_data_1_split_0
I1105 14:40:49.732342 32197 net.cpp:356] loss -> (automatic)
I1105 14:40:49.732353 32197 net.cpp:96] Setting up loss
I1105 14:40:49.732359 32197 net.cpp:103] Top shape: 1 1 1 1 (1)
I1105 14:40:49.732367 32197 net.cpp:109]     with loss weight 1
I1105 14:40:49.732380 32197 layer_factory.hpp:78] Creating layer accuracy
I1105 14:40:49.732391 32197 net.cpp:67] Creating Layer accuracy
I1105 14:40:49.732401 32197 net.cpp:394] accuracy <- fc8_2_fc8_2_0_split_1
I1105 14:40:49.732405 32197 net.cpp:394] accuracy <- label_data_1_split_1
I1105 14:40:49.732410 32197 net.cpp:356] accuracy -> accuracy
I1105 14:40:49.732415 32197 net.cpp:96] Setting up accuracy
I1105 14:40:49.732424 32197 net.cpp:103] Top shape: 1 1 1 4 (4)
I1105 14:40:49.732429 32197 net.cpp:172] accuracy does not need backward computation.
I1105 14:40:49.732430 32197 net.cpp:170] loss needs backward computation.
I1105 14:40:49.732434 32197 net.cpp:170] fc8_2_fc8_2_0_split needs backward computation.
I1105 14:40:49.732436 32197 net.cpp:170] fc8_2 needs backward computation.
I1105 14:40:49.732439 32197 net.cpp:170] drop7 needs backward computation.
…
