…
I1105 23:14:11.770478 24765 net.cpp:275] The NetState phase (0) differed from the phase (1) specified by a rule in layer accuracy
I1105 23:14:11.770673 24765 net.cpp:39] Initializing net from parameters: 
name: "small"
layers {
  top: "data"
  top: "label"
  name: "data"
  type: IMAGE_DATA
  image_data_param {
    source: "/data/ad6813/devCaffe/caffe/task/clamp/clampTrainUnsuit.txt"
    batch_size: 32
    new_height: 256
    new_width: 256
  }
  include {
    phase: TRAIN
  }
  transform_param {
    mirror: true
    crop_size: 224
    mean_value: 86.752
    mean_value: 101.46
    mean_value: 104.6
  }
}
layers {
  bottom: "data"
  top: "conv1_1"
  name: "conv1_1"
  type: CONVOLUTION
  convolution_param {
    num_output: 64
    pad: 1
    kernel_size: 3
    weight_filler {
      type: "gaussian"
      std: 0.01
    }
    bias_filler {
      type: "constant"
      value: 0
    }
  }
}
layers {
  bottom: "conv1_1"
  top: "conv1_1"
  name: "relu1_1"
  type: RELU
}
layers {
  bottom: "conv1_1"
  top: "conv1_2"
  name: "conv1_2"
  type: CONVOLUTION
  convolution_param {
    num_output: 64
    pad: 1
    kernel_size: 3
    weight_filler {
      type: "gaussian"
      std: 0.01
    }
    bias_filler {
      type: "constant"
      value: 0
    }
  }
}
layers {
  bottom: "conv1_2"
  top: "conv1_2"
  name: "relu1_2"
  type: RELU
}
layers {
  bottom: "conv1_2"
  top: "pool1"
  name: "pool1"
  type: POOLING
  pooling_param {
    pool: MAX
    kernel_size: 2
    stride: 2
  }
}
layers {
  bottom: "pool1"
  top: "conv2_1"
  name: "conv2_1"
  type: CONVOLUTION
  convolution_param {
    num_output: 128
    pad: 1
    kernel_size: 3
    weight_filler {
      type: "gaussian"
      std: 0.01
    }
    bias_filler {
      type: "constant"
      value: 0
    }
  }
}
layers {
  bottom: "conv2_1"
  top: "conv2_1"
  name: "relu2_1"
  type: RELU
}
layers {
  bottom: "conv2_1"
  top: "conv2_2"
  name: "conv2_2"
  type: CONVOLUTION
  convolution_param {
    num_output: 128
    pad: 1
    kernel_size: 3
    weight_filler {
      type: "gaussian"
      std: 0.01
    }
    bias_filler {
      type: "constant"
      value: 0
    }
  }
}
layers {
  bottom: "conv2_2"
  top: "conv2_2"
  name: "relu2_2"
  type: RELU
}
layers {
  bottom: "conv2_2"
  top: "pool2"
  name: "pool2"
  type: POOLING
  pooling_param {
    pool: MAX
    kernel_size: 2
    stride: 2
  }
}
layers {
  bottom: "pool2"
  top: "conv3_1"
  name: "conv3_1"
  type: CONVOLUTION
  convolution_param {
    num_output: 256
    pad: 1
    kernel_size: 3
    weight_filler {
      type: "gaussian"
      std: 0.01
    }
    bias_filler {
      type: "constant"
      value: 0
    }
  }
}
layers {
  bottom: "conv3_1"
  top: "conv3_1"
  name: "relu3_1"
  type: RELU
}
layers {
  bottom: "conv3_1"
  top: "conv3_2"
  name: "conv3_2"
  type: CONVOLUTION
  convolution_param {
    num_output: 256
    pad: 1
    kernel_size: 3
    weight_filler {
      type: "gaussian"
      std: 0.01
    }
    bias_filler {
      type: "constant"
      value: 0
    }
  }
}
layers {
  bottom: "conv3_2"
  top: "conv3_2"
  name: "relu3_2"
  type: RELU
}
layers {
  bottom: "conv3_2"
  top: "conv3_3"
  name: "conv3_3"
  type: CONVOLUTION
  convolution_param {
    num_output: 256
    pad: 1
    kernel_size: 3
    weight_filler {
      type: "gaussian"
      std: 0.01
    }
    bias_filler {
      type: "constant"
      value: 0
    }
  }
}
layers {
  bottom: "conv3_3"
  top: "conv3_3"
  name: "relu3_3"
  type: RELU
}
layers {
  bottom: "conv3_3"
  top: "pool3"
  name: "pool3"
  type: POOLING
  pooling_param {
    pool: MAX
    kernel_size: 2
    stride: 2
  }
}
layers {
  bottom: "pool3"
  top: "conv4_1"
  name: "conv4_1"
  type: CONVOLUTION
  convolution_param {
    num_output: 512
    pad: 1
    kernel_size: 3
    weight_filler {
      type: "gaussian"
      std: 0.01
    }
    bias_filler {
      type: "constant"
      value: 0
    }
  }
}
layers {
  bottom: "conv4_1"
  top: "conv4_1"
  name: "relu4_1"
  type: RELU
}
layers {
  bottom: "conv4_1"
  top: "conv4_2"
  name: "conv4_2"
  type: CONVOLUTION
  convolution_param {
    num_output: 512
    pad: 1
    kernel_size: 3
    weight_filler {
      type: "gaussian"
      std: 0.01
    }
    bias_filler {
      type: "constant"
      value: 0
    }
  }
}
layers {
  bottom: "conv4_2"
  top: "conv4_2"
  name: "relu4_2"
  type: RELU
}
layers {
  bottom: "conv4_2"
  top: "conv4_3"
  name: "conv4_3"
  type: CONVOLUTION
  convolution_param {
    num_output: 512
    pad: 1
    kernel_size: 3
    weight_filler {
      type: "gaussian"
      std: 0.01
    }
    bias_filler {
      type: "constant"
      value: 0
    }
  }
}
layers {
  bottom: "conv4_3"
  top: "conv4_3"
  name: "relu4_3"
  type: RELU
}
layers {
  bottom: "conv4_3"
  top: "pool4"
  name: "pool4"
  type: POOLING
  pooling_param {
    pool: MAX
    kernel_size: 2
    stride: 2
  }
}
layers {
  bottom: "pool4"
  top: "conv5_1"
  name: "conv5_1"
  type: CONVOLUTION
  convolution_param {
    num_output: 512
    pad: 1
    kernel_size: 3
    weight_filler {
      type: "gaussian"
      std: 0.01
    }
    bias_filler {
      type: "constant"
      value: 0
    }
  }
}
layers {
  bottom: "conv5_1"
  top: "conv5_1"
  name: "relu5_1"
  type: RELU
}
layers {
  bottom: "conv5_1"
  top: "conv5_2"
  name: "conv5_2"
  type: CONVOLUTION
  convolution_param {
    num_output: 512
    pad: 1
    kernel_size: 3
    weight_filler {
      type: "gaussian"
      std: 0.01
    }
    bias_filler {
      type: "constant"
      value: 0
    }
  }
}
layers {
  bottom: "conv5_2"
  top: "conv5_2"
  name: "relu5_2"
  type: RELU
}
layers {
  bottom: "conv5_2"
  top: "conv5_3"
  name: "conv5_3"
  type: CONVOLUTION
  convolution_param {
    num_output: 512
    pad: 1
    kernel_size: 3
    weight_filler {
      type: "gaussian"
      std: 0.01
    }
    bias_filler {
      type: "constant"
      value: 0
    }
  }
}
layers {
  bottom: "conv5_3"
  top: "conv5_3"
  name: "relu5_3"
  type: RELU
}
layers {
  bottom: "conv5_3"
  top: "pool5"
  name: "pool5"
  type: POOLING
  pooling_param {
    pool: MAX
    kernel_size: 2
    stride: 2
  }
}
layers {
  bottom: "pool5"
  top: "fc6"
  name: "fc6"
  type: INNER_PRODUCT
  inner_product_param {
    num_output: 4096
    weight_filler {
      type: "gaussian"
      std: 0.01
    }
    bias_filler {
      type: "constant"
      value: 0
    }
  }
}
layers {
  bottom: "fc6"
  top: "fc6"
  name: "relu6"
  type: RELU
}
layers {
  bottom: "fc6"
  top: "fc6"
  name: "drop6"
  type: DROPOUT
  dropout_param {
    dropout_ratio: 0.5
  }
}
layers {
  bottom: "fc6"
  top: "fc7"
  name: "fc7"
  type: INNER_PRODUCT
  inner_product_param {
    num_output: 4096
    weight_filler {
      type: "gaussian"
      std: 0.01
    }
    bias_filler {
      type: "constant"
      value: 0
    }
  }
}
layers {
  bottom: "fc7"
  top: "fc7"
  name: "relu7"
  type: RELU
}
layers {
  bottom: "fc7"
  top: "fc7"
  name: "drop7"
  type: DROPOUT
  dropout_param {
    dropout_ratio: 0.5
  }
}
layers {
  bottom: "fc7"
  top: "fc8_2"
  name: "fc8_2"
  type: INNER_PRODUCT
  inner_product_param {
    num_output: 2
    weight_filler {
      type: "gaussian"
      std: 0.01
    }
    bias_filler {
      type: "constant"
      value: 0
    }
  }
}
layers {
  bottom: "fc8_2"
  bottom: "label"
  name: "loss"
  type: SOFTMAX_LOSS
}
state {
  phase: TRAIN
}
I1105 23:14:11.770793 24765 layer_factory.hpp:78] Creating layer data
I1105 23:14:11.770813 24765 net.cpp:67] Creating Layer data
I1105 23:14:11.770824 24765 net.cpp:356] data -> data
I1105 23:14:11.770839 24765 net.cpp:356] data -> label
I1105 23:14:11.770848 24765 net.cpp:96] Setting up data
I1105 23:14:11.770853 24765 image_data_layer.cpp:34] Opening file /data/ad6813/devCaffe/caffe/task/clamp/clampTrainUnsuit.txt
I1105 23:14:11.778812 24765 image_data_layer.cpp:49] A total of 22817 images.
I1105 23:14:11.789618 24765 image_data_layer.cpp:78] output data size: 32,3,224,224
I1105 23:14:11.792654 24765 net.cpp:103] Top shape: 32 3 224 224 (4816896)
I1105 23:14:11.792680 24765 net.cpp:103] Top shape: 32 1 1 1 (32)
I1105 23:14:11.792685 24765 layer_factory.hpp:78] Creating layer conv1_1
I1105 23:14:11.792700 24765 net.cpp:67] Creating Layer conv1_1
I1105 23:14:11.792703 24765 net.cpp:394] conv1_1 <- data
I1105 23:14:11.792717 24765 net.cpp:356] conv1_1 -> conv1_1
I1105 23:14:11.792728 24765 net.cpp:96] Setting up conv1_1
I1105 23:14:11.811516 24765 net.cpp:103] Top shape: 32 64 224 224 (102760448)
I1105 23:14:11.811553 24765 layer_factory.hpp:78] Creating layer relu1_1
I1105 23:14:11.811564 24765 net.cpp:67] Creating Layer relu1_1
I1105 23:14:11.811568 24765 net.cpp:394] relu1_1 <- conv1_1
I1105 23:14:11.811575 24765 net.cpp:345] relu1_1 -> conv1_1 (in-place)
I1105 23:14:11.811584 24765 net.cpp:96] Setting up relu1_1
I1105 23:14:11.811592 24765 net.cpp:103] Top shape: 32 64 224 224 (102760448)
I1105 23:14:11.811596 24765 layer_factory.hpp:78] Creating layer conv1_2
I1105 23:14:11.811602 24765 net.cpp:67] Creating Layer conv1_2
I1105 23:14:11.811605 24765 net.cpp:394] conv1_2 <- conv1_1
I1105 23:14:11.811610 24765 net.cpp:356] conv1_2 -> conv1_2
I1105 23:14:11.811616 24765 net.cpp:96] Setting up conv1_2
I1105 23:14:11.812705 24765 net.cpp:103] Top shape: 32 64 224 224 (102760448)
I1105 23:14:11.812718 24765 layer_factory.hpp:78] Creating layer relu1_2
I1105 23:14:11.812724 24765 net.cpp:67] Creating Layer relu1_2
I1105 23:14:11.812727 24765 net.cpp:394] relu1_2 <- conv1_2
I1105 23:14:11.812732 24765 net.cpp:345] relu1_2 -> conv1_2 (in-place)
I1105 23:14:11.812737 24765 net.cpp:96] Setting up relu1_2
I1105 23:14:11.812742 24765 net.cpp:103] Top shape: 32 64 224 224 (102760448)
I1105 23:14:11.812746 24765 layer_factory.hpp:78] Creating layer pool1
I1105 23:14:11.812752 24765 net.cpp:67] Creating Layer pool1
I1105 23:14:11.812755 24765 net.cpp:394] pool1 <- conv1_2
I1105 23:14:11.812762 24765 net.cpp:356] pool1 -> pool1
I1105 23:14:11.812767 24765 net.cpp:96] Setting up pool1
I1105 23:14:11.812783 24765 net.cpp:103] Top shape: 32 64 112 112 (25690112)
I1105 23:14:11.812791 24765 layer_factory.hpp:78] Creating layer conv2_1
I1105 23:14:11.812798 24765 net.cpp:67] Creating Layer conv2_1
I1105 23:14:11.812800 24765 net.cpp:394] conv2_1 <- pool1
I1105 23:14:11.812806 24765 net.cpp:356] conv2_1 -> conv2_1
I1105 23:14:11.812819 24765 net.cpp:96] Setting up conv2_1
I1105 23:14:11.814736 24765 net.cpp:103] Top shape: 32 128 112 112 (51380224)
I1105 23:14:11.814749 24765 layer_factory.hpp:78] Creating layer relu2_1
I1105 23:14:11.814754 24765 net.cpp:67] Creating Layer relu2_1
I1105 23:14:11.814756 24765 net.cpp:394] relu2_1 <- conv2_1
I1105 23:14:11.814764 24765 net.cpp:345] relu2_1 -> conv2_1 (in-place)
I1105 23:14:11.814769 24765 net.cpp:96] Setting up relu2_1
I1105 23:14:11.814774 24765 net.cpp:103] Top shape: 32 128 112 112 (51380224)
I1105 23:14:11.814776 24765 layer_factory.hpp:78] Creating layer conv2_2
I1105 23:14:11.814782 24765 net.cpp:67] Creating Layer conv2_2
I1105 23:14:11.814785 24765 net.cpp:394] conv2_2 <- conv2_1
I1105 23:14:11.814791 24765 net.cpp:356] conv2_2 -> conv2_2
I1105 23:14:11.814796 24765 net.cpp:96] Setting up conv2_2
I1105 23:14:11.818572 24765 net.cpp:103] Top shape: 32 128 112 112 (51380224)
I1105 23:14:11.818586 24765 layer_factory.hpp:78] Creating layer relu2_2
I1105 23:14:11.818593 24765 net.cpp:67] Creating Layer relu2_2
I1105 23:14:11.818598 24765 net.cpp:394] relu2_2 <- conv2_2
I1105 23:14:11.818601 24765 net.cpp:345] relu2_2 -> conv2_2 (in-place)
I1105 23:14:11.818606 24765 net.cpp:96] Setting up relu2_2
I1105 23:14:11.818619 24765 net.cpp:103] Top shape: 32 128 112 112 (51380224)
I1105 23:14:11.818624 24765 layer_factory.hpp:78] Creating layer pool2
I1105 23:14:11.818629 24765 net.cpp:67] Creating Layer pool2
I1105 23:14:11.818631 24765 net.cpp:394] pool2 <- conv2_2
I1105 23:14:11.818635 24765 net.cpp:356] pool2 -> pool2
I1105 23:14:11.818639 24765 net.cpp:96] Setting up pool2
I1105 23:14:11.818645 24765 net.cpp:103] Top shape: 32 128 56 56 (12845056)
I1105 23:14:11.818649 24765 layer_factory.hpp:78] Creating layer conv3_1
I1105 23:14:11.818655 24765 net.cpp:67] Creating Layer conv3_1
I1105 23:14:11.818658 24765 net.cpp:394] conv3_1 <- pool2
I1105 23:14:11.818663 24765 net.cpp:356] conv3_1 -> conv3_1
I1105 23:14:11.818670 24765 net.cpp:96] Setting up conv3_1
I1105 23:14:11.826112 24765 net.cpp:103] Top shape: 32 256 56 56 (25690112)
I1105 23:14:11.826133 24765 layer_factory.hpp:78] Creating layer relu3_1
I1105 23:14:11.826140 24765 net.cpp:67] Creating Layer relu3_1
I1105 23:14:11.826143 24765 net.cpp:394] relu3_1 <- conv3_1
I1105 23:14:11.826150 24765 net.cpp:345] relu3_1 -> conv3_1 (in-place)
I1105 23:14:11.826156 24765 net.cpp:96] Setting up relu3_1
I1105 23:14:11.826161 24765 net.cpp:103] Top shape: 32 256 56 56 (25690112)
I1105 23:14:11.826164 24765 layer_factory.hpp:78] Creating layer conv3_2
I1105 23:14:11.826169 24765 net.cpp:67] Creating Layer conv3_2
I1105 23:14:11.826172 24765 net.cpp:394] conv3_2 <- conv3_1
I1105 23:14:11.826176 24765 net.cpp:356] conv3_2 -> conv3_2
I1105 23:14:11.826182 24765 net.cpp:96] Setting up conv3_2
I1105 23:14:11.841162 24765 net.cpp:103] Top shape: 32 256 56 56 (25690112)
I1105 23:14:11.841182 24765 layer_factory.hpp:78] Creating layer relu3_2
I1105 23:14:11.841191 24765 net.cpp:67] Creating Layer relu3_2
I1105 23:14:11.841194 24765 net.cpp:394] relu3_2 <- conv3_2
I1105 23:14:11.841202 24765 net.cpp:345] relu3_2 -> conv3_2 (in-place)
I1105 23:14:11.841209 24765 net.cpp:96] Setting up relu3_2
I1105 23:14:11.841214 24765 net.cpp:103] Top shape: 32 256 56 56 (25690112)
I1105 23:14:11.841217 24765 layer_factory.hpp:78] Creating layer conv3_3
I1105 23:14:11.841223 24765 net.cpp:67] Creating Layer conv3_3
I1105 23:14:11.841227 24765 net.cpp:394] conv3_3 <- conv3_2
I1105 23:14:11.841233 24765 net.cpp:356] conv3_3 -> conv3_3
I1105 23:14:11.841238 24765 net.cpp:96] Setting up conv3_3
I1105 23:14:11.856024 24765 net.cpp:103] Top shape: 32 256 56 56 (25690112)
I1105 23:14:11.856044 24765 layer_factory.hpp:78] Creating layer relu3_3
I1105 23:14:11.856053 24765 net.cpp:67] Creating Layer relu3_3
I1105 23:14:11.856056 24765 net.cpp:394] relu3_3 <- conv3_3
I1105 23:14:11.856063 24765 net.cpp:345] relu3_3 -> conv3_3 (in-place)
I1105 23:14:11.856070 24765 net.cpp:96] Setting up relu3_3
I1105 23:14:11.856076 24765 net.cpp:103] Top shape: 32 256 56 56 (25690112)
I1105 23:14:11.856078 24765 layer_factory.hpp:78] Creating layer pool3
I1105 23:14:11.856083 24765 net.cpp:67] Creating Layer pool3
I1105 23:14:11.856086 24765 net.cpp:394] pool3 <- conv3_3
I1105 23:14:11.856092 24765 net.cpp:356] pool3 -> pool3
I1105 23:14:11.856097 24765 net.cpp:96] Setting up pool3
I1105 23:14:11.856104 24765 net.cpp:103] Top shape: 32 256 28 28 (6422528)
I1105 23:14:11.856108 24765 layer_factory.hpp:78] Creating layer conv4_1
I1105 23:14:11.856112 24765 net.cpp:67] Creating Layer conv4_1
I1105 23:14:11.856115 24765 net.cpp:394] conv4_1 <- pool3
I1105 23:14:11.856122 24765 net.cpp:356] conv4_1 -> conv4_1
I1105 23:14:11.856127 24765 net.cpp:96] Setting up conv4_1
I1105 23:14:11.885331 24765 net.cpp:103] Top shape: 32 512 28 28 (12845056)
I1105 23:14:11.885355 24765 layer_factory.hpp:78] Creating layer relu4_1
I1105 23:14:11.885363 24765 net.cpp:67] Creating Layer relu4_1
I1105 23:14:11.885367 24765 net.cpp:394] relu4_1 <- conv4_1
I1105 23:14:11.885373 24765 net.cpp:345] relu4_1 -> conv4_1 (in-place)
I1105 23:14:11.885380 24765 net.cpp:96] Setting up relu4_1
I1105 23:14:11.885385 24765 net.cpp:103] Top shape: 32 512 28 28 (12845056)
I1105 23:14:11.885388 24765 layer_factory.hpp:78] Creating layer conv4_2
I1105 23:14:11.885396 24765 net.cpp:67] Creating Layer conv4_2
I1105 23:14:11.885407 24765 net.cpp:394] conv4_2 <- conv4_1
I1105 23:14:11.885413 24765 net.cpp:356] conv4_2 -> conv4_2
I1105 23:14:11.885418 24765 net.cpp:96] Setting up conv4_2
I1105 23:14:11.943348 24765 net.cpp:103] Top shape: 32 512 28 28 (12845056)
I1105 23:14:11.943375 24765 layer_factory.hpp:78] Creating layer relu4_2
I1105 23:14:11.943384 24765 net.cpp:67] Creating Layer relu4_2
I1105 23:14:11.943388 24765 net.cpp:394] relu4_2 <- conv4_2
I1105 23:14:11.943397 24765 net.cpp:345] relu4_2 -> conv4_2 (in-place)
I1105 23:14:11.943403 24765 net.cpp:96] Setting up relu4_2
I1105 23:14:11.943409 24765 net.cpp:103] Top shape: 32 512 28 28 (12845056)
I1105 23:14:11.943413 24765 layer_factory.hpp:78] Creating layer conv4_3
I1105 23:14:11.943418 24765 net.cpp:67] Creating Layer conv4_3
I1105 23:14:11.943421 24765 net.cpp:394] conv4_3 <- conv4_2
I1105 23:14:11.943428 24765 net.cpp:356] conv4_3 -> conv4_3
I1105 23:14:11.943434 24765 net.cpp:96] Setting up conv4_3
I1105 23:14:12.001096 24765 net.cpp:103] Top shape: 32 512 28 28 (12845056)
I1105 23:14:12.001117 24765 layer_factory.hpp:78] Creating layer relu4_3
I1105 23:14:12.001127 24765 net.cpp:67] Creating Layer relu4_3
I1105 23:14:12.001132 24765 net.cpp:394] relu4_3 <- conv4_3
I1105 23:14:12.001137 24765 net.cpp:345] relu4_3 -> conv4_3 (in-place)
I1105 23:14:12.001144 24765 net.cpp:96] Setting up relu4_3
I1105 23:14:12.001150 24765 net.cpp:103] Top shape: 32 512 28 28 (12845056)
I1105 23:14:12.001153 24765 layer_factory.hpp:78] Creating layer pool4
I1105 23:14:12.001160 24765 net.cpp:67] Creating Layer pool4
I1105 23:14:12.001163 24765 net.cpp:394] pool4 <- conv4_3
I1105 23:14:12.001168 24765 net.cpp:356] pool4 -> pool4
I1105 23:14:12.001173 24765 net.cpp:96] Setting up pool4
I1105 23:14:12.001180 24765 net.cpp:103] Top shape: 32 512 14 14 (3211264)
I1105 23:14:12.001183 24765 layer_factory.hpp:78] Creating layer conv5_1
I1105 23:14:12.001190 24765 net.cpp:67] Creating Layer conv5_1
I1105 23:14:12.001194 24765 net.cpp:394] conv5_1 <- pool4
I1105 23:14:12.001199 24765 net.cpp:356] conv5_1 -> conv5_1
I1105 23:14:12.001205 24765 net.cpp:96] Setting up conv5_1
I1105 23:14:12.059344 24765 net.cpp:103] Top shape: 32 512 14 14 (3211264)
I1105 23:14:12.059366 24765 layer_factory.hpp:78] Creating layer relu5_1
I1105 23:14:12.059376 24765 net.cpp:67] Creating Layer relu5_1
I1105 23:14:12.059381 24765 net.cpp:394] relu5_1 <- conv5_1
I1105 23:14:12.059386 24765 net.cpp:345] relu5_1 -> conv5_1 (in-place)
I1105 23:14:12.059393 24765 net.cpp:96] Setting up relu5_1
I1105 23:14:12.059399 24765 net.cpp:103] Top shape: 32 512 14 14 (3211264)
I1105 23:14:12.059402 24765 layer_factory.hpp:78] Creating layer conv5_2
I1105 23:14:12.059414 24765 net.cpp:67] Creating Layer conv5_2
I1105 23:14:12.059417 24765 net.cpp:394] conv5_2 <- conv5_1
I1105 23:14:12.059422 24765 net.cpp:356] conv5_2 -> conv5_2
I1105 23:14:12.059428 24765 net.cpp:96] Setting up conv5_2
I1105 23:14:12.116999 24765 net.cpp:103] Top shape: 32 512 14 14 (3211264)
I1105 23:14:12.117024 24765 layer_factory.hpp:78] Creating layer relu5_2
I1105 23:14:12.117033 24765 net.cpp:67] Creating Layer relu5_2
I1105 23:14:12.117038 24765 net.cpp:394] relu5_2 <- conv5_2
I1105 23:14:12.117043 24765 net.cpp:345] relu5_2 -> conv5_2 (in-place)
I1105 23:14:12.117050 24765 net.cpp:96] Setting up relu5_2
I1105 23:14:12.117056 24765 net.cpp:103] Top shape: 32 512 14 14 (3211264)
I1105 23:14:12.117059 24765 layer_factory.hpp:78] Creating layer conv5_3
I1105 23:14:12.117068 24765 net.cpp:67] Creating Layer conv5_3
I1105 23:14:12.117070 24765 net.cpp:394] conv5_3 <- conv5_2
I1105 23:14:12.117075 24765 net.cpp:356] conv5_3 -> conv5_3
I1105 23:14:12.117080 24765 net.cpp:96] Setting up conv5_3
I1105 23:14:12.174928 24765 net.cpp:103] Top shape: 32 512 14 14 (3211264)
I1105 23:14:12.174953 24765 layer_factory.hpp:78] Creating layer relu5_3
I1105 23:14:12.174962 24765 net.cpp:67] Creating Layer relu5_3
I1105 23:14:12.174965 24765 net.cpp:394] relu5_3 <- conv5_3
I1105 23:14:12.174971 24765 net.cpp:345] relu5_3 -> conv5_3 (in-place)
I1105 23:14:12.174988 24765 net.cpp:96] Setting up relu5_3
I1105 23:14:12.174993 24765 net.cpp:103] Top shape: 32 512 14 14 (3211264)
I1105 23:14:12.174995 24765 layer_factory.hpp:78] Creating layer pool5
I1105 23:14:12.175003 24765 net.cpp:67] Creating Layer pool5
I1105 23:14:12.175005 24765 net.cpp:394] pool5 <- conv5_3
I1105 23:14:12.175010 24765 net.cpp:356] pool5 -> pool5
I1105 23:14:12.175015 24765 net.cpp:96] Setting up pool5
I1105 23:14:12.175024 24765 net.cpp:103] Top shape: 32 512 7 7 (802816)
I1105 23:14:12.175026 24765 layer_factory.hpp:78] Creating layer fc6
I1105 23:14:12.175040 24765 net.cpp:67] Creating Layer fc6
I1105 23:14:12.175043 24765 net.cpp:394] fc6 <- pool5
I1105 23:14:12.175047 24765 net.cpp:356] fc6 -> fc6
I1105 23:14:12.175053 24765 net.cpp:96] Setting up fc6
I1105 23:14:14.579645 24765 net.cpp:103] Top shape: 32 4096 1 1 (131072)
I1105 23:14:14.579685 24765 layer_factory.hpp:78] Creating layer relu6
I1105 23:14:14.579694 24765 net.cpp:67] Creating Layer relu6
I1105 23:14:14.579699 24765 net.cpp:394] relu6 <- fc6
I1105 23:14:14.579705 24765 net.cpp:345] relu6 -> fc6 (in-place)
I1105 23:14:14.579715 24765 net.cpp:96] Setting up relu6
I1105 23:14:14.579728 24765 net.cpp:103] Top shape: 32 4096 1 1 (131072)
I1105 23:14:14.579731 24765 layer_factory.hpp:78] Creating layer drop6
I1105 23:14:14.579740 24765 net.cpp:67] Creating Layer drop6
I1105 23:14:14.579742 24765 net.cpp:394] drop6 <- fc6
I1105 23:14:14.579746 24765 net.cpp:345] drop6 -> fc6 (in-place)
I1105 23:14:14.579751 24765 net.cpp:96] Setting up drop6
I1105 23:14:14.579763 24765 net.cpp:103] Top shape: 32 4096 1 1 (131072)
I1105 23:14:14.579767 24765 layer_factory.hpp:78] Creating layer fc7
I1105 23:14:14.579772 24765 net.cpp:67] Creating Layer fc7
I1105 23:14:14.579776 24765 net.cpp:394] fc7 <- fc6
I1105 23:14:14.579782 24765 net.cpp:356] fc7 -> fc7
I1105 23:14:14.579788 24765 net.cpp:96] Setting up fc7
I1105 23:14:14.969796 24765 net.cpp:103] Top shape: 32 4096 1 1 (131072)
I1105 23:14:14.969835 24765 layer_factory.hpp:78] Creating layer relu7
I1105 23:14:14.969844 24765 net.cpp:67] Creating Layer relu7
I1105 23:14:14.969848 24765 net.cpp:394] relu7 <- fc7
I1105 23:14:14.969854 24765 net.cpp:345] relu7 -> fc7 (in-place)
I1105 23:14:14.969861 24765 net.cpp:96] Setting up relu7
I1105 23:14:14.969876 24765 net.cpp:103] Top shape: 32 4096 1 1 (131072)
I1105 23:14:14.969878 24765 layer_factory.hpp:78] Creating layer drop7
I1105 23:14:14.969883 24765 net.cpp:67] Creating Layer drop7
I1105 23:14:14.969887 24765 net.cpp:394] drop7 <- fc7
I1105 23:14:14.969890 24765 net.cpp:345] drop7 -> fc7 (in-place)
I1105 23:14:14.969895 24765 net.cpp:96] Setting up drop7
I1105 23:14:14.969898 24765 net.cpp:103] Top shape: 32 4096 1 1 (131072)
I1105 23:14:14.969902 24765 layer_factory.hpp:78] Creating layer fc8_2
I1105 23:14:14.969908 24765 net.cpp:67] Creating Layer fc8_2
I1105 23:14:14.969912 24765 net.cpp:394] fc8_2 <- fc7
I1105 23:14:14.969915 24765 net.cpp:356] fc8_2 -> fc8_2
I1105 23:14:14.969921 24765 net.cpp:96] Setting up fc8_2
I1105 23:14:14.970141 24765 net.cpp:103] Top shape: 32 2 1 1 (64)
I1105 23:14:14.970149 24765 layer_factory.hpp:78] Creating layer loss
I1105 23:14:14.970159 24765 net.cpp:67] Creating Layer loss
I1105 23:14:14.970165 24765 net.cpp:394] loss <- fc8_2
I1105 23:14:14.970168 24765 net.cpp:394] loss <- label
I1105 23:14:14.970176 24765 net.cpp:356] loss -> (automatic)
I1105 23:14:14.970182 24765 net.cpp:96] Setting up loss
I1105 23:14:14.970191 24765 net.cpp:103] Top shape: 1 1 1 1 (1)
I1105 23:14:14.970196 24765 net.cpp:109]     with loss weight 1
I1105 23:14:14.970230 24765 net.cpp:170] loss needs backward computation.
I1105 23:14:14.970234 24765 net.cpp:170] fc8_2 needs backward computation.
I1105 23:14:14.970237 24765 net.cpp:170] drop7 needs backward computation.
I1105 23:14:14.970239 24765 net.cpp:170] relu7 needs backward computation.
I1105 23:14:14.970242 24765 net.cpp:170] fc7 needs backward computation.
…
I1105 23:14:14.971293 24765 net.cpp:275] The NetState phase (1) differed from the phase (0) specified by a rule in layer data
I1105 23:14:14.971499 24765 net.cpp:39] Initializing net from parameters: 
name: "small"
layers {
  top: "data"
  top: "label"
  name: "data"
  type: IMAGE_DATA
  image_data_param {
    source: "/data/ad6813/devCaffe/caffe/task/clamp/clampValUnsuit.txt"
    batch_size: 8
    new_height: 256
    new_width: 256
  }
  include {
    phase: TEST
  }
  transform_param {
    mirror: true
    crop_size: 224
    mean_value: 86.752
    mean_value: 101.46
    mean_value: 104.6
  }
}
layers {
  bottom: "data"
  top: "conv1_1"
  name: "conv1_1"
  type: CONVOLUTION
  convolution_param {
    num_output: 64
    pad: 1
    kernel_size: 3
    weight_filler {
      type: "gaussian"
      std: 0.01
    }
    bias_filler {
      type: "constant"
      value: 0
    }
  }
}
layers {
  bottom: "conv1_1"
  top: "conv1_1"
  name: "relu1_1"
  type: RELU
}
layers {
  bottom: "conv1_1"
  top: "conv1_2"
  name: "conv1_2"
  type: CONVOLUTION
  convolution_param {
    num_output: 64
    pad: 1
    kernel_size: 3
    weight_filler {
      type: "gaussian"
      std: 0.01
    }
    bias_filler {
      type: "constant"
      value: 0
    }
  }
}
layers {
  bottom: "conv1_2"
  top: "conv1_2"
  name: "relu1_2"
  type: RELU
}
layers {
  bottom: "conv1_2"
  top: "pool1"
  name: "pool1"
  type: POOLING
  pooling_param {
    pool: MAX
    kernel_size: 2
    stride: 2
  }
}
layers {
  bottom: "pool1"
  top: "conv2_1"
  name: "conv2_1"
  type: CONVOLUTION
  convolution_param {
    num_output: 128
    pad: 1
    kernel_size: 3
    weight_filler {
      type: "gaussian"
      std: 0.01
    }
    bias_filler {
      type: "constant"
      value: 0
    }
  }
}
layers {
  bottom: "conv2_1"
  top: "conv2_1"
  name: "relu2_1"
  type: RELU
}
layers {
  bottom: "conv2_1"
  top: "conv2_2"
  name: "conv2_2"
  type: CONVOLUTION
  convolution_param {
    num_output: 128
    pad: 1
    kernel_size: 3
    weight_filler {
      type: "gaussian"
      std: 0.01
    }
    bias_filler {
      type: "constant"
      value: 0
    }
  }
}
layers {
  bottom: "conv2_2"
  top: "conv2_2"
  name: "relu2_2"
  type: RELU
}
layers {
  bottom: "conv2_2"
  top: "pool2"
  name: "pool2"
  type: POOLING
  pooling_param {
    pool: MAX
    kernel_size: 2
    stride: 2
  }
}
layers {
  bottom: "pool2"
  top: "conv3_1"
  name: "conv3_1"
  type: CONVOLUTION
  convolution_param {
    num_output: 256
    pad: 1
    kernel_size: 3
    weight_filler {
      type: "gaussian"
      std: 0.01
    }
    bias_filler {
      type: "constant"
      value: 0
    }
  }
}
layers {
  bottom: "conv3_1"
  top: "conv3_1"
  name: "relu3_1"
  type: RELU
}
layers {
  bottom: "conv3_1"
  top: "conv3_2"
  name: "conv3_2"
  type: CONVOLUTION
  convolution_param {
    num_output: 256
    pad: 1
    kernel_size: 3
    weight_filler {
      type: "gaussian"
      std: 0.01
    }
    bias_filler {
      type: "constant"
      value: 0
    }
  }
}
layers {
  bottom: "conv3_2"
  top: "conv3_2"
  name: "relu3_2"
  type: RELU
}
layers {
  bottom: "conv3_2"
  top: "conv3_3"
  name: "conv3_3"
  type: CONVOLUTION
  convolution_param {
    num_output: 256
    pad: 1
    kernel_size: 3
    weight_filler {
      type: "gaussian"
      std: 0.01
    }
    bias_filler {
      type: "constant"
      value: 0
    }
  }
}
layers {
  bottom: "conv3_3"
  top: "conv3_3"
  name: "relu3_3"
  type: RELU
}
layers {
  bottom: "conv3_3"
  top: "pool3"
  name: "pool3"
  type: POOLING
  pooling_param {
    pool: MAX
    kernel_size: 2
    stride: 2
  }
}
layers {
  bottom: "pool3"
  top: "conv4_1"
  name: "conv4_1"
  type: CONVOLUTION
  convolution_param {
    num_output: 512
    pad: 1
    kernel_size: 3
    weight_filler {
      type: "gaussian"
      std: 0.01
    }
    bias_filler {
      type: "constant"
      value: 0
    }
  }
}
layers {
  bottom: "conv4_1"
  top: "conv4_1"
  name: "relu4_1"
  type: RELU
}
layers {
  bottom: "conv4_1"
  top: "conv4_2"
  name: "conv4_2"
  type: CONVOLUTION
  convolution_param {
    num_output: 512
    pad: 1
    kernel_size: 3
    weight_filler {
      type: "gaussian"
      std: 0.01
    }
    bias_filler {
      type: "constant"
      value: 0
    }
  }
}
layers {
  bottom: "conv4_2"
  top: "conv4_2"
  name: "relu4_2"
  type: RELU
}
layers {
  bottom: "conv4_2"
  top: "conv4_3"
  name: "conv4_3"
  type: CONVOLUTION
  convolution_param {
    num_output: 512
    pad: 1
    kernel_size: 3
    weight_filler {
      type: "gaussian"
      std: 0.01
    }
    bias_filler {
      type: "constant"
      value: 0
    }
  }
}
layers {
  bottom: "conv4_3"
  top: "conv4_3"
  name: "relu4_3"
  type: RELU
}
layers {
  bottom: "conv4_3"
  top: "pool4"
  name: "pool4"
  type: POOLING
  pooling_param {
    pool: MAX
    kernel_size: 2
    stride: 2
  }
}
layers {
  bottom: "pool4"
  top: "conv5_1"
  name: "conv5_1"
  type: CONVOLUTION
  convolution_param {
    num_output: 512
    pad: 1
    kernel_size: 3
    weight_filler {
      type: "gaussian"
      std: 0.01
    }
    bias_filler {
      type: "constant"
      value: 0
    }
  }
}
layers {
  bottom: "conv5_1"
  top: "conv5_1"
  name: "relu5_1"
  type: RELU
}
layers {
  bottom: "conv5_1"
  top: "conv5_2"
  name: "conv5_2"
  type: CONVOLUTION
  convolution_param {
    num_output: 512
    pad: 1
    kernel_size: 3
    weight_filler {
      type: "gaussian"
      std: 0.01
    }
    bias_filler {
      type: "constant"
      value: 0
    }
  }
}
layers {
  bottom: "conv5_2"
  top: "conv5_2"
  name: "relu5_2"
  type: RELU
}
layers {
  bottom: "conv5_2"
  top: "conv5_3"
  name: "conv5_3"
  type: CONVOLUTION
  convolution_param {
    num_output: 512
    pad: 1
    kernel_size: 3
    weight_filler {
      type: "gaussian"
      std: 0.01
    }
    bias_filler {
      type: "constant"
      value: 0
    }
  }
}
layers {
  bottom: "conv5_3"
  top: "conv5_3"
  name: "relu5_3"
  type: RELU
}
layers {
  bottom: "conv5_3"
  top: "pool5"
  name: "pool5"
  type: POOLING
  pooling_param {
    pool: MAX
    kernel_size: 2
    stride: 2
  }
}
layers {
  bottom: "pool5"
  top: "fc6"
  name: "fc6"
  type: INNER_PRODUCT
  inner_product_param {
    num_output: 4096
    weight_filler {
      type: "gaussian"
      std: 0.01
    }
    bias_filler {
      type: "constant"
      value: 0
    }
  }
}
layers {
  bottom: "fc6"
  top: "fc6"
  name: "relu6"
  type: RELU
}
layers {
  bottom: "fc6"
  top: "fc6"
  name: "drop6"
  type: DROPOUT
  dropout_param {
    dropout_ratio: 0.5
  }
}
layers {
  bottom: "fc6"
  top: "fc7"
  name: "fc7"
  type: INNER_PRODUCT
  inner_product_param {
    num_output: 4096
    weight_filler {
      type: "gaussian"
      std: 0.01
    }
    bias_filler {
      type: "constant"
      value: 0
    }
  }
}
layers {
  bottom: "fc7"
  top: "fc7"
  name: "relu7"
  type: RELU
}
layers {
  bottom: "fc7"
  top: "fc7"
  name: "drop7"
  type: DROPOUT
  dropout_param {
    dropout_ratio: 0.5
  }
}
layers {
  bottom: "fc7"
  top: "fc8_2"
  name: "fc8_2"
  type: INNER_PRODUCT
  inner_product_param {
    num_output: 2
    weight_filler {
      type: "gaussian"
      std: 0.01
    }
    bias_filler {
      type: "constant"
      value: 0
    }
  }
}
layers {
  bottom: "fc8_2"
  bottom: "label"
  name: "loss"
  type: SOFTMAX_LOSS
}
layers {
  bottom: "fc8_2"
  bottom: "label"
  top: "accuracy"
  name: "accuracy"
  type: PER_CLASS_ACCURACY
  include {
    phase: TEST
  }
}
state {
  phase: TEST
}
I1105 23:14:14.971647 24765 layer_factory.hpp:78] Creating layer data
I1105 23:14:14.971657 24765 net.cpp:67] Creating Layer data
I1105 23:14:14.971660 24765 net.cpp:356] data -> data
I1105 23:14:14.971668 24765 net.cpp:356] data -> label
I1105 23:14:14.971673 24765 net.cpp:96] Setting up data
I1105 23:14:14.971681 24765 image_data_layer.cpp:34] Opening file /data/ad6813/devCaffe/caffe/task/clamp/clampValUnsuit.txt
I1105 23:14:14.972554 24765 image_data_layer.cpp:49] A total of 1944 images.
I1105 23:14:14.978883 24765 image_data_layer.cpp:78] output data size: 8,3,224,224
I1105 23:14:14.979548 24765 net.cpp:103] Top shape: 8 3 224 224 (1204224)
I1105 23:14:14.979570 24765 net.cpp:103] Top shape: 8 1 1 1 (8)
I1105 23:14:14.979574 24765 layer_factory.hpp:78] Creating layer label_data_1_split
I1105 23:14:14.979585 24765 net.cpp:67] Creating Layer label_data_1_split
I1105 23:14:14.979589 24765 net.cpp:394] label_data_1_split <- label
I1105 23:14:14.979595 24765 net.cpp:356] label_data_1_split -> label_data_1_split_0
I1105 23:14:14.979604 24765 net.cpp:356] label_data_1_split -> label_data_1_split_1
I1105 23:14:14.979609 24765 net.cpp:96] Setting up label_data_1_split
I1105 23:14:14.979614 24765 net.cpp:103] Top shape: 8 1 1 1 (8)
I1105 23:14:14.979617 24765 net.cpp:103] Top shape: 8 1 1 1 (8)
I1105 23:14:14.979620 24765 layer_factory.hpp:78] Creating layer conv1_1
I1105 23:14:14.979626 24765 net.cpp:67] Creating Layer conv1_1
I1105 23:14:14.979629 24765 net.cpp:394] conv1_1 <- data
I1105 23:14:14.979635 24765 net.cpp:356] conv1_1 -> conv1_1
I1105 23:14:14.979640 24765 net.cpp:96] Setting up conv1_1
I1105 23:14:14.979810 24765 net.cpp:103] Top shape: 8 64 224 224 (25690112)
I1105 23:14:14.979825 24765 layer_factory.hpp:78] Creating layer relu1_1
I1105 23:14:14.979830 24765 net.cpp:67] Creating Layer relu1_1
I1105 23:14:14.979832 24765 net.cpp:394] relu1_1 <- conv1_1
I1105 23:14:14.979843 24765 net.cpp:345] relu1_1 -> conv1_1 (in-place)
I1105 23:14:14.979848 24765 net.cpp:96] Setting up relu1_1
I1105 23:14:14.979854 24765 net.cpp:103] Top shape: 8 64 224 224 (25690112)
I1105 23:14:14.979857 24765 layer_factory.hpp:78] Creating layer conv1_2
I1105 23:14:14.979862 24765 net.cpp:67] Creating Layer conv1_2
I1105 23:14:14.979866 24765 net.cpp:394] conv1_2 <- conv1_1
I1105 23:14:14.979869 24765 net.cpp:356] conv1_2 -> conv1_2
I1105 23:14:14.979874 24765 net.cpp:96] Setting up conv1_2
I1105 23:14:14.980866 24765 net.cpp:103] Top shape: 8 64 224 224 (25690112)
I1105 23:14:14.980880 24765 layer_factory.hpp:78] Creating layer relu1_2
I1105 23:14:14.980885 24765 net.cpp:67] Creating Layer relu1_2
I1105 23:14:14.980887 24765 net.cpp:394] relu1_2 <- conv1_2
I1105 23:14:14.980891 24765 net.cpp:345] relu1_2 -> conv1_2 (in-place)
I1105 23:14:14.980896 24765 net.cpp:96] Setting up relu1_2
I1105 23:14:14.980901 24765 net.cpp:103] Top shape: 8 64 224 224 (25690112)
I1105 23:14:14.980904 24765 layer_factory.hpp:78] Creating layer pool1
I1105 23:14:14.980909 24765 net.cpp:67] Creating Layer pool1
I1105 23:14:14.980912 24765 net.cpp:394] pool1 <- conv1_2
I1105 23:14:14.980916 24765 net.cpp:356] pool1 -> pool1
I1105 23:14:14.980921 24765 net.cpp:96] Setting up pool1
I1105 23:14:14.980927 24765 net.cpp:103] Top shape: 8 64 112 112 (6422528)
I1105 23:14:14.980931 24765 layer_factory.hpp:78] Creating layer conv2_1
I1105 23:14:14.980934 24765 net.cpp:67] Creating Layer conv2_1
I1105 23:14:14.980937 24765 net.cpp:394] conv2_1 <- pool1
I1105 23:14:14.980942 24765 net.cpp:356] conv2_1 -> conv2_1
I1105 23:14:14.980947 24765 net.cpp:96] Setting up conv2_1
I1105 23:14:14.982945 24765 net.cpp:103] Top shape: 8 128 112 112 (12845056)
I1105 23:14:14.982959 24765 layer_factory.hpp:78] Creating layer relu2_1
I1105 23:14:14.982965 24765 net.cpp:67] Creating Layer relu2_1
I1105 23:14:14.982969 24765 net.cpp:394] relu2_1 <- conv2_1
I1105 23:14:14.982972 24765 net.cpp:345] relu2_1 -> conv2_1 (in-place)
I1105 23:14:14.982977 24765 net.cpp:96] Setting up relu2_1
I1105 23:14:14.982982 24765 net.cpp:103] Top shape: 8 128 112 112 (12845056)
I1105 23:14:14.982985 24765 layer_factory.hpp:78] Creating layer conv2_2
I1105 23:14:14.982990 24765 net.cpp:67] Creating Layer conv2_2
I1105 23:14:14.982993 24765 net.cpp:394] conv2_2 <- conv2_1
I1105 23:14:14.982997 24765 net.cpp:356] conv2_2 -> conv2_2
I1105 23:14:14.983003 24765 net.cpp:96] Setting up conv2_2
I1105 23:14:14.986651 24765 net.cpp:103] Top shape: 8 128 112 112 (12845056)
I1105 23:14:14.986663 24765 layer_factory.hpp:78] Creating layer relu2_2
I1105 23:14:14.986668 24765 net.cpp:67] Creating Layer relu2_2
I1105 23:14:14.986671 24765 net.cpp:394] relu2_2 <- conv2_2
I1105 23:14:14.986675 24765 net.cpp:345] relu2_2 -> conv2_2 (in-place)
I1105 23:14:14.986680 24765 net.cpp:96] Setting up relu2_2
I1105 23:14:14.986685 24765 net.cpp:103] Top shape: 8 128 112 112 (12845056)
I1105 23:14:14.986688 24765 layer_factory.hpp:78] Creating layer pool2
I1105 23:14:14.986692 24765 net.cpp:67] Creating Layer pool2
I1105 23:14:14.986696 24765 net.cpp:394] pool2 <- conv2_2
I1105 23:14:14.986699 24765 net.cpp:356] pool2 -> pool2
I1105 23:14:14.986704 24765 net.cpp:96] Setting up pool2
I1105 23:14:14.986709 24765 net.cpp:103] Top shape: 8 128 56 56 (3211264)
I1105 23:14:14.986712 24765 layer_factory.hpp:78] Creating layer conv3_1
I1105 23:14:14.986717 24765 net.cpp:67] Creating Layer conv3_1
I1105 23:14:14.986721 24765 net.cpp:394] conv3_1 <- pool2
I1105 23:14:14.986724 24765 net.cpp:356] conv3_1 -> conv3_1
I1105 23:14:14.986729 24765 net.cpp:96] Setting up conv3_1
I1105 23:14:14.993962 24765 net.cpp:103] Top shape: 8 256 56 56 (6422528)
I1105 23:14:14.993974 24765 layer_factory.hpp:78] Creating layer relu3_1
I1105 23:14:14.993979 24765 net.cpp:67] Creating Layer relu3_1
I1105 23:14:14.993983 24765 net.cpp:394] relu3_1 <- conv3_1
I1105 23:14:14.993988 24765 net.cpp:345] relu3_1 -> conv3_1 (in-place)
I1105 23:14:14.993993 24765 net.cpp:96] Setting up relu3_1
I1105 23:14:14.994004 24765 net.cpp:103] Top shape: 8 256 56 56 (6422528)
I1105 23:14:14.994007 24765 layer_factory.hpp:78] Creating layer conv3_2
I1105 23:14:14.994012 24765 net.cpp:67] Creating Layer conv3_2
I1105 23:14:14.994015 24765 net.cpp:394] conv3_2 <- conv3_1
I1105 23:14:14.994020 24765 net.cpp:356] conv3_2 -> conv3_2
I1105 23:14:14.994025 24765 net.cpp:96] Setting up conv3_2
I1105 23:14:15.008774 24765 net.cpp:103] Top shape: 8 256 56 56 (6422528)
I1105 23:14:15.008790 24765 layer_factory.hpp:78] Creating layer relu3_2
I1105 23:14:15.008796 24765 net.cpp:67] Creating Layer relu3_2
I1105 23:14:15.008800 24765 net.cpp:394] relu3_2 <- conv3_2
I1105 23:14:15.008806 24765 net.cpp:345] relu3_2 -> conv3_2 (in-place)
I1105 23:14:15.008812 24765 net.cpp:96] Setting up relu3_2
I1105 23:14:15.008817 24765 net.cpp:103] Top shape: 8 256 56 56 (6422528)
I1105 23:14:15.008821 24765 layer_factory.hpp:78] Creating layer conv3_3
I1105 23:14:15.008828 24765 net.cpp:67] Creating Layer conv3_3
I1105 23:14:15.008831 24765 net.cpp:394] conv3_3 <- conv3_2
I1105 23:14:15.008837 24765 net.cpp:356] conv3_3 -> conv3_3
I1105 23:14:15.008842 24765 net.cpp:96] Setting up conv3_3
I1105 23:14:15.023593 24765 net.cpp:103] Top shape: 8 256 56 56 (6422528)
I1105 23:14:15.023610 24765 layer_factory.hpp:78] Creating layer relu3_3
I1105 23:14:15.023618 24765 net.cpp:67] Creating Layer relu3_3
I1105 23:14:15.023622 24765 net.cpp:394] relu3_3 <- conv3_3
I1105 23:14:15.023627 24765 net.cpp:345] relu3_3 -> conv3_3 (in-place)
I1105 23:14:15.023633 24765 net.cpp:96] Setting up relu3_3
I1105 23:14:15.023638 24765 net.cpp:103] Top shape: 8 256 56 56 (6422528)
I1105 23:14:15.023641 24765 layer_factory.hpp:78] Creating layer pool3
I1105 23:14:15.023646 24765 net.cpp:67] Creating Layer pool3
I1105 23:14:15.023649 24765 net.cpp:394] pool3 <- conv3_3
I1105 23:14:15.023653 24765 net.cpp:356] pool3 -> pool3
I1105 23:14:15.023658 24765 net.cpp:96] Setting up pool3
I1105 23:14:15.023665 24765 net.cpp:103] Top shape: 8 256 28 28 (1605632)
I1105 23:14:15.023669 24765 layer_factory.hpp:78] Creating layer conv4_1
I1105 23:14:15.023675 24765 net.cpp:67] Creating Layer conv4_1
I1105 23:14:15.023679 24765 net.cpp:394] conv4_1 <- pool3
I1105 23:14:15.023684 24765 net.cpp:356] conv4_1 -> conv4_1
I1105 23:14:15.023689 24765 net.cpp:96] Setting up conv4_1
I1105 23:14:15.052691 24765 net.cpp:103] Top shape: 8 512 28 28 (3211264)
I1105 23:14:15.052711 24765 layer_factory.hpp:78] Creating layer relu4_1
I1105 23:14:15.052721 24765 net.cpp:67] Creating Layer relu4_1
I1105 23:14:15.052726 24765 net.cpp:394] relu4_1 <- conv4_1
I1105 23:14:15.052732 24765 net.cpp:345] relu4_1 -> conv4_1 (in-place)
I1105 23:14:15.052738 24765 net.cpp:96] Setting up relu4_1
I1105 23:14:15.052743 24765 net.cpp:103] Top shape: 8 512 28 28 (3211264)
I1105 23:14:15.052747 24765 layer_factory.hpp:78] Creating layer conv4_2
I1105 23:14:15.052752 24765 net.cpp:67] Creating Layer conv4_2
I1105 23:14:15.052755 24765 net.cpp:394] conv4_2 <- conv4_1
I1105 23:14:15.052762 24765 net.cpp:356] conv4_2 -> conv4_2
I1105 23:14:15.052767 24765 net.cpp:96] Setting up conv4_2
I1105 23:14:15.107949 24765 net.cpp:103] Top shape: 8 512 28 28 (3211264)
I1105 23:14:15.107990 24765 layer_factory.hpp:78] Creating layer relu4_2
I1105 23:14:15.108000 24765 net.cpp:67] Creating Layer relu4_2
I1105 23:14:15.108003 24765 net.cpp:394] relu4_2 <- conv4_2
I1105 23:14:15.108008 24765 net.cpp:345] relu4_2 -> conv4_2 (in-place)
I1105 23:14:15.108016 24765 net.cpp:96] Setting up relu4_2
I1105 23:14:15.108021 24765 net.cpp:103] Top shape: 8 512 28 28 (3211264)
I1105 23:14:15.108023 24765 layer_factory.hpp:78] Creating layer conv4_3
I1105 23:14:15.108031 24765 net.cpp:67] Creating Layer conv4_3
I1105 23:14:15.108034 24765 net.cpp:394] conv4_3 <- conv4_2
I1105 23:14:15.108041 24765 net.cpp:356] conv4_3 -> conv4_3
I1105 23:14:15.108047 24765 net.cpp:96] Setting up conv4_3
I1105 23:14:15.163009 24765 net.cpp:103] Top shape: 8 512 28 28 (3211264)
I1105 23:14:15.163045 24765 layer_factory.hpp:78] Creating layer relu4_3
I1105 23:14:15.163053 24765 net.cpp:67] Creating Layer relu4_3
I1105 23:14:15.163066 24765 net.cpp:394] relu4_3 <- conv4_3
I1105 23:14:15.163074 24765 net.cpp:345] relu4_3 -> conv4_3 (in-place)
I1105 23:14:15.163079 24765 net.cpp:96] Setting up relu4_3
I1105 23:14:15.163085 24765 net.cpp:103] Top shape: 8 512 28 28 (3211264)
I1105 23:14:15.163089 24765 layer_factory.hpp:78] Creating layer pool4
I1105 23:14:15.163095 24765 net.cpp:67] Creating Layer pool4
I1105 23:14:15.163099 24765 net.cpp:394] pool4 <- conv4_3
I1105 23:14:15.163102 24765 net.cpp:356] pool4 -> pool4
I1105 23:14:15.163108 24765 net.cpp:96] Setting up pool4
I1105 23:14:15.163115 24765 net.cpp:103] Top shape: 8 512 14 14 (802816)
I1105 23:14:15.163118 24765 layer_factory.hpp:78] Creating layer conv5_1
I1105 23:14:15.163125 24765 net.cpp:67] Creating Layer conv5_1
I1105 23:14:15.163128 24765 net.cpp:394] conv5_1 <- pool4
I1105 23:14:15.163133 24765 net.cpp:356] conv5_1 -> conv5_1
I1105 23:14:15.163138 24765 net.cpp:96] Setting up conv5_1
I1105 23:14:15.218381 24765 net.cpp:103] Top shape: 8 512 14 14 (802816)
I1105 23:14:15.218417 24765 layer_factory.hpp:78] Creating layer relu5_1
I1105 23:14:15.218425 24765 net.cpp:67] Creating Layer relu5_1
I1105 23:14:15.218430 24765 net.cpp:394] relu5_1 <- conv5_1
I1105 23:14:15.218441 24765 net.cpp:345] relu5_1 -> conv5_1 (in-place)
I1105 23:14:15.218447 24765 net.cpp:96] Setting up relu5_1
I1105 23:14:15.218453 24765 net.cpp:103] Top shape: 8 512 14 14 (802816)
I1105 23:14:15.218456 24765 layer_factory.hpp:78] Creating layer conv5_2
I1105 23:14:15.218462 24765 net.cpp:67] Creating Layer conv5_2
I1105 23:14:15.218466 24765 net.cpp:394] conv5_2 <- conv5_1
I1105 23:14:15.218472 24765 net.cpp:356] conv5_2 -> conv5_2
I1105 23:14:15.218477 24765 net.cpp:96] Setting up conv5_2
I1105 23:14:15.273442 24765 net.cpp:103] Top shape: 8 512 14 14 (802816)
I1105 23:14:15.273478 24765 layer_factory.hpp:78] Creating layer relu5_2
I1105 23:14:15.273485 24765 net.cpp:67] Creating Layer relu5_2
I1105 23:14:15.273489 24765 net.cpp:394] relu5_2 <- conv5_2
I1105 23:14:15.273496 24765 net.cpp:345] relu5_2 -> conv5_2 (in-place)
I1105 23:14:15.273504 24765 net.cpp:96] Setting up relu5_2
I1105 23:14:15.273509 24765 net.cpp:103] Top shape: 8 512 14 14 (802816)
I1105 23:14:15.273511 24765 layer_factory.hpp:78] Creating layer conv5_3
I1105 23:14:15.273517 24765 net.cpp:67] Creating Layer conv5_3
I1105 23:14:15.273519 24765 net.cpp:394] conv5_3 <- conv5_2
I1105 23:14:15.273524 24765 net.cpp:356] conv5_3 -> conv5_3
I1105 23:14:15.273530 24765 net.cpp:96] Setting up conv5_3
I1105 23:14:15.328958 24765 net.cpp:103] Top shape: 8 512 14 14 (802816)
I1105 23:14:15.328995 24765 layer_factory.hpp:78] Creating layer relu5_3
I1105 23:14:15.329004 24765 net.cpp:67] Creating Layer relu5_3
I1105 23:14:15.329008 24765 net.cpp:394] relu5_3 <- conv5_3
I1105 23:14:15.329015 24765 net.cpp:345] relu5_3 -> conv5_3 (in-place)
I1105 23:14:15.329022 24765 net.cpp:96] Setting up relu5_3
I1105 23:14:15.329028 24765 net.cpp:103] Top shape: 8 512 14 14 (802816)
I1105 23:14:15.329031 24765 layer_factory.hpp:78] Creating layer pool5
I1105 23:14:15.329041 24765 net.cpp:67] Creating Layer pool5
I1105 23:14:15.329044 24765 net.cpp:394] pool5 <- conv5_3
I1105 23:14:15.329049 24765 net.cpp:356] pool5 -> pool5
I1105 23:14:15.329054 24765 net.cpp:96] Setting up pool5
I1105 23:14:15.329061 24765 net.cpp:103] Top shape: 8 512 7 7 (200704)
I1105 23:14:15.329066 24765 layer_factory.hpp:78] Creating layer fc6
I1105 23:14:15.329071 24765 net.cpp:67] Creating Layer fc6
I1105 23:14:15.329074 24765 net.cpp:394] fc6 <- pool5
I1105 23:14:15.329080 24765 net.cpp:356] fc6 -> fc6
I1105 23:14:15.329085 24765 net.cpp:96] Setting up fc6
I1105 23:14:17.845217 24765 net.cpp:103] Top shape: 8 4096 1 1 (32768)
I1105 23:14:17.845259 24765 layer_factory.hpp:78] Creating layer relu6
I1105 23:14:17.845269 24765 net.cpp:67] Creating Layer relu6
I1105 23:14:17.845274 24765 net.cpp:394] relu6 <- fc6
I1105 23:14:17.845281 24765 net.cpp:345] relu6 -> fc6 (in-place)
I1105 23:14:17.845288 24765 net.cpp:96] Setting up relu6
I1105 23:14:17.845304 24765 net.cpp:103] Top shape: 8 4096 1 1 (32768)
I1105 23:14:17.845315 24765 layer_factory.hpp:78] Creating layer drop6
I1105 23:14:17.845324 24765 net.cpp:67] Creating Layer drop6
I1105 23:14:17.845326 24765 net.cpp:394] drop6 <- fc6
I1105 23:14:17.845330 24765 net.cpp:345] drop6 -> fc6 (in-place)
I1105 23:14:17.845335 24765 net.cpp:96] Setting up drop6
I1105 23:14:17.845338 24765 net.cpp:103] Top shape: 8 4096 1 1 (32768)
I1105 23:14:17.845341 24765 layer_factory.hpp:78] Creating layer fc7
I1105 23:14:17.845346 24765 net.cpp:67] Creating Layer fc7
I1105 23:14:17.845350 24765 net.cpp:394] fc7 <- fc6
I1105 23:14:17.845353 24765 net.cpp:356] fc7 -> fc7
I1105 23:14:17.845360 24765 net.cpp:96] Setting up fc7
I1105 23:14:18.290000 24765 net.cpp:103] Top shape: 8 4096 1 1 (32768)
I1105 23:14:18.290040 24765 layer_factory.hpp:78] Creating layer relu7
I1105 23:14:18.290050 24765 net.cpp:67] Creating Layer relu7
I1105 23:14:18.290055 24765 net.cpp:394] relu7 <- fc7
I1105 23:14:18.290062 24765 net.cpp:345] relu7 -> fc7 (in-place)
I1105 23:14:18.290069 24765 net.cpp:96] Setting up relu7
I1105 23:14:18.290083 24765 net.cpp:103] Top shape: 8 4096 1 1 (32768)
I1105 23:14:18.290087 24765 layer_factory.hpp:78] Creating layer drop7
I1105 23:14:18.290092 24765 net.cpp:67] Creating Layer drop7
I1105 23:14:18.290096 24765 net.cpp:394] drop7 <- fc7
I1105 23:14:18.290102 24765 net.cpp:345] drop7 -> fc7 (in-place)
I1105 23:14:18.290107 24765 net.cpp:96] Setting up drop7
I1105 23:14:18.290112 24765 net.cpp:103] Top shape: 8 4096 1 1 (32768)
I1105 23:14:18.290114 24765 layer_factory.hpp:78] Creating layer fc8_2
I1105 23:14:18.290119 24765 net.cpp:67] Creating Layer fc8_2
I1105 23:14:18.290122 24765 net.cpp:394] fc8_2 <- fc7
I1105 23:14:18.290127 24765 net.cpp:356] fc8_2 -> fc8_2
I1105 23:14:18.290132 24765 net.cpp:96] Setting up fc8_2
I1105 23:14:18.290355 24765 net.cpp:103] Top shape: 8 2 1 1 (16)
I1105 23:14:18.290364 24765 layer_factory.hpp:78] Creating layer fc8_2_fc8_2_0_split
I1105 23:14:18.290370 24765 net.cpp:67] Creating Layer fc8_2_fc8_2_0_split
I1105 23:14:18.290374 24765 net.cpp:394] fc8_2_fc8_2_0_split <- fc8_2
I1105 23:14:18.290379 24765 net.cpp:356] fc8_2_fc8_2_0_split -> fc8_2_fc8_2_0_split_0
I1105 23:14:18.290384 24765 net.cpp:356] fc8_2_fc8_2_0_split -> fc8_2_fc8_2_0_split_1
I1105 23:14:18.290390 24765 net.cpp:96] Setting up fc8_2_fc8_2_0_split
I1105 23:14:18.290396 24765 net.cpp:103] Top shape: 8 2 1 1 (16)
I1105 23:14:18.290400 24765 net.cpp:103] Top shape: 8 2 1 1 (16)
I1105 23:14:18.290402 24765 layer_factory.hpp:78] Creating layer loss
I1105 23:14:18.290407 24765 net.cpp:67] Creating Layer loss
I1105 23:14:18.290410 24765 net.cpp:394] loss <- fc8_2_fc8_2_0_split_0
I1105 23:14:18.290413 24765 net.cpp:394] loss <- label_data_1_split_0
I1105 23:14:18.290423 24765 net.cpp:356] loss -> (automatic)
I1105 23:14:18.290429 24765 net.cpp:96] Setting up loss
I1105 23:14:18.290436 24765 net.cpp:103] Top shape: 1 1 1 1 (1)
I1105 23:14:18.290441 24765 net.cpp:109]     with loss weight 1
I1105 23:14:18.290455 24765 layer_factory.hpp:78] Creating layer accuracy
I1105 23:14:18.290465 24765 net.cpp:67] Creating Layer accuracy
I1105 23:14:18.290474 24765 net.cpp:394] accuracy <- fc8_2_fc8_2_0_split_1
I1105 23:14:18.290478 24765 net.cpp:394] accuracy <- label_data_1_split_1
I1105 23:14:18.290485 24765 net.cpp:356] accuracy -> accuracy
I1105 23:14:18.290493 24765 net.cpp:96] Setting up accuracy
I1105 23:14:18.290500 24765 net.cpp:103] Top shape: 1 1 1 4 (4)
I1105 23:14:18.290504 24765 net.cpp:172] accuracy does not need backward computation.
I1105 23:14:18.290508 24765 net.cpp:170] loss needs backward computation.
I1105 23:14:18.290510 24765 net.cpp:170] fc8_2_fc8_2_0_split needs backward computation.
I1105 23:14:18.290513 24765 net.cpp:170] fc8_2 needs backward computation.
I1105 23:14:18.290515 24765 net.cpp:170] drop7 needs backward computation.
…
