…
I1105 19:33:53.900655 26899 net.cpp:275] The NetState phase (0) differed from the phase (1) specified by a rule in layer accuracy
I1105 19:33:53.900846 26899 net.cpp:39] Initializing net from parameters: 
name: "small"
layers {
  top: "data"
  top: "label"
  name: "data"
  type: IMAGE_DATA
  image_data_param {
    source: "/data/ad6813/devCaffe/caffe/task/clamp/clampTrain.txt"
    batch_size: 28
    new_height: 256
    new_width: 256
  }
  include {
    phase: TRAIN
  }
  transform_param {
    mirror: true
    crop_size: 224
    mean_value: 86.752
    mean_value: 101.46
    mean_value: 104.6
  }
}
layers {
  bottom: "data"
  top: "conv1_1"
  name: "conv1_1"
  type: CONVOLUTION
  convolution_param {
    num_output: 64
    pad: 1
    kernel_size: 3
    weight_filler {
      type: "gaussian"
      std: 0.01
    }
    bias_filler {
      type: "constant"
      value: 0
    }
  }
}
layers {
  bottom: "conv1_1"
  top: "conv1_1"
  name: "relu1_1"
  type: RELU
}
layers {
  bottom: "conv1_1"
  top: "conv1_2"
  name: "conv1_2"
  type: CONVOLUTION
  convolution_param {
    num_output: 64
    pad: 1
    kernel_size: 3
    weight_filler {
      type: "gaussian"
      std: 0.01
    }
    bias_filler {
      type: "constant"
      value: 0
    }
  }
}
layers {
  bottom: "conv1_2"
  top: "conv1_2"
  name: "relu1_2"
  type: RELU
}
layers {
  bottom: "conv1_2"
  top: "pool1"
  name: "pool1"
  type: POOLING
  pooling_param {
    pool: MAX
    kernel_size: 2
    stride: 2
  }
}
layers {
  bottom: "pool1"
  top: "conv2_1"
  name: "conv2_1"
  type: CONVOLUTION
  convolution_param {
    num_output: 128
    pad: 1
    kernel_size: 3
    weight_filler {
      type: "gaussian"
      std: 0.01
    }
    bias_filler {
      type: "constant"
      value: 0
    }
  }
}
layers {
  bottom: "conv2_1"
  top: "conv2_1"
  name: "relu2_1"
  type: RELU
}
layers {
  bottom: "conv2_1"
  top: "conv2_2"
  name: "conv2_2"
  type: CONVOLUTION
  convolution_param {
    num_output: 128
    pad: 1
    kernel_size: 3
    weight_filler {
      type: "gaussian"
      std: 0.01
    }
    bias_filler {
      type: "constant"
      value: 0
    }
  }
}
layers {
  bottom: "conv2_2"
  top: "conv2_2"
  name: "relu2_2"
  type: RELU
}
layers {
  bottom: "conv2_2"
  top: "pool2"
  name: "pool2"
  type: POOLING
  pooling_param {
    pool: MAX
    kernel_size: 2
    stride: 2
  }
}
layers {
  bottom: "pool2"
  top: "conv3_1"
  name: "conv3_1"
  type: CONVOLUTION
  convolution_param {
    num_output: 256
    pad: 1
    kernel_size: 3
    weight_filler {
      type: "gaussian"
      std: 0.01
    }
    bias_filler {
      type: "constant"
      value: 0
    }
  }
}
layers {
  bottom: "conv3_1"
  top: "conv3_1"
  name: "relu3_1"
  type: RELU
}
layers {
  bottom: "conv3_1"
  top: "conv3_2"
  name: "conv3_2"
  type: CONVOLUTION
  convolution_param {
    num_output: 256
    pad: 1
    kernel_size: 3
    weight_filler {
      type: "gaussian"
      std: 0.01
    }
    bias_filler {
      type: "constant"
      value: 0
    }
  }
}
layers {
  bottom: "conv3_2"
  top: "conv3_2"
  name: "relu3_2"
  type: RELU
}
layers {
  bottom: "conv3_2"
  top: "conv3_3"
  name: "conv3_3"
  type: CONVOLUTION
  convolution_param {
    num_output: 256
    pad: 1
    kernel_size: 3
    weight_filler {
      type: "gaussian"
      std: 0.01
    }
    bias_filler {
      type: "constant"
      value: 0
    }
  }
}
layers {
  bottom: "conv3_3"
  top: "conv3_3"
  name: "relu3_3"
  type: RELU
}
layers {
  bottom: "conv3_3"
  top: "pool3"
  name: "pool3"
  type: POOLING
  pooling_param {
    pool: MAX
    kernel_size: 2
    stride: 2
  }
}
layers {
  bottom: "pool3"
  top: "conv4_1"
  name: "conv4_1"
  type: CONVOLUTION
  convolution_param {
    num_output: 512
    pad: 1
    kernel_size: 3
    weight_filler {
      type: "gaussian"
      std: 0.01
    }
    bias_filler {
      type: "constant"
      value: 0
    }
  }
}
layers {
  bottom: "conv4_1"
  top: "conv4_1"
  name: "relu4_1"
  type: RELU
}
layers {
  bottom: "conv4_1"
  top: "conv4_2"
  name: "conv4_2"
  type: CONVOLUTION
  convolution_param {
    num_output: 512
    pad: 1
    kernel_size: 3
    weight_filler {
      type: "gaussian"
      std: 0.01
    }
    bias_filler {
      type: "constant"
      value: 0
    }
  }
}
layers {
  bottom: "conv4_2"
  top: "conv4_2"
  name: "relu4_2"
  type: RELU
}
layers {
  bottom: "conv4_2"
  top: "conv4_3"
  name: "conv4_3"
  type: CONVOLUTION
  convolution_param {
    num_output: 512
    pad: 1
    kernel_size: 3
    weight_filler {
      type: "gaussian"
      std: 0.01
    }
    bias_filler {
      type: "constant"
      value: 0
    }
  }
}
layers {
  bottom: "conv4_3"
  top: "conv4_3"
  name: "relu4_3"
  type: RELU
}
layers {
  bottom: "conv4_3"
  top: "pool4"
  name: "pool4"
  type: POOLING
  pooling_param {
    pool: MAX
    kernel_size: 2
    stride: 2
  }
}
layers {
  bottom: "pool4"
  top: "conv5_1"
  name: "conv5_1"
  type: CONVOLUTION
  convolution_param {
    num_output: 512
    pad: 1
    kernel_size: 3
    weight_filler {
      type: "gaussian"
      std: 0.01
    }
    bias_filler {
      type: "constant"
      value: 0
    }
  }
}
layers {
  bottom: "conv5_1"
  top: "conv5_1"
  name: "relu5_1"
  type: RELU
}
layers {
  bottom: "conv5_1"
  top: "conv5_2"
  name: "conv5_2"
  type: CONVOLUTION
  convolution_param {
    num_output: 512
    pad: 1
    kernel_size: 3
    weight_filler {
      type: "gaussian"
      std: 0.01
    }
    bias_filler {
      type: "constant"
      value: 0
    }
  }
}
layers {
  bottom: "conv5_2"
  top: "conv5_2"
  name: "relu5_2"
  type: RELU
}
layers {
  bottom: "conv5_2"
  top: "conv5_3"
  name: "conv5_3"
  type: CONVOLUTION
  convolution_param {
    num_output: 512
    pad: 1
    kernel_size: 3
    weight_filler {
      type: "gaussian"
      std: 0.01
    }
    bias_filler {
      type: "constant"
      value: 0
    }
  }
}
layers {
  bottom: "conv5_3"
  top: "conv5_3"
  name: "relu5_3"
  type: RELU
}
layers {
  bottom: "conv5_3"
  top: "pool5"
  name: "pool5"
  type: POOLING
  pooling_param {
    pool: MAX
    kernel_size: 2
    stride: 2
  }
}
layers {
  bottom: "pool5"
  top: "fc6"
  name: "fc6"
  type: INNER_PRODUCT
  inner_product_param {
    num_output: 4096
    weight_filler {
      type: "gaussian"
      std: 0.01
    }
    bias_filler {
      type: "constant"
      value: 0
    }
  }
}
layers {
  bottom: "fc6"
  top: "fc6"
  name: "relu6"
  type: RELU
}
layers {
  bottom: "fc6"
  top: "fc6"
  name: "drop6"
  type: DROPOUT
  dropout_param {
    dropout_ratio: 0.5
  }
}
layers {
  bottom: "fc6"
  top: "fc7"
  name: "fc7"
  type: INNER_PRODUCT
  inner_product_param {
    num_output: 4096
    weight_filler {
      type: "gaussian"
      std: 0.01
    }
    bias_filler {
      type: "constant"
      value: 0
    }
  }
}
layers {
  bottom: "fc7"
  top: "fc7"
  name: "relu7"
  type: RELU
}
layers {
  bottom: "fc7"
  top: "fc7"
  name: "drop7"
  type: DROPOUT
  dropout_param {
    dropout_ratio: 0.5
  }
}
layers {
  bottom: "fc7"
  top: "fc8_2"
  name: "fc8_2"
  type: INNER_PRODUCT
  inner_product_param {
    num_output: 2
    weight_filler {
      type: "gaussian"
      std: 0.01
    }
    bias_filler {
      type: "constant"
      value: 0
    }
  }
}
layers {
  bottom: "fc8_2"
  bottom: "label"
  name: "loss"
  type: SOFTMAX_LOSS
}
state {
  phase: TRAIN
}
I1105 19:33:53.900969 26899 layer_factory.hpp:78] Creating layer data
I1105 19:33:53.900986 26899 net.cpp:67] Creating Layer data
I1105 19:33:53.900995 26899 net.cpp:356] data -> data
I1105 19:33:53.901015 26899 net.cpp:356] data -> label
I1105 19:33:53.901026 26899 net.cpp:96] Setting up data
I1105 19:33:53.901033 26899 image_data_layer.cpp:34] Opening file /data/ad6813/devCaffe/caffe/task/clamp/clampTrain.txt
I1105 19:33:53.909250 26899 image_data_layer.cpp:49] A total of 23494 images.
I1105 19:33:53.920194 26899 image_data_layer.cpp:78] output data size: 28,3,224,224
I1105 19:33:53.922809 26899 net.cpp:103] Top shape: 28 3 224 224 (4214784)
I1105 19:33:53.922843 26899 net.cpp:103] Top shape: 28 1 1 1 (28)
I1105 19:33:53.922849 26899 layer_factory.hpp:78] Creating layer conv1_1
I1105 19:33:53.922863 26899 net.cpp:67] Creating Layer conv1_1
I1105 19:33:53.922868 26899 net.cpp:394] conv1_1 <- data
I1105 19:33:53.922881 26899 net.cpp:356] conv1_1 -> conv1_1
I1105 19:33:53.922893 26899 net.cpp:96] Setting up conv1_1
I1105 19:33:53.938493 26899 net.cpp:103] Top shape: 28 64 224 224 (89915392)
I1105 19:33:53.938529 26899 layer_factory.hpp:78] Creating layer relu1_1
I1105 19:33:53.938541 26899 net.cpp:67] Creating Layer relu1_1
I1105 19:33:53.938546 26899 net.cpp:394] relu1_1 <- conv1_1
I1105 19:33:53.938554 26899 net.cpp:345] relu1_1 -> conv1_1 (in-place)
I1105 19:33:53.938562 26899 net.cpp:96] Setting up relu1_1
I1105 19:33:53.938570 26899 net.cpp:103] Top shape: 28 64 224 224 (89915392)
I1105 19:33:53.938573 26899 layer_factory.hpp:78] Creating layer conv1_2
I1105 19:33:53.938580 26899 net.cpp:67] Creating Layer conv1_2
I1105 19:33:53.938583 26899 net.cpp:394] conv1_2 <- conv1_1
I1105 19:33:53.938588 26899 net.cpp:356] conv1_2 -> conv1_2
I1105 19:33:53.938594 26899 net.cpp:96] Setting up conv1_2
I1105 19:33:53.939667 26899 net.cpp:103] Top shape: 28 64 224 224 (89915392)
I1105 19:33:53.939681 26899 layer_factory.hpp:78] Creating layer relu1_2
I1105 19:33:53.939687 26899 net.cpp:67] Creating Layer relu1_2
I1105 19:33:53.939690 26899 net.cpp:394] relu1_2 <- conv1_2
I1105 19:33:53.939694 26899 net.cpp:345] relu1_2 -> conv1_2 (in-place)
I1105 19:33:53.939700 26899 net.cpp:96] Setting up relu1_2
I1105 19:33:53.939705 26899 net.cpp:103] Top shape: 28 64 224 224 (89915392)
I1105 19:33:53.939708 26899 layer_factory.hpp:78] Creating layer pool1
I1105 19:33:53.939717 26899 net.cpp:67] Creating Layer pool1
I1105 19:33:53.939719 26899 net.cpp:394] pool1 <- conv1_2
I1105 19:33:53.939723 26899 net.cpp:356] pool1 -> pool1
I1105 19:33:53.939729 26899 net.cpp:96] Setting up pool1
I1105 19:33:53.939745 26899 net.cpp:103] Top shape: 28 64 112 112 (22478848)
I1105 19:33:53.939771 26899 layer_factory.hpp:78] Creating layer conv2_1
I1105 19:33:53.939782 26899 net.cpp:67] Creating Layer conv2_1
I1105 19:33:53.939786 26899 net.cpp:394] conv2_1 <- pool1
I1105 19:33:53.939791 26899 net.cpp:356] conv2_1 -> conv2_1
I1105 19:33:53.939796 26899 net.cpp:96] Setting up conv2_1
I1105 19:33:53.941730 26899 net.cpp:103] Top shape: 28 128 112 112 (44957696)
I1105 19:33:53.941743 26899 layer_factory.hpp:78] Creating layer relu2_1
I1105 19:33:53.941748 26899 net.cpp:67] Creating Layer relu2_1
I1105 19:33:53.941751 26899 net.cpp:394] relu2_1 <- conv2_1
I1105 19:33:53.941756 26899 net.cpp:345] relu2_1 -> conv2_1 (in-place)
I1105 19:33:53.941761 26899 net.cpp:96] Setting up relu2_1
I1105 19:33:53.941766 26899 net.cpp:103] Top shape: 28 128 112 112 (44957696)
I1105 19:33:53.941769 26899 layer_factory.hpp:78] Creating layer conv2_2
I1105 19:33:53.941776 26899 net.cpp:67] Creating Layer conv2_2
I1105 19:33:53.941779 26899 net.cpp:394] conv2_2 <- conv2_1
I1105 19:33:53.941784 26899 net.cpp:356] conv2_2 -> conv2_2
I1105 19:33:53.941789 26899 net.cpp:96] Setting up conv2_2
I1105 19:33:53.945534 26899 net.cpp:103] Top shape: 28 128 112 112 (44957696)
I1105 19:33:53.945546 26899 layer_factory.hpp:78] Creating layer relu2_2
I1105 19:33:53.945551 26899 net.cpp:67] Creating Layer relu2_2
I1105 19:33:53.945554 26899 net.cpp:394] relu2_2 <- conv2_2
I1105 19:33:53.945559 26899 net.cpp:345] relu2_2 -> conv2_2 (in-place)
I1105 19:33:53.945564 26899 net.cpp:96] Setting up relu2_2
I1105 19:33:53.945569 26899 net.cpp:103] Top shape: 28 128 112 112 (44957696)
I1105 19:33:53.945581 26899 layer_factory.hpp:78] Creating layer pool2
I1105 19:33:53.945587 26899 net.cpp:67] Creating Layer pool2
I1105 19:33:53.945591 26899 net.cpp:394] pool2 <- conv2_2
I1105 19:33:53.945595 26899 net.cpp:356] pool2 -> pool2
I1105 19:33:53.945601 26899 net.cpp:96] Setting up pool2
I1105 19:33:53.945607 26899 net.cpp:103] Top shape: 28 128 56 56 (11239424)
I1105 19:33:53.945611 26899 layer_factory.hpp:78] Creating layer conv3_1
I1105 19:33:53.945616 26899 net.cpp:67] Creating Layer conv3_1
I1105 19:33:53.945619 26899 net.cpp:394] conv3_1 <- pool2
I1105 19:33:53.945624 26899 net.cpp:356] conv3_1 -> conv3_1
I1105 19:33:53.945631 26899 net.cpp:96] Setting up conv3_1
I1105 19:33:53.953043 26899 net.cpp:103] Top shape: 28 256 56 56 (22478848)
I1105 19:33:53.953063 26899 layer_factory.hpp:78] Creating layer relu3_1
I1105 19:33:53.953070 26899 net.cpp:67] Creating Layer relu3_1
I1105 19:33:53.953074 26899 net.cpp:394] relu3_1 <- conv3_1
I1105 19:33:53.953079 26899 net.cpp:345] relu3_1 -> conv3_1 (in-place)
I1105 19:33:53.953084 26899 net.cpp:96] Setting up relu3_1
I1105 19:33:53.953089 26899 net.cpp:103] Top shape: 28 256 56 56 (22478848)
I1105 19:33:53.953093 26899 layer_factory.hpp:78] Creating layer conv3_2
I1105 19:33:53.953099 26899 net.cpp:67] Creating Layer conv3_2
I1105 19:33:53.953101 26899 net.cpp:394] conv3_2 <- conv3_1
I1105 19:33:53.953109 26899 net.cpp:356] conv3_2 -> conv3_2
I1105 19:33:53.953115 26899 net.cpp:96] Setting up conv3_2
I1105 19:33:53.967669 26899 net.cpp:103] Top shape: 28 256 56 56 (22478848)
I1105 19:33:53.967687 26899 layer_factory.hpp:78] Creating layer relu3_2
I1105 19:33:53.967695 26899 net.cpp:67] Creating Layer relu3_2
I1105 19:33:53.967700 26899 net.cpp:394] relu3_2 <- conv3_2
I1105 19:33:53.967705 26899 net.cpp:345] relu3_2 -> conv3_2 (in-place)
I1105 19:33:53.967710 26899 net.cpp:96] Setting up relu3_2
I1105 19:33:53.967716 26899 net.cpp:103] Top shape: 28 256 56 56 (22478848)
I1105 19:33:53.967720 26899 layer_factory.hpp:78] Creating layer conv3_3
I1105 19:33:53.967725 26899 net.cpp:67] Creating Layer conv3_3
I1105 19:33:53.967728 26899 net.cpp:394] conv3_3 <- conv3_2
I1105 19:33:53.967733 26899 net.cpp:356] conv3_3 -> conv3_3
I1105 19:33:53.967738 26899 net.cpp:96] Setting up conv3_3
I1105 19:33:53.982465 26899 net.cpp:103] Top shape: 28 256 56 56 (22478848)
I1105 19:33:53.982486 26899 layer_factory.hpp:78] Creating layer relu3_3
I1105 19:33:53.982496 26899 net.cpp:67] Creating Layer relu3_3
I1105 19:33:53.982501 26899 net.cpp:394] relu3_3 <- conv3_3
I1105 19:33:53.982506 26899 net.cpp:345] relu3_3 -> conv3_3 (in-place)
I1105 19:33:53.982512 26899 net.cpp:96] Setting up relu3_3
I1105 19:33:53.982518 26899 net.cpp:103] Top shape: 28 256 56 56 (22478848)
I1105 19:33:53.982522 26899 layer_factory.hpp:78] Creating layer pool3
I1105 19:33:53.982528 26899 net.cpp:67] Creating Layer pool3
I1105 19:33:53.982532 26899 net.cpp:394] pool3 <- conv3_3
I1105 19:33:53.982535 26899 net.cpp:356] pool3 -> pool3
I1105 19:33:53.982542 26899 net.cpp:96] Setting up pool3
I1105 19:33:53.982549 26899 net.cpp:103] Top shape: 28 256 28 28 (5619712)
I1105 19:33:53.982553 26899 layer_factory.hpp:78] Creating layer conv4_1
I1105 19:33:53.982559 26899 net.cpp:67] Creating Layer conv4_1
I1105 19:33:53.982563 26899 net.cpp:394] conv4_1 <- pool3
I1105 19:33:53.982568 26899 net.cpp:356] conv4_1 -> conv4_1
I1105 19:33:53.982573 26899 net.cpp:96] Setting up conv4_1
I1105 19:33:54.011404 26899 net.cpp:103] Top shape: 28 512 28 28 (11239424)
I1105 19:33:54.011427 26899 layer_factory.hpp:78] Creating layer relu4_1
I1105 19:33:54.011435 26899 net.cpp:67] Creating Layer relu4_1
I1105 19:33:54.011440 26899 net.cpp:394] relu4_1 <- conv4_1
I1105 19:33:54.011450 26899 net.cpp:345] relu4_1 -> conv4_1 (in-place)
I1105 19:33:54.011456 26899 net.cpp:96] Setting up relu4_1
I1105 19:33:54.011462 26899 net.cpp:103] Top shape: 28 512 28 28 (11239424)
I1105 19:33:54.011466 26899 layer_factory.hpp:78] Creating layer conv4_2
I1105 19:33:54.011471 26899 net.cpp:67] Creating Layer conv4_2
I1105 19:33:54.011483 26899 net.cpp:394] conv4_2 <- conv4_1
I1105 19:33:54.011490 26899 net.cpp:356] conv4_2 -> conv4_2
I1105 19:33:54.011497 26899 net.cpp:96] Setting up conv4_2
I1105 19:33:54.069278 26899 net.cpp:103] Top shape: 28 512 28 28 (11239424)
I1105 19:33:54.069308 26899 layer_factory.hpp:78] Creating layer relu4_2
I1105 19:33:54.069316 26899 net.cpp:67] Creating Layer relu4_2
I1105 19:33:54.069320 26899 net.cpp:394] relu4_2 <- conv4_2
I1105 19:33:54.069327 26899 net.cpp:345] relu4_2 -> conv4_2 (in-place)
I1105 19:33:54.069334 26899 net.cpp:96] Setting up relu4_2
I1105 19:33:54.069339 26899 net.cpp:103] Top shape: 28 512 28 28 (11239424)
I1105 19:33:54.069342 26899 layer_factory.hpp:78] Creating layer conv4_3
I1105 19:33:54.069350 26899 net.cpp:67] Creating Layer conv4_3
I1105 19:33:54.069353 26899 net.cpp:394] conv4_3 <- conv4_2
I1105 19:33:54.069358 26899 net.cpp:356] conv4_3 -> conv4_3
I1105 19:33:54.069365 26899 net.cpp:96] Setting up conv4_3
I1105 19:33:54.126834 26899 net.cpp:103] Top shape: 28 512 28 28 (11239424)
I1105 19:33:54.126857 26899 layer_factory.hpp:78] Creating layer relu4_3
I1105 19:33:54.126865 26899 net.cpp:67] Creating Layer relu4_3
I1105 19:33:54.126870 26899 net.cpp:394] relu4_3 <- conv4_3
I1105 19:33:54.126878 26899 net.cpp:345] relu4_3 -> conv4_3 (in-place)
I1105 19:33:54.126884 26899 net.cpp:96] Setting up relu4_3
I1105 19:33:54.126890 26899 net.cpp:103] Top shape: 28 512 28 28 (11239424)
I1105 19:33:54.126893 26899 layer_factory.hpp:78] Creating layer pool4
I1105 19:33:54.126899 26899 net.cpp:67] Creating Layer pool4
I1105 19:33:54.126901 26899 net.cpp:394] pool4 <- conv4_3
I1105 19:33:54.126906 26899 net.cpp:356] pool4 -> pool4
I1105 19:33:54.126911 26899 net.cpp:96] Setting up pool4
I1105 19:33:54.126919 26899 net.cpp:103] Top shape: 28 512 14 14 (2809856)
I1105 19:33:54.126921 26899 layer_factory.hpp:78] Creating layer conv5_1
I1105 19:33:54.126929 26899 net.cpp:67] Creating Layer conv5_1
I1105 19:33:54.126931 26899 net.cpp:394] conv5_1 <- pool4
I1105 19:33:54.126937 26899 net.cpp:356] conv5_1 -> conv5_1
I1105 19:33:54.126945 26899 net.cpp:96] Setting up conv5_1
I1105 19:33:54.184718 26899 net.cpp:103] Top shape: 28 512 14 14 (2809856)
I1105 19:33:54.184742 26899 layer_factory.hpp:78] Creating layer relu5_1
I1105 19:33:54.184751 26899 net.cpp:67] Creating Layer relu5_1
I1105 19:33:54.184756 26899 net.cpp:394] relu5_1 <- conv5_1
I1105 19:33:54.184769 26899 net.cpp:345] relu5_1 -> conv5_1 (in-place)
I1105 19:33:54.184777 26899 net.cpp:96] Setting up relu5_1
I1105 19:33:54.184782 26899 net.cpp:103] Top shape: 28 512 14 14 (2809856)
I1105 19:33:54.184785 26899 layer_factory.hpp:78] Creating layer conv5_2
I1105 19:33:54.184792 26899 net.cpp:67] Creating Layer conv5_2
I1105 19:33:54.184794 26899 net.cpp:394] conv5_2 <- conv5_1
I1105 19:33:54.184800 26899 net.cpp:356] conv5_2 -> conv5_2
I1105 19:33:54.184806 26899 net.cpp:96] Setting up conv5_2
I1105 19:33:54.242241 26899 net.cpp:103] Top shape: 28 512 14 14 (2809856)
I1105 19:33:54.242266 26899 layer_factory.hpp:78] Creating layer relu5_2
I1105 19:33:54.242274 26899 net.cpp:67] Creating Layer relu5_2
I1105 19:33:54.242279 26899 net.cpp:394] relu5_2 <- conv5_2
I1105 19:33:54.242286 26899 net.cpp:345] relu5_2 -> conv5_2 (in-place)
I1105 19:33:54.242292 26899 net.cpp:96] Setting up relu5_2
I1105 19:33:54.242298 26899 net.cpp:103] Top shape: 28 512 14 14 (2809856)
I1105 19:33:54.242301 26899 layer_factory.hpp:78] Creating layer conv5_3
I1105 19:33:54.242307 26899 net.cpp:67] Creating Layer conv5_3
I1105 19:33:54.242311 26899 net.cpp:394] conv5_3 <- conv5_2
I1105 19:33:54.242315 26899 net.cpp:356] conv5_3 -> conv5_3
I1105 19:33:54.242321 26899 net.cpp:96] Setting up conv5_3
I1105 19:33:54.299696 26899 net.cpp:103] Top shape: 28 512 14 14 (2809856)
I1105 19:33:54.299721 26899 layer_factory.hpp:78] Creating layer relu5_3
I1105 19:33:54.299729 26899 net.cpp:67] Creating Layer relu5_3
I1105 19:33:54.299734 26899 net.cpp:394] relu5_3 <- conv5_3
I1105 19:33:54.299742 26899 net.cpp:345] relu5_3 -> conv5_3 (in-place)
I1105 19:33:54.299749 26899 net.cpp:96] Setting up relu5_3
I1105 19:33:54.299772 26899 net.cpp:103] Top shape: 28 512 14 14 (2809856)
I1105 19:33:54.299777 26899 layer_factory.hpp:78] Creating layer pool5
I1105 19:33:54.299782 26899 net.cpp:67] Creating Layer pool5
I1105 19:33:54.299785 26899 net.cpp:394] pool5 <- conv5_3
I1105 19:33:54.299793 26899 net.cpp:356] pool5 -> pool5
I1105 19:33:54.299799 26899 net.cpp:96] Setting up pool5
I1105 19:33:54.299808 26899 net.cpp:103] Top shape: 28 512 7 7 (702464)
I1105 19:33:54.299811 26899 layer_factory.hpp:78] Creating layer fc6
I1105 19:33:54.299825 26899 net.cpp:67] Creating Layer fc6
I1105 19:33:54.299829 26899 net.cpp:394] fc6 <- pool5
I1105 19:33:54.299835 26899 net.cpp:356] fc6 -> fc6
I1105 19:33:54.299846 26899 net.cpp:96] Setting up fc6
I1105 19:33:56.818390 26899 net.cpp:103] Top shape: 28 4096 1 1 (114688)
I1105 19:33:56.818430 26899 layer_factory.hpp:78] Creating layer relu6
I1105 19:33:56.818440 26899 net.cpp:67] Creating Layer relu6
I1105 19:33:56.818445 26899 net.cpp:394] relu6 <- fc6
I1105 19:33:56.818452 26899 net.cpp:345] relu6 -> fc6 (in-place)
I1105 19:33:56.818459 26899 net.cpp:96] Setting up relu6
I1105 19:33:56.818474 26899 net.cpp:103] Top shape: 28 4096 1 1 (114688)
I1105 19:33:56.818476 26899 layer_factory.hpp:78] Creating layer drop6
I1105 19:33:56.818485 26899 net.cpp:67] Creating Layer drop6
I1105 19:33:56.818488 26899 net.cpp:394] drop6 <- fc6
I1105 19:33:56.818492 26899 net.cpp:345] drop6 -> fc6 (in-place)
I1105 19:33:56.818496 26899 net.cpp:96] Setting up drop6
I1105 19:33:56.818502 26899 net.cpp:103] Top shape: 28 4096 1 1 (114688)
I1105 19:33:56.818506 26899 layer_factory.hpp:78] Creating layer fc7
I1105 19:33:56.818512 26899 net.cpp:67] Creating Layer fc7
I1105 19:33:56.818516 26899 net.cpp:394] fc7 <- fc6
I1105 19:33:56.818519 26899 net.cpp:356] fc7 -> fc7
I1105 19:33:56.818526 26899 net.cpp:96] Setting up fc7
I1105 19:33:57.215008 26899 net.cpp:103] Top shape: 28 4096 1 1 (114688)
I1105 19:33:57.215047 26899 layer_factory.hpp:78] Creating layer relu7
I1105 19:33:57.215055 26899 net.cpp:67] Creating Layer relu7
I1105 19:33:57.215060 26899 net.cpp:394] relu7 <- fc7
I1105 19:33:57.215067 26899 net.cpp:345] relu7 -> fc7 (in-place)
I1105 19:33:57.215073 26899 net.cpp:96] Setting up relu7
I1105 19:33:57.215087 26899 net.cpp:103] Top shape: 28 4096 1 1 (114688)
I1105 19:33:57.215090 26899 layer_factory.hpp:78] Creating layer drop7
I1105 19:33:57.215097 26899 net.cpp:67] Creating Layer drop7
I1105 19:33:57.215101 26899 net.cpp:394] drop7 <- fc7
I1105 19:33:57.215104 26899 net.cpp:345] drop7 -> fc7 (in-place)
I1105 19:33:57.215109 26899 net.cpp:96] Setting up drop7
I1105 19:33:57.215113 26899 net.cpp:103] Top shape: 28 4096 1 1 (114688)
I1105 19:33:57.215116 26899 layer_factory.hpp:78] Creating layer fc8_2
I1105 19:33:57.215121 26899 net.cpp:67] Creating Layer fc8_2
I1105 19:33:57.215124 26899 net.cpp:394] fc8_2 <- fc7
I1105 19:33:57.215131 26899 net.cpp:356] fc8_2 -> fc8_2
I1105 19:33:57.215137 26899 net.cpp:96] Setting up fc8_2
I1105 19:33:57.215359 26899 net.cpp:103] Top shape: 28 2 1 1 (56)
I1105 19:33:57.215368 26899 layer_factory.hpp:78] Creating layer loss
I1105 19:33:57.215378 26899 net.cpp:67] Creating Layer loss
I1105 19:33:57.215384 26899 net.cpp:394] loss <- fc8_2
I1105 19:33:57.215386 26899 net.cpp:394] loss <- label
I1105 19:33:57.215394 26899 net.cpp:356] loss -> (automatic)
I1105 19:33:57.215399 26899 net.cpp:96] Setting up loss
I1105 19:33:57.215406 26899 net.cpp:103] Top shape: 1 1 1 1 (1)
I1105 19:33:57.215415 26899 net.cpp:109]     with loss weight 1
I1105 19:33:57.215452 26899 net.cpp:170] loss needs backward computation.
I1105 19:33:57.215456 26899 net.cpp:170] fc8_2 needs backward computation.
I1105 19:33:57.215458 26899 net.cpp:170] drop7 needs backward computation.
I1105 19:33:57.215461 26899 net.cpp:170] relu7 needs backward computation.
I1105 19:33:57.215463 26899 net.cpp:170] fc7 needs backward computation.
…
I1105 19:33:57.216529 26899 net.cpp:275] The NetState phase (1) differed from the phase (0) specified by a rule in layer data
I1105 19:33:57.216742 26899 net.cpp:39] Initializing net from parameters: 
name: "small"
layers {
  top: "data"
  top: "label"
  name: "data"
  type: IMAGE_DATA
  image_data_param {
    source: "/data/ad6813/devCaffe/caffe/task/clamp/clampVal.txt"
    batch_size: 8
    new_height: 256
    new_width: 256
  }
  include {
    phase: TEST
  }
  transform_param {
    mirror: true
    crop_size: 224
    mean_value: 86.752
    mean_value: 101.46
    mean_value: 104.6
  }
}
layers {
  bottom: "data"
  top: "conv1_1"
  name: "conv1_1"
  type: CONVOLUTION
  convolution_param {
    num_output: 64
    pad: 1
    kernel_size: 3
    weight_filler {
      type: "gaussian"
      std: 0.01
    }
    bias_filler {
      type: "constant"
      value: 0
    }
  }
}
layers {
  bottom: "conv1_1"
  top: "conv1_1"
  name: "relu1_1"
  type: RELU
}
layers {
  bottom: "conv1_1"
  top: "conv1_2"
  name: "conv1_2"
  type: CONVOLUTION
  convolution_param {
    num_output: 64
    pad: 1
    kernel_size: 3
    weight_filler {
      type: "gaussian"
      std: 0.01
    }
    bias_filler {
      type: "constant"
      value: 0
    }
  }
}
layers {
  bottom: "conv1_2"
  top: "conv1_2"
  name: "relu1_2"
  type: RELU
}
layers {
  bottom: "conv1_2"
  top: "pool1"
  name: "pool1"
  type: POOLING
  pooling_param {
    pool: MAX
    kernel_size: 2
    stride: 2
  }
}
layers {
  bottom: "pool1"
  top: "conv2_1"
  name: "conv2_1"
  type: CONVOLUTION
  convolution_param {
    num_output: 128
    pad: 1
    kernel_size: 3
    weight_filler {
      type: "gaussian"
      std: 0.01
    }
    bias_filler {
      type: "constant"
      value: 0
    }
  }
}
layers {
  bottom: "conv2_1"
  top: "conv2_1"
  name: "relu2_1"
  type: RELU
}
layers {
  bottom: "conv2_1"
  top: "conv2_2"
  name: "conv2_2"
  type: CONVOLUTION
  convolution_param {
    num_output: 128
    pad: 1
    kernel_size: 3
    weight_filler {
      type: "gaussian"
      std: 0.01
    }
    bias_filler {
      type: "constant"
      value: 0
    }
  }
}
layers {
  bottom: "conv2_2"
  top: "conv2_2"
  name: "relu2_2"
  type: RELU
}
layers {
  bottom: "conv2_2"
  top: "pool2"
  name: "pool2"
  type: POOLING
  pooling_param {
    pool: MAX
    kernel_size: 2
    stride: 2
  }
}
layers {
  bottom: "pool2"
  top: "conv3_1"
  name: "conv3_1"
  type: CONVOLUTION
  convolution_param {
    num_output: 256
    pad: 1
    kernel_size: 3
    weight_filler {
      type: "gaussian"
      std: 0.01
    }
    bias_filler {
      type: "constant"
      value: 0
    }
  }
}
layers {
  bottom: "conv3_1"
  top: "conv3_1"
  name: "relu3_1"
  type: RELU
}
layers {
  bottom: "conv3_1"
  top: "conv3_2"
  name: "conv3_2"
  type: CONVOLUTION
  convolution_param {
    num_output: 256
    pad: 1
    kernel_size: 3
    weight_filler {
      type: "gaussian"
      std: 0.01
    }
    bias_filler {
      type: "constant"
      value: 0
    }
  }
}
layers {
  bottom: "conv3_2"
  top: "conv3_2"
  name: "relu3_2"
  type: RELU
}
layers {
  bottom: "conv3_2"
  top: "conv3_3"
  name: "conv3_3"
  type: CONVOLUTION
  convolution_param {
    num_output: 256
    pad: 1
    kernel_size: 3
    weight_filler {
      type: "gaussian"
      std: 0.01
    }
    bias_filler {
      type: "constant"
      value: 0
    }
  }
}
layers {
  bottom: "conv3_3"
  top: "conv3_3"
  name: "relu3_3"
  type: RELU
}
layers {
  bottom: "conv3_3"
  top: "pool3"
  name: "pool3"
  type: POOLING
  pooling_param {
    pool: MAX
    kernel_size: 2
    stride: 2
  }
}
layers {
  bottom: "pool3"
  top: "conv4_1"
  name: "conv4_1"
  type: CONVOLUTION
  convolution_param {
    num_output: 512
    pad: 1
    kernel_size: 3
    weight_filler {
      type: "gaussian"
      std: 0.01
    }
    bias_filler {
      type: "constant"
      value: 0
    }
  }
}
layers {
  bottom: "conv4_1"
  top: "conv4_1"
  name: "relu4_1"
  type: RELU
}
layers {
  bottom: "conv4_1"
  top: "conv4_2"
  name: "conv4_2"
  type: CONVOLUTION
  convolution_param {
    num_output: 512
    pad: 1
    kernel_size: 3
    weight_filler {
      type: "gaussian"
      std: 0.01
    }
    bias_filler {
      type: "constant"
      value: 0
    }
  }
}
layers {
  bottom: "conv4_2"
  top: "conv4_2"
  name: "relu4_2"
  type: RELU
}
layers {
  bottom: "conv4_2"
  top: "conv4_3"
  name: "conv4_3"
  type: CONVOLUTION
  convolution_param {
    num_output: 512
    pad: 1
    kernel_size: 3
    weight_filler {
      type: "gaussian"
      std: 0.01
    }
    bias_filler {
      type: "constant"
      value: 0
    }
  }
}
layers {
  bottom: "conv4_3"
  top: "conv4_3"
  name: "relu4_3"
  type: RELU
}
layers {
  bottom: "conv4_3"
  top: "pool4"
  name: "pool4"
  type: POOLING
  pooling_param {
    pool: MAX
    kernel_size: 2
    stride: 2
  }
}
layers {
  bottom: "pool4"
  top: "conv5_1"
  name: "conv5_1"
  type: CONVOLUTION
  convolution_param {
    num_output: 512
    pad: 1
    kernel_size: 3
    weight_filler {
      type: "gaussian"
      std: 0.01
    }
    bias_filler {
      type: "constant"
      value: 0
    }
  }
}
layers {
  bottom: "conv5_1"
  top: "conv5_1"
  name: "relu5_1"
  type: RELU
}
layers {
  bottom: "conv5_1"
  top: "conv5_2"
  name: "conv5_2"
  type: CONVOLUTION
  convolution_param {
    num_output: 512
    pad: 1
    kernel_size: 3
    weight_filler {
      type: "gaussian"
      std: 0.01
    }
    bias_filler {
      type: "constant"
      value: 0
    }
  }
}
layers {
  bottom: "conv5_2"
  top: "conv5_2"
  name: "relu5_2"
  type: RELU
}
layers {
  bottom: "conv5_2"
  top: "conv5_3"
  name: "conv5_3"
  type: CONVOLUTION
  convolution_param {
    num_output: 512
    pad: 1
    kernel_size: 3
    weight_filler {
      type: "gaussian"
      std: 0.01
    }
    bias_filler {
      type: "constant"
      value: 0
    }
  }
}
layers {
  bottom: "conv5_3"
  top: "conv5_3"
  name: "relu5_3"
  type: RELU
}
layers {
  bottom: "conv5_3"
  top: "pool5"
  name: "pool5"
  type: POOLING
  pooling_param {
    pool: MAX
    kernel_size: 2
    stride: 2
  }
}
layers {
  bottom: "pool5"
  top: "fc6"
  name: "fc6"
  type: INNER_PRODUCT
  inner_product_param {
    num_output: 4096
    weight_filler {
      type: "gaussian"
      std: 0.01
    }
    bias_filler {
      type: "constant"
      value: 0
    }
  }
}
layers {
  bottom: "fc6"
  top: "fc6"
  name: "relu6"
  type: RELU
}
layers {
  bottom: "fc6"
  top: "fc6"
  name: "drop6"
  type: DROPOUT
  dropout_param {
    dropout_ratio: 0.5
  }
}
layers {
  bottom: "fc6"
  top: "fc7"
  name: "fc7"
  type: INNER_PRODUCT
  inner_product_param {
    num_output: 4096
    weight_filler {
      type: "gaussian"
      std: 0.01
    }
    bias_filler {
      type: "constant"
      value: 0
    }
  }
}
layers {
  bottom: "fc7"
  top: "fc7"
  name: "relu7"
  type: RELU
}
layers {
  bottom: "fc7"
  top: "fc7"
  name: "drop7"
  type: DROPOUT
  dropout_param {
    dropout_ratio: 0.5
  }
}
layers {
  bottom: "fc7"
  top: "fc8_2"
  name: "fc8_2"
  type: INNER_PRODUCT
  inner_product_param {
    num_output: 2
    weight_filler {
      type: "gaussian"
      std: 0.01
    }
    bias_filler {
      type: "constant"
      value: 0
    }
  }
}
layers {
  bottom: "fc8_2"
  bottom: "label"
  name: "loss"
  type: SOFTMAX_LOSS
}
layers {
  bottom: "fc8_2"
  bottom: "label"
  top: "accuracy"
  name: "accuracy"
  type: PER_CLASS_ACCURACY
  include {
    phase: TEST
  }
}
state {
  phase: TEST
}
I1105 19:33:57.216886 26899 layer_factory.hpp:78] Creating layer data
I1105 19:33:57.216897 26899 net.cpp:67] Creating Layer data
I1105 19:33:57.216900 26899 net.cpp:356] data -> data
I1105 19:33:57.216908 26899 net.cpp:356] data -> label
I1105 19:33:57.216914 26899 net.cpp:96] Setting up data
I1105 19:33:57.216917 26899 image_data_layer.cpp:34] Opening file /data/ad6813/devCaffe/caffe/task/clamp/clampVal.txt
I1105 19:33:57.217700 26899 image_data_layer.cpp:49] A total of 2005 images.
I1105 19:33:57.223681 26899 image_data_layer.cpp:78] output data size: 8,3,224,224
I1105 19:33:57.224602 26899 net.cpp:103] Top shape: 8 3 224 224 (1204224)
I1105 19:33:57.224613 26899 net.cpp:103] Top shape: 8 1 1 1 (8)
I1105 19:33:57.224617 26899 layer_factory.hpp:78] Creating layer label_data_1_split
I1105 19:33:57.224628 26899 net.cpp:67] Creating Layer label_data_1_split
I1105 19:33:57.224632 26899 net.cpp:394] label_data_1_split <- label
I1105 19:33:57.224639 26899 net.cpp:356] label_data_1_split -> label_data_1_split_0
I1105 19:33:57.224649 26899 net.cpp:356] label_data_1_split -> label_data_1_split_1
I1105 19:33:57.224654 26899 net.cpp:96] Setting up label_data_1_split
I1105 19:33:57.224660 26899 net.cpp:103] Top shape: 8 1 1 1 (8)
I1105 19:33:57.224663 26899 net.cpp:103] Top shape: 8 1 1 1 (8)
I1105 19:33:57.224666 26899 layer_factory.hpp:78] Creating layer conv1_1
I1105 19:33:57.224673 26899 net.cpp:67] Creating Layer conv1_1
I1105 19:33:57.224675 26899 net.cpp:394] conv1_1 <- data
I1105 19:33:57.224680 26899 net.cpp:356] conv1_1 -> conv1_1
I1105 19:33:57.224688 26899 net.cpp:96] Setting up conv1_1
I1105 19:33:57.224836 26899 net.cpp:103] Top shape: 8 64 224 224 (25690112)
I1105 19:33:57.224850 26899 layer_factory.hpp:78] Creating layer relu1_1
I1105 19:33:57.224858 26899 net.cpp:67] Creating Layer relu1_1
I1105 19:33:57.224861 26899 net.cpp:394] relu1_1 <- conv1_1
I1105 19:33:57.224865 26899 net.cpp:345] relu1_1 -> conv1_1 (in-place)
I1105 19:33:57.224876 26899 net.cpp:96] Setting up relu1_1
I1105 19:33:57.224882 26899 net.cpp:103] Top shape: 8 64 224 224 (25690112)
I1105 19:33:57.224885 26899 layer_factory.hpp:78] Creating layer conv1_2
I1105 19:33:57.224890 26899 net.cpp:67] Creating Layer conv1_2
I1105 19:33:57.224894 26899 net.cpp:394] conv1_2 <- conv1_1
I1105 19:33:57.224899 26899 net.cpp:356] conv1_2 -> conv1_2
I1105 19:33:57.224910 26899 net.cpp:96] Setting up conv1_2
I1105 19:33:57.225894 26899 net.cpp:103] Top shape: 8 64 224 224 (25690112)
I1105 19:33:57.225908 26899 layer_factory.hpp:78] Creating layer relu1_2
I1105 19:33:57.225913 26899 net.cpp:67] Creating Layer relu1_2
I1105 19:33:57.225915 26899 net.cpp:394] relu1_2 <- conv1_2
I1105 19:33:57.225920 26899 net.cpp:345] relu1_2 -> conv1_2 (in-place)
I1105 19:33:57.225924 26899 net.cpp:96] Setting up relu1_2
I1105 19:33:57.225929 26899 net.cpp:103] Top shape: 8 64 224 224 (25690112)
I1105 19:33:57.225932 26899 layer_factory.hpp:78] Creating layer pool1
I1105 19:33:57.225939 26899 net.cpp:67] Creating Layer pool1
I1105 19:33:57.225940 26899 net.cpp:394] pool1 <- conv1_2
I1105 19:33:57.225945 26899 net.cpp:356] pool1 -> pool1
I1105 19:33:57.225950 26899 net.cpp:96] Setting up pool1
I1105 19:33:57.225956 26899 net.cpp:103] Top shape: 8 64 112 112 (6422528)
I1105 19:33:57.225960 26899 layer_factory.hpp:78] Creating layer conv2_1
I1105 19:33:57.225965 26899 net.cpp:67] Creating Layer conv2_1
I1105 19:33:57.225967 26899 net.cpp:394] conv2_1 <- pool1
I1105 19:33:57.225972 26899 net.cpp:356] conv2_1 -> conv2_1
I1105 19:33:57.225977 26899 net.cpp:96] Setting up conv2_1
I1105 19:33:57.227977 26899 net.cpp:103] Top shape: 8 128 112 112 (12845056)
I1105 19:33:57.227991 26899 layer_factory.hpp:78] Creating layer relu2_1
I1105 19:33:57.227998 26899 net.cpp:67] Creating Layer relu2_1
I1105 19:33:57.228001 26899 net.cpp:394] relu2_1 <- conv2_1
I1105 19:33:57.228005 26899 net.cpp:345] relu2_1 -> conv2_1 (in-place)
I1105 19:33:57.228010 26899 net.cpp:96] Setting up relu2_1
I1105 19:33:57.228016 26899 net.cpp:103] Top shape: 8 128 112 112 (12845056)
I1105 19:33:57.228019 26899 layer_factory.hpp:78] Creating layer conv2_2
I1105 19:33:57.228024 26899 net.cpp:67] Creating Layer conv2_2
I1105 19:33:57.228027 26899 net.cpp:394] conv2_2 <- conv2_1
I1105 19:33:57.228031 26899 net.cpp:356] conv2_2 -> conv2_2
I1105 19:33:57.228037 26899 net.cpp:96] Setting up conv2_2
I1105 19:33:57.231665 26899 net.cpp:103] Top shape: 8 128 112 112 (12845056)
I1105 19:33:57.231676 26899 layer_factory.hpp:78] Creating layer relu2_2
I1105 19:33:57.231681 26899 net.cpp:67] Creating Layer relu2_2
I1105 19:33:57.231685 26899 net.cpp:394] relu2_2 <- conv2_2
I1105 19:33:57.231689 26899 net.cpp:345] relu2_2 -> conv2_2 (in-place)
I1105 19:33:57.231694 26899 net.cpp:96] Setting up relu2_2
I1105 19:33:57.231699 26899 net.cpp:103] Top shape: 8 128 112 112 (12845056)
I1105 19:33:57.231703 26899 layer_factory.hpp:78] Creating layer pool2
I1105 19:33:57.231708 26899 net.cpp:67] Creating Layer pool2
I1105 19:33:57.231710 26899 net.cpp:394] pool2 <- conv2_2
I1105 19:33:57.231714 26899 net.cpp:356] pool2 -> pool2
I1105 19:33:57.231719 26899 net.cpp:96] Setting up pool2
I1105 19:33:57.231724 26899 net.cpp:103] Top shape: 8 128 56 56 (3211264)
I1105 19:33:57.231731 26899 layer_factory.hpp:78] Creating layer conv3_1
I1105 19:33:57.231736 26899 net.cpp:67] Creating Layer conv3_1
I1105 19:33:57.231739 26899 net.cpp:394] conv3_1 <- pool2
I1105 19:33:57.231745 26899 net.cpp:356] conv3_1 -> conv3_1
I1105 19:33:57.231766 26899 net.cpp:96] Setting up conv3_1
I1105 19:33:57.238963 26899 net.cpp:103] Top shape: 8 256 56 56 (6422528)
I1105 19:33:57.238980 26899 layer_factory.hpp:78] Creating layer relu3_1
I1105 19:33:57.238986 26899 net.cpp:67] Creating Layer relu3_1
I1105 19:33:57.238988 26899 net.cpp:394] relu3_1 <- conv3_1
I1105 19:33:57.238993 26899 net.cpp:345] relu3_1 -> conv3_1 (in-place)
I1105 19:33:57.238997 26899 net.cpp:96] Setting up relu3_1
I1105 19:33:57.239002 26899 net.cpp:103] Top shape: 8 256 56 56 (6422528)
I1105 19:33:57.239015 26899 layer_factory.hpp:78] Creating layer conv3_2
I1105 19:33:57.239020 26899 net.cpp:67] Creating Layer conv3_2
I1105 19:33:57.239023 26899 net.cpp:394] conv3_2 <- conv3_1
I1105 19:33:57.239028 26899 net.cpp:356] conv3_2 -> conv3_2
I1105 19:33:57.239033 26899 net.cpp:96] Setting up conv3_2
I1105 19:33:57.253684 26899 net.cpp:103] Top shape: 8 256 56 56 (6422528)
I1105 19:33:57.253700 26899 layer_factory.hpp:78] Creating layer relu3_2
I1105 19:33:57.253706 26899 net.cpp:67] Creating Layer relu3_2
I1105 19:33:57.253710 26899 net.cpp:394] relu3_2 <- conv3_2
I1105 19:33:57.253717 26899 net.cpp:345] relu3_2 -> conv3_2 (in-place)
I1105 19:33:57.253722 26899 net.cpp:96] Setting up relu3_2
I1105 19:33:57.253727 26899 net.cpp:103] Top shape: 8 256 56 56 (6422528)
I1105 19:33:57.253731 26899 layer_factory.hpp:78] Creating layer conv3_3
I1105 19:33:57.253738 26899 net.cpp:67] Creating Layer conv3_3
I1105 19:33:57.253741 26899 net.cpp:394] conv3_3 <- conv3_2
I1105 19:33:57.253747 26899 net.cpp:356] conv3_3 -> conv3_3
I1105 19:33:57.253753 26899 net.cpp:96] Setting up conv3_3
I1105 19:33:57.268432 26899 net.cpp:103] Top shape: 8 256 56 56 (6422528)
I1105 19:33:57.268450 26899 layer_factory.hpp:78] Creating layer relu3_3
I1105 19:33:57.268455 26899 net.cpp:67] Creating Layer relu3_3
I1105 19:33:57.268460 26899 net.cpp:394] relu3_3 <- conv3_3
I1105 19:33:57.268465 26899 net.cpp:345] relu3_3 -> conv3_3 (in-place)
I1105 19:33:57.268471 26899 net.cpp:96] Setting up relu3_3
I1105 19:33:57.268476 26899 net.cpp:103] Top shape: 8 256 56 56 (6422528)
I1105 19:33:57.268479 26899 layer_factory.hpp:78] Creating layer pool3
I1105 19:33:57.268486 26899 net.cpp:67] Creating Layer pool3
I1105 19:33:57.268488 26899 net.cpp:394] pool3 <- conv3_3
I1105 19:33:57.268493 26899 net.cpp:356] pool3 -> pool3
I1105 19:33:57.268497 26899 net.cpp:96] Setting up pool3
I1105 19:33:57.268507 26899 net.cpp:103] Top shape: 8 256 28 28 (1605632)
I1105 19:33:57.268510 26899 layer_factory.hpp:78] Creating layer conv4_1
I1105 19:33:57.268515 26899 net.cpp:67] Creating Layer conv4_1
I1105 19:33:57.268518 26899 net.cpp:394] conv4_1 <- pool3
I1105 19:33:57.268522 26899 net.cpp:356] conv4_1 -> conv4_1
I1105 19:33:57.268527 26899 net.cpp:96] Setting up conv4_1
I1105 19:33:57.297102 26899 net.cpp:103] Top shape: 8 512 28 28 (3211264)
I1105 19:33:57.297134 26899 layer_factory.hpp:78] Creating layer relu4_1
I1105 19:33:57.297142 26899 net.cpp:67] Creating Layer relu4_1
I1105 19:33:57.297147 26899 net.cpp:394] relu4_1 <- conv4_1
I1105 19:33:57.297154 26899 net.cpp:345] relu4_1 -> conv4_1 (in-place)
I1105 19:33:57.297161 26899 net.cpp:96] Setting up relu4_1
I1105 19:33:57.297166 26899 net.cpp:103] Top shape: 8 512 28 28 (3211264)
I1105 19:33:57.297170 26899 layer_factory.hpp:78] Creating layer conv4_2
I1105 19:33:57.297176 26899 net.cpp:67] Creating Layer conv4_2
I1105 19:33:57.297179 26899 net.cpp:394] conv4_2 <- conv4_1
I1105 19:33:57.297185 26899 net.cpp:356] conv4_2 -> conv4_2
I1105 19:33:57.297190 26899 net.cpp:96] Setting up conv4_2
I1105 19:33:57.352771 26899 net.cpp:103] Top shape: 8 512 28 28 (3211264)
I1105 19:33:57.352810 26899 layer_factory.hpp:78] Creating layer relu4_2
I1105 19:33:57.352818 26899 net.cpp:67] Creating Layer relu4_2
I1105 19:33:57.352823 26899 net.cpp:394] relu4_2 <- conv4_2
I1105 19:33:57.352828 26899 net.cpp:345] relu4_2 -> conv4_2 (in-place)
I1105 19:33:57.352834 26899 net.cpp:96] Setting up relu4_2
I1105 19:33:57.352839 26899 net.cpp:103] Top shape: 8 512 28 28 (3211264)
I1105 19:33:57.352843 26899 layer_factory.hpp:78] Creating layer conv4_3
I1105 19:33:57.352849 26899 net.cpp:67] Creating Layer conv4_3
I1105 19:33:57.352852 26899 net.cpp:394] conv4_3 <- conv4_2
I1105 19:33:57.352857 26899 net.cpp:356] conv4_3 -> conv4_3
I1105 19:33:57.352864 26899 net.cpp:96] Setting up conv4_3
I1105 19:33:57.408555 26899 net.cpp:103] Top shape: 8 512 28 28 (3211264)
I1105 19:33:57.408589 26899 layer_factory.hpp:78] Creating layer relu4_3
I1105 19:33:57.408597 26899 net.cpp:67] Creating Layer relu4_3
I1105 19:33:57.408602 26899 net.cpp:394] relu4_3 <- conv4_3
I1105 19:33:57.408619 26899 net.cpp:345] relu4_3 -> conv4_3 (in-place)
I1105 19:33:57.408627 26899 net.cpp:96] Setting up relu4_3
I1105 19:33:57.408632 26899 net.cpp:103] Top shape: 8 512 28 28 (3211264)
I1105 19:33:57.408635 26899 layer_factory.hpp:78] Creating layer pool4
I1105 19:33:57.408640 26899 net.cpp:67] Creating Layer pool4
I1105 19:33:57.408643 26899 net.cpp:394] pool4 <- conv4_3
I1105 19:33:57.408648 26899 net.cpp:356] pool4 -> pool4
I1105 19:33:57.408653 26899 net.cpp:96] Setting up pool4
I1105 19:33:57.408661 26899 net.cpp:103] Top shape: 8 512 14 14 (802816)
I1105 19:33:57.408664 26899 layer_factory.hpp:78] Creating layer conv5_1
I1105 19:33:57.408671 26899 net.cpp:67] Creating Layer conv5_1
I1105 19:33:57.408674 26899 net.cpp:394] conv5_1 <- pool4
I1105 19:33:57.408679 26899 net.cpp:356] conv5_1 -> conv5_1
I1105 19:33:57.408684 26899 net.cpp:96] Setting up conv5_1
I1105 19:33:57.464277 26899 net.cpp:103] Top shape: 8 512 14 14 (802816)
I1105 19:33:57.464309 26899 layer_factory.hpp:78] Creating layer relu5_1
I1105 19:33:57.464318 26899 net.cpp:67] Creating Layer relu5_1
I1105 19:33:57.464323 26899 net.cpp:394] relu5_1 <- conv5_1
I1105 19:33:57.464329 26899 net.cpp:345] relu5_1 -> conv5_1 (in-place)
I1105 19:33:57.464335 26899 net.cpp:96] Setting up relu5_1
I1105 19:33:57.464341 26899 net.cpp:103] Top shape: 8 512 14 14 (802816)
I1105 19:33:57.464344 26899 layer_factory.hpp:78] Creating layer conv5_2
I1105 19:33:57.464350 26899 net.cpp:67] Creating Layer conv5_2
I1105 19:33:57.464354 26899 net.cpp:394] conv5_2 <- conv5_1
I1105 19:33:57.464359 26899 net.cpp:356] conv5_2 -> conv5_2
I1105 19:33:57.464365 26899 net.cpp:96] Setting up conv5_2
I1105 19:33:57.520318 26899 net.cpp:103] Top shape: 8 512 14 14 (802816)
I1105 19:33:57.520352 26899 layer_factory.hpp:78] Creating layer relu5_2
I1105 19:33:57.520360 26899 net.cpp:67] Creating Layer relu5_2
I1105 19:33:57.520364 26899 net.cpp:394] relu5_2 <- conv5_2
I1105 19:33:57.520370 26899 net.cpp:345] relu5_2 -> conv5_2 (in-place)
I1105 19:33:57.520376 26899 net.cpp:96] Setting up relu5_2
I1105 19:33:57.520382 26899 net.cpp:103] Top shape: 8 512 14 14 (802816)
I1105 19:33:57.520385 26899 layer_factory.hpp:78] Creating layer conv5_3
I1105 19:33:57.520393 26899 net.cpp:67] Creating Layer conv5_3
I1105 19:33:57.520396 26899 net.cpp:394] conv5_3 <- conv5_2
I1105 19:33:57.520401 26899 net.cpp:356] conv5_3 -> conv5_3
I1105 19:33:57.520406 26899 net.cpp:96] Setting up conv5_3
I1105 19:33:57.576236 26899 net.cpp:103] Top shape: 8 512 14 14 (802816)
I1105 19:33:57.576269 26899 layer_factory.hpp:78] Creating layer relu5_3
I1105 19:33:57.576277 26899 net.cpp:67] Creating Layer relu5_3
I1105 19:33:57.576283 26899 net.cpp:394] relu5_3 <- conv5_3
I1105 19:33:57.576289 26899 net.cpp:345] relu5_3 -> conv5_3 (in-place)
I1105 19:33:57.576295 26899 net.cpp:96] Setting up relu5_3
I1105 19:33:57.576300 26899 net.cpp:103] Top shape: 8 512 14 14 (802816)
I1105 19:33:57.576304 26899 layer_factory.hpp:78] Creating layer pool5
I1105 19:33:57.576315 26899 net.cpp:67] Creating Layer pool5
I1105 19:33:57.576318 26899 net.cpp:394] pool5 <- conv5_3
I1105 19:33:57.576324 26899 net.cpp:356] pool5 -> pool5
I1105 19:33:57.576329 26899 net.cpp:96] Setting up pool5
I1105 19:33:57.576338 26899 net.cpp:103] Top shape: 8 512 7 7 (200704)
I1105 19:33:57.576341 26899 layer_factory.hpp:78] Creating layer fc6
I1105 19:33:57.576346 26899 net.cpp:67] Creating Layer fc6
I1105 19:33:57.576349 26899 net.cpp:394] fc6 <- pool5
I1105 19:33:57.576354 26899 net.cpp:356] fc6 -> fc6
I1105 19:33:57.576360 26899 net.cpp:96] Setting up fc6
I1105 19:34:00.033702 26899 net.cpp:103] Top shape: 8 4096 1 1 (32768)
I1105 19:34:00.033745 26899 layer_factory.hpp:78] Creating layer relu6
I1105 19:34:00.033753 26899 net.cpp:67] Creating Layer relu6
I1105 19:34:00.033757 26899 net.cpp:394] relu6 <- fc6
I1105 19:34:00.033766 26899 net.cpp:345] relu6 -> fc6 (in-place)
I1105 19:34:00.033771 26899 net.cpp:96] Setting up relu6
I1105 19:34:00.033787 26899 net.cpp:103] Top shape: 8 4096 1 1 (32768)
I1105 19:34:00.033798 26899 layer_factory.hpp:78] Creating layer drop6
I1105 19:34:00.033805 26899 net.cpp:67] Creating Layer drop6
I1105 19:34:00.033808 26899 net.cpp:394] drop6 <- fc6
I1105 19:34:00.033813 26899 net.cpp:345] drop6 -> fc6 (in-place)
I1105 19:34:00.033818 26899 net.cpp:96] Setting up drop6
I1105 19:34:00.033821 26899 net.cpp:103] Top shape: 8 4096 1 1 (32768)
I1105 19:34:00.033824 26899 layer_factory.hpp:78] Creating layer fc7
I1105 19:34:00.033829 26899 net.cpp:67] Creating Layer fc7
I1105 19:34:00.033833 26899 net.cpp:394] fc7 <- fc6
I1105 19:34:00.033838 26899 net.cpp:356] fc7 -> fc7
I1105 19:34:00.033845 26899 net.cpp:96] Setting up fc7
I1105 19:34:00.428809 26899 net.cpp:103] Top shape: 8 4096 1 1 (32768)
I1105 19:34:00.428848 26899 layer_factory.hpp:78] Creating layer relu7
I1105 19:34:00.428856 26899 net.cpp:67] Creating Layer relu7
I1105 19:34:00.428863 26899 net.cpp:394] relu7 <- fc7
I1105 19:34:00.428869 26899 net.cpp:345] relu7 -> fc7 (in-place)
I1105 19:34:00.428876 26899 net.cpp:96] Setting up relu7
I1105 19:34:00.428890 26899 net.cpp:103] Top shape: 8 4096 1 1 (32768)
I1105 19:34:00.428894 26899 layer_factory.hpp:78] Creating layer drop7
I1105 19:34:00.428900 26899 net.cpp:67] Creating Layer drop7
I1105 19:34:00.428901 26899 net.cpp:394] drop7 <- fc7
I1105 19:34:00.428906 26899 net.cpp:345] drop7 -> fc7 (in-place)
I1105 19:34:00.428910 26899 net.cpp:96] Setting up drop7
I1105 19:34:00.428915 26899 net.cpp:103] Top shape: 8 4096 1 1 (32768)
I1105 19:34:00.428917 26899 layer_factory.hpp:78] Creating layer fc8_2
I1105 19:34:00.428925 26899 net.cpp:67] Creating Layer fc8_2
I1105 19:34:00.428927 26899 net.cpp:394] fc8_2 <- fc7
I1105 19:34:00.428932 26899 net.cpp:356] fc8_2 -> fc8_2
I1105 19:34:00.428938 26899 net.cpp:96] Setting up fc8_2
I1105 19:34:00.429157 26899 net.cpp:103] Top shape: 8 2 1 1 (16)
I1105 19:34:00.429165 26899 layer_factory.hpp:78] Creating layer fc8_2_fc8_2_0_split
I1105 19:34:00.429172 26899 net.cpp:67] Creating Layer fc8_2_fc8_2_0_split
I1105 19:34:00.429174 26899 net.cpp:394] fc8_2_fc8_2_0_split <- fc8_2
I1105 19:34:00.429178 26899 net.cpp:356] fc8_2_fc8_2_0_split -> fc8_2_fc8_2_0_split_0
I1105 19:34:00.429184 26899 net.cpp:356] fc8_2_fc8_2_0_split -> fc8_2_fc8_2_0_split_1
I1105 19:34:00.429189 26899 net.cpp:96] Setting up fc8_2_fc8_2_0_split
I1105 19:34:00.429193 26899 net.cpp:103] Top shape: 8 2 1 1 (16)
I1105 19:34:00.429196 26899 net.cpp:103] Top shape: 8 2 1 1 (16)
I1105 19:34:00.429198 26899 layer_factory.hpp:78] Creating layer loss
I1105 19:34:00.429205 26899 net.cpp:67] Creating Layer loss
I1105 19:34:00.429208 26899 net.cpp:394] loss <- fc8_2_fc8_2_0_split_0
I1105 19:34:00.429213 26899 net.cpp:394] loss <- label_data_1_split_0
I1105 19:34:00.429218 26899 net.cpp:356] loss -> (automatic)
I1105 19:34:00.429229 26899 net.cpp:96] Setting up loss
I1105 19:34:00.429236 26899 net.cpp:103] Top shape: 1 1 1 1 (1)
I1105 19:34:00.429239 26899 net.cpp:109]     with loss weight 1
I1105 19:34:00.429254 26899 layer_factory.hpp:78] Creating layer accuracy
I1105 19:34:00.429262 26899 net.cpp:67] Creating Layer accuracy
I1105 19:34:00.429267 26899 net.cpp:394] accuracy <- fc8_2_fc8_2_0_split_1
I1105 19:34:00.429276 26899 net.cpp:394] accuracy <- label_data_1_split_1
I1105 19:34:00.429281 26899 net.cpp:356] accuracy -> accuracy
I1105 19:34:00.429286 26899 net.cpp:96] Setting up accuracy
I1105 19:34:00.429294 26899 net.cpp:103] Top shape: 1 1 1 4 (4)
I1105 19:34:00.429299 26899 net.cpp:172] accuracy does not need backward computation.
I1105 19:34:00.429302 26899 net.cpp:170] loss needs backward computation.
I1105 19:34:00.429306 26899 net.cpp:170] fc8_2_fc8_2_0_split needs backward computation.
I1105 19:34:00.429308 26899 net.cpp:170] fc8_2 needs backward computation.
I1105 19:34:00.429311 26899 net.cpp:170] drop7 needs backward computation.
…
