…
I1106 04:57:23.864856  3752 net.cpp:275] The NetState phase (0) differed from the phase (1) specified by a rule in layer accuracy
I1106 04:57:23.865039  3752 net.cpp:39] Initializing net from parameters: 
name: "small"
layers {
  top: "data"
  top: "label"
  name: "data"
  type: IMAGE_DATA
  image_data_param {
    source: "/data/ad6813/devCaffe/caffe/data/inadcl/train.txt"
    batch_size: 32
    new_height: 256
    new_width: 256
  }
  include {
    phase: TRAIN
  }
  transform_param {
    mirror: true
    crop_size: 224
    mean_value: 86.752
    mean_value: 101.46
    mean_value: 104.6
  }
}
layers {
  bottom: "data"
  top: "conv1_1"
  name: "conv1_1"
  type: CONVOLUTION
  convolution_param {
    num_output: 64
    pad: 1
    kernel_size: 3
    weight_filler {
      type: "gaussian"
      std: 0.01
    }
    bias_filler {
      type: "constant"
      value: 0
    }
  }
}
layers {
  bottom: "conv1_1"
  top: "conv1_1"
  name: "relu1_1"
  type: RELU
}
layers {
  bottom: "conv1_1"
  top: "conv1_2"
  name: "conv1_2"
  type: CONVOLUTION
  convolution_param {
    num_output: 64
    pad: 1
    kernel_size: 3
    weight_filler {
      type: "gaussian"
      std: 0.01
    }
    bias_filler {
      type: "constant"
      value: 0
    }
  }
}
layers {
  bottom: "conv1_2"
  top: "conv1_2"
  name: "relu1_2"
  type: RELU
}
layers {
  bottom: "conv1_2"
  top: "pool1"
  name: "pool1"
  type: POOLING
  pooling_param {
    pool: MAX
    kernel_size: 2
    stride: 2
  }
}
layers {
  bottom: "pool1"
  top: "conv2_1"
  name: "conv2_1"
  type: CONVOLUTION
  convolution_param {
    num_output: 128
    pad: 1
    kernel_size: 3
    weight_filler {
      type: "gaussian"
      std: 0.01
    }
    bias_filler {
      type: "constant"
      value: 0
    }
  }
}
layers {
  bottom: "conv2_1"
  top: "conv2_1"
  name: "relu2_1"
  type: RELU
}
layers {
  bottom: "conv2_1"
  top: "conv2_2"
  name: "conv2_2"
  type: CONVOLUTION
  convolution_param {
    num_output: 128
    pad: 1
    kernel_size: 3
    weight_filler {
      type: "gaussian"
      std: 0.01
    }
    bias_filler {
      type: "constant"
      value: 0
    }
  }
}
layers {
  bottom: "conv2_2"
  top: "conv2_2"
  name: "relu2_2"
  type: RELU
}
layers {
  bottom: "conv2_2"
  top: "pool2"
  name: "pool2"
  type: POOLING
  pooling_param {
    pool: MAX
    kernel_size: 2
    stride: 2
  }
}
layers {
  bottom: "pool2"
  top: "conv3_1"
  name: "conv3_1"
  type: CONVOLUTION
  convolution_param {
    num_output: 256
    pad: 1
    kernel_size: 3
    weight_filler {
      type: "gaussian"
      std: 0.01
    }
    bias_filler {
      type: "constant"
      value: 0
    }
  }
}
layers {
  bottom: "conv3_1"
  top: "conv3_1"
  name: "relu3_1"
  type: RELU
}
layers {
  bottom: "conv3_1"
  top: "conv3_2"
  name: "conv3_2"
  type: CONVOLUTION
  convolution_param {
    num_output: 256
    pad: 1
    kernel_size: 3
    weight_filler {
      type: "gaussian"
      std: 0.01
    }
    bias_filler {
      type: "constant"
      value: 0
    }
  }
}
layers {
  bottom: "conv3_2"
  top: "conv3_2"
  name: "relu3_2"
  type: RELU
}
layers {
  bottom: "conv3_2"
  top: "conv3_3"
  name: "conv3_3"
  type: CONVOLUTION
  convolution_param {
    num_output: 256
    pad: 1
    kernel_size: 3
    weight_filler {
      type: "gaussian"
      std: 0.01
    }
    bias_filler {
      type: "constant"
      value: 0
    }
  }
}
layers {
  bottom: "conv3_3"
  top: "conv3_3"
  name: "relu3_3"
  type: RELU
}
layers {
  bottom: "conv3_3"
  top: "pool3"
  name: "pool3"
  type: POOLING
  pooling_param {
    pool: MAX
    kernel_size: 2
    stride: 2
  }
}
layers {
  bottom: "pool3"
  top: "conv4_1"
  name: "conv4_1"
  type: CONVOLUTION
  convolution_param {
    num_output: 512
    pad: 1
    kernel_size: 3
    weight_filler {
      type: "gaussian"
      std: 0.01
    }
    bias_filler {
      type: "constant"
      value: 0
    }
  }
}
layers {
  bottom: "conv4_1"
  top: "conv4_1"
  name: "relu4_1"
  type: RELU
}
layers {
  bottom: "conv4_1"
  top: "conv4_2"
  name: "conv4_2"
  type: CONVOLUTION
  convolution_param {
    num_output: 512
    pad: 1
    kernel_size: 3
    weight_filler {
      type: "gaussian"
      std: 0.01
    }
    bias_filler {
      type: "constant"
      value: 0
    }
  }
}
layers {
  bottom: "conv4_2"
  top: "conv4_2"
  name: "relu4_2"
  type: RELU
}
layers {
  bottom: "conv4_2"
  top: "conv4_3"
  name: "conv4_3"
  type: CONVOLUTION
  convolution_param {
    num_output: 512
    pad: 1
    kernel_size: 3
    weight_filler {
      type: "gaussian"
      std: 0.01
    }
    bias_filler {
      type: "constant"
      value: 0
    }
  }
}
layers {
  bottom: "conv4_3"
  top: "conv4_3"
  name: "relu4_3"
  type: RELU
}
layers {
  bottom: "conv4_3"
  top: "pool4"
  name: "pool4"
  type: POOLING
  pooling_param {
    pool: MAX
    kernel_size: 2
    stride: 2
  }
}
layers {
  bottom: "pool4"
  top: "conv5_1"
  name: "conv5_1"
  type: CONVOLUTION
  convolution_param {
    num_output: 512
    pad: 1
    kernel_size: 3
    weight_filler {
      type: "gaussian"
      std: 0.01
    }
    bias_filler {
      type: "constant"
      value: 0
    }
  }
}
layers {
  bottom: "conv5_1"
  top: "conv5_1"
  name: "relu5_1"
  type: RELU
}
layers {
  bottom: "conv5_1"
  top: "conv5_2"
  name: "conv5_2"
  type: CONVOLUTION
  convolution_param {
    num_output: 512
    pad: 1
    kernel_size: 3
    weight_filler {
      type: "gaussian"
      std: 0.01
    }
    bias_filler {
      type: "constant"
      value: 0
    }
  }
}
layers {
  bottom: "conv5_2"
  top: "conv5_2"
  name: "relu5_2"
  type: RELU
}
layers {
  bottom: "conv5_2"
  top: "conv5_3"
  name: "conv5_3"
  type: CONVOLUTION
  convolution_param {
    num_output: 512
    pad: 1
    kernel_size: 3
    weight_filler {
      type: "gaussian"
      std: 0.01
    }
    bias_filler {
      type: "constant"
      value: 0
    }
  }
}
layers {
  bottom: "conv5_3"
  top: "conv5_3"
  name: "relu5_3"
  type: RELU
}
layers {
  bottom: "conv5_3"
  top: "pool5"
  name: "pool5"
  type: POOLING
  pooling_param {
    pool: MAX
    kernel_size: 2
    stride: 2
  }
}
layers {
  bottom: "pool5"
  top: "fc6"
  name: "fc6"
  type: INNER_PRODUCT
  inner_product_param {
    num_output: 4096
    weight_filler {
      type: "gaussian"
      std: 0.01
    }
    bias_filler {
      type: "constant"
      value: 0
    }
  }
}
layers {
  bottom: "fc6"
  top: "fc6"
  name: "relu6"
  type: RELU
}
layers {
  bottom: "fc6"
  top: "fc6"
  name: "drop6"
  type: DROPOUT
  dropout_param {
    dropout_ratio: 0.5
  }
}
layers {
  bottom: "fc6"
  top: "fc7"
  name: "fc7"
  type: INNER_PRODUCT
  inner_product_param {
    num_output: 4096
    weight_filler {
      type: "gaussian"
      std: 0.01
    }
    bias_filler {
      type: "constant"
      value: 0
    }
  }
}
layers {
  bottom: "fc7"
  top: "fc7"
  name: "relu7"
  type: RELU
}
layers {
  bottom: "fc7"
  top: "fc7"
  name: "drop7"
  type: DROPOUT
  dropout_param {
    dropout_ratio: 0.5
  }
}
layers {
  bottom: "fc7"
  top: "fc8_2"
  name: "fc8_2"
  type: INNER_PRODUCT
  inner_product_param {
    num_output: 2
    weight_filler {
      type: "gaussian"
      std: 0.01
    }
    bias_filler {
      type: "constant"
      value: 0
    }
  }
}
layers {
  bottom: "fc8_2"
  bottom: "label"
  name: "loss"
  type: SOFTMAX_LOSS
}
state {
  phase: TRAIN
}
I1106 04:57:23.865169  3752 layer_factory.hpp:78] Creating layer data
I1106 04:57:23.865186  3752 net.cpp:67] Creating Layer data
I1106 04:57:23.865197  3752 net.cpp:356] data -> data
I1106 04:57:23.865213  3752 net.cpp:356] data -> label
I1106 04:57:23.865226  3752 net.cpp:96] Setting up data
I1106 04:57:23.865232  3752 image_data_layer.cpp:34] Opening file /data/ad6813/devCaffe/caffe/data/inadcl/train.txt
I1106 04:57:23.868598  3752 image_data_layer.cpp:49] A total of 9113 images.
E1106 04:57:23.868634  3752 io.cpp:75] Could not open or find file /data/ad6813/pipe-data/Redbox106293.jpg
I1106 04:57:23.868712  3752 image_data_layer.cpp:78] output data size: 32,1,224,224
I1106 04:57:23.870337  3752 net.cpp:103] Top shape: 32 1 224 224 (1605632)
I1106 04:57:23.870352  3752 net.cpp:103] Top shape: 32 1 1 1 (32)
I1106 04:57:23.870357  3752 layer_factory.hpp:78] Creating layer conv1_1
I1106 04:57:23.870378  3752 net.cpp:67] Creating Layer conv1_1
I1106 04:57:23.870383  3752 net.cpp:394] conv1_1 <- data
I1106 04:57:23.870395  3752 net.cpp:356] conv1_1 -> conv1_1
I1106 04:57:23.870405  3752 net.cpp:96] Setting up conv1_1
E1106 04:57:23.877765  3755 io.cpp:75] Could not open or find file /data/ad6813/pipe-data/Redbox106293.jpg
…
E1106 04:57:23.877943  3755 io.cpp:75] Could not open or find file /data/ad6813/pipe-data/Redbox106293.jpg
E1106 04:57:23.877948  3755 io.cpp:75] Could not open or find file /data/ad6813/pipe-data/Redbox106293.jpg
E1106 04:57:23.877954  3755 io.cpp:75] Could not open or find file /data/ad6813/pipe-data/Redbox106293.jpg
E1106 04:57:23.877970  3755 io.cpp:75] Could not open or find file /data/ad6813/pipe-data/Redbox106293.jpg
E1106 04:57:23.877982  3755 io.cpp:75] Could not open or find file /data/ad6813/pipe-data/Redbox106293.jpg
E1106 04:57:23.877989  3755 io.cpp:75] Could not open or find file /data/ad6813/pipe-data/Redbox106293.jpg
I1106 04:57:23.894915  3752 net.cpp:103] Top shape: 32 64 224 224 (102760448)
I1106 04:57:23.894963  3752 layer_factory.hpp:78] Creating layer relu1_1
I1106 04:57:23.894975  3752 net.cpp:67] Creating Layer relu1_1
I1106 04:57:23.894980  3752 net.cpp:394] relu1_1 <- conv1_1
I1106 04:57:23.894987  3752 net.cpp:345] relu1_1 -> conv1_1 (in-place)
I1106 04:57:23.894996  3752 net.cpp:96] Setting up relu1_1
I1106 04:57:23.895005  3752 net.cpp:103] Top shape: 32 64 224 224 (102760448)
I1106 04:57:23.895009  3752 layer_factory.hpp:78] Creating layer conv1_2
I1106 04:57:23.895016  3752 net.cpp:67] Creating Layer conv1_2
I1106 04:57:23.895020  3752 net.cpp:394] conv1_2 <- conv1_1
I1106 04:57:23.895025  3752 net.cpp:356] conv1_2 -> conv1_2
I1106 04:57:23.895031  3752 net.cpp:96] Setting up conv1_2
I1106 04:57:23.896082  3752 net.cpp:103] Top shape: 32 64 224 224 (102760448)
I1106 04:57:23.896096  3752 layer_factory.hpp:78] Creating layer relu1_2
I1106 04:57:23.896102  3752 net.cpp:67] Creating Layer relu1_2
I1106 04:57:23.896106  3752 net.cpp:394] relu1_2 <- conv1_2
I1106 04:57:23.896111  3752 net.cpp:345] relu1_2 -> conv1_2 (in-place)
I1106 04:57:23.896116  3752 net.cpp:96] Setting up relu1_2
I1106 04:57:23.896121  3752 net.cpp:103] Top shape: 32 64 224 224 (102760448)
I1106 04:57:23.896124  3752 layer_factory.hpp:78] Creating layer pool1
I1106 04:57:23.896134  3752 net.cpp:67] Creating Layer pool1
I1106 04:57:23.896137  3752 net.cpp:394] pool1 <- conv1_2
I1106 04:57:23.896142  3752 net.cpp:356] pool1 -> pool1
I1106 04:57:23.896148  3752 net.cpp:96] Setting up pool1
I1106 04:57:23.896164  3752 net.cpp:103] Top shape: 32 64 112 112 (25690112)
I1106 04:57:23.896169  3752 layer_factory.hpp:78] Creating layer conv2_1
I1106 04:57:23.896177  3752 net.cpp:67] Creating Layer conv2_1
I1106 04:57:23.896180  3752 net.cpp:394] conv2_1 <- pool1
I1106 04:57:23.896185  3752 net.cpp:356] conv2_1 -> conv2_1
I1106 04:57:23.896190  3752 net.cpp:96] Setting up conv2_1
I1106 04:57:23.898093  3752 net.cpp:103] Top shape: 32 128 112 112 (51380224)
I1106 04:57:23.898107  3752 layer_factory.hpp:78] Creating layer relu2_1
I1106 04:57:23.898111  3752 net.cpp:67] Creating Layer relu2_1
I1106 04:57:23.898115  3752 net.cpp:394] relu2_1 <- conv2_1
I1106 04:57:23.898119  3752 net.cpp:345] relu2_1 -> conv2_1 (in-place)
I1106 04:57:23.898124  3752 net.cpp:96] Setting up relu2_1
I1106 04:57:23.898130  3752 net.cpp:103] Top shape: 32 128 112 112 (51380224)
I1106 04:57:23.898133  3752 layer_factory.hpp:78] Creating layer conv2_2
I1106 04:57:23.898141  3752 net.cpp:67] Creating Layer conv2_2
I1106 04:57:23.898144  3752 net.cpp:394] conv2_2 <- conv2_1
I1106 04:57:23.898149  3752 net.cpp:356] conv2_2 -> conv2_2
I1106 04:57:23.898155  3752 net.cpp:96] Setting up conv2_2
I1106 04:57:23.901893  3752 net.cpp:103] Top shape: 32 128 112 112 (51380224)
I1106 04:57:23.901906  3752 layer_factory.hpp:78] Creating layer relu2_2
I1106 04:57:23.901911  3752 net.cpp:67] Creating Layer relu2_2
I1106 04:57:23.901913  3752 net.cpp:394] relu2_2 <- conv2_2
I1106 04:57:23.901918  3752 net.cpp:345] relu2_2 -> conv2_2 (in-place)
I1106 04:57:23.901923  3752 net.cpp:96] Setting up relu2_2
I1106 04:57:23.901928  3752 net.cpp:103] Top shape: 32 128 112 112 (51380224)
I1106 04:57:23.901932  3752 layer_factory.hpp:78] Creating layer pool2
I1106 04:57:23.901937  3752 net.cpp:67] Creating Layer pool2
I1106 04:57:23.901940  3752 net.cpp:394] pool2 <- conv2_2
I1106 04:57:23.901947  3752 net.cpp:356] pool2 -> pool2
I1106 04:57:23.901952  3752 net.cpp:96] Setting up pool2
I1106 04:57:23.901958  3752 net.cpp:103] Top shape: 32 128 56 56 (12845056)
I1106 04:57:23.901962  3752 layer_factory.hpp:78] Creating layer conv3_1
I1106 04:57:23.901968  3752 net.cpp:67] Creating Layer conv3_1
I1106 04:57:23.901981  3752 net.cpp:394] conv3_1 <- pool2
I1106 04:57:23.901994  3752 net.cpp:356] conv3_1 -> conv3_1
I1106 04:57:23.902000  3752 net.cpp:96] Setting up conv3_1
I1106 04:57:23.909404  3752 net.cpp:103] Top shape: 32 256 56 56 (25690112)
I1106 04:57:23.909420  3752 layer_factory.hpp:78] Creating layer relu3_1
I1106 04:57:23.909425  3752 net.cpp:67] Creating Layer relu3_1
I1106 04:57:23.909430  3752 net.cpp:394] relu3_1 <- conv3_1
I1106 04:57:23.909433  3752 net.cpp:345] relu3_1 -> conv3_1 (in-place)
I1106 04:57:23.909440  3752 net.cpp:96] Setting up relu3_1
I1106 04:57:23.909445  3752 net.cpp:103] Top shape: 32 256 56 56 (25690112)
I1106 04:57:23.909447  3752 layer_factory.hpp:78] Creating layer conv3_2
I1106 04:57:23.909453  3752 net.cpp:67] Creating Layer conv3_2
I1106 04:57:23.909456  3752 net.cpp:394] conv3_2 <- conv3_1
I1106 04:57:23.909462  3752 net.cpp:356] conv3_2 -> conv3_2
I1106 04:57:23.909468  3752 net.cpp:96] Setting up conv3_2
I1106 04:57:23.924295  3752 net.cpp:103] Top shape: 32 256 56 56 (25690112)
I1106 04:57:23.924309  3752 layer_factory.hpp:78] Creating layer relu3_2
I1106 04:57:23.924316  3752 net.cpp:67] Creating Layer relu3_2
I1106 04:57:23.924320  3752 net.cpp:394] relu3_2 <- conv3_2
I1106 04:57:23.924325  3752 net.cpp:345] relu3_2 -> conv3_2 (in-place)
I1106 04:57:23.924331  3752 net.cpp:96] Setting up relu3_2
I1106 04:57:23.924336  3752 net.cpp:103] Top shape: 32 256 56 56 (25690112)
I1106 04:57:23.924340  3752 layer_factory.hpp:78] Creating layer conv3_3
I1106 04:57:23.924345  3752 net.cpp:67] Creating Layer conv3_3
I1106 04:57:23.924350  3752 net.cpp:394] conv3_3 <- conv3_2
I1106 04:57:23.924353  3752 net.cpp:356] conv3_3 -> conv3_3
I1106 04:57:23.924360  3752 net.cpp:96] Setting up conv3_3
I1106 04:57:23.939081  3752 net.cpp:103] Top shape: 32 256 56 56 (25690112)
I1106 04:57:23.939095  3752 layer_factory.hpp:78] Creating layer relu3_3
I1106 04:57:23.939103  3752 net.cpp:67] Creating Layer relu3_3
I1106 04:57:23.939107  3752 net.cpp:394] relu3_3 <- conv3_3
I1106 04:57:23.939112  3752 net.cpp:345] relu3_3 -> conv3_3 (in-place)
I1106 04:57:23.939117  3752 net.cpp:96] Setting up relu3_3
I1106 04:57:23.939122  3752 net.cpp:103] Top shape: 32 256 56 56 (25690112)
I1106 04:57:23.939126  3752 layer_factory.hpp:78] Creating layer pool3
I1106 04:57:23.939131  3752 net.cpp:67] Creating Layer pool3
I1106 04:57:23.939134  3752 net.cpp:394] pool3 <- conv3_3
I1106 04:57:23.939139  3752 net.cpp:356] pool3 -> pool3
I1106 04:57:23.939144  3752 net.cpp:96] Setting up pool3
I1106 04:57:23.939151  3752 net.cpp:103] Top shape: 32 256 28 28 (6422528)
I1106 04:57:23.939154  3752 layer_factory.hpp:78] Creating layer conv4_1
I1106 04:57:23.939160  3752 net.cpp:67] Creating Layer conv4_1
I1106 04:57:23.939164  3752 net.cpp:394] conv4_1 <- pool3
I1106 04:57:23.939169  3752 net.cpp:356] conv4_1 -> conv4_1
I1106 04:57:23.939174  3752 net.cpp:96] Setting up conv4_1
I1106 04:57:23.968169  3752 net.cpp:103] Top shape: 32 512 28 28 (12845056)
I1106 04:57:23.968185  3752 layer_factory.hpp:78] Creating layer relu4_1
I1106 04:57:23.968190  3752 net.cpp:67] Creating Layer relu4_1
I1106 04:57:23.968194  3752 net.cpp:394] relu4_1 <- conv4_1
I1106 04:57:23.968199  3752 net.cpp:345] relu4_1 -> conv4_1 (in-place)
I1106 04:57:23.968204  3752 net.cpp:96] Setting up relu4_1
I1106 04:57:23.968210  3752 net.cpp:103] Top shape: 32 512 28 28 (12845056)
I1106 04:57:23.968214  3752 layer_factory.hpp:78] Creating layer conv4_2
I1106 04:57:23.968220  3752 net.cpp:67] Creating Layer conv4_2
I1106 04:57:23.968225  3752 net.cpp:394] conv4_2 <- conv4_1
I1106 04:57:23.968231  3752 net.cpp:356] conv4_2 -> conv4_2
I1106 04:57:23.968236  3752 net.cpp:96] Setting up conv4_2
I1106 04:57:24.025903  3752 net.cpp:103] Top shape: 32 512 28 28 (12845056)
I1106 04:57:24.025939  3752 layer_factory.hpp:78] Creating layer relu4_2
I1106 04:57:24.025950  3752 net.cpp:67] Creating Layer relu4_2
I1106 04:57:24.025955  3752 net.cpp:394] relu4_2 <- conv4_2
I1106 04:57:24.025961  3752 net.cpp:345] relu4_2 -> conv4_2 (in-place)
I1106 04:57:24.025969  3752 net.cpp:96] Setting up relu4_2
I1106 04:57:24.025985  3752 net.cpp:103] Top shape: 32 512 28 28 (12845056)
I1106 04:57:24.025995  3752 layer_factory.hpp:78] Creating layer conv4_3
I1106 04:57:24.026003  3752 net.cpp:67] Creating Layer conv4_3
I1106 04:57:24.026006  3752 net.cpp:394] conv4_3 <- conv4_2
I1106 04:57:24.026012  3752 net.cpp:356] conv4_3 -> conv4_3
I1106 04:57:24.026018  3752 net.cpp:96] Setting up conv4_3
I1106 04:57:24.083343  3752 net.cpp:103] Top shape: 32 512 28 28 (12845056)
I1106 04:57:24.083376  3752 layer_factory.hpp:78] Creating layer relu4_3
I1106 04:57:24.083384  3752 net.cpp:67] Creating Layer relu4_3
I1106 04:57:24.083390  3752 net.cpp:394] relu4_3 <- conv4_3
I1106 04:57:24.083400  3752 net.cpp:345] relu4_3 -> conv4_3 (in-place)
I1106 04:57:24.083406  3752 net.cpp:96] Setting up relu4_3
I1106 04:57:24.083413  3752 net.cpp:103] Top shape: 32 512 28 28 (12845056)
I1106 04:57:24.083416  3752 layer_factory.hpp:78] Creating layer pool4
I1106 04:57:24.083422  3752 net.cpp:67] Creating Layer pool4
I1106 04:57:24.083426  3752 net.cpp:394] pool4 <- conv4_3
I1106 04:57:24.083431  3752 net.cpp:356] pool4 -> pool4
I1106 04:57:24.083436  3752 net.cpp:96] Setting up pool4
I1106 04:57:24.083444  3752 net.cpp:103] Top shape: 32 512 14 14 (3211264)
I1106 04:57:24.083448  3752 layer_factory.hpp:78] Creating layer conv5_1
I1106 04:57:24.083456  3752 net.cpp:67] Creating Layer conv5_1
I1106 04:57:24.083459  3752 net.cpp:394] conv5_1 <- pool4
I1106 04:57:24.083466  3752 net.cpp:356] conv5_1 -> conv5_1
I1106 04:57:24.083473  3752 net.cpp:96] Setting up conv5_1
I1106 04:57:24.141242  3752 net.cpp:103] Top shape: 32 512 14 14 (3211264)
I1106 04:57:24.141275  3752 layer_factory.hpp:78] Creating layer relu5_1
I1106 04:57:24.141283  3752 net.cpp:67] Creating Layer relu5_1
I1106 04:57:24.141288  3752 net.cpp:394] relu5_1 <- conv5_1
I1106 04:57:24.141296  3752 net.cpp:345] relu5_1 -> conv5_1 (in-place)
I1106 04:57:24.141304  3752 net.cpp:96] Setting up relu5_1
I1106 04:57:24.141310  3752 net.cpp:103] Top shape: 32 512 14 14 (3211264)
I1106 04:57:24.141314  3752 layer_factory.hpp:78] Creating layer conv5_2
I1106 04:57:24.141320  3752 net.cpp:67] Creating Layer conv5_2
I1106 04:57:24.141324  3752 net.cpp:394] conv5_2 <- conv5_1
I1106 04:57:24.141330  3752 net.cpp:356] conv5_2 -> conv5_2
I1106 04:57:24.141336  3752 net.cpp:96] Setting up conv5_2
I1106 04:57:24.198664  3752 net.cpp:103] Top shape: 32 512 14 14 (3211264)
I1106 04:57:24.198698  3752 layer_factory.hpp:78] Creating layer relu5_2
I1106 04:57:24.198705  3752 net.cpp:67] Creating Layer relu5_2
I1106 04:57:24.198710  3752 net.cpp:394] relu5_2 <- conv5_2
I1106 04:57:24.198717  3752 net.cpp:345] relu5_2 -> conv5_2 (in-place)
I1106 04:57:24.198726  3752 net.cpp:96] Setting up relu5_2
I1106 04:57:24.198731  3752 net.cpp:103] Top shape: 32 512 14 14 (3211264)
I1106 04:57:24.198735  3752 layer_factory.hpp:78] Creating layer conv5_3
I1106 04:57:24.198741  3752 net.cpp:67] Creating Layer conv5_3
I1106 04:57:24.198745  3752 net.cpp:394] conv5_3 <- conv5_2
I1106 04:57:24.198750  3752 net.cpp:356] conv5_3 -> conv5_3
I1106 04:57:24.198755  3752 net.cpp:96] Setting up conv5_3
I1106 04:57:24.256397  3752 net.cpp:103] Top shape: 32 512 14 14 (3211264)
I1106 04:57:24.256428  3752 layer_factory.hpp:78] Creating layer relu5_3
I1106 04:57:24.256436  3752 net.cpp:67] Creating Layer relu5_3
I1106 04:57:24.256441  3752 net.cpp:394] relu5_3 <- conv5_3
I1106 04:57:24.256448  3752 net.cpp:345] relu5_3 -> conv5_3 (in-place)
I1106 04:57:24.256455  3752 net.cpp:96] Setting up relu5_3
I1106 04:57:24.256461  3752 net.cpp:103] Top shape: 32 512 14 14 (3211264)
I1106 04:57:24.256465  3752 layer_factory.hpp:78] Creating layer pool5
I1106 04:57:24.256471  3752 net.cpp:67] Creating Layer pool5
I1106 04:57:24.256474  3752 net.cpp:394] pool5 <- conv5_3
I1106 04:57:24.256479  3752 net.cpp:356] pool5 -> pool5
I1106 04:57:24.256487  3752 net.cpp:96] Setting up pool5
I1106 04:57:24.256495  3752 net.cpp:103] Top shape: 32 512 7 7 (802816)
I1106 04:57:24.256500  3752 layer_factory.hpp:78] Creating layer fc6
I1106 04:57:24.256523  3752 net.cpp:67] Creating Layer fc6
I1106 04:57:24.256527  3752 net.cpp:394] fc6 <- pool5
I1106 04:57:24.256543  3752 net.cpp:356] fc6 -> fc6
I1106 04:57:24.256549  3752 net.cpp:96] Setting up fc6
I1106 18:13:53.727416  9798 caffe.cpp:99] Use GPU with device ID 0
I1106 18:13:54.747215  9798 caffe.cpp:107] Starting Optimization
…
I1106 18:13:54.748129  9798 net.cpp:275] The NetState phase (0) differed from the phase (1) specified by a rule in layer accuracy
I1106 18:13:54.748316  9798 net.cpp:39] Initializing net from parameters: 
name: "small"
layers {
  top: "data"
  top: "label"
  name: "data"
  type: IMAGE_DATA
  image_data_param {
    source: "/data/ad6813/devCaffe/caffe/data/soil_high/train.txt"
    batch_size: 32
    new_height: 256
    new_width: 256
  }
  include {
    phase: TRAIN
  }
  transform_param {
    mirror: true
    crop_size: 224
    mean_value: 86.752
    mean_value: 101.46
    mean_value: 104.6
  }
}
layers {
  bottom: "data"
  top: "conv1_1"
  name: "conv1_1"
  type: CONVOLUTION
  convolution_param {
    num_output: 64
    pad: 1
    kernel_size: 3
    weight_filler {
      type: "gaussian"
      std: 0.01
    }
    bias_filler {
      type: "constant"
      value: 0
    }
  }
}
layers {
  bottom: "conv1_1"
  top: "conv1_1"
  name: "relu1_1"
  type: RELU
}
layers {
  bottom: "conv1_1"
  top: "conv1_2"
  name: "conv1_2"
  type: CONVOLUTION
  convolution_param {
    num_output: 64
    pad: 1
    kernel_size: 3
    weight_filler {
      type: "gaussian"
      std: 0.01
    }
    bias_filler {
      type: "constant"
      value: 0
    }
  }
}
layers {
  bottom: "conv1_2"
  top: "conv1_2"
  name: "relu1_2"
  type: RELU
}
layers {
  bottom: "conv1_2"
  top: "pool1"
  name: "pool1"
  type: POOLING
  pooling_param {
    pool: MAX
    kernel_size: 2
    stride: 2
  }
}
layers {
  bottom: "pool1"
  top: "conv2_1"
  name: "conv2_1"
  type: CONVOLUTION
  convolution_param {
    num_output: 128
    pad: 1
    kernel_size: 3
    weight_filler {
      type: "gaussian"
      std: 0.01
    }
    bias_filler {
      type: "constant"
      value: 0
    }
  }
}
layers {
  bottom: "conv2_1"
  top: "conv2_1"
  name: "relu2_1"
  type: RELU
}
layers {
  bottom: "conv2_1"
  top: "conv2_2"
  name: "conv2_2"
  type: CONVOLUTION
  convolution_param {
    num_output: 128
    pad: 1
    kernel_size: 3
    weight_filler {
      type: "gaussian"
      std: 0.01
    }
    bias_filler {
      type: "constant"
      value: 0
    }
  }
}
layers {
  bottom: "conv2_2"
  top: "conv2_2"
  name: "relu2_2"
  type: RELU
}
layers {
  bottom: "conv2_2"
  top: "pool2"
  name: "pool2"
  type: POOLING
  pooling_param {
    pool: MAX
    kernel_size: 2
    stride: 2
  }
}
layers {
  bottom: "pool2"
  top: "conv3_1"
  name: "conv3_1"
  type: CONVOLUTION
  convolution_param {
    num_output: 256
    pad: 1
    kernel_size: 3
    weight_filler {
      type: "gaussian"
      std: 0.01
    }
    bias_filler {
      type: "constant"
      value: 0
    }
  }
}
layers {
  bottom: "conv3_1"
  top: "conv3_1"
  name: "relu3_1"
  type: RELU
}
layers {
  bottom: "conv3_1"
  top: "conv3_2"
  name: "conv3_2"
  type: CONVOLUTION
  convolution_param {
    num_output: 256
    pad: 1
    kernel_size: 3
    weight_filler {
      type: "gaussian"
      std: 0.01
    }
    bias_filler {
      type: "constant"
      value: 0
    }
  }
}
layers {
  bottom: "conv3_2"
  top: "conv3_2"
  name: "relu3_2"
  type: RELU
}
layers {
  bottom: "conv3_2"
  top: "conv3_3"
  name: "conv3_3"
  type: CONVOLUTION
  convolution_param {
    num_output: 256
    pad: 1
    kernel_size: 3
    weight_filler {
      type: "gaussian"
      std: 0.01
    }
    bias_filler {
      type: "constant"
      value: 0
    }
  }
}
layers {
  bottom: "conv3_3"
  top: "conv3_3"
  name: "relu3_3"
  type: RELU
}
layers {
  bottom: "conv3_3"
  top: "pool3"
  name: "pool3"
  type: POOLING
  pooling_param {
    pool: MAX
    kernel_size: 2
    stride: 2
  }
}
layers {
  bottom: "pool3"
  top: "conv4_1"
  name: "conv4_1"
  type: CONVOLUTION
  convolution_param {
    num_output: 512
    pad: 1
    kernel_size: 3
    weight_filler {
      type: "gaussian"
      std: 0.01
    }
    bias_filler {
      type: "constant"
      value: 0
    }
  }
}
layers {
  bottom: "conv4_1"
  top: "conv4_1"
  name: "relu4_1"
  type: RELU
}
layers {
  bottom: "conv4_1"
  top: "conv4_2"
  name: "conv4_2"
  type: CONVOLUTION
  convolution_param {
    num_output: 512
    pad: 1
    kernel_size: 3
    weight_filler {
      type: "gaussian"
      std: 0.01
    }
    bias_filler {
      type: "constant"
      value: 0
    }
  }
}
layers {
  bottom: "conv4_2"
  top: "conv4_2"
  name: "relu4_2"
  type: RELU
}
layers {
  bottom: "conv4_2"
  top: "conv4_3"
  name: "conv4_3"
  type: CONVOLUTION
  convolution_param {
    num_output: 512
    pad: 1
    kernel_size: 3
    weight_filler {
      type: "gaussian"
      std: 0.01
    }
    bias_filler {
      type: "constant"
      value: 0
    }
  }
}
layers {
  bottom: "conv4_3"
  top: "conv4_3"
  name: "relu4_3"
  type: RELU
}
layers {
  bottom: "conv4_3"
  top: "pool4"
  name: "pool4"
  type: POOLING
  pooling_param {
    pool: MAX
    kernel_size: 2
    stride: 2
  }
}
layers {
  bottom: "pool4"
  top: "conv5_1"
  name: "conv5_1"
  type: CONVOLUTION
  convolution_param {
    num_output: 512
    pad: 1
    kernel_size: 3
    weight_filler {
      type: "gaussian"
      std: 0.01
    }
    bias_filler {
      type: "constant"
      value: 0
    }
  }
}
layers {
  bottom: "conv5_1"
  top: "conv5_1"
  name: "relu5_1"
  type: RELU
}
layers {
  bottom: "conv5_1"
  top: "conv5_2"
  name: "conv5_2"
  type: CONVOLUTION
  convolution_param {
    num_output: 512
    pad: 1
    kernel_size: 3
    weight_filler {
      type: "gaussian"
      std: 0.01
    }
    bias_filler {
      type: "constant"
      value: 0
    }
  }
}
layers {
  bottom: "conv5_2"
  top: "conv5_2"
  name: "relu5_2"
  type: RELU
}
layers {
  bottom: "conv5_2"
  top: "conv5_3"
  name: "conv5_3"
  type: CONVOLUTION
  convolution_param {
    num_output: 512
    pad: 1
    kernel_size: 3
    weight_filler {
      type: "gaussian"
      std: 0.01
    }
    bias_filler {
      type: "constant"
      value: 0
    }
  }
}
layers {
  bottom: "conv5_3"
  top: "conv5_3"
  name: "relu5_3"
  type: RELU
}
layers {
  bottom: "conv5_3"
  top: "pool5"
  name: "pool5"
  type: POOLING
  pooling_param {
    pool: MAX
    kernel_size: 2
    stride: 2
  }
}
layers {
  bottom: "pool5"
  top: "fc6"
  name: "fc6"
  type: INNER_PRODUCT
  inner_product_param {
    num_output: 4096
    weight_filler {
      type: "gaussian"
      std: 0.01
    }
    bias_filler {
      type: "constant"
      value: 0
    }
  }
}
layers {
  bottom: "fc6"
  top: "fc6"
  name: "relu6"
  type: RELU
}
layers {
  bottom: "fc6"
  top: "fc6"
  name: "drop6"
  type: DROPOUT
  dropout_param {
    dropout_ratio: 0.5
  }
}
layers {
  bottom: "fc6"
  top: "fc7"
  name: "fc7"
  type: INNER_PRODUCT
  inner_product_param {
    num_output: 4096
    weight_filler {
      type: "gaussian"
      std: 0.01
    }
    bias_filler {
      type: "constant"
      value: 0
    }
  }
}
layers {
  bottom: "fc7"
  top: "fc7"
  name: "relu7"
  type: RELU
}
layers {
  bottom: "fc7"
  top: "fc7"
  name: "drop7"
  type: DROPOUT
  dropout_param {
    dropout_ratio: 0.5
  }
}
layers {
  bottom: "fc7"
  top: "fc8_2"
  name: "fc8_2"
  type: INNER_PRODUCT
  inner_product_param {
    num_output: 2
    weight_filler {
      type: "gaussian"
      std: 0.01
    }
    bias_filler {
      type: "constant"
      value: 0
    }
  }
}
layers {
  bottom: "fc8_2"
  bottom: "label"
  name: "loss"
  type: SOFTMAX_LOSS
}
state {
  phase: TRAIN
}
I1106 18:13:54.748440  9798 layer_factory.hpp:78] Creating layer data
I1106 18:13:54.748458  9798 net.cpp:67] Creating Layer data
I1106 18:13:54.748467  9798 net.cpp:356] data -> data
I1106 18:13:54.748487  9798 net.cpp:356] data -> label
I1106 18:13:54.748497  9798 net.cpp:96] Setting up data
I1106 18:13:54.748504  9798 image_data_layer.cpp:34] Opening file /data/ad6813/devCaffe/caffe/data/soil_high/train.txt
I1106 18:13:54.761790  9798 image_data_layer.cpp:49] A total of 36734 images.
I1106 18:13:54.767519  9798 image_data_layer.cpp:78] output data size: 32,3,224,224
I1106 18:13:54.770556  9798 net.cpp:103] Top shape: 32 3 224 224 (4816896)
I1106 18:13:54.770584  9798 net.cpp:103] Top shape: 32 1 1 1 (32)
I1106 18:13:54.770589  9798 layer_factory.hpp:78] Creating layer conv1_1
I1106 18:13:54.770606  9798 net.cpp:67] Creating Layer conv1_1
I1106 18:13:54.770609  9798 net.cpp:394] conv1_1 <- data
I1106 18:13:54.770623  9798 net.cpp:356] conv1_1 -> conv1_1
I1106 18:13:54.770633  9798 net.cpp:96] Setting up conv1_1
I1106 18:13:54.788875  9798 net.cpp:103] Top shape: 32 64 224 224 (102760448)
I1106 18:13:54.788910  9798 layer_factory.hpp:78] Creating layer relu1_1
I1106 18:13:54.788923  9798 net.cpp:67] Creating Layer relu1_1
I1106 18:13:54.788926  9798 net.cpp:394] relu1_1 <- conv1_1
I1106 18:13:54.788933  9798 net.cpp:345] relu1_1 -> conv1_1 (in-place)
I1106 18:13:54.788943  9798 net.cpp:96] Setting up relu1_1
I1106 18:13:54.788956  9798 net.cpp:103] Top shape: 32 64 224 224 (102760448)
I1106 18:13:54.788961  9798 layer_factory.hpp:78] Creating layer conv1_2
I1106 18:13:54.788969  9798 net.cpp:67] Creating Layer conv1_2
I1106 18:13:54.788972  9798 net.cpp:394] conv1_2 <- conv1_1
I1106 18:13:54.788981  9798 net.cpp:356] conv1_2 -> conv1_2
I1106 18:13:54.788990  9798 net.cpp:96] Setting up conv1_2
I1106 18:13:54.790042  9798 net.cpp:103] Top shape: 32 64 224 224 (102760448)
I1106 18:13:54.790055  9798 layer_factory.hpp:78] Creating layer relu1_2
I1106 18:13:54.790061  9798 net.cpp:67] Creating Layer relu1_2
I1106 18:13:54.790065  9798 net.cpp:394] relu1_2 <- conv1_2
I1106 18:13:54.790071  9798 net.cpp:345] relu1_2 -> conv1_2 (in-place)
I1106 18:13:54.790076  9798 net.cpp:96] Setting up relu1_2
I1106 18:13:54.790081  9798 net.cpp:103] Top shape: 32 64 224 224 (102760448)
I1106 18:13:54.790087  9798 layer_factory.hpp:78] Creating layer pool1
I1106 18:13:54.790097  9798 net.cpp:67] Creating Layer pool1
I1106 18:13:54.790102  9798 net.cpp:394] pool1 <- conv1_2
I1106 18:13:54.790107  9798 net.cpp:356] pool1 -> pool1
I1106 18:13:54.790114  9798 net.cpp:96] Setting up pool1
I1106 18:13:54.790132  9798 net.cpp:103] Top shape: 32 64 112 112 (25690112)
I1106 18:13:54.790138  9798 layer_factory.hpp:78] Creating layer conv2_1
I1106 18:13:54.790146  9798 net.cpp:67] Creating Layer conv2_1
I1106 18:13:54.790151  9798 net.cpp:394] conv2_1 <- pool1
I1106 18:13:54.790159  9798 net.cpp:356] conv2_1 -> conv2_1
I1106 18:13:54.790165  9798 net.cpp:96] Setting up conv2_1
I1106 18:13:54.792095  9798 net.cpp:103] Top shape: 32 128 112 112 (51380224)
I1106 18:13:54.792110  9798 layer_factory.hpp:78] Creating layer relu2_1
I1106 18:13:54.792117  9798 net.cpp:67] Creating Layer relu2_1
I1106 18:13:54.792121  9798 net.cpp:394] relu2_1 <- conv2_1
I1106 18:13:54.792127  9798 net.cpp:345] relu2_1 -> conv2_1 (in-place)
I1106 18:13:54.792134  9798 net.cpp:96] Setting up relu2_1
I1106 18:13:54.792140  9798 net.cpp:103] Top shape: 32 128 112 112 (51380224)
I1106 18:13:54.792145  9798 layer_factory.hpp:78] Creating layer conv2_2
I1106 18:13:54.792153  9798 net.cpp:67] Creating Layer conv2_2
I1106 18:13:54.792157  9798 net.cpp:394] conv2_2 <- conv2_1
I1106 18:13:54.792165  9798 net.cpp:356] conv2_2 -> conv2_2
I1106 18:13:54.792171  9798 net.cpp:96] Setting up conv2_2
I1106 18:13:54.795907  9798 net.cpp:103] Top shape: 32 128 112 112 (51380224)
I1106 18:13:54.795918  9798 layer_factory.hpp:78] Creating layer relu2_2
I1106 18:13:54.795925  9798 net.cpp:67] Creating Layer relu2_2
I1106 18:13:54.795929  9798 net.cpp:394] relu2_2 <- conv2_2
I1106 18:13:54.795936  9798 net.cpp:345] relu2_2 -> conv2_2 (in-place)
I1106 18:13:54.795943  9798 net.cpp:96] Setting up relu2_2
I1106 18:13:54.795949  9798 net.cpp:103] Top shape: 32 128 112 112 (51380224)
I1106 18:13:54.795963  9798 layer_factory.hpp:78] Creating layer pool2
I1106 18:13:54.795969  9798 net.cpp:67] Creating Layer pool2
I1106 18:13:54.795972  9798 net.cpp:394] pool2 <- conv2_2
I1106 18:13:54.795979  9798 net.cpp:356] pool2 -> pool2
I1106 18:13:54.795984  9798 net.cpp:96] Setting up pool2
I1106 18:13:54.795991  9798 net.cpp:103] Top shape: 32 128 56 56 (12845056)
I1106 18:13:54.795996  9798 layer_factory.hpp:78] Creating layer conv3_1
I1106 18:13:54.796005  9798 net.cpp:67] Creating Layer conv3_1
I1106 18:13:54.796010  9798 net.cpp:394] conv3_1 <- pool2
I1106 18:13:54.796016  9798 net.cpp:356] conv3_1 -> conv3_1
I1106 18:13:54.796023  9798 net.cpp:96] Setting up conv3_1
I1106 18:13:54.803403  9798 net.cpp:103] Top shape: 32 256 56 56 (25690112)
I1106 18:13:54.803419  9798 layer_factory.hpp:78] Creating layer relu3_1
I1106 18:13:54.803426  9798 net.cpp:67] Creating Layer relu3_1
I1106 18:13:54.803432  9798 net.cpp:394] relu3_1 <- conv3_1
I1106 18:13:54.803439  9798 net.cpp:345] relu3_1 -> conv3_1 (in-place)
I1106 18:13:54.803446  9798 net.cpp:96] Setting up relu3_1
I1106 18:13:54.803452  9798 net.cpp:103] Top shape: 32 256 56 56 (25690112)
I1106 18:13:54.803457  9798 layer_factory.hpp:78] Creating layer conv3_2
I1106 18:13:54.803463  9798 net.cpp:67] Creating Layer conv3_2
I1106 18:13:54.803467  9798 net.cpp:394] conv3_2 <- conv3_1
I1106 18:13:54.803474  9798 net.cpp:356] conv3_2 -> conv3_2
I1106 18:13:54.803480  9798 net.cpp:96] Setting up conv3_2
I1106 18:13:54.818397  9798 net.cpp:103] Top shape: 32 256 56 56 (25690112)
I1106 18:13:54.818419  9798 layer_factory.hpp:78] Creating layer relu3_2
I1106 18:13:54.818426  9798 net.cpp:67] Creating Layer relu3_2
I1106 18:13:54.818435  9798 net.cpp:394] relu3_2 <- conv3_2
I1106 18:13:54.818442  9798 net.cpp:345] relu3_2 -> conv3_2 (in-place)
I1106 18:13:54.818450  9798 net.cpp:96] Setting up relu3_2
I1106 18:13:54.818456  9798 net.cpp:103] Top shape: 32 256 56 56 (25690112)
I1106 18:13:54.818461  9798 layer_factory.hpp:78] Creating layer conv3_3
I1106 18:13:54.818470  9798 net.cpp:67] Creating Layer conv3_3
I1106 18:13:54.818474  9798 net.cpp:394] conv3_3 <- conv3_2
I1106 18:13:54.818480  9798 net.cpp:356] conv3_3 -> conv3_3
I1106 18:13:54.818487  9798 net.cpp:96] Setting up conv3_3
I1106 18:13:54.833236  9798 net.cpp:103] Top shape: 32 256 56 56 (25690112)
I1106 18:13:54.833258  9798 layer_factory.hpp:78] Creating layer relu3_3
I1106 18:13:54.833268  9798 net.cpp:67] Creating Layer relu3_3
I1106 18:13:54.833276  9798 net.cpp:394] relu3_3 <- conv3_3
I1106 18:13:54.833283  9798 net.cpp:345] relu3_3 -> conv3_3 (in-place)
I1106 18:13:54.833291  9798 net.cpp:96] Setting up relu3_3
I1106 18:13:54.833297  9798 net.cpp:103] Top shape: 32 256 56 56 (25690112)
I1106 18:13:54.833302  9798 layer_factory.hpp:78] Creating layer pool3
I1106 18:13:54.833312  9798 net.cpp:67] Creating Layer pool3
I1106 18:13:54.833315  9798 net.cpp:394] pool3 <- conv3_3
I1106 18:13:54.833320  9798 net.cpp:356] pool3 -> pool3
I1106 18:13:54.833328  9798 net.cpp:96] Setting up pool3
I1106 18:13:54.833336  9798 net.cpp:103] Top shape: 32 256 28 28 (6422528)
I1106 18:13:54.833341  9798 layer_factory.hpp:78] Creating layer conv4_1
I1106 18:13:54.833348  9798 net.cpp:67] Creating Layer conv4_1
I1106 18:13:54.833353  9798 net.cpp:394] conv4_1 <- pool3
I1106 18:13:54.833359  9798 net.cpp:356] conv4_1 -> conv4_1
I1106 18:13:54.833365  9798 net.cpp:96] Setting up conv4_1
I1106 18:13:54.862143  9798 net.cpp:103] Top shape: 32 512 28 28 (12845056)
I1106 18:13:54.862167  9798 layer_factory.hpp:78] Creating layer relu4_1
I1106 18:13:54.862177  9798 net.cpp:67] Creating Layer relu4_1
I1106 18:13:54.862187  9798 net.cpp:394] relu4_1 <- conv4_1
I1106 18:13:54.862196  9798 net.cpp:345] relu4_1 -> conv4_1 (in-place)
I1106 18:13:54.862205  9798 net.cpp:96] Setting up relu4_1
I1106 18:13:54.862211  9798 net.cpp:103] Top shape: 32 512 28 28 (12845056)
I1106 18:13:54.862215  9798 layer_factory.hpp:78] Creating layer conv4_2
I1106 18:13:54.862221  9798 net.cpp:67] Creating Layer conv4_2
I1106 18:13:54.862226  9798 net.cpp:394] conv4_2 <- conv4_1
I1106 18:13:54.862241  9798 net.cpp:356] conv4_2 -> conv4_2
I1106 18:13:54.862248  9798 net.cpp:96] Setting up conv4_2
I1106 18:13:54.919981  9798 net.cpp:103] Top shape: 32 512 28 28 (12845056)
I1106 18:13:54.920011  9798 layer_factory.hpp:78] Creating layer relu4_2
I1106 18:13:54.920020  9798 net.cpp:67] Creating Layer relu4_2
I1106 18:13:54.920025  9798 net.cpp:394] relu4_2 <- conv4_2
I1106 18:13:54.920035  9798 net.cpp:345] relu4_2 -> conv4_2 (in-place)
I1106 18:13:54.920044  9798 net.cpp:96] Setting up relu4_2
I1106 18:13:54.920053  9798 net.cpp:103] Top shape: 32 512 28 28 (12845056)
I1106 18:13:54.920058  9798 layer_factory.hpp:78] Creating layer conv4_3
I1106 18:13:54.920065  9798 net.cpp:67] Creating Layer conv4_3
I1106 18:13:54.920070  9798 net.cpp:394] conv4_3 <- conv4_2
I1106 18:13:54.920078  9798 net.cpp:356] conv4_3 -> conv4_3
I1106 18:13:54.920086  9798 net.cpp:96] Setting up conv4_3
I1106 18:13:54.977525  9798 net.cpp:103] Top shape: 32 512 28 28 (12845056)
I1106 18:13:54.977548  9798 layer_factory.hpp:78] Creating layer relu4_3
I1106 18:13:54.977558  9798 net.cpp:67] Creating Layer relu4_3
I1106 18:13:54.977563  9798 net.cpp:394] relu4_3 <- conv4_3
I1106 18:13:54.977571  9798 net.cpp:345] relu4_3 -> conv4_3 (in-place)
I1106 18:13:54.977576  9798 net.cpp:96] Setting up relu4_3
I1106 18:13:54.977582  9798 net.cpp:103] Top shape: 32 512 28 28 (12845056)
I1106 18:13:54.977586  9798 layer_factory.hpp:78] Creating layer pool4
I1106 18:13:54.977591  9798 net.cpp:67] Creating Layer pool4
I1106 18:13:54.977597  9798 net.cpp:394] pool4 <- conv4_3
I1106 18:13:54.977607  9798 net.cpp:356] pool4 -> pool4
I1106 18:13:54.977614  9798 net.cpp:96] Setting up pool4
I1106 18:13:54.977623  9798 net.cpp:103] Top shape: 32 512 14 14 (3211264)
I1106 18:13:54.977628  9798 layer_factory.hpp:78] Creating layer conv5_1
I1106 18:13:54.977634  9798 net.cpp:67] Creating Layer conv5_1
I1106 18:13:54.977638  9798 net.cpp:394] conv5_1 <- pool4
I1106 18:13:54.977648  9798 net.cpp:356] conv5_1 -> conv5_1
I1106 18:13:54.977656  9798 net.cpp:96] Setting up conv5_1
I1106 18:13:55.035397  9798 net.cpp:103] Top shape: 32 512 14 14 (3211264)
I1106 18:13:55.035424  9798 layer_factory.hpp:78] Creating layer relu5_1
I1106 18:13:55.035433  9798 net.cpp:67] Creating Layer relu5_1
I1106 18:13:55.035440  9798 net.cpp:394] relu5_1 <- conv5_1
I1106 18:13:55.035447  9798 net.cpp:345] relu5_1 -> conv5_1 (in-place)
I1106 18:13:55.035455  9798 net.cpp:96] Setting up relu5_1
I1106 18:13:55.035464  9798 net.cpp:103] Top shape: 32 512 14 14 (3211264)
I1106 18:13:55.035467  9798 layer_factory.hpp:78] Creating layer conv5_2
I1106 18:13:55.035476  9798 net.cpp:67] Creating Layer conv5_2
I1106 18:13:55.035480  9798 net.cpp:394] conv5_2 <- conv5_1
I1106 18:13:55.035488  9798 net.cpp:356] conv5_2 -> conv5_2
I1106 18:13:55.035497  9798 net.cpp:96] Setting up conv5_2
I1106 18:13:55.092844  9798 net.cpp:103] Top shape: 32 512 14 14 (3211264)
I1106 18:13:55.092870  9798 layer_factory.hpp:78] Creating layer relu5_2
I1106 18:13:55.092878  9798 net.cpp:67] Creating Layer relu5_2
I1106 18:13:55.092883  9798 net.cpp:394] relu5_2 <- conv5_2
I1106 18:13:55.092891  9798 net.cpp:345] relu5_2 -> conv5_2 (in-place)
I1106 18:13:55.092900  9798 net.cpp:96] Setting up relu5_2
I1106 18:13:55.092906  9798 net.cpp:103] Top shape: 32 512 14 14 (3211264)
I1106 18:13:55.092911  9798 layer_factory.hpp:78] Creating layer conv5_3
I1106 18:13:55.092921  9798 net.cpp:67] Creating Layer conv5_3
I1106 18:13:55.092924  9798 net.cpp:394] conv5_3 <- conv5_2
I1106 18:13:55.092936  9798 net.cpp:356] conv5_3 -> conv5_3
I1106 18:13:55.092943  9798 net.cpp:96] Setting up conv5_3
I1106 18:13:55.150559  9798 net.cpp:103] Top shape: 32 512 14 14 (3211264)
I1106 18:13:55.150588  9798 layer_factory.hpp:78] Creating layer relu5_3
I1106 18:13:55.150595  9798 net.cpp:67] Creating Layer relu5_3
I1106 18:13:55.150600  9798 net.cpp:394] relu5_3 <- conv5_3
I1106 18:13:55.150607  9798 net.cpp:345] relu5_3 -> conv5_3 (in-place)
I1106 18:13:55.150614  9798 net.cpp:96] Setting up relu5_3
I1106 18:13:55.150629  9798 net.cpp:103] Top shape: 32 512 14 14 (3211264)
I1106 18:13:55.150634  9798 layer_factory.hpp:78] Creating layer pool5
I1106 18:13:55.150642  9798 net.cpp:67] Creating Layer pool5
I1106 18:13:55.150646  9798 net.cpp:394] pool5 <- conv5_3
I1106 18:13:55.150655  9798 net.cpp:356] pool5 -> pool5
I1106 18:13:55.150663  9798 net.cpp:96] Setting up pool5
I1106 18:13:55.150672  9798 net.cpp:103] Top shape: 32 512 7 7 (802816)
I1106 18:13:55.150676  9798 layer_factory.hpp:78] Creating layer fc6
I1106 18:13:55.150691  9798 net.cpp:67] Creating Layer fc6
I1106 18:13:55.150696  9798 net.cpp:394] fc6 <- pool5
I1106 18:13:55.150703  9798 net.cpp:356] fc6 -> fc6
I1106 18:13:55.150710  9798 net.cpp:96] Setting up fc6
I1106 18:13:57.534467  9798 net.cpp:103] Top shape: 32 4096 1 1 (131072)
I1106 18:13:57.534509  9798 layer_factory.hpp:78] Creating layer relu6
I1106 18:13:57.534520  9798 net.cpp:67] Creating Layer relu6
I1106 18:13:57.534525  9798 net.cpp:394] relu6 <- fc6
I1106 18:13:57.534533  9798 net.cpp:345] relu6 -> fc6 (in-place)
I1106 18:13:57.534539  9798 net.cpp:96] Setting up relu6
I1106 18:13:57.534554  9798 net.cpp:103] Top shape: 32 4096 1 1 (131072)
I1106 18:13:57.534559  9798 layer_factory.hpp:78] Creating layer drop6
I1106 18:13:57.534569  9798 net.cpp:67] Creating Layer drop6
I1106 18:13:57.534572  9798 net.cpp:394] drop6 <- fc6
I1106 18:13:57.534577  9798 net.cpp:345] drop6 -> fc6 (in-place)
I1106 18:13:57.534584  9798 net.cpp:96] Setting up drop6
I1106 18:13:57.534590  9798 net.cpp:103] Top shape: 32 4096 1 1 (131072)
I1106 18:13:57.534595  9798 layer_factory.hpp:78] Creating layer fc7
I1106 18:13:57.534600  9798 net.cpp:67] Creating Layer fc7
I1106 18:13:57.534605  9798 net.cpp:394] fc7 <- fc6
I1106 18:13:57.534610  9798 net.cpp:356] fc7 -> fc7
I1106 18:13:57.534618  9798 net.cpp:96] Setting up fc7
I1106 18:13:57.929029  9798 net.cpp:103] Top shape: 32 4096 1 1 (131072)
I1106 18:13:57.929071  9798 layer_factory.hpp:78] Creating layer relu7
I1106 18:13:57.929080  9798 net.cpp:67] Creating Layer relu7
I1106 18:13:57.929085  9798 net.cpp:394] relu7 <- fc7
I1106 18:13:57.929095  9798 net.cpp:345] relu7 -> fc7 (in-place)
I1106 18:13:57.929101  9798 net.cpp:96] Setting up relu7
I1106 18:13:57.929116  9798 net.cpp:103] Top shape: 32 4096 1 1 (131072)
I1106 18:13:57.929121  9798 layer_factory.hpp:78] Creating layer drop7
I1106 18:13:57.929126  9798 net.cpp:67] Creating Layer drop7
I1106 18:13:57.929129  9798 net.cpp:394] drop7 <- fc7
I1106 18:13:57.929133  9798 net.cpp:345] drop7 -> fc7 (in-place)
I1106 18:13:57.929139  9798 net.cpp:96] Setting up drop7
I1106 18:13:57.929146  9798 net.cpp:103] Top shape: 32 4096 1 1 (131072)
I1106 18:13:57.929150  9798 layer_factory.hpp:78] Creating layer fc8_2
I1106 18:13:57.929157  9798 net.cpp:67] Creating Layer fc8_2
I1106 18:13:57.929162  9798 net.cpp:394] fc8_2 <- fc7
I1106 18:13:57.929167  9798 net.cpp:356] fc8_2 -> fc8_2
I1106 18:13:57.929173  9798 net.cpp:96] Setting up fc8_2
I1106 18:13:57.929383  9798 net.cpp:103] Top shape: 32 2 1 1 (64)
I1106 18:13:57.929393  9798 layer_factory.hpp:78] Creating layer loss
I1106 18:13:57.929402  9798 net.cpp:67] Creating Layer loss
I1106 18:13:57.929406  9798 net.cpp:394] loss <- fc8_2
I1106 18:13:57.929412  9798 net.cpp:394] loss <- label
I1106 18:13:57.929420  9798 net.cpp:356] loss -> (automatic)
I1106 18:13:57.929426  9798 net.cpp:96] Setting up loss
I1106 18:13:57.929436  9798 net.cpp:103] Top shape: 1 1 1 1 (1)
I1106 18:13:57.929441  9798 net.cpp:109]     with loss weight 1
I1106 18:13:57.929471  9798 net.cpp:170] loss needs backward computation.
I1106 18:13:57.929476  9798 net.cpp:170] fc8_2 needs backward computation.
I1106 18:13:57.929481  9798 net.cpp:170] drop7 needs backward computation.
I1106 18:13:57.929486  9798 net.cpp:170] relu7 needs backward computation.
I1106 18:13:57.929488  9798 net.cpp:170] fc7 needs backward computation.
…
I1106 18:13:57.930485  9798 net.cpp:275] The NetState phase (1) differed from the phase (0) specified by a rule in layer data
I1106 18:13:57.930691  9798 net.cpp:39] Initializing net from parameters: 
name: "small"
layers {
  top: "data"
  top: "label"
  name: "data"
  type: IMAGE_DATA
  image_data_param {
    source: "/data/ad6813/devCaffe/caffe/data/soil_high/val.txt"
    batch_size: 8
    new_height: 256
    new_width: 256
  }
  include {
    phase: TEST
  }
  transform_param {
    mirror: true
    crop_size: 224
    mean_value: 86.752
    mean_value: 101.46
    mean_value: 104.6
  }
}
layers {
  bottom: "data"
  top: "conv1_1"
  name: "conv1_1"
  type: CONVOLUTION
  convolution_param {
    num_output: 64
    pad: 1
    kernel_size: 3
    weight_filler {
      type: "gaussian"
      std: 0.01
    }
    bias_filler {
      type: "constant"
      value: 0
    }
  }
}
layers {
  bottom: "conv1_1"
  top: "conv1_1"
  name: "relu1_1"
  type: RELU
}
layers {
  bottom: "conv1_1"
  top: "conv1_2"
  name: "conv1_2"
  type: CONVOLUTION
  convolution_param {
    num_output: 64
    pad: 1
    kernel_size: 3
    weight_filler {
      type: "gaussian"
      std: 0.01
    }
    bias_filler {
      type: "constant"
      value: 0
    }
  }
}
layers {
  bottom: "conv1_2"
  top: "conv1_2"
  name: "relu1_2"
  type: RELU
}
layers {
  bottom: "conv1_2"
  top: "pool1"
  name: "pool1"
  type: POOLING
  pooling_param {
    pool: MAX
    kernel_size: 2
    stride: 2
  }
}
layers {
  bottom: "pool1"
  top: "conv2_1"
  name: "conv2_1"
  type: CONVOLUTION
  convolution_param {
    num_output: 128
    pad: 1
    kernel_size: 3
    weight_filler {
      type: "gaussian"
      std: 0.01
    }
    bias_filler {
      type: "constant"
      value: 0
    }
  }
}
layers {
  bottom: "conv2_1"
  top: "conv2_1"
  name: "relu2_1"
  type: RELU
}
layers {
  bottom: "conv2_1"
  top: "conv2_2"
  name: "conv2_2"
  type: CONVOLUTION
  convolution_param {
    num_output: 128
    pad: 1
    kernel_size: 3
    weight_filler {
      type: "gaussian"
      std: 0.01
    }
    bias_filler {
      type: "constant"
      value: 0
    }
  }
}
layers {
  bottom: "conv2_2"
  top: "conv2_2"
  name: "relu2_2"
  type: RELU
}
layers {
  bottom: "conv2_2"
  top: "pool2"
  name: "pool2"
  type: POOLING
  pooling_param {
    pool: MAX
    kernel_size: 2
    stride: 2
  }
}
layers {
  bottom: "pool2"
  top: "conv3_1"
  name: "conv3_1"
  type: CONVOLUTION
  convolution_param {
    num_output: 256
    pad: 1
    kernel_size: 3
    weight_filler {
      type: "gaussian"
      std: 0.01
    }
    bias_filler {
      type: "constant"
      value: 0
    }
  }
}
layers {
  bottom: "conv3_1"
  top: "conv3_1"
  name: "relu3_1"
  type: RELU
}
layers {
  bottom: "conv3_1"
  top: "conv3_2"
  name: "conv3_2"
  type: CONVOLUTION
  convolution_param {
    num_output: 256
    pad: 1
    kernel_size: 3
    weight_filler {
      type: "gaussian"
      std: 0.01
    }
    bias_filler {
      type: "constant"
      value: 0
    }
  }
}
layers {
  bottom: "conv3_2"
  top: "conv3_2"
  name: "relu3_2"
  type: RELU
}
layers {
  bottom: "conv3_2"
  top: "conv3_3"
  name: "conv3_3"
  type: CONVOLUTION
  convolution_param {
    num_output: 256
    pad: 1
    kernel_size: 3
    weight_filler {
      type: "gaussian"
      std: 0.01
    }
    bias_filler {
      type: "constant"
      value: 0
    }
  }
}
layers {
  bottom: "conv3_3"
  top: "conv3_3"
  name: "relu3_3"
  type: RELU
}
layers {
  bottom: "conv3_3"
  top: "pool3"
  name: "pool3"
  type: POOLING
  pooling_param {
    pool: MAX
    kernel_size: 2
    stride: 2
  }
}
layers {
  bottom: "pool3"
  top: "conv4_1"
  name: "conv4_1"
  type: CONVOLUTION
  convolution_param {
    num_output: 512
    pad: 1
    kernel_size: 3
    weight_filler {
      type: "gaussian"
      std: 0.01
    }
    bias_filler {
      type: "constant"
      value: 0
    }
  }
}
layers {
  bottom: "conv4_1"
  top: "conv4_1"
  name: "relu4_1"
  type: RELU
}
layers {
  bottom: "conv4_1"
  top: "conv4_2"
  name: "conv4_2"
  type: CONVOLUTION
  convolution_param {
    num_output: 512
    pad: 1
    kernel_size: 3
    weight_filler {
      type: "gaussian"
      std: 0.01
    }
    bias_filler {
      type: "constant"
      value: 0
    }
  }
}
layers {
  bottom: "conv4_2"
  top: "conv4_2"
  name: "relu4_2"
  type: RELU
}
layers {
  bottom: "conv4_2"
  top: "conv4_3"
  name: "conv4_3"
  type: CONVOLUTION
  convolution_param {
    num_output: 512
    pad: 1
    kernel_size: 3
    weight_filler {
      type: "gaussian"
      std: 0.01
    }
    bias_filler {
      type: "constant"
      value: 0
    }
  }
}
layers {
  bottom: "conv4_3"
  top: "conv4_3"
  name: "relu4_3"
  type: RELU
}
layers {
  bottom: "conv4_3"
  top: "pool4"
  name: "pool4"
  type: POOLING
  pooling_param {
    pool: MAX
    kernel_size: 2
    stride: 2
  }
}
layers {
  bottom: "pool4"
  top: "conv5_1"
  name: "conv5_1"
  type: CONVOLUTION
  convolution_param {
    num_output: 512
    pad: 1
    kernel_size: 3
    weight_filler {
      type: "gaussian"
      std: 0.01
    }
    bias_filler {
      type: "constant"
      value: 0
    }
  }
}
layers {
  bottom: "conv5_1"
  top: "conv5_1"
  name: "relu5_1"
  type: RELU
}
layers {
  bottom: "conv5_1"
  top: "conv5_2"
  name: "conv5_2"
  type: CONVOLUTION
  convolution_param {
    num_output: 512
    pad: 1
    kernel_size: 3
    weight_filler {
      type: "gaussian"
      std: 0.01
    }
    bias_filler {
      type: "constant"
      value: 0
    }
  }
}
layers {
  bottom: "conv5_2"
  top: "conv5_2"
  name: "relu5_2"
  type: RELU
}
layers {
  bottom: "conv5_2"
  top: "conv5_3"
  name: "conv5_3"
  type: CONVOLUTION
  convolution_param {
    num_output: 512
    pad: 1
    kernel_size: 3
    weight_filler {
      type: "gaussian"
      std: 0.01
    }
    bias_filler {
      type: "constant"
      value: 0
    }
  }
}
layers {
  bottom: "conv5_3"
  top: "conv5_3"
  name: "relu5_3"
  type: RELU
}
layers {
  bottom: "conv5_3"
  top: "pool5"
  name: "pool5"
  type: POOLING
  pooling_param {
    pool: MAX
    kernel_size: 2
    stride: 2
  }
}
layers {
  bottom: "pool5"
  top: "fc6"
  name: "fc6"
  type: INNER_PRODUCT
  inner_product_param {
    num_output: 4096
    weight_filler {
      type: "gaussian"
      std: 0.01
    }
    bias_filler {
      type: "constant"
      value: 0
    }
  }
}
layers {
  bottom: "fc6"
  top: "fc6"
  name: "relu6"
  type: RELU
}
layers {
  bottom: "fc6"
  top: "fc6"
  name: "drop6"
  type: DROPOUT
  dropout_param {
    dropout_ratio: 0.5
  }
}
layers {
  bottom: "fc6"
  top: "fc7"
  name: "fc7"
  type: INNER_PRODUCT
  inner_product_param {
    num_output: 4096
    weight_filler {
      type: "gaussian"
      std: 0.01
    }
    bias_filler {
      type: "constant"
      value: 0
    }
  }
}
layers {
  bottom: "fc7"
  top: "fc7"
  name: "relu7"
  type: RELU
}
layers {
  bottom: "fc7"
  top: "fc7"
  name: "drop7"
  type: DROPOUT
  dropout_param {
    dropout_ratio: 0.5
  }
}
layers {
  bottom: "fc7"
  top: "fc8_2"
  name: "fc8_2"
  type: INNER_PRODUCT
  inner_product_param {
    num_output: 2
    weight_filler {
      type: "gaussian"
      std: 0.01
    }
    bias_filler {
      type: "constant"
      value: 0
    }
  }
}
layers {
  bottom: "fc8_2"
  bottom: "label"
  name: "loss"
  type: SOFTMAX_LOSS
}
layers {
  bottom: "fc8_2"
  bottom: "label"
  top: "accuracy"
  name: "accuracy"
  type: PER_CLASS_ACCURACY
  include {
    phase: TEST
  }
}
state {
  phase: TEST
}
I1106 18:13:57.930830  9798 layer_factory.hpp:78] Creating layer data
I1106 18:13:57.930840  9798 net.cpp:67] Creating Layer data
I1106 18:13:57.930846  9798 net.cpp:356] data -> data
I1106 18:13:57.930855  9798 net.cpp:356] data -> label
I1106 18:13:57.930862  9798 net.cpp:96] Setting up data
I1106 18:13:57.930867  9798 image_data_layer.cpp:34] Opening file /data/ad6813/devCaffe/caffe/data/soil_high/val.txt
I1106 18:13:57.931068  9798 image_data_layer.cpp:49] A total of 496 images.
I1106 18:13:57.937077  9798 image_data_layer.cpp:78] output data size: 8,3,224,224
I1106 18:13:57.937795  9798 net.cpp:103] Top shape: 8 3 224 224 (1204224)
I1106 18:13:57.937816  9798 net.cpp:103] Top shape: 8 1 1 1 (8)
I1106 18:13:57.937820  9798 layer_factory.hpp:78] Creating layer label_data_1_split
I1106 18:13:57.937829  9798 net.cpp:67] Creating Layer label_data_1_split
I1106 18:13:57.937834  9798 net.cpp:394] label_data_1_split <- label
I1106 18:13:57.937839  9798 net.cpp:356] label_data_1_split -> label_data_1_split_0
I1106 18:13:57.937845  9798 net.cpp:356] label_data_1_split -> label_data_1_split_1
I1106 18:13:57.937863  9798 net.cpp:96] Setting up label_data_1_split
I1106 18:13:57.937877  9798 net.cpp:103] Top shape: 8 1 1 1 (8)
I1106 18:13:57.937882  9798 net.cpp:103] Top shape: 8 1 1 1 (8)
I1106 18:13:57.937885  9798 layer_factory.hpp:78] Creating layer conv1_1
I1106 18:13:57.937892  9798 net.cpp:67] Creating Layer conv1_1
I1106 18:13:57.937898  9798 net.cpp:394] conv1_1 <- data
I1106 18:13:57.937906  9798 net.cpp:356] conv1_1 -> conv1_1
I1106 18:13:57.937912  9798 net.cpp:96] Setting up conv1_1
I1106 18:13:57.938109  9798 net.cpp:103] Top shape: 8 64 224 224 (25690112)
I1106 18:13:57.938122  9798 layer_factory.hpp:78] Creating layer relu1_1
I1106 18:13:57.938129  9798 net.cpp:67] Creating Layer relu1_1
I1106 18:13:57.938133  9798 net.cpp:394] relu1_1 <- conv1_1
I1106 18:13:57.938141  9798 net.cpp:345] relu1_1 -> conv1_1 (in-place)
I1106 18:13:57.938154  9798 net.cpp:96] Setting up relu1_1
I1106 18:13:57.938161  9798 net.cpp:103] Top shape: 8 64 224 224 (25690112)
I1106 18:13:57.938165  9798 layer_factory.hpp:78] Creating layer conv1_2
I1106 18:13:57.938171  9798 net.cpp:67] Creating Layer conv1_2
I1106 18:13:57.938175  9798 net.cpp:394] conv1_2 <- conv1_1
I1106 18:13:57.938181  9798 net.cpp:356] conv1_2 -> conv1_2
I1106 18:13:57.938189  9798 net.cpp:96] Setting up conv1_2
I1106 18:13:57.939219  9798 net.cpp:103] Top shape: 8 64 224 224 (25690112)
I1106 18:13:57.939231  9798 layer_factory.hpp:78] Creating layer relu1_2
I1106 18:13:57.939239  9798 net.cpp:67] Creating Layer relu1_2
I1106 18:13:57.939244  9798 net.cpp:394] relu1_2 <- conv1_2
I1106 18:13:57.939249  9798 net.cpp:345] relu1_2 -> conv1_2 (in-place)
I1106 18:13:57.939255  9798 net.cpp:96] Setting up relu1_2
I1106 18:13:57.939261  9798 net.cpp:103] Top shape: 8 64 224 224 (25690112)
I1106 18:13:57.939266  9798 layer_factory.hpp:78] Creating layer pool1
I1106 18:13:57.939271  9798 net.cpp:67] Creating Layer pool1
I1106 18:13:57.939275  9798 net.cpp:394] pool1 <- conv1_2
I1106 18:13:57.939281  9798 net.cpp:356] pool1 -> pool1
I1106 18:13:57.939288  9798 net.cpp:96] Setting up pool1
I1106 18:13:57.939296  9798 net.cpp:103] Top shape: 8 64 112 112 (6422528)
I1106 18:13:57.939301  9798 layer_factory.hpp:78] Creating layer conv2_1
I1106 18:13:57.939306  9798 net.cpp:67] Creating Layer conv2_1
I1106 18:13:57.939309  9798 net.cpp:394] conv2_1 <- pool1
I1106 18:13:57.939318  9798 net.cpp:356] conv2_1 -> conv2_1
I1106 18:13:57.939324  9798 net.cpp:96] Setting up conv2_1
I1106 18:13:57.941367  9798 net.cpp:103] Top shape: 8 128 112 112 (12845056)
I1106 18:13:57.941382  9798 layer_factory.hpp:78] Creating layer relu2_1
I1106 18:13:57.941390  9798 net.cpp:67] Creating Layer relu2_1
I1106 18:13:57.941395  9798 net.cpp:394] relu2_1 <- conv2_1
I1106 18:13:57.941403  9798 net.cpp:345] relu2_1 -> conv2_1 (in-place)
I1106 18:13:57.941409  9798 net.cpp:96] Setting up relu2_1
I1106 18:13:57.941416  9798 net.cpp:103] Top shape: 8 128 112 112 (12845056)
I1106 18:13:57.941421  9798 layer_factory.hpp:78] Creating layer conv2_2
I1106 18:13:57.941427  9798 net.cpp:67] Creating Layer conv2_2
I1106 18:13:57.941431  9798 net.cpp:394] conv2_2 <- conv2_1
I1106 18:13:57.941438  9798 net.cpp:356] conv2_2 -> conv2_2
I1106 18:13:57.941445  9798 net.cpp:96] Setting up conv2_2
I1106 18:13:57.945183  9798 net.cpp:103] Top shape: 8 128 112 112 (12845056)
I1106 18:13:57.945194  9798 layer_factory.hpp:78] Creating layer relu2_2
I1106 18:13:57.945199  9798 net.cpp:67] Creating Layer relu2_2
I1106 18:13:57.945204  9798 net.cpp:394] relu2_2 <- conv2_2
I1106 18:13:57.945211  9798 net.cpp:345] relu2_2 -> conv2_2 (in-place)
I1106 18:13:57.945219  9798 net.cpp:96] Setting up relu2_2
I1106 18:13:57.945225  9798 net.cpp:103] Top shape: 8 128 112 112 (12845056)
I1106 18:13:57.945227  9798 layer_factory.hpp:78] Creating layer pool2
I1106 18:13:57.945235  9798 net.cpp:67] Creating Layer pool2
I1106 18:13:57.945238  9798 net.cpp:394] pool2 <- conv2_2
I1106 18:13:57.945243  9798 net.cpp:356] pool2 -> pool2
I1106 18:13:57.945250  9798 net.cpp:96] Setting up pool2
I1106 18:13:57.945256  9798 net.cpp:103] Top shape: 8 128 56 56 (3211264)
I1106 18:13:57.945261  9798 layer_factory.hpp:78] Creating layer conv3_1
I1106 18:13:57.945267  9798 net.cpp:67] Creating Layer conv3_1
I1106 18:13:57.945272  9798 net.cpp:394] conv3_1 <- pool2
I1106 18:13:57.945281  9798 net.cpp:356] conv3_1 -> conv3_1
I1106 18:13:57.945286  9798 net.cpp:96] Setting up conv3_1
I1106 18:13:57.952656  9798 net.cpp:103] Top shape: 8 256 56 56 (6422528)
I1106 18:13:57.952671  9798 layer_factory.hpp:78] Creating layer relu3_1
I1106 18:13:57.952678  9798 net.cpp:67] Creating Layer relu3_1
I1106 18:13:57.952683  9798 net.cpp:394] relu3_1 <- conv3_1
I1106 18:13:57.952688  9798 net.cpp:345] relu3_1 -> conv3_1 (in-place)
I1106 18:13:57.952693  9798 net.cpp:96] Setting up relu3_1
I1106 18:13:57.952699  9798 net.cpp:103] Top shape: 8 256 56 56 (6422528)
I1106 18:13:57.952704  9798 layer_factory.hpp:78] Creating layer conv3_2
I1106 18:13:57.952718  9798 net.cpp:67] Creating Layer conv3_2
I1106 18:13:57.952723  9798 net.cpp:394] conv3_2 <- conv3_1
I1106 18:13:57.952728  9798 net.cpp:356] conv3_2 -> conv3_2
I1106 18:13:57.952735  9798 net.cpp:96] Setting up conv3_2
I1106 18:13:57.967428  9798 net.cpp:103] Top shape: 8 256 56 56 (6422528)
I1106 18:13:57.967447  9798 layer_factory.hpp:78] Creating layer relu3_2
I1106 18:13:57.967453  9798 net.cpp:67] Creating Layer relu3_2
I1106 18:13:57.967461  9798 net.cpp:394] relu3_2 <- conv3_2
I1106 18:13:57.967468  9798 net.cpp:345] relu3_2 -> conv3_2 (in-place)
I1106 18:13:57.967475  9798 net.cpp:96] Setting up relu3_2
I1106 18:13:57.967483  9798 net.cpp:103] Top shape: 8 256 56 56 (6422528)
I1106 18:13:57.967486  9798 layer_factory.hpp:78] Creating layer conv3_3
I1106 18:13:57.967496  9798 net.cpp:67] Creating Layer conv3_3
I1106 18:13:57.967501  9798 net.cpp:394] conv3_3 <- conv3_2
I1106 18:13:57.967509  9798 net.cpp:356] conv3_3 -> conv3_3
I1106 18:13:57.967516  9798 net.cpp:96] Setting up conv3_3
I1106 18:13:57.982233  9798 net.cpp:103] Top shape: 8 256 56 56 (6422528)
I1106 18:13:57.982252  9798 layer_factory.hpp:78] Creating layer relu3_3
I1106 18:13:57.982261  9798 net.cpp:67] Creating Layer relu3_3
I1106 18:13:57.982265  9798 net.cpp:394] relu3_3 <- conv3_3
I1106 18:13:57.982273  9798 net.cpp:345] relu3_3 -> conv3_3 (in-place)
I1106 18:13:57.982281  9798 net.cpp:96] Setting up relu3_3
I1106 18:13:57.982288  9798 net.cpp:103] Top shape: 8 256 56 56 (6422528)
I1106 18:13:57.982292  9798 layer_factory.hpp:78] Creating layer pool3
I1106 18:13:57.982298  9798 net.cpp:67] Creating Layer pool3
I1106 18:13:57.982302  9798 net.cpp:394] pool3 <- conv3_3
I1106 18:13:57.982309  9798 net.cpp:356] pool3 -> pool3
I1106 18:13:57.982316  9798 net.cpp:96] Setting up pool3
I1106 18:13:57.982324  9798 net.cpp:103] Top shape: 8 256 28 28 (1605632)
I1106 18:13:57.982329  9798 layer_factory.hpp:78] Creating layer conv4_1
I1106 18:13:57.982336  9798 net.cpp:67] Creating Layer conv4_1
I1106 18:13:57.982342  9798 net.cpp:394] conv4_1 <- pool3
I1106 18:13:57.982349  9798 net.cpp:356] conv4_1 -> conv4_1
I1106 18:13:57.982357  9798 net.cpp:96] Setting up conv4_1
I1106 18:13:58.011282  9798 net.cpp:103] Top shape: 8 512 28 28 (3211264)
I1106 18:13:58.011306  9798 layer_factory.hpp:78] Creating layer relu4_1
I1106 18:13:58.011314  9798 net.cpp:67] Creating Layer relu4_1
I1106 18:13:58.011323  9798 net.cpp:394] relu4_1 <- conv4_1
I1106 18:13:58.011332  9798 net.cpp:345] relu4_1 -> conv4_1 (in-place)
I1106 18:13:58.011339  9798 net.cpp:96] Setting up relu4_1
I1106 18:13:58.011346  9798 net.cpp:103] Top shape: 8 512 28 28 (3211264)
I1106 18:13:58.011350  9798 layer_factory.hpp:78] Creating layer conv4_2
I1106 18:13:58.011361  9798 net.cpp:67] Creating Layer conv4_2
I1106 18:13:58.011365  9798 net.cpp:394] conv4_2 <- conv4_1
I1106 18:13:58.011371  9798 net.cpp:356] conv4_2 -> conv4_2
I1106 18:13:58.011376  9798 net.cpp:96] Setting up conv4_2
I1106 18:13:58.068994  9798 net.cpp:103] Top shape: 8 512 28 28 (3211264)
I1106 18:13:58.069025  9798 layer_factory.hpp:78] Creating layer relu4_2
I1106 18:13:58.069033  9798 net.cpp:67] Creating Layer relu4_2
I1106 18:13:58.069037  9798 net.cpp:394] relu4_2 <- conv4_2
I1106 18:13:58.069048  9798 net.cpp:345] relu4_2 -> conv4_2 (in-place)
I1106 18:13:58.069056  9798 net.cpp:96] Setting up relu4_2
I1106 18:13:58.069064  9798 net.cpp:103] Top shape: 8 512 28 28 (3211264)
I1106 18:13:58.069068  9798 layer_factory.hpp:78] Creating layer conv4_3
I1106 18:13:58.069075  9798 net.cpp:67] Creating Layer conv4_3
I1106 18:13:58.069079  9798 net.cpp:394] conv4_3 <- conv4_2
I1106 18:13:58.069088  9798 net.cpp:356] conv4_3 -> conv4_3
I1106 18:13:58.069098  9798 net.cpp:96] Setting up conv4_3
I1106 18:13:58.126476  9798 net.cpp:103] Top shape: 8 512 28 28 (3211264)
I1106 18:13:58.126500  9798 layer_factory.hpp:78] Creating layer relu4_3
I1106 18:13:58.126508  9798 net.cpp:67] Creating Layer relu4_3
I1106 18:13:58.126513  9798 net.cpp:394] relu4_3 <- conv4_3
I1106 18:13:58.126523  9798 net.cpp:345] relu4_3 -> conv4_3 (in-place)
I1106 18:13:58.126539  9798 net.cpp:96] Setting up relu4_3
I1106 18:13:58.126548  9798 net.cpp:103] Top shape: 8 512 28 28 (3211264)
I1106 18:13:58.126551  9798 layer_factory.hpp:78] Creating layer pool4
I1106 18:13:58.126560  9798 net.cpp:67] Creating Layer pool4
I1106 18:13:58.126564  9798 net.cpp:394] pool4 <- conv4_3
I1106 18:13:58.126571  9798 net.cpp:356] pool4 -> pool4
I1106 18:13:58.126577  9798 net.cpp:96] Setting up pool4
I1106 18:13:58.126586  9798 net.cpp:103] Top shape: 8 512 14 14 (802816)
I1106 18:13:58.126590  9798 layer_factory.hpp:78] Creating layer conv5_1
I1106 18:13:58.126598  9798 net.cpp:67] Creating Layer conv5_1
I1106 18:13:58.126603  9798 net.cpp:394] conv5_1 <- pool4
I1106 18:13:58.126610  9798 net.cpp:356] conv5_1 -> conv5_1
I1106 18:13:58.126617  9798 net.cpp:96] Setting up conv5_1
I1106 18:13:58.183975  9798 net.cpp:103] Top shape: 8 512 14 14 (802816)
I1106 18:13:58.184012  9798 layer_factory.hpp:78] Creating layer relu5_1
I1106 18:13:58.184021  9798 net.cpp:67] Creating Layer relu5_1
I1106 18:13:58.184026  9798 net.cpp:394] relu5_1 <- conv5_1
I1106 18:13:58.184032  9798 net.cpp:345] relu5_1 -> conv5_1 (in-place)
I1106 18:13:58.184039  9798 net.cpp:96] Setting up relu5_1
I1106 18:13:58.184044  9798 net.cpp:103] Top shape: 8 512 14 14 (802816)
I1106 18:13:58.184054  9798 layer_factory.hpp:78] Creating layer conv5_2
I1106 18:13:58.184063  9798 net.cpp:67] Creating Layer conv5_2
I1106 18:13:58.184067  9798 net.cpp:394] conv5_2 <- conv5_1
I1106 18:13:58.184074  9798 net.cpp:356] conv5_2 -> conv5_2
I1106 18:13:58.184082  9798 net.cpp:96] Setting up conv5_2
I1106 18:13:58.238924  9798 net.cpp:103] Top shape: 8 512 14 14 (802816)
I1106 18:13:58.238958  9798 layer_factory.hpp:78] Creating layer relu5_2
I1106 18:13:58.238966  9798 net.cpp:67] Creating Layer relu5_2
I1106 18:13:58.238970  9798 net.cpp:394] relu5_2 <- conv5_2
I1106 18:13:58.238978  9798 net.cpp:345] relu5_2 -> conv5_2 (in-place)
I1106 18:13:58.238986  9798 net.cpp:96] Setting up relu5_2
I1106 18:13:58.238991  9798 net.cpp:103] Top shape: 8 512 14 14 (802816)
I1106 18:13:58.238998  9798 layer_factory.hpp:78] Creating layer conv5_3
I1106 18:13:58.239008  9798 net.cpp:67] Creating Layer conv5_3
I1106 18:13:58.239013  9798 net.cpp:394] conv5_3 <- conv5_2
I1106 18:13:58.239019  9798 net.cpp:356] conv5_3 -> conv5_3
I1106 18:13:58.239027  9798 net.cpp:96] Setting up conv5_3
I1106 18:13:58.295917  9798 net.cpp:103] Top shape: 8 512 14 14 (802816)
I1106 18:13:58.295944  9798 layer_factory.hpp:78] Creating layer relu5_3
I1106 18:13:58.295953  9798 net.cpp:67] Creating Layer relu5_3
I1106 18:13:58.295958  9798 net.cpp:394] relu5_3 <- conv5_3
I1106 18:13:58.295965  9798 net.cpp:345] relu5_3 -> conv5_3 (in-place)
I1106 18:13:58.295974  9798 net.cpp:96] Setting up relu5_3
I1106 18:13:58.295979  9798 net.cpp:103] Top shape: 8 512 14 14 (802816)
I1106 18:13:58.295982  9798 layer_factory.hpp:78] Creating layer pool5
I1106 18:13:58.295996  9798 net.cpp:67] Creating Layer pool5
I1106 18:13:58.296001  9798 net.cpp:394] pool5 <- conv5_3
I1106 18:13:58.296010  9798 net.cpp:356] pool5 -> pool5
I1106 18:13:58.296016  9798 net.cpp:96] Setting up pool5
I1106 18:13:58.296025  9798 net.cpp:103] Top shape: 8 512 7 7 (200704)
I1106 18:13:58.296030  9798 layer_factory.hpp:78] Creating layer fc6
I1106 18:13:58.296036  9798 net.cpp:67] Creating Layer fc6
I1106 18:13:58.296039  9798 net.cpp:394] fc6 <- pool5
I1106 18:13:58.296047  9798 net.cpp:356] fc6 -> fc6
I1106 18:13:58.296054  9798 net.cpp:96] Setting up fc6
I1106 18:14:00.682816  9798 net.cpp:103] Top shape: 8 4096 1 1 (32768)
I1106 18:14:00.682859  9798 layer_factory.hpp:78] Creating layer relu6
I1106 18:14:00.682868  9798 net.cpp:67] Creating Layer relu6
I1106 18:14:00.682874  9798 net.cpp:394] relu6 <- fc6
I1106 18:14:00.682883  9798 net.cpp:345] relu6 -> fc6 (in-place)
I1106 18:14:00.682890  9798 net.cpp:96] Setting up relu6
I1106 18:14:00.682905  9798 net.cpp:103] Top shape: 8 4096 1 1 (32768)
I1106 18:14:00.682914  9798 layer_factory.hpp:78] Creating layer drop6
I1106 18:14:00.682929  9798 net.cpp:67] Creating Layer drop6
I1106 18:14:00.682934  9798 net.cpp:394] drop6 <- fc6
I1106 18:14:00.682941  9798 net.cpp:345] drop6 -> fc6 (in-place)
I1106 18:14:00.682948  9798 net.cpp:96] Setting up drop6
I1106 18:14:00.682953  9798 net.cpp:103] Top shape: 8 4096 1 1 (32768)
I1106 18:14:00.682957  9798 layer_factory.hpp:78] Creating layer fc7
I1106 18:14:00.682965  9798 net.cpp:67] Creating Layer fc7
I1106 18:14:00.682968  9798 net.cpp:394] fc7 <- fc6
I1106 18:14:00.682976  9798 net.cpp:356] fc7 -> fc7
I1106 18:14:00.682983  9798 net.cpp:96] Setting up fc7
I1106 18:14:01.077404  9798 net.cpp:103] Top shape: 8 4096 1 1 (32768)
I1106 18:14:01.077445  9798 layer_factory.hpp:78] Creating layer relu7
I1106 18:14:01.077453  9798 net.cpp:67] Creating Layer relu7
I1106 18:14:01.077458  9798 net.cpp:394] relu7 <- fc7
I1106 18:14:01.077466  9798 net.cpp:345] relu7 -> fc7 (in-place)
I1106 18:14:01.077472  9798 net.cpp:96] Setting up relu7
I1106 18:14:01.077486  9798 net.cpp:103] Top shape: 8 4096 1 1 (32768)
I1106 18:14:01.077491  9798 layer_factory.hpp:78] Creating layer drop7
I1106 18:14:01.077497  9798 net.cpp:67] Creating Layer drop7
I1106 18:14:01.077502  9798 net.cpp:394] drop7 <- fc7
I1106 18:14:01.077507  9798 net.cpp:345] drop7 -> fc7 (in-place)
I1106 18:14:01.077513  9798 net.cpp:96] Setting up drop7
I1106 18:14:01.077519  9798 net.cpp:103] Top shape: 8 4096 1 1 (32768)
I1106 18:14:01.077524  9798 layer_factory.hpp:78] Creating layer fc8_2
I1106 18:14:01.077533  9798 net.cpp:67] Creating Layer fc8_2
I1106 18:14:01.077538  9798 net.cpp:394] fc8_2 <- fc7
I1106 18:14:01.077545  9798 net.cpp:356] fc8_2 -> fc8_2
I1106 18:14:01.077553  9798 net.cpp:96] Setting up fc8_2
I1106 18:14:01.077766  9798 net.cpp:103] Top shape: 8 2 1 1 (16)
I1106 18:14:01.077774  9798 layer_factory.hpp:78] Creating layer fc8_2_fc8_2_0_split
I1106 18:14:01.077780  9798 net.cpp:67] Creating Layer fc8_2_fc8_2_0_split
I1106 18:14:01.077785  9798 net.cpp:394] fc8_2_fc8_2_0_split <- fc8_2
I1106 18:14:01.077790  9798 net.cpp:356] fc8_2_fc8_2_0_split -> fc8_2_fc8_2_0_split_0
I1106 18:14:01.077800  9798 net.cpp:356] fc8_2_fc8_2_0_split -> fc8_2_fc8_2_0_split_1
I1106 18:14:01.077807  9798 net.cpp:96] Setting up fc8_2_fc8_2_0_split
I1106 18:14:01.077812  9798 net.cpp:103] Top shape: 8 2 1 1 (16)
I1106 18:14:01.077817  9798 net.cpp:103] Top shape: 8 2 1 1 (16)
I1106 18:14:01.077821  9798 layer_factory.hpp:78] Creating layer loss
I1106 18:14:01.077826  9798 net.cpp:67] Creating Layer loss
I1106 18:14:01.077832  9798 net.cpp:394] loss <- fc8_2_fc8_2_0_split_0
I1106 18:14:01.077837  9798 net.cpp:394] loss <- label_data_1_split_0
I1106 18:14:01.077843  9798 net.cpp:356] loss -> (automatic)
I1106 18:14:01.077849  9798 net.cpp:96] Setting up loss
I1106 18:14:01.077857  9798 net.cpp:103] Top shape: 1 1 1 1 (1)
I1106 18:14:01.077859  9798 net.cpp:109]     with loss weight 1
I1106 18:14:01.077873  9798 layer_factory.hpp:78] Creating layer accuracy
I1106 18:14:01.077884  9798 net.cpp:67] Creating Layer accuracy
I1106 18:14:01.077889  9798 net.cpp:394] accuracy <- fc8_2_fc8_2_0_split_1
I1106 18:14:01.077894  9798 net.cpp:394] accuracy <- label_data_1_split_1
I1106 18:14:01.077901  9798 net.cpp:356] accuracy -> accuracy
I1106 18:14:01.077908  9798 net.cpp:96] Setting up accuracy
I1106 18:14:01.077916  9798 net.cpp:103] Top shape: 1 1 1 4 (4)
I1106 18:14:01.077921  9798 net.cpp:172] accuracy does not need backward computation.
I1106 18:14:01.077925  9798 net.cpp:170] loss needs backward computation.
I1106 18:14:01.077929  9798 net.cpp:170] fc8_2_fc8_2_0_split needs backward computation.
I1106 18:14:01.077932  9798 net.cpp:170] fc8_2 needs backward computation.
I1106 18:14:01.077937  9798 net.cpp:170] drop7 needs backward computation.
…
I1106 20:57:37.538825 12274 net.cpp:275] The NetState phase (0) differed from the phase (1) specified by a rule in layer accuracy
I1106 20:57:37.539191 12274 net.cpp:39] Initializing net from parameters: 
name: "small"
layers {
  top: "data"
  top: "label"
  name: "data"
  type: IMAGE_DATA
  image_data_param {
    source: "/data/ad6813/devCaffe/caffe/data/clamp/train.txt"
    batch_size: 32
    new_height: 256
    new_width: 256
  }
  include {
    phase: TRAIN
  }
  transform_param {
    mirror: true
    crop_size: 224
    mean_value: 86.752
    mean_value: 101.46
    mean_value: 104.6
  }
}
layers {
  bottom: "data"
  top: "conv1_1"
  name: "conv1_1"
  type: CONVOLUTION
  convolution_param {
    num_output: 64
    pad: 1
    kernel_size: 3
    weight_filler {
      type: "gaussian"
      std: 0.01
    }
    bias_filler {
      type: "constant"
      value: 0
    }
  }
}
layers {
  bottom: "conv1_1"
  top: "conv1_1"
  name: "relu1_1"
  type: RELU
}
layers {
  bottom: "conv1_1"
  top: "conv1_2"
  name: "conv1_2"
  type: CONVOLUTION
  convolution_param {
    num_output: 64
    pad: 1
    kernel_size: 3
    weight_filler {
      type: "gaussian"
      std: 0.01
    }
    bias_filler {
      type: "constant"
      value: 0
    }
  }
}
layers {
  bottom: "conv1_2"
  top: "conv1_2"
  name: "relu1_2"
  type: RELU
}
layers {
  bottom: "conv1_2"
  top: "pool1"
  name: "pool1"
  type: POOLING
  pooling_param {
    pool: MAX
    kernel_size: 2
    stride: 2
  }
}
layers {
  bottom: "pool1"
  top: "conv2_1"
  name: "conv2_1"
  type: CONVOLUTION
  convolution_param {
    num_output: 128
    pad: 1
    kernel_size: 3
    weight_filler {
      type: "gaussian"
      std: 0.01
    }
    bias_filler {
      type: "constant"
      value: 0
    }
  }
}
layers {
  bottom: "conv2_1"
  top: "conv2_1"
  name: "relu2_1"
  type: RELU
}
layers {
  bottom: "conv2_1"
  top: "conv2_2"
  name: "conv2_2"
  type: CONVOLUTION
  convolution_param {
    num_output: 128
    pad: 1
    kernel_size: 3
    weight_filler {
      type: "gaussian"
      std: 0.01
    }
    bias_filler {
      type: "constant"
      value: 0
    }
  }
}
layers {
  bottom: "conv2_2"
  top: "conv2_2"
  name: "relu2_2"
  type: RELU
}
layers {
  bottom: "conv2_2"
  top: "pool2"
  name: "pool2"
  type: POOLING
  pooling_param {
    pool: MAX
    kernel_size: 2
    stride: 2
  }
}
layers {
  bottom: "pool2"
  top: "conv3_1"
  name: "conv3_1"
  type: CONVOLUTION
  convolution_param {
    num_output: 256
    pad: 1
    kernel_size: 3
    weight_filler {
      type: "gaussian"
      std: 0.01
    }
    bias_filler {
      type: "constant"
      value: 0
    }
  }
}
layers {
  bottom: "conv3_1"
  top: "conv3_1"
  name: "relu3_1"
  type: RELU
}
layers {
  bottom: "conv3_1"
  top: "conv3_2"
  name: "conv3_2"
  type: CONVOLUTION
  convolution_param {
    num_output: 256
    pad: 1
    kernel_size: 3
    weight_filler {
      type: "gaussian"
      std: 0.01
    }
    bias_filler {
      type: "constant"
      value: 0
    }
  }
}
layers {
  bottom: "conv3_2"
  top: "conv3_2"
  name: "relu3_2"
  type: RELU
}
layers {
  bottom: "conv3_2"
  top: "conv3_3"
  name: "conv3_3"
  type: CONVOLUTION
  convolution_param {
    num_output: 256
    pad: 1
    kernel_size: 3
    weight_filler {
      type: "gaussian"
      std: 0.01
    }
    bias_filler {
      type: "constant"
      value: 0
    }
  }
}
layers {
  bottom: "conv3_3"
  top: "conv3_3"
  name: "relu3_3"
  type: RELU
}
layers {
  bottom: "conv3_3"
  top: "pool3"
  name: "pool3"
  type: POOLING
  pooling_param {
    pool: MAX
    kernel_size: 2
    stride: 2
  }
}
layers {
  bottom: "pool3"
  top: "conv4_1"
  name: "conv4_1"
  type: CONVOLUTION
  convolution_param {
    num_output: 512
    pad: 1
    kernel_size: 3
    weight_filler {
      type: "gaussian"
      std: 0.01
    }
    bias_filler {
      type: "constant"
      value: 0
    }
  }
}
layers {
  bottom: "conv4_1"
  top: "conv4_1"
  name: "relu4_1"
  type: RELU
}
layers {
  bottom: "conv4_1"
  top: "conv4_2"
  name: "conv4_2"
  type: CONVOLUTION
  convolution_param {
    num_output: 512
    pad: 1
    kernel_size: 3
    weight_filler {
      type: "gaussian"
      std: 0.01
    }
    bias_filler {
      type: "constant"
      value: 0
    }
  }
}
layers {
  bottom: "conv4_2"
  top: "conv4_2"
  name: "relu4_2"
  type: RELU
}
layers {
  bottom: "conv4_2"
  top: "conv4_3"
  name: "conv4_3"
  type: CONVOLUTION
  convolution_param {
    num_output: 512
    pad: 1
    kernel_size: 3
    weight_filler {
      type: "gaussian"
      std: 0.01
    }
    bias_filler {
      type: "constant"
      value: 0
    }
  }
}
layers {
  bottom: "conv4_3"
  top: "conv4_3"
  name: "relu4_3"
  type: RELU
}
layers {
  bottom: "conv4_3"
  top: "pool4"
  name: "pool4"
  type: POOLING
  pooling_param {
    pool: MAX
    kernel_size: 2
    stride: 2
  }
}
layers {
  bottom: "pool4"
  top: "conv5_1"
  name: "conv5_1"
  type: CONVOLUTION
  convolution_param {
    num_output: 512
    pad: 1
    kernel_size: 3
    weight_filler {
      type: "gaussian"
      std: 0.01
    }
    bias_filler {
      type: "constant"
      value: 0
    }
  }
}
layers {
  bottom: "conv5_1"
  top: "conv5_1"
  name: "relu5_1"
  type: RELU
}
layers {
  bottom: "conv5_1"
  top: "conv5_2"
  name: "conv5_2"
  type: CONVOLUTION
  convolution_param {
    num_output: 512
    pad: 1
    kernel_size: 3
    weight_filler {
      type: "gaussian"
      std: 0.01
    }
    bias_filler {
      type: "constant"
      value: 0
    }
  }
}
layers {
  bottom: "conv5_2"
  top: "conv5_2"
  name: "relu5_2"
  type: RELU
}
layers {
  bottom: "conv5_2"
  top: "conv5_3"
  name: "conv5_3"
  type: CONVOLUTION
  convolution_param {
    num_output: 512
    pad: 1
    kernel_size: 3
    weight_filler {
      type: "gaussian"
      std: 0.01
    }
    bias_filler {
      type: "constant"
      value: 0
    }
  }
}
layers {
  bottom: "conv5_3"
  top: "conv5_3"
  name: "relu5_3"
  type: RELU
}
layers {
  bottom: "conv5_3"
  top: "pool5"
  name: "pool5"
  type: POOLING
  pooling_param {
    pool: MAX
    kernel_size: 2
    stride: 2
  }
}
layers {
  bottom: "pool5"
  top: "fc6"
  name: "fc6"
  type: INNER_PRODUCT
  inner_product_param {
    num_output: 4096
    weight_filler {
      type: "gaussian"
      std: 0.01
    }
    bias_filler {
      type: "constant"
      value: 0
    }
  }
}
layers {
  bottom: "fc6"
  top: "fc6"
  name: "relu6"
  type: RELU
}
layers {
  bottom: "fc6"
  top: "fc6"
  name: "drop6"
  type: DROPOUT
  dropout_param {
    dropout_ratio: 0.5
  }
}
layers {
  bottom: "fc6"
  top: "fc7"
  name: "fc7"
  type: INNER_PRODUCT
  inner_product_param {
    num_output: 4096
    weight_filler {
      type: "gaussian"
      std: 0.01
    }
    bias_filler {
      type: "constant"
      value: 0
    }
  }
}
layers {
  bottom: "fc7"
  top: "fc7"
  name: "relu7"
  type: RELU
}
layers {
  bottom: "fc7"
  top: "fc7"
  name: "drop7"
  type: DROPOUT
  dropout_param {
    dropout_ratio: 0.5
  }
}
layers {
  bottom: "fc7"
  top: "fc8_2"
  name: "fc8_2"
  type: INNER_PRODUCT
  inner_product_param {
    num_output: 2
    weight_filler {
      type: "gaussian"
      std: 0.01
    }
    bias_filler {
      type: "constant"
      value: 0
    }
  }
}
layers {
  bottom: "fc8_2"
  bottom: "label"
  name: "loss"
  type: SOFTMAX_LOSS
}
state {
  phase: TRAIN
}
I1106 20:57:37.539548 12274 layer_factory.hpp:78] Creating layer data
I1106 20:57:37.539599 12274 net.cpp:67] Creating Layer data
I1106 20:57:37.539624 12274 net.cpp:356] data -> data
I1106 20:57:37.539669 12274 net.cpp:356] data -> label
I1106 20:57:37.539708 12274 net.cpp:96] Setting up data
I1106 20:57:37.539731 12274 image_data_layer.cpp:34] Opening file /data/ad6813/devCaffe/caffe/data/clamp/train.txt
…
