…
I1106 04:57:23.864856  3752 net.cpp:275] The NetState phase (0) differed from the phase (1) specified by a rule in layer accuracy
I1106 04:57:23.865039  3752 net.cpp:39] Initializing net from parameters: 
name: "small"
layers {
  top: "data"
  top: "label"
  name: "data"
  type: IMAGE_DATA
  image_data_param {
    source: "/data/ad6813/devCaffe/caffe/data/inadcl/train.txt"
    batch_size: 32
    new_height: 256
    new_width: 256
  }
  include {
    phase: TRAIN
  }
  transform_param {
    mirror: true
    crop_size: 224
    mean_value: 86.752
    mean_value: 101.46
    mean_value: 104.6
  }
}
layers {
  bottom: "data"
  top: "conv1_1"
  name: "conv1_1"
  type: CONVOLUTION
  convolution_param {
    num_output: 64
    pad: 1
    kernel_size: 3
    weight_filler {
      type: "gaussian"
      std: 0.01
    }
    bias_filler {
      type: "constant"
      value: 0
    }
  }
}
layers {
  bottom: "conv1_1"
  top: "conv1_1"
  name: "relu1_1"
  type: RELU
}
layers {
  bottom: "conv1_1"
  top: "conv1_2"
  name: "conv1_2"
  type: CONVOLUTION
  convolution_param {
    num_output: 64
    pad: 1
    kernel_size: 3
    weight_filler {
      type: "gaussian"
      std: 0.01
    }
    bias_filler {
      type: "constant"
      value: 0
    }
  }
}
layers {
  bottom: "conv1_2"
  top: "conv1_2"
  name: "relu1_2"
  type: RELU
}
layers {
  bottom: "conv1_2"
  top: "pool1"
  name: "pool1"
  type: POOLING
  pooling_param {
    pool: MAX
    kernel_size: 2
    stride: 2
  }
}
layers {
  bottom: "pool1"
  top: "conv2_1"
  name: "conv2_1"
  type: CONVOLUTION
  convolution_param {
    num_output: 128
    pad: 1
    kernel_size: 3
    weight_filler {
      type: "gaussian"
      std: 0.01
    }
    bias_filler {
      type: "constant"
      value: 0
    }
  }
}
layers {
  bottom: "conv2_1"
  top: "conv2_1"
  name: "relu2_1"
  type: RELU
}
layers {
  bottom: "conv2_1"
  top: "conv2_2"
  name: "conv2_2"
  type: CONVOLUTION
  convolution_param {
    num_output: 128
    pad: 1
    kernel_size: 3
    weight_filler {
      type: "gaussian"
      std: 0.01
    }
    bias_filler {
      type: "constant"
      value: 0
    }
  }
}
layers {
  bottom: "conv2_2"
  top: "conv2_2"
  name: "relu2_2"
  type: RELU
}
layers {
  bottom: "conv2_2"
  top: "pool2"
  name: "pool2"
  type: POOLING
  pooling_param {
    pool: MAX
    kernel_size: 2
    stride: 2
  }
}
layers {
  bottom: "pool2"
  top: "conv3_1"
  name: "conv3_1"
  type: CONVOLUTION
  convolution_param {
    num_output: 256
    pad: 1
    kernel_size: 3
    weight_filler {
      type: "gaussian"
      std: 0.01
    }
    bias_filler {
      type: "constant"
      value: 0
    }
  }
}
layers {
  bottom: "conv3_1"
  top: "conv3_1"
  name: "relu3_1"
  type: RELU
}
layers {
  bottom: "conv3_1"
  top: "conv3_2"
  name: "conv3_2"
  type: CONVOLUTION
  convolution_param {
    num_output: 256
    pad: 1
    kernel_size: 3
    weight_filler {
      type: "gaussian"
      std: 0.01
    }
    bias_filler {
      type: "constant"
      value: 0
    }
  }
}
layers {
  bottom: "conv3_2"
  top: "conv3_2"
  name: "relu3_2"
  type: RELU
}
layers {
  bottom: "conv3_2"
  top: "conv3_3"
  name: "conv3_3"
  type: CONVOLUTION
  convolution_param {
    num_output: 256
    pad: 1
    kernel_size: 3
    weight_filler {
      type: "gaussian"
      std: 0.01
    }
    bias_filler {
      type: "constant"
      value: 0
    }
  }
}
layers {
  bottom: "conv3_3"
  top: "conv3_3"
  name: "relu3_3"
  type: RELU
}
layers {
  bottom: "conv3_3"
  top: "pool3"
  name: "pool3"
  type: POOLING
  pooling_param {
    pool: MAX
    kernel_size: 2
    stride: 2
  }
}
layers {
  bottom: "pool3"
  top: "conv4_1"
  name: "conv4_1"
  type: CONVOLUTION
  convolution_param {
    num_output: 512
    pad: 1
    kernel_size: 3
    weight_filler {
      type: "gaussian"
      std: 0.01
    }
    bias_filler {
      type: "constant"
      value: 0
    }
  }
}
layers {
  bottom: "conv4_1"
  top: "conv4_1"
  name: "relu4_1"
  type: RELU
}
layers {
  bottom: "conv4_1"
  top: "conv4_2"
  name: "conv4_2"
  type: CONVOLUTION
  convolution_param {
    num_output: 512
    pad: 1
    kernel_size: 3
    weight_filler {
      type: "gaussian"
      std: 0.01
    }
    bias_filler {
      type: "constant"
      value: 0
    }
  }
}
layers {
  bottom: "conv4_2"
  top: "conv4_2"
  name: "relu4_2"
  type: RELU
}
layers {
  bottom: "conv4_2"
  top: "conv4_3"
  name: "conv4_3"
  type: CONVOLUTION
  convolution_param {
    num_output: 512
    pad: 1
    kernel_size: 3
    weight_filler {
      type: "gaussian"
      std: 0.01
    }
    bias_filler {
      type: "constant"
      value: 0
    }
  }
}
layers {
  bottom: "conv4_3"
  top: "conv4_3"
  name: "relu4_3"
  type: RELU
}
layers {
  bottom: "conv4_3"
  top: "pool4"
  name: "pool4"
  type: POOLING
  pooling_param {
    pool: MAX
    kernel_size: 2
    stride: 2
  }
}
layers {
  bottom: "pool4"
  top: "conv5_1"
  name: "conv5_1"
  type: CONVOLUTION
  convolution_param {
    num_output: 512
    pad: 1
    kernel_size: 3
    weight_filler {
      type: "gaussian"
      std: 0.01
    }
    bias_filler {
      type: "constant"
      value: 0
    }
  }
}
layers {
  bottom: "conv5_1"
  top: "conv5_1"
  name: "relu5_1"
  type: RELU
}
layers {
  bottom: "conv5_1"
  top: "conv5_2"
  name: "conv5_2"
  type: CONVOLUTION
  convolution_param {
    num_output: 512
    pad: 1
    kernel_size: 3
    weight_filler {
      type: "gaussian"
      std: 0.01
    }
    bias_filler {
      type: "constant"
      value: 0
    }
  }
}
layers {
  bottom: "conv5_2"
  top: "conv5_2"
  name: "relu5_2"
  type: RELU
}
layers {
  bottom: "conv5_2"
  top: "conv5_3"
  name: "conv5_3"
  type: CONVOLUTION
  convolution_param {
    num_output: 512
    pad: 1
    kernel_size: 3
    weight_filler {
      type: "gaussian"
      std: 0.01
    }
    bias_filler {
      type: "constant"
      value: 0
    }
  }
}
layers {
  bottom: "conv5_3"
  top: "conv5_3"
  name: "relu5_3"
  type: RELU
}
layers {
  bottom: "conv5_3"
  top: "pool5"
  name: "pool5"
  type: POOLING
  pooling_param {
    pool: MAX
    kernel_size: 2
    stride: 2
  }
}
layers {
  bottom: "pool5"
  top: "fc6"
  name: "fc6"
  type: INNER_PRODUCT
  inner_product_param {
    num_output: 4096
    weight_filler {
      type: "gaussian"
      std: 0.01
    }
    bias_filler {
      type: "constant"
      value: 0
    }
  }
}
layers {
  bottom: "fc6"
  top: "fc6"
  name: "relu6"
  type: RELU
}
layers {
  bottom: "fc6"
  top: "fc6"
  name: "drop6"
  type: DROPOUT
  dropout_param {
    dropout_ratio: 0.5
  }
}
layers {
  bottom: "fc6"
  top: "fc7"
  name: "fc7"
  type: INNER_PRODUCT
  inner_product_param {
    num_output: 4096
    weight_filler {
      type: "gaussian"
      std: 0.01
    }
    bias_filler {
      type: "constant"
      value: 0
    }
  }
}
layers {
  bottom: "fc7"
  top: "fc7"
  name: "relu7"
  type: RELU
}
layers {
  bottom: "fc7"
  top: "fc7"
  name: "drop7"
  type: DROPOUT
  dropout_param {
    dropout_ratio: 0.5
  }
}
layers {
  bottom: "fc7"
  top: "fc8_2"
  name: "fc8_2"
  type: INNER_PRODUCT
  inner_product_param {
    num_output: 2
    weight_filler {
      type: "gaussian"
      std: 0.01
    }
    bias_filler {
      type: "constant"
      value: 0
    }
  }
}
layers {
  bottom: "fc8_2"
  bottom: "label"
  name: "loss"
  type: SOFTMAX_LOSS
}
state {
  phase: TRAIN
}
I1106 04:57:23.865169  3752 layer_factory.hpp:78] Creating layer data
I1106 04:57:23.865186  3752 net.cpp:67] Creating Layer data
I1106 04:57:23.865197  3752 net.cpp:356] data -> data
I1106 04:57:23.865213  3752 net.cpp:356] data -> label
I1106 04:57:23.865226  3752 net.cpp:96] Setting up data
I1106 04:57:23.865232  3752 image_data_layer.cpp:34] Opening file /data/ad6813/devCaffe/caffe/data/inadcl/train.txt
I1106 04:57:23.868598  3752 image_data_layer.cpp:49] A total of 9113 images.
E1106 04:57:23.868634  3752 io.cpp:75] Could not open or find file /data/ad6813/pipe-data/Redbox106293.jpg
I1106 04:57:23.868712  3752 image_data_layer.cpp:78] output data size: 32,1,224,224
I1106 04:57:23.870337  3752 net.cpp:103] Top shape: 32 1 224 224 (1605632)
I1106 04:57:23.870352  3752 net.cpp:103] Top shape: 32 1 1 1 (32)
I1106 04:57:23.870357  3752 layer_factory.hpp:78] Creating layer conv1_1
I1106 04:57:23.870378  3752 net.cpp:67] Creating Layer conv1_1
I1106 04:57:23.870383  3752 net.cpp:394] conv1_1 <- data
I1106 04:57:23.870395  3752 net.cpp:356] conv1_1 -> conv1_1
I1106 04:57:23.870405  3752 net.cpp:96] Setting up conv1_1
E1106 04:57:23.877765  3755 io.cpp:75] Could not open or find file /data/ad6813/pipe-data/Redbox106293.jpg
…
E1106 04:57:23.877943  3755 io.cpp:75] Could not open or find file /data/ad6813/pipe-data/Redbox106293.jpg
E1106 04:57:23.877948  3755 io.cpp:75] Could not open or find file /data/ad6813/pipe-data/Redbox106293.jpg
E1106 04:57:23.877954  3755 io.cpp:75] Could not open or find file /data/ad6813/pipe-data/Redbox106293.jpg
E1106 04:57:23.877970  3755 io.cpp:75] Could not open or find file /data/ad6813/pipe-data/Redbox106293.jpg
E1106 04:57:23.877982  3755 io.cpp:75] Could not open or find file /data/ad6813/pipe-data/Redbox106293.jpg
E1106 04:57:23.877989  3755 io.cpp:75] Could not open or find file /data/ad6813/pipe-data/Redbox106293.jpg
I1106 04:57:23.894915  3752 net.cpp:103] Top shape: 32 64 224 224 (102760448)
I1106 04:57:23.894963  3752 layer_factory.hpp:78] Creating layer relu1_1
I1106 04:57:23.894975  3752 net.cpp:67] Creating Layer relu1_1
I1106 04:57:23.894980  3752 net.cpp:394] relu1_1 <- conv1_1
I1106 04:57:23.894987  3752 net.cpp:345] relu1_1 -> conv1_1 (in-place)
I1106 04:57:23.894996  3752 net.cpp:96] Setting up relu1_1
I1106 04:57:23.895005  3752 net.cpp:103] Top shape: 32 64 224 224 (102760448)
I1106 04:57:23.895009  3752 layer_factory.hpp:78] Creating layer conv1_2
I1106 04:57:23.895016  3752 net.cpp:67] Creating Layer conv1_2
I1106 04:57:23.895020  3752 net.cpp:394] conv1_2 <- conv1_1
I1106 04:57:23.895025  3752 net.cpp:356] conv1_2 -> conv1_2
I1106 04:57:23.895031  3752 net.cpp:96] Setting up conv1_2
I1106 04:57:23.896082  3752 net.cpp:103] Top shape: 32 64 224 224 (102760448)
I1106 04:57:23.896096  3752 layer_factory.hpp:78] Creating layer relu1_2
I1106 04:57:23.896102  3752 net.cpp:67] Creating Layer relu1_2
I1106 04:57:23.896106  3752 net.cpp:394] relu1_2 <- conv1_2
I1106 04:57:23.896111  3752 net.cpp:345] relu1_2 -> conv1_2 (in-place)
I1106 04:57:23.896116  3752 net.cpp:96] Setting up relu1_2
I1106 04:57:23.896121  3752 net.cpp:103] Top shape: 32 64 224 224 (102760448)
I1106 04:57:23.896124  3752 layer_factory.hpp:78] Creating layer pool1
I1106 04:57:23.896134  3752 net.cpp:67] Creating Layer pool1
I1106 04:57:23.896137  3752 net.cpp:394] pool1 <- conv1_2
I1106 04:57:23.896142  3752 net.cpp:356] pool1 -> pool1
I1106 04:57:23.896148  3752 net.cpp:96] Setting up pool1
I1106 04:57:23.896164  3752 net.cpp:103] Top shape: 32 64 112 112 (25690112)
I1106 04:57:23.896169  3752 layer_factory.hpp:78] Creating layer conv2_1
I1106 04:57:23.896177  3752 net.cpp:67] Creating Layer conv2_1
I1106 04:57:23.896180  3752 net.cpp:394] conv2_1 <- pool1
I1106 04:57:23.896185  3752 net.cpp:356] conv2_1 -> conv2_1
I1106 04:57:23.896190  3752 net.cpp:96] Setting up conv2_1
I1106 04:57:23.898093  3752 net.cpp:103] Top shape: 32 128 112 112 (51380224)
I1106 04:57:23.898107  3752 layer_factory.hpp:78] Creating layer relu2_1
I1106 04:57:23.898111  3752 net.cpp:67] Creating Layer relu2_1
I1106 04:57:23.898115  3752 net.cpp:394] relu2_1 <- conv2_1
I1106 04:57:23.898119  3752 net.cpp:345] relu2_1 -> conv2_1 (in-place)
I1106 04:57:23.898124  3752 net.cpp:96] Setting up relu2_1
I1106 04:57:23.898130  3752 net.cpp:103] Top shape: 32 128 112 112 (51380224)
I1106 04:57:23.898133  3752 layer_factory.hpp:78] Creating layer conv2_2
I1106 04:57:23.898141  3752 net.cpp:67] Creating Layer conv2_2
I1106 04:57:23.898144  3752 net.cpp:394] conv2_2 <- conv2_1
I1106 04:57:23.898149  3752 net.cpp:356] conv2_2 -> conv2_2
I1106 04:57:23.898155  3752 net.cpp:96] Setting up conv2_2
I1106 04:57:23.901893  3752 net.cpp:103] Top shape: 32 128 112 112 (51380224)
I1106 04:57:23.901906  3752 layer_factory.hpp:78] Creating layer relu2_2
I1106 04:57:23.901911  3752 net.cpp:67] Creating Layer relu2_2
I1106 04:57:23.901913  3752 net.cpp:394] relu2_2 <- conv2_2
I1106 04:57:23.901918  3752 net.cpp:345] relu2_2 -> conv2_2 (in-place)
I1106 04:57:23.901923  3752 net.cpp:96] Setting up relu2_2
I1106 04:57:23.901928  3752 net.cpp:103] Top shape: 32 128 112 112 (51380224)
I1106 04:57:23.901932  3752 layer_factory.hpp:78] Creating layer pool2
I1106 04:57:23.901937  3752 net.cpp:67] Creating Layer pool2
I1106 04:57:23.901940  3752 net.cpp:394] pool2 <- conv2_2
I1106 04:57:23.901947  3752 net.cpp:356] pool2 -> pool2
I1106 04:57:23.901952  3752 net.cpp:96] Setting up pool2
I1106 04:57:23.901958  3752 net.cpp:103] Top shape: 32 128 56 56 (12845056)
I1106 04:57:23.901962  3752 layer_factory.hpp:78] Creating layer conv3_1
I1106 04:57:23.901968  3752 net.cpp:67] Creating Layer conv3_1
I1106 04:57:23.901981  3752 net.cpp:394] conv3_1 <- pool2
I1106 04:57:23.901994  3752 net.cpp:356] conv3_1 -> conv3_1
I1106 04:57:23.902000  3752 net.cpp:96] Setting up conv3_1
I1106 04:57:23.909404  3752 net.cpp:103] Top shape: 32 256 56 56 (25690112)
I1106 04:57:23.909420  3752 layer_factory.hpp:78] Creating layer relu3_1
I1106 04:57:23.909425  3752 net.cpp:67] Creating Layer relu3_1
I1106 04:57:23.909430  3752 net.cpp:394] relu3_1 <- conv3_1
I1106 04:57:23.909433  3752 net.cpp:345] relu3_1 -> conv3_1 (in-place)
I1106 04:57:23.909440  3752 net.cpp:96] Setting up relu3_1
I1106 04:57:23.909445  3752 net.cpp:103] Top shape: 32 256 56 56 (25690112)
I1106 04:57:23.909447  3752 layer_factory.hpp:78] Creating layer conv3_2
I1106 04:57:23.909453  3752 net.cpp:67] Creating Layer conv3_2
I1106 04:57:23.909456  3752 net.cpp:394] conv3_2 <- conv3_1
I1106 04:57:23.909462  3752 net.cpp:356] conv3_2 -> conv3_2
I1106 04:57:23.909468  3752 net.cpp:96] Setting up conv3_2
I1106 04:57:23.924295  3752 net.cpp:103] Top shape: 32 256 56 56 (25690112)
I1106 04:57:23.924309  3752 layer_factory.hpp:78] Creating layer relu3_2
I1106 04:57:23.924316  3752 net.cpp:67] Creating Layer relu3_2
I1106 04:57:23.924320  3752 net.cpp:394] relu3_2 <- conv3_2
I1106 04:57:23.924325  3752 net.cpp:345] relu3_2 -> conv3_2 (in-place)
I1106 04:57:23.924331  3752 net.cpp:96] Setting up relu3_2
I1106 04:57:23.924336  3752 net.cpp:103] Top shape: 32 256 56 56 (25690112)
I1106 04:57:23.924340  3752 layer_factory.hpp:78] Creating layer conv3_3
I1106 04:57:23.924345  3752 net.cpp:67] Creating Layer conv3_3
I1106 04:57:23.924350  3752 net.cpp:394] conv3_3 <- conv3_2
I1106 04:57:23.924353  3752 net.cpp:356] conv3_3 -> conv3_3
I1106 04:57:23.924360  3752 net.cpp:96] Setting up conv3_3
I1106 04:57:23.939081  3752 net.cpp:103] Top shape: 32 256 56 56 (25690112)
I1106 04:57:23.939095  3752 layer_factory.hpp:78] Creating layer relu3_3
I1106 04:57:23.939103  3752 net.cpp:67] Creating Layer relu3_3
I1106 04:57:23.939107  3752 net.cpp:394] relu3_3 <- conv3_3
I1106 04:57:23.939112  3752 net.cpp:345] relu3_3 -> conv3_3 (in-place)
I1106 04:57:23.939117  3752 net.cpp:96] Setting up relu3_3
I1106 04:57:23.939122  3752 net.cpp:103] Top shape: 32 256 56 56 (25690112)
I1106 04:57:23.939126  3752 layer_factory.hpp:78] Creating layer pool3
I1106 04:57:23.939131  3752 net.cpp:67] Creating Layer pool3
I1106 04:57:23.939134  3752 net.cpp:394] pool3 <- conv3_3
I1106 04:57:23.939139  3752 net.cpp:356] pool3 -> pool3
I1106 04:57:23.939144  3752 net.cpp:96] Setting up pool3
I1106 04:57:23.939151  3752 net.cpp:103] Top shape: 32 256 28 28 (6422528)
I1106 04:57:23.939154  3752 layer_factory.hpp:78] Creating layer conv4_1
I1106 04:57:23.939160  3752 net.cpp:67] Creating Layer conv4_1
I1106 04:57:23.939164  3752 net.cpp:394] conv4_1 <- pool3
I1106 04:57:23.939169  3752 net.cpp:356] conv4_1 -> conv4_1
I1106 04:57:23.939174  3752 net.cpp:96] Setting up conv4_1
I1106 04:57:23.968169  3752 net.cpp:103] Top shape: 32 512 28 28 (12845056)
I1106 04:57:23.968185  3752 layer_factory.hpp:78] Creating layer relu4_1
I1106 04:57:23.968190  3752 net.cpp:67] Creating Layer relu4_1
I1106 04:57:23.968194  3752 net.cpp:394] relu4_1 <- conv4_1
I1106 04:57:23.968199  3752 net.cpp:345] relu4_1 -> conv4_1 (in-place)
I1106 04:57:23.968204  3752 net.cpp:96] Setting up relu4_1
I1106 04:57:23.968210  3752 net.cpp:103] Top shape: 32 512 28 28 (12845056)
I1106 04:57:23.968214  3752 layer_factory.hpp:78] Creating layer conv4_2
I1106 04:57:23.968220  3752 net.cpp:67] Creating Layer conv4_2
I1106 04:57:23.968225  3752 net.cpp:394] conv4_2 <- conv4_1
I1106 04:57:23.968231  3752 net.cpp:356] conv4_2 -> conv4_2
I1106 04:57:23.968236  3752 net.cpp:96] Setting up conv4_2
I1106 04:57:24.025903  3752 net.cpp:103] Top shape: 32 512 28 28 (12845056)
I1106 04:57:24.025939  3752 layer_factory.hpp:78] Creating layer relu4_2
I1106 04:57:24.025950  3752 net.cpp:67] Creating Layer relu4_2
I1106 04:57:24.025955  3752 net.cpp:394] relu4_2 <- conv4_2
I1106 04:57:24.025961  3752 net.cpp:345] relu4_2 -> conv4_2 (in-place)
I1106 04:57:24.025969  3752 net.cpp:96] Setting up relu4_2
I1106 04:57:24.025985  3752 net.cpp:103] Top shape: 32 512 28 28 (12845056)
I1106 04:57:24.025995  3752 layer_factory.hpp:78] Creating layer conv4_3
I1106 04:57:24.026003  3752 net.cpp:67] Creating Layer conv4_3
I1106 04:57:24.026006  3752 net.cpp:394] conv4_3 <- conv4_2
I1106 04:57:24.026012  3752 net.cpp:356] conv4_3 -> conv4_3
I1106 04:57:24.026018  3752 net.cpp:96] Setting up conv4_3
I1106 04:57:24.083343  3752 net.cpp:103] Top shape: 32 512 28 28 (12845056)
I1106 04:57:24.083376  3752 layer_factory.hpp:78] Creating layer relu4_3
I1106 04:57:24.083384  3752 net.cpp:67] Creating Layer relu4_3
I1106 04:57:24.083390  3752 net.cpp:394] relu4_3 <- conv4_3
I1106 04:57:24.083400  3752 net.cpp:345] relu4_3 -> conv4_3 (in-place)
I1106 04:57:24.083406  3752 net.cpp:96] Setting up relu4_3
I1106 04:57:24.083413  3752 net.cpp:103] Top shape: 32 512 28 28 (12845056)
I1106 04:57:24.083416  3752 layer_factory.hpp:78] Creating layer pool4
I1106 04:57:24.083422  3752 net.cpp:67] Creating Layer pool4
I1106 04:57:24.083426  3752 net.cpp:394] pool4 <- conv4_3
I1106 04:57:24.083431  3752 net.cpp:356] pool4 -> pool4
I1106 04:57:24.083436  3752 net.cpp:96] Setting up pool4
I1106 04:57:24.083444  3752 net.cpp:103] Top shape: 32 512 14 14 (3211264)
I1106 04:57:24.083448  3752 layer_factory.hpp:78] Creating layer conv5_1
I1106 04:57:24.083456  3752 net.cpp:67] Creating Layer conv5_1
I1106 04:57:24.083459  3752 net.cpp:394] conv5_1 <- pool4
I1106 04:57:24.083466  3752 net.cpp:356] conv5_1 -> conv5_1
I1106 04:57:24.083473  3752 net.cpp:96] Setting up conv5_1
I1106 04:57:24.141242  3752 net.cpp:103] Top shape: 32 512 14 14 (3211264)
I1106 04:57:24.141275  3752 layer_factory.hpp:78] Creating layer relu5_1
I1106 04:57:24.141283  3752 net.cpp:67] Creating Layer relu5_1
I1106 04:57:24.141288  3752 net.cpp:394] relu5_1 <- conv5_1
I1106 04:57:24.141296  3752 net.cpp:345] relu5_1 -> conv5_1 (in-place)
I1106 04:57:24.141304  3752 net.cpp:96] Setting up relu5_1
I1106 04:57:24.141310  3752 net.cpp:103] Top shape: 32 512 14 14 (3211264)
I1106 04:57:24.141314  3752 layer_factory.hpp:78] Creating layer conv5_2
I1106 04:57:24.141320  3752 net.cpp:67] Creating Layer conv5_2
I1106 04:57:24.141324  3752 net.cpp:394] conv5_2 <- conv5_1
I1106 04:57:24.141330  3752 net.cpp:356] conv5_2 -> conv5_2
I1106 04:57:24.141336  3752 net.cpp:96] Setting up conv5_2
I1106 04:57:24.198664  3752 net.cpp:103] Top shape: 32 512 14 14 (3211264)
I1106 04:57:24.198698  3752 layer_factory.hpp:78] Creating layer relu5_2
I1106 04:57:24.198705  3752 net.cpp:67] Creating Layer relu5_2
I1106 04:57:24.198710  3752 net.cpp:394] relu5_2 <- conv5_2
I1106 04:57:24.198717  3752 net.cpp:345] relu5_2 -> conv5_2 (in-place)
I1106 04:57:24.198726  3752 net.cpp:96] Setting up relu5_2
I1106 04:57:24.198731  3752 net.cpp:103] Top shape: 32 512 14 14 (3211264)
I1106 04:57:24.198735  3752 layer_factory.hpp:78] Creating layer conv5_3
I1106 04:57:24.198741  3752 net.cpp:67] Creating Layer conv5_3
I1106 04:57:24.198745  3752 net.cpp:394] conv5_3 <- conv5_2
I1106 04:57:24.198750  3752 net.cpp:356] conv5_3 -> conv5_3
I1106 04:57:24.198755  3752 net.cpp:96] Setting up conv5_3
I1106 04:57:24.256397  3752 net.cpp:103] Top shape: 32 512 14 14 (3211264)
I1106 04:57:24.256428  3752 layer_factory.hpp:78] Creating layer relu5_3
I1106 04:57:24.256436  3752 net.cpp:67] Creating Layer relu5_3
I1106 04:57:24.256441  3752 net.cpp:394] relu5_3 <- conv5_3
I1106 04:57:24.256448  3752 net.cpp:345] relu5_3 -> conv5_3 (in-place)
I1106 04:57:24.256455  3752 net.cpp:96] Setting up relu5_3
I1106 04:57:24.256461  3752 net.cpp:103] Top shape: 32 512 14 14 (3211264)
I1106 04:57:24.256465  3752 layer_factory.hpp:78] Creating layer pool5
I1106 04:57:24.256471  3752 net.cpp:67] Creating Layer pool5
I1106 04:57:24.256474  3752 net.cpp:394] pool5 <- conv5_3
I1106 04:57:24.256479  3752 net.cpp:356] pool5 -> pool5
I1106 04:57:24.256487  3752 net.cpp:96] Setting up pool5
I1106 04:57:24.256495  3752 net.cpp:103] Top shape: 32 512 7 7 (802816)
I1106 04:57:24.256500  3752 layer_factory.hpp:78] Creating layer fc6
I1106 04:57:24.256523  3752 net.cpp:67] Creating Layer fc6
I1106 04:57:24.256527  3752 net.cpp:394] fc6 <- pool5
I1106 04:57:24.256543  3752 net.cpp:356] fc6 -> fc6
I1106 04:57:24.256549  3752 net.cpp:96] Setting up fc6
I1106 18:13:53.727416  9798 caffe.cpp:99] Use GPU with device ID 0
I1106 18:13:54.747215  9798 caffe.cpp:107] Starting Optimization
…
I1106 18:13:54.748129  9798 net.cpp:275] The NetState phase (0) differed from the phase (1) specified by a rule in layer accuracy
I1106 18:13:54.748316  9798 net.cpp:39] Initializing net from parameters: 
name: "small"
layers {
  top: "data"
  top: "label"
  name: "data"
  type: IMAGE_DATA
  image_data_param {
    source: "/data/ad6813/devCaffe/caffe/data/soil_high/train.txt"
    batch_size: 32
    new_height: 256
    new_width: 256
  }
  include {
    phase: TRAIN
  }
  transform_param {
    mirror: true
    crop_size: 224
    mean_value: 86.752
    mean_value: 101.46
    mean_value: 104.6
  }
}
layers {
  bottom: "data"
  top: "conv1_1"
  name: "conv1_1"
  type: CONVOLUTION
  convolution_param {
    num_output: 64
    pad: 1
    kernel_size: 3
    weight_filler {
      type: "gaussian"
      std: 0.01
    }
    bias_filler {
      type: "constant"
      value: 0
    }
  }
}
layers {
  bottom: "conv1_1"
  top: "conv1_1"
  name: "relu1_1"
  type: RELU
}
layers {
  bottom: "conv1_1"
  top: "conv1_2"
  name: "conv1_2"
  type: CONVOLUTION
  convolution_param {
    num_output: 64
    pad: 1
    kernel_size: 3
    weight_filler {
      type: "gaussian"
      std: 0.01
    }
    bias_filler {
      type: "constant"
      value: 0
    }
  }
}
layers {
  bottom: "conv1_2"
  top: "conv1_2"
  name: "relu1_2"
  type: RELU
}
layers {
  bottom: "conv1_2"
  top: "pool1"
  name: "pool1"
  type: POOLING
  pooling_param {
    pool: MAX
    kernel_size: 2
    stride: 2
  }
}
layers {
  bottom: "pool1"
  top: "conv2_1"
  name: "conv2_1"
  type: CONVOLUTION
  convolution_param {
    num_output: 128
    pad: 1
    kernel_size: 3
    weight_filler {
      type: "gaussian"
      std: 0.01
    }
    bias_filler {
      type: "constant"
      value: 0
    }
  }
}
layers {
  bottom: "conv2_1"
  top: "conv2_1"
  name: "relu2_1"
  type: RELU
}
layers {
  bottom: "conv2_1"
  top: "conv2_2"
  name: "conv2_2"
  type: CONVOLUTION
  convolution_param {
    num_output: 128
    pad: 1
    kernel_size: 3
    weight_filler {
      type: "gaussian"
      std: 0.01
    }
    bias_filler {
      type: "constant"
      value: 0
    }
  }
}
layers {
  bottom: "conv2_2"
  top: "conv2_2"
  name: "relu2_2"
  type: RELU
}
layers {
  bottom: "conv2_2"
  top: "pool2"
  name: "pool2"
  type: POOLING
  pooling_param {
    pool: MAX
    kernel_size: 2
    stride: 2
  }
}
layers {
  bottom: "pool2"
  top: "conv3_1"
  name: "conv3_1"
  type: CONVOLUTION
  convolution_param {
    num_output: 256
    pad: 1
    kernel_size: 3
    weight_filler {
      type: "gaussian"
      std: 0.01
    }
    bias_filler {
      type: "constant"
      value: 0
    }
  }
}
layers {
  bottom: "conv3_1"
  top: "conv3_1"
  name: "relu3_1"
  type: RELU
}
layers {
  bottom: "conv3_1"
  top: "conv3_2"
  name: "conv3_2"
  type: CONVOLUTION
  convolution_param {
    num_output: 256
    pad: 1
    kernel_size: 3
    weight_filler {
      type: "gaussian"
      std: 0.01
    }
    bias_filler {
      type: "constant"
      value: 0
    }
  }
}
layers {
  bottom: "conv3_2"
  top: "conv3_2"
  name: "relu3_2"
  type: RELU
}
layers {
  bottom: "conv3_2"
  top: "conv3_3"
  name: "conv3_3"
  type: CONVOLUTION
  convolution_param {
    num_output: 256
    pad: 1
    kernel_size: 3
    weight_filler {
      type: "gaussian"
      std: 0.01
    }
    bias_filler {
      type: "constant"
      value: 0
    }
  }
}
layers {
  bottom: "conv3_3"
  top: "conv3_3"
  name: "relu3_3"
  type: RELU
}
layers {
  bottom: "conv3_3"
  top: "pool3"
  name: "pool3"
  type: POOLING
  pooling_param {
    pool: MAX
    kernel_size: 2
    stride: 2
  }
}
layers {
  bottom: "pool3"
  top: "conv4_1"
  name: "conv4_1"
  type: CONVOLUTION
  convolution_param {
    num_output: 512
    pad: 1
    kernel_size: 3
    weight_filler {
      type: "gaussian"
      std: 0.01
    }
    bias_filler {
      type: "constant"
      value: 0
    }
  }
}
layers {
  bottom: "conv4_1"
  top: "conv4_1"
  name: "relu4_1"
  type: RELU
}
layers {
  bottom: "conv4_1"
  top: "conv4_2"
  name: "conv4_2"
  type: CONVOLUTION
  convolution_param {
    num_output: 512
    pad: 1
    kernel_size: 3
    weight_filler {
      type: "gaussian"
      std: 0.01
    }
    bias_filler {
      type: "constant"
      value: 0
    }
  }
}
layers {
  bottom: "conv4_2"
  top: "conv4_2"
  name: "relu4_2"
  type: RELU
}
layers {
  bottom: "conv4_2"
  top: "conv4_3"
  name: "conv4_3"
  type: CONVOLUTION
  convolution_param {
    num_output: 512
    pad: 1
    kernel_size: 3
    weight_filler {
      type: "gaussian"
      std: 0.01
    }
    bias_filler {
      type: "constant"
      value: 0
    }
  }
}
layers {
  bottom: "conv4_3"
  top: "conv4_3"
  name: "relu4_3"
  type: RELU
}
layers {
  bottom: "conv4_3"
  top: "pool4"
  name: "pool4"
  type: POOLING
  pooling_param {
    pool: MAX
    kernel_size: 2
    stride: 2
  }
}
layers {
  bottom: "pool4"
  top: "conv5_1"
  name: "conv5_1"
  type: CONVOLUTION
  convolution_param {
    num_output: 512
    pad: 1
    kernel_size: 3
    weight_filler {
      type: "gaussian"
      std: 0.01
    }
    bias_filler {
      type: "constant"
      value: 0
    }
  }
}
layers {
  bottom: "conv5_1"
  top: "conv5_1"
  name: "relu5_1"
  type: RELU
}
layers {
  bottom: "conv5_1"
  top: "conv5_2"
  name: "conv5_2"
  type: CONVOLUTION
  convolution_param {
    num_output: 512
    pad: 1
    kernel_size: 3
    weight_filler {
      type: "gaussian"
      std: 0.01
    }
    bias_filler {
      type: "constant"
      value: 0
    }
  }
}
layers {
  bottom: "conv5_2"
  top: "conv5_2"
  name: "relu5_2"
  type: RELU
}
layers {
  bottom: "conv5_2"
  top: "conv5_3"
  name: "conv5_3"
  type: CONVOLUTION
  convolution_param {
    num_output: 512
    pad: 1
    kernel_size: 3
    weight_filler {
      type: "gaussian"
      std: 0.01
    }
    bias_filler {
      type: "constant"
      value: 0
    }
  }
}
layers {
  bottom: "conv5_3"
  top: "conv5_3"
  name: "relu5_3"
  type: RELU
}
layers {
  bottom: "conv5_3"
  top: "pool5"
  name: "pool5"
  type: POOLING
  pooling_param {
    pool: MAX
    kernel_size: 2
    stride: 2
  }
}
layers {
  bottom: "pool5"
  top: "fc6"
  name: "fc6"
  type: INNER_PRODUCT
  inner_product_param {
    num_output: 4096
    weight_filler {
      type: "gaussian"
      std: 0.01
    }
    bias_filler {
      type: "constant"
      value: 0
    }
  }
}
layers {
  bottom: "fc6"
  top: "fc6"
  name: "relu6"
  type: RELU
}
layers {
  bottom: "fc6"
  top: "fc6"
  name: "drop6"
  type: DROPOUT
  dropout_param {
    dropout_ratio: 0.5
  }
}
layers {
  bottom: "fc6"
  top: "fc7"
  name: "fc7"
  type: INNER_PRODUCT
  inner_product_param {
    num_output: 4096
    weight_filler {
      type: "gaussian"
      std: 0.01
    }
    bias_filler {
      type: "constant"
      value: 0
    }
  }
}
layers {
  bottom: "fc7"
  top: "fc7"
  name: "relu7"
  type: RELU
}
layers {
  bottom: "fc7"
  top: "fc7"
  name: "drop7"
  type: DROPOUT
  dropout_param {
    dropout_ratio: 0.5
  }
}
layers {
  bottom: "fc7"
  top: "fc8_2"
  name: "fc8_2"
  type: INNER_PRODUCT
  inner_product_param {
    num_output: 2
    weight_filler {
      type: "gaussian"
      std: 0.01
    }
    bias_filler {
      type: "constant"
      value: 0
    }
  }
}
layers {
  bottom: "fc8_2"
  bottom: "label"
  name: "loss"
  type: SOFTMAX_LOSS
}
state {
  phase: TRAIN
}
I1106 18:13:54.748440  9798 layer_factory.hpp:78] Creating layer data
I1106 18:13:54.748458  9798 net.cpp:67] Creating Layer data
I1106 18:13:54.748467  9798 net.cpp:356] data -> data
I1106 18:13:54.748487  9798 net.cpp:356] data -> label
I1106 18:13:54.748497  9798 net.cpp:96] Setting up data
I1106 18:13:54.748504  9798 image_data_layer.cpp:34] Opening file /data/ad6813/devCaffe/caffe/data/soil_high/train.txt
I1106 18:13:54.761790  9798 image_data_layer.cpp:49] A total of 36734 images.
I1106 18:13:54.767519  9798 image_data_layer.cpp:78] output data size: 32,3,224,224
I1106 18:13:54.770556  9798 net.cpp:103] Top shape: 32 3 224 224 (4816896)
I1106 18:13:54.770584  9798 net.cpp:103] Top shape: 32 1 1 1 (32)
I1106 18:13:54.770589  9798 layer_factory.hpp:78] Creating layer conv1_1
I1106 18:13:54.770606  9798 net.cpp:67] Creating Layer conv1_1
I1106 18:13:54.770609  9798 net.cpp:394] conv1_1 <- data
I1106 18:13:54.770623  9798 net.cpp:356] conv1_1 -> conv1_1
I1106 18:13:54.770633  9798 net.cpp:96] Setting up conv1_1
I1106 18:13:54.788875  9798 net.cpp:103] Top shape: 32 64 224 224 (102760448)
I1106 18:13:54.788910  9798 layer_factory.hpp:78] Creating layer relu1_1
I1106 18:13:54.788923  9798 net.cpp:67] Creating Layer relu1_1
I1106 18:13:54.788926  9798 net.cpp:394] relu1_1 <- conv1_1
I1106 18:13:54.788933  9798 net.cpp:345] relu1_1 -> conv1_1 (in-place)
I1106 18:13:54.788943  9798 net.cpp:96] Setting up relu1_1
I1106 18:13:54.788956  9798 net.cpp:103] Top shape: 32 64 224 224 (102760448)
I1106 18:13:54.788961  9798 layer_factory.hpp:78] Creating layer conv1_2
I1106 18:13:54.788969  9798 net.cpp:67] Creating Layer conv1_2
I1106 18:13:54.788972  9798 net.cpp:394] conv1_2 <- conv1_1
I1106 18:13:54.788981  9798 net.cpp:356] conv1_2 -> conv1_2
I1106 18:13:54.788990  9798 net.cpp:96] Setting up conv1_2
I1106 18:13:54.790042  9798 net.cpp:103] Top shape: 32 64 224 224 (102760448)
I1106 18:13:54.790055  9798 layer_factory.hpp:78] Creating layer relu1_2
I1106 18:13:54.790061  9798 net.cpp:67] Creating Layer relu1_2
I1106 18:13:54.790065  9798 net.cpp:394] relu1_2 <- conv1_2
I1106 18:13:54.790071  9798 net.cpp:345] relu1_2 -> conv1_2 (in-place)
I1106 18:13:54.790076  9798 net.cpp:96] Setting up relu1_2
I1106 18:13:54.790081  9798 net.cpp:103] Top shape: 32 64 224 224 (102760448)
I1106 18:13:54.790087  9798 layer_factory.hpp:78] Creating layer pool1
I1106 18:13:54.790097  9798 net.cpp:67] Creating Layer pool1
I1106 18:13:54.790102  9798 net.cpp:394] pool1 <- conv1_2
I1106 18:13:54.790107  9798 net.cpp:356] pool1 -> pool1
I1106 18:13:54.790114  9798 net.cpp:96] Setting up pool1
I1106 18:13:54.790132  9798 net.cpp:103] Top shape: 32 64 112 112 (25690112)
I1106 18:13:54.790138  9798 layer_factory.hpp:78] Creating layer conv2_1
I1106 18:13:54.790146  9798 net.cpp:67] Creating Layer conv2_1
I1106 18:13:54.790151  9798 net.cpp:394] conv2_1 <- pool1
I1106 18:13:54.790159  9798 net.cpp:356] conv2_1 -> conv2_1
I1106 18:13:54.790165  9798 net.cpp:96] Setting up conv2_1
I1106 18:13:54.792095  9798 net.cpp:103] Top shape: 32 128 112 112 (51380224)
I1106 18:13:54.792110  9798 layer_factory.hpp:78] Creating layer relu2_1
I1106 18:13:54.792117  9798 net.cpp:67] Creating Layer relu2_1
I1106 18:13:54.792121  9798 net.cpp:394] relu2_1 <- conv2_1
I1106 18:13:54.792127  9798 net.cpp:345] relu2_1 -> conv2_1 (in-place)
I1106 18:13:54.792134  9798 net.cpp:96] Setting up relu2_1
I1106 18:13:54.792140  9798 net.cpp:103] Top shape: 32 128 112 112 (51380224)
I1106 18:13:54.792145  9798 layer_factory.hpp:78] Creating layer conv2_2
I1106 18:13:54.792153  9798 net.cpp:67] Creating Layer conv2_2
I1106 18:13:54.792157  9798 net.cpp:394] conv2_2 <- conv2_1
I1106 18:13:54.792165  9798 net.cpp:356] conv2_2 -> conv2_2
I1106 18:13:54.792171  9798 net.cpp:96] Setting up conv2_2
I1106 18:13:54.795907  9798 net.cpp:103] Top shape: 32 128 112 112 (51380224)
I1106 18:13:54.795918  9798 layer_factory.hpp:78] Creating layer relu2_2
I1106 18:13:54.795925  9798 net.cpp:67] Creating Layer relu2_2
I1106 18:13:54.795929  9798 net.cpp:394] relu2_2 <- conv2_2
I1106 18:13:54.795936  9798 net.cpp:345] relu2_2 -> conv2_2 (in-place)
I1106 18:13:54.795943  9798 net.cpp:96] Setting up relu2_2
I1106 18:13:54.795949  9798 net.cpp:103] Top shape: 32 128 112 112 (51380224)
I1106 18:13:54.795963  9798 layer_factory.hpp:78] Creating layer pool2
I1106 18:13:54.795969  9798 net.cpp:67] Creating Layer pool2
I1106 18:13:54.795972  9798 net.cpp:394] pool2 <- conv2_2
I1106 18:13:54.795979  9798 net.cpp:356] pool2 -> pool2
I1106 18:13:54.795984  9798 net.cpp:96] Setting up pool2
I1106 18:13:54.795991  9798 net.cpp:103] Top shape: 32 128 56 56 (12845056)
I1106 18:13:54.795996  9798 layer_factory.hpp:78] Creating layer conv3_1
I1106 18:13:54.796005  9798 net.cpp:67] Creating Layer conv3_1
I1106 18:13:54.796010  9798 net.cpp:394] conv3_1 <- pool2
I1106 18:13:54.796016  9798 net.cpp:356] conv3_1 -> conv3_1
I1106 18:13:54.796023  9798 net.cpp:96] Setting up conv3_1
I1106 18:13:54.803403  9798 net.cpp:103] Top shape: 32 256 56 56 (25690112)
I1106 18:13:54.803419  9798 layer_factory.hpp:78] Creating layer relu3_1
I1106 18:13:54.803426  9798 net.cpp:67] Creating Layer relu3_1
I1106 18:13:54.803432  9798 net.cpp:394] relu3_1 <- conv3_1
I1106 18:13:54.803439  9798 net.cpp:345] relu3_1 -> conv3_1 (in-place)
I1106 18:13:54.803446  9798 net.cpp:96] Setting up relu3_1
I1106 18:13:54.803452  9798 net.cpp:103] Top shape: 32 256 56 56 (25690112)
I1106 18:13:54.803457  9798 layer_factory.hpp:78] Creating layer conv3_2
I1106 18:13:54.803463  9798 net.cpp:67] Creating Layer conv3_2
I1106 18:13:54.803467  9798 net.cpp:394] conv3_2 <- conv3_1
I1106 18:13:54.803474  9798 net.cpp:356] conv3_2 -> conv3_2
I1106 18:13:54.803480  9798 net.cpp:96] Setting up conv3_2
I1106 18:13:54.818397  9798 net.cpp:103] Top shape: 32 256 56 56 (25690112)
I1106 18:13:54.818419  9798 layer_factory.hpp:78] Creating layer relu3_2
I1106 18:13:54.818426  9798 net.cpp:67] Creating Layer relu3_2
I1106 18:13:54.818435  9798 net.cpp:394] relu3_2 <- conv3_2
I1106 18:13:54.818442  9798 net.cpp:345] relu3_2 -> conv3_2 (in-place)
I1106 18:13:54.818450  9798 net.cpp:96] Setting up relu3_2
I1106 18:13:54.818456  9798 net.cpp:103] Top shape: 32 256 56 56 (25690112)
I1106 18:13:54.818461  9798 layer_factory.hpp:78] Creating layer conv3_3
I1106 18:13:54.818470  9798 net.cpp:67] Creating Layer conv3_3
I1106 18:13:54.818474  9798 net.cpp:394] conv3_3 <- conv3_2
I1106 18:13:54.818480  9798 net.cpp:356] conv3_3 -> conv3_3
I1106 18:13:54.818487  9798 net.cpp:96] Setting up conv3_3
I1106 18:13:54.833236  9798 net.cpp:103] Top shape: 32 256 56 56 (25690112)
I1106 18:13:54.833258  9798 layer_factory.hpp:78] Creating layer relu3_3
I1106 18:13:54.833268  9798 net.cpp:67] Creating Layer relu3_3
I1106 18:13:54.833276  9798 net.cpp:394] relu3_3 <- conv3_3
I1106 18:13:54.833283  9798 net.cpp:345] relu3_3 -> conv3_3 (in-place)
I1106 18:13:54.833291  9798 net.cpp:96] Setting up relu3_3
I1106 18:13:54.833297  9798 net.cpp:103] Top shape: 32 256 56 56 (25690112)
I1106 18:13:54.833302  9798 layer_factory.hpp:78] Creating layer pool3
I1106 18:13:54.833312  9798 net.cpp:67] Creating Layer pool3
I1106 18:13:54.833315  9798 net.cpp:394] pool3 <- conv3_3
I1106 18:13:54.833320  9798 net.cpp:356] pool3 -> pool3
I1106 18:13:54.833328  9798 net.cpp:96] Setting up pool3
I1106 18:13:54.833336  9798 net.cpp:103] Top shape: 32 256 28 28 (6422528)
I1106 18:13:54.833341  9798 layer_factory.hpp:78] Creating layer conv4_1
I1106 18:13:54.833348  9798 net.cpp:67] Creating Layer conv4_1
I1106 18:13:54.833353  9798 net.cpp:394] conv4_1 <- pool3
I1106 18:13:54.833359  9798 net.cpp:356] conv4_1 -> conv4_1
I1106 18:13:54.833365  9798 net.cpp:96] Setting up conv4_1
I1106 18:13:54.862143  9798 net.cpp:103] Top shape: 32 512 28 28 (12845056)
I1106 18:13:54.862167  9798 layer_factory.hpp:78] Creating layer relu4_1
I1106 18:13:54.862177  9798 net.cpp:67] Creating Layer relu4_1
I1106 18:13:54.862187  9798 net.cpp:394] relu4_1 <- conv4_1
I1106 18:13:54.862196  9798 net.cpp:345] relu4_1 -> conv4_1 (in-place)
I1106 18:13:54.862205  9798 net.cpp:96] Setting up relu4_1
I1106 18:13:54.862211  9798 net.cpp:103] Top shape: 32 512 28 28 (12845056)
I1106 18:13:54.862215  9798 layer_factory.hpp:78] Creating layer conv4_2
I1106 18:13:54.862221  9798 net.cpp:67] Creating Layer conv4_2
I1106 18:13:54.862226  9798 net.cpp:394] conv4_2 <- conv4_1
I1106 18:13:54.862241  9798 net.cpp:356] conv4_2 -> conv4_2
I1106 18:13:54.862248  9798 net.cpp:96] Setting up conv4_2
I1106 18:13:54.919981  9798 net.cpp:103] Top shape: 32 512 28 28 (12845056)
I1106 18:13:54.920011  9798 layer_factory.hpp:78] Creating layer relu4_2
I1106 18:13:54.920020  9798 net.cpp:67] Creating Layer relu4_2
I1106 18:13:54.920025  9798 net.cpp:394] relu4_2 <- conv4_2
I1106 18:13:54.920035  9798 net.cpp:345] relu4_2 -> conv4_2 (in-place)
I1106 18:13:54.920044  9798 net.cpp:96] Setting up relu4_2
I1106 18:13:54.920053  9798 net.cpp:103] Top shape: 32 512 28 28 (12845056)
I1106 18:13:54.920058  9798 layer_factory.hpp:78] Creating layer conv4_3
I1106 18:13:54.920065  9798 net.cpp:67] Creating Layer conv4_3
I1106 18:13:54.920070  9798 net.cpp:394] conv4_3 <- conv4_2
I1106 18:13:54.920078  9798 net.cpp:356] conv4_3 -> conv4_3
I1106 18:13:54.920086  9798 net.cpp:96] Setting up conv4_3
I1106 18:13:54.977525  9798 net.cpp:103] Top shape: 32 512 28 28 (12845056)
I1106 18:13:54.977548  9798 layer_factory.hpp:78] Creating layer relu4_3
I1106 18:13:54.977558  9798 net.cpp:67] Creating Layer relu4_3
I1106 18:13:54.977563  9798 net.cpp:394] relu4_3 <- conv4_3
I1106 18:13:54.977571  9798 net.cpp:345] relu4_3 -> conv4_3 (in-place)
I1106 18:13:54.977576  9798 net.cpp:96] Setting up relu4_3
I1106 18:13:54.977582  9798 net.cpp:103] Top shape: 32 512 28 28 (12845056)
I1106 18:13:54.977586  9798 layer_factory.hpp:78] Creating layer pool4
I1106 18:13:54.977591  9798 net.cpp:67] Creating Layer pool4
I1106 18:13:54.977597  9798 net.cpp:394] pool4 <- conv4_3
I1106 18:13:54.977607  9798 net.cpp:356] pool4 -> pool4
I1106 18:13:54.977614  9798 net.cpp:96] Setting up pool4
I1106 18:13:54.977623  9798 net.cpp:103] Top shape: 32 512 14 14 (3211264)
I1106 18:13:54.977628  9798 layer_factory.hpp:78] Creating layer conv5_1
I1106 18:13:54.977634  9798 net.cpp:67] Creating Layer conv5_1
I1106 18:13:54.977638  9798 net.cpp:394] conv5_1 <- pool4
I1106 18:13:54.977648  9798 net.cpp:356] conv5_1 -> conv5_1
I1106 18:13:54.977656  9798 net.cpp:96] Setting up conv5_1
I1106 18:13:55.035397  9798 net.cpp:103] Top shape: 32 512 14 14 (3211264)
I1106 18:13:55.035424  9798 layer_factory.hpp:78] Creating layer relu5_1
I1106 18:13:55.035433  9798 net.cpp:67] Creating Layer relu5_1
I1106 18:13:55.035440  9798 net.cpp:394] relu5_1 <- conv5_1
I1106 18:13:55.035447  9798 net.cpp:345] relu5_1 -> conv5_1 (in-place)
I1106 18:13:55.035455  9798 net.cpp:96] Setting up relu5_1
I1106 18:13:55.035464  9798 net.cpp:103] Top shape: 32 512 14 14 (3211264)
I1106 18:13:55.035467  9798 layer_factory.hpp:78] Creating layer conv5_2
I1106 18:13:55.035476  9798 net.cpp:67] Creating Layer conv5_2
I1106 18:13:55.035480  9798 net.cpp:394] conv5_2 <- conv5_1
I1106 18:13:55.035488  9798 net.cpp:356] conv5_2 -> conv5_2
I1106 18:13:55.035497  9798 net.cpp:96] Setting up conv5_2
I1106 18:13:55.092844  9798 net.cpp:103] Top shape: 32 512 14 14 (3211264)
I1106 18:13:55.092870  9798 layer_factory.hpp:78] Creating layer relu5_2
I1106 18:13:55.092878  9798 net.cpp:67] Creating Layer relu5_2
I1106 18:13:55.092883  9798 net.cpp:394] relu5_2 <- conv5_2
I1106 18:13:55.092891  9798 net.cpp:345] relu5_2 -> conv5_2 (in-place)
I1106 18:13:55.092900  9798 net.cpp:96] Setting up relu5_2
I1106 18:13:55.092906  9798 net.cpp:103] Top shape: 32 512 14 14 (3211264)
I1106 18:13:55.092911  9798 layer_factory.hpp:78] Creating layer conv5_3
I1106 18:13:55.092921  9798 net.cpp:67] Creating Layer conv5_3
I1106 18:13:55.092924  9798 net.cpp:394] conv5_3 <- conv5_2
I1106 18:13:55.092936  9798 net.cpp:356] conv5_3 -> conv5_3
I1106 18:13:55.092943  9798 net.cpp:96] Setting up conv5_3
I1106 18:13:55.150559  9798 net.cpp:103] Top shape: 32 512 14 14 (3211264)
I1106 18:13:55.150588  9798 layer_factory.hpp:78] Creating layer relu5_3
I1106 18:13:55.150595  9798 net.cpp:67] Creating Layer relu5_3
I1106 18:13:55.150600  9798 net.cpp:394] relu5_3 <- conv5_3
I1106 18:13:55.150607  9798 net.cpp:345] relu5_3 -> conv5_3 (in-place)
I1106 18:13:55.150614  9798 net.cpp:96] Setting up relu5_3
I1106 18:13:55.150629  9798 net.cpp:103] Top shape: 32 512 14 14 (3211264)
I1106 18:13:55.150634  9798 layer_factory.hpp:78] Creating layer pool5
I1106 18:13:55.150642  9798 net.cpp:67] Creating Layer pool5
I1106 18:13:55.150646  9798 net.cpp:394] pool5 <- conv5_3
I1106 18:13:55.150655  9798 net.cpp:356] pool5 -> pool5
I1106 18:13:55.150663  9798 net.cpp:96] Setting up pool5
I1106 18:13:55.150672  9798 net.cpp:103] Top shape: 32 512 7 7 (802816)
I1106 18:13:55.150676  9798 layer_factory.hpp:78] Creating layer fc6
I1106 18:13:55.150691  9798 net.cpp:67] Creating Layer fc6
I1106 18:13:55.150696  9798 net.cpp:394] fc6 <- pool5
I1106 18:13:55.150703  9798 net.cpp:356] fc6 -> fc6
I1106 18:13:55.150710  9798 net.cpp:96] Setting up fc6
I1106 18:13:57.534467  9798 net.cpp:103] Top shape: 32 4096 1 1 (131072)
I1106 18:13:57.534509  9798 layer_factory.hpp:78] Creating layer relu6
I1106 18:13:57.534520  9798 net.cpp:67] Creating Layer relu6
I1106 18:13:57.534525  9798 net.cpp:394] relu6 <- fc6
I1106 18:13:57.534533  9798 net.cpp:345] relu6 -> fc6 (in-place)
I1106 18:13:57.534539  9798 net.cpp:96] Setting up relu6
I1106 18:13:57.534554  9798 net.cpp:103] Top shape: 32 4096 1 1 (131072)
I1106 18:13:57.534559  9798 layer_factory.hpp:78] Creating layer drop6
I1106 18:13:57.534569  9798 net.cpp:67] Creating Layer drop6
I1106 18:13:57.534572  9798 net.cpp:394] drop6 <- fc6
I1106 18:13:57.534577  9798 net.cpp:345] drop6 -> fc6 (in-place)
I1106 18:13:57.534584  9798 net.cpp:96] Setting up drop6
I1106 18:13:57.534590  9798 net.cpp:103] Top shape: 32 4096 1 1 (131072)
I1106 18:13:57.534595  9798 layer_factory.hpp:78] Creating layer fc7
I1106 18:13:57.534600  9798 net.cpp:67] Creating Layer fc7
I1106 18:13:57.534605  9798 net.cpp:394] fc7 <- fc6
I1106 18:13:57.534610  9798 net.cpp:356] fc7 -> fc7
I1106 18:13:57.534618  9798 net.cpp:96] Setting up fc7
I1106 18:13:57.929029  9798 net.cpp:103] Top shape: 32 4096 1 1 (131072)
I1106 18:13:57.929071  9798 layer_factory.hpp:78] Creating layer relu7
I1106 18:13:57.929080  9798 net.cpp:67] Creating Layer relu7
I1106 18:13:57.929085  9798 net.cpp:394] relu7 <- fc7
I1106 18:13:57.929095  9798 net.cpp:345] relu7 -> fc7 (in-place)
I1106 18:13:57.929101  9798 net.cpp:96] Setting up relu7
I1106 18:13:57.929116  9798 net.cpp:103] Top shape: 32 4096 1 1 (131072)
I1106 18:13:57.929121  9798 layer_factory.hpp:78] Creating layer drop7
I1106 18:13:57.929126  9798 net.cpp:67] Creating Layer drop7
I1106 18:13:57.929129  9798 net.cpp:394] drop7 <- fc7
I1106 18:13:57.929133  9798 net.cpp:345] drop7 -> fc7 (in-place)
I1106 18:13:57.929139  9798 net.cpp:96] Setting up drop7
I1106 18:13:57.929146  9798 net.cpp:103] Top shape: 32 4096 1 1 (131072)
I1106 18:13:57.929150  9798 layer_factory.hpp:78] Creating layer fc8_2
I1106 18:13:57.929157  9798 net.cpp:67] Creating Layer fc8_2
I1106 18:13:57.929162  9798 net.cpp:394] fc8_2 <- fc7
I1106 18:13:57.929167  9798 net.cpp:356] fc8_2 -> fc8_2
I1106 18:13:57.929173  9798 net.cpp:96] Setting up fc8_2
I1106 18:13:57.929383  9798 net.cpp:103] Top shape: 32 2 1 1 (64)
I1106 18:13:57.929393  9798 layer_factory.hpp:78] Creating layer loss
I1106 18:13:57.929402  9798 net.cpp:67] Creating Layer loss
I1106 18:13:57.929406  9798 net.cpp:394] loss <- fc8_2
I1106 18:13:57.929412  9798 net.cpp:394] loss <- label
I1106 18:13:57.929420  9798 net.cpp:356] loss -> (automatic)
I1106 18:13:57.929426  9798 net.cpp:96] Setting up loss
I1106 18:13:57.929436  9798 net.cpp:103] Top shape: 1 1 1 1 (1)
I1106 18:13:57.929441  9798 net.cpp:109]     with loss weight 1
I1106 18:13:57.929471  9798 net.cpp:170] loss needs backward computation.
I1106 18:13:57.929476  9798 net.cpp:170] fc8_2 needs backward computation.
I1106 18:13:57.929481  9798 net.cpp:170] drop7 needs backward computation.
I1106 18:13:57.929486  9798 net.cpp:170] relu7 needs backward computation.
I1106 18:13:57.929488  9798 net.cpp:170] fc7 needs backward computation.
…
I1106 18:13:57.930485  9798 net.cpp:275] The NetState phase (1) differed from the phase (0) specified by a rule in layer data
I1106 18:13:57.930691  9798 net.cpp:39] Initializing net from parameters: 
name: "small"
layers {
  top: "data"
  top: "label"
  name: "data"
  type: IMAGE_DATA
  image_data_param {
    source: "/data/ad6813/devCaffe/caffe/data/soil_high/val.txt"
    batch_size: 8
    new_height: 256
    new_width: 256
  }
  include {
    phase: TEST
  }
  transform_param {
    mirror: true
    crop_size: 224
    mean_value: 86.752
    mean_value: 101.46
    mean_value: 104.6
  }
}
layers {
  bottom: "data"
  top: "conv1_1"
  name: "conv1_1"
  type: CONVOLUTION
  convolution_param {
    num_output: 64
    pad: 1
    kernel_size: 3
    weight_filler {
      type: "gaussian"
      std: 0.01
    }
    bias_filler {
      type: "constant"
      value: 0
    }
  }
}
layers {
  bottom: "conv1_1"
  top: "conv1_1"
  name: "relu1_1"
  type: RELU
}
layers {
  bottom: "conv1_1"
  top: "conv1_2"
  name: "conv1_2"
  type: CONVOLUTION
  convolution_param {
    num_output: 64
    pad: 1
    kernel_size: 3
    weight_filler {
      type: "gaussian"
      std: 0.01
    }
    bias_filler {
      type: "constant"
      value: 0
    }
  }
}
layers {
  bottom: "conv1_2"
  top: "conv1_2"
  name: "relu1_2"
  type: RELU
}
layers {
  bottom: "conv1_2"
  top: "pool1"
  name: "pool1"
  type: POOLING
  pooling_param {
    pool: MAX
    kernel_size: 2
    stride: 2
  }
}
layers {
  bottom: "pool1"
  top: "conv2_1"
  name: "conv2_1"
  type: CONVOLUTION
  convolution_param {
    num_output: 128
    pad: 1
    kernel_size: 3
    weight_filler {
      type: "gaussian"
      std: 0.01
    }
    bias_filler {
      type: "constant"
      value: 0
    }
  }
}
layers {
  bottom: "conv2_1"
  top: "conv2_1"
  name: "relu2_1"
  type: RELU
}
layers {
  bottom: "conv2_1"
  top: "conv2_2"
  name: "conv2_2"
  type: CONVOLUTION
  convolution_param {
    num_output: 128
    pad: 1
    kernel_size: 3
    weight_filler {
      type: "gaussian"
      std: 0.01
    }
    bias_filler {
      type: "constant"
      value: 0
    }
  }
}
layers {
  bottom: "conv2_2"
  top: "conv2_2"
  name: "relu2_2"
  type: RELU
}
layers {
  bottom: "conv2_2"
  top: "pool2"
  name: "pool2"
  type: POOLING
  pooling_param {
    pool: MAX
    kernel_size: 2
    stride: 2
  }
}
layers {
  bottom: "pool2"
  top: "conv3_1"
  name: "conv3_1"
  type: CONVOLUTION
  convolution_param {
    num_output: 256
    pad: 1
    kernel_size: 3
    weight_filler {
      type: "gaussian"
      std: 0.01
    }
    bias_filler {
      type: "constant"
      value: 0
    }
  }
}
layers {
  bottom: "conv3_1"
  top: "conv3_1"
  name: "relu3_1"
  type: RELU
}
layers {
  bottom: "conv3_1"
  top: "conv3_2"
  name: "conv3_2"
  type: CONVOLUTION
  convolution_param {
    num_output: 256
    pad: 1
    kernel_size: 3
    weight_filler {
      type: "gaussian"
      std: 0.01
    }
    bias_filler {
      type: "constant"
      value: 0
    }
  }
}
layers {
  bottom: "conv3_2"
  top: "conv3_2"
  name: "relu3_2"
  type: RELU
}
layers {
  bottom: "conv3_2"
  top: "conv3_3"
  name: "conv3_3"
  type: CONVOLUTION
  convolution_param {
    num_output: 256
    pad: 1
    kernel_size: 3
    weight_filler {
      type: "gaussian"
      std: 0.01
    }
    bias_filler {
      type: "constant"
      value: 0
    }
  }
}
layers {
  bottom: "conv3_3"
  top: "conv3_3"
  name: "relu3_3"
  type: RELU
}
layers {
  bottom: "conv3_3"
  top: "pool3"
  name: "pool3"
  type: POOLING
  pooling_param {
    pool: MAX
    kernel_size: 2
    stride: 2
  }
}
layers {
  bottom: "pool3"
  top: "conv4_1"
  name: "conv4_1"
  type: CONVOLUTION
  convolution_param {
    num_output: 512
    pad: 1
    kernel_size: 3
    weight_filler {
      type: "gaussian"
      std: 0.01
    }
    bias_filler {
      type: "constant"
      value: 0
    }
  }
}
layers {
  bottom: "conv4_1"
  top: "conv4_1"
  name: "relu4_1"
  type: RELU
}
layers {
  bottom: "conv4_1"
  top: "conv4_2"
  name: "conv4_2"
  type: CONVOLUTION
  convolution_param {
    num_output: 512
    pad: 1
    kernel_size: 3
    weight_filler {
      type: "gaussian"
      std: 0.01
    }
    bias_filler {
      type: "constant"
      value: 0
    }
  }
}
layers {
  bottom: "conv4_2"
  top: "conv4_2"
  name: "relu4_2"
  type: RELU
}
layers {
  bottom: "conv4_2"
  top: "conv4_3"
  name: "conv4_3"
  type: CONVOLUTION
  convolution_param {
    num_output: 512
    pad: 1
    kernel_size: 3
    weight_filler {
      type: "gaussian"
      std: 0.01
    }
    bias_filler {
      type: "constant"
      value: 0
    }
  }
}
layers {
  bottom: "conv4_3"
  top: "conv4_3"
  name: "relu4_3"
  type: RELU
}
layers {
  bottom: "conv4_3"
  top: "pool4"
  name: "pool4"
  type: POOLING
  pooling_param {
    pool: MAX
    kernel_size: 2
    stride: 2
  }
}
layers {
  bottom: "pool4"
  top: "conv5_1"
  name: "conv5_1"
  type: CONVOLUTION
  convolution_param {
    num_output: 512
    pad: 1
    kernel_size: 3
    weight_filler {
      type: "gaussian"
      std: 0.01
    }
    bias_filler {
      type: "constant"
      value: 0
    }
  }
}
layers {
  bottom: "conv5_1"
  top: "conv5_1"
  name: "relu5_1"
  type: RELU
}
layers {
  bottom: "conv5_1"
  top: "conv5_2"
  name: "conv5_2"
  type: CONVOLUTION
  convolution_param {
    num_output: 512
    pad: 1
    kernel_size: 3
    weight_filler {
      type: "gaussian"
      std: 0.01
    }
    bias_filler {
      type: "constant"
      value: 0
    }
  }
}
layers {
  bottom: "conv5_2"
  top: "conv5_2"
  name: "relu5_2"
  type: RELU
}
layers {
  bottom: "conv5_2"
  top: "conv5_3"
  name: "conv5_3"
  type: CONVOLUTION
  convolution_param {
    num_output: 512
    pad: 1
    kernel_size: 3
    weight_filler {
      type: "gaussian"
      std: 0.01
    }
    bias_filler {
      type: "constant"
      value: 0
    }
  }
}
layers {
  bottom: "conv5_3"
  top: "conv5_3"
  name: "relu5_3"
  type: RELU
}
layers {
  bottom: "conv5_3"
  top: "pool5"
  name: "pool5"
  type: POOLING
  pooling_param {
    pool: MAX
    kernel_size: 2
    stride: 2
  }
}
layers {
  bottom: "pool5"
  top: "fc6"
  name: "fc6"
  type: INNER_PRODUCT
  inner_product_param {
    num_output: 4096
    weight_filler {
      type: "gaussian"
      std: 0.01
    }
    bias_filler {
      type: "constant"
      value: 0
    }
  }
}
layers {
  bottom: "fc6"
  top: "fc6"
  name: "relu6"
  type: RELU
}
layers {
  bottom: "fc6"
  top: "fc6"
  name: "drop6"
  type: DROPOUT
  dropout_param {
    dropout_ratio: 0.5
  }
}
layers {
  bottom: "fc6"
  top: "fc7"
  name: "fc7"
  type: INNER_PRODUCT
  inner_product_param {
    num_output: 4096
    weight_filler {
      type: "gaussian"
      std: 0.01
    }
    bias_filler {
      type: "constant"
      value: 0
    }
  }
}
layers {
  bottom: "fc7"
  top: "fc7"
  name: "relu7"
  type: RELU
}
layers {
  bottom: "fc7"
  top: "fc7"
  name: "drop7"
  type: DROPOUT
  dropout_param {
    dropout_ratio: 0.5
  }
}
layers {
  bottom: "fc7"
  top: "fc8_2"
  name: "fc8_2"
  type: INNER_PRODUCT
  inner_product_param {
    num_output: 2
    weight_filler {
      type: "gaussian"
      std: 0.01
    }
    bias_filler {
      type: "constant"
      value: 0
    }
  }
}
layers {
  bottom: "fc8_2"
  bottom: "label"
  name: "loss"
  type: SOFTMAX_LOSS
}
layers {
  bottom: "fc8_2"
  bottom: "label"
  top: "accuracy"
  name: "accuracy"
  type: PER_CLASS_ACCURACY
  include {
    phase: TEST
  }
}
state {
  phase: TEST
}
I1106 18:13:57.930830  9798 layer_factory.hpp:78] Creating layer data
I1106 18:13:57.930840  9798 net.cpp:67] Creating Layer data
I1106 18:13:57.930846  9798 net.cpp:356] data -> data
I1106 18:13:57.930855  9798 net.cpp:356] data -> label
I1106 18:13:57.930862  9798 net.cpp:96] Setting up data
I1106 18:13:57.930867  9798 image_data_layer.cpp:34] Opening file /data/ad6813/devCaffe/caffe/data/soil_high/val.txt
I1106 18:13:57.931068  9798 image_data_layer.cpp:49] A total of 496 images.
I1106 18:13:57.937077  9798 image_data_layer.cpp:78] output data size: 8,3,224,224
I1106 18:13:57.937795  9798 net.cpp:103] Top shape: 8 3 224 224 (1204224)
I1106 18:13:57.937816  9798 net.cpp:103] Top shape: 8 1 1 1 (8)
I1106 18:13:57.937820  9798 layer_factory.hpp:78] Creating layer label_data_1_split
I1106 18:13:57.937829  9798 net.cpp:67] Creating Layer label_data_1_split
I1106 18:13:57.937834  9798 net.cpp:394] label_data_1_split <- label
I1106 18:13:57.937839  9798 net.cpp:356] label_data_1_split -> label_data_1_split_0
I1106 18:13:57.937845  9798 net.cpp:356] label_data_1_split -> label_data_1_split_1
I1106 18:13:57.937863  9798 net.cpp:96] Setting up label_data_1_split
I1106 18:13:57.937877  9798 net.cpp:103] Top shape: 8 1 1 1 (8)
I1106 18:13:57.937882  9798 net.cpp:103] Top shape: 8 1 1 1 (8)
I1106 18:13:57.937885  9798 layer_factory.hpp:78] Creating layer conv1_1
I1106 18:13:57.937892  9798 net.cpp:67] Creating Layer conv1_1
I1106 18:13:57.937898  9798 net.cpp:394] conv1_1 <- data
I1106 18:13:57.937906  9798 net.cpp:356] conv1_1 -> conv1_1
I1106 18:13:57.937912  9798 net.cpp:96] Setting up conv1_1
I1106 18:13:57.938109  9798 net.cpp:103] Top shape: 8 64 224 224 (25690112)
I1106 18:13:57.938122  9798 layer_factory.hpp:78] Creating layer relu1_1
I1106 18:13:57.938129  9798 net.cpp:67] Creating Layer relu1_1
I1106 18:13:57.938133  9798 net.cpp:394] relu1_1 <- conv1_1
I1106 18:13:57.938141  9798 net.cpp:345] relu1_1 -> conv1_1 (in-place)
I1106 18:13:57.938154  9798 net.cpp:96] Setting up relu1_1
I1106 18:13:57.938161  9798 net.cpp:103] Top shape: 8 64 224 224 (25690112)
I1106 18:13:57.938165  9798 layer_factory.hpp:78] Creating layer conv1_2
I1106 18:13:57.938171  9798 net.cpp:67] Creating Layer conv1_2
I1106 18:13:57.938175  9798 net.cpp:394] conv1_2 <- conv1_1
I1106 18:13:57.938181  9798 net.cpp:356] conv1_2 -> conv1_2
I1106 18:13:57.938189  9798 net.cpp:96] Setting up conv1_2
I1106 18:13:57.939219  9798 net.cpp:103] Top shape: 8 64 224 224 (25690112)
I1106 18:13:57.939231  9798 layer_factory.hpp:78] Creating layer relu1_2
I1106 18:13:57.939239  9798 net.cpp:67] Creating Layer relu1_2
I1106 18:13:57.939244  9798 net.cpp:394] relu1_2 <- conv1_2
I1106 18:13:57.939249  9798 net.cpp:345] relu1_2 -> conv1_2 (in-place)
I1106 18:13:57.939255  9798 net.cpp:96] Setting up relu1_2
I1106 18:13:57.939261  9798 net.cpp:103] Top shape: 8 64 224 224 (25690112)
I1106 18:13:57.939266  9798 layer_factory.hpp:78] Creating layer pool1
I1106 18:13:57.939271  9798 net.cpp:67] Creating Layer pool1
I1106 18:13:57.939275  9798 net.cpp:394] pool1 <- conv1_2
I1106 18:13:57.939281  9798 net.cpp:356] pool1 -> pool1
I1106 18:13:57.939288  9798 net.cpp:96] Setting up pool1
I1106 18:13:57.939296  9798 net.cpp:103] Top shape: 8 64 112 112 (6422528)
I1106 18:13:57.939301  9798 layer_factory.hpp:78] Creating layer conv2_1
I1106 18:13:57.939306  9798 net.cpp:67] Creating Layer conv2_1
I1106 18:13:57.939309  9798 net.cpp:394] conv2_1 <- pool1
I1106 18:13:57.939318  9798 net.cpp:356] conv2_1 -> conv2_1
I1106 18:13:57.939324  9798 net.cpp:96] Setting up conv2_1
I1106 18:13:57.941367  9798 net.cpp:103] Top shape: 8 128 112 112 (12845056)
I1106 18:13:57.941382  9798 layer_factory.hpp:78] Creating layer relu2_1
I1106 18:13:57.941390  9798 net.cpp:67] Creating Layer relu2_1
I1106 18:13:57.941395  9798 net.cpp:394] relu2_1 <- conv2_1
I1106 18:13:57.941403  9798 net.cpp:345] relu2_1 -> conv2_1 (in-place)
I1106 18:13:57.941409  9798 net.cpp:96] Setting up relu2_1
I1106 18:13:57.941416  9798 net.cpp:103] Top shape: 8 128 112 112 (12845056)
I1106 18:13:57.941421  9798 layer_factory.hpp:78] Creating layer conv2_2
I1106 18:13:57.941427  9798 net.cpp:67] Creating Layer conv2_2
I1106 18:13:57.941431  9798 net.cpp:394] conv2_2 <- conv2_1
I1106 18:13:57.941438  9798 net.cpp:356] conv2_2 -> conv2_2
I1106 18:13:57.941445  9798 net.cpp:96] Setting up conv2_2
I1106 18:13:57.945183  9798 net.cpp:103] Top shape: 8 128 112 112 (12845056)
I1106 18:13:57.945194  9798 layer_factory.hpp:78] Creating layer relu2_2
I1106 18:13:57.945199  9798 net.cpp:67] Creating Layer relu2_2
I1106 18:13:57.945204  9798 net.cpp:394] relu2_2 <- conv2_2
I1106 18:13:57.945211  9798 net.cpp:345] relu2_2 -> conv2_2 (in-place)
I1106 18:13:57.945219  9798 net.cpp:96] Setting up relu2_2
I1106 18:13:57.945225  9798 net.cpp:103] Top shape: 8 128 112 112 (12845056)
I1106 18:13:57.945227  9798 layer_factory.hpp:78] Creating layer pool2
I1106 18:13:57.945235  9798 net.cpp:67] Creating Layer pool2
I1106 18:13:57.945238  9798 net.cpp:394] pool2 <- conv2_2
I1106 18:13:57.945243  9798 net.cpp:356] pool2 -> pool2
I1106 18:13:57.945250  9798 net.cpp:96] Setting up pool2
I1106 18:13:57.945256  9798 net.cpp:103] Top shape: 8 128 56 56 (3211264)
I1106 18:13:57.945261  9798 layer_factory.hpp:78] Creating layer conv3_1
I1106 18:13:57.945267  9798 net.cpp:67] Creating Layer conv3_1
I1106 18:13:57.945272  9798 net.cpp:394] conv3_1 <- pool2
I1106 18:13:57.945281  9798 net.cpp:356] conv3_1 -> conv3_1
I1106 18:13:57.945286  9798 net.cpp:96] Setting up conv3_1
I1106 18:13:57.952656  9798 net.cpp:103] Top shape: 8 256 56 56 (6422528)
I1106 18:13:57.952671  9798 layer_factory.hpp:78] Creating layer relu3_1
I1106 18:13:57.952678  9798 net.cpp:67] Creating Layer relu3_1
I1106 18:13:57.952683  9798 net.cpp:394] relu3_1 <- conv3_1
I1106 18:13:57.952688  9798 net.cpp:345] relu3_1 -> conv3_1 (in-place)
I1106 18:13:57.952693  9798 net.cpp:96] Setting up relu3_1
I1106 18:13:57.952699  9798 net.cpp:103] Top shape: 8 256 56 56 (6422528)
I1106 18:13:57.952704  9798 layer_factory.hpp:78] Creating layer conv3_2
I1106 18:13:57.952718  9798 net.cpp:67] Creating Layer conv3_2
I1106 18:13:57.952723  9798 net.cpp:394] conv3_2 <- conv3_1
I1106 18:13:57.952728  9798 net.cpp:356] conv3_2 -> conv3_2
I1106 18:13:57.952735  9798 net.cpp:96] Setting up conv3_2
I1106 18:13:57.967428  9798 net.cpp:103] Top shape: 8 256 56 56 (6422528)
I1106 18:13:57.967447  9798 layer_factory.hpp:78] Creating layer relu3_2
I1106 18:13:57.967453  9798 net.cpp:67] Creating Layer relu3_2
I1106 18:13:57.967461  9798 net.cpp:394] relu3_2 <- conv3_2
I1106 18:13:57.967468  9798 net.cpp:345] relu3_2 -> conv3_2 (in-place)
I1106 18:13:57.967475  9798 net.cpp:96] Setting up relu3_2
I1106 18:13:57.967483  9798 net.cpp:103] Top shape: 8 256 56 56 (6422528)
I1106 18:13:57.967486  9798 layer_factory.hpp:78] Creating layer conv3_3
I1106 18:13:57.967496  9798 net.cpp:67] Creating Layer conv3_3
I1106 18:13:57.967501  9798 net.cpp:394] conv3_3 <- conv3_2
I1106 18:13:57.967509  9798 net.cpp:356] conv3_3 -> conv3_3
I1106 18:13:57.967516  9798 net.cpp:96] Setting up conv3_3
I1106 18:13:57.982233  9798 net.cpp:103] Top shape: 8 256 56 56 (6422528)
I1106 18:13:57.982252  9798 layer_factory.hpp:78] Creating layer relu3_3
I1106 18:13:57.982261  9798 net.cpp:67] Creating Layer relu3_3
I1106 18:13:57.982265  9798 net.cpp:394] relu3_3 <- conv3_3
I1106 18:13:57.982273  9798 net.cpp:345] relu3_3 -> conv3_3 (in-place)
I1106 18:13:57.982281  9798 net.cpp:96] Setting up relu3_3
I1106 18:13:57.982288  9798 net.cpp:103] Top shape: 8 256 56 56 (6422528)
I1106 18:13:57.982292  9798 layer_factory.hpp:78] Creating layer pool3
I1106 18:13:57.982298  9798 net.cpp:67] Creating Layer pool3
I1106 18:13:57.982302  9798 net.cpp:394] pool3 <- conv3_3
I1106 18:13:57.982309  9798 net.cpp:356] pool3 -> pool3
I1106 18:13:57.982316  9798 net.cpp:96] Setting up pool3
I1106 18:13:57.982324  9798 net.cpp:103] Top shape: 8 256 28 28 (1605632)
I1106 18:13:57.982329  9798 layer_factory.hpp:78] Creating layer conv4_1
I1106 18:13:57.982336  9798 net.cpp:67] Creating Layer conv4_1
I1106 18:13:57.982342  9798 net.cpp:394] conv4_1 <- pool3
I1106 18:13:57.982349  9798 net.cpp:356] conv4_1 -> conv4_1
I1106 18:13:57.982357  9798 net.cpp:96] Setting up conv4_1
I1106 18:13:58.011282  9798 net.cpp:103] Top shape: 8 512 28 28 (3211264)
I1106 18:13:58.011306  9798 layer_factory.hpp:78] Creating layer relu4_1
I1106 18:13:58.011314  9798 net.cpp:67] Creating Layer relu4_1
I1106 18:13:58.011323  9798 net.cpp:394] relu4_1 <- conv4_1
I1106 18:13:58.011332  9798 net.cpp:345] relu4_1 -> conv4_1 (in-place)
I1106 18:13:58.011339  9798 net.cpp:96] Setting up relu4_1
I1106 18:13:58.011346  9798 net.cpp:103] Top shape: 8 512 28 28 (3211264)
I1106 18:13:58.011350  9798 layer_factory.hpp:78] Creating layer conv4_2
I1106 18:13:58.011361  9798 net.cpp:67] Creating Layer conv4_2
I1106 18:13:58.011365  9798 net.cpp:394] conv4_2 <- conv4_1
I1106 18:13:58.011371  9798 net.cpp:356] conv4_2 -> conv4_2
I1106 18:13:58.011376  9798 net.cpp:96] Setting up conv4_2
I1106 18:13:58.068994  9798 net.cpp:103] Top shape: 8 512 28 28 (3211264)
I1106 18:13:58.069025  9798 layer_factory.hpp:78] Creating layer relu4_2
I1106 18:13:58.069033  9798 net.cpp:67] Creating Layer relu4_2
I1106 18:13:58.069037  9798 net.cpp:394] relu4_2 <- conv4_2
I1106 18:13:58.069048  9798 net.cpp:345] relu4_2 -> conv4_2 (in-place)
I1106 18:13:58.069056  9798 net.cpp:96] Setting up relu4_2
I1106 18:13:58.069064  9798 net.cpp:103] Top shape: 8 512 28 28 (3211264)
I1106 18:13:58.069068  9798 layer_factory.hpp:78] Creating layer conv4_3
I1106 18:13:58.069075  9798 net.cpp:67] Creating Layer conv4_3
I1106 18:13:58.069079  9798 net.cpp:394] conv4_3 <- conv4_2
I1106 18:13:58.069088  9798 net.cpp:356] conv4_3 -> conv4_3
I1106 18:13:58.069098  9798 net.cpp:96] Setting up conv4_3
I1106 18:13:58.126476  9798 net.cpp:103] Top shape: 8 512 28 28 (3211264)
I1106 18:13:58.126500  9798 layer_factory.hpp:78] Creating layer relu4_3
I1106 18:13:58.126508  9798 net.cpp:67] Creating Layer relu4_3
I1106 18:13:58.126513  9798 net.cpp:394] relu4_3 <- conv4_3
I1106 18:13:58.126523  9798 net.cpp:345] relu4_3 -> conv4_3 (in-place)
I1106 18:13:58.126539  9798 net.cpp:96] Setting up relu4_3
I1106 18:13:58.126548  9798 net.cpp:103] Top shape: 8 512 28 28 (3211264)
I1106 18:13:58.126551  9798 layer_factory.hpp:78] Creating layer pool4
I1106 18:13:58.126560  9798 net.cpp:67] Creating Layer pool4
I1106 18:13:58.126564  9798 net.cpp:394] pool4 <- conv4_3
I1106 18:13:58.126571  9798 net.cpp:356] pool4 -> pool4
I1106 18:13:58.126577  9798 net.cpp:96] Setting up pool4
I1106 18:13:58.126586  9798 net.cpp:103] Top shape: 8 512 14 14 (802816)
I1106 18:13:58.126590  9798 layer_factory.hpp:78] Creating layer conv5_1
I1106 18:13:58.126598  9798 net.cpp:67] Creating Layer conv5_1
I1106 18:13:58.126603  9798 net.cpp:394] conv5_1 <- pool4
I1106 18:13:58.126610  9798 net.cpp:356] conv5_1 -> conv5_1
I1106 18:13:58.126617  9798 net.cpp:96] Setting up conv5_1
I1106 18:13:58.183975  9798 net.cpp:103] Top shape: 8 512 14 14 (802816)
I1106 18:13:58.184012  9798 layer_factory.hpp:78] Creating layer relu5_1
I1106 18:13:58.184021  9798 net.cpp:67] Creating Layer relu5_1
I1106 18:13:58.184026  9798 net.cpp:394] relu5_1 <- conv5_1
I1106 18:13:58.184032  9798 net.cpp:345] relu5_1 -> conv5_1 (in-place)
I1106 18:13:58.184039  9798 net.cpp:96] Setting up relu5_1
I1106 18:13:58.184044  9798 net.cpp:103] Top shape: 8 512 14 14 (802816)
I1106 18:13:58.184054  9798 layer_factory.hpp:78] Creating layer conv5_2
I1106 18:13:58.184063  9798 net.cpp:67] Creating Layer conv5_2
I1106 18:13:58.184067  9798 net.cpp:394] conv5_2 <- conv5_1
I1106 18:13:58.184074  9798 net.cpp:356] conv5_2 -> conv5_2
I1106 18:13:58.184082  9798 net.cpp:96] Setting up conv5_2
I1106 18:13:58.238924  9798 net.cpp:103] Top shape: 8 512 14 14 (802816)
I1106 18:13:58.238958  9798 layer_factory.hpp:78] Creating layer relu5_2
I1106 18:13:58.238966  9798 net.cpp:67] Creating Layer relu5_2
I1106 18:13:58.238970  9798 net.cpp:394] relu5_2 <- conv5_2
I1106 18:13:58.238978  9798 net.cpp:345] relu5_2 -> conv5_2 (in-place)
I1106 18:13:58.238986  9798 net.cpp:96] Setting up relu5_2
I1106 18:13:58.238991  9798 net.cpp:103] Top shape: 8 512 14 14 (802816)
I1106 18:13:58.238998  9798 layer_factory.hpp:78] Creating layer conv5_3
I1106 18:13:58.239008  9798 net.cpp:67] Creating Layer conv5_3
I1106 18:13:58.239013  9798 net.cpp:394] conv5_3 <- conv5_2
I1106 18:13:58.239019  9798 net.cpp:356] conv5_3 -> conv5_3
I1106 18:13:58.239027  9798 net.cpp:96] Setting up conv5_3
I1106 18:13:58.295917  9798 net.cpp:103] Top shape: 8 512 14 14 (802816)
I1106 18:13:58.295944  9798 layer_factory.hpp:78] Creating layer relu5_3
I1106 18:13:58.295953  9798 net.cpp:67] Creating Layer relu5_3
I1106 18:13:58.295958  9798 net.cpp:394] relu5_3 <- conv5_3
I1106 18:13:58.295965  9798 net.cpp:345] relu5_3 -> conv5_3 (in-place)
I1106 18:13:58.295974  9798 net.cpp:96] Setting up relu5_3
I1106 18:13:58.295979  9798 net.cpp:103] Top shape: 8 512 14 14 (802816)
I1106 18:13:58.295982  9798 layer_factory.hpp:78] Creating layer pool5
I1106 18:13:58.295996  9798 net.cpp:67] Creating Layer pool5
I1106 18:13:58.296001  9798 net.cpp:394] pool5 <- conv5_3
I1106 18:13:58.296010  9798 net.cpp:356] pool5 -> pool5
I1106 18:13:58.296016  9798 net.cpp:96] Setting up pool5
I1106 18:13:58.296025  9798 net.cpp:103] Top shape: 8 512 7 7 (200704)
I1106 18:13:58.296030  9798 layer_factory.hpp:78] Creating layer fc6
I1106 18:13:58.296036  9798 net.cpp:67] Creating Layer fc6
I1106 18:13:58.296039  9798 net.cpp:394] fc6 <- pool5
I1106 18:13:58.296047  9798 net.cpp:356] fc6 -> fc6
I1106 18:13:58.296054  9798 net.cpp:96] Setting up fc6
I1106 18:14:00.682816  9798 net.cpp:103] Top shape: 8 4096 1 1 (32768)
I1106 18:14:00.682859  9798 layer_factory.hpp:78] Creating layer relu6
I1106 18:14:00.682868  9798 net.cpp:67] Creating Layer relu6
I1106 18:14:00.682874  9798 net.cpp:394] relu6 <- fc6
I1106 18:14:00.682883  9798 net.cpp:345] relu6 -> fc6 (in-place)
I1106 18:14:00.682890  9798 net.cpp:96] Setting up relu6
I1106 18:14:00.682905  9798 net.cpp:103] Top shape: 8 4096 1 1 (32768)
I1106 18:14:00.682914  9798 layer_factory.hpp:78] Creating layer drop6
I1106 18:14:00.682929  9798 net.cpp:67] Creating Layer drop6
I1106 18:14:00.682934  9798 net.cpp:394] drop6 <- fc6
I1106 18:14:00.682941  9798 net.cpp:345] drop6 -> fc6 (in-place)
I1106 18:14:00.682948  9798 net.cpp:96] Setting up drop6
I1106 18:14:00.682953  9798 net.cpp:103] Top shape: 8 4096 1 1 (32768)
I1106 18:14:00.682957  9798 layer_factory.hpp:78] Creating layer fc7
I1106 18:14:00.682965  9798 net.cpp:67] Creating Layer fc7
I1106 18:14:00.682968  9798 net.cpp:394] fc7 <- fc6
I1106 18:14:00.682976  9798 net.cpp:356] fc7 -> fc7
I1106 18:14:00.682983  9798 net.cpp:96] Setting up fc7
I1106 18:14:01.077404  9798 net.cpp:103] Top shape: 8 4096 1 1 (32768)
I1106 18:14:01.077445  9798 layer_factory.hpp:78] Creating layer relu7
I1106 18:14:01.077453  9798 net.cpp:67] Creating Layer relu7
I1106 18:14:01.077458  9798 net.cpp:394] relu7 <- fc7
I1106 18:14:01.077466  9798 net.cpp:345] relu7 -> fc7 (in-place)
I1106 18:14:01.077472  9798 net.cpp:96] Setting up relu7
I1106 18:14:01.077486  9798 net.cpp:103] Top shape: 8 4096 1 1 (32768)
I1106 18:14:01.077491  9798 layer_factory.hpp:78] Creating layer drop7
I1106 18:14:01.077497  9798 net.cpp:67] Creating Layer drop7
I1106 18:14:01.077502  9798 net.cpp:394] drop7 <- fc7
I1106 18:14:01.077507  9798 net.cpp:345] drop7 -> fc7 (in-place)
I1106 18:14:01.077513  9798 net.cpp:96] Setting up drop7
I1106 18:14:01.077519  9798 net.cpp:103] Top shape: 8 4096 1 1 (32768)
I1106 18:14:01.077524  9798 layer_factory.hpp:78] Creating layer fc8_2
I1106 18:14:01.077533  9798 net.cpp:67] Creating Layer fc8_2
I1106 18:14:01.077538  9798 net.cpp:394] fc8_2 <- fc7
I1106 18:14:01.077545  9798 net.cpp:356] fc8_2 -> fc8_2
I1106 18:14:01.077553  9798 net.cpp:96] Setting up fc8_2
I1106 18:14:01.077766  9798 net.cpp:103] Top shape: 8 2 1 1 (16)
I1106 18:14:01.077774  9798 layer_factory.hpp:78] Creating layer fc8_2_fc8_2_0_split
I1106 18:14:01.077780  9798 net.cpp:67] Creating Layer fc8_2_fc8_2_0_split
I1106 18:14:01.077785  9798 net.cpp:394] fc8_2_fc8_2_0_split <- fc8_2
I1106 18:14:01.077790  9798 net.cpp:356] fc8_2_fc8_2_0_split -> fc8_2_fc8_2_0_split_0
I1106 18:14:01.077800  9798 net.cpp:356] fc8_2_fc8_2_0_split -> fc8_2_fc8_2_0_split_1
I1106 18:14:01.077807  9798 net.cpp:96] Setting up fc8_2_fc8_2_0_split
I1106 18:14:01.077812  9798 net.cpp:103] Top shape: 8 2 1 1 (16)
I1106 18:14:01.077817  9798 net.cpp:103] Top shape: 8 2 1 1 (16)
I1106 18:14:01.077821  9798 layer_factory.hpp:78] Creating layer loss
I1106 18:14:01.077826  9798 net.cpp:67] Creating Layer loss
I1106 18:14:01.077832  9798 net.cpp:394] loss <- fc8_2_fc8_2_0_split_0
I1106 18:14:01.077837  9798 net.cpp:394] loss <- label_data_1_split_0
I1106 18:14:01.077843  9798 net.cpp:356] loss -> (automatic)
I1106 18:14:01.077849  9798 net.cpp:96] Setting up loss
I1106 18:14:01.077857  9798 net.cpp:103] Top shape: 1 1 1 1 (1)
I1106 18:14:01.077859  9798 net.cpp:109]     with loss weight 1
I1106 18:14:01.077873  9798 layer_factory.hpp:78] Creating layer accuracy
I1106 18:14:01.077884  9798 net.cpp:67] Creating Layer accuracy
I1106 18:14:01.077889  9798 net.cpp:394] accuracy <- fc8_2_fc8_2_0_split_1
I1106 18:14:01.077894  9798 net.cpp:394] accuracy <- label_data_1_split_1
I1106 18:14:01.077901  9798 net.cpp:356] accuracy -> accuracy
I1106 18:14:01.077908  9798 net.cpp:96] Setting up accuracy
I1106 18:14:01.077916  9798 net.cpp:103] Top shape: 1 1 1 4 (4)
I1106 18:14:01.077921  9798 net.cpp:172] accuracy does not need backward computation.
I1106 18:14:01.077925  9798 net.cpp:170] loss needs backward computation.
I1106 18:14:01.077929  9798 net.cpp:170] fc8_2_fc8_2_0_split needs backward computation.
I1106 18:14:01.077932  9798 net.cpp:170] fc8_2 needs backward computation.
I1106 18:14:01.077937  9798 net.cpp:170] drop7 needs backward computation.
…
I1106 20:57:37.538825 12274 net.cpp:275] The NetState phase (0) differed from the phase (1) specified by a rule in layer accuracy
I1106 20:57:37.539191 12274 net.cpp:39] Initializing net from parameters: 
name: "small"
layers {
  top: "data"
  top: "label"
  name: "data"
  type: IMAGE_DATA
  image_data_param {
    source: "/data/ad6813/devCaffe/caffe/data/clamp/train.txt"
    batch_size: 32
    new_height: 256
    new_width: 256
  }
  include {
    phase: TRAIN
  }
  transform_param {
    mirror: true
    crop_size: 224
    mean_value: 86.752
    mean_value: 101.46
    mean_value: 104.6
  }
}
layers {
  bottom: "data"
  top: "conv1_1"
  name: "conv1_1"
  type: CONVOLUTION
  convolution_param {
    num_output: 64
    pad: 1
    kernel_size: 3
    weight_filler {
      type: "gaussian"
      std: 0.01
    }
    bias_filler {
      type: "constant"
      value: 0
    }
  }
}
layers {
  bottom: "conv1_1"
  top: "conv1_1"
  name: "relu1_1"
  type: RELU
}
layers {
  bottom: "conv1_1"
  top: "conv1_2"
  name: "conv1_2"
  type: CONVOLUTION
  convolution_param {
    num_output: 64
    pad: 1
    kernel_size: 3
    weight_filler {
      type: "gaussian"
      std: 0.01
    }
    bias_filler {
      type: "constant"
      value: 0
    }
  }
}
layers {
  bottom: "conv1_2"
  top: "conv1_2"
  name: "relu1_2"
  type: RELU
}
layers {
  bottom: "conv1_2"
  top: "pool1"
  name: "pool1"
  type: POOLING
  pooling_param {
    pool: MAX
    kernel_size: 2
    stride: 2
  }
}
layers {
  bottom: "pool1"
  top: "conv2_1"
  name: "conv2_1"
  type: CONVOLUTION
  convolution_param {
    num_output: 128
    pad: 1
    kernel_size: 3
    weight_filler {
      type: "gaussian"
      std: 0.01
    }
    bias_filler {
      type: "constant"
      value: 0
    }
  }
}
layers {
  bottom: "conv2_1"
  top: "conv2_1"
  name: "relu2_1"
  type: RELU
}
layers {
  bottom: "conv2_1"
  top: "conv2_2"
  name: "conv2_2"
  type: CONVOLUTION
  convolution_param {
    num_output: 128
    pad: 1
    kernel_size: 3
    weight_filler {
      type: "gaussian"
      std: 0.01
    }
    bias_filler {
      type: "constant"
      value: 0
    }
  }
}
layers {
  bottom: "conv2_2"
  top: "conv2_2"
  name: "relu2_2"
  type: RELU
}
layers {
  bottom: "conv2_2"
  top: "pool2"
  name: "pool2"
  type: POOLING
  pooling_param {
    pool: MAX
    kernel_size: 2
    stride: 2
  }
}
layers {
  bottom: "pool2"
  top: "conv3_1"
  name: "conv3_1"
  type: CONVOLUTION
  convolution_param {
    num_output: 256
    pad: 1
    kernel_size: 3
    weight_filler {
      type: "gaussian"
      std: 0.01
    }
    bias_filler {
      type: "constant"
      value: 0
    }
  }
}
layers {
  bottom: "conv3_1"
  top: "conv3_1"
  name: "relu3_1"
  type: RELU
}
layers {
  bottom: "conv3_1"
  top: "conv3_2"
  name: "conv3_2"
  type: CONVOLUTION
  convolution_param {
    num_output: 256
    pad: 1
    kernel_size: 3
    weight_filler {
      type: "gaussian"
      std: 0.01
    }
    bias_filler {
      type: "constant"
      value: 0
    }
  }
}
layers {
  bottom: "conv3_2"
  top: "conv3_2"
  name: "relu3_2"
  type: RELU
}
layers {
  bottom: "conv3_2"
  top: "conv3_3"
  name: "conv3_3"
  type: CONVOLUTION
  convolution_param {
    num_output: 256
    pad: 1
    kernel_size: 3
    weight_filler {
      type: "gaussian"
      std: 0.01
    }
    bias_filler {
      type: "constant"
      value: 0
    }
  }
}
layers {
  bottom: "conv3_3"
  top: "conv3_3"
  name: "relu3_3"
  type: RELU
}
layers {
  bottom: "conv3_3"
  top: "pool3"
  name: "pool3"
  type: POOLING
  pooling_param {
    pool: MAX
    kernel_size: 2
    stride: 2
  }
}
layers {
  bottom: "pool3"
  top: "conv4_1"
  name: "conv4_1"
  type: CONVOLUTION
  convolution_param {
    num_output: 512
    pad: 1
    kernel_size: 3
    weight_filler {
      type: "gaussian"
      std: 0.01
    }
    bias_filler {
      type: "constant"
      value: 0
    }
  }
}
layers {
  bottom: "conv4_1"
  top: "conv4_1"
  name: "relu4_1"
  type: RELU
}
layers {
  bottom: "conv4_1"
  top: "conv4_2"
  name: "conv4_2"
  type: CONVOLUTION
  convolution_param {
    num_output: 512
    pad: 1
    kernel_size: 3
    weight_filler {
      type: "gaussian"
      std: 0.01
    }
    bias_filler {
      type: "constant"
      value: 0
    }
  }
}
layers {
  bottom: "conv4_2"
  top: "conv4_2"
  name: "relu4_2"
  type: RELU
}
layers {
  bottom: "conv4_2"
  top: "conv4_3"
  name: "conv4_3"
  type: CONVOLUTION
  convolution_param {
    num_output: 512
    pad: 1
    kernel_size: 3
    weight_filler {
      type: "gaussian"
      std: 0.01
    }
    bias_filler {
      type: "constant"
      value: 0
    }
  }
}
layers {
  bottom: "conv4_3"
  top: "conv4_3"
  name: "relu4_3"
  type: RELU
}
layers {
  bottom: "conv4_3"
  top: "pool4"
  name: "pool4"
  type: POOLING
  pooling_param {
    pool: MAX
    kernel_size: 2
    stride: 2
  }
}
layers {
  bottom: "pool4"
  top: "conv5_1"
  name: "conv5_1"
  type: CONVOLUTION
  convolution_param {
    num_output: 512
    pad: 1
    kernel_size: 3
    weight_filler {
      type: "gaussian"
      std: 0.01
    }
    bias_filler {
      type: "constant"
      value: 0
    }
  }
}
layers {
  bottom: "conv5_1"
  top: "conv5_1"
  name: "relu5_1"
  type: RELU
}
layers {
  bottom: "conv5_1"
  top: "conv5_2"
  name: "conv5_2"
  type: CONVOLUTION
  convolution_param {
    num_output: 512
    pad: 1
    kernel_size: 3
    weight_filler {
      type: "gaussian"
      std: 0.01
    }
    bias_filler {
      type: "constant"
      value: 0
    }
  }
}
layers {
  bottom: "conv5_2"
  top: "conv5_2"
  name: "relu5_2"
  type: RELU
}
layers {
  bottom: "conv5_2"
  top: "conv5_3"
  name: "conv5_3"
  type: CONVOLUTION
  convolution_param {
    num_output: 512
    pad: 1
    kernel_size: 3
    weight_filler {
      type: "gaussian"
      std: 0.01
    }
    bias_filler {
      type: "constant"
      value: 0
    }
  }
}
layers {
  bottom: "conv5_3"
  top: "conv5_3"
  name: "relu5_3"
  type: RELU
}
layers {
  bottom: "conv5_3"
  top: "pool5"
  name: "pool5"
  type: POOLING
  pooling_param {
    pool: MAX
    kernel_size: 2
    stride: 2
  }
}
layers {
  bottom: "pool5"
  top: "fc6"
  name: "fc6"
  type: INNER_PRODUCT
  inner_product_param {
    num_output: 4096
    weight_filler {
      type: "gaussian"
      std: 0.01
    }
    bias_filler {
      type: "constant"
      value: 0
    }
  }
}
layers {
  bottom: "fc6"
  top: "fc6"
  name: "relu6"
  type: RELU
}
layers {
  bottom: "fc6"
  top: "fc6"
  name: "drop6"
  type: DROPOUT
  dropout_param {
    dropout_ratio: 0.5
  }
}
layers {
  bottom: "fc6"
  top: "fc7"
  name: "fc7"
  type: INNER_PRODUCT
  inner_product_param {
    num_output: 4096
    weight_filler {
      type: "gaussian"
      std: 0.01
    }
    bias_filler {
      type: "constant"
      value: 0
    }
  }
}
layers {
  bottom: "fc7"
  top: "fc7"
  name: "relu7"
  type: RELU
}
layers {
  bottom: "fc7"
  top: "fc7"
  name: "drop7"
  type: DROPOUT
  dropout_param {
    dropout_ratio: 0.5
  }
}
layers {
  bottom: "fc7"
  top: "fc8_2"
  name: "fc8_2"
  type: INNER_PRODUCT
  inner_product_param {
    num_output: 2
    weight_filler {
      type: "gaussian"
      std: 0.01
    }
    bias_filler {
      type: "constant"
      value: 0
    }
  }
}
layers {
  bottom: "fc8_2"
  bottom: "label"
  name: "loss"
  type: SOFTMAX_LOSS
}
state {
  phase: TRAIN
}
I1106 20:57:37.539548 12274 layer_factory.hpp:78] Creating layer data
I1106 20:57:37.539599 12274 net.cpp:67] Creating Layer data
I1106 20:57:37.539624 12274 net.cpp:356] data -> data
I1106 20:57:37.539669 12274 net.cpp:356] data -> label
I1106 20:57:37.539708 12274 net.cpp:96] Setting up data
I1106 20:57:37.539731 12274 image_data_layer.cpp:34] Opening file /data/ad6813/devCaffe/caffe/data/clamp/train.txt
…
I1107 13:36:57.084504  2833 net.cpp:275] The NetState phase (0) differed from the phase (1) specified by a rule in layer accuracy
I1107 13:36:57.084686  2833 net.cpp:39] Initializing net from parameters: 
name: "small"
layers {
  top: "data"
  top: "label"
  name: "data"
  type: IMAGE_DATA
  image_data_param {
    source: "/data/ad6813/devCaffe/caffe/data/misal_o/train.txt"
    batch_size: 32
    new_height: 256
    new_width: 256
  }
  include {
    phase: TRAIN
  }
  transform_param {
    mirror: true
    crop_size: 224
    mean_value: 86.752
    mean_value: 101.46
    mean_value: 104.6
  }
}
layers {
  bottom: "data"
  top: "conv1_1"
  name: "conv1_1"
  type: CONVOLUTION
  convolution_param {
    num_output: 64
    pad: 1
    kernel_size: 3
    weight_filler {
      type: "gaussian"
      std: 0.01
    }
    bias_filler {
      type: "constant"
      value: 0
    }
  }
}
layers {
  bottom: "conv1_1"
  top: "conv1_1"
  name: "relu1_1"
  type: RELU
}
layers {
  bottom: "conv1_1"
  top: "conv1_2"
  name: "conv1_2"
  type: CONVOLUTION
  convolution_param {
    num_output: 64
    pad: 1
    kernel_size: 3
    weight_filler {
      type: "gaussian"
      std: 0.01
    }
    bias_filler {
      type: "constant"
      value: 0
    }
  }
}
layers {
  bottom: "conv1_2"
  top: "conv1_2"
  name: "relu1_2WARNING: Logging before InitGoogleLogging() is written to STDERR
I1111 15:06:53.902251  4085 net.cpp:39] Initializing net from parameters: 
name: "alex"
layers {
  bottom: "data"
  top: "conv1"
  name: "conv1"
  type: CONVOLUTION
  blobs_lr: 1
  blobs_lr: 2
  weight_decay: 1
  weight_decay: 0
  convolution_param {
    num_output: 96
    kernel_size: 11
    stride: 4
  }
}
layers {
  bottom: "conv1"
  top: "conv1"
  name: "relu1"
  type: RELU
}
layers {
  bottom: "conv1"
  top: "pool1"
  name: "pool1"
  type: POOLING
  pooling_param {
    pool: MAX
    kernel_size: 3
    stride: 2
  }
}
layers {
  bottom: "pool1"
  top: "norm1"
  name: "norm1"
  type: LRN
  lrn_param {
    local_size: 5
    alpha: 0.0001
    beta: 0.75
  }
}
layers {
  bottom: "norm1"
  top: "conv2"
  name: "conv2"
  type: CONVOLUTION
  blobs_lr: 1
  blobs_lr: 2
  weight_decay: 1
  weight_decay: 0
  convolution_param {
    num_output: 256
    pad: 2
    kernel_size: 5
    group: 2
  }
}
layers {
  bottom: "conv2"
  top: "conv2"
  name: "relu2"
  type: RELU
}
layers {
  bottom: "conv2"
  top: "pool2"
  name: "pool2"
  type: POOLING
  pooling_param {
    pool: MAX
    kernel_size: 3
    stride: 2
  }
}
layers {
  bottom: "pool2"
  top: "norm2"
  name: "norm2"
  type: LRN
  lrn_param {
    local_size: 5
    alpha: 0.0001
    beta: 0.75
  }
}
layers {
  bottom: "norm2"
  top: "conv3"
  name: "conv3"
  type: CONVOLUTION
  blobs_lr: 1
  blobs_lr: 2
  weight_decay: 1
  weight_decay: 0
  convolution_param {
    num_output: 384
    pad: 1
    kernel_size: 3
  }
}
layers {
  bottom: "conv3"
  top: "conv3"
  name: "relu3"
  type: RELU
}
layers {
  bottom: "conv3"
  top: "conv4"
  name: "conv4"
  type: CONVOLUTION
  blobs_lr: 1
  blobs_lr: 2
  weight_decay: 1
  weight_decay: 0
  convolution_param {
    num_output: 384
    pad: 1
    kernel_size: 3
    group: 2
  }
}
layers {
  bottom: "conv4"
  top: "conv4"
  name: "relu4"
  type: RELU
}
layers {
  bottom: "conv4"
  top: "conv5"
  name: "conv5"
  type: CONVOLUTION
  blobs_lr: 1
  blobs_lr: 2
  weight_decay: 1
  weight_decay: 0
  convolution_param {
    num_output: 256
    pad: 1
    kernel_size: 3
    group: 2
  }
}
layers {
  bottom: "conv5"
  top: "conv5"
  name: "relu5"
  type: RELU
}
layers {
  bottom: "conv5"
  top: "pool5"
  name: "pool5"
  type: POOLING
  pooling_param {
    pool: MAX
    kernel_size: 3
    stride: 2
  }
}
layers {
  bottom: "pool5"
  top: "fc6"
  name: "fc6"
  type: INNER_PRODUCT
  blobs_lr: 1
  blobs_lr: 2
  weight_decay: 1
  weight_decay: 0
  inner_product_param {
    num_output: 4096
  }
}
layers {
  bottom: "fc6"
  top: "fc6"
  name: "relu6"
  type: RELU
}
layers {
  bottom: "fc6"
  top: "fc6"
  name: "drop6"
  type: DROPOUT
  dropout_param {
    dropout_ratio: 0.5
  }
}
layers {
  bottom: "fc6"
  top: "fc7"
  name: "fc7"
  type: INNER_PRODUCT
  blobs_lr: 1
  blobs_lr: 2
  weight_decay: 1
  weight_decay: 0
  inner_product_param {
    num_output: 4096
  }
}
layers {
  bottom: "fc7"
  top: "fc7"
  name: "relu7"
  type: RELU
}
layers {
  bottom: "fc7"
  top: "fc7"
  name: "drop7"
  type: DROPOUT
  dropout_param {
    dropout_ratio: 0.5
  }
}
layers {
  bottom: "fc7"
  top: "fc8_clamp"
  name: "fc8_clamp"
  type: INNER_PRODUCT
  blobs_lr: 1
  blobs_lr: 2
  weight_decay: 1
  weight_decay: 0
  inner_product_param {
    num_output: 2
  }
}
layers {
  bottom: "fc8_clamp"
  top: "prob"
  name: "prob"
  type: SOFTMAX
}
input: "data"
input_dim: 10
input_dim: 3
input_dim: 227
input_dim: 227
I1111 15:06:53.920320  4085 net.cpp:358] Input 0 -> data
I1111 15:06:53.930162  4085 layer_factory.hpp:78] Creating layer conv1
I1111 15:06:53.930181  4085 net.cpp:67] Creating Layer conv1
I1111 15:06:53.930187  4085 net.cpp:394] conv1 <- data
I1111 15:06:53.930194  4085 net.cpp:356] conv1 -> conv1
I1111 15:06:53.930203  4085 net.cpp:96] Setting up conv1
I1111 15:06:54.170709  4085 net.cpp:103] Top shape: 10 96 55 55 (2904000)
I1111 15:06:54.170758  4085 layer_factory.hpp:78] Creating layer relu1
I1111 15:06:54.170770  4085 net.cpp:67] Creating Layer relu1
I1111 15:06:54.170776  4085 net.cpp:394] relu1 <- conv1
I1111 15:06:54.170783  4085 net.cpp:345] relu1 -> conv1 (in-place)
I1111 15:06:54.170799  4085 net.cpp:96] Setting up relu1
I1111 15:06:54.185127  4085 net.cpp:103] Top shape: 10 96 55 55 (2904000)
I1111 15:06:54.185137  4085 layer_factory.hpp:78] Creating layer pool1
I1111 15:06:54.185148  4085 net.cpp:67] Creating Layer pool1
I1111 15:06:54.185152  4085 net.cpp:394] pool1 <- conv1
I1111 15:06:54.185158  4085 net.cpp:356] pool1 -> pool1
I1111 15:06:54.185163  4085 net.cpp:96] Setting up pool1
I1111 15:06:54.185178  4085 net.cpp:103] Top shape: 10 96 27 27 (699840)
I1111 15:06:54.185181  4085 layer_factory.hpp:78] Creating layer norm1
I1111 15:06:54.185190  4085 net.cpp:67] Creating Layer norm1
I1111 15:06:54.185194  4085 net.cpp:394] norm1 <- pool1
I1111 15:06:54.185199  4085 net.cpp:356] norm1 -> norm1
I1111 15:06:54.185204  4085 net.cpp:96] Setting up norm1
I1111 15:06:54.185209  4085 net.cpp:103] Top shape: 10 96 27 27 (699840)
I1111 15:06:54.185212  4085 layer_factory.hpp:78] Creating layer conv2
I1111 15:06:54.185221  4085 net.cpp:67] Creating Layer conv2
I1111 15:06:54.185225  4085 net.cpp:394] conv2 <- norm1
I1111 15:06:54.185230  4085 net.cpp:356] conv2 -> conv2
I1111 15:06:54.185235  4085 net.cpp:96] Setting up conv2
I1111 15:06:54.185678  4085 net.cpp:103] Top shape: 10 256 27 27 (1866240)
I1111 15:06:54.185689  4085 layer_factory.hpp:78] Creating layer relu2
I1111 15:06:54.185696  4085 net.cpp:67] Creating Layer relu2
I1111 15:06:54.185700  4085 net.cpp:394] relu2 <- conv2
I1111 15:06:54.185705  4085 net.cpp:345] relu2 -> conv2 (in-place)
I1111 15:06:54.185710  4085 net.cpp:96] Setting up relu2
I1111 15:06:54.185715  4085 net.cpp:103] Top shape: 10 256 27 27 (1866240)
I1111 15:06:54.185719  4085 layer_factory.hpp:78] Creating layer pool2
I1111 15:06:54.185724  4085 net.cpp:67] Creating Layer pool2
I1111 15:06:54.185726  4085 net.cpp:394] pool2 <- conv2
I1111 15:06:54.185732  4085 net.cpp:356] pool2 -> pool2
I1111 15:06:54.185737  4085 net.cpp:96] Setting up pool2
I1111 15:06:54.185744  4085 net.cpp:103] Top shape: 10 256 13 13 (432640)
I1111 15:06:54.185747  4085 layer_factory.hpp:78] Creating layer norm2
I1111 15:06:54.185752  4085 net.cpp:67] Creating Layer norm2
I1111 15:06:54.185755  4085 net.cpp:394] norm2 <- pool2
I1111 15:06:54.185761  4085 net.cpp:356] norm2 -> norm2
I1111 15:06:54.185766  4085 net.cpp:96] Setting up norm2
I1111 15:06:54.185770  4085 net.cpp:103] Top shape: 10 256 13 13 (432640)
I1111 15:06:54.185773  4085 layer_factory.hpp:78] Creating layer conv3
I1111 15:06:54.185780  4085 net.cpp:67] Creating Layer conv3
I1111 15:06:54.185783  4085 net.cpp:394] conv3 <- norm2
I1111 15:06:54.185787  4085 net.cpp:356] conv3 -> conv3
I1111 15:06:54.185792  4085 net.cpp:96] Setting up conv3
I1111 15:06:54.186669  4085 net.cpp:103] Top shape: 10 384 13 13 (648960)
I1111 15:06:54.186682  4085 layer_factory.hpp:78] Creating layer relu3
I1111 15:06:54.186688  4085 net.cpp:67] Creating Layer relu3
I1111 15:06:54.186691  4085 net.cpp:394] relu3 <- conv3
I1111 15:06:54.186697  4085 net.cpp:345] relu3 -> conv3 (in-place)
I1111 15:06:54.186702  4085 net.cpp:96] Setting up relu3
I1111 15:06:54.186707  4085 net.cpp:103] Top shape: 10 384 13 13 (648960)
I1111 15:06:54.186710  4085 layer_factory.hpp:78] Creating layer conv4
I1111 15:06:54.186715  4085 net.cpp:67] Creating Layer conv4
I1111 15:06:54.186718  4085 net.cpp:394] conv4 <- conv3
I1111 15:06:54.186723  4085 net.cpp:356] conv4 -> conv4
I1111 15:06:54.186728  4085 net.cpp:96] Setting up conv4
I1111 15:06:54.187742  4085 net.cpp:103] Top shape: 10 384 13 13 (648960)
I1111 15:06:54.187757  4085 layer_factory.hpp:78] Creating layer relu4
I1111 15:06:54.187763  4085 net.cpp:67] Creating Layer relu4
I1111 15:06:54.187767  4085 net.cpp:394] relu4 <- conv4
I1111 15:06:54.187772  4085 net.cpp:345] relu4 -> conv4 (in-place)
I1111 15:06:54.187778  4085 net.cpp:96] Setting up relu4
I1111 15:06:54.187783  4085 net.cpp:103] Top shape: 10 384 13 13 (648960)
I1111 15:06:54.187788  4085 layer_factory.hpp:78] Creating layer conv5
I1111 15:06:54.187793  4085 net.cpp:67] Creating Layer conv5
I1111 15:06:54.187806  4085 net.cpp:394] conv5 <- conv4
I1111 15:06:54.187813  4085 net.cpp:356] conv5 -> conv5
I1111 15:06:54.187819  4085 net.cpp:96] Setting up conv5
I1111 15:06:54.188413  4085 net.cpp:103] Top shape: 10 256 13 13 (432640)
I1111 15:06:54.188424  4085 layer_factory.hpp:78] Creating layer relu5
I1111 15:06:54.188429  4085 net.cpp:67] Creating Layer relu5
I1111 15:06:54.188433  4085 net.cpp:394] relu5 <- conv5
I1111 15:06:54.188438  4085 net.cpp:345] relu5 -> conv5 (in-place)
I1111 15:06:54.188444  4085 net.cpp:96] Setting up relu5
I1111 15:06:54.188449  4085 net.cpp:103] Top shape: 10 256 13 13 (432640)
I1111 15:06:54.188452  4085 layer_factory.hpp:78] Creating layer pool5
I1111 15:06:54.188458  4085 net.cpp:67] Creating Layer pool5
I1111 15:06:54.188462  4085 net.cpp:394] pool5 <- conv5
I1111 15:06:54.188467  4085 net.cpp:356] pool5 -> pool5
I1111 15:06:54.188472  4085 net.cpp:96] Setting up pool5
I1111 15:06:54.188479  4085 net.cpp:103] Top shape: 10 256 6 6 (92160)
I1111 15:06:54.188482  4085 layer_factory.hpp:78] Creating layer fc6
I1111 15:06:54.188490  4085 net.cpp:67] Creating Layer fc6
I1111 15:06:54.188493  4085 net.cpp:394] fc6 <- pool5
I1111 15:06:54.188498  4085 net.cpp:356] fc6 -> fc6
I1111 15:06:54.188504  4085 net.cpp:96] Setting up fc6
I1111 15:06:54.218935  4085 net.cpp:103] Top shape: 10 4096 1 1 (40960)
I1111 15:06:54.218972  4085 layer_factory.hpp:78] Creating layer relu6
I1111 15:06:54.218984  4085 net.cpp:67] Creating Layer relu6
I1111 15:06:54.218989  4085 net.cpp:394] relu6 <- fc6
I1111 15:06:54.218997  4085 net.cpp:345] relu6 -> fc6 (in-place)
I1111 15:06:54.219005  4085 net.cpp:96] Setting up relu6
I1111 15:06:54.219019  4085 net.cpp:103] Top shape: 10 4096 1 1 (40960)
I1111 15:06:54.219023  4085 layer_factory.hpp:78] Creating layer drop6
I1111 15:06:54.219033  4085 net.cpp:67] Creating Layer drop6
I1111 15:06:54.219035  4085 net.cpp:394] drop6 <- fc6
I1111 15:06:54.219040  4085 net.cpp:345] drop6 -> fc6 (in-place)
I1111 15:06:54.219045  4085 net.cpp:96] Setting up drop6
I1111 15:06:54.219051  4085 net.cpp:103] Top shape: 10 4096 1 1 (40960)
I1111 15:06:54.219055  4085 layer_factory.hpp:78] Creating layer fc7
I1111 15:06:54.219061  4085 net.cpp:67] Creating Layer fc7
I1111 15:06:54.219064  4085 net.cpp:394] fc7 <- fc6
I1111 15:06:54.219070  4085 net.cpp:356] fc7 -> fc7
I1111 15:06:54.219077  4085 net.cpp:96] Setting up fc7
I1111 15:06:54.232755  4085 net.cpp:103] Top shape: 10 4096 1 1 (40960)
I1111 15:06:54.232796  4085 layer_factory.hpp:78] Creating layer relu7
I1111 15:06:54.232806  4085 net.cpp:67] Creating Layer relu7
I1111 15:06:54.232811  4085 net.cpp:394] relu7 <- fc7
I1111 15:06:54.232818  4085 net.cpp:345] relu7 -> fc7 (in-place)
I1111 15:06:54.232825  4085 net.cpp:96] Setting up relu7
I1111 15:06:54.232839  4085 net.cpp:103] Top shape: 10 4096 1 1 (40960)
I1111 15:06:54.232842  4085 layer_factory.hpp:78] Creating layer drop7
I1111 15:06:54.232848  4085 net.cpp:67] Creating Layer drop7
I1111 15:06:54.232851  4085 net.cpp:394] drop7 <- fc7
I1111 15:06:54.232856  4085 net.cpp:345] drop7 -> fc7 (in-place)
I1111 15:06:54.232861  4085 net.cpp:96] Setting up drop7
I1111 15:06:54.232864  4085 net.cpp:103] Top shape: 10 4096 1 1 (40960)
I1111 15:06:54.232867  4085 layer_factory.hpp:78] Creating layer fc8_clamp
I1111 15:06:54.232874  4085 net.cpp:67] Creating Layer fc8_clamp
I1111 15:06:54.232878  4085 net.cpp:394] fc8_clamp <- fc7
I1111 15:06:54.232882  4085 net.cpp:356] fc8_clamp -> fc8_clamp
I1111 15:06:54.232889  4085 net.cpp:96] Setting up fc8_clamp
I1111 15:06:54.232905  4085 net.cpp:103] Top shape: 10 2 1 1 (20)
I1111 15:06:54.232911  4085 layer_factory.hpp:78] Creating layer prob
I1111 15:06:54.232919  4085 net.cpp:67] Creating Layer prob
I1111 15:06:54.232923  4085 net.cpp:394] prob <- fc8_clamp
I1111 15:06:54.232928  4085 net.cpp:356] prob -> prob
I1111 15:06:54.232933  4085 net.cpp:96] Setting up prob
I1111 15:06:54.232941  4085 net.cpp:103] Top shape: 10 2 1 1 (20)
I1111 15:06:54.232944  4085 net.cpp:172] prob does not need backward computation.
I1111 15:06:54.232947  4085 net.cpp:172] fc8_clamp does not need backward computation.
I1111 15:06:54.232959  4085 net.cpp:172] drop7 does not need backward computation.
I1111 15:06:54.232961  4085 net.cpp:172] relu7 does not need backward computation.
I1111 15:06:54.232964  4085 net.cpp:172] fc7 does not need backward computation.
…
    predictions += list(classifier.predict(inputs[bs:be], not args.center_only))
  File "/data/ad6813/devCaffe/caffe/python/caffe/classifier.py", line 86, in predict
    out = self.forward_all(**{self.inputs[0]: caffe_in})
  File "/data/ad6813/devCaffe/caffe/python/caffe/pycaffe.py", line 148, in _Net_forward_all
    outs = self.forward(blobs=blobs, **batch)
  File "/data/ad6813/devCaffe/caffe/python/caffe/pycaffe.py", line 80, in _Net_forward
    self._forward(start_ind, end_ind)
KeyboardInterrupt
WARNING: Logging before InitGoogleLogging() is written to STDERR
I1111 15:09:12.491379  5297 net.cpp:39] Initializing net from parameters: 
name: "small"
layers {
  bottom: "data"
  top: "conv1_1"
  name: "conv1_1"
  type: CONVOLUTION
  convolution_param {
    num_output: 64
    pad: 1
    kernel_size: 3
  }
}
layers {
  bottom: "conv1_1"
  top: "conv1_1"
  name: "relu1_1"
  type: RELU
}
layers {
  bottom: "conv1_1"
  top: "conv1_2"
  name: "conv1_2"
  type: CONVOLUTION
  convolution_param {
    num_output: 64
    pad: 1
    kernel_size: 3
  }
}
layers {
  bottom: "conv1_2"
  top: "conv1_2"
  name: "relu1_2"
  type: RELU
}
layers {
  bottom: "conv1_2"
  top: "pool1"
  name: "pool1"
  type: POOLING
  pooling_param {
    pool: MAX
    kernel_size: 2
    stride: 2
  }
}
layers {
  bottom: "pool1"
  top: "conv2_1"
  name: "conv2_1"
  type: CONVOLUTION
  convolution_param {
    num_output: 128
    pad: 1
    kernel_size: 3
  }
}
layers {
  bottom: "conv2_1"
  top: "conv2_1"
  name: "relu2_1"
  type: RELU
}
layers {
  bottom: "conv2_1"
  top: "conv2_2"
  name: "conv2_2"
  type: CONVOLUTION
  convolution_param {
    num_output: 128
    pad: 1
    kernel_size: 3
  }
}
layers {
  bottom: "conv2_2"
  top: "conv2_2"
  name: "relu2_2"
  type: RELU
}
layers {
  bottom: "conv2_2"
  top: "pool2"
  name: "pool2"
  type: POOLING
  pooling_param {
    pool: MAX
    kernel_size: 2
    stride: 2
  }
}
layers {
  bottom: "pool2"
  top: "conv3_1"
  name: "conv3_1"
  type: CONVOLUTION
  convolution_param {
    num_output: 256
    pad: 1
    kernel_size: 3
  }
}
layers {
  bottom: "conv3_1"
  top: "conv3_1"
  name: "relu3_1"
  type: RELU
}
layers {
  bottom: "conv3_1"
  top: "conv3_2"
  name: "conv3_2"
  type: CONVOLUTION
  convolution_param {
    num_output: 256
    pad: 1
    kernel_size: 3
  }
}
layers {
  bottom: "conv3_2"
  top: "conv3_2"
  name: "relu3_2"
  type: RELU
}
layers {
  bottom: "conv3_2"
  top: "conv3_3"
  name: "conv3_3"
  type: CONVOLUTION
  convolution_param {
    num_output: 256
    pad: 1
    kernel_size: 3
  }
}
layers {
  bottom: "conv3_3"
  top: "conv3_3"
  name: "relu3_3"
  type: RELU
}
layers {
  bottom: "conv3_3"
  top: "pool3"
  name: "pool3"
  type: POOLING
  pooling_param {
    pool: MAX
    kernel_size: 2
    stride: 2
  }
}
layers {
  bottom: "pool3"
  top: "conv4_1"
  name: "conv4_1"
  type: CONVOLUTION
  convolution_param {
    num_output: 512
    pad: 1
    kernel_size: 3
  }
}
layers {
  bottom: "conv4_1"
  top: "conv4_1"
  name: "relu4_1"
  type: RELU
}
layers {
  bottom: "conv4_1"
  top: "conv4_2"
  name: "conv4_2"
  type: CONVOLUTION
  convolution_param {
    num_output: 512
    pad: 1
    kernel_size: 3
  }
}
layers {
  bottom: "conv4_2"
  top: "conv4_2"
  name: "relu4_2"
  type: RELU
}
layers {
  bottom: "conv4_2"
  top: "conv4_3"
  name: "conv4_3"
  type: CONVOLUTION
  convolution_param {
    num_output: 512
    pad: 1
    kernel_size: 3
  }
}
layers {
  bottom: "conv4_3"
  top: "conv4_3"
  name: "relu4_3"
  type: RELU
}
layers {
  bottom: "conv4_3"
  top: "pool4"
  name: "pool4"
  type: POOLING
  pooling_param {
    pool: MAX
    kernel_size: 2
    stride: 2
  }
}
layers {
  bottom: "pool4"
  top: "conv5_1"
  name: "conv5_1"
  type: CONVOLUTION
  convolution_param {
    num_output: 512
    pad: 1
    kernel_size: 3
  }
}
layers {
  bottom: "conv5_1"
  top: "conv5_1"
  name: "relu5_1"
  type: RELU
}
layers {
  bottom: "conv5_1"
  top: "conv5_2"
  name: "conv5_2"
  type: CONVOLUTION
  convolution_param {
    num_output: 512
    pad: 1
    kernel_size: 3
  }
}
layers {
  bottom: "conv5_2"
  top: "conv5_2"
  name: "relu5_2"
  type: RELU
}
layers {
  bottom: "conv5_2"
  top: "conv5_3"
  name: "conv5_3"
  type: CONVOLUTION
  convolution_param {
    num_output: 512
    pad: 1
    kernel_size: 3
  }
}
layers {
  bottom: "conv5_3"
  top: "conv5_3"
  name: "relu5_3"
  type: RELU
}
layers {
  bottom: "conv5_3"
  top: "pool5"
  name: "pool5"
  type: POOLING
  pooling_param {
    pool: MAX
    kernel_size: 2
    stride: 2
  }
}
layers {
  bottom: "pool5"
  top: "fc6"
  name: "fc6"
  type: INNER_PRODUCT
  inner_product_param {
    num_output: 4096
  }
}
layers {
  bottom: "fc6"
  top: "fc6"
  name: "relu6"
  type: RELU
}
layers {
  bottom: "fc6"
  top: "fc6"
  name: "drop6"
  type: DROPOUT
  dropout_param {
    dropout_ratio: 0.5
  }
}
layers {
  bottom: "fc6"
  top: "fc7"
  name: "fc7"
  type: INNER_PRODUCT
  inner_product_param {
    num_output: 4096
  }
}
layers {
  bottom: "fc7"
  top: "fc7"
  name: "relu7"
  type: RELU
}
layers {
  bottom: "fc7"
  top: "fc7"
  name: "drop7"
  type: DROPOUT
  dropout_param {
    dropout_ratio: 0.5
  }
}
layers {
  bottom: "fc7"
  top: "fc8_2"
  name: "fc8_2"
  type: INNER_PRODUCT
  inner_product_param {
    num_output: 2
  }
}
layers {
  bottom: "fc8_2"
  top: "prob"
  name: "prob"
  type: SOFTMAX
}
input: "data"
input_dim: 10
input_dim: 3
input_dim: 224
input_dim: 224
I1111 15:09:12.499196  5297 net.cpp:358] Input 0 -> data
I1111 15:09:12.509945  5297 layer_factory.hpp:78] Creating layer conv1_1
I1111 15:09:12.509965  5297 net.cpp:67] Creating Layer conv1_1
I1111 15:09:12.509971  5297 net.cpp:394] conv1_1 <- data
I1111 15:09:12.509979  5297 net.cpp:356] conv1_1 -> conv1_1
I1111 15:09:12.509986  5297 net.cpp:96] Setting up conv1_1
I1111 15:09:12.711043  5297 net.cpp:103] Top shape: 10 64 224 224 (32112640)
I1111 15:09:12.711099  5297 layer_factory.hpp:78] Creating layer relu1_1
I1111 15:09:12.711113  5297 net.cpp:67] Creating Layer relu1_1
I1111 15:09:12.711118  5297 net.cpp:394] relu1_1 <- conv1_1
I1111 15:09:12.711125  5297 net.cpp:345] relu1_1 -> conv1_1 (in-place)
I1111 15:09:12.711133  5297 net.cpp:96] Setting up relu1_1
I1111 15:09:12.711143  5297 net.cpp:103] Top shape: 10 64 224 224 (32112640)
I1111 15:09:12.711146  5297 layer_factory.hpp:78] Creating layer conv1_2
I1111 15:09:12.711153  5297 net.cpp:67] Creating Layer conv1_2
I1111 15:09:12.711156  5297 net.cpp:394] conv1_2 <- conv1_1
I1111 15:09:12.711161  5297 net.cpp:356] conv1_2 -> conv1_2
I1111 15:09:12.711169  5297 net.cpp:96] Setting up conv1_2
I1111 15:09:12.711326  5297 net.cpp:103] Top shape: 10 64 224 224 (32112640)
I1111 15:09:12.711338  5297 layer_factory.hpp:78] Creating layer relu1_2
I1111 15:09:12.711344  5297 net.cpp:67] Creating Layer relu1_2
I1111 15:09:12.711347  5297 net.cpp:394] relu1_2 <- conv1_2
I1111 15:09:12.711351  5297 net.cpp:345] relu1_2 -> conv1_2 (in-place)
I1111 15:09:12.711356  5297 net.cpp:96] Setting up relu1_2
I1111 15:09:12.711361  5297 net.cpp:103] Top shape: 10 64 224 224 (32112640)
I1111 15:09:12.711365  5297 layer_factory.hpp:78] Creating layer pool1
I1111 15:09:12.711374  5297 net.cpp:67] Creating Layer pool1
I1111 15:09:12.711376  5297 net.cpp:394] pool1 <- conv1_2
I1111 15:09:12.711381  5297 net.cpp:356] pool1 -> pool1
I1111 15:09:12.711386  5297 net.cpp:96] Setting up pool1
I1111 15:09:12.711400  5297 net.cpp:103] Top shape: 10 64 112 112 (8028160)
I1111 15:09:12.711403  5297 layer_factory.hpp:78] Creating layer conv2_1
I1111 15:09:12.711410  5297 net.cpp:67] Creating Layer conv2_1
I1111 15:09:12.711413  5297 net.cpp:394] conv2_1 <- pool1
I1111 15:09:12.711419  5297 net.cpp:356] conv2_1 -> conv2_1
I1111 15:09:12.711426  5297 net.cpp:96] Setting up conv2_1
I1111 15:09:12.711578  5297 net.cpp:103] Top shape: 10 128 112 112 (16056320)
I1111 15:09:12.711590  5297 layer_factory.hpp:78] Creating layer relu2_1
I1111 15:09:12.711596  5297 net.cpp:67] Creating Layer relu2_1
I1111 15:09:12.711599  5297 net.cpp:394] relu2_1 <- conv2_1
I1111 15:09:12.711603  5297 net.cpp:345] relu2_1 -> conv2_1 (in-place)
I1111 15:09:12.711608  5297 net.cpp:96] Setting up relu2_1
I1111 15:09:12.711613  5297 net.cpp:103] Top shape: 10 128 112 112 (16056320)
I1111 15:09:12.711616  5297 layer_factory.hpp:78] Creating layer conv2_2
I1111 15:09:12.711622  5297 net.cpp:67] Creating Layer conv2_2
I1111 15:09:12.711626  5297 net.cpp:394] conv2_2 <- conv2_1
I1111 15:09:12.711630  5297 net.cpp:356] conv2_2 -> conv2_2
I1111 15:09:12.711635  5297 net.cpp:96] Setting up conv2_2
I1111 15:09:12.711885  5297 net.cpp:103] Top shape: 10 128 112 112 (16056320)
I1111 15:09:12.711896  5297 layer_factory.hpp:78] Creating layer relu2_2
I1111 15:09:12.711905  5297 net.cpp:67] Creating Layer relu2_2
I1111 15:09:12.711908  5297 net.cpp:394] relu2_2 <- conv2_2
I1111 15:09:12.711912  5297 net.cpp:345] relu2_2 -> conv2_2 (in-place)
I1111 15:09:12.711918  5297 net.cpp:96] Setting up relu2_2
I1111 15:09:12.711925  5297 net.cpp:103] Top shape: 10 128 112 112 (16056320)
I1111 15:09:12.711927  5297 layer_factory.hpp:78] Creating layer pool2
I1111 15:09:12.711932  5297 net.cpp:67] Creating Layer pool2
I1111 15:09:12.711936  5297 net.cpp:394] pool2 <- conv2_2
I1111 15:09:12.711941  5297 net.cpp:356] pool2 -> pool2
I1111 15:09:12.711946  5297 net.cpp:96] Setting up pool2
I1111 15:09:12.711951  5297 net.cpp:103] Top shape: 10 128 56 56 (4014080)
I1111 15:09:12.711954  5297 layer_factory.hpp:78] Creating layer conv3_1
I1111 15:09:12.711961  5297 net.cpp:67] Creating Layer conv3_1
I1111 15:09:12.711964  5297 net.cpp:394] conv3_1 <- pool2
I1111 15:09:12.711969  5297 net.cpp:356] conv3_1 -> conv3_1
I1111 15:09:12.711973  5297 net.cpp:96] Setting up conv3_1
I1111 15:09:12.712385  5297 net.cpp:103] Top shape: 10 256 56 56 (8028160)
I1111 15:09:12.712396  5297 layer_factory.hpp:78] Creating layer relu3_1
I1111 15:09:12.712402  5297 net.cpp:67] Creating Layer relu3_1
I1111 15:09:12.712406  5297 net.cpp:394] relu3_1 <- conv3_1
I1111 15:09:12.712416  5297 net.cpp:345] relu3_1 -> conv3_1 (in-place)
I1111 15:09:12.712421  5297 net.cpp:96] Setting up relu3_1
I1111 15:09:12.712426  5297 net.cpp:103] Top shape: 10 256 56 56 (8028160)
I1111 15:09:12.712430  5297 layer_factory.hpp:78] Creating layer conv3_2
I1111 15:09:12.712435  5297 net.cpp:67] Creating Layer conv3_2
I1111 15:09:12.712438  5297 net.cpp:394] conv3_2 <- conv3_1
I1111 15:09:12.712445  5297 net.cpp:356] conv3_2 -> conv3_2
I1111 15:09:12.712450  5297 net.cpp:96] Setting up conv3_2
I1111 15:09:12.713323  5297 net.cpp:103] Top shape: 10 256 56 56 (8028160)
I1111 15:09:12.713335  5297 layer_factory.hpp:78] Creating layer relu3_2
I1111 15:09:12.713340  5297 net.cpp:67] Creating Layer relu3_2
I1111 15:09:12.713345  5297 net.cpp:394] relu3_2 <- conv3_2
I1111 15:09:12.713348  5297 net.cpp:345] relu3_2 -> conv3_2 (in-place)
I1111 15:09:12.713353  5297 net.cpp:96] Setting up relu3_2
I1111 15:09:12.713358  5297 net.cpp:103] Top shape: 10 256 56 56 (8028160)
I1111 15:09:12.713362  5297 layer_factory.hpp:78] Creating layer conv3_3
I1111 15:09:12.713366  5297 net.cpp:67] Creating Layer conv3_3
I1111 15:09:12.713369  5297 net.cpp:394] conv3_3 <- conv3_2
I1111 15:09:12.713376  5297 net.cpp:356] conv3_3 -> conv3_3
I1111 15:09:12.713381  5297 net.cpp:96] Setting up conv3_3
I1111 15:09:12.714148  5297 net.cpp:103] Top shape: 10 256 56 56 (8028160)
I1111 15:09:12.714157  5297 layer_factory.hpp:78] Creating layer relu3_3
I1111 15:09:12.714164  5297 net.cpp:67] Creating Layer relu3_3
I1111 15:09:12.714166  5297 net.cpp:394] relu3_3 <- conv3_3
I1111 15:09:12.714171  5297 net.cpp:345] relu3_3 -> conv3_3 (in-place)
I1111 15:09:12.714176  5297 net.cpp:96] Setting up relu3_3
I1111 15:09:12.714180  5297 net.cpp:103] Top shape: 10 256 56 56 (8028160)
I1111 15:09:12.714184  5297 layer_factory.hpp:78] Creating layer pool3
I1111 15:09:12.714192  5297 net.cpp:67] Creating Layer pool3
I1111 15:09:12.714195  5297 net.cpp:394] pool3 <- conv3_3
I1111 15:09:12.714200  5297 net.cpp:356] pool3 -> pool3
I1111 15:09:12.714205  5297 net.cpp:96] Setting up pool3
I1111 15:09:12.714212  5297 net.cpp:103] Top shape: 10 256 28 28 (2007040)
I1111 15:09:12.714215  5297 layer_factory.hpp:78] Creating layer conv4_1
I1111 15:09:12.714222  5297 net.cpp:67] Creating Layer conv4_1
I1111 15:09:12.714226  5297 net.cpp:394] conv4_1 <- pool3
I1111 15:09:12.714229  5297 net.cpp:356] conv4_1 -> conv4_1
I1111 15:09:12.714234  5297 net.cpp:96] Setting up conv4_1
I1111 15:09:12.715469  5297 net.cpp:103] Top shape: 10 512 28 28 (4014080)
I1111 15:09:12.715481  5297 layer_factory.hpp:78] Creating layer relu4_1
I1111 15:09:12.715487  5297 net.cpp:67] Creating Layer relu4_1
I1111 15:09:12.715490  5297 net.cpp:394] relu4_1 <- conv4_1
I1111 15:09:12.715495  5297 net.cpp:345] relu4_1 -> conv4_1 (in-place)
I1111 15:09:12.715502  5297 net.cpp:96] Setting up relu4_1
I1111 15:09:12.715507  5297 net.cpp:103] Top shape: 10 512 28 28 (4014080)
I1111 15:09:12.715509  5297 layer_factory.hpp:78] Creating layer conv4_2
I1111 15:09:12.715514  5297 net.cpp:67] Creating Layer conv4_2
I1111 15:09:12.715517  5297 net.cpp:394] conv4_2 <- conv4_1
I1111 15:09:12.715522  5297 net.cpp:356] conv4_2 -> conv4_2
I1111 15:09:12.715526  5297 net.cpp:96] Setting up conv4_2
I1111 15:09:12.717612  5297 net.cpp:103] Top shape: 10 512 28 28 (4014080)
I1111 15:09:12.717654  5297 layer_factory.hpp:78] Creating layer relu4_2
I1111 15:09:12.717664  5297 net.cpp:67] Creating Layer relu4_2
I1111 15:09:12.717669  5297 net.cpp:394] relu4_2 <- conv4_2
I1111 15:09:12.717674  5297 net.cpp:345] relu4_2 -> conv4_2 (in-place)
I1111 15:09:12.717680  5297 net.cpp:96] Setting up relu4_2
I1111 15:09:12.717686  5297 net.cpp:103] Top shape: 10 512 28 28 (4014080)
I1111 15:09:12.717689  5297 layer_factory.hpp:78] Creating layer conv4_3
I1111 15:09:12.717695  5297 net.cpp:67] Creating Layer conv4_3
I1111 15:09:12.717699  5297 net.cpp:394] conv4_3 <- conv4_2
I1111 15:09:12.717705  5297 net.cpp:356] conv4_3 -> conv4_3
I1111 15:09:12.717710  5297 net.cpp:96] Setting up conv4_3
I1111 15:09:12.719681  5297 net.cpp:103] Top shape: 10 512 28 28 (4014080)
I1111 15:09:12.719707  5297 layer_factory.hpp:78] Creating layer relu4_3
I1111 15:09:12.719730  5297 net.cpp:67] Creating Layer relu4_3
I1111 15:09:12.719743  5297 net.cpp:394] relu4_3 <- conv4_3
I1111 15:09:12.719748  5297 net.cpp:345] relu4_3 -> conv4_3 (in-place)
I1111 15:09:12.719755  5297 net.cpp:96] Setting up relu4_3
I1111 15:09:12.719761  5297 net.cpp:103] Top shape: 10 512 28 28 (4014080)
I1111 15:09:12.719765  5297 layer_factory.hpp:78] Creating layer pool4
I1111 15:09:12.719773  5297 net.cpp:67] Creating Layer pool4
I1111 15:09:12.719776  5297 net.cpp:394] pool4 <- conv4_3
I1111 15:09:12.719781  5297 net.cpp:356] pool4 -> pool4
I1111 15:09:12.719787  5297 net.cpp:96] Setting up pool4
I1111 15:09:12.719795  5297 net.cpp:103] Top shape: 10 512 14 14 (1003520)
I1111 15:09:12.719799  5297 layer_factory.hpp:78] Creating layer conv5_1
I1111 15:09:12.719806  5297 net.cpp:67] Creating Layer conv5_1
I1111 15:09:12.719810  5297 net.cpp:394] conv5_1 <- pool4
I1111 15:09:12.719815  5297 net.cpp:356] conv5_1 -> conv5_1
I1111 15:09:12.719820  5297 net.cpp:96] Setting up conv5_1
I1111 15:09:12.722189  5297 net.cpp:103] Top shape: 10 512 14 14 (1003520)
I1111 15:09:12.722213  5297 layer_factory.hpp:78] Creating layer relu5_1
I1111 15:09:12.722226  5297 net.cpp:67] Creating Layer relu5_1
I1111 15:09:12.722231  5297 net.cpp:394] relu5_1 <- conv5_1
I1111 15:09:12.722239  5297 net.cpp:345] relu5_1 -> conv5_1 (in-place)
I1111 15:09:12.722244  5297 net.cpp:96] Setting up relu5_1
I1111 15:09:12.722251  5297 net.cpp:103] Top shape: 10 512 14 14 (1003520)
I1111 15:09:12.722254  5297 layer_factory.hpp:78] Creating layer conv5_2
I1111 15:09:12.722262  5297 net.cpp:67] Creating Layer conv5_2
I1111 15:09:12.722266  5297 net.cpp:394] conv5_2 <- conv5_1
I1111 15:09:12.722271  5297 net.cpp:356] conv5_2 -> conv5_2
I1111 15:09:12.722280  5297 net.cpp:96] Setting up conv5_2
I1111 15:09:12.724257  5297 net.cpp:103] Top shape: 10 512 14 14 (1003520)
I1111 15:09:12.724292  5297 layer_factory.hpp:78] Creating layer relu5_2
I1111 15:09:12.724302  5297 net.cpp:67] Creating Layer relu5_2
I1111 15:09:12.724306  5297 net.cpp:394] relu5_2 <- conv5_2
I1111 15:09:12.724313  5297 net.cpp:345] relu5_2 -> conv5_2 (in-place)
I1111 15:09:12.724319  5297 net.cpp:96] Setting up relu5_2
I1111 15:09:12.724325  5297 net.cpp:103] Top shape: 10 512 14 14 (1003520)
I1111 15:09:12.724328  5297 layer_factory.hpp:78] Creating layer conv5_3
I1111 15:09:12.724334  5297 net.cpp:67] Creating Layer conv5_3
I1111 15:09:12.724338  5297 net.cpp:394] conv5_3 <- conv5_2
I1111 15:09:12.724344  5297 net.cpp:356] conv5_3 -> conv5_3
I1111 15:09:12.724349  5297 net.cpp:96] Setting up conv5_3
I1111 15:09:12.726568  5297 net.cpp:103] Top shape: 10 512 14 14 (1003520)
I1111 15:09:12.726593  5297 layer_factory.hpp:78] Creating layer relu5_3
I1111 15:09:12.726601  5297 net.cpp:67] Creating Layer relu5_3
I1111 15:09:12.726606  5297 net.cpp:394] relu5_3 <- conv5_3
I1111 15:09:12.726613  5297 net.cpp:345] relu5_3 -> conv5_3 (in-place)
I1111 15:09:12.726619  5297 net.cpp:96] Setting up relu5_3
I1111 15:09:12.726624  5297 net.cpp:103] Top shape: 10 512 14 14 (1003520)
I1111 15:09:12.726629  5297 layer_factory.hpp:78] Creating layer pool5
I1111 15:09:12.726635  5297 net.cpp:67] Creating Layer pool5
I1111 15:09:12.726639  5297 net.cpp:394] pool5 <- conv5_3
I1111 15:09:12.726644  5297 net.cpp:356] pool5 -> pool5
I1111 15:09:12.726649  5297 net.cpp:96] Setting up pool5
I1111 15:09:12.726656  5297 net.cpp:103] Top shape: 10 512 7 7 (250880)
I1111 15:09:12.726660  5297 layer_factory.hpp:78] Creating layer fc6
I1111 15:09:12.726670  5297 net.cpp:67] Creating Layer fc6
I1111 15:09:12.726673  5297 net.cpp:394] fc6 <- pool5
I1111 15:09:12.726680  5297 net.cpp:356] fc6 -> fc6
I1111 15:09:12.726686  5297 net.cpp:96] Setting up fc6
I1111 15:09:12.805016  5297 net.cpp:103] Top shape: 10 4096 1 1 (40960)
I1111 15:09:12.805054  5297 layer_factory.hpp:78] Creating layer relu6
I1111 15:09:12.805068  5297 net.cpp:67] Creating Layer relu6
I1111 15:09:12.805081  5297 net.cpp:394] relu6 <- fc6
I1111 15:09:12.805088  5297 net.cpp:345] relu6 -> fc6 (in-place)
I1111 15:09:12.805096  5297 net.cpp:96] Setting up relu6
I1111 15:09:12.805109  5297 net.cpp:103] Top shape: 10 4096 1 1 (40960)
I1111 15:09:12.805114  5297 layer_factory.hpp:78] Creating layer drop6
I1111 15:09:12.805122  5297 net.cpp:67] Creating Layer drop6
I1111 15:09:12.805125  5297 net.cpp:394] drop6 <- fc6
I1111 15:09:12.805133  5297 net.cpp:345] drop6 -> fc6 (in-place)
I1111 15:09:12.805138  5297 net.cpp:96] Setting up drop6
I1111 15:09:12.805143  5297 net.cpp:103] Top shape: 10 4096 1 1 (40960)
I1111 15:09:12.805146  5297 layer_factory.hpp:78] Creating layer fc7
I1111 15:09:12.805152  5297 net.cpp:67] Creating Layer fc7
I1111 15:09:12.805155  5297 net.cpp:394] fc7 <- fc6
I1111 15:09:12.805160  5297 net.cpp:356] fc7 -> fc7
I1111 15:09:12.805166  5297 net.cpp:96] Setting up fc7
I1111 15:09:12.818840  5297 net.cpp:103] Top shape: 10 4096 1 1 (40960)
I1111 15:09:12.818879  5297 layer_factory.hpp:78] Creating layer relu7
I1111 15:09:12.818888  5297 net.cpp:67] Creating Layer relu7
I1111 15:09:12.818893  5297 net.cpp:394] relu7 <- fc7
I1111 15:09:12.818900  5297 net.cpp:345] relu7 -> fc7 (in-place)
I1111 15:09:12.818907  5297 net.cpp:96] Setting up relu7
I1111 15:09:12.818920  5297 net.cpp:103] Top shape: 10 4096 1 1 (40960)
I1111 15:09:12.818924  5297 layer_factory.hpp:78] Creating layer drop7
I1111 15:09:12.818931  5297 net.cpp:67] Creating Layer drop7
I1111 15:09:12.818934  5297 net.cpp:394] drop7 <- fc7
I1111 15:09:12.818938  5297 net.cpp:345] drop7 -> fc7 (in-place)
I1111 15:09:12.818943  5297 net.cpp:96] Setting up drop7
I1111 15:09:12.818948  5297 net.cpp:103] Top shape: 10 4096 1 1 (40960)
I1111 15:09:12.818950  5297 layer_factory.hpp:78] Creating layer fc8_2
I1111 15:09:12.818956  5297 net.cpp:67] Creating Layer fc8_2
I1111 15:09:12.818959  5297 net.cpp:394] fc8_2 <- fc7
I1111 15:09:12.818965  5297 net.cpp:356] fc8_2 -> fc8_2
I1111 15:09:12.818971  5297 net.cpp:96] Setting up fc8_2
I1111 15:09:12.818987  5297 net.cpp:103] Top shape: 10 2 1 1 (20)
I1111 15:09:12.818994  5297 layer_factory.hpp:78] Creating layer prob
I1111 15:09:12.819002  5297 net.cpp:67] Creating Layer prob
I1111 15:09:12.819005  5297 net.cpp:394] prob <- fc8_2
I1111 15:09:12.819011  5297 net.cpp:356] prob -> prob
I1111 15:09:12.819016  5297 net.cpp:96] Setting up prob
I1111 15:09:12.819025  5297 net.cpp:103] Top shape: 10 2 1 1 (20)
I1111 15:09:12.819028  5297 net.cpp:172] prob does not need backward computation.
I1111 15:09:12.819031  5297 net.cpp:172] fc8_2 does not need backward computation.
I1111 15:09:12.819033  5297 net.cpp:172] drop7 does not need backward computation.
I1111 15:09:12.819036  5297 net.cpp:172] relu7 does not need backward computation.
I1111 15:09:12.819039  5297 net.cpp:172] fc7 does not need backward computation.
…
I1118 02:24:41.740984  3189 net.cpp:275] The NetState phase (1) differed from the phase (0) specified by a rule in layer data
I1118 02:24:41.741185  3189 net.cpp:39] Initializing net from parameters: 
name: "small"
layers {
  top: "data"
  top: "label"
  name: "data"
  type: IMAGE_DATA
  image_data_param {
    source: "/data/ad6813/devCaffe/caffe/data/unsuit/val.txt"
    batch_size: 8
    new_height: 256
    new_width: 256
  }
  include {
    phase: TEST
  }
  transform_param {
    mirror: true
    crop_size: 224
    mean_value: 86.752
    mean_value: 101.46
    mean_value: 104.6
  }
}
layers {
  bottom: "data"
  top: "conv1_1"
  name: "conv1_1"
  type: CONVOLUTION
  convolution_param {
    num_output: 64
    pad: 1
    kernel_size: 3
    weight_filler {
      type: "gaussian"
      std: 0.01
    }
    bias_filler {
      type: "constant"
      value: 0
    }
  }
}
layers {
  bottom: "conv1_1"
  top: "conv1_1"
  name: "relu1_1"
  type: RELU
}
layers {
  bottom: "conv1_1"
  top: "conv1_2"
  name: "conv1_2"
  type: CONVOLUTION
  convolution_param {
    num_output: 64
    pad: 1
    kernel_size: 3
    weight_filler {
      type: "gaussian"
      std: 0.01
    }
    bias_filler {
      type: "constant"
      value: 0
    }
  }
}
layers {
  bottom: "conv1_2"
  top: "conv1_2"
  name: "relu1_2"
  type: RELU
}
layers {
  bottom: "conv1_2"
  top: "pool1"
  name: "pool1"
  type: POOLING
  pooling_param {
    pool: MAX
    kernel_size: 2
    stride: 2
  }
}
layers {
  bottom: "pool1"
  top: "conv2_1"
  name: "conv2_1"
  type: CONVOLUTION
  convolution_param {
    num_output: 128
    pad: 1
    kernel_size: 3
    weight_filler {
      type: "gaussian"
      std: 0.01
    }
    bias_filler {
      type: "constant"
      value: 0
    }
  }
}
layers {
  bottom: "conv2_1"
  top: "conv2_1"
  name: "relu2_1"
  type: RELU
}
layers {
  bottom: "conv2_1"
  top: "conv2_2"
  name: "conv2_2"
  type: CONVOLUTION
  convolution_param {
    num_output: 128
    pad: 1
    kernel_size: 3
    weight_filler {
      type: "gaussian"
      std: 0.01
    }
    bias_filler {
      type: "constant"
      value: 0
    }
  }
}
layers {
  bottom: "conv2_2"
  top: "conv2_2"
  name: "relu2_2"
  type: RELU
}
layers {
  bottom: "conv2_2"
  top: "pool2"
  name: "pool2"
  type: POOLING
  pooling_param {
    pool: MAX
    kernel_size: 2
    stride: 2
  }
}
layers {
  bottom: "pool2"
  top: "conv3_1"
  name: "conv3_1"
  type: CONVOLUTION
  convolution_param {
    num_output: 256
    pad: 1
    kernel_size: 3
    weight_filler {
      type: "gaussian"
      std: 0.01
    }
    bias_filler {
      type: "constant"
      value: 0
    }
  }
}
layers {
  bottom: "conv3_1"
  top: "conv3_1"
  name: "relu3_1"
  type: RELU
}
layers {
  bottom: "conv3_1"
  top: "conv3_2"
  name: "conv3_2"
  type: CONVOLUTION
  convolution_param {
    num_output: 256
    pad: 1
    kernel_size: 3
    weight_filler {
      type: "gaussian"
      std: 0.01
    }
    bias_filler {
      type: "constant"
      value: 0
    }
  }
}
layers {
  bottom: "conv3_2"
  top: "conv3_2"
  name: "relu3_2"
  type: RELU
}
layers {
  bottom: "conv3_2"
  top: "conv3_3"
  name: "conv3_3"
  type: CONVOLUTION
  convolution_param {
    num_output: 256
    pad: 1
    kernel_size: 3
    weight_filler {
      type: "gaussian"
      std: 0.01
    }
    bias_filler {
      type: "constant"
      value: 0
    }
  }
}
layers {
  bottom: "conv3_3"
  top: "conv3_3"
  name: "relu3_3"
  type: RELU
}
layers {
  bottom: "conv3_3"
  top: "pool3"
  name: "pool3"
  type: POOLING
  pooling_param {
    pool: MAX
    kernel_size: 2
    stride: 2
  }
}
layers {
  bottom: "pool3"
  top: "conv4_1"
  name: "conv4_1"
  type: CONVOLUTION
  convolution_param {
    num_output: 512
    pad: 1
    kernel_size: 3
    weight_filler {
      type: "gaussian"
      std: 0.01
    }
    bias_filler {
      type: "constant"
      value: 0
    }
  }
}
layers {
  bottom: "conv4_1"
  top: "conv4_1"
  name: "relu4_1"
  type: RELU
}
layers {
  bottom: "conv4_1"
  top: "conv4_2"
  name: "conv4_2"
  type: CONVOLUTION
  convolution_param {
    num_output: 512
    pad: 1
    kernel_size: 3
    weight_filler {
      type: "gaussian"
      std: 0.01
    }
    bias_filler {
      type: "constant"
      value: 0
    }
  }
}
layers {
  bottom: "conv4_2"
  top: "conv4_2"
  name: "relu4_2"
  type: RELU
}
layers {
  bottom: "conv4_2"
  top: "conv4_3"
  name: "conv4_3"
  type: CONVOLUTION
  convolution_param {
    num_output: 512
    pad: 1
    kernel_size: 3
    weight_filler {
      type: "gaussian"
      std: 0.01
    }
    bias_filler {
      type: "constant"
      value: 0
    }
  }
}
layers {
  bottom: "conv4_3"
  top: "conv4_3"
  name: "relu4_3"
  type: RELU
}
layers {
  bottom: "conv4_3"
  top: "pool4"
  name: "pool4"
  type: POOLING
  pooling_param {
    pool: MAX
    kernel_size: 2
    stride: 2
  }
}
layers {
  bottom: "pool4"
  top: "conv5_1"
  name: "conv5_1"
  type: CONVOLUTION
  convolution_param {
    num_output: 512
    pad: 1
    kernel_size: 3
    weight_filler {
      type: "gaussian"
      std: 0.01
    }
    bias_filler {
      type: "constant"
      value: 0
    }
  }
}
layers {
  bottom: "conv5_1"
  top: "conv5_1"
  name: "relu5_1"
  type: RELU
}
layers {
  bottom: "conv5_1"
  top: "conv5_2"
  name: "conv5_2"
  type: CONVOLUTION
  convolution_param {
    num_output: 512
    pad: 1
    kernel_size: 3
    weight_filler {
      type: "gaussian"
      std: 0.01
    }
    bias_filler {
      type: "constant"
      value: 0
    }
  }
}
layers {
  bottom: "conv5_2"
  top: "conv5_2"
  name: "relu5_2"
  type: RELU
}
layers {
  bottom: "conv5_2"
  top: "conv5_3"
  name: "conv5_3"
  type: CONVOLUTION
  convolution_param {
    num_output: 512
    pad: 1
    kernel_size: 3
    weight_filler {
      type: "gaussian"
      std: 0.01
    }
    bias_filler {
      type: "constant"
      value: 0
    }
  }
}
layers {
  bottom: "conv5_3"
  top: "conv5_3"
  name: "relu5_3"
  type: RELU
}
layers {
  bottom: "conv5_3"
  top: "pool5"
  name: "pool5"
  type: POOLING
  pooling_param {
    pool: MAX
    kernel_size: 2
    stride: 2
  }
}
layers {
  bottom: "pool5"
  top: "fc6"
  name: "fc6"
  type: INNER_PRODUCT
  inner_product_param {
    num_output: 4096
    weight_filler {
      type: "gaussian"
      std: 0.01
    }
    bias_filler {
      type: "constant"
      value: 0
    }
  }
}
layers {
  bottom: "fc6"
  top: "fc6"
  name: "relu6"
  type: RELU
}
layers {
  bottom: "fc6"
  top: "fc6"
  name: "drop6"
  type: DROPOUT
  dropout_param {
    dropout_ratio: 0.5
  }
}
layers {
  bottom: "fc6"
  top: "fc7"
  name: "fc7"
  type: INNER_PRODUCT
  inner_product_param {
    num_output: 4096
    weight_filler {
      type: "gaussian"
      std: 0.01
    }
    bias_filler {
      type: "constant"
      value: 0
    }
  }
}
layers {
  bottom: "fc7"
  top: "fc7"
  name: "relu7"
  type: RELU
}
layers {
  bottom: "fc7"
  top: "fc7"
  name: "drop7"
  type: DROPOUT
  dropout_param {
    dropout_ratio: 0.5
  }
}
layers {
  bottom: "fc7"
  top: "fc8_2"
  name: "fc8_2"
  type: INNER_PRODUCT
  inner_product_param {
    num_output: 2
    weight_filler {
      type: "gaussian"
      std: 0.01
    }
    bias_filler {
      type: "constant"
      value: 0
    }
  }
}
layers {
  bottom: "fc8_2"
  bottom: "label"
  name: "loss"
  type: SOFTMAX_LOSS
}
layers {
  bottom: "fc8_2"
  bottom: "label"
  top: "accuracy"
  name: "accuracy"
  type: PER_CLASS_ACCURACY
  include {
    phase: TEST
  }
}
state {
  phase: TEST
}
I1118 02:24:41.741328  3189 layer_factory.hpp:78] Creating layer data
I1118 02:24:41.741339  3189 net.cpp:67] Creating Layer data
I1118 02:24:41.741344  3189 net.cpp:356] data -> data
I1118 02:24:41.741351  3189 net.cpp:356] data -> label
I1118 02:24:41.741358  3189 net.cpp:96] Setting up data
I1118 02:24:41.741361  3189 image_data_layer.cpp:34] Opening file /data/ad6813/devCaffe/caffe/data/unsuit/val.txt
I1118 02:24:41.743266  3189 image_data_layer.cpp:49] A total of 5768 images.
I1118 02:24:41.749044  3189 image_data_layer.cpp:78] output data size: 8,3,224,224
I1118 02:24:41.749809  3189 net.cpp:103] Top shape: 8 3 224 224 (1204224)
I1118 02:24:41.749827  3189 net.cpp:103] Top shape: 8 1 1 1 (8)
I1118 02:24:41.749832  3189 layer_factory.hpp:78] Creating layer label_data_1_split
I1118 02:24:41.749842  3189 net.cpp:67] Creating Layer label_data_1_split
I1118 02:24:41.749847  3189 net.cpp:394] label_data_1_split <- label
I1118 02:24:41.749853  3189 net.cpp:356] label_data_1_split -> label_data_1_split_0
I1118 02:24:41.749862  3189 net.cpp:356] label_data_1_split -> label_data_1_split_1
I1118 02:24:41.749868  3189 net.cpp:96] Setting up label_data_1_split
I1118 02:24:41.749873  3189 net.cpp:103] Top shape: 8 1 1 1 (8)
I1118 02:24:41.749876  3189 net.cpp:103] Top shape: 8 1 1 1 (8)
I1118 02:24:41.749886  3189 layer_factory.hpp:78] Creating layer conv1_1
I1118 02:24:41.749892  3189 net.cpp:67] Creating Layer conv1_1
I1118 02:24:41.749897  3189 net.cpp:394] conv1_1 <- data
I1118 02:24:41.749903  3189 net.cpp:356] conv1_1 -> conv1_1
I1118 02:24:41.749909  3189 net.cpp:96] Setting up conv1_1
I1118 02:24:41.750092  3189 net.cpp:103] Top shape: 8 64 224 224 (25690112)
I1118 02:24:41.750104  3189 layer_factory.hpp:78] Creating layer relu1_1
I1118 02:24:41.750110  3189 net.cpp:67] Creating Layer relu1_1
I1118 02:24:41.750114  3189 net.cpp:394] relu1_1 <- conv1_1
I1118 02:24:41.750119  3189 net.cpp:345] relu1_1 -> conv1_1 (in-place)
I1118 02:24:41.750124  3189 net.cpp:96] Setting up relu1_1
I1118 02:24:41.750131  3189 net.cpp:103] Top shape: 8 64 224 224 (25690112)
I1118 02:24:41.750134  3189 layer_factory.hpp:78] Creating layer conv1_2
I1118 02:24:41.750147  3189 net.cpp:67] Creating Layer conv1_2
I1118 02:24:41.750151  3189 net.cpp:394] conv1_2 <- conv1_1
I1118 02:24:41.750157  3189 net.cpp:356] conv1_2 -> conv1_2
I1118 02:24:41.750164  3189 net.cpp:96] Setting up conv1_2
I1118 02:24:41.751165  3189 net.cpp:103] Top shape: 8 64 224 224 (25690112)
I1118 02:24:41.751176  3189 layer_factory.hpp:78] Creating layer relu1_2
I1118 02:24:41.751183  3189 net.cpp:67] Creating Layer relu1_2
I1118 02:24:41.751186  3189 net.cpp:394] relu1_2 <- conv1_2
I1118 02:24:41.751191  3189 net.cpp:345] relu1_2 -> conv1_2 (in-place)
I1118 02:24:41.751196  3189 net.cpp:96] Setting up relu1_2
I1118 02:24:41.751202  3189 net.cpp:103] Top shape: 8 64 224 224 (25690112)
I1118 02:24:41.751206  3189 layer_factory.hpp:78] Creating layer pool1
I1118 02:24:41.751212  3189 net.cpp:67] Creating Layer pool1
I1118 02:24:41.751215  3189 net.cpp:394] pool1 <- conv1_2
I1118 02:24:41.751220  3189 net.cpp:356] pool1 -> pool1
I1118 02:24:41.751226  3189 net.cpp:96] Setting up pool1
I1118 02:24:41.751234  3189 net.cpp:103] Top shape: 8 64 112 112 (6422528)
I1118 02:24:41.751237  3189 layer_factory.hpp:78] Creating layer conv2_1
I1118 02:24:41.751242  3189 net.cpp:67] Creating Layer conv2_1
I1118 02:24:41.751246  3189 net.cpp:394] conv2_1 <- pool1
I1118 02:24:41.751251  3189 net.cpp:356] conv2_1 -> conv2_1
I1118 02:24:41.751257  3189 net.cpp:96] Setting up conv2_1
I1118 02:24:41.753306  3189 net.cpp:103] Top shape: 8 128 112 112 (12845056)
I1118 02:24:41.753324  3189 layer_factory.hpp:78] Creating layer relu2_1
I1118 02:24:41.753330  3189 net.cpp:67] Creating Layer relu2_1
I1118 02:24:41.753334  3189 net.cpp:394] relu2_1 <- conv2_1
I1118 02:24:41.753340  3189 net.cpp:345] relu2_1 -> conv2_1 (in-place)
I1118 02:24:41.753345  3189 net.cpp:96] Setting up relu2_1
I1118 02:24:41.753351  3189 net.cpp:103] Top shape: 8 128 112 112 (12845056)
I1118 02:24:41.753355  3189 layer_factory.hpp:78] Creating layer conv2_2
I1118 02:24:41.753361  3189 net.cpp:67] Creating Layer conv2_2
I1118 02:24:41.753365  3189 net.cpp:394] conv2_2 <- conv2_1
I1118 02:24:41.753370  3189 net.cpp:356] conv2_2 -> conv2_2
I1118 02:24:41.753376  3189 net.cpp:96] Setting up conv2_2
I1118 02:24:41.757107  3189 net.cpp:103] Top shape: 8 128 112 112 (12845056)
I1118 02:24:41.757119  3189 layer_factory.hpp:78] Creating layer relu2_2
I1118 02:24:41.757125  3189 net.cpp:67] Creating Layer relu2_2
I1118 02:24:41.757129  3189 net.cpp:394] relu2_2 <- conv2_2
I1118 02:24:41.757135  3189 net.cpp:345] relu2_2 -> conv2_2 (in-place)
I1118 02:24:41.757141  3189 net.cpp:96] Setting up relu2_2
I1118 02:24:41.757148  3189 net.cpp:103] Top shape: 8 128 112 112 (12845056)
I1118 02:24:41.757150  3189 layer_factory.hpp:78] Creating layer pool2
I1118 02:24:41.757156  3189 net.cpp:67] Creating Layer pool2
I1118 02:24:41.757159  3189 net.cpp:394] pool2 <- conv2_2
I1118 02:24:41.757164  3189 net.cpp:356] pool2 -> pool2
I1118 02:24:41.757169  3189 net.cpp:96] Setting up pool2
I1118 02:24:41.757176  3189 net.cpp:103] Top shape: 8 128 56 56 (3211264)
I1118 02:24:41.757180  3189 layer_factory.hpp:78] Creating layer conv3_1
I1118 02:24:41.757186  3189 net.cpp:67] Creating Layer conv3_1
I1118 02:24:41.757195  3189 net.cpp:394] conv3_1 <- pool2
I1118 02:24:41.757203  3189 net.cpp:356] conv3_1 -> conv3_1
I1118 02:24:41.757210  3189 net.cpp:96] Setting up conv3_1
I1118 02:24:41.764600  3189 net.cpp:103] Top shape: 8 256 56 56 (6422528)
I1118 02:24:41.764619  3189 layer_factory.hpp:78] Creating layer relu3_1
I1118 02:24:41.764626  3189 net.cpp:67] Creating Layer relu3_1
I1118 02:24:41.764631  3189 net.cpp:394] relu3_1 <- conv3_1
I1118 02:24:41.764636  3189 net.cpp:345] relu3_1 -> conv3_1 (in-place)
I1118 02:24:41.764642  3189 net.cpp:96] Setting up relu3_1
I1118 02:24:41.764647  3189 net.cpp:103] Top shape: 8 256 56 56 (6422528)
I1118 02:24:41.764652  3189 layer_factory.hpp:78] Creating layer conv3_2
I1118 02:24:41.764658  3189 net.cpp:67] Creating Layer conv3_2
I1118 02:24:41.764662  3189 net.cpp:394] conv3_2 <- conv3_1
I1118 02:24:41.764667  3189 net.cpp:356] conv3_2 -> conv3_2
I1118 02:24:41.764678  3189 net.cpp:96] Setting up conv3_2
I1118 02:24:41.779387  3189 net.cpp:103] Top shape: 8 256 56 56 (6422528)
I1118 02:24:41.779412  3189 layer_factory.hpp:78] Creating layer relu3_2
I1118 02:24:41.779422  3189 net.cpp:67] Creating Layer relu3_2
I1118 02:24:41.779425  3189 net.cpp:394] relu3_2 <- conv3_2
I1118 02:24:41.779431  3189 net.cpp:345] relu3_2 -> conv3_2 (in-place)
I1118 02:24:41.779438  3189 net.cpp:96] Setting up relu3_2
I1118 02:24:41.779444  3189 net.cpp:103] Top shape: 8 256 56 56 (6422528)
I1118 02:24:41.779448  3189 layer_factory.hpp:78] Creating layer conv3_3
I1118 02:24:41.779455  3189 net.cpp:67] Creating Layer conv3_3
I1118 02:24:41.779469  3189 net.cpp:394] conv3_3 <- conv3_2
I1118 02:24:41.779480  3189 net.cpp:356] conv3_3 -> conv3_3
I1118 02:24:41.779489  3189 net.cpp:96] Setting up conv3_3
I1118 02:24:41.794185  3189 net.cpp:103] Top shape: 8 256 56 56 (6422528)
I1118 02:24:41.794203  3189 layer_factory.hpp:78] Creating layer relu3_3
I1118 02:24:41.794211  3189 net.cpp:67] Creating Layer relu3_3
I1118 02:24:41.794216  3189 net.cpp:394] relu3_3 <- conv3_3
I1118 02:24:41.794222  3189 net.cpp:345] relu3_3 -> conv3_3 (in-place)
I1118 02:24:41.794229  3189 net.cpp:96] Setting up relu3_3
I1118 02:24:41.794234  3189 net.cpp:103] Top shape: 8 256 56 56 (6422528)
I1118 02:24:41.794237  3189 layer_factory.hpp:78] Creating layer pool3
I1118 02:24:41.794244  3189 net.cpp:67] Creating Layer pool3
I1118 02:24:41.794247  3189 net.cpp:394] pool3 <- conv3_3
I1118 02:24:41.794253  3189 net.cpp:356] pool3 -> pool3
I1118 02:24:41.794260  3189 net.cpp:96] Setting up pool3
I1118 02:24:41.794267  3189 net.cpp:103] Top shape: 8 256 28 28 (1605632)
I1118 02:24:41.794271  3189 layer_factory.hpp:78] Creating layer conv4_1
I1118 02:24:41.794276  3189 net.cpp:67] Creating Layer conv4_1
I1118 02:24:41.794281  3189 net.cpp:394] conv4_1 <- pool3
I1118 02:24:41.794287  3189 net.cpp:356] conv4_1 -> conv4_1
I1118 02:24:41.794293  3189 net.cpp:96] Setting up conv4_1
I1118 02:24:41.822453  3189 net.cpp:103] Top shape: 8 512 28 28 (3211264)
I1118 02:24:41.822482  3189 layer_factory.hpp:78] Creating layer relu4_1
I1118 02:24:41.822492  3189 net.cpp:67] Creating Layer relu4_1
I1118 02:24:41.822497  3189 net.cpp:394] relu4_1 <- conv4_1
I1118 02:24:41.822504  3189 net.cpp:345] relu4_1 -> conv4_1 (in-place)
I1118 02:24:41.822510  3189 net.cpp:96] Setting up relu4_1
I1118 02:24:41.822516  3189 net.cpp:103] Top shape: 8 512 28 28 (3211264)
I1118 02:24:41.822520  3189 layer_factory.hpp:78] Creating layer conv4_2
I1118 02:24:41.822527  3189 net.cpp:67] Creating Layer conv4_2
I1118 02:24:41.822531  3189 net.cpp:394] conv4_2 <- conv4_1
I1118 02:24:41.822536  3189 net.cpp:356] conv4_2 -> conv4_2
I1118 02:24:41.822543  3189 net.cpp:96] Setting up conv4_2
I1118 02:24:41.877434  3189 net.cpp:103] Top shape: 8 512 28 28 (3211264)
I1118 02:24:41.877472  3189 layer_factory.hpp:78] Creating layer relu4_2
I1118 02:24:41.877480  3189 net.cpp:67] Creating Layer relu4_2
I1118 02:24:41.877485  3189 net.cpp:394] relu4_2 <- conv4_2
I1118 02:24:41.877492  3189 net.cpp:345] relu4_2 -> conv4_2 (in-place)
I1118 02:24:41.877498  3189 net.cpp:96] Setting up relu4_2
I1118 02:24:41.877513  3189 net.cpp:103] Top shape: 8 512 28 28 (3211264)
I1118 02:24:41.877517  3189 layer_factory.hpp:78] Creating layer conv4_3
I1118 02:24:41.877523  3189 net.cpp:67] Creating Layer conv4_3
I1118 02:24:41.877527  3189 net.cpp:394] conv4_3 <- conv4_2
I1118 02:24:41.877533  3189 net.cpp:356] conv4_3 -> conv4_3
I1118 02:24:41.877545  3189 net.cpp:96] Setting up conv4_3
I1118 02:24:41.932343  3189 net.cpp:103] Top shape: 8 512 28 28 (3211264)
I1118 02:24:41.932373  3189 layer_factory.hpp:78] Creating layer relu4_3
I1118 02:24:41.932380  3189 net.cpp:67] Creating Layer relu4_3
I1118 02:24:41.932384  3189 net.cpp:394] relu4_3 <- conv4_3
I1118 02:24:41.932391  3189 net.cpp:345] relu4_3 -> conv4_3 (in-place)
I1118 02:24:41.932397  3189 net.cpp:96] Setting up relu4_3
I1118 02:24:41.932404  3189 net.cpp:103] Top shape: 8 512 28 28 (3211264)
I1118 02:24:41.932407  3189 layer_factory.hpp:78] Creating layer pool4
I1118 02:24:41.932421  3189 net.cpp:67] Creating Layer pool4
I1118 02:24:41.932425  3189 net.cpp:394] pool4 <- conv4_3
I1118 02:24:41.932430  3189 net.cpp:356] pool4 -> pool4
I1118 02:24:41.932436  3189 net.cpp:96] Setting up pool4
I1118 02:24:41.932445  3189 net.cpp:103] Top shape: 8 512 14 14 (802816)
I1118 02:24:41.932447  3189 layer_factory.hpp:78] Creating layer conv5_1
I1118 02:24:41.932456  3189 net.cpp:67] Creating Layer conv5_1
I1118 02:24:41.932459  3189 net.cpp:394] conv5_1 <- pool4
I1118 02:24:41.932464  3189 net.cpp:356] conv5_1 -> conv5_1
I1118 02:24:41.932469  3189 net.cpp:96] Setting up conv5_1
I1118 02:24:41.987486  3189 net.cpp:103] Top shape: 8 512 14 14 (802816)
I1118 02:24:41.987517  3189 layer_factory.hpp:78] Creating layer relu5_1
I1118 02:24:41.987527  3189 net.cpp:67] Creating Layer relu5_1
I1118 02:24:41.987532  3189 net.cpp:394] relu5_1 <- conv5_1
I1118 02:24:41.987537  3189 net.cpp:345] relu5_1 -> conv5_1 (in-place)
I1118 02:24:41.987545  3189 net.cpp:96] Setting up relu5_1
I1118 02:24:41.987550  3189 net.cpp:103] Top shape: 8 512 14 14 (802816)
I1118 02:24:41.987553  3189 layer_factory.hpp:78] Creating layer conv5_2
I1118 02:24:41.987560  3189 net.cpp:67] Creating Layer conv5_2
I1118 02:24:41.987563  3189 net.cpp:394] conv5_2 <- conv5_1
I1118 02:24:41.987570  3189 net.cpp:356] conv5_2 -> conv5_2
I1118 02:24:41.987576  3189 net.cpp:96] Setting up conv5_2
I1118 02:24:42.042572  3189 net.cpp:103] Top shape: 8 512 14 14 (802816)
I1118 02:24:42.042604  3189 layer_factory.hpp:78] Creating layer relu5_2
I1118 02:24:42.042613  3189 net.cpp:67] Creating Layer relu5_2
I1118 02:24:42.042618  3189 net.cpp:394] relu5_2 <- conv5_2
I1118 02:24:42.042624  3189 net.cpp:345] relu5_2 -> conv5_2 (in-place)
I1118 02:24:42.042631  3189 net.cpp:96] Setting up relu5_2
I1118 02:24:42.042637  3189 net.cpp:103] Top shape: 8 512 14 14 (802816)
I1118 02:24:42.042641  3189 layer_factory.hpp:78] Creating layer conv5_3
I1118 02:24:42.042649  3189 net.cpp:67] Creating Layer conv5_3
I1118 02:24:42.042651  3189 net.cpp:394] conv5_3 <- conv5_2
I1118 02:24:42.042657  3189 net.cpp:356] conv5_3 -> conv5_3
I1118 02:24:42.042664  3189 net.cpp:96] Setting up conv5_3
I1118 02:24:42.097743  3189 net.cpp:103] Top shape: 8 512 14 14 (802816)
I1118 02:24:42.097777  3189 layer_factory.hpp:78] Creating layer relu5_3
I1118 02:24:42.097785  3189 net.cpp:67] Creating Layer relu5_3
I1118 02:24:42.097790  3189 net.cpp:394] relu5_3 <- conv5_3
I1118 02:24:42.097797  3189 net.cpp:345] relu5_3 -> conv5_3 (in-place)
I1118 02:24:42.097805  3189 net.cpp:96] Setting up relu5_3
I1118 02:24:42.097810  3189 net.cpp:103] Top shape: 8 512 14 14 (802816)
I1118 02:24:42.097813  3189 layer_factory.hpp:78] Creating layer pool5
I1118 02:24:42.097823  3189 net.cpp:67] Creating Layer pool5
I1118 02:24:42.097828  3189 net.cpp:394] pool5 <- conv5_3
I1118 02:24:42.097833  3189 net.cpp:356] pool5 -> pool5
I1118 02:24:42.097839  3189 net.cpp:96] Setting up pool5
I1118 02:24:42.097847  3189 net.cpp:103] Top shape: 8 512 7 7 (200704)
I1118 02:24:42.097851  3189 layer_factory.hpp:78] Creating layer fc6
I1118 02:24:42.097856  3189 net.cpp:67] Creating Layer fc6
I1118 02:24:42.097867  3189 net.cpp:394] fc6 <- pool5
I1118 02:24:42.097874  3189 net.cpp:356] fc6 -> fc6
I1118 02:24:42.097880  3189 net.cpp:96] Setting up fc6
I1118 02:24:44.474935  3189 net.cpp:103] Top shape: 8 4096 1 1 (32768)
I1118 02:24:44.474974  3189 layer_factory.hpp:78] Creating layer relu6
I1118 02:24:44.474982  3189 net.cpp:67] Creating Layer relu6
I1118 02:24:44.474987  3189 net.cpp:394] relu6 <- fc6
I1118 02:24:44.474995  3189 net.cpp:345] relu6 -> fc6 (in-place)
I1118 02:24:44.475003  3189 net.cpp:96] Setting up relu6
I1118 02:24:44.475015  3189 net.cpp:103] Top shape: 8 4096 1 1 (32768)
I1118 02:24:44.475019  3189 layer_factory.hpp:78] Creating layer drop6
I1118 02:24:44.475025  3189 net.cpp:67] Creating Layer drop6
I1118 02:24:44.475028  3189 net.cpp:394] drop6 <- fc6
I1118 02:24:44.475033  3189 net.cpp:345] drop6 -> fc6 (in-place)
I1118 02:24:44.475038  3189 net.cpp:96] Setting up drop6
I1118 02:24:44.475050  3189 net.cpp:103] Top shape: 8 4096 1 1 (32768)
I1118 02:24:44.475054  3189 layer_factory.hpp:78] Creating layer fc7
I1118 02:24:44.475061  3189 net.cpp:67] Creating Layer fc7
I1118 02:24:44.475064  3189 net.cpp:394] fc7 <- fc6
I1118 02:24:44.475070  3189 net.cpp:356] fc7 -> fc7
I1118 02:24:44.475076  3189 net.cpp:96] Setting up fc7
Running command: nohup ./build/tools/caffe train -solver task/water_high_o/solver.prototxt -weights oxford/small.weights 2>&1 | tee task/water_high_o/logs/water_high_o-small-ur:0.90-or:0.90-us:0.89-os:0.89-vb:3289-tb:0-tr:576-vr:0
…
I1125 20:54:11.906069  4392 net.cpp:275] The NetState phase (1) differed from the phase (0) specified by a rule in layer data
I1125 20:54:11.906272  4392 net.cpp:39] Initializing net from parameters: 
name: "small"
layers {
  top: "data"
  top: "label"
  name: "data"
  type: IMAGE_DATA
  image_data_param {
    source: "/data/ad6813/devCaffe/caffe/data/water_high_o/val.txt"
    batch_size: 8
    new_height: 256
    new_width: 256
  }
  include {
    phase: TEST
  }
  transform_param {
    mirror: true
    crop_size: 224
    mean_value: 86.752
    mean_value: 101.46
    mean_value: 104.6
  }
}
layers {
  bottom: "data"
  top: "conv1_1"
  name: "conv1_1"
  type: CONVOLUTION
  convolution_param {
    num_output: 64
    pad: 1
    kernel_size: 3
    weight_filler {
      type: "gaussian"
      std: 0.01
    }
    bias_filler {
      type: "constant"
      value: 0
    }
  }
}
layers {
  bottom: "conv1_1"
  top: "conv1_1"
  name: "relu1_1"
  type: RELU
}
layers {
  bottom: "conv1_1"
  top: "conv1_2"
  name: "conv1_2"
  type: CONVOLUTION
  convolution_param {
    num_output: 64
    pad: 1
    kernel_size: 3
    weight_filler {
      type: "gaussian"
      std: 0.01
    }
    bias_filler {
      type: "constant"
      value: 0
    }
  }
}
layers {
  bottom: "conv1_2"
  top: "conv1_2"
  name: "relu1_2"
  type: RELU
}
layers {
  bottom: "conv1_2"
  top: "pool1"
  name: "pool1"
  type: POOLING
  pooling_param {
    pool: MAX
    kernel_size: 2
    stride: 2
  }
}
layers {
  bottom: "pool1"
  top: "conv2_1"
  name: "conv2_1"
  type: CONVOLUTION
  convolution_param {
    num_output: 128
    pad: 1
    kernel_size: 3
    weight_filler {
      type: "gaussian"
      std: 0.01
    }
    bias_filler {
      type: "constant"
      value: 0
    }
  }
}
layers {
  bottom: "conv2_1"
  top: "conv2_1"
  name: "relu2_1"
  type: RELU
}
layers {
  bottom: "conv2_1"
  top: "conv2_2"
  name: "conv2_2"
  type: CONVOLUTION
  convolution_param {
    num_output: 128
    pad: 1
    kernel_size: 3
    weight_filler {
      type: "gaussian"
      std: 0.01
    }
    bias_filler {
      type: "constant"
      value: 0
    }
  }
}
layers {
  bottom: "conv2_2"
  top: "conv2_2"
  name: "relu2_2"
  type: RELU
}
layers {
  bottom: "conv2_2"
  top: "pool2"
  name: "pool2"
  type: POOLING
  pooling_param {
    pool: MAX
    kernel_size: 2
    stride: 2
  }
}
layers {
  bottom: "pool2"
  top: "conv3_1"
  name: "conv3_1"
  type: CONVOLUTION
  convolution_param {
    num_output: 256
    pad: 1
    kernel_size: 3
    weight_filler {
      type: "gaussian"
      std: 0.01
    }
    bias_filler {
      type: "constant"
      value: 0
    }
  }
}
layers {
  bottom: "conv3_1"
  top: "conv3_1"
  name: "relu3_1"
  type: RELU
}
layers {
  bottom: "conv3_1"
  top: "conv3_2"
  name: "conv3_2"
  type: CONVOLUTION
  convolution_param {
    num_output: 256
    pad: 1
    kernel_size: 3
    weight_filler {
      type: "gaussian"
      std: 0.01
    }
    bias_filler {
      type: "constant"
      value: 0
    }
  }
}
layers {
  bottom: "conv3_2"
  top: "conv3_2"
  name: "relu3_2"
  type: RELU
}
layers {
  bottom: "conv3_2"
  top: "conv3_3"
  name: "conv3_3"
  type: CONVOLUTION
  convolution_param {
    num_output: 256
    pad: 1
    kernel_size: 3
    weight_filler {
      type: "gaussian"
      std: 0.01
    }
    bias_filler {
      type: "constant"
      value: 0
    }
  }
}
layers {
  bottom: "conv3_3"
  top: "conv3_3"
  name: "relu3_3"
  type: RELU
}
layers {
  bottom: "conv3_3"
  top: "pool3"
  name: "pool3"
  type: POOLING
  pooling_param {
    pool: MAX
    kernel_size: 2
    stride: 2
  }
}
layers {
  bottom: "pool3"
  top: "conv4_1"
  name: "conv4_1"
  type: CONVOLUTION
  convolution_param {
    num_output: 512
    pad: 1
    kernel_size: 3
    weight_filler {
      type: "gaussian"
      std: 0.01
    }
    bias_filler {
      type: "constant"
      value: 0
    }
  }
}
layers {
  bottom: "conv4_1"
  top: "conv4_1"
  name: "relu4_1"
  type: RELU
}
layers {
  bottom: "conv4_1"
  top: "conv4_2"
  name: "conv4_2"
  type: CONVOLUTION
  convolution_param {
    num_output: 512
    pad: 1
    kernel_size: 3
    weight_filler {
      type: "gaussian"
      std: 0.01
    }
    bias_filler {
      type: "constant"
      value: 0
    }
  }
}
layers {
  bottom: "conv4_2"
  top: "conv4_2"
  name: "relu4_2"
  type: RELU
}
layers {
  bottom: "conv4_2"
  top: "conv4_3"
  name: "conv4_3"
  type: CONVOLUTION
  convolution_param {
    num_output: 512
    pad: 1
    kernel_size: 3
    weight_filler {
      type: "gaussian"
      std: 0.01
    }
    bias_filler {
      type: "constant"
      value: 0
    }
  }
}
layers {
  bottom: "conv4_3"
  top: "conv4_3"
  name: "relu4_3"
  type: RELU
}
layers {
  bottom: "conv4_3"
  top: "pool4"
  name: "pool4"
  type: POOLING
  pooling_param {
    pool: MAX
    kernel_size: 2
    stride: 2
  }
}
layers {
  bottom: "pool4"
  top: "conv5_1"
  name: "conv5_1"
  type: CONVOLUTION
  convolution_param {
    num_output: 512
    pad: 1
    kernel_size: 3
    weight_filler {
      type: "gaussian"
      std: 0.01
    }
    bias_filler {
      type: "constant"
      value: 0
    }
  }
}
layers {
  bottom: "conv5_1"
  top: "conv5_1"
  name: "relu5_1"
  type: RELU
}
layers {
  bottom: "conv5_1"
  top: "conv5_2"
  name: "conv5_2"
  type: CONVOLUTION
  convolution_param {
    num_output: 512
    pad: 1
    kernel_size: 3
    weight_filler {
      type: "gaussian"
      std: 0.01
    }
    bias_filler {
      type: "constant"
      value: 0
    }
  }
}
layers {
  bottom: "conv5_2"
  top: "conv5_2"
  name: "relu5_2"
  type: RELU
}
layers {
  bottom: "conv5_2"
  top: "conv5_3"
  name: "conv5_3"
  type: CONVOLUTION
  convolution_param {
    num_output: 512
    pad: 1
    kernel_size: 3
    weight_filler {
      type: "gaussian"
      std: 0.01
    }
    bias_filler {
      type: "constant"
      value: 0
    }
  }
}
layers {
  bottom: "conv5_3"
  top: "conv5_3"
  name: "relu5_3"
  type: RELU
}
layers {
  bottom: "conv5_3"
  top: "pool5"
  name: "pool5"
  type: POOLING
  pooling_param {
    pool: MAX
    kernel_size: 2
    stride: 2
  }
}
layers {
  bottom: "pool5"
  top: "fc6"
  name: "fc6"
  type: INNER_PRODUCT
  inner_product_param {
    num_output: 4096
    weight_filler {
      type: "gaussian"
      std: 0.01
    }
    bias_filler {
      type: "constant"
      value: 0
    }
  }
}
layers {
  bottom: "fc6"
  top: "fc6"
  name: "relu6"
  type: RELU
}
layers {
  bottom: "fc6"
  top: "fc6"
  name: "drop6"
  type: DROPOUT
  dropout_param {
    dropout_ratio: 0.5
  }
}
layers {
  bottom: "fc6"
  top: "fc7"
  name: "fc7"
  type: INNER_PRODUCT
  inner_product_param {
    num_output: 4096
    weight_filler {
      type: "gaussian"
      std: 0.01
    }
    bias_filler {
      type: "constant"
      value: 0
    }
  }
}
layers {
  bottom: "fc7"
  top: "fc7"
  name: "relu7"
  type: RELU
}
layers {
  bottom: "fc7"
  top: "fc7"
  name: "drop7"
  type: DROPOUT
  dropout_param {
    dropout_ratio: 0.5
  }
}
layers {
  bottom: "fc7"
  top: "fc8_2"
  name: "fc8_2"
  type: INNER_PRODUCT
  inner_product_param {
    num_output: 2
    weight_filler {
      type: "gaussian"
      std: 0.01
    }
    bias_filler {
      type: "constant"
      value: 0
    }
  }
}
layers {
  bottom: "fc8_2"
  bottom: "label"
  name: "loss"
  type: SOFTMAX_LOSS
}
layers {
  bottom: "fc8_2"
  bottom: "label"
  top: "accuracy"
  name: "accuracy"
  type: PER_CLASS_ACCURACY
  include {
    phase: TEST
  }
}
state {
  phase: TEST
}
I1125 20:54:11.906407  4392 layer_factory.hpp:78] Creating layer data
I1125 20:54:11.906419  4392 net.cpp:67] Creating Layer data
I1125 20:54:11.906424  4392 net.cpp:356] data -> data
I1125 20:54:11.906433  4392 net.cpp:356] data -> label
I1125 20:54:11.906440  4392 net.cpp:96] Setting up data
I1125 20:54:11.906445  4392 image_data_layer.cpp:34] Opening file /data/ad6813/devCaffe/caffe/data/water_high_o/val.txt
I1125 20:54:11.906695  4392 image_data_layer.cpp:49] A total of 576 images.
I1125 20:54:11.913684  4392 image_data_layer.cpp:78] output data size: 8,3,224,224
I1125 20:54:11.914342  4392 net.cpp:103] Top shape: 8 3 224 224 (1204224)
I1125 20:54:11.914351  4392 net.cpp:103] Top shape: 8 1 1 1 (8)
I1125 20:54:11.914355  4392 layer_factory.hpp:78] Creating layer label_data_1_split
I1125 20:54:11.914366  4392 net.cpp:67] Creating Layer label_data_1_split
I1125 20:54:11.914369  4392 net.cpp:394] label_data_1_split <- label
I1125 20:54:11.914376  4392 net.cpp:356] label_data_1_split -> label_data_1_split_0
I1125 20:54:11.914384  4392 net.cpp:356] label_data_1_split -> label_data_1_split_1
I1125 20:54:11.914392  4392 net.cpp:96] Setting up label_data_1_split
I1125 20:54:11.914399  4392 net.cpp:103] Top shape: 8 1 1 1 (8)
I1125 20:54:11.914403  4392 net.cpp:103] Top shape: 8 1 1 1 (8)
I1125 20:54:11.914407  4392 layer_factory.hpp:78] Creating layer conv1_1
I1125 20:54:11.914414  4392 net.cpp:67] Creating Layer conv1_1
I1125 20:54:11.914419  4392 net.cpp:394] conv1_1 <- data
I1125 20:54:11.914427  4392 net.cpp:356] conv1_1 -> conv1_1
I1125 20:54:11.914434  4392 net.cpp:96] Setting up conv1_1
I1125 20:54:11.914597  4392 net.cpp:103] Top shape: 8 64 224 224 (25690112)
I1125 20:54:11.914610  4392 layer_factory.hpp:78] Creating layer relu1_1
I1125 20:54:11.914616  4392 net.cpp:67] Creating Layer relu1_1
I1125 20:54:11.914620  4392 net.cpp:394] relu1_1 <- conv1_1
I1125 20:54:11.914626  4392 net.cpp:345] relu1_1 -> conv1_1 (in-place)
I1125 20:54:11.914638  4392 net.cpp:96] Setting up relu1_1
I1125 20:54:11.914645  4392 net.cpp:103] Top shape: 8 64 224 224 (25690112)
I1125 20:54:11.914650  4392 layer_factory.hpp:78] Creating layer conv1_2
I1125 20:54:11.914655  4392 net.cpp:67] Creating Layer conv1_2
I1125 20:54:11.914659  4392 net.cpp:394] conv1_2 <- conv1_1
I1125 20:54:11.914665  4392 net.cpp:356] conv1_2 -> conv1_2
I1125 20:54:11.914672  4392 net.cpp:96] Setting up conv1_2
I1125 20:54:11.915642  4392 net.cpp:103] Top shape: 8 64 224 224 (25690112)
I1125 20:54:11.915653  4392 layer_factory.hpp:78] Creating layer relu1_2
I1125 20:54:11.915659  4392 net.cpp:67] Creating Layer relu1_2
I1125 20:54:11.915664  4392 net.cpp:394] relu1_2 <- conv1_2
I1125 20:54:11.915669  4392 net.cpp:345] relu1_2 -> conv1_2 (in-place)
I1125 20:54:11.915675  4392 net.cpp:96] Setting up relu1_2
I1125 20:54:11.915681  4392 net.cpp:103] Top shape: 8 64 224 224 (25690112)
I1125 20:54:11.915686  4392 layer_factory.hpp:78] Creating layer pool1
I1125 20:54:11.915693  4392 net.cpp:67] Creating Layer pool1
I1125 20:54:11.915698  4392 net.cpp:394] pool1 <- conv1_2
I1125 20:54:11.915704  4392 net.cpp:356] pool1 -> pool1
I1125 20:54:11.915709  4392 net.cpp:96] Setting up pool1
I1125 20:54:11.915717  4392 net.cpp:103] Top shape: 8 64 112 112 (6422528)
I1125 20:54:11.915721  4392 layer_factory.hpp:78] Creating layer conv2_1
I1125 20:54:11.915729  4392 net.cpp:67] Creating Layer conv2_1
I1125 20:54:11.915732  4392 net.cpp:394] conv2_1 <- pool1
I1125 20:54:11.915738  4392 net.cpp:356] conv2_1 -> conv2_1
I1125 20:54:11.915745  4392 net.cpp:96] Setting up conv2_1
I1125 20:54:11.917702  4392 net.cpp:103] Top shape: 8 128 112 112 (12845056)
I1125 20:54:11.917716  4392 layer_factory.hpp:78] Creating layer relu2_1
I1125 20:54:11.917722  4392 net.cpp:67] Creating Layer relu2_1
I1125 20:54:11.917727  4392 net.cpp:394] relu2_1 <- conv2_1
I1125 20:54:11.917733  4392 net.cpp:345] relu2_1 -> conv2_1 (in-place)
I1125 20:54:11.917739  4392 net.cpp:96] Setting up relu2_1
I1125 20:54:11.917745  4392 net.cpp:103] Top shape: 8 128 112 112 (12845056)
I1125 20:54:11.917749  4392 layer_factory.hpp:78] Creating layer conv2_2
I1125 20:54:11.917757  4392 net.cpp:67] Creating Layer conv2_2
I1125 20:54:11.917760  4392 net.cpp:394] conv2_2 <- conv2_1
I1125 20:54:11.917768  4392 net.cpp:356] conv2_2 -> conv2_2
I1125 20:54:11.917774  4392 net.cpp:96] Setting up conv2_2
I1125 20:54:11.921388  4392 net.cpp:103] Top shape: 8 128 112 112 (12845056)
I1125 20:54:11.921399  4392 layer_factory.hpp:78] Creating layer relu2_2
I1125 20:54:11.921407  4392 net.cpp:67] Creating Layer relu2_2
I1125 20:54:11.921412  4392 net.cpp:394] relu2_2 <- conv2_2
I1125 20:54:11.921418  4392 net.cpp:345] relu2_2 -> conv2_2 (in-place)
I1125 20:54:11.921424  4392 net.cpp:96] Setting up relu2_2
I1125 20:54:11.921430  4392 net.cpp:103] Top shape: 8 128 112 112 (12845056)
I1125 20:54:11.921434  4392 layer_factory.hpp:78] Creating layer pool2
I1125 20:54:11.921440  4392 net.cpp:67] Creating Layer pool2
I1125 20:54:11.921444  4392 net.cpp:394] pool2 <- conv2_2
I1125 20:54:11.921450  4392 net.cpp:356] pool2 -> pool2
I1125 20:54:11.921457  4392 net.cpp:96] Setting up pool2
I1125 20:54:11.921463  4392 net.cpp:103] Top shape: 8 128 56 56 (3211264)
I1125 20:54:11.921468  4392 layer_factory.hpp:78] Creating layer conv3_1
I1125 20:54:11.921474  4392 net.cpp:67] Creating Layer conv3_1
I1125 20:54:11.921478  4392 net.cpp:394] conv3_1 <- pool2
I1125 20:54:11.921483  4392 net.cpp:356] conv3_1 -> conv3_1
I1125 20:54:11.921489  4392 net.cpp:96] Setting up conv3_1
I1125 20:54:11.928666  4392 net.cpp:103] Top shape: 8 256 56 56 (6422528)
I1125 20:54:11.928680  4392 layer_factory.hpp:78] Creating layer relu3_1
I1125 20:54:11.928685  4392 net.cpp:67] Creating Layer relu3_1
I1125 20:54:11.928690  4392 net.cpp:394] relu3_1 <- conv3_1
I1125 20:54:11.928699  4392 net.cpp:345] relu3_1 -> conv3_1 (in-place)
I1125 20:54:11.928704  4392 net.cpp:96] Setting up relu3_1
I1125 20:54:11.928710  4392 net.cpp:103] Top shape: 8 256 56 56 (6422528)
I1125 20:54:11.928714  4392 layer_factory.hpp:78] Creating layer conv3_2
I1125 20:54:11.928726  4392 net.cpp:67] Creating Layer conv3_2
I1125 20:54:11.928731  4392 net.cpp:394] conv3_2 <- conv3_1
I1125 20:54:11.928738  4392 net.cpp:356] conv3_2 -> conv3_2
I1125 20:54:11.928745  4392 net.cpp:96] Setting up conv3_2
I1125 20:54:11.943310  4392 net.cpp:103] Top shape: 8 256 56 56 (6422528)
I1125 20:54:11.943333  4392 layer_factory.hpp:78] Creating layer relu3_2
I1125 20:54:11.943341  4392 net.cpp:67] Creating Layer relu3_2
I1125 20:54:11.943346  4392 net.cpp:394] relu3_2 <- conv3_2
I1125 20:54:11.943352  4392 net.cpp:345] relu3_2 -> conv3_2 (in-place)
I1125 20:54:11.943361  4392 net.cpp:96] Setting up relu3_2
I1125 20:54:11.943367  4392 net.cpp:103] Top shape: 8 256 56 56 (6422528)
I1125 20:54:11.943372  4392 layer_factory.hpp:78] Creating layer conv3_3
I1125 20:54:11.943384  4392 net.cpp:67] Creating Layer conv3_3
I1125 20:54:11.943388  4392 net.cpp:394] conv3_3 <- conv3_2
I1125 20:54:11.943397  4392 net.cpp:356] conv3_3 -> conv3_3
I1125 20:54:11.943403  4392 net.cpp:96] Setting up conv3_3
I1125 20:54:11.958048  4392 net.cpp:103] Top shape: 8 256 56 56 (6422528)
I1125 20:54:11.958062  4392 layer_factory.hpp:78] Creating layer relu3_3
I1125 20:54:11.958068  4392 net.cpp:67] Creating Layer relu3_3
I1125 20:54:11.958071  4392 net.cpp:394] relu3_3 <- conv3_3
I1125 20:54:11.958080  4392 net.cpp:345] relu3_3 -> conv3_3 (in-place)
I1125 20:54:11.958086  4392 net.cpp:96] Setting up relu3_3
I1125 20:54:11.958092  4392 net.cpp:103] Top shape: 8 256 56 56 (6422528)
I1125 20:54:11.958097  4392 layer_factory.hpp:78] Creating layer pool3
I1125 20:54:11.958106  4392 net.cpp:67] Creating Layer pool3
I1125 20:54:11.958109  4392 net.cpp:394] pool3 <- conv3_3
I1125 20:54:11.958114  4392 net.cpp:356] pool3 -> pool3
I1125 20:54:11.958120  4392 net.cpp:96] Setting up pool3
I1125 20:54:11.958129  4392 net.cpp:103] Top shape: 8 256 28 28 (1605632)
I1125 20:54:11.958133  4392 layer_factory.hpp:78] Creating layer conv4_1
I1125 20:54:11.958142  4392 net.cpp:67] Creating Layer conv4_1
I1125 20:54:11.958147  4392 net.cpp:394] conv4_1 <- pool3
I1125 20:54:11.958153  4392 net.cpp:356] conv4_1 -> conv4_1
I1125 20:54:11.958160  4392 net.cpp:96] Setting up conv4_1
I1125 20:54:11.987288  4392 net.cpp:103] Top shape: 8 512 28 28 (3211264)
I1125 20:54:11.987314  4392 layer_factory.hpp:78] Creating layer relu4_1
I1125 20:54:11.987323  4392 net.cpp:67] Creating Layer relu4_1
I1125 20:54:11.987330  4392 net.cpp:394] relu4_1 <- conv4_1
I1125 20:54:11.987341  4392 net.cpp:345] relu4_1 -> conv4_1 (in-place)
I1125 20:54:11.987350  4392 net.cpp:96] Setting up relu4_1
I1125 20:54:11.987356  4392 net.cpp:103] Top shape: 8 512 28 28 (3211264)
I1125 20:54:11.987361  4392 layer_factory.hpp:78] Creating layer conv4_2
I1125 20:54:11.987370  4392 net.cpp:67] Creating Layer conv4_2
I1125 20:54:11.987375  4392 net.cpp:394] conv4_2 <- conv4_1
I1125 20:54:11.987380  4392 net.cpp:356] conv4_2 -> conv4_2
I1125 20:54:11.987388  4392 net.cpp:96] Setting up conv4_2
I1125 20:54:12.044915  4392 net.cpp:103] Top shape: 8 512 28 28 (3211264)
I1125 20:54:12.044949  4392 layer_factory.hpp:78] Creating layer relu4_2
I1125 20:54:12.044956  4392 net.cpp:67] Creating Layer relu4_2
I1125 20:54:12.044962  4392 net.cpp:394] relu4_2 <- conv4_2
I1125 20:54:12.044970  4392 net.cpp:345] relu4_2 -> conv4_2 (in-place)
I1125 20:54:12.044978  4392 net.cpp:96] Setting up relu4_2
I1125 20:54:12.044986  4392 net.cpp:103] Top shape: 8 512 28 28 (3211264)
I1125 20:54:12.044989  4392 layer_factory.hpp:78] Creating layer conv4_3
I1125 20:54:12.045001  4392 net.cpp:67] Creating Layer conv4_3
I1125 20:54:12.045006  4392 net.cpp:394] conv4_3 <- conv4_2
I1125 20:54:12.045017  4392 net.cpp:356] conv4_3 -> conv4_3
I1125 20:54:12.045027  4392 net.cpp:96] Setting up conv4_3
I1125 20:54:12.102318  4392 net.cpp:103] Top shape: 8 512 28 28 (3211264)
I1125 20:54:12.102344  4392 layer_factory.hpp:78] Creating layer relu4_3
I1125 20:54:12.102350  4392 net.cpp:67] Creating Layer relu4_3
I1125 20:54:12.102355  4392 net.cpp:394] relu4_3 <- conv4_3
I1125 20:54:12.102371  4392 net.cpp:345] relu4_3 -> conv4_3 (in-place)
I1125 20:54:12.102380  4392 net.cpp:96] Setting up relu4_3
I1125 20:54:12.102386  4392 net.cpp:103] Top shape: 8 512 28 28 (3211264)
I1125 20:54:12.102391  4392 layer_factory.hpp:78] Creating layer pool4
I1125 20:54:12.102401  4392 net.cpp:67] Creating Layer pool4
I1125 20:54:12.102406  4392 net.cpp:394] pool4 <- conv4_3
I1125 20:54:12.102411  4392 net.cpp:356] pool4 -> pool4
I1125 20:54:12.102418  4392 net.cpp:96] Setting up pool4
I1125 20:54:12.102427  4392 net.cpp:103] Top shape: 8 512 14 14 (802816)
I1125 20:54:12.102432  4392 layer_factory.hpp:78] Creating layer conv5_1
I1125 20:54:12.102440  4392 net.cpp:67] Creating Layer conv5_1
I1125 20:54:12.102444  4392 net.cpp:394] conv5_1 <- pool4
I1125 20:54:12.102450  4392 net.cpp:356] conv5_1 -> conv5_1
I1125 20:54:12.102458  4392 net.cpp:96] Setting up conv5_1
I1125 20:54:12.160001  4392 net.cpp:103] Top shape: 8 512 14 14 (802816)
I1125 20:54:12.160025  4392 layer_factory.hpp:78] Creating layer relu5_1
I1125 20:54:12.160033  4392 net.cpp:67] Creating Layer relu5_1
I1125 20:54:12.160037  4392 net.cpp:394] relu5_1 <- conv5_1
I1125 20:54:12.160045  4392 net.cpp:345] relu5_1 -> conv5_1 (in-place)
I1125 20:54:12.160053  4392 net.cpp:96] Setting up relu5_1
I1125 20:54:12.160060  4392 net.cpp:103] Top shape: 8 512 14 14 (802816)
I1125 20:54:12.160065  4392 layer_factory.hpp:78] Creating layer conv5_2
I1125 20:54:12.160076  4392 net.cpp:67] Creating Layer conv5_2
I1125 20:54:12.160081  4392 net.cpp:394] conv5_2 <- conv5_1
I1125 20:54:12.160090  4392 net.cpp:356] conv5_2 -> conv5_2
I1125 20:54:12.160097  4392 net.cpp:96] Setting up conv5_2
I1125 20:54:12.217398  4392 net.cpp:103] Top shape: 8 512 14 14 (802816)
I1125 20:54:12.217425  4392 layer_factory.hpp:78] Creating layer relu5_2
I1125 20:54:12.217433  4392 net.cpp:67] Creating Layer relu5_2
I1125 20:54:12.217438  4392 net.cpp:394] relu5_2 <- conv5_2
I1125 20:54:12.217447  4392 net.cpp:345] relu5_2 -> conv5_2 (in-place)
I1125 20:54:12.217454  4392 net.cpp:96] Setting up relu5_2
I1125 20:54:12.217460  4392 net.cpp:103] Top shape: 8 512 14 14 (802816)
I1125 20:54:12.217465  4392 layer_factory.hpp:78] Creating layer conv5_3
I1125 20:54:12.217473  4392 net.cpp:67] Creating Layer conv5_3
I1125 20:54:12.217476  4392 net.cpp:394] conv5_3 <- conv5_2
I1125 20:54:12.217483  4392 net.cpp:356] conv5_3 -> conv5_3
I1125 20:54:12.217490  4392 net.cpp:96] Setting up conv5_3
I1125 20:54:12.275182  4392 net.cpp:103] Top shape: 8 512 14 14 (802816)
I1125 20:54:12.275209  4392 layer_factory.hpp:78] Creating layer relu5_3
I1125 20:54:12.275218  4392 net.cpp:67] Creating Layer relu5_3
I1125 20:54:12.275223  4392 net.cpp:394] relu5_3 <- conv5_3
I1125 20:54:12.275235  4392 net.cpp:345] relu5_3 -> conv5_3 (in-place)
I1125 20:54:12.275243  4392 net.cpp:96] Setting up relu5_3
I1125 20:54:12.275250  4392 net.cpp:103] Top shape: 8 512 14 14 (802816)
I1125 20:54:12.275254  4392 layer_factory.hpp:78] Creating layer pool5
I1125 20:54:12.275269  4392 net.cpp:67] Creating Layer pool5
I1125 20:54:12.275274  4392 net.cpp:394] pool5 <- conv5_3
I1125 20:54:12.275279  4392 net.cpp:356] pool5 -> pool5
I1125 20:54:12.275286  4392 net.cpp:96] Setting up pool5
I1125 20:54:12.275295  4392 net.cpp:103] Top shape: 8 512 7 7 (200704)
I1125 20:54:12.275300  4392 layer_factory.hpp:78] Creating layer fc6
I1125 20:54:12.275308  4392 net.cpp:67] Creating Layer fc6
I1125 20:54:12.275313  4392 net.cpp:394] fc6 <- pool5
I1125 20:54:12.275320  4392 net.cpp:356] fc6 -> fc6
I1125 20:54:12.275326  4392 net.cpp:96] Setting up fc6
Traceback (most recent call last):
  File "runNet.py", line 78, in <module>
    line = process.stdout.readline()
…
I1125 20:54:18.934489  4401 net.cpp:275] The NetState phase (0) differed from the phase (1) specified by a rule in layer accuracy
I1125 20:54:18.934748  4401 net.cpp:39] Initializing net from parameters: 
name: "small"
layers {
  top: "data"
  top: "label"
  name: "data"
  type: IMAGE_DATA
  image_data_param {
    source: "/data/ad6813/devCaffe/caffe/data/water_high_o/train.txt"
    batch_size: 32
    new_height: 256
    new_width: 256
  }
  include {
    phase: TRAIN
  }
  transform_param {
    mirror: true
    crop_size: 224
    mean_value: 86.752
    mean_value: 101.46
    mean_value: 104.6
  }
}
layers {
  bottom: "data"
  top: "conv1_1"
  name: "conv1_1"
  type: CONVOLUTION
  convolution_param {
    num_output: 64
    pad: 1
    kernel_size: 3
    weight_filler {
      type: "gaussian"
      std: 0.01
    }
    bias_filler {
      type: "constant"
      value: 0
    }
  }
}
layers {
  bottom: "conv1_1"
  top: "conv1_1"
  name: "relu1_1"
  type: RELU
}
layers {
  bottom: "conv1_1"
  top: "conv1_2"
  name: "conv1_2"
  type: CONVOLUTION
  convolution_param {
    num_output: 64
    pad: 1
    kernel_size: 3
    weight_filler {
      type: "gaussian"
      std: 0.01
    }
    bias_filler {
      type: "constant"
      value: 0
    }
  }
}
layers {
  bottom: "conv1_2"
  top: "conv1_2"
  name: "relu1_2"
  type: RELU
}
layers {
  bottom: "conv1_2"
  top: "pool1"
  name: "pool1"
  type: POOLING
  pooling_param {
    pool: MAX
    kernel_size: 2
    stride: 2
  }
}
layers {
  bottom: "pool1"
  top: "conv2_1"
  name: "conv2_1"
  type: CONVOLUTION
  convolution_param {
    num_output: 128
    pad: 1
    kernel_size: 3
    weight_filler {
      type: "gaussian"
      std: 0.01
    }
    bias_filler {
      type: "constant"
      value: 0
    }
  }
}
layers {
  bottom: "conv2_1"
  top: "conv2_1"
  name: "relu2_1"
  type: RELU
}
layers {
  bottom: "conv2_1"
  top: "conv2_2"
  name: "conv2_2"
  type: CONVOLUTION
  convolution_param {
    num_output: 128
    pad: 1
    kernel_size: 3
    weight_filler {
      type: "gaussian"
      std: 0.01
    }
    bias_filler {
      type: "constant"
      value: 0
    }
  }
}
layers {
  bottom: "conv2_2"
  top: "conv2_2"
  name: "relu2_2"
  type: RELU
}
layers {
  bottom: "conv2_2"
  top: "pool2"
  name: "pool2"
  type: POOLING
  pooling_param {
    pool: MAX
    kernel_size: 2
    stride: 2
  }
}
layers {
  bottom: "pool2"
  top: "conv3_1"
  name: "conv3_1"
  type: CONVOLUTION
  convolution_param {
    num_output: 256
    pad: 1
    kernel_size: 3
    weight_filler {
      type: "gaussian"
      std: 0.01
    }
    bias_filler {
      type: "constant"
      value: 0
    }
  }
}
layers {
  bottom: "conv3_1"
  top: "conv3_1"
  name: "relu3_1"
  type: RELU
}
layers {
  bottom: "conv3_1"
  top: "conv3_2"
  name: "conv3_2"
  type: CONVOLUTION
  convolution_param {
    num_output: 256
    pad: 1
    kernel_size: 3
    weight_filler {
      type: "gaussian"
      std: 0.01
    }
    bias_filler {
      type: "constant"
      value: 0
    }
  }
}
layers {
  bottom: "conv3_2"
  top: "conv3_2"
  name: "relu3_2"
  type: RELU
}
layers {
  bottom: "conv3_2"
  top: "conv3_3"
  name: "conv3_3"
  type: CONVOLUTION
  convolution_param {
    num_output: 256
    pad: 1
    kernel_size: 3
    weight_filler {
      type: "gaussian"
      std: 0.01
    }
    bias_filler {
      type: "constant"
      value: 0
    }
  }
}
layers {
  bottom: "conv3_3"
  top: "conv3_3"
  name: "relu3_3"
  type: RELU
}
layers {
  bottom: "conv3_3"
  top: "pool3"
  name: "pool3"
  type: POOLING
  pooling_param {
    pool: MAX
    kernel_size: 2
    stride: 2
  }
}
layers {
  bottom: "pool3"
  top: "conv4_1"
  name: "conv4_1"
  type: CONVOLUTION
  convolution_param {
    num_output: 512
    pad: 1
    kernel_size: 3
    weight_filler {
      type: "gaussian"
      std: 0.01
    }
    bias_filler {
      type: "constant"
      value: 0
    }
  }
}
layers {
  bottom: "conv4_1"
  top: "conv4_1"
  name: "relu4_1"
  type: RELU
}
layers {
  bottom: "conv4_1"
  top: "conv4_2"
  name: "conv4_2"
  type: CONVOLUTION
  convolution_param {
    num_output: 512
    pad: 1
    kernel_size: 3
    weight_filler {
      type: "gaussian"
      std: 0.01
    }
    bias_filler {
      type: "constant"
      value: 0
    }
  }
}
layers {
  bottom: "conv4_2"
  top: "conv4_2"
  name: "relu4_2"
  type: RELU
}
layers {
  bottom: "conv4_2"
  top: "conv4_3"
  name: "conv4_3"
  type: CONVOLUTION
  convolution_param {
    num_output: 512
    pad: 1
    kernel_size: 3
    weight_filler {
      type: "gaussian"
      std: 0.01
    }
    bias_filler {
      type: "constant"
      value: 0
    }
  }
}
layers {
  bottom: "conv4_3"
  top: "conv4_3"
  name: "relu4_3"
  type: RELU
}
layers {
  bottom: "conv4_3"
  top: "pool4"
  name: "pool4"
  type: POOLING
  pooling_param {
    pool: MAX
    kernel_size: 2
    stride: 2
  }
}
layers {
  bottom: "pool4"
  top: "conv5_1"
  name: "conv5_1"
  type: CONVOLUTION
  convolution_param {
    num_output: 512
    pad: 1
    kernel_size: 3
    weight_filler {
      type: "gaussian"
      std: 0.01
    }
    bias_filler {
      type: "constant"
      value: 0
    }
  }
}
layers {
  bottom: "conv5_1"
  top: "conv5_1"
  name: "relu5_1"
  type: RELU
}
layers {
  bottom: "conv5_1"
  top: "conv5_2"
  name: "conv5_2"
  type: CONVOLUTION
  convolution_param {
    num_output: 512
    pad: 1
    kernel_size: 3
    weight_filler {
      type: "gaussian"
      std: 0.01
    }
    bias_filler {
      type: "constant"
      value: 0
    }
  }
}
layers {
  bottom: "conv5_2"
  top: "conv5_2"
  name: "relu5_2"
  type: RELU
}
layers {
  bottom: "conv5_2"
  top: "conv5_3"
  name: "conv5_3"
  type: CONVOLUTION
  convolution_param {
    num_output: 512
    pad: 1
    kernel_size: 3
    weight_filler {
      type: "gaussian"
      std: 0.01
    }
    bias_filler {
      type: "constant"
      value: 0
    }
  }
}
layers {
  bottom: "conv5_3"
  top: "conv5_3"
  name: "relu5_3"
  type: RELU
}
layers {
  bottom: "conv5_3"
  top: "pool5"
  name: "pool5"
  type: POOLING
  pooling_param {
    pool: MAX
    kernel_size: 2
    stride: 2
  }
}
layers {
  bottom: "pool5"
  top: "fc6"
  name: "fc6"
  type: INNER_PRODUCT
  inner_product_param {
    num_output: 4096
    weight_filler {
      type: "gaussian"
      std: 0.01
    }
    bias_filler {
      type: "constant"
      value: 0
    }
  }
}
layers {
  bottom: "fc6"
  top: "fc6"
  name: "relu6"
  type: RELU
}
layers {
  bottom: "fc6"
  top: "fc6"
  name: "drop6"
  type: DROPOUT
  dropout_param {
    dropout_ratio: 0.5
  }
}
layers {
  bottom: "fc6"
  top: "fc7"
  name: "fc7"
  type: INNER_PRODUCT
  inner_product_param {
    num_output: 4096
    weight_filler {
      type: "gaussian"
      std: 0.01
    }
    bias_filler {
      type: "constant"
      value: 0
    }
  }
}
layers {
  bottom: "fc7"
  top: "fc7"
  name: "relu7"
  type: RELU
}
layers {
  bottom: "fc7"
  top: "fc7"
  name: "drop7"
  type: DROPOUT
  dropout_param {
    dropout_ratio: 0.5
  }
}
layers {
  bottom: "fc7"
  top: "fc8_2"
  name: "fc8_2"
  type: INNER_PRODUCT
  inner_product_param {
    num_output: 2
    weight_filler {
      type: "gaussian"
      std: 0.01
    }
    bias_filler {
      type: "constant"
      value: 0
    }
  }
}
layers {
  bottom: "fc8_2"
  bottom: "label"
  name: "loss"
  type: SOFTMAX_LOSS
}
state {
  phase: TRAIN
}
I1125 20:54:18.934919  4401 layer_factory.hpp:78] Creating layer data
I1125 20:54:18.934947  4401 net.cpp:67] Creating Layer data
I1125 20:54:18.934962  4401 net.cpp:356] data -> data
I1125 20:54:18.934993  4401 net.cpp:356] data -> label
I1125 20:54:18.935009  4401 net.cpp:96] Setting up data
I1125 20:54:18.935019  4401 image_data_layer.cpp:34] Opening file /data/ad6813/devCaffe/caffe/data/water_high_o/train.txt
I1125 20:54:18.937491  4401 image_data_layer.cpp:49] A total of 3289 images.
I1125 20:54:18.946774  4401 image_data_layer.cpp:78] output data size: 32,3,224,224
I1125 20:54:18.949599  4401 net.cpp:103] Top shape: 32 3 224 224 (4816896)
I1125 20:54:18.949625  4401 net.cpp:103] Top shape: 32 1 1 1 (32)
I1125 20:54:18.949630  4401 layer_factory.hpp:78] Creating layer conv1_1
I1125 20:54:18.949646  4401 net.cpp:67] Creating Layer conv1_1
I1125 20:54:18.949651  4401 net.cpp:394] conv1_1 <- data
I1125 20:54:18.949669  4401 net.cpp:356] conv1_1 -> conv1_1
I1125 20:54:18.949687  4401 net.cpp:96] Setting up conv1_1
I1125 20:54:18.965389  4401 net.cpp:103] Top shape: 32 64 224 224 (102760448)
I1125 20:54:18.965425  4401 layer_factory.hpp:78] Creating layer relu1_1
I1125 20:54:18.965437  4401 net.cpp:67] Creating Layer relu1_1
I1125 20:54:18.965441  4401 net.cpp:394] relu1_1 <- conv1_1
I1125 20:54:18.965451  4401 net.cpp:345] relu1_1 -> conv1_1 (in-place)
I1125 20:54:18.965464  4401 net.cpp:96] Setting up relu1_1
I1125 20:54:18.965479  4401 net.cpp:103] Top shape: 32 64 224 224 (102760448)
I1125 20:54:18.965487  4401 layer_factory.hpp:78] Creating layer conv1_2
I1125 20:54:18.965497  4401 net.cpp:67] Creating Layer conv1_2
I1125 20:54:18.965504  4401 net.cpp:394] conv1_2 <- conv1_1
I1125 20:54:18.965515  4401 net.cpp:356] conv1_2 -> conv1_2
I1125 20:54:18.965529  4401 net.cpp:96] Setting up conv1_2
I1125 20:54:18.966668  4401 net.cpp:103] Top shape: 32 64 224 224 (102760448)
I1125 20:54:18.966684  4401 layer_factory.hpp:78] Creating layer relu1_2
I1125 20:54:18.966697  4401 net.cpp:67] Creating Layer relu1_2
I1125 20:54:18.966704  4401 net.cpp:394] relu1_2 <- conv1_2
I1125 20:54:18.966714  4401 net.cpp:345] relu1_2 -> conv1_2 (in-place)
I1125 20:54:18.966724  4401 net.cpp:96] Setting up relu1_2
I1125 20:54:18.966735  4401 net.cpp:103] Top shape: 32 64 224 224 (102760448)
I1125 20:54:18.966743  4401 layer_factory.hpp:78] Creating layer pool1
I1125 20:54:18.966758  4401 net.cpp:67] Creating Layer pool1
I1125 20:54:18.966766  4401 net.cpp:394] pool1 <- conv1_2
I1125 20:54:18.966776  4401 net.cpp:356] pool1 -> pool1
I1125 20:54:18.966789  4401 net.cpp:96] Setting up pool1
I1125 20:54:18.966815  4401 net.cpp:103] Top shape: 32 64 112 112 (25690112)
I1125 20:54:18.966825  4401 layer_factory.hpp:78] Creating layer conv2_1
I1125 20:54:18.966835  4401 net.cpp:67] Creating Layer conv2_1
I1125 20:54:18.966842  4401 net.cpp:394] conv2_1 <- pool1
I1125 20:54:18.966855  4401 net.cpp:356] conv2_1 -> conv2_1
I1125 20:54:18.966866  4401 net.cpp:96] Setting up conv2_1
I1125 20:54:18.968868  4401 net.cpp:103] Top shape: 32 128 112 112 (51380224)
I1125 20:54:18.968881  4401 layer_factory.hpp:78] Creating layer relu2_1
I1125 20:54:18.968893  4401 net.cpp:67] Creating Layer relu2_1
I1125 20:54:18.968899  4401 net.cpp:394] relu2_1 <- conv2_1
I1125 20:54:18.968910  4401 net.cpp:345] relu2_1 -> conv2_1 (in-place)
I1125 20:54:18.968921  4401 net.cpp:96] Setting up relu2_1
I1125 20:54:18.968932  4401 net.cpp:103] Top shape: 32 128 112 112 (51380224)
I1125 20:54:18.968940  4401 layer_factory.hpp:78] Creating layer conv2_2
I1125 20:54:18.968951  4401 net.cpp:67] Creating Layer conv2_2
I1125 20:54:18.968958  4401 net.cpp:394] conv2_2 <- conv2_1
I1125 20:54:18.968971  4401 net.cpp:356] conv2_2 -> conv2_2
I1125 20:54:18.968982  4401 net.cpp:96] Setting up conv2_2
I1125 20:54:18.972791  4401 net.cpp:103] Top shape: 32 128 112 112 (51380224)
I1125 20:54:18.972805  4401 layer_factory.hpp:78] Creating layer relu2_2
I1125 20:54:18.972815  4401 net.cpp:67] Creating Layer relu2_2
I1125 20:54:18.972821  4401 net.cpp:394] relu2_2 <- conv2_2
I1125 20:54:18.972834  4401 net.cpp:345] relu2_2 -> conv2_2 (in-place)
I1125 20:54:18.972844  4401 net.cpp:96] Setting up relu2_2
I1125 20:54:18.972856  4401 net.cpp:103] Top shape: 32 128 112 112 (51380224)
I1125 20:54:18.972873  4401 layer_factory.hpp:78] Creating layer pool2
I1125 20:54:18.972882  4401 net.cpp:67] Creating Layer pool2
I1125 20:54:18.972889  4401 net.cpp:394] pool2 <- conv2_2
I1125 20:54:18.972900  4401 net.cpp:356] pool2 -> pool2
I1125 20:54:18.972913  4401 net.cpp:96] Setting up pool2
I1125 20:54:18.972925  4401 net.cpp:103] Top shape: 32 128 56 56 (12845056)
I1125 20:54:18.972934  4401 layer_factory.hpp:78] Creating layer conv3_1
I1125 20:54:18.972944  4401 net.cpp:67] Creating Layer conv3_1
I1125 20:54:18.972951  4401 net.cpp:394] conv3_1 <- pool2
I1125 20:54:18.972964  4401 net.cpp:356] conv3_1 -> conv3_1
I1125 20:54:18.972976  4401 net.cpp:96] Setting up conv3_1
I1125 20:54:18.980469  4401 net.cpp:103] Top shape: 32 256 56 56 (25690112)
I1125 20:54:18.980487  4401 layer_factory.hpp:78] Creating layer relu3_1
I1125 20:54:18.980499  4401 net.cpp:67] Creating Layer relu3_1
I1125 20:54:18.980505  4401 net.cpp:394] relu3_1 <- conv3_1
I1125 20:54:18.980517  4401 net.cpp:345] relu3_1 -> conv3_1 (in-place)
I1125 20:54:18.980527  4401 net.cpp:96] Setting up relu3_1
I1125 20:54:18.980538  4401 net.cpp:103] Top shape: 32 256 56 56 (25690112)
I1125 20:54:18.980546  4401 layer_factory.hpp:78] Creating layer conv3_2
I1125 20:54:18.980556  4401 net.cpp:67] Creating Layer conv3_2
I1125 20:54:18.980564  4401 net.cpp:394] conv3_2 <- conv3_1
I1125 20:54:18.980576  4401 net.cpp:356] conv3_2 -> conv3_2
I1125 20:54:18.980588  4401 net.cpp:96] Setting up conv3_2
I1125 20:54:18.995484  4401 net.cpp:103] Top shape: 32 256 56 56 (25690112)
I1125 20:54:18.995504  4401 layer_factory.hpp:78] Creating layer relu3_2
I1125 20:54:18.995517  4401 net.cpp:67] Creating Layer relu3_2
I1125 20:54:18.995525  4401 net.cpp:394] relu3_2 <- conv3_2
I1125 20:54:18.995535  4401 net.cpp:345] relu3_2 -> conv3_2 (in-place)
I1125 20:54:18.995545  4401 net.cpp:96] Setting up relu3_2
I1125 20:54:18.995555  4401 net.cpp:103] Top shape: 32 256 56 56 (25690112)
I1125 20:54:18.995563  4401 layer_factory.hpp:78] Creating layer conv3_3
I1125 20:54:18.995573  4401 net.cpp:67] Creating Layer conv3_3
I1125 20:54:18.995580  4401 net.cpp:394] conv3_3 <- conv3_2
I1125 20:54:18.995594  4401 net.cpp:356] conv3_3 -> conv3_3
I1125 20:54:18.995606  4401 net.cpp:96] Setting up conv3_3
I1125 20:54:19.010053  4401 net.cpp:103] Top shape: 32 256 56 56 (25690112)
I1125 20:54:19.010076  4401 layer_factory.hpp:78] Creating layer relu3_3
I1125 20:54:19.010092  4401 net.cpp:67] Creating Layer relu3_3
I1125 20:54:19.010102  4401 net.cpp:394] relu3_3 <- conv3_3
I1125 20:54:19.010112  4401 net.cpp:345] relu3_3 -> conv3_3 (in-place)
I1125 20:54:19.010123  4401 net.cpp:96] Setting up relu3_3
I1125 20:54:19.010133  4401 net.cpp:103] Top shape: 32 256 56 56 (25690112)
I1125 20:54:19.010141  4401 layer_factory.hpp:78] Creating layer pool3
I1125 20:54:19.010152  4401 net.cpp:67] Creating Layer pool3
I1125 20:54:19.010159  4401 net.cpp:394] pool3 <- conv3_3
I1125 20:54:19.010174  4401 net.cpp:356] pool3 -> pool3
I1125 20:54:19.010185  4401 net.cpp:96] Setting up pool3
I1125 20:54:19.010198  4401 net.cpp:103] Top shape: 32 256 28 28 (6422528)
I1125 20:54:19.010207  4401 layer_factory.hpp:78] Creating layer conv4_1
I1125 20:54:19.010218  4401 net.cpp:67] Creating Layer conv4_1
I1125 20:54:19.010226  4401 net.cpp:394] conv4_1 <- pool3
I1125 20:54:19.010239  4401 net.cpp:356] conv4_1 -> conv4_1
I1125 20:54:19.010251  4401 net.cpp:96] Setting up conv4_1
I1125 20:54:19.039358  4401 net.cpp:103] Top shape: 32 512 28 28 (12845056)
I1125 20:54:19.039383  4401 layer_factory.hpp:78] Creating layer relu4_1
I1125 20:54:19.039394  4401 net.cpp:67] Creating Layer relu4_1
I1125 20:54:19.039402  4401 net.cpp:394] relu4_1 <- conv4_1
I1125 20:54:19.039414  4401 net.cpp:345] relu4_1 -> conv4_1 (in-place)
I1125 20:54:19.039425  4401 net.cpp:96] Setting up relu4_1
I1125 20:54:19.039436  4401 net.cpp:103] Top shape: 32 512 28 28 (12845056)
I1125 20:54:19.039444  4401 layer_factory.hpp:78] Creating layer conv4_2
I1125 20:54:19.039456  4401 net.cpp:67] Creating Layer conv4_2
I1125 20:54:19.039463  4401 net.cpp:394] conv4_2 <- conv4_1
I1125 20:54:19.039486  4401 net.cpp:356] conv4_2 -> conv4_2
I1125 20:54:19.039499  4401 net.cpp:96] Setting up conv4_2
I1125 20:54:19.097054  4401 net.cpp:103] Top shape: 32 512 28 28 (12845056)
I1125 20:54:19.097089  4401 layer_factory.hpp:78] Creating layer relu4_2
I1125 20:54:19.097103  4401 net.cpp:67] Creating Layer relu4_2
I1125 20:54:19.097111  4401 net.cpp:394] relu4_2 <- conv4_2
I1125 20:54:19.097122  4401 net.cpp:345] relu4_2 -> conv4_2 (in-place)
I1125 20:54:19.097134  4401 net.cpp:96] Setting up relu4_2
I1125 20:54:19.097146  4401 net.cpp:103] Top shape: 32 512 28 28 (12845056)
I1125 20:54:19.097153  4401 layer_factory.hpp:78] Creating layer conv4_3
I1125 20:54:19.097164  4401 net.cpp:67] Creating Layer conv4_3
I1125 20:54:19.097172  4401 net.cpp:394] conv4_3 <- conv4_2
I1125 20:54:19.097185  4401 net.cpp:356] conv4_3 -> conv4_3
I1125 20:54:19.097198  4401 net.cpp:96] Setting up conv4_3
I1125 20:54:19.154973  4401 net.cpp:103] Top shape: 32 512 28 28 (12845056)
I1125 20:54:19.154997  4401 layer_factory.hpp:78] Creating layer relu4_3
I1125 20:54:19.155009  4401 net.cpp:67] Creating Layer relu4_3
I1125 20:54:19.155019  4401 net.cpp:394] relu4_3 <- conv4_3
I1125 20:54:19.155031  4401 net.cpp:345] relu4_3 -> conv4_3 (in-place)
I1125 20:54:19.155042  4401 net.cpp:96] Setting up relu4_3
I1125 20:54:19.155052  4401 net.cpp:103] Top shape: 32 512 28 28 (12845056)
I1125 20:54:19.155060  4401 layer_factory.hpp:78] Creating layer pool4
I1125 20:54:19.155072  4401 net.cpp:67] Creating Layer pool4
I1125 20:54:19.155079  4401 net.cpp:394] pool4 <- conv4_3
I1125 20:54:19.155091  4401 net.cpp:356] pool4 -> pool4
I1125 20:54:19.155102  4401 net.cpp:96] Setting up pool4
I1125 20:54:19.155117  4401 net.cpp:103] Top shape: 32 512 14 14 (3211264)
I1125 20:54:19.155124  4401 layer_factory.hpp:78] Creating layer conv5_1
I1125 20:54:19.155138  4401 net.cpp:67] Creating Layer conv5_1
I1125 20:54:19.155145  4401 net.cpp:394] conv5_1 <- pool4
I1125 20:54:19.155156  4401 net.cpp:356] conv5_1 -> conv5_1
I1125 20:54:19.155171  4401 net.cpp:96] Setting up conv5_1
I1125 20:54:19.212944  4401 net.cpp:103] Top shape: 32 512 14 14 (3211264)
I1125 20:54:19.212972  4401 layer_factory.hpp:78] Creating layer relu5_1
I1125 20:54:19.212985  4401 net.cpp:67] Creating Layer relu5_1
I1125 20:54:19.212993  4401 net.cpp:394] relu5_1 <- conv5_1
I1125 20:54:19.213006  4401 net.cpp:345] relu5_1 -> conv5_1 (in-place)
I1125 20:54:19.213018  4401 net.cpp:96] Setting up relu5_1
I1125 20:54:19.213029  4401 net.cpp:103] Top shape: 32 512 14 14 (3211264)
I1125 20:54:19.213038  4401 layer_factory.hpp:78] Creating layer conv5_2
I1125 20:54:19.213049  4401 net.cpp:67] Creating Layer conv5_2
I1125 20:54:19.213057  4401 net.cpp:394] conv5_2 <- conv5_1
I1125 20:54:19.213068  4401 net.cpp:356] conv5_2 -> conv5_2
I1125 20:54:19.213080  4401 net.cpp:96] Setting up conv5_2
I1125 20:54:19.270424  4401 net.cpp:103] Top shape: 32 512 14 14 (3211264)
I1125 20:54:19.270457  4401 layer_factory.hpp:78] Creating layer relu5_2
I1125 20:54:19.270467  4401 net.cpp:67] Creating Layer relu5_2
I1125 20:54:19.270475  4401 net.cpp:394] relu5_2 <- conv5_2
I1125 20:54:19.270486  4401 net.cpp:345] relu5_2 -> conv5_2 (in-place)
I1125 20:54:19.270496  4401 net.cpp:96] Setting up relu5_2
I1125 20:54:19.270506  4401 net.cpp:103] Top shape: 32 512 14 14 (3211264)
I1125 20:54:19.270515  4401 layer_factory.hpp:78] Creating layer conv5_3
I1125 20:54:19.270529  4401 net.cpp:67] Creating Layer conv5_3
I1125 20:54:19.270536  4401 net.cpp:394] conv5_3 <- conv5_2
I1125 20:54:19.270546  4401 net.cpp:356] conv5_3 -> conv5_3
I1125 20:54:19.270558  4401 net.cpp:96] Setting up conv5_3
I1125 20:54:19.328196  4401 net.cpp:103] Top shape: 32 512 14 14 (3211264)
I1125 20:54:19.328224  4401 layer_factory.hpp:78] Creating layer relu5_3
I1125 20:54:19.328235  4401 net.cpp:67] Creating Layer relu5_3
I1125 20:54:19.328243  4401 net.cpp:394] relu5_3 <- conv5_3
I1125 20:54:19.328255  4401 net.cpp:345] relu5_3 -> conv5_3 (in-place)
I1125 20:54:19.328266  4401 net.cpp:96] Setting up relu5_3
I1125 20:54:19.328275  4401 net.cpp:103] Top shape: 32 512 14 14 (3211264)
I1125 20:54:19.328294  4401 layer_factory.hpp:78] Creating layer pool5
I1125 20:54:19.328307  4401 net.cpp:67] Creating Layer pool5
I1125 20:54:19.328315  4401 net.cpp:394] pool5 <- conv5_3
I1125 20:54:19.328325  4401 net.cpp:356] pool5 -> pool5
I1125 20:54:19.328337  4401 net.cpp:96] Setting up pool5
I1125 20:54:19.328351  4401 net.cpp:103] Top shape: 32 512 7 7 (802816)
I1125 20:54:19.328361  4401 layer_factory.hpp:78] Creating layer fc6
I1125 20:54:19.328382  4401 net.cpp:67] Creating Layer fc6
I1125 20:54:19.328390  4401 net.cpp:394] fc6 <- pool5
I1125 20:54:19.328402  4401 net.cpp:356] fc6 -> fc6
I1125 20:54:19.328414  4401 net.cpp:96] Setting up fc6
Traceback (most recent call last):
  File "runNet.py", line 78, in <module>
    line = process.stdout.readline()
…
