…
I1202 02:07:15.257060 22909 net.cpp:275] The NetState phase (0) differed from the phase (1) specified by a rule in layer accuracy
I1202 02:07:15.257261 22909 net.cpp:39] Initializing net from parameters: 
name: "small"
layers {
  top: "data"
  top: "label"
  name: "data"
  type: IMAGE_DATA
  image_data_param {
    source: "/data/ad6813/devCaffe/caffe/data/scrape_blue/train.txt"
    batch_size: 32
    new_height: 256
    new_width: 256
  }
  include {
    phase: TRAIN
  }
  transform_param {
    mirror: true
    crop_size: 224
    mean_value: 86.752
    mean_value: 101.46
    mean_value: 104.6
  }
}
layers {
  bottom: "data"
  top: "conv1_1"
  name: "conv1_1"
  type: CONVOLUTION
  convolution_param {
    num_output: 64
    pad: 1
    kernel_size: 3
    weight_filler {
      type: "gaussian"
      std: 0.01
    }
    bias_filler {
      type: "constant"
      value: 0
    }
  }
}
layers {
  bottom: "conv1_1"
  top: "conv1_1"
  name: "relu1_1"
  type: RELU
}
layers {
  bottom: "conv1_1"
  top: "conv1_2"
  name: "conv1_2"
  type: CONVOLUTION
  convolution_param {
    num_output: 64
    pad: 1
    kernel_size: 3
    weight_filler {
      type: "gaussian"
      std: 0.01
    }
    bias_filler {
      type: "constant"
      value: 0
    }
  }
}
layers {
  bottom: "conv1_2"
  top: "conv1_2"
  name: "relu1_2"
  type: RELU
}
layers {
  bottom: "conv1_2"
  top: "pool1"
  name: "pool1"
  type: POOLING
  pooling_param {
    pool: MAX
    kernel_size: 2
    stride: 2
  }
}
layers {
  bottom: "pool1"
  top: "conv2_1"
  name: "conv2_1"
  type: CONVOLUTION
  convolution_param {
    num_output: 128
    pad: 1
    kernel_size: 3
    weight_filler {
      type: "gaussian"
      std: 0.01
    }
    bias_filler {
      type: "constant"
      value: 0
    }
  }
}
layers {
  bottom: "conv2_1"
  top: "conv2_1"
  name: "relu2_1"
  type: RELU
}
layers {
  bottom: "conv2_1"
  top: "conv2_2"
  name: "conv2_2"
  type: CONVOLUTION
  convolution_param {
    num_output: 128
    pad: 1
    kernel_size: 3
    weight_filler {
      type: "gaussian"
      std: 0.01
    }
    bias_filler {
      type: "constant"
      value: 0
    }
  }
}
layers {
  bottom: "conv2_2"
  top: "conv2_2"
  name: "relu2_2"
  type: RELU
}
layers {
  bottom: "conv2_2"
  top: "pool2"
  name: "pool2"
  type: POOLING
  pooling_param {
    pool: MAX
    kernel_size: 2
    stride: 2
  }
}
layers {
  bottom: "pool2"
  top: "conv3_1"
  name: "conv3_1"
  type: CONVOLUTION
  convolution_param {
    num_output: 256
    pad: 1
    kernel_size: 3
    weight_filler {
      type: "gaussian"
      std: 0.01
    }
    bias_filler {
      type: "constant"
      value: 0
    }
  }
}
layers {
  bottom: "conv3_1"
  top: "conv3_1"
  name: "relu3_1"
  type: RELU
}
layers {
  bottom: "conv3_1"
  top: "conv3_2"
  name: "conv3_2"
  type: CONVOLUTION
  convolution_param {
    num_output: 256
    pad: 1
    kernel_size: 3
    weight_filler {
      type: "gaussian"
      std: 0.01
    }
    bias_filler {
      type: "constant"
      value: 0
    }
  }
}
layers {
  bottom: "conv3_2"
  top: "conv3_2"
  name: "relu3_2"
  type: RELU
}
layers {
  bottom: "conv3_2"
  top: "conv3_3"
  name: "conv3_3"
  type: CONVOLUTION
  convolution_param {
    num_output: 256
    pad: 1
    kernel_size: 3
    weight_filler {
      type: "gaussian"
      std: 0.01
    }
    bias_filler {
      type: "constant"
      value: 0
    }
  }
}
layers {
  bottom: "conv3_3"
  top: "conv3_3"
  name: "relu3_3"
  type: RELU
}
layers {
  bottom: "conv3_3"
  top: "pool3"
  name: "pool3"
  type: POOLING
  pooling_param {
    pool: MAX
    kernel_size: 2
    stride: 2
  }
}
layers {
  bottom: "pool3"
  top: "conv4_1"
  name: "conv4_1"
  type: CONVOLUTION
  convolution_param {
    num_output: 512
    pad: 1
    kernel_size: 3
    weight_filler {
      type: "gaussian"
      std: 0.01
    }
    bias_filler {
      type: "constant"
      value: 0
    }
  }
}
layers {
  bottom: "conv4_1"
  top: "conv4_1"
  name: "relu4_1"
  type: RELU
}
layers {
  bottom: "conv4_1"
  top: "conv4_2"
  name: "conv4_2"
  type: CONVOLUTION
  convolution_param {
    num_output: 512
    pad: 1
    kernel_size: 3
    weight_filler {
      type: "gaussian"
      std: 0.01
    }
    bias_filler {
      type: "constant"
      value: 0
    }
  }
}
layers {
  bottom: "conv4_2"
  top: "conv4_2"
  name: "relu4_2"
  type: RELU
}
layers {
  bottom: "conv4_2"
  top: "conv4_3"
  name: "conv4_3"
  type: CONVOLUTION
  convolution_param {
    num_output: 512
    pad: 1
    kernel_size: 3
    weight_filler {
      type: "gaussian"
      std: 0.01
    }
    bias_filler {
      type: "constant"
      value: 0
    }
  }
}
layers {
  bottom: "conv4_3"
  top: "conv4_3"
  name: "relu4_3"
  type: RELU
}
layers {
  bottom: "conv4_3"
  top: "pool4"
  name: "pool4"
  type: POOLING
  pooling_param {
    pool: MAX
    kernel_size: 2
    stride: 2
  }
}
layers {
  bottom: "pool4"
  top: "conv5_1"
  name: "conv5_1"
  type: CONVOLUTION
  convolution_param {
    num_output: 512
    pad: 1
    kernel_size: 3
    weight_filler {
      type: "gaussian"
      std: 0.01
    }
    bias_filler {
      type: "constant"
      value: 0
    }
  }
}
layers {
  bottom: "conv5_1"
  top: "conv5_1"
  name: "relu5_1"
  type: RELU
}
layers {
  bottom: "conv5_1"
  top: "conv5_2"
  name: "conv5_2"
  type: CONVOLUTION
  convolution_param {
    num_output: 512
    pad: 1
    kernel_size: 3
    weight_filler {
      type: "gaussian"
      std: 0.01
    }
    bias_filler {
      type: "constant"
      value: 0
    }
  }
}
layers {
  bottom: "conv5_2"
  top: "conv5_2"
  name: "relu5_2"
  type: RELU
}
layers {
  bottom: "conv5_2"
  top: "conv5_3"
  name: "conv5_3"
  type: CONVOLUTION
  convolution_param {
    num_output: 512
    pad: 1
    kernel_size: 3
    weight_filler {
      type: "gaussian"
      std: 0.01
    }
    bias_filler {
      type: "constant"
      value: 0
    }
  }
}
layers {
  bottom: "conv5_3"
  top: "conv5_3"
  name: "relu5_3"
  type: RELU
}
layers {
  bottom: "conv5_3"
  top: "pool5"
  name: "pool5"
  type: POOLING
  pooling_param {
    pool: MAX
    kernel_size: 2
    stride: 2
  }
}
layers {
  bottom: "pool5"
  top: "fc6"
  name: "fc6"
  type: INNER_PRODUCT
  inner_product_param {
    num_output: 4096
    weight_filler {
      type: "gaussian"
      std: 0.01
    }
    bias_filler {
      type: "constant"
      value: 0
    }
  }
}
layers {
  bottom: "fc6"
  top: "fc6"
  name: "relu6"
  type: RELU
}
layers {
  bottom: "fc6"
  top: "fc6"
  name: "drop6"
  type: DROPOUT
  dropout_param {
    dropout_ratio: 0.5
  }
}
layers {
  bottom: "fc6"
  top: "fc7"
  name: "fc7"
  type: INNER_PRODUCT
  inner_product_param {
    num_output: 4096
    weight_filler {
      type: "gaussian"
      std: 0.01
    }
    bias_filler {
      type: "constant"
      value: 0
    }
  }
}
layers {
  bottom: "fc7"
  top: "fc7"
  name: "relu7"
  type: RELU
}
layers {
  bottom: "fc7"
  top: "fc7"
  name: "drop7"
  type: DROPOUT
  dropout_param {
    dropout_ratio: 0.5
  }
}
layers {
  bottom: "fc7"
  top: "fc8_2"
  name: "fc8_2"
  type: INNER_PRODUCT
  inner_product_param {
    num_output: 2
    weight_filler {
      type: "gaussian"
      std: 0.01
    }
    bias_filler {
      type: "constant"
      value: 0
    }
  }
}
layers {
  bottom: "fc8_2"
  bottom: "label"
  name: "loss"
  type: SOFTMAX_LOSS
}
state {
  phase: TRAIN
}
I1202 02:07:15.257386 22909 layer_factory.hpp:78] Creating layer data
I1202 02:07:15.257407 22909 net.cpp:67] Creating Layer data
I1202 02:07:15.257414 22909 net.cpp:356] data -> data
I1202 02:07:15.257432 22909 net.cpp:356] data -> label
I1202 02:07:15.257441 22909 net.cpp:96] Setting up data
I1202 02:07:15.257446 22909 image_data_layer.cpp:34] Opening file /data/ad6813/devCaffe/caffe/data/scrape_blue/train.txt
I1202 02:07:15.271684 22909 image_data_layer.cpp:49] A total of 40401 images.
I1202 02:07:15.282215 22909 image_data_layer.cpp:78] output data size: 32,3,224,224
I1202 02:07:15.284958 22909 net.cpp:103] Top shape: 32 3 224 224 (4816896)
I1202 02:07:15.284981 22909 net.cpp:103] Top shape: 32 1 1 1 (32)
I1202 02:07:15.284986 22909 layer_factory.hpp:78] Creating layer conv1_1
I1202 02:07:15.285001 22909 net.cpp:67] Creating Layer conv1_1
I1202 02:07:15.285006 22909 net.cpp:394] conv1_1 <- data
I1202 02:07:15.285018 22909 net.cpp:356] conv1_1 -> conv1_1
I1202 02:07:15.285028 22909 net.cpp:96] Setting up conv1_1
I1202 02:07:15.427433 22909 net.cpp:103] Top shape: 32 64 224 224 (102760448)
I1202 02:07:15.427474 22909 layer_factory.hpp:78] Creating layer relu1_1
I1202 02:07:15.427486 22909 net.cpp:67] Creating Layer relu1_1
I1202 02:07:15.427491 22909 net.cpp:394] relu1_1 <- conv1_1
I1202 02:07:15.427497 22909 net.cpp:345] relu1_1 -> conv1_1 (in-place)
I1202 02:07:15.427505 22909 net.cpp:96] Setting up relu1_1
I1202 02:07:15.427515 22909 net.cpp:103] Top shape: 32 64 224 224 (102760448)
I1202 02:07:15.427518 22909 layer_factory.hpp:78] Creating layer conv1_2
I1202 02:07:15.427525 22909 net.cpp:67] Creating Layer conv1_2
I1202 02:07:15.427528 22909 net.cpp:394] conv1_2 <- conv1_1
I1202 02:07:15.427532 22909 net.cpp:356] conv1_2 -> conv1_2
I1202 02:07:15.427539 22909 net.cpp:96] Setting up conv1_2
I1202 02:07:15.428606 22909 net.cpp:103] Top shape: 32 64 224 224 (102760448)
I1202 02:07:15.428618 22909 layer_factory.hpp:78] Creating layer relu1_2
I1202 02:07:15.428623 22909 net.cpp:67] Creating Layer relu1_2
I1202 02:07:15.428627 22909 net.cpp:394] relu1_2 <- conv1_2
I1202 02:07:15.428632 22909 net.cpp:345] relu1_2 -> conv1_2 (in-place)
I1202 02:07:15.428637 22909 net.cpp:96] Setting up relu1_2
I1202 02:07:15.428642 22909 net.cpp:103] Top shape: 32 64 224 224 (102760448)
I1202 02:07:15.428644 22909 layer_factory.hpp:78] Creating layer pool1
I1202 02:07:15.428653 22909 net.cpp:67] Creating Layer pool1
I1202 02:07:15.428657 22909 net.cpp:394] pool1 <- conv1_2
I1202 02:07:15.428661 22909 net.cpp:356] pool1 -> pool1
I1202 02:07:15.428666 22909 net.cpp:96] Setting up pool1
I1202 02:07:15.428683 22909 net.cpp:103] Top shape: 32 64 112 112 (25690112)
I1202 02:07:15.428686 22909 layer_factory.hpp:78] Creating layer conv2_1
I1202 02:07:15.428692 22909 net.cpp:67] Creating Layer conv2_1
I1202 02:07:15.428696 22909 net.cpp:394] conv2_1 <- pool1
I1202 02:07:15.428700 22909 net.cpp:356] conv2_1 -> conv2_1
I1202 02:07:15.428705 22909 net.cpp:96] Setting up conv2_1
I1202 02:07:15.430627 22909 net.cpp:103] Top shape: 32 128 112 112 (51380224)
I1202 02:07:15.430641 22909 layer_factory.hpp:78] Creating layer relu2_1
I1202 02:07:15.430646 22909 net.cpp:67] Creating Layer relu2_1
I1202 02:07:15.430649 22909 net.cpp:394] relu2_1 <- conv2_1
I1202 02:07:15.430654 22909 net.cpp:345] relu2_1 -> conv2_1 (in-place)
I1202 02:07:15.430658 22909 net.cpp:96] Setting up relu2_1
I1202 02:07:15.430663 22909 net.cpp:103] Top shape: 32 128 112 112 (51380224)
I1202 02:07:15.430666 22909 layer_factory.hpp:78] Creating layer conv2_2
I1202 02:07:15.430673 22909 net.cpp:67] Creating Layer conv2_2
I1202 02:07:15.430676 22909 net.cpp:394] conv2_2 <- conv2_1
I1202 02:07:15.430681 22909 net.cpp:356] conv2_2 -> conv2_2
I1202 02:07:15.430686 22909 net.cpp:96] Setting up conv2_2
I1202 02:07:15.434453 22909 net.cpp:103] Top shape: 32 128 112 112 (51380224)
I1202 02:07:15.434465 22909 layer_factory.hpp:78] Creating layer relu2_2
I1202 02:07:15.434470 22909 net.cpp:67] Creating Layer relu2_2
I1202 02:07:15.434474 22909 net.cpp:394] relu2_2 <- conv2_2
I1202 02:07:15.434478 22909 net.cpp:345] relu2_2 -> conv2_2 (in-place)
I1202 02:07:15.434483 22909 net.cpp:96] Setting up relu2_2
I1202 02:07:15.434489 22909 net.cpp:103] Top shape: 32 128 112 112 (51380224)
I1202 02:07:15.434499 22909 layer_factory.hpp:78] Creating layer pool2
I1202 02:07:15.434505 22909 net.cpp:67] Creating Layer pool2
I1202 02:07:15.434509 22909 net.cpp:394] pool2 <- conv2_2
I1202 02:07:15.434514 22909 net.cpp:356] pool2 -> pool2
I1202 02:07:15.434517 22909 net.cpp:96] Setting up pool2
I1202 02:07:15.434523 22909 net.cpp:103] Top shape: 32 128 56 56 (12845056)
I1202 02:07:15.434526 22909 layer_factory.hpp:78] Creating layer conv3_1
I1202 02:07:15.434532 22909 net.cpp:67] Creating Layer conv3_1
I1202 02:07:15.434535 22909 net.cpp:394] conv3_1 <- pool2
I1202 02:07:15.434540 22909 net.cpp:356] conv3_1 -> conv3_1
I1202 02:07:15.434545 22909 net.cpp:96] Setting up conv3_1
I1202 02:07:15.441953 22909 net.cpp:103] Top shape: 32 256 56 56 (25690112)
I1202 02:07:15.441969 22909 layer_factory.hpp:78] Creating layer relu3_1
I1202 02:07:15.441974 22909 net.cpp:67] Creating Layer relu3_1
I1202 02:07:15.441977 22909 net.cpp:394] relu3_1 <- conv3_1
I1202 02:07:15.441982 22909 net.cpp:345] relu3_1 -> conv3_1 (in-place)
I1202 02:07:15.441987 22909 net.cpp:96] Setting up relu3_1
I1202 02:07:15.441992 22909 net.cpp:103] Top shape: 32 256 56 56 (25690112)
I1202 02:07:15.441994 22909 layer_factory.hpp:78] Creating layer conv3_2
I1202 02:07:15.441999 22909 net.cpp:67] Creating Layer conv3_2
I1202 02:07:15.442003 22909 net.cpp:394] conv3_2 <- conv3_1
I1202 02:07:15.442008 22909 net.cpp:356] conv3_2 -> conv3_2
I1202 02:07:15.442013 22909 net.cpp:96] Setting up conv3_2
I1202 02:07:15.456938 22909 net.cpp:103] Top shape: 32 256 56 56 (25690112)
I1202 02:07:15.456962 22909 layer_factory.hpp:78] Creating layer relu3_2
I1202 02:07:15.456972 22909 net.cpp:67] Creating Layer relu3_2
I1202 02:07:15.456977 22909 net.cpp:394] relu3_2 <- conv3_2
I1202 02:07:15.456984 22909 net.cpp:345] relu3_2 -> conv3_2 (in-place)
I1202 02:07:15.456990 22909 net.cpp:96] Setting up relu3_2
I1202 02:07:15.456995 22909 net.cpp:103] Top shape: 32 256 56 56 (25690112)
I1202 02:07:15.456998 22909 layer_factory.hpp:78] Creating layer conv3_3
I1202 02:07:15.457006 22909 net.cpp:67] Creating Layer conv3_3
I1202 02:07:15.457010 22909 net.cpp:394] conv3_3 <- conv3_2
I1202 02:07:15.457015 22909 net.cpp:356] conv3_3 -> conv3_3
I1202 02:07:15.457020 22909 net.cpp:96] Setting up conv3_3
I1202 02:07:15.471758 22909 net.cpp:103] Top shape: 32 256 56 56 (25690112)
I1202 02:07:15.471773 22909 layer_factory.hpp:78] Creating layer relu3_3
I1202 02:07:15.471783 22909 net.cpp:67] Creating Layer relu3_3
I1202 02:07:15.471786 22909 net.cpp:394] relu3_3 <- conv3_3
I1202 02:07:15.471791 22909 net.cpp:345] relu3_3 -> conv3_3 (in-place)
I1202 02:07:15.471797 22909 net.cpp:96] Setting up relu3_3
I1202 02:07:15.471802 22909 net.cpp:103] Top shape: 32 256 56 56 (25690112)
I1202 02:07:15.471806 22909 layer_factory.hpp:78] Creating layer pool3
I1202 02:07:15.471812 22909 net.cpp:67] Creating Layer pool3
I1202 02:07:15.471815 22909 net.cpp:394] pool3 <- conv3_3
I1202 02:07:15.471819 22909 net.cpp:356] pool3 -> pool3
I1202 02:07:15.471824 22909 net.cpp:96] Setting up pool3
I1202 02:07:15.471832 22909 net.cpp:103] Top shape: 32 256 28 28 (6422528)
I1202 02:07:15.471835 22909 layer_factory.hpp:78] Creating layer conv4_1
I1202 02:07:15.471843 22909 net.cpp:67] Creating Layer conv4_1
I1202 02:07:15.471845 22909 net.cpp:394] conv4_1 <- pool3
I1202 02:07:15.471850 22909 net.cpp:356] conv4_1 -> conv4_1
I1202 02:07:15.471855 22909 net.cpp:96] Setting up conv4_1
I1202 02:07:15.501040 22909 net.cpp:103] Top shape: 32 512 28 28 (12845056)
I1202 02:07:15.501063 22909 layer_factory.hpp:78] Creating layer relu4_1
I1202 02:07:15.501071 22909 net.cpp:67] Creating Layer relu4_1
I1202 02:07:15.501075 22909 net.cpp:394] relu4_1 <- conv4_1
I1202 02:07:15.501083 22909 net.cpp:345] relu4_1 -> conv4_1 (in-place)
I1202 02:07:15.501091 22909 net.cpp:96] Setting up relu4_1
I1202 02:07:15.501096 22909 net.cpp:103] Top shape: 32 512 28 28 (12845056)
I1202 02:07:15.501101 22909 layer_factory.hpp:78] Creating layer conv4_2
I1202 02:07:15.501106 22909 net.cpp:67] Creating Layer conv4_2
I1202 02:07:15.501109 22909 net.cpp:394] conv4_2 <- conv4_1
I1202 02:07:15.501126 22909 net.cpp:356] conv4_2 -> conv4_2
I1202 02:07:15.501132 22909 net.cpp:96] Setting up conv4_2
I1202 02:07:15.559136 22909 net.cpp:103] Top shape: 32 512 28 28 (12845056)
I1202 02:07:15.559165 22909 layer_factory.hpp:78] Creating layer relu4_2
I1202 02:07:15.559173 22909 net.cpp:67] Creating Layer relu4_2
I1202 02:07:15.559178 22909 net.cpp:394] relu4_2 <- conv4_2
I1202 02:07:15.559185 22909 net.cpp:345] relu4_2 -> conv4_2 (in-place)
I1202 02:07:15.559191 22909 net.cpp:96] Setting up relu4_2
I1202 02:07:15.559197 22909 net.cpp:103] Top shape: 32 512 28 28 (12845056)
I1202 02:07:15.559201 22909 layer_factory.hpp:78] Creating layer conv4_3
I1202 02:07:15.559208 22909 net.cpp:67] Creating Layer conv4_3
I1202 02:07:15.559211 22909 net.cpp:394] conv4_3 <- conv4_2
I1202 02:07:15.559216 22909 net.cpp:356] conv4_3 -> conv4_3
I1202 02:07:15.559221 22909 net.cpp:96] Setting up conv4_3
I1202 02:07:15.617912 22909 net.cpp:103] Top shape: 32 512 28 28 (12845056)
I1202 02:07:15.617933 22909 layer_factory.hpp:78] Creating layer relu4_3
I1202 02:07:15.617941 22909 net.cpp:67] Creating Layer relu4_3
I1202 02:07:15.617945 22909 net.cpp:394] relu4_3 <- conv4_3
I1202 02:07:15.617954 22909 net.cpp:345] relu4_3 -> conv4_3 (in-place)
I1202 02:07:15.617960 22909 net.cpp:96] Setting up relu4_3
I1202 02:07:15.617966 22909 net.cpp:103] Top shape: 32 512 28 28 (12845056)
I1202 02:07:15.617969 22909 layer_factory.hpp:78] Creating layer pool4
I1202 02:07:15.617975 22909 net.cpp:67] Creating Layer pool4
I1202 02:07:15.617979 22909 net.cpp:394] pool4 <- conv4_3
I1202 02:07:15.617983 22909 net.cpp:356] pool4 -> pool4
I1202 02:07:15.617988 22909 net.cpp:96] Setting up pool4
I1202 02:07:15.617996 22909 net.cpp:103] Top shape: 32 512 14 14 (3211264)
I1202 02:07:15.618000 22909 layer_factory.hpp:78] Creating layer conv5_1
I1202 02:07:15.618006 22909 net.cpp:67] Creating Layer conv5_1
I1202 02:07:15.618010 22909 net.cpp:394] conv5_1 <- pool4
I1202 02:07:15.618016 22909 net.cpp:356] conv5_1 -> conv5_1
I1202 02:07:15.618023 22909 net.cpp:96] Setting up conv5_1
I1202 02:07:15.675993 22909 net.cpp:103] Top shape: 32 512 14 14 (3211264)
I1202 02:07:15.676017 22909 layer_factory.hpp:78] Creating layer relu5_1
I1202 02:07:15.676025 22909 net.cpp:67] Creating Layer relu5_1
I1202 02:07:15.676030 22909 net.cpp:394] relu5_1 <- conv5_1
I1202 02:07:15.676043 22909 net.cpp:345] relu5_1 -> conv5_1 (in-place)
I1202 02:07:15.676050 22909 net.cpp:96] Setting up relu5_1
I1202 02:07:15.676055 22909 net.cpp:103] Top shape: 32 512 14 14 (3211264)
I1202 02:07:15.676059 22909 layer_factory.hpp:78] Creating layer conv5_2
I1202 02:07:15.676065 22909 net.cpp:67] Creating Layer conv5_2
I1202 02:07:15.676069 22909 net.cpp:394] conv5_2 <- conv5_1
I1202 02:07:15.676074 22909 net.cpp:356] conv5_2 -> conv5_2
I1202 02:07:15.676080 22909 net.cpp:96] Setting up conv5_2
I1202 02:07:15.733723 22909 net.cpp:103] Top shape: 32 512 14 14 (3211264)
I1202 02:07:15.733749 22909 layer_factory.hpp:78] Creating layer relu5_2
I1202 02:07:15.733757 22909 net.cpp:67] Creating Layer relu5_2
I1202 02:07:15.733762 22909 net.cpp:394] relu5_2 <- conv5_2
I1202 02:07:15.733770 22909 net.cpp:345] relu5_2 -> conv5_2 (in-place)
I1202 02:07:15.733777 22909 net.cpp:96] Setting up relu5_2
I1202 02:07:15.733783 22909 net.cpp:103] Top shape: 32 512 14 14 (3211264)
I1202 02:07:15.733785 22909 layer_factory.hpp:78] Creating layer conv5_3
I1202 02:07:15.733790 22909 net.cpp:67] Creating Layer conv5_3
I1202 02:07:15.733793 22909 net.cpp:394] conv5_3 <- conv5_2
I1202 02:07:15.733798 22909 net.cpp:356] conv5_3 -> conv5_3
I1202 02:07:15.733804 22909 net.cpp:96] Setting up conv5_3
I1202 02:07:15.791523 22909 net.cpp:103] Top shape: 32 512 14 14 (3211264)
I1202 02:07:15.791548 22909 layer_factory.hpp:78] Creating layer relu5_3
I1202 02:07:15.791556 22909 net.cpp:67] Creating Layer relu5_3
I1202 02:07:15.791560 22909 net.cpp:394] relu5_3 <- conv5_3
I1202 02:07:15.791570 22909 net.cpp:345] relu5_3 -> conv5_3 (in-place)
I1202 02:07:15.791578 22909 net.cpp:96] Setting up relu5_3
I1202 02:07:15.791584 22909 net.cpp:103] Top shape: 32 512 14 14 (3211264)
I1202 02:07:15.791596 22909 layer_factory.hpp:78] Creating layer pool5
I1202 02:07:15.791602 22909 net.cpp:67] Creating Layer pool5
I1202 02:07:15.791605 22909 net.cpp:394] pool5 <- conv5_3
I1202 02:07:15.791611 22909 net.cpp:356] pool5 -> pool5
I1202 02:07:15.791616 22909 net.cpp:96] Setting up pool5
I1202 02:07:15.791625 22909 net.cpp:103] Top shape: 32 512 7 7 (802816)
I1202 02:07:15.791627 22909 layer_factory.hpp:78] Creating layer fc6
I1202 02:07:15.791641 22909 net.cpp:67] Creating Layer fc6
I1202 02:07:15.791645 22909 net.cpp:394] fc6 <- pool5
I1202 02:07:15.791651 22909 net.cpp:356] fc6 -> fc6
I1202 02:07:15.791656 22909 net.cpp:96] Setting up fc6
I1202 02:07:18.290818 22909 net.cpp:103] Top shape: 32 4096 1 1 (131072)
I1202 02:07:18.290848 22909 layer_factory.hpp:78] Creating layer relu6
I1202 02:07:18.290858 22909 net.cpp:67] Creating Layer relu6
I1202 02:07:18.290863 22909 net.cpp:394] relu6 <- fc6
I1202 02:07:18.290870 22909 net.cpp:345] relu6 -> fc6 (in-place)
I1202 02:07:18.290876 22909 net.cpp:96] Setting up relu6
I1202 02:07:18.290891 22909 net.cpp:103] Top shape: 32 4096 1 1 (131072)
I1202 02:07:18.290894 22909 layer_factory.hpp:78] Creating layer drop6
I1202 02:07:18.290901 22909 net.cpp:67] Creating Layer drop6
I1202 02:07:18.290904 22909 net.cpp:394] drop6 <- fc6
I1202 02:07:18.290909 22909 net.cpp:345] drop6 -> fc6 (in-place)
I1202 02:07:18.290913 22909 net.cpp:96] Setting up drop6
I1202 02:07:18.290917 22909 net.cpp:103] Top shape: 32 4096 1 1 (131072)
I1202 02:07:18.290920 22909 layer_factory.hpp:78] Creating layer fc7
I1202 02:07:18.290926 22909 net.cpp:67] Creating Layer fc7
I1202 02:07:18.290930 22909 net.cpp:394] fc7 <- fc6
I1202 02:07:18.290935 22909 net.cpp:356] fc7 -> fc7
I1202 02:07:18.290940 22909 net.cpp:96] Setting up fc7
I1202 02:07:18.699445 22909 net.cpp:103] Top shape: 32 4096 1 1 (131072)
I1202 02:07:18.699477 22909 layer_factory.hpp:78] Creating layer relu7
I1202 02:07:18.699486 22909 net.cpp:67] Creating Layer relu7
I1202 02:07:18.699489 22909 net.cpp:394] relu7 <- fc7
I1202 02:07:18.699496 22909 net.cpp:345] relu7 -> fc7 (in-place)
I1202 02:07:18.699503 22909 net.cpp:96] Setting up relu7
I1202 02:07:18.699517 22909 net.cpp:103] Top shape: 32 4096 1 1 (131072)
I1202 02:07:18.699520 22909 layer_factory.hpp:78] Creating layer drop7
I1202 02:07:18.699527 22909 net.cpp:67] Creating Layer drop7
I1202 02:07:18.699532 22909 net.cpp:394] drop7 <- fc7
I1202 02:07:18.699535 22909 net.cpp:345] drop7 -> fc7 (in-place)
I1202 02:07:18.699540 22909 net.cpp:96] Setting up drop7
I1202 02:07:18.699543 22909 net.cpp:103] Top shape: 32 4096 1 1 (131072)
I1202 02:07:18.699547 22909 layer_factory.hpp:78] Creating layer fc8_2
I1202 02:07:18.699551 22909 net.cpp:67] Creating Layer fc8_2
I1202 02:07:18.699554 22909 net.cpp:394] fc8_2 <- fc7
I1202 02:07:18.699560 22909 net.cpp:356] fc8_2 -> fc8_2
I1202 02:07:18.699566 22909 net.cpp:96] Setting up fc8_2
I1202 02:07:18.699786 22909 net.cpp:103] Top shape: 32 2 1 1 (64)
I1202 02:07:18.699795 22909 layer_factory.hpp:78] Creating layer loss
I1202 02:07:18.699802 22909 net.cpp:67] Creating Layer loss
I1202 02:07:18.699805 22909 net.cpp:394] loss <- fc8_2
I1202 02:07:18.699810 22909 net.cpp:394] loss <- label
I1202 02:07:18.699818 22909 net.cpp:356] loss -> (automatic)
I1202 02:07:18.699822 22909 net.cpp:96] Setting up loss
I1202 02:07:18.699831 22909 net.cpp:103] Top shape: 1 1 1 1 (1)
I1202 02:07:18.699834 22909 net.cpp:109]     with loss weight 1
I1202 02:07:18.699869 22909 net.cpp:170] loss needs backward computation.
I1202 02:07:18.699873 22909 net.cpp:170] fc8_2 needs backward computation.
I1202 02:07:18.699878 22909 net.cpp:170] drop7 needs backward computation.
I1202 02:07:18.699880 22909 net.cpp:170] relu7 needs backward computation.
I1202 02:07:18.699883 22909 net.cpp:170] fc7 needs backward computation.
…
I1202 02:07:18.700911 22909 net.cpp:275] The NetState phase (1) differed from the phase (0) specified by a rule in layer data
I1202 02:07:18.701122 22909 net.cpp:39] Initializing net from parameters: 
name: "small"
layers {
  top: "data"
  top: "label"
  name: "data"
  type: IMAGE_DATA
  image_data_param {
    source: "/data/ad6813/devCaffe/caffe/data/scrape_blue/val.txt"
    batch_size: 8
    new_height: 256
    new_width: 256
  }
  include {
    phase: TEST
  }
  transform_param {
    mirror: true
    crop_size: 224
    mean_value: 86.752
    mean_value: 101.46
    mean_value: 104.6
  }
}
layers {
  bottom: "data"
  top: "conv1_1"
  name: "conv1_1"
  type: CONVOLUTION
  convolution_param {
    num_output: 64
    pad: 1
    kernel_size: 3
    weight_filler {
      type: "gaussian"
      std: 0.01
    }
    bias_filler {
      type: "constant"
      value: 0
    }
  }
}
layers {
  bottom: "conv1_1"
  top: "conv1_1"
  name: "relu1_1"
  type: RELU
}
layers {
  bottom: "conv1_1"
  top: "conv1_2"
  name: "conv1_2"
  type: CONVOLUTION
  convolution_param {
    num_output: 64
    pad: 1
    kernel_size: 3
    weight_filler {
      type: "gaussian"
      std: 0.01
    }
    bias_filler {
      type: "constant"
      value: 0
    }
  }
}
layers {
  bottom: "conv1_2"
  top: "conv1_2"
  name: "relu1_2"
  type: RELU
}
layers {
  bottom: "conv1_2"
  top: "pool1"
  name: "pool1"
  type: POOLING
  pooling_param {
    pool: MAX
    kernel_size: 2
    stride: 2
  }
}
layers {
  bottom: "pool1"
  top: "conv2_1"
  name: "conv2_1"
  type: CONVOLUTION
  convolution_param {
    num_output: 128
    pad: 1
    kernel_size: 3
    weight_filler {
      type: "gaussian"
      std: 0.01
    }
    bias_filler {
      type: "constant"
      value: 0
    }
  }
}
layers {
  bottom: "conv2_1"
  top: "conv2_1"
  name: "relu2_1"
  type: RELU
}
layers {
  bottom: "conv2_1"
  top: "conv2_2"
  name: "conv2_2"
  type: CONVOLUTION
  convolution_param {
    num_output: 128
    pad: 1
    kernel_size: 3
    weight_filler {
      type: "gaussian"
      std: 0.01
    }
    bias_filler {
      type: "constant"
      value: 0
    }
  }
}
layers {
  bottom: "conv2_2"
  top: "conv2_2"
  name: "relu2_2"
  type: RELU
}
layers {
  bottom: "conv2_2"
  top: "pool2"
  name: "pool2"
  type: POOLING
  pooling_param {
    pool: MAX
    kernel_size: 2
    stride: 2
  }
}
layers {
  bottom: "pool2"
  top: "conv3_1"
  name: "conv3_1"
  type: CONVOLUTION
  convolution_param {
    num_output: 256
    pad: 1
    kernel_size: 3
    weight_filler {
      type: "gaussian"
      std: 0.01
    }
    bias_filler {
      type: "constant"
      value: 0
    }
  }
}
layers {
  bottom: "conv3_1"
  top: "conv3_1"
  name: "relu3_1"
  type: RELU
}
layers {
  bottom: "conv3_1"
  top: "conv3_2"
  name: "conv3_2"
  type: CONVOLUTION
  convolution_param {
    num_output: 256
    pad: 1
    kernel_size: 3
    weight_filler {
      type: "gaussian"
      std: 0.01
    }
    bias_filler {
      type: "constant"
      value: 0
    }
  }
}
layers {
  bottom: "conv3_2"
  top: "conv3_2"
  name: "relu3_2"
  type: RELU
}
layers {
  bottom: "conv3_2"
  top: "conv3_3"
  name: "conv3_3"
  type: CONVOLUTION
  convolution_param {
    num_output: 256
    pad: 1
    kernel_size: 3
    weight_filler {
      type: "gaussian"
      std: 0.01
    }
    bias_filler {
      type: "constant"
      value: 0
    }
  }
}
layers {
  bottom: "conv3_3"
  top: "conv3_3"
  name: "relu3_3"
  type: RELU
}
layers {
  bottom: "conv3_3"
  top: "pool3"
  name: "pool3"
  type: POOLING
  pooling_param {
    pool: MAX
    kernel_size: 2
    stride: 2
  }
}
layers {
  bottom: "pool3"
  top: "conv4_1"
  name: "conv4_1"
  type: CONVOLUTION
  convolution_param {
    num_output: 512
    pad: 1
    kernel_size: 3
    weight_filler {
      type: "gaussian"
      std: 0.01
    }
    bias_filler {
      type: "constant"
      value: 0
    }
  }
}
layers {
  bottom: "conv4_1"
  top: "conv4_1"
  name: "relu4_1"
  type: RELU
}
layers {
  bottom: "conv4_1"
  top: "conv4_2"
  name: "conv4_2"
  type: CONVOLUTION
  convolution_param {
    num_output: 512
    pad: 1
    kernel_size: 3
    weight_filler {
      type: "gaussian"
      std: 0.01
    }
    bias_filler {
      type: "constant"
      value: 0
    }
  }
}
layers {
  bottom: "conv4_2"
  top: "conv4_2"
  name: "relu4_2"
  type: RELU
}
layers {
  bottom: "conv4_2"
  top: "conv4_3"
  name: "conv4_3"
  type: CONVOLUTION
  convolution_param {
    num_output: 512
    pad: 1
    kernel_size: 3
    weight_filler {
      type: "gaussian"
      std: 0.01
    }
    bias_filler {
      type: "constant"
      value: 0
    }
  }
}
layers {
  bottom: "conv4_3"
  top: "conv4_3"
  name: "relu4_3"
  type: RELU
}
layers {
  bottom: "conv4_3"
  top: "pool4"
  name: "pool4"
  type: POOLING
  pooling_param {
    pool: MAX
    kernel_size: 2
    stride: 2
  }
}
layers {
  bottom: "pool4"
  top: "conv5_1"
  name: "conv5_1"
  type: CONVOLUTION
  convolution_param {
    num_output: 512
    pad: 1
    kernel_size: 3
    weight_filler {
      type: "gaussian"
      std: 0.01
    }
    bias_filler {
      type: "constant"
      value: 0
    }
  }
}
layers {
  bottom: "conv5_1"
  top: "conv5_1"
  name: "relu5_1"
  type: RELU
}
layers {
  bottom: "conv5_1"
  top: "conv5_2"
  name: "conv5_2"
  type: CONVOLUTION
  convolution_param {
    num_output: 512
    pad: 1
    kernel_size: 3
    weight_filler {
      type: "gaussian"
      std: 0.01
    }
    bias_filler {
      type: "constant"
      value: 0
    }
  }
}
layers {
  bottom: "conv5_2"
  top: "conv5_2"
  name: "relu5_2"
  type: RELU
}
layers {
  bottom: "conv5_2"
  top: "conv5_3"
  name: "conv5_3"
  type: CONVOLUTION
  convolution_param {
    num_output: 512
    pad: 1
    kernel_size: 3
    weight_filler {
      type: "gaussian"
      std: 0.01
    }
    bias_filler {
      type: "constant"
      value: 0
    }
  }
}
layers {
  bottom: "conv5_3"
  top: "conv5_3"
  name: "relu5_3"
  type: RELU
}
layers {
  bottom: "conv5_3"
  top: "pool5"
  name: "pool5"
  type: POOLING
  pooling_param {
    pool: MAX
    kernel_size: 2
    stride: 2
  }
}
layers {
  bottom: "pool5"
  top: "fc6"
  name: "fc6"
  type: INNER_PRODUCT
  inner_product_param {
    num_output: 4096
    weight_filler {
      type: "gaussian"
      std: 0.01
    }
    bias_filler {
      type: "constant"
      value: 0
    }
  }
}
layers {
  bottom: "fc6"
  top: "fc6"
  name: "relu6"
  type: RELU
}
layers {
  bottom: "fc6"
  top: "fc6"
  name: "drop6"
  type: DROPOUT
  dropout_param {
    dropout_ratio: 0.5
  }
}
layers {
  bottom: "fc6"
  top: "fc7"
  name: "fc7"
  type: INNER_PRODUCT
  inner_product_param {
    num_output: 4096
    weight_filler {
      type: "gaussian"
      std: 0.01
    }
    bias_filler {
      type: "constant"
      value: 0
    }
  }
}
layers {
  bottom: "fc7"
  top: "fc7"
  name: "relu7"
  type: RELU
}
layers {
  bottom: "fc7"
  top: "fc7"
  name: "drop7"
  type: DROPOUT
  dropout_param {
    dropout_ratio: 0.5
  }
}
layers {
  bottom: "fc7"
  top: "fc8_2"
  name: "fc8_2"
  type: INNER_PRODUCT
  inner_product_param {
    num_output: 2
    weight_filler {
      type: "gaussian"
      std: 0.01
    }
    bias_filler {
      type: "constant"
      value: 0
    }
  }
}
layers {
  bottom: "fc8_2"
  bottom: "label"
  name: "loss"
  type: SOFTMAX_LOSS
}
layers {
  bottom: "fc8_2"
  bottom: "label"
  top: "accuracy"
  name: "accuracy"
  type: PER_CLASS_ACCURACY
  include {
    phase: TEST
  }
}
state {
  phase: TEST
}
I1202 02:07:18.701267 22909 layer_factory.hpp:78] Creating layer data
I1202 02:07:18.701277 22909 net.cpp:67] Creating Layer data
I1202 02:07:18.701280 22909 net.cpp:356] data -> data
I1202 02:07:18.701288 22909 net.cpp:356] data -> label
I1202 02:07:18.701293 22909 net.cpp:96] Setting up data
I1202 02:07:18.701297 22909 image_data_layer.cpp:34] Opening file /data/ad6813/devCaffe/caffe/data/scrape_blue/val.txt
I1202 02:07:18.702867 22909 image_data_layer.cpp:49] A total of 3963 images.
I1202 02:07:18.709892 22909 image_data_layer.cpp:78] output data size: 8,3,224,224
I1202 02:07:18.710794 22909 net.cpp:103] Top shape: 8 3 224 224 (1204224)
I1202 02:07:18.710803 22909 net.cpp:103] Top shape: 8 1 1 1 (8)
I1202 02:07:18.710808 22909 layer_factory.hpp:78] Creating layer label_data_1_split
I1202 02:07:18.710819 22909 net.cpp:67] Creating Layer label_data_1_split
I1202 02:07:18.710824 22909 net.cpp:394] label_data_1_split <- label
I1202 02:07:18.710830 22909 net.cpp:356] label_data_1_split -> label_data_1_split_0
I1202 02:07:18.710839 22909 net.cpp:356] label_data_1_split -> label_data_1_split_1
I1202 02:07:18.710844 22909 net.cpp:96] Setting up label_data_1_split
I1202 02:07:18.710849 22909 net.cpp:103] Top shape: 8 1 1 1 (8)
I1202 02:07:18.710851 22909 net.cpp:103] Top shape: 8 1 1 1 (8)
I1202 02:07:18.710855 22909 layer_factory.hpp:78] Creating layer conv1_1
I1202 02:07:18.710860 22909 net.cpp:67] Creating Layer conv1_1
I1202 02:07:18.710863 22909 net.cpp:394] conv1_1 <- data
I1202 02:07:18.710868 22909 net.cpp:356] conv1_1 -> conv1_1
I1202 02:07:18.710875 22909 net.cpp:96] Setting up conv1_1
I1202 02:07:18.711036 22909 net.cpp:103] Top shape: 8 64 224 224 (25690112)
I1202 02:07:18.711050 22909 layer_factory.hpp:78] Creating layer relu1_1
I1202 02:07:18.711055 22909 net.cpp:67] Creating Layer relu1_1
I1202 02:07:18.711058 22909 net.cpp:394] relu1_1 <- conv1_1
I1202 02:07:18.711063 22909 net.cpp:345] relu1_1 -> conv1_1 (in-place)
I1202 02:07:18.711074 22909 net.cpp:96] Setting up relu1_1
I1202 02:07:18.711081 22909 net.cpp:103] Top shape: 8 64 224 224 (25690112)
I1202 02:07:18.711083 22909 layer_factory.hpp:78] Creating layer conv1_2
I1202 02:07:18.711089 22909 net.cpp:67] Creating Layer conv1_2
I1202 02:07:18.711092 22909 net.cpp:394] conv1_2 <- conv1_1
I1202 02:07:18.711097 22909 net.cpp:356] conv1_2 -> conv1_2
I1202 02:07:18.711102 22909 net.cpp:96] Setting up conv1_2
I1202 02:07:18.712105 22909 net.cpp:103] Top shape: 8 64 224 224 (25690112)
I1202 02:07:18.712117 22909 layer_factory.hpp:78] Creating layer relu1_2
I1202 02:07:18.712122 22909 net.cpp:67] Creating Layer relu1_2
I1202 02:07:18.712126 22909 net.cpp:394] relu1_2 <- conv1_2
I1202 02:07:18.712129 22909 net.cpp:345] relu1_2 -> conv1_2 (in-place)
I1202 02:07:18.712134 22909 net.cpp:96] Setting up relu1_2
I1202 02:07:18.712139 22909 net.cpp:103] Top shape: 8 64 224 224 (25690112)
I1202 02:07:18.712142 22909 layer_factory.hpp:78] Creating layer pool1
I1202 02:07:18.712147 22909 net.cpp:67] Creating Layer pool1
I1202 02:07:18.712151 22909 net.cpp:394] pool1 <- conv1_2
I1202 02:07:18.712154 22909 net.cpp:356] pool1 -> pool1
I1202 02:07:18.712159 22909 net.cpp:96] Setting up pool1
I1202 02:07:18.712167 22909 net.cpp:103] Top shape: 8 64 112 112 (6422528)
I1202 02:07:18.712169 22909 layer_factory.hpp:78] Creating layer conv2_1
I1202 02:07:18.712173 22909 net.cpp:67] Creating Layer conv2_1
I1202 02:07:18.712177 22909 net.cpp:394] conv2_1 <- pool1
I1202 02:07:18.712182 22909 net.cpp:356] conv2_1 -> conv2_1
I1202 02:07:18.712185 22909 net.cpp:96] Setting up conv2_1
I1202 02:07:18.714190 22909 net.cpp:103] Top shape: 8 128 112 112 (12845056)
I1202 02:07:18.714203 22909 layer_factory.hpp:78] Creating layer relu2_1
I1202 02:07:18.714210 22909 net.cpp:67] Creating Layer relu2_1
I1202 02:07:18.714213 22909 net.cpp:394] relu2_1 <- conv2_1
I1202 02:07:18.714217 22909 net.cpp:345] relu2_1 -> conv2_1 (in-place)
I1202 02:07:18.714222 22909 net.cpp:96] Setting up relu2_1
I1202 02:07:18.714227 22909 net.cpp:103] Top shape: 8 128 112 112 (12845056)
I1202 02:07:18.714231 22909 layer_factory.hpp:78] Creating layer conv2_2
I1202 02:07:18.714236 22909 net.cpp:67] Creating Layer conv2_2
I1202 02:07:18.714238 22909 net.cpp:394] conv2_2 <- conv2_1
I1202 02:07:18.714242 22909 net.cpp:356] conv2_2 -> conv2_2
I1202 02:07:18.714248 22909 net.cpp:96] Setting up conv2_2
I1202 02:07:18.717895 22909 net.cpp:103] Top shape: 8 128 112 112 (12845056)
I1202 02:07:18.717906 22909 layer_factory.hpp:78] Creating layer relu2_2
I1202 02:07:18.717911 22909 net.cpp:67] Creating Layer relu2_2
I1202 02:07:18.717914 22909 net.cpp:394] relu2_2 <- conv2_2
I1202 02:07:18.717918 22909 net.cpp:345] relu2_2 -> conv2_2 (in-place)
I1202 02:07:18.717923 22909 net.cpp:96] Setting up relu2_2
I1202 02:07:18.717927 22909 net.cpp:103] Top shape: 8 128 112 112 (12845056)
I1202 02:07:18.717931 22909 layer_factory.hpp:78] Creating layer pool2
I1202 02:07:18.717936 22909 net.cpp:67] Creating Layer pool2
I1202 02:07:18.717938 22909 net.cpp:394] pool2 <- conv2_2
I1202 02:07:18.717942 22909 net.cpp:356] pool2 -> pool2
I1202 02:07:18.717947 22909 net.cpp:96] Setting up pool2
I1202 02:07:18.717952 22909 net.cpp:103] Top shape: 8 128 56 56 (3211264)
I1202 02:07:18.717955 22909 layer_factory.hpp:78] Creating layer conv3_1
I1202 02:07:18.717960 22909 net.cpp:67] Creating Layer conv3_1
I1202 02:07:18.717963 22909 net.cpp:394] conv3_1 <- pool2
I1202 02:07:18.717968 22909 net.cpp:356] conv3_1 -> conv3_1
I1202 02:07:18.717973 22909 net.cpp:96] Setting up conv3_1
I1202 02:07:18.725209 22909 net.cpp:103] Top shape: 8 256 56 56 (6422528)
I1202 02:07:18.725224 22909 layer_factory.hpp:78] Creating layer relu3_1
I1202 02:07:18.725229 22909 net.cpp:67] Creating Layer relu3_1
I1202 02:07:18.725232 22909 net.cpp:394] relu3_1 <- conv3_1
I1202 02:07:18.725236 22909 net.cpp:345] relu3_1 -> conv3_1 (in-place)
I1202 02:07:18.725241 22909 net.cpp:96] Setting up relu3_1
I1202 02:07:18.725246 22909 net.cpp:103] Top shape: 8 256 56 56 (6422528)
I1202 02:07:18.725250 22909 layer_factory.hpp:78] Creating layer conv3_2
I1202 02:07:18.725260 22909 net.cpp:67] Creating Layer conv3_2
I1202 02:07:18.725263 22909 net.cpp:394] conv3_2 <- conv3_1
I1202 02:07:18.725268 22909 net.cpp:356] conv3_2 -> conv3_2
I1202 02:07:18.725273 22909 net.cpp:96] Setting up conv3_2
I1202 02:07:18.739917 22909 net.cpp:103] Top shape: 8 256 56 56 (6422528)
I1202 02:07:18.739941 22909 layer_factory.hpp:78] Creating layer relu3_2
I1202 02:07:18.739949 22909 net.cpp:67] Creating Layer relu3_2
I1202 02:07:18.739954 22909 net.cpp:394] relu3_2 <- conv3_2
I1202 02:07:18.739959 22909 net.cpp:345] relu3_2 -> conv3_2 (in-place)
I1202 02:07:18.739966 22909 net.cpp:96] Setting up relu3_2
I1202 02:07:18.739971 22909 net.cpp:103] Top shape: 8 256 56 56 (6422528)
I1202 02:07:18.739975 22909 layer_factory.hpp:78] Creating layer conv3_3
I1202 02:07:18.739984 22909 net.cpp:67] Creating Layer conv3_3
I1202 02:07:18.739987 22909 net.cpp:394] conv3_3 <- conv3_2
I1202 02:07:18.739992 22909 net.cpp:356] conv3_3 -> conv3_3
I1202 02:07:18.739998 22909 net.cpp:96] Setting up conv3_3
I1202 02:07:18.754780 22909 net.cpp:103] Top shape: 8 256 56 56 (6422528)
I1202 02:07:18.754796 22909 layer_factory.hpp:78] Creating layer relu3_3
I1202 02:07:18.754803 22909 net.cpp:67] Creating Layer relu3_3
I1202 02:07:18.754807 22909 net.cpp:394] relu3_3 <- conv3_3
I1202 02:07:18.754812 22909 net.cpp:345] relu3_3 -> conv3_3 (in-place)
I1202 02:07:18.754818 22909 net.cpp:96] Setting up relu3_3
I1202 02:07:18.754823 22909 net.cpp:103] Top shape: 8 256 56 56 (6422528)
I1202 02:07:18.754827 22909 layer_factory.hpp:78] Creating layer pool3
I1202 02:07:18.754833 22909 net.cpp:67] Creating Layer pool3
I1202 02:07:18.754837 22909 net.cpp:394] pool3 <- conv3_3
I1202 02:07:18.754842 22909 net.cpp:356] pool3 -> pool3
I1202 02:07:18.754847 22909 net.cpp:96] Setting up pool3
I1202 02:07:18.754853 22909 net.cpp:103] Top shape: 8 256 28 28 (1605632)
I1202 02:07:18.754856 22909 layer_factory.hpp:78] Creating layer conv4_1
I1202 02:07:18.754861 22909 net.cpp:67] Creating Layer conv4_1
I1202 02:07:18.754864 22909 net.cpp:394] conv4_1 <- pool3
I1202 02:07:18.754870 22909 net.cpp:356] conv4_1 -> conv4_1
I1202 02:07:18.754875 22909 net.cpp:96] Setting up conv4_1
I1202 02:07:18.784207 22909 net.cpp:103] Top shape: 8 512 28 28 (3211264)
I1202 02:07:18.784230 22909 layer_factory.hpp:78] Creating layer relu4_1
I1202 02:07:18.784240 22909 net.cpp:67] Creating Layer relu4_1
I1202 02:07:18.784245 22909 net.cpp:394] relu4_1 <- conv4_1
I1202 02:07:18.784250 22909 net.cpp:345] relu4_1 -> conv4_1 (in-place)
I1202 02:07:18.784257 22909 net.cpp:96] Setting up relu4_1
I1202 02:07:18.784263 22909 net.cpp:103] Top shape: 8 512 28 28 (3211264)
I1202 02:07:18.784266 22909 layer_factory.hpp:78] Creating layer conv4_2
I1202 02:07:18.784273 22909 net.cpp:67] Creating Layer conv4_2
I1202 02:07:18.784276 22909 net.cpp:394] conv4_2 <- conv4_1
I1202 02:07:18.784281 22909 net.cpp:356] conv4_2 -> conv4_2
I1202 02:07:18.784287 22909 net.cpp:96] Setting up conv4_2
I1202 02:07:18.842049 22909 net.cpp:103] Top shape: 8 512 28 28 (3211264)
I1202 02:07:18.842079 22909 layer_factory.hpp:78] Creating layer relu4_2
I1202 02:07:18.842088 22909 net.cpp:67] Creating Layer relu4_2
I1202 02:07:18.842092 22909 net.cpp:394] relu4_2 <- conv4_2
I1202 02:07:18.842098 22909 net.cpp:345] relu4_2 -> conv4_2 (in-place)
I1202 02:07:18.842104 22909 net.cpp:96] Setting up relu4_2
I1202 02:07:18.842110 22909 net.cpp:103] Top shape: 8 512 28 28 (3211264)
I1202 02:07:18.842113 22909 layer_factory.hpp:78] Creating layer conv4_3
I1202 02:07:18.842119 22909 net.cpp:67] Creating Layer conv4_3
I1202 02:07:18.842123 22909 net.cpp:394] conv4_3 <- conv4_2
I1202 02:07:18.842129 22909 net.cpp:356] conv4_3 -> conv4_3
I1202 02:07:18.842136 22909 net.cpp:96] Setting up conv4_3
I1202 02:07:18.900018 22909 net.cpp:103] Top shape: 8 512 28 28 (3211264)
I1202 02:07:18.900043 22909 layer_factory.hpp:78] Creating layer relu4_3
I1202 02:07:18.900051 22909 net.cpp:67] Creating Layer relu4_3
I1202 02:07:18.900056 22909 net.cpp:394] relu4_3 <- conv4_3
I1202 02:07:18.900063 22909 net.cpp:345] relu4_3 -> conv4_3 (in-place)
I1202 02:07:18.900077 22909 net.cpp:96] Setting up relu4_3
I1202 02:07:18.900084 22909 net.cpp:103] Top shape: 8 512 28 28 (3211264)
I1202 02:07:18.900087 22909 layer_factory.hpp:78] Creating layer pool4
I1202 02:07:18.900092 22909 net.cpp:67] Creating Layer pool4
I1202 02:07:18.900095 22909 net.cpp:394] pool4 <- conv4_3
I1202 02:07:18.900101 22909 net.cpp:356] pool4 -> pool4
I1202 02:07:18.900107 22909 net.cpp:96] Setting up pool4
I1202 02:07:18.900115 22909 net.cpp:103] Top shape: 8 512 14 14 (802816)
I1202 02:07:18.900118 22909 layer_factory.hpp:78] Creating layer conv5_1
I1202 02:07:18.900123 22909 net.cpp:67] Creating Layer conv5_1
I1202 02:07:18.900126 22909 net.cpp:394] conv5_1 <- pool4
I1202 02:07:18.900132 22909 net.cpp:356] conv5_1 -> conv5_1
I1202 02:07:18.900137 22909 net.cpp:96] Setting up conv5_1
I1202 02:07:18.957769 22909 net.cpp:103] Top shape: 8 512 14 14 (802816)
I1202 02:07:18.957795 22909 layer_factory.hpp:78] Creating layer relu5_1
I1202 02:07:18.957803 22909 net.cpp:67] Creating Layer relu5_1
I1202 02:07:18.957808 22909 net.cpp:394] relu5_1 <- conv5_1
I1202 02:07:18.957814 22909 net.cpp:345] relu5_1 -> conv5_1 (in-place)
I1202 02:07:18.957820 22909 net.cpp:96] Setting up relu5_1
I1202 02:07:18.957826 22909 net.cpp:103] Top shape: 8 512 14 14 (802816)
I1202 02:07:18.957829 22909 layer_factory.hpp:78] Creating layer conv5_2
I1202 02:07:18.957836 22909 net.cpp:67] Creating Layer conv5_2
I1202 02:07:18.957839 22909 net.cpp:394] conv5_2 <- conv5_1
I1202 02:07:18.957844 22909 net.cpp:356] conv5_2 -> conv5_2
I1202 02:07:18.957850 22909 net.cpp:96] Setting up conv5_2
I1202 02:07:19.015744 22909 net.cpp:103] Top shape: 8 512 14 14 (802816)
I1202 02:07:19.015769 22909 layer_factory.hpp:78] Creating layer relu5_2
I1202 02:07:19.015777 22909 net.cpp:67] Creating Layer relu5_2
I1202 02:07:19.015781 22909 net.cpp:394] relu5_2 <- conv5_2
I1202 02:07:19.015789 22909 net.cpp:345] relu5_2 -> conv5_2 (in-place)
I1202 02:07:19.015796 22909 net.cpp:96] Setting up relu5_2
I1202 02:07:19.015801 22909 net.cpp:103] Top shape: 8 512 14 14 (802816)
I1202 02:07:19.015805 22909 layer_factory.hpp:78] Creating layer conv5_3
I1202 02:07:19.015810 22909 net.cpp:67] Creating Layer conv5_3
I1202 02:07:19.015813 22909 net.cpp:394] conv5_3 <- conv5_2
I1202 02:07:19.015818 22909 net.cpp:356] conv5_3 -> conv5_3
I1202 02:07:19.015825 22909 net.cpp:96] Setting up conv5_3
I1202 02:07:19.073603 22909 net.cpp:103] Top shape: 8 512 14 14 (802816)
I1202 02:07:19.073629 22909 layer_factory.hpp:78] Creating layer relu5_3
I1202 02:07:19.073637 22909 net.cpp:67] Creating Layer relu5_3
I1202 02:07:19.073642 22909 net.cpp:394] relu5_3 <- conv5_3
I1202 02:07:19.073650 22909 net.cpp:345] relu5_3 -> conv5_3 (in-place)
I1202 02:07:19.073658 22909 net.cpp:96] Setting up relu5_3
I1202 02:07:19.073663 22909 net.cpp:103] Top shape: 8 512 14 14 (802816)
I1202 02:07:19.073668 22909 layer_factory.hpp:78] Creating layer pool5
I1202 02:07:19.073678 22909 net.cpp:67] Creating Layer pool5
I1202 02:07:19.073680 22909 net.cpp:394] pool5 <- conv5_3
I1202 02:07:19.073685 22909 net.cpp:356] pool5 -> pool5
I1202 02:07:19.073690 22909 net.cpp:96] Setting up pool5
I1202 02:07:19.073698 22909 net.cpp:103] Top shape: 8 512 7 7 (200704)
I1202 02:07:19.073703 22909 layer_factory.hpp:78] Creating layer fc6
I1202 02:07:19.073707 22909 net.cpp:67] Creating Layer fc6
I1202 02:07:19.073710 22909 net.cpp:394] fc6 <- pool5
I1202 02:07:19.073716 22909 net.cpp:356] fc6 -> fc6
I1202 02:07:19.073722 22909 net.cpp:96] Setting up fc6
I1202 02:07:21.572788 22909 net.cpp:103] Top shape: 8 4096 1 1 (32768)
I1202 02:07:21.572815 22909 layer_factory.hpp:78] Creating layer relu6
I1202 02:07:21.572824 22909 net.cpp:67] Creating Layer relu6
I1202 02:07:21.572830 22909 net.cpp:394] relu6 <- fc6
I1202 02:07:21.572837 22909 net.cpp:345] relu6 -> fc6 (in-place)
I1202 02:07:21.572844 22909 net.cpp:96] Setting up relu6
I1202 02:07:21.572857 22909 net.cpp:103] Top shape: 8 4096 1 1 (32768)
I1202 02:07:21.572861 22909 layer_factory.hpp:78] Creating layer drop6
I1202 02:07:21.572877 22909 net.cpp:67] Creating Layer drop6
I1202 02:07:21.572880 22909 net.cpp:394] drop6 <- fc6
I1202 02:07:21.572885 22909 net.cpp:345] drop6 -> fc6 (in-place)
I1202 02:07:21.572888 22909 net.cpp:96] Setting up drop6
I1202 02:07:21.572892 22909 net.cpp:103] Top shape: 8 4096 1 1 (32768)
I1202 02:07:21.572896 22909 layer_factory.hpp:78] Creating layer fc7
I1202 02:07:21.572906 22909 net.cpp:67] Creating Layer fc7
I1202 02:07:21.572908 22909 net.cpp:394] fc7 <- fc6
I1202 02:07:21.572913 22909 net.cpp:356] fc7 -> fc7
I1202 02:07:21.572919 22909 net.cpp:96] Setting up fc7
I1202 02:07:21.981528 22909 net.cpp:103] Top shape: 8 4096 1 1 (32768)
I1202 02:07:21.981556 22909 layer_factory.hpp:78] Creating layer relu7
I1202 02:07:21.981564 22909 net.cpp:67] Creating Layer relu7
I1202 02:07:21.981570 22909 net.cpp:394] relu7 <- fc7
I1202 02:07:21.981575 22909 net.cpp:345] relu7 -> fc7 (in-place)
I1202 02:07:21.981582 22909 net.cpp:96] Setting up relu7
I1202 02:07:21.981596 22909 net.cpp:103] Top shape: 8 4096 1 1 (32768)
I1202 02:07:21.981600 22909 layer_factory.hpp:78] Creating layer drop7
I1202 02:07:21.981606 22909 net.cpp:67] Creating Layer drop7
I1202 02:07:21.981608 22909 net.cpp:394] drop7 <- fc7
I1202 02:07:21.981614 22909 net.cpp:345] drop7 -> fc7 (in-place)
I1202 02:07:21.981618 22909 net.cpp:96] Setting up drop7
I1202 02:07:21.981622 22909 net.cpp:103] Top shape: 8 4096 1 1 (32768)
I1202 02:07:21.981626 22909 layer_factory.hpp:78] Creating layer fc8_2
I1202 02:07:21.981631 22909 net.cpp:67] Creating Layer fc8_2
I1202 02:07:21.981633 22909 net.cpp:394] fc8_2 <- fc7
I1202 02:07:21.981639 22909 net.cpp:356] fc8_2 -> fc8_2
I1202 02:07:21.981647 22909 net.cpp:96] Setting up fc8_2
I1202 02:07:21.981869 22909 net.cpp:103] Top shape: 8 2 1 1 (16)
I1202 02:07:21.981878 22909 layer_factory.hpp:78] Creating layer fc8_2_fc8_2_0_split
I1202 02:07:21.981883 22909 net.cpp:67] Creating Layer fc8_2_fc8_2_0_split
I1202 02:07:21.981885 22909 net.cpp:394] fc8_2_fc8_2_0_split <- fc8_2
I1202 02:07:21.981890 22909 net.cpp:356] fc8_2_fc8_2_0_split -> fc8_2_fc8_2_0_split_0
I1202 02:07:21.981896 22909 net.cpp:356] fc8_2_fc8_2_0_split -> fc8_2_fc8_2_0_split_1
I1202 02:07:21.981901 22909 net.cpp:96] Setting up fc8_2_fc8_2_0_split
I1202 02:07:21.981909 22909 net.cpp:103] Top shape: 8 2 1 1 (16)
I1202 02:07:21.981912 22909 net.cpp:103] Top shape: 8 2 1 1 (16)
I1202 02:07:21.981915 22909 layer_factory.hpp:78] Creating layer loss
I1202 02:07:21.981921 22909 net.cpp:67] Creating Layer loss
I1202 02:07:21.981925 22909 net.cpp:394] loss <- fc8_2_fc8_2_0_split_0
I1202 02:07:21.981928 22909 net.cpp:394] loss <- label_data_1_split_0
I1202 02:07:21.981933 22909 net.cpp:356] loss -> (automatic)
I1202 02:07:21.981937 22909 net.cpp:96] Setting up loss
I1202 02:07:21.981950 22909 net.cpp:103] Top shape: 1 1 1 1 (1)
I1202 02:07:21.981953 22909 net.cpp:109]     with loss weight 1
I1202 02:07:21.981967 22909 layer_factory.hpp:78] Creating layer accuracy
I1202 02:07:21.981974 22909 net.cpp:67] Creating Layer accuracy
I1202 02:07:21.981977 22909 net.cpp:394] accuracy <- fc8_2_fc8_2_0_split_1
I1202 02:07:21.981981 22909 net.cpp:394] accuracy <- label_data_1_split_1
I1202 02:07:21.981986 22909 net.cpp:356] accuracy -> accuracy
I1202 02:07:21.981997 22909 net.cpp:96] Setting up accuracy
I1202 02:07:21.982007 22909 net.cpp:103] Top shape: 1 1 1 4 (4)
I1202 02:07:21.982012 22909 net.cpp:172] accuracy does not need backward computation.
I1202 02:07:21.982013 22909 net.cpp:170] loss needs backward computation.
I1202 02:07:21.982017 22909 net.cpp:170] fc8_2_fc8_2_0_split needs backward computation.
I1202 02:07:21.982019 22909 net.cpp:170] fc8_2 needs backward computation.
I1202 02:07:21.982023 22909 net.cpp:170] drop7 needs backward computation.
…
