…
I1126 11:31:11.009054 21365 net.cpp:275] The NetState phase (0) differed from the phase (1) specified by a rule in layer accuracy
I1126 11:31:11.009243 21365 net.cpp:39] Initializing net from parameters: 
name: "small"
layers {
  top: "data"
  top: "label"
  name: "data"
  type: IMAGE_DATA
  image_data_param {
    source: "/data/ad6813/devCaffe/caffe/data/scrape_blue/train.txt"
    batch_size: 32
    new_height: 256
    new_width: 256
  }
  include {
    phase: TRAIN
  }
  transform_param {
    mirror: true
    crop_size: 224
    mean_value: 86.752
    mean_value: 101.46
    mean_value: 104.6
  }
}
layers {
  bottom: "data"
  top: "conv1_1"
  name: "conv1_1"
  type: CONVOLUTION
  convolution_param {
    num_output: 64
    pad: 1
    kernel_size: 3
    weight_filler {
      type: "gaussian"
      std: 0.01
    }
    bias_filler {
      type: "constant"
      value: 0
    }
  }
}
layers {
  bottom: "conv1_1"
  top: "conv1_1"
  name: "relu1_1"
  type: RELU
}
layers {
  bottom: "conv1_1"
  top: "conv1_2"
  name: "conv1_2"
  type: CONVOLUTION
  convolution_param {
    num_output: 64
    pad: 1
    kernel_size: 3
    weight_filler {
      type: "gaussian"
      std: 0.01
    }
    bias_filler {
      type: "constant"
      value: 0
    }
  }
}
layers {
  bottom: "conv1_2"
  top: "conv1_2"
  name: "relu1_2"
  type: RELU
}
layers {
  bottom: "conv1_2"
  top: "pool1"
  name: "pool1"
  type: POOLING
  pooling_param {
    pool: MAX
    kernel_size: 2
    stride: 2
  }
}
layers {
  bottom: "pool1"
  top: "conv2_1"
  name: "conv2_1"
  type: CONVOLUTION
  convolution_param {
    num_output: 128
    pad: 1
    kernel_size: 3
    weight_filler {
      type: "gaussian"
      std: 0.01
    }
    bias_filler {
      type: "constant"
      value: 0
    }
  }
}
layers {
  bottom: "conv2_1"
  top: "conv2_1"
  name: "relu2_1"
  type: RELU
}
layers {
  bottom: "conv2_1"
  top: "conv2_2"
  name: "conv2_2"
  type: CONVOLUTION
  convolution_param {
    num_output: 128
    pad: 1
    kernel_size: 3
    weight_filler {
      type: "gaussian"
      std: 0.01
    }
    bias_filler {
      type: "constant"
      value: 0
    }
  }
}
layers {
  bottom: "conv2_2"
  top: "conv2_2"
  name: "relu2_2"
  type: RELU
}
layers {
  bottom: "conv2_2"
  top: "pool2"
  name: "pool2"
  type: POOLING
  pooling_param {
    pool: MAX
    kernel_size: 2
    stride: 2
  }
}
layers {
  bottom: "pool2"
  top: "conv3_1"
  name: "conv3_1"
  type: CONVOLUTION
  convolution_param {
    num_output: 256
    pad: 1
    kernel_size: 3
    weight_filler {
      type: "gaussian"
      std: 0.01
    }
    bias_filler {
      type: "constant"
      value: 0
    }
  }
}
layers {
  bottom: "conv3_1"
  top: "conv3_1"
  name: "relu3_1"
  type: RELU
}
layers {
  bottom: "conv3_1"
  top: "conv3_2"
  name: "conv3_2"
  type: CONVOLUTION
  convolution_param {
    num_output: 256
    pad: 1
    kernel_size: 3
    weight_filler {
      type: "gaussian"
      std: 0.01
    }
    bias_filler {
      type: "constant"
      value: 0
    }
  }
}
layers {
  bottom: "conv3_2"
  top: "conv3_2"
  name: "relu3_2"
  type: RELU
}
layers {
  bottom: "conv3_2"
  top: "conv3_3"
  name: "conv3_3"
  type: CONVOLUTION
  convolution_param {
    num_output: 256
    pad: 1
    kernel_size: 3
    weight_filler {
      type: "gaussian"
      std: 0.01
    }
    bias_filler {
      type: "constant"
      value: 0
    }
  }
}
layers {
  bottom: "conv3_3"
  top: "conv3_3"
  name: "relu3_3"
  type: RELU
}
layers {
  bottom: "conv3_3"
  top: "pool3"
  name: "pool3"
  type: POOLING
  pooling_param {
    pool: MAX
    kernel_size: 2
    stride: 2
  }
}
layers {
  bottom: "pool3"
  top: "conv4_1"
  name: "conv4_1"
  type: CONVOLUTION
  convolution_param {
    num_output: 512
    pad: 1
    kernel_size: 3
    weight_filler {
      type: "gaussian"
      std: 0.01
    }
    bias_filler {
      type: "constant"
      value: 0
    }
  }
}
layers {
  bottom: "conv4_1"
  top: "conv4_1"
  name: "relu4_1"
  type: RELU
}
layers {
  bottom: "conv4_1"
  top: "conv4_2"
  name: "conv4_2"
  type: CONVOLUTION
  convolution_param {
    num_output: 512
    pad: 1
    kernel_size: 3
    weight_filler {
      type: "gaussian"
      std: 0.01
    }
    bias_filler {
      type: "constant"
      value: 0
    }
  }
}
layers {
  bottom: "conv4_2"
  top: "conv4_2"
  name: "relu4_2"
  type: RELU
}
layers {
  bottom: "conv4_2"
  top: "conv4_3"
  name: "conv4_3"
  type: CONVOLUTION
  convolution_param {
    num_output: 512
    pad: 1
    kernel_size: 3
    weight_filler {
      type: "gaussian"
      std: 0.01
    }
    bias_filler {
      type: "constant"
      value: 0
    }
  }
}
layers {
  bottom: "conv4_3"
  top: "conv4_3"
  name: "relu4_3"
  type: RELU
}
layers {
  bottom: "conv4_3"
  top: "pool4"
  name: "pool4"
  type: POOLING
  pooling_param {
    pool: MAX
    kernel_size: 2
    stride: 2
  }
}
layers {
  bottom: "pool4"
  top: "conv5_1"
  name: "conv5_1"
  type: CONVOLUTION
  convolution_param {
    num_output: 512
    pad: 1
    kernel_size: 3
    weight_filler {
      type: "gaussian"
      std: 0.01
    }
    bias_filler {
      type: "constant"
      value: 0
    }
  }
}
layers {
  bottom: "conv5_1"
  top: "conv5_1"
  name: "relu5_1"
  type: RELU
}
layers {
  bottom: "conv5_1"
  top: "conv5_2"
  name: "conv5_2"
  type: CONVOLUTION
  convolution_param {
    num_output: 512
    pad: 1
    kernel_size: 3
    weight_filler {
      type: "gaussian"
      std: 0.01
    }
    bias_filler {
      type: "constant"
      value: 0
    }
  }
}
layers {
  bottom: "conv5_2"
  top: "conv5_2"
  name: "relu5_2"
  type: RELU
}
layers {
  bottom: "conv5_2"
  top: "conv5_3"
  name: "conv5_3"
  type: CONVOLUTION
  convolution_param {
    num_output: 512
    pad: 1
    kernel_size: 3
    weight_filler {
      type: "gaussian"
      std: 0.01
    }
    bias_filler {
      type: "constant"
      value: 0
    }
  }
}
layers {
  bottom: "conv5_3"
  top: "conv5_3"
  name: "relu5_3"
  type: RELU
}
layers {
  bottom: "conv5_3"
  top: "pool5"
  name: "pool5"
  type: POOLING
  pooling_param {
    pool: MAX
    kernel_size: 2
    stride: 2
  }
}
layers {
  bottom: "pool5"
  top: "fc6"
  name: "fc6"
  type: INNER_PRODUCT
  inner_product_param {
    num_output: 4096
    weight_filler {
      type: "gaussian"
      std: 0.01
    }
    bias_filler {
      type: "constant"
      value: 0
    }
  }
}
layers {
  bottom: "fc6"
  top: "fc6"
  name: "relu6"
  type: RELU
}
layers {
  bottom: "fc6"
  top: "fc6"
  name: "drop6"
  type: DROPOUT
  dropout_param {
    dropout_ratio: 0.5
  }
}
layers {
  bottom: "fc6"
  top: "fc7"
  name: "fc7"
  type: INNER_PRODUCT
  inner_product_param {
    num_output: 4096
    weight_filler {
      type: "gaussian"
      std: 0.01
    }
    bias_filler {
      type: "constant"
      value: 0
    }
  }
}
layers {
  bottom: "fc7"
  top: "fc7"
  name: "relu7"
  type: RELU
}
layers {
  bottom: "fc7"
  top: "fc7"
  name: "drop7"
  type: DROPOUT
  dropout_param {
    dropout_ratio: 0.5
  }
}
layers {
  bottom: "fc7"
  top: "fc8_2"
  name: "fc8_2"
  type: INNER_PRODUCT
  inner_product_param {
    num_output: 2
    weight_filler {
      type: "gaussian"
      std: 0.01
    }
    bias_filler {
      type: "constant"
      value: 0
    }
  }
}
layers {
  bottom: "fc8_2"
  bottom: "label"
  name: "loss"
  type: SOFTMAX_LOSS
}
state {
  phase: TRAIN
}
I1126 11:31:11.009363 21365 layer_factory.hpp:78] Creating layer data
I1126 11:31:11.009382 21365 net.cpp:67] Creating Layer data
I1126 11:31:11.009390 21365 net.cpp:356] data -> data
I1126 11:31:11.009410 21365 net.cpp:356] data -> label
I1126 11:31:11.009419 21365 net.cpp:96] Setting up data
I1126 11:31:11.009426 21365 image_data_layer.cpp:34] Opening file /data/ad6813/devCaffe/caffe/data/scrape_blue/train.txt
I1126 11:31:11.023928 21365 image_data_layer.cpp:49] A total of 40401 images.
I1126 11:31:11.033828 21365 image_data_layer.cpp:78] output data size: 32,3,224,224
I1126 11:31:11.036607 21365 net.cpp:103] Top shape: 32 3 224 224 (4816896)
I1126 11:31:11.036634 21365 net.cpp:103] Top shape: 32 1 1 1 (32)
I1126 11:31:11.036639 21365 layer_factory.hpp:78] Creating layer conv1_1
I1126 11:31:11.036672 21365 net.cpp:67] Creating Layer conv1_1
I1126 11:31:11.036677 21365 net.cpp:394] conv1_1 <- data
I1126 11:31:11.036692 21365 net.cpp:356] conv1_1 -> conv1_1
I1126 11:31:11.036705 21365 net.cpp:96] Setting up conv1_1
I1126 11:31:11.052736 21365 net.cpp:103] Top shape: 32 64 224 224 (102760448)
I1126 11:31:11.052772 21365 layer_factory.hpp:78] Creating layer relu1_1
I1126 11:31:11.052785 21365 net.cpp:67] Creating Layer relu1_1
I1126 11:31:11.052789 21365 net.cpp:394] relu1_1 <- conv1_1
I1126 11:31:11.052796 21365 net.cpp:345] relu1_1 -> conv1_1 (in-place)
I1126 11:31:11.052805 21365 net.cpp:96] Setting up relu1_1
I1126 11:31:11.052815 21365 net.cpp:103] Top shape: 32 64 224 224 (102760448)
I1126 11:31:11.052820 21365 layer_factory.hpp:78] Creating layer conv1_2
I1126 11:31:11.052827 21365 net.cpp:67] Creating Layer conv1_2
I1126 11:31:11.052831 21365 net.cpp:394] conv1_2 <- conv1_1
I1126 11:31:11.052836 21365 net.cpp:356] conv1_2 -> conv1_2
I1126 11:31:11.052845 21365 net.cpp:96] Setting up conv1_2
I1126 11:31:11.053897 21365 net.cpp:103] Top shape: 32 64 224 224 (102760448)
I1126 11:31:11.053910 21365 layer_factory.hpp:78] Creating layer relu1_2
I1126 11:31:11.053916 21365 net.cpp:67] Creating Layer relu1_2
I1126 11:31:11.053921 21365 net.cpp:394] relu1_2 <- conv1_2
I1126 11:31:11.053925 21365 net.cpp:345] relu1_2 -> conv1_2 (in-place)
I1126 11:31:11.053930 21365 net.cpp:96] Setting up relu1_2
I1126 11:31:11.053936 21365 net.cpp:103] Top shape: 32 64 224 224 (102760448)
I1126 11:31:11.053938 21365 layer_factory.hpp:78] Creating layer pool1
I1126 11:31:11.053951 21365 net.cpp:67] Creating Layer pool1
I1126 11:31:11.053954 21365 net.cpp:394] pool1 <- conv1_2
I1126 11:31:11.053961 21365 net.cpp:356] pool1 -> pool1
I1126 11:31:11.053967 21365 net.cpp:96] Setting up pool1
I1126 11:31:11.053985 21365 net.cpp:103] Top shape: 32 64 112 112 (25690112)
I1126 11:31:11.053990 21365 layer_factory.hpp:78] Creating layer conv2_1
I1126 11:31:11.053999 21365 net.cpp:67] Creating Layer conv2_1
I1126 11:31:11.054003 21365 net.cpp:394] conv2_1 <- pool1
I1126 11:31:11.054013 21365 net.cpp:356] conv2_1 -> conv2_1
I1126 11:31:11.054018 21365 net.cpp:96] Setting up conv2_1
I1126 11:31:11.055935 21365 net.cpp:103] Top shape: 32 128 112 112 (51380224)
I1126 11:31:11.055949 21365 layer_factory.hpp:78] Creating layer relu2_1
I1126 11:31:11.055956 21365 net.cpp:67] Creating Layer relu2_1
I1126 11:31:11.055960 21365 net.cpp:394] relu2_1 <- conv2_1
I1126 11:31:11.055966 21365 net.cpp:345] relu2_1 -> conv2_1 (in-place)
I1126 11:31:11.055973 21365 net.cpp:96] Setting up relu2_1
I1126 11:31:11.055979 21365 net.cpp:103] Top shape: 32 128 112 112 (51380224)
I1126 11:31:11.055982 21365 layer_factory.hpp:78] Creating layer conv2_2
I1126 11:31:11.055991 21365 net.cpp:67] Creating Layer conv2_2
I1126 11:31:11.055995 21365 net.cpp:394] conv2_2 <- conv2_1
I1126 11:31:11.056001 21365 net.cpp:356] conv2_2 -> conv2_2
I1126 11:31:11.056009 21365 net.cpp:96] Setting up conv2_2
I1126 11:31:11.059756 21365 net.cpp:103] Top shape: 32 128 112 112 (51380224)
I1126 11:31:11.059769 21365 layer_factory.hpp:78] Creating layer relu2_2
I1126 11:31:11.059774 21365 net.cpp:67] Creating Layer relu2_2
I1126 11:31:11.059779 21365 net.cpp:394] relu2_2 <- conv2_2
I1126 11:31:11.059787 21365 net.cpp:345] relu2_2 -> conv2_2 (in-place)
I1126 11:31:11.059792 21365 net.cpp:96] Setting up relu2_2
I1126 11:31:11.059798 21365 net.cpp:103] Top shape: 32 128 112 112 (51380224)
I1126 11:31:11.059810 21365 layer_factory.hpp:78] Creating layer pool2
I1126 11:31:11.059815 21365 net.cpp:67] Creating Layer pool2
I1126 11:31:11.059818 21365 net.cpp:394] pool2 <- conv2_2
I1126 11:31:11.059823 21365 net.cpp:356] pool2 -> pool2
I1126 11:31:11.059829 21365 net.cpp:96] Setting up pool2
I1126 11:31:11.059836 21365 net.cpp:103] Top shape: 32 128 56 56 (12845056)
I1126 11:31:11.059840 21365 layer_factory.hpp:78] Creating layer conv3_1
I1126 11:31:11.059849 21365 net.cpp:67] Creating Layer conv3_1
I1126 11:31:11.059854 21365 net.cpp:394] conv3_1 <- pool2
I1126 11:31:11.059859 21365 net.cpp:356] conv3_1 -> conv3_1
I1126 11:31:11.059869 21365 net.cpp:96] Setting up conv3_1
I1126 11:31:11.067270 21365 net.cpp:103] Top shape: 32 256 56 56 (25690112)
I1126 11:31:11.067286 21365 layer_factory.hpp:78] Creating layer relu3_1
I1126 11:31:11.067293 21365 net.cpp:67] Creating Layer relu3_1
I1126 11:31:11.067298 21365 net.cpp:394] relu3_1 <- conv3_1
I1126 11:31:11.067306 21365 net.cpp:345] relu3_1 -> conv3_1 (in-place)
I1126 11:31:11.067312 21365 net.cpp:96] Setting up relu3_1
I1126 11:31:11.067317 21365 net.cpp:103] Top shape: 32 256 56 56 (25690112)
I1126 11:31:11.067322 21365 layer_factory.hpp:78] Creating layer conv3_2
I1126 11:31:11.067328 21365 net.cpp:67] Creating Layer conv3_2
I1126 11:31:11.067333 21365 net.cpp:394] conv3_2 <- conv3_1
I1126 11:31:11.067339 21365 net.cpp:356] conv3_2 -> conv3_2
I1126 11:31:11.067345 21365 net.cpp:96] Setting up conv3_2
I1126 11:31:11.082133 21365 net.cpp:103] Top shape: 32 256 56 56 (25690112)
I1126 11:31:11.082149 21365 layer_factory.hpp:78] Creating layer relu3_2
I1126 11:31:11.082155 21365 net.cpp:67] Creating Layer relu3_2
I1126 11:31:11.082159 21365 net.cpp:394] relu3_2 <- conv3_2
I1126 11:31:11.082165 21365 net.cpp:345] relu3_2 -> conv3_2 (in-place)
I1126 11:31:11.082170 21365 net.cpp:96] Setting up relu3_2
I1126 11:31:11.082175 21365 net.cpp:103] Top shape: 32 256 56 56 (25690112)
I1126 11:31:11.082177 21365 layer_factory.hpp:78] Creating layer conv3_3
I1126 11:31:11.082185 21365 net.cpp:67] Creating Layer conv3_3
I1126 11:31:11.082192 21365 net.cpp:394] conv3_3 <- conv3_2
I1126 11:31:11.082201 21365 net.cpp:356] conv3_3 -> conv3_3
I1126 11:31:11.082207 21365 net.cpp:96] Setting up conv3_3
I1126 11:31:11.096935 21365 net.cpp:103] Top shape: 32 256 56 56 (25690112)
I1126 11:31:11.096953 21365 layer_factory.hpp:78] Creating layer relu3_3
I1126 11:31:11.096963 21365 net.cpp:67] Creating Layer relu3_3
I1126 11:31:11.096966 21365 net.cpp:394] relu3_3 <- conv3_3
I1126 11:31:11.096972 21365 net.cpp:345] relu3_3 -> conv3_3 (in-place)
I1126 11:31:11.096978 21365 net.cpp:96] Setting up relu3_3
I1126 11:31:11.096983 21365 net.cpp:103] Top shape: 32 256 56 56 (25690112)
I1126 11:31:11.096987 21365 layer_factory.hpp:78] Creating layer pool3
I1126 11:31:11.096993 21365 net.cpp:67] Creating Layer pool3
I1126 11:31:11.096999 21365 net.cpp:394] pool3 <- conv3_3
I1126 11:31:11.097007 21365 net.cpp:356] pool3 -> pool3
I1126 11:31:11.097014 21365 net.cpp:96] Setting up pool3
I1126 11:31:11.097023 21365 net.cpp:103] Top shape: 32 256 28 28 (6422528)
I1126 11:31:11.097028 21365 layer_factory.hpp:78] Creating layer conv4_1
I1126 11:31:11.097035 21365 net.cpp:67] Creating Layer conv4_1
I1126 11:31:11.097040 21365 net.cpp:394] conv4_1 <- pool3
I1126 11:31:11.097045 21365 net.cpp:356] conv4_1 -> conv4_1
I1126 11:31:11.097051 21365 net.cpp:96] Setting up conv4_1
I1126 11:31:11.126163 21365 net.cpp:103] Top shape: 32 512 28 28 (12845056)
I1126 11:31:11.126188 21365 layer_factory.hpp:78] Creating layer relu4_1
I1126 11:31:11.126198 21365 net.cpp:67] Creating Layer relu4_1
I1126 11:31:11.126202 21365 net.cpp:394] relu4_1 <- conv4_1
I1126 11:31:11.126209 21365 net.cpp:345] relu4_1 -> conv4_1 (in-place)
I1126 11:31:11.126215 21365 net.cpp:96] Setting up relu4_1
I1126 11:31:11.126220 21365 net.cpp:103] Top shape: 32 512 28 28 (12845056)
I1126 11:31:11.126224 21365 layer_factory.hpp:78] Creating layer conv4_2
I1126 11:31:11.126230 21365 net.cpp:67] Creating Layer conv4_2
I1126 11:31:11.126235 21365 net.cpp:394] conv4_2 <- conv4_1
I1126 11:31:11.126248 21365 net.cpp:356] conv4_2 -> conv4_2
I1126 11:31:11.126256 21365 net.cpp:96] Setting up conv4_2
I1126 11:31:11.183974 21365 net.cpp:103] Top shape: 32 512 28 28 (12845056)
I1126 11:31:11.184003 21365 layer_factory.hpp:78] Creating layer relu4_2
I1126 11:31:11.184012 21365 net.cpp:67] Creating Layer relu4_2
I1126 11:31:11.184016 21365 net.cpp:394] relu4_2 <- conv4_2
I1126 11:31:11.184022 21365 net.cpp:345] relu4_2 -> conv4_2 (in-place)
I1126 11:31:11.184029 21365 net.cpp:96] Setting up relu4_2
I1126 11:31:11.184034 21365 net.cpp:103] Top shape: 32 512 28 28 (12845056)
I1126 11:31:11.184038 21365 layer_factory.hpp:78] Creating layer conv4_3
I1126 11:31:11.184051 21365 net.cpp:67] Creating Layer conv4_3
I1126 11:31:11.184056 21365 net.cpp:394] conv4_3 <- conv4_2
I1126 11:31:11.184062 21365 net.cpp:356] conv4_3 -> conv4_3
I1126 11:31:11.184068 21365 net.cpp:96] Setting up conv4_3
I1126 11:31:11.241449 21365 net.cpp:103] Top shape: 32 512 28 28 (12845056)
I1126 11:31:11.241472 21365 layer_factory.hpp:78] Creating layer relu4_3
I1126 11:31:11.241480 21365 net.cpp:67] Creating Layer relu4_3
I1126 11:31:11.241484 21365 net.cpp:394] relu4_3 <- conv4_3
I1126 11:31:11.241492 21365 net.cpp:345] relu4_3 -> conv4_3 (in-place)
I1126 11:31:11.241499 21365 net.cpp:96] Setting up relu4_3
I1126 11:31:11.241505 21365 net.cpp:103] Top shape: 32 512 28 28 (12845056)
I1126 11:31:11.241508 21365 layer_factory.hpp:78] Creating layer pool4
I1126 11:31:11.241513 21365 net.cpp:67] Creating Layer pool4
I1126 11:31:11.241521 21365 net.cpp:394] pool4 <- conv4_3
I1126 11:31:11.241528 21365 net.cpp:356] pool4 -> pool4
I1126 11:31:11.241534 21365 net.cpp:96] Setting up pool4
I1126 11:31:11.241544 21365 net.cpp:103] Top shape: 32 512 14 14 (3211264)
I1126 11:31:11.241549 21365 layer_factory.hpp:78] Creating layer conv5_1
I1126 11:31:11.241554 21365 net.cpp:67] Creating Layer conv5_1
I1126 11:31:11.241559 21365 net.cpp:394] conv5_1 <- pool4
I1126 11:31:11.241564 21365 net.cpp:356] conv5_1 -> conv5_1
I1126 11:31:11.241574 21365 net.cpp:96] Setting up conv5_1
I1126 11:31:11.299334 21365 net.cpp:103] Top shape: 32 512 14 14 (3211264)
I1126 11:31:11.299358 21365 layer_factory.hpp:78] Creating layer relu5_1
I1126 11:31:11.299368 21365 net.cpp:67] Creating Layer relu5_1
I1126 11:31:11.299373 21365 net.cpp:394] relu5_1 <- conv5_1
I1126 11:31:11.299379 21365 net.cpp:345] relu5_1 -> conv5_1 (in-place)
I1126 11:31:11.299386 21365 net.cpp:96] Setting up relu5_1
I1126 11:31:11.299392 21365 net.cpp:103] Top shape: 32 512 14 14 (3211264)
I1126 11:31:11.299396 21365 layer_factory.hpp:78] Creating layer conv5_2
I1126 11:31:11.299401 21365 net.cpp:67] Creating Layer conv5_2
I1126 11:31:11.299407 21365 net.cpp:394] conv5_2 <- conv5_1
I1126 11:31:11.299417 21365 net.cpp:356] conv5_2 -> conv5_2
I1126 11:31:11.299425 21365 net.cpp:96] Setting up conv5_2
I1126 11:31:11.356722 21365 net.cpp:103] Top shape: 32 512 14 14 (3211264)
I1126 11:31:11.356748 21365 layer_factory.hpp:78] Creating layer relu5_2
I1126 11:31:11.356755 21365 net.cpp:67] Creating Layer relu5_2
I1126 11:31:11.356760 21365 net.cpp:394] relu5_2 <- conv5_2
I1126 11:31:11.356767 21365 net.cpp:345] relu5_2 -> conv5_2 (in-place)
I1126 11:31:11.356773 21365 net.cpp:96] Setting up relu5_2
I1126 11:31:11.356780 21365 net.cpp:103] Top shape: 32 512 14 14 (3211264)
I1126 11:31:11.356782 21365 layer_factory.hpp:78] Creating layer conv5_3
I1126 11:31:11.356788 21365 net.cpp:67] Creating Layer conv5_3
I1126 11:31:11.356791 21365 net.cpp:394] conv5_3 <- conv5_2
I1126 11:31:11.356796 21365 net.cpp:356] conv5_3 -> conv5_3
I1126 11:31:11.356807 21365 net.cpp:96] Setting up conv5_3
I1126 11:31:11.414367 21365 net.cpp:103] Top shape: 32 512 14 14 (3211264)
I1126 11:31:11.414392 21365 layer_factory.hpp:78] Creating layer relu5_3
I1126 11:31:11.414399 21365 net.cpp:67] Creating Layer relu5_3
I1126 11:31:11.414404 21365 net.cpp:394] relu5_3 <- conv5_3
I1126 11:31:11.414410 21365 net.cpp:345] relu5_3 -> conv5_3 (in-place)
I1126 11:31:11.414417 21365 net.cpp:96] Setting up relu5_3
I1126 11:31:11.414432 21365 net.cpp:103] Top shape: 32 512 14 14 (3211264)
I1126 11:31:11.414435 21365 layer_factory.hpp:78] Creating layer pool5
I1126 11:31:11.414441 21365 net.cpp:67] Creating Layer pool5
I1126 11:31:11.414443 21365 net.cpp:394] pool5 <- conv5_3
I1126 11:31:11.414456 21365 net.cpp:356] pool5 -> pool5
I1126 11:31:11.414463 21365 net.cpp:96] Setting up pool5
I1126 11:31:11.414471 21365 net.cpp:103] Top shape: 32 512 7 7 (802816)
I1126 11:31:11.414476 21365 layer_factory.hpp:78] Creating layer fc6
I1126 11:31:11.414490 21365 net.cpp:67] Creating Layer fc6
I1126 11:31:11.414494 21365 net.cpp:394] fc6 <- pool5
I1126 11:31:11.414499 21365 net.cpp:356] fc6 -> fc6
I1126 11:31:11.414506 21365 net.cpp:96] Setting up fc6
I1126 11:31:13.805531 21365 net.cpp:103] Top shape: 32 4096 1 1 (131072)
I1126 11:31:13.805572 21365 layer_factory.hpp:78] Creating layer relu6
I1126 11:31:13.805582 21365 net.cpp:67] Creating Layer relu6
I1126 11:31:13.805587 21365 net.cpp:394] relu6 <- fc6
I1126 11:31:13.805593 21365 net.cpp:345] relu6 -> fc6 (in-place)
I1126 11:31:13.805599 21365 net.cpp:96] Setting up relu6
I1126 11:31:13.805613 21365 net.cpp:103] Top shape: 32 4096 1 1 (131072)
I1126 11:31:13.805619 21365 layer_factory.hpp:78] Creating layer drop6
I1126 11:31:13.805626 21365 net.cpp:67] Creating Layer drop6
I1126 11:31:13.805630 21365 net.cpp:394] drop6 <- fc6
I1126 11:31:13.805636 21365 net.cpp:345] drop6 -> fc6 (in-place)
I1126 11:31:13.805642 21365 net.cpp:96] Setting up drop6
I1126 11:31:13.805649 21365 net.cpp:103] Top shape: 32 4096 1 1 (131072)
I1126 11:31:13.805654 21365 layer_factory.hpp:78] Creating layer fc7
I1126 11:31:13.805661 21365 net.cpp:67] Creating Layer fc7
I1126 11:31:13.805665 21365 net.cpp:394] fc7 <- fc6
I1126 11:31:13.805670 21365 net.cpp:356] fc7 -> fc7
I1126 11:31:13.805677 21365 net.cpp:96] Setting up fc7
I1126 11:31:14.195058 21365 net.cpp:103] Top shape: 32 4096 1 1 (131072)
I1126 11:31:14.195098 21365 layer_factory.hpp:78] Creating layer relu7
I1126 11:31:14.195107 21365 net.cpp:67] Creating Layer relu7
I1126 11:31:14.195111 21365 net.cpp:394] relu7 <- fc7
I1126 11:31:14.195119 21365 net.cpp:345] relu7 -> fc7 (in-place)
I1126 11:31:14.195127 21365 net.cpp:96] Setting up relu7
I1126 11:31:14.195140 21365 net.cpp:103] Top shape: 32 4096 1 1 (131072)
I1126 11:31:14.195145 21365 layer_factory.hpp:78] Creating layer drop7
I1126 11:31:14.195150 21365 net.cpp:67] Creating Layer drop7
I1126 11:31:14.195154 21365 net.cpp:394] drop7 <- fc7
I1126 11:31:14.195158 21365 net.cpp:345] drop7 -> fc7 (in-place)
I1126 11:31:14.195164 21365 net.cpp:96] Setting up drop7
I1126 11:31:14.195169 21365 net.cpp:103] Top shape: 32 4096 1 1 (131072)
I1126 11:31:14.195173 21365 layer_factory.hpp:78] Creating layer fc8_2
I1126 11:31:14.195179 21365 net.cpp:67] Creating Layer fc8_2
I1126 11:31:14.195183 21365 net.cpp:394] fc8_2 <- fc7
I1126 11:31:14.195189 21365 net.cpp:356] fc8_2 -> fc8_2
I1126 11:31:14.195197 21365 net.cpp:96] Setting up fc8_2
I1126 11:31:14.195407 21365 net.cpp:103] Top shape: 32 2 1 1 (64)
I1126 11:31:14.195415 21365 layer_factory.hpp:78] Creating layer loss
I1126 11:31:14.195425 21365 net.cpp:67] Creating Layer loss
I1126 11:31:14.195430 21365 net.cpp:394] loss <- fc8_2
I1126 11:31:14.195435 21365 net.cpp:394] loss <- label
I1126 11:31:14.195442 21365 net.cpp:356] loss -> (automatic)
I1126 11:31:14.195447 21365 net.cpp:96] Setting up loss
I1126 11:31:14.195457 21365 net.cpp:103] Top shape: 1 1 1 1 (1)
I1126 11:31:14.195461 21365 net.cpp:109]     with loss weight 1
I1126 11:31:14.195490 21365 net.cpp:170] loss needs backward computation.
I1126 11:31:14.195497 21365 net.cpp:170] fc8_2 needs backward computation.
I1126 11:31:14.195500 21365 net.cpp:170] drop7 needs backward computation.
I1126 11:31:14.195504 21365 net.cpp:170] relu7 needs backward computation.
I1126 11:31:14.195507 21365 net.cpp:170] fc7 needs backward computation.
…
I1126 11:31:14.196579 21365 net.cpp:275] The NetState phase (1) differed from the phase (0) specified by a rule in layer data
I1126 11:31:14.196784 21365 net.cpp:39] Initializing net from parameters: 
name: "small"
layers {
  top: "data"
  top: "label"
  name: "data"
  type: IMAGE_DATA
  image_data_param {
    source: "/data/ad6813/devCaffe/caffe/data/scrape_blue/val.txt"
    batch_size: 8
    new_height: 256
    new_width: 256
  }
  include {
    phase: TEST
  }
  transform_param {
    mirror: true
    crop_size: 224
    mean_value: 86.752
    mean_value: 101.46
    mean_value: 104.6
  }
}
layers {
  bottom: "data"
  top: "conv1_1"
  name: "conv1_1"
  type: CONVOLUTION
  convolution_param {
    num_output: 64
    pad: 1
    kernel_size: 3
    weight_filler {
      type: "gaussian"
      std: 0.01
    }
    bias_filler {
      type: "constant"
      value: 0
    }
  }
}
layers {
  bottom: "conv1_1"
  top: "conv1_1"
  name: "relu1_1"
  type: RELU
}
layers {
  bottom: "conv1_1"
  top: "conv1_2"
  name: "conv1_2"
  type: CONVOLUTION
  convolution_param {
    num_output: 64
    pad: 1
    kernel_size: 3
    weight_filler {
      type: "gaussian"
      std: 0.01
    }
    bias_filler {
      type: "constant"
      value: 0
    }
  }
}
layers {
  bottom: "conv1_2"
  top: "conv1_2"
  name: "relu1_2"
  type: RELU
}
layers {
  bottom: "conv1_2"
  top: "pool1"
  name: "pool1"
  type: POOLING
  pooling_param {
    pool: MAX
    kernel_size: 2
    stride: 2
  }
}
layers {
  bottom: "pool1"
  top: "conv2_1"
  name: "conv2_1"
  type: CONVOLUTION
  convolution_param {
    num_output: 128
    pad: 1
    kernel_size: 3
    weight_filler {
      type: "gaussian"
      std: 0.01
    }
    bias_filler {
      type: "constant"
      value: 0
    }
  }
}
layers {
  bottom: "conv2_1"
  top: "conv2_1"
  name: "relu2_1"
  type: RELU
}
layers {
  bottom: "conv2_1"
  top: "conv2_2"
  name: "conv2_2"
  type: CONVOLUTION
  convolution_param {
    num_output: 128
    pad: 1
    kernel_size: 3
    weight_filler {
      type: "gaussian"
      std: 0.01
    }
    bias_filler {
      type: "constant"
      value: 0
    }
  }
}
layers {
  bottom: "conv2_2"
  top: "conv2_2"
  name: "relu2_2"
  type: RELU
}
layers {
  bottom: "conv2_2"
  top: "pool2"
  name: "pool2"
  type: POOLING
  pooling_param {
    pool: MAX
    kernel_size: 2
    stride: 2
  }
}
layers {
  bottom: "pool2"
  top: "conv3_1"
  name: "conv3_1"
  type: CONVOLUTION
  convolution_param {
    num_output: 256
    pad: 1
    kernel_size: 3
    weight_filler {
      type: "gaussian"
      std: 0.01
    }
    bias_filler {
      type: "constant"
      value: 0
    }
  }
}
layers {
  bottom: "conv3_1"
  top: "conv3_1"
  name: "relu3_1"
  type: RELU
}
layers {
  bottom: "conv3_1"
  top: "conv3_2"
  name: "conv3_2"
  type: CONVOLUTION
  convolution_param {
    num_output: 256
    pad: 1
    kernel_size: 3
    weight_filler {
      type: "gaussian"
      std: 0.01
    }
    bias_filler {
      type: "constant"
      value: 0
    }
  }
}
layers {
  bottom: "conv3_2"
  top: "conv3_2"
  name: "relu3_2"
  type: RELU
}
layers {
  bottom: "conv3_2"
  top: "conv3_3"
  name: "conv3_3"
  type: CONVOLUTION
  convolution_param {
    num_output: 256
    pad: 1
    kernel_size: 3
    weight_filler {
      type: "gaussian"
      std: 0.01
    }
    bias_filler {
      type: "constant"
      value: 0
    }
  }
}
layers {
  bottom: "conv3_3"
  top: "conv3_3"
  name: "relu3_3"
  type: RELU
}
layers {
  bottom: "conv3_3"
  top: "pool3"
  name: "pool3"
  type: POOLING
  pooling_param {
    pool: MAX
    kernel_size: 2
    stride: 2
  }
}
layers {
  bottom: "pool3"
  top: "conv4_1"
  name: "conv4_1"
  type: CONVOLUTION
  convolution_param {
    num_output: 512
    pad: 1
    kernel_size: 3
    weight_filler {
      type: "gaussian"
      std: 0.01
    }
    bias_filler {
      type: "constant"
      value: 0
    }
  }
}
layers {
  bottom: "conv4_1"
  top: "conv4_1"
  name: "relu4_1"
  type: RELU
}
layers {
  bottom: "conv4_1"
  top: "conv4_2"
  name: "conv4_2"
  type: CONVOLUTION
  convolution_param {
    num_output: 512
    pad: 1
    kernel_size: 3
    weight_filler {
      type: "gaussian"
      std: 0.01
    }
    bias_filler {
      type: "constant"
      value: 0
    }
  }
}
layers {
  bottom: "conv4_2"
  top: "conv4_2"
  name: "relu4_2"
  type: RELU
}
layers {
  bottom: "conv4_2"
  top: "conv4_3"
  name: "conv4_3"
  type: CONVOLUTION
  convolution_param {
    num_output: 512
    pad: 1
    kernel_size: 3
    weight_filler {
      type: "gaussian"
      std: 0.01
    }
    bias_filler {
      type: "constant"
      value: 0
    }
  }
}
layers {
  bottom: "conv4_3"
  top: "conv4_3"
  name: "relu4_3"
  type: RELU
}
layers {
  bottom: "conv4_3"
  top: "pool4"
  name: "pool4"
  type: POOLING
  pooling_param {
    pool: MAX
    kernel_size: 2
    stride: 2
  }
}
layers {
  bottom: "pool4"
  top: "conv5_1"
  name: "conv5_1"
  type: CONVOLUTION
  convolution_param {
    num_output: 512
    pad: 1
    kernel_size: 3
    weight_filler {
      type: "gaussian"
      std: 0.01
    }
    bias_filler {
      type: "constant"
      value: 0
    }
  }
}
layers {
  bottom: "conv5_1"
  top: "conv5_1"
  name: "relu5_1"
  type: RELU
}
layers {
  bottom: "conv5_1"
  top: "conv5_2"
  name: "conv5_2"
  type: CONVOLUTION
  convolution_param {
    num_output: 512
    pad: 1
    kernel_size: 3
    weight_filler {
      type: "gaussian"
      std: 0.01
    }
    bias_filler {
      type: "constant"
      value: 0
    }
  }
}
layers {
  bottom: "conv5_2"
  top: "conv5_2"
  name: "relu5_2"
  type: RELU
}
layers {
  bottom: "conv5_2"
  top: "conv5_3"
  name: "conv5_3"
  type: CONVOLUTION
  convolution_param {
    num_output: 512
    pad: 1
    kernel_size: 3
    weight_filler {
      type: "gaussian"
      std: 0.01
    }
    bias_filler {
      type: "constant"
      value: 0
    }
  }
}
layers {
  bottom: "conv5_3"
  top: "conv5_3"
  name: "relu5_3"
  type: RELU
}
layers {
  bottom: "conv5_3"
  top: "pool5"
  name: "pool5"
  type: POOLING
  pooling_param {
    pool: MAX
    kernel_size: 2
    stride: 2
  }
}
layers {
  bottom: "pool5"
  top: "fc6"
  name: "fc6"
  type: INNER_PRODUCT
  inner_product_param {
    num_output: 4096
    weight_filler {
      type: "gaussian"
      std: 0.01
    }
    bias_filler {
      type: "constant"
      value: 0
    }
  }
}
layers {
  bottom: "fc6"
  top: "fc6"
  name: "relu6"
  type: RELU
}
layers {
  bottom: "fc6"
  top: "fc6"
  name: "drop6"
  type: DROPOUT
  dropout_param {
    dropout_ratio: 0.5
  }
}
layers {
  bottom: "fc6"
  top: "fc7"
  name: "fc7"
  type: INNER_PRODUCT
  inner_product_param {
    num_output: 4096
    weight_filler {
      type: "gaussian"
      std: 0.01
    }
    bias_filler {
      type: "constant"
      value: 0
    }
  }
}
layers {
  bottom: "fc7"
  top: "fc7"
  name: "relu7"
  type: RELU
}
layers {
  bottom: "fc7"
  top: "fc7"
  name: "drop7"
  type: DROPOUT
  dropout_param {
    dropout_ratio: 0.5
  }
}
layers {
  bottom: "fc7"
  top: "fc8_2"
  name: "fc8_2"
  type: INNER_PRODUCT
  inner_product_param {
    num_output: 2
    weight_filler {
      type: "gaussian"
      std: 0.01
    }
    bias_filler {
      type: "constant"
      value: 0
    }
  }
}
layers {
  bottom: "fc8_2"
  bottom: "label"
  name: "loss"
  type: SOFTMAX_LOSS
}
layers {
  bottom: "fc8_2"
  bottom: "label"
  top: "accuracy"
  name: "accuracy"
  type: PER_CLASS_ACCURACY
  include {
    phase: TEST
  }
}
state {
  phase: TEST
}
I1126 11:31:14.196918 21365 layer_factory.hpp:78] Creating layer data
I1126 11:31:14.196929 21365 net.cpp:67] Creating Layer data
I1126 11:31:14.196935 21365 net.cpp:356] data -> data
I1126 11:31:14.196944 21365 net.cpp:356] data -> label
I1126 11:31:14.196951 21365 net.cpp:96] Setting up data
I1126 11:31:14.196956 21365 image_data_layer.cpp:34] Opening file /data/ad6813/devCaffe/caffe/data/scrape_blue/val.txt
I1126 11:31:14.198408 21365 image_data_layer.cpp:49] A total of 3963 images.
I1126 11:31:14.205209 21365 image_data_layer.cpp:78] output data size: 8,3,224,224
I1126 11:31:14.206106 21365 net.cpp:103] Top shape: 8 3 224 224 (1204224)
I1126 11:31:14.206128 21365 net.cpp:103] Top shape: 8 1 1 1 (8)
I1126 11:31:14.206132 21365 layer_factory.hpp:78] Creating layer label_data_1_split
I1126 11:31:14.206142 21365 net.cpp:67] Creating Layer label_data_1_split
I1126 11:31:14.206146 21365 net.cpp:394] label_data_1_split <- label
I1126 11:31:14.206153 21365 net.cpp:356] label_data_1_split -> label_data_1_split_0
I1126 11:31:14.206162 21365 net.cpp:356] label_data_1_split -> label_data_1_split_1
I1126 11:31:14.206169 21365 net.cpp:96] Setting up label_data_1_split
I1126 11:31:14.206176 21365 net.cpp:103] Top shape: 8 1 1 1 (8)
I1126 11:31:14.206181 21365 net.cpp:103] Top shape: 8 1 1 1 (8)
I1126 11:31:14.206183 21365 layer_factory.hpp:78] Creating layer conv1_1
I1126 11:31:14.206192 21365 net.cpp:67] Creating Layer conv1_1
I1126 11:31:14.206197 21365 net.cpp:394] conv1_1 <- data
I1126 11:31:14.206204 21365 net.cpp:356] conv1_1 -> conv1_1
I1126 11:31:14.206212 21365 net.cpp:96] Setting up conv1_1
I1126 11:31:14.206364 21365 net.cpp:103] Top shape: 8 64 224 224 (25690112)
I1126 11:31:14.206377 21365 layer_factory.hpp:78] Creating layer relu1_1
I1126 11:31:14.206384 21365 net.cpp:67] Creating Layer relu1_1
I1126 11:31:14.206388 21365 net.cpp:394] relu1_1 <- conv1_1
I1126 11:31:14.206394 21365 net.cpp:345] relu1_1 -> conv1_1 (in-place)
I1126 11:31:14.206409 21365 net.cpp:96] Setting up relu1_1
I1126 11:31:14.206416 21365 net.cpp:103] Top shape: 8 64 224 224 (25690112)
I1126 11:31:14.206420 21365 layer_factory.hpp:78] Creating layer conv1_2
I1126 11:31:14.206426 21365 net.cpp:67] Creating Layer conv1_2
I1126 11:31:14.206430 21365 net.cpp:394] conv1_2 <- conv1_1
I1126 11:31:14.206436 21365 net.cpp:356] conv1_2 -> conv1_2
I1126 11:31:14.206444 21365 net.cpp:96] Setting up conv1_2
I1126 11:31:14.207496 21365 net.cpp:103] Top shape: 8 64 224 224 (25690112)
I1126 11:31:14.207510 21365 layer_factory.hpp:78] Creating layer relu1_2
I1126 11:31:14.207516 21365 net.cpp:67] Creating Layer relu1_2
I1126 11:31:14.207520 21365 net.cpp:394] relu1_2 <- conv1_2
I1126 11:31:14.207527 21365 net.cpp:345] relu1_2 -> conv1_2 (in-place)
I1126 11:31:14.207533 21365 net.cpp:96] Setting up relu1_2
I1126 11:31:14.207540 21365 net.cpp:103] Top shape: 8 64 224 224 (25690112)
I1126 11:31:14.207543 21365 layer_factory.hpp:78] Creating layer pool1
I1126 11:31:14.207548 21365 net.cpp:67] Creating Layer pool1
I1126 11:31:14.207552 21365 net.cpp:394] pool1 <- conv1_2
I1126 11:31:14.207558 21365 net.cpp:356] pool1 -> pool1
I1126 11:31:14.207566 21365 net.cpp:96] Setting up pool1
I1126 11:31:14.207572 21365 net.cpp:103] Top shape: 8 64 112 112 (6422528)
I1126 11:31:14.207577 21365 layer_factory.hpp:78] Creating layer conv2_1
I1126 11:31:14.207582 21365 net.cpp:67] Creating Layer conv2_1
I1126 11:31:14.207587 21365 net.cpp:394] conv2_1 <- pool1
I1126 11:31:14.207592 21365 net.cpp:356] conv2_1 -> conv2_1
I1126 11:31:14.207597 21365 net.cpp:96] Setting up conv2_1
I1126 11:31:14.209568 21365 net.cpp:103] Top shape: 8 128 112 112 (12845056)
I1126 11:31:14.209581 21365 layer_factory.hpp:78] Creating layer relu2_1
I1126 11:31:14.209589 21365 net.cpp:67] Creating Layer relu2_1
I1126 11:31:14.209594 21365 net.cpp:394] relu2_1 <- conv2_1
I1126 11:31:14.209599 21365 net.cpp:345] relu2_1 -> conv2_1 (in-place)
I1126 11:31:14.209605 21365 net.cpp:96] Setting up relu2_1
I1126 11:31:14.209611 21365 net.cpp:103] Top shape: 8 128 112 112 (12845056)
I1126 11:31:14.209615 21365 layer_factory.hpp:78] Creating layer conv2_2
I1126 11:31:14.209620 21365 net.cpp:67] Creating Layer conv2_2
I1126 11:31:14.209625 21365 net.cpp:394] conv2_2 <- conv2_1
I1126 11:31:14.209631 21365 net.cpp:356] conv2_2 -> conv2_2
I1126 11:31:14.209638 21365 net.cpp:96] Setting up conv2_2
I1126 11:31:14.213266 21365 net.cpp:103] Top shape: 8 128 112 112 (12845056)
I1126 11:31:14.213279 21365 layer_factory.hpp:78] Creating layer relu2_2
I1126 11:31:14.213284 21365 net.cpp:67] Creating Layer relu2_2
I1126 11:31:14.213287 21365 net.cpp:394] relu2_2 <- conv2_2
I1126 11:31:14.213294 21365 net.cpp:345] relu2_2 -> conv2_2 (in-place)
I1126 11:31:14.213300 21365 net.cpp:96] Setting up relu2_2
I1126 11:31:14.213306 21365 net.cpp:103] Top shape: 8 128 112 112 (12845056)
I1126 11:31:14.213310 21365 layer_factory.hpp:78] Creating layer pool2
I1126 11:31:14.213315 21365 net.cpp:67] Creating Layer pool2
I1126 11:31:14.213320 21365 net.cpp:394] pool2 <- conv2_2
I1126 11:31:14.213325 21365 net.cpp:356] pool2 -> pool2
I1126 11:31:14.213331 21365 net.cpp:96] Setting up pool2
I1126 11:31:14.213338 21365 net.cpp:103] Top shape: 8 128 56 56 (3211264)
I1126 11:31:14.213342 21365 layer_factory.hpp:78] Creating layer conv3_1
I1126 11:31:14.213349 21365 net.cpp:67] Creating Layer conv3_1
I1126 11:31:14.213353 21365 net.cpp:394] conv3_1 <- pool2
I1126 11:31:14.213358 21365 net.cpp:356] conv3_1 -> conv3_1
I1126 11:31:14.213364 21365 net.cpp:96] Setting up conv3_1
I1126 11:31:14.220561 21365 net.cpp:103] Top shape: 8 256 56 56 (6422528)
I1126 11:31:14.220577 21365 layer_factory.hpp:78] Creating layer relu3_1
I1126 11:31:14.220587 21365 net.cpp:67] Creating Layer relu3_1
I1126 11:31:14.220590 21365 net.cpp:394] relu3_1 <- conv3_1
I1126 11:31:14.220597 21365 net.cpp:345] relu3_1 -> conv3_1 (in-place)
I1126 11:31:14.220604 21365 net.cpp:96] Setting up relu3_1
I1126 11:31:14.220610 21365 net.cpp:103] Top shape: 8 256 56 56 (6422528)
I1126 11:31:14.220614 21365 layer_factory.hpp:78] Creating layer conv3_2
I1126 11:31:14.220630 21365 net.cpp:67] Creating Layer conv3_2
I1126 11:31:14.220634 21365 net.cpp:394] conv3_2 <- conv3_1
I1126 11:31:14.220639 21365 net.cpp:356] conv3_2 -> conv3_2
I1126 11:31:14.220646 21365 net.cpp:96] Setting up conv3_2
I1126 11:31:14.235249 21365 net.cpp:103] Top shape: 8 256 56 56 (6422528)
I1126 11:31:14.235270 21365 layer_factory.hpp:78] Creating layer relu3_2
I1126 11:31:14.235280 21365 net.cpp:67] Creating Layer relu3_2
I1126 11:31:14.235286 21365 net.cpp:394] relu3_2 <- conv3_2
I1126 11:31:14.235293 21365 net.cpp:345] relu3_2 -> conv3_2 (in-place)
I1126 11:31:14.235301 21365 net.cpp:96] Setting up relu3_2
I1126 11:31:14.235307 21365 net.cpp:103] Top shape: 8 256 56 56 (6422528)
I1126 11:31:14.235312 21365 layer_factory.hpp:78] Creating layer conv3_3
I1126 11:31:14.235323 21365 net.cpp:67] Creating Layer conv3_3
I1126 11:31:14.235328 21365 net.cpp:394] conv3_3 <- conv3_2
I1126 11:31:14.235334 21365 net.cpp:356] conv3_3 -> conv3_3
I1126 11:31:14.235342 21365 net.cpp:96] Setting up conv3_3
I1126 11:31:14.250048 21365 net.cpp:103] Top shape: 8 256 56 56 (6422528)
I1126 11:31:14.250069 21365 layer_factory.hpp:78] Creating layer relu3_3
I1126 11:31:14.250077 21365 net.cpp:67] Creating Layer relu3_3
I1126 11:31:14.250080 21365 net.cpp:394] relu3_3 <- conv3_3
I1126 11:31:14.250088 21365 net.cpp:345] relu3_3 -> conv3_3 (in-place)
I1126 11:31:14.250095 21365 net.cpp:96] Setting up relu3_3
I1126 11:31:14.250103 21365 net.cpp:103] Top shape: 8 256 56 56 (6422528)
I1126 11:31:14.250108 21365 layer_factory.hpp:78] Creating layer pool3
I1126 11:31:14.250118 21365 net.cpp:67] Creating Layer pool3
I1126 11:31:14.250121 21365 net.cpp:394] pool3 <- conv3_3
I1126 11:31:14.250128 21365 net.cpp:356] pool3 -> pool3
I1126 11:31:14.250134 21365 net.cpp:96] Setting up pool3
I1126 11:31:14.250144 21365 net.cpp:103] Top shape: 8 256 28 28 (1605632)
I1126 11:31:14.250147 21365 layer_factory.hpp:78] Creating layer conv4_1
I1126 11:31:14.250156 21365 net.cpp:67] Creating Layer conv4_1
I1126 11:31:14.250160 21365 net.cpp:394] conv4_1 <- pool3
I1126 11:31:14.250166 21365 net.cpp:356] conv4_1 -> conv4_1
I1126 11:31:14.250174 21365 net.cpp:96] Setting up conv4_1
I1126 11:31:14.279289 21365 net.cpp:103] Top shape: 8 512 28 28 (3211264)
I1126 11:31:14.279311 21365 layer_factory.hpp:78] Creating layer relu4_1
I1126 11:31:14.279319 21365 net.cpp:67] Creating Layer relu4_1
I1126 11:31:14.279324 21365 net.cpp:394] relu4_1 <- conv4_1
I1126 11:31:14.279331 21365 net.cpp:345] relu4_1 -> conv4_1 (in-place)
I1126 11:31:14.279338 21365 net.cpp:96] Setting up relu4_1
I1126 11:31:14.279345 21365 net.cpp:103] Top shape: 8 512 28 28 (3211264)
I1126 11:31:14.279350 21365 layer_factory.hpp:78] Creating layer conv4_2
I1126 11:31:14.279361 21365 net.cpp:67] Creating Layer conv4_2
I1126 11:31:14.279366 21365 net.cpp:394] conv4_2 <- conv4_1
I1126 11:31:14.279371 21365 net.cpp:356] conv4_2 -> conv4_2
I1126 11:31:14.279378 21365 net.cpp:96] Setting up conv4_2
I1126 11:31:14.335825 21365 net.cpp:103] Top shape: 8 512 28 28 (3211264)
I1126 11:31:14.335865 21365 layer_factory.hpp:78] Creating layer relu4_2
I1126 11:31:14.335875 21365 net.cpp:67] Creating Layer relu4_2
I1126 11:31:14.335880 21365 net.cpp:394] relu4_2 <- conv4_2
I1126 11:31:14.335886 21365 net.cpp:345] relu4_2 -> conv4_2 (in-place)
I1126 11:31:14.335892 21365 net.cpp:96] Setting up relu4_2
I1126 11:31:14.335898 21365 net.cpp:103] Top shape: 8 512 28 28 (3211264)
I1126 11:31:14.335903 21365 layer_factory.hpp:78] Creating layer conv4_3
I1126 11:31:14.335911 21365 net.cpp:67] Creating Layer conv4_3
I1126 11:31:14.335916 21365 net.cpp:394] conv4_3 <- conv4_2
I1126 11:31:14.335919 21365 net.cpp:356] conv4_3 -> conv4_3
I1126 11:31:14.335928 21365 net.cpp:96] Setting up conv4_3
I1126 11:31:14.390835 21365 net.cpp:103] Top shape: 8 512 28 28 (3211264)
I1126 11:31:14.390859 21365 layer_factory.hpp:78] Creating layer relu4_3
I1126 11:31:14.390868 21365 net.cpp:67] Creating Layer relu4_3
I1126 11:31:14.390872 21365 net.cpp:394] relu4_3 <- conv4_3
I1126 11:31:14.390888 21365 net.cpp:345] relu4_3 -> conv4_3 (in-place)
I1126 11:31:14.390894 21365 net.cpp:96] Setting up relu4_3
I1126 11:31:14.390902 21365 net.cpp:103] Top shape: 8 512 28 28 (3211264)
I1126 11:31:14.390907 21365 layer_factory.hpp:78] Creating layer pool4
I1126 11:31:14.390913 21365 net.cpp:67] Creating Layer pool4
I1126 11:31:14.390918 21365 net.cpp:394] pool4 <- conv4_3
I1126 11:31:14.390923 21365 net.cpp:356] pool4 -> pool4
I1126 11:31:14.390929 21365 net.cpp:96] Setting up pool4
I1126 11:31:14.390938 21365 net.cpp:103] Top shape: 8 512 14 14 (802816)
I1126 11:31:14.390943 21365 layer_factory.hpp:78] Creating layer conv5_1
I1126 11:31:14.390947 21365 net.cpp:67] Creating Layer conv5_1
I1126 11:31:14.390951 21365 net.cpp:394] conv5_1 <- pool4
I1126 11:31:14.390959 21365 net.cpp:356] conv5_1 -> conv5_1
I1126 11:31:14.390965 21365 net.cpp:96] Setting up conv5_1
I1126 11:31:14.448570 21365 net.cpp:103] Top shape: 8 512 14 14 (802816)
I1126 11:31:14.448595 21365 layer_factory.hpp:78] Creating layer relu5_1
I1126 11:31:14.448602 21365 net.cpp:67] Creating Layer relu5_1
I1126 11:31:14.448606 21365 net.cpp:394] relu5_1 <- conv5_1
I1126 11:31:14.448614 21365 net.cpp:345] relu5_1 -> conv5_1 (in-place)
I1126 11:31:14.448622 21365 net.cpp:96] Setting up relu5_1
I1126 11:31:14.448628 21365 net.cpp:103] Top shape: 8 512 14 14 (802816)
I1126 11:31:14.448633 21365 layer_factory.hpp:78] Creating layer conv5_2
I1126 11:31:14.448640 21365 net.cpp:67] Creating Layer conv5_2
I1126 11:31:14.448645 21365 net.cpp:394] conv5_2 <- conv5_1
I1126 11:31:14.448649 21365 net.cpp:356] conv5_2 -> conv5_2
I1126 11:31:14.448657 21365 net.cpp:96] Setting up conv5_2
I1126 11:31:14.505902 21365 net.cpp:103] Top shape: 8 512 14 14 (802816)
I1126 11:31:14.505936 21365 layer_factory.hpp:78] Creating layer relu5_2
I1126 11:31:14.505944 21365 net.cpp:67] Creating Layer relu5_2
I1126 11:31:14.505949 21365 net.cpp:394] relu5_2 <- conv5_2
I1126 11:31:14.505954 21365 net.cpp:345] relu5_2 -> conv5_2 (in-place)
I1126 11:31:14.505960 21365 net.cpp:96] Setting up relu5_2
I1126 11:31:14.505966 21365 net.cpp:103] Top shape: 8 512 14 14 (802816)
I1126 11:31:14.505970 21365 layer_factory.hpp:78] Creating layer conv5_3
I1126 11:31:14.505980 21365 net.cpp:67] Creating Layer conv5_3
I1126 11:31:14.505985 21365 net.cpp:394] conv5_3 <- conv5_2
I1126 11:31:14.505995 21365 net.cpp:356] conv5_3 -> conv5_3
I1126 11:31:14.506001 21365 net.cpp:96] Setting up conv5_3
I1126 11:31:14.560750 21365 net.cpp:103] Top shape: 8 512 14 14 (802816)
I1126 11:31:14.560787 21365 layer_factory.hpp:78] Creating layer relu5_3
I1126 11:31:14.560797 21365 net.cpp:67] Creating Layer relu5_3
I1126 11:31:14.560801 21365 net.cpp:394] relu5_3 <- conv5_3
I1126 11:31:14.560808 21365 net.cpp:345] relu5_3 -> conv5_3 (in-place)
I1126 11:31:14.560814 21365 net.cpp:96] Setting up relu5_3
I1126 11:31:14.560820 21365 net.cpp:103] Top shape: 8 512 14 14 (802816)
I1126 11:31:14.560827 21365 layer_factory.hpp:78] Creating layer pool5
I1126 11:31:14.560840 21365 net.cpp:67] Creating Layer pool5
I1126 11:31:14.560845 21365 net.cpp:394] pool5 <- conv5_3
I1126 11:31:14.560850 21365 net.cpp:356] pool5 -> pool5
I1126 11:31:14.560856 21365 net.cpp:96] Setting up pool5
I1126 11:31:14.560865 21365 net.cpp:103] Top shape: 8 512 7 7 (200704)
I1126 11:31:14.560870 21365 layer_factory.hpp:78] Creating layer fc6
I1126 11:31:14.560878 21365 net.cpp:67] Creating Layer fc6
I1126 11:31:14.560881 21365 net.cpp:394] fc6 <- pool5
I1126 11:31:14.560886 21365 net.cpp:356] fc6 -> fc6
I1126 11:31:14.560892 21365 net.cpp:96] Setting up fc6
I1126 11:31:16.931668 21365 net.cpp:103] Top shape: 8 4096 1 1 (32768)
I1126 11:31:16.931707 21365 layer_factory.hpp:78] Creating layer relu6
I1126 11:31:16.931717 21365 net.cpp:67] Creating Layer relu6
I1126 11:31:16.931722 21365 net.cpp:394] relu6 <- fc6
I1126 11:31:16.931730 21365 net.cpp:345] relu6 -> fc6 (in-place)
I1126 11:31:16.931737 21365 net.cpp:96] Setting up relu6
I1126 11:31:16.931751 21365 net.cpp:103] Top shape: 8 4096 1 1 (32768)
I1126 11:31:16.931756 21365 layer_factory.hpp:78] Creating layer drop6
I1126 11:31:16.931771 21365 net.cpp:67] Creating Layer drop6
I1126 11:31:16.931777 21365 net.cpp:394] drop6 <- fc6
I1126 11:31:16.931782 21365 net.cpp:345] drop6 -> fc6 (in-place)
I1126 11:31:16.931788 21365 net.cpp:96] Setting up drop6
I1126 11:31:16.931793 21365 net.cpp:103] Top shape: 8 4096 1 1 (32768)
I1126 11:31:16.931798 21365 layer_factory.hpp:78] Creating layer fc7
I1126 11:31:16.931807 21365 net.cpp:67] Creating Layer fc7
I1126 11:31:16.931810 21365 net.cpp:394] fc7 <- fc6
I1126 11:31:16.931817 21365 net.cpp:356] fc7 -> fc7
I1126 11:31:16.931823 21365 net.cpp:96] Setting up fc7
I1126 11:31:17.319543 21365 net.cpp:103] Top shape: 8 4096 1 1 (32768)
I1126 11:31:17.319582 21365 layer_factory.hpp:78] Creating layer relu7
I1126 11:31:17.319591 21365 net.cpp:67] Creating Layer relu7
I1126 11:31:17.319596 21365 net.cpp:394] relu7 <- fc7
I1126 11:31:17.319603 21365 net.cpp:345] relu7 -> fc7 (in-place)
I1126 11:31:17.319610 21365 net.cpp:96] Setting up relu7
I1126 11:31:17.319624 21365 net.cpp:103] Top shape: 8 4096 1 1 (32768)
I1126 11:31:17.319629 21365 layer_factory.hpp:78] Creating layer drop7
I1126 11:31:17.319634 21365 net.cpp:67] Creating Layer drop7
I1126 11:31:17.319638 21365 net.cpp:394] drop7 <- fc7
I1126 11:31:17.319643 21365 net.cpp:345] drop7 -> fc7 (in-place)
I1126 11:31:17.319648 21365 net.cpp:96] Setting up drop7
I1126 11:31:17.319653 21365 net.cpp:103] Top shape: 8 4096 1 1 (32768)
I1126 11:31:17.319658 21365 layer_factory.hpp:78] Creating layer fc8_2
I1126 11:31:17.319668 21365 net.cpp:67] Creating Layer fc8_2
I1126 11:31:17.319671 21365 net.cpp:394] fc8_2 <- fc7
I1126 11:31:17.319680 21365 net.cpp:356] fc8_2 -> fc8_2
I1126 11:31:17.319689 21365 net.cpp:96] Setting up fc8_2
I1126 11:31:17.319898 21365 net.cpp:103] Top shape: 8 2 1 1 (16)
I1126 11:31:17.319905 21365 layer_factory.hpp:78] Creating layer fc8_2_fc8_2_0_split
I1126 11:31:17.319911 21365 net.cpp:67] Creating Layer fc8_2_fc8_2_0_split
I1126 11:31:17.319916 21365 net.cpp:394] fc8_2_fc8_2_0_split <- fc8_2
I1126 11:31:17.319921 21365 net.cpp:356] fc8_2_fc8_2_0_split -> fc8_2_fc8_2_0_split_0
I1126 11:31:17.319927 21365 net.cpp:356] fc8_2_fc8_2_0_split -> fc8_2_fc8_2_0_split_1
I1126 11:31:17.319934 21365 net.cpp:96] Setting up fc8_2_fc8_2_0_split
I1126 11:31:17.319939 21365 net.cpp:103] Top shape: 8 2 1 1 (16)
I1126 11:31:17.319943 21365 net.cpp:103] Top shape: 8 2 1 1 (16)
I1126 11:31:17.319947 21365 layer_factory.hpp:78] Creating layer loss
I1126 11:31:17.319955 21365 net.cpp:67] Creating Layer loss
I1126 11:31:17.319959 21365 net.cpp:394] loss <- fc8_2_fc8_2_0_split_0
I1126 11:31:17.319965 21365 net.cpp:394] loss <- label_data_1_split_0
I1126 11:31:17.319972 21365 net.cpp:356] loss -> (automatic)
I1126 11:31:17.319977 21365 net.cpp:96] Setting up loss
I1126 11:31:17.319983 21365 net.cpp:103] Top shape: 1 1 1 1 (1)
I1126 11:31:17.319988 21365 net.cpp:109]     with loss weight 1
I1126 11:31:17.320000 21365 layer_factory.hpp:78] Creating layer accuracy
I1126 11:31:17.320008 21365 net.cpp:67] Creating Layer accuracy
I1126 11:31:17.320011 21365 net.cpp:394] accuracy <- fc8_2_fc8_2_0_split_1
I1126 11:31:17.320016 21365 net.cpp:394] accuracy <- label_data_1_split_1
I1126 11:31:17.320022 21365 net.cpp:356] accuracy -> accuracy
I1126 11:31:17.320029 21365 net.cpp:96] Setting up accuracy
I1126 11:31:17.320037 21365 net.cpp:103] Top shape: 1 1 1 4 (4)
I1126 11:31:17.320042 21365 net.cpp:172] accuracy does not need backward computation.
I1126 11:31:17.320046 21365 net.cpp:170] loss needs backward computation.
I1126 11:31:17.320050 21365 net.cpp:170] fc8_2_fc8_2_0_split needs backward computation.
I1126 11:31:17.320054 21365 net.cpp:170] fc8_2 needs backward computation.
I1126 11:31:17.320055 21365 net.cpp:170] drop7 needs backward computation.
…
