…
I1118 14:06:27.603478 22433 net.cpp:275] The NetState phase (0) differed from the phase (1) specified by a rule in layer accuracy
I1118 14:06:27.603664 22433 net.cpp:39] Initializing net from parameters: 
name: "small"
layers {
  top: "data"
  top: "label"
  name: "data"
  type: IMAGE_DATA
  image_data_param {
    source: "/data/ad6813/devCaffe/caffe/data/water_high_o/train.txt"
    batch_size: 32
    new_height: 256
    new_width: 256
  }
  include {
    phase: TRAIN
  }
  transform_param {
    mirror: true
    crop_size: 224
    mean_value: 86.752
    mean_value: 101.46
    mean_value: 104.6
  }
}
layers {
  bottom: "data"
  top: "conv1_1"
  name: "conv1_1"
  type: CONVOLUTION
  convolution_param {
    num_output: 64
    pad: 1
    kernel_size: 3
    weight_filler {
      type: "gaussian"
      std: 0.01
    }
    bias_filler {
      type: "constant"
      value: 0
    }
  }
}
layers {
  bottom: "conv1_1"
  top: "conv1_1"
  name: "relu1_1"
  type: RELU
}
layers {
  bottom: "conv1_1"
  top: "conv1_2"
  name: "conv1_2"
  type: CONVOLUTION
  convolution_param {
    num_output: 64
    pad: 1
    kernel_size: 3
    weight_filler {
      type: "gaussian"
      std: 0.01
    }
    bias_filler {
      type: "constant"
      value: 0
    }
  }
}
layers {
  bottom: "conv1_2"
  top: "conv1_2"
  name: "relu1_2"
  type: RELU
}
layers {
  bottom: "conv1_2"
  top: "pool1"
  name: "pool1"
  type: POOLING
  pooling_param {
    pool: MAX
    kernel_size: 2
    stride: 2
  }
}
layers {
  bottom: "pool1"
  top: "conv2_1"
  name: "conv2_1"
  type: CONVOLUTION
  convolution_param {
    num_output: 128
    pad: 1
    kernel_size: 3
    weight_filler {
      type: "gaussian"
      std: 0.01
    }
    bias_filler {
      type: "constant"
      value: 0
    }
  }
}
layers {
  bottom: "conv2_1"
  top: "conv2_1"
  name: "relu2_1"
  type: RELU
}
layers {
  bottom: "conv2_1"
  top: "conv2_2"
  name: "conv2_2"
  type: CONVOLUTION
  convolution_param {
    num_output: 128
    pad: 1
    kernel_size: 3
    weight_filler {
      type: "gaussian"
      std: 0.01
    }
    bias_filler {
      type: "constant"
      value: 0
    }
  }
}
layers {
  bottom: "conv2_2"
  top: "conv2_2"
  name: "relu2_2"
  type: RELU
}
layers {
  bottom: "conv2_2"
  top: "pool2"
  name: "pool2"
  type: POOLING
  pooling_param {
    pool: MAX
    kernel_size: 2
    stride: 2
  }
}
layers {
  bottom: "pool2"
  top: "conv3_1"
  name: "conv3_1"
  type: CONVOLUTION
  convolution_param {
    num_output: 256
    pad: 1
    kernel_size: 3
    weight_filler {
      type: "gaussian"
      std: 0.01
    }
    bias_filler {
      type: "constant"
      value: 0
    }
  }
}
layers {
  bottom: "conv3_1"
  top: "conv3_1"
  name: "relu3_1"
  type: RELU
}
layers {
  bottom: "conv3_1"
  top: "conv3_2"
  name: "conv3_2"
  type: CONVOLUTION
  convolution_param {
    num_output: 256
    pad: 1
    kernel_size: 3
    weight_filler {
      type: "gaussian"
      std: 0.01
    }
    bias_filler {
      type: "constant"
      value: 0
    }
  }
}
layers {
  bottom: "conv3_2"
  top: "conv3_2"
  name: "relu3_2"
  type: RELU
}
layers {
  bottom: "conv3_2"
  top: "conv3_3"
  name: "conv3_3"
  type: CONVOLUTION
  convolution_param {
    num_output: 256
    pad: 1
    kernel_size: 3
    weight_filler {
      type: "gaussian"
      std: 0.01
    }
    bias_filler {
      type: "constant"
      value: 0
    }
  }
}
layers {
  bottom: "conv3_3"
  top: "conv3_3"
  name: "relu3_3"
  type: RELU
}
layers {
  bottom: "conv3_3"
  top: "pool3"
  name: "pool3"
  type: POOLING
  pooling_param {
    pool: MAX
    kernel_size: 2
    stride: 2
  }
}
layers {
  bottom: "pool3"
  top: "conv4_1"
  name: "conv4_1"
  type: CONVOLUTION
  convolution_param {
    num_output: 512
    pad: 1
    kernel_size: 3
    weight_filler {
      type: "gaussian"
      std: 0.01
    }
    bias_filler {
      type: "constant"
      value: 0
    }
  }
}
layers {
  bottom: "conv4_1"
  top: "conv4_1"
  name: "relu4_1"
  type: RELU
}
layers {
  bottom: "conv4_1"
  top: "conv4_2"
  name: "conv4_2"
  type: CONVOLUTION
  convolution_param {
    num_output: 512
    pad: 1
    kernel_size: 3
    weight_filler {
      type: "gaussian"
      std: 0.01
    }
    bias_filler {
      type: "constant"
      value: 0
    }
  }
}
layers {
  bottom: "conv4_2"
  top: "conv4_2"
  name: "relu4_2"
  type: RELU
}
layers {
  bottom: "conv4_2"
  top: "conv4_3"
  name: "conv4_3"
  type: CONVOLUTION
  convolution_param {
    num_output: 512
    pad: 1
    kernel_size: 3
    weight_filler {
      type: "gaussian"
      std: 0.01
    }
    bias_filler {
      type: "constant"
      value: 0
    }
  }
}
layers {
  bottom: "conv4_3"
  top: "conv4_3"
  name: "relu4_3"
  type: RELU
}
layers {
  bottom: "conv4_3"
  top: "pool4"
  name: "pool4"
  type: POOLING
  pooling_param {
    pool: MAX
    kernel_size: 2
    stride: 2
  }
}
layers {
  bottom: "pool4"
  top: "conv5_1"
  name: "conv5_1"
  type: CONVOLUTION
  convolution_param {
    num_output: 512
    pad: 1
    kernel_size: 3
    weight_filler {
      type: "gaussian"
      std: 0.01
    }
    bias_filler {
      type: "constant"
      value: 0
    }
  }
}
layers {
  bottom: "conv5_1"
  top: "conv5_1"
  name: "relu5_1"
  type: RELU
}
layers {
  bottom: "conv5_1"
  top: "conv5_2"
  name: "conv5_2"
  type: CONVOLUTION
  convolution_param {
    num_output: 512
    pad: 1
    kernel_size: 3
    weight_filler {
      type: "gaussian"
      std: 0.01
    }
    bias_filler {
      type: "constant"
      value: 0
    }
  }
}
layers {
  bottom: "conv5_2"
  top: "conv5_2"
  name: "relu5_2"
  type: RELU
}
layers {
  bottom: "conv5_2"
  top: "conv5_3"
  name: "conv5_3"
  type: CONVOLUTION
  convolution_param {
    num_output: 512
    pad: 1
    kernel_size: 3
    weight_filler {
      type: "gaussian"
      std: 0.01
    }
    bias_filler {
      type: "constant"
      value: 0
    }
  }
}
layers {
  bottom: "conv5_3"
  top: "conv5_3"
  name: "relu5_3"
  type: RELU
}
layers {
  bottom: "conv5_3"
  top: "pool5"
  name: "pool5"
  type: POOLING
  pooling_param {
    pool: MAX
    kernel_size: 2
    stride: 2
  }
}
layers {
  bottom: "pool5"
  top: "fc6"
  name: "fc6"
  type: INNER_PRODUCT
  inner_product_param {
    num_output: 4096
    weight_filler {
      type: "gaussian"
      std: 0.01
    }
    bias_filler {
      type: "constant"
      value: 0
    }
  }
}
layers {
  bottom: "fc6"
  top: "fc6"
  name: "relu6"
  type: RELU
}
layers {
  bottom: "fc6"
  top: "fc6"
  name: "drop6"
  type: DROPOUT
  dropout_param {
    dropout_ratio: 0.5
  }
}
layers {
  bottom: "fc6"
  top: "fc7"
  name: "fc7"
  type: INNER_PRODUCT
  inner_product_param {
    num_output: 4096
    weight_filler {
      type: "gaussian"
      std: 0.01
    }
    bias_filler {
      type: "constant"
      value: 0
    }
  }
}
layers {
  bottom: "fc7"
  top: "fc7"
  name: "relu7"
  type: RELU
}
layers {
  bottom: "fc7"
  top: "fc7"
  name: "drop7"
  type: DROPOUT
  dropout_param {
    dropout_ratio: 0.5
  }
}
layers {
  bottom: "fc7"
  top: "fc8_2"
  name: "fc8_2"
  type: INNER_PRODUCT
  inner_product_param {
    num_output: 2
    weight_filler {
      type: "gaussian"
      std: 0.01
    }
    bias_filler {
      type: "constant"
      value: 0
    }
  }
}
layers {
  bottom: "fc8_2"
  bottom: "label"
  name: "loss"
  type: SOFTMAX_LOSS
}
state {
  phase: TRAIN
}
I1118 14:06:27.603785 22433 layer_factory.hpp:78] Creating layer data
I1118 14:06:27.603802 22433 net.cpp:67] Creating Layer data
I1118 14:06:27.603811 22433 net.cpp:356] data -> data
I1118 14:06:27.603832 22433 net.cpp:356] data -> label
I1118 14:06:27.603842 22433 net.cpp:96] Setting up data
I1118 14:06:27.603848 22433 image_data_layer.cpp:34] Opening file /data/ad6813/devCaffe/caffe/data/water_high_o/train.txt
I1118 14:06:27.605025 22433 image_data_layer.cpp:49] A total of 3289 images.
I1118 14:06:27.613546 22433 image_data_layer.cpp:78] output data size: 32,3,224,224
I1118 14:06:27.616318 22433 net.cpp:103] Top shape: 32 3 224 224 (4816896)
I1118 14:06:27.616345 22433 net.cpp:103] Top shape: 32 1 1 1 (32)
I1118 14:06:27.616350 22433 layer_factory.hpp:78] Creating layer conv1_1
I1118 14:06:27.616364 22433 net.cpp:67] Creating Layer conv1_1
I1118 14:06:27.616369 22433 net.cpp:394] conv1_1 <- data
I1118 14:06:27.616384 22433 net.cpp:356] conv1_1 -> conv1_1
I1118 14:06:27.616394 22433 net.cpp:96] Setting up conv1_1
I1118 14:06:27.632972 22433 net.cpp:103] Top shape: 32 64 224 224 (102760448)
I1118 14:06:27.633009 22433 layer_factory.hpp:78] Creating layer relu1_1
I1118 14:06:27.633023 22433 net.cpp:67] Creating Layer relu1_1
I1118 14:06:27.633026 22433 net.cpp:394] relu1_1 <- conv1_1
I1118 14:06:27.633038 22433 net.cpp:345] relu1_1 -> conv1_1 (in-place)
I1118 14:06:27.633047 22433 net.cpp:96] Setting up relu1_1
I1118 14:06:27.633055 22433 net.cpp:103] Top shape: 32 64 224 224 (102760448)
I1118 14:06:27.633059 22433 layer_factory.hpp:78] Creating layer conv1_2
I1118 14:06:27.633065 22433 net.cpp:67] Creating Layer conv1_2
I1118 14:06:27.633069 22433 net.cpp:394] conv1_2 <- conv1_1
I1118 14:06:27.633074 22433 net.cpp:356] conv1_2 -> conv1_2
I1118 14:06:27.633082 22433 net.cpp:96] Setting up conv1_2
I1118 14:06:27.634107 22433 net.cpp:103] Top shape: 32 64 224 224 (102760448)
I1118 14:06:27.634119 22433 layer_factory.hpp:78] Creating layer relu1_2
I1118 14:06:27.634126 22433 net.cpp:67] Creating Layer relu1_2
I1118 14:06:27.634130 22433 net.cpp:394] relu1_2 <- conv1_2
I1118 14:06:27.634135 22433 net.cpp:345] relu1_2 -> conv1_2 (in-place)
I1118 14:06:27.634140 22433 net.cpp:96] Setting up relu1_2
I1118 14:06:27.634145 22433 net.cpp:103] Top shape: 32 64 224 224 (102760448)
I1118 14:06:27.634147 22433 layer_factory.hpp:78] Creating layer pool1
I1118 14:06:27.634155 22433 net.cpp:67] Creating Layer pool1
I1118 14:06:27.634160 22433 net.cpp:394] pool1 <- conv1_2
I1118 14:06:27.634166 22433 net.cpp:356] pool1 -> pool1
I1118 14:06:27.634171 22433 net.cpp:96] Setting up pool1
I1118 14:06:27.634186 22433 net.cpp:103] Top shape: 32 64 112 112 (25690112)
I1118 14:06:27.634191 22433 layer_factory.hpp:78] Creating layer conv2_1
I1118 14:06:27.634197 22433 net.cpp:67] Creating Layer conv2_1
I1118 14:06:27.634201 22433 net.cpp:394] conv2_1 <- pool1
I1118 14:06:27.634205 22433 net.cpp:356] conv2_1 -> conv2_1
I1118 14:06:27.634210 22433 net.cpp:96] Setting up conv2_1
I1118 14:06:27.636104 22433 net.cpp:103] Top shape: 32 128 112 112 (51380224)
I1118 14:06:27.636116 22433 layer_factory.hpp:78] Creating layer relu2_1
I1118 14:06:27.636121 22433 net.cpp:67] Creating Layer relu2_1
I1118 14:06:27.636124 22433 net.cpp:394] relu2_1 <- conv2_1
I1118 14:06:27.636131 22433 net.cpp:345] relu2_1 -> conv2_1 (in-place)
I1118 14:06:27.636136 22433 net.cpp:96] Setting up relu2_1
I1118 14:06:27.636140 22433 net.cpp:103] Top shape: 32 128 112 112 (51380224)
I1118 14:06:27.636143 22433 layer_factory.hpp:78] Creating layer conv2_2
I1118 14:06:27.636150 22433 net.cpp:67] Creating Layer conv2_2
I1118 14:06:27.636155 22433 net.cpp:394] conv2_2 <- conv2_1
I1118 14:06:27.636162 22433 net.cpp:356] conv2_2 -> conv2_2
I1118 14:06:27.636167 22433 net.cpp:96] Setting up conv2_2
I1118 14:06:27.639886 22433 net.cpp:103] Top shape: 32 128 112 112 (51380224)
I1118 14:06:27.639897 22433 layer_factory.hpp:78] Creating layer relu2_2
I1118 14:06:27.639904 22433 net.cpp:67] Creating Layer relu2_2
I1118 14:06:27.639906 22433 net.cpp:394] relu2_2 <- conv2_2
I1118 14:06:27.639911 22433 net.cpp:345] relu2_2 -> conv2_2 (in-place)
I1118 14:06:27.639915 22433 net.cpp:96] Setting up relu2_2
I1118 14:06:27.639920 22433 net.cpp:103] Top shape: 32 128 112 112 (51380224)
I1118 14:06:27.639931 22433 layer_factory.hpp:78] Creating layer pool2
I1118 14:06:27.639936 22433 net.cpp:67] Creating Layer pool2
I1118 14:06:27.639940 22433 net.cpp:394] pool2 <- conv2_2
I1118 14:06:27.639945 22433 net.cpp:356] pool2 -> pool2
I1118 14:06:27.639951 22433 net.cpp:96] Setting up pool2
I1118 14:06:27.639957 22433 net.cpp:103] Top shape: 32 128 56 56 (12845056)
I1118 14:06:27.639961 22433 layer_factory.hpp:78] Creating layer conv3_1
I1118 14:06:27.639966 22433 net.cpp:67] Creating Layer conv3_1
I1118 14:06:27.639968 22433 net.cpp:394] conv3_1 <- pool2
I1118 14:06:27.639974 22433 net.cpp:356] conv3_1 -> conv3_1
I1118 14:06:27.639981 22433 net.cpp:96] Setting up conv3_1
I1118 14:06:27.647310 22433 net.cpp:103] Top shape: 32 256 56 56 (25690112)
I1118 14:06:27.647323 22433 layer_factory.hpp:78] Creating layer relu3_1
I1118 14:06:27.647328 22433 net.cpp:67] Creating Layer relu3_1
I1118 14:06:27.647331 22433 net.cpp:394] relu3_1 <- conv3_1
I1118 14:06:27.647337 22433 net.cpp:345] relu3_1 -> conv3_1 (in-place)
I1118 14:06:27.647342 22433 net.cpp:96] Setting up relu3_1
I1118 14:06:27.647347 22433 net.cpp:103] Top shape: 32 256 56 56 (25690112)
I1118 14:06:27.647351 22433 layer_factory.hpp:78] Creating layer conv3_2
I1118 14:06:27.647356 22433 net.cpp:67] Creating Layer conv3_2
I1118 14:06:27.647357 22433 net.cpp:394] conv3_2 <- conv3_1
I1118 14:06:27.647367 22433 net.cpp:356] conv3_2 -> conv3_2
I1118 14:06:27.647372 22433 net.cpp:96] Setting up conv3_2
I1118 14:06:27.662210 22433 net.cpp:103] Top shape: 32 256 56 56 (25690112)
I1118 14:06:27.662233 22433 layer_factory.hpp:78] Creating layer relu3_2
I1118 14:06:27.662243 22433 net.cpp:67] Creating Layer relu3_2
I1118 14:06:27.662248 22433 net.cpp:394] relu3_2 <- conv3_2
I1118 14:06:27.662256 22433 net.cpp:345] relu3_2 -> conv3_2 (in-place)
I1118 14:06:27.662261 22433 net.cpp:96] Setting up relu3_2
I1118 14:06:27.662267 22433 net.cpp:103] Top shape: 32 256 56 56 (25690112)
I1118 14:06:27.662271 22433 layer_factory.hpp:78] Creating layer conv3_3
I1118 14:06:27.662276 22433 net.cpp:67] Creating Layer conv3_3
I1118 14:06:27.662278 22433 net.cpp:394] conv3_3 <- conv3_2
I1118 14:06:27.662286 22433 net.cpp:356] conv3_3 -> conv3_3
I1118 14:06:27.662293 22433 net.cpp:96] Setting up conv3_3
I1118 14:06:27.676707 22433 net.cpp:103] Top shape: 32 256 56 56 (25690112)
I1118 14:06:27.676724 22433 layer_factory.hpp:78] Creating layer relu3_3
I1118 14:06:27.676735 22433 net.cpp:67] Creating Layer relu3_3
I1118 14:06:27.676743 22433 net.cpp:394] relu3_3 <- conv3_3
I1118 14:06:27.676748 22433 net.cpp:345] relu3_3 -> conv3_3 (in-place)
I1118 14:06:27.676753 22433 net.cpp:96] Setting up relu3_3
I1118 14:06:27.676759 22433 net.cpp:103] Top shape: 32 256 56 56 (25690112)
I1118 14:06:27.676761 22433 layer_factory.hpp:78] Creating layer pool3
I1118 14:06:27.676767 22433 net.cpp:67] Creating Layer pool3
I1118 14:06:27.676770 22433 net.cpp:394] pool3 <- conv3_3
I1118 14:06:27.676776 22433 net.cpp:356] pool3 -> pool3
I1118 14:06:27.676784 22433 net.cpp:96] Setting up pool3
I1118 14:06:27.676794 22433 net.cpp:103] Top shape: 32 256 28 28 (6422528)
I1118 14:06:27.676798 22433 layer_factory.hpp:78] Creating layer conv4_1
I1118 14:06:27.676806 22433 net.cpp:67] Creating Layer conv4_1
I1118 14:06:27.676811 22433 net.cpp:394] conv4_1 <- pool3
I1118 14:06:27.676816 22433 net.cpp:356] conv4_1 -> conv4_1
I1118 14:06:27.676822 22433 net.cpp:96] Setting up conv4_1
I1118 14:06:27.705771 22433 net.cpp:103] Top shape: 32 512 28 28 (12845056)
I1118 14:06:27.705796 22433 layer_factory.hpp:78] Creating layer relu4_1
I1118 14:06:27.705803 22433 net.cpp:67] Creating Layer relu4_1
I1118 14:06:27.705807 22433 net.cpp:394] relu4_1 <- conv4_1
I1118 14:06:27.705814 22433 net.cpp:345] relu4_1 -> conv4_1 (in-place)
I1118 14:06:27.705823 22433 net.cpp:96] Setting up relu4_1
I1118 14:06:27.705828 22433 net.cpp:103] Top shape: 32 512 28 28 (12845056)
I1118 14:06:27.705832 22433 layer_factory.hpp:78] Creating layer conv4_2
I1118 14:06:27.705837 22433 net.cpp:67] Creating Layer conv4_2
I1118 14:06:27.705840 22433 net.cpp:394] conv4_2 <- conv4_1
I1118 14:06:27.705853 22433 net.cpp:356] conv4_2 -> conv4_2
I1118 14:06:27.705859 22433 net.cpp:96] Setting up conv4_2
I1118 14:06:27.763263 22433 net.cpp:103] Top shape: 32 512 28 28 (12845056)
I1118 14:06:27.763293 22433 layer_factory.hpp:78] Creating layer relu4_2
I1118 14:06:27.763300 22433 net.cpp:67] Creating Layer relu4_2
I1118 14:06:27.763305 22433 net.cpp:394] relu4_2 <- conv4_2
I1118 14:06:27.763311 22433 net.cpp:345] relu4_2 -> conv4_2 (in-place)
I1118 14:06:27.763319 22433 net.cpp:96] Setting up relu4_2
I1118 14:06:27.763324 22433 net.cpp:103] Top shape: 32 512 28 28 (12845056)
I1118 14:06:27.763327 22433 layer_factory.hpp:78] Creating layer conv4_3
I1118 14:06:27.763332 22433 net.cpp:67] Creating Layer conv4_3
I1118 14:06:27.763340 22433 net.cpp:394] conv4_3 <- conv4_2
I1118 14:06:27.763346 22433 net.cpp:356] conv4_3 -> conv4_3
I1118 14:06:27.763352 22433 net.cpp:96] Setting up conv4_3
I1118 14:06:27.820854 22433 net.cpp:103] Top shape: 32 512 28 28 (12845056)
I1118 14:06:27.820879 22433 layer_factory.hpp:78] Creating layer relu4_3
I1118 14:06:27.820888 22433 net.cpp:67] Creating Layer relu4_3
I1118 14:06:27.820891 22433 net.cpp:394] relu4_3 <- conv4_3
I1118 14:06:27.820899 22433 net.cpp:345] relu4_3 -> conv4_3 (in-place)
I1118 14:06:27.820905 22433 net.cpp:96] Setting up relu4_3
I1118 14:06:27.820911 22433 net.cpp:103] Top shape: 32 512 28 28 (12845056)
I1118 14:06:27.820914 22433 layer_factory.hpp:78] Creating layer pool4
I1118 14:06:27.820921 22433 net.cpp:67] Creating Layer pool4
I1118 14:06:27.820925 22433 net.cpp:394] pool4 <- conv4_3
I1118 14:06:27.820930 22433 net.cpp:356] pool4 -> pool4
I1118 14:06:27.820937 22433 net.cpp:96] Setting up pool4
I1118 14:06:27.820945 22433 net.cpp:103] Top shape: 32 512 14 14 (3211264)
I1118 14:06:27.820950 22433 layer_factory.hpp:78] Creating layer conv5_1
I1118 14:06:27.820955 22433 net.cpp:67] Creating Layer conv5_1
I1118 14:06:27.820960 22433 net.cpp:394] conv5_1 <- pool4
I1118 14:06:27.820963 22433 net.cpp:356] conv5_1 -> conv5_1
I1118 14:06:27.820971 22433 net.cpp:96] Setting up conv5_1
I1118 14:06:27.878417 22433 net.cpp:103] Top shape: 32 512 14 14 (3211264)
I1118 14:06:27.878440 22433 layer_factory.hpp:78] Creating layer relu5_1
I1118 14:06:27.878449 22433 net.cpp:67] Creating Layer relu5_1
I1118 14:06:27.878453 22433 net.cpp:394] relu5_1 <- conv5_1
I1118 14:06:27.878461 22433 net.cpp:345] relu5_1 -> conv5_1 (in-place)
I1118 14:06:27.878468 22433 net.cpp:96] Setting up relu5_1
I1118 14:06:27.878474 22433 net.cpp:103] Top shape: 32 512 14 14 (3211264)
I1118 14:06:27.878478 22433 layer_factory.hpp:78] Creating layer conv5_2
I1118 14:06:27.878484 22433 net.cpp:67] Creating Layer conv5_2
I1118 14:06:27.878486 22433 net.cpp:394] conv5_2 <- conv5_1
I1118 14:06:27.878490 22433 net.cpp:356] conv5_2 -> conv5_2
I1118 14:06:27.878500 22433 net.cpp:96] Setting up conv5_2
I1118 14:06:27.936064 22433 net.cpp:103] Top shape: 32 512 14 14 (3211264)
I1118 14:06:27.936089 22433 layer_factory.hpp:78] Creating layer relu5_2
I1118 14:06:27.936095 22433 net.cpp:67] Creating Layer relu5_2
I1118 14:06:27.936100 22433 net.cpp:394] relu5_2 <- conv5_2
I1118 14:06:27.936106 22433 net.cpp:345] relu5_2 -> conv5_2 (in-place)
I1118 14:06:27.936113 22433 net.cpp:96] Setting up relu5_2
I1118 14:06:27.936118 22433 net.cpp:103] Top shape: 32 512 14 14 (3211264)
I1118 14:06:27.936121 22433 layer_factory.hpp:78] Creating layer conv5_3
I1118 14:06:27.936128 22433 net.cpp:67] Creating Layer conv5_3
I1118 14:06:27.936131 22433 net.cpp:394] conv5_3 <- conv5_2
I1118 14:06:27.936136 22433 net.cpp:356] conv5_3 -> conv5_3
I1118 14:06:27.936142 22433 net.cpp:96] Setting up conv5_3
I1118 14:06:27.993439 22433 net.cpp:103] Top shape: 32 512 14 14 (3211264)
I1118 14:06:27.993468 22433 layer_factory.hpp:78] Creating layer relu5_3
I1118 14:06:27.993476 22433 net.cpp:67] Creating Layer relu5_3
I1118 14:06:27.993480 22433 net.cpp:394] relu5_3 <- conv5_3
I1118 14:06:27.993489 22433 net.cpp:345] relu5_3 -> conv5_3 (in-place)
I1118 14:06:27.993494 22433 net.cpp:96] Setting up relu5_3
I1118 14:06:27.993500 22433 net.cpp:103] Top shape: 32 512 14 14 (3211264)
I1118 14:06:27.993513 22433 layer_factory.hpp:78] Creating layer pool5
I1118 14:06:27.993520 22433 net.cpp:67] Creating Layer pool5
I1118 14:06:27.993522 22433 net.cpp:394] pool5 <- conv5_3
I1118 14:06:27.993526 22433 net.cpp:356] pool5 -> pool5
I1118 14:06:27.993532 22433 net.cpp:96] Setting up pool5
I1118 14:06:27.993540 22433 net.cpp:103] Top shape: 32 512 7 7 (802816)
I1118 14:06:27.993542 22433 layer_factory.hpp:78] Creating layer fc6
I1118 14:06:27.993557 22433 net.cpp:67] Creating Layer fc6
I1118 14:06:27.993561 22433 net.cpp:394] fc6 <- pool5
I1118 14:06:27.993567 22433 net.cpp:356] fc6 -> fc6
I1118 14:06:27.993573 22433 net.cpp:96] Setting up fc6
I1118 14:06:30.375174 22433 net.cpp:103] Top shape: 32 4096 1 1 (131072)
I1118 14:06:30.375217 22433 layer_factory.hpp:78] Creating layer relu6
I1118 14:06:30.375226 22433 net.cpp:67] Creating Layer relu6
I1118 14:06:30.375229 22433 net.cpp:394] relu6 <- fc6
I1118 14:06:30.375238 22433 net.cpp:345] relu6 -> fc6 (in-place)
I1118 14:06:30.375246 22433 net.cpp:96] Setting up relu6
I1118 14:06:30.375260 22433 net.cpp:103] Top shape: 32 4096 1 1 (131072)
I1118 14:06:30.375263 22433 layer_factory.hpp:78] Creating layer drop6
I1118 14:06:30.375272 22433 net.cpp:67] Creating Layer drop6
I1118 14:06:30.375275 22433 net.cpp:394] drop6 <- fc6
I1118 14:06:30.375279 22433 net.cpp:345] drop6 -> fc6 (in-place)
I1118 14:06:30.375283 22433 net.cpp:96] Setting up drop6
I1118 14:06:30.375289 22433 net.cpp:103] Top shape: 32 4096 1 1 (131072)
I1118 14:06:30.375293 22433 layer_factory.hpp:78] Creating layer fc7
I1118 14:06:30.375298 22433 net.cpp:67] Creating Layer fc7
I1118 14:06:30.375300 22433 net.cpp:394] fc7 <- fc6
I1118 14:06:30.375305 22433 net.cpp:356] fc7 -> fc7
I1118 14:06:30.375311 22433 net.cpp:96] Setting up fc7
I1118 14:06:30.765144 22433 net.cpp:103] Top shape: 32 4096 1 1 (131072)
I1118 14:06:30.765179 22433 layer_factory.hpp:78] Creating layer relu7
I1118 14:06:30.765195 22433 net.cpp:67] Creating Layer relu7
I1118 14:06:30.765202 22433 net.cpp:394] relu7 <- fc7
I1118 14:06:30.765214 22433 net.cpp:345] relu7 -> fc7 (in-place)
I1118 14:06:30.765229 22433 net.cpp:96] Setting up relu7
I1118 14:06:30.765250 22433 net.cpp:103] Top shape: 32 4096 1 1 (131072)
I1118 14:06:30.765259 22433 layer_factory.hpp:78] Creating layer drop7
I1118 14:06:30.765269 22433 net.cpp:67] Creating Layer drop7
I1118 14:06:30.765274 22433 net.cpp:394] drop7 <- fc7
I1118 14:06:30.765290 22433 net.cpp:345] drop7 -> fc7 (in-place)
I1118 14:06:30.765300 22433 net.cpp:96] Setting up drop7
I1118 14:06:30.765311 22433 net.cpp:103] Top shape: 32 4096 1 1 (131072)
I1118 14:06:30.765318 22433 layer_factory.hpp:78] Creating layer fc8_2
I1118 14:06:30.765327 22433 net.cpp:67] Creating Layer fc8_2
I1118 14:06:30.765336 22433 net.cpp:394] fc8_2 <- fc7
I1118 14:06:30.765346 22433 net.cpp:356] fc8_2 -> fc8_2
I1118 14:06:30.765358 22433 net.cpp:96] Setting up fc8_2
I1118 14:06:30.765666 22433 net.cpp:103] Top shape: 32 2 1 1 (64)
I1118 14:06:30.765681 22433 layer_factory.hpp:78] Creating layer loss
I1118 14:06:30.765697 22433 net.cpp:67] Creating Layer loss
I1118 14:06:30.765707 22433 net.cpp:394] loss <- fc8_2
I1118 14:06:30.765713 22433 net.cpp:394] loss <- label
I1118 14:06:30.765727 22433 net.cpp:356] loss -> (automatic)
I1118 14:06:30.765738 22433 net.cpp:96] Setting up loss
I1118 14:06:30.765751 22433 net.cpp:103] Top shape: 1 1 1 1 (1)
I1118 14:06:30.765760 22433 net.cpp:109]     with loss weight 1
I1118 14:06:30.765795 22433 net.cpp:170] loss needs backward computation.
I1118 14:06:30.765805 22433 net.cpp:170] fc8_2 needs backward computation.
I1118 14:06:30.765810 22433 net.cpp:170] drop7 needs backward computation.
I1118 14:06:30.765815 22433 net.cpp:170] relu7 needs backward computation.
I1118 14:06:30.765820 22433 net.cpp:170] fc7 needs backward computation.
…
I1118 14:06:30.767557 22433 net.cpp:275] The NetState phase (1) differed from the phase (0) specified by a rule in layer data
I1118 14:06:30.767948 22433 net.cpp:39] Initializing net from parameters: 
name: "small"
layers {
  top: "data"
  top: "label"
  name: "data"
  type: IMAGE_DATA
  image_data_param {
    source: "/data/ad6813/devCaffe/caffe/data/water_high_o/val.txt"
    batch_size: 8
    new_height: 256
    new_width: 256
  }
  include {
    phase: TEST
  }
  transform_param {
    mirror: true
    crop_size: 224
    mean_value: 86.752
    mean_value: 101.46
    mean_value: 104.6
  }
}
layers {
  bottom: "data"
  top: "conv1_1"
  name: "conv1_1"
  type: CONVOLUTION
  convolution_param {
    num_output: 64
    pad: 1
    kernel_size: 3
    weight_filler {
      type: "gaussian"
      std: 0.01
    }
    bias_filler {
      type: "constant"
      value: 0
    }
  }
}
layers {
  bottom: "conv1_1"
  top: "conv1_1"
  name: "relu1_1"
  type: RELU
}
layers {
  bottom: "conv1_1"
  top: "conv1_2"
  name: "conv1_2"
  type: CONVOLUTION
  convolution_param {
    num_output: 64
    pad: 1
    kernel_size: 3
    weight_filler {
      type: "gaussian"
      std: 0.01
    }
    bias_filler {
      type: "constant"
      value: 0
    }
  }
}
layers {
  bottom: "conv1_2"
  top: "conv1_2"
  name: "relu1_2"
  type: RELU
}
layers {
  bottom: "conv1_2"
  top: "pool1"
  name: "pool1"
  type: POOLING
  pooling_param {
    pool: MAX
    kernel_size: 2
    stride: 2
  }
}
layers {
  bottom: "pool1"
  top: "conv2_1"
  name: "conv2_1"
  type: CONVOLUTION
  convolution_param {
    num_output: 128
    pad: 1
    kernel_size: 3
    weight_filler {
      type: "gaussian"
      std: 0.01
    }
    bias_filler {
      type: "constant"
      value: 0
    }
  }
}
layers {
  bottom: "conv2_1"
  top: "conv2_1"
  name: "relu2_1"
  type: RELU
}
layers {
  bottom: "conv2_1"
  top: "conv2_2"
  name: "conv2_2"
  type: CONVOLUTION
  convolution_param {
    num_output: 128
    pad: 1
    kernel_size: 3
    weight_filler {
      type: "gaussian"
      std: 0.01
    }
    bias_filler {
      type: "constant"
      value: 0
    }
  }
}
layers {
  bottom: "conv2_2"
  top: "conv2_2"
  name: "relu2_2"
  type: RELU
}
layers {
  bottom: "conv2_2"
  top: "pool2"
  name: "pool2"
  type: POOLING
  pooling_param {
    pool: MAX
    kernel_size: 2
    stride: 2
  }
}
layers {
  bottom: "pool2"
  top: "conv3_1"
  name: "conv3_1"
  type: CONVOLUTION
  convolution_param {
    num_output: 256
    pad: 1
    kernel_size: 3
    weight_filler {
      type: "gaussian"
      std: 0.01
    }
    bias_filler {
      type: "constant"
      value: 0
    }
  }
}
layers {
  bottom: "conv3_1"
  top: "conv3_1"
  name: "relu3_1"
  type: RELU
}
layers {
  bottom: "conv3_1"
  top: "conv3_2"
  name: "conv3_2"
  type: CONVOLUTION
  convolution_param {
    num_output: 256
    pad: 1
    kernel_size: 3
    weight_filler {
      type: "gaussian"
      std: 0.01
    }
    bias_filler {
      type: "constant"
      value: 0
    }
  }
}
layers {
  bottom: "conv3_2"
  top: "conv3_2"
  name: "relu3_2"
  type: RELU
}
layers {
  bottom: "conv3_2"
  top: "conv3_3"
  name: "conv3_3"
  type: CONVOLUTION
  convolution_param {
    num_output: 256
    pad: 1
    kernel_size: 3
    weight_filler {
      type: "gaussian"
      std: 0.01
    }
    bias_filler {
      type: "constant"
      value: 0
    }
  }
}
layers {
  bottom: "conv3_3"
  top: "conv3_3"
  name: "relu3_3"
  type: RELU
}
layers {
  bottom: "conv3_3"
  top: "pool3"
  name: "pool3"
  type: POOLING
  pooling_param {
    pool: MAX
    kernel_size: 2
    stride: 2
  }
}
layers {
  bottom: "pool3"
  top: "conv4_1"
  name: "conv4_1"
  type: CONVOLUTION
  convolution_param {
    num_output: 512
    pad: 1
    kernel_size: 3
    weight_filler {
      type: "gaussian"
      std: 0.01
    }
    bias_filler {
      type: "constant"
      value: 0
    }
  }
}
layers {
  bottom: "conv4_1"
  top: "conv4_1"
  name: "relu4_1"
  type: RELU
}
layers {
  bottom: "conv4_1"
  top: "conv4_2"
  name: "conv4_2"
  type: CONVOLUTION
  convolution_param {
    num_output: 512
    pad: 1
    kernel_size: 3
    weight_filler {
      type: "gaussian"
      std: 0.01
    }
    bias_filler {
      type: "constant"
      value: 0
    }
  }
}
layers {
  bottom: "conv4_2"
  top: "conv4_2"
  name: "relu4_2"
  type: RELU
}
layers {
  bottom: "conv4_2"
  top: "conv4_3"
  name: "conv4_3"
  type: CONVOLUTION
  convolution_param {
    num_output: 512
    pad: 1
    kernel_size: 3
    weight_filler {
      type: "gaussian"
      std: 0.01
    }
    bias_filler {
      type: "constant"
      value: 0
    }
  }
}
layers {
  bottom: "conv4_3"
  top: "conv4_3"
  name: "relu4_3"
  type: RELU
}
layers {
  bottom: "conv4_3"
  top: "pool4"
  name: "pool4"
  type: POOLING
  pooling_param {
    pool: MAX
    kernel_size: 2
    stride: 2
  }
}
layers {
  bottom: "pool4"
  top: "conv5_1"
  name: "conv5_1"
  type: CONVOLUTION
  convolution_param {
    num_output: 512
    pad: 1
    kernel_size: 3
    weight_filler {
      type: "gaussian"
      std: 0.01
    }
    bias_filler {
      type: "constant"
      value: 0
    }
  }
}
layers {
  bottom: "conv5_1"
  top: "conv5_1"
  name: "relu5_1"
  type: RELU
}
layers {
  bottom: "conv5_1"
  top: "conv5_2"
  name: "conv5_2"
  type: CONVOLUTION
  convolution_param {
    num_output: 512
    pad: 1
    kernel_size: 3
    weight_filler {
      type: "gaussian"
      std: 0.01
    }
    bias_filler {
      type: "constant"
      value: 0
    }
  }
}
layers {
  bottom: "conv5_2"
  top: "conv5_2"
  name: "relu5_2"
  type: RELU
}
layers {
  bottom: "conv5_2"
  top: "conv5_3"
  name: "conv5_3"
  type: CONVOLUTION
  convolution_param {
    num_output: 512
    pad: 1
    kernel_size: 3
    weight_filler {
      type: "gaussian"
      std: 0.01
    }
    bias_filler {
      type: "constant"
      value: 0
    }
  }
}
layers {
  bottom: "conv5_3"
  top: "conv5_3"
  name: "relu5_3"
  type: RELU
}
layers {
  bottom: "conv5_3"
  top: "pool5"
  name: "pool5"
  type: POOLING
  pooling_param {
    pool: MAX
    kernel_size: 2
    stride: 2
  }
}
layers {
  bottom: "pool5"
  top: "fc6"
  name: "fc6"
  type: INNER_PRODUCT
  inner_product_param {
    num_output: 4096
    weight_filler {
      type: "gaussian"
      std: 0.01
    }
    bias_filler {
      type: "constant"
      value: 0
    }
  }
}
layers {
  bottom: "fc6"
  top: "fc6"
  name: "relu6"
  type: RELU
}
layers {
  bottom: "fc6"
  top: "fc6"
  name: "drop6"
  type: DROPOUT
  dropout_param {
    dropout_ratio: 0.5
  }
}
layers {
  bottom: "fc6"
  top: "fc7"
  name: "fc7"
  type: INNER_PRODUCT
  inner_product_param {
    num_output: 4096
    weight_filler {
      type: "gaussian"
      std: 0.01
    }
    bias_filler {
      type: "constant"
      value: 0
    }
  }
}
layers {
  bottom: "fc7"
  top: "fc7"
  name: "relu7"
  type: RELU
}
layers {
  bottom: "fc7"
  top: "fc7"
  name: "drop7"
  type: DROPOUT
  dropout_param {
    dropout_ratio: 0.5
  }
}
layers {
  bottom: "fc7"
  top: "fc8_2"
  name: "fc8_2"
  type: INNER_PRODUCT
  inner_product_param {
    num_output: 2
    weight_filler {
      type: "gaussian"
      std: 0.01
    }
    bias_filler {
      type: "constant"
      value: 0
    }
  }
}
layers {
  bottom: "fc8_2"
  bottom: "label"
  name: "loss"
  type: SOFTMAX_LOSS
}
layers {
  bottom: "fc8_2"
  bottom: "label"
  top: "accuracy"
  name: "accuracy"
  type: PER_CLASS_ACCURACY
  include {
    phase: TEST
  }
}
state {
  phase: TEST
}
I1118 14:06:30.768170 22433 layer_factory.hpp:78] Creating layer data
I1118 14:06:30.768187 22433 net.cpp:67] Creating Layer data
I1118 14:06:30.768194 22433 net.cpp:356] data -> data
I1118 14:06:30.768208 22433 net.cpp:356] data -> label
I1118 14:06:30.768218 22433 net.cpp:96] Setting up data
I1118 14:06:30.768224 22433 image_data_layer.cpp:34] Opening file /data/ad6813/devCaffe/caffe/data/water_high_o/val.txt
I1118 14:06:30.768652 22433 image_data_layer.cpp:49] A total of 576 images.
I1118 14:06:30.776022 22433 image_data_layer.cpp:78] output data size: 8,3,224,224
I1118 14:06:30.776907 22433 net.cpp:103] Top shape: 8 3 224 224 (1204224)
I1118 14:06:30.776917 22433 net.cpp:103] Top shape: 8 1 1 1 (8)
I1118 14:06:30.776922 22433 layer_factory.hpp:78] Creating layer label_data_1_split
I1118 14:06:30.776932 22433 net.cpp:67] Creating Layer label_data_1_split
I1118 14:06:30.776937 22433 net.cpp:394] label_data_1_split <- label
I1118 14:06:30.776943 22433 net.cpp:356] label_data_1_split -> label_data_1_split_0
I1118 14:06:30.776953 22433 net.cpp:356] label_data_1_split -> label_data_1_split_1
I1118 14:06:30.776958 22433 net.cpp:96] Setting up label_data_1_split
I1118 14:06:30.776964 22433 net.cpp:103] Top shape: 8 1 1 1 (8)
I1118 14:06:30.776968 22433 net.cpp:103] Top shape: 8 1 1 1 (8)
I1118 14:06:30.776970 22433 layer_factory.hpp:78] Creating layer conv1_1
I1118 14:06:30.776978 22433 net.cpp:67] Creating Layer conv1_1
I1118 14:06:30.776980 22433 net.cpp:394] conv1_1 <- data
I1118 14:06:30.776985 22433 net.cpp:356] conv1_1 -> conv1_1
I1118 14:06:30.776991 22433 net.cpp:96] Setting up conv1_1
I1118 14:06:30.777148 22433 net.cpp:103] Top shape: 8 64 224 224 (25690112)
I1118 14:06:30.777163 22433 layer_factory.hpp:78] Creating layer relu1_1
I1118 14:06:30.777168 22433 net.cpp:67] Creating Layer relu1_1
I1118 14:06:30.777170 22433 net.cpp:394] relu1_1 <- conv1_1
I1118 14:06:30.777175 22433 net.cpp:345] relu1_1 -> conv1_1 (in-place)
I1118 14:06:30.777187 22433 net.cpp:96] Setting up relu1_1
I1118 14:06:30.777194 22433 net.cpp:103] Top shape: 8 64 224 224 (25690112)
I1118 14:06:30.777197 22433 layer_factory.hpp:78] Creating layer conv1_2
I1118 14:06:30.777202 22433 net.cpp:67] Creating Layer conv1_2
I1118 14:06:30.777205 22433 net.cpp:394] conv1_2 <- conv1_1
I1118 14:06:30.777210 22433 net.cpp:356] conv1_2 -> conv1_2
I1118 14:06:30.777215 22433 net.cpp:96] Setting up conv1_2
I1118 14:06:30.778177 22433 net.cpp:103] Top shape: 8 64 224 224 (25690112)
I1118 14:06:30.778188 22433 layer_factory.hpp:78] Creating layer relu1_2
I1118 14:06:30.778193 22433 net.cpp:67] Creating Layer relu1_2
I1118 14:06:30.778197 22433 net.cpp:394] relu1_2 <- conv1_2
I1118 14:06:30.778201 22433 net.cpp:345] relu1_2 -> conv1_2 (in-place)
I1118 14:06:30.778205 22433 net.cpp:96] Setting up relu1_2
I1118 14:06:30.778210 22433 net.cpp:103] Top shape: 8 64 224 224 (25690112)
I1118 14:06:30.778213 22433 layer_factory.hpp:78] Creating layer pool1
I1118 14:06:30.778219 22433 net.cpp:67] Creating Layer pool1
I1118 14:06:30.778221 22433 net.cpp:394] pool1 <- conv1_2
I1118 14:06:30.778225 22433 net.cpp:356] pool1 -> pool1
I1118 14:06:30.778230 22433 net.cpp:96] Setting up pool1
I1118 14:06:30.778237 22433 net.cpp:103] Top shape: 8 64 112 112 (6422528)
I1118 14:06:30.778240 22433 layer_factory.hpp:78] Creating layer conv2_1
I1118 14:06:30.778245 22433 net.cpp:67] Creating Layer conv2_1
I1118 14:06:30.778247 22433 net.cpp:394] conv2_1 <- pool1
I1118 14:06:30.778252 22433 net.cpp:356] conv2_1 -> conv2_1
I1118 14:06:30.778257 22433 net.cpp:96] Setting up conv2_1
I1118 14:06:30.780236 22433 net.cpp:103] Top shape: 8 128 112 112 (12845056)
I1118 14:06:30.780251 22433 layer_factory.hpp:78] Creating layer relu2_1
I1118 14:06:30.780256 22433 net.cpp:67] Creating Layer relu2_1
I1118 14:06:30.780259 22433 net.cpp:394] relu2_1 <- conv2_1
I1118 14:06:30.780263 22433 net.cpp:345] relu2_1 -> conv2_1 (in-place)
I1118 14:06:30.780268 22433 net.cpp:96] Setting up relu2_1
I1118 14:06:30.780273 22433 net.cpp:103] Top shape: 8 128 112 112 (12845056)
I1118 14:06:30.780277 22433 layer_factory.hpp:78] Creating layer conv2_2
I1118 14:06:30.780282 22433 net.cpp:67] Creating Layer conv2_2
I1118 14:06:30.780284 22433 net.cpp:394] conv2_2 <- conv2_1
I1118 14:06:30.780288 22433 net.cpp:356] conv2_2 -> conv2_2
I1118 14:06:30.780294 22433 net.cpp:96] Setting up conv2_2
I1118 14:06:30.783936 22433 net.cpp:103] Top shape: 8 128 112 112 (12845056)
I1118 14:06:30.783946 22433 layer_factory.hpp:78] Creating layer relu2_2
I1118 14:06:30.783951 22433 net.cpp:67] Creating Layer relu2_2
I1118 14:06:30.783956 22433 net.cpp:394] relu2_2 <- conv2_2
I1118 14:06:30.783959 22433 net.cpp:345] relu2_2 -> conv2_2 (in-place)
I1118 14:06:30.783964 22433 net.cpp:96] Setting up relu2_2
I1118 14:06:30.783969 22433 net.cpp:103] Top shape: 8 128 112 112 (12845056)
I1118 14:06:30.783972 22433 layer_factory.hpp:78] Creating layer pool2
I1118 14:06:30.783977 22433 net.cpp:67] Creating Layer pool2
I1118 14:06:30.783979 22433 net.cpp:394] pool2 <- conv2_2
I1118 14:06:30.783983 22433 net.cpp:356] pool2 -> pool2
I1118 14:06:30.783988 22433 net.cpp:96] Setting up pool2
I1118 14:06:30.783994 22433 net.cpp:103] Top shape: 8 128 56 56 (3211264)
I1118 14:06:30.783998 22433 layer_factory.hpp:78] Creating layer conv3_1
I1118 14:06:30.784003 22433 net.cpp:67] Creating Layer conv3_1
I1118 14:06:30.784004 22433 net.cpp:394] conv3_1 <- pool2
I1118 14:06:30.784009 22433 net.cpp:356] conv3_1 -> conv3_1
I1118 14:06:30.784014 22433 net.cpp:96] Setting up conv3_1
I1118 14:06:30.791206 22433 net.cpp:103] Top shape: 8 256 56 56 (6422528)
I1118 14:06:30.791221 22433 layer_factory.hpp:78] Creating layer relu3_1
I1118 14:06:30.791226 22433 net.cpp:67] Creating Layer relu3_1
I1118 14:06:30.791230 22433 net.cpp:394] relu3_1 <- conv3_1
I1118 14:06:30.791235 22433 net.cpp:345] relu3_1 -> conv3_1 (in-place)
I1118 14:06:30.791240 22433 net.cpp:96] Setting up relu3_1
I1118 14:06:30.791245 22433 net.cpp:103] Top shape: 8 256 56 56 (6422528)
I1118 14:06:30.791249 22433 layer_factory.hpp:78] Creating layer conv3_2
I1118 14:06:30.791261 22433 net.cpp:67] Creating Layer conv3_2
I1118 14:06:30.791265 22433 net.cpp:394] conv3_2 <- conv3_1
I1118 14:06:30.791268 22433 net.cpp:356] conv3_2 -> conv3_2
I1118 14:06:30.791273 22433 net.cpp:96] Setting up conv3_2
I1118 14:06:30.805788 22433 net.cpp:103] Top shape: 8 256 56 56 (6422528)
I1118 14:06:30.805804 22433 layer_factory.hpp:78] Creating layer relu3_2
I1118 14:06:30.805811 22433 net.cpp:67] Creating Layer relu3_2
I1118 14:06:30.805815 22433 net.cpp:394] relu3_2 <- conv3_2
I1118 14:06:30.805820 22433 net.cpp:345] relu3_2 -> conv3_2 (in-place)
I1118 14:06:30.805825 22433 net.cpp:96] Setting up relu3_2
I1118 14:06:30.805831 22433 net.cpp:103] Top shape: 8 256 56 56 (6422528)
I1118 14:06:30.805835 22433 layer_factory.hpp:78] Creating layer conv3_3
I1118 14:06:30.805845 22433 net.cpp:67] Creating Layer conv3_3
I1118 14:06:30.805847 22433 net.cpp:394] conv3_3 <- conv3_2
I1118 14:06:30.805853 22433 net.cpp:356] conv3_3 -> conv3_3
I1118 14:06:30.805858 22433 net.cpp:96] Setting up conv3_3
I1118 14:06:30.820528 22433 net.cpp:103] Top shape: 8 256 56 56 (6422528)
I1118 14:06:30.820547 22433 layer_factory.hpp:78] Creating layer relu3_3
I1118 14:06:30.820554 22433 net.cpp:67] Creating Layer relu3_3
I1118 14:06:30.820559 22433 net.cpp:394] relu3_3 <- conv3_3
I1118 14:06:30.820566 22433 net.cpp:345] relu3_3 -> conv3_3 (in-place)
I1118 14:06:30.820572 22433 net.cpp:96] Setting up relu3_3
I1118 14:06:30.820579 22433 net.cpp:103] Top shape: 8 256 56 56 (6422528)
I1118 14:06:30.820581 22433 layer_factory.hpp:78] Creating layer pool3
I1118 14:06:30.820586 22433 net.cpp:67] Creating Layer pool3
I1118 14:06:30.820590 22433 net.cpp:394] pool3 <- conv3_3
I1118 14:06:30.820595 22433 net.cpp:356] pool3 -> pool3
I1118 14:06:30.820600 22433 net.cpp:96] Setting up pool3
I1118 14:06:30.820606 22433 net.cpp:103] Top shape: 8 256 28 28 (1605632)
I1118 14:06:30.820610 22433 layer_factory.hpp:78] Creating layer conv4_1
I1118 14:06:30.820616 22433 net.cpp:67] Creating Layer conv4_1
I1118 14:06:30.820621 22433 net.cpp:394] conv4_1 <- pool3
I1118 14:06:30.820626 22433 net.cpp:356] conv4_1 -> conv4_1
I1118 14:06:30.820631 22433 net.cpp:96] Setting up conv4_1
I1118 14:06:30.849755 22433 net.cpp:103] Top shape: 8 512 28 28 (3211264)
I1118 14:06:30.849778 22433 layer_factory.hpp:78] Creating layer relu4_1
I1118 14:06:30.849786 22433 net.cpp:67] Creating Layer relu4_1
I1118 14:06:30.849791 22433 net.cpp:394] relu4_1 <- conv4_1
I1118 14:06:30.849798 22433 net.cpp:345] relu4_1 -> conv4_1 (in-place)
I1118 14:06:30.849805 22433 net.cpp:96] Setting up relu4_1
I1118 14:06:30.849810 22433 net.cpp:103] Top shape: 8 512 28 28 (3211264)
I1118 14:06:30.849813 22433 layer_factory.hpp:78] Creating layer conv4_2
I1118 14:06:30.849819 22433 net.cpp:67] Creating Layer conv4_2
I1118 14:06:30.849822 22433 net.cpp:394] conv4_2 <- conv4_1
I1118 14:06:30.849828 22433 net.cpp:356] conv4_2 -> conv4_2
I1118 14:06:30.849833 22433 net.cpp:96] Setting up conv4_2
I1118 14:06:30.907119 22433 net.cpp:103] Top shape: 8 512 28 28 (3211264)
I1118 14:06:30.907151 22433 layer_factory.hpp:78] Creating layer relu4_2
I1118 14:06:30.907160 22433 net.cpp:67] Creating Layer relu4_2
I1118 14:06:30.907165 22433 net.cpp:394] relu4_2 <- conv4_2
I1118 14:06:30.907171 22433 net.cpp:345] relu4_2 -> conv4_2 (in-place)
I1118 14:06:30.907177 22433 net.cpp:96] Setting up relu4_2
I1118 14:06:30.907182 22433 net.cpp:103] Top shape: 8 512 28 28 (3211264)
I1118 14:06:30.907186 22433 layer_factory.hpp:78] Creating layer conv4_3
I1118 14:06:30.907192 22433 net.cpp:67] Creating Layer conv4_3
I1118 14:06:30.907196 22433 net.cpp:394] conv4_3 <- conv4_2
I1118 14:06:30.907201 22433 net.cpp:356] conv4_3 -> conv4_3
I1118 14:06:30.907209 22433 net.cpp:96] Setting up conv4_3
I1118 14:06:30.964743 22433 net.cpp:103] Top shape: 8 512 28 28 (3211264)
I1118 14:06:30.964768 22433 layer_factory.hpp:78] Creating layer relu4_3
I1118 14:06:30.964776 22433 net.cpp:67] Creating Layer relu4_3
I1118 14:06:30.964781 22433 net.cpp:394] relu4_3 <- conv4_3
I1118 14:06:30.964795 22433 net.cpp:345] relu4_3 -> conv4_3 (in-place)
I1118 14:06:30.964802 22433 net.cpp:96] Setting up relu4_3
I1118 14:06:30.964807 22433 net.cpp:103] Top shape: 8 512 28 28 (3211264)
I1118 14:06:30.964812 22433 layer_factory.hpp:78] Creating layer pool4
I1118 14:06:30.964818 22433 net.cpp:67] Creating Layer pool4
I1118 14:06:30.964822 22433 net.cpp:394] pool4 <- conv4_3
I1118 14:06:30.964826 22433 net.cpp:356] pool4 -> pool4
I1118 14:06:30.964831 22433 net.cpp:96] Setting up pool4
I1118 14:06:30.964838 22433 net.cpp:103] Top shape: 8 512 14 14 (802816)
I1118 14:06:30.964843 22433 layer_factory.hpp:78] Creating layer conv5_1
I1118 14:06:30.964850 22433 net.cpp:67] Creating Layer conv5_1
I1118 14:06:30.964854 22433 net.cpp:394] conv5_1 <- pool4
I1118 14:06:30.964858 22433 net.cpp:356] conv5_1 -> conv5_1
I1118 14:06:30.964864 22433 net.cpp:96] Setting up conv5_1
I1118 14:06:31.022174 22433 net.cpp:103] Top shape: 8 512 14 14 (802816)
I1118 14:06:31.022202 22433 layer_factory.hpp:78] Creating layer relu5_1
I1118 14:06:31.022208 22433 net.cpp:67] Creating Layer relu5_1
I1118 14:06:31.022212 22433 net.cpp:394] relu5_1 <- conv5_1
I1118 14:06:31.022218 22433 net.cpp:345] relu5_1 -> conv5_1 (in-place)
I1118 14:06:31.022225 22433 net.cpp:96] Setting up relu5_1
I1118 14:06:31.022230 22433 net.cpp:103] Top shape: 8 512 14 14 (802816)
I1118 14:06:31.022234 22433 layer_factory.hpp:78] Creating layer conv5_2
I1118 14:06:31.022246 22433 net.cpp:67] Creating Layer conv5_2
I1118 14:06:31.022249 22433 net.cpp:394] conv5_2 <- conv5_1
I1118 14:06:31.022255 22433 net.cpp:356] conv5_2 -> conv5_2
I1118 14:06:31.022261 22433 net.cpp:96] Setting up conv5_2
I1118 14:06:31.079789 22433 net.cpp:103] Top shape: 8 512 14 14 (802816)
I1118 14:06:31.079813 22433 layer_factory.hpp:78] Creating layer relu5_2
I1118 14:06:31.079823 22433 net.cpp:67] Creating Layer relu5_2
I1118 14:06:31.079826 22433 net.cpp:394] relu5_2 <- conv5_2
I1118 14:06:31.079833 22433 net.cpp:345] relu5_2 -> conv5_2 (in-place)
I1118 14:06:31.079839 22433 net.cpp:96] Setting up relu5_2
I1118 14:06:31.079845 22433 net.cpp:103] Top shape: 8 512 14 14 (802816)
I1118 14:06:31.079849 22433 layer_factory.hpp:78] Creating layer conv5_3
I1118 14:06:31.079854 22433 net.cpp:67] Creating Layer conv5_3
I1118 14:06:31.079857 22433 net.cpp:394] conv5_3 <- conv5_2
I1118 14:06:31.079862 22433 net.cpp:356] conv5_3 -> conv5_3
I1118 14:06:31.079869 22433 net.cpp:96] Setting up conv5_3
I1118 14:06:31.137334 22433 net.cpp:103] Top shape: 8 512 14 14 (802816)
I1118 14:06:31.137361 22433 layer_factory.hpp:78] Creating layer relu5_3
I1118 14:06:31.137370 22433 net.cpp:67] Creating Layer relu5_3
I1118 14:06:31.137374 22433 net.cpp:394] relu5_3 <- conv5_3
I1118 14:06:31.137382 22433 net.cpp:345] relu5_3 -> conv5_3 (in-place)
I1118 14:06:31.137387 22433 net.cpp:96] Setting up relu5_3
I1118 14:06:31.137393 22433 net.cpp:103] Top shape: 8 512 14 14 (802816)
I1118 14:06:31.137397 22433 layer_factory.hpp:78] Creating layer pool5
I1118 14:06:31.137406 22433 net.cpp:67] Creating Layer pool5
I1118 14:06:31.137410 22433 net.cpp:394] pool5 <- conv5_3
I1118 14:06:31.137414 22433 net.cpp:356] pool5 -> pool5
I1118 14:06:31.137420 22433 net.cpp:96] Setting up pool5
I1118 14:06:31.137428 22433 net.cpp:103] Top shape: 8 512 7 7 (200704)
I1118 14:06:31.137430 22433 layer_factory.hpp:78] Creating layer fc6
I1118 14:06:31.137437 22433 net.cpp:67] Creating Layer fc6
I1118 14:06:31.137440 22433 net.cpp:394] fc6 <- pool5
I1118 14:06:31.137445 22433 net.cpp:356] fc6 -> fc6
I1118 14:06:31.137450 22433 net.cpp:96] Setting up fc6
I1118 14:06:33.547999 22433 net.cpp:103] Top shape: 8 4096 1 1 (32768)
I1118 14:06:33.548040 22433 layer_factory.hpp:78] Creating layer relu6
I1118 14:06:33.548049 22433 net.cpp:67] Creating Layer relu6
I1118 14:06:33.548054 22433 net.cpp:394] relu6 <- fc6
I1118 14:06:33.548061 22433 net.cpp:345] relu6 -> fc6 (in-place)
I1118 14:06:33.548069 22433 net.cpp:96] Setting up relu6
I1118 14:06:33.548082 22433 net.cpp:103] Top shape: 8 4096 1 1 (32768)
I1118 14:06:33.548085 22433 layer_factory.hpp:78] Creating layer drop6
I1118 14:06:33.548099 22433 net.cpp:67] Creating Layer drop6
I1118 14:06:33.548104 22433 net.cpp:394] drop6 <- fc6
I1118 14:06:33.548109 22433 net.cpp:345] drop6 -> fc6 (in-place)
I1118 14:06:33.548113 22433 net.cpp:96] Setting up drop6
I1118 14:06:33.548117 22433 net.cpp:103] Top shape: 8 4096 1 1 (32768)
I1118 14:06:33.548120 22433 layer_factory.hpp:78] Creating layer fc7
I1118 14:06:33.548126 22433 net.cpp:67] Creating Layer fc7
I1118 14:06:33.548128 22433 net.cpp:394] fc7 <- fc6
I1118 14:06:33.548133 22433 net.cpp:356] fc7 -> fc7
I1118 14:06:33.548140 22433 net.cpp:96] Setting up fc7
I1118 14:06:33.934552 22433 net.cpp:103] Top shape: 8 4096 1 1 (32768)
I1118 14:06:33.934595 22433 layer_factory.hpp:78] Creating layer relu7
I1118 14:06:33.934604 22433 net.cpp:67] Creating Layer relu7
I1118 14:06:33.934608 22433 net.cpp:394] relu7 <- fc7
I1118 14:06:33.934617 22433 net.cpp:345] relu7 -> fc7 (in-place)
I1118 14:06:33.934623 22433 net.cpp:96] Setting up relu7
I1118 14:06:33.934638 22433 net.cpp:103] Top shape: 8 4096 1 1 (32768)
I1118 14:06:33.934641 22433 layer_factory.hpp:78] Creating layer drop7
I1118 14:06:33.934646 22433 net.cpp:67] Creating Layer drop7
I1118 14:06:33.934649 22433 net.cpp:394] drop7 <- fc7
I1118 14:06:33.934654 22433 net.cpp:345] drop7 -> fc7 (in-place)
I1118 14:06:33.934659 22433 net.cpp:96] Setting up drop7
I1118 14:06:33.934662 22433 net.cpp:103] Top shape: 8 4096 1 1 (32768)
I1118 14:06:33.934665 22433 layer_factory.hpp:78] Creating layer fc8_2
I1118 14:06:33.934671 22433 net.cpp:67] Creating Layer fc8_2
I1118 14:06:33.934674 22433 net.cpp:394] fc8_2 <- fc7
I1118 14:06:33.934679 22433 net.cpp:356] fc8_2 -> fc8_2
I1118 14:06:33.934685 22433 net.cpp:96] Setting up fc8_2
I1118 14:06:33.934896 22433 net.cpp:103] Top shape: 8 2 1 1 (16)
I1118 14:06:33.934905 22433 layer_factory.hpp:78] Creating layer fc8_2_fc8_2_0_split
I1118 14:06:33.934911 22433 net.cpp:67] Creating Layer fc8_2_fc8_2_0_split
I1118 14:06:33.934913 22433 net.cpp:394] fc8_2_fc8_2_0_split <- fc8_2
I1118 14:06:33.934918 22433 net.cpp:356] fc8_2_fc8_2_0_split -> fc8_2_fc8_2_0_split_0
I1118 14:06:33.934923 22433 net.cpp:356] fc8_2_fc8_2_0_split -> fc8_2_fc8_2_0_split_1
I1118 14:06:33.934929 22433 net.cpp:96] Setting up fc8_2_fc8_2_0_split
I1118 14:06:33.934933 22433 net.cpp:103] Top shape: 8 2 1 1 (16)
I1118 14:06:33.934937 22433 net.cpp:103] Top shape: 8 2 1 1 (16)
I1118 14:06:33.934938 22433 layer_factory.hpp:78] Creating layer loss
I1118 14:06:33.934944 22433 net.cpp:67] Creating Layer loss
I1118 14:06:33.934947 22433 net.cpp:394] loss <- fc8_2_fc8_2_0_split_0
I1118 14:06:33.934952 22433 net.cpp:394] loss <- label_data_1_split_0
I1118 14:06:33.934957 22433 net.cpp:356] loss -> (automatic)
I1118 14:06:33.934960 22433 net.cpp:96] Setting up loss
I1118 14:06:33.934967 22433 net.cpp:103] Top shape: 1 1 1 1 (1)
I1118 14:06:33.934969 22433 net.cpp:109]     with loss weight 1
I1118 14:06:33.934983 22433 layer_factory.hpp:78] Creating layer accuracy
I1118 14:06:33.934990 22433 net.cpp:67] Creating Layer accuracy
I1118 14:06:33.934993 22433 net.cpp:394] accuracy <- fc8_2_fc8_2_0_split_1
I1118 14:06:33.934996 22433 net.cpp:394] accuracy <- label_data_1_split_1
I1118 14:06:33.935003 22433 net.cpp:356] accuracy -> accuracy
I1118 14:06:33.935009 22433 net.cpp:96] Setting up accuracy
I1118 14:06:33.935016 22433 net.cpp:103] Top shape: 1 1 1 4 (4)
I1118 14:06:33.935020 22433 net.cpp:172] accuracy does not need backward computation.
I1118 14:06:33.935024 22433 net.cpp:170] loss needs backward computation.
I1118 14:06:33.935026 22433 net.cpp:170] fc8_2_fc8_2_0_split needs backward computation.
I1118 14:06:33.935029 22433 net.cpp:170] fc8_2 needs backward computation.
I1118 14:06:33.935032 22433 net.cpp:170] drop7 needs backward computation.
…
