…
I1109 08:11:04.587343 16535 net.cpp:275] The NetState phase (0) differed from the phase (1) specified by a rule in layer accuracy
I1109 08:11:04.587703 16535 net.cpp:39] Initializing net from parameters: 
name: "small"
layers {
  top: "data"
  top: "label"
  name: "data"
  type: IMAGE_DATA
  image_data_param {
    source: "/data/ad6813/devCaffe/caffe/data/water_high_o/train.txt"
    batch_size: 10
    new_height: 256
    new_width: 256
  }
  include {
    phase: TRAIN
  }
  transform_param {
    mirror: true
    crop_size: 224
    mean_value: 86.752
    mean_value: 101.46
    mean_value: 104.6
  }
}
layers {
  bottom: "data"
  top: "conv1_1"
  name: "conv1_1"
  type: CONVOLUTION
  convolution_param {
    num_output: 64
    pad: 1
    kernel_size: 3
    weight_filler {
      type: "gaussian"
      std: 0.01
    }
    bias_filler {
      type: "constant"
      value: 0
    }
  }
}
layers {
  bottom: "conv1_1"
  top: "conv1_1"
  name: "relu1_1"
  type: RELU
}
layers {
  bottom: "conv1_1"
  top: "conv1_2"
  name: "conv1_2"
  type: CONVOLUTION
  convolution_param {
    num_output: 64
    pad: 1
    kernel_size: 3
    weight_filler {
      type: "gaussian"
      std: 0.01
    }
    bias_filler {
      type: "constant"
      value: 0
    }
  }
}
layers {
  bottom: "conv1_2"
  top: "conv1_2"
  name: "relu1_2"
  type: RELU
}
layers {
  bottom: "conv1_2"
  top: "pool1"
  name: "pool1"
  type: POOLING
  pooling_param {
    pool: MAX
    kernel_size: 2
    stride: 2
  }
}
layers {
  bottom: "pool1"
  top: "conv2_1"
  name: "conv2_1"
  type: CONVOLUTION
  convolution_param {
    num_output: 128
    pad: 1
    kernel_size: 3
    weight_filler {
      type: "gaussian"
      std: 0.01
    }
    bias_filler {
      type: "constant"
      value: 0
    }
  }
}
layers {
  bottom: "conv2_1"
  top: "conv2_1"
  name: "relu2_1"
  type: RELU
}
layers {
  bottom: "conv2_1"
  top: "conv2_2"
  name: "conv2_2"
  type: CONVOLUTION
  convolution_param {
    num_output: 128
    pad: 1
    kernel_size: 3
    weight_filler {
      type: "gaussian"
      std: 0.01
    }
    bias_filler {
      type: "constant"
      value: 0
    }
  }
}
layers {
  bottom: "conv2_2"
  top: "conv2_2"
  name: "relu2_2"
  type: RELU
}
layers {
  bottom: "conv2_2"
  top: "pool2"
  name: "pool2"
  type: POOLING
  pooling_param {
    pool: MAX
    kernel_size: 2
    stride: 2
  }
}
layers {
  bottom: "pool2"
  top: "conv3_1"
  name: "conv3_1"
  type: CONVOLUTION
  convolution_param {
    num_output: 256
    pad: 1
    kernel_size: 3
    weight_filler {
      type: "gaussian"
      std: 0.01
    }
    bias_filler {
      type: "constant"
      value: 0
    }
  }
}
layers {
  bottom: "conv3_1"
  top: "conv3_1"
  name: "relu3_1"
  type: RELU
}
layers {
  bottom: "conv3_1"
  top: "conv3_2"
  name: "conv3_2"
  type: CONVOLUTION
  convolution_param {
    num_output: 256
    pad: 1
    kernel_size: 3
    weight_filler {
      type: "gaussian"
      std: 0.01
    }
    bias_filler {
      type: "constant"
      value: 0
    }
  }
}
layers {
  bottom: "conv3_2"
  top: "conv3_2"
  name: "relu3_2"
  type: RELU
}
layers {
  bottom: "conv3_2"
  top: "conv3_3"
  name: "conv3_3"
  type: CONVOLUTION
  convolution_param {
    num_output: 256
    pad: 1
    kernel_size: 3
    weight_filler {
      type: "gaussian"
      std: 0.01
    }
    bias_filler {
      type: "constant"
      value: 0
    }
  }
}
layers {
  bottom: "conv3_3"
  top: "conv3_3"
  name: "relu3_3"
  type: RELU
}
layers {
  bottom: "conv3_3"
  top: "pool3"
  name: "pool3"
  type: POOLING
  pooling_param {
    pool: MAX
    kernel_size: 2
    stride: 2
  }
}
layers {
  bottom: "pool3"
  top: "conv4_1"
  name: "conv4_1"
  type: CONVOLUTION
  convolution_param {
    num_output: 512
    pad: 1
    kernel_size: 3
    weight_filler {
      type: "gaussian"
      std: 0.01
    }
    bias_filler {
      type: "constant"
      value: 0
    }
  }
}
layers {
  bottom: "conv4_1"
  top: "conv4_1"
  name: "relu4_1"
  type: RELU
}
layers {
  bottom: "conv4_1"
  top: "conv4_2"
  name: "conv4_2"
  type: CONVOLUTION
  convolution_param {
    num_output: 512
    pad: 1
    kernel_size: 3
    weight_filler {
      type: "gaussian"
      std: 0.01
    }
    bias_filler {
      type: "constant"
      value: 0
    }
  }
}
layers {
  bottom: "conv4_2"
  top: "conv4_2"
  name: "relu4_2"
  type: RELU
}
layers {
  bottom: "conv4_2"
  top: "conv4_3"
  name: "conv4_3"
  type: CONVOLUTION
  convolution_param {
    num_output: 512
    pad: 1
    kernel_size: 3
    weight_filler {
      type: "gaussian"
      std: 0.01
    }
    bias_filler {
      type: "constant"
      value: 0
    }
  }
}
layers {
  bottom: "conv4_3"
  top: "conv4_3"
  name: "relu4_3"
  type: RELU
}
layers {
  bottom: "conv4_3"
  top: "pool4"
  name: "pool4"
  type: POOLING
  pooling_param {
    pool: MAX
    kernel_size: 2
    stride: 2
  }
}
layers {
  bottom: "pool4"
  top: "conv5_1"
  name: "conv5_1"
  type: CONVOLUTION
  convolution_param {
    num_output: 512
    pad: 1
    kernel_size: 3
    weight_filler {
      type: "gaussian"
      std: 0.01
    }
    bias_filler {
      type: "constant"
      value: 0
    }
  }
}
layers {
  bottom: "conv5_1"
  top: "conv5_1"
  name: "relu5_1"
  type: RELU
}
layers {
  bottom: "conv5_1"
  top: "conv5_2"
  name: "conv5_2"
  type: CONVOLUTION
  convolution_param {
    num_output: 512
    pad: 1
    kernel_size: 3
    weight_filler {
      type: "gaussian"
      std: 0.01
    }
    bias_filler {
      type: "constant"
      value: 0
    }
  }
}
layers {
  bottom: "conv5_2"
  top: "conv5_2"
  name: "relu5_2"
  type: RELU
}
layers {
  bottom: "conv5_2"
  top: "conv5_3"
  name: "conv5_3"
  type: CONVOLUTION
  convolution_param {
    num_output: 512
    pad: 1
    kernel_size: 3
    weight_filler {
      type: "gaussian"
      std: 0.01
    }
    bias_filler {
      type: "constant"
      value: 0
    }
  }
}
layers {
  bottom: "conv5_3"
  top: "conv5_3"
  name: "relu5_3"
  type: RELU
}
layers {
  bottom: "conv5_3"
  top: "pool5"
  name: "pool5"
  type: POOLING
  pooling_param {
    pool: MAX
    kernel_size: 2
    stride: 2
  }
}
layers {
  bottom: "pool5"
  top: "fc6"
  name: "fc6"
  type: INNER_PRODUCT
  inner_product_param {
    num_output: 4096
    weight_filler {
      type: "gaussian"
      std: 0.01
    }
    bias_filler {
      type: "constant"
      value: 0
    }
  }
}
layers {
  bottom: "fc6"
  top: "fc6"
  name: "relu6"
  type: RELU
}
layers {
  bottom: "fc6"
  top: "fc6"
  name: "drop6"
  type: DROPOUT
  dropout_param {
    dropout_ratio: 0.5
  }
}
layers {
  bottom: "fc6"
  top: "fc7"
  name: "fc7"
  type: INNER_PRODUCT
  inner_product_param {
    num_output: 4096
    weight_filler {
      type: "gaussian"
      std: 0.01
    }
    bias_filler {
      type: "constant"
      value: 0
    }
  }
}
layers {
  bottom: "fc7"
  top: "fc7"
  name: "relu7"
  type: RELU
}
layers {
  bottom: "fc7"
  top: "fc7"
  name: "drop7"
  type: DROPOUT
  dropout_param {
    dropout_ratio: 0.5
  }
}
layers {
  bottom: "fc7"
  top: "fc8_2"
  name: "fc8_2"
  type: INNER_PRODUCT
  inner_product_param {
    num_output: 2
    weight_filler {
      type: "gaussian"
      std: 0.01
    }
    bias_filler {
      type: "constant"
      value: 0
    }
  }
}
layers {
  bottom: "fc8_2"
  bottom: "label"
  name: "loss"
  type: SOFTMAX_LOSS
}
state {
  phase: TRAIN
}
I1109 08:11:04.587909 16535 layer_factory.hpp:78] Creating layer data
I1109 08:11:04.587936 16535 net.cpp:67] Creating Layer data
I1109 08:11:04.587949 16535 net.cpp:356] data -> data
I1109 08:11:04.587980 16535 net.cpp:356] data -> label
I1109 08:11:04.587993 16535 net.cpp:96] Setting up data
I1109 08:11:04.588003 16535 image_data_layer.cpp:34] Opening file /data/ad6813/devCaffe/caffe/data/water_high_o/train.txt
I1109 08:11:04.612316 16535 image_data_layer.cpp:49] A total of 37584 images.
I1109 08:11:04.622839 16535 image_data_layer.cpp:78] output data size: 10,3,224,224
I1109 08:11:04.625440 16535 net.cpp:103] Top shape: 10 3 224 224 (1505280)
I1109 08:11:04.625464 16535 net.cpp:103] Top shape: 10 1 1 1 (10)
I1109 08:11:04.625473 16535 layer_factory.hpp:78] Creating layer conv1_1
I1109 08:11:04.625493 16535 net.cpp:67] Creating Layer conv1_1
I1109 08:11:04.625499 16535 net.cpp:394] conv1_1 <- data
I1109 08:11:04.625542 16535 net.cpp:356] conv1_1 -> conv1_1
I1109 08:11:04.625560 16535 net.cpp:96] Setting up conv1_1
I1109 08:11:04.656812 16535 net.cpp:103] Top shape: 10 64 224 224 (32112640)
I1109 08:11:04.656863 16535 layer_factory.hpp:78] Creating layer relu1_1
I1109 08:11:04.656882 16535 net.cpp:67] Creating Layer relu1_1
I1109 08:11:04.656889 16535 net.cpp:394] relu1_1 <- conv1_1
I1109 08:11:04.656900 16535 net.cpp:345] relu1_1 -> conv1_1 (in-place)
I1109 08:11:04.656916 16535 net.cpp:96] Setting up relu1_1
I1109 08:11:04.656931 16535 net.cpp:103] Top shape: 10 64 224 224 (32112640)
I1109 08:11:04.656939 16535 layer_factory.hpp:78] Creating layer conv1_2
I1109 08:11:04.656949 16535 net.cpp:67] Creating Layer conv1_2
I1109 08:11:04.656954 16535 net.cpp:394] conv1_2 <- conv1_1
I1109 08:11:04.656962 16535 net.cpp:356] conv1_2 -> conv1_2
I1109 08:11:04.656973 16535 net.cpp:96] Setting up conv1_2
I1109 08:11:04.659024 16535 net.cpp:103] Top shape: 10 64 224 224 (32112640)
I1109 08:11:04.659050 16535 layer_factory.hpp:78] Creating layer relu1_2
I1109 08:11:04.659065 16535 net.cpp:67] Creating Layer relu1_2
I1109 08:11:04.659072 16535 net.cpp:394] relu1_2 <- conv1_2
I1109 08:11:04.659080 16535 net.cpp:345] relu1_2 -> conv1_2 (in-place)
I1109 08:11:04.659090 16535 net.cpp:96] Setting up relu1_2
I1109 08:11:04.659099 16535 net.cpp:103] Top shape: 10 64 224 224 (32112640)
I1109 08:11:04.659106 16535 layer_factory.hpp:78] Creating layer pool1
I1109 08:11:04.659119 16535 net.cpp:67] Creating Layer pool1
I1109 08:11:04.659126 16535 net.cpp:394] pool1 <- conv1_2
I1109 08:11:04.659133 16535 net.cpp:356] pool1 -> pool1
I1109 08:11:04.659143 16535 net.cpp:96] Setting up pool1
I1109 08:11:04.659169 16535 net.cpp:103] Top shape: 10 64 112 112 (8028160)
I1109 08:11:04.659176 16535 layer_factory.hpp:78] Creating layer conv2_1
I1109 08:11:04.659188 16535 net.cpp:67] Creating Layer conv2_1
I1109 08:11:04.659194 16535 net.cpp:394] conv2_1 <- pool1
I1109 08:11:04.659204 16535 net.cpp:356] conv2_1 -> conv2_1
I1109 08:11:04.659214 16535 net.cpp:96] Setting up conv2_1
I1109 08:11:04.662950 16535 net.cpp:103] Top shape: 10 128 112 112 (16056320)
I1109 08:11:04.662976 16535 layer_factory.hpp:78] Creating layer relu2_1
I1109 08:11:04.662989 16535 net.cpp:67] Creating Layer relu2_1
I1109 08:11:04.662997 16535 net.cpp:394] relu2_1 <- conv2_1
I1109 08:11:04.663005 16535 net.cpp:345] relu2_1 -> conv2_1 (in-place)
I1109 08:11:04.663014 16535 net.cpp:96] Setting up relu2_1
I1109 08:11:04.663023 16535 net.cpp:103] Top shape: 10 128 112 112 (16056320)
I1109 08:11:04.663029 16535 layer_factory.hpp:78] Creating layer conv2_2
I1109 08:11:04.663043 16535 net.cpp:67] Creating Layer conv2_2
I1109 08:11:04.663049 16535 net.cpp:394] conv2_2 <- conv2_1
I1109 08:11:04.663058 16535 net.cpp:356] conv2_2 -> conv2_2
I1109 08:11:04.663066 16535 net.cpp:96] Setting up conv2_2
I1109 08:11:04.670374 16535 net.cpp:103] Top shape: 10 128 112 112 (16056320)
I1109 08:11:04.670398 16535 layer_factory.hpp:78] Creating layer relu2_2
I1109 08:11:04.670410 16535 net.cpp:67] Creating Layer relu2_2
I1109 08:11:04.670418 16535 net.cpp:394] relu2_2 <- conv2_2
I1109 08:11:04.670425 16535 net.cpp:345] relu2_2 -> conv2_2 (in-place)
I1109 08:11:04.670434 16535 net.cpp:96] Setting up relu2_2
I1109 08:11:04.670444 16535 net.cpp:103] Top shape: 10 128 112 112 (16056320)
I1109 08:11:04.670461 16535 layer_factory.hpp:78] Creating layer pool2
I1109 08:11:04.670474 16535 net.cpp:67] Creating Layer pool2
I1109 08:11:04.670480 16535 net.cpp:394] pool2 <- conv2_2
I1109 08:11:04.670487 16535 net.cpp:356] pool2 -> pool2
I1109 08:11:04.670496 16535 net.cpp:96] Setting up pool2
I1109 08:11:04.670507 16535 net.cpp:103] Top shape: 10 128 56 56 (4014080)
I1109 08:11:04.670513 16535 layer_factory.hpp:78] Creating layer conv3_1
I1109 08:11:04.670521 16535 net.cpp:67] Creating Layer conv3_1
I1109 08:11:04.670527 16535 net.cpp:394] conv3_1 <- pool2
I1109 08:11:04.670538 16535 net.cpp:356] conv3_1 -> conv3_1
I1109 08:11:04.670550 16535 net.cpp:96] Setting up conv3_1
I1109 08:11:04.685015 16535 net.cpp:103] Top shape: 10 256 56 56 (8028160)
I1109 08:11:04.685046 16535 layer_factory.hpp:78] Creating layer relu3_1
I1109 08:11:04.685056 16535 net.cpp:67] Creating Layer relu3_1
I1109 08:11:04.685063 16535 net.cpp:394] relu3_1 <- conv3_1
I1109 08:11:04.685076 16535 net.cpp:345] relu3_1 -> conv3_1 (in-place)
I1109 08:11:04.685086 16535 net.cpp:96] Setting up relu3_1
I1109 08:11:04.685096 16535 net.cpp:103] Top shape: 10 256 56 56 (8028160)
I1109 08:11:04.685102 16535 layer_factory.hpp:78] Creating layer conv3_2
I1109 08:11:04.685111 16535 net.cpp:67] Creating Layer conv3_2
I1109 08:11:04.685117 16535 net.cpp:394] conv3_2 <- conv3_1
I1109 08:11:04.685129 16535 net.cpp:356] conv3_2 -> conv3_2
I1109 08:11:04.685139 16535 net.cpp:96] Setting up conv3_2
I1109 08:11:04.714277 16535 net.cpp:103] Top shape: 10 256 56 56 (8028160)
I1109 08:11:04.714308 16535 layer_factory.hpp:78] Creating layer relu3_2
I1109 08:11:04.714318 16535 net.cpp:67] Creating Layer relu3_2
I1109 08:11:04.714325 16535 net.cpp:394] relu3_2 <- conv3_2
I1109 08:11:04.714335 16535 net.cpp:345] relu3_2 -> conv3_2 (in-place)
I1109 08:11:04.714345 16535 net.cpp:96] Setting up relu3_2
I1109 08:11:04.714354 16535 net.cpp:103] Top shape: 10 256 56 56 (8028160)
I1109 08:11:04.714360 16535 layer_factory.hpp:78] Creating layer conv3_3
I1109 08:11:04.714370 16535 net.cpp:67] Creating Layer conv3_3
I1109 08:11:04.714375 16535 net.cpp:394] conv3_3 <- conv3_2
I1109 08:11:04.714387 16535 net.cpp:356] conv3_3 -> conv3_3
I1109 08:11:04.714398 16535 net.cpp:96] Setting up conv3_3
I1109 08:11:04.743084 16535 net.cpp:103] Top shape: 10 256 56 56 (8028160)
I1109 08:11:04.743108 16535 layer_factory.hpp:78] Creating layer relu3_3
I1109 08:11:04.743121 16535 net.cpp:67] Creating Layer relu3_3
I1109 08:11:04.743127 16535 net.cpp:394] relu3_3 <- conv3_3
I1109 08:11:04.743135 16535 net.cpp:345] relu3_3 -> conv3_3 (in-place)
I1109 08:11:04.743144 16535 net.cpp:96] Setting up relu3_3
I1109 08:11:04.743155 16535 net.cpp:103] Top shape: 10 256 56 56 (8028160)
I1109 08:11:04.743160 16535 layer_factory.hpp:78] Creating layer pool3
I1109 08:11:04.743168 16535 net.cpp:67] Creating Layer pool3
I1109 08:11:04.743175 16535 net.cpp:394] pool3 <- conv3_3
I1109 08:11:04.743185 16535 net.cpp:356] pool3 -> pool3
I1109 08:11:04.743196 16535 net.cpp:96] Setting up pool3
I1109 08:11:04.743207 16535 net.cpp:103] Top shape: 10 256 28 28 (2007040)
I1109 08:11:04.743213 16535 layer_factory.hpp:78] Creating layer conv4_1
I1109 08:11:04.743222 16535 net.cpp:67] Creating Layer conv4_1
I1109 08:11:04.743227 16535 net.cpp:394] conv4_1 <- pool3
I1109 08:11:04.743237 16535 net.cpp:356] conv4_1 -> conv4_1
I1109 08:11:04.743245 16535 net.cpp:96] Setting up conv4_1
I1109 08:11:04.799839 16535 net.cpp:103] Top shape: 10 512 28 28 (4014080)
I1109 08:11:04.799868 16535 layer_factory.hpp:78] Creating layer relu4_1
I1109 08:11:04.799878 16535 net.cpp:67] Creating Layer relu4_1
I1109 08:11:04.799885 16535 net.cpp:394] relu4_1 <- conv4_1
I1109 08:11:04.799896 16535 net.cpp:345] relu4_1 -> conv4_1 (in-place)
I1109 08:11:04.799906 16535 net.cpp:96] Setting up relu4_1
I1109 08:11:04.799916 16535 net.cpp:103] Top shape: 10 512 28 28 (4014080)
I1109 08:11:04.799922 16535 layer_factory.hpp:78] Creating layer conv4_2
I1109 08:11:04.799932 16535 net.cpp:67] Creating Layer conv4_2
I1109 08:11:04.799937 16535 net.cpp:394] conv4_2 <- conv4_1
I1109 08:11:04.799959 16535 net.cpp:356] conv4_2 -> conv4_2
I1109 08:11:04.799969 16535 net.cpp:96] Setting up conv4_2
I1109 08:11:04.913173 16535 net.cpp:103] Top shape: 10 512 28 28 (4014080)
I1109 08:11:04.913225 16535 layer_factory.hpp:78] Creating layer relu4_2
I1109 08:11:04.913239 16535 net.cpp:67] Creating Layer relu4_2
I1109 08:11:04.913246 16535 net.cpp:394] relu4_2 <- conv4_2
I1109 08:11:04.913257 16535 net.cpp:345] relu4_2 -> conv4_2 (in-place)
I1109 08:11:04.913267 16535 net.cpp:96] Setting up relu4_2
I1109 08:11:04.913277 16535 net.cpp:103] Top shape: 10 512 28 28 (4014080)
I1109 08:11:04.913285 16535 layer_factory.hpp:78] Creating layer conv4_3
I1109 08:11:04.913300 16535 net.cpp:67] Creating Layer conv4_3
I1109 08:11:04.913306 16535 net.cpp:394] conv4_3 <- conv4_2
I1109 08:11:04.913321 16535 net.cpp:356] conv4_3 -> conv4_3
I1109 08:11:04.913333 16535 net.cpp:96] Setting up conv4_3
I1109 08:11:05.026339 16535 net.cpp:103] Top shape: 10 512 28 28 (4014080)
I1109 08:11:05.026381 16535 layer_factory.hpp:78] Creating layer relu4_3
I1109 08:11:05.026393 16535 net.cpp:67] Creating Layer relu4_3
I1109 08:11:05.026401 16535 net.cpp:394] relu4_3 <- conv4_3
I1109 08:11:05.026412 16535 net.cpp:345] relu4_3 -> conv4_3 (in-place)
I1109 08:11:05.026422 16535 net.cpp:96] Setting up relu4_3
I1109 08:11:05.026432 16535 net.cpp:103] Top shape: 10 512 28 28 (4014080)
I1109 08:11:05.026439 16535 layer_factory.hpp:78] Creating layer pool4
I1109 08:11:05.026451 16535 net.cpp:67] Creating Layer pool4
I1109 08:11:05.026458 16535 net.cpp:394] pool4 <- conv4_3
I1109 08:11:05.026466 16535 net.cpp:356] pool4 -> pool4
I1109 08:11:05.026476 16535 net.cpp:96] Setting up pool4
I1109 08:11:05.026489 16535 net.cpp:103] Top shape: 10 512 14 14 (1003520)
I1109 08:11:05.026494 16535 layer_factory.hpp:78] Creating layer conv5_1
I1109 08:11:05.026507 16535 net.cpp:67] Creating Layer conv5_1
I1109 08:11:05.026514 16535 net.cpp:394] conv5_1 <- pool4
I1109 08:11:05.026522 16535 net.cpp:356] conv5_1 -> conv5_1
I1109 08:11:05.026535 16535 net.cpp:96] Setting up conv5_1
I1109 08:11:05.140156 16535 net.cpp:103] Top shape: 10 512 14 14 (1003520)
I1109 08:11:05.140200 16535 layer_factory.hpp:78] Creating layer relu5_1
I1109 08:11:05.140213 16535 net.cpp:67] Creating Layer relu5_1
I1109 08:11:05.140221 16535 net.cpp:394] relu5_1 <- conv5_1
I1109 08:11:05.140238 16535 net.cpp:345] relu5_1 -> conv5_1 (in-place)
I1109 08:11:05.140249 16535 net.cpp:96] Setting up relu5_1
I1109 08:11:05.140260 16535 net.cpp:103] Top shape: 10 512 14 14 (1003520)
I1109 08:11:05.140266 16535 layer_factory.hpp:78] Creating layer conv5_2
I1109 08:11:05.140276 16535 net.cpp:67] Creating Layer conv5_2
I1109 08:11:05.140281 16535 net.cpp:394] conv5_2 <- conv5_1
I1109 08:11:05.140292 16535 net.cpp:356] conv5_2 -> conv5_2
I1109 08:11:05.140303 16535 net.cpp:96] Setting up conv5_2
I1109 08:11:05.253875 16535 net.cpp:103] Top shape: 10 512 14 14 (1003520)
I1109 08:11:05.253921 16535 layer_factory.hpp:78] Creating layer relu5_2
I1109 08:11:05.253933 16535 net.cpp:67] Creating Layer relu5_2
I1109 08:11:05.253942 16535 net.cpp:394] relu5_2 <- conv5_2
I1109 08:11:05.253952 16535 net.cpp:345] relu5_2 -> conv5_2 (in-place)
I1109 08:11:05.253962 16535 net.cpp:96] Setting up relu5_2
I1109 08:11:05.253973 16535 net.cpp:103] Top shape: 10 512 14 14 (1003520)
I1109 08:11:05.253979 16535 layer_factory.hpp:78] Creating layer conv5_3
I1109 08:11:05.253993 16535 net.cpp:67] Creating Layer conv5_3
I1109 08:11:05.253998 16535 net.cpp:394] conv5_3 <- conv5_2
I1109 08:11:05.254008 16535 net.cpp:356] conv5_3 -> conv5_3
I1109 08:11:05.254017 16535 net.cpp:96] Setting up conv5_3
I1109 08:11:05.367435 16535 net.cpp:103] Top shape: 10 512 14 14 (1003520)
I1109 08:11:05.367480 16535 layer_factory.hpp:78] Creating layer relu5_3
I1109 08:11:05.367492 16535 net.cpp:67] Creating Layer relu5_3
I1109 08:11:05.367499 16535 net.cpp:394] relu5_3 <- conv5_3
I1109 08:11:05.367511 16535 net.cpp:345] relu5_3 -> conv5_3 (in-place)
I1109 08:11:05.367521 16535 net.cpp:96] Setting up relu5_3
I1109 08:11:05.367550 16535 net.cpp:103] Top shape: 10 512 14 14 (1003520)
I1109 08:11:05.367557 16535 layer_factory.hpp:78] Creating layer pool5
I1109 08:11:05.367565 16535 net.cpp:67] Creating Layer pool5
I1109 08:11:05.367571 16535 net.cpp:394] pool5 <- conv5_3
I1109 08:11:05.367580 16535 net.cpp:356] pool5 -> pool5
I1109 08:11:05.367589 16535 net.cpp:96] Setting up pool5
I1109 08:11:05.367601 16535 net.cpp:103] Top shape: 10 512 7 7 (250880)
I1109 08:11:05.367609 16535 layer_factory.hpp:78] Creating layer fc6
I1109 08:11:05.367630 16535 net.cpp:67] Creating Layer fc6
I1109 08:11:05.367637 16535 net.cpp:394] fc6 <- pool5
I1109 08:11:05.367648 16535 net.cpp:356] fc6 -> fc6
I1109 08:11:05.367658 16535 net.cpp:96] Setting up fc6
I1109 08:11:10.302701 16535 net.cpp:103] Top shape: 10 4096 1 1 (40960)
I1109 08:11:10.302747 16535 layer_factory.hpp:78] Creating layer relu6
I1109 08:11:10.302759 16535 net.cpp:67] Creating Layer relu6
I1109 08:11:10.302767 16535 net.cpp:394] relu6 <- fc6
I1109 08:11:10.302781 16535 net.cpp:345] relu6 -> fc6 (in-place)
I1109 08:11:10.302793 16535 net.cpp:96] Setting up relu6
I1109 08:11:10.302814 16535 net.cpp:103] Top shape: 10 4096 1 1 (40960)
I1109 08:11:10.302821 16535 layer_factory.hpp:78] Creating layer drop6
I1109 08:11:10.302834 16535 net.cpp:67] Creating Layer drop6
I1109 08:11:10.302840 16535 net.cpp:394] drop6 <- fc6
I1109 08:11:10.302849 16535 net.cpp:345] drop6 -> fc6 (in-place)
I1109 08:11:10.302856 16535 net.cpp:96] Setting up drop6
I1109 08:11:10.302865 16535 net.cpp:103] Top shape: 10 4096 1 1 (40960)
I1109 08:11:10.302870 16535 layer_factory.hpp:78] Creating layer fc7
I1109 08:11:10.302881 16535 net.cpp:67] Creating Layer fc7
I1109 08:11:10.302887 16535 net.cpp:394] fc7 <- fc6
I1109 08:11:10.302896 16535 net.cpp:356] fc7 -> fc7
I1109 08:11:10.302906 16535 net.cpp:96] Setting up fc7
I1109 08:11:11.109722 16535 net.cpp:103] Top shape: 10 4096 1 1 (40960)
I1109 08:11:11.109768 16535 layer_factory.hpp:78] Creating layer relu7
I1109 08:11:11.109783 16535 net.cpp:67] Creating Layer relu7
I1109 08:11:11.109791 16535 net.cpp:394] relu7 <- fc7
I1109 08:11:11.109802 16535 net.cpp:345] relu7 -> fc7 (in-place)
I1109 08:11:11.109813 16535 net.cpp:96] Setting up relu7
I1109 08:11:11.109835 16535 net.cpp:103] Top shape: 10 4096 1 1 (40960)
I1109 08:11:11.109841 16535 layer_factory.hpp:78] Creating layer drop7
I1109 08:11:11.109849 16535 net.cpp:67] Creating Layer drop7
I1109 08:11:11.109855 16535 net.cpp:394] drop7 <- fc7
I1109 08:11:11.109865 16535 net.cpp:345] drop7 -> fc7 (in-place)
I1109 08:11:11.109874 16535 net.cpp:96] Setting up drop7
I1109 08:11:11.109880 16535 net.cpp:103] Top shape: 10 4096 1 1 (40960)
I1109 08:11:11.109886 16535 layer_factory.hpp:78] Creating layer fc8_2
I1109 08:11:11.109895 16535 net.cpp:67] Creating Layer fc8_2
I1109 08:11:11.109900 16535 net.cpp:394] fc8_2 <- fc7
I1109 08:11:11.109908 16535 net.cpp:356] fc8_2 -> fc8_2
I1109 08:11:11.109918 16535 net.cpp:96] Setting up fc8_2
I1109 08:11:11.110360 16535 net.cpp:103] Top shape: 10 2 1 1 (20)
I1109 08:11:11.110378 16535 layer_factory.hpp:78] Creating layer loss
I1109 08:11:11.110394 16535 net.cpp:67] Creating Layer loss
I1109 08:11:11.110400 16535 net.cpp:394] loss <- fc8_2
I1109 08:11:11.110409 16535 net.cpp:394] loss <- label
I1109 08:11:11.110419 16535 net.cpp:356] loss -> (automatic)
I1109 08:11:11.110429 16535 net.cpp:96] Setting up loss
I1109 08:11:11.110440 16535 net.cpp:103] Top shape: 1 1 1 1 (1)
I1109 08:11:11.110446 16535 net.cpp:109]     with loss weight 1
I1109 08:11:11.110488 16535 net.cpp:170] loss needs backward computation.
I1109 08:11:11.110496 16535 net.cpp:170] fc8_2 needs backward computation.
I1109 08:11:11.110502 16535 net.cpp:170] drop7 needs backward computation.
I1109 08:11:11.110507 16535 net.cpp:170] relu7 needs backward computation.
I1109 08:11:11.110512 16535 net.cpp:170] fc7 needs backward computation.
…
I1109 08:11:11.112362 16535 net.cpp:275] The NetState phase (1) differed from the phase (0) specified by a rule in layer data
I1109 08:11:11.112750 16535 net.cpp:39] Initializing net from parameters: 
name: "small"
layers {
  top: "data"
  top: "label"
  name: "data"
  type: IMAGE_DATA
  image_data_param {
    source: "/data/ad6813/devCaffe/caffe/data/water_high_o/val.txt"
    batch_size: 4
    new_height: 256
    new_width: 256
  }
  include {
    phase: TEST
  }
  transform_param {
    mirror: true
    crop_size: 224
    mean_value: 86.752
    mean_value: 101.46
    mean_value: 104.6
  }
}
layers {
  bottom: "data"
  top: "conv1_1"
  name: "conv1_1"
  type: CONVOLUTION
  convolution_param {
    num_output: 64
    pad: 1
    kernel_size: 3
    weight_filler {
      type: "gaussian"
      std: 0.01
    }
    bias_filler {
      type: "constant"
      value: 0
    }
  }
}
layers {
  bottom: "conv1_1"
  top: "conv1_1"
  name: "relu1_1"
  type: RELU
}
layers {
  bottom: "conv1_1"
  top: "conv1_2"
  name: "conv1_2"
  type: CONVOLUTION
  convolution_param {
    num_output: 64
    pad: 1
    kernel_size: 3
    weight_filler {
      type: "gaussian"
      std: 0.01
    }
    bias_filler {
      type: "constant"
      value: 0
    }
  }
}
layers {
  bottom: "conv1_2"
  top: "conv1_2"
  name: "relu1_2"
  type: RELU
}
layers {
  bottom: "conv1_2"
  top: "pool1"
  name: "pool1"
  type: POOLING
  pooling_param {
    pool: MAX
    kernel_size: 2
    stride: 2
  }
}
layers {
  bottom: "pool1"
  top: "conv2_1"
  name: "conv2_1"
  type: CONVOLUTION
  convolution_param {
    num_output: 128
    pad: 1
    kernel_size: 3
    weight_filler {
      type: "gaussian"
      std: 0.01
    }
    bias_filler {
      type: "constant"
      value: 0
    }
  }
}
layers {
  bottom: "conv2_1"
  top: "conv2_1"
  name: "relu2_1"
  type: RELU
}
layers {
  bottom: "conv2_1"
  top: "conv2_2"
  name: "conv2_2"
  type: CONVOLUTION
  convolution_param {
    num_output: 128
    pad: 1
    kernel_size: 3
    weight_filler {
      type: "gaussian"
      std: 0.01
    }
    bias_filler {
      type: "constant"
      value: 0
    }
  }
}
layers {
  bottom: "conv2_2"
  top: "conv2_2"
  name: "relu2_2"
  type: RELU
}
layers {
  bottom: "conv2_2"
  top: "pool2"
  name: "pool2"
  type: POOLING
  pooling_param {
    pool: MAX
    kernel_size: 2
    stride: 2
  }
}
layers {
  bottom: "pool2"
  top: "conv3_1"
  name: "conv3_1"
  type: CONVOLUTION
  convolution_param {
    num_output: 256
    pad: 1
    kernel_size: 3
    weight_filler {
      type: "gaussian"
      std: 0.01
    }
    bias_filler {
      type: "constant"
      value: 0
    }
  }
}
layers {
  bottom: "conv3_1"
  top: "conv3_1"
  name: "relu3_1"
  type: RELU
}
layers {
  bottom: "conv3_1"
  top: "conv3_2"
  name: "conv3_2"
  type: CONVOLUTION
  convolution_param {
    num_output: 256
    pad: 1
    kernel_size: 3
    weight_filler {
      type: "gaussian"
      std: 0.01
    }
    bias_filler {
      type: "constant"
      value: 0
    }
  }
}
layers {
  bottom: "conv3_2"
  top: "conv3_2"
  name: "relu3_2"
  type: RELU
}
layers {
  bottom: "conv3_2"
  top: "conv3_3"
  name: "conv3_3"
  type: CONVOLUTION
  convolution_param {
    num_output: 256
    pad: 1
    kernel_size: 3
    weight_filler {
      type: "gaussian"
      std: 0.01
    }
    bias_filler {
      type: "constant"
      value: 0
    }
  }
}
layers {
  bottom: "conv3_3"
  top: "conv3_3"
  name: "relu3_3"
  type: RELU
}
layers {
  bottom: "conv3_3"
  top: "pool3"
  name: "pool3"
  type: POOLING
  pooling_param {
    pool: MAX
    kernel_size: 2
    stride: 2
  }
}
layers {
  bottom: "pool3"
  top: "conv4_1"
  name: "conv4_1"
  type: CONVOLUTION
  convolution_param {
    num_output: 512
    pad: 1
    kernel_size: 3
    weight_filler {
      type: "gaussian"
      std: 0.01
    }
    bias_filler {
      type: "constant"
      value: 0
    }
  }
}
layers {
  bottom: "conv4_1"
  top: "conv4_1"
  name: "relu4_1"
  type: RELU
}
layers {
  bottom: "conv4_1"
  top: "conv4_2"
  name: "conv4_2"
  type: CONVOLUTION
  convolution_param {
    num_output: 512
    pad: 1
    kernel_size: 3
    weight_filler {
      type: "gaussian"
      std: 0.01
    }
    bias_filler {
      type: "constant"
      value: 0
    }
  }
}
layers {
  bottom: "conv4_2"
  top: "conv4_2"
  name: "relu4_2"
  type: RELU
}
layers {
  bottom: "conv4_2"
  top: "conv4_3"
  name: "conv4_3"
  type: CONVOLUTION
  convolution_param {
    num_output: 512
    pad: 1
    kernel_size: 3
    weight_filler {
      type: "gaussian"
      std: 0.01
    }
    bias_filler {
      type: "constant"
      value: 0
    }
  }
}
layers {
  bottom: "conv4_3"
  top: "conv4_3"
  name: "relu4_3"
  type: RELU
}
layers {
  bottom: "conv4_3"
  top: "pool4"
  name: "pool4"
  type: POOLING
  pooling_param {
    pool: MAX
    kernel_size: 2
    stride: 2
  }
}
layers {
  bottom: "pool4"
  top: "conv5_1"
  name: "conv5_1"
  type: CONVOLUTION
  convolution_param {
    num_output: 512
    pad: 1
    kernel_size: 3
    weight_filler {
      type: "gaussian"
      std: 0.01
    }
    bias_filler {
      type: "constant"
      value: 0
    }
  }
}
layers {
  bottom: "conv5_1"
  top: "conv5_1"
  name: "relu5_1"
  type: RELU
}
layers {
  bottom: "conv5_1"
  top: "conv5_2"
  name: "conv5_2"
  type: CONVOLUTION
  convolution_param {
    num_output: 512
    pad: 1
    kernel_size: 3
    weight_filler {
      type: "gaussian"
      std: 0.01
    }
    bias_filler {
      type: "constant"
      value: 0
    }
  }
}
layers {
  bottom: "conv5_2"
  top: "conv5_2"
  name: "relu5_2"
  type: RELU
}
layers {
  bottom: "conv5_2"
  top: "conv5_3"
  name: "conv5_3"
  type: CONVOLUTION
  convolution_param {
    num_output: 512
    pad: 1
    kernel_size: 3
    weight_filler {
      type: "gaussian"
      std: 0.01
    }
    bias_filler {
      type: "constant"
      value: 0
    }
  }
}
layers {
  bottom: "conv5_3"
  top: "conv5_3"
  name: "relu5_3"
  type: RELU
}
layers {
  bottom: "conv5_3"
  top: "pool5"
  name: "pool5"
  type: POOLING
  pooling_param {
    pool: MAX
    kernel_size: 2
    stride: 2
  }
}
layers {
  bottom: "pool5"
  top: "fc6"
  name: "fc6"
  type: INNER_PRODUCT
  inner_product_param {
    num_output: 4096
    weight_filler {
      type: "gaussian"
      std: 0.01
    }
    bias_filler {
      type: "constant"
      value: 0
    }
  }
}
layers {
  bottom: "fc6"
  top: "fc6"
  name: "relu6"
  type: RELU
}
layers {
  bottom: "fc6"
  top: "fc6"
  name: "drop6"
  type: DROPOUT
  dropout_param {
    dropout_ratio: 0.5
  }
}
layers {
  bottom: "fc6"
  top: "fc7"
  name: "fc7"
  type: INNER_PRODUCT
  inner_product_param {
    num_output: 4096
    weight_filler {
      type: "gaussian"
      std: 0.01
    }
    bias_filler {
      type: "constant"
      value: 0
    }
  }
}
layers {
  bottom: "fc7"
  top: "fc7"
  name: "relu7"
  type: RELU
}
layers {
  bottom: "fc7"
  top: "fc7"
  name: "drop7"
  type: DROPOUT
  dropout_param {
    dropout_ratio: 0.5
  }
}
layers {
  bottom: "fc7"
  top: "fc8_2"
  name: "fc8_2"
  type: INNER_PRODUCT
  inner_product_param {
    num_output: 2
    weight_filler {
      type: "gaussian"
      std: 0.01
    }
    bias_filler {
      type: "constant"
      value: 0
    }
  }
}
layers {
  bottom: "fc8_2"
  bottom: "label"
  name: "loss"
  type: SOFTMAX_LOSS
}
layers {
  bottom: "fc8_2"
  bottom: "label"
  top: "accuracy"
  name: "accuracy"
  type: PER_CLASS_ACCURACY
  include {
    phase: TEST
  }
}
state {
  phase: TEST
}
I1109 08:11:11.112977 16535 layer_factory.hpp:78] Creating layer data
I1109 08:11:11.112994 16535 net.cpp:67] Creating Layer data
I1109 08:11:11.113003 16535 net.cpp:356] data -> data
I1109 08:11:11.113015 16535 net.cpp:356] data -> label
I1109 08:11:11.113026 16535 net.cpp:96] Setting up data
I1109 08:11:11.113032 16535 image_data_layer.cpp:34] Opening file /data/ad6813/devCaffe/caffe/data/water_high_o/val.txt
I1109 08:11:11.113445 16535 image_data_layer.cpp:49] A total of 573 images.
I1109 08:11:11.125411 16535 image_data_layer.cpp:78] output data size: 4,3,224,224
I1109 08:11:11.126312 16535 net.cpp:103] Top shape: 4 3 224 224 (602112)
I1109 08:11:11.126328 16535 net.cpp:103] Top shape: 4 1 1 1 (4)
I1109 08:11:11.126335 16535 layer_factory.hpp:78] Creating layer label_data_1_split
I1109 08:11:11.126348 16535 net.cpp:67] Creating Layer label_data_1_split
I1109 08:11:11.126355 16535 net.cpp:394] label_data_1_split <- label
I1109 08:11:11.126364 16535 net.cpp:356] label_data_1_split -> label_data_1_split_0
I1109 08:11:11.126376 16535 net.cpp:356] label_data_1_split -> label_data_1_split_1
I1109 08:11:11.126385 16535 net.cpp:96] Setting up label_data_1_split
I1109 08:11:11.126395 16535 net.cpp:103] Top shape: 4 1 1 1 (4)
I1109 08:11:11.126401 16535 net.cpp:103] Top shape: 4 1 1 1 (4)
I1109 08:11:11.126406 16535 layer_factory.hpp:78] Creating layer conv1_1
I1109 08:11:11.126415 16535 net.cpp:67] Creating Layer conv1_1
I1109 08:11:11.126421 16535 net.cpp:394] conv1_1 <- data
I1109 08:11:11.126430 16535 net.cpp:356] conv1_1 -> conv1_1
I1109 08:11:11.126440 16535 net.cpp:96] Setting up conv1_1
I1109 08:11:11.126783 16535 net.cpp:103] Top shape: 4 64 224 224 (12845056)
I1109 08:11:11.126808 16535 layer_factory.hpp:78] Creating layer relu1_1
I1109 08:11:11.126821 16535 net.cpp:67] Creating Layer relu1_1
I1109 08:11:11.126827 16535 net.cpp:394] relu1_1 <- conv1_1
I1109 08:11:11.126835 16535 net.cpp:345] relu1_1 -> conv1_1 (in-place)
I1109 08:11:11.126852 16535 net.cpp:96] Setting up relu1_1
I1109 08:11:11.126863 16535 net.cpp:103] Top shape: 4 64 224 224 (12845056)
I1109 08:11:11.126869 16535 layer_factory.hpp:78] Creating layer conv1_2
I1109 08:11:11.126878 16535 net.cpp:67] Creating Layer conv1_2
I1109 08:11:11.126883 16535 net.cpp:394] conv1_2 <- conv1_1
I1109 08:11:11.126894 16535 net.cpp:356] conv1_2 -> conv1_2
I1109 08:11:11.126905 16535 net.cpp:96] Setting up conv1_2
I1109 08:11:11.128937 16535 net.cpp:103] Top shape: 4 64 224 224 (12845056)
I1109 08:11:11.128962 16535 layer_factory.hpp:78] Creating layer relu1_2
I1109 08:11:11.128970 16535 net.cpp:67] Creating Layer relu1_2
I1109 08:11:11.128976 16535 net.cpp:394] relu1_2 <- conv1_2
I1109 08:11:11.128988 16535 net.cpp:345] relu1_2 -> conv1_2 (in-place)
I1109 08:11:11.128998 16535 net.cpp:96] Setting up relu1_2
I1109 08:11:11.129008 16535 net.cpp:103] Top shape: 4 64 224 224 (12845056)
I1109 08:11:11.129014 16535 layer_factory.hpp:78] Creating layer pool1
I1109 08:11:11.129022 16535 net.cpp:67] Creating Layer pool1
I1109 08:11:11.129027 16535 net.cpp:394] pool1 <- conv1_2
I1109 08:11:11.129035 16535 net.cpp:356] pool1 -> pool1
I1109 08:11:11.129043 16535 net.cpp:96] Setting up pool1
I1109 08:11:11.129055 16535 net.cpp:103] Top shape: 4 64 112 112 (3211264)
I1109 08:11:11.129061 16535 layer_factory.hpp:78] Creating layer conv2_1
I1109 08:11:11.129072 16535 net.cpp:67] Creating Layer conv2_1
I1109 08:11:11.129078 16535 net.cpp:394] conv2_1 <- pool1
I1109 08:11:11.129087 16535 net.cpp:356] conv2_1 -> conv2_1
I1109 08:11:11.129099 16535 net.cpp:96] Setting up conv2_1
I1109 08:11:11.133051 16535 net.cpp:103] Top shape: 4 128 112 112 (6422528)
I1109 08:11:11.133080 16535 layer_factory.hpp:78] Creating layer relu2_1
I1109 08:11:11.133095 16535 net.cpp:67] Creating Layer relu2_1
I1109 08:11:11.133101 16535 net.cpp:394] relu2_1 <- conv2_1
I1109 08:11:11.133110 16535 net.cpp:345] relu2_1 -> conv2_1 (in-place)
I1109 08:11:11.133118 16535 net.cpp:96] Setting up relu2_1
I1109 08:11:11.133129 16535 net.cpp:103] Top shape: 4 128 112 112 (6422528)
I1109 08:11:11.133136 16535 layer_factory.hpp:78] Creating layer conv2_2
I1109 08:11:11.133143 16535 net.cpp:67] Creating Layer conv2_2
I1109 08:11:11.133149 16535 net.cpp:394] conv2_2 <- conv2_1
I1109 08:11:11.133160 16535 net.cpp:356] conv2_2 -> conv2_2
I1109 08:11:11.133172 16535 net.cpp:96] Setting up conv2_2
I1109 08:11:11.140548 16535 net.cpp:103] Top shape: 4 128 112 112 (6422528)
I1109 08:11:11.140576 16535 layer_factory.hpp:78] Creating layer relu2_2
I1109 08:11:11.140586 16535 net.cpp:67] Creating Layer relu2_2
I1109 08:11:11.140593 16535 net.cpp:394] relu2_2 <- conv2_2
I1109 08:11:11.140601 16535 net.cpp:345] relu2_2 -> conv2_2 (in-place)
I1109 08:11:11.140610 16535 net.cpp:96] Setting up relu2_2
I1109 08:11:11.140620 16535 net.cpp:103] Top shape: 4 128 112 112 (6422528)
I1109 08:11:11.140626 16535 layer_factory.hpp:78] Creating layer pool2
I1109 08:11:11.140635 16535 net.cpp:67] Creating Layer pool2
I1109 08:11:11.140640 16535 net.cpp:394] pool2 <- conv2_2
I1109 08:11:11.140653 16535 net.cpp:356] pool2 -> pool2
I1109 08:11:11.140663 16535 net.cpp:96] Setting up pool2
I1109 08:11:11.140673 16535 net.cpp:103] Top shape: 4 128 56 56 (1605632)
I1109 08:11:11.140679 16535 layer_factory.hpp:78] Creating layer conv3_1
I1109 08:11:11.140692 16535 net.cpp:67] Creating Layer conv3_1
I1109 08:11:11.140698 16535 net.cpp:394] conv3_1 <- pool2
I1109 08:11:11.140707 16535 net.cpp:356] conv3_1 -> conv3_1
I1109 08:11:11.140717 16535 net.cpp:96] Setting up conv3_1
I1109 08:11:11.155138 16535 net.cpp:103] Top shape: 4 256 56 56 (3211264)
I1109 08:11:11.155177 16535 layer_factory.hpp:78] Creating layer relu3_1
I1109 08:11:11.155189 16535 net.cpp:67] Creating Layer relu3_1
I1109 08:11:11.155196 16535 net.cpp:394] relu3_1 <- conv3_1
I1109 08:11:11.155208 16535 net.cpp:345] relu3_1 -> conv3_1 (in-place)
I1109 08:11:11.155218 16535 net.cpp:96] Setting up relu3_1
I1109 08:11:11.155230 16535 net.cpp:103] Top shape: 4 256 56 56 (3211264)
I1109 08:11:11.155236 16535 layer_factory.hpp:78] Creating layer conv3_2
I1109 08:11:11.155258 16535 net.cpp:67] Creating Layer conv3_2
I1109 08:11:11.155264 16535 net.cpp:394] conv3_2 <- conv3_1
I1109 08:11:11.155275 16535 net.cpp:356] conv3_2 -> conv3_2
I1109 08:11:11.155287 16535 net.cpp:96] Setting up conv3_2
I1109 08:11:11.183756 16535 net.cpp:103] Top shape: 4 256 56 56 (3211264)
I1109 08:11:11.183797 16535 layer_factory.hpp:78] Creating layer relu3_2
I1109 08:11:11.183810 16535 net.cpp:67] Creating Layer relu3_2
I1109 08:11:11.183818 16535 net.cpp:394] relu3_2 <- conv3_2
I1109 08:11:11.183828 16535 net.cpp:345] relu3_2 -> conv3_2 (in-place)
I1109 08:11:11.183838 16535 net.cpp:96] Setting up relu3_2
I1109 08:11:11.183850 16535 net.cpp:103] Top shape: 4 256 56 56 (3211264)
I1109 08:11:11.183856 16535 layer_factory.hpp:78] Creating layer conv3_3
I1109 08:11:11.183869 16535 net.cpp:67] Creating Layer conv3_3
I1109 08:11:11.183876 16535 net.cpp:394] conv3_3 <- conv3_2
I1109 08:11:11.183884 16535 net.cpp:356] conv3_3 -> conv3_3
I1109 08:11:11.183893 16535 net.cpp:96] Setting up conv3_3
I1109 08:11:11.212508 16535 net.cpp:103] Top shape: 4 256 56 56 (3211264)
I1109 08:11:11.212553 16535 layer_factory.hpp:78] Creating layer relu3_3
I1109 08:11:11.212568 16535 net.cpp:67] Creating Layer relu3_3
I1109 08:11:11.212576 16535 net.cpp:394] relu3_3 <- conv3_3
I1109 08:11:11.212589 16535 net.cpp:345] relu3_3 -> conv3_3 (in-place)
I1109 08:11:11.212601 16535 net.cpp:96] Setting up relu3_3
I1109 08:11:11.212611 16535 net.cpp:103] Top shape: 4 256 56 56 (3211264)
I1109 08:11:11.212617 16535 layer_factory.hpp:78] Creating layer pool3
I1109 08:11:11.212627 16535 net.cpp:67] Creating Layer pool3
I1109 08:11:11.212632 16535 net.cpp:394] pool3 <- conv3_3
I1109 08:11:11.212641 16535 net.cpp:356] pool3 -> pool3
I1109 08:11:11.212651 16535 net.cpp:96] Setting up pool3
I1109 08:11:11.212662 16535 net.cpp:103] Top shape: 4 256 28 28 (802816)
I1109 08:11:11.212668 16535 layer_factory.hpp:78] Creating layer conv4_1
I1109 08:11:11.212682 16535 net.cpp:67] Creating Layer conv4_1
I1109 08:11:11.212687 16535 net.cpp:394] conv4_1 <- pool3
I1109 08:11:11.212697 16535 net.cpp:356] conv4_1 -> conv4_1
I1109 08:11:11.212705 16535 net.cpp:96] Setting up conv4_1
I1109 08:11:11.269772 16535 net.cpp:103] Top shape: 4 512 28 28 (1605632)
I1109 08:11:11.269809 16535 layer_factory.hpp:78] Creating layer relu4_1
I1109 08:11:11.269825 16535 net.cpp:67] Creating Layer relu4_1
I1109 08:11:11.269834 16535 net.cpp:394] relu4_1 <- conv4_1
I1109 08:11:11.269845 16535 net.cpp:345] relu4_1 -> conv4_1 (in-place)
I1109 08:11:11.269857 16535 net.cpp:96] Setting up relu4_1
I1109 08:11:11.269870 16535 net.cpp:103] Top shape: 4 512 28 28 (1605632)
I1109 08:11:11.269876 16535 layer_factory.hpp:78] Creating layer conv4_2
I1109 08:11:11.269886 16535 net.cpp:67] Creating Layer conv4_2
I1109 08:11:11.269891 16535 net.cpp:394] conv4_2 <- conv4_1
I1109 08:11:11.269899 16535 net.cpp:356] conv4_2 -> conv4_2
I1109 08:11:11.269909 16535 net.cpp:96] Setting up conv4_2
I1109 08:11:11.383157 16535 net.cpp:103] Top shape: 4 512 28 28 (1605632)
I1109 08:11:11.383210 16535 layer_factory.hpp:78] Creating layer relu4_2
I1109 08:11:11.383224 16535 net.cpp:67] Creating Layer relu4_2
I1109 08:11:11.383232 16535 net.cpp:394] relu4_2 <- conv4_2
I1109 08:11:11.383242 16535 net.cpp:345] relu4_2 -> conv4_2 (in-place)
I1109 08:11:11.383254 16535 net.cpp:96] Setting up relu4_2
I1109 08:11:11.383265 16535 net.cpp:103] Top shape: 4 512 28 28 (1605632)
I1109 08:11:11.383270 16535 layer_factory.hpp:78] Creating layer conv4_3
I1109 08:11:11.383280 16535 net.cpp:67] Creating Layer conv4_3
I1109 08:11:11.383285 16535 net.cpp:394] conv4_3 <- conv4_2
I1109 08:11:11.383297 16535 net.cpp:356] conv4_3 -> conv4_3
I1109 08:11:11.383309 16535 net.cpp:96] Setting up conv4_3
I1109 08:11:11.496346 16535 net.cpp:103] Top shape: 4 512 28 28 (1605632)
I1109 08:11:11.496395 16535 layer_factory.hpp:78] Creating layer relu4_3
I1109 08:11:11.496408 16535 net.cpp:67] Creating Layer relu4_3
I1109 08:11:11.496415 16535 net.cpp:394] relu4_3 <- conv4_3
I1109 08:11:11.496425 16535 net.cpp:345] relu4_3 -> conv4_3 (in-place)
I1109 08:11:11.496454 16535 net.cpp:96] Setting up relu4_3
I1109 08:11:11.496464 16535 net.cpp:103] Top shape: 4 512 28 28 (1605632)
I1109 08:11:11.496471 16535 layer_factory.hpp:78] Creating layer pool4
I1109 08:11:11.496480 16535 net.cpp:67] Creating Layer pool4
I1109 08:11:11.496485 16535 net.cpp:394] pool4 <- conv4_3
I1109 08:11:11.496497 16535 net.cpp:356] pool4 -> pool4
I1109 08:11:11.496508 16535 net.cpp:96] Setting up pool4
I1109 08:11:11.496520 16535 net.cpp:103] Top shape: 4 512 14 14 (401408)
I1109 08:11:11.496527 16535 layer_factory.hpp:78] Creating layer conv5_1
I1109 08:11:11.496539 16535 net.cpp:67] Creating Layer conv5_1
I1109 08:11:11.496546 16535 net.cpp:394] conv5_1 <- pool4
I1109 08:11:11.496554 16535 net.cpp:356] conv5_1 -> conv5_1
I1109 08:11:11.496564 16535 net.cpp:96] Setting up conv5_1
I1109 08:11:11.609836 16535 net.cpp:103] Top shape: 4 512 14 14 (401408)
I1109 08:11:11.609884 16535 layer_factory.hpp:78] Creating layer relu5_1
I1109 08:11:11.609896 16535 net.cpp:67] Creating Layer relu5_1
I1109 08:11:11.609904 16535 net.cpp:394] relu5_1 <- conv5_1
I1109 08:11:11.609915 16535 net.cpp:345] relu5_1 -> conv5_1 (in-place)
I1109 08:11:11.609925 16535 net.cpp:96] Setting up relu5_1
I1109 08:11:11.609935 16535 net.cpp:103] Top shape: 4 512 14 14 (401408)
I1109 08:11:11.609941 16535 layer_factory.hpp:78] Creating layer conv5_2
I1109 08:11:11.609954 16535 net.cpp:67] Creating Layer conv5_2
I1109 08:11:11.609961 16535 net.cpp:394] conv5_2 <- conv5_1
I1109 08:11:11.609969 16535 net.cpp:356] conv5_2 -> conv5_2
I1109 08:11:11.609979 16535 net.cpp:96] Setting up conv5_2
I1109 08:11:11.723016 16535 net.cpp:103] Top shape: 4 512 14 14 (401408)
I1109 08:11:11.723057 16535 layer_factory.hpp:78] Creating layer relu5_2
I1109 08:11:11.723073 16535 net.cpp:67] Creating Layer relu5_2
I1109 08:11:11.723081 16535 net.cpp:394] relu5_2 <- conv5_2
I1109 08:11:11.723091 16535 net.cpp:345] relu5_2 -> conv5_2 (in-place)
I1109 08:11:11.723104 16535 net.cpp:96] Setting up relu5_2
I1109 08:11:11.723114 16535 net.cpp:103] Top shape: 4 512 14 14 (401408)
I1109 08:11:11.723119 16535 layer_factory.hpp:78] Creating layer conv5_3
I1109 08:11:11.723131 16535 net.cpp:67] Creating Layer conv5_3
I1109 08:11:11.723137 16535 net.cpp:394] conv5_3 <- conv5_2
I1109 08:11:11.723146 16535 net.cpp:356] conv5_3 -> conv5_3
I1109 08:11:11.723156 16535 net.cpp:96] Setting up conv5_3
I1109 08:11:11.836649 16535 net.cpp:103] Top shape: 4 512 14 14 (401408)
I1109 08:11:11.836693 16535 layer_factory.hpp:78] Creating layer relu5_3
I1109 08:11:11.836709 16535 net.cpp:67] Creating Layer relu5_3
I1109 08:11:11.836716 16535 net.cpp:394] relu5_3 <- conv5_3
I1109 08:11:11.836727 16535 net.cpp:345] relu5_3 -> conv5_3 (in-place)
I1109 08:11:11.836738 16535 net.cpp:96] Setting up relu5_3
I1109 08:11:11.836750 16535 net.cpp:103] Top shape: 4 512 14 14 (401408)
I1109 08:11:11.836755 16535 layer_factory.hpp:78] Creating layer pool5
I1109 08:11:11.836772 16535 net.cpp:67] Creating Layer pool5
I1109 08:11:11.836778 16535 net.cpp:394] pool5 <- conv5_3
I1109 08:11:11.836787 16535 net.cpp:356] pool5 -> pool5
I1109 08:11:11.836797 16535 net.cpp:96] Setting up pool5
I1109 08:11:11.836809 16535 net.cpp:103] Top shape: 4 512 7 7 (100352)
I1109 08:11:11.836815 16535 layer_factory.hpp:78] Creating layer fc6
I1109 08:11:11.836830 16535 net.cpp:67] Creating Layer fc6
I1109 08:11:11.836837 16535 net.cpp:394] fc6 <- pool5
I1109 08:11:11.836845 16535 net.cpp:356] fc6 -> fc6
I1109 08:11:11.836855 16535 net.cpp:96] Setting up fc6
I1109 08:11:16.744746 16535 net.cpp:103] Top shape: 4 4096 1 1 (16384)
I1109 08:11:16.744797 16535 layer_factory.hpp:78] Creating layer relu6
I1109 08:11:16.744810 16535 net.cpp:67] Creating Layer relu6
I1109 08:11:16.744819 16535 net.cpp:394] relu6 <- fc6
I1109 08:11:16.744830 16535 net.cpp:345] relu6 -> fc6 (in-place)
I1109 08:11:16.744842 16535 net.cpp:96] Setting up relu6
I1109 08:11:16.744861 16535 net.cpp:103] Top shape: 4 4096 1 1 (16384)
I1109 08:11:16.744868 16535 layer_factory.hpp:78] Creating layer drop6
I1109 08:11:16.744891 16535 net.cpp:67] Creating Layer drop6
I1109 08:11:16.744897 16535 net.cpp:394] drop6 <- fc6
I1109 08:11:16.744909 16535 net.cpp:345] drop6 -> fc6 (in-place)
I1109 08:11:16.744917 16535 net.cpp:96] Setting up drop6
I1109 08:11:16.744925 16535 net.cpp:103] Top shape: 4 4096 1 1 (16384)
I1109 08:11:16.744930 16535 layer_factory.hpp:78] Creating layer fc7
I1109 08:11:16.744940 16535 net.cpp:67] Creating Layer fc7
I1109 08:11:16.744945 16535 net.cpp:394] fc7 <- fc6
I1109 08:11:16.744953 16535 net.cpp:356] fc7 -> fc7
I1109 08:11:16.744963 16535 net.cpp:96] Setting up fc7
I1109 08:11:17.545646 16535 net.cpp:103] Top shape: 4 4096 1 1 (16384)
I1109 08:11:17.545689 16535 layer_factory.hpp:78] Creating layer relu7
I1109 08:11:17.545701 16535 net.cpp:67] Creating Layer relu7
I1109 08:11:17.545709 16535 net.cpp:394] relu7 <- fc7
I1109 08:11:17.545721 16535 net.cpp:345] relu7 -> fc7 (in-place)
I1109 08:11:17.545732 16535 net.cpp:96] Setting up relu7
I1109 08:11:17.545752 16535 net.cpp:103] Top shape: 4 4096 1 1 (16384)
I1109 08:11:17.545758 16535 layer_factory.hpp:78] Creating layer drop7
I1109 08:11:17.545769 16535 net.cpp:67] Creating Layer drop7
I1109 08:11:17.545775 16535 net.cpp:394] drop7 <- fc7
I1109 08:11:17.545783 16535 net.cpp:345] drop7 -> fc7 (in-place)
I1109 08:11:17.545791 16535 net.cpp:96] Setting up drop7
I1109 08:11:17.545799 16535 net.cpp:103] Top shape: 4 4096 1 1 (16384)
I1109 08:11:17.545804 16535 layer_factory.hpp:78] Creating layer fc8_2
I1109 08:11:17.545815 16535 net.cpp:67] Creating Layer fc8_2
I1109 08:11:17.545821 16535 net.cpp:394] fc8_2 <- fc7
I1109 08:11:17.545830 16535 net.cpp:356] fc8_2 -> fc8_2
I1109 08:11:17.545840 16535 net.cpp:96] Setting up fc8_2
I1109 08:11:17.546258 16535 net.cpp:103] Top shape: 4 2 1 1 (8)
I1109 08:11:17.546274 16535 layer_factory.hpp:78] Creating layer fc8_2_fc8_2_0_split
I1109 08:11:17.546283 16535 net.cpp:67] Creating Layer fc8_2_fc8_2_0_split
I1109 08:11:17.546288 16535 net.cpp:394] fc8_2_fc8_2_0_split <- fc8_2
I1109 08:11:17.546301 16535 net.cpp:356] fc8_2_fc8_2_0_split -> fc8_2_fc8_2_0_split_0
I1109 08:11:17.546314 16535 net.cpp:356] fc8_2_fc8_2_0_split -> fc8_2_fc8_2_0_split_1
I1109 08:11:17.546324 16535 net.cpp:96] Setting up fc8_2_fc8_2_0_split
I1109 08:11:17.546330 16535 net.cpp:103] Top shape: 4 2 1 1 (8)
I1109 08:11:17.546335 16535 net.cpp:103] Top shape: 4 2 1 1 (8)
I1109 08:11:17.546341 16535 layer_factory.hpp:78] Creating layer loss
I1109 08:11:17.546351 16535 net.cpp:67] Creating Layer loss
I1109 08:11:17.546357 16535 net.cpp:394] loss <- fc8_2_fc8_2_0_split_0
I1109 08:11:17.546365 16535 net.cpp:394] loss <- label_data_1_split_0
I1109 08:11:17.546373 16535 net.cpp:356] loss -> (automatic)
I1109 08:11:17.546380 16535 net.cpp:96] Setting up loss
I1109 08:11:17.546391 16535 net.cpp:103] Top shape: 1 1 1 1 (1)
I1109 08:11:17.546396 16535 net.cpp:109]     with loss weight 1
I1109 08:11:17.546413 16535 layer_factory.hpp:78] Creating layer accuracy
I1109 08:11:17.546429 16535 net.cpp:67] Creating Layer accuracy
I1109 08:11:17.546437 16535 net.cpp:394] accuracy <- fc8_2_fc8_2_0_split_1
I1109 08:11:17.546443 16535 net.cpp:394] accuracy <- label_data_1_split_1
I1109 08:11:17.546452 16535 net.cpp:356] accuracy -> accuracy
I1109 08:11:17.546461 16535 net.cpp:96] Setting up accuracy
I1109 08:11:17.546473 16535 net.cpp:103] Top shape: 1 1 1 4 (4)
I1109 08:11:17.546478 16535 net.cpp:172] accuracy does not need backward computation.
I1109 08:11:17.546483 16535 net.cpp:170] loss needs backward computation.
I1109 08:11:17.546489 16535 net.cpp:170] fc8_2_fc8_2_0_split needs backward computation.
I1109 08:11:17.546494 16535 net.cpp:170] fc8_2 needs backward computation.
I1109 08:11:17.546499 16535 net.cpp:170] drop7 needs backward computation.
…
