…
I1109 23:28:50.898480  8512 net.cpp:275] The NetState phase (0) differed from the phase (1) specified by a rule in layer accuracy
I1109 23:28:50.898685  8512 net.cpp:39] Initializing net from parameters: 
name: "small"
layers {
  top: "data"
  top: "label"
  name: "data"
  type: IMAGE_DATA
  image_data_param {
    source: "/data/ad6813/devCaffe/caffe/data/scrape_o/train_no_nz,s.txt"
    batch_size: 32
    new_height: 256
    new_width: 256
  }
  include {
    phase: TRAIN
  }
  transform_param {
    mirror: true
    crop_size: 224
    mean_value: 86.752
    mean_value: 101.46
    mean_value: 104.6
  }
}
layers {
  bottom: "data"
  top: "conv1_1"
  name: "conv1_1"
  type: CONVOLUTION
  convolution_param {
    num_output: 64
    pad: 1
    kernel_size: 3
    weight_filler {
      type: "gaussian"
      std: 0.01
    }
    bias_filler {
      type: "constant"
      value: 0
    }
  }
}
layers {
  bottom: "conv1_1"
  top: "conv1_1"
  name: "relu1_1"
  type: RELU
}
layers {
  bottom: "conv1_1"
  top: "conv1_2"
  name: "conv1_2"
  type: CONVOLUTION
  convolution_param {
    num_output: 64
    pad: 1
    kernel_size: 3
    weight_filler {
      type: "gaussian"
      std: 0.01
    }
    bias_filler {
      type: "constant"
      value: 0
    }
  }
}
layers {
  bottom: "conv1_2"
  top: "conv1_2"
  name: "relu1_2"
  type: RELU
}
layers {
  bottom: "conv1_2"
  top: "pool1"
  name: "pool1"
  type: POOLING
  pooling_param {
    pool: MAX
    kernel_size: 2
    stride: 2
  }
}
layers {
  bottom: "pool1"
  top: "conv2_1"
  name: "conv2_1"
  type: CONVOLUTION
  convolution_param {
    num_output: 128
    pad: 1
    kernel_size: 3
    weight_filler {
      type: "gaussian"
      std: 0.01
    }
    bias_filler {
      type: "constant"
      value: 0
    }
  }
}
layers {
  bottom: "conv2_1"
  top: "conv2_1"
  name: "relu2_1"
  type: RELU
}
layers {
  bottom: "conv2_1"
  top: "conv2_2"
  name: "conv2_2"
  type: CONVOLUTION
  convolution_param {
    num_output: 128
    pad: 1
    kernel_size: 3
    weight_filler {
      type: "gaussian"
      std: 0.01
    }
    bias_filler {
      type: "constant"
      value: 0
    }
  }
}
layers {
  bottom: "conv2_2"
  top: "conv2_2"
  name: "relu2_2"
  type: RELU
}
layers {
  bottom: "conv2_2"
  top: "pool2"
  name: "pool2"
  type: POOLING
  pooling_param {
    pool: MAX
    kernel_size: 2
    stride: 2
  }
}
layers {
  bottom: "pool2"
  top: "conv3_1"
  name: "conv3_1"
  type: CONVOLUTION
  convolution_param {
    num_output: 256
    pad: 1
    kernel_size: 3
    weight_filler {
      type: "gaussian"
      std: 0.01
    }
    bias_filler {
      type: "constant"
      value: 0
    }
  }
}
layers {
  bottom: "conv3_1"
  top: "conv3_1"
  name: "relu3_1"
  type: RELU
}
layers {
  bottom: "conv3_1"
  top: "conv3_2"
  name: "conv3_2"
  type: CONVOLUTION
  convolution_param {
    num_output: 256
    pad: 1
    kernel_size: 3
    weight_filler {
      type: "gaussian"
      std: 0.01
    }
    bias_filler {
      type: "constant"
      value: 0
    }
  }
}
layers {
  bottom: "conv3_2"
  top: "conv3_2"
  name: "relu3_2"
  type: RELU
}
layers {
  bottom: "conv3_2"
  top: "conv3_3"
  name: "conv3_3"
  type: CONVOLUTION
  convolution_param {
    num_output: 256
    pad: 1
    kernel_size: 3
    weight_filler {
      type: "gaussian"
      std: 0.01
    }
    bias_filler {
      type: "constant"
      value: 0
    }
  }
}
layers {
  bottom: "conv3_3"
  top: "conv3_3"
  name: "relu3_3"
  type: RELU
}
layers {
  bottom: "conv3_3"
  top: "pool3"
  name: "pool3"
  type: POOLING
  pooling_param {
    pool: MAX
    kernel_size: 2
    stride: 2
  }
}
layers {
  bottom: "pool3"
  top: "conv4_1"
  name: "conv4_1"
  type: CONVOLUTION
  convolution_param {
    num_output: 512
    pad: 1
    kernel_size: 3
    weight_filler {
      type: "gaussian"
      std: 0.01
    }
    bias_filler {
      type: "constant"
      value: 0
    }
  }
}
layers {
  bottom: "conv4_1"
  top: "conv4_1"
  name: "relu4_1"
  type: RELU
}
layers {
  bottom: "conv4_1"
  top: "conv4_2"
  name: "conv4_2"
  type: CONVOLUTION
  convolution_param {
    num_output: 512
    pad: 1
    kernel_size: 3
    weight_filler {
      type: "gaussian"
      std: 0.01
    }
    bias_filler {
      type: "constant"
      value: 0
    }
  }
}
layers {
  bottom: "conv4_2"
  top: "conv4_2"
  name: "relu4_2"
  type: RELU
}
layers {
  bottom: "conv4_2"
  top: "conv4_3"
  name: "conv4_3"
  type: CONVOLUTION
  convolution_param {
    num_output: 512
    pad: 1
    kernel_size: 3
    weight_filler {
      type: "gaussian"
      std: 0.01
    }
    bias_filler {
      type: "constant"
      value: 0
    }
  }
}
layers {
  bottom: "conv4_3"
  top: "conv4_3"
  name: "relu4_3"
  type: RELU
}
layers {
  bottom: "conv4_3"
  top: "pool4"
  name: "pool4"
  type: POOLING
  pooling_param {
    pool: MAX
    kernel_size: 2
    stride: 2
  }
}
layers {
  bottom: "pool4"
  top: "conv5_1"
  name: "conv5_1"
  type: CONVOLUTION
  convolution_param {
    num_output: 512
    pad: 1
    kernel_size: 3
    weight_filler {
      type: "gaussian"
      std: 0.01
    }
    bias_filler {
      type: "constant"
      value: 0
    }
  }
}
layers {
  bottom: "conv5_1"
  top: "conv5_1"
  name: "relu5_1"
  type: RELU
}
layers {
  bottom: "conv5_1"
  top: "conv5_2"
  name: "conv5_2"
  type: CONVOLUTION
  convolution_param {
    num_output: 512
    pad: 1
    kernel_size: 3
    weight_filler {
      type: "gaussian"
      std: 0.01
    }
    bias_filler {
      type: "constant"
      value: 0
    }
  }
}
layers {
  bottom: "conv5_2"
  top: "conv5_2"
  name: "relu5_2"
  type: RELU
}
layers {
  bottom: "conv5_2"
  top: "conv5_3"
  name: "conv5_3"
  type: CONVOLUTION
  convolution_param {
    num_output: 512
    pad: 1
    kernel_size: 3
    weight_filler {
      type: "gaussian"
      std: 0.01
    }
    bias_filler {
      type: "constant"
      value: 0
    }
  }
}
layers {
  bottom: "conv5_3"
  top: "conv5_3"
  name: "relu5_3"
  type: RELU
}
layers {
  bottom: "conv5_3"
  top: "pool5"
  name: "pool5"
  type: POOLING
  pooling_param {
    pool: MAX
    kernel_size: 2
    stride: 2
  }
}
layers {
  bottom: "pool5"
  top: "fc6"
  name: "fc6"
  type: INNER_PRODUCT
  inner_product_param {
    num_output: 4096
    weight_filler {
      type: "gaussian"
      std: 0.01
    }
    bias_filler {
      type: "constant"
      value: 0
    }
  }
}
layers {
  bottom: "fc6"
  top: "fc6"
  name: "relu6"
  type: RELU
}
layers {
  bottom: "fc6"
  top: "fc6"
  name: "drop6"
  type: DROPOUT
  dropout_param {
    dropout_ratio: 0.5
  }
}
layers {
  bottom: "fc6"
  top: "fc7"
  name: "fc7"
  type: INNER_PRODUCT
  inner_product_param {
    num_output: 4096
    weight_filler {
      type: "gaussian"
      std: 0.01
    }
    bias_filler {
      type: "constant"
      value: 0
    }
  }
}
layers {
  bottom: "fc7"
  top: "fc7"
  name: "relu7"
  type: RELU
}
layers {
  bottom: "fc7"
  top: "fc7"
  name: "drop7"
  type: DROPOUT
  dropout_param {
    dropout_ratio: 0.5
  }
}
layers {
  bottom: "fc7"
  top: "fc8_2"
  name: "fc8_2"
  type: INNER_PRODUCT
  inner_product_param {
    num_output: 2
    weight_filler {
      type: "gaussian"
      std: 0.01
    }
    bias_filler {
      type: "constant"
      value: 0
    }
  }
}
layers {
  bottom: "fc8_2"
  bottom: "label"
  name: "loss"
  type: SOFTMAX_LOSS
}
state {
  phase: TRAIN
}
I1109 23:28:50.898803  8512 layer_factory.hpp:78] Creating layer data
I1109 23:28:50.898823  8512 net.cpp:67] Creating Layer data
I1109 23:28:50.898830  8512 net.cpp:356] data -> data
I1109 23:28:50.898851  8512 net.cpp:356] data -> label
I1109 23:28:50.898859  8512 net.cpp:96] Setting up data
I1109 23:28:50.898865  8512 image_data_layer.cpp:34] Opening file /data/ad6813/devCaffe/caffe/data/scrape_o/train_no_nz,s.txt
I1109 23:28:50.960742  8512 image_data_layer.cpp:49] A total of 177086 images.
I1109 23:28:50.971547  8512 image_data_layer.cpp:78] output data size: 32,3,224,224
I1109 23:28:50.974452  8512 net.cpp:103] Top shape: 32 3 224 224 (4816896)
I1109 23:28:50.974478  8512 net.cpp:103] Top shape: 32 1 1 1 (32)
I1109 23:28:50.974483  8512 layer_factory.hpp:78] Creating layer conv1_1
I1109 23:28:50.974498  8512 net.cpp:67] Creating Layer conv1_1
I1109 23:28:50.974503  8512 net.cpp:394] conv1_1 <- data
I1109 23:28:50.974516  8512 net.cpp:356] conv1_1 -> conv1_1
I1109 23:28:50.974526  8512 net.cpp:96] Setting up conv1_1
I1109 23:28:51.154871  8512 net.cpp:103] Top shape: 32 64 224 224 (102760448)
I1109 23:28:51.154904  8512 layer_factory.hpp:78] Creating layer relu1_1
I1109 23:28:51.154917  8512 net.cpp:67] Creating Layer relu1_1
I1109 23:28:51.154922  8512 net.cpp:394] relu1_1 <- conv1_1
I1109 23:28:51.154929  8512 net.cpp:345] relu1_1 -> conv1_1 (in-place)
I1109 23:28:51.154937  8512 net.cpp:96] Setting up relu1_1
I1109 23:28:51.154945  8512 net.cpp:103] Top shape: 32 64 224 224 (102760448)
I1109 23:28:51.154949  8512 layer_factory.hpp:78] Creating layer conv1_2
I1109 23:28:51.154955  8512 net.cpp:67] Creating Layer conv1_2
I1109 23:28:51.154958  8512 net.cpp:394] conv1_2 <- conv1_1
I1109 23:28:51.154964  8512 net.cpp:356] conv1_2 -> conv1_2
I1109 23:28:51.154970  8512 net.cpp:96] Setting up conv1_2
I1109 23:28:51.156013  8512 net.cpp:103] Top shape: 32 64 224 224 (102760448)
I1109 23:28:51.156026  8512 layer_factory.hpp:78] Creating layer relu1_2
I1109 23:28:51.156033  8512 net.cpp:67] Creating Layer relu1_2
I1109 23:28:51.156035  8512 net.cpp:394] relu1_2 <- conv1_2
I1109 23:28:51.156041  8512 net.cpp:345] relu1_2 -> conv1_2 (in-place)
I1109 23:28:51.156046  8512 net.cpp:96] Setting up relu1_2
I1109 23:28:51.156052  8512 net.cpp:103] Top shape: 32 64 224 224 (102760448)
I1109 23:28:51.156055  8512 layer_factory.hpp:78] Creating layer pool1
I1109 23:28:51.156064  8512 net.cpp:67] Creating Layer pool1
I1109 23:28:51.156066  8512 net.cpp:394] pool1 <- conv1_2
I1109 23:28:51.156074  8512 net.cpp:356] pool1 -> pool1
I1109 23:28:51.156080  8512 net.cpp:96] Setting up pool1
I1109 23:28:51.156096  8512 net.cpp:103] Top shape: 32 64 112 112 (25690112)
I1109 23:28:51.156102  8512 layer_factory.hpp:78] Creating layer conv2_1
I1109 23:28:51.156108  8512 net.cpp:67] Creating Layer conv2_1
I1109 23:28:51.156111  8512 net.cpp:394] conv2_1 <- pool1
I1109 23:28:51.156117  8512 net.cpp:356] conv2_1 -> conv2_1
I1109 23:28:51.156123  8512 net.cpp:96] Setting up conv2_1
I1109 23:28:51.158071  8512 net.cpp:103] Top shape: 32 128 112 112 (51380224)
I1109 23:28:51.158083  8512 layer_factory.hpp:78] Creating layer relu2_1
I1109 23:28:51.158088  8512 net.cpp:67] Creating Layer relu2_1
I1109 23:28:51.158092  8512 net.cpp:394] relu2_1 <- conv2_1
I1109 23:28:51.158097  8512 net.cpp:345] relu2_1 -> conv2_1 (in-place)
I1109 23:28:51.158102  8512 net.cpp:96] Setting up relu2_1
I1109 23:28:51.158107  8512 net.cpp:103] Top shape: 32 128 112 112 (51380224)
I1109 23:28:51.158109  8512 layer_factory.hpp:78] Creating layer conv2_2
I1109 23:28:51.158118  8512 net.cpp:67] Creating Layer conv2_2
I1109 23:28:51.158120  8512 net.cpp:394] conv2_2 <- conv2_1
I1109 23:28:51.158126  8512 net.cpp:356] conv2_2 -> conv2_2
I1109 23:28:51.158133  8512 net.cpp:96] Setting up conv2_2
I1109 23:28:51.161869  8512 net.cpp:103] Top shape: 32 128 112 112 (51380224)
I1109 23:28:51.161880  8512 layer_factory.hpp:78] Creating layer relu2_2
I1109 23:28:51.161885  8512 net.cpp:67] Creating Layer relu2_2
I1109 23:28:51.161887  8512 net.cpp:394] relu2_2 <- conv2_2
I1109 23:28:51.161893  8512 net.cpp:345] relu2_2 -> conv2_2 (in-place)
I1109 23:28:51.161898  8512 net.cpp:96] Setting up relu2_2
I1109 23:28:51.161903  8512 net.cpp:103] Top shape: 32 128 112 112 (51380224)
I1109 23:28:51.161916  8512 layer_factory.hpp:78] Creating layer pool2
I1109 23:28:51.161921  8512 net.cpp:67] Creating Layer pool2
I1109 23:28:51.161923  8512 net.cpp:394] pool2 <- conv2_2
I1109 23:28:51.161928  8512 net.cpp:356] pool2 -> pool2
I1109 23:28:51.161933  8512 net.cpp:96] Setting up pool2
I1109 23:28:51.161941  8512 net.cpp:103] Top shape: 32 128 56 56 (12845056)
I1109 23:28:51.161944  8512 layer_factory.hpp:78] Creating layer conv3_1
I1109 23:28:51.161949  8512 net.cpp:67] Creating Layer conv3_1
I1109 23:28:51.161952  8512 net.cpp:394] conv3_1 <- pool2
I1109 23:28:51.161957  8512 net.cpp:356] conv3_1 -> conv3_1
I1109 23:28:51.161962  8512 net.cpp:96] Setting up conv3_1
I1109 23:28:51.169435  8512 net.cpp:103] Top shape: 32 256 56 56 (25690112)
I1109 23:28:51.169451  8512 layer_factory.hpp:78] Creating layer relu3_1
I1109 23:28:51.169458  8512 net.cpp:67] Creating Layer relu3_1
I1109 23:28:51.169462  8512 net.cpp:394] relu3_1 <- conv3_1
I1109 23:28:51.169467  8512 net.cpp:345] relu3_1 -> conv3_1 (in-place)
I1109 23:28:51.169472  8512 net.cpp:96] Setting up relu3_1
I1109 23:28:51.169478  8512 net.cpp:103] Top shape: 32 256 56 56 (25690112)
I1109 23:28:51.169481  8512 layer_factory.hpp:78] Creating layer conv3_2
I1109 23:28:51.169488  8512 net.cpp:67] Creating Layer conv3_2
I1109 23:28:51.169492  8512 net.cpp:394] conv3_2 <- conv3_1
I1109 23:28:51.169497  8512 net.cpp:356] conv3_2 -> conv3_2
I1109 23:28:51.169502  8512 net.cpp:96] Setting up conv3_2
I1109 23:28:51.184404  8512 net.cpp:103] Top shape: 32 256 56 56 (25690112)
I1109 23:28:51.184425  8512 layer_factory.hpp:78] Creating layer relu3_2
I1109 23:28:51.184433  8512 net.cpp:67] Creating Layer relu3_2
I1109 23:28:51.184437  8512 net.cpp:394] relu3_2 <- conv3_2
I1109 23:28:51.184445  8512 net.cpp:345] relu3_2 -> conv3_2 (in-place)
I1109 23:28:51.184451  8512 net.cpp:96] Setting up relu3_2
I1109 23:28:51.184458  8512 net.cpp:103] Top shape: 32 256 56 56 (25690112)
I1109 23:28:51.184460  8512 layer_factory.hpp:78] Creating layer conv3_3
I1109 23:28:51.184465  8512 net.cpp:67] Creating Layer conv3_3
I1109 23:28:51.184468  8512 net.cpp:394] conv3_3 <- conv3_2
I1109 23:28:51.184473  8512 net.cpp:356] conv3_3 -> conv3_3
I1109 23:28:51.184479  8512 net.cpp:96] Setting up conv3_3
I1109 23:28:51.199203  8512 net.cpp:103] Top shape: 32 256 56 56 (25690112)
I1109 23:28:51.199218  8512 layer_factory.hpp:78] Creating layer relu3_3
I1109 23:28:51.199228  8512 net.cpp:67] Creating Layer relu3_3
I1109 23:28:51.199231  8512 net.cpp:394] relu3_3 <- conv3_3
I1109 23:28:51.199239  8512 net.cpp:345] relu3_3 -> conv3_3 (in-place)
I1109 23:28:51.199244  8512 net.cpp:96] Setting up relu3_3
I1109 23:28:51.199249  8512 net.cpp:103] Top shape: 32 256 56 56 (25690112)
I1109 23:28:51.199252  8512 layer_factory.hpp:78] Creating layer pool3
I1109 23:28:51.199257  8512 net.cpp:67] Creating Layer pool3
I1109 23:28:51.199260  8512 net.cpp:394] pool3 <- conv3_3
I1109 23:28:51.199265  8512 net.cpp:356] pool3 -> pool3
I1109 23:28:51.199270  8512 net.cpp:96] Setting up pool3
I1109 23:28:51.199277  8512 net.cpp:103] Top shape: 32 256 28 28 (6422528)
I1109 23:28:51.199281  8512 layer_factory.hpp:78] Creating layer conv4_1
I1109 23:28:51.199287  8512 net.cpp:67] Creating Layer conv4_1
I1109 23:28:51.199291  8512 net.cpp:394] conv4_1 <- pool3
I1109 23:28:51.199296  8512 net.cpp:356] conv4_1 -> conv4_1
I1109 23:28:51.199302  8512 net.cpp:96] Setting up conv4_1
I1109 23:28:51.228441  8512 net.cpp:103] Top shape: 32 512 28 28 (12845056)
I1109 23:28:51.228466  8512 layer_factory.hpp:78] Creating layer relu4_1
I1109 23:28:51.228476  8512 net.cpp:67] Creating Layer relu4_1
I1109 23:28:51.228481  8512 net.cpp:394] relu4_1 <- conv4_1
I1109 23:28:51.228487  8512 net.cpp:345] relu4_1 -> conv4_1 (in-place)
I1109 23:28:51.228493  8512 net.cpp:96] Setting up relu4_1
I1109 23:28:51.228499  8512 net.cpp:103] Top shape: 32 512 28 28 (12845056)
I1109 23:28:51.228503  8512 layer_factory.hpp:78] Creating layer conv4_2
I1109 23:28:51.228510  8512 net.cpp:67] Creating Layer conv4_2
I1109 23:28:51.228513  8512 net.cpp:394] conv4_2 <- conv4_1
I1109 23:28:51.228526  8512 net.cpp:356] conv4_2 -> conv4_2
I1109 23:28:51.228533  8512 net.cpp:96] Setting up conv4_2
I1109 23:28:51.286182  8512 net.cpp:103] Top shape: 32 512 28 28 (12845056)
I1109 23:28:51.286211  8512 layer_factory.hpp:78] Creating layer relu4_2
I1109 23:28:51.286221  8512 net.cpp:67] Creating Layer relu4_2
I1109 23:28:51.286226  8512 net.cpp:394] relu4_2 <- conv4_2
I1109 23:28:51.286233  8512 net.cpp:345] relu4_2 -> conv4_2 (in-place)
I1109 23:28:51.286241  8512 net.cpp:96] Setting up relu4_2
I1109 23:28:51.286245  8512 net.cpp:103] Top shape: 32 512 28 28 (12845056)
I1109 23:28:51.286249  8512 layer_factory.hpp:78] Creating layer conv4_3
I1109 23:28:51.286255  8512 net.cpp:67] Creating Layer conv4_3
I1109 23:28:51.286258  8512 net.cpp:394] conv4_3 <- conv4_2
I1109 23:28:51.286264  8512 net.cpp:356] conv4_3 -> conv4_3
I1109 23:28:51.286270  8512 net.cpp:96] Setting up conv4_3
I1109 23:28:51.344069  8512 net.cpp:103] Top shape: 32 512 28 28 (12845056)
I1109 23:28:51.344096  8512 layer_factory.hpp:78] Creating layer relu4_3
I1109 23:28:51.344105  8512 net.cpp:67] Creating Layer relu4_3
I1109 23:28:51.344110  8512 net.cpp:394] relu4_3 <- conv4_3
I1109 23:28:51.344115  8512 net.cpp:345] relu4_3 -> conv4_3 (in-place)
I1109 23:28:51.344121  8512 net.cpp:96] Setting up relu4_3
I1109 23:28:51.344127  8512 net.cpp:103] Top shape: 32 512 28 28 (12845056)
I1109 23:28:51.344130  8512 layer_factory.hpp:78] Creating layer pool4
I1109 23:28:51.344136  8512 net.cpp:67] Creating Layer pool4
I1109 23:28:51.344140  8512 net.cpp:394] pool4 <- conv4_3
I1109 23:28:51.344146  8512 net.cpp:356] pool4 -> pool4
I1109 23:28:51.344151  8512 net.cpp:96] Setting up pool4
I1109 23:28:51.344159  8512 net.cpp:103] Top shape: 32 512 14 14 (3211264)
I1109 23:28:51.344163  8512 layer_factory.hpp:78] Creating layer conv5_1
I1109 23:28:51.344172  8512 net.cpp:67] Creating Layer conv5_1
I1109 23:28:51.344174  8512 net.cpp:394] conv5_1 <- pool4
I1109 23:28:51.344179  8512 net.cpp:356] conv5_1 -> conv5_1
I1109 23:28:51.344187  8512 net.cpp:96] Setting up conv5_1
I1109 23:28:51.401862  8512 net.cpp:103] Top shape: 32 512 14 14 (3211264)
I1109 23:28:51.401890  8512 layer_factory.hpp:78] Creating layer relu5_1
I1109 23:28:51.401904  8512 net.cpp:67] Creating Layer relu5_1
I1109 23:28:51.401909  8512 net.cpp:394] relu5_1 <- conv5_1
I1109 23:28:51.401916  8512 net.cpp:345] relu5_1 -> conv5_1 (in-place)
I1109 23:28:51.401922  8512 net.cpp:96] Setting up relu5_1
I1109 23:28:51.401928  8512 net.cpp:103] Top shape: 32 512 14 14 (3211264)
I1109 23:28:51.401932  8512 layer_factory.hpp:78] Creating layer conv5_2
I1109 23:28:51.401939  8512 net.cpp:67] Creating Layer conv5_2
I1109 23:28:51.401942  8512 net.cpp:394] conv5_2 <- conv5_1
I1109 23:28:51.401947  8512 net.cpp:356] conv5_2 -> conv5_2
I1109 23:28:51.401953  8512 net.cpp:96] Setting up conv5_2
I1109 23:28:51.459585  8512 net.cpp:103] Top shape: 32 512 14 14 (3211264)
I1109 23:28:51.459612  8512 layer_factory.hpp:78] Creating layer relu5_2
I1109 23:28:51.459622  8512 net.cpp:67] Creating Layer relu5_2
I1109 23:28:51.459626  8512 net.cpp:394] relu5_2 <- conv5_2
I1109 23:28:51.459633  8512 net.cpp:345] relu5_2 -> conv5_2 (in-place)
I1109 23:28:51.459640  8512 net.cpp:96] Setting up relu5_2
I1109 23:28:51.459645  8512 net.cpp:103] Top shape: 32 512 14 14 (3211264)
I1109 23:28:51.459648  8512 layer_factory.hpp:78] Creating layer conv5_3
I1109 23:28:51.459655  8512 net.cpp:67] Creating Layer conv5_3
I1109 23:28:51.459657  8512 net.cpp:394] conv5_3 <- conv5_2
I1109 23:28:51.459663  8512 net.cpp:356] conv5_3 -> conv5_3
I1109 23:28:51.459669  8512 net.cpp:96] Setting up conv5_3
I1109 23:28:51.517230  8512 net.cpp:103] Top shape: 32 512 14 14 (3211264)
I1109 23:28:51.517254  8512 layer_factory.hpp:78] Creating layer relu5_3
I1109 23:28:51.517263  8512 net.cpp:67] Creating Layer relu5_3
I1109 23:28:51.517268  8512 net.cpp:394] relu5_3 <- conv5_3
I1109 23:28:51.517274  8512 net.cpp:345] relu5_3 -> conv5_3 (in-place)
I1109 23:28:51.517282  8512 net.cpp:96] Setting up relu5_3
I1109 23:28:51.517295  8512 net.cpp:103] Top shape: 32 512 14 14 (3211264)
I1109 23:28:51.517298  8512 layer_factory.hpp:78] Creating layer pool5
I1109 23:28:51.517305  8512 net.cpp:67] Creating Layer pool5
I1109 23:28:51.517309  8512 net.cpp:394] pool5 <- conv5_3
I1109 23:28:51.517314  8512 net.cpp:356] pool5 -> pool5
I1109 23:28:51.517319  8512 net.cpp:96] Setting up pool5
I1109 23:28:51.517328  8512 net.cpp:103] Top shape: 32 512 7 7 (802816)
I1109 23:28:51.517331  8512 layer_factory.hpp:78] Creating layer fc6
I1109 23:28:51.517344  8512 net.cpp:67] Creating Layer fc6
I1109 23:28:51.517349  8512 net.cpp:394] fc6 <- pool5
I1109 23:28:51.517354  8512 net.cpp:356] fc6 -> fc6
I1109 23:28:51.517359  8512 net.cpp:96] Setting up fc6
I1109 23:28:53.909745  8512 net.cpp:103] Top shape: 32 4096 1 1 (131072)
I1109 23:28:53.909788  8512 layer_factory.hpp:78] Creating layer relu6
I1109 23:28:53.909797  8512 net.cpp:67] Creating Layer relu6
I1109 23:28:53.909801  8512 net.cpp:394] relu6 <- fc6
I1109 23:28:53.909808  8512 net.cpp:345] relu6 -> fc6 (in-place)
I1109 23:28:53.909816  8512 net.cpp:96] Setting up relu6
I1109 23:28:53.909829  8512 net.cpp:103] Top shape: 32 4096 1 1 (131072)
I1109 23:28:53.909832  8512 layer_factory.hpp:78] Creating layer drop6
I1109 23:28:53.909840  8512 net.cpp:67] Creating Layer drop6
I1109 23:28:53.909843  8512 net.cpp:394] drop6 <- fc6
I1109 23:28:53.909849  8512 net.cpp:345] drop6 -> fc6 (in-place)
I1109 23:28:53.909853  8512 net.cpp:96] Setting up drop6
I1109 23:28:53.909857  8512 net.cpp:103] Top shape: 32 4096 1 1 (131072)
I1109 23:28:53.909860  8512 layer_factory.hpp:78] Creating layer fc7
I1109 23:28:53.909867  8512 net.cpp:67] Creating Layer fc7
I1109 23:28:53.909869  8512 net.cpp:394] fc7 <- fc6
I1109 23:28:53.909873  8512 net.cpp:356] fc7 -> fc7
I1109 23:28:53.909880  8512 net.cpp:96] Setting up fc7
I1109 23:28:54.297986  8512 net.cpp:103] Top shape: 32 4096 1 1 (131072)
I1109 23:28:54.298027  8512 layer_factory.hpp:78] Creating layer relu7
I1109 23:28:54.298035  8512 net.cpp:67] Creating Layer relu7
I1109 23:28:54.298040  8512 net.cpp:394] relu7 <- fc7
I1109 23:28:54.298048  8512 net.cpp:345] relu7 -> fc7 (in-place)
I1109 23:28:54.298055  8512 net.cpp:96] Setting up relu7
I1109 23:28:54.298069  8512 net.cpp:103] Top shape: 32 4096 1 1 (131072)
I1109 23:28:54.298074  8512 layer_factory.hpp:78] Creating layer drop7
I1109 23:28:54.298079  8512 net.cpp:67] Creating Layer drop7
I1109 23:28:54.298081  8512 net.cpp:394] drop7 <- fc7
I1109 23:28:54.298085  8512 net.cpp:345] drop7 -> fc7 (in-place)
I1109 23:28:54.298090  8512 net.cpp:96] Setting up drop7
I1109 23:28:54.298094  8512 net.cpp:103] Top shape: 32 4096 1 1 (131072)
I1109 23:28:54.298096  8512 layer_factory.hpp:78] Creating layer fc8_2
I1109 23:28:54.298104  8512 net.cpp:67] Creating Layer fc8_2
I1109 23:28:54.298106  8512 net.cpp:394] fc8_2 <- fc7
I1109 23:28:54.298111  8512 net.cpp:356] fc8_2 -> fc8_2
I1109 23:28:54.298117  8512 net.cpp:96] Setting up fc8_2
I1109 23:28:54.298337  8512 net.cpp:103] Top shape: 32 2 1 1 (64)
I1109 23:28:54.298346  8512 layer_factory.hpp:78] Creating layer loss
I1109 23:28:54.298352  8512 net.cpp:67] Creating Layer loss
I1109 23:28:54.298355  8512 net.cpp:394] loss <- fc8_2
I1109 23:28:54.298359  8512 net.cpp:394] loss <- label
I1109 23:28:54.298370  8512 net.cpp:356] loss -> (automatic)
I1109 23:28:54.298375  8512 net.cpp:96] Setting up loss
I1109 23:28:54.298384  8512 net.cpp:103] Top shape: 1 1 1 1 (1)
I1109 23:28:54.298388  8512 net.cpp:109]     with loss weight 1
I1109 23:28:54.298424  8512 net.cpp:170] loss needs backward computation.
I1109 23:28:54.298427  8512 net.cpp:170] fc8_2 needs backward computation.
I1109 23:28:54.298430  8512 net.cpp:170] drop7 needs backward computation.
I1109 23:28:54.298434  8512 net.cpp:170] relu7 needs backward computation.
I1109 23:28:54.298435  8512 net.cpp:170] fc7 needs backward computation.
…
I1109 23:28:54.299499  8512 net.cpp:275] The NetState phase (1) differed from the phase (0) specified by a rule in layer data
I1109 23:28:54.299710  8512 net.cpp:39] Initializing net from parameters: 
name: "small"
layers {
  top: "data"
  top: "label"
  name: "data"
  type: IMAGE_DATA
  image_data_param {
    source: "/data/ad6813/devCaffe/caffe/data/scrape_o/val_no_nz,s.txt"
    batch_size: 8
    new_height: 256
    new_width: 256
  }
  include {
    phase: TEST
  }
  transform_param {
    mirror: true
    crop_size: 224
    mean_value: 86.752
    mean_value: 101.46
    mean_value: 104.6
  }
}
layers {
  bottom: "data"
  top: "conv1_1"
  name: "conv1_1"
  type: CONVOLUTION
  convolution_param {
    num_output: 64
    pad: 1
    kernel_size: 3
    weight_filler {
      type: "gaussian"
      std: 0.01
    }
    bias_filler {
      type: "constant"
      value: 0
    }
  }
}
layers {
  bottom: "conv1_1"
  top: "conv1_1"
  name: "relu1_1"
  type: RELU
}
layers {
  bottom: "conv1_1"
  top: "conv1_2"
  name: "conv1_2"
  type: CONVOLUTION
  convolution_param {
    num_output: 64
    pad: 1
    kernel_size: 3
    weight_filler {
      type: "gaussian"
      std: 0.01
    }
    bias_filler {
      type: "constant"
      value: 0
    }
  }
}
layers {
  bottom: "conv1_2"
  top: "conv1_2"
  name: "relu1_2"
  type: RELU
}
layers {
  bottom: "conv1_2"
  top: "pool1"
  name: "pool1"
  type: POOLING
  pooling_param {
    pool: MAX
    kernel_size: 2
    stride: 2
  }
}
layers {
  bottom: "pool1"
  top: "conv2_1"
  name: "conv2_1"
  type: CONVOLUTION
  convolution_param {
    num_output: 128
    pad: 1
    kernel_size: 3
    weight_filler {
      type: "gaussian"
      std: 0.01
    }
    bias_filler {
      type: "constant"
      value: 0
    }
  }
}
layers {
  bottom: "conv2_1"
  top: "conv2_1"
  name: "relu2_1"
  type: RELU
}
layers {
  bottom: "conv2_1"
  top: "conv2_2"
  name: "conv2_2"
  type: CONVOLUTION
  convolution_param {
    num_output: 128
    pad: 1
    kernel_size: 3
    weight_filler {
      type: "gaussian"
      std: 0.01
    }
    bias_filler {
      type: "constant"
      value: 0
    }
  }
}
layers {
  bottom: "conv2_2"
  top: "conv2_2"
  name: "relu2_2"
  type: RELU
}
layers {
  bottom: "conv2_2"
  top: "pool2"
  name: "pool2"
  type: POOLING
  pooling_param {
    pool: MAX
    kernel_size: 2
    stride: 2
  }
}
layers {
  bottom: "pool2"
  top: "conv3_1"
  name: "conv3_1"
  type: CONVOLUTION
  convolution_param {
    num_output: 256
    pad: 1
    kernel_size: 3
    weight_filler {
      type: "gaussian"
      std: 0.01
    }
    bias_filler {
      type: "constant"
      value: 0
    }
  }
}
layers {
  bottom: "conv3_1"
  top: "conv3_1"
  name: "relu3_1"
  type: RELU
}
layers {
  bottom: "conv3_1"
  top: "conv3_2"
  name: "conv3_2"
  type: CONVOLUTION
  convolution_param {
    num_output: 256
    pad: 1
    kernel_size: 3
    weight_filler {
      type: "gaussian"
      std: 0.01
    }
    bias_filler {
      type: "constant"
      value: 0
    }
  }
}
layers {
  bottom: "conv3_2"
  top: "conv3_2"
  name: "relu3_2"
  type: RELU
}
layers {
  bottom: "conv3_2"
  top: "conv3_3"
  name: "conv3_3"
  type: CONVOLUTION
  convolution_param {
    num_output: 256
    pad: 1
    kernel_size: 3
    weight_filler {
      type: "gaussian"
      std: 0.01
    }
    bias_filler {
      type: "constant"
      value: 0
    }
  }
}
layers {
  bottom: "conv3_3"
  top: "conv3_3"
  name: "relu3_3"
  type: RELU
}
layers {
  bottom: "conv3_3"
  top: "pool3"
  name: "pool3"
  type: POOLING
  pooling_param {
    pool: MAX
    kernel_size: 2
    stride: 2
  }
}
layers {
  bottom: "pool3"
  top: "conv4_1"
  name: "conv4_1"
  type: CONVOLUTION
  convolution_param {
    num_output: 512
    pad: 1
    kernel_size: 3
    weight_filler {
      type: "gaussian"
      std: 0.01
    }
    bias_filler {
      type: "constant"
      value: 0
    }
  }
}
layers {
  bottom: "conv4_1"
  top: "conv4_1"
  name: "relu4_1"
  type: RELU
}
layers {
  bottom: "conv4_1"
  top: "conv4_2"
  name: "conv4_2"
  type: CONVOLUTION
  convolution_param {
    num_output: 512
    pad: 1
    kernel_size: 3
    weight_filler {
      type: "gaussian"
      std: 0.01
    }
    bias_filler {
      type: "constant"
      value: 0
    }
  }
}
layers {
  bottom: "conv4_2"
  top: "conv4_2"
  name: "relu4_2"
  type: RELU
}
layers {
  bottom: "conv4_2"
  top: "conv4_3"
  name: "conv4_3"
  type: CONVOLUTION
  convolution_param {
    num_output: 512
    pad: 1
    kernel_size: 3
    weight_filler {
      type: "gaussian"
      std: 0.01
    }
    bias_filler {
      type: "constant"
      value: 0
    }
  }
}
layers {
  bottom: "conv4_3"
  top: "conv4_3"
  name: "relu4_3"
  type: RELU
}
layers {
  bottom: "conv4_3"
  top: "pool4"
  name: "pool4"
  type: POOLING
  pooling_param {
    pool: MAX
    kernel_size: 2
    stride: 2
  }
}
layers {
  bottom: "pool4"
  top: "conv5_1"
  name: "conv5_1"
  type: CONVOLUTION
  convolution_param {
    num_output: 512
    pad: 1
    kernel_size: 3
    weight_filler {
      type: "gaussian"
      std: 0.01
    }
    bias_filler {
      type: "constant"
      value: 0
    }
  }
}
layers {
  bottom: "conv5_1"
  top: "conv5_1"
  name: "relu5_1"
  type: RELU
}
layers {
  bottom: "conv5_1"
  top: "conv5_2"
  name: "conv5_2"
  type: CONVOLUTION
  convolution_param {
    num_output: 512
    pad: 1
    kernel_size: 3
    weight_filler {
      type: "gaussian"
      std: 0.01
    }
    bias_filler {
      type: "constant"
      value: 0
    }
  }
}
layers {
  bottom: "conv5_2"
  top: "conv5_2"
  name: "relu5_2"
  type: RELU
}
layers {
  bottom: "conv5_2"
  top: "conv5_3"
  name: "conv5_3"
  type: CONVOLUTION
  convolution_param {
    num_output: 512
    pad: 1
    kernel_size: 3
    weight_filler {
      type: "gaussian"
      std: 0.01
    }
    bias_filler {
      type: "constant"
      value: 0
    }
  }
}
layers {
  bottom: "conv5_3"
  top: "conv5_3"
  name: "relu5_3"
  type: RELU
}
layers {
  bottom: "conv5_3"
  top: "pool5"
  name: "pool5"
  type: POOLING
  pooling_param {
    pool: MAX
    kernel_size: 2
    stride: 2
  }
}
layers {
  bottom: "pool5"
  top: "fc6"
  name: "fc6"
  type: INNER_PRODUCT
  inner_product_param {
    num_output: 4096
    weight_filler {
      type: "gaussian"
      std: 0.01
    }
    bias_filler {
      type: "constant"
      value: 0
    }
  }
}
layers {
  bottom: "fc6"
  top: "fc6"
  name: "relu6"
  type: RELU
}
layers {
  bottom: "fc6"
  top: "fc6"
  name: "drop6"
  type: DROPOUT
  dropout_param {
    dropout_ratio: 0.5
  }
}
layers {
  bottom: "fc6"
  top: "fc7"
  name: "fc7"
  type: INNER_PRODUCT
  inner_product_param {
    num_output: 4096
    weight_filler {
      type: "gaussian"
      std: 0.01
    }
    bias_filler {
      type: "constant"
      value: 0
    }
  }
}
layers {
  bottom: "fc7"
  top: "fc7"
  name: "relu7"
  type: RELU
}
layers {
  bottom: "fc7"
  top: "fc7"
  name: "drop7"
  type: DROPOUT
  dropout_param {
    dropout_ratio: 0.5
  }
}
layers {
  bottom: "fc7"
  top: "fc8_2"
  name: "fc8_2"
  type: INNER_PRODUCT
  inner_product_param {
    num_output: 2
    weight_filler {
      type: "gaussian"
      std: 0.01
    }
    bias_filler {
      type: "constant"
      value: 0
    }
  }
}
layers {
  bottom: "fc8_2"
  bottom: "label"
  name: "loss"
  type: SOFTMAX_LOSS
}
layers {
  bottom: "fc8_2"
  bottom: "label"
  top: "accuracy"
  name: "accuracy"
  type: PER_CLASS_ACCURACY
  include {
    phase: TEST
  }
}
state {
  phase: TEST
}
I1109 23:28:54.299854  8512 layer_factory.hpp:78] Creating layer data
I1109 23:28:54.299865  8512 net.cpp:67] Creating Layer data
I1109 23:28:54.299868  8512 net.cpp:356] data -> data
I1109 23:28:54.299876  8512 net.cpp:356] data -> label
I1109 23:28:54.299882  8512 net.cpp:96] Setting up data
I1109 23:28:54.299885  8512 image_data_layer.cpp:34] Opening file /data/ad6813/devCaffe/caffe/data/scrape_o/val_no_nz,s.txt
I1109 23:28:54.300192  8512 image_data_layer.cpp:49] A total of 670 images.
I1109 23:28:54.305408  8512 image_data_layer.cpp:78] output data size: 8,3,224,224
I1109 23:28:54.306280  8512 net.cpp:103] Top shape: 8 3 224 224 (1204224)
I1109 23:28:54.306301  8512 net.cpp:103] Top shape: 8 1 1 1 (8)
I1109 23:28:54.306305  8512 layer_factory.hpp:78] Creating layer label_data_1_split
I1109 23:28:54.306318  8512 net.cpp:67] Creating Layer label_data_1_split
I1109 23:28:54.306321  8512 net.cpp:394] label_data_1_split <- label
I1109 23:28:54.306327  8512 net.cpp:356] label_data_1_split -> label_data_1_split_0
I1109 23:28:54.306335  8512 net.cpp:356] label_data_1_split -> label_data_1_split_1
I1109 23:28:54.306340  8512 net.cpp:96] Setting up label_data_1_split
I1109 23:28:54.306345  8512 net.cpp:103] Top shape: 8 1 1 1 (8)
I1109 23:28:54.306349  8512 net.cpp:103] Top shape: 8 1 1 1 (8)
I1109 23:28:54.306351  8512 layer_factory.hpp:78] Creating layer conv1_1
I1109 23:28:54.306356  8512 net.cpp:67] Creating Layer conv1_1
I1109 23:28:54.306360  8512 net.cpp:394] conv1_1 <- data
I1109 23:28:54.306365  8512 net.cpp:356] conv1_1 -> conv1_1
I1109 23:28:54.306370  8512 net.cpp:96] Setting up conv1_1
I1109 23:28:54.306526  8512 net.cpp:103] Top shape: 8 64 224 224 (25690112)
I1109 23:28:54.306540  8512 layer_factory.hpp:78] Creating layer relu1_1
I1109 23:28:54.306547  8512 net.cpp:67] Creating Layer relu1_1
I1109 23:28:54.306550  8512 net.cpp:394] relu1_1 <- conv1_1
I1109 23:28:54.306555  8512 net.cpp:345] relu1_1 -> conv1_1 (in-place)
I1109 23:28:54.306566  8512 net.cpp:96] Setting up relu1_1
I1109 23:28:54.306572  8512 net.cpp:103] Top shape: 8 64 224 224 (25690112)
I1109 23:28:54.306576  8512 layer_factory.hpp:78] Creating layer conv1_2
I1109 23:28:54.306581  8512 net.cpp:67] Creating Layer conv1_2
I1109 23:28:54.306584  8512 net.cpp:394] conv1_2 <- conv1_1
I1109 23:28:54.306588  8512 net.cpp:356] conv1_2 -> conv1_2
I1109 23:28:54.306599  8512 net.cpp:96] Setting up conv1_2
I1109 23:28:54.307603  8512 net.cpp:103] Top shape: 8 64 224 224 (25690112)
I1109 23:28:54.307616  8512 layer_factory.hpp:78] Creating layer relu1_2
I1109 23:28:54.307621  8512 net.cpp:67] Creating Layer relu1_2
I1109 23:28:54.307624  8512 net.cpp:394] relu1_2 <- conv1_2
I1109 23:28:54.307628  8512 net.cpp:345] relu1_2 -> conv1_2 (in-place)
I1109 23:28:54.307633  8512 net.cpp:96] Setting up relu1_2
I1109 23:28:54.307638  8512 net.cpp:103] Top shape: 8 64 224 224 (25690112)
I1109 23:28:54.307642  8512 layer_factory.hpp:78] Creating layer pool1
I1109 23:28:54.307647  8512 net.cpp:67] Creating Layer pool1
I1109 23:28:54.307651  8512 net.cpp:394] pool1 <- conv1_2
I1109 23:28:54.307654  8512 net.cpp:356] pool1 -> pool1
I1109 23:28:54.307659  8512 net.cpp:96] Setting up pool1
I1109 23:28:54.307667  8512 net.cpp:103] Top shape: 8 64 112 112 (6422528)
I1109 23:28:54.307669  8512 layer_factory.hpp:78] Creating layer conv2_1
I1109 23:28:54.307674  8512 net.cpp:67] Creating Layer conv2_1
I1109 23:28:54.307677  8512 net.cpp:394] conv2_1 <- pool1
I1109 23:28:54.307682  8512 net.cpp:356] conv2_1 -> conv2_1
I1109 23:28:54.307687  8512 net.cpp:96] Setting up conv2_1
I1109 23:28:54.309674  8512 net.cpp:103] Top shape: 8 128 112 112 (12845056)
I1109 23:28:54.309687  8512 layer_factory.hpp:78] Creating layer relu2_1
I1109 23:28:54.309694  8512 net.cpp:67] Creating Layer relu2_1
I1109 23:28:54.309697  8512 net.cpp:394] relu2_1 <- conv2_1
I1109 23:28:54.309701  8512 net.cpp:345] relu2_1 -> conv2_1 (in-place)
I1109 23:28:54.309706  8512 net.cpp:96] Setting up relu2_1
I1109 23:28:54.309711  8512 net.cpp:103] Top shape: 8 128 112 112 (12845056)
I1109 23:28:54.309715  8512 layer_factory.hpp:78] Creating layer conv2_2
I1109 23:28:54.309720  8512 net.cpp:67] Creating Layer conv2_2
I1109 23:28:54.309722  8512 net.cpp:394] conv2_2 <- conv2_1
I1109 23:28:54.309727  8512 net.cpp:356] conv2_2 -> conv2_2
I1109 23:28:54.309733  8512 net.cpp:96] Setting up conv2_2
I1109 23:28:54.313377  8512 net.cpp:103] Top shape: 8 128 112 112 (12845056)
I1109 23:28:54.313388  8512 layer_factory.hpp:78] Creating layer relu2_2
I1109 23:28:54.313393  8512 net.cpp:67] Creating Layer relu2_2
I1109 23:28:54.313396  8512 net.cpp:394] relu2_2 <- conv2_2
I1109 23:28:54.313401  8512 net.cpp:345] relu2_2 -> conv2_2 (in-place)
I1109 23:28:54.313405  8512 net.cpp:96] Setting up relu2_2
I1109 23:28:54.313411  8512 net.cpp:103] Top shape: 8 128 112 112 (12845056)
I1109 23:28:54.313415  8512 layer_factory.hpp:78] Creating layer pool2
I1109 23:28:54.313419  8512 net.cpp:67] Creating Layer pool2
I1109 23:28:54.313422  8512 net.cpp:394] pool2 <- conv2_2
I1109 23:28:54.313426  8512 net.cpp:356] pool2 -> pool2
I1109 23:28:54.313431  8512 net.cpp:96] Setting up pool2
I1109 23:28:54.313436  8512 net.cpp:103] Top shape: 8 128 56 56 (3211264)
I1109 23:28:54.313441  8512 layer_factory.hpp:78] Creating layer conv3_1
I1109 23:28:54.313446  8512 net.cpp:67] Creating Layer conv3_1
I1109 23:28:54.313448  8512 net.cpp:394] conv3_1 <- pool2
I1109 23:28:54.313452  8512 net.cpp:356] conv3_1 -> conv3_1
I1109 23:28:54.313458  8512 net.cpp:96] Setting up conv3_1
I1109 23:28:54.320691  8512 net.cpp:103] Top shape: 8 256 56 56 (6422528)
I1109 23:28:54.320708  8512 layer_factory.hpp:78] Creating layer relu3_1
I1109 23:28:54.320713  8512 net.cpp:67] Creating Layer relu3_1
I1109 23:28:54.320715  8512 net.cpp:394] relu3_1 <- conv3_1
I1109 23:28:54.320720  8512 net.cpp:345] relu3_1 -> conv3_1 (in-place)
I1109 23:28:54.320726  8512 net.cpp:96] Setting up relu3_1
I1109 23:28:54.320731  8512 net.cpp:103] Top shape: 8 256 56 56 (6422528)
I1109 23:28:54.320734  8512 layer_factory.hpp:78] Creating layer conv3_2
I1109 23:28:54.320746  8512 net.cpp:67] Creating Layer conv3_2
I1109 23:28:54.320750  8512 net.cpp:394] conv3_2 <- conv3_1
I1109 23:28:54.320755  8512 net.cpp:356] conv3_2 -> conv3_2
I1109 23:28:54.320760  8512 net.cpp:96] Setting up conv3_2
I1109 23:28:54.335507  8512 net.cpp:103] Top shape: 8 256 56 56 (6422528)
I1109 23:28:54.335536  8512 layer_factory.hpp:78] Creating layer relu3_2
I1109 23:28:54.335546  8512 net.cpp:67] Creating Layer relu3_2
I1109 23:28:54.335549  8512 net.cpp:394] relu3_2 <- conv3_2
I1109 23:28:54.335558  8512 net.cpp:345] relu3_2 -> conv3_2 (in-place)
I1109 23:28:54.335566  8512 net.cpp:96] Setting up relu3_2
I1109 23:28:54.335573  8512 net.cpp:103] Top shape: 8 256 56 56 (6422528)
I1109 23:28:54.335577  8512 layer_factory.hpp:78] Creating layer conv3_3
I1109 23:28:54.335585  8512 net.cpp:67] Creating Layer conv3_3
I1109 23:28:54.335594  8512 net.cpp:394] conv3_3 <- conv3_2
I1109 23:28:54.335602  8512 net.cpp:356] conv3_3 -> conv3_3
I1109 23:28:54.335611  8512 net.cpp:96] Setting up conv3_3
I1109 23:28:54.350365  8512 net.cpp:103] Top shape: 8 256 56 56 (6422528)
I1109 23:28:54.350391  8512 layer_factory.hpp:78] Creating layer relu3_3
I1109 23:28:54.350399  8512 net.cpp:67] Creating Layer relu3_3
I1109 23:28:54.350404  8512 net.cpp:394] relu3_3 <- conv3_3
I1109 23:28:54.350414  8512 net.cpp:345] relu3_3 -> conv3_3 (in-place)
I1109 23:28:54.350419  8512 net.cpp:96] Setting up relu3_3
I1109 23:28:54.350425  8512 net.cpp:103] Top shape: 8 256 56 56 (6422528)
I1109 23:28:54.350430  8512 layer_factory.hpp:78] Creating layer pool3
I1109 23:28:54.350435  8512 net.cpp:67] Creating Layer pool3
I1109 23:28:54.350437  8512 net.cpp:394] pool3 <- conv3_3
I1109 23:28:54.350443  8512 net.cpp:356] pool3 -> pool3
I1109 23:28:54.350450  8512 net.cpp:96] Setting up pool3
I1109 23:28:54.350456  8512 net.cpp:103] Top shape: 8 256 28 28 (1605632)
I1109 23:28:54.350461  8512 layer_factory.hpp:78] Creating layer conv4_1
I1109 23:28:54.350466  8512 net.cpp:67] Creating Layer conv4_1
I1109 23:28:54.350468  8512 net.cpp:394] conv4_1 <- pool3
I1109 23:28:54.350474  8512 net.cpp:356] conv4_1 -> conv4_1
I1109 23:28:54.350481  8512 net.cpp:96] Setting up conv4_1
I1109 23:28:54.379734  8512 net.cpp:103] Top shape: 8 512 28 28 (3211264)
I1109 23:28:54.379756  8512 layer_factory.hpp:78] Creating layer relu4_1
I1109 23:28:54.379765  8512 net.cpp:67] Creating Layer relu4_1
I1109 23:28:54.379770  8512 net.cpp:394] relu4_1 <- conv4_1
I1109 23:28:54.379778  8512 net.cpp:345] relu4_1 -> conv4_1 (in-place)
I1109 23:28:54.379786  8512 net.cpp:96] Setting up relu4_1
I1109 23:28:54.379791  8512 net.cpp:103] Top shape: 8 512 28 28 (3211264)
I1109 23:28:54.379796  8512 layer_factory.hpp:78] Creating layer conv4_2
I1109 23:28:54.379801  8512 net.cpp:67] Creating Layer conv4_2
I1109 23:28:54.379803  8512 net.cpp:394] conv4_2 <- conv4_1
I1109 23:28:54.379811  8512 net.cpp:356] conv4_2 -> conv4_2
I1109 23:28:54.379817  8512 net.cpp:96] Setting up conv4_2
I1109 23:28:54.436005  8512 net.cpp:103] Top shape: 8 512 28 28 (3211264)
I1109 23:28:54.436046  8512 layer_factory.hpp:78] Creating layer relu4_2
I1109 23:28:54.436054  8512 net.cpp:67] Creating Layer relu4_2
I1109 23:28:54.436059  8512 net.cpp:394] relu4_2 <- conv4_2
I1109 23:28:54.436067  8512 net.cpp:345] relu4_2 -> conv4_2 (in-place)
I1109 23:28:54.436074  8512 net.cpp:96] Setting up relu4_2
I1109 23:28:54.436080  8512 net.cpp:103] Top shape: 8 512 28 28 (3211264)
I1109 23:28:54.436084  8512 layer_factory.hpp:78] Creating layer conv4_3
I1109 23:28:54.436089  8512 net.cpp:67] Creating Layer conv4_3
I1109 23:28:54.436092  8512 net.cpp:394] conv4_3 <- conv4_2
I1109 23:28:54.436097  8512 net.cpp:356] conv4_3 -> conv4_3
I1109 23:28:54.436107  8512 net.cpp:96] Setting up conv4_3
I1109 23:28:54.490973  8512 net.cpp:103] Top shape: 8 512 28 28 (3211264)
I1109 23:28:54.491010  8512 layer_factory.hpp:78] Creating layer relu4_3
I1109 23:28:54.491019  8512 net.cpp:67] Creating Layer relu4_3
I1109 23:28:54.491024  8512 net.cpp:394] relu4_3 <- conv4_3
I1109 23:28:54.491039  8512 net.cpp:345] relu4_3 -> conv4_3 (in-place)
I1109 23:28:54.491046  8512 net.cpp:96] Setting up relu4_3
I1109 23:28:54.491053  8512 net.cpp:103] Top shape: 8 512 28 28 (3211264)
I1109 23:28:54.491056  8512 layer_factory.hpp:78] Creating layer pool4
I1109 23:28:54.491062  8512 net.cpp:67] Creating Layer pool4
I1109 23:28:54.491065  8512 net.cpp:394] pool4 <- conv4_3
I1109 23:28:54.491070  8512 net.cpp:356] pool4 -> pool4
I1109 23:28:54.491076  8512 net.cpp:96] Setting up pool4
I1109 23:28:54.491083  8512 net.cpp:103] Top shape: 8 512 14 14 (802816)
I1109 23:28:54.491086  8512 layer_factory.hpp:78] Creating layer conv5_1
I1109 23:28:54.491094  8512 net.cpp:67] Creating Layer conv5_1
I1109 23:28:54.491097  8512 net.cpp:394] conv5_1 <- pool4
I1109 23:28:54.491103  8512 net.cpp:356] conv5_1 -> conv5_1
I1109 23:28:54.491108  8512 net.cpp:96] Setting up conv5_1
I1109 23:28:54.546092  8512 net.cpp:103] Top shape: 8 512 14 14 (802816)
I1109 23:28:54.546133  8512 layer_factory.hpp:78] Creating layer relu5_1
I1109 23:28:54.546141  8512 net.cpp:67] Creating Layer relu5_1
I1109 23:28:54.546146  8512 net.cpp:394] relu5_1 <- conv5_1
I1109 23:28:54.546154  8512 net.cpp:345] relu5_1 -> conv5_1 (in-place)
I1109 23:28:54.546159  8512 net.cpp:96] Setting up relu5_1
I1109 23:28:54.546165  8512 net.cpp:103] Top shape: 8 512 14 14 (802816)
I1109 23:28:54.546169  8512 layer_factory.hpp:78] Creating layer conv5_2
I1109 23:28:54.546175  8512 net.cpp:67] Creating Layer conv5_2
I1109 23:28:54.546177  8512 net.cpp:394] conv5_2 <- conv5_1
I1109 23:28:54.546185  8512 net.cpp:356] conv5_2 -> conv5_2
I1109 23:28:54.546190  8512 net.cpp:96] Setting up conv5_2
I1109 23:28:54.601100  8512 net.cpp:103] Top shape: 8 512 14 14 (802816)
I1109 23:28:54.601140  8512 layer_factory.hpp:78] Creating layer relu5_2
I1109 23:28:54.601147  8512 net.cpp:67] Creating Layer relu5_2
I1109 23:28:54.601152  8512 net.cpp:394] relu5_2 <- conv5_2
I1109 23:28:54.601158  8512 net.cpp:345] relu5_2 -> conv5_2 (in-place)
I1109 23:28:54.601164  8512 net.cpp:96] Setting up relu5_2
I1109 23:28:54.601171  8512 net.cpp:103] Top shape: 8 512 14 14 (802816)
I1109 23:28:54.601173  8512 layer_factory.hpp:78] Creating layer conv5_3
I1109 23:28:54.601183  8512 net.cpp:67] Creating Layer conv5_3
I1109 23:28:54.601186  8512 net.cpp:394] conv5_3 <- conv5_2
I1109 23:28:54.601192  8512 net.cpp:356] conv5_3 -> conv5_3
I1109 23:28:54.601198  8512 net.cpp:96] Setting up conv5_3
I1109 23:28:54.656353  8512 net.cpp:103] Top shape: 8 512 14 14 (802816)
I1109 23:28:54.656378  8512 layer_factory.hpp:78] Creating layer relu5_3
I1109 23:28:54.656386  8512 net.cpp:67] Creating Layer relu5_3
I1109 23:28:54.656391  8512 net.cpp:394] relu5_3 <- conv5_3
I1109 23:28:54.656409  8512 net.cpp:345] relu5_3 -> conv5_3 (in-place)
I1109 23:28:54.656416  8512 net.cpp:96] Setting up relu5_3
I1109 23:28:54.656422  8512 net.cpp:103] Top shape: 8 512 14 14 (802816)
I1109 23:28:54.656425  8512 layer_factory.hpp:78] Creating layer pool5
I1109 23:28:54.656436  8512 net.cpp:67] Creating Layer pool5
I1109 23:28:54.656440  8512 net.cpp:394] pool5 <- conv5_3
I1109 23:28:54.656445  8512 net.cpp:356] pool5 -> pool5
I1109 23:28:54.656451  8512 net.cpp:96] Setting up pool5
I1109 23:28:54.656460  8512 net.cpp:103] Top shape: 8 512 7 7 (200704)
I1109 23:28:54.656463  8512 layer_factory.hpp:78] Creating layer fc6
I1109 23:28:54.656469  8512 net.cpp:67] Creating Layer fc6
I1109 23:28:54.656472  8512 net.cpp:394] fc6 <- pool5
I1109 23:28:54.656477  8512 net.cpp:356] fc6 -> fc6
I1109 23:28:54.656483  8512 net.cpp:96] Setting up fc6
I1109 23:28:57.091183  8512 net.cpp:103] Top shape: 8 4096 1 1 (32768)
I1109 23:28:57.091227  8512 layer_factory.hpp:78] Creating layer relu6
I1109 23:28:57.091235  8512 net.cpp:67] Creating Layer relu6
I1109 23:28:57.091240  8512 net.cpp:394] relu6 <- fc6
I1109 23:28:57.091248  8512 net.cpp:345] relu6 -> fc6 (in-place)
I1109 23:28:57.091255  8512 net.cpp:96] Setting up relu6
I1109 23:28:57.091270  8512 net.cpp:103] Top shape: 8 4096 1 1 (32768)
I1109 23:28:57.091274  8512 layer_factory.hpp:78] Creating layer drop6
I1109 23:28:57.091289  8512 net.cpp:67] Creating Layer drop6
I1109 23:28:57.091292  8512 net.cpp:394] drop6 <- fc6
I1109 23:28:57.091296  8512 net.cpp:345] drop6 -> fc6 (in-place)
I1109 23:28:57.091301  8512 net.cpp:96] Setting up drop6
I1109 23:28:57.091305  8512 net.cpp:103] Top shape: 8 4096 1 1 (32768)
I1109 23:28:57.091308  8512 layer_factory.hpp:78] Creating layer fc7
I1109 23:28:57.091315  8512 net.cpp:67] Creating Layer fc7
I1109 23:28:57.091318  8512 net.cpp:394] fc7 <- fc6
I1109 23:28:57.091323  8512 net.cpp:356] fc7 -> fc7
I1109 23:28:57.091330  8512 net.cpp:96] Setting up fc7
I1109 23:28:57.479528  8512 net.cpp:103] Top shape: 8 4096 1 1 (32768)
I1109 23:28:57.479570  8512 layer_factory.hpp:78] Creating layer relu7
I1109 23:28:57.479578  8512 net.cpp:67] Creating Layer relu7
I1109 23:28:57.479584  8512 net.cpp:394] relu7 <- fc7
I1109 23:28:57.479590  8512 net.cpp:345] relu7 -> fc7 (in-place)
I1109 23:28:57.479598  8512 net.cpp:96] Setting up relu7
I1109 23:28:57.479611  8512 net.cpp:103] Top shape: 8 4096 1 1 (32768)
I1109 23:28:57.479615  8512 layer_factory.hpp:78] Creating layer drop7
I1109 23:28:57.479620  8512 net.cpp:67] Creating Layer drop7
I1109 23:28:57.479624  8512 net.cpp:394] drop7 <- fc7
I1109 23:28:57.479629  8512 net.cpp:345] drop7 -> fc7 (in-place)
I1109 23:28:57.479634  8512 net.cpp:96] Setting up drop7
I1109 23:28:57.479637  8512 net.cpp:103] Top shape: 8 4096 1 1 (32768)
I1109 23:28:57.479640  8512 layer_factory.hpp:78] Creating layer fc8_2
I1109 23:28:57.479646  8512 net.cpp:67] Creating Layer fc8_2
I1109 23:28:57.479650  8512 net.cpp:394] fc8_2 <- fc7
I1109 23:28:57.479653  8512 net.cpp:356] fc8_2 -> fc8_2
I1109 23:28:57.479661  8512 net.cpp:96] Setting up fc8_2
I1109 23:28:57.479887  8512 net.cpp:103] Top shape: 8 2 1 1 (16)
I1109 23:28:57.479894  8512 layer_factory.hpp:78] Creating layer fc8_2_fc8_2_0_split
I1109 23:28:57.479899  8512 net.cpp:67] Creating Layer fc8_2_fc8_2_0_split
I1109 23:28:57.479902  8512 net.cpp:394] fc8_2_fc8_2_0_split <- fc8_2
I1109 23:28:57.479907  8512 net.cpp:356] fc8_2_fc8_2_0_split -> fc8_2_fc8_2_0_split_0
I1109 23:28:57.479912  8512 net.cpp:356] fc8_2_fc8_2_0_split -> fc8_2_fc8_2_0_split_1
I1109 23:28:57.479918  8512 net.cpp:96] Setting up fc8_2_fc8_2_0_split
I1109 23:28:57.479923  8512 net.cpp:103] Top shape: 8 2 1 1 (16)
I1109 23:28:57.479925  8512 net.cpp:103] Top shape: 8 2 1 1 (16)
I1109 23:28:57.479928  8512 layer_factory.hpp:78] Creating layer loss
I1109 23:28:57.479934  8512 net.cpp:67] Creating Layer loss
I1109 23:28:57.479938  8512 net.cpp:394] loss <- fc8_2_fc8_2_0_split_0
I1109 23:28:57.479941  8512 net.cpp:394] loss <- label_data_1_split_0
I1109 23:28:57.479954  8512 net.cpp:356] loss -> (automatic)
I1109 23:28:57.479960  8512 net.cpp:96] Setting up loss
I1109 23:28:57.479967  8512 net.cpp:103] Top shape: 1 1 1 1 (1)
I1109 23:28:57.479970  8512 net.cpp:109]     with loss weight 1
I1109 23:28:57.479984  8512 layer_factory.hpp:78] Creating layer accuracy
I1109 23:28:57.479993  8512 net.cpp:67] Creating Layer accuracy
I1109 23:28:57.479996  8512 net.cpp:394] accuracy <- fc8_2_fc8_2_0_split_1
I1109 23:28:57.480005  8512 net.cpp:394] accuracy <- label_data_1_split_1
I1109 23:28:57.480013  8512 net.cpp:356] accuracy -> accuracy
I1109 23:28:57.480018  8512 net.cpp:96] Setting up accuracy
I1109 23:28:57.480027  8512 net.cpp:103] Top shape: 1 1 1 4 (4)
I1109 23:28:57.480031  8512 net.cpp:172] accuracy does not need backward computation.
I1109 23:28:57.480034  8512 net.cpp:170] loss needs backward computation.
I1109 23:28:57.480037  8512 net.cpp:170] fc8_2_fc8_2_0_split needs backward computation.
I1109 23:28:57.480041  8512 net.cpp:170] fc8_2 needs backward computation.
I1109 23:28:57.480042  8512 net.cpp:170] drop7 needs backward computation.
…
