…
I1109 22:09:24.783057 26198 net.cpp:275] The NetState phase (0) differed from the phase (1) specified by a rule in layer accuracy
I1109 22:09:24.783262 26198 net.cpp:39] Initializing net from parameters: 
name: "small"
layers {
  top: "data"
  top: "label"
  name: "data"
  type: IMAGE_DATA
  image_data_param {
    source: "/data/ad6813/devCaffe/caffe/data/scrape_o/train_no_nz,s.txt"
    batch_size: 32
    new_height: 256
    new_width: 256
  }
  include {
    phase: TRAIN
  }
  transform_param {
    mirror: true
    crop_size: 224
    mean_value: 86.752
    mean_value: 101.46
    mean_value: 104.6
  }
}
layers {
  bottom: "data"
  top: "conv1_1"
  name: "conv1_1"
  type: CONVOLUTION
  convolution_param {
    num_output: 64
    pad: 1
    kernel_size: 3
    weight_filler {
      type: "gaussian"
      std: 0.01
    }
    bias_filler {
      type: "constant"
      value: 0
    }
  }
}
layers {
  bottom: "conv1_1"
  top: "conv1_1"
  name: "relu1_1"
  type: RELU
}
layers {
  bottom: "conv1_1"
  top: "conv1_2"
  name: "conv1_2"
  type: CONVOLUTION
  convolution_param {
    num_output: 64
    pad: 1
    kernel_size: 3
    weight_filler {
      type: "gaussian"
      std: 0.01
    }
    bias_filler {
      type: "constant"
      value: 0
    }
  }
}
layers {
  bottom: "conv1_2"
  top: "conv1_2"
  name: "relu1_2"
  type: RELU
}
layers {
  bottom: "conv1_2"
  top: "pool1"
  name: "pool1"
  type: POOLING
  pooling_param {
    pool: MAX
    kernel_size: 2
    stride: 2
  }
}
layers {
  bottom: "pool1"
  top: "conv2_1"
  name: "conv2_1"
  type: CONVOLUTION
  convolution_param {
    num_output: 128
    pad: 1
    kernel_size: 3
    weight_filler {
      type: "gaussian"
      std: 0.01
    }
    bias_filler {
      type: "constant"
      value: 0
    }
  }
}
layers {
  bottom: "conv2_1"
  top: "conv2_1"
  name: "relu2_1"
  type: RELU
}
layers {
  bottom: "conv2_1"
  top: "conv2_2"
  name: "conv2_2"
  type: CONVOLUTION
  convolution_param {
    num_output: 128
    pad: 1
    kernel_size: 3
    weight_filler {
      type: "gaussian"
      std: 0.01
    }
    bias_filler {
      type: "constant"
      value: 0
    }
  }
}
layers {
  bottom: "conv2_2"
  top: "conv2_2"
  name: "relu2_2"
  type: RELU
}
layers {
  bottom: "conv2_2"
  top: "pool2"
  name: "pool2"
  type: POOLING
  pooling_param {
    pool: MAX
    kernel_size: 2
    stride: 2
  }
}
layers {
  bottom: "pool2"
  top: "conv3_1"
  name: "conv3_1"
  type: CONVOLUTION
  convolution_param {
    num_output: 256
    pad: 1
    kernel_size: 3
    weight_filler {
      type: "gaussian"
      std: 0.01
    }
    bias_filler {
      type: "constant"
      value: 0
    }
  }
}
layers {
  bottom: "conv3_1"
  top: "conv3_1"
  name: "relu3_1"
  type: RELU
}
layers {
  bottom: "conv3_1"
  top: "conv3_2"
  name: "conv3_2"
  type: CONVOLUTION
  convolution_param {
    num_output: 256
    pad: 1
    kernel_size: 3
    weight_filler {
      type: "gaussian"
      std: 0.01
    }
    bias_filler {
      type: "constant"
      value: 0
    }
  }
}
layers {
  bottom: "conv3_2"
  top: "conv3_2"
  name: "relu3_2"
  type: RELU
}
layers {
  bottom: "conv3_2"
  top: "conv3_3"
  name: "conv3_3"
  type: CONVOLUTION
  convolution_param {
    num_output: 256
    pad: 1
    kernel_size: 3
    weight_filler {
      type: "gaussian"
      std: 0.01
    }
    bias_filler {
      type: "constant"
      value: 0
    }
  }
}
layers {
  bottom: "conv3_3"
  top: "conv3_3"
  name: "relu3_3"
  type: RELU
}
layers {
  bottom: "conv3_3"
  top: "pool3"
  name: "pool3"
  type: POOLING
  pooling_param {
    pool: MAX
    kernel_size: 2
    stride: 2
  }
}
layers {
  bottom: "pool3"
  top: "conv4_1"
  name: "conv4_1"
  type: CONVOLUTION
  convolution_param {
    num_output: 512
    pad: 1
    kernel_size: 3
    weight_filler {
      type: "gaussian"
      std: 0.01
    }
    bias_filler {
      type: "constant"
      value: 0
    }
  }
}
layers {
  bottom: "conv4_1"
  top: "conv4_1"
  name: "relu4_1"
  type: RELU
}
layers {
  bottom: "conv4_1"
  top: "conv4_2"
  name: "conv4_2"
  type: CONVOLUTION
  convolution_param {
    num_output: 512
    pad: 1
    kernel_size: 3
    weight_filler {
      type: "gaussian"
      std: 0.01
    }
    bias_filler {
      type: "constant"
      value: 0
    }
  }
}
layers {
  bottom: "conv4_2"
  top: "conv4_2"
  name: "relu4_2"
  type: RELU
}
layers {
  bottom: "conv4_2"
  top: "conv4_3"
  name: "conv4_3"
  type: CONVOLUTION
  convolution_param {
    num_output: 512
    pad: 1
    kernel_size: 3
    weight_filler {
      type: "gaussian"
      std: 0.01
    }
    bias_filler {
      type: "constant"
      value: 0
    }
  }
}
layers {
  bottom: "conv4_3"
  top: "conv4_3"
  name: "relu4_3"
  type: RELU
}
layers {
  bottom: "conv4_3"
  top: "pool4"
  name: "pool4"
  type: POOLING
  pooling_param {
    pool: MAX
    kernel_size: 2
    stride: 2
  }
}
layers {
  bottom: "pool4"
  top: "conv5_1"
  name: "conv5_1"
  type: CONVOLUTION
  convolution_param {
    num_output: 512
    pad: 1
    kernel_size: 3
    weight_filler {
      type: "gaussian"
      std: 0.01
    }
    bias_filler {
      type: "constant"
      value: 0
    }
  }
}
layers {
  bottom: "conv5_1"
  top: "conv5_1"
  name: "relu5_1"
  type: RELU
}
layers {
  bottom: "conv5_1"
  top: "conv5_2"
  name: "conv5_2"
  type: CONVOLUTION
  convolution_param {
    num_output: 512
    pad: 1
    kernel_size: 3
    weight_filler {
      type: "gaussian"
      std: 0.01
    }
    bias_filler {
      type: "constant"
      value: 0
    }
  }
}
layers {
  bottom: "conv5_2"
  top: "conv5_2"
  name: "relu5_2"
  type: RELU
}
layers {
  bottom: "conv5_2"
  top: "conv5_3"
  name: "conv5_3"
  type: CONVOLUTION
  convolution_param {
    num_output: 512
    pad: 1
    kernel_size: 3
    weight_filler {
      type: "gaussian"
      std: 0.01
    }
    bias_filler {
      type: "constant"
      value: 0
    }
  }
}
layers {
  bottom: "conv5_3"
  top: "conv5_3"
  name: "relu5_3"
  type: RELU
}
layers {
  bottom: "conv5_3"
  top: "pool5"
  name: "pool5"
  type: POOLING
  pooling_param {
    pool: MAX
    kernel_size: 2
    stride: 2
  }
}
layers {
  bottom: "pool5"
  top: "fc6"
  name: "fc6"
  type: INNER_PRODUCT
  inner_product_param {
    num_output: 4096
    weight_filler {
      type: "gaussian"
      std: 0.01
    }
    bias_filler {
      type: "constant"
      value: 0
    }
  }
}
layers {
  bottom: "fc6"
  top: "fc6"
  name: "relu6"
  type: RELU
}
layers {
  bottom: "fc6"
  top: "fc6"
  name: "drop6"
  type: DROPOUT
  dropout_param {
    dropout_ratio: 0.5
  }
}
layers {
  bottom: "fc6"
  top: "fc7"
  name: "fc7"
  type: INNER_PRODUCT
  inner_product_param {
    num_output: 4096
    weight_filler {
      type: "gaussian"
      std: 0.01
    }
    bias_filler {
      type: "constant"
      value: 0
    }
  }
}
layers {
  bottom: "fc7"
  top: "fc7"
  name: "relu7"
  type: RELU
}
layers {
  bottom: "fc7"
  top: "fc7"
  name: "drop7"
  type: DROPOUT
  dropout_param {
    dropout_ratio: 0.5
  }
}
layers {
  bottom: "fc7"
  top: "fc8_2"
  name: "fc8_2"
  type: INNER_PRODUCT
  inner_product_param {
    num_output: 2
    weight_filler {
      type: "gaussian"
      std: 0.01
    }
    bias_filler {
      type: "constant"
      value: 0
    }
  }
}
layers {
  bottom: "fc8_2"
  bottom: "label"
  name: "loss"
  type: SOFTMAX_LOSS
}
state {
  phase: TRAIN
}
I1109 22:09:24.783460 26198 layer_factory.hpp:78] Creating layer data
I1109 22:09:24.783493 26198 net.cpp:67] Creating Layer data
I1109 22:09:24.783507 26198 net.cpp:356] data -> data
I1109 22:09:24.783541 26198 net.cpp:356] data -> label
I1109 22:09:24.783555 26198 net.cpp:96] Setting up data
I1109 22:09:24.783565 26198 image_data_layer.cpp:34] Opening file /data/ad6813/devCaffe/caffe/data/scrape_o/train_no_nz,s.txt
I1109 22:09:24.848454 26198 image_data_layer.cpp:49] A total of 177086 images.
I1109 22:09:24.859560 26198 image_data_layer.cpp:78] output data size: 32,3,224,224
I1109 22:09:24.862175 26198 net.cpp:103] Top shape: 32 3 224 224 (4816896)
I1109 22:09:24.862203 26198 net.cpp:103] Top shape: 32 1 1 1 (32)
I1109 22:09:24.862210 26198 layer_factory.hpp:78] Creating layer conv1_1
I1109 22:09:24.862228 26198 net.cpp:67] Creating Layer conv1_1
I1109 22:09:24.862236 26198 net.cpp:394] conv1_1 <- data
I1109 22:09:24.862257 26198 net.cpp:356] conv1_1 -> conv1_1
I1109 22:09:24.862282 26198 net.cpp:96] Setting up conv1_1
I1109 22:09:25.027377 26198 net.cpp:103] Top shape: 32 64 224 224 (102760448)
I1109 22:09:25.027418 26198 layer_factory.hpp:78] Creating layer relu1_1
I1109 22:09:25.027436 26198 net.cpp:67] Creating Layer relu1_1
I1109 22:09:25.027442 26198 net.cpp:394] relu1_1 <- conv1_1
I1109 22:09:25.027453 26198 net.cpp:345] relu1_1 -> conv1_1 (in-place)
I1109 22:09:25.027465 26198 net.cpp:96] Setting up relu1_1
I1109 22:09:25.027498 26198 net.cpp:103] Top shape: 32 64 224 224 (102760448)
I1109 22:09:25.027508 26198 layer_factory.hpp:78] Creating layer conv1_2
I1109 22:09:25.027521 26198 net.cpp:67] Creating Layer conv1_2
I1109 22:09:25.027530 26198 net.cpp:394] conv1_2 <- conv1_1
I1109 22:09:25.027540 26198 net.cpp:356] conv1_2 -> conv1_2
I1109 22:09:25.027555 26198 net.cpp:96] Setting up conv1_2
I1109 22:09:25.028633 26198 net.cpp:103] Top shape: 32 64 224 224 (102760448)
I1109 22:09:25.028650 26198 layer_factory.hpp:78] Creating layer relu1_2
I1109 22:09:25.028661 26198 net.cpp:67] Creating Layer relu1_2
I1109 22:09:25.028666 26198 net.cpp:394] relu1_2 <- conv1_2
I1109 22:09:25.028676 26198 net.cpp:345] relu1_2 -> conv1_2 (in-place)
I1109 22:09:25.028684 26198 net.cpp:96] Setting up relu1_2
I1109 22:09:25.028698 26198 net.cpp:103] Top shape: 32 64 224 224 (102760448)
I1109 22:09:25.028707 26198 layer_factory.hpp:78] Creating layer pool1
I1109 22:09:25.028723 26198 net.cpp:67] Creating Layer pool1
I1109 22:09:25.028730 26198 net.cpp:394] pool1 <- conv1_2
I1109 22:09:25.028746 26198 net.cpp:356] pool1 -> pool1
I1109 22:09:25.028759 26198 net.cpp:96] Setting up pool1
I1109 22:09:25.028784 26198 net.cpp:103] Top shape: 32 64 112 112 (25690112)
I1109 22:09:25.028796 26198 layer_factory.hpp:78] Creating layer conv2_1
I1109 22:09:25.028807 26198 net.cpp:67] Creating Layer conv2_1
I1109 22:09:25.028815 26198 net.cpp:394] conv2_1 <- pool1
I1109 22:09:25.028823 26198 net.cpp:356] conv2_1 -> conv2_1
I1109 22:09:25.028833 26198 net.cpp:96] Setting up conv2_1
I1109 22:09:25.030760 26198 net.cpp:103] Top shape: 32 128 112 112 (51380224)
I1109 22:09:25.030778 26198 layer_factory.hpp:78] Creating layer relu2_1
I1109 22:09:25.030787 26198 net.cpp:67] Creating Layer relu2_1
I1109 22:09:25.030797 26198 net.cpp:394] relu2_1 <- conv2_1
I1109 22:09:25.030807 26198 net.cpp:345] relu2_1 -> conv2_1 (in-place)
I1109 22:09:25.030815 26198 net.cpp:96] Setting up relu2_1
I1109 22:09:25.030825 26198 net.cpp:103] Top shape: 32 128 112 112 (51380224)
I1109 22:09:25.030833 26198 layer_factory.hpp:78] Creating layer conv2_2
I1109 22:09:25.030846 26198 net.cpp:67] Creating Layer conv2_2
I1109 22:09:25.030854 26198 net.cpp:394] conv2_2 <- conv2_1
I1109 22:09:25.030864 26198 net.cpp:356] conv2_2 -> conv2_2
I1109 22:09:25.030882 26198 net.cpp:96] Setting up conv2_2
I1109 22:09:25.034636 26198 net.cpp:103] Top shape: 32 128 112 112 (51380224)
I1109 22:09:25.034651 26198 layer_factory.hpp:78] Creating layer relu2_2
I1109 22:09:25.034659 26198 net.cpp:67] Creating Layer relu2_2
I1109 22:09:25.034665 26198 net.cpp:394] relu2_2 <- conv2_2
I1109 22:09:25.034673 26198 net.cpp:345] relu2_2 -> conv2_2 (in-place)
I1109 22:09:25.034682 26198 net.cpp:96] Setting up relu2_2
I1109 22:09:25.034692 26198 net.cpp:103] Top shape: 32 128 112 112 (51380224)
I1109 22:09:25.034705 26198 layer_factory.hpp:78] Creating layer pool2
I1109 22:09:25.034714 26198 net.cpp:67] Creating Layer pool2
I1109 22:09:25.034720 26198 net.cpp:394] pool2 <- conv2_2
I1109 22:09:25.034731 26198 net.cpp:356] pool2 -> pool2
I1109 22:09:25.034740 26198 net.cpp:96] Setting up pool2
I1109 22:09:25.034759 26198 net.cpp:103] Top shape: 32 128 56 56 (12845056)
I1109 22:09:25.034766 26198 layer_factory.hpp:78] Creating layer conv3_1
I1109 22:09:25.034777 26198 net.cpp:67] Creating Layer conv3_1
I1109 22:09:25.034783 26198 net.cpp:394] conv3_1 <- pool2
I1109 22:09:25.034792 26198 net.cpp:356] conv3_1 -> conv3_1
I1109 22:09:25.034813 26198 net.cpp:96] Setting up conv3_1
I1109 22:09:25.042203 26198 net.cpp:103] Top shape: 32 256 56 56 (25690112)
I1109 22:09:25.042232 26198 layer_factory.hpp:78] Creating layer relu3_1
I1109 22:09:25.042245 26198 net.cpp:67] Creating Layer relu3_1
I1109 22:09:25.042251 26198 net.cpp:394] relu3_1 <- conv3_1
I1109 22:09:25.042260 26198 net.cpp:345] relu3_1 -> conv3_1 (in-place)
I1109 22:09:25.042269 26198 net.cpp:96] Setting up relu3_1
I1109 22:09:25.042281 26198 net.cpp:103] Top shape: 32 256 56 56 (25690112)
I1109 22:09:25.042291 26198 layer_factory.hpp:78] Creating layer conv3_2
I1109 22:09:25.042300 26198 net.cpp:67] Creating Layer conv3_2
I1109 22:09:25.042306 26198 net.cpp:394] conv3_2 <- conv3_1
I1109 22:09:25.042325 26198 net.cpp:356] conv3_2 -> conv3_2
I1109 22:09:25.042337 26198 net.cpp:96] Setting up conv3_2
I1109 22:09:25.057236 26198 net.cpp:103] Top shape: 32 256 56 56 (25690112)
I1109 22:09:25.057260 26198 layer_factory.hpp:78] Creating layer relu3_2
I1109 22:09:25.057273 26198 net.cpp:67] Creating Layer relu3_2
I1109 22:09:25.057281 26198 net.cpp:394] relu3_2 <- conv3_2
I1109 22:09:25.057289 26198 net.cpp:345] relu3_2 -> conv3_2 (in-place)
I1109 22:09:25.057299 26198 net.cpp:96] Setting up relu3_2
I1109 22:09:25.057309 26198 net.cpp:103] Top shape: 32 256 56 56 (25690112)
I1109 22:09:25.057322 26198 layer_factory.hpp:78] Creating layer conv3_3
I1109 22:09:25.057333 26198 net.cpp:67] Creating Layer conv3_3
I1109 22:09:25.057343 26198 net.cpp:394] conv3_3 <- conv3_2
I1109 22:09:25.057353 26198 net.cpp:356] conv3_3 -> conv3_3
I1109 22:09:25.057361 26198 net.cpp:96] Setting up conv3_3
I1109 22:09:25.071845 26198 net.cpp:103] Top shape: 32 256 56 56 (25690112)
I1109 22:09:25.071861 26198 layer_factory.hpp:78] Creating layer relu3_3
I1109 22:09:25.071874 26198 net.cpp:67] Creating Layer relu3_3
I1109 22:09:25.071882 26198 net.cpp:394] relu3_3 <- conv3_3
I1109 22:09:25.071890 26198 net.cpp:345] relu3_3 -> conv3_3 (in-place)
I1109 22:09:25.071899 26198 net.cpp:96] Setting up relu3_3
I1109 22:09:25.071909 26198 net.cpp:103] Top shape: 32 256 56 56 (25690112)
I1109 22:09:25.071920 26198 layer_factory.hpp:78] Creating layer pool3
I1109 22:09:25.071935 26198 net.cpp:67] Creating Layer pool3
I1109 22:09:25.071943 26198 net.cpp:394] pool3 <- conv3_3
I1109 22:09:25.071959 26198 net.cpp:356] pool3 -> pool3
I1109 22:09:25.071971 26198 net.cpp:96] Setting up pool3
I1109 22:09:25.071984 26198 net.cpp:103] Top shape: 32 256 28 28 (6422528)
I1109 22:09:25.071990 26198 layer_factory.hpp:78] Creating layer conv4_1
I1109 22:09:25.072001 26198 net.cpp:67] Creating Layer conv4_1
I1109 22:09:25.072016 26198 net.cpp:394] conv4_1 <- pool3
I1109 22:09:25.072026 26198 net.cpp:356] conv4_1 -> conv4_1
I1109 22:09:25.072036 26198 net.cpp:96] Setting up conv4_1
I1109 22:09:25.101169 26198 net.cpp:103] Top shape: 32 512 28 28 (12845056)
I1109 22:09:25.101196 26198 layer_factory.hpp:78] Creating layer relu4_1
I1109 22:09:25.101205 26198 net.cpp:67] Creating Layer relu4_1
I1109 22:09:25.101212 26198 net.cpp:394] relu4_1 <- conv4_1
I1109 22:09:25.101223 26198 net.cpp:345] relu4_1 -> conv4_1 (in-place)
I1109 22:09:25.101234 26198 net.cpp:96] Setting up relu4_1
I1109 22:09:25.101243 26198 net.cpp:103] Top shape: 32 512 28 28 (12845056)
I1109 22:09:25.101250 26198 layer_factory.hpp:78] Creating layer conv4_2
I1109 22:09:25.101263 26198 net.cpp:67] Creating Layer conv4_2
I1109 22:09:25.101269 26198 net.cpp:394] conv4_2 <- conv4_1
I1109 22:09:25.101296 26198 net.cpp:356] conv4_2 -> conv4_2
I1109 22:09:25.101310 26198 net.cpp:96] Setting up conv4_2
I1109 22:09:25.159209 26198 net.cpp:103] Top shape: 32 512 28 28 (12845056)
I1109 22:09:25.159247 26198 layer_factory.hpp:78] Creating layer relu4_2
I1109 22:09:25.159260 26198 net.cpp:67] Creating Layer relu4_2
I1109 22:09:25.159266 26198 net.cpp:394] relu4_2 <- conv4_2
I1109 22:09:25.159277 26198 net.cpp:345] relu4_2 -> conv4_2 (in-place)
I1109 22:09:25.159288 26198 net.cpp:96] Setting up relu4_2
I1109 22:09:25.159299 26198 net.cpp:103] Top shape: 32 512 28 28 (12845056)
I1109 22:09:25.159307 26198 layer_factory.hpp:78] Creating layer conv4_3
I1109 22:09:25.159320 26198 net.cpp:67] Creating Layer conv4_3
I1109 22:09:25.159328 26198 net.cpp:394] conv4_3 <- conv4_2
I1109 22:09:25.159339 26198 net.cpp:356] conv4_3 -> conv4_3
I1109 22:09:25.159349 26198 net.cpp:96] Setting up conv4_3
I1109 22:09:25.216965 26198 net.cpp:103] Top shape: 32 512 28 28 (12845056)
I1109 22:09:25.216995 26198 layer_factory.hpp:78] Creating layer relu4_3
I1109 22:09:25.217006 26198 net.cpp:67] Creating Layer relu4_3
I1109 22:09:25.217013 26198 net.cpp:394] relu4_3 <- conv4_3
I1109 22:09:25.217025 26198 net.cpp:345] relu4_3 -> conv4_3 (in-place)
I1109 22:09:25.217037 26198 net.cpp:96] Setting up relu4_3
I1109 22:09:25.217047 26198 net.cpp:103] Top shape: 32 512 28 28 (12845056)
I1109 22:09:25.217053 26198 layer_factory.hpp:78] Creating layer pool4
I1109 22:09:25.217062 26198 net.cpp:67] Creating Layer pool4
I1109 22:09:25.217068 26198 net.cpp:394] pool4 <- conv4_3
I1109 22:09:25.217077 26198 net.cpp:356] pool4 -> pool4
I1109 22:09:25.217087 26198 net.cpp:96] Setting up pool4
I1109 22:09:25.217099 26198 net.cpp:103] Top shape: 32 512 14 14 (3211264)
I1109 22:09:25.217108 26198 layer_factory.hpp:78] Creating layer conv5_1
I1109 22:09:25.217119 26198 net.cpp:67] Creating Layer conv5_1
I1109 22:09:25.217126 26198 net.cpp:394] conv5_1 <- pool4
I1109 22:09:25.217146 26198 net.cpp:356] conv5_1 -> conv5_1
I1109 22:09:25.217161 26198 net.cpp:96] Setting up conv5_1
I1109 22:09:25.275095 26198 net.cpp:103] Top shape: 32 512 14 14 (3211264)
I1109 22:09:25.275128 26198 layer_factory.hpp:78] Creating layer relu5_1
I1109 22:09:25.275140 26198 net.cpp:67] Creating Layer relu5_1
I1109 22:09:25.275146 26198 net.cpp:394] relu5_1 <- conv5_1
I1109 22:09:25.275167 26198 net.cpp:345] relu5_1 -> conv5_1 (in-place)
I1109 22:09:25.275179 26198 net.cpp:96] Setting up relu5_1
I1109 22:09:25.275189 26198 net.cpp:103] Top shape: 32 512 14 14 (3211264)
I1109 22:09:25.275200 26198 layer_factory.hpp:78] Creating layer conv5_2
I1109 22:09:25.275210 26198 net.cpp:67] Creating Layer conv5_2
I1109 22:09:25.275220 26198 net.cpp:394] conv5_2 <- conv5_1
I1109 22:09:25.275233 26198 net.cpp:356] conv5_2 -> conv5_2
I1109 22:09:25.275246 26198 net.cpp:96] Setting up conv5_2
I1109 22:09:25.332897 26198 net.cpp:103] Top shape: 32 512 14 14 (3211264)
I1109 22:09:25.332928 26198 layer_factory.hpp:78] Creating layer relu5_2
I1109 22:09:25.332938 26198 net.cpp:67] Creating Layer relu5_2
I1109 22:09:25.332947 26198 net.cpp:394] relu5_2 <- conv5_2
I1109 22:09:25.332955 26198 net.cpp:345] relu5_2 -> conv5_2 (in-place)
I1109 22:09:25.332968 26198 net.cpp:96] Setting up relu5_2
I1109 22:09:25.332978 26198 net.cpp:103] Top shape: 32 512 14 14 (3211264)
I1109 22:09:25.332984 26198 layer_factory.hpp:78] Creating layer conv5_3
I1109 22:09:25.332994 26198 net.cpp:67] Creating Layer conv5_3
I1109 22:09:25.333000 26198 net.cpp:394] conv5_3 <- conv5_2
I1109 22:09:25.333009 26198 net.cpp:356] conv5_3 -> conv5_3
I1109 22:09:25.333019 26198 net.cpp:96] Setting up conv5_3
I1109 22:09:25.390615 26198 net.cpp:103] Top shape: 32 512 14 14 (3211264)
I1109 22:09:25.390648 26198 layer_factory.hpp:78] Creating layer relu5_3
I1109 22:09:25.390661 26198 net.cpp:67] Creating Layer relu5_3
I1109 22:09:25.390667 26198 net.cpp:394] relu5_3 <- conv5_3
I1109 22:09:25.390679 26198 net.cpp:345] relu5_3 -> conv5_3 (in-place)
I1109 22:09:25.390691 26198 net.cpp:96] Setting up relu5_3
I1109 22:09:25.390712 26198 net.cpp:103] Top shape: 32 512 14 14 (3211264)
I1109 22:09:25.390717 26198 layer_factory.hpp:78] Creating layer pool5
I1109 22:09:25.390727 26198 net.cpp:67] Creating Layer pool5
I1109 22:09:25.390733 26198 net.cpp:394] pool5 <- conv5_3
I1109 22:09:25.390743 26198 net.cpp:356] pool5 -> pool5
I1109 22:09:25.390763 26198 net.cpp:96] Setting up pool5
I1109 22:09:25.390777 26198 net.cpp:103] Top shape: 32 512 7 7 (802816)
I1109 22:09:25.390786 26198 layer_factory.hpp:78] Creating layer fc6
I1109 22:09:25.390815 26198 net.cpp:67] Creating Layer fc6
I1109 22:09:25.390825 26198 net.cpp:394] fc6 <- pool5
I1109 22:09:25.390837 26198 net.cpp:356] fc6 -> fc6
I1109 22:09:25.390856 26198 net.cpp:96] Setting up fc6
I1109 22:09:27.796092 26198 net.cpp:103] Top shape: 32 4096 1 1 (131072)
I1109 22:09:27.796126 26198 layer_factory.hpp:78] Creating layer relu6
I1109 22:09:27.796139 26198 net.cpp:67] Creating Layer relu6
I1109 22:09:27.796157 26198 net.cpp:394] relu6 <- fc6
I1109 22:09:27.796169 26198 net.cpp:345] relu6 -> fc6 (in-place)
I1109 22:09:27.796178 26198 net.cpp:96] Setting up relu6
I1109 22:09:27.796197 26198 net.cpp:103] Top shape: 32 4096 1 1 (131072)
I1109 22:09:27.796203 26198 layer_factory.hpp:78] Creating layer drop6
I1109 22:09:27.796216 26198 net.cpp:67] Creating Layer drop6
I1109 22:09:27.796226 26198 net.cpp:394] drop6 <- fc6
I1109 22:09:27.796236 26198 net.cpp:345] drop6 -> fc6 (in-place)
I1109 22:09:27.796244 26198 net.cpp:96] Setting up drop6
I1109 22:09:27.796254 26198 net.cpp:103] Top shape: 32 4096 1 1 (131072)
I1109 22:09:27.796260 26198 layer_factory.hpp:78] Creating layer fc7
I1109 22:09:27.796272 26198 net.cpp:67] Creating Layer fc7
I1109 22:09:27.796280 26198 net.cpp:394] fc7 <- fc6
I1109 22:09:27.796303 26198 net.cpp:356] fc7 -> fc7
I1109 22:09:27.796315 26198 net.cpp:96] Setting up fc7
I1109 22:09:28.184794 26198 net.cpp:103] Top shape: 32 4096 1 1 (131072)
I1109 22:09:28.184828 26198 layer_factory.hpp:78] Creating layer relu7
I1109 22:09:28.184837 26198 net.cpp:67] Creating Layer relu7
I1109 22:09:28.184856 26198 net.cpp:394] relu7 <- fc7
I1109 22:09:28.184866 26198 net.cpp:345] relu7 -> fc7 (in-place)
I1109 22:09:28.184876 26198 net.cpp:96] Setting up relu7
I1109 22:09:28.184895 26198 net.cpp:103] Top shape: 32 4096 1 1 (131072)
I1109 22:09:28.184905 26198 layer_factory.hpp:78] Creating layer drop7
I1109 22:09:28.184913 26198 net.cpp:67] Creating Layer drop7
I1109 22:09:28.184919 26198 net.cpp:394] drop7 <- fc7
I1109 22:09:28.184932 26198 net.cpp:345] drop7 -> fc7 (in-place)
I1109 22:09:28.184943 26198 net.cpp:96] Setting up drop7
I1109 22:09:28.184950 26198 net.cpp:103] Top shape: 32 4096 1 1 (131072)
I1109 22:09:28.184955 26198 layer_factory.hpp:78] Creating layer fc8_2
I1109 22:09:28.184964 26198 net.cpp:67] Creating Layer fc8_2
I1109 22:09:28.184970 26198 net.cpp:394] fc8_2 <- fc7
I1109 22:09:28.184981 26198 net.cpp:356] fc8_2 -> fc8_2
I1109 22:09:28.185003 26198 net.cpp:96] Setting up fc8_2
I1109 22:09:28.185230 26198 net.cpp:103] Top shape: 32 2 1 1 (64)
I1109 22:09:28.185241 26198 layer_factory.hpp:78] Creating layer loss
I1109 22:09:28.185252 26198 net.cpp:67] Creating Layer loss
I1109 22:09:28.185259 26198 net.cpp:394] loss <- fc8_2
I1109 22:09:28.185266 26198 net.cpp:394] loss <- label
I1109 22:09:28.185279 26198 net.cpp:356] loss -> (automatic)
I1109 22:09:28.185289 26198 net.cpp:96] Setting up loss
I1109 22:09:28.185303 26198 net.cpp:103] Top shape: 1 1 1 1 (1)
I1109 22:09:28.185312 26198 net.cpp:109]     with loss weight 1
I1109 22:09:28.185346 26198 net.cpp:170] loss needs backward computation.
I1109 22:09:28.185353 26198 net.cpp:170] fc8_2 needs backward computation.
I1109 22:09:28.185359 26198 net.cpp:170] drop7 needs backward computation.
I1109 22:09:28.185364 26198 net.cpp:170] relu7 needs backward computation.
I1109 22:09:28.185367 26198 net.cpp:170] fc7 needs backward computation.
…
I1109 22:09:28.186589 26198 net.cpp:275] The NetState phase (1) differed from the phase (0) specified by a rule in layer data
I1109 22:09:28.186812 26198 net.cpp:39] Initializing net from parameters: 
name: "small"
layers {
  top: "data"
  top: "label"
  name: "data"
  type: IMAGE_DATA
  image_data_param {
    source: "/data/ad6813/devCaffe/caffe/data/scrape_o/val_no_nz,s.txt"
    batch_size: 8
    new_height: 256
    new_width: 256
  }
  include {
    phase: TEST
  }
  transform_param {
    mirror: true
    crop_size: 224
    mean_value: 86.752
    mean_value: 101.46
    mean_value: 104.6
  }
}
layers {
  bottom: "data"
  top: "conv1_1"
  name: "conv1_1"
  type: CONVOLUTION
  convolution_param {
    num_output: 64
    pad: 1
    kernel_size: 3
    weight_filler {
      type: "gaussian"
      std: 0.01
    }
    bias_filler {
      type: "constant"
      value: 0
    }
  }
}
layers {
  bottom: "conv1_1"
  top: "conv1_1"
  name: "relu1_1"
  type: RELU
}
layers {
  bottom: "conv1_1"
  top: "conv1_2"
  name: "conv1_2"
  type: CONVOLUTION
  convolution_param {
    num_output: 64
    pad: 1
    kernel_size: 3
    weight_filler {
      type: "gaussian"
      std: 0.01
    }
    bias_filler {
      type: "constant"
      value: 0
    }
  }
}
layers {
  bottom: "conv1_2"
  top: "conv1_2"
  name: "relu1_2"
  type: RELU
}
layers {
  bottom: "conv1_2"
  top: "pool1"
  name: "pool1"
  type: POOLING
  pooling_param {
    pool: MAX
    kernel_size: 2
    stride: 2
  }
}
layers {
  bottom: "pool1"
  top: "conv2_1"
  name: "conv2_1"
  type: CONVOLUTION
  convolution_param {
    num_output: 128
    pad: 1
    kernel_size: 3
    weight_filler {
      type: "gaussian"
      std: 0.01
    }
    bias_filler {
      type: "constant"
      value: 0
    }
  }
}
layers {
  bottom: "conv2_1"
  top: "conv2_1"
  name: "relu2_1"
  type: RELU
}
layers {
  bottom: "conv2_1"
  top: "conv2_2"
  name: "conv2_2"
  type: CONVOLUTION
  convolution_param {
    num_output: 128
    pad: 1
    kernel_size: 3
    weight_filler {
      type: "gaussian"
      std: 0.01
    }
    bias_filler {
      type: "constant"
      value: 0
    }
  }
}
layers {
  bottom: "conv2_2"
  top: "conv2_2"
  name: "relu2_2"
  type: RELU
}
layers {
  bottom: "conv2_2"
  top: "pool2"
  name: "pool2"
  type: POOLING
  pooling_param {
    pool: MAX
    kernel_size: 2
    stride: 2
  }
}
layers {
  bottom: "pool2"
  top: "conv3_1"
  name: "conv3_1"
  type: CONVOLUTION
  convolution_param {
    num_output: 256
    pad: 1
    kernel_size: 3
    weight_filler {
      type: "gaussian"
      std: 0.01
    }
    bias_filler {
      type: "constant"
      value: 0
    }
  }
}
layers {
  bottom: "conv3_1"
  top: "conv3_1"
  name: "relu3_1"
  type: RELU
}
layers {
  bottom: "conv3_1"
  top: "conv3_2"
  name: "conv3_2"
  type: CONVOLUTION
  convolution_param {
    num_output: 256
    pad: 1
    kernel_size: 3
    weight_filler {
      type: "gaussian"
      std: 0.01
    }
    bias_filler {
      type: "constant"
      value: 0
    }
  }
}
layers {
  bottom: "conv3_2"
  top: "conv3_2"
  name: "relu3_2"
  type: RELU
}
layers {
  bottom: "conv3_2"
  top: "conv3_3"
  name: "conv3_3"
  type: CONVOLUTION
  convolution_param {
    num_output: 256
    pad: 1
    kernel_size: 3
    weight_filler {
      type: "gaussian"
      std: 0.01
    }
    bias_filler {
      type: "constant"
      value: 0
    }
  }
}
layers {
  bottom: "conv3_3"
  top: "conv3_3"
  name: "relu3_3"
  type: RELU
}
layers {
  bottom: "conv3_3"
  top: "pool3"
  name: "pool3"
  type: POOLING
  pooling_param {
    pool: MAX
    kernel_size: 2
    stride: 2
  }
}
layers {
  bottom: "pool3"
  top: "conv4_1"
  name: "conv4_1"
  type: CONVOLUTION
  convolution_param {
    num_output: 512
    pad: 1
    kernel_size: 3
    weight_filler {
      type: "gaussian"
      std: 0.01
    }
    bias_filler {
      type: "constant"
      value: 0
    }
  }
}
layers {
  bottom: "conv4_1"
  top: "conv4_1"
  name: "relu4_1"
  type: RELU
}
layers {
  bottom: "conv4_1"
  top: "conv4_2"
  name: "conv4_2"
  type: CONVOLUTION
  convolution_param {
    num_output: 512
    pad: 1
    kernel_size: 3
    weight_filler {
      type: "gaussian"
      std: 0.01
    }
    bias_filler {
      type: "constant"
      value: 0
    }
  }
}
layers {
  bottom: "conv4_2"
  top: "conv4_2"
  name: "relu4_2"
  type: RELU
}
layers {
  bottom: "conv4_2"
  top: "conv4_3"
  name: "conv4_3"
  type: CONVOLUTION
  convolution_param {
    num_output: 512
    pad: 1
    kernel_size: 3
    weight_filler {
      type: "gaussian"
      std: 0.01
    }
    bias_filler {
      type: "constant"
      value: 0
    }
  }
}
layers {
  bottom: "conv4_3"
  top: "conv4_3"
  name: "relu4_3"
  type: RELU
}
layers {
  bottom: "conv4_3"
  top: "pool4"
  name: "pool4"
  type: POOLING
  pooling_param {
    pool: MAX
    kernel_size: 2
    stride: 2
  }
}
layers {
  bottom: "pool4"
  top: "conv5_1"
  name: "conv5_1"
  type: CONVOLUTION
  convolution_param {
    num_output: 512
    pad: 1
    kernel_size: 3
    weight_filler {
      type: "gaussian"
      std: 0.01
    }
    bias_filler {
      type: "constant"
      value: 0
    }
  }
}
layers {
  bottom: "conv5_1"
  top: "conv5_1"
  name: "relu5_1"
  type: RELU
}
layers {
  bottom: "conv5_1"
  top: "conv5_2"
  name: "conv5_2"
  type: CONVOLUTION
  convolution_param {
    num_output: 512
    pad: 1
    kernel_size: 3
    weight_filler {
      type: "gaussian"
      std: 0.01
    }
    bias_filler {
      type: "constant"
      value: 0
    }
  }
}
layers {
  bottom: "conv5_2"
  top: "conv5_2"
  name: "relu5_2"
  type: RELU
}
layers {
  bottom: "conv5_2"
  top: "conv5_3"
  name: "conv5_3"
  type: CONVOLUTION
  convolution_param {
    num_output: 512
    pad: 1
    kernel_size: 3
    weight_filler {
      type: "gaussian"
      std: 0.01
    }
    bias_filler {
      type: "constant"
      value: 0
    }
  }
}
layers {
  bottom: "conv5_3"
  top: "conv5_3"
  name: "relu5_3"
  type: RELU
}
layers {
  bottom: "conv5_3"
  top: "pool5"
  name: "pool5"
  type: POOLING
  pooling_param {
    pool: MAX
    kernel_size: 2
    stride: 2
  }
}
layers {
  bottom: "pool5"
  top: "fc6"
  name: "fc6"
  type: INNER_PRODUCT
  inner_product_param {
    num_output: 4096
    weight_filler {
      type: "gaussian"
      std: 0.01
    }
    bias_filler {
      type: "constant"
      value: 0
    }
  }
}
layers {
  bottom: "fc6"
  top: "fc6"
  name: "relu6"
  type: RELU
}
layers {
  bottom: "fc6"
  top: "fc6"
  name: "drop6"
  type: DROPOUT
  dropout_param {
    dropout_ratio: 0.5
  }
}
layers {
  bottom: "fc6"
  top: "fc7"
  name: "fc7"
  type: INNER_PRODUCT
  inner_product_param {
    num_output: 4096
    weight_filler {
      type: "gaussian"
      std: 0.01
    }
    bias_filler {
      type: "constant"
      value: 0
    }
  }
}
layers {
  bottom: "fc7"
  top: "fc7"
  name: "relu7"
  type: RELU
}
layers {
  bottom: "fc7"
  top: "fc7"
  name: "drop7"
  type: DROPOUT
  dropout_param {
    dropout_ratio: 0.5
  }
}
layers {
  bottom: "fc7"
  top: "fc8_2"
  name: "fc8_2"
  type: INNER_PRODUCT
  inner_product_param {
    num_output: 2
    weight_filler {
      type: "gaussian"
      std: 0.01
    }
    bias_filler {
      type: "constant"
      value: 0
    }
  }
}
layers {
  bottom: "fc8_2"
  bottom: "label"
  name: "loss"
  type: SOFTMAX_LOSS
}
layers {
  bottom: "fc8_2"
  bottom: "label"
  top: "accuracy"
  name: "accuracy"
  type: PER_CLASS_ACCURACY
  include {
    phase: TEST
  }
}
state {
  phase: TEST
}
I1109 22:09:28.187072 26198 layer_factory.hpp:78] Creating layer data
I1109 22:09:28.187086 26198 net.cpp:67] Creating Layer data
I1109 22:09:28.187094 26198 net.cpp:356] data -> data
I1109 22:09:28.187108 26198 net.cpp:356] data -> label
I1109 22:09:28.187118 26198 net.cpp:96] Setting up data
I1109 22:09:28.187146 26198 image_data_layer.cpp:34] Opening file /data/ad6813/devCaffe/caffe/data/scrape_o/val_no_nz,s.txt
I1109 22:09:28.187767 26198 image_data_layer.cpp:49] A total of 670 images.
I1109 22:09:28.193773 26198 image_data_layer.cpp:78] output data size: 8,3,224,224
I1109 22:09:28.194627 26198 net.cpp:103] Top shape: 8 3 224 224 (1204224)
I1109 22:09:28.194649 26198 net.cpp:103] Top shape: 8 1 1 1 (8)
I1109 22:09:28.194655 26198 layer_factory.hpp:78] Creating layer label_data_1_split
I1109 22:09:28.194671 26198 net.cpp:67] Creating Layer label_data_1_split
I1109 22:09:28.194679 26198 net.cpp:394] label_data_1_split <- label
I1109 22:09:28.194689 26198 net.cpp:356] label_data_1_split -> label_data_1_split_0
I1109 22:09:28.194707 26198 net.cpp:356] label_data_1_split -> label_data_1_split_1
I1109 22:09:28.194721 26198 net.cpp:96] Setting up label_data_1_split
I1109 22:09:28.194732 26198 net.cpp:103] Top shape: 8 1 1 1 (8)
I1109 22:09:28.194738 26198 net.cpp:103] Top shape: 8 1 1 1 (8)
I1109 22:09:28.194744 26198 layer_factory.hpp:78] Creating layer conv1_1
I1109 22:09:28.194754 26198 net.cpp:67] Creating Layer conv1_1
I1109 22:09:28.194761 26198 net.cpp:394] conv1_1 <- data
I1109 22:09:28.194771 26198 net.cpp:356] conv1_1 -> conv1_1
I1109 22:09:28.194793 26198 net.cpp:96] Setting up conv1_1
I1109 22:09:28.194950 26198 net.cpp:103] Top shape: 8 64 224 224 (25690112)
I1109 22:09:28.194967 26198 layer_factory.hpp:78] Creating layer relu1_1
I1109 22:09:28.194977 26198 net.cpp:67] Creating Layer relu1_1
I1109 22:09:28.194983 26198 net.cpp:394] relu1_1 <- conv1_1
I1109 22:09:28.194990 26198 net.cpp:345] relu1_1 -> conv1_1 (in-place)
I1109 22:09:28.195008 26198 net.cpp:96] Setting up relu1_1
I1109 22:09:28.195024 26198 net.cpp:103] Top shape: 8 64 224 224 (25690112)
I1109 22:09:28.195032 26198 layer_factory.hpp:78] Creating layer conv1_2
I1109 22:09:28.195042 26198 net.cpp:67] Creating Layer conv1_2
I1109 22:09:28.195049 26198 net.cpp:394] conv1_2 <- conv1_1
I1109 22:09:28.195057 26198 net.cpp:356] conv1_2 -> conv1_2
I1109 22:09:28.195067 26198 net.cpp:96] Setting up conv1_2
I1109 22:09:28.196089 26198 net.cpp:103] Top shape: 8 64 224 224 (25690112)
I1109 22:09:28.196105 26198 layer_factory.hpp:78] Creating layer relu1_2
I1109 22:09:28.196115 26198 net.cpp:67] Creating Layer relu1_2
I1109 22:09:28.196120 26198 net.cpp:394] relu1_2 <- conv1_2
I1109 22:09:28.196128 26198 net.cpp:345] relu1_2 -> conv1_2 (in-place)
I1109 22:09:28.196137 26198 net.cpp:96] Setting up relu1_2
I1109 22:09:28.196146 26198 net.cpp:103] Top shape: 8 64 224 224 (25690112)
I1109 22:09:28.196152 26198 layer_factory.hpp:78] Creating layer pool1
I1109 22:09:28.196161 26198 net.cpp:67] Creating Layer pool1
I1109 22:09:28.196167 26198 net.cpp:394] pool1 <- conv1_2
I1109 22:09:28.196176 26198 net.cpp:356] pool1 -> pool1
I1109 22:09:28.196184 26198 net.cpp:96] Setting up pool1
I1109 22:09:28.196203 26198 net.cpp:103] Top shape: 8 64 112 112 (6422528)
I1109 22:09:28.196210 26198 layer_factory.hpp:78] Creating layer conv2_1
I1109 22:09:28.196219 26198 net.cpp:67] Creating Layer conv2_1
I1109 22:09:28.196225 26198 net.cpp:394] conv2_1 <- pool1
I1109 22:09:28.196234 26198 net.cpp:356] conv2_1 -> conv2_1
I1109 22:09:28.196244 26198 net.cpp:96] Setting up conv2_1
I1109 22:09:28.198248 26198 net.cpp:103] Top shape: 8 128 112 112 (12845056)
I1109 22:09:28.198266 26198 layer_factory.hpp:78] Creating layer relu2_1
I1109 22:09:28.198276 26198 net.cpp:67] Creating Layer relu2_1
I1109 22:09:28.198282 26198 net.cpp:394] relu2_1 <- conv2_1
I1109 22:09:28.198290 26198 net.cpp:345] relu2_1 -> conv2_1 (in-place)
I1109 22:09:28.198299 26198 net.cpp:96] Setting up relu2_1
I1109 22:09:28.198308 26198 net.cpp:103] Top shape: 8 128 112 112 (12845056)
I1109 22:09:28.198319 26198 layer_factory.hpp:78] Creating layer conv2_2
I1109 22:09:28.198328 26198 net.cpp:67] Creating Layer conv2_2
I1109 22:09:28.198333 26198 net.cpp:394] conv2_2 <- conv2_1
I1109 22:09:28.198343 26198 net.cpp:356] conv2_2 -> conv2_2
I1109 22:09:28.198354 26198 net.cpp:96] Setting up conv2_2
I1109 22:09:28.202016 26198 net.cpp:103] Top shape: 8 128 112 112 (12845056)
I1109 22:09:28.202030 26198 layer_factory.hpp:78] Creating layer relu2_2
I1109 22:09:28.202039 26198 net.cpp:67] Creating Layer relu2_2
I1109 22:09:28.202044 26198 net.cpp:394] relu2_2 <- conv2_2
I1109 22:09:28.202054 26198 net.cpp:345] relu2_2 -> conv2_2 (in-place)
I1109 22:09:28.202062 26198 net.cpp:96] Setting up relu2_2
I1109 22:09:28.202071 26198 net.cpp:103] Top shape: 8 128 112 112 (12845056)
I1109 22:09:28.202077 26198 layer_factory.hpp:78] Creating layer pool2
I1109 22:09:28.202085 26198 net.cpp:67] Creating Layer pool2
I1109 22:09:28.202091 26198 net.cpp:394] pool2 <- conv2_2
I1109 22:09:28.202100 26198 net.cpp:356] pool2 -> pool2
I1109 22:09:28.202108 26198 net.cpp:96] Setting up pool2
I1109 22:09:28.202118 26198 net.cpp:103] Top shape: 8 128 56 56 (3211264)
I1109 22:09:28.202134 26198 layer_factory.hpp:78] Creating layer conv3_1
I1109 22:09:28.202143 26198 net.cpp:67] Creating Layer conv3_1
I1109 22:09:28.202149 26198 net.cpp:394] conv3_1 <- pool2
I1109 22:09:28.202158 26198 net.cpp:356] conv3_1 -> conv3_1
I1109 22:09:28.202167 26198 net.cpp:96] Setting up conv3_1
I1109 22:09:28.209434 26198 net.cpp:103] Top shape: 8 256 56 56 (6422528)
I1109 22:09:28.209455 26198 layer_factory.hpp:78] Creating layer relu3_1
I1109 22:09:28.209463 26198 net.cpp:67] Creating Layer relu3_1
I1109 22:09:28.209470 26198 net.cpp:394] relu3_1 <- conv3_1
I1109 22:09:28.209480 26198 net.cpp:345] relu3_1 -> conv3_1 (in-place)
I1109 22:09:28.209487 26198 net.cpp:96] Setting up relu3_1
I1109 22:09:28.209497 26198 net.cpp:103] Top shape: 8 256 56 56 (6422528)
I1109 22:09:28.209511 26198 layer_factory.hpp:78] Creating layer conv3_2
I1109 22:09:28.209520 26198 net.cpp:67] Creating Layer conv3_2
I1109 22:09:28.209527 26198 net.cpp:394] conv3_2 <- conv3_1
I1109 22:09:28.209537 26198 net.cpp:356] conv3_2 -> conv3_2
I1109 22:09:28.209547 26198 net.cpp:96] Setting up conv3_2
I1109 22:09:28.224282 26198 net.cpp:103] Top shape: 8 256 56 56 (6422528)
I1109 22:09:28.224303 26198 layer_factory.hpp:78] Creating layer relu3_2
I1109 22:09:28.224315 26198 net.cpp:67] Creating Layer relu3_2
I1109 22:09:28.224323 26198 net.cpp:394] relu3_2 <- conv3_2
I1109 22:09:28.224331 26198 net.cpp:345] relu3_2 -> conv3_2 (in-place)
I1109 22:09:28.224341 26198 net.cpp:96] Setting up relu3_2
I1109 22:09:28.224350 26198 net.cpp:103] Top shape: 8 256 56 56 (6422528)
I1109 22:09:28.224356 26198 layer_factory.hpp:78] Creating layer conv3_3
I1109 22:09:28.224372 26198 net.cpp:67] Creating Layer conv3_3
I1109 22:09:28.224380 26198 net.cpp:394] conv3_3 <- conv3_2
I1109 22:09:28.224390 26198 net.cpp:356] conv3_3 -> conv3_3
I1109 22:09:28.224400 26198 net.cpp:96] Setting up conv3_3
I1109 22:09:28.239125 26198 net.cpp:103] Top shape: 8 256 56 56 (6422528)
I1109 22:09:28.239155 26198 layer_factory.hpp:78] Creating layer relu3_3
I1109 22:09:28.239164 26198 net.cpp:67] Creating Layer relu3_3
I1109 22:09:28.239171 26198 net.cpp:394] relu3_3 <- conv3_3
I1109 22:09:28.239182 26198 net.cpp:345] relu3_3 -> conv3_3 (in-place)
I1109 22:09:28.239193 26198 net.cpp:96] Setting up relu3_3
I1109 22:09:28.239203 26198 net.cpp:103] Top shape: 8 256 56 56 (6422528)
I1109 22:09:28.239209 26198 layer_factory.hpp:78] Creating layer pool3
I1109 22:09:28.239222 26198 net.cpp:67] Creating Layer pool3
I1109 22:09:28.239228 26198 net.cpp:394] pool3 <- conv3_3
I1109 22:09:28.239238 26198 net.cpp:356] pool3 -> pool3
I1109 22:09:28.239248 26198 net.cpp:96] Setting up pool3
I1109 22:09:28.239265 26198 net.cpp:103] Top shape: 8 256 28 28 (1605632)
I1109 22:09:28.239274 26198 layer_factory.hpp:78] Creating layer conv4_1
I1109 22:09:28.239286 26198 net.cpp:67] Creating Layer conv4_1
I1109 22:09:28.239303 26198 net.cpp:394] conv4_1 <- pool3
I1109 22:09:28.239313 26198 net.cpp:356] conv4_1 -> conv4_1
I1109 22:09:28.239323 26198 net.cpp:96] Setting up conv4_1
I1109 22:09:28.268595 26198 net.cpp:103] Top shape: 8 512 28 28 (3211264)
I1109 22:09:28.268623 26198 layer_factory.hpp:78] Creating layer relu4_1
I1109 22:09:28.268633 26198 net.cpp:67] Creating Layer relu4_1
I1109 22:09:28.268640 26198 net.cpp:394] relu4_1 <- conv4_1
I1109 22:09:28.268650 26198 net.cpp:345] relu4_1 -> conv4_1 (in-place)
I1109 22:09:28.268659 26198 net.cpp:96] Setting up relu4_1
I1109 22:09:28.268669 26198 net.cpp:103] Top shape: 8 512 28 28 (3211264)
I1109 22:09:28.268676 26198 layer_factory.hpp:78] Creating layer conv4_2
I1109 22:09:28.268688 26198 net.cpp:67] Creating Layer conv4_2
I1109 22:09:28.268694 26198 net.cpp:394] conv4_2 <- conv4_1
I1109 22:09:28.268704 26198 net.cpp:356] conv4_2 -> conv4_2
I1109 22:09:28.268718 26198 net.cpp:96] Setting up conv4_2
I1109 22:09:28.324686 26198 net.cpp:103] Top shape: 8 512 28 28 (3211264)
I1109 22:09:28.324720 26198 layer_factory.hpp:78] Creating layer relu4_2
I1109 22:09:28.324734 26198 net.cpp:67] Creating Layer relu4_2
I1109 22:09:28.324741 26198 net.cpp:394] relu4_2 <- conv4_2
I1109 22:09:28.324750 26198 net.cpp:345] relu4_2 -> conv4_2 (in-place)
I1109 22:09:28.324762 26198 net.cpp:96] Setting up relu4_2
I1109 22:09:28.324772 26198 net.cpp:103] Top shape: 8 512 28 28 (3211264)
I1109 22:09:28.324779 26198 layer_factory.hpp:78] Creating layer conv4_3
I1109 22:09:28.324794 26198 net.cpp:67] Creating Layer conv4_3
I1109 22:09:28.324805 26198 net.cpp:394] conv4_3 <- conv4_2
I1109 22:09:28.324815 26198 net.cpp:356] conv4_3 -> conv4_3
I1109 22:09:28.324832 26198 net.cpp:96] Setting up conv4_3
I1109 22:09:28.379822 26198 net.cpp:103] Top shape: 8 512 28 28 (3211264)
I1109 22:09:28.379850 26198 layer_factory.hpp:78] Creating layer relu4_3
I1109 22:09:28.379874 26198 net.cpp:67] Creating Layer relu4_3
I1109 22:09:28.379881 26198 net.cpp:394] relu4_3 <- conv4_3
I1109 22:09:28.379904 26198 net.cpp:345] relu4_3 -> conv4_3 (in-place)
I1109 22:09:28.379914 26198 net.cpp:96] Setting up relu4_3
I1109 22:09:28.379925 26198 net.cpp:103] Top shape: 8 512 28 28 (3211264)
I1109 22:09:28.379930 26198 layer_factory.hpp:78] Creating layer pool4
I1109 22:09:28.379942 26198 net.cpp:67] Creating Layer pool4
I1109 22:09:28.379950 26198 net.cpp:394] pool4 <- conv4_3
I1109 22:09:28.379958 26198 net.cpp:356] pool4 -> pool4
I1109 22:09:28.379967 26198 net.cpp:96] Setting up pool4
I1109 22:09:28.379995 26198 net.cpp:103] Top shape: 8 512 14 14 (802816)
I1109 22:09:28.380005 26198 layer_factory.hpp:78] Creating layer conv5_1
I1109 22:09:28.380017 26198 net.cpp:67] Creating Layer conv5_1
I1109 22:09:28.380023 26198 net.cpp:394] conv5_1 <- pool4
I1109 22:09:28.380033 26198 net.cpp:356] conv5_1 -> conv5_1
I1109 22:09:28.380053 26198 net.cpp:96] Setting up conv5_1
I1109 22:09:28.434887 26198 net.cpp:103] Top shape: 8 512 14 14 (802816)
I1109 22:09:28.434916 26198 layer_factory.hpp:78] Creating layer relu5_1
I1109 22:09:28.434926 26198 net.cpp:67] Creating Layer relu5_1
I1109 22:09:28.434944 26198 net.cpp:394] relu5_1 <- conv5_1
I1109 22:09:28.434954 26198 net.cpp:345] relu5_1 -> conv5_1 (in-place)
I1109 22:09:28.434967 26198 net.cpp:96] Setting up relu5_1
I1109 22:09:28.434978 26198 net.cpp:103] Top shape: 8 512 14 14 (802816)
I1109 22:09:28.434983 26198 layer_factory.hpp:78] Creating layer conv5_2
I1109 22:09:28.434993 26198 net.cpp:67] Creating Layer conv5_2
I1109 22:09:28.434999 26198 net.cpp:394] conv5_2 <- conv5_1
I1109 22:09:28.435009 26198 net.cpp:356] conv5_2 -> conv5_2
I1109 22:09:28.435019 26198 net.cpp:96] Setting up conv5_2
I1109 22:09:28.490075 26198 net.cpp:103] Top shape: 8 512 14 14 (802816)
I1109 22:09:28.490106 26198 layer_factory.hpp:78] Creating layer relu5_2
I1109 22:09:28.490128 26198 net.cpp:67] Creating Layer relu5_2
I1109 22:09:28.490134 26198 net.cpp:394] relu5_2 <- conv5_2
I1109 22:09:28.490144 26198 net.cpp:345] relu5_2 -> conv5_2 (in-place)
I1109 22:09:28.490155 26198 net.cpp:96] Setting up relu5_2
I1109 22:09:28.490165 26198 net.cpp:103] Top shape: 8 512 14 14 (802816)
I1109 22:09:28.490171 26198 layer_factory.hpp:78] Creating layer conv5_3
I1109 22:09:28.490185 26198 net.cpp:67] Creating Layer conv5_3
I1109 22:09:28.490195 26198 net.cpp:394] conv5_3 <- conv5_2
I1109 22:09:28.490205 26198 net.cpp:356] conv5_3 -> conv5_3
I1109 22:09:28.490216 26198 net.cpp:96] Setting up conv5_3
I1109 22:09:28.545219 26198 net.cpp:103] Top shape: 8 512 14 14 (802816)
I1109 22:09:28.545253 26198 layer_factory.hpp:78] Creating layer relu5_3
I1109 22:09:28.545264 26198 net.cpp:67] Creating Layer relu5_3
I1109 22:09:28.545281 26198 net.cpp:394] relu5_3 <- conv5_3
I1109 22:09:28.545291 26198 net.cpp:345] relu5_3 -> conv5_3 (in-place)
I1109 22:09:28.545301 26198 net.cpp:96] Setting up relu5_3
I1109 22:09:28.545311 26198 net.cpp:103] Top shape: 8 512 14 14 (802816)
I1109 22:09:28.545318 26198 layer_factory.hpp:78] Creating layer pool5
I1109 22:09:28.545336 26198 net.cpp:67] Creating Layer pool5
I1109 22:09:28.545344 26198 net.cpp:394] pool5 <- conv5_3
I1109 22:09:28.545354 26198 net.cpp:356] pool5 -> pool5
I1109 22:09:28.545364 26198 net.cpp:96] Setting up pool5
I1109 22:09:28.545379 26198 net.cpp:103] Top shape: 8 512 7 7 (200704)
I1109 22:09:28.545388 26198 layer_factory.hpp:78] Creating layer fc6
I1109 22:09:28.545410 26198 net.cpp:67] Creating Layer fc6
I1109 22:09:28.545418 26198 net.cpp:394] fc6 <- pool5
I1109 22:09:28.545426 26198 net.cpp:356] fc6 -> fc6
I1109 22:09:28.545438 26198 net.cpp:96] Setting up fc6
I1109 22:09:30.926635 26198 net.cpp:103] Top shape: 8 4096 1 1 (32768)
I1109 22:09:30.926671 26198 layer_factory.hpp:78] Creating layer relu6
I1109 22:09:30.926683 26198 net.cpp:67] Creating Layer relu6
I1109 22:09:30.926702 26198 net.cpp:394] relu6 <- fc6
I1109 22:09:30.926713 26198 net.cpp:345] relu6 -> fc6 (in-place)
I1109 22:09:30.926723 26198 net.cpp:96] Setting up relu6
I1109 22:09:30.926743 26198 net.cpp:103] Top shape: 8 4096 1 1 (32768)
I1109 22:09:30.926748 26198 layer_factory.hpp:78] Creating layer drop6
I1109 22:09:30.926770 26198 net.cpp:67] Creating Layer drop6
I1109 22:09:30.926777 26198 net.cpp:394] drop6 <- fc6
I1109 22:09:30.926786 26198 net.cpp:345] drop6 -> fc6 (in-place)
I1109 22:09:30.926795 26198 net.cpp:96] Setting up drop6
I1109 22:09:30.926808 26198 net.cpp:103] Top shape: 8 4096 1 1 (32768)
I1109 22:09:30.926815 26198 layer_factory.hpp:78] Creating layer fc7
I1109 22:09:30.926823 26198 net.cpp:67] Creating Layer fc7
I1109 22:09:30.926830 26198 net.cpp:394] fc7 <- fc6
I1109 22:09:30.926852 26198 net.cpp:356] fc7 -> fc7
I1109 22:09:30.926866 26198 net.cpp:96] Setting up fc7
I1109 22:09:31.315346 26198 net.cpp:103] Top shape: 8 4096 1 1 (32768)
I1109 22:09:31.315381 26198 layer_factory.hpp:78] Creating layer relu7
I1109 22:09:31.315392 26198 net.cpp:67] Creating Layer relu7
I1109 22:09:31.315410 26198 net.cpp:394] relu7 <- fc7
I1109 22:09:31.315423 26198 net.cpp:345] relu7 -> fc7 (in-place)
I1109 22:09:31.315433 26198 net.cpp:96] Setting up relu7
I1109 22:09:31.315453 26198 net.cpp:103] Top shape: 8 4096 1 1 (32768)
I1109 22:09:31.315464 26198 layer_factory.hpp:78] Creating layer drop7
I1109 22:09:31.315474 26198 net.cpp:67] Creating Layer drop7
I1109 22:09:31.315487 26198 net.cpp:394] drop7 <- fc7
I1109 22:09:31.315496 26198 net.cpp:345] drop7 -> fc7 (in-place)
I1109 22:09:31.315505 26198 net.cpp:96] Setting up drop7
I1109 22:09:31.315512 26198 net.cpp:103] Top shape: 8 4096 1 1 (32768)
I1109 22:09:31.315518 26198 layer_factory.hpp:78] Creating layer fc8_2
I1109 22:09:31.315527 26198 net.cpp:67] Creating Layer fc8_2
I1109 22:09:31.315533 26198 net.cpp:394] fc8_2 <- fc7
I1109 22:09:31.315549 26198 net.cpp:356] fc8_2 -> fc8_2
I1109 22:09:31.315572 26198 net.cpp:96] Setting up fc8_2
I1109 22:09:31.315796 26198 net.cpp:103] Top shape: 8 2 1 1 (16)
I1109 22:09:31.315809 26198 layer_factory.hpp:78] Creating layer fc8_2_fc8_2_0_split
I1109 22:09:31.315819 26198 net.cpp:67] Creating Layer fc8_2_fc8_2_0_split
I1109 22:09:31.315824 26198 net.cpp:394] fc8_2_fc8_2_0_split <- fc8_2
I1109 22:09:31.315834 26198 net.cpp:356] fc8_2_fc8_2_0_split -> fc8_2_fc8_2_0_split_0
I1109 22:09:31.315843 26198 net.cpp:356] fc8_2_fc8_2_0_split -> fc8_2_fc8_2_0_split_1
I1109 22:09:31.315853 26198 net.cpp:96] Setting up fc8_2_fc8_2_0_split
I1109 22:09:31.315860 26198 net.cpp:103] Top shape: 8 2 1 1 (16)
I1109 22:09:31.315865 26198 net.cpp:103] Top shape: 8 2 1 1 (16)
I1109 22:09:31.315871 26198 layer_factory.hpp:78] Creating layer loss
I1109 22:09:31.315881 26198 net.cpp:67] Creating Layer loss
I1109 22:09:31.315887 26198 net.cpp:394] loss <- fc8_2_fc8_2_0_split_0
I1109 22:09:31.315894 26198 net.cpp:394] loss <- label_data_1_split_0
I1109 22:09:31.315903 26198 net.cpp:356] loss -> (automatic)
I1109 22:09:31.315911 26198 net.cpp:96] Setting up loss
I1109 22:09:31.315920 26198 net.cpp:103] Top shape: 1 1 1 1 (1)
I1109 22:09:31.315927 26198 net.cpp:109]     with loss weight 1
I1109 22:09:31.315944 26198 layer_factory.hpp:78] Creating layer accuracy
I1109 22:09:31.315960 26198 net.cpp:67] Creating Layer accuracy
I1109 22:09:31.315970 26198 net.cpp:394] accuracy <- fc8_2_fc8_2_0_split_1
I1109 22:09:31.315979 26198 net.cpp:394] accuracy <- label_data_1_split_1
I1109 22:09:31.315986 26198 net.cpp:356] accuracy -> accuracy
I1109 22:09:31.315996 26198 net.cpp:96] Setting up accuracy
I1109 22:09:31.316007 26198 net.cpp:103] Top shape: 1 1 1 4 (4)
I1109 22:09:31.316015 26198 net.cpp:172] accuracy does not need backward computation.
I1109 22:09:31.316020 26198 net.cpp:170] loss needs backward computation.
I1109 22:09:31.316026 26198 net.cpp:170] fc8_2_fc8_2_0_split needs backward computation.
I1109 22:09:31.316031 26198 net.cpp:170] fc8_2 needs backward computation.
I1109 22:09:31.316037 26198 net.cpp:170] drop7 needs backward computation.
…
