…
I1106 19:20:00.410897 19166 net.cpp:275] The NetState phase (0) differed from the phase (1) specified by a rule in layer accuracy
I1106 19:20:00.411272 19166 net.cpp:39] Initializing net from parameters: 
name: "small"
layers {
  top: "data"
  top: "label"
  name: "data"
  type: IMAGE_DATA
  image_data_param {
    source: "/data/ad6813/devCaffe/caffe/data/unsuit/train.txt"
    batch_size: 32
    new_height: 256
    new_width: 256
  }
  include {
    phase: TRAIN
  }
  transform_param {
    mirror: true
    crop_size: 224
    mean_value: 86.752
    mean_value: 101.46
    mean_value: 104.6
  }
}
layers {
  bottom: "data"
  top: "conv1_1"
  name: "conv1_1"
  type: CONVOLUTION
  convolution_param {
    num_output: 64
    pad: 1
    kernel_size: 3
    weight_filler {
      type: "gaussian"
      std: 0.01
    }
    bias_filler {
      type: "constant"
      value: 0
    }
  }
}
layers {
  bottom: "conv1_1"
  top: "conv1_1"
  name: "relu1_1"
  type: RELU
}
layers {
  bottom: "conv1_1"
  top: "conv1_2"
  name: "conv1_2"
  type: CONVOLUTION
  convolution_param {
    num_output: 64
    pad: 1
    kernel_size: 3
    weight_filler {
      type: "gaussian"
      std: 0.01
    }
    bias_filler {
      type: "constant"
      value: 0
    }
  }
}
layers {
  bottom: "conv1_2"
  top: "conv1_2"
  name: "relu1_2"
  type: RELU
}
layers {
  bottom: "conv1_2"
  top: "pool1"
  name: "pool1"
  type: POOLING
  pooling_param {
    pool: MAX
    kernel_size: 2
    stride: 2
  }
}
layers {
  bottom: "pool1"
  top: "conv2_1"
  name: "conv2_1"
  type: CONVOLUTION
  convolution_param {
    num_output: 128
    pad: 1
    kernel_size: 3
    weight_filler {
      type: "gaussian"
      std: 0.01
    }
    bias_filler {
      type: "constant"
      value: 0
    }
  }
}
layers {
  bottom: "conv2_1"
  top: "conv2_1"
  name: "relu2_1"
  type: RELU
}
layers {
  bottom: "conv2_1"
  top: "conv2_2"
  name: "conv2_2"
  type: CONVOLUTION
  convolution_param {
    num_output: 128
    pad: 1
    kernel_size: 3
    weight_filler {
      type: "gaussian"
      std: 0.01
    }
    bias_filler {
      type: "constant"
      value: 0
    }
  }
}
layers {
  bottom: "conv2_2"
  top: "conv2_2"
  name: "relu2_2"
  type: RELU
}
layers {
  bottom: "conv2_2"
  top: "pool2"
  name: "pool2"
  type: POOLING
  pooling_param {
    pool: MAX
    kernel_size: 2
    stride: 2
  }
}
layers {
  bottom: "pool2"
  top: "conv3_1"
  name: "conv3_1"
  type: CONVOLUTION
  convolution_param {
    num_output: 256
    pad: 1
    kernel_size: 3
    weight_filler {
      type: "gaussian"
      std: 0.01
    }
    bias_filler {
      type: "constant"
      value: 0
    }
  }
}
layers {
  bottom: "conv3_1"
  top: "conv3_1"
  name: "relu3_1"
  type: RELU
}
layers {
  bottom: "conv3_1"
  top: "conv3_2"
  name: "conv3_2"
  type: CONVOLUTION
  convolution_param {
    num_output: 256
    pad: 1
    kernel_size: 3
    weight_filler {
      type: "gaussian"
      std: 0.01
    }
    bias_filler {
      type: "constant"
      value: 0
    }
  }
}
layers {
  bottom: "conv3_2"
  top: "conv3_2"
  name: "relu3_2"
  type: RELU
}
layers {
  bottom: "conv3_2"
  top: "conv3_3"
  name: "conv3_3"
  type: CONVOLUTION
  convolution_param {
    num_output: 256
    pad: 1
    kernel_size: 3
    weight_filler {
      type: "gaussian"
      std: 0.01
    }
    bias_filler {
      type: "constant"
      value: 0
    }
  }
}
layers {
  bottom: "conv3_3"
  top: "conv3_3"
  name: "relu3_3"
  type: RELU
}
layers {
  bottom: "conv3_3"
  top: "pool3"
  name: "pool3"
  type: POOLING
  pooling_param {
    pool: MAX
    kernel_size: 2
    stride: 2
  }
}
layers {
  bottom: "pool3"
  top: "conv4_1"
  name: "conv4_1"
  type: CONVOLUTION
  convolution_param {
    num_output: 512
    pad: 1
    kernel_size: 3
    weight_filler {
      type: "gaussian"
      std: 0.01
    }
    bias_filler {
      type: "constant"
      value: 0
    }
  }
}
layers {
  bottom: "conv4_1"
  top: "conv4_1"
  name: "relu4_1"
  type: RELU
}
layers {
  bottom: "conv4_1"
  top: "conv4_2"
  name: "conv4_2"
  type: CONVOLUTION
  convolution_param {
    num_output: 512
    pad: 1
    kernel_size: 3
    weight_filler {
      type: "gaussian"
      std: 0.01
    }
    bias_filler {
      type: "constant"
      value: 0
    }
  }
}
layers {
  bottom: "conv4_2"
  top: "conv4_2"
  name: "relu4_2"
  type: RELU
}
layers {
  bottom: "conv4_2"
  top: "conv4_3"
  name: "conv4_3"
  type: CONVOLUTION
  convolution_param {
    num_output: 512
    pad: 1
    kernel_size: 3
    weight_filler {
      type: "gaussian"
      std: 0.01
    }
    bias_filler {
      type: "constant"
      value: 0
    }
  }
}
layers {
  bottom: "conv4_3"
  top: "conv4_3"
  name: "relu4_3"
  type: RELU
}
layers {
  bottom: "conv4_3"
  top: "pool4"
  name: "pool4"
  type: POOLING
  pooling_param {
    pool: MAX
    kernel_size: 2
    stride: 2
  }
}
layers {
  bottom: "pool4"
  top: "conv5_1"
  name: "conv5_1"
  type: CONVOLUTION
  convolution_param {
    num_output: 512
    pad: 1
    kernel_size: 3
    weight_filler {
      type: "gaussian"
      std: 0.01
    }
    bias_filler {
      type: "constant"
      value: 0
    }
  }
}
layers {
  bottom: "conv5_1"
  top: "conv5_1"
  name: "relu5_1"
  type: RELU
}
layers {
  bottom: "conv5_1"
  top: "conv5_2"
  name: "conv5_2"
  type: CONVOLUTION
  convolution_param {
    num_output: 512
    pad: 1
    kernel_size: 3
    weight_filler {
      type: "gaussian"
      std: 0.01
    }
    bias_filler {
      type: "constant"
      value: 0
    }
  }
}
layers {
  bottom: "conv5_2"
  top: "conv5_2"
  name: "relu5_2"
  type: RELU
}
layers {
  bottom: "conv5_2"
  top: "conv5_3"
  name: "conv5_3"
  type: CONVOLUTION
  convolution_param {
    num_output: 512
    pad: 1
    kernel_size: 3
    weight_filler {
      type: "gaussian"
      std: 0.01
    }
    bias_filler {
      type: "constant"
      value: 0
    }
  }
}
layers {
  bottom: "conv5_3"
  top: "conv5_3"
  name: "relu5_3"
  type: RELU
}
layers {
  bottom: "conv5_3"
  top: "pool5"
  name: "pool5"
  type: POOLING
  pooling_param {
    pool: MAX
    kernel_size: 2
    stride: 2
  }
}
layers {
  bottom: "pool5"
  top: "fc6"
  name: "fc6"
  type: INNER_PRODUCT
  inner_product_param {
    num_output: 4096
    weight_filler {
      type: "gaussian"
      std: 0.01
    }
    bias_filler {
      type: "constant"
      value: 0
    }
  }
}
layers {
  bottom: "fc6"
  top: "fc6"
  name: "relu6"
  type: RELU
}
layers {
  bottom: "fc6"
  top: "fc6"
  name: "drop6"
  type: DROPOUT
  dropout_param {
    dropout_ratio: 0.5
  }
}
layers {
  bottom: "fc6"
  top: "fc7"
  name: "fc7"
  type: INNER_PRODUCT
  inner_product_param {
    num_output: 4096
    weight_filler {
      type: "gaussian"
      std: 0.01
    }
    bias_filler {
      type: "constant"
      value: 0
    }
  }
}
layers {
  bottom: "fc7"
  top: "fc7"
  name: "relu7"
  type: RELU
}
layers {
  bottom: "fc7"
  top: "fc7"
  name: "drop7"
  type: DROPOUT
  dropout_param {
    dropout_ratio: 0.5
  }
}
layers {
  bottom: "fc7"
  top: "fc8_2"
  name: "fc8_2"
  type: INNER_PRODUCT
  inner_product_param {
    num_output: 2
    weight_filler {
      type: "gaussian"
      std: 0.01
    }
    bias_filler {
      type: "constant"
      value: 0
    }
  }
}
layers {
  bottom: "fc8_2"
  bottom: "label"
  name: "loss"
  type: SOFTMAX_LOSS
}
state {
  phase: TRAIN
}
I1106 19:20:00.411623 19166 layer_factory.hpp:78] Creating layer data
I1106 19:20:00.411685 19166 net.cpp:67] Creating Layer data
I1106 19:20:00.411712 19166 net.cpp:356] data -> data
I1106 19:20:00.411785 19166 net.cpp:356] data -> label
I1106 19:20:00.411814 19166 net.cpp:96] Setting up data
I1106 19:20:00.411823 19166 image_data_layer.cpp:34] Opening file /data/ad6813/devCaffe/caffe/data/unsuit/train.txt
I1106 19:20:00.518545 19166 image_data_layer.cpp:49] A total of 164744 images.
I1106 19:20:00.539324 19166 image_data_layer.cpp:78] output data size: 32,3,224,224
I1106 19:20:00.542330 19166 net.cpp:103] Top shape: 32 3 224 224 (4816896)
I1106 19:20:00.542373 19166 net.cpp:103] Top shape: 32 1 1 1 (32)
I1106 19:20:00.542378 19166 layer_factory.hpp:78] Creating layer conv1_1
I1106 19:20:00.542393 19166 net.cpp:67] Creating Layer conv1_1
I1106 19:20:00.542397 19166 net.cpp:394] conv1_1 <- data
I1106 19:20:00.542410 19166 net.cpp:356] conv1_1 -> conv1_1
I1106 19:20:00.542421 19166 net.cpp:96] Setting up conv1_1
I1106 19:20:00.561993 19166 net.cpp:103] Top shape: 32 64 224 224 (102760448)
I1106 19:20:00.562033 19166 layer_factory.hpp:78] Creating layer relu1_1
I1106 19:20:00.562047 19166 net.cpp:67] Creating Layer relu1_1
I1106 19:20:00.562052 19166 net.cpp:394] relu1_1 <- conv1_1
I1106 19:20:00.562059 19166 net.cpp:345] relu1_1 -> conv1_1 (in-place)
I1106 19:20:00.562069 19166 net.cpp:96] Setting up relu1_1
I1106 19:20:00.562082 19166 net.cpp:103] Top shape: 32 64 224 224 (102760448)
I1106 19:20:00.562088 19166 layer_factory.hpp:78] Creating layer conv1_2
I1106 19:20:00.562094 19166 net.cpp:67] Creating Layer conv1_2
I1106 19:20:00.562099 19166 net.cpp:394] conv1_2 <- conv1_1
I1106 19:20:00.562105 19166 net.cpp:356] conv1_2 -> conv1_2
I1106 19:20:00.562114 19166 net.cpp:96] Setting up conv1_2
I1106 19:20:00.563416 19166 net.cpp:103] Top shape: 32 64 224 224 (102760448)
I1106 19:20:00.563431 19166 layer_factory.hpp:78] Creating layer relu1_2
I1106 19:20:00.563439 19166 net.cpp:67] Creating Layer relu1_2
I1106 19:20:00.563444 19166 net.cpp:394] relu1_2 <- conv1_2
I1106 19:20:00.563453 19166 net.cpp:345] relu1_2 -> conv1_2 (in-place)
I1106 19:20:00.563460 19166 net.cpp:96] Setting up relu1_2
I1106 19:20:00.563468 19166 net.cpp:103] Top shape: 32 64 224 224 (102760448)
I1106 19:20:00.563473 19166 layer_factory.hpp:78] Creating layer pool1
I1106 19:20:00.563483 19166 net.cpp:67] Creating Layer pool1
I1106 19:20:00.563488 19166 net.cpp:394] pool1 <- conv1_2
I1106 19:20:00.563495 19166 net.cpp:356] pool1 -> pool1
I1106 19:20:00.563503 19166 net.cpp:96] Setting up pool1
I1106 19:20:00.563524 19166 net.cpp:103] Top shape: 32 64 112 112 (25690112)
I1106 19:20:00.563530 19166 layer_factory.hpp:78] Creating layer conv2_1
I1106 19:20:00.563539 19166 net.cpp:67] Creating Layer conv2_1
I1106 19:20:00.563544 19166 net.cpp:394] conv2_1 <- pool1
I1106 19:20:00.563550 19166 net.cpp:356] conv2_1 -> conv2_1
I1106 19:20:00.563557 19166 net.cpp:96] Setting up conv2_1
I1106 19:20:00.565630 19166 net.cpp:103] Top shape: 32 128 112 112 (51380224)
I1106 19:20:00.565644 19166 layer_factory.hpp:78] Creating layer relu2_1
I1106 19:20:00.565650 19166 net.cpp:67] Creating Layer relu2_1
I1106 19:20:00.565655 19166 net.cpp:394] relu2_1 <- conv2_1
I1106 19:20:00.565660 19166 net.cpp:345] relu2_1 -> conv2_1 (in-place)
I1106 19:20:00.565666 19166 net.cpp:96] Setting up relu2_1
I1106 19:20:00.565671 19166 net.cpp:103] Top shape: 32 128 112 112 (51380224)
I1106 19:20:00.565675 19166 layer_factory.hpp:78] Creating layer conv2_2
I1106 19:20:00.565685 19166 net.cpp:67] Creating Layer conv2_2
I1106 19:20:00.565690 19166 net.cpp:394] conv2_2 <- conv2_1
I1106 19:20:00.565696 19166 net.cpp:356] conv2_2 -> conv2_2
I1106 19:20:00.565703 19166 net.cpp:96] Setting up conv2_2
I1106 19:20:00.569687 19166 net.cpp:103] Top shape: 32 128 112 112 (51380224)
I1106 19:20:00.569701 19166 layer_factory.hpp:78] Creating layer relu2_2
I1106 19:20:00.569706 19166 net.cpp:67] Creating Layer relu2_2
I1106 19:20:00.569710 19166 net.cpp:394] relu2_2 <- conv2_2
I1106 19:20:00.569713 19166 net.cpp:345] relu2_2 -> conv2_2 (in-place)
I1106 19:20:00.569718 19166 net.cpp:96] Setting up relu2_2
I1106 19:20:00.569723 19166 net.cpp:103] Top shape: 32 128 112 112 (51380224)
I1106 19:20:00.569726 19166 layer_factory.hpp:78] Creating layer pool2
I1106 19:20:00.569741 19166 net.cpp:67] Creating Layer pool2
I1106 19:20:00.569746 19166 net.cpp:394] pool2 <- conv2_2
I1106 19:20:00.569751 19166 net.cpp:356] pool2 -> pool2
I1106 19:20:00.569757 19166 net.cpp:96] Setting up pool2
I1106 19:20:00.569764 19166 net.cpp:103] Top shape: 32 128 56 56 (12845056)
I1106 19:20:00.569769 19166 layer_factory.hpp:78] Creating layer conv3_1
I1106 19:20:00.569775 19166 net.cpp:67] Creating Layer conv3_1
I1106 19:20:00.569780 19166 net.cpp:394] conv3_1 <- pool2
I1106 19:20:00.569787 19166 net.cpp:356] conv3_1 -> conv3_1
I1106 19:20:00.569793 19166 net.cpp:96] Setting up conv3_1
I1106 19:20:00.577782 19166 net.cpp:103] Top shape: 32 256 56 56 (25690112)
I1106 19:20:00.577805 19166 layer_factory.hpp:78] Creating layer relu3_1
I1106 19:20:00.577811 19166 net.cpp:67] Creating Layer relu3_1
I1106 19:20:00.577819 19166 net.cpp:394] relu3_1 <- conv3_1
I1106 19:20:00.577826 19166 net.cpp:345] relu3_1 -> conv3_1 (in-place)
I1106 19:20:00.577833 19166 net.cpp:96] Setting up relu3_1
I1106 19:20:00.577839 19166 net.cpp:103] Top shape: 32 256 56 56 (25690112)
I1106 19:20:00.577844 19166 layer_factory.hpp:78] Creating layer conv3_2
I1106 19:20:00.577852 19166 net.cpp:67] Creating Layer conv3_2
I1106 19:20:00.577857 19166 net.cpp:394] conv3_2 <- conv3_1
I1106 19:20:00.577862 19166 net.cpp:356] conv3_2 -> conv3_2
I1106 19:20:00.577869 19166 net.cpp:96] Setting up conv3_2
I1106 19:20:00.593776 19166 net.cpp:103] Top shape: 32 256 56 56 (25690112)
I1106 19:20:00.593797 19166 layer_factory.hpp:78] Creating layer relu3_2
I1106 19:20:00.593807 19166 net.cpp:67] Creating Layer relu3_2
I1106 19:20:00.593811 19166 net.cpp:394] relu3_2 <- conv3_2
I1106 19:20:00.593817 19166 net.cpp:345] relu3_2 -> conv3_2 (in-place)
I1106 19:20:00.593824 19166 net.cpp:96] Setting up relu3_2
I1106 19:20:00.593829 19166 net.cpp:103] Top shape: 32 256 56 56 (25690112)
I1106 19:20:00.593835 19166 layer_factory.hpp:78] Creating layer conv3_3
I1106 19:20:00.593842 19166 net.cpp:67] Creating Layer conv3_3
I1106 19:20:00.593845 19166 net.cpp:394] conv3_3 <- conv3_2
I1106 19:20:00.593852 19166 net.cpp:356] conv3_3 -> conv3_3
I1106 19:20:00.593858 19166 net.cpp:96] Setting up conv3_3
I1106 19:20:00.610867 19166 net.cpp:103] Top shape: 32 256 56 56 (25690112)
I1106 19:20:00.610890 19166 layer_factory.hpp:78] Creating layer relu3_3
I1106 19:20:00.610903 19166 net.cpp:67] Creating Layer relu3_3
I1106 19:20:00.610908 19166 net.cpp:394] relu3_3 <- conv3_3
I1106 19:20:00.610913 19166 net.cpp:345] relu3_3 -> conv3_3 (in-place)
I1106 19:20:00.610920 19166 net.cpp:96] Setting up relu3_3
I1106 19:20:00.610926 19166 net.cpp:103] Top shape: 32 256 56 56 (25690112)
I1106 19:20:00.610935 19166 layer_factory.hpp:78] Creating layer pool3
I1106 19:20:00.610944 19166 net.cpp:67] Creating Layer pool3
I1106 19:20:00.610949 19166 net.cpp:394] pool3 <- conv3_3
I1106 19:20:00.610956 19166 net.cpp:356] pool3 -> pool3
I1106 19:20:00.610963 19166 net.cpp:96] Setting up pool3
I1106 19:20:00.610971 19166 net.cpp:103] Top shape: 32 256 28 28 (6422528)
I1106 19:20:00.610976 19166 layer_factory.hpp:78] Creating layer conv4_1
I1106 19:20:00.610985 19166 net.cpp:67] Creating Layer conv4_1
I1106 19:20:00.610988 19166 net.cpp:394] conv4_1 <- pool3
I1106 19:20:00.610993 19166 net.cpp:356] conv4_1 -> conv4_1
I1106 19:20:00.611001 19166 net.cpp:96] Setting up conv4_1
I1106 19:20:00.642194 19166 net.cpp:103] Top shape: 32 512 28 28 (12845056)
I1106 19:20:00.642215 19166 layer_factory.hpp:78] Creating layer relu4_1
I1106 19:20:00.642223 19166 net.cpp:67] Creating Layer relu4_1
I1106 19:20:00.642228 19166 net.cpp:394] relu4_1 <- conv4_1
I1106 19:20:00.642236 19166 net.cpp:345] relu4_1 -> conv4_1 (in-place)
I1106 19:20:00.642243 19166 net.cpp:96] Setting up relu4_1
I1106 19:20:00.642248 19166 net.cpp:103] Top shape: 32 512 28 28 (12845056)
I1106 19:20:00.642251 19166 layer_factory.hpp:78] Creating layer conv4_2
I1106 19:20:00.642263 19166 net.cpp:67] Creating Layer conv4_2
I1106 19:20:00.642268 19166 net.cpp:394] conv4_2 <- conv4_1
I1106 19:20:00.642282 19166 net.cpp:356] conv4_2 -> conv4_2
I1106 19:20:00.642290 19166 net.cpp:96] Setting up conv4_2
I1106 19:20:00.703951 19166 net.cpp:103] Top shape: 32 512 28 28 (12845056)
I1106 19:20:00.703981 19166 layer_factory.hpp:78] Creating layer relu4_2
I1106 19:20:00.703990 19166 net.cpp:67] Creating Layer relu4_2
I1106 19:20:00.704000 19166 net.cpp:394] relu4_2 <- conv4_2
I1106 19:20:00.704010 19166 net.cpp:345] relu4_2 -> conv4_2 (in-place)
I1106 19:20:00.704020 19166 net.cpp:96] Setting up relu4_2
I1106 19:20:00.704026 19166 net.cpp:103] Top shape: 32 512 28 28 (12845056)
I1106 19:20:00.704031 19166 layer_factory.hpp:78] Creating layer conv4_3
I1106 19:20:00.704038 19166 net.cpp:67] Creating Layer conv4_3
I1106 19:20:00.704043 19166 net.cpp:394] conv4_3 <- conv4_2
I1106 19:20:00.704049 19166 net.cpp:356] conv4_3 -> conv4_3
I1106 19:20:00.704056 19166 net.cpp:96] Setting up conv4_3
I1106 19:20:00.766017 19166 net.cpp:103] Top shape: 32 512 28 28 (12845056)
I1106 19:20:00.766039 19166 layer_factory.hpp:78] Creating layer relu4_3
I1106 19:20:00.766049 19166 net.cpp:67] Creating Layer relu4_3
I1106 19:20:00.766054 19166 net.cpp:394] relu4_3 <- conv4_3
I1106 19:20:00.766060 19166 net.cpp:345] relu4_3 -> conv4_3 (in-place)
I1106 19:20:00.766067 19166 net.cpp:96] Setting up relu4_3
I1106 19:20:00.766072 19166 net.cpp:103] Top shape: 32 512 28 28 (12845056)
I1106 19:20:00.766080 19166 layer_factory.hpp:78] Creating layer pool4
I1106 19:20:00.766086 19166 net.cpp:67] Creating Layer pool4
I1106 19:20:00.766090 19166 net.cpp:394] pool4 <- conv4_3
I1106 19:20:00.766098 19166 net.cpp:356] pool4 -> pool4
I1106 19:20:00.766104 19166 net.cpp:96] Setting up pool4
I1106 19:20:00.766113 19166 net.cpp:103] Top shape: 32 512 14 14 (3211264)
I1106 19:20:00.766119 19166 layer_factory.hpp:78] Creating layer conv5_1
I1106 19:20:00.766125 19166 net.cpp:67] Creating Layer conv5_1
I1106 19:20:00.766130 19166 net.cpp:394] conv5_1 <- pool4
I1106 19:20:00.766137 19166 net.cpp:356] conv5_1 -> conv5_1
I1106 19:20:00.766146 19166 net.cpp:96] Setting up conv5_1
I1106 19:20:00.827985 19166 net.cpp:103] Top shape: 32 512 14 14 (3211264)
I1106 19:20:00.828007 19166 layer_factory.hpp:78] Creating layer relu5_1
I1106 19:20:00.828016 19166 net.cpp:67] Creating Layer relu5_1
I1106 19:20:00.828022 19166 net.cpp:394] relu5_1 <- conv5_1
I1106 19:20:00.828029 19166 net.cpp:345] relu5_1 -> conv5_1 (in-place)
I1106 19:20:00.828035 19166 net.cpp:96] Setting up relu5_1
I1106 19:20:00.828042 19166 net.cpp:103] Top shape: 32 512 14 14 (3211264)
I1106 19:20:00.828044 19166 layer_factory.hpp:78] Creating layer conv5_2
I1106 19:20:00.828058 19166 net.cpp:67] Creating Layer conv5_2
I1106 19:20:00.828063 19166 net.cpp:394] conv5_2 <- conv5_1
I1106 19:20:00.828068 19166 net.cpp:356] conv5_2 -> conv5_2
I1106 19:20:00.828075 19166 net.cpp:96] Setting up conv5_2
I1106 19:20:00.889724 19166 net.cpp:103] Top shape: 32 512 14 14 (3211264)
I1106 19:20:00.889745 19166 layer_factory.hpp:78] Creating layer relu5_2
I1106 19:20:00.889753 19166 net.cpp:67] Creating Layer relu5_2
I1106 19:20:00.889758 19166 net.cpp:394] relu5_2 <- conv5_2
I1106 19:20:00.889765 19166 net.cpp:345] relu5_2 -> conv5_2 (in-place)
I1106 19:20:00.889772 19166 net.cpp:96] Setting up relu5_2
I1106 19:20:00.889778 19166 net.cpp:103] Top shape: 32 512 14 14 (3211264)
I1106 19:20:00.889781 19166 layer_factory.hpp:78] Creating layer conv5_3
I1106 19:20:00.889786 19166 net.cpp:67] Creating Layer conv5_3
I1106 19:20:00.889789 19166 net.cpp:394] conv5_3 <- conv5_2
I1106 19:20:00.889802 19166 net.cpp:356] conv5_3 -> conv5_3
I1106 19:20:00.889809 19166 net.cpp:96] Setting up conv5_3
I1106 19:20:00.951740 19166 net.cpp:103] Top shape: 32 512 14 14 (3211264)
I1106 19:20:00.951771 19166 layer_factory.hpp:78] Creating layer relu5_3
I1106 19:20:00.951779 19166 net.cpp:67] Creating Layer relu5_3
I1106 19:20:00.951784 19166 net.cpp:394] relu5_3 <- conv5_3
I1106 19:20:00.951796 19166 net.cpp:345] relu5_3 -> conv5_3 (in-place)
I1106 19:20:00.951802 19166 net.cpp:96] Setting up relu5_3
I1106 19:20:00.951808 19166 net.cpp:103] Top shape: 32 512 14 14 (3211264)
I1106 19:20:00.951824 19166 layer_factory.hpp:78] Creating layer pool5
I1106 19:20:00.951830 19166 net.cpp:67] Creating Layer pool5
I1106 19:20:00.951835 19166 net.cpp:394] pool5 <- conv5_3
I1106 19:20:00.951841 19166 net.cpp:356] pool5 -> pool5
I1106 19:20:00.951849 19166 net.cpp:96] Setting up pool5
I1106 19:20:00.951858 19166 net.cpp:103] Top shape: 32 512 7 7 (802816)
I1106 19:20:00.951864 19166 layer_factory.hpp:78] Creating layer fc6
I1106 19:20:00.951876 19166 net.cpp:67] Creating Layer fc6
I1106 19:20:00.951881 19166 net.cpp:394] fc6 <- pool5
I1106 19:20:00.951889 19166 net.cpp:356] fc6 -> fc6
I1106 19:20:00.951896 19166 net.cpp:96] Setting up fc6
I1106 19:20:03.614367 19166 net.cpp:103] Top shape: 32 4096 1 1 (131072)
I1106 19:20:03.614397 19166 layer_factory.hpp:78] Creating layer relu6
I1106 19:20:03.614404 19166 net.cpp:67] Creating Layer relu6
I1106 19:20:03.614409 19166 net.cpp:394] relu6 <- fc6
I1106 19:20:03.614415 19166 net.cpp:345] relu6 -> fc6 (in-place)
I1106 19:20:03.614423 19166 net.cpp:96] Setting up relu6
I1106 19:20:03.614436 19166 net.cpp:103] Top shape: 32 4096 1 1 (131072)
I1106 19:20:03.614445 19166 layer_factory.hpp:78] Creating layer drop6
I1106 19:20:03.614454 19166 net.cpp:67] Creating Layer drop6
I1106 19:20:03.614459 19166 net.cpp:394] drop6 <- fc6
I1106 19:20:03.614464 19166 net.cpp:345] drop6 -> fc6 (in-place)
I1106 19:20:03.614470 19166 net.cpp:96] Setting up drop6
I1106 19:20:03.614476 19166 net.cpp:103] Top shape: 32 4096 1 1 (131072)
I1106 19:20:03.614481 19166 layer_factory.hpp:78] Creating layer fc7
I1106 19:20:03.614486 19166 net.cpp:67] Creating Layer fc7
I1106 19:20:03.614490 19166 net.cpp:394] fc7 <- fc6
I1106 19:20:03.614495 19166 net.cpp:356] fc7 -> fc7
I1106 19:20:03.614503 19166 net.cpp:96] Setting up fc7
I1106 19:20:04.049108 19166 net.cpp:103] Top shape: 32 4096 1 1 (131072)
I1106 19:20:04.049134 19166 layer_factory.hpp:78] Creating layer relu7
I1106 19:20:04.049141 19166 net.cpp:67] Creating Layer relu7
I1106 19:20:04.049146 19166 net.cpp:394] relu7 <- fc7
I1106 19:20:04.049152 19166 net.cpp:345] relu7 -> fc7 (in-place)
I1106 19:20:04.049160 19166 net.cpp:96] Setting up relu7
I1106 19:20:04.049173 19166 net.cpp:103] Top shape: 32 4096 1 1 (131072)
I1106 19:20:04.049176 19166 layer_factory.hpp:78] Creating layer drop7
I1106 19:20:04.049191 19166 net.cpp:67] Creating Layer drop7
I1106 19:20:04.049196 19166 net.cpp:394] drop7 <- fc7
I1106 19:20:04.049201 19166 net.cpp:345] drop7 -> fc7 (in-place)
I1106 19:20:04.049206 19166 net.cpp:96] Setting up drop7
I1106 19:20:04.049212 19166 net.cpp:103] Top shape: 32 4096 1 1 (131072)
I1106 19:20:04.049216 19166 layer_factory.hpp:78] Creating layer fc8_2
I1106 19:20:04.049223 19166 net.cpp:67] Creating Layer fc8_2
I1106 19:20:04.049227 19166 net.cpp:394] fc8_2 <- fc7
I1106 19:20:04.049232 19166 net.cpp:356] fc8_2 -> fc8_2
I1106 19:20:04.049239 19166 net.cpp:96] Setting up fc8_2
I1106 19:20:04.049474 19166 net.cpp:103] Top shape: 32 2 1 1 (64)
I1106 19:20:04.049482 19166 layer_factory.hpp:78] Creating layer loss
I1106 19:20:04.049495 19166 net.cpp:67] Creating Layer loss
I1106 19:20:04.049499 19166 net.cpp:394] loss <- fc8_2
I1106 19:20:04.049504 19166 net.cpp:394] loss <- label
I1106 19:20:04.049510 19166 net.cpp:356] loss -> (automatic)
I1106 19:20:04.049517 19166 net.cpp:96] Setting up loss
I1106 19:20:04.049526 19166 net.cpp:103] Top shape: 1 1 1 1 (1)
I1106 19:20:04.049531 19166 net.cpp:109]     with loss weight 1
I1106 19:20:04.049561 19166 net.cpp:170] loss needs backward computation.
I1106 19:20:04.049566 19166 net.cpp:170] fc8_2 needs backward computation.
I1106 19:20:04.049569 19166 net.cpp:170] drop7 needs backward computation.
I1106 19:20:04.049572 19166 net.cpp:170] relu7 needs backward computation.
I1106 19:20:04.049576 19166 net.cpp:170] fc7 needs backward computation.
…
I1106 19:20:04.050582 19166 net.cpp:275] The NetState phase (1) differed from the phase (0) specified by a rule in layer data
I1106 19:20:04.050783 19166 net.cpp:39] Initializing net from parameters: 
name: "small"
layers {
  top: "data"
  top: "label"
  name: "data"
  type: IMAGE_DATA
  image_data_param {
    source: "/data/ad6813/devCaffe/caffe/data/unsuit/val.txt"
    batch_size: 8
    new_height: 256
    new_width: 256
  }
  include {
    phase: TEST
  }
  transform_param {
    mirror: true
    crop_size: 224
    mean_value: 86.752
    mean_value: 101.46
    mean_value: 104.6
  }
}
layers {
  bottom: "data"
  top: "conv1_1"
  name: "conv1_1"
  type: CONVOLUTION
  convolution_param {
    num_output: 64
    pad: 1
    kernel_size: 3
    weight_filler {
      type: "gaussian"
      std: 0.01
    }
    bias_filler {
      type: "constant"
      value: 0
    }
  }
}
layers {
  bottom: "conv1_1"
  top: "conv1_1"
  name: "relu1_1"
  type: RELU
}
layers {
  bottom: "conv1_1"
  top: "conv1_2"
  name: "conv1_2"
  type: CONVOLUTION
  convolution_param {
    num_output: 64
    pad: 1
    kernel_size: 3
    weight_filler {
      type: "gaussian"
      std: 0.01
    }
    bias_filler {
      type: "constant"
      value: 0
    }
  }
}
layers {
  bottom: "conv1_2"
  top: "conv1_2"
  name: "relu1_2"
  type: RELU
}
layers {
  bottom: "conv1_2"
  top: "pool1"
  name: "pool1"
  type: POOLING
  pooling_param {
    pool: MAX
    kernel_size: 2
    stride: 2
  }
}
layers {
  bottom: "pool1"
  top: "conv2_1"
  name: "conv2_1"
  type: CONVOLUTION
  convolution_param {
    num_output: 128
    pad: 1
    kernel_size: 3
    weight_filler {
      type: "gaussian"
      std: 0.01
    }
    bias_filler {
      type: "constant"
      value: 0
    }
  }
}
layers {
  bottom: "conv2_1"
  top: "conv2_1"
  name: "relu2_1"
  type: RELU
}
layers {
  bottom: "conv2_1"
  top: "conv2_2"
  name: "conv2_2"
  type: CONVOLUTION
  convolution_param {
    num_output: 128
    pad: 1
    kernel_size: 3
    weight_filler {
      type: "gaussian"
      std: 0.01
    }
    bias_filler {
      type: "constant"
      value: 0
    }
  }
}
layers {
  bottom: "conv2_2"
  top: "conv2_2"
  name: "relu2_2"
  type: RELU
}
layers {
  bottom: "conv2_2"
  top: "pool2"
  name: "pool2"
  type: POOLING
  pooling_param {
    pool: MAX
    kernel_size: 2
    stride: 2
  }
}
layers {
  bottom: "pool2"
  top: "conv3_1"
  name: "conv3_1"
  type: CONVOLUTION
  convolution_param {
    num_output: 256
    pad: 1
    kernel_size: 3
    weight_filler {
      type: "gaussian"
      std: 0.01
    }
    bias_filler {
      type: "constant"
      value: 0
    }
  }
}
layers {
  bottom: "conv3_1"
  top: "conv3_1"
  name: "relu3_1"
  type: RELU
}
layers {
  bottom: "conv3_1"
  top: "conv3_2"
  name: "conv3_2"
  type: CONVOLUTION
  convolution_param {
    num_output: 256
    pad: 1
    kernel_size: 3
    weight_filler {
      type: "gaussian"
      std: 0.01
    }
    bias_filler {
      type: "constant"
      value: 0
    }
  }
}
layers {
  bottom: "conv3_2"
  top: "conv3_2"
  name: "relu3_2"
  type: RELU
}
layers {
  bottom: "conv3_2"
  top: "conv3_3"
  name: "conv3_3"
  type: CONVOLUTION
  convolution_param {
    num_output: 256
    pad: 1
    kernel_size: 3
    weight_filler {
      type: "gaussian"
      std: 0.01
    }
    bias_filler {
      type: "constant"
      value: 0
    }
  }
}
layers {
  bottom: "conv3_3"
  top: "conv3_3"
  name: "relu3_3"
  type: RELU
}
layers {
  bottom: "conv3_3"
  top: "pool3"
  name: "pool3"
  type: POOLING
  pooling_param {
    pool: MAX
    kernel_size: 2
    stride: 2
  }
}
layers {
  bottom: "pool3"
  top: "conv4_1"
  name: "conv4_1"
  type: CONVOLUTION
  convolution_param {
    num_output: 512
    pad: 1
    kernel_size: 3
    weight_filler {
      type: "gaussian"
      std: 0.01
    }
    bias_filler {
      type: "constant"
      value: 0
    }
  }
}
layers {
  bottom: "conv4_1"
  top: "conv4_1"
  name: "relu4_1"
  type: RELU
}
layers {
  bottom: "conv4_1"
  top: "conv4_2"
  name: "conv4_2"
  type: CONVOLUTION
  convolution_param {
    num_output: 512
    pad: 1
    kernel_size: 3
    weight_filler {
      type: "gaussian"
      std: 0.01
    }
    bias_filler {
      type: "constant"
      value: 0
    }
  }
}
layers {
  bottom: "conv4_2"
  top: "conv4_2"
  name: "relu4_2"
  type: RELU
}
layers {
  bottom: "conv4_2"
  top: "conv4_3"
  name: "conv4_3"
  type: CONVOLUTION
  convolution_param {
    num_output: 512
    pad: 1
    kernel_size: 3
    weight_filler {
      type: "gaussian"
      std: 0.01
    }
    bias_filler {
      type: "constant"
      value: 0
    }
  }
}
layers {
  bottom: "conv4_3"
  top: "conv4_3"
  name: "relu4_3"
  type: RELU
}
layers {
  bottom: "conv4_3"
  top: "pool4"
  name: "pool4"
  type: POOLING
  pooling_param {
    pool: MAX
    kernel_size: 2
    stride: 2
  }
}
layers {
  bottom: "pool4"
  top: "conv5_1"
  name: "conv5_1"
  type: CONVOLUTION
  convolution_param {
    num_output: 512
    pad: 1
    kernel_size: 3
    weight_filler {
      type: "gaussian"
      std: 0.01
    }
    bias_filler {
      type: "constant"
      value: 0
    }
  }
}
layers {
  bottom: "conv5_1"
  top: "conv5_1"
  name: "relu5_1"
  type: RELU
}
layers {
  bottom: "conv5_1"
  top: "conv5_2"
  name: "conv5_2"
  type: CONVOLUTION
  convolution_param {
    num_output: 512
    pad: 1
    kernel_size: 3
    weight_filler {
      type: "gaussian"
      std: 0.01
    }
    bias_filler {
      type: "constant"
      value: 0
    }
  }
}
layers {
  bottom: "conv5_2"
  top: "conv5_2"
  name: "relu5_2"
  type: RELU
}
layers {
  bottom: "conv5_2"
  top: "conv5_3"
  name: "conv5_3"
  type: CONVOLUTION
  convolution_param {
    num_output: 512
    pad: 1
    kernel_size: 3
    weight_filler {
      type: "gaussian"
      std: 0.01
    }
    bias_filler {
      type: "constant"
      value: 0
    }
  }
}
layers {
  bottom: "conv5_3"
  top: "conv5_3"
  name: "relu5_3"
  type: RELU
}
layers {
  bottom: "conv5_3"
  top: "pool5"
  name: "pool5"
  type: POOLING
  pooling_param {
    pool: MAX
    kernel_size: 2
    stride: 2
  }
}
layers {
  bottom: "pool5"
  top: "fc6"
  name: "fc6"
  type: INNER_PRODUCT
  inner_product_param {
    num_output: 4096
    weight_filler {
      type: "gaussian"
      std: 0.01
    }
    bias_filler {
      type: "constant"
      value: 0
    }
  }
}
layers {
  bottom: "fc6"
  top: "fc6"
  name: "relu6"
  type: RELU
}
layers {
  bottom: "fc6"
  top: "fc6"
  name: "drop6"
  type: DROPOUT
  dropout_param {
    dropout_ratio: 0.5
  }
}
layers {
  bottom: "fc6"
  top: "fc7"
  name: "fc7"
  type: INNER_PRODUCT
  inner_product_param {
    num_output: 4096
    weight_filler {
      type: "gaussian"
      std: 0.01
    }
    bias_filler {
      type: "constant"
      value: 0
    }
  }
}
layers {
  bottom: "fc7"
  top: "fc7"
  name: "relu7"
  type: RELU
}
layers {
  bottom: "fc7"
  top: "fc7"
  name: "drop7"
  type: DROPOUT
  dropout_param {
    dropout_ratio: 0.5
  }
}
layers {
  bottom: "fc7"
  top: "fc8_2"
  name: "fc8_2"
  type: INNER_PRODUCT
  inner_product_param {
    num_output: 2
    weight_filler {
      type: "gaussian"
      std: 0.01
    }
    bias_filler {
      type: "constant"
      value: 0
    }
  }
}
layers {
  bottom: "fc8_2"
  bottom: "label"
  name: "loss"
  type: SOFTMAX_LOSS
}
layers {
  bottom: "fc8_2"
  bottom: "label"
  top: "accuracy"
  name: "accuracy"
  type: PER_CLASS_ACCURACY
  include {
    phase: TEST
  }
}
state {
  phase: TEST
}
I1106 19:20:04.050912 19166 layer_factory.hpp:78] Creating layer data
I1106 19:20:04.050925 19166 net.cpp:67] Creating Layer data
I1106 19:20:04.050930 19166 net.cpp:356] data -> data
I1106 19:20:04.050940 19166 net.cpp:356] data -> label
I1106 19:20:04.050946 19166 net.cpp:96] Setting up data
I1106 19:20:04.050951 19166 image_data_layer.cpp:34] Opening file /data/ad6813/devCaffe/caffe/data/unsuit/val.txt
I1106 19:20:04.066802 19166 image_data_layer.cpp:49] A total of 5768 images.
I1106 19:20:04.094054 19166 image_data_layer.cpp:78] output data size: 8,3,224,224
I1106 19:20:04.094914 19166 net.cpp:103] Top shape: 8 3 224 224 (1204224)
I1106 19:20:04.094923 19166 net.cpp:103] Top shape: 8 1 1 1 (8)
I1106 19:20:04.094928 19166 layer_factory.hpp:78] Creating layer label_data_1_split
I1106 19:20:04.094943 19166 net.cpp:67] Creating Layer label_data_1_split
I1106 19:20:04.094946 19166 net.cpp:394] label_data_1_split <- label
I1106 19:20:04.094954 19166 net.cpp:356] label_data_1_split -> label_data_1_split_0
I1106 19:20:04.094966 19166 net.cpp:356] label_data_1_split -> label_data_1_split_1
I1106 19:20:04.094972 19166 net.cpp:96] Setting up label_data_1_split
I1106 19:20:04.094991 19166 net.cpp:103] Top shape: 8 1 1 1 (8)
I1106 19:20:04.094997 19166 net.cpp:103] Top shape: 8 1 1 1 (8)
I1106 19:20:04.095003 19166 layer_factory.hpp:78] Creating layer conv1_1
I1106 19:20:04.095013 19166 net.cpp:67] Creating Layer conv1_1
I1106 19:20:04.095019 19166 net.cpp:394] conv1_1 <- data
I1106 19:20:04.095026 19166 net.cpp:356] conv1_1 -> conv1_1
I1106 19:20:04.095034 19166 net.cpp:96] Setting up conv1_1
I1106 19:20:04.095232 19166 net.cpp:103] Top shape: 8 64 224 224 (25690112)
I1106 19:20:04.095247 19166 layer_factory.hpp:78] Creating layer relu1_1
I1106 19:20:04.095253 19166 net.cpp:67] Creating Layer relu1_1
I1106 19:20:04.095258 19166 net.cpp:394] relu1_1 <- conv1_1
I1106 19:20:04.095264 19166 net.cpp:345] relu1_1 -> conv1_1 (in-place)
I1106 19:20:04.095270 19166 net.cpp:96] Setting up relu1_1
I1106 19:20:04.095284 19166 net.cpp:103] Top shape: 8 64 224 224 (25690112)
I1106 19:20:04.095289 19166 layer_factory.hpp:78] Creating layer conv1_2
I1106 19:20:04.095296 19166 net.cpp:67] Creating Layer conv1_2
I1106 19:20:04.095301 19166 net.cpp:394] conv1_2 <- conv1_1
I1106 19:20:04.095307 19166 net.cpp:356] conv1_2 -> conv1_2
I1106 19:20:04.095314 19166 net.cpp:96] Setting up conv1_2
I1106 19:20:04.096397 19166 net.cpp:103] Top shape: 8 64 224 224 (25690112)
I1106 19:20:04.096411 19166 layer_factory.hpp:78] Creating layer relu1_2
I1106 19:20:04.096415 19166 net.cpp:67] Creating Layer relu1_2
I1106 19:20:04.096421 19166 net.cpp:394] relu1_2 <- conv1_2
I1106 19:20:04.096427 19166 net.cpp:345] relu1_2 -> conv1_2 (in-place)
I1106 19:20:04.096433 19166 net.cpp:96] Setting up relu1_2
I1106 19:20:04.096441 19166 net.cpp:103] Top shape: 8 64 224 224 (25690112)
I1106 19:20:04.096444 19166 layer_factory.hpp:78] Creating layer pool1
I1106 19:20:04.096451 19166 net.cpp:67] Creating Layer pool1
I1106 19:20:04.096454 19166 net.cpp:394] pool1 <- conv1_2
I1106 19:20:04.096459 19166 net.cpp:356] pool1 -> pool1
I1106 19:20:04.096465 19166 net.cpp:96] Setting up pool1
I1106 19:20:04.096474 19166 net.cpp:103] Top shape: 8 64 112 112 (6422528)
I1106 19:20:04.096478 19166 layer_factory.hpp:78] Creating layer conv2_1
I1106 19:20:04.096483 19166 net.cpp:67] Creating Layer conv2_1
I1106 19:20:04.096487 19166 net.cpp:394] conv2_1 <- pool1
I1106 19:20:04.096493 19166 net.cpp:356] conv2_1 -> conv2_1
I1106 19:20:04.096500 19166 net.cpp:96] Setting up conv2_1
I1106 19:20:04.098672 19166 net.cpp:103] Top shape: 8 128 112 112 (12845056)
I1106 19:20:04.098687 19166 layer_factory.hpp:78] Creating layer relu2_1
I1106 19:20:04.098695 19166 net.cpp:67] Creating Layer relu2_1
I1106 19:20:04.098700 19166 net.cpp:394] relu2_1 <- conv2_1
I1106 19:20:04.098706 19166 net.cpp:345] relu2_1 -> conv2_1 (in-place)
I1106 19:20:04.098711 19166 net.cpp:96] Setting up relu2_1
I1106 19:20:04.098718 19166 net.cpp:103] Top shape: 8 128 112 112 (12845056)
I1106 19:20:04.098722 19166 layer_factory.hpp:78] Creating layer conv2_2
I1106 19:20:04.098731 19166 net.cpp:67] Creating Layer conv2_2
I1106 19:20:04.098734 19166 net.cpp:394] conv2_2 <- conv2_1
I1106 19:20:04.098741 19166 net.cpp:356] conv2_2 -> conv2_2
I1106 19:20:04.098747 19166 net.cpp:96] Setting up conv2_2
I1106 19:20:04.102749 19166 net.cpp:103] Top shape: 8 128 112 112 (12845056)
I1106 19:20:04.102761 19166 layer_factory.hpp:78] Creating layer relu2_2
I1106 19:20:04.102771 19166 net.cpp:67] Creating Layer relu2_2
I1106 19:20:04.102776 19166 net.cpp:394] relu2_2 <- conv2_2
I1106 19:20:04.102782 19166 net.cpp:345] relu2_2 -> conv2_2 (in-place)
I1106 19:20:04.102787 19166 net.cpp:96] Setting up relu2_2
I1106 19:20:04.102793 19166 net.cpp:103] Top shape: 8 128 112 112 (12845056)
I1106 19:20:04.102798 19166 layer_factory.hpp:78] Creating layer pool2
I1106 19:20:04.102804 19166 net.cpp:67] Creating Layer pool2
I1106 19:20:04.102808 19166 net.cpp:394] pool2 <- conv2_2
I1106 19:20:04.102813 19166 net.cpp:356] pool2 -> pool2
I1106 19:20:04.102819 19166 net.cpp:96] Setting up pool2
I1106 19:20:04.102825 19166 net.cpp:103] Top shape: 8 128 56 56 (3211264)
I1106 19:20:04.102829 19166 layer_factory.hpp:78] Creating layer conv3_1
I1106 19:20:04.102838 19166 net.cpp:67] Creating Layer conv3_1
I1106 19:20:04.102841 19166 net.cpp:394] conv3_1 <- pool2
I1106 19:20:04.102849 19166 net.cpp:356] conv3_1 -> conv3_1
I1106 19:20:04.102855 19166 net.cpp:96] Setting up conv3_1
I1106 19:20:04.110676 19166 net.cpp:103] Top shape: 8 256 56 56 (6422528)
I1106 19:20:04.110689 19166 layer_factory.hpp:78] Creating layer relu3_1
I1106 19:20:04.110695 19166 net.cpp:67] Creating Layer relu3_1
I1106 19:20:04.110702 19166 net.cpp:394] relu3_1 <- conv3_1
I1106 19:20:04.110709 19166 net.cpp:345] relu3_1 -> conv3_1 (in-place)
I1106 19:20:04.110716 19166 net.cpp:96] Setting up relu3_1
I1106 19:20:04.110723 19166 net.cpp:103] Top shape: 8 256 56 56 (6422528)
I1106 19:20:04.110726 19166 layer_factory.hpp:78] Creating layer conv3_2
I1106 19:20:04.110740 19166 net.cpp:67] Creating Layer conv3_2
I1106 19:20:04.110745 19166 net.cpp:394] conv3_2 <- conv3_1
I1106 19:20:04.110752 19166 net.cpp:356] conv3_2 -> conv3_2
I1106 19:20:04.110759 19166 net.cpp:96] Setting up conv3_2
I1106 19:20:04.126466 19166 net.cpp:103] Top shape: 8 256 56 56 (6422528)
I1106 19:20:04.126487 19166 layer_factory.hpp:78] Creating layer relu3_2
I1106 19:20:04.126495 19166 net.cpp:67] Creating Layer relu3_2
I1106 19:20:04.126500 19166 net.cpp:394] relu3_2 <- conv3_2
I1106 19:20:04.126507 19166 net.cpp:345] relu3_2 -> conv3_2 (in-place)
I1106 19:20:04.126515 19166 net.cpp:96] Setting up relu3_2
I1106 19:20:04.126521 19166 net.cpp:103] Top shape: 8 256 56 56 (6422528)
I1106 19:20:04.126526 19166 layer_factory.hpp:78] Creating layer conv3_3
I1106 19:20:04.126538 19166 net.cpp:67] Creating Layer conv3_3
I1106 19:20:04.126543 19166 net.cpp:394] conv3_3 <- conv3_2
I1106 19:20:04.126549 19166 net.cpp:356] conv3_3 -> conv3_3
I1106 19:20:04.126555 19166 net.cpp:96] Setting up conv3_3
I1106 19:20:04.142277 19166 net.cpp:103] Top shape: 8 256 56 56 (6422528)
I1106 19:20:04.142294 19166 layer_factory.hpp:78] Creating layer relu3_3
I1106 19:20:04.142302 19166 net.cpp:67] Creating Layer relu3_3
I1106 19:20:04.142307 19166 net.cpp:394] relu3_3 <- conv3_3
I1106 19:20:04.142313 19166 net.cpp:345] relu3_3 -> conv3_3 (in-place)
I1106 19:20:04.142323 19166 net.cpp:96] Setting up relu3_3
I1106 19:20:04.142330 19166 net.cpp:103] Top shape: 8 256 56 56 (6422528)
I1106 19:20:04.142336 19166 layer_factory.hpp:78] Creating layer pool3
I1106 19:20:04.142343 19166 net.cpp:67] Creating Layer pool3
I1106 19:20:04.142348 19166 net.cpp:394] pool3 <- conv3_3
I1106 19:20:04.142354 19166 net.cpp:356] pool3 -> pool3
I1106 19:20:04.142360 19166 net.cpp:96] Setting up pool3
I1106 19:20:04.142371 19166 net.cpp:103] Top shape: 8 256 28 28 (1605632)
I1106 19:20:04.142375 19166 layer_factory.hpp:78] Creating layer conv4_1
I1106 19:20:04.142381 19166 net.cpp:67] Creating Layer conv4_1
I1106 19:20:04.142385 19166 net.cpp:394] conv4_1 <- pool3
I1106 19:20:04.142391 19166 net.cpp:356] conv4_1 -> conv4_1
I1106 19:20:04.142397 19166 net.cpp:96] Setting up conv4_1
I1106 19:20:04.173401 19166 net.cpp:103] Top shape: 8 512 28 28 (3211264)
I1106 19:20:04.173424 19166 layer_factory.hpp:78] Creating layer relu4_1
I1106 19:20:04.173434 19166 net.cpp:67] Creating Layer relu4_1
I1106 19:20:04.173439 19166 net.cpp:394] relu4_1 <- conv4_1
I1106 19:20:04.173446 19166 net.cpp:345] relu4_1 -> conv4_1 (in-place)
I1106 19:20:04.173455 19166 net.cpp:96] Setting up relu4_1
I1106 19:20:04.173462 19166 net.cpp:103] Top shape: 8 512 28 28 (3211264)
I1106 19:20:04.173466 19166 layer_factory.hpp:78] Creating layer conv4_2
I1106 19:20:04.173477 19166 net.cpp:67] Creating Layer conv4_2
I1106 19:20:04.173481 19166 net.cpp:394] conv4_2 <- conv4_1
I1106 19:20:04.173490 19166 net.cpp:356] conv4_2 -> conv4_2
I1106 19:20:04.173496 19166 net.cpp:96] Setting up conv4_2
I1106 19:20:04.235335 19166 net.cpp:103] Top shape: 8 512 28 28 (3211264)
I1106 19:20:04.235364 19166 layer_factory.hpp:78] Creating layer relu4_2
I1106 19:20:04.235373 19166 net.cpp:67] Creating Layer relu4_2
I1106 19:20:04.235376 19166 net.cpp:394] relu4_2 <- conv4_2
I1106 19:20:04.235384 19166 net.cpp:345] relu4_2 -> conv4_2 (in-place)
I1106 19:20:04.235398 19166 net.cpp:96] Setting up relu4_2
I1106 19:20:04.235404 19166 net.cpp:103] Top shape: 8 512 28 28 (3211264)
I1106 19:20:04.235409 19166 layer_factory.hpp:78] Creating layer conv4_3
I1106 19:20:04.235417 19166 net.cpp:67] Creating Layer conv4_3
I1106 19:20:04.235422 19166 net.cpp:394] conv4_3 <- conv4_2
I1106 19:20:04.235429 19166 net.cpp:356] conv4_3 -> conv4_3
I1106 19:20:04.235437 19166 net.cpp:96] Setting up conv4_3
I1106 19:20:04.296859 19166 net.cpp:103] Top shape: 8 512 28 28 (3211264)
I1106 19:20:04.296885 19166 layer_factory.hpp:78] Creating layer relu4_3
I1106 19:20:04.296895 19166 net.cpp:67] Creating Layer relu4_3
I1106 19:20:04.296900 19166 net.cpp:394] relu4_3 <- conv4_3
I1106 19:20:04.296906 19166 net.cpp:345] relu4_3 -> conv4_3 (in-place)
I1106 19:20:04.296922 19166 net.cpp:96] Setting up relu4_3
I1106 19:20:04.296931 19166 net.cpp:103] Top shape: 8 512 28 28 (3211264)
I1106 19:20:04.296936 19166 layer_factory.hpp:78] Creating layer pool4
I1106 19:20:04.296941 19166 net.cpp:67] Creating Layer pool4
I1106 19:20:04.296946 19166 net.cpp:394] pool4 <- conv4_3
I1106 19:20:04.296950 19166 net.cpp:356] pool4 -> pool4
I1106 19:20:04.296957 19166 net.cpp:96] Setting up pool4
I1106 19:20:04.296965 19166 net.cpp:103] Top shape: 8 512 14 14 (802816)
I1106 19:20:04.296970 19166 layer_factory.hpp:78] Creating layer conv5_1
I1106 19:20:04.296977 19166 net.cpp:67] Creating Layer conv5_1
I1106 19:20:04.296983 19166 net.cpp:394] conv5_1 <- pool4
I1106 19:20:04.296988 19166 net.cpp:356] conv5_1 -> conv5_1
I1106 19:20:04.296995 19166 net.cpp:96] Setting up conv5_1
I1106 19:20:04.358669 19166 net.cpp:103] Top shape: 8 512 14 14 (802816)
I1106 19:20:04.358695 19166 layer_factory.hpp:78] Creating layer relu5_1
I1106 19:20:04.358705 19166 net.cpp:67] Creating Layer relu5_1
I1106 19:20:04.358710 19166 net.cpp:394] relu5_1 <- conv5_1
I1106 19:20:04.358716 19166 net.cpp:345] relu5_1 -> conv5_1 (in-place)
I1106 19:20:04.358728 19166 net.cpp:96] Setting up relu5_1
I1106 19:20:04.358736 19166 net.cpp:103] Top shape: 8 512 14 14 (802816)
I1106 19:20:04.358741 19166 layer_factory.hpp:78] Creating layer conv5_2
I1106 19:20:04.358747 19166 net.cpp:67] Creating Layer conv5_2
I1106 19:20:04.358750 19166 net.cpp:394] conv5_2 <- conv5_1
I1106 19:20:04.358757 19166 net.cpp:356] conv5_2 -> conv5_2
I1106 19:20:04.358765 19166 net.cpp:96] Setting up conv5_2
I1106 19:20:04.420270 19166 net.cpp:103] Top shape: 8 512 14 14 (802816)
I1106 19:20:04.420295 19166 layer_factory.hpp:78] Creating layer relu5_2
I1106 19:20:04.420305 19166 net.cpp:67] Creating Layer relu5_2
I1106 19:20:04.420308 19166 net.cpp:394] relu5_2 <- conv5_2
I1106 19:20:04.420316 19166 net.cpp:345] relu5_2 -> conv5_2 (in-place)
I1106 19:20:04.420330 19166 net.cpp:96] Setting up relu5_2
I1106 19:20:04.420337 19166 net.cpp:103] Top shape: 8 512 14 14 (802816)
I1106 19:20:04.420342 19166 layer_factory.hpp:78] Creating layer conv5_3
I1106 19:20:04.420348 19166 net.cpp:67] Creating Layer conv5_3
I1106 19:20:04.420352 19166 net.cpp:394] conv5_3 <- conv5_2
I1106 19:20:04.420358 19166 net.cpp:356] conv5_3 -> conv5_3
I1106 19:20:04.420366 19166 net.cpp:96] Setting up conv5_3
I1106 19:20:04.482202 19166 net.cpp:103] Top shape: 8 512 14 14 (802816)
I1106 19:20:04.482228 19166 layer_factory.hpp:78] Creating layer relu5_3
I1106 19:20:04.482235 19166 net.cpp:67] Creating Layer relu5_3
I1106 19:20:04.482240 19166 net.cpp:394] relu5_3 <- conv5_3
I1106 19:20:04.482249 19166 net.cpp:345] relu5_3 -> conv5_3 (in-place)
I1106 19:20:04.482262 19166 net.cpp:96] Setting up relu5_3
I1106 19:20:04.482270 19166 net.cpp:103] Top shape: 8 512 14 14 (802816)
I1106 19:20:04.482273 19166 layer_factory.hpp:78] Creating layer pool5
I1106 19:20:04.482285 19166 net.cpp:67] Creating Layer pool5
I1106 19:20:04.482290 19166 net.cpp:394] pool5 <- conv5_3
I1106 19:20:04.482298 19166 net.cpp:356] pool5 -> pool5
I1106 19:20:04.482306 19166 net.cpp:96] Setting up pool5
I1106 19:20:04.482313 19166 net.cpp:103] Top shape: 8 512 7 7 (200704)
I1106 19:20:04.482318 19166 layer_factory.hpp:78] Creating layer fc6
I1106 19:20:04.482326 19166 net.cpp:67] Creating Layer fc6
I1106 19:20:04.482331 19166 net.cpp:394] fc6 <- pool5
I1106 19:20:04.482338 19166 net.cpp:356] fc6 -> fc6
I1106 19:20:04.482345 19166 net.cpp:96] Setting up fc6
I1106 19:20:07.141379 19166 net.cpp:103] Top shape: 8 4096 1 1 (32768)
I1106 19:20:07.141407 19166 layer_factory.hpp:78] Creating layer relu6
I1106 19:20:07.141414 19166 net.cpp:67] Creating Layer relu6
I1106 19:20:07.141420 19166 net.cpp:394] relu6 <- fc6
I1106 19:20:07.141428 19166 net.cpp:345] relu6 -> fc6 (in-place)
I1106 19:20:07.141437 19166 net.cpp:96] Setting up relu6
I1106 19:20:07.141449 19166 net.cpp:103] Top shape: 8 4096 1 1 (32768)
I1106 19:20:07.141458 19166 layer_factory.hpp:78] Creating layer drop6
I1106 19:20:07.141474 19166 net.cpp:67] Creating Layer drop6
I1106 19:20:07.141476 19166 net.cpp:394] drop6 <- fc6
I1106 19:20:07.141480 19166 net.cpp:345] drop6 -> fc6 (in-place)
I1106 19:20:07.141485 19166 net.cpp:96] Setting up drop6
I1106 19:20:07.141490 19166 net.cpp:103] Top shape: 8 4096 1 1 (32768)
I1106 19:20:07.141495 19166 layer_factory.hpp:78] Creating layer fc7
I1106 19:20:07.141505 19166 net.cpp:67] Creating Layer fc7
I1106 19:20:07.141510 19166 net.cpp:394] fc7 <- fc6
I1106 19:20:07.141515 19166 net.cpp:356] fc7 -> fc7
I1106 19:20:07.141523 19166 net.cpp:96] Setting up fc7
I1106 19:20:07.576485 19166 net.cpp:103] Top shape: 8 4096 1 1 (32768)
I1106 19:20:07.576513 19166 layer_factory.hpp:78] Creating layer relu7
I1106 19:20:07.576520 19166 net.cpp:67] Creating Layer relu7
I1106 19:20:07.576525 19166 net.cpp:394] relu7 <- fc7
I1106 19:20:07.576532 19166 net.cpp:345] relu7 -> fc7 (in-place)
I1106 19:20:07.576539 19166 net.cpp:96] Setting up relu7
I1106 19:20:07.576553 19166 net.cpp:103] Top shape: 8 4096 1 1 (32768)
I1106 19:20:07.576561 19166 layer_factory.hpp:78] Creating layer drop7
I1106 19:20:07.576570 19166 net.cpp:67] Creating Layer drop7
I1106 19:20:07.576575 19166 net.cpp:394] drop7 <- fc7
I1106 19:20:07.576581 19166 net.cpp:345] drop7 -> fc7 (in-place)
I1106 19:20:07.576586 19166 net.cpp:96] Setting up drop7
I1106 19:20:07.576591 19166 net.cpp:103] Top shape: 8 4096 1 1 (32768)
I1106 19:20:07.576596 19166 layer_factory.hpp:78] Creating layer fc8_2
I1106 19:20:07.576601 19166 net.cpp:67] Creating Layer fc8_2
I1106 19:20:07.576606 19166 net.cpp:394] fc8_2 <- fc7
I1106 19:20:07.576613 19166 net.cpp:356] fc8_2 -> fc8_2
I1106 19:20:07.576622 19166 net.cpp:96] Setting up fc8_2
I1106 19:20:07.576846 19166 net.cpp:103] Top shape: 8 2 1 1 (16)
I1106 19:20:07.576854 19166 layer_factory.hpp:78] Creating layer fc8_2_fc8_2_0_split
I1106 19:20:07.576860 19166 net.cpp:67] Creating Layer fc8_2_fc8_2_0_split
I1106 19:20:07.576864 19166 net.cpp:394] fc8_2_fc8_2_0_split <- fc8_2
I1106 19:20:07.576870 19166 net.cpp:356] fc8_2_fc8_2_0_split -> fc8_2_fc8_2_0_split_0
I1106 19:20:07.576879 19166 net.cpp:356] fc8_2_fc8_2_0_split -> fc8_2_fc8_2_0_split_1
I1106 19:20:07.576885 19166 net.cpp:96] Setting up fc8_2_fc8_2_0_split
I1106 19:20:07.576890 19166 net.cpp:103] Top shape: 8 2 1 1 (16)
I1106 19:20:07.576894 19166 net.cpp:103] Top shape: 8 2 1 1 (16)
I1106 19:20:07.576900 19166 layer_factory.hpp:78] Creating layer loss
I1106 19:20:07.576905 19166 net.cpp:67] Creating Layer loss
I1106 19:20:07.576910 19166 net.cpp:394] loss <- fc8_2_fc8_2_0_split_0
I1106 19:20:07.576915 19166 net.cpp:394] loss <- label_data_1_split_0
I1106 19:20:07.576921 19166 net.cpp:356] loss -> (automatic)
I1106 19:20:07.576926 19166 net.cpp:96] Setting up loss
I1106 19:20:07.576933 19166 net.cpp:103] Top shape: 1 1 1 1 (1)
I1106 19:20:07.576937 19166 net.cpp:109]     with loss weight 1
I1106 19:20:07.576951 19166 layer_factory.hpp:78] Creating layer accuracy
I1106 19:20:07.576961 19166 net.cpp:67] Creating Layer accuracy
I1106 19:20:07.576966 19166 net.cpp:394] accuracy <- fc8_2_fc8_2_0_split_1
I1106 19:20:07.576971 19166 net.cpp:394] accuracy <- label_data_1_split_1
I1106 19:20:07.576978 19166 net.cpp:356] accuracy -> accuracy
I1106 19:20:07.576984 19166 net.cpp:96] Setting up accuracy
I1106 19:20:07.576992 19166 net.cpp:103] Top shape: 1 1 1 4 (4)
I1106 19:20:07.576997 19166 net.cpp:172] accuracy does not need backward computation.
I1106 19:20:07.577000 19166 net.cpp:170] loss needs backward computation.
I1106 19:20:07.577005 19166 net.cpp:170] fc8_2_fc8_2_0_split needs backward computation.
I1106 19:20:07.577009 19166 net.cpp:170] fc8_2 needs backward computation.
I1106 19:20:07.577014 19166 net.cpp:170] drop7 needs backward computation.
…
