…
I1106 17:13:30.355140  2818 net.cpp:275] The NetState phase (0) differed from the phase (1) specified by a rule in layer accuracy
I1106 17:13:30.355329  2818 net.cpp:39] Initializing net from parameters: 
name: "small"
layers {
  top: "data"
  top: "label"
  name: "data"
  type: IMAGE_DATA
  image_data_param {
    source: "/data/ad6813/devCaffe/caffe/data/soil_high/train.txt"
    batch_size: 32
    new_height: 256
    new_width: 256
  }
  include {
    phase: TRAIN
  }
  transform_param {
    mirror: true
    crop_size: 224
    mean_value: 86.752
    mean_value: 101.46
    mean_value: 104.6
  }
}
layers {
  bottom: "data"
  top: "conv1_1"
  name: "conv1_1"
  type: CONVOLUTION
  convolution_param {
    num_output: 64
    pad: 1
    kernel_size: 3
    weight_filler {
      type: "gaussian"
      std: 0.01
    }
    bias_filler {
      type: "constant"
      value: 0
    }
  }
}
layers {
  bottom: "conv1_1"
  top: "conv1_1"
  name: "relu1_1"
  type: RELU
}
layers {
  bottom: "conv1_1"
  top: "conv1_2"
  name: "conv1_2"
  type: CONVOLUTION
  convolution_param {
    num_output: 64
    pad: 1
    kernel_size: 3
    weight_filler {
      type: "gaussian"
      std: 0.01
    }
    bias_filler {
      type: "constant"
      value: 0
    }
  }
}
layers {
  bottom: "conv1_2"
  top: "conv1_2"
  name: "relu1_2"
  type: RELU
}
layers {
  bottom: "conv1_2"
  top: "pool1"
  name: "pool1"
  type: POOLING
  pooling_param {
    pool: MAX
    kernel_size: 2
    stride: 2
  }
}
layers {
  bottom: "pool1"
  top: "conv2_1"
  name: "conv2_1"
  type: CONVOLUTION
  convolution_param {
    num_output: 128
    pad: 1
    kernel_size: 3
    weight_filler {
      type: "gaussian"
      std: 0.01
    }
    bias_filler {
      type: "constant"
      value: 0
    }
  }
}
layers {
  bottom: "conv2_1"
  top: "conv2_1"
  name: "relu2_1"
  type: RELU
}
layers {
  bottom: "conv2_1"
  top: "conv2_2"
  name: "conv2_2"
  type: CONVOLUTION
  convolution_param {
    num_output: 128
    pad: 1
    kernel_size: 3
    weight_filler {
      type: "gaussian"
      std: 0.01
    }
    bias_filler {
      type: "constant"
      value: 0
    }
  }
}
layers {
  bottom: "conv2_2"
  top: "conv2_2"
  name: "relu2_2"
  type: RELU
}
layers {
  bottom: "conv2_2"
  top: "pool2"
  name: "pool2"
  type: POOLING
  pooling_param {
    pool: MAX
    kernel_size: 2
    stride: 2
  }
}
layers {
  bottom: "pool2"
  top: "conv3_1"
  name: "conv3_1"
  type: CONVOLUTION
  convolution_param {
    num_output: 256
    pad: 1
    kernel_size: 3
    weight_filler {
      type: "gaussian"
      std: 0.01
    }
    bias_filler {
      type: "constant"
      value: 0
    }
  }
}
layers {
  bottom: "conv3_1"
  top: "conv3_1"
  name: "relu3_1"
  type: RELU
}
layers {
  bottom: "conv3_1"
  top: "conv3_2"
  name: "conv3_2"
  type: CONVOLUTION
  convolution_param {
    num_output: 256
    pad: 1
    kernel_size: 3
    weight_filler {
      type: "gaussian"
      std: 0.01
    }
    bias_filler {
      type: "constant"
      value: 0
    }
  }
}
layers {
  bottom: "conv3_2"
  top: "conv3_2"
  name: "relu3_2"
  type: RELU
}
layers {
  bottom: "conv3_2"
  top: "conv3_3"
  name: "conv3_3"
  type: CONVOLUTION
  convolution_param {
    num_output: 256
    pad: 1
    kernel_size: 3
    weight_filler {
      type: "gaussian"
      std: 0.01
    }
    bias_filler {
      type: "constant"
      value: 0
    }
  }
}
layers {
  bottom: "conv3_3"
  top: "conv3_3"
  name: "relu3_3"
  type: RELU
}
layers {
  bottom: "conv3_3"
  top: "pool3"
  name: "pool3"
  type: POOLING
  pooling_param {
    pool: MAX
    kernel_size: 2
    stride: 2
  }
}
layers {
  bottom: "pool3"
  top: "conv4_1"
  name: "conv4_1"
  type: CONVOLUTION
  convolution_param {
    num_output: 512
    pad: 1
    kernel_size: 3
    weight_filler {
      type: "gaussian"
      std: 0.01
    }
    bias_filler {
      type: "constant"
      value: 0
    }
  }
}
layers {
  bottom: "conv4_1"
  top: "conv4_1"
  name: "relu4_1"
  type: RELU
}
layers {
  bottom: "conv4_1"
  top: "conv4_2"
  name: "conv4_2"
  type: CONVOLUTION
  convolution_param {
    num_output: 512
    pad: 1
    kernel_size: 3
    weight_filler {
      type: "gaussian"
      std: 0.01
    }
    bias_filler {
      type: "constant"
      value: 0
    }
  }
}
layers {
  bottom: "conv4_2"
  top: "conv4_2"
  name: "relu4_2"
  type: RELU
}
layers {
  bottom: "conv4_2"
  top: "conv4_3"
  name: "conv4_3"
  type: CONVOLUTION
  convolution_param {
    num_output: 512
    pad: 1
    kernel_size: 3
    weight_filler {
      type: "gaussian"
      std: 0.01
    }
    bias_filler {
      type: "constant"
      value: 0
    }
  }
}
layers {
  bottom: "conv4_3"
  top: "conv4_3"
  name: "relu4_3"
  type: RELU
}
layers {
  bottom: "conv4_3"
  top: "pool4"
  name: "pool4"
  type: POOLING
  pooling_param {
    pool: MAX
    kernel_size: 2
    stride: 2
  }
}
layers {
  bottom: "pool4"
  top: "conv5_1"
  name: "conv5_1"
  type: CONVOLUTION
  convolution_param {
    num_output: 512
    pad: 1
    kernel_size: 3
    weight_filler {
      type: "gaussian"
      std: 0.01
    }
    bias_filler {
      type: "constant"
      value: 0
    }
  }
}
layers {
  bottom: "conv5_1"
  top: "conv5_1"
  name: "relu5_1"
  type: RELU
}
layers {
  bottom: "conv5_1"
  top: "conv5_2"
  name: "conv5_2"
  type: CONVOLUTION
  convolution_param {
    num_output: 512
    pad: 1
    kernel_size: 3
    weight_filler {
      type: "gaussian"
      std: 0.01
    }
    bias_filler {
      type: "constant"
      value: 0
    }
  }
}
layers {
  bottom: "conv5_2"
  top: "conv5_2"
  name: "relu5_2"
  type: RELU
}
layers {
  bottom: "conv5_2"
  top: "conv5_3"
  name: "conv5_3"
  type: CONVOLUTION
  convolution_param {
    num_output: 512
    pad: 1
    kernel_size: 3
    weight_filler {
      type: "gaussian"
      std: 0.01
    }
    bias_filler {
      type: "constant"
      value: 0
    }
  }
}
layers {
  bottom: "conv5_3"
  top: "conv5_3"
  name: "relu5_3"
  type: RELU
}
layers {
  bottom: "conv5_3"
  top: "pool5"
  name: "pool5"
  type: POOLING
  pooling_param {
    pool: MAX
    kernel_size: 2
    stride: 2
  }
}
layers {
  bottom: "pool5"
  top: "fc6"
  name: "fc6"
  type: INNER_PRODUCT
  inner_product_param {
    num_output: 4096
    weight_filler {
      type: "gaussian"
      std: 0.01
    }
    bias_filler {
      type: "constant"
      value: 0
    }
  }
}
layers {
  bottom: "fc6"
  top: "fc6"
  name: "relu6"
  type: RELU
}
layers {
  bottom: "fc6"
  top: "fc6"
  name: "drop6"
  type: DROPOUT
  dropout_param {
    dropout_ratio: 0.5
  }
}
layers {
  bottom: "fc6"
  top: "fc7"
  name: "fc7"
  type: INNER_PRODUCT
  inner_product_param {
    num_output: 4096
    weight_filler {
      type: "gaussian"
      std: 0.01
    }
    bias_filler {
      type: "constant"
      value: 0
    }
  }
}
layers {
  bottom: "fc7"
  top: "fc7"
  name: "relu7"
  type: RELU
}
layers {
  bottom: "fc7"
  top: "fc7"
  name: "drop7"
  type: DROPOUT
  dropout_param {
    dropout_ratio: 0.5
  }
}
layers {
  bottom: "fc7"
  top: "fc8_2"
  name: "fc8_2"
  type: INNER_PRODUCT
  inner_product_param {
    num_output: 2
    weight_filler {
      type: "gaussian"
      std: 0.01
    }
    bias_filler {
      type: "constant"
      value: 0
    }
  }
}
layers {
  bottom: "fc8_2"
  bottom: "label"
  name: "loss"
  type: SOFTMAX_LOSS
}
state {
  phase: TRAIN
}
I1106 17:13:30.355489  2818 layer_factory.hpp:78] Creating layer data
I1106 17:13:30.355536  2818 net.cpp:67] Creating Layer data
I1106 17:13:30.355556  2818 net.cpp:356] data -> data
I1106 17:13:30.355605  2818 net.cpp:356] data -> label
I1106 17:13:30.355628  2818 net.cpp:96] Setting up data
I1106 17:13:30.355645  2818 image_data_layer.cpp:34] Opening file /data/ad6813/devCaffe/caffe/data/soil_high/train.txt
I1106 17:13:30.380774  2818 image_data_layer.cpp:49] A total of 36734 images.
I1106 17:13:30.397874  2818 image_data_layer.cpp:78] output data size: 32,3,224,224
I1106 17:13:30.400730  2818 net.cpp:103] Top shape: 32 3 224 224 (4816896)
I1106 17:13:30.400774  2818 net.cpp:103] Top shape: 32 1 1 1 (32)
I1106 17:13:30.400779  2818 layer_factory.hpp:78] Creating layer conv1_1
I1106 17:13:30.400794  2818 net.cpp:67] Creating Layer conv1_1
I1106 17:13:30.400799  2818 net.cpp:394] conv1_1 <- data
I1106 17:13:30.400812  2818 net.cpp:356] conv1_1 -> conv1_1
I1106 17:13:30.400823  2818 net.cpp:96] Setting up conv1_1
I1106 17:13:30.414116  2818 net.cpp:103] Top shape: 32 64 224 224 (102760448)
I1106 17:13:30.414155  2818 layer_factory.hpp:78] Creating layer relu1_1
I1106 17:13:30.414170  2818 net.cpp:67] Creating Layer relu1_1
I1106 17:13:30.414175  2818 net.cpp:394] relu1_1 <- conv1_1
I1106 17:13:30.414183  2818 net.cpp:345] relu1_1 -> conv1_1 (in-place)
I1106 17:13:30.414193  2818 net.cpp:96] Setting up relu1_1
I1106 17:13:30.414203  2818 net.cpp:103] Top shape: 32 64 224 224 (102760448)
I1106 17:13:30.414207  2818 layer_factory.hpp:78] Creating layer conv1_2
I1106 17:13:30.414214  2818 net.cpp:67] Creating Layer conv1_2
I1106 17:13:30.414218  2818 net.cpp:394] conv1_2 <- conv1_1
I1106 17:13:30.414227  2818 net.cpp:356] conv1_2 -> conv1_2
I1106 17:13:30.414234  2818 net.cpp:96] Setting up conv1_2
I1106 17:13:30.415519  2818 net.cpp:103] Top shape: 32 64 224 224 (102760448)
I1106 17:13:30.415537  2818 layer_factory.hpp:78] Creating layer relu1_2
I1106 17:13:30.415544  2818 net.cpp:67] Creating Layer relu1_2
I1106 17:13:30.415549  2818 net.cpp:394] relu1_2 <- conv1_2
I1106 17:13:30.415554  2818 net.cpp:345] relu1_2 -> conv1_2 (in-place)
I1106 17:13:30.415560  2818 net.cpp:96] Setting up relu1_2
I1106 17:13:30.415566  2818 net.cpp:103] Top shape: 32 64 224 224 (102760448)
I1106 17:13:30.415570  2818 layer_factory.hpp:78] Creating layer pool1
I1106 17:13:30.415577  2818 net.cpp:67] Creating Layer pool1
I1106 17:13:30.415581  2818 net.cpp:394] pool1 <- conv1_2
I1106 17:13:30.415590  2818 net.cpp:356] pool1 -> pool1
I1106 17:13:30.415596  2818 net.cpp:96] Setting up pool1
I1106 17:13:30.415616  2818 net.cpp:103] Top shape: 32 64 112 112 (25690112)
I1106 17:13:30.415622  2818 layer_factory.hpp:78] Creating layer conv2_1
I1106 17:13:30.415632  2818 net.cpp:67] Creating Layer conv2_1
I1106 17:13:30.415637  2818 net.cpp:394] conv2_1 <- pool1
I1106 17:13:30.415642  2818 net.cpp:356] conv2_1 -> conv2_1
I1106 17:13:30.415648  2818 net.cpp:96] Setting up conv2_1
I1106 17:13:30.418010  2818 net.cpp:103] Top shape: 32 128 112 112 (51380224)
I1106 17:13:30.418027  2818 layer_factory.hpp:78] Creating layer relu2_1
I1106 17:13:30.418035  2818 net.cpp:67] Creating Layer relu2_1
I1106 17:13:30.418038  2818 net.cpp:394] relu2_1 <- conv2_1
I1106 17:13:30.418043  2818 net.cpp:345] relu2_1 -> conv2_1 (in-place)
I1106 17:13:30.418050  2818 net.cpp:96] Setting up relu2_1
I1106 17:13:30.418056  2818 net.cpp:103] Top shape: 32 128 112 112 (51380224)
I1106 17:13:30.418059  2818 layer_factory.hpp:78] Creating layer conv2_2
I1106 17:13:30.418066  2818 net.cpp:67] Creating Layer conv2_2
I1106 17:13:30.418071  2818 net.cpp:394] conv2_2 <- conv2_1
I1106 17:13:30.418077  2818 net.cpp:356] conv2_2 -> conv2_2
I1106 17:13:30.418084  2818 net.cpp:96] Setting up conv2_2
I1106 17:13:30.422041  2818 net.cpp:103] Top shape: 32 128 112 112 (51380224)
I1106 17:13:30.422055  2818 layer_factory.hpp:78] Creating layer relu2_2
I1106 17:13:30.422060  2818 net.cpp:67] Creating Layer relu2_2
I1106 17:13:30.422065  2818 net.cpp:394] relu2_2 <- conv2_2
I1106 17:13:30.422068  2818 net.cpp:345] relu2_2 -> conv2_2 (in-place)
I1106 17:13:30.422073  2818 net.cpp:96] Setting up relu2_2
I1106 17:13:30.422078  2818 net.cpp:103] Top shape: 32 128 112 112 (51380224)
I1106 17:13:30.422088  2818 layer_factory.hpp:78] Creating layer pool2
I1106 17:13:30.422093  2818 net.cpp:67] Creating Layer pool2
I1106 17:13:30.422096  2818 net.cpp:394] pool2 <- conv2_2
I1106 17:13:30.422102  2818 net.cpp:356] pool2 -> pool2
I1106 17:13:30.422107  2818 net.cpp:96] Setting up pool2
I1106 17:13:30.422113  2818 net.cpp:103] Top shape: 32 128 56 56 (12845056)
I1106 17:13:30.422117  2818 layer_factory.hpp:78] Creating layer conv3_1
I1106 17:13:30.422123  2818 net.cpp:67] Creating Layer conv3_1
I1106 17:13:30.422127  2818 net.cpp:394] conv3_1 <- pool2
I1106 17:13:30.422132  2818 net.cpp:356] conv3_1 -> conv3_1
I1106 17:13:30.422137  2818 net.cpp:96] Setting up conv3_1
I1106 17:13:30.429349  2818 net.cpp:103] Top shape: 32 256 56 56 (25690112)
I1106 17:13:30.429361  2818 layer_factory.hpp:78] Creating layer relu3_1
I1106 17:13:30.429381  2818 net.cpp:67] Creating Layer relu3_1
I1106 17:13:30.429384  2818 net.cpp:394] relu3_1 <- conv3_1
I1106 17:13:30.429389  2818 net.cpp:345] relu3_1 -> conv3_1 (in-place)
I1106 17:13:30.429394  2818 net.cpp:96] Setting up relu3_1
I1106 17:13:30.429399  2818 net.cpp:103] Top shape: 32 256 56 56 (25690112)
I1106 17:13:30.429402  2818 layer_factory.hpp:78] Creating layer conv3_2
I1106 17:13:30.429407  2818 net.cpp:67] Creating Layer conv3_2
I1106 17:13:30.429410  2818 net.cpp:394] conv3_2 <- conv3_1
I1106 17:13:30.429416  2818 net.cpp:356] conv3_2 -> conv3_2
I1106 17:13:30.429421  2818 net.cpp:96] Setting up conv3_2
I1106 17:13:30.444152  2818 net.cpp:103] Top shape: 32 256 56 56 (25690112)
I1106 17:13:30.444171  2818 layer_factory.hpp:78] Creating layer relu3_2
I1106 17:13:30.444180  2818 net.cpp:67] Creating Layer relu3_2
I1106 17:13:30.444183  2818 net.cpp:394] relu3_2 <- conv3_2
I1106 17:13:30.444190  2818 net.cpp:345] relu3_2 -> conv3_2 (in-place)
I1106 17:13:30.444195  2818 net.cpp:96] Setting up relu3_2
I1106 17:13:30.444200  2818 net.cpp:103] Top shape: 32 256 56 56 (25690112)
I1106 17:13:30.444203  2818 layer_factory.hpp:78] Creating layer conv3_3
I1106 17:13:30.444210  2818 net.cpp:67] Creating Layer conv3_3
I1106 17:13:30.444212  2818 net.cpp:394] conv3_3 <- conv3_2
I1106 17:13:30.444217  2818 net.cpp:356] conv3_3 -> conv3_3
I1106 17:13:30.444222  2818 net.cpp:96] Setting up conv3_3
I1106 17:13:30.459039  2818 net.cpp:103] Top shape: 32 256 56 56 (25690112)
I1106 17:13:30.459063  2818 layer_factory.hpp:78] Creating layer relu3_3
I1106 17:13:30.459074  2818 net.cpp:67] Creating Layer relu3_3
I1106 17:13:30.459079  2818 net.cpp:394] relu3_3 <- conv3_3
I1106 17:13:30.459085  2818 net.cpp:345] relu3_3 -> conv3_3 (in-place)
I1106 17:13:30.459091  2818 net.cpp:96] Setting up relu3_3
I1106 17:13:30.459097  2818 net.cpp:103] Top shape: 32 256 56 56 (25690112)
I1106 17:13:30.459100  2818 layer_factory.hpp:78] Creating layer pool3
I1106 17:13:30.459106  2818 net.cpp:67] Creating Layer pool3
I1106 17:13:30.459110  2818 net.cpp:394] pool3 <- conv3_3
I1106 17:13:30.459115  2818 net.cpp:356] pool3 -> pool3
I1106 17:13:30.459120  2818 net.cpp:96] Setting up pool3
I1106 17:13:30.459126  2818 net.cpp:103] Top shape: 32 256 28 28 (6422528)
I1106 17:13:30.459131  2818 layer_factory.hpp:78] Creating layer conv4_1
I1106 17:13:30.459136  2818 net.cpp:67] Creating Layer conv4_1
I1106 17:13:30.459139  2818 net.cpp:394] conv4_1 <- pool3
I1106 17:13:30.459146  2818 net.cpp:356] conv4_1 -> conv4_1
I1106 17:13:30.459151  2818 net.cpp:96] Setting up conv4_1
I1106 17:13:30.487906  2818 net.cpp:103] Top shape: 32 512 28 28 (12845056)
I1106 17:13:30.487929  2818 layer_factory.hpp:78] Creating layer relu4_1
I1106 17:13:30.487936  2818 net.cpp:67] Creating Layer relu4_1
I1106 17:13:30.487941  2818 net.cpp:394] relu4_1 <- conv4_1
I1106 17:13:30.487947  2818 net.cpp:345] relu4_1 -> conv4_1 (in-place)
I1106 17:13:30.487953  2818 net.cpp:96] Setting up relu4_1
I1106 17:13:30.487959  2818 net.cpp:103] Top shape: 32 512 28 28 (12845056)
I1106 17:13:30.487962  2818 layer_factory.hpp:78] Creating layer conv4_2
I1106 17:13:30.487970  2818 net.cpp:67] Creating Layer conv4_2
I1106 17:13:30.487973  2818 net.cpp:394] conv4_2 <- conv4_1
I1106 17:13:30.487987  2818 net.cpp:356] conv4_2 -> conv4_2
I1106 17:13:30.487993  2818 net.cpp:96] Setting up conv4_2
I1106 17:13:30.544432  2818 net.cpp:103] Top shape: 32 512 28 28 (12845056)
I1106 17:13:30.544471  2818 layer_factory.hpp:78] Creating layer relu4_2
I1106 17:13:30.544483  2818 net.cpp:67] Creating Layer relu4_2
I1106 17:13:30.544487  2818 net.cpp:394] relu4_2 <- conv4_2
I1106 17:13:30.544494  2818 net.cpp:345] relu4_2 -> conv4_2 (in-place)
I1106 17:13:30.544502  2818 net.cpp:96] Setting up relu4_2
I1106 17:13:30.544507  2818 net.cpp:103] Top shape: 32 512 28 28 (12845056)
I1106 17:13:30.544512  2818 layer_factory.hpp:78] Creating layer conv4_3
I1106 17:13:30.544518  2818 net.cpp:67] Creating Layer conv4_3
I1106 17:13:30.544522  2818 net.cpp:394] conv4_3 <- conv4_2
I1106 17:13:30.544528  2818 net.cpp:356] conv4_3 -> conv4_3
I1106 17:13:30.544533  2818 net.cpp:96] Setting up conv4_3
I1106 17:13:30.601814  2818 net.cpp:103] Top shape: 32 512 28 28 (12845056)
I1106 17:13:30.601847  2818 layer_factory.hpp:78] Creating layer relu4_3
I1106 17:13:30.601856  2818 net.cpp:67] Creating Layer relu4_3
I1106 17:13:30.601861  2818 net.cpp:394] relu4_3 <- conv4_3
I1106 17:13:30.601868  2818 net.cpp:345] relu4_3 -> conv4_3 (in-place)
I1106 17:13:30.601876  2818 net.cpp:96] Setting up relu4_3
I1106 17:13:30.601881  2818 net.cpp:103] Top shape: 32 512 28 28 (12845056)
I1106 17:13:30.601884  2818 layer_factory.hpp:78] Creating layer pool4
I1106 17:13:30.601891  2818 net.cpp:67] Creating Layer pool4
I1106 17:13:30.601893  2818 net.cpp:394] pool4 <- conv4_3
I1106 17:13:30.601898  2818 net.cpp:356] pool4 -> pool4
I1106 17:13:30.601903  2818 net.cpp:96] Setting up pool4
I1106 17:13:30.601910  2818 net.cpp:103] Top shape: 32 512 14 14 (3211264)
I1106 17:13:30.601913  2818 layer_factory.hpp:78] Creating layer conv5_1
I1106 17:13:30.601920  2818 net.cpp:67] Creating Layer conv5_1
I1106 17:13:30.601924  2818 net.cpp:394] conv5_1 <- pool4
I1106 17:13:30.601928  2818 net.cpp:356] conv5_1 -> conv5_1
I1106 17:13:30.601938  2818 net.cpp:96] Setting up conv5_1
I1106 17:13:30.659404  2818 net.cpp:103] Top shape: 32 512 14 14 (3211264)
I1106 17:13:30.659426  2818 layer_factory.hpp:78] Creating layer relu5_1
I1106 17:13:30.659435  2818 net.cpp:67] Creating Layer relu5_1
I1106 17:13:30.659440  2818 net.cpp:394] relu5_1 <- conv5_1
I1106 17:13:30.659446  2818 net.cpp:345] relu5_1 -> conv5_1 (in-place)
I1106 17:13:30.659453  2818 net.cpp:96] Setting up relu5_1
I1106 17:13:30.659458  2818 net.cpp:103] Top shape: 32 512 14 14 (3211264)
I1106 17:13:30.659461  2818 layer_factory.hpp:78] Creating layer conv5_2
I1106 17:13:30.659469  2818 net.cpp:67] Creating Layer conv5_2
I1106 17:13:30.659472  2818 net.cpp:394] conv5_2 <- conv5_1
I1106 17:13:30.659478  2818 net.cpp:356] conv5_2 -> conv5_2
I1106 17:13:30.659485  2818 net.cpp:96] Setting up conv5_2
I1106 17:13:30.716368  2818 net.cpp:103] Top shape: 32 512 14 14 (3211264)
I1106 17:13:30.716390  2818 layer_factory.hpp:78] Creating layer relu5_2
I1106 17:13:30.716399  2818 net.cpp:67] Creating Layer relu5_2
I1106 17:13:30.716404  2818 net.cpp:394] relu5_2 <- conv5_2
I1106 17:13:30.716410  2818 net.cpp:345] relu5_2 -> conv5_2 (in-place)
I1106 17:13:30.716418  2818 net.cpp:96] Setting up relu5_2
I1106 17:13:30.716423  2818 net.cpp:103] Top shape: 32 512 14 14 (3211264)
I1106 17:13:30.716426  2818 layer_factory.hpp:78] Creating layer conv5_3
I1106 17:13:30.716434  2818 net.cpp:67] Creating Layer conv5_3
I1106 17:13:30.716438  2818 net.cpp:394] conv5_3 <- conv5_2
I1106 17:13:30.716442  2818 net.cpp:356] conv5_3 -> conv5_3
I1106 17:13:30.716449  2818 net.cpp:96] Setting up conv5_3
I1106 17:13:30.774130  2818 net.cpp:103] Top shape: 32 512 14 14 (3211264)
I1106 17:13:30.774152  2818 layer_factory.hpp:78] Creating layer relu5_3
I1106 17:13:30.774162  2818 net.cpp:67] Creating Layer relu5_3
I1106 17:13:30.774165  2818 net.cpp:394] relu5_3 <- conv5_3
I1106 17:13:30.774173  2818 net.cpp:345] relu5_3 -> conv5_3 (in-place)
I1106 17:13:30.774179  2818 net.cpp:96] Setting up relu5_3
I1106 17:13:30.774194  2818 net.cpp:103] Top shape: 32 512 14 14 (3211264)
I1106 17:13:30.774197  2818 layer_factory.hpp:78] Creating layer pool5
I1106 17:13:30.774204  2818 net.cpp:67] Creating Layer pool5
I1106 17:13:30.774209  2818 net.cpp:394] pool5 <- conv5_3
I1106 17:13:30.774214  2818 net.cpp:356] pool5 -> pool5
I1106 17:13:30.774219  2818 net.cpp:96] Setting up pool5
I1106 17:13:30.774227  2818 net.cpp:103] Top shape: 32 512 7 7 (802816)
I1106 17:13:30.774230  2818 layer_factory.hpp:78] Creating layer fc6
I1106 17:13:30.774245  2818 net.cpp:67] Creating Layer fc6
I1106 17:13:30.774253  2818 net.cpp:394] fc6 <- pool5
I1106 17:13:30.774260  2818 net.cpp:356] fc6 -> fc6
I1106 17:13:30.774266  2818 net.cpp:96] Setting up fc6
I1106 17:13:33.201347  2818 net.cpp:103] Top shape: 32 4096 1 1 (131072)
I1106 17:13:33.201375  2818 layer_factory.hpp:78] Creating layer relu6
I1106 17:13:33.201383  2818 net.cpp:67] Creating Layer relu6
I1106 17:13:33.201388  2818 net.cpp:394] relu6 <- fc6
I1106 17:13:33.201396  2818 net.cpp:345] relu6 -> fc6 (in-place)
I1106 17:13:33.201403  2818 net.cpp:96] Setting up relu6
I1106 17:13:33.201417  2818 net.cpp:103] Top shape: 32 4096 1 1 (131072)
I1106 17:13:33.201421  2818 layer_factory.hpp:78] Creating layer drop6
I1106 17:13:33.201431  2818 net.cpp:67] Creating Layer drop6
I1106 17:13:33.201433  2818 net.cpp:394] drop6 <- fc6
I1106 17:13:33.201437  2818 net.cpp:345] drop6 -> fc6 (in-place)
I1106 17:13:33.201442  2818 net.cpp:96] Setting up drop6
I1106 17:13:33.201447  2818 net.cpp:103] Top shape: 32 4096 1 1 (131072)
I1106 17:13:33.201450  2818 layer_factory.hpp:78] Creating layer fc7
I1106 17:13:33.201457  2818 net.cpp:67] Creating Layer fc7
I1106 17:13:33.201460  2818 net.cpp:394] fc7 <- fc6
I1106 17:13:33.201465  2818 net.cpp:356] fc7 -> fc7
I1106 17:13:33.201472  2818 net.cpp:96] Setting up fc7
I1106 17:13:33.609819  2818 net.cpp:103] Top shape: 32 4096 1 1 (131072)
I1106 17:13:33.609849  2818 layer_factory.hpp:78] Creating layer relu7
I1106 17:13:33.609858  2818 net.cpp:67] Creating Layer relu7
I1106 17:13:33.609863  2818 net.cpp:394] relu7 <- fc7
I1106 17:13:33.609869  2818 net.cpp:345] relu7 -> fc7 (in-place)
I1106 17:13:33.609875  2818 net.cpp:96] Setting up relu7
I1106 17:13:33.609889  2818 net.cpp:103] Top shape: 32 4096 1 1 (131072)
I1106 17:13:33.609894  2818 layer_factory.hpp:78] Creating layer drop7
I1106 17:13:33.609897  2818 net.cpp:67] Creating Layer drop7
I1106 17:13:33.609900  2818 net.cpp:394] drop7 <- fc7
I1106 17:13:33.609906  2818 net.cpp:345] drop7 -> fc7 (in-place)
I1106 17:13:33.609911  2818 net.cpp:96] Setting up drop7
I1106 17:13:33.609915  2818 net.cpp:103] Top shape: 32 4096 1 1 (131072)
I1106 17:13:33.609917  2818 layer_factory.hpp:78] Creating layer fc8_2
I1106 17:13:33.609923  2818 net.cpp:67] Creating Layer fc8_2
I1106 17:13:33.609926  2818 net.cpp:394] fc8_2 <- fc7
I1106 17:13:33.609932  2818 net.cpp:356] fc8_2 -> fc8_2
I1106 17:13:33.609938  2818 net.cpp:96] Setting up fc8_2
I1106 17:13:33.610152  2818 net.cpp:103] Top shape: 32 2 1 1 (64)
I1106 17:13:33.610160  2818 layer_factory.hpp:78] Creating layer loss
I1106 17:13:33.610170  2818 net.cpp:67] Creating Layer loss
I1106 17:13:33.610175  2818 net.cpp:394] loss <- fc8_2
I1106 17:13:33.610179  2818 net.cpp:394] loss <- label
I1106 17:13:33.610188  2818 net.cpp:356] loss -> (automatic)
I1106 17:13:33.610191  2818 net.cpp:96] Setting up loss
I1106 17:13:33.610199  2818 net.cpp:103] Top shape: 1 1 1 1 (1)
I1106 17:13:33.610204  2818 net.cpp:109]     with loss weight 1
I1106 17:13:33.610234  2818 net.cpp:170] loss needs backward computation.
I1106 17:13:33.610239  2818 net.cpp:170] fc8_2 needs backward computation.
I1106 17:13:33.610241  2818 net.cpp:170] drop7 needs backward computation.
I1106 17:13:33.610244  2818 net.cpp:170] relu7 needs backward computation.
I1106 17:13:33.610246  2818 net.cpp:170] fc7 needs backward computation.
…
I1106 17:13:33.611206  2818 net.cpp:275] The NetState phase (1) differed from the phase (0) specified by a rule in layer data
I1106 17:13:33.611407  2818 net.cpp:39] Initializing net from parameters: 
name: "small"
layers {
  top: "data"
  top: "label"
  name: "data"
  type: IMAGE_DATA
  image_data_param {
    source: "/data/ad6813/devCaffe/caffe/data/soil_high/val.txt"
    batch_size: 8
    new_height: 256
    new_width: 256
  }
  include {
    phase: TEST
  }
  transform_param {
    mirror: true
    crop_size: 224
    mean_value: 86.752
    mean_value: 101.46
    mean_value: 104.6
  }
}
layers {
  bottom: "data"
  top: "conv1_1"
  name: "conv1_1"
  type: CONVOLUTION
  convolution_param {
    num_output: 64
    pad: 1
    kernel_size: 3
    weight_filler {
      type: "gaussian"
      std: 0.01
    }
    bias_filler {
      type: "constant"
      value: 0
    }
  }
}
layers {
  bottom: "conv1_1"
  top: "conv1_1"
  name: "relu1_1"
  type: RELU
}
layers {
  bottom: "conv1_1"
  top: "conv1_2"
  name: "conv1_2"
  type: CONVOLUTION
  convolution_param {
    num_output: 64
    pad: 1
    kernel_size: 3
    weight_filler {
      type: "gaussian"
      std: 0.01
    }
    bias_filler {
      type: "constant"
      value: 0
    }
  }
}
layers {
  bottom: "conv1_2"
  top: "conv1_2"
  name: "relu1_2"
  type: RELU
}
layers {
  bottom: "conv1_2"
  top: "pool1"
  name: "pool1"
  type: POOLING
  pooling_param {
    pool: MAX
    kernel_size: 2
    stride: 2
  }
}
layers {
  bottom: "pool1"
  top: "conv2_1"
  name: "conv2_1"
  type: CONVOLUTION
  convolution_param {
    num_output: 128
    pad: 1
    kernel_size: 3
    weight_filler {
      type: "gaussian"
      std: 0.01
    }
    bias_filler {
      type: "constant"
      value: 0
    }
  }
}
layers {
  bottom: "conv2_1"
  top: "conv2_1"
  name: "relu2_1"
  type: RELU
}
layers {
  bottom: "conv2_1"
  top: "conv2_2"
  name: "conv2_2"
  type: CONVOLUTION
  convolution_param {
    num_output: 128
    pad: 1
    kernel_size: 3
    weight_filler {
      type: "gaussian"
      std: 0.01
    }
    bias_filler {
      type: "constant"
      value: 0
    }
  }
}
layers {
  bottom: "conv2_2"
  top: "conv2_2"
  name: "relu2_2"
  type: RELU
}
layers {
  bottom: "conv2_2"
  top: "pool2"
  name: "pool2"
  type: POOLING
  pooling_param {
    pool: MAX
    kernel_size: 2
    stride: 2
  }
}
layers {
  bottom: "pool2"
  top: "conv3_1"
  name: "conv3_1"
  type: CONVOLUTION
  convolution_param {
    num_output: 256
    pad: 1
    kernel_size: 3
    weight_filler {
      type: "gaussian"
      std: 0.01
    }
    bias_filler {
      type: "constant"
      value: 0
    }
  }
}
layers {
  bottom: "conv3_1"
  top: "conv3_1"
  name: "relu3_1"
  type: RELU
}
layers {
  bottom: "conv3_1"
  top: "conv3_2"
  name: "conv3_2"
  type: CONVOLUTION
  convolution_param {
    num_output: 256
    pad: 1
    kernel_size: 3
    weight_filler {
      type: "gaussian"
      std: 0.01
    }
    bias_filler {
      type: "constant"
      value: 0
    }
  }
}
layers {
  bottom: "conv3_2"
  top: "conv3_2"
  name: "relu3_2"
  type: RELU
}
layers {
  bottom: "conv3_2"
  top: "conv3_3"
  name: "conv3_3"
  type: CONVOLUTION
  convolution_param {
    num_output: 256
    pad: 1
    kernel_size: 3
    weight_filler {
      type: "gaussian"
      std: 0.01
    }
    bias_filler {
      type: "constant"
      value: 0
    }
  }
}
layers {
  bottom: "conv3_3"
  top: "conv3_3"
  name: "relu3_3"
  type: RELU
}
layers {
  bottom: "conv3_3"
  top: "pool3"
  name: "pool3"
  type: POOLING
  pooling_param {
    pool: MAX
    kernel_size: 2
    stride: 2
  }
}
layers {
  bottom: "pool3"
  top: "conv4_1"
  name: "conv4_1"
  type: CONVOLUTION
  convolution_param {
    num_output: 512
    pad: 1
    kernel_size: 3
    weight_filler {
      type: "gaussian"
      std: 0.01
    }
    bias_filler {
      type: "constant"
      value: 0
    }
  }
}
layers {
  bottom: "conv4_1"
  top: "conv4_1"
  name: "relu4_1"
  type: RELU
}
layers {
  bottom: "conv4_1"
  top: "conv4_2"
  name: "conv4_2"
  type: CONVOLUTION
  convolution_param {
    num_output: 512
    pad: 1
    kernel_size: 3
    weight_filler {
      type: "gaussian"
      std: 0.01
    }
    bias_filler {
      type: "constant"
      value: 0
    }
  }
}
layers {
  bottom: "conv4_2"
  top: "conv4_2"
  name: "relu4_2"
  type: RELU
}
layers {
  bottom: "conv4_2"
  top: "conv4_3"
  name: "conv4_3"
  type: CONVOLUTION
  convolution_param {
    num_output: 512
    pad: 1
    kernel_size: 3
    weight_filler {
      type: "gaussian"
      std: 0.01
    }
    bias_filler {
      type: "constant"
      value: 0
    }
  }
}
layers {
  bottom: "conv4_3"
  top: "conv4_3"
  name: "relu4_3"
  type: RELU
}
layers {
  bottom: "conv4_3"
  top: "pool4"
  name: "pool4"
  type: POOLING
  pooling_param {
    pool: MAX
    kernel_size: 2
    stride: 2
  }
}
layers {
  bottom: "pool4"
  top: "conv5_1"
  name: "conv5_1"
  type: CONVOLUTION
  convolution_param {
    num_output: 512
    pad: 1
    kernel_size: 3
    weight_filler {
      type: "gaussian"
      std: 0.01
    }
    bias_filler {
      type: "constant"
      value: 0
    }
  }
}
layers {
  bottom: "conv5_1"
  top: "conv5_1"
  name: "relu5_1"
  type: RELU
}
layers {
  bottom: "conv5_1"
  top: "conv5_2"
  name: "conv5_2"
  type: CONVOLUTION
  convolution_param {
    num_output: 512
    pad: 1
    kernel_size: 3
    weight_filler {
      type: "gaussian"
      std: 0.01
    }
    bias_filler {
      type: "constant"
      value: 0
    }
  }
}
layers {
  bottom: "conv5_2"
  top: "conv5_2"
  name: "relu5_2"
  type: RELU
}
layers {
  bottom: "conv5_2"
  top: "conv5_3"
  name: "conv5_3"
  type: CONVOLUTION
  convolution_param {
    num_output: 512
    pad: 1
    kernel_size: 3
    weight_filler {
      type: "gaussian"
      std: 0.01
    }
    bias_filler {
      type: "constant"
      value: 0
    }
  }
}
layers {
  bottom: "conv5_3"
  top: "conv5_3"
  name: "relu5_3"
  type: RELU
}
layers {
  bottom: "conv5_3"
  top: "pool5"
  name: "pool5"
  type: POOLING
  pooling_param {
    pool: MAX
    kernel_size: 2
    stride: 2
  }
}
layers {
  bottom: "pool5"
  top: "fc6"
  name: "fc6"
  type: INNER_PRODUCT
  inner_product_param {
    num_output: 4096
    weight_filler {
      type: "gaussian"
      std: 0.01
    }
    bias_filler {
      type: "constant"
      value: 0
    }
  }
}
layers {
  bottom: "fc6"
  top: "fc6"
  name: "relu6"
  type: RELU
}
layers {
  bottom: "fc6"
  top: "fc6"
  name: "drop6"
  type: DROPOUT
  dropout_param {
    dropout_ratio: 0.5
  }
}
layers {
  bottom: "fc6"
  top: "fc7"
  name: "fc7"
  type: INNER_PRODUCT
  inner_product_param {
    num_output: 4096
    weight_filler {
      type: "gaussian"
      std: 0.01
    }
    bias_filler {
      type: "constant"
      value: 0
    }
  }
}
layers {
  bottom: "fc7"
  top: "fc7"
  name: "relu7"
  type: RELU
}
layers {
  bottom: "fc7"
  top: "fc7"
  name: "drop7"
  type: DROPOUT
  dropout_param {
    dropout_ratio: 0.5
  }
}
layers {
  bottom: "fc7"
  top: "fc8_2"
  name: "fc8_2"
  type: INNER_PRODUCT
  inner_product_param {
    num_output: 2
    weight_filler {
      type: "gaussian"
      std: 0.01
    }
    bias_filler {
      type: "constant"
      value: 0
    }
  }
}
layers {
  bottom: "fc8_2"
  bottom: "label"
  name: "loss"
  type: SOFTMAX_LOSS
}
layers {
  bottom: "fc8_2"
  bottom: "label"
  top: "accuracy"
  name: "accuracy"
  type: PER_CLASS_ACCURACY
  include {
    phase: TEST
  }
}
state {
  phase: TEST
}
I1106 17:13:33.611544  2818 layer_factory.hpp:78] Creating layer data
I1106 17:13:33.611553  2818 net.cpp:67] Creating Layer data
I1106 17:13:33.611558  2818 net.cpp:356] data -> data
I1106 17:13:33.611565  2818 net.cpp:356] data -> label
I1106 17:13:33.611572  2818 net.cpp:96] Setting up data
I1106 17:13:33.611575  2818 image_data_layer.cpp:34] Opening file /data/ad6813/devCaffe/caffe/data/soil_high/val.txt
I1106 17:13:33.611793  2818 image_data_layer.cpp:49] A total of 496 images.
I1106 17:13:33.618095  2818 image_data_layer.cpp:78] output data size: 8,3,224,224
I1106 17:13:33.618737  2818 net.cpp:103] Top shape: 8 3 224 224 (1204224)
I1106 17:13:33.618746  2818 net.cpp:103] Top shape: 8 1 1 1 (8)
I1106 17:13:33.618749  2818 layer_factory.hpp:78] Creating layer label_data_1_split
I1106 17:13:33.618757  2818 net.cpp:67] Creating Layer label_data_1_split
I1106 17:13:33.618762  2818 net.cpp:394] label_data_1_split <- label
I1106 17:13:33.618767  2818 net.cpp:356] label_data_1_split -> label_data_1_split_0
I1106 17:13:33.618773  2818 net.cpp:356] label_data_1_split -> label_data_1_split_1
I1106 17:13:33.618778  2818 net.cpp:96] Setting up label_data_1_split
I1106 17:13:33.618784  2818 net.cpp:103] Top shape: 8 1 1 1 (8)
I1106 17:13:33.618788  2818 net.cpp:103] Top shape: 8 1 1 1 (8)
I1106 17:13:33.618790  2818 layer_factory.hpp:78] Creating layer conv1_1
I1106 17:13:33.618795  2818 net.cpp:67] Creating Layer conv1_1
I1106 17:13:33.618799  2818 net.cpp:394] conv1_1 <- data
I1106 17:13:33.618804  2818 net.cpp:356] conv1_1 -> conv1_1
I1106 17:13:33.618810  2818 net.cpp:96] Setting up conv1_1
I1106 17:13:33.619007  2818 net.cpp:103] Top shape: 8 64 224 224 (25690112)
I1106 17:13:33.619022  2818 layer_factory.hpp:78] Creating layer relu1_1
I1106 17:13:33.619029  2818 net.cpp:67] Creating Layer relu1_1
I1106 17:13:33.619032  2818 net.cpp:394] relu1_1 <- conv1_1
I1106 17:13:33.619036  2818 net.cpp:345] relu1_1 -> conv1_1 (in-place)
I1106 17:13:33.619047  2818 net.cpp:96] Setting up relu1_1
I1106 17:13:33.619052  2818 net.cpp:103] Top shape: 8 64 224 224 (25690112)
I1106 17:13:33.619056  2818 layer_factory.hpp:78] Creating layer conv1_2
I1106 17:13:33.619062  2818 net.cpp:67] Creating Layer conv1_2
I1106 17:13:33.619070  2818 net.cpp:394] conv1_2 <- conv1_1
I1106 17:13:33.619074  2818 net.cpp:356] conv1_2 -> conv1_2
I1106 17:13:33.619081  2818 net.cpp:96] Setting up conv1_2
I1106 17:13:33.620138  2818 net.cpp:103] Top shape: 8 64 224 224 (25690112)
I1106 17:13:33.620151  2818 layer_factory.hpp:78] Creating layer relu1_2
I1106 17:13:33.620157  2818 net.cpp:67] Creating Layer relu1_2
I1106 17:13:33.620159  2818 net.cpp:394] relu1_2 <- conv1_2
I1106 17:13:33.620165  2818 net.cpp:345] relu1_2 -> conv1_2 (in-place)
I1106 17:13:33.620170  2818 net.cpp:96] Setting up relu1_2
I1106 17:13:33.620175  2818 net.cpp:103] Top shape: 8 64 224 224 (25690112)
I1106 17:13:33.620178  2818 layer_factory.hpp:78] Creating layer pool1
I1106 17:13:33.620183  2818 net.cpp:67] Creating Layer pool1
I1106 17:13:33.620187  2818 net.cpp:394] pool1 <- conv1_2
I1106 17:13:33.620190  2818 net.cpp:356] pool1 -> pool1
I1106 17:13:33.620195  2818 net.cpp:96] Setting up pool1
I1106 17:13:33.620203  2818 net.cpp:103] Top shape: 8 64 112 112 (6422528)
I1106 17:13:33.620205  2818 layer_factory.hpp:78] Creating layer conv2_1
I1106 17:13:33.620214  2818 net.cpp:67] Creating Layer conv2_1
I1106 17:13:33.620218  2818 net.cpp:394] conv2_1 <- pool1
I1106 17:13:33.620223  2818 net.cpp:356] conv2_1 -> conv2_1
I1106 17:13:33.620229  2818 net.cpp:96] Setting up conv2_1
I1106 17:13:33.622274  2818 net.cpp:103] Top shape: 8 128 112 112 (12845056)
I1106 17:13:33.622289  2818 layer_factory.hpp:78] Creating layer relu2_1
I1106 17:13:33.622295  2818 net.cpp:67] Creating Layer relu2_1
I1106 17:13:33.622299  2818 net.cpp:394] relu2_1 <- conv2_1
I1106 17:13:33.622304  2818 net.cpp:345] relu2_1 -> conv2_1 (in-place)
I1106 17:13:33.622309  2818 net.cpp:96] Setting up relu2_1
I1106 17:13:33.622314  2818 net.cpp:103] Top shape: 8 128 112 112 (12845056)
I1106 17:13:33.622318  2818 layer_factory.hpp:78] Creating layer conv2_2
I1106 17:13:33.622323  2818 net.cpp:67] Creating Layer conv2_2
I1106 17:13:33.622325  2818 net.cpp:394] conv2_2 <- conv2_1
I1106 17:13:33.622331  2818 net.cpp:356] conv2_2 -> conv2_2
I1106 17:13:33.622337  2818 net.cpp:96] Setting up conv2_2
I1106 17:13:33.626093  2818 net.cpp:103] Top shape: 8 128 112 112 (12845056)
I1106 17:13:33.626106  2818 layer_factory.hpp:78] Creating layer relu2_2
I1106 17:13:33.626111  2818 net.cpp:67] Creating Layer relu2_2
I1106 17:13:33.626114  2818 net.cpp:394] relu2_2 <- conv2_2
I1106 17:13:33.626119  2818 net.cpp:345] relu2_2 -> conv2_2 (in-place)
I1106 17:13:33.626124  2818 net.cpp:96] Setting up relu2_2
I1106 17:13:33.626129  2818 net.cpp:103] Top shape: 8 128 112 112 (12845056)
I1106 17:13:33.626132  2818 layer_factory.hpp:78] Creating layer pool2
I1106 17:13:33.626137  2818 net.cpp:67] Creating Layer pool2
I1106 17:13:33.626140  2818 net.cpp:394] pool2 <- conv2_2
I1106 17:13:33.626147  2818 net.cpp:356] pool2 -> pool2
I1106 17:13:33.626152  2818 net.cpp:96] Setting up pool2
I1106 17:13:33.626157  2818 net.cpp:103] Top shape: 8 128 56 56 (3211264)
I1106 17:13:33.626160  2818 layer_factory.hpp:78] Creating layer conv3_1
I1106 17:13:33.626166  2818 net.cpp:67] Creating Layer conv3_1
I1106 17:13:33.626174  2818 net.cpp:394] conv3_1 <- pool2
I1106 17:13:33.626179  2818 net.cpp:356] conv3_1 -> conv3_1
I1106 17:13:33.626184  2818 net.cpp:96] Setting up conv3_1
I1106 17:13:33.633599  2818 net.cpp:103] Top shape: 8 256 56 56 (6422528)
I1106 17:13:33.633612  2818 layer_factory.hpp:78] Creating layer relu3_1
I1106 17:13:33.633618  2818 net.cpp:67] Creating Layer relu3_1
I1106 17:13:33.633621  2818 net.cpp:394] relu3_1 <- conv3_1
I1106 17:13:33.633626  2818 net.cpp:345] relu3_1 -> conv3_1 (in-place)
I1106 17:13:33.633631  2818 net.cpp:96] Setting up relu3_1
I1106 17:13:33.633636  2818 net.cpp:103] Top shape: 8 256 56 56 (6422528)
I1106 17:13:33.633640  2818 layer_factory.hpp:78] Creating layer conv3_2
I1106 17:13:33.633649  2818 net.cpp:67] Creating Layer conv3_2
I1106 17:13:33.633653  2818 net.cpp:394] conv3_2 <- conv3_1
I1106 17:13:33.633659  2818 net.cpp:356] conv3_2 -> conv3_2
I1106 17:13:33.633664  2818 net.cpp:96] Setting up conv3_2
I1106 17:13:33.648458  2818 net.cpp:103] Top shape: 8 256 56 56 (6422528)
I1106 17:13:33.648473  2818 layer_factory.hpp:78] Creating layer relu3_2
I1106 17:13:33.648479  2818 net.cpp:67] Creating Layer relu3_2
I1106 17:13:33.648483  2818 net.cpp:394] relu3_2 <- conv3_2
I1106 17:13:33.648489  2818 net.cpp:345] relu3_2 -> conv3_2 (in-place)
I1106 17:13:33.648494  2818 net.cpp:96] Setting up relu3_2
I1106 17:13:33.648499  2818 net.cpp:103] Top shape: 8 256 56 56 (6422528)
I1106 17:13:33.648502  2818 layer_factory.hpp:78] Creating layer conv3_3
I1106 17:13:33.648511  2818 net.cpp:67] Creating Layer conv3_3
I1106 17:13:33.648514  2818 net.cpp:394] conv3_3 <- conv3_2
I1106 17:13:33.648521  2818 net.cpp:356] conv3_3 -> conv3_3
I1106 17:13:33.648530  2818 net.cpp:96] Setting up conv3_3
I1106 17:13:33.663339  2818 net.cpp:103] Top shape: 8 256 56 56 (6422528)
I1106 17:13:33.663357  2818 layer_factory.hpp:78] Creating layer relu3_3
I1106 17:13:33.663363  2818 net.cpp:67] Creating Layer relu3_3
I1106 17:13:33.663367  2818 net.cpp:394] relu3_3 <- conv3_3
I1106 17:13:33.663374  2818 net.cpp:345] relu3_3 -> conv3_3 (in-place)
I1106 17:13:33.663379  2818 net.cpp:96] Setting up relu3_3
I1106 17:13:33.663384  2818 net.cpp:103] Top shape: 8 256 56 56 (6422528)
I1106 17:13:33.663388  2818 layer_factory.hpp:78] Creating layer pool3
I1106 17:13:33.663393  2818 net.cpp:67] Creating Layer pool3
I1106 17:13:33.663396  2818 net.cpp:394] pool3 <- conv3_3
I1106 17:13:33.663401  2818 net.cpp:356] pool3 -> pool3
I1106 17:13:33.663406  2818 net.cpp:96] Setting up pool3
I1106 17:13:33.663414  2818 net.cpp:103] Top shape: 8 256 28 28 (1605632)
I1106 17:13:33.663418  2818 layer_factory.hpp:78] Creating layer conv4_1
I1106 17:13:33.663424  2818 net.cpp:67] Creating Layer conv4_1
I1106 17:13:33.663426  2818 net.cpp:394] conv4_1 <- pool3
I1106 17:13:33.663431  2818 net.cpp:356] conv4_1 -> conv4_1
I1106 17:13:33.663436  2818 net.cpp:96] Setting up conv4_1
I1106 17:13:33.692781  2818 net.cpp:103] Top shape: 8 512 28 28 (3211264)
I1106 17:13:33.692802  2818 layer_factory.hpp:78] Creating layer relu4_1
I1106 17:13:33.692811  2818 net.cpp:67] Creating Layer relu4_1
I1106 17:13:33.692816  2818 net.cpp:394] relu4_1 <- conv4_1
I1106 17:13:33.692823  2818 net.cpp:345] relu4_1 -> conv4_1 (in-place)
I1106 17:13:33.692831  2818 net.cpp:96] Setting up relu4_1
I1106 17:13:33.692836  2818 net.cpp:103] Top shape: 8 512 28 28 (3211264)
I1106 17:13:33.692839  2818 layer_factory.hpp:78] Creating layer conv4_2
I1106 17:13:33.692845  2818 net.cpp:67] Creating Layer conv4_2
I1106 17:13:33.692848  2818 net.cpp:394] conv4_2 <- conv4_1
I1106 17:13:33.692853  2818 net.cpp:356] conv4_2 -> conv4_2
I1106 17:13:33.692859  2818 net.cpp:96] Setting up conv4_2
I1106 17:13:33.750645  2818 net.cpp:103] Top shape: 8 512 28 28 (3211264)
I1106 17:13:33.750674  2818 layer_factory.hpp:78] Creating layer relu4_2
I1106 17:13:33.750684  2818 net.cpp:67] Creating Layer relu4_2
I1106 17:13:33.750689  2818 net.cpp:394] relu4_2 <- conv4_2
I1106 17:13:33.750694  2818 net.cpp:345] relu4_2 -> conv4_2 (in-place)
I1106 17:13:33.750701  2818 net.cpp:96] Setting up relu4_2
I1106 17:13:33.750706  2818 net.cpp:103] Top shape: 8 512 28 28 (3211264)
I1106 17:13:33.750710  2818 layer_factory.hpp:78] Creating layer conv4_3
I1106 17:13:33.750717  2818 net.cpp:67] Creating Layer conv4_3
I1106 17:13:33.750720  2818 net.cpp:394] conv4_3 <- conv4_2
I1106 17:13:33.750725  2818 net.cpp:356] conv4_3 -> conv4_3
I1106 17:13:33.750733  2818 net.cpp:96] Setting up conv4_3
I1106 17:13:33.808703  2818 net.cpp:103] Top shape: 8 512 28 28 (3211264)
I1106 17:13:33.808728  2818 layer_factory.hpp:78] Creating layer relu4_3
I1106 17:13:33.808737  2818 net.cpp:67] Creating Layer relu4_3
I1106 17:13:33.808742  2818 net.cpp:394] relu4_3 <- conv4_3
I1106 17:13:33.808748  2818 net.cpp:345] relu4_3 -> conv4_3 (in-place)
I1106 17:13:33.808765  2818 net.cpp:96] Setting up relu4_3
I1106 17:13:33.808771  2818 net.cpp:103] Top shape: 8 512 28 28 (3211264)
I1106 17:13:33.808774  2818 layer_factory.hpp:78] Creating layer pool4
I1106 17:13:33.808781  2818 net.cpp:67] Creating Layer pool4
I1106 17:13:33.808785  2818 net.cpp:394] pool4 <- conv4_3
I1106 17:13:33.808790  2818 net.cpp:356] pool4 -> pool4
I1106 17:13:33.808796  2818 net.cpp:96] Setting up pool4
I1106 17:13:33.808804  2818 net.cpp:103] Top shape: 8 512 14 14 (802816)
I1106 17:13:33.808806  2818 layer_factory.hpp:78] Creating layer conv5_1
I1106 17:13:33.808815  2818 net.cpp:67] Creating Layer conv5_1
I1106 17:13:33.808817  2818 net.cpp:394] conv5_1 <- pool4
I1106 17:13:33.808822  2818 net.cpp:356] conv5_1 -> conv5_1
I1106 17:13:33.808828  2818 net.cpp:96] Setting up conv5_1
I1106 17:13:33.866353  2818 net.cpp:103] Top shape: 8 512 14 14 (802816)
I1106 17:13:33.866376  2818 layer_factory.hpp:78] Creating layer relu5_1
I1106 17:13:33.866384  2818 net.cpp:67] Creating Layer relu5_1
I1106 17:13:33.866389  2818 net.cpp:394] relu5_1 <- conv5_1
I1106 17:13:33.866394  2818 net.cpp:345] relu5_1 -> conv5_1 (in-place)
I1106 17:13:33.866401  2818 net.cpp:96] Setting up relu5_1
I1106 17:13:33.866407  2818 net.cpp:103] Top shape: 8 512 14 14 (802816)
I1106 17:13:33.866410  2818 layer_factory.hpp:78] Creating layer conv5_2
I1106 17:13:33.866417  2818 net.cpp:67] Creating Layer conv5_2
I1106 17:13:33.866421  2818 net.cpp:394] conv5_2 <- conv5_1
I1106 17:13:33.866426  2818 net.cpp:356] conv5_2 -> conv5_2
I1106 17:13:33.866433  2818 net.cpp:96] Setting up conv5_2
I1106 17:13:33.924636  2818 net.cpp:103] Top shape: 8 512 14 14 (802816)
I1106 17:13:33.924661  2818 layer_factory.hpp:78] Creating layer relu5_2
I1106 17:13:33.924671  2818 net.cpp:67] Creating Layer relu5_2
I1106 17:13:33.924675  2818 net.cpp:394] relu5_2 <- conv5_2
I1106 17:13:33.924681  2818 net.cpp:345] relu5_2 -> conv5_2 (in-place)
I1106 17:13:33.924689  2818 net.cpp:96] Setting up relu5_2
I1106 17:13:33.924693  2818 net.cpp:103] Top shape: 8 512 14 14 (802816)
I1106 17:13:33.924697  2818 layer_factory.hpp:78] Creating layer conv5_3
I1106 17:13:33.924705  2818 net.cpp:67] Creating Layer conv5_3
I1106 17:13:33.924707  2818 net.cpp:394] conv5_3 <- conv5_2
I1106 17:13:33.924712  2818 net.cpp:356] conv5_3 -> conv5_3
I1106 17:13:33.924718  2818 net.cpp:96] Setting up conv5_3
I1106 17:13:33.982379  2818 net.cpp:103] Top shape: 8 512 14 14 (802816)
I1106 17:13:33.982405  2818 layer_factory.hpp:78] Creating layer relu5_3
I1106 17:13:33.982414  2818 net.cpp:67] Creating Layer relu5_3
I1106 17:13:33.982419  2818 net.cpp:394] relu5_3 <- conv5_3
I1106 17:13:33.982426  2818 net.cpp:345] relu5_3 -> conv5_3 (in-place)
I1106 17:13:33.982434  2818 net.cpp:96] Setting up relu5_3
I1106 17:13:33.982439  2818 net.cpp:103] Top shape: 8 512 14 14 (802816)
I1106 17:13:33.982442  2818 layer_factory.hpp:78] Creating layer pool5
I1106 17:13:33.982453  2818 net.cpp:67] Creating Layer pool5
I1106 17:13:33.982457  2818 net.cpp:394] pool5 <- conv5_3
I1106 17:13:33.982461  2818 net.cpp:356] pool5 -> pool5
I1106 17:13:33.982467  2818 net.cpp:96] Setting up pool5
I1106 17:13:33.982475  2818 net.cpp:103] Top shape: 8 512 7 7 (200704)
I1106 17:13:33.982478  2818 layer_factory.hpp:78] Creating layer fc6
I1106 17:13:33.982486  2818 net.cpp:67] Creating Layer fc6
I1106 17:13:33.982488  2818 net.cpp:394] fc6 <- pool5
I1106 17:13:33.982492  2818 net.cpp:356] fc6 -> fc6
I1106 17:13:33.982498  2818 net.cpp:96] Setting up fc6
I1106 17:13:36.508281  2818 net.cpp:103] Top shape: 8 4096 1 1 (32768)
I1106 17:13:36.508309  2818 layer_factory.hpp:78] Creating layer relu6
I1106 17:13:36.508317  2818 net.cpp:67] Creating Layer relu6
I1106 17:13:36.508322  2818 net.cpp:394] relu6 <- fc6
I1106 17:13:36.508329  2818 net.cpp:345] relu6 -> fc6 (in-place)
I1106 17:13:36.508337  2818 net.cpp:96] Setting up relu6
I1106 17:13:36.508349  2818 net.cpp:103] Top shape: 8 4096 1 1 (32768)
I1106 17:13:36.508352  2818 layer_factory.hpp:78] Creating layer drop6
I1106 17:13:36.508368  2818 net.cpp:67] Creating Layer drop6
I1106 17:13:36.508371  2818 net.cpp:394] drop6 <- fc6
I1106 17:13:36.508378  2818 net.cpp:345] drop6 -> fc6 (in-place)
I1106 17:13:36.508383  2818 net.cpp:96] Setting up drop6
I1106 17:13:36.508386  2818 net.cpp:103] Top shape: 8 4096 1 1 (32768)
I1106 17:13:36.508389  2818 layer_factory.hpp:78] Creating layer fc7
I1106 17:13:36.508394  2818 net.cpp:67] Creating Layer fc7
I1106 17:13:36.508397  2818 net.cpp:394] fc7 <- fc6
I1106 17:13:36.508402  2818 net.cpp:356] fc7 -> fc7
I1106 17:13:36.508409  2818 net.cpp:96] Setting up fc7
I1106 17:13:37.225985  2818 net.cpp:103] Top shape: 8 4096 1 1 (32768)
I1106 17:13:37.226012  2818 layer_factory.hpp:78] Creating layer relu7
I1106 17:13:37.226021  2818 net.cpp:67] Creating Layer relu7
I1106 17:13:37.226025  2818 net.cpp:394] relu7 <- fc7
I1106 17:13:37.226033  2818 net.cpp:345] relu7 -> fc7 (in-place)
I1106 17:13:37.226040  2818 net.cpp:96] Setting up relu7
I1106 17:13:37.226054  2818 net.cpp:103] Top shape: 8 4096 1 1 (32768)
I1106 17:13:37.226058  2818 layer_factory.hpp:78] Creating layer drop7
I1106 17:13:37.226063  2818 net.cpp:67] Creating Layer drop7
I1106 17:13:37.226066  2818 net.cpp:394] drop7 <- fc7
I1106 17:13:37.226070  2818 net.cpp:345] drop7 -> fc7 (in-place)
I1106 17:13:37.226075  2818 net.cpp:96] Setting up drop7
I1106 17:13:37.226078  2818 net.cpp:103] Top shape: 8 4096 1 1 (32768)
I1106 17:13:37.226081  2818 layer_factory.hpp:78] Creating layer fc8_2
I1106 17:13:37.226089  2818 net.cpp:67] Creating Layer fc8_2
I1106 17:13:37.226091  2818 net.cpp:394] fc8_2 <- fc7
I1106 17:13:37.226096  2818 net.cpp:356] fc8_2 -> fc8_2
I1106 17:13:37.226102  2818 net.cpp:96] Setting up fc8_2
I1106 17:13:37.226313  2818 net.cpp:103] Top shape: 8 2 1 1 (16)
I1106 17:13:37.226321  2818 layer_factory.hpp:78] Creating layer fc8_2_fc8_2_0_split
I1106 17:13:37.226327  2818 net.cpp:67] Creating Layer fc8_2_fc8_2_0_split
I1106 17:13:37.226330  2818 net.cpp:394] fc8_2_fc8_2_0_split <- fc8_2
I1106 17:13:37.226336  2818 net.cpp:356] fc8_2_fc8_2_0_split -> fc8_2_fc8_2_0_split_0
I1106 17:13:37.226341  2818 net.cpp:356] fc8_2_fc8_2_0_split -> fc8_2_fc8_2_0_split_1
I1106 17:13:37.226346  2818 net.cpp:96] Setting up fc8_2_fc8_2_0_split
I1106 17:13:37.226354  2818 net.cpp:103] Top shape: 8 2 1 1 (16)
I1106 17:13:37.226357  2818 net.cpp:103] Top shape: 8 2 1 1 (16)
I1106 17:13:37.226361  2818 layer_factory.hpp:78] Creating layer loss
I1106 17:13:37.226366  2818 net.cpp:67] Creating Layer loss
I1106 17:13:37.226369  2818 net.cpp:394] loss <- fc8_2_fc8_2_0_split_0
I1106 17:13:37.226373  2818 net.cpp:394] loss <- label_data_1_split_0
I1106 17:13:37.226378  2818 net.cpp:356] loss -> (automatic)
I1106 17:13:37.226382  2818 net.cpp:96] Setting up loss
I1106 17:13:37.226388  2818 net.cpp:103] Top shape: 1 1 1 1 (1)
I1106 17:13:37.226394  2818 net.cpp:109]     with loss weight 1
I1106 17:13:37.226408  2818 layer_factory.hpp:78] Creating layer accuracy
I1106 17:13:37.226418  2818 net.cpp:67] Creating Layer accuracy
I1106 17:13:37.226423  2818 net.cpp:394] accuracy <- fc8_2_fc8_2_0_split_1
I1106 17:13:37.226425  2818 net.cpp:394] accuracy <- label_data_1_split_1
I1106 17:13:37.226430  2818 net.cpp:356] accuracy -> accuracy
I1106 17:13:37.226436  2818 net.cpp:96] Setting up accuracy
I1106 17:13:37.226444  2818 net.cpp:103] Top shape: 1 1 1 4 (4)
I1106 17:13:37.226449  2818 net.cpp:172] accuracy does not need backward computation.
I1106 17:13:37.226451  2818 net.cpp:170] loss needs backward computation.
I1106 17:13:37.226454  2818 net.cpp:170] fc8_2_fc8_2_0_split needs backward computation.
I1106 17:13:37.226457  2818 net.cpp:170] fc8_2 needs backward computation.
I1106 17:13:37.226460  2818 net.cpp:170] drop7 needs backward computation.
…
