…
I1107 10:25:46.787580  9023 net.cpp:275] The NetState phase (0) differed from the phase (1) specified by a rule in layer accuracy
I1107 10:25:46.787781  9023 net.cpp:39] Initializing net from parameters: 
name: "small"
layers {
  top: "data"
  top: "label"
  name: "data"
  type: IMAGE_DATA
  image_data_param {
    source: "/data/ad6813/devCaffe/caffe/data/inadcl_o/train.txt"
    batch_size: 32
    new_height: 256
    new_width: 256
  }
  include {
    phase: TRAIN
  }
  transform_param {
    mirror: true
    crop_size: 224
    mean_value: 86.752
    mean_value: 101.46
    mean_value: 104.6
  }
}
layers {
  bottom: "data"
  top: "conv1_1"
  name: "conv1_1"
  type: CONVOLUTION
  convolution_param {
    num_output: 64
    pad: 1
    kernel_size: 3
    weight_filler {
      type: "gaussian"
      std: 0.01
    }
    bias_filler {
      type: "constant"
      value: 0
    }
  }
}
layers {
  bottom: "conv1_1"
  top: "conv1_1"
  name: "relu1_1"
  type: RELU
}
layers {
  bottom: "conv1_1"
  top: "conv1_2"
  name: "conv1_2"
  type: CONVOLUTION
  convolution_param {
    num_output: 64
    pad: 1
    kernel_size: 3
    weight_filler {
      type: "gaussian"
      std: 0.01
    }
    bias_filler {
      type: "constant"
      value: 0
    }
  }
}
layers {
  bottom: "conv1_2"
  top: "conv1_2"
  name: "relu1_2"
  type: RELU
}
layers {
  bottom: "conv1_2"
  top: "pool1"
  name: "pool1"
  type: POOLING
  pooling_param {
    pool: MAX
    kernel_size: 2
    stride: 2
  }
}
layers {
  bottom: "pool1"
  top: "conv2_1"
  name: "conv2_1"
  type: CONVOLUTION
  convolution_param {
    num_output: 128
    pad: 1
    kernel_size: 3
    weight_filler {
      type: "gaussian"
      std: 0.01
    }
    bias_filler {
      type: "constant"
      value: 0
    }
  }
}
layers {
  bottom: "conv2_1"
  top: "conv2_1"
  name: "relu2_1"
  type: RELU
}
layers {
  bottom: "conv2_1"
  top: "conv2_2"
  name: "conv2_2"
  type: CONVOLUTION
  convolution_param {
    num_output: 128
    pad: 1
    kernel_size: 3
    weight_filler {
      type: "gaussian"
      std: 0.01
    }
    bias_filler {
      type: "constant"
      value: 0
    }
  }
}
layers {
  bottom: "conv2_2"
  top: "conv2_2"
  name: "relu2_2"
  type: RELU
}
layers {
  bottom: "conv2_2"
  top: "pool2"
  name: "pool2"
  type: POOLING
  pooling_param {
    pool: MAX
    kernel_size: 2
    stride: 2
  }
}
layers {
  bottom: "pool2"
  top: "conv3_1"
  name: "conv3_1"
  type: CONVOLUTION
  convolution_param {
    num_output: 256
    pad: 1
    kernel_size: 3
    weight_filler {
      type: "gaussian"
      std: 0.01
    }
    bias_filler {
      type: "constant"
      value: 0
    }
  }
}
layers {
  bottom: "conv3_1"
  top: "conv3_1"
  name: "relu3_1"
  type: RELU
}
layers {
  bottom: "conv3_1"
  top: "conv3_2"
  name: "conv3_2"
  type: CONVOLUTION
  convolution_param {
    num_output: 256
    pad: 1
    kernel_size: 3
    weight_filler {
      type: "gaussian"
      std: 0.01
    }
    bias_filler {
      type: "constant"
      value: 0
    }
  }
}
layers {
  bottom: "conv3_2"
  top: "conv3_2"
  name: "relu3_2"
  type: RELU
}
layers {
  bottom: "conv3_2"
  top: "conv3_3"
  name: "conv3_3"
  type: CONVOLUTION
  convolution_param {
    num_output: 256
    pad: 1
    kernel_size: 3
    weight_filler {
      type: "gaussian"
      std: 0.01
    }
    bias_filler {
      type: "constant"
      value: 0
    }
  }
}
layers {
  bottom: "conv3_3"
  top: "conv3_3"
  name: "relu3_3"
  type: RELU
}
layers {
  bottom: "conv3_3"
  top: "pool3"
  name: "pool3"
  type: POOLING
  pooling_param {
    pool: MAX
    kernel_size: 2
    stride: 2
  }
}
layers {
  bottom: "pool3"
  top: "conv4_1"
  name: "conv4_1"
  type: CONVOLUTION
  convolution_param {
    num_output: 512
    pad: 1
    kernel_size: 3
    weight_filler {
      type: "gaussian"
      std: 0.01
    }
    bias_filler {
      type: "constant"
      value: 0
    }
  }
}
layers {
  bottom: "conv4_1"
  top: "conv4_1"
  name: "relu4_1"
  type: RELU
}
layers {
  bottom: "conv4_1"
  top: "conv4_2"
  name: "conv4_2"
  type: CONVOLUTION
  convolution_param {
    num_output: 512
    pad: 1
    kernel_size: 3
    weight_filler {
      type: "gaussian"
      std: 0.01
    }
    bias_filler {
      type: "constant"
      value: 0
    }
  }
}
layers {
  bottom: "conv4_2"
  top: "conv4_2"
  name: "relu4_2"
  type: RELU
}
layers {
  bottom: "conv4_2"
  top: "conv4_3"
  name: "conv4_3"
  type: CONVOLUTION
  convolution_param {
    num_output: 512
    pad: 1
    kernel_size: 3
    weight_filler {
      type: "gaussian"
      std: 0.01
    }
    bias_filler {
      type: "constant"
      value: 0
    }
  }
}
layers {
  bottom: "conv4_3"
  top: "conv4_3"
  name: "relu4_3"
  type: RELU
}
layers {
  bottom: "conv4_3"
  top: "pool4"
  name: "pool4"
  type: POOLING
  pooling_param {
    pool: MAX
    kernel_size: 2
    stride: 2
  }
}
layers {
  bottom: "pool4"
  top: "conv5_1"
  name: "conv5_1"
  type: CONVOLUTION
  convolution_param {
    num_output: 512
    pad: 1
    kernel_size: 3
    weight_filler {
      type: "gaussian"
      std: 0.01
    }
    bias_filler {
      type: "constant"
      value: 0
    }
  }
}
layers {
  bottom: "conv5_1"
  top: "conv5_1"
  name: "relu5_1"
  type: RELU
}
layers {
  bottom: "conv5_1"
  top: "conv5_2"
  name: "conv5_2"
  type: CONVOLUTION
  convolution_param {
    num_output: 512
    pad: 1
    kernel_size: 3
    weight_filler {
      type: "gaussian"
      std: 0.01
    }
    bias_filler {
      type: "constant"
      value: 0
    }
  }
}
layers {
  bottom: "conv5_2"
  top: "conv5_2"
  name: "relu5_2"
  type: RELU
}
layers {
  bottom: "conv5_2"
  top: "conv5_3"
  name: "conv5_3"
  type: CONVOLUTION
  convolution_param {
    num_output: 512
    pad: 1
    kernel_size: 3
    weight_filler {
      type: "gaussian"
      std: 0.01
    }
    bias_filler {
      type: "constant"
      value: 0
    }
  }
}
layers {
  bottom: "conv5_3"
  top: "conv5_3"
  name: "relu5_3"
  type: RELU
}
layers {
  bottom: "conv5_3"
  top: "pool5"
  name: "pool5"
  type: POOLING
  pooling_param {
    pool: MAX
    kernel_size: 2
    stride: 2
  }
}
layers {
  bottom: "pool5"
  top: "fc6"
  name: "fc6"
  type: INNER_PRODUCT
  inner_product_param {
    num_output: 4096
    weight_filler {
      type: "gaussian"
      std: 0.01
    }
    bias_filler {
      type: "constant"
      value: 0
    }
  }
}
layers {
  bottom: "fc6"
  top: "fc6"
  name: "relu6"
  type: RELU
}
layers {
  bottom: "fc6"
  top: "fc6"
  name: "drop6"
  type: DROPOUT
  dropout_param {
    dropout_ratio: 0.5
  }
}
layers {
  bottom: "fc6"
  top: "fc7"
  name: "fc7"
  type: INNER_PRODUCT
  inner_product_param {
    num_output: 4096
    weight_filler {
      type: "gaussian"
      std: 0.01
    }
    bias_filler {
      type: "constant"
      value: 0
    }
  }
}
layers {
  bottom: "fc7"
  top: "fc7"
  name: "relu7"
  type: RELU
}
layers {
  bottom: "fc7"
  top: "fc7"
  name: "drop7"
  type: DROPOUT
  dropout_param {
    dropout_ratio: 0.5
  }
}
layers {
  bottom: "fc7"
  top: "fc8_2"
  name: "fc8_2"
  type: INNER_PRODUCT
  inner_product_param {
    num_output: 2
    weight_filler {
      type: "gaussian"
      std: 0.01
    }
    bias_filler {
      type: "constant"
      value: 0
    }
  }
}
layers {
  bottom: "fc8_2"
  bottom: "label"
  name: "loss"
  type: SOFTMAX_LOSS
}
state {
  phase: TRAIN
}
I1107 10:25:46.787904  9023 layer_factory.hpp:78] Creating layer data
I1107 10:25:46.787924  9023 net.cpp:67] Creating Layer data
I1107 10:25:46.787932  9023 net.cpp:356] data -> data
I1107 10:25:46.787953  9023 net.cpp:356] data -> label
I1107 10:25:46.787963  9023 net.cpp:96] Setting up data
I1107 10:25:46.787971  9023 image_data_layer.cpp:34] Opening file /data/ad6813/devCaffe/caffe/data/inadcl_o/train.txt
I1107 10:25:46.798331  9023 image_data_layer.cpp:49] A total of 29797 images.
I1107 10:25:46.825139  9023 image_data_layer.cpp:78] output data size: 32,3,224,224
I1107 10:25:46.832821  9023 net.cpp:103] Top shape: 32 3 224 224 (4816896)
I1107 10:25:46.832903  9023 net.cpp:103] Top shape: 32 1 1 1 (32)
I1107 10:25:46.832916  9023 layer_factory.hpp:78] Creating layer conv1_1
I1107 10:25:46.832945  9023 net.cpp:67] Creating Layer conv1_1
I1107 10:25:46.832955  9023 net.cpp:394] conv1_1 <- data
I1107 10:25:46.833000  9023 net.cpp:356] conv1_1 -> conv1_1
I1107 10:25:46.833027  9023 net.cpp:96] Setting up conv1_1
I1107 10:25:46.854902  9023 net.cpp:103] Top shape: 32 64 224 224 (102760448)
I1107 10:25:46.854939  9023 layer_factory.hpp:78] Creating layer relu1_1
I1107 10:25:46.854951  9023 net.cpp:67] Creating Layer relu1_1
I1107 10:25:46.854955  9023 net.cpp:394] relu1_1 <- conv1_1
I1107 10:25:46.854962  9023 net.cpp:345] relu1_1 -> conv1_1 (in-place)
I1107 10:25:46.854975  9023 net.cpp:96] Setting up relu1_1
I1107 10:25:46.854984  9023 net.cpp:103] Top shape: 32 64 224 224 (102760448)
I1107 10:25:46.854990  9023 layer_factory.hpp:78] Creating layer conv1_2
I1107 10:25:46.854996  9023 net.cpp:67] Creating Layer conv1_2
I1107 10:25:46.855000  9023 net.cpp:394] conv1_2 <- conv1_1
I1107 10:25:46.855007  9023 net.cpp:356] conv1_2 -> conv1_2
I1107 10:25:46.855016  9023 net.cpp:96] Setting up conv1_2
I1107 10:25:46.856120  9023 net.cpp:103] Top shape: 32 64 224 224 (102760448)
I1107 10:25:46.856133  9023 layer_factory.hpp:78] Creating layer relu1_2
I1107 10:25:46.856139  9023 net.cpp:67] Creating Layer relu1_2
I1107 10:25:46.856142  9023 net.cpp:394] relu1_2 <- conv1_2
I1107 10:25:46.856150  9023 net.cpp:345] relu1_2 -> conv1_2 (in-place)
I1107 10:25:46.856156  9023 net.cpp:96] Setting up relu1_2
I1107 10:25:46.856163  9023 net.cpp:103] Top shape: 32 64 224 224 (102760448)
I1107 10:25:46.856168  9023 layer_factory.hpp:78] Creating layer pool1
I1107 10:25:46.856178  9023 net.cpp:67] Creating Layer pool1
I1107 10:25:46.856183  9023 net.cpp:394] pool1 <- conv1_2
I1107 10:25:46.856186  9023 net.cpp:356] pool1 -> pool1
I1107 10:25:46.856194  9023 net.cpp:96] Setting up pool1
I1107 10:25:46.856211  9023 net.cpp:103] Top shape: 32 64 112 112 (25690112)
I1107 10:25:46.856216  9023 layer_factory.hpp:78] Creating layer conv2_1
I1107 10:25:46.856223  9023 net.cpp:67] Creating Layer conv2_1
I1107 10:25:46.856227  9023 net.cpp:394] conv2_1 <- pool1
I1107 10:25:46.856232  9023 net.cpp:356] conv2_1 -> conv2_1
I1107 10:25:46.856238  9023 net.cpp:96] Setting up conv2_1
I1107 10:25:46.858175  9023 net.cpp:103] Top shape: 32 128 112 112 (51380224)
I1107 10:25:46.858188  9023 layer_factory.hpp:78] Creating layer relu2_1
I1107 10:25:46.858196  9023 net.cpp:67] Creating Layer relu2_1
I1107 10:25:46.858198  9023 net.cpp:394] relu2_1 <- conv2_1
I1107 10:25:46.858202  9023 net.cpp:345] relu2_1 -> conv2_1 (in-place)
I1107 10:25:46.858207  9023 net.cpp:96] Setting up relu2_1
I1107 10:25:46.858212  9023 net.cpp:103] Top shape: 32 128 112 112 (51380224)
I1107 10:25:46.858217  9023 layer_factory.hpp:78] Creating layer conv2_2
I1107 10:25:46.858229  9023 net.cpp:67] Creating Layer conv2_2
I1107 10:25:46.858234  9023 net.cpp:394] conv2_2 <- conv2_1
I1107 10:25:46.858239  9023 net.cpp:356] conv2_2 -> conv2_2
I1107 10:25:46.858245  9023 net.cpp:96] Setting up conv2_2
I1107 10:25:46.862103  9023 net.cpp:103] Top shape: 32 128 112 112 (51380224)
I1107 10:25:46.862115  9023 layer_factory.hpp:78] Creating layer relu2_2
I1107 10:25:46.862123  9023 net.cpp:67] Creating Layer relu2_2
I1107 10:25:46.862125  9023 net.cpp:394] relu2_2 <- conv2_2
I1107 10:25:46.862129  9023 net.cpp:345] relu2_2 -> conv2_2 (in-place)
I1107 10:25:46.862134  9023 net.cpp:96] Setting up relu2_2
I1107 10:25:46.862139  9023 net.cpp:103] Top shape: 32 128 112 112 (51380224)
I1107 10:25:46.862154  9023 layer_factory.hpp:78] Creating layer pool2
I1107 10:25:46.862159  9023 net.cpp:67] Creating Layer pool2
I1107 10:25:46.862164  9023 net.cpp:394] pool2 <- conv2_2
I1107 10:25:46.862170  9023 net.cpp:356] pool2 -> pool2
I1107 10:25:46.862176  9023 net.cpp:96] Setting up pool2
I1107 10:25:46.862185  9023 net.cpp:103] Top shape: 32 128 56 56 (12845056)
I1107 10:25:46.862190  9023 layer_factory.hpp:78] Creating layer conv3_1
I1107 10:25:46.862196  9023 net.cpp:67] Creating Layer conv3_1
I1107 10:25:46.862200  9023 net.cpp:394] conv3_1 <- pool2
I1107 10:25:46.862207  9023 net.cpp:356] conv3_1 -> conv3_1
I1107 10:25:46.862215  9023 net.cpp:96] Setting up conv3_1
I1107 10:25:46.869714  9023 net.cpp:103] Top shape: 32 256 56 56 (25690112)
I1107 10:25:46.869726  9023 layer_factory.hpp:78] Creating layer relu3_1
I1107 10:25:46.869735  9023 net.cpp:67] Creating Layer relu3_1
I1107 10:25:46.869740  9023 net.cpp:394] relu3_1 <- conv3_1
I1107 10:25:46.869743  9023 net.cpp:345] relu3_1 -> conv3_1 (in-place)
I1107 10:25:46.869750  9023 net.cpp:96] Setting up relu3_1
I1107 10:25:46.869757  9023 net.cpp:103] Top shape: 32 256 56 56 (25690112)
I1107 10:25:46.869761  9023 layer_factory.hpp:78] Creating layer conv3_2
I1107 10:25:46.869770  9023 net.cpp:67] Creating Layer conv3_2
I1107 10:25:46.869774  9023 net.cpp:394] conv3_2 <- conv3_1
I1107 10:25:46.869781  9023 net.cpp:356] conv3_2 -> conv3_2
I1107 10:25:46.869788  9023 net.cpp:96] Setting up conv3_2
I1107 10:25:46.884945  9023 net.cpp:103] Top shape: 32 256 56 56 (25690112)
I1107 10:25:46.884963  9023 layer_factory.hpp:78] Creating layer relu3_2
I1107 10:25:46.884969  9023 net.cpp:67] Creating Layer relu3_2
I1107 10:25:46.884974  9023 net.cpp:394] relu3_2 <- conv3_2
I1107 10:25:46.884982  9023 net.cpp:345] relu3_2 -> conv3_2 (in-place)
I1107 10:25:46.884989  9023 net.cpp:96] Setting up relu3_2
I1107 10:25:46.884995  9023 net.cpp:103] Top shape: 32 256 56 56 (25690112)
I1107 10:25:46.885000  9023 layer_factory.hpp:78] Creating layer conv3_3
I1107 10:25:46.885006  9023 net.cpp:67] Creating Layer conv3_3
I1107 10:25:46.885010  9023 net.cpp:394] conv3_3 <- conv3_2
I1107 10:25:46.885018  9023 net.cpp:356] conv3_3 -> conv3_3
I1107 10:25:46.885025  9023 net.cpp:96] Setting up conv3_3
I1107 10:25:46.899976  9023 net.cpp:103] Top shape: 32 256 56 56 (25690112)
I1107 10:25:46.899993  9023 layer_factory.hpp:78] Creating layer relu3_3
I1107 10:25:46.900003  9023 net.cpp:67] Creating Layer relu3_3
I1107 10:25:46.900008  9023 net.cpp:394] relu3_3 <- conv3_3
I1107 10:25:46.900014  9023 net.cpp:345] relu3_3 -> conv3_3 (in-place)
I1107 10:25:46.900020  9023 net.cpp:96] Setting up relu3_3
I1107 10:25:46.900027  9023 net.cpp:103] Top shape: 32 256 56 56 (25690112)
I1107 10:25:46.900032  9023 layer_factory.hpp:78] Creating layer pool3
I1107 10:25:46.900038  9023 net.cpp:67] Creating Layer pool3
I1107 10:25:46.900041  9023 net.cpp:394] pool3 <- conv3_3
I1107 10:25:46.900048  9023 net.cpp:356] pool3 -> pool3
I1107 10:25:46.900054  9023 net.cpp:96] Setting up pool3
I1107 10:25:46.900063  9023 net.cpp:103] Top shape: 32 256 28 28 (6422528)
I1107 10:25:46.900068  9023 layer_factory.hpp:78] Creating layer conv4_1
I1107 10:25:46.900076  9023 net.cpp:67] Creating Layer conv4_1
I1107 10:25:46.900080  9023 net.cpp:394] conv4_1 <- pool3
I1107 10:25:46.900086  9023 net.cpp:356] conv4_1 -> conv4_1
I1107 10:25:46.900094  9023 net.cpp:96] Setting up conv4_1
I1107 10:25:46.929721  9023 net.cpp:103] Top shape: 32 512 28 28 (12845056)
I1107 10:25:46.929744  9023 layer_factory.hpp:78] Creating layer relu4_1
I1107 10:25:46.929752  9023 net.cpp:67] Creating Layer relu4_1
I1107 10:25:46.929756  9023 net.cpp:394] relu4_1 <- conv4_1
I1107 10:25:46.929764  9023 net.cpp:345] relu4_1 -> conv4_1 (in-place)
I1107 10:25:46.929771  9023 net.cpp:96] Setting up relu4_1
I1107 10:25:46.929777  9023 net.cpp:103] Top shape: 32 512 28 28 (12845056)
I1107 10:25:46.929781  9023 layer_factory.hpp:78] Creating layer conv4_2
I1107 10:25:46.929792  9023 net.cpp:67] Creating Layer conv4_2
I1107 10:25:46.929796  9023 net.cpp:394] conv4_2 <- conv4_1
I1107 10:25:46.929811  9023 net.cpp:356] conv4_2 -> conv4_2
I1107 10:25:46.929816  9023 net.cpp:96] Setting up conv4_2
I1107 10:25:46.988517  9023 net.cpp:103] Top shape: 32 512 28 28 (12845056)
I1107 10:25:46.988548  9023 layer_factory.hpp:78] Creating layer relu4_2
I1107 10:25:46.988556  9023 net.cpp:67] Creating Layer relu4_2
I1107 10:25:46.988561  9023 net.cpp:394] relu4_2 <- conv4_2
I1107 10:25:46.988567  9023 net.cpp:345] relu4_2 -> conv4_2 (in-place)
I1107 10:25:46.988574  9023 net.cpp:96] Setting up relu4_2
I1107 10:25:46.988579  9023 net.cpp:103] Top shape: 32 512 28 28 (12845056)
I1107 10:25:46.988584  9023 layer_factory.hpp:78] Creating layer conv4_3
I1107 10:25:46.988596  9023 net.cpp:67] Creating Layer conv4_3
I1107 10:25:46.988601  9023 net.cpp:394] conv4_3 <- conv4_2
I1107 10:25:46.988606  9023 net.cpp:356] conv4_3 -> conv4_3
I1107 10:25:46.988613  9023 net.cpp:96] Setting up conv4_3
I1107 10:25:47.047456  9023 net.cpp:103] Top shape: 32 512 28 28 (12845056)
I1107 10:25:47.047483  9023 layer_factory.hpp:78] Creating layer relu4_3
I1107 10:25:47.047492  9023 net.cpp:67] Creating Layer relu4_3
I1107 10:25:47.047495  9023 net.cpp:394] relu4_3 <- conv4_3
I1107 10:25:47.047504  9023 net.cpp:345] relu4_3 -> conv4_3 (in-place)
I1107 10:25:47.047512  9023 net.cpp:96] Setting up relu4_3
I1107 10:25:47.047518  9023 net.cpp:103] Top shape: 32 512 28 28 (12845056)
I1107 10:25:47.047520  9023 layer_factory.hpp:78] Creating layer pool4
I1107 10:25:47.047526  9023 net.cpp:67] Creating Layer pool4
I1107 10:25:47.047533  9023 net.cpp:394] pool4 <- conv4_3
I1107 10:25:47.047543  9023 net.cpp:356] pool4 -> pool4
I1107 10:25:47.047549  9023 net.cpp:96] Setting up pool4
I1107 10:25:47.047559  9023 net.cpp:103] Top shape: 32 512 14 14 (3211264)
I1107 10:25:47.047564  9023 layer_factory.hpp:78] Creating layer conv5_1
I1107 10:25:47.047574  9023 net.cpp:67] Creating Layer conv5_1
I1107 10:25:47.047579  9023 net.cpp:394] conv5_1 <- pool4
I1107 10:25:47.047585  9023 net.cpp:356] conv5_1 -> conv5_1
I1107 10:25:47.047595  9023 net.cpp:96] Setting up conv5_1
I1107 10:25:47.106276  9023 net.cpp:103] Top shape: 32 512 14 14 (3211264)
I1107 10:25:47.106303  9023 layer_factory.hpp:78] Creating layer relu5_1
I1107 10:25:47.106312  9023 net.cpp:67] Creating Layer relu5_1
I1107 10:25:47.106317  9023 net.cpp:394] relu5_1 <- conv5_1
I1107 10:25:47.106323  9023 net.cpp:345] relu5_1 -> conv5_1 (in-place)
I1107 10:25:47.106331  9023 net.cpp:96] Setting up relu5_1
I1107 10:25:47.106338  9023 net.cpp:103] Top shape: 32 512 14 14 (3211264)
I1107 10:25:47.106340  9023 layer_factory.hpp:78] Creating layer conv5_2
I1107 10:25:47.106346  9023 net.cpp:67] Creating Layer conv5_2
I1107 10:25:47.106354  9023 net.cpp:394] conv5_2 <- conv5_1
I1107 10:25:47.106364  9023 net.cpp:356] conv5_2 -> conv5_2
I1107 10:25:47.106372  9023 net.cpp:96] Setting up conv5_2
I1107 10:25:47.165184  9023 net.cpp:103] Top shape: 32 512 14 14 (3211264)
I1107 10:25:47.165212  9023 layer_factory.hpp:78] Creating layer relu5_2
I1107 10:25:47.165220  9023 net.cpp:67] Creating Layer relu5_2
I1107 10:25:47.165225  9023 net.cpp:394] relu5_2 <- conv5_2
I1107 10:25:47.165230  9023 net.cpp:345] relu5_2 -> conv5_2 (in-place)
I1107 10:25:47.165236  9023 net.cpp:96] Setting up relu5_2
I1107 10:25:47.165241  9023 net.cpp:103] Top shape: 32 512 14 14 (3211264)
I1107 10:25:47.165244  9023 layer_factory.hpp:78] Creating layer conv5_3
I1107 10:25:47.165252  9023 net.cpp:67] Creating Layer conv5_3
I1107 10:25:47.165257  9023 net.cpp:394] conv5_3 <- conv5_2
I1107 10:25:47.165266  9023 net.cpp:356] conv5_3 -> conv5_3
I1107 10:25:47.165273  9023 net.cpp:96] Setting up conv5_3
I1107 10:25:47.224061  9023 net.cpp:103] Top shape: 32 512 14 14 (3211264)
I1107 10:25:47.224088  9023 layer_factory.hpp:78] Creating layer relu5_3
I1107 10:25:47.224097  9023 net.cpp:67] Creating Layer relu5_3
I1107 10:25:47.224100  9023 net.cpp:394] relu5_3 <- conv5_3
I1107 10:25:47.224107  9023 net.cpp:345] relu5_3 -> conv5_3 (in-place)
I1107 10:25:47.224113  9023 net.cpp:96] Setting up relu5_3
I1107 10:25:47.224128  9023 net.cpp:103] Top shape: 32 512 14 14 (3211264)
I1107 10:25:47.224131  9023 layer_factory.hpp:78] Creating layer pool5
I1107 10:25:47.224138  9023 net.cpp:67] Creating Layer pool5
I1107 10:25:47.224140  9023 net.cpp:394] pool5 <- conv5_3
I1107 10:25:47.224153  9023 net.cpp:356] pool5 -> pool5
I1107 10:25:47.224159  9023 net.cpp:96] Setting up pool5
I1107 10:25:47.224169  9023 net.cpp:103] Top shape: 32 512 7 7 (802816)
I1107 10:25:47.224174  9023 layer_factory.hpp:78] Creating layer fc6
I1107 10:25:47.224189  9023 net.cpp:67] Creating Layer fc6
I1107 10:25:47.224194  9023 net.cpp:394] fc6 <- pool5
I1107 10:25:47.224201  9023 net.cpp:356] fc6 -> fc6
I1107 10:25:47.224208  9023 net.cpp:96] Setting up fc6
I1107 10:25:49.844348  9023 net.cpp:103] Top shape: 32 4096 1 1 (131072)
I1107 10:25:49.844380  9023 layer_factory.hpp:78] Creating layer relu6
I1107 10:25:49.844389  9023 net.cpp:67] Creating Layer relu6
I1107 10:25:49.844394  9023 net.cpp:394] relu6 <- fc6
I1107 10:25:49.844403  9023 net.cpp:345] relu6 -> fc6 (in-place)
I1107 10:25:49.844410  9023 net.cpp:96] Setting up relu6
I1107 10:25:49.844430  9023 net.cpp:103] Top shape: 32 4096 1 1 (131072)
I1107 10:25:49.844435  9023 layer_factory.hpp:78] Creating layer drop6
I1107 10:25:49.844444  9023 net.cpp:67] Creating Layer drop6
I1107 10:25:49.844449  9023 net.cpp:394] drop6 <- fc6
I1107 10:25:49.844454  9023 net.cpp:345] drop6 -> fc6 (in-place)
I1107 10:25:49.844461  9023 net.cpp:96] Setting up drop6
I1107 10:25:49.844467  9023 net.cpp:103] Top shape: 32 4096 1 1 (131072)
I1107 10:25:49.844471  9023 layer_factory.hpp:78] Creating layer fc7
I1107 10:25:49.844477  9023 net.cpp:67] Creating Layer fc7
I1107 10:25:49.844481  9023 net.cpp:394] fc7 <- fc6
I1107 10:25:49.844486  9023 net.cpp:356] fc7 -> fc7
I1107 10:25:49.844494  9023 net.cpp:96] Setting up fc7
I1107 10:25:50.299330  9023 net.cpp:103] Top shape: 32 4096 1 1 (131072)
I1107 10:25:50.299363  9023 layer_factory.hpp:78] Creating layer relu7
I1107 10:25:50.299373  9023 net.cpp:67] Creating Layer relu7
I1107 10:25:50.299378  9023 net.cpp:394] relu7 <- fc7
I1107 10:25:50.299388  9023 net.cpp:345] relu7 -> fc7 (in-place)
I1107 10:25:50.299396  9023 net.cpp:96] Setting up relu7
I1107 10:25:50.299412  9023 net.cpp:103] Top shape: 32 4096 1 1 (131072)
I1107 10:25:50.299417  9023 layer_factory.hpp:78] Creating layer drop7
I1107 10:25:50.299422  9023 net.cpp:67] Creating Layer drop7
I1107 10:25:50.299427  9023 net.cpp:394] drop7 <- fc7
I1107 10:25:50.299432  9023 net.cpp:345] drop7 -> fc7 (in-place)
I1107 10:25:50.299437  9023 net.cpp:96] Setting up drop7
I1107 10:25:50.299443  9023 net.cpp:103] Top shape: 32 4096 1 1 (131072)
I1107 10:25:50.299446  9023 layer_factory.hpp:78] Creating layer fc8_2
I1107 10:25:50.299453  9023 net.cpp:67] Creating Layer fc8_2
I1107 10:25:50.299456  9023 net.cpp:394] fc8_2 <- fc7
I1107 10:25:50.299463  9023 net.cpp:356] fc8_2 -> fc8_2
I1107 10:25:50.299470  9023 net.cpp:96] Setting up fc8_2
I1107 10:25:50.299682  9023 net.cpp:103] Top shape: 32 2 1 1 (64)
I1107 10:25:50.299690  9023 layer_factory.hpp:78] Creating layer loss
I1107 10:25:50.299701  9023 net.cpp:67] Creating Layer loss
I1107 10:25:50.299706  9023 net.cpp:394] loss <- fc8_2
I1107 10:25:50.299711  9023 net.cpp:394] loss <- label
I1107 10:25:50.299720  9023 net.cpp:356] loss -> (automatic)
I1107 10:25:50.299726  9023 net.cpp:96] Setting up loss
I1107 10:25:50.299734  9023 net.cpp:103] Top shape: 1 1 1 1 (1)
I1107 10:25:50.299739  9023 net.cpp:109]     with loss weight 1
I1107 10:25:50.299774  9023 net.cpp:170] loss needs backward computation.
I1107 10:25:50.299778  9023 net.cpp:170] fc8_2 needs backward computation.
I1107 10:25:50.299782  9023 net.cpp:170] drop7 needs backward computation.
I1107 10:25:50.299787  9023 net.cpp:170] relu7 needs backward computation.
I1107 10:25:50.299790  9023 net.cpp:170] fc7 needs backward computation.
…
I1107 10:25:50.300791  9023 net.cpp:275] The NetState phase (1) differed from the phase (0) specified by a rule in layer data
I1107 10:25:50.300988  9023 net.cpp:39] Initializing net from parameters: 
name: "small"
layers {
  top: "data"
  top: "label"
  name: "data"
  type: IMAGE_DATA
  image_data_param {
    source: "/data/ad6813/devCaffe/caffe/data/inadcl_o/val.txt"
    batch_size: 8
    new_height: 256
    new_width: 256
  }
  include {
    phase: TEST
  }
  transform_param {
    mirror: true
    crop_size: 224
    mean_value: 86.752
    mean_value: 101.46
    mean_value: 104.6
  }
}
layers {
  bottom: "data"
  top: "conv1_1"
  name: "conv1_1"
  type: CONVOLUTION
  convolution_param {
    num_output: 64
    pad: 1
    kernel_size: 3
    weight_filler {
      type: "gaussian"
      std: 0.01
    }
    bias_filler {
      type: "constant"
      value: 0
    }
  }
}
layers {
  bottom: "conv1_1"
  top: "conv1_1"
  name: "relu1_1"
  type: RELU
}
layers {
  bottom: "conv1_1"
  top: "conv1_2"
  name: "conv1_2"
  type: CONVOLUTION
  convolution_param {
    num_output: 64
    pad: 1
    kernel_size: 3
    weight_filler {
      type: "gaussian"
      std: 0.01
    }
    bias_filler {
      type: "constant"
      value: 0
    }
  }
}
layers {
  bottom: "conv1_2"
  top: "conv1_2"
  name: "relu1_2"
  type: RELU
}
layers {
  bottom: "conv1_2"
  top: "pool1"
  name: "pool1"
  type: POOLING
  pooling_param {
    pool: MAX
    kernel_size: 2
    stride: 2
  }
}
layers {
  bottom: "pool1"
  top: "conv2_1"
  name: "conv2_1"
  type: CONVOLUTION
  convolution_param {
    num_output: 128
    pad: 1
    kernel_size: 3
    weight_filler {
      type: "gaussian"
      std: 0.01
    }
    bias_filler {
      type: "constant"
      value: 0
    }
  }
}
layers {
  bottom: "conv2_1"
  top: "conv2_1"
  name: "relu2_1"
  type: RELU
}
layers {
  bottom: "conv2_1"
  top: "conv2_2"
  name: "conv2_2"
  type: CONVOLUTION
  convolution_param {
    num_output: 128
    pad: 1
    kernel_size: 3
    weight_filler {
      type: "gaussian"
      std: 0.01
    }
    bias_filler {
      type: "constant"
      value: 0
    }
  }
}
layers {
  bottom: "conv2_2"
  top: "conv2_2"
  name: "relu2_2"
  type: RELU
}
layers {
  bottom: "conv2_2"
  top: "pool2"
  name: "pool2"
  type: POOLING
  pooling_param {
    pool: MAX
    kernel_size: 2
    stride: 2
  }
}
layers {
  bottom: "pool2"
  top: "conv3_1"
  name: "conv3_1"
  type: CONVOLUTION
  convolution_param {
    num_output: 256
    pad: 1
    kernel_size: 3
    weight_filler {
      type: "gaussian"
      std: 0.01
    }
    bias_filler {
      type: "constant"
      value: 0
    }
  }
}
layers {
  bottom: "conv3_1"
  top: "conv3_1"
  name: "relu3_1"
  type: RELU
}
layers {
  bottom: "conv3_1"
  top: "conv3_2"
  name: "conv3_2"
  type: CONVOLUTION
  convolution_param {
    num_output: 256
    pad: 1
    kernel_size: 3
    weight_filler {
      type: "gaussian"
      std: 0.01
    }
    bias_filler {
      type: "constant"
      value: 0
    }
  }
}
layers {
  bottom: "conv3_2"
  top: "conv3_2"
  name: "relu3_2"
  type: RELU
}
layers {
  bottom: "conv3_2"
  top: "conv3_3"
  name: "conv3_3"
  type: CONVOLUTION
  convolution_param {
    num_output: 256
    pad: 1
    kernel_size: 3
    weight_filler {
      type: "gaussian"
      std: 0.01
    }
    bias_filler {
      type: "constant"
      value: 0
    }
  }
}
layers {
  bottom: "conv3_3"
  top: "conv3_3"
  name: "relu3_3"
  type: RELU
}
layers {
  bottom: "conv3_3"
  top: "pool3"
  name: "pool3"
  type: POOLING
  pooling_param {
    pool: MAX
    kernel_size: 2
    stride: 2
  }
}
layers {
  bottom: "pool3"
  top: "conv4_1"
  name: "conv4_1"
  type: CONVOLUTION
  convolution_param {
    num_output: 512
    pad: 1
    kernel_size: 3
    weight_filler {
      type: "gaussian"
      std: 0.01
    }
    bias_filler {
      type: "constant"
      value: 0
    }
  }
}
layers {
  bottom: "conv4_1"
  top: "conv4_1"
  name: "relu4_1"
  type: RELU
}
layers {
  bottom: "conv4_1"
  top: "conv4_2"
  name: "conv4_2"
  type: CONVOLUTION
  convolution_param {
    num_output: 512
    pad: 1
    kernel_size: 3
    weight_filler {
      type: "gaussian"
      std: 0.01
    }
    bias_filler {
      type: "constant"
      value: 0
    }
  }
}
layers {
  bottom: "conv4_2"
  top: "conv4_2"
  name: "relu4_2"
  type: RELU
}
layers {
  bottom: "conv4_2"
  top: "conv4_3"
  name: "conv4_3"
  type: CONVOLUTION
  convolution_param {
    num_output: 512
    pad: 1
    kernel_size: 3
    weight_filler {
      type: "gaussian"
      std: 0.01
    }
    bias_filler {
      type: "constant"
      value: 0
    }
  }
}
layers {
  bottom: "conv4_3"
  top: "conv4_3"
  name: "relu4_3"
  type: RELU
}
layers {
  bottom: "conv4_3"
  top: "pool4"
  name: "pool4"
  type: POOLING
  pooling_param {
    pool: MAX
    kernel_size: 2
    stride: 2
  }
}
layers {
  bottom: "pool4"
  top: "conv5_1"
  name: "conv5_1"
  type: CONVOLUTION
  convolution_param {
    num_output: 512
    pad: 1
    kernel_size: 3
    weight_filler {
      type: "gaussian"
      std: 0.01
    }
    bias_filler {
      type: "constant"
      value: 0
    }
  }
}
layers {
  bottom: "conv5_1"
  top: "conv5_1"
  name: "relu5_1"
  type: RELU
}
layers {
  bottom: "conv5_1"
  top: "conv5_2"
  name: "conv5_2"
  type: CONVOLUTION
  convolution_param {
    num_output: 512
    pad: 1
    kernel_size: 3
    weight_filler {
      type: "gaussian"
      std: 0.01
    }
    bias_filler {
      type: "constant"
      value: 0
    }
  }
}
layers {
  bottom: "conv5_2"
  top: "conv5_2"
  name: "relu5_2"
  type: RELU
}
layers {
  bottom: "conv5_2"
  top: "conv5_3"
  name: "conv5_3"
  type: CONVOLUTION
  convolution_param {
    num_output: 512
    pad: 1
    kernel_size: 3
    weight_filler {
      type: "gaussian"
      std: 0.01
    }
    bias_filler {
      type: "constant"
      value: 0
    }
  }
}
layers {
  bottom: "conv5_3"
  top: "conv5_3"
  name: "relu5_3"
  type: RELU
}
layers {
  bottom: "conv5_3"
  top: "pool5"
  name: "pool5"
  type: POOLING
  pooling_param {
    pool: MAX
    kernel_size: 2
    stride: 2
  }
}
layers {
  bottom: "pool5"
  top: "fc6"
  name: "fc6"
  type: INNER_PRODUCT
  inner_product_param {
    num_output: 4096
    weight_filler {
      type: "gaussian"
      std: 0.01
    }
    bias_filler {
      type: "constant"
      value: 0
    }
  }
}
layers {
  bottom: "fc6"
  top: "fc6"
  name: "relu6"
  type: RELU
}
layers {
  bottom: "fc6"
  top: "fc6"
  name: "drop6"
  type: DROPOUT
  dropout_param {
    dropout_ratio: 0.5
  }
}
layers {
  bottom: "fc6"
  top: "fc7"
  name: "fc7"
  type: INNER_PRODUCT
  inner_product_param {
    num_output: 4096
    weight_filler {
      type: "gaussian"
      std: 0.01
    }
    bias_filler {
      type: "constant"
      value: 0
    }
  }
}
layers {
  bottom: "fc7"
  top: "fc7"
  name: "relu7"
  type: RELU
}
layers {
  bottom: "fc7"
  top: "fc7"
  name: "drop7"
  type: DROPOUT
  dropout_param {
    dropout_ratio: 0.5
  }
}
layers {
  bottom: "fc7"
  top: "fc8_2"
  name: "fc8_2"
  type: INNER_PRODUCT
  inner_product_param {
    num_output: 2
    weight_filler {
      type: "gaussian"
      std: 0.01
    }
    bias_filler {
      type: "constant"
      value: 0
    }
  }
}
layers {
  bottom: "fc8_2"
  bottom: "label"
  name: "loss"
  type: SOFTMAX_LOSS
}
layers {
  bottom: "fc8_2"
  bottom: "label"
  top: "accuracy"
  name: "accuracy"
  type: PER_CLASS_ACCURACY
  include {
    phase: TEST
  }
}
state {
  phase: TEST
}
I1107 10:25:50.301120  9023 layer_factory.hpp:78] Creating layer data
I1107 10:25:50.301132  9023 net.cpp:67] Creating Layer data
I1107 10:25:50.301137  9023 net.cpp:356] data -> data
I1107 10:25:50.301146  9023 net.cpp:356] data -> label
I1107 10:25:50.301153  9023 net.cpp:96] Setting up data
I1107 10:25:50.301158  9023 image_data_layer.cpp:34] Opening file /data/ad6813/devCaffe/caffe/data/inadcl_o/val.txt
I1107 10:25:50.301350  9023 image_data_layer.cpp:49] A total of 473 images.
I1107 10:25:50.330582  9023 image_data_layer.cpp:78] output data size: 8,3,224,224
I1107 10:25:50.331751  9023 net.cpp:103] Top shape: 8 3 224 224 (1204224)
I1107 10:25:50.331771  9023 net.cpp:103] Top shape: 8 1 1 1 (8)
I1107 10:25:50.331779  9023 layer_factory.hpp:78] Creating layer label_data_1_split
I1107 10:25:50.331794  9023 net.cpp:67] Creating Layer label_data_1_split
I1107 10:25:50.331799  9023 net.cpp:394] label_data_1_split <- label
I1107 10:25:50.331807  9023 net.cpp:356] label_data_1_split -> label_data_1_split_0
I1107 10:25:50.331816  9023 net.cpp:356] label_data_1_split -> label_data_1_split_1
I1107 10:25:50.331823  9023 net.cpp:96] Setting up label_data_1_split
I1107 10:25:50.331830  9023 net.cpp:103] Top shape: 8 1 1 1 (8)
I1107 10:25:50.331835  9023 net.cpp:103] Top shape: 8 1 1 1 (8)
I1107 10:25:50.331840  9023 layer_factory.hpp:78] Creating layer conv1_1
I1107 10:25:50.331848  9023 net.cpp:67] Creating Layer conv1_1
I1107 10:25:50.331852  9023 net.cpp:394] conv1_1 <- data
I1107 10:25:50.331859  9023 net.cpp:356] conv1_1 -> conv1_1
I1107 10:25:50.331866  9023 net.cpp:96] Setting up conv1_1
I1107 10:25:50.332027  9023 net.cpp:103] Top shape: 8 64 224 224 (25690112)
I1107 10:25:50.332041  9023 layer_factory.hpp:78] Creating layer relu1_1
I1107 10:25:50.332046  9023 net.cpp:67] Creating Layer relu1_1
I1107 10:25:50.332051  9023 net.cpp:394] relu1_1 <- conv1_1
I1107 10:25:50.332056  9023 net.cpp:345] relu1_1 -> conv1_1 (in-place)
I1107 10:25:50.332069  9023 net.cpp:96] Setting up relu1_1
I1107 10:25:50.332077  9023 net.cpp:103] Top shape: 8 64 224 224 (25690112)
I1107 10:25:50.332082  9023 layer_factory.hpp:78] Creating layer conv1_2
I1107 10:25:50.332087  9023 net.cpp:67] Creating Layer conv1_2
I1107 10:25:50.332090  9023 net.cpp:394] conv1_2 <- conv1_1
I1107 10:25:50.332095  9023 net.cpp:356] conv1_2 -> conv1_2
I1107 10:25:50.332101  9023 net.cpp:96] Setting up conv1_2
I1107 10:25:50.333057  9023 net.cpp:103] Top shape: 8 64 224 224 (25690112)
I1107 10:25:50.333070  9023 layer_factory.hpp:78] Creating layer relu1_2
I1107 10:25:50.333076  9023 net.cpp:67] Creating Layer relu1_2
I1107 10:25:50.333081  9023 net.cpp:394] relu1_2 <- conv1_2
I1107 10:25:50.333086  9023 net.cpp:345] relu1_2 -> conv1_2 (in-place)
I1107 10:25:50.333092  9023 net.cpp:96] Setting up relu1_2
I1107 10:25:50.333099  9023 net.cpp:103] Top shape: 8 64 224 224 (25690112)
I1107 10:25:50.333103  9023 layer_factory.hpp:78] Creating layer pool1
I1107 10:25:50.333108  9023 net.cpp:67] Creating Layer pool1
I1107 10:25:50.333112  9023 net.cpp:394] pool1 <- conv1_2
I1107 10:25:50.333117  9023 net.cpp:356] pool1 -> pool1
I1107 10:25:50.333123  9023 net.cpp:96] Setting up pool1
I1107 10:25:50.333132  9023 net.cpp:103] Top shape: 8 64 112 112 (6422528)
I1107 10:25:50.333137  9023 layer_factory.hpp:78] Creating layer conv2_1
I1107 10:25:50.333142  9023 net.cpp:67] Creating Layer conv2_1
I1107 10:25:50.333148  9023 net.cpp:394] conv2_1 <- pool1
I1107 10:25:50.333153  9023 net.cpp:356] conv2_1 -> conv2_1
I1107 10:25:50.333159  9023 net.cpp:96] Setting up conv2_1
I1107 10:25:50.335134  9023 net.cpp:103] Top shape: 8 128 112 112 (12845056)
I1107 10:25:50.335147  9023 layer_factory.hpp:78] Creating layer relu2_1
I1107 10:25:50.335155  9023 net.cpp:67] Creating Layer relu2_1
I1107 10:25:50.335158  9023 net.cpp:394] relu2_1 <- conv2_1
I1107 10:25:50.335165  9023 net.cpp:345] relu2_1 -> conv2_1 (in-place)
I1107 10:25:50.335171  9023 net.cpp:96] Setting up relu2_1
I1107 10:25:50.335177  9023 net.cpp:103] Top shape: 8 128 112 112 (12845056)
I1107 10:25:50.335182  9023 layer_factory.hpp:78] Creating layer conv2_2
I1107 10:25:50.335187  9023 net.cpp:67] Creating Layer conv2_2
I1107 10:25:50.335191  9023 net.cpp:394] conv2_2 <- conv2_1
I1107 10:25:50.335196  9023 net.cpp:356] conv2_2 -> conv2_2
I1107 10:25:50.335203  9023 net.cpp:96] Setting up conv2_2
I1107 10:25:50.338817  9023 net.cpp:103] Top shape: 8 128 112 112 (12845056)
I1107 10:25:50.338829  9023 layer_factory.hpp:78] Creating layer relu2_2
I1107 10:25:50.338836  9023 net.cpp:67] Creating Layer relu2_2
I1107 10:25:50.338841  9023 net.cpp:394] relu2_2 <- conv2_2
I1107 10:25:50.338847  9023 net.cpp:345] relu2_2 -> conv2_2 (in-place)
I1107 10:25:50.338853  9023 net.cpp:96] Setting up relu2_2
I1107 10:25:50.338860  9023 net.cpp:103] Top shape: 8 128 112 112 (12845056)
I1107 10:25:50.338863  9023 layer_factory.hpp:78] Creating layer pool2
I1107 10:25:50.338868  9023 net.cpp:67] Creating Layer pool2
I1107 10:25:50.338872  9023 net.cpp:394] pool2 <- conv2_2
I1107 10:25:50.338877  9023 net.cpp:356] pool2 -> pool2
I1107 10:25:50.338883  9023 net.cpp:96] Setting up pool2
I1107 10:25:50.338889  9023 net.cpp:103] Top shape: 8 128 56 56 (3211264)
I1107 10:25:50.338894  9023 layer_factory.hpp:78] Creating layer conv3_1
I1107 10:25:50.338899  9023 net.cpp:67] Creating Layer conv3_1
I1107 10:25:50.338903  9023 net.cpp:394] conv3_1 <- pool2
I1107 10:25:50.338910  9023 net.cpp:356] conv3_1 -> conv3_1
I1107 10:25:50.338917  9023 net.cpp:96] Setting up conv3_1
I1107 10:25:50.346091  9023 net.cpp:103] Top shape: 8 256 56 56 (6422528)
I1107 10:25:50.346106  9023 layer_factory.hpp:78] Creating layer relu3_1
I1107 10:25:50.346113  9023 net.cpp:67] Creating Layer relu3_1
I1107 10:25:50.346118  9023 net.cpp:394] relu3_1 <- conv3_1
I1107 10:25:50.346125  9023 net.cpp:345] relu3_1 -> conv3_1 (in-place)
I1107 10:25:50.346132  9023 net.cpp:96] Setting up relu3_1
I1107 10:25:50.346138  9023 net.cpp:103] Top shape: 8 256 56 56 (6422528)
I1107 10:25:50.346143  9023 layer_factory.hpp:78] Creating layer conv3_2
I1107 10:25:50.346154  9023 net.cpp:67] Creating Layer conv3_2
I1107 10:25:50.346159  9023 net.cpp:394] conv3_2 <- conv3_1
I1107 10:25:50.346165  9023 net.cpp:356] conv3_2 -> conv3_2
I1107 10:25:50.346173  9023 net.cpp:96] Setting up conv3_2
I1107 10:25:50.360780  9023 net.cpp:103] Top shape: 8 256 56 56 (6422528)
I1107 10:25:50.360795  9023 layer_factory.hpp:78] Creating layer relu3_2
I1107 10:25:50.360800  9023 net.cpp:67] Creating Layer relu3_2
I1107 10:25:50.360805  9023 net.cpp:394] relu3_2 <- conv3_2
I1107 10:25:50.360812  9023 net.cpp:345] relu3_2 -> conv3_2 (in-place)
I1107 10:25:50.360818  9023 net.cpp:96] Setting up relu3_2
I1107 10:25:50.360824  9023 net.cpp:103] Top shape: 8 256 56 56 (6422528)
I1107 10:25:50.360829  9023 layer_factory.hpp:78] Creating layer conv3_3
I1107 10:25:50.360838  9023 net.cpp:67] Creating Layer conv3_3
I1107 10:25:50.360843  9023 net.cpp:394] conv3_3 <- conv3_2
I1107 10:25:50.360849  9023 net.cpp:356] conv3_3 -> conv3_3
I1107 10:25:50.360857  9023 net.cpp:96] Setting up conv3_3
I1107 10:25:50.375565  9023 net.cpp:103] Top shape: 8 256 56 56 (6422528)
I1107 10:25:50.375586  9023 layer_factory.hpp:78] Creating layer relu3_3
I1107 10:25:50.375592  9023 net.cpp:67] Creating Layer relu3_3
I1107 10:25:50.375598  9023 net.cpp:394] relu3_3 <- conv3_3
I1107 10:25:50.375608  9023 net.cpp:345] relu3_3 -> conv3_3 (in-place)
I1107 10:25:50.375617  9023 net.cpp:96] Setting up relu3_3
I1107 10:25:50.375622  9023 net.cpp:103] Top shape: 8 256 56 56 (6422528)
I1107 10:25:50.375627  9023 layer_factory.hpp:78] Creating layer pool3
I1107 10:25:50.375633  9023 net.cpp:67] Creating Layer pool3
I1107 10:25:50.375638  9023 net.cpp:394] pool3 <- conv3_3
I1107 10:25:50.375643  9023 net.cpp:356] pool3 -> pool3
I1107 10:25:50.375649  9023 net.cpp:96] Setting up pool3
I1107 10:25:50.375658  9023 net.cpp:103] Top shape: 8 256 28 28 (1605632)
I1107 10:25:50.375663  9023 layer_factory.hpp:78] Creating layer conv4_1
I1107 10:25:50.375670  9023 net.cpp:67] Creating Layer conv4_1
I1107 10:25:50.375675  9023 net.cpp:394] conv4_1 <- pool3
I1107 10:25:50.375682  9023 net.cpp:356] conv4_1 -> conv4_1
I1107 10:25:50.375689  9023 net.cpp:96] Setting up conv4_1
I1107 10:25:50.405071  9023 net.cpp:103] Top shape: 8 512 28 28 (3211264)
I1107 10:25:50.405094  9023 layer_factory.hpp:78] Creating layer relu4_1
I1107 10:25:50.405102  9023 net.cpp:67] Creating Layer relu4_1
I1107 10:25:50.405108  9023 net.cpp:394] relu4_1 <- conv4_1
I1107 10:25:50.405118  9023 net.cpp:345] relu4_1 -> conv4_1 (in-place)
I1107 10:25:50.405127  9023 net.cpp:96] Setting up relu4_1
I1107 10:25:50.405133  9023 net.cpp:103] Top shape: 8 512 28 28 (3211264)
I1107 10:25:50.405138  9023 layer_factory.hpp:78] Creating layer conv4_2
I1107 10:25:50.405145  9023 net.cpp:67] Creating Layer conv4_2
I1107 10:25:50.405149  9023 net.cpp:394] conv4_2 <- conv4_1
I1107 10:25:50.405158  9023 net.cpp:356] conv4_2 -> conv4_2
I1107 10:25:50.405164  9023 net.cpp:96] Setting up conv4_2
I1107 10:25:50.463383  9023 net.cpp:103] Top shape: 8 512 28 28 (3211264)
I1107 10:25:50.463413  9023 layer_factory.hpp:78] Creating layer relu4_2
I1107 10:25:50.463423  9023 net.cpp:67] Creating Layer relu4_2
I1107 10:25:50.463428  9023 net.cpp:394] relu4_2 <- conv4_2
I1107 10:25:50.463433  9023 net.cpp:345] relu4_2 -> conv4_2 (in-place)
I1107 10:25:50.463440  9023 net.cpp:96] Setting up relu4_2
I1107 10:25:50.463448  9023 net.cpp:103] Top shape: 8 512 28 28 (3211264)
I1107 10:25:50.463453  9023 layer_factory.hpp:78] Creating layer conv4_3
I1107 10:25:50.463459  9023 net.cpp:67] Creating Layer conv4_3
I1107 10:25:50.463464  9023 net.cpp:394] conv4_3 <- conv4_2
I1107 10:25:50.463469  9023 net.cpp:356] conv4_3 -> conv4_3
I1107 10:25:50.463477  9023 net.cpp:96] Setting up conv4_3
I1107 10:25:50.521744  9023 net.cpp:103] Top shape: 8 512 28 28 (3211264)
I1107 10:25:50.521770  9023 layer_factory.hpp:78] Creating layer relu4_3
I1107 10:25:50.521776  9023 net.cpp:67] Creating Layer relu4_3
I1107 10:25:50.521780  9023 net.cpp:394] relu4_3 <- conv4_3
I1107 10:25:50.521788  9023 net.cpp:345] relu4_3 -> conv4_3 (in-place)
I1107 10:25:50.521805  9023 net.cpp:96] Setting up relu4_3
I1107 10:25:50.521811  9023 net.cpp:103] Top shape: 8 512 28 28 (3211264)
I1107 10:25:50.521816  9023 layer_factory.hpp:78] Creating layer pool4
I1107 10:25:50.521823  9023 net.cpp:67] Creating Layer pool4
I1107 10:25:50.521828  9023 net.cpp:394] pool4 <- conv4_3
I1107 10:25:50.521833  9023 net.cpp:356] pool4 -> pool4
I1107 10:25:50.521841  9023 net.cpp:96] Setting up pool4
I1107 10:25:50.521848  9023 net.cpp:103] Top shape: 8 512 14 14 (802816)
I1107 10:25:50.521853  9023 layer_factory.hpp:78] Creating layer conv5_1
I1107 10:25:50.521860  9023 net.cpp:67] Creating Layer conv5_1
I1107 10:25:50.521864  9023 net.cpp:394] conv5_1 <- pool4
I1107 10:25:50.521870  9023 net.cpp:356] conv5_1 -> conv5_1
I1107 10:25:50.521878  9023 net.cpp:96] Setting up conv5_1
I1107 10:25:50.580183  9023 net.cpp:103] Top shape: 8 512 14 14 (802816)
I1107 10:25:50.580209  9023 layer_factory.hpp:78] Creating layer relu5_1
I1107 10:25:50.580217  9023 net.cpp:67] Creating Layer relu5_1
I1107 10:25:50.580222  9023 net.cpp:394] relu5_1 <- conv5_1
I1107 10:25:50.580235  9023 net.cpp:345] relu5_1 -> conv5_1 (in-place)
I1107 10:25:50.580243  9023 net.cpp:96] Setting up relu5_1
I1107 10:25:50.580250  9023 net.cpp:103] Top shape: 8 512 14 14 (802816)
I1107 10:25:50.580255  9023 layer_factory.hpp:78] Creating layer conv5_2
I1107 10:25:50.580261  9023 net.cpp:67] Creating Layer conv5_2
I1107 10:25:50.580266  9023 net.cpp:394] conv5_2 <- conv5_1
I1107 10:25:50.580272  9023 net.cpp:356] conv5_2 -> conv5_2
I1107 10:25:50.580279  9023 net.cpp:96] Setting up conv5_2
I1107 10:25:50.638579  9023 net.cpp:103] Top shape: 8 512 14 14 (802816)
I1107 10:25:50.638604  9023 layer_factory.hpp:78] Creating layer relu5_2
I1107 10:25:50.638613  9023 net.cpp:67] Creating Layer relu5_2
I1107 10:25:50.638619  9023 net.cpp:394] relu5_2 <- conv5_2
I1107 10:25:50.638628  9023 net.cpp:345] relu5_2 -> conv5_2 (in-place)
I1107 10:25:50.638634  9023 net.cpp:96] Setting up relu5_2
I1107 10:25:50.638641  9023 net.cpp:103] Top shape: 8 512 14 14 (802816)
I1107 10:25:50.638646  9023 layer_factory.hpp:78] Creating layer conv5_3
I1107 10:25:50.638653  9023 net.cpp:67] Creating Layer conv5_3
I1107 10:25:50.638659  9023 net.cpp:394] conv5_3 <- conv5_2
I1107 10:25:50.638664  9023 net.cpp:356] conv5_3 -> conv5_3
I1107 10:25:50.638670  9023 net.cpp:96] Setting up conv5_3
I1107 10:25:50.697021  9023 net.cpp:103] Top shape: 8 512 14 14 (802816)
I1107 10:25:50.697046  9023 layer_factory.hpp:78] Creating layer relu5_3
I1107 10:25:50.697056  9023 net.cpp:67] Creating Layer relu5_3
I1107 10:25:50.697060  9023 net.cpp:394] relu5_3 <- conv5_3
I1107 10:25:50.697069  9023 net.cpp:345] relu5_3 -> conv5_3 (in-place)
I1107 10:25:50.697077  9023 net.cpp:96] Setting up relu5_3
I1107 10:25:50.697084  9023 net.cpp:103] Top shape: 8 512 14 14 (802816)
I1107 10:25:50.697089  9023 layer_factory.hpp:78] Creating layer pool5
I1107 10:25:50.697100  9023 net.cpp:67] Creating Layer pool5
I1107 10:25:50.697105  9023 net.cpp:394] pool5 <- conv5_3
I1107 10:25:50.697110  9023 net.cpp:356] pool5 -> pool5
I1107 10:25:50.697118  9023 net.cpp:96] Setting up pool5
I1107 10:25:50.697125  9023 net.cpp:103] Top shape: 8 512 7 7 (200704)
I1107 10:25:50.697130  9023 layer_factory.hpp:78] Creating layer fc6
I1107 10:25:50.697142  9023 net.cpp:67] Creating Layer fc6
I1107 10:25:50.697147  9023 net.cpp:394] fc6 <- pool5
I1107 10:25:50.697154  9023 net.cpp:356] fc6 -> fc6
I1107 10:25:50.697163  9023 net.cpp:96] Setting up fc6
I1107 10:25:53.257843  9023 net.cpp:103] Top shape: 8 4096 1 1 (32768)
I1107 10:25:53.257887  9023 layer_factory.hpp:78] Creating layer relu6
I1107 10:25:53.257897  9023 net.cpp:67] Creating Layer relu6
I1107 10:25:53.257904  9023 net.cpp:394] relu6 <- fc6
I1107 10:25:53.257910  9023 net.cpp:345] relu6 -> fc6 (in-place)
I1107 10:25:53.257917  9023 net.cpp:96] Setting up relu6
I1107 10:25:53.257931  9023 net.cpp:103] Top shape: 8 4096 1 1 (32768)
I1107 10:25:53.257936  9023 layer_factory.hpp:78] Creating layer drop6
I1107 10:25:53.257952  9023 net.cpp:67] Creating Layer drop6
I1107 10:25:53.257958  9023 net.cpp:394] drop6 <- fc6
I1107 10:25:53.257966  9023 net.cpp:345] drop6 -> fc6 (in-place)
I1107 10:25:53.257972  9023 net.cpp:96] Setting up drop6
I1107 10:25:53.257978  9023 net.cpp:103] Top shape: 8 4096 1 1 (32768)
I1107 10:25:53.257983  9023 layer_factory.hpp:78] Creating layer fc7
I1107 10:25:53.257990  9023 net.cpp:67] Creating Layer fc7
I1107 10:25:53.257994  9023 net.cpp:394] fc7 <- fc6
I1107 10:25:53.258002  9023 net.cpp:356] fc7 -> fc7
I1107 10:25:53.258010  9023 net.cpp:96] Setting up fc7
I1107 10:25:53.658020  9023 net.cpp:103] Top shape: 8 4096 1 1 (32768)
I1107 10:25:53.658063  9023 layer_factory.hpp:78] Creating layer relu7
I1107 10:25:53.658071  9023 net.cpp:67] Creating Layer relu7
I1107 10:25:53.658077  9023 net.cpp:394] relu7 <- fc7
I1107 10:25:53.658084  9023 net.cpp:345] relu7 -> fc7 (in-place)
I1107 10:25:53.658092  9023 net.cpp:96] Setting up relu7
I1107 10:25:53.658105  9023 net.cpp:103] Top shape: 8 4096 1 1 (32768)
I1107 10:25:53.658109  9023 layer_factory.hpp:78] Creating layer drop7
I1107 10:25:53.658114  9023 net.cpp:67] Creating Layer drop7
I1107 10:25:53.658120  9023 net.cpp:394] drop7 <- fc7
I1107 10:25:53.658129  9023 net.cpp:345] drop7 -> fc7 (in-place)
I1107 10:25:53.658136  9023 net.cpp:96] Setting up drop7
I1107 10:25:53.658141  9023 net.cpp:103] Top shape: 8 4096 1 1 (32768)
I1107 10:25:53.658146  9023 layer_factory.hpp:78] Creating layer fc8_2
I1107 10:25:53.658155  9023 net.cpp:67] Creating Layer fc8_2
I1107 10:25:53.658159  9023 net.cpp:394] fc8_2 <- fc7
I1107 10:25:53.658164  9023 net.cpp:356] fc8_2 -> fc8_2
I1107 10:25:53.658171  9023 net.cpp:96] Setting up fc8_2
I1107 10:25:53.658383  9023 net.cpp:103] Top shape: 8 2 1 1 (16)
I1107 10:25:53.658391  9023 layer_factory.hpp:78] Creating layer fc8_2_fc8_2_0_split
I1107 10:25:53.658399  9023 net.cpp:67] Creating Layer fc8_2_fc8_2_0_split
I1107 10:25:53.658403  9023 net.cpp:394] fc8_2_fc8_2_0_split <- fc8_2
I1107 10:25:53.658409  9023 net.cpp:356] fc8_2_fc8_2_0_split -> fc8_2_fc8_2_0_split_0
I1107 10:25:53.658416  9023 net.cpp:356] fc8_2_fc8_2_0_split -> fc8_2_fc8_2_0_split_1
I1107 10:25:53.658423  9023 net.cpp:96] Setting up fc8_2_fc8_2_0_split
I1107 10:25:53.658428  9023 net.cpp:103] Top shape: 8 2 1 1 (16)
I1107 10:25:53.658432  9023 net.cpp:103] Top shape: 8 2 1 1 (16)
I1107 10:25:53.658437  9023 layer_factory.hpp:78] Creating layer loss
I1107 10:25:53.658444  9023 net.cpp:67] Creating Layer loss
I1107 10:25:53.658449  9023 net.cpp:394] loss <- fc8_2_fc8_2_0_split_0
I1107 10:25:53.658454  9023 net.cpp:394] loss <- label_data_1_split_0
I1107 10:25:53.658460  9023 net.cpp:356] loss -> (automatic)
I1107 10:25:53.658465  9023 net.cpp:96] Setting up loss
I1107 10:25:53.658473  9023 net.cpp:103] Top shape: 1 1 1 1 (1)
I1107 10:25:53.658478  9023 net.cpp:109]     with loss weight 1
I1107 10:25:53.658491  9023 layer_factory.hpp:78] Creating layer accuracy
I1107 10:25:53.658504  9023 net.cpp:67] Creating Layer accuracy
I1107 10:25:53.658507  9023 net.cpp:394] accuracy <- fc8_2_fc8_2_0_split_1
I1107 10:25:53.658512  9023 net.cpp:394] accuracy <- label_data_1_split_1
I1107 10:25:53.658519  9023 net.cpp:356] accuracy -> accuracy
I1107 10:25:53.658525  9023 net.cpp:96] Setting up accuracy
I1107 10:25:53.658535  9023 net.cpp:103] Top shape: 1 1 1 4 (4)
I1107 10:25:53.658538  9023 net.cpp:172] accuracy does not need backward computation.
I1107 10:25:53.658543  9023 net.cpp:170] loss needs backward computation.
I1107 10:25:53.658547  9023 net.cpp:170] fc8_2_fc8_2_0_split needs backward computation.
I1107 10:25:53.658551  9023 net.cpp:170] fc8_2 needs backward computation.
I1107 10:25:53.658556  9023 net.cpp:170] drop7 needs backward computation.
…
