WARNING: Logging before InitGoogleLogging() is written to STDERR
I1111 15:55:45.732408  7818 net.cpp:39] Initializing net from parameters: 
name: "alex"
layers {
  bottom: "data"
  top: "conv1"
  name: "conv1"
  type: CONVOLUTION
  blobs_lr: 1
  blobs_lr: 2
  weight_decay: 1
  weight_decay: 0
  convolution_param {
    num_output: 96
    kernel_size: 11
    stride: 4
  }
}
layers {
  bottom: "conv1"
  top: "conv1"
  name: "relu1"
  type: RELU
}
layers {
  bottom: "conv1"
  top: "pool1"
  name: "pool1"
  type: POOLING
  pooling_param {
    pool: MAX
    kernel_size: 3
    stride: 2
  }
}
layers {
  bottom: "pool1"
  top: "norm1"
  name: "norm1"
  type: LRN
  lrn_param {
    local_size: 5
    alpha: 0.0001
    beta: 0.75
  }
}
layers {
  bottom: "norm1"
  top: "conv2"
  name: "conv2"
  type: CONVOLUTION
  blobs_lr: 1
  blobs_lr: 2
  weight_decay: 1
  weight_decay: 0
  convolution_param {
    num_output: 256
    pad: 2
    kernel_size: 5
    group: 2
  }
}
layers {
  bottom: "conv2"
  top: "conv2"
  name: "relu2"
  type: RELU
}
layers {
  bottom: "conv2"
  top: "pool2"
  name: "pool2"
  type: POOLING
  pooling_param {
    pool: MAX
    kernel_size: 3
    stride: 2
  }
}
layers {
  bottom: "pool2"
  top: "norm2"
  name: "norm2"
  type: LRN
  lrn_param {
    local_size: 5
    alpha: 0.0001
    beta: 0.75
  }
}
layers {
  bottom: "norm2"
  top: "conv3"
  name: "conv3"
  type: CONVOLUTION
  blobs_lr: 1
  blobs_lr: 2
  weight_decay: 1
  weight_decay: 0
  convolution_param {
    num_output: 384
    pad: 1
    kernel_size: 3
  }
}
layers {
  bottom: "conv3"
  top: "conv3"
  name: "relu3"
  type: RELU
}
layers {
  bottom: "conv3"
  top: "conv4"
  name: "conv4"
  type: CONVOLUTION
  blobs_lr: 1
  blobs_lr: 2
  weight_decay: 1
  weight_decay: 0
  convolution_param {
    num_output: 384
    pad: 1
    kernel_size: 3
    group: 2
  }
}
layers {
  bottom: "conv4"
  top: "conv4"
  name: "relu4"
  type: RELU
}
layers {
  bottom: "conv4"
  top: "conv5"
  name: "conv5"
  type: CONVOLUTION
  blobs_lr: 1
  blobs_lr: 2
  weight_decay: 1
  weight_decay: 0
  convolution_param {
    num_output: 256
    pad: 1
    kernel_size: 3
    group: 2
  }
}
layers {
  bottom: "conv5"
  top: "conv5"
  name: "relu5"
  type: RELU
}
layers {
  bottom: "conv5"
  top: "pool5"
  name: "pool5"
  type: POOLING
  pooling_param {
    pool: MAX
    kernel_size: 3
    stride: 2
  }
}
layers {
  bottom: "pool5"
  top: "fc6"
  name: "fc6"
  type: INNER_PRODUCT
  blobs_lr: 1
  blobs_lr: 2
  weight_decay: 1
  weight_decay: 0
  inner_product_param {
    num_output: 4096
  }
}
layers {
  bottom: "fc6"
  top: "fc6"
  name: "relu6"
  type: RELU
}
layers {
  bottom: "fc6"
  top: "fc6"
  name: "drop6"
  type: DROPOUT
  dropout_param {
    dropout_ratio: 0.5
  }
}
layers {
  bottom: "fc6"
  top: "fc7"
  name: "fc7"
  type: INNER_PRODUCT
  blobs_lr: 1
  blobs_lr: 2
  weight_decay: 1
  weight_decay: 0
  inner_product_param {
    num_output: 4096
  }
}
layers {
  bottom: "fc7"
  top: "fc7"
  name: "relu7"
  type: RELU
}
layers {
  bottom: "fc7"
  top: "fc7"
  name: "drop7"
  type: DROPOUT
  dropout_param {
    dropout_ratio: 0.5
  }
}
layers {
  bottom: "fc7"
  top: "fc8_clamp"
  name: "fc8_clamp"
  type: INNER_PRODUCT
  blobs_lr: 1
  blobs_lr: 2
  weight_decay: 1
  weight_decay: 0
  inner_product_param {
    num_output: 2
  }
}
layers {
  bottom: "fc8_clamp"
  top: "prob"
  name: "prob"
  type: SOFTMAX
}
input: "data"
input_dim: 10
input_dim: 3
input_dim: 227
input_dim: 227
I1111 15:55:45.751610  7818 net.cpp:358] Input 0 -> data
I1111 15:55:45.761559  7818 layer_factory.hpp:78] Creating layer conv1
I1111 15:55:45.761605  7818 net.cpp:67] Creating Layer conv1
I1111 15:55:45.761620  7818 net.cpp:394] conv1 <- data
I1111 15:55:45.761638  7818 net.cpp:356] conv1 -> conv1
I1111 15:55:45.761662  7818 net.cpp:96] Setting up conv1
I1111 15:55:46.405992  7818 net.cpp:103] Top shape: 10 96 55 55 (2904000)
I1111 15:55:46.406030  7818 layer_factory.hpp:78] Creating layer relu1
I1111 15:55:46.406044  7818 net.cpp:67] Creating Layer relu1
I1111 15:55:46.406049  7818 net.cpp:394] relu1 <- conv1
I1111 15:55:46.406054  7818 net.cpp:345] relu1 -> conv1 (in-place)
I1111 15:55:46.406062  7818 net.cpp:96] Setting up relu1
I1111 15:55:46.416760  7818 net.cpp:103] Top shape: 10 96 55 55 (2904000)
I1111 15:55:46.416797  7818 layer_factory.hpp:78] Creating layer pool1
I1111 15:55:46.416836  7818 net.cpp:67] Creating Layer pool1
I1111 15:55:46.416848  7818 net.cpp:394] pool1 <- conv1
I1111 15:55:46.416863  7818 net.cpp:356] pool1 -> pool1
I1111 15:55:46.416883  7818 net.cpp:96] Setting up pool1
I1111 15:55:46.416924  7818 net.cpp:103] Top shape: 10 96 27 27 (699840)
I1111 15:55:46.416950  7818 layer_factory.hpp:78] Creating layer norm1
I1111 15:55:46.416975  7818 net.cpp:67] Creating Layer norm1
I1111 15:55:46.416985  7818 net.cpp:394] norm1 <- pool1
I1111 15:55:46.416998  7818 net.cpp:356] norm1 -> norm1
I1111 15:55:46.417014  7818 net.cpp:96] Setting up norm1
I1111 15:55:46.417026  7818 net.cpp:103] Top shape: 10 96 27 27 (699840)
I1111 15:55:46.417033  7818 layer_factory.hpp:78] Creating layer conv2
I1111 15:55:46.417055  7818 net.cpp:67] Creating Layer conv2
I1111 15:55:46.417063  7818 net.cpp:394] conv2 <- norm1
I1111 15:55:46.417076  7818 net.cpp:356] conv2 -> conv2
I1111 15:55:46.417093  7818 net.cpp:96] Setting up conv2
I1111 15:55:46.418108  7818 net.cpp:103] Top shape: 10 256 27 27 (1866240)
I1111 15:55:46.418146  7818 layer_factory.hpp:78] Creating layer relu2
I1111 15:55:46.418160  7818 net.cpp:67] Creating Layer relu2
I1111 15:55:46.418169  7818 net.cpp:394] relu2 <- conv2
I1111 15:55:46.418186  7818 net.cpp:345] relu2 -> conv2 (in-place)
I1111 15:55:46.418200  7818 net.cpp:96] Setting up relu2
I1111 15:55:46.418215  7818 net.cpp:103] Top shape: 10 256 27 27 (1866240)
I1111 15:55:46.418225  7818 layer_factory.hpp:78] Creating layer pool2
I1111 15:55:46.418237  7818 net.cpp:67] Creating Layer pool2
I1111 15:55:46.418246  7818 net.cpp:394] pool2 <- conv2
I1111 15:55:46.418262  7818 net.cpp:356] pool2 -> pool2
I1111 15:55:46.418275  7818 net.cpp:96] Setting up pool2
I1111 15:55:46.418292  7818 net.cpp:103] Top shape: 10 256 13 13 (432640)
I1111 15:55:46.418301  7818 layer_factory.hpp:78] Creating layer norm2
I1111 15:55:46.418313  7818 net.cpp:67] Creating Layer norm2
I1111 15:55:46.418320  7818 net.cpp:394] norm2 <- pool2
I1111 15:55:46.418339  7818 net.cpp:356] norm2 -> norm2
I1111 15:55:46.418354  7818 net.cpp:96] Setting up norm2
I1111 15:55:46.418364  7818 net.cpp:103] Top shape: 10 256 13 13 (432640)
I1111 15:55:46.418371  7818 layer_factory.hpp:78] Creating layer conv3
I1111 15:55:46.418386  7818 net.cpp:67] Creating Layer conv3
I1111 15:55:46.418395  7818 net.cpp:394] conv3 <- norm2
I1111 15:55:46.418412  7818 net.cpp:356] conv3 -> conv3
I1111 15:55:46.418426  7818 net.cpp:96] Setting up conv3
I1111 15:55:46.421008  7818 net.cpp:103] Top shape: 10 384 13 13 (648960)
I1111 15:55:46.421051  7818 layer_factory.hpp:78] Creating layer relu3
I1111 15:55:46.421066  7818 net.cpp:67] Creating Layer relu3
I1111 15:55:46.421075  7818 net.cpp:394] relu3 <- conv3
I1111 15:55:46.421088  7818 net.cpp:345] relu3 -> conv3 (in-place)
I1111 15:55:46.421102  7818 net.cpp:96] Setting up relu3
I1111 15:55:46.421116  7818 net.cpp:103] Top shape: 10 384 13 13 (648960)
I1111 15:55:46.421125  7818 layer_factory.hpp:78] Creating layer conv4
I1111 15:55:46.421143  7818 net.cpp:67] Creating Layer conv4
I1111 15:55:46.421151  7818 net.cpp:394] conv4 <- conv3
I1111 15:55:46.421164  7818 net.cpp:356] conv4 -> conv4
I1111 15:55:46.421180  7818 net.cpp:96] Setting up conv4
I1111 15:55:46.423903  7818 net.cpp:103] Top shape: 10 384 13 13 (648960)
I1111 15:55:46.423914  7818 layer_factory.hpp:78] Creating layer relu4
I1111 15:55:46.423919  7818 net.cpp:67] Creating Layer relu4
I1111 15:55:46.423923  7818 net.cpp:394] relu4 <- conv4
I1111 15:55:46.423928  7818 net.cpp:345] relu4 -> conv4 (in-place)
I1111 15:55:46.423933  7818 net.cpp:96] Setting up relu4
I1111 15:55:46.423938  7818 net.cpp:103] Top shape: 10 384 13 13 (648960)
I1111 15:55:46.423940  7818 layer_factory.hpp:78] Creating layer conv5
I1111 15:55:46.423945  7818 net.cpp:67] Creating Layer conv5
I1111 15:55:46.423949  7818 net.cpp:394] conv5 <- conv4
I1111 15:55:46.423954  7818 net.cpp:356] conv5 -> conv5
I1111 15:55:46.423959  7818 net.cpp:96] Setting up conv5
I1111 15:55:46.424547  7818 net.cpp:103] Top shape: 10 256 13 13 (432640)
I1111 15:55:46.424559  7818 layer_factory.hpp:78] Creating layer relu5
I1111 15:55:46.424564  7818 net.cpp:67] Creating Layer relu5
I1111 15:55:46.424567  7818 net.cpp:394] relu5 <- conv5
I1111 15:55:46.424572  7818 net.cpp:345] relu5 -> conv5 (in-place)
I1111 15:55:46.424578  7818 net.cpp:96] Setting up relu5
I1111 15:55:46.424582  7818 net.cpp:103] Top shape: 10 256 13 13 (432640)
I1111 15:55:46.424585  7818 layer_factory.hpp:78] Creating layer pool5
I1111 15:55:46.424590  7818 net.cpp:67] Creating Layer pool5
I1111 15:55:46.424593  7818 net.cpp:394] pool5 <- conv5
I1111 15:55:46.424597  7818 net.cpp:356] pool5 -> pool5
I1111 15:55:46.424602  7818 net.cpp:96] Setting up pool5
I1111 15:55:46.424608  7818 net.cpp:103] Top shape: 10 256 6 6 (92160)
I1111 15:55:46.424612  7818 layer_factory.hpp:78] Creating layer fc6
I1111 15:55:46.424621  7818 net.cpp:67] Creating Layer fc6
I1111 15:55:46.424624  7818 net.cpp:394] fc6 <- pool5
I1111 15:55:46.424628  7818 net.cpp:356] fc6 -> fc6
I1111 15:55:46.424633  7818 net.cpp:96] Setting up fc6
I1111 15:55:46.455001  7818 net.cpp:103] Top shape: 10 4096 1 1 (40960)
I1111 15:55:46.455039  7818 layer_factory.hpp:78] Creating layer relu6
I1111 15:55:46.455054  7818 net.cpp:67] Creating Layer relu6
I1111 15:55:46.455059  7818 net.cpp:394] relu6 <- fc6
I1111 15:55:46.455066  7818 net.cpp:345] relu6 -> fc6 (in-place)
I1111 15:55:46.455073  7818 net.cpp:96] Setting up relu6
I1111 15:55:46.455088  7818 net.cpp:103] Top shape: 10 4096 1 1 (40960)
I1111 15:55:46.455091  7818 layer_factory.hpp:78] Creating layer drop6
I1111 15:55:46.455101  7818 net.cpp:67] Creating Layer drop6
I1111 15:55:46.455104  7818 net.cpp:394] drop6 <- fc6
I1111 15:55:46.455108  7818 net.cpp:345] drop6 -> fc6 (in-place)
I1111 15:55:46.455112  7818 net.cpp:96] Setting up drop6
I1111 15:55:46.455119  7818 net.cpp:103] Top shape: 10 4096 1 1 (40960)
I1111 15:55:46.455129  7818 layer_factory.hpp:78] Creating layer fc7
I1111 15:55:46.455134  7818 net.cpp:67] Creating Layer fc7
I1111 15:55:46.455137  7818 net.cpp:394] fc7 <- fc6
I1111 15:55:46.455143  7818 net.cpp:356] fc7 -> fc7
I1111 15:55:46.455150  7818 net.cpp:96] Setting up fc7
I1111 15:55:46.468895  7818 net.cpp:103] Top shape: 10 4096 1 1 (40960)
I1111 15:55:46.468929  7818 layer_factory.hpp:78] Creating layer relu7
I1111 15:55:46.468936  7818 net.cpp:67] Creating Layer relu7
I1111 15:55:46.468942  7818 net.cpp:394] relu7 <- fc7
I1111 15:55:46.468950  7818 net.cpp:345] relu7 -> fc7 (in-place)
I1111 15:55:46.468956  7818 net.cpp:96] Setting up relu7
I1111 15:55:46.468971  7818 net.cpp:103] Top shape: 10 4096 1 1 (40960)
I1111 15:55:46.468973  7818 layer_factory.hpp:78] Creating layer drop7
I1111 15:55:46.468979  7818 net.cpp:67] Creating Layer drop7
I1111 15:55:46.468981  7818 net.cpp:394] drop7 <- fc7
I1111 15:55:46.468986  7818 net.cpp:345] drop7 -> fc7 (in-place)
I1111 15:55:46.468989  7818 net.cpp:96] Setting up drop7
I1111 15:55:46.468993  7818 net.cpp:103] Top shape: 10 4096 1 1 (40960)
I1111 15:55:46.468996  7818 layer_factory.hpp:78] Creating layer fc8_clamp
I1111 15:55:46.469002  7818 net.cpp:67] Creating Layer fc8_clamp
I1111 15:55:46.469005  7818 net.cpp:394] fc8_clamp <- fc7
I1111 15:55:46.469010  7818 net.cpp:356] fc8_clamp -> fc8_clamp
I1111 15:55:46.469017  7818 net.cpp:96] Setting up fc8_clamp
I1111 15:55:46.469036  7818 net.cpp:103] Top shape: 10 2 1 1 (20)
I1111 15:55:46.469044  7818 layer_factory.hpp:78] Creating layer prob
I1111 15:55:46.469051  7818 net.cpp:67] Creating Layer prob
I1111 15:55:46.469055  7818 net.cpp:394] prob <- fc8_clamp
I1111 15:55:46.469060  7818 net.cpp:356] prob -> prob
I1111 15:55:46.469064  7818 net.cpp:96] Setting up prob
I1111 15:55:46.469072  7818 net.cpp:103] Top shape: 10 2 1 1 (20)
I1111 15:55:46.469079  7818 net.cpp:172] prob does not need backward computation.
I1111 15:55:46.469081  7818 net.cpp:172] fc8_clamp does not need backward computation.
I1111 15:55:46.469084  7818 net.cpp:172] drop7 does not need backward computation.
I1111 15:55:46.469086  7818 net.cpp:172] relu7 does not need backward computation.
I1111 15:55:46.469089  7818 net.cpp:172] fc7 does not need backward computation.
…
/homes/ad6813/CP_Demo/Learning/6143217.jpg - 47.16%
/homes/ad6813/CP_Demo/Learning/6143218.jpg - 95.57%
/homes/ad6813/CP_Demo/Learning/6143225.jpg - 19.18%
/homes/ad6813/CP_Demo/Learning/6143228.jpg - 15.74%
/homes/ad6813/CP_Demo/Learning/6143229.jpg - 1.461%
/homes/ad6813/CP_Demo/Learning/6143231.jpg - 0.504%
/homes/ad6813/CP_Demo/Learning/6143236.jpg - 0.202%
/homes/ad6813/CP_Demo/Learning/6143238.jpg - 82.01%
/homes/ad6813/CP_Demo/Learning/6143239.jpg - 5.839%
-=-=-END-=-=-
WARNING: Logging before InitGoogleLogging() is written to STDERR
I1111 15:57:14.230005  7846 net.cpp:39] Initializing net from parameters: 
name: "small"
layers {
  bottom: "data"
  top: "conv1_1"
  name: "conv1_1"
  type: CONVOLUTION
  convolution_param {
    num_output: 64
    pad: 1
    kernel_size: 3
  }
}
layers {
  bottom: "conv1_1"
  top: "conv1_1"
  name: "relu1_1"
  type: RELU
}
layers {
  bottom: "conv1_1"
  top: "conv1_2"
  name: "conv1_2"
  type: CONVOLUTION
  convolution_param {
    num_output: 64
    pad: 1
    kernel_size: 3
  }
}
layers {
  bottom: "conv1_2"
  top: "conv1_2"
  name: "relu1_2"
  type: RELU
}
layers {
  bottom: "conv1_2"
  top: "pool1"
  name: "pool1"
  type: POOLING
  pooling_param {
    pool: MAX
    kernel_size: 2
    stride: 2
  }
}
layers {
  bottom: "pool1"
  top: "conv2_1"
  name: "conv2_1"
  type: CONVOLUTION
  convolution_param {
    num_output: 128
    pad: 1
    kernel_size: 3
  }
}
layers {
  bottom: "conv2_1"
  top: "conv2_1"
  name: "relu2_1"
  type: RELU
}
layers {
  bottom: "conv2_1"
  top: "conv2_2"
  name: "conv2_2"
  type: CONVOLUTION
  convolution_param {
    num_output: 128
    pad: 1
    kernel_size: 3
  }
}
layers {
  bottom: "conv2_2"
  top: "conv2_2"
  name: "relu2_2"
  type: RELU
}
layers {
  bottom: "conv2_2"
  top: "pool2"
  name: "pool2"
  type: POOLING
  pooling_param {
    pool: MAX
    kernel_size: 2
    stride: 2
  }
}
layers {
  bottom: "pool2"
  top: "conv3_1"
  name: "conv3_1"
  type: CONVOLUTION
  convolution_param {
    num_output: 256
    pad: 1
    kernel_size: 3
  }
}
layers {
  bottom: "conv3_1"
  top: "conv3_1"
  name: "relu3_1"
  type: RELU
}
layers {
  bottom: "conv3_1"
  top: "conv3_2"
  name: "conv3_2"
  type: CONVOLUTION
  convolution_param {
    num_output: 256
    pad: 1
    kernel_size: 3
  }
}
layers {
  bottom: "conv3_2"
  top: "conv3_2"
  name: "relu3_2"
  type: RELU
}
layers {
  bottom: "conv3_2"
  top: "conv3_3"
  name: "conv3_3"
  type: CONVOLUTION
  convolution_param {
    num_output: 256
    pad: 1
    kernel_size: 3
  }
}
layers {
  bottom: "conv3_3"
  top: "conv3_3"
  name: "relu3_3"
  type: RELU
}
layers {
  bottom: "conv3_3"
  top: "pool3"
  name: "pool3"
  type: POOLING
  pooling_param {
    pool: MAX
    kernel_size: 2
    stride: 2
  }
}
layers {
  bottom: "pool3"
  top: "conv4_1"
  name: "conv4_1"
  type: CONVOLUTION
  convolution_param {
    num_output: 512
    pad: 1
    kernel_size: 3
  }
}
layers {
  bottom: "conv4_1"
  top: "conv4_1"
  name: "relu4_1"
  type: RELU
}
layers {
  bottom: "conv4_1"
  top: "conv4_2"
  name: "conv4_2"
  type: CONVOLUTION
  convolution_param {
    num_output: 512
    pad: 1
    kernel_size: 3
  }
}
layers {
  bottom: "conv4_2"
  top: "conv4_2"
  name: "relu4_2"
  type: RELU
}
layers {
  bottom: "conv4_2"
  top: "conv4_3"
  name: "conv4_3"
  type: CONVOLUTION
  convolution_param {
    num_output: 512
    pad: 1
    kernel_size: 3
  }
}
layers {
  bottom: "conv4_3"
  top: "conv4_3"
  name: "relu4_3"
  type: RELU
}
layers {
  bottom: "conv4_3"
  top: "pool4"
  name: "pool4"
  type: POOLING
  pooling_param {
    pool: MAX
    kernel_size: 2
    stride: 2
  }
}
layers {
  bottom: "pool4"
  top: "conv5_1"
  name: "conv5_1"
  type: CONVOLUTION
  convolution_param {
    num_output: 512
    pad: 1
    kernel_size: 3
  }
}
layers {
  bottom: "conv5_1"
  top: "conv5_1"
  name: "relu5_1"
  type: RELU
}
layers {
  bottom: "conv5_1"
  top: "conv5_2"
  name: "conv5_2"
  type: CONVOLUTION
  convolution_param {
    num_output: 512
    pad: 1
    kernel_size: 3
  }
}
layers {
  bottom: "conv5_2"
  top: "conv5_2"
  name: "relu5_2"
  type: RELU
}
layers {
  bottom: "conv5_2"
  top: "conv5_3"
  name: "conv5_3"
  type: CONVOLUTION
  convolution_param {
    num_output: 512
    pad: 1
    kernel_size: 3
  }
}
layers {
  bottom: "conv5_3"
  top: "conv5_3"
  name: "relu5_3"
  type: RELU
}
layers {
  bottom: "conv5_3"
  top: "pool5"
  name: "pool5"
  type: POOLING
  pooling_param {
    pool: MAX
    kernel_size: 2
    stride: 2
  }
}
layers {
  bottom: "pool5"
  top: "fc6"
  name: "fc6"
  type: INNER_PRODUCT
  inner_product_param {
    num_output: 4096
  }
}
layers {
  bottom: "fc6"
  top: "fc6"
  name: "relu6"
  type: RELU
}
layers {
  bottom: "fc6"
  top: "fc6"
  name: "drop6"
  type: DROPOUT
  dropout_param {
    dropout_ratio: 0.5
  }
}
layers {
  bottom: "fc6"
  top: "fc7"
  name: "fc7"
  type: INNER_PRODUCT
  inner_product_param {
    num_output: 4096
  }
}
layers {
  bottom: "fc7"
  top: "fc7"
  name: "relu7"
  type: RELU
}
layers {
  bottom: "fc7"
  top: "fc7"
  name: "drop7"
  type: DROPOUT
  dropout_param {
    dropout_ratio: 0.5
  }
}
layers {
  bottom: "fc7"
  top: "fc8_2"
  name: "fc8_2"
  type: INNER_PRODUCT
  inner_product_param {
    num_output: 2
  }
}
layers {
  bottom: "fc8_2"
  top: "prob"
  name: "prob"
  type: SOFTMAX
}
input: "data"
input_dim: 10
input_dim: 3
input_dim: 224
input_dim: 224
I1111 15:57:14.230196  7846 net.cpp:358] Input 0 -> data
I1111 15:57:14.230239  7846 layer_factory.hpp:78] Creating layer conv1_1
I1111 15:57:14.230253  7846 net.cpp:67] Creating Layer conv1_1
I1111 15:57:14.230260  7846 net.cpp:394] conv1_1 <- data
I1111 15:57:14.230270  7846 net.cpp:356] conv1_1 -> conv1_1
I1111 15:57:14.230283  7846 net.cpp:96] Setting up conv1_1
I1111 15:57:14.401578  7846 net.cpp:103] Top shape: 10 64 224 224 (32112640)
I1111 15:57:14.401619  7846 layer_factory.hpp:78] Creating layer relu1_1
I1111 15:57:14.401633  7846 net.cpp:67] Creating Layer relu1_1
I1111 15:57:14.401638  7846 net.cpp:394] relu1_1 <- conv1_1
I1111 15:57:14.401643  7846 net.cpp:345] relu1_1 -> conv1_1 (in-place)
I1111 15:57:14.401651  7846 net.cpp:96] Setting up relu1_1
I1111 15:57:14.401660  7846 net.cpp:103] Top shape: 10 64 224 224 (32112640)
I1111 15:57:14.401664  7846 layer_factory.hpp:78] Creating layer conv1_2
I1111 15:57:14.401670  7846 net.cpp:67] Creating Layer conv1_2
I1111 15:57:14.401674  7846 net.cpp:394] conv1_2 <- conv1_1
I1111 15:57:14.401677  7846 net.cpp:356] conv1_2 -> conv1_2
I1111 15:57:14.401684  7846 net.cpp:96] Setting up conv1_2
I1111 15:57:14.401846  7846 net.cpp:103] Top shape: 10 64 224 224 (32112640)
I1111 15:57:14.401859  7846 layer_factory.hpp:78] Creating layer relu1_2
I1111 15:57:14.401866  7846 net.cpp:67] Creating Layer relu1_2
I1111 15:57:14.401870  7846 net.cpp:394] relu1_2 <- conv1_2
I1111 15:57:14.401873  7846 net.cpp:345] relu1_2 -> conv1_2 (in-place)
I1111 15:57:14.401877  7846 net.cpp:96] Setting up relu1_2
I1111 15:57:14.401882  7846 net.cpp:103] Top shape: 10 64 224 224 (32112640)
I1111 15:57:14.401885  7846 layer_factory.hpp:78] Creating layer pool1
I1111 15:57:14.401893  7846 net.cpp:67] Creating Layer pool1
I1111 15:57:14.401898  7846 net.cpp:394] pool1 <- conv1_2
I1111 15:57:14.401904  7846 net.cpp:356] pool1 -> pool1
I1111 15:57:14.401909  7846 net.cpp:96] Setting up pool1
I1111 15:57:14.401921  7846 net.cpp:103] Top shape: 10 64 112 112 (8028160)
I1111 15:57:14.401926  7846 layer_factory.hpp:78] Creating layer conv2_1
I1111 15:57:14.401932  7846 net.cpp:67] Creating Layer conv2_1
I1111 15:57:14.401934  7846 net.cpp:394] conv2_1 <- pool1
I1111 15:57:14.401938  7846 net.cpp:356] conv2_1 -> conv2_1
I1111 15:57:14.401943  7846 net.cpp:96] Setting up conv2_1
I1111 15:57:14.402097  7846 net.cpp:103] Top shape: 10 128 112 112 (16056320)
I1111 15:57:14.402111  7846 layer_factory.hpp:78] Creating layer relu2_1
I1111 15:57:14.402117  7846 net.cpp:67] Creating Layer relu2_1
I1111 15:57:14.402119  7846 net.cpp:394] relu2_1 <- conv2_1
I1111 15:57:14.402123  7846 net.cpp:345] relu2_1 -> conv2_1 (in-place)
I1111 15:57:14.402127  7846 net.cpp:96] Setting up relu2_1
I1111 15:57:14.402132  7846 net.cpp:103] Top shape: 10 128 112 112 (16056320)
I1111 15:57:14.402135  7846 layer_factory.hpp:78] Creating layer conv2_2
I1111 15:57:14.402139  7846 net.cpp:67] Creating Layer conv2_2
I1111 15:57:14.402143  7846 net.cpp:394] conv2_2 <- conv2_1
I1111 15:57:14.402148  7846 net.cpp:356] conv2_2 -> conv2_2
I1111 15:57:14.402153  7846 net.cpp:96] Setting up conv2_2
I1111 15:57:14.402400  7846 net.cpp:103] Top shape: 10 128 112 112 (16056320)
I1111 15:57:14.402410  7846 layer_factory.hpp:78] Creating layer relu2_2
I1111 15:57:14.402416  7846 net.cpp:67] Creating Layer relu2_2
I1111 15:57:14.402420  7846 net.cpp:394] relu2_2 <- conv2_2
I1111 15:57:14.402425  7846 net.cpp:345] relu2_2 -> conv2_2 (in-place)
I1111 15:57:14.402429  7846 net.cpp:96] Setting up relu2_2
I1111 15:57:14.402433  7846 net.cpp:103] Top shape: 10 128 112 112 (16056320)
I1111 15:57:14.402436  7846 layer_factory.hpp:78] Creating layer pool2
I1111 15:57:14.402441  7846 net.cpp:67] Creating Layer pool2
I1111 15:57:14.402443  7846 net.cpp:394] pool2 <- conv2_2
I1111 15:57:14.402449  7846 net.cpp:356] pool2 -> pool2
I1111 15:57:14.402453  7846 net.cpp:96] Setting up pool2
I1111 15:57:14.402459  7846 net.cpp:103] Top shape: 10 128 56 56 (4014080)
I1111 15:57:14.402462  7846 layer_factory.hpp:78] Creating layer conv3_1
I1111 15:57:14.402467  7846 net.cpp:67] Creating Layer conv3_1
I1111 15:57:14.402469  7846 net.cpp:394] conv3_1 <- pool2
I1111 15:57:14.402474  7846 net.cpp:356] conv3_1 -> conv3_1
I1111 15:57:14.402478  7846 net.cpp:96] Setting up conv3_1
I1111 15:57:14.402899  7846 net.cpp:103] Top shape: 10 256 56 56 (8028160)
I1111 15:57:14.402911  7846 layer_factory.hpp:78] Creating layer relu3_1
I1111 15:57:14.402916  7846 net.cpp:67] Creating Layer relu3_1
I1111 15:57:14.402920  7846 net.cpp:394] relu3_1 <- conv3_1
I1111 15:57:14.402923  7846 net.cpp:345] relu3_1 -> conv3_1 (in-place)
I1111 15:57:14.402927  7846 net.cpp:96] Setting up relu3_1
I1111 15:57:14.402932  7846 net.cpp:103] Top shape: 10 256 56 56 (8028160)
I1111 15:57:14.402935  7846 layer_factory.hpp:78] Creating layer conv3_2
I1111 15:57:14.402940  7846 net.cpp:67] Creating Layer conv3_2
I1111 15:57:14.402943  7846 net.cpp:394] conv3_2 <- conv3_1
I1111 15:57:14.402947  7846 net.cpp:356] conv3_2 -> conv3_2
I1111 15:57:14.402952  7846 net.cpp:96] Setting up conv3_2
I1111 15:57:14.403861  7846 net.cpp:103] Top shape: 10 256 56 56 (8028160)
I1111 15:57:14.403872  7846 layer_factory.hpp:78] Creating layer relu3_2
I1111 15:57:14.403877  7846 net.cpp:67] Creating Layer relu3_2
I1111 15:57:14.403880  7846 net.cpp:394] relu3_2 <- conv3_2
I1111 15:57:14.403887  7846 net.cpp:345] relu3_2 -> conv3_2 (in-place)
I1111 15:57:14.403892  7846 net.cpp:96] Setting up relu3_2
I1111 15:57:14.403895  7846 net.cpp:103] Top shape: 10 256 56 56 (8028160)
I1111 15:57:14.403898  7846 layer_factory.hpp:78] Creating layer conv3_3
I1111 15:57:14.403903  7846 net.cpp:67] Creating Layer conv3_3
I1111 15:57:14.403906  7846 net.cpp:394] conv3_3 <- conv3_2
I1111 15:57:14.403910  7846 net.cpp:356] conv3_3 -> conv3_3
I1111 15:57:14.403916  7846 net.cpp:96] Setting up conv3_3
I1111 15:57:14.404696  7846 net.cpp:103] Top shape: 10 256 56 56 (8028160)
I1111 15:57:14.404707  7846 layer_factory.hpp:78] Creating layer relu3_3
I1111 15:57:14.404711  7846 net.cpp:67] Creating Layer relu3_3
I1111 15:57:14.404714  7846 net.cpp:394] relu3_3 <- conv3_3
I1111 15:57:14.404718  7846 net.cpp:345] relu3_3 -> conv3_3 (in-place)
I1111 15:57:14.404722  7846 net.cpp:96] Setting up relu3_3
I1111 15:57:14.404726  7846 net.cpp:103] Top shape: 10 256 56 56 (8028160)
I1111 15:57:14.404729  7846 layer_factory.hpp:78] Creating layer pool3
I1111 15:57:14.404736  7846 net.cpp:67] Creating Layer pool3
I1111 15:57:14.404739  7846 net.cpp:394] pool3 <- conv3_3
I1111 15:57:14.404744  7846 net.cpp:356] pool3 -> pool3
I1111 15:57:14.404749  7846 net.cpp:96] Setting up pool3
I1111 15:57:14.404755  7846 net.cpp:103] Top shape: 10 256 28 28 (2007040)
I1111 15:57:14.404758  7846 layer_factory.hpp:78] Creating layer conv4_1
I1111 15:57:14.404763  7846 net.cpp:67] Creating Layer conv4_1
I1111 15:57:14.404767  7846 net.cpp:394] conv4_1 <- pool3
I1111 15:57:14.404769  7846 net.cpp:356] conv4_1 -> conv4_1
I1111 15:57:14.404774  7846 net.cpp:96] Setting up conv4_1
I1111 15:57:14.406036  7846 net.cpp:103] Top shape: 10 512 28 28 (4014080)
I1111 15:57:14.406049  7846 layer_factory.hpp:78] Creating layer relu4_1
I1111 15:57:14.406056  7846 net.cpp:67] Creating Layer relu4_1
I1111 15:57:14.406060  7846 net.cpp:394] relu4_1 <- conv4_1
I1111 15:57:14.406065  7846 net.cpp:345] relu4_1 -> conv4_1 (in-place)
I1111 15:57:14.406069  7846 net.cpp:96] Setting up relu4_1
I1111 15:57:14.406075  7846 net.cpp:103] Top shape: 10 512 28 28 (4014080)
I1111 15:57:14.406077  7846 layer_factory.hpp:78] Creating layer conv4_2
I1111 15:57:14.406081  7846 net.cpp:67] Creating Layer conv4_2
I1111 15:57:14.406085  7846 net.cpp:394] conv4_2 <- conv4_1
I1111 15:57:14.406090  7846 net.cpp:356] conv4_2 -> conv4_2
I1111 15:57:14.406093  7846 net.cpp:96] Setting up conv4_2
I1111 15:57:14.408406  7846 net.cpp:103] Top shape: 10 512 28 28 (4014080)
I1111 15:57:14.408438  7846 layer_factory.hpp:78] Creating layer relu4_2
I1111 15:57:14.408447  7846 net.cpp:67] Creating Layer relu4_2
I1111 15:57:14.408452  7846 net.cpp:394] relu4_2 <- conv4_2
I1111 15:57:14.408457  7846 net.cpp:345] relu4_2 -> conv4_2 (in-place)
I1111 15:57:14.408463  7846 net.cpp:96] Setting up relu4_2
I1111 15:57:14.408468  7846 net.cpp:103] Top shape: 10 512 28 28 (4014080)
I1111 15:57:14.408471  7846 layer_factory.hpp:78] Creating layer conv4_3
I1111 15:57:14.408478  7846 net.cpp:67] Creating Layer conv4_3
I1111 15:57:14.408481  7846 net.cpp:394] conv4_3 <- conv4_2
I1111 15:57:14.408485  7846 net.cpp:356] conv4_3 -> conv4_3
I1111 15:57:14.408490  7846 net.cpp:96] Setting up conv4_3
I1111 15:57:14.410481  7846 net.cpp:103] Top shape: 10 512 28 28 (4014080)
I1111 15:57:14.410511  7846 layer_factory.hpp:78] Creating layer relu4_3
I1111 15:57:14.410517  7846 net.cpp:67] Creating Layer relu4_3
I1111 15:57:14.410521  7846 net.cpp:394] relu4_3 <- conv4_3
I1111 15:57:14.410529  7846 net.cpp:345] relu4_3 -> conv4_3 (in-place)
I1111 15:57:14.410536  7846 net.cpp:96] Setting up relu4_3
I1111 15:57:14.410542  7846 net.cpp:103] Top shape: 10 512 28 28 (4014080)
I1111 15:57:14.410543  7846 layer_factory.hpp:78] Creating layer pool4
I1111 15:57:14.410549  7846 net.cpp:67] Creating Layer pool4
I1111 15:57:14.410552  7846 net.cpp:394] pool4 <- conv4_3
I1111 15:57:14.410558  7846 net.cpp:356] pool4 -> pool4
I1111 15:57:14.410562  7846 net.cpp:96] Setting up pool4
I1111 15:57:14.410570  7846 net.cpp:103] Top shape: 10 512 14 14 (1003520)
I1111 15:57:14.410573  7846 layer_factory.hpp:78] Creating layer conv5_1
I1111 15:57:14.410578  7846 net.cpp:67] Creating Layer conv5_1
I1111 15:57:14.410580  7846 net.cpp:394] conv5_1 <- pool4
I1111 15:57:14.410584  7846 net.cpp:356] conv5_1 -> conv5_1
I1111 15:57:14.410588  7846 net.cpp:96] Setting up conv5_1
I1111 15:57:14.413041  7846 net.cpp:103] Top shape: 10 512 14 14 (1003520)
I1111 15:57:14.413066  7846 layer_factory.hpp:78] Creating layer relu5_1
I1111 15:57:14.413074  7846 net.cpp:67] Creating Layer relu5_1
I1111 15:57:14.413079  7846 net.cpp:394] relu5_1 <- conv5_1
I1111 15:57:14.413085  7846 net.cpp:345] relu5_1 -> conv5_1 (in-place)
I1111 15:57:14.413094  7846 net.cpp:96] Setting up relu5_1
I1111 15:57:14.413099  7846 net.cpp:103] Top shape: 10 512 14 14 (1003520)
I1111 15:57:14.413101  7846 layer_factory.hpp:78] Creating layer conv5_2
I1111 15:57:14.413106  7846 net.cpp:67] Creating Layer conv5_2
I1111 15:57:14.413110  7846 net.cpp:394] conv5_2 <- conv5_1
I1111 15:57:14.413113  7846 net.cpp:356] conv5_2 -> conv5_2
I1111 15:57:14.413121  7846 net.cpp:96] Setting up conv5_2
I1111 15:57:14.415153  7846 net.cpp:103] Top shape: 10 512 14 14 (1003520)
I1111 15:57:14.415181  7846 layer_factory.hpp:78] Creating layer relu5_2
I1111 15:57:14.415189  7846 net.cpp:67] Creating Layer relu5_2
I1111 15:57:14.415194  7846 net.cpp:394] relu5_2 <- conv5_2
I1111 15:57:14.415200  7846 net.cpp:345] relu5_2 -> conv5_2 (in-place)
I1111 15:57:14.415206  7846 net.cpp:96] Setting up relu5_2
I1111 15:57:14.415212  7846 net.cpp:103] Top shape: 10 512 14 14 (1003520)
I1111 15:57:14.415215  7846 layer_factory.hpp:78] Creating layer conv5_3
I1111 15:57:14.415222  7846 net.cpp:67] Creating Layer conv5_3
I1111 15:57:14.415225  7846 net.cpp:394] conv5_3 <- conv5_2
I1111 15:57:14.415230  7846 net.cpp:356] conv5_3 -> conv5_3
I1111 15:57:14.415235  7846 net.cpp:96] Setting up conv5_3
I1111 15:57:14.417527  7846 net.cpp:103] Top shape: 10 512 14 14 (1003520)
I1111 15:57:14.417552  7846 layer_factory.hpp:78] Creating layer relu5_3
I1111 15:57:14.417561  7846 net.cpp:67] Creating Layer relu5_3
I1111 15:57:14.417564  7846 net.cpp:394] relu5_3 <- conv5_3
I1111 15:57:14.417572  7846 net.cpp:345] relu5_3 -> conv5_3 (in-place)
I1111 15:57:14.417578  7846 net.cpp:96] Setting up relu5_3
I1111 15:57:14.417584  7846 net.cpp:103] Top shape: 10 512 14 14 (1003520)
I1111 15:57:14.417587  7846 layer_factory.hpp:78] Creating layer pool5
I1111 15:57:14.417593  7846 net.cpp:67] Creating Layer pool5
I1111 15:57:14.417595  7846 net.cpp:394] pool5 <- conv5_3
I1111 15:57:14.417599  7846 net.cpp:356] pool5 -> pool5
I1111 15:57:14.417604  7846 net.cpp:96] Setting up pool5
I1111 15:57:14.417611  7846 net.cpp:103] Top shape: 10 512 7 7 (250880)
I1111 15:57:14.417614  7846 layer_factory.hpp:78] Creating layer fc6
I1111 15:57:14.417624  7846 net.cpp:67] Creating Layer fc6
I1111 15:57:14.417630  7846 net.cpp:394] fc6 <- pool5
I1111 15:57:14.417634  7846 net.cpp:356] fc6 -> fc6
I1111 15:57:14.417640  7846 net.cpp:96] Setting up fc6
I1111 15:57:14.496320  7846 net.cpp:103] Top shape: 10 4096 1 1 (40960)
I1111 15:57:14.496351  7846 layer_factory.hpp:78] Creating layer relu6
I1111 15:57:14.496364  7846 net.cpp:67] Creating Layer relu6
I1111 15:57:14.496369  7846 net.cpp:394] relu6 <- fc6
I1111 15:57:14.496376  7846 net.cpp:345] relu6 -> fc6 (in-place)
I1111 15:57:14.496382  7846 net.cpp:96] Setting up relu6
I1111 15:57:14.496397  7846 net.cpp:103] Top shape: 10 4096 1 1 (40960)
I1111 15:57:14.496399  7846 layer_factory.hpp:78] Creating layer drop6
I1111 15:57:14.496409  7846 net.cpp:67] Creating Layer drop6
I1111 15:57:14.496412  7846 net.cpp:394] drop6 <- fc6
I1111 15:57:14.496417  7846 net.cpp:345] drop6 -> fc6 (in-place)
I1111 15:57:14.496422  7846 net.cpp:96] Setting up drop6
I1111 15:57:14.496425  7846 net.cpp:103] Top shape: 10 4096 1 1 (40960)
I1111 15:57:14.496428  7846 layer_factory.hpp:78] Creating layer fc7
I1111 15:57:14.496433  7846 net.cpp:67] Creating Layer fc7
I1111 15:57:14.496435  7846 net.cpp:394] fc7 <- fc6
I1111 15:57:14.496439  7846 net.cpp:356] fc7 -> fc7
I1111 15:57:14.496445  7846 net.cpp:96] Setting up fc7
I1111 15:57:14.510195  7846 net.cpp:103] Top shape: 10 4096 1 1 (40960)
I1111 15:57:14.510231  7846 layer_factory.hpp:78] Creating layer relu7
I1111 15:57:14.510239  7846 net.cpp:67] Creating Layer relu7
I1111 15:57:14.510244  7846 net.cpp:394] relu7 <- fc7
I1111 15:57:14.510252  7846 net.cpp:345] relu7 -> fc7 (in-place)
I1111 15:57:14.510259  7846 net.cpp:96] Setting up relu7
I1111 15:57:14.510273  7846 net.cpp:103] Top shape: 10 4096 1 1 (40960)
I1111 15:57:14.510277  7846 layer_factory.hpp:78] Creating layer drop7
I1111 15:57:14.510282  7846 net.cpp:67] Creating Layer drop7
I1111 15:57:14.510284  7846 net.cpp:394] drop7 <- fc7
I1111 15:57:14.510289  7846 net.cpp:345] drop7 -> fc7 (in-place)
I1111 15:57:14.510294  7846 net.cpp:96] Setting up drop7
I1111 15:57:14.510298  7846 net.cpp:103] Top shape: 10 4096 1 1 (40960)
I1111 15:57:14.510300  7846 layer_factory.hpp:78] Creating layer fc8_2
I1111 15:57:14.510304  7846 net.cpp:67] Creating Layer fc8_2
I1111 15:57:14.510308  7846 net.cpp:394] fc8_2 <- fc7
I1111 15:57:14.510311  7846 net.cpp:356] fc8_2 -> fc8_2
I1111 15:57:14.510318  7846 net.cpp:96] Setting up fc8_2
I1111 15:57:14.510335  7846 net.cpp:103] Top shape: 10 2 1 1 (20)
I1111 15:57:14.510340  7846 layer_factory.hpp:78] Creating layer prob
I1111 15:57:14.510352  7846 net.cpp:67] Creating Layer prob
I1111 15:57:14.510355  7846 net.cpp:394] prob <- fc8_2
I1111 15:57:14.510360  7846 net.cpp:356] prob -> prob
I1111 15:57:14.510365  7846 net.cpp:96] Setting up prob
I1111 15:57:14.510372  7846 net.cpp:103] Top shape: 10 2 1 1 (20)
I1111 15:57:14.510382  7846 net.cpp:172] prob does not need backward computation.
I1111 15:57:14.510385  7846 net.cpp:172] fc8_2 does not need backward computation.
I1111 15:57:14.510387  7846 net.cpp:172] drop7 does not need backward computation.
I1111 15:57:14.510390  7846 net.cpp:172] relu7 does not need backward computation.
I1111 15:57:14.510391  7846 net.cpp:172] fc7 does not need backward computation.
…
