…
I1105 15:48:28.861891  1720 net.cpp:275] The NetState phase (0) differed from the phase (1) specified by a rule in layer accuracy
I1105 15:48:28.862078  1720 net.cpp:39] Initializing net from parameters: 
name: "small"
layers {
  top: "data"
  top: "label"
  name: "data"
  type: IMAGE_DATA
  image_data_param {
    source: "/data/ad6813/devCaffe/caffe/task/clamp/clampTrain.txt"
    batch_size: 32
    new_height: 256
    new_width: 256
  }
  include {
    phase: TRAIN
  }
  transform_param {
    mirror: true
    crop_size: 224
    mean_value: 86.752
    mean_value: 101.46
    mean_value: 104.6
  }
}
layers {
  bottom: "data"
  top: "conv1_1"
  name: "conv1_1"
  type: CONVOLUTION
  convolution_param {
    num_output: 64
    pad: 1
    kernel_size: 3
    weight_filler {
      type: "gaussian"
      std: 0.01
    }
    bias_filler {
      type: "constant"
      value: 0
    }
  }
}
layers {
  bottom: "conv1_1"
  top: "conv1_1"
  name: "relu1_1"
  type: RELU
}
layers {
  bottom: "conv1_1"
  top: "conv1_2"
  name: "conv1_2"
  type: CONVOLUTION
  convolution_param {
    num_output: 64
    pad: 1
    kernel_size: 3
    weight_filler {
      type: "gaussian"
      std: 0.01
    }
    bias_filler {
      type: "constant"
      value: 0
    }
  }
}
layers {
  bottom: "conv1_2"
  top: "conv1_2"
  name: "relu1_2"
  type: RELU
}
layers {
  bottom: "conv1_2"
  top: "pool1"
  name: "pool1"
  type: POOLING
  pooling_param {
    pool: MAX
    kernel_size: 2
    stride: 2
  }
}
layers {
  bottom: "pool1"
  top: "conv2_1"
  name: "conv2_1"
  type: CONVOLUTION
  convolution_param {
    num_output: 128
    pad: 1
    kernel_size: 3
    weight_filler {
      type: "gaussian"
      std: 0.01
    }
    bias_filler {
      type: "constant"
      value: 0
    }
  }
}
layers {
  bottom: "conv2_1"
  top: "conv2_1"
  name: "relu2_1"
  type: RELU
}
layers {
  bottom: "conv2_1"
  top: "conv2_2"
  name: "conv2_2"
  type: CONVOLUTION
  convolution_param {
    num_output: 128
    pad: 1
    kernel_size: 3
    weight_filler {
      type: "gaussian"
      std: 0.01
    }
    bias_filler {
      type: "constant"
      value: 0
    }
  }
}
layers {
  bottom: "conv2_2"
  top: "conv2_2"
  name: "relu2_2"
  type: RELU
}
layers {
  bottom: "conv2_2"
  top: "pool2"
  name: "pool2"
  type: POOLING
  pooling_param {
    pool: MAX
    kernel_size: 2
    stride: 2
  }
}
layers {
  bottom: "pool2"
  top: "conv3_1"
  name: "conv3_1"
  type: CONVOLUTION
  convolution_param {
    num_output: 256
    pad: 1
    kernel_size: 3
    weight_filler {
      type: "gaussian"
      std: 0.01
    }
    bias_filler {
      type: "constant"
      value: 0
    }
  }
}
layers {
  bottom: "conv3_1"
  top: "conv3_1"
  name: "relu3_1"
  type: RELU
}
layers {
  bottom: "conv3_1"
  top: "conv3_2"
  name: "conv3_2"
  type: CONVOLUTION
  convolution_param {
    num_output: 256
    pad: 1
    kernel_size: 3
    weight_filler {
      type: "gaussian"
      std: 0.01
    }
    bias_filler {
      type: "constant"
      value: 0
    }
  }
}
layers {
  bottom: "conv3_2"
  top: "conv3_2"
  name: "relu3_2"
  type: RELU
}
layers {
  bottom: "conv3_2"
  top: "conv3_3"
  name: "conv3_3"
  type: CONVOLUTION
  convolution_param {
    num_output: 256
    pad: 1
    kernel_size: 3
    weight_filler {
      type: "gaussian"
      std: 0.01
    }
    bias_filler {
      type: "constant"
      value: 0
    }
  }
}
layers {
  bottom: "conv3_3"
  top: "conv3_3"
  name: "relu3_3"
  type: RELU
}
layers {
  bottom: "conv3_3"
  top: "pool3"
  name: "pool3"
  type: POOLING
  pooling_param {
    pool: MAX
    kernel_size: 2
    stride: 2
  }
}
layers {
  bottom: "pool3"
  top: "conv4_1"
  name: "conv4_1"
  type: CONVOLUTION
  convolution_param {
    num_output: 512
    pad: 1
    kernel_size: 3
    weight_filler {
      type: "gaussian"
      std: 0.01
    }
    bias_filler {
      type: "constant"
      value: 0
    }
  }
}
layers {
  bottom: "conv4_1"
  top: "conv4_1"
  name: "relu4_1"
  type: RELU
}
layers {
  bottom: "conv4_1"
  top: "conv4_2"
  name: "conv4_2"
  type: CONVOLUTION
  convolution_param {
    num_output: 512
    pad: 1
    kernel_size: 3
    weight_filler {
      type: "gaussian"
      std: 0.01
    }
    bias_filler {
      type: "constant"
      value: 0
    }
  }
}
layers {
  bottom: "conv4_2"
  top: "conv4_2"
  name: "relu4_2"
  type: RELU
}
layers {
  bottom: "conv4_2"
  top: "conv4_3"
  name: "conv4_3"
  type: CONVOLUTION
  convolution_param {
    num_output: 512
    pad: 1
    kernel_size: 3
    weight_filler {
      type: "gaussian"
      std: 0.01
    }
    bias_filler {
      type: "constant"
      value: 0
    }
  }
}
layers {
  bottom: "conv4_3"
  top: "conv4_3"
  name: "relu4_3"
  type: RELU
}
layers {
  bottom: "conv4_3"
  top: "pool4"
  name: "pool4"
  type: POOLING
  pooling_param {
    pool: MAX
    kernel_size: 2
    stride: 2
  }
}
layers {
  bottom: "pool4"
  top: "conv5_1"
  name: "conv5_1"
  type: CONVOLUTION
  convolution_param {
    num_output: 512
    pad: 1
    kernel_size: 3
    weight_filler {
      type: "gaussian"
      std: 0.01
    }
    bias_filler {
      type: "constant"
      value: 0
    }
  }
}
layers {
  bottom: "conv5_1"
  top: "conv5_1"
  name: "relu5_1"
  type: RELU
}
layers {
  bottom: "conv5_1"
  top: "conv5_2"
  name: "conv5_2"
  type: CONVOLUTION
  convolution_param {
    num_output: 512
    pad: 1
    kernel_size: 3
    weight_filler {
      type: "gaussian"
      std: 0.01
    }
    bias_filler {
      type: "constant"
      value: 0
    }
  }
}
layers {
  bottom: "conv5_2"
  top: "conv5_2"
  name: "relu5_2"
  type: RELU
}
layers {
  bottom: "conv5_2"
  top: "conv5_3"
  name: "conv5_3"
  type: CONVOLUTION
  convolution_param {
    num_output: 512
    pad: 1
    kernel_size: 3
    weight_filler {
      type: "gaussian"
      std: 0.01
    }
    bias_filler {
      type: "constant"
      value: 0
    }
  }
}
layers {
  bottom: "conv5_3"
  top: "conv5_3"
  name: "relu5_3"
  type: RELU
}
layers {
  bottom: "conv5_3"
  top: "pool5"
  name: "pool5"
  type: POOLING
  pooling_param {
    pool: MAX
    kernel_size: 2
    stride: 2
  }
}
layers {
  bottom: "pool5"
  top: "fc6"
  name: "fc6"
  type: INNER_PRODUCT
  inner_product_param {
    num_output: 4096
    weight_filler {
      type: "gaussian"
      std: 0.01
    }
    bias_filler {
      type: "constant"
      value: 0
    }
  }
}
layers {
  bottom: "fc6"
  top: "fc6"
  name: "relu6"
  type: RELU
}
layers {
  bottom: "fc6"
  top: "fc6"
  name: "drop6"
  type: DROPOUT
  dropout_param {
    dropout_ratio: 0.5
  }
}
layers {
  bottom: "fc6"
  top: "fc7"
  name: "fc7"
  type: INNER_PRODUCT
  inner_product_param {
    num_output: 4096
    weight_filler {
      type: "gaussian"
      std: 0.01
    }
    bias_filler {
      type: "constant"
      value: 0
    }
  }
}
layers {
  bottom: "fc7"
  top: "fc7"
  name: "relu7"
  type: RELU
}
layers {
  bottom: "fc7"
  top: "fc7"
  name: "drop7"
  type: DROPOUT
  dropout_param {
    dropout_ratio: 0.5
  }
}
layers {
  bottom: "fc7"
  top: "fc8_2"
  name: "fc8_2"
  type: INNER_PRODUCT
  inner_product_param {
    num_output: 2
    weight_filler {
      type: "gaussian"
      std: 0.01
    }
    bias_filler {
      type: "constant"
      value: 0
    }
  }
}
layers {
  bottom: "fc8_2"
  bottom: "label"
  name: "loss"
  type: SOFTMAX_LOSS
}
state {
  phase: TRAIN
}
I1105 15:48:28.862198  1720 layer_factory.hpp:78] Creating layer data
I1105 15:48:28.862218  1720 net.cpp:67] Creating Layer data
I1105 15:48:28.862228  1720 net.cpp:356] data -> data
I1105 15:48:28.862247  1720 net.cpp:356] data -> label
I1105 15:48:28.862259  1720 net.cpp:96] Setting up data
I1105 15:48:28.862267  1720 image_data_layer.cpp:34] Opening file /data/ad6813/devCaffe/caffe/task/clamp/clampTrain.txt
I1105 15:48:28.870394  1720 image_data_layer.cpp:49] A total of 23494 images.
I1105 15:48:28.881244  1720 image_data_layer.cpp:78] output data size: 32,3,224,224
I1105 15:48:28.883913  1720 net.cpp:103] Top shape: 32 3 224 224 (4816896)
I1105 15:48:28.883939  1720 net.cpp:103] Top shape: 32 1 1 1 (32)
I1105 15:48:28.883944  1720 layer_factory.hpp:78] Creating layer conv1_1
I1105 15:48:28.883960  1720 net.cpp:67] Creating Layer conv1_1
I1105 15:48:28.883963  1720 net.cpp:394] conv1_1 <- data
I1105 15:48:28.883977  1720 net.cpp:356] conv1_1 -> conv1_1
I1105 15:48:28.883988  1720 net.cpp:96] Setting up conv1_1
I1105 15:48:28.900183  1720 net.cpp:103] Top shape: 32 64 224 224 (102760448)
I1105 15:48:28.900218  1720 layer_factory.hpp:78] Creating layer relu1_1
I1105 15:48:28.900230  1720 net.cpp:67] Creating Layer relu1_1
I1105 15:48:28.900234  1720 net.cpp:394] relu1_1 <- conv1_1
I1105 15:48:28.900240  1720 net.cpp:345] relu1_1 -> conv1_1 (in-place)
I1105 15:48:28.900250  1720 net.cpp:96] Setting up relu1_1
I1105 15:48:28.900259  1720 net.cpp:103] Top shape: 32 64 224 224 (102760448)
I1105 15:48:28.900264  1720 layer_factory.hpp:78] Creating layer conv1_2
I1105 15:48:28.900271  1720 net.cpp:67] Creating Layer conv1_2
I1105 15:48:28.900274  1720 net.cpp:394] conv1_2 <- conv1_1
I1105 15:48:28.900279  1720 net.cpp:356] conv1_2 -> conv1_2
I1105 15:48:28.900286  1720 net.cpp:96] Setting up conv1_2
I1105 15:48:28.901350  1720 net.cpp:103] Top shape: 32 64 224 224 (102760448)
I1105 15:48:28.901362  1720 layer_factory.hpp:78] Creating layer relu1_2
I1105 15:48:28.901368  1720 net.cpp:67] Creating Layer relu1_2
I1105 15:48:28.901371  1720 net.cpp:394] relu1_2 <- conv1_2
I1105 15:48:28.901376  1720 net.cpp:345] relu1_2 -> conv1_2 (in-place)
I1105 15:48:28.901381  1720 net.cpp:96] Setting up relu1_2
I1105 15:48:28.901386  1720 net.cpp:103] Top shape: 32 64 224 224 (102760448)
I1105 15:48:28.901389  1720 layer_factory.hpp:78] Creating layer pool1
I1105 15:48:28.901396  1720 net.cpp:67] Creating Layer pool1
I1105 15:48:28.901399  1720 net.cpp:394] pool1 <- conv1_2
I1105 15:48:28.901403  1720 net.cpp:356] pool1 -> pool1
I1105 15:48:28.901409  1720 net.cpp:96] Setting up pool1
I1105 15:48:28.901425  1720 net.cpp:103] Top shape: 32 64 112 112 (25690112)
I1105 15:48:28.901432  1720 layer_factory.hpp:78] Creating layer conv2_1
I1105 15:48:28.901438  1720 net.cpp:67] Creating Layer conv2_1
I1105 15:48:28.901443  1720 net.cpp:394] conv2_1 <- pool1
I1105 15:48:28.901448  1720 net.cpp:356] conv2_1 -> conv2_1
I1105 15:48:28.901453  1720 net.cpp:96] Setting up conv2_1
I1105 15:48:28.903362  1720 net.cpp:103] Top shape: 32 128 112 112 (51380224)
I1105 15:48:28.903375  1720 layer_factory.hpp:78] Creating layer relu2_1
I1105 15:48:28.903381  1720 net.cpp:67] Creating Layer relu2_1
I1105 15:48:28.903384  1720 net.cpp:394] relu2_1 <- conv2_1
I1105 15:48:28.903388  1720 net.cpp:345] relu2_1 -> conv2_1 (in-place)
I1105 15:48:28.903394  1720 net.cpp:96] Setting up relu2_1
I1105 15:48:28.903399  1720 net.cpp:103] Top shape: 32 128 112 112 (51380224)
I1105 15:48:28.903403  1720 layer_factory.hpp:78] Creating layer conv2_2
I1105 15:48:28.903409  1720 net.cpp:67] Creating Layer conv2_2
I1105 15:48:28.903411  1720 net.cpp:394] conv2_2 <- conv2_1
I1105 15:48:28.903416  1720 net.cpp:356] conv2_2 -> conv2_2
I1105 15:48:28.903420  1720 net.cpp:96] Setting up conv2_2
I1105 15:48:28.907161  1720 net.cpp:103] Top shape: 32 128 112 112 (51380224)
I1105 15:48:28.907173  1720 layer_factory.hpp:78] Creating layer relu2_2
I1105 15:48:28.907178  1720 net.cpp:67] Creating Layer relu2_2
I1105 15:48:28.907181  1720 net.cpp:394] relu2_2 <- conv2_2
I1105 15:48:28.907187  1720 net.cpp:345] relu2_2 -> conv2_2 (in-place)
I1105 15:48:28.907192  1720 net.cpp:96] Setting up relu2_2
I1105 15:48:28.907197  1720 net.cpp:103] Top shape: 32 128 112 112 (51380224)
I1105 15:48:28.907208  1720 layer_factory.hpp:78] Creating layer pool2
I1105 15:48:28.907213  1720 net.cpp:67] Creating Layer pool2
I1105 15:48:28.907217  1720 net.cpp:394] pool2 <- conv2_2
I1105 15:48:28.907220  1720 net.cpp:356] pool2 -> pool2
I1105 15:48:28.907225  1720 net.cpp:96] Setting up pool2
I1105 15:48:28.907230  1720 net.cpp:103] Top shape: 32 128 56 56 (12845056)
I1105 15:48:28.907234  1720 layer_factory.hpp:78] Creating layer conv3_1
I1105 15:48:28.907240  1720 net.cpp:67] Creating Layer conv3_1
I1105 15:48:28.907243  1720 net.cpp:394] conv3_1 <- pool2
I1105 15:48:28.907249  1720 net.cpp:356] conv3_1 -> conv3_1
I1105 15:48:28.907255  1720 net.cpp:96] Setting up conv3_1
I1105 15:48:28.914656  1720 net.cpp:103] Top shape: 32 256 56 56 (25690112)
I1105 15:48:28.914671  1720 layer_factory.hpp:78] Creating layer relu3_1
I1105 15:48:28.914679  1720 net.cpp:67] Creating Layer relu3_1
I1105 15:48:28.914681  1720 net.cpp:394] relu3_1 <- conv3_1
I1105 15:48:28.914685  1720 net.cpp:345] relu3_1 -> conv3_1 (in-place)
I1105 15:48:28.914690  1720 net.cpp:96] Setting up relu3_1
I1105 15:48:28.914695  1720 net.cpp:103] Top shape: 32 256 56 56 (25690112)
I1105 15:48:28.914698  1720 layer_factory.hpp:78] Creating layer conv3_2
I1105 15:48:28.914705  1720 net.cpp:67] Creating Layer conv3_2
I1105 15:48:28.914708  1720 net.cpp:394] conv3_2 <- conv3_1
I1105 15:48:28.914712  1720 net.cpp:356] conv3_2 -> conv3_2
I1105 15:48:28.914717  1720 net.cpp:96] Setting up conv3_2
I1105 15:48:28.929291  1720 net.cpp:103] Top shape: 32 256 56 56 (25690112)
I1105 15:48:28.929307  1720 layer_factory.hpp:78] Creating layer relu3_2
I1105 15:48:28.929313  1720 net.cpp:67] Creating Layer relu3_2
I1105 15:48:28.929317  1720 net.cpp:394] relu3_2 <- conv3_2
I1105 15:48:28.929322  1720 net.cpp:345] relu3_2 -> conv3_2 (in-place)
I1105 15:48:28.929327  1720 net.cpp:96] Setting up relu3_2
I1105 15:48:28.929333  1720 net.cpp:103] Top shape: 32 256 56 56 (25690112)
I1105 15:48:28.929337  1720 layer_factory.hpp:78] Creating layer conv3_3
I1105 15:48:28.929343  1720 net.cpp:67] Creating Layer conv3_3
I1105 15:48:28.929347  1720 net.cpp:394] conv3_3 <- conv3_2
I1105 15:48:28.929350  1720 net.cpp:356] conv3_3 -> conv3_3
I1105 15:48:28.929358  1720 net.cpp:96] Setting up conv3_3
I1105 15:48:28.944042  1720 net.cpp:103] Top shape: 32 256 56 56 (25690112)
I1105 15:48:28.944063  1720 layer_factory.hpp:78] Creating layer relu3_3
I1105 15:48:28.944072  1720 net.cpp:67] Creating Layer relu3_3
I1105 15:48:28.944077  1720 net.cpp:394] relu3_3 <- conv3_3
I1105 15:48:28.944082  1720 net.cpp:345] relu3_3 -> conv3_3 (in-place)
I1105 15:48:28.944088  1720 net.cpp:96] Setting up relu3_3
I1105 15:48:28.944094  1720 net.cpp:103] Top shape: 32 256 56 56 (25690112)
I1105 15:48:28.944097  1720 layer_factory.hpp:78] Creating layer pool3
I1105 15:48:28.944105  1720 net.cpp:67] Creating Layer pool3
I1105 15:48:28.944108  1720 net.cpp:394] pool3 <- conv3_3
I1105 15:48:28.944113  1720 net.cpp:356] pool3 -> pool3
I1105 15:48:28.944118  1720 net.cpp:96] Setting up pool3
I1105 15:48:28.944125  1720 net.cpp:103] Top shape: 32 256 28 28 (6422528)
I1105 15:48:28.944129  1720 layer_factory.hpp:78] Creating layer conv4_1
I1105 15:48:28.944136  1720 net.cpp:67] Creating Layer conv4_1
I1105 15:48:28.944140  1720 net.cpp:394] conv4_1 <- pool3
I1105 15:48:28.944144  1720 net.cpp:356] conv4_1 -> conv4_1
I1105 15:48:28.944149  1720 net.cpp:96] Setting up conv4_1
I1105 15:48:28.973208  1720 net.cpp:103] Top shape: 32 512 28 28 (12845056)
I1105 15:48:28.973232  1720 layer_factory.hpp:78] Creating layer relu4_1
I1105 15:48:28.973242  1720 net.cpp:67] Creating Layer relu4_1
I1105 15:48:28.973247  1720 net.cpp:394] relu4_1 <- conv4_1
I1105 15:48:28.973253  1720 net.cpp:345] relu4_1 -> conv4_1 (in-place)
I1105 15:48:28.973260  1720 net.cpp:96] Setting up relu4_1
I1105 15:48:28.973265  1720 net.cpp:103] Top shape: 32 512 28 28 (12845056)
I1105 15:48:28.973269  1720 layer_factory.hpp:78] Creating layer conv4_2
I1105 15:48:28.973274  1720 net.cpp:67] Creating Layer conv4_2
I1105 15:48:28.973289  1720 net.cpp:394] conv4_2 <- conv4_1
I1105 15:48:28.973294  1720 net.cpp:356] conv4_2 -> conv4_2
I1105 15:48:28.973301  1720 net.cpp:96] Setting up conv4_2
I1105 15:48:29.030925  1720 net.cpp:103] Top shape: 32 512 28 28 (12845056)
I1105 15:48:29.030952  1720 layer_factory.hpp:78] Creating layer relu4_2
I1105 15:48:29.030961  1720 net.cpp:67] Creating Layer relu4_2
I1105 15:48:29.030966  1720 net.cpp:394] relu4_2 <- conv4_2
I1105 15:48:29.030972  1720 net.cpp:345] relu4_2 -> conv4_2 (in-place)
I1105 15:48:29.030978  1720 net.cpp:96] Setting up relu4_2
I1105 15:48:29.030983  1720 net.cpp:103] Top shape: 32 512 28 28 (12845056)
I1105 15:48:29.030987  1720 layer_factory.hpp:78] Creating layer conv4_3
I1105 15:48:29.030994  1720 net.cpp:67] Creating Layer conv4_3
I1105 15:48:29.030998  1720 net.cpp:394] conv4_3 <- conv4_2
I1105 15:48:29.031003  1720 net.cpp:356] conv4_3 -> conv4_3
I1105 15:48:29.031009  1720 net.cpp:96] Setting up conv4_3
I1105 15:48:29.088495  1720 net.cpp:103] Top shape: 32 512 28 28 (12845056)
I1105 15:48:29.088518  1720 layer_factory.hpp:78] Creating layer relu4_3
I1105 15:48:29.088528  1720 net.cpp:67] Creating Layer relu4_3
I1105 15:48:29.088532  1720 net.cpp:394] relu4_3 <- conv4_3
I1105 15:48:29.088539  1720 net.cpp:345] relu4_3 -> conv4_3 (in-place)
I1105 15:48:29.088546  1720 net.cpp:96] Setting up relu4_3
I1105 15:48:29.088552  1720 net.cpp:103] Top shape: 32 512 28 28 (12845056)
I1105 15:48:29.088556  1720 layer_factory.hpp:78] Creating layer pool4
I1105 15:48:29.088562  1720 net.cpp:67] Creating Layer pool4
I1105 15:48:29.088564  1720 net.cpp:394] pool4 <- conv4_3
I1105 15:48:29.088570  1720 net.cpp:356] pool4 -> pool4
I1105 15:48:29.088575  1720 net.cpp:96] Setting up pool4
I1105 15:48:29.088583  1720 net.cpp:103] Top shape: 32 512 14 14 (3211264)
I1105 15:48:29.088587  1720 layer_factory.hpp:78] Creating layer conv5_1
I1105 15:48:29.088593  1720 net.cpp:67] Creating Layer conv5_1
I1105 15:48:29.088596  1720 net.cpp:394] conv5_1 <- pool4
I1105 15:48:29.088603  1720 net.cpp:356] conv5_1 -> conv5_1
I1105 15:48:29.088611  1720 net.cpp:96] Setting up conv5_1
I1105 15:48:29.146461  1720 net.cpp:103] Top shape: 32 512 14 14 (3211264)
I1105 15:48:29.146487  1720 layer_factory.hpp:78] Creating layer relu5_1
I1105 15:48:29.146495  1720 net.cpp:67] Creating Layer relu5_1
I1105 15:48:29.146500  1720 net.cpp:394] relu5_1 <- conv5_1
I1105 15:48:29.146507  1720 net.cpp:345] relu5_1 -> conv5_1 (in-place)
I1105 15:48:29.146513  1720 net.cpp:96] Setting up relu5_1
I1105 15:48:29.146519  1720 net.cpp:103] Top shape: 32 512 14 14 (3211264)
I1105 15:48:29.146522  1720 layer_factory.hpp:78] Creating layer conv5_2
I1105 15:48:29.146528  1720 net.cpp:67] Creating Layer conv5_2
I1105 15:48:29.146531  1720 net.cpp:394] conv5_2 <- conv5_1
I1105 15:48:29.146541  1720 net.cpp:356] conv5_2 -> conv5_2
I1105 15:48:29.146548  1720 net.cpp:96] Setting up conv5_2
I1105 15:48:29.204486  1720 net.cpp:103] Top shape: 32 512 14 14 (3211264)
I1105 15:48:29.204514  1720 layer_factory.hpp:78] Creating layer relu5_2
I1105 15:48:29.204521  1720 net.cpp:67] Creating Layer relu5_2
I1105 15:48:29.204526  1720 net.cpp:394] relu5_2 <- conv5_2
I1105 15:48:29.204535  1720 net.cpp:345] relu5_2 -> conv5_2 (in-place)
I1105 15:48:29.204542  1720 net.cpp:96] Setting up relu5_2
I1105 15:48:29.204548  1720 net.cpp:103] Top shape: 32 512 14 14 (3211264)
I1105 15:48:29.204551  1720 layer_factory.hpp:78] Creating layer conv5_3
I1105 15:48:29.204558  1720 net.cpp:67] Creating Layer conv5_3
I1105 15:48:29.204561  1720 net.cpp:394] conv5_3 <- conv5_2
I1105 15:48:29.204567  1720 net.cpp:356] conv5_3 -> conv5_3
I1105 15:48:29.204576  1720 net.cpp:96] Setting up conv5_3
I1105 15:48:29.262262  1720 net.cpp:103] Top shape: 32 512 14 14 (3211264)
I1105 15:48:29.262289  1720 layer_factory.hpp:78] Creating layer relu5_3
I1105 15:48:29.262296  1720 net.cpp:67] Creating Layer relu5_3
I1105 15:48:29.262301  1720 net.cpp:394] relu5_3 <- conv5_3
I1105 15:48:29.262308  1720 net.cpp:345] relu5_3 -> conv5_3 (in-place)
I1105 15:48:29.262325  1720 net.cpp:96] Setting up relu5_3
I1105 15:48:29.262331  1720 net.cpp:103] Top shape: 32 512 14 14 (3211264)
I1105 15:48:29.262333  1720 layer_factory.hpp:78] Creating layer pool5
I1105 15:48:29.262339  1720 net.cpp:67] Creating Layer pool5
I1105 15:48:29.262342  1720 net.cpp:394] pool5 <- conv5_3
I1105 15:48:29.262348  1720 net.cpp:356] pool5 -> pool5
I1105 15:48:29.262354  1720 net.cpp:96] Setting up pool5
I1105 15:48:29.262362  1720 net.cpp:103] Top shape: 32 512 7 7 (802816)
I1105 15:48:29.262365  1720 layer_factory.hpp:78] Creating layer fc6
I1105 15:48:29.262378  1720 net.cpp:67] Creating Layer fc6
I1105 15:48:29.262382  1720 net.cpp:394] fc6 <- pool5
I1105 15:48:29.262387  1720 net.cpp:356] fc6 -> fc6
I1105 15:48:29.262392  1720 net.cpp:96] Setting up fc6
I1105 15:48:31.648900  1720 net.cpp:103] Top shape: 32 4096 1 1 (131072)
I1105 15:48:31.648938  1720 layer_factory.hpp:78] Creating layer relu6
I1105 15:48:31.648948  1720 net.cpp:67] Creating Layer relu6
I1105 15:48:31.648953  1720 net.cpp:394] relu6 <- fc6
I1105 15:48:31.648960  1720 net.cpp:345] relu6 -> fc6 (in-place)
I1105 15:48:31.648967  1720 net.cpp:96] Setting up relu6
I1105 15:48:31.648982  1720 net.cpp:103] Top shape: 32 4096 1 1 (131072)
I1105 15:48:31.648984  1720 layer_factory.hpp:78] Creating layer drop6
I1105 15:48:31.648994  1720 net.cpp:67] Creating Layer drop6
I1105 15:48:31.648998  1720 net.cpp:394] drop6 <- fc6
I1105 15:48:31.649003  1720 net.cpp:345] drop6 -> fc6 (in-place)
I1105 15:48:31.649006  1720 net.cpp:96] Setting up drop6
I1105 15:48:31.649011  1720 net.cpp:103] Top shape: 32 4096 1 1 (131072)
I1105 15:48:31.649014  1720 layer_factory.hpp:78] Creating layer fc7
I1105 15:48:31.649020  1720 net.cpp:67] Creating Layer fc7
I1105 15:48:31.649024  1720 net.cpp:394] fc7 <- fc6
I1105 15:48:31.649029  1720 net.cpp:356] fc7 -> fc7
I1105 15:48:31.649035  1720 net.cpp:96] Setting up fc7
I1105 15:48:32.035586  1720 net.cpp:103] Top shape: 32 4096 1 1 (131072)
I1105 15:48:32.035627  1720 layer_factory.hpp:78] Creating layer relu7
I1105 15:48:32.035635  1720 net.cpp:67] Creating Layer relu7
I1105 15:48:32.035640  1720 net.cpp:394] relu7 <- fc7
I1105 15:48:32.035648  1720 net.cpp:345] relu7 -> fc7 (in-place)
I1105 15:48:32.035655  1720 net.cpp:96] Setting up relu7
I1105 15:48:32.035670  1720 net.cpp:103] Top shape: 32 4096 1 1 (131072)
I1105 15:48:32.035673  1720 layer_factory.hpp:78] Creating layer drop7
I1105 15:48:32.035677  1720 net.cpp:67] Creating Layer drop7
I1105 15:48:32.035681  1720 net.cpp:394] drop7 <- fc7
I1105 15:48:32.035684  1720 net.cpp:345] drop7 -> fc7 (in-place)
I1105 15:48:32.035689  1720 net.cpp:96] Setting up drop7
I1105 15:48:32.035692  1720 net.cpp:103] Top shape: 32 4096 1 1 (131072)
I1105 15:48:32.035696  1720 layer_factory.hpp:78] Creating layer fc8_2
I1105 15:48:32.035703  1720 net.cpp:67] Creating Layer fc8_2
I1105 15:48:32.035706  1720 net.cpp:394] fc8_2 <- fc7
I1105 15:48:32.035712  1720 net.cpp:356] fc8_2 -> fc8_2
I1105 15:48:32.035717  1720 net.cpp:96] Setting up fc8_2
I1105 15:48:32.035943  1720 net.cpp:103] Top shape: 32 2 1 1 (64)
I1105 15:48:32.035953  1720 layer_factory.hpp:78] Creating layer loss
I1105 15:48:32.035961  1720 net.cpp:67] Creating Layer loss
I1105 15:48:32.035969  1720 net.cpp:394] loss <- fc8_2
I1105 15:48:32.035972  1720 net.cpp:394] loss <- label
I1105 15:48:32.035979  1720 net.cpp:356] loss -> (automatic)
I1105 15:48:32.035984  1720 net.cpp:96] Setting up loss
I1105 15:48:32.035992  1720 net.cpp:103] Top shape: 1 1 1 1 (1)
I1105 15:48:32.035997  1720 net.cpp:109]     with loss weight 1
I1105 15:48:32.036033  1720 net.cpp:170] loss needs backward computation.
I1105 15:48:32.036037  1720 net.cpp:170] fc8_2 needs backward computation.
I1105 15:48:32.036039  1720 net.cpp:170] drop7 needs backward computation.
I1105 15:48:32.036042  1720 net.cpp:170] relu7 needs backward computation.
I1105 15:48:32.036044  1720 net.cpp:170] fc7 needs backward computation.
…
I1105 15:48:32.037058  1720 net.cpp:275] The NetState phase (1) differed from the phase (0) specified by a rule in layer data
I1105 15:48:32.037279  1720 net.cpp:39] Initializing net from parameters: 
name: "small"
layers {
  top: "data"
  top: "label"
  name: "data"
  type: IMAGE_DATA
  image_data_param {
    source: "/data/ad6813/devCaffe/caffe/task/clamp/clampVal.txt"
    batch_size: 6
    new_height: 256
    new_width: 256
  }
  include {
    phase: TEST
  }
  transform_param {
    mirror: true
    crop_size: 224
    mean_value: 86.752
    mean_value: 101.46
    mean_value: 104.6
  }
}
layers {
  bottom: "data"
  top: "conv1_1"
  name: "conv1_1"
  type: CONVOLUTION
  convolution_param {
    num_output: 64
    pad: 1
    kernel_size: 3
    weight_filler {
      type: "gaussian"
      std: 0.01
    }
    bias_filler {
      type: "constant"
      value: 0
    }
  }
}
layers {
  bottom: "conv1_1"
  top: "conv1_1"
  name: "relu1_1"
  type: RELU
}
layers {
  bottom: "conv1_1"
  top: "conv1_2"
  name: "conv1_2"
  type: CONVOLUTION
  convolution_param {
    num_output: 64
    pad: 1
    kernel_size: 3
    weight_filler {
      type: "gaussian"
      std: 0.01
    }
    bias_filler {
      type: "constant"
      value: 0
    }
  }
}
layers {
  bottom: "conv1_2"
  top: "conv1_2"
  name: "relu1_2"
  type: RELU
}
layers {
  bottom: "conv1_2"
  top: "pool1"
  name: "pool1"
  type: POOLING
  pooling_param {
    pool: MAX
    kernel_size: 2
    stride: 2
  }
}
layers {
  bottom: "pool1"
  top: "conv2_1"
  name: "conv2_1"
  type: CONVOLUTION
  convolution_param {
    num_output: 128
    pad: 1
    kernel_size: 3
    weight_filler {
      type: "gaussian"
      std: 0.01
    }
    bias_filler {
      type: "constant"
      value: 0
    }
  }
}
layers {
  bottom: "conv2_1"
  top: "conv2_1"
  name: "relu2_1"
  type: RELU
}
layers {
  bottom: "conv2_1"
  top: "conv2_2"
  name: "conv2_2"
  type: CONVOLUTION
  convolution_param {
    num_output: 128
    pad: 1
    kernel_size: 3
    weight_filler {
      type: "gaussian"
      std: 0.01
    }
    bias_filler {
      type: "constant"
      value: 0
    }
  }
}
layers {
  bottom: "conv2_2"
  top: "conv2_2"
  name: "relu2_2"
  type: RELU
}
layers {
  bottom: "conv2_2"
  top: "pool2"
  name: "pool2"
  type: POOLING
  pooling_param {
    pool: MAX
    kernel_size: 2
    stride: 2
  }
}
layers {
  bottom: "pool2"
  top: "conv3_1"
  name: "conv3_1"
  type: CONVOLUTION
  convolution_param {
    num_output: 256
    pad: 1
    kernel_size: 3
    weight_filler {
      type: "gaussian"
      std: 0.01
    }
    bias_filler {
      type: "constant"
      value: 0
    }
  }
}
layers {
  bottom: "conv3_1"
  top: "conv3_1"
  name: "relu3_1"
  type: RELU
}
layers {
  bottom: "conv3_1"
  top: "conv3_2"
  name: "conv3_2"
  type: CONVOLUTION
  convolution_param {
    num_output: 256
    pad: 1
    kernel_size: 3
    weight_filler {
      type: "gaussian"
      std: 0.01
    }
    bias_filler {
      type: "constant"
      value: 0
    }
  }
}
layers {
  bottom: "conv3_2"
  top: "conv3_2"
  name: "relu3_2"
  type: RELU
}
layers {
  bottom: "conv3_2"
  top: "conv3_3"
  name: "conv3_3"
  type: CONVOLUTION
  convolution_param {
    num_output: 256
    pad: 1
    kernel_size: 3
    weight_filler {
      type: "gaussian"
      std: 0.01
    }
    bias_filler {
      type: "constant"
      value: 0
    }
  }
}
layers {
  bottom: "conv3_3"
  top: "conv3_3"
  name: "relu3_3"
  type: RELU
}
layers {
  bottom: "conv3_3"
  top: "pool3"
  name: "pool3"
  type: POOLING
  pooling_param {
    pool: MAX
    kernel_size: 2
    stride: 2
  }
}
layers {
  bottom: "pool3"
  top: "conv4_1"
  name: "conv4_1"
  type: CONVOLUTION
  convolution_param {
    num_output: 512
    pad: 1
    kernel_size: 3
    weight_filler {
      type: "gaussian"
      std: 0.01
    }
    bias_filler {
      type: "constant"
      value: 0
    }
  }
}
layers {
  bottom: "conv4_1"
  top: "conv4_1"
  name: "relu4_1"
  type: RELU
}
layers {
  bottom: "conv4_1"
  top: "conv4_2"
  name: "conv4_2"
  type: CONVOLUTION
  convolution_param {
    num_output: 512
    pad: 1
    kernel_size: 3
    weight_filler {
      type: "gaussian"
      std: 0.01
    }
    bias_filler {
      type: "constant"
      value: 0
    }
  }
}
layers {
  bottom: "conv4_2"
  top: "conv4_2"
  name: "relu4_2"
  type: RELU
}
layers {
  bottom: "conv4_2"
  top: "conv4_3"
  name: "conv4_3"
  type: CONVOLUTION
  convolution_param {
    num_output: 512
    pad: 1
    kernel_size: 3
    weight_filler {
      type: "gaussian"
      std: 0.01
    }
    bias_filler {
      type: "constant"
      value: 0
    }
  }
}
layers {
  bottom: "conv4_3"
  top: "conv4_3"
  name: "relu4_3"
  type: RELU
}
layers {
  bottom: "conv4_3"
  top: "pool4"
  name: "pool4"
  type: POOLING
  pooling_param {
    pool: MAX
    kernel_size: 2
    stride: 2
  }
}
layers {
  bottom: "pool4"
  top: "conv5_1"
  name: "conv5_1"
  type: CONVOLUTION
  convolution_param {
    num_output: 512
    pad: 1
    kernel_size: 3
    weight_filler {
      type: "gaussian"
      std: 0.01
    }
    bias_filler {
      type: "constant"
      value: 0
    }
  }
}
layers {
  bottom: "conv5_1"
  top: "conv5_1"
  name: "relu5_1"
  type: RELU
}
layers {
  bottom: "conv5_1"
  top: "conv5_2"
  name: "conv5_2"
  type: CONVOLUTION
  convolution_param {
    num_output: 512
    pad: 1
    kernel_size: 3
    weight_filler {
      type: "gaussian"
      std: 0.01
    }
    bias_filler {
      type: "constant"
      value: 0
    }
  }
}
layers {
  bottom: "conv5_2"
  top: "conv5_2"
  name: "relu5_2"
  type: RELU
}
layers {
  bottom: "conv5_2"
  top: "conv5_3"
  name: "conv5_3"
  type: CONVOLUTION
  convolution_param {
    num_output: 512
    pad: 1
    kernel_size: 3
    weight_filler {
      type: "gaussian"
      std: 0.01
    }
    bias_filler {
      type: "constant"
      value: 0
    }
  }
}
layers {
  bottom: "conv5_3"
  top: "conv5_3"
  name: "relu5_3"
  type: RELU
}
layers {
  bottom: "conv5_3"
  top: "pool5"
  name: "pool5"
  type: POOLING
  pooling_param {
    pool: MAX
    kernel_size: 2
    stride: 2
  }
}
layers {
  bottom: "pool5"
  top: "fc6"
  name: "fc6"
  type: INNER_PRODUCT
  inner_product_param {
    num_output: 4096
    weight_filler {
      type: "gaussian"
      std: 0.01
    }
    bias_filler {
      type: "constant"
      value: 0
    }
  }
}
layers {
  bottom: "fc6"
  top: "fc6"
  name: "relu6"
  type: RELU
}
layers {
  bottom: "fc6"
  top: "fc6"
  name: "drop6"
  type: DROPOUT
  dropout_param {
    dropout_ratio: 0.5
  }
}
layers {
  bottom: "fc6"
  top: "fc7"
  name: "fc7"
  type: INNER_PRODUCT
  inner_product_param {
    num_output: 4096
    weight_filler {
      type: "gaussian"
      std: 0.01
    }
    bias_filler {
      type: "constant"
      value: 0
    }
  }
}
layers {
  bottom: "fc7"
  top: "fc7"
  name: "relu7"
  type: RELU
}
layers {
  bottom: "fc7"
  top: "fc7"
  name: "drop7"
  type: DROPOUT
  dropout_param {
    dropout_ratio: 0.5
  }
}
layers {
  bottom: "fc7"
  top: "fc8_2"
  name: "fc8_2"
  type: INNER_PRODUCT
  inner_product_param {
    num_output: 2
    weight_filler {
      type: "gaussian"
      std: 0.01
    }
    bias_filler {
      type: "constant"
      value: 0
    }
  }
}
layers {
  bottom: "fc8_2"
  bottom: "label"
  name: "loss"
  type: SOFTMAX_LOSS
}
layers {
  bottom: "fc8_2"
  bottom: "label"
  top: "accuracy"
  name: "accuracy"
  type: PER_CLASS_ACCURACY
  include {
    phase: TEST
  }
}
state {
  phase: TEST
}
I1105 15:48:32.037423  1720 layer_factory.hpp:78] Creating layer data
I1105 15:48:32.037433  1720 net.cpp:67] Creating Layer data
I1105 15:48:32.037437  1720 net.cpp:356] data -> data
I1105 15:48:32.037446  1720 net.cpp:356] data -> label
I1105 15:48:32.037451  1720 net.cpp:96] Setting up data
I1105 15:48:32.037456  1720 image_data_layer.cpp:34] Opening file /data/ad6813/devCaffe/caffe/task/clamp/clampVal.txt
I1105 15:48:32.038198  1720 image_data_layer.cpp:49] A total of 2005 images.
I1105 15:48:32.044291  1720 image_data_layer.cpp:78] output data size: 6,3,224,224
I1105 15:48:32.044603  1720 net.cpp:103] Top shape: 6 3 224 224 (903168)
I1105 15:48:32.044611  1720 net.cpp:103] Top shape: 6 1 1 1 (6)
I1105 15:48:32.044615  1720 layer_factory.hpp:78] Creating layer label_data_1_split
I1105 15:48:32.044622  1720 net.cpp:67] Creating Layer label_data_1_split
I1105 15:48:32.044625  1720 net.cpp:394] label_data_1_split <- label
I1105 15:48:32.044632  1720 net.cpp:356] label_data_1_split -> label_data_1_split_0
I1105 15:48:32.044639  1720 net.cpp:356] label_data_1_split -> label_data_1_split_1
I1105 15:48:32.044644  1720 net.cpp:96] Setting up label_data_1_split
I1105 15:48:32.044651  1720 net.cpp:103] Top shape: 6 1 1 1 (6)
I1105 15:48:32.044653  1720 net.cpp:103] Top shape: 6 1 1 1 (6)
I1105 15:48:32.044656  1720 layer_factory.hpp:78] Creating layer conv1_1
I1105 15:48:32.044661  1720 net.cpp:67] Creating Layer conv1_1
I1105 15:48:32.044664  1720 net.cpp:394] conv1_1 <- data
I1105 15:48:32.044669  1720 net.cpp:356] conv1_1 -> conv1_1
I1105 15:48:32.044675  1720 net.cpp:96] Setting up conv1_1
I1105 15:48:32.044878  1720 net.cpp:103] Top shape: 6 64 224 224 (19267584)
I1105 15:48:32.044890  1720 layer_factory.hpp:78] Creating layer relu1_1
I1105 15:48:32.044895  1720 net.cpp:67] Creating Layer relu1_1
I1105 15:48:32.044898  1720 net.cpp:394] relu1_1 <- conv1_1
I1105 15:48:32.044909  1720 net.cpp:345] relu1_1 -> conv1_1 (in-place)
I1105 15:48:32.044914  1720 net.cpp:96] Setting up relu1_1
I1105 15:48:32.044919  1720 net.cpp:103] Top shape: 6 64 224 224 (19267584)
I1105 15:48:32.044926  1720 layer_factory.hpp:78] Creating layer conv1_2
I1105 15:48:32.044932  1720 net.cpp:67] Creating Layer conv1_2
I1105 15:48:32.044935  1720 net.cpp:394] conv1_2 <- conv1_1
I1105 15:48:32.044940  1720 net.cpp:356] conv1_2 -> conv1_2
I1105 15:48:32.044952  1720 net.cpp:96] Setting up conv1_2
I1105 15:48:32.046001  1720 net.cpp:103] Top shape: 6 64 224 224 (19267584)
I1105 15:48:32.046016  1720 layer_factory.hpp:78] Creating layer relu1_2
I1105 15:48:32.046021  1720 net.cpp:67] Creating Layer relu1_2
I1105 15:48:32.046025  1720 net.cpp:394] relu1_2 <- conv1_2
I1105 15:48:32.046028  1720 net.cpp:345] relu1_2 -> conv1_2 (in-place)
I1105 15:48:32.046033  1720 net.cpp:96] Setting up relu1_2
I1105 15:48:32.046038  1720 net.cpp:103] Top shape: 6 64 224 224 (19267584)
I1105 15:48:32.046042  1720 layer_factory.hpp:78] Creating layer pool1
I1105 15:48:32.046046  1720 net.cpp:67] Creating Layer pool1
I1105 15:48:32.046049  1720 net.cpp:394] pool1 <- conv1_2
I1105 15:48:32.046054  1720 net.cpp:356] pool1 -> pool1
I1105 15:48:32.046059  1720 net.cpp:96] Setting up pool1
I1105 15:48:32.046066  1720 net.cpp:103] Top shape: 6 64 112 112 (4816896)
I1105 15:48:32.046069  1720 layer_factory.hpp:78] Creating layer conv2_1
I1105 15:48:32.046075  1720 net.cpp:67] Creating Layer conv2_1
I1105 15:48:32.046078  1720 net.cpp:394] conv2_1 <- pool1
I1105 15:48:32.046082  1720 net.cpp:356] conv2_1 -> conv2_1
I1105 15:48:32.046087  1720 net.cpp:96] Setting up conv2_1
I1105 15:48:32.048135  1720 net.cpp:103] Top shape: 6 128 112 112 (9633792)
I1105 15:48:32.048151  1720 layer_factory.hpp:78] Creating layer relu2_1
I1105 15:48:32.048156  1720 net.cpp:67] Creating Layer relu2_1
I1105 15:48:32.048159  1720 net.cpp:394] relu2_1 <- conv2_1
I1105 15:48:32.048164  1720 net.cpp:345] relu2_1 -> conv2_1 (in-place)
I1105 15:48:32.048169  1720 net.cpp:96] Setting up relu2_1
I1105 15:48:32.048176  1720 net.cpp:103] Top shape: 6 128 112 112 (9633792)
I1105 15:48:32.048178  1720 layer_factory.hpp:78] Creating layer conv2_2
I1105 15:48:32.048184  1720 net.cpp:67] Creating Layer conv2_2
I1105 15:48:32.048187  1720 net.cpp:394] conv2_2 <- conv2_1
I1105 15:48:32.048193  1720 net.cpp:356] conv2_2 -> conv2_2
I1105 15:48:32.048199  1720 net.cpp:96] Setting up conv2_2
I1105 15:48:32.051934  1720 net.cpp:103] Top shape: 6 128 112 112 (9633792)
I1105 15:48:32.051944  1720 layer_factory.hpp:78] Creating layer relu2_2
I1105 15:48:32.051949  1720 net.cpp:67] Creating Layer relu2_2
I1105 15:48:32.051952  1720 net.cpp:394] relu2_2 <- conv2_2
I1105 15:48:32.051959  1720 net.cpp:345] relu2_2 -> conv2_2 (in-place)
I1105 15:48:32.051964  1720 net.cpp:96] Setting up relu2_2
I1105 15:48:32.051969  1720 net.cpp:103] Top shape: 6 128 112 112 (9633792)
I1105 15:48:32.051971  1720 layer_factory.hpp:78] Creating layer pool2
I1105 15:48:32.051976  1720 net.cpp:67] Creating Layer pool2
I1105 15:48:32.051978  1720 net.cpp:394] pool2 <- conv2_2
I1105 15:48:32.051985  1720 net.cpp:356] pool2 -> pool2
I1105 15:48:32.051988  1720 net.cpp:96] Setting up pool2
I1105 15:48:32.051995  1720 net.cpp:103] Top shape: 6 128 56 56 (2408448)
I1105 15:48:32.051997  1720 layer_factory.hpp:78] Creating layer conv3_1
I1105 15:48:32.052002  1720 net.cpp:67] Creating Layer conv3_1
I1105 15:48:32.052006  1720 net.cpp:394] conv3_1 <- pool2
I1105 15:48:32.052011  1720 net.cpp:356] conv3_1 -> conv3_1
I1105 15:48:32.052016  1720 net.cpp:96] Setting up conv3_1
I1105 15:48:32.059368  1720 net.cpp:103] Top shape: 6 256 56 56 (4816896)
I1105 15:48:32.059384  1720 layer_factory.hpp:78] Creating layer relu3_1
I1105 15:48:32.059389  1720 net.cpp:67] Creating Layer relu3_1
I1105 15:48:32.059393  1720 net.cpp:394] relu3_1 <- conv3_1
I1105 15:48:32.059397  1720 net.cpp:345] relu3_1 -> conv3_1 (in-place)
I1105 15:48:32.059402  1720 net.cpp:96] Setting up relu3_1
I1105 15:48:32.059407  1720 net.cpp:103] Top shape: 6 256 56 56 (4816896)
I1105 15:48:32.059415  1720 layer_factory.hpp:78] Creating layer conv3_2
I1105 15:48:32.059422  1720 net.cpp:67] Creating Layer conv3_2
I1105 15:48:32.059425  1720 net.cpp:394] conv3_2 <- conv3_1
I1105 15:48:32.059430  1720 net.cpp:356] conv3_2 -> conv3_2
I1105 15:48:32.059435  1720 net.cpp:96] Setting up conv3_2
I1105 15:48:32.074098  1720 net.cpp:103] Top shape: 6 256 56 56 (4816896)
I1105 15:48:32.074120  1720 layer_factory.hpp:78] Creating layer relu3_2
I1105 15:48:32.074127  1720 net.cpp:67] Creating Layer relu3_2
I1105 15:48:32.074131  1720 net.cpp:394] relu3_2 <- conv3_2
I1105 15:48:32.074139  1720 net.cpp:345] relu3_2 -> conv3_2 (in-place)
I1105 15:48:32.074146  1720 net.cpp:96] Setting up relu3_2
I1105 15:48:32.074151  1720 net.cpp:103] Top shape: 6 256 56 56 (4816896)
I1105 15:48:32.074154  1720 layer_factory.hpp:78] Creating layer conv3_3
I1105 15:48:32.074163  1720 net.cpp:67] Creating Layer conv3_3
I1105 15:48:32.074167  1720 net.cpp:394] conv3_3 <- conv3_2
I1105 15:48:32.074170  1720 net.cpp:356] conv3_3 -> conv3_3
I1105 15:48:32.074177  1720 net.cpp:96] Setting up conv3_3
I1105 15:48:32.088582  1720 net.cpp:103] Top shape: 6 256 56 56 (4816896)
I1105 15:48:32.088595  1720 layer_factory.hpp:78] Creating layer relu3_3
I1105 15:48:32.088613  1720 net.cpp:67] Creating Layer relu3_3
I1105 15:48:32.088618  1720 net.cpp:394] relu3_3 <- conv3_3
I1105 15:48:32.088623  1720 net.cpp:345] relu3_3 -> conv3_3 (in-place)
I1105 15:48:32.088629  1720 net.cpp:96] Setting up relu3_3
I1105 15:48:32.088634  1720 net.cpp:103] Top shape: 6 256 56 56 (4816896)
I1105 15:48:32.088636  1720 layer_factory.hpp:78] Creating layer pool3
I1105 15:48:32.088641  1720 net.cpp:67] Creating Layer pool3
I1105 15:48:32.088644  1720 net.cpp:394] pool3 <- conv3_3
I1105 15:48:32.088650  1720 net.cpp:356] pool3 -> pool3
I1105 15:48:32.088655  1720 net.cpp:96] Setting up pool3
I1105 15:48:32.088662  1720 net.cpp:103] Top shape: 6 256 28 28 (1204224)
I1105 15:48:32.088665  1720 layer_factory.hpp:78] Creating layer conv4_1
I1105 15:48:32.088670  1720 net.cpp:67] Creating Layer conv4_1
I1105 15:48:32.088673  1720 net.cpp:394] conv4_1 <- pool3
I1105 15:48:32.088680  1720 net.cpp:356] conv4_1 -> conv4_1
I1105 15:48:32.088685  1720 net.cpp:96] Setting up conv4_1
I1105 15:48:32.116416  1720 net.cpp:103] Top shape: 6 512 28 28 (2408448)
I1105 15:48:32.116442  1720 layer_factory.hpp:78] Creating layer relu4_1
I1105 15:48:32.116449  1720 net.cpp:67] Creating Layer relu4_1
I1105 15:48:32.116453  1720 net.cpp:394] relu4_1 <- conv4_1
I1105 15:48:32.116458  1720 net.cpp:345] relu4_1 -> conv4_1 (in-place)
I1105 15:48:32.116464  1720 net.cpp:96] Setting up relu4_1
I1105 15:48:32.116469  1720 net.cpp:103] Top shape: 6 512 28 28 (2408448)
I1105 15:48:32.116472  1720 layer_factory.hpp:78] Creating layer conv4_2
I1105 15:48:32.116477  1720 net.cpp:67] Creating Layer conv4_2
I1105 15:48:32.116480  1720 net.cpp:394] conv4_2 <- conv4_1
I1105 15:48:32.116487  1720 net.cpp:356] conv4_2 -> conv4_2
I1105 15:48:32.116492  1720 net.cpp:96] Setting up conv4_2
I1105 15:48:32.171030  1720 net.cpp:103] Top shape: 6 512 28 28 (2408448)
I1105 15:48:32.171072  1720 layer_factory.hpp:78] Creating layer relu4_2
I1105 15:48:32.171079  1720 net.cpp:67] Creating Layer relu4_2
I1105 15:48:32.171083  1720 net.cpp:394] relu4_2 <- conv4_2
I1105 15:48:32.171092  1720 net.cpp:345] relu4_2 -> conv4_2 (in-place)
I1105 15:48:32.171097  1720 net.cpp:96] Setting up relu4_2
I1105 15:48:32.171103  1720 net.cpp:103] Top shape: 6 512 28 28 (2408448)
I1105 15:48:32.171107  1720 layer_factory.hpp:78] Creating layer conv4_3
I1105 15:48:32.171113  1720 net.cpp:67] Creating Layer conv4_3
I1105 15:48:32.171115  1720 net.cpp:394] conv4_3 <- conv4_2
I1105 15:48:32.171120  1720 net.cpp:356] conv4_3 -> conv4_3
I1105 15:48:32.171128  1720 net.cpp:96] Setting up conv4_3
I1105 15:48:32.226528  1720 net.cpp:103] Top shape: 6 512 28 28 (2408448)
I1105 15:48:32.226554  1720 layer_factory.hpp:78] Creating layer relu4_3
I1105 15:48:32.226562  1720 net.cpp:67] Creating Layer relu4_3
I1105 15:48:32.226574  1720 net.cpp:394] relu4_3 <- conv4_3
I1105 15:48:32.226583  1720 net.cpp:345] relu4_3 -> conv4_3 (in-place)
I1105 15:48:32.226590  1720 net.cpp:96] Setting up relu4_3
I1105 15:48:32.226596  1720 net.cpp:103] Top shape: 6 512 28 28 (2408448)
I1105 15:48:32.226599  1720 layer_factory.hpp:78] Creating layer pool4
I1105 15:48:32.226605  1720 net.cpp:67] Creating Layer pool4
I1105 15:48:32.226608  1720 net.cpp:394] pool4 <- conv4_3
I1105 15:48:32.226613  1720 net.cpp:356] pool4 -> pool4
I1105 15:48:32.226619  1720 net.cpp:96] Setting up pool4
I1105 15:48:32.226626  1720 net.cpp:103] Top shape: 6 512 14 14 (602112)
I1105 15:48:32.226630  1720 layer_factory.hpp:78] Creating layer conv5_1
I1105 15:48:32.226635  1720 net.cpp:67] Creating Layer conv5_1
I1105 15:48:32.226639  1720 net.cpp:394] conv5_1 <- pool4
I1105 15:48:32.226644  1720 net.cpp:356] conv5_1 -> conv5_1
I1105 15:48:32.226649  1720 net.cpp:96] Setting up conv5_1
I1105 15:48:32.281159  1720 net.cpp:103] Top shape: 6 512 14 14 (602112)
I1105 15:48:32.281196  1720 layer_factory.hpp:78] Creating layer relu5_1
I1105 15:48:32.281204  1720 net.cpp:67] Creating Layer relu5_1
I1105 15:48:32.281209  1720 net.cpp:394] relu5_1 <- conv5_1
I1105 15:48:32.281221  1720 net.cpp:345] relu5_1 -> conv5_1 (in-place)
I1105 15:48:32.281227  1720 net.cpp:96] Setting up relu5_1
I1105 15:48:32.281234  1720 net.cpp:103] Top shape: 6 512 14 14 (602112)
I1105 15:48:32.281236  1720 layer_factory.hpp:78] Creating layer conv5_2
I1105 15:48:32.281244  1720 net.cpp:67] Creating Layer conv5_2
I1105 15:48:32.281247  1720 net.cpp:394] conv5_2 <- conv5_1
I1105 15:48:32.281251  1720 net.cpp:356] conv5_2 -> conv5_2
I1105 15:48:32.281257  1720 net.cpp:96] Setting up conv5_2
I1105 15:48:32.336133  1720 net.cpp:103] Top shape: 6 512 14 14 (602112)
I1105 15:48:32.336169  1720 layer_factory.hpp:78] Creating layer relu5_2
I1105 15:48:32.336177  1720 net.cpp:67] Creating Layer relu5_2
I1105 15:48:32.336181  1720 net.cpp:394] relu5_2 <- conv5_2
I1105 15:48:32.336187  1720 net.cpp:345] relu5_2 -> conv5_2 (in-place)
I1105 15:48:32.336194  1720 net.cpp:96] Setting up relu5_2
I1105 15:48:32.336199  1720 net.cpp:103] Top shape: 6 512 14 14 (602112)
I1105 15:48:32.336202  1720 layer_factory.hpp:78] Creating layer conv5_3
I1105 15:48:32.336208  1720 net.cpp:67] Creating Layer conv5_3
I1105 15:48:32.336211  1720 net.cpp:394] conv5_3 <- conv5_2
I1105 15:48:32.336220  1720 net.cpp:356] conv5_3 -> conv5_3
I1105 15:48:32.336225  1720 net.cpp:96] Setting up conv5_3
I1105 15:48:32.390810  1720 net.cpp:103] Top shape: 6 512 14 14 (602112)
I1105 15:48:32.390851  1720 layer_factory.hpp:78] Creating layer relu5_3
I1105 15:48:32.390859  1720 net.cpp:67] Creating Layer relu5_3
I1105 15:48:32.390863  1720 net.cpp:394] relu5_3 <- conv5_3
I1105 15:48:32.390872  1720 net.cpp:345] relu5_3 -> conv5_3 (in-place)
I1105 15:48:32.390878  1720 net.cpp:96] Setting up relu5_3
I1105 15:48:32.390884  1720 net.cpp:103] Top shape: 6 512 14 14 (602112)
I1105 15:48:32.390887  1720 layer_factory.hpp:78] Creating layer pool5
I1105 15:48:32.390897  1720 net.cpp:67] Creating Layer pool5
I1105 15:48:32.390899  1720 net.cpp:394] pool5 <- conv5_3
I1105 15:48:32.390905  1720 net.cpp:356] pool5 -> pool5
I1105 15:48:32.390911  1720 net.cpp:96] Setting up pool5
I1105 15:48:32.390918  1720 net.cpp:103] Top shape: 6 512 7 7 (150528)
I1105 15:48:32.390921  1720 layer_factory.hpp:78] Creating layer fc6
I1105 15:48:32.390928  1720 net.cpp:67] Creating Layer fc6
I1105 15:48:32.390929  1720 net.cpp:394] fc6 <- pool5
I1105 15:48:32.390935  1720 net.cpp:356] fc6 -> fc6
I1105 15:48:32.390941  1720 net.cpp:96] Setting up fc6
I1105 15:48:34.763855  1720 net.cpp:103] Top shape: 6 4096 1 1 (24576)
I1105 15:48:34.763895  1720 layer_factory.hpp:78] Creating layer relu6
I1105 15:48:34.763902  1720 net.cpp:67] Creating Layer relu6
I1105 15:48:34.763907  1720 net.cpp:394] relu6 <- fc6
I1105 15:48:34.763916  1720 net.cpp:345] relu6 -> fc6 (in-place)
I1105 15:48:34.763923  1720 net.cpp:96] Setting up relu6
I1105 15:48:34.763937  1720 net.cpp:103] Top shape: 6 4096 1 1 (24576)
I1105 15:48:34.763949  1720 layer_factory.hpp:78] Creating layer drop6
I1105 15:48:34.763954  1720 net.cpp:67] Creating Layer drop6
I1105 15:48:34.763957  1720 net.cpp:394] drop6 <- fc6
I1105 15:48:34.763962  1720 net.cpp:345] drop6 -> fc6 (in-place)
I1105 15:48:34.763967  1720 net.cpp:96] Setting up drop6
I1105 15:48:34.763969  1720 net.cpp:103] Top shape: 6 4096 1 1 (24576)
I1105 15:48:34.763972  1720 layer_factory.hpp:78] Creating layer fc7
I1105 15:48:34.763978  1720 net.cpp:67] Creating Layer fc7
I1105 15:48:34.763981  1720 net.cpp:394] fc7 <- fc6
I1105 15:48:34.763985  1720 net.cpp:356] fc7 -> fc7
I1105 15:48:34.763991  1720 net.cpp:96] Setting up fc7
I1105 15:48:35.153551  1720 net.cpp:103] Top shape: 6 4096 1 1 (24576)
I1105 15:48:35.153589  1720 layer_factory.hpp:78] Creating layer relu7
I1105 15:48:35.153599  1720 net.cpp:67] Creating Layer relu7
I1105 15:48:35.153604  1720 net.cpp:394] relu7 <- fc7
I1105 15:48:35.153610  1720 net.cpp:345] relu7 -> fc7 (in-place)
I1105 15:48:35.153617  1720 net.cpp:96] Setting up relu7
I1105 15:48:35.153631  1720 net.cpp:103] Top shape: 6 4096 1 1 (24576)
I1105 15:48:35.153635  1720 layer_factory.hpp:78] Creating layer drop7
I1105 15:48:35.153640  1720 net.cpp:67] Creating Layer drop7
I1105 15:48:35.153642  1720 net.cpp:394] drop7 <- fc7
I1105 15:48:35.153647  1720 net.cpp:345] drop7 -> fc7 (in-place)
I1105 15:48:35.153652  1720 net.cpp:96] Setting up drop7
I1105 15:48:35.153656  1720 net.cpp:103] Top shape: 6 4096 1 1 (24576)
I1105 15:48:35.153659  1720 layer_factory.hpp:78] Creating layer fc8_2
I1105 15:48:35.153666  1720 net.cpp:67] Creating Layer fc8_2
I1105 15:48:35.153667  1720 net.cpp:394] fc8_2 <- fc7
I1105 15:48:35.153672  1720 net.cpp:356] fc8_2 -> fc8_2
I1105 15:48:35.153678  1720 net.cpp:96] Setting up fc8_2
I1105 15:48:35.153898  1720 net.cpp:103] Top shape: 6 2 1 1 (12)
I1105 15:48:35.153906  1720 layer_factory.hpp:78] Creating layer fc8_2_fc8_2_0_split
I1105 15:48:35.153911  1720 net.cpp:67] Creating Layer fc8_2_fc8_2_0_split
I1105 15:48:35.153914  1720 net.cpp:394] fc8_2_fc8_2_0_split <- fc8_2
I1105 15:48:35.153920  1720 net.cpp:356] fc8_2_fc8_2_0_split -> fc8_2_fc8_2_0_split_0
I1105 15:48:35.153925  1720 net.cpp:356] fc8_2_fc8_2_0_split -> fc8_2_fc8_2_0_split_1
I1105 15:48:35.153934  1720 net.cpp:96] Setting up fc8_2_fc8_2_0_split
I1105 15:48:35.153939  1720 net.cpp:103] Top shape: 6 2 1 1 (12)
I1105 15:48:35.153941  1720 net.cpp:103] Top shape: 6 2 1 1 (12)
I1105 15:48:35.153944  1720 layer_factory.hpp:78] Creating layer loss
I1105 15:48:35.153949  1720 net.cpp:67] Creating Layer loss
I1105 15:48:35.153952  1720 net.cpp:394] loss <- fc8_2_fc8_2_0_split_0
I1105 15:48:35.153955  1720 net.cpp:394] loss <- label_data_1_split_0
I1105 15:48:35.153966  1720 net.cpp:356] loss -> (automatic)
I1105 15:48:35.153972  1720 net.cpp:96] Setting up loss
I1105 15:48:35.153978  1720 net.cpp:103] Top shape: 1 1 1 1 (1)
I1105 15:48:35.153981  1720 net.cpp:109]     with loss weight 1
I1105 15:48:35.153995  1720 layer_factory.hpp:78] Creating layer accuracy
I1105 15:48:35.154019  1720 net.cpp:67] Creating Layer accuracy
I1105 15:48:35.154026  1720 net.cpp:394] accuracy <- fc8_2_fc8_2_0_split_1
I1105 15:48:35.154031  1720 net.cpp:394] accuracy <- label_data_1_split_1
I1105 15:48:35.154036  1720 net.cpp:356] accuracy -> accuracy
I1105 15:48:35.154042  1720 net.cpp:96] Setting up accuracy
I1105 15:48:35.154048  1720 net.cpp:103] Top shape: 1 1 1 4 (4)
I1105 15:48:35.154054  1720 net.cpp:172] accuracy does not need backward computation.
I1105 15:48:35.154057  1720 net.cpp:170] loss needs backward computation.
I1105 15:48:35.154060  1720 net.cpp:170] fc8_2_fc8_2_0_split needs backward computation.
I1105 15:48:35.154062  1720 net.cpp:170] fc8_2 needs backward computation.
I1105 15:48:35.154065  1720 net.cpp:170] drop7 needs backward computation.
…
