…
I1104 19:27:53.762243 27175 net.cpp:275] The NetState phase (0) differed from the phase (1) specified by a rule in layer accuracy
I1104 19:27:53.762425 27175 net.cpp:39] Initializing net from parameters: 
name: "small"
layers {
  top: "data"
  top: "label"
  name: "data"
  type: IMAGE_DATA
  image_data_param {
    source: "/data/ad6813/devCaffe/caffe/task/clamp/clampTrain.txt"
    batch_size: 30
    new_height: 256
    new_width: 256
  }
  include {
    phase: TRAIN
  }
  transform_param {
    mirror: true
    crop_size: 224
    mean_file: "/data/ad6813/devCaffe/caffe/clampdetMeanVal"
  }
}
layers {
  bottom: "data"
  top: "conv1_1"
  name: "conv1_1"
  type: CONVOLUTION
  convolution_param {
    num_output: 64
    pad: 1
    kernel_size: 3
    weight_filler {
      type: "gaussian"
      std: 0.01
    }
    bias_filler {
      type: "constant"
      value: 0
    }
  }
}
layers {
  bottom: "conv1_1"
  top: "conv1_1"
  name: "relu1_1"
  type: RELU
}
layers {
  bottom: "conv1_1"
  top: "conv1_2"
  name: "conv1_2"
  type: CONVOLUTION
  convolution_param {
    num_output: 64
    pad: 1
    kernel_size: 3
    weight_filler {
      type: "gaussian"
      std: 0.01
    }
    bias_filler {
      type: "constant"
      value: 0
    }
  }
}
layers {
  bottom: "conv1_2"
  top: "conv1_2"
  name: "relu1_2"
  type: RELU
}
layers {
  bottom: "conv1_2"
  top: "pool1"
  name: "pool1"
  type: POOLING
  pooling_param {
    pool: MAX
    kernel_size: 2
    stride: 2
  }
}
layers {
  bottom: "pool1"
  top: "conv2_1"
  name: "conv2_1"
  type: CONVOLUTION
  convolution_param {
    num_output: 128
    pad: 1
    kernel_size: 3
    weight_filler {
      type: "gaussian"
      std: 0.01
    }
    bias_filler {
      type: "constant"
      value: 0
    }
  }
}
layers {
  bottom: "conv2_1"
  top: "conv2_1"
  name: "relu2_1"
  type: RELU
}
layers {
  bottom: "conv2_1"
  top: "conv2_2"
  name: "conv2_2"
  type: CONVOLUTION
  convolution_param {
    num_output: 128
    pad: 1
    kernel_size: 3
    weight_filler {
      type: "gaussian"
      std: 0.01
    }
    bias_filler {
      type: "constant"
      value: 0
    }
  }
}
layers {
  bottom: "conv2_2"
  top: "conv2_2"
  name: "relu2_2"
  type: RELU
}
layers {
  bottom: "conv2_2"
  top: "pool2"
  name: "pool2"
  type: POOLING
  pooling_param {
    pool: MAX
    kernel_size: 2
    stride: 2
  }
}
layers {
  bottom: "pool2"
  top: "conv3_1"
  name: "conv3_1"
  type: CONVOLUTION
  convolution_param {
    num_output: 256
    pad: 1
    kernel_size: 3
    weight_filler {
      type: "gaussian"
      std: 0.01
    }
    bias_filler {
      type: "constant"
      value: 0
    }
  }
}
layers {
  bottom: "conv3_1"
  top: "conv3_1"
  name: "relu3_1"
  type: RELU
}
layers {
  bottom: "conv3_1"
  top: "conv3_2"
  name: "conv3_2"
  type: CONVOLUTION
  convolution_param {
    num_output: 256
    pad: 1
    kernel_size: 3
    weight_filler {
      type: "gaussian"
      std: 0.01
    }
    bias_filler {
      type: "constant"
      value: 0
    }
  }
}
layers {
  bottom: "conv3_2"
  top: "conv3_2"
  name: "relu3_2"
  type: RELU
}
layers {
  bottom: "conv3_2"
  top: "conv3_3"
  name: "conv3_3"
  type: CONVOLUTION
  convolution_param {
    num_output: 256
    pad: 1
    kernel_size: 3
    weight_filler {
      type: "gaussian"
      std: 0.01
    }
    bias_filler {
      type: "constant"
      value: 0
    }
  }
}
layers {
  bottom: "conv3_3"
  top: "conv3_3"
  name: "relu3_3"
  type: RELU
}
layers {
  bottom: "conv3_3"
  top: "pool3"
  name: "pool3"
  type: POOLING
  pooling_param {
    pool: MAX
    kernel_size: 2
    stride: 2
  }
}
layers {
  bottom: "pool3"
  top: "conv4_1"
  name: "conv4_1"
  type: CONVOLUTION
  convolution_param {
    num_output: 512
    pad: 1
    kernel_size: 3
    weight_filler {
      type: "gaussian"
      std: 0.01
    }
    bias_filler {
      type: "constant"
      value: 0
    }
  }
}
layers {
  bottom: "conv4_1"
  top: "conv4_1"
  name: "relu4_1"
  type: RELU
}
layers {
  bottom: "conv4_1"
  top: "conv4_2"
  name: "conv4_2"
  type: CONVOLUTION
  convolution_param {
    num_output: 512
    pad: 1
    kernel_size: 3
    weight_filler {
      type: "gaussian"
      std: 0.01
    }
    bias_filler {
      type: "constant"
      value: 0
    }
  }
}
layers {
  bottom: "conv4_2"
  top: "conv4_2"
  name: "relu4_2"
  type: RELU
}
layers {
  bottom: "conv4_2"
  top: "conv4_3"
  name: "conv4_3"
  type: CONVOLUTION
  convolution_param {
    num_output: 512
    pad: 1
    kernel_size: 3
    weight_filler {
      type: "gaussian"
      std: 0.01
    }
    bias_filler {
      type: "constant"
      value: 0
    }
  }
}
layers {
  bottom: "conv4_3"
  top: "conv4_3"
  name: "relu4_3"
  type: RELU
}
layers {
  bottom: "conv4_3"
  top: "pool4"
  name: "pool4"
  type: POOLING
  pooling_param {
    pool: MAX
    kernel_size: 2
    stride: 2
  }
}
layers {
  bottom: "pool4"
  top: "conv5_1"
  name: "conv5_1"
  type: CONVOLUTION
  convolution_param {
    num_output: 512
    pad: 1
    kernel_size: 3
    weight_filler {
      type: "gaussian"
      std: 0.01
    }
    bias_filler {
      type: "constant"
      value: 0
    }
  }
}
layers {
  bottom: "conv5_1"
  top: "conv5_1"
  name: "relu5_1"
  type: RELU
}
layers {
  bottom: "conv5_1"
  top: "conv5_2"
  name: "conv5_2"
  type: CONVOLUTION
  convolution_param {
    num_output: 512
    pad: 1
    kernel_size: 3
    weight_filler {
      type: "gaussian"
      std: 0.01
    }
    bias_filler {
      type: "constant"
      value: 0
    }
  }
}
layers {
  bottom: "conv5_2"
  top: "conv5_2"
  name: "relu5_2"
  type: RELU
}
layers {
  bottom: "conv5_2"
  top: "conv5_3"
  name: "conv5_3"
  type: CONVOLUTION
  convolution_param {
    num_output: 512
    pad: 1
    kernel_size: 3
    weight_filler {
      type: "gaussian"
      std: 0.01
    }
    bias_filler {
      type: "constant"
      value: 0
    }
  }
}
layers {
  bottom: "conv5_3"
  top: "conv5_3"
  name: "relu5_3"
  type: RELU
}
layers {
  bottom: "conv5_3"
  top: "pool5"
  name: "pool5"
  type: POOLING
  pooling_param {
    pool: MAX
    kernel_size: 2
    stride: 2
  }
}
layers {
  bottom: "pool5"
  top: "fc6"
  name: "fc6"
  type: INNER_PRODUCT
  inner_product_param {
    num_output: 4096
    weight_filler {
      type: "gaussian"
      std: 0.01
    }
    bias_filler {
      type: "constant"
      value: 0
    }
  }
}
layers {
  bottom: "fc6"
  top: "fc6"
  name: "relu6"
  type: RELU
}
layers {
  bottom: "fc6"
  top: "fc6"
  name: "drop6"
  type: DROPOUT
  dropout_param {
    dropout_ratio: 0.5
  }
}
layers {
  bottom: "fc6"
  top: "fc7"
  name: "fc7"
  type: INNER_PRODUCT
  inner_product_param {
    num_output: 4096
    weight_filler {
      type: "gaussian"
      std: 0.01
    }
    bias_filler {
      type: "constant"
      value: 0
    }
  }
}
layers {
  bottom: "fc7"
  top: "fc7"
  name: "relu7"
  type: RELU
}
layers {
  bottom: "fc7"
  top: "fc7"
  name: "drop7"
  type: DROPOUT
  dropout_param {
    dropout_ratio: 0.5
  }
}
layers {
  bottom: "fc7"
  top: "fc8_2"
  name: "fc8_2"
  type: INNER_PRODUCT
  inner_product_param {
    num_output: 2
    weight_filler {
      type: "gaussian"
      std: 0.01
    }
    bias_filler {
      type: "constant"
      value: 0
    }
  }
}
layers {
  bottom: "fc8_2"
  bottom: "label"
  name: "loss"
  type: SOFTMAX_LOSS
}
state {
  phase: TRAIN
}
I1104 19:27:53.762545 27175 layer_factory.hpp:78] Creating layer data
I1104 19:27:53.762557 27175 data_transformer.cpp:24] Loading mean file from/data/ad6813/devCaffe/caffe/clampdetMeanVal
I1104 19:27:53.763988 27175 net.cpp:67] Creating Layer data
I1104 19:27:53.763999 27175 net.cpp:356] data -> data
I1104 19:27:53.764014 27175 net.cpp:356] data -> label
I1104 19:27:53.764024 27175 net.cpp:96] Setting up data
I1104 19:27:53.764031 27175 image_data_layer.cpp:34] Opening file /data/ad6813/devCaffe/caffe/task/clamp/clampTrain.txt
I1104 19:27:53.771891 27175 image_data_layer.cpp:49] A total of 23494 images.
I1104 19:27:53.783038 27175 image_data_layer.cpp:78] output data size: 30,3,224,224
I1104 19:27:53.787533 27175 net.cpp:103] Top shape: 30 3 224 224 (4515840)
I1104 19:27:53.787559 27175 net.cpp:103] Top shape: 30 1 1 1 (30)
I1104 19:27:53.787564 27175 layer_factory.hpp:78] Creating layer conv1_1
I1104 19:27:53.787596 27175 net.cpp:67] Creating Layer conv1_1
I1104 19:27:53.787601 27175 net.cpp:394] conv1_1 <- data
I1104 19:27:53.787616 27175 net.cpp:356] conv1_1 -> conv1_1
I1104 19:27:53.787626 27175 net.cpp:96] Setting up conv1_1
I1104 19:27:53.804636 27175 net.cpp:103] Top shape: 30 64 224 224 (96337920)
I1104 19:27:53.804667 27175 layer_factory.hpp:78] Creating layer relu1_1
I1104 19:27:53.804680 27175 net.cpp:67] Creating Layer relu1_1
I1104 19:27:53.804684 27175 net.cpp:394] relu1_1 <- conv1_1
I1104 19:27:53.804692 27175 net.cpp:345] relu1_1 -> conv1_1 (in-place)
I1104 19:27:53.804700 27175 net.cpp:96] Setting up relu1_1
I1104 19:27:53.804708 27175 net.cpp:103] Top shape: 30 64 224 224 (96337920)
I1104 19:27:53.804711 27175 layer_factory.hpp:78] Creating layer conv1_2
I1104 19:27:53.804718 27175 net.cpp:67] Creating Layer conv1_2
I1104 19:27:53.804721 27175 net.cpp:394] conv1_2 <- conv1_1
I1104 19:27:53.804726 27175 net.cpp:356] conv1_2 -> conv1_2
I1104 19:27:53.804733 27175 net.cpp:96] Setting up conv1_2
I1104 19:27:53.805773 27175 net.cpp:103] Top shape: 30 64 224 224 (96337920)
I1104 19:27:53.805785 27175 layer_factory.hpp:78] Creating layer relu1_2
I1104 19:27:53.805791 27175 net.cpp:67] Creating Layer relu1_2
I1104 19:27:53.805794 27175 net.cpp:394] relu1_2 <- conv1_2
I1104 19:27:53.805799 27175 net.cpp:345] relu1_2 -> conv1_2 (in-place)
I1104 19:27:53.805804 27175 net.cpp:96] Setting up relu1_2
I1104 19:27:53.805809 27175 net.cpp:103] Top shape: 30 64 224 224 (96337920)
I1104 19:27:53.805812 27175 layer_factory.hpp:78] Creating layer pool1
I1104 19:27:53.805821 27175 net.cpp:67] Creating Layer pool1
I1104 19:27:53.805824 27175 net.cpp:394] pool1 <- conv1_2
I1104 19:27:53.805830 27175 net.cpp:356] pool1 -> pool1
I1104 19:27:53.805835 27175 net.cpp:96] Setting up pool1
I1104 19:27:53.805850 27175 net.cpp:103] Top shape: 30 64 112 112 (24084480)
I1104 19:27:53.805855 27175 layer_factory.hpp:78] Creating layer conv2_1
I1104 19:27:53.805861 27175 net.cpp:67] Creating Layer conv2_1
I1104 19:27:53.805866 27175 net.cpp:394] conv2_1 <- pool1
I1104 19:27:53.805871 27175 net.cpp:356] conv2_1 -> conv2_1
I1104 19:27:53.805876 27175 net.cpp:96] Setting up conv2_1
I1104 19:27:53.807786 27175 net.cpp:103] Top shape: 30 128 112 112 (48168960)
I1104 19:27:53.807801 27175 layer_factory.hpp:78] Creating layer relu2_1
I1104 19:27:53.807806 27175 net.cpp:67] Creating Layer relu2_1
I1104 19:27:53.807809 27175 net.cpp:394] relu2_1 <- conv2_1
I1104 19:27:53.807813 27175 net.cpp:345] relu2_1 -> conv2_1 (in-place)
I1104 19:27:53.807818 27175 net.cpp:96] Setting up relu2_1
I1104 19:27:53.807823 27175 net.cpp:103] Top shape: 30 128 112 112 (48168960)
I1104 19:27:53.807827 27175 layer_factory.hpp:78] Creating layer conv2_2
I1104 19:27:53.807834 27175 net.cpp:67] Creating Layer conv2_2
I1104 19:27:53.807838 27175 net.cpp:394] conv2_2 <- conv2_1
I1104 19:27:53.807842 27175 net.cpp:356] conv2_2 -> conv2_2
I1104 19:27:53.807848 27175 net.cpp:96] Setting up conv2_2
I1104 19:27:53.811579 27175 net.cpp:103] Top shape: 30 128 112 112 (48168960)
I1104 19:27:53.811590 27175 layer_factory.hpp:78] Creating layer relu2_2
I1104 19:27:53.811595 27175 net.cpp:67] Creating Layer relu2_2
I1104 19:27:53.811599 27175 net.cpp:394] relu2_2 <- conv2_2
I1104 19:27:53.811602 27175 net.cpp:345] relu2_2 -> conv2_2 (in-place)
I1104 19:27:53.811616 27175 net.cpp:96] Setting up relu2_2
I1104 19:27:53.811622 27175 net.cpp:103] Top shape: 30 128 112 112 (48168960)
I1104 19:27:53.811625 27175 layer_factory.hpp:78] Creating layer pool2
I1104 19:27:53.811631 27175 net.cpp:67] Creating Layer pool2
I1104 19:27:53.811635 27175 net.cpp:394] pool2 <- conv2_2
I1104 19:27:53.811640 27175 net.cpp:356] pool2 -> pool2
I1104 19:27:53.811645 27175 net.cpp:96] Setting up pool2
I1104 19:27:53.811650 27175 net.cpp:103] Top shape: 30 128 56 56 (12042240)
I1104 19:27:53.811655 27175 layer_factory.hpp:78] Creating layer conv3_1
I1104 19:27:53.811661 27175 net.cpp:67] Creating Layer conv3_1
I1104 19:27:53.811663 27175 net.cpp:394] conv3_1 <- pool2
I1104 19:27:53.811668 27175 net.cpp:356] conv3_1 -> conv3_1
I1104 19:27:53.811673 27175 net.cpp:96] Setting up conv3_1
I1104 19:27:53.819085 27175 net.cpp:103] Top shape: 30 256 56 56 (24084480)
I1104 19:27:53.819105 27175 layer_factory.hpp:78] Creating layer relu3_1
I1104 19:27:53.819113 27175 net.cpp:67] Creating Layer relu3_1
I1104 19:27:53.819116 27175 net.cpp:394] relu3_1 <- conv3_1
I1104 19:27:53.819121 27175 net.cpp:345] relu3_1 -> conv3_1 (in-place)
I1104 19:27:53.819126 27175 net.cpp:96] Setting up relu3_1
I1104 19:27:53.819133 27175 net.cpp:103] Top shape: 30 256 56 56 (24084480)
I1104 19:27:53.819135 27175 layer_factory.hpp:78] Creating layer conv3_2
I1104 19:27:53.819140 27175 net.cpp:67] Creating Layer conv3_2
I1104 19:27:53.819144 27175 net.cpp:394] conv3_2 <- conv3_1
I1104 19:27:53.819149 27175 net.cpp:356] conv3_2 -> conv3_2
I1104 19:27:53.819154 27175 net.cpp:96] Setting up conv3_2
I1104 19:27:53.834022 27175 net.cpp:103] Top shape: 30 256 56 56 (24084480)
I1104 19:27:53.834044 27175 layer_factory.hpp:78] Creating layer relu3_2
I1104 19:27:53.834053 27175 net.cpp:67] Creating Layer relu3_2
I1104 19:27:53.834058 27175 net.cpp:394] relu3_2 <- conv3_2
I1104 19:27:53.834064 27175 net.cpp:345] relu3_2 -> conv3_2 (in-place)
I1104 19:27:53.834070 27175 net.cpp:96] Setting up relu3_2
I1104 19:27:53.834076 27175 net.cpp:103] Top shape: 30 256 56 56 (24084480)
I1104 19:27:53.834079 27175 layer_factory.hpp:78] Creating layer conv3_3
I1104 19:27:53.834086 27175 net.cpp:67] Creating Layer conv3_3
I1104 19:27:53.834089 27175 net.cpp:394] conv3_3 <- conv3_2
I1104 19:27:53.834095 27175 net.cpp:356] conv3_3 -> conv3_3
I1104 19:27:53.834100 27175 net.cpp:96] Setting up conv3_3
I1104 19:27:53.848853 27175 net.cpp:103] Top shape: 30 256 56 56 (24084480)
I1104 19:27:53.848875 27175 layer_factory.hpp:78] Creating layer relu3_3
I1104 19:27:53.848887 27175 net.cpp:67] Creating Layer relu3_3
I1104 19:27:53.848891 27175 net.cpp:394] relu3_3 <- conv3_3
I1104 19:27:53.848897 27175 net.cpp:345] relu3_3 -> conv3_3 (in-place)
I1104 19:27:53.848903 27175 net.cpp:96] Setting up relu3_3
I1104 19:27:53.848909 27175 net.cpp:103] Top shape: 30 256 56 56 (24084480)
I1104 19:27:53.848912 27175 layer_factory.hpp:78] Creating layer pool3
I1104 19:27:53.848919 27175 net.cpp:67] Creating Layer pool3
I1104 19:27:53.848922 27175 net.cpp:394] pool3 <- conv3_3
I1104 19:27:53.848927 27175 net.cpp:356] pool3 -> pool3
I1104 19:27:53.848933 27175 net.cpp:96] Setting up pool3
I1104 19:27:53.848940 27175 net.cpp:103] Top shape: 30 256 28 28 (6021120)
I1104 19:27:53.848944 27175 layer_factory.hpp:78] Creating layer conv4_1
I1104 19:27:53.848952 27175 net.cpp:67] Creating Layer conv4_1
I1104 19:27:53.848954 27175 net.cpp:394] conv4_1 <- pool3
I1104 19:27:53.848959 27175 net.cpp:356] conv4_1 -> conv4_1
I1104 19:27:53.848964 27175 net.cpp:96] Setting up conv4_1
I1104 19:27:53.878341 27175 net.cpp:103] Top shape: 30 512 28 28 (12042240)
I1104 19:27:53.878363 27175 layer_factory.hpp:78] Creating layer relu4_1
I1104 19:27:53.878371 27175 net.cpp:67] Creating Layer relu4_1
I1104 19:27:53.878376 27175 net.cpp:394] relu4_1 <- conv4_1
I1104 19:27:53.878384 27175 net.cpp:345] relu4_1 -> conv4_1 (in-place)
I1104 19:27:53.878391 27175 net.cpp:96] Setting up relu4_1
I1104 19:27:53.878397 27175 net.cpp:103] Top shape: 30 512 28 28 (12042240)
I1104 19:27:53.878409 27175 layer_factory.hpp:78] Creating layer conv4_2
I1104 19:27:53.878415 27175 net.cpp:67] Creating Layer conv4_2
I1104 19:27:53.878418 27175 net.cpp:394] conv4_2 <- conv4_1
I1104 19:27:53.878424 27175 net.cpp:356] conv4_2 -> conv4_2
I1104 19:27:53.878430 27175 net.cpp:96] Setting up conv4_2
I1104 19:27:53.937079 27175 net.cpp:103] Top shape: 30 512 28 28 (12042240)
I1104 19:27:53.937108 27175 layer_factory.hpp:78] Creating layer relu4_2
I1104 19:27:53.937116 27175 net.cpp:67] Creating Layer relu4_2
I1104 19:27:53.937121 27175 net.cpp:394] relu4_2 <- conv4_2
I1104 19:27:53.937127 27175 net.cpp:345] relu4_2 -> conv4_2 (in-place)
I1104 19:27:53.937134 27175 net.cpp:96] Setting up relu4_2
I1104 19:27:53.937139 27175 net.cpp:103] Top shape: 30 512 28 28 (12042240)
I1104 19:27:53.937144 27175 layer_factory.hpp:78] Creating layer conv4_3
I1104 19:27:53.937150 27175 net.cpp:67] Creating Layer conv4_3
I1104 19:27:53.937154 27175 net.cpp:394] conv4_3 <- conv4_2
I1104 19:27:53.937157 27175 net.cpp:356] conv4_3 -> conv4_3
I1104 19:27:53.937163 27175 net.cpp:96] Setting up conv4_3
I1104 19:27:53.995853 27175 net.cpp:103] Top shape: 30 512 28 28 (12042240)
I1104 19:27:53.995877 27175 layer_factory.hpp:78] Creating layer relu4_3
I1104 19:27:53.995884 27175 net.cpp:67] Creating Layer relu4_3
I1104 19:27:53.995889 27175 net.cpp:394] relu4_3 <- conv4_3
I1104 19:27:53.995897 27175 net.cpp:345] relu4_3 -> conv4_3 (in-place)
I1104 19:27:53.995903 27175 net.cpp:96] Setting up relu4_3
I1104 19:27:53.995909 27175 net.cpp:103] Top shape: 30 512 28 28 (12042240)
I1104 19:27:53.995913 27175 layer_factory.hpp:78] Creating layer pool4
I1104 19:27:53.995918 27175 net.cpp:67] Creating Layer pool4
I1104 19:27:53.995920 27175 net.cpp:394] pool4 <- conv4_3
I1104 19:27:53.995925 27175 net.cpp:356] pool4 -> pool4
I1104 19:27:53.995930 27175 net.cpp:96] Setting up pool4
I1104 19:27:53.995939 27175 net.cpp:103] Top shape: 30 512 14 14 (3010560)
I1104 19:27:53.995941 27175 layer_factory.hpp:78] Creating layer conv5_1
I1104 19:27:53.995949 27175 net.cpp:67] Creating Layer conv5_1
I1104 19:27:53.995951 27175 net.cpp:394] conv5_1 <- pool4
I1104 19:27:53.995957 27175 net.cpp:356] conv5_1 -> conv5_1
I1104 19:27:53.995965 27175 net.cpp:96] Setting up conv5_1
I1104 19:27:54.054714 27175 net.cpp:103] Top shape: 30 512 14 14 (3010560)
I1104 19:27:54.054740 27175 layer_factory.hpp:78] Creating layer relu5_1
I1104 19:27:54.054749 27175 net.cpp:67] Creating Layer relu5_1
I1104 19:27:54.054754 27175 net.cpp:394] relu5_1 <- conv5_1
I1104 19:27:54.054767 27175 net.cpp:345] relu5_1 -> conv5_1 (in-place)
I1104 19:27:54.054774 27175 net.cpp:96] Setting up relu5_1
I1104 19:27:54.054780 27175 net.cpp:103] Top shape: 30 512 14 14 (3010560)
I1104 19:27:54.054783 27175 layer_factory.hpp:78] Creating layer conv5_2
I1104 19:27:54.054790 27175 net.cpp:67] Creating Layer conv5_2
I1104 19:27:54.054792 27175 net.cpp:394] conv5_2 <- conv5_1
I1104 19:27:54.054798 27175 net.cpp:356] conv5_2 -> conv5_2
I1104 19:27:54.054805 27175 net.cpp:96] Setting up conv5_2
I1104 19:27:54.113431 27175 net.cpp:103] Top shape: 30 512 14 14 (3010560)
I1104 19:27:54.113456 27175 layer_factory.hpp:78] Creating layer relu5_2
I1104 19:27:54.113463 27175 net.cpp:67] Creating Layer relu5_2
I1104 19:27:54.113468 27175 net.cpp:394] relu5_2 <- conv5_2
I1104 19:27:54.113476 27175 net.cpp:345] relu5_2 -> conv5_2 (in-place)
I1104 19:27:54.113482 27175 net.cpp:96] Setting up relu5_2
I1104 19:27:54.113488 27175 net.cpp:103] Top shape: 30 512 14 14 (3010560)
I1104 19:27:54.113492 27175 layer_factory.hpp:78] Creating layer conv5_3
I1104 19:27:54.113497 27175 net.cpp:67] Creating Layer conv5_3
I1104 19:27:54.113499 27175 net.cpp:394] conv5_3 <- conv5_2
I1104 19:27:54.113504 27175 net.cpp:356] conv5_3 -> conv5_3
I1104 19:27:54.113510 27175 net.cpp:96] Setting up conv5_3
I1104 19:27:54.172078 27175 net.cpp:103] Top shape: 30 512 14 14 (3010560)
I1104 19:27:54.172104 27175 layer_factory.hpp:78] Creating layer relu5_3
I1104 19:27:54.172112 27175 net.cpp:67] Creating Layer relu5_3
I1104 19:27:54.172117 27175 net.cpp:394] relu5_3 <- conv5_3
I1104 19:27:54.172135 27175 net.cpp:345] relu5_3 -> conv5_3 (in-place)
I1104 19:27:54.172142 27175 net.cpp:96] Setting up relu5_3
I1104 19:27:54.172147 27175 net.cpp:103] Top shape: 30 512 14 14 (3010560)
I1104 19:27:54.172152 27175 layer_factory.hpp:78] Creating layer pool5
I1104 19:27:54.172157 27175 net.cpp:67] Creating Layer pool5
I1104 19:27:54.172159 27175 net.cpp:394] pool5 <- conv5_3
I1104 19:27:54.172165 27175 net.cpp:356] pool5 -> pool5
I1104 19:27:54.172171 27175 net.cpp:96] Setting up pool5
I1104 19:27:54.172178 27175 net.cpp:103] Top shape: 30 512 7 7 (752640)
I1104 19:27:54.172183 27175 layer_factory.hpp:78] Creating layer fc6
I1104 19:27:54.172194 27175 net.cpp:67] Creating Layer fc6
I1104 19:27:54.172197 27175 net.cpp:394] fc6 <- pool5
I1104 19:27:54.172204 27175 net.cpp:356] fc6 -> fc6
I1104 19:27:54.172209 27175 net.cpp:96] Setting up fc6
I1104 19:27:56.794680 27175 net.cpp:103] Top shape: 30 4096 1 1 (122880)
I1104 19:27:56.794710 27175 layer_factory.hpp:78] Creating layer relu6
I1104 19:27:56.794720 27175 net.cpp:67] Creating Layer relu6
I1104 19:27:56.794725 27175 net.cpp:394] relu6 <- fc6
I1104 19:27:56.794734 27175 net.cpp:345] relu6 -> fc6 (in-place)
I1104 19:27:56.794741 27175 net.cpp:96] Setting up relu6
I1104 19:27:56.794755 27175 net.cpp:103] Top shape: 30 4096 1 1 (122880)
I1104 19:27:56.794759 27175 layer_factory.hpp:78] Creating layer drop6
I1104 19:27:56.794769 27175 net.cpp:67] Creating Layer drop6
I1104 19:27:56.794771 27175 net.cpp:394] drop6 <- fc6
I1104 19:27:56.794775 27175 net.cpp:345] drop6 -> fc6 (in-place)
I1104 19:27:56.794780 27175 net.cpp:96] Setting up drop6
I1104 19:27:56.794785 27175 net.cpp:103] Top shape: 30 4096 1 1 (122880)
I1104 19:27:56.794788 27175 layer_factory.hpp:78] Creating layer fc7
I1104 19:27:56.794795 27175 net.cpp:67] Creating Layer fc7
I1104 19:27:56.794798 27175 net.cpp:394] fc7 <- fc6
I1104 19:27:56.794803 27175 net.cpp:356] fc7 -> fc7
I1104 19:27:56.794808 27175 net.cpp:96] Setting up fc7
I1104 19:27:57.212796 27175 net.cpp:103] Top shape: 30 4096 1 1 (122880)
I1104 19:27:57.212826 27175 layer_factory.hpp:78] Creating layer relu7
I1104 19:27:57.212836 27175 net.cpp:67] Creating Layer relu7
I1104 19:27:57.212841 27175 net.cpp:394] relu7 <- fc7
I1104 19:27:57.212846 27175 net.cpp:345] relu7 -> fc7 (in-place)
I1104 19:27:57.212853 27175 net.cpp:96] Setting up relu7
I1104 19:27:57.212867 27175 net.cpp:103] Top shape: 30 4096 1 1 (122880)
I1104 19:27:57.212872 27175 layer_factory.hpp:78] Creating layer drop7
I1104 19:27:57.212877 27175 net.cpp:67] Creating Layer drop7
I1104 19:27:57.212880 27175 net.cpp:394] drop7 <- fc7
I1104 19:27:57.212885 27175 net.cpp:345] drop7 -> fc7 (in-place)
I1104 19:27:57.212890 27175 net.cpp:96] Setting up drop7
I1104 19:27:57.212893 27175 net.cpp:103] Top shape: 30 4096 1 1 (122880)
I1104 19:27:57.212896 27175 layer_factory.hpp:78] Creating layer fc8_2
I1104 19:27:57.212901 27175 net.cpp:67] Creating Layer fc8_2
I1104 19:27:57.212904 27175 net.cpp:394] fc8_2 <- fc7
I1104 19:27:57.212910 27175 net.cpp:356] fc8_2 -> fc8_2
I1104 19:27:57.212916 27175 net.cpp:96] Setting up fc8_2
I1104 19:27:57.213129 27175 net.cpp:103] Top shape: 30 2 1 1 (60)
I1104 19:27:57.213136 27175 layer_factory.hpp:78] Creating layer loss
I1104 19:27:57.213148 27175 net.cpp:67] Creating Layer loss
I1104 19:27:57.213155 27175 net.cpp:394] loss <- fc8_2
I1104 19:27:57.213157 27175 net.cpp:394] loss <- label
I1104 19:27:57.213165 27175 net.cpp:356] loss -> (automatic)
I1104 19:27:57.213172 27175 net.cpp:96] Setting up loss
I1104 19:27:57.213181 27175 net.cpp:103] Top shape: 1 1 1 1 (1)
I1104 19:27:57.213186 27175 net.cpp:109]     with loss weight 1
I1104 19:27:57.213222 27175 net.cpp:170] loss needs backward computation.
I1104 19:27:57.213225 27175 net.cpp:170] fc8_2 needs backward computation.
I1104 19:27:57.213229 27175 net.cpp:170] drop7 needs backward computation.
I1104 19:27:57.213232 27175 net.cpp:170] relu7 needs backward computation.
I1104 19:27:57.213234 27175 net.cpp:170] fc7 needs backward computation.
…
I1104 19:27:57.214176 27175 solver.cpp:151] Creating test net (#0) specified by net file: /data/ad6813/devCaffe/caffe/oxford/small.train
I1104 19:27:57.214221 27175 net.cpp:275] The NetState phase (1) differed from the phase (0) specified by a rule in layer data
I1104 19:27:57.214417 27175 net.cpp:39] Initializing net from parameters: 
name: "small"
layers {
  top: "data"
  top: "label"
  name: "data"
  type: IMAGE_DATA
  image_data_param {
    source: "/data/ad6813/devCaffe/caffe/task/clamp/clampVal.txt"
    batch_size: 8
    new_height: 256
    new_width: 256
  }
  include {
    phase: TEST
  }
  transform_param {
    mirror: true
    crop_size: 224
    mean_file: "/data/ad6813/devCaffe/caffe/clampdetMeanVal"
  }
}
layers {
  bottom: "data"
  top: "conv1_1"
  name: "conv1_1"
  type: CONVOLUTION
  convolution_param {
    num_output: 64
    pad: 1
    kernel_size: 3
    weight_filler {
      type: "gaussian"
      std: 0.01
    }
    bias_filler {
      type: "constant"
      value: 0
    }
  }
}
layers {
  bottom: "conv1_1"
  top: "conv1_1"
  name: "relu1_1"
  type: RELU
}
layers {
  bottom: "conv1_1"
  top: "conv1_2"
  name: "conv1_2"
  type: CONVOLUTION
  convolution_param {
    num_output: 64
    pad: 1
    kernel_size: 3
    weight_filler {
      type: "gaussian"
      std: 0.01
    }
    bias_filler {
      type: "constant"
      value: 0
    }
  }
}
layers {
  bottom: "conv1_2"
  top: "conv1_2"
  name: "relu1_2"
  type: RELU
}
layers {
  bottom: "conv1_2"
  top: "pool1"
  name: "pool1"
  type: POOLING
  pooling_param {
    pool: MAX
    kernel_size: 2
    stride: 2
  }
}
layers {
  bottom: "pool1"
  top: "conv2_1"
  name: "conv2_1"
  type: CONVOLUTION
  convolution_param {
    num_output: 128
    pad: 1
    kernel_size: 3
    weight_filler {
      type: "gaussian"
      std: 0.01
    }
    bias_filler {
      type: "constant"
      value: 0
    }
  }
}
layers {
  bottom: "conv2_1"
  top: "conv2_1"
  name: "relu2_1"
  type: RELU
}
layers {
  bottom: "conv2_1"
  top: "conv2_2"
  name: "conv2_2"
  type: CONVOLUTION
  convolution_param {
    num_output: 128
    pad: 1
    kernel_size: 3
    weight_filler {
      type: "gaussian"
      std: 0.01
    }
    bias_filler {
      type: "constant"
      value: 0
    }
  }
}
layers {
  bottom: "conv2_2"
  top: "conv2_2"
  name: "relu2_2"
  type: RELU
}
layers {
  bottom: "conv2_2"
  top: "pool2"
  name: "pool2"
  type: POOLING
  pooling_param {
    pool: MAX
    kernel_size: 2
    stride: 2
  }
}
layers {
  bottom: "pool2"
  top: "conv3_1"
  name: "conv3_1"
  type: CONVOLUTION
  convolution_param {
    num_output: 256
    pad: 1
    kernel_size: 3
    weight_filler {
      type: "gaussian"
      std: 0.01
    }
    bias_filler {
      type: "constant"
      value: 0
    }
  }
}
layers {
  bottom: "conv3_1"
  top: "conv3_1"
  name: "relu3_1"
  type: RELU
}
layers {
  bottom: "conv3_1"
  top: "conv3_2"
  name: "conv3_2"
  type: CONVOLUTION
  convolution_param {
    num_output: 256
    pad: 1
    kernel_size: 3
    weight_filler {
      type: "gaussian"
      std: 0.01
    }
    bias_filler {
      type: "constant"
      value: 0
    }
  }
}
layers {
  bottom: "conv3_2"
  top: "conv3_2"
  name: "relu3_2"
  type: RELU
}
layers {
  bottom: "conv3_2"
  top: "conv3_3"
  name: "conv3_3"
  type: CONVOLUTION
  convolution_param {
    num_output: 256
    pad: 1
    kernel_size: 3
    weight_filler {
      type: "gaussian"
      std: 0.01
    }
    bias_filler {
      type: "constant"
      value: 0
    }
  }
}
layers {
  bottom: "conv3_3"
  top: "conv3_3"
  name: "relu3_3"
  type: RELU
}
layers {
  bottom: "conv3_3"
  top: "pool3"
  name: "pool3"
  type: POOLING
  pooling_param {
    pool: MAX
    kernel_size: 2
    stride: 2
  }
}
layers {
  bottom: "pool3"
  top: "conv4_1"
  name: "conv4_1"
  type: CONVOLUTION
  convolution_param {
    num_output: 512
    pad: 1
    kernel_size: 3
    weight_filler {
      type: "gaussian"
      std: 0.01
    }
    bias_filler {
      type: "constant"
      value: 0
    }
  }
}
layers {
  bottom: "conv4_1"
  top: "conv4_1"
  name: "relu4_1"
  type: RELU
}
layers {
  bottom: "conv4_1"
  top: "conv4_2"
  name: "conv4_2"
  type: CONVOLUTION
  convolution_param {
    num_output: 512
    pad: 1
    kernel_size: 3
    weight_filler {
      type: "gaussian"
      std: 0.01
    }
    bias_filler {
      type: "constant"
      value: 0
    }
  }
}
layers {
  bottom: "conv4_2"
  top: "conv4_2"
  name: "relu4_2"
  type: RELU
}
layers {
  bottom: "conv4_2"
  top: "conv4_3"
  name: "conv4_3"
  type: CONVOLUTION
  convolution_param {
    num_output: 512
    pad: 1
    kernel_size: 3
    weight_filler {
      type: "gaussian"
      std: 0.01
    }
    bias_filler {
      type: "constant"
      value: 0
    }
  }
}
layers {
  bottom: "conv4_3"
  top: "conv4_3"
  name: "relu4_3"
  type: RELU
}
layers {
  bottom: "conv4_3"
  top: "pool4"
  name: "pool4"
  type: POOLING
  pooling_param {
    pool: MAX
    kernel_size: 2
    stride: 2
  }
}
layers {
  bottom: "pool4"
  top: "conv5_1"
  name: "conv5_1"
  type: CONVOLUTION
  convolution_param {
    num_output: 512
    pad: 1
    kernel_size: 3
    weight_filler {
      type: "gaussian"
      std: 0.01
    }
    bias_filler {
      type: "constant"
      value: 0
    }
  }
}
layers {
  bottom: "conv5_1"
  top: "conv5_1"
  name: "relu5_1"
  type: RELU
}
layers {
  bottom: "conv5_1"
  top: "conv5_2"
  name: "conv5_2"
  type: CONVOLUTION
  convolution_param {
    num_output: 512
    pad: 1
    kernel_size: 3
    weight_filler {
      type: "gaussian"
      std: 0.01
    }
    bias_filler {
      type: "constant"
      value: 0
    }
  }
}
layers {
  bottom: "conv5_2"
  top: "conv5_2"
  name: "relu5_2"
  type: RELU
}
layers {
  bottom: "conv5_2"
  top: "conv5_3"
  name: "conv5_3"
  type: CONVOLUTION
  convolution_param {
    num_output: 512
    pad: 1
    kernel_size: 3
    weight_filler {
      type: "gaussian"
      std: 0.01
    }
    bias_filler {
      type: "constant"
      value: 0
    }
  }
}
layers {
  bottom: "conv5_3"
  top: "conv5_3"
  name: "relu5_3"
  type: RELU
}
layers {
  bottom: "conv5_3"
  top: "pool5"
  name: "pool5"
  type: POOLING
  pooling_param {
    pool: MAX
    kernel_size: 2
    stride: 2
  }
}
layers {
  bottom: "pool5"
  top: "fc6"
  name: "fc6"
  type: INNER_PRODUCT
  inner_product_param {
    num_output: 4096
    weight_filler {
      type: "gaussian"
      std: 0.01
    }
    bias_filler {
      type: "constant"
      value: 0
    }
  }
}
layers {
  bottom: "fc6"
  top: "fc6"
  name: "relu6"
  type: RELU
}
layers {
  bottom: "fc6"
  top: "fc6"
  name: "drop6"
  type: DROPOUT
  dropout_param {
    dropout_ratio: 0.5
  }
}
layers {
  bottom: "fc6"
  top: "fc7"
  name: "fc7"
  type: INNER_PRODUCT
  inner_product_param {
    num_output: 4096
    weight_filler {
      type: "gaussian"
      std: 0.01
    }
    bias_filler {
      type: "constant"
      value: 0
    }
  }
}
layers {
  bottom: "fc7"
  top: "fc7"
  name: "relu7"
  type: RELU
}
layers {
  bottom: "fc7"
  top: "fc7"
  name: "drop7"
  type: DROPOUT
  dropout_param {
    dropout_ratio: 0.5
  }
}
layers {
  bottom: "fc7"
  top: "fc8_2"
  name: "fc8_2"
  type: INNER_PRODUCT
  inner_product_param {
    num_output: 2
    weight_filler {
      type: "gaussian"
      std: 0.01
    }
    bias_filler {
      type: "constant"
      value: 0
    }
  }
}
layers {
  bottom: "fc8_2"
  bottom: "label"
  name: "loss"
  type: SOFTMAX_LOSS
}
layers {
  bottom: "fc8_2"
  bottom: "label"
  top: "accuracy"
  name: "accuracy"
  type: PER_CLASS_ACCURACY
  include {
    phase: TEST
  }
}
state {
  phase: TEST
}
I1104 19:27:57.214552 27175 layer_factory.hpp:78] Creating layer data
I1104 19:27:57.214560 27175 data_transformer.cpp:24] Loading mean file from/data/ad6813/devCaffe/caffe/clampdetMeanVal
I1104 19:27:57.215956 27175 net.cpp:67] Creating Layer data
I1104 19:27:57.215967 27175 net.cpp:356] data -> data
I1104 19:27:57.215975 27175 net.cpp:356] data -> label
I1104 19:27:57.215982 27175 net.cpp:96] Setting up data
I1104 19:27:57.215988 27175 image_data_layer.cpp:34] Opening file /data/ad6813/devCaffe/caffe/task/clamp/clampVal.txt
I1104 19:27:57.216653 27175 image_data_layer.cpp:49] A total of 2005 images.
I1104 19:27:57.222648 27175 image_data_layer.cpp:78] output data size: 8,3,224,224
I1104 19:27:57.223775 27175 net.cpp:103] Top shape: 8 3 224 224 (1204224)
I1104 19:27:57.223786 27175 net.cpp:103] Top shape: 8 1 1 1 (8)
I1104 19:27:57.223793 27175 layer_factory.hpp:78] Creating layer label_data_1_split
I1104 19:27:57.223804 27175 net.cpp:67] Creating Layer label_data_1_split
I1104 19:27:57.223809 27175 net.cpp:394] label_data_1_split <- label
I1104 19:27:57.223814 27175 net.cpp:356] label_data_1_split -> label_data_1_split_0
I1104 19:27:57.223824 27175 net.cpp:356] label_data_1_split -> label_data_1_split_1
I1104 19:27:57.223829 27175 net.cpp:96] Setting up label_data_1_split
I1104 19:27:57.223834 27175 net.cpp:103] Top shape: 8 1 1 1 (8)
I1104 19:27:57.223839 27175 net.cpp:103] Top shape: 8 1 1 1 (8)
I1104 19:27:57.223841 27175 layer_factory.hpp:78] Creating layer conv1_1
I1104 19:27:57.223847 27175 net.cpp:67] Creating Layer conv1_1
I1104 19:27:57.223850 27175 net.cpp:394] conv1_1 <- data
I1104 19:27:57.223855 27175 net.cpp:356] conv1_1 -> conv1_1
I1104 19:27:57.223861 27175 net.cpp:96] Setting up conv1_1
I1104 19:27:57.224022 27175 net.cpp:103] Top shape: 8 64 224 224 (25690112)
I1104 19:27:57.224045 27175 layer_factory.hpp:78] Creating layer relu1_1
I1104 19:27:57.224050 27175 net.cpp:67] Creating Layer relu1_1
I1104 19:27:57.224056 27175 net.cpp:394] relu1_1 <- conv1_1
I1104 19:27:57.224061 27175 net.cpp:345] relu1_1 -> conv1_1 (in-place)
I1104 19:27:57.224066 27175 net.cpp:96] Setting up relu1_1
I1104 19:27:57.224072 27175 net.cpp:103] Top shape: 8 64 224 224 (25690112)
I1104 19:27:57.224076 27175 layer_factory.hpp:78] Creating layer conv1_2
I1104 19:27:57.224081 27175 net.cpp:67] Creating Layer conv1_2
I1104 19:27:57.224084 27175 net.cpp:394] conv1_2 <- conv1_1
I1104 19:27:57.224088 27175 net.cpp:356] conv1_2 -> conv1_2
I1104 19:27:57.224093 27175 net.cpp:96] Setting up conv1_2
I1104 19:27:57.225054 27175 net.cpp:103] Top shape: 8 64 224 224 (25690112)
I1104 19:27:57.225065 27175 layer_factory.hpp:78] Creating layer relu1_2
I1104 19:27:57.225069 27175 net.cpp:67] Creating Layer relu1_2
I1104 19:27:57.225074 27175 net.cpp:394] relu1_2 <- conv1_2
I1104 19:27:57.225077 27175 net.cpp:345] relu1_2 -> conv1_2 (in-place)
I1104 19:27:57.225082 27175 net.cpp:96] Setting up relu1_2
I1104 19:27:57.225087 27175 net.cpp:103] Top shape: 8 64 224 224 (25690112)
I1104 19:27:57.225090 27175 layer_factory.hpp:78] Creating layer pool1
I1104 19:27:57.225095 27175 net.cpp:67] Creating Layer pool1
I1104 19:27:57.225098 27175 net.cpp:394] pool1 <- conv1_2
I1104 19:27:57.225102 27175 net.cpp:356] pool1 -> pool1
I1104 19:27:57.225107 27175 net.cpp:96] Setting up pool1
I1104 19:27:57.225113 27175 net.cpp:103] Top shape: 8 64 112 112 (6422528)
I1104 19:27:57.225117 27175 layer_factory.hpp:78] Creating layer conv2_1
I1104 19:27:57.225121 27175 net.cpp:67] Creating Layer conv2_1
I1104 19:27:57.225124 27175 net.cpp:394] conv2_1 <- pool1
I1104 19:27:57.225129 27175 net.cpp:356] conv2_1 -> conv2_1
I1104 19:27:57.225133 27175 net.cpp:96] Setting up conv2_1
I1104 19:27:57.227116 27175 net.cpp:103] Top shape: 8 128 112 112 (12845056)
I1104 19:27:57.227129 27175 layer_factory.hpp:78] Creating layer relu2_1
I1104 19:27:57.227135 27175 net.cpp:67] Creating Layer relu2_1
I1104 19:27:57.227139 27175 net.cpp:394] relu2_1 <- conv2_1
I1104 19:27:57.227144 27175 net.cpp:345] relu2_1 -> conv2_1 (in-place)
I1104 19:27:57.227149 27175 net.cpp:96] Setting up relu2_1
I1104 19:27:57.227154 27175 net.cpp:103] Top shape: 8 128 112 112 (12845056)
I1104 19:27:57.227156 27175 layer_factory.hpp:78] Creating layer conv2_2
I1104 19:27:57.227161 27175 net.cpp:67] Creating Layer conv2_2
I1104 19:27:57.227164 27175 net.cpp:394] conv2_2 <- conv2_1
I1104 19:27:57.227169 27175 net.cpp:356] conv2_2 -> conv2_2
I1104 19:27:57.227175 27175 net.cpp:96] Setting up conv2_2
I1104 19:27:57.230821 27175 net.cpp:103] Top shape: 8 128 112 112 (12845056)
I1104 19:27:57.230834 27175 layer_factory.hpp:78] Creating layer relu2_2
I1104 19:27:57.230839 27175 net.cpp:67] Creating Layer relu2_2
I1104 19:27:57.230842 27175 net.cpp:394] relu2_2 <- conv2_2
I1104 19:27:57.230846 27175 net.cpp:345] relu2_2 -> conv2_2 (in-place)
I1104 19:27:57.230851 27175 net.cpp:96] Setting up relu2_2
I1104 19:27:57.230856 27175 net.cpp:103] Top shape: 8 128 112 112 (12845056)
I1104 19:27:57.230859 27175 layer_factory.hpp:78] Creating layer pool2
I1104 19:27:57.230864 27175 net.cpp:67] Creating Layer pool2
I1104 19:27:57.230866 27175 net.cpp:394] pool2 <- conv2_2
I1104 19:27:57.230871 27175 net.cpp:356] pool2 -> pool2
I1104 19:27:57.230875 27175 net.cpp:96] Setting up pool2
I1104 19:27:57.230881 27175 net.cpp:103] Top shape: 8 128 56 56 (3211264)
I1104 19:27:57.230885 27175 layer_factory.hpp:78] Creating layer conv3_1
I1104 19:27:57.230890 27175 net.cpp:67] Creating Layer conv3_1
I1104 19:27:57.230892 27175 net.cpp:394] conv3_1 <- pool2
I1104 19:27:57.230897 27175 net.cpp:356] conv3_1 -> conv3_1
I1104 19:27:57.230902 27175 net.cpp:96] Setting up conv3_1
I1104 19:27:57.238111 27175 net.cpp:103] Top shape: 8 256 56 56 (6422528)
I1104 19:27:57.238124 27175 layer_factory.hpp:78] Creating layer relu3_1
I1104 19:27:57.238129 27175 net.cpp:67] Creating Layer relu3_1
I1104 19:27:57.238139 27175 net.cpp:394] relu3_1 <- conv3_1
I1104 19:27:57.238144 27175 net.cpp:345] relu3_1 -> conv3_1 (in-place)
I1104 19:27:57.238149 27175 net.cpp:96] Setting up relu3_1
I1104 19:27:57.238154 27175 net.cpp:103] Top shape: 8 256 56 56 (6422528)
I1104 19:27:57.238157 27175 layer_factory.hpp:78] Creating layer conv3_2
I1104 19:27:57.238162 27175 net.cpp:67] Creating Layer conv3_2
I1104 19:27:57.238165 27175 net.cpp:394] conv3_2 <- conv3_1
I1104 19:27:57.238170 27175 net.cpp:356] conv3_2 -> conv3_2
I1104 19:27:57.238175 27175 net.cpp:96] Setting up conv3_2
I1104 19:27:57.252888 27175 net.cpp:103] Top shape: 8 256 56 56 (6422528)
I1104 19:27:57.252907 27175 layer_factory.hpp:78] Creating layer relu3_2
I1104 19:27:57.252914 27175 net.cpp:67] Creating Layer relu3_2
I1104 19:27:57.252918 27175 net.cpp:394] relu3_2 <- conv3_2
I1104 19:27:57.252926 27175 net.cpp:345] relu3_2 -> conv3_2 (in-place)
I1104 19:27:57.252933 27175 net.cpp:96] Setting up relu3_2
I1104 19:27:57.252938 27175 net.cpp:103] Top shape: 8 256 56 56 (6422528)
I1104 19:27:57.252941 27175 layer_factory.hpp:78] Creating layer conv3_3
I1104 19:27:57.252949 27175 net.cpp:67] Creating Layer conv3_3
I1104 19:27:57.252953 27175 net.cpp:394] conv3_3 <- conv3_2
I1104 19:27:57.252959 27175 net.cpp:356] conv3_3 -> conv3_3
I1104 19:27:57.252964 27175 net.cpp:96] Setting up conv3_3
I1104 19:27:57.267709 27175 net.cpp:103] Top shape: 8 256 56 56 (6422528)
I1104 19:27:57.267727 27175 layer_factory.hpp:78] Creating layer relu3_3
I1104 19:27:57.267735 27175 net.cpp:67] Creating Layer relu3_3
I1104 19:27:57.267738 27175 net.cpp:394] relu3_3 <- conv3_3
I1104 19:27:57.267745 27175 net.cpp:345] relu3_3 -> conv3_3 (in-place)
I1104 19:27:57.267758 27175 net.cpp:96] Setting up relu3_3
I1104 19:27:57.267765 27175 net.cpp:103] Top shape: 8 256 56 56 (6422528)
I1104 19:27:57.267768 27175 layer_factory.hpp:78] Creating layer pool3
I1104 19:27:57.267774 27175 net.cpp:67] Creating Layer pool3
I1104 19:27:57.267777 27175 net.cpp:394] pool3 <- conv3_3
I1104 19:27:57.267783 27175 net.cpp:356] pool3 -> pool3
I1104 19:27:57.267789 27175 net.cpp:96] Setting up pool3
I1104 19:27:57.267796 27175 net.cpp:103] Top shape: 8 256 28 28 (1605632)
I1104 19:27:57.267799 27175 layer_factory.hpp:78] Creating layer conv4_1
I1104 19:27:57.267806 27175 net.cpp:67] Creating Layer conv4_1
I1104 19:27:57.267808 27175 net.cpp:394] conv4_1 <- pool3
I1104 19:27:57.267813 27175 net.cpp:356] conv4_1 -> conv4_1
I1104 19:27:57.267819 27175 net.cpp:96] Setting up conv4_1
I1104 19:27:57.297359 27175 net.cpp:103] Top shape: 8 512 28 28 (3211264)
I1104 19:27:57.297384 27175 layer_factory.hpp:78] Creating layer relu4_1
I1104 19:27:57.297391 27175 net.cpp:67] Creating Layer relu4_1
I1104 19:27:57.297395 27175 net.cpp:394] relu4_1 <- conv4_1
I1104 19:27:57.297404 27175 net.cpp:345] relu4_1 -> conv4_1 (in-place)
I1104 19:27:57.297410 27175 net.cpp:96] Setting up relu4_1
I1104 19:27:57.297416 27175 net.cpp:103] Top shape: 8 512 28 28 (3211264)
I1104 19:27:57.297420 27175 layer_factory.hpp:78] Creating layer conv4_2
I1104 19:27:57.297425 27175 net.cpp:67] Creating Layer conv4_2
I1104 19:27:57.297428 27175 net.cpp:394] conv4_2 <- conv4_1
I1104 19:27:57.297435 27175 net.cpp:356] conv4_2 -> conv4_2
I1104 19:27:57.297441 27175 net.cpp:96] Setting up conv4_2
I1104 19:27:57.356078 27175 net.cpp:103] Top shape: 8 512 28 28 (3211264)
I1104 19:27:57.356109 27175 layer_factory.hpp:78] Creating layer relu4_2
I1104 19:27:57.356118 27175 net.cpp:67] Creating Layer relu4_2
I1104 19:27:57.356122 27175 net.cpp:394] relu4_2 <- conv4_2
I1104 19:27:57.356129 27175 net.cpp:345] relu4_2 -> conv4_2 (in-place)
I1104 19:27:57.356137 27175 net.cpp:96] Setting up relu4_2
I1104 19:27:57.356142 27175 net.cpp:103] Top shape: 8 512 28 28 (3211264)
I1104 19:27:57.356145 27175 layer_factory.hpp:78] Creating layer conv4_3
I1104 19:27:57.356151 27175 net.cpp:67] Creating Layer conv4_3
I1104 19:27:57.356154 27175 net.cpp:394] conv4_3 <- conv4_2
I1104 19:27:57.356159 27175 net.cpp:356] conv4_3 -> conv4_3
I1104 19:27:57.356166 27175 net.cpp:96] Setting up conv4_3
I1104 19:27:57.414772 27175 net.cpp:103] Top shape: 8 512 28 28 (3211264)
I1104 19:27:57.414798 27175 layer_factory.hpp:78] Creating layer relu4_3
I1104 19:27:57.414805 27175 net.cpp:67] Creating Layer relu4_3
I1104 19:27:57.414810 27175 net.cpp:394] relu4_3 <- conv4_3
I1104 19:27:57.414818 27175 net.cpp:345] relu4_3 -> conv4_3 (in-place)
I1104 19:27:57.414824 27175 net.cpp:96] Setting up relu4_3
I1104 19:27:57.414829 27175 net.cpp:103] Top shape: 8 512 28 28 (3211264)
I1104 19:27:57.414832 27175 layer_factory.hpp:78] Creating layer pool4
I1104 19:27:57.414839 27175 net.cpp:67] Creating Layer pool4
I1104 19:27:57.414841 27175 net.cpp:394] pool4 <- conv4_3
I1104 19:27:57.414845 27175 net.cpp:356] pool4 -> pool4
I1104 19:27:57.414851 27175 net.cpp:96] Setting up pool4
I1104 19:27:57.414858 27175 net.cpp:103] Top shape: 8 512 14 14 (802816)
I1104 19:27:57.414861 27175 layer_factory.hpp:78] Creating layer conv5_1
I1104 19:27:57.414870 27175 net.cpp:67] Creating Layer conv5_1
I1104 19:27:57.414872 27175 net.cpp:394] conv5_1 <- pool4
I1104 19:27:57.414877 27175 net.cpp:356] conv5_1 -> conv5_1
I1104 19:27:57.414882 27175 net.cpp:96] Setting up conv5_1
I1104 19:27:57.473418 27175 net.cpp:103] Top shape: 8 512 14 14 (802816)
I1104 19:27:57.473444 27175 layer_factory.hpp:78] Creating layer relu5_1
I1104 19:27:57.473453 27175 net.cpp:67] Creating Layer relu5_1
I1104 19:27:57.473459 27175 net.cpp:394] relu5_1 <- conv5_1
I1104 19:27:57.473465 27175 net.cpp:345] relu5_1 -> conv5_1 (in-place)
I1104 19:27:57.473472 27175 net.cpp:96] Setting up relu5_1
I1104 19:27:57.473477 27175 net.cpp:103] Top shape: 8 512 14 14 (802816)
I1104 19:27:57.473481 27175 layer_factory.hpp:78] Creating layer conv5_2
I1104 19:27:57.473487 27175 net.cpp:67] Creating Layer conv5_2
I1104 19:27:57.473489 27175 net.cpp:394] conv5_2 <- conv5_1
I1104 19:27:57.473497 27175 net.cpp:356] conv5_2 -> conv5_2
I1104 19:27:57.473503 27175 net.cpp:96] Setting up conv5_2
I1104 19:27:57.532141 27175 net.cpp:103] Top shape: 8 512 14 14 (802816)
I1104 19:27:57.532169 27175 layer_factory.hpp:78] Creating layer relu5_2
I1104 19:27:57.532177 27175 net.cpp:67] Creating Layer relu5_2
I1104 19:27:57.532182 27175 net.cpp:394] relu5_2 <- conv5_2
I1104 19:27:57.532189 27175 net.cpp:345] relu5_2 -> conv5_2 (in-place)
I1104 19:27:57.532196 27175 net.cpp:96] Setting up relu5_2
I1104 19:27:57.532202 27175 net.cpp:103] Top shape: 8 512 14 14 (802816)
I1104 19:27:57.532204 27175 layer_factory.hpp:78] Creating layer conv5_3
I1104 19:27:57.532212 27175 net.cpp:67] Creating Layer conv5_3
I1104 19:27:57.532214 27175 net.cpp:394] conv5_3 <- conv5_2
I1104 19:27:57.532220 27175 net.cpp:356] conv5_3 -> conv5_3
I1104 19:27:57.532227 27175 net.cpp:96] Setting up conv5_3
I1104 19:27:57.591804 27175 net.cpp:103] Top shape: 8 512 14 14 (802816)
I1104 19:27:57.591833 27175 layer_factory.hpp:78] Creating layer relu5_3
I1104 19:27:57.591842 27175 net.cpp:67] Creating Layer relu5_3
I1104 19:27:57.591847 27175 net.cpp:394] relu5_3 <- conv5_3
I1104 19:27:57.591853 27175 net.cpp:345] relu5_3 -> conv5_3 (in-place)
I1104 19:27:57.591861 27175 net.cpp:96] Setting up relu5_3
I1104 19:27:57.591866 27175 net.cpp:103] Top shape: 8 512 14 14 (802816)
I1104 19:27:57.591869 27175 layer_factory.hpp:78] Creating layer pool5
I1104 19:27:57.591881 27175 net.cpp:67] Creating Layer pool5
I1104 19:27:57.591884 27175 net.cpp:394] pool5 <- conv5_3
I1104 19:27:57.591891 27175 net.cpp:356] pool5 -> pool5
I1104 19:27:57.591897 27175 net.cpp:96] Setting up pool5
I1104 19:27:57.591904 27175 net.cpp:103] Top shape: 8 512 7 7 (200704)
I1104 19:27:57.591909 27175 layer_factory.hpp:78] Creating layer fc6
I1104 19:27:57.591915 27175 net.cpp:67] Creating Layer fc6
I1104 19:27:57.591918 27175 net.cpp:394] fc6 <- pool5
I1104 19:27:57.591923 27175 net.cpp:356] fc6 -> fc6
I1104 19:27:57.591928 27175 net.cpp:96] Setting up fc6
I1104 19:28:00.135882 27175 net.cpp:103] Top shape: 8 4096 1 1 (32768)
I1104 19:28:00.135912 27175 layer_factory.hpp:78] Creating layer relu6
I1104 19:28:00.135921 27175 net.cpp:67] Creating Layer relu6
I1104 19:28:00.135926 27175 net.cpp:394] relu6 <- fc6
I1104 19:28:00.135946 27175 net.cpp:345] relu6 -> fc6 (in-place)
I1104 19:28:00.135953 27175 net.cpp:96] Setting up relu6
I1104 19:28:00.135970 27175 net.cpp:103] Top shape: 8 4096 1 1 (32768)
I1104 19:28:00.135978 27175 layer_factory.hpp:78] Creating layer drop6
I1104 19:28:00.135983 27175 net.cpp:67] Creating Layer drop6
I1104 19:28:00.135987 27175 net.cpp:394] drop6 <- fc6
I1104 19:28:00.135990 27175 net.cpp:345] drop6 -> fc6 (in-place)
I1104 19:28:00.135995 27175 net.cpp:96] Setting up drop6
I1104 19:28:00.135999 27175 net.cpp:103] Top shape: 8 4096 1 1 (32768)
I1104 19:28:00.136003 27175 layer_factory.hpp:78] Creating layer fc7
I1104 19:28:00.136008 27175 net.cpp:67] Creating Layer fc7
I1104 19:28:00.136010 27175 net.cpp:394] fc7 <- fc6
I1104 19:28:00.136018 27175 net.cpp:356] fc7 -> fc7
I1104 19:28:00.136026 27175 net.cpp:96] Setting up fc7
I1104 19:28:00.589419 27175 net.cpp:103] Top shape: 8 4096 1 1 (32768)
I1104 19:28:00.589447 27175 layer_factory.hpp:78] Creating layer relu7
I1104 19:28:00.589457 27175 net.cpp:67] Creating Layer relu7
I1104 19:28:00.589462 27175 net.cpp:394] relu7 <- fc7
I1104 19:28:00.589468 27175 net.cpp:345] relu7 -> fc7 (in-place)
I1104 19:28:00.589475 27175 net.cpp:96] Setting up relu7
I1104 19:28:00.589488 27175 net.cpp:103] Top shape: 8 4096 1 1 (32768)
I1104 19:28:00.589491 27175 layer_factory.hpp:78] Creating layer drop7
I1104 19:28:00.589496 27175 net.cpp:67] Creating Layer drop7
I1104 19:28:00.589499 27175 net.cpp:394] drop7 <- fc7
I1104 19:28:00.589504 27175 net.cpp:345] drop7 -> fc7 (in-place)
I1104 19:28:00.589509 27175 net.cpp:96] Setting up drop7
I1104 19:28:00.589512 27175 net.cpp:103] Top shape: 8 4096 1 1 (32768)
I1104 19:28:00.589515 27175 layer_factory.hpp:78] Creating layer fc8_2
I1104 19:28:00.589522 27175 net.cpp:67] Creating Layer fc8_2
I1104 19:28:00.589525 27175 net.cpp:394] fc8_2 <- fc7
I1104 19:28:00.589530 27175 net.cpp:356] fc8_2 -> fc8_2
I1104 19:28:00.589536 27175 net.cpp:96] Setting up fc8_2
I1104 19:28:00.589750 27175 net.cpp:103] Top shape: 8 2 1 1 (16)
I1104 19:28:00.589758 27175 layer_factory.hpp:78] Creating layer fc8_2_fc8_2_0_split
I1104 19:28:00.589762 27175 net.cpp:67] Creating Layer fc8_2_fc8_2_0_split
I1104 19:28:00.589766 27175 net.cpp:394] fc8_2_fc8_2_0_split <- fc8_2
I1104 19:28:00.589771 27175 net.cpp:356] fc8_2_fc8_2_0_split -> fc8_2_fc8_2_0_split_0
I1104 19:28:00.589776 27175 net.cpp:356] fc8_2_fc8_2_0_split -> fc8_2_fc8_2_0_split_1
I1104 19:28:00.589781 27175 net.cpp:96] Setting up fc8_2_fc8_2_0_split
I1104 19:28:00.589786 27175 net.cpp:103] Top shape: 8 2 1 1 (16)
I1104 19:28:00.589788 27175 net.cpp:103] Top shape: 8 2 1 1 (16)
I1104 19:28:00.589790 27175 layer_factory.hpp:78] Creating layer loss
I1104 19:28:00.589797 27175 net.cpp:67] Creating Layer loss
I1104 19:28:00.589800 27175 net.cpp:394] loss <- fc8_2_fc8_2_0_split_0
I1104 19:28:00.589804 27175 net.cpp:394] loss <- label_data_1_split_0
I1104 19:28:00.589810 27175 net.cpp:356] loss -> (automatic)
I1104 19:28:00.589814 27175 net.cpp:96] Setting up loss
I1104 19:28:00.589820 27175 net.cpp:103] Top shape: 1 1 1 1 (1)
I1104 19:28:00.589825 27175 net.cpp:109]     with loss weight 1
I1104 19:28:00.589838 27175 layer_factory.hpp:78] Creating layer accuracy
I1104 19:28:00.589843 27175 net.cpp:67] Creating Layer accuracy
I1104 19:28:00.589846 27175 net.cpp:394] accuracy <- fc8_2_fc8_2_0_split_1
I1104 19:28:00.589850 27175 net.cpp:394] accuracy <- label_data_1_split_1
I1104 19:28:00.589856 27175 net.cpp:356] accuracy -> accuracy
I1104 19:28:00.589861 27175 net.cpp:96] Setting up accuracy
I1104 19:28:00.589869 27175 net.cpp:103] Top shape: 1 1 1 4 (4)
I1104 19:28:00.589874 27175 net.cpp:172] accuracy does not need backward computation.
I1104 19:28:00.589877 27175 net.cpp:170] loss needs backward computation.
I1104 19:28:00.589880 27175 net.cpp:170] fc8_2_fc8_2_0_split needs backward computation.
I1104 19:28:00.589884 27175 net.cpp:170] fc8_2 needs backward computation.
I1104 19:28:00.589887 27175 net.cpp:170] drop7 needs backward computation.
…
