…
I1104 20:01:18.251948  1250 net.cpp:275] The NetState phase (0) differed from the phase (1) specified by a rule in layer accuracy
I1104 20:01:18.252146  1250 net.cpp:39] Initializing net from parameters: 
name: "small"
layers {
  top: "data"
  top: "label"
  name: "data"
  type: IMAGE_DATA
  image_data_param {
    source: "/data/ad6813/devCaffe/caffe/task/clamp/clampTrain.txt"
    batch_size: 30
    new_height: 256
    new_width: 256
  }
  include {
    phase: TRAIN
  }
  transform_param {
    mirror: true
    crop_size: 224
    mean_file: "/data/ad6813/devCaffe/caffe/clampdetMeanVal"
  }
}
layers {
  bottom: "data"
  top: "conv1_1"
  name: "conv1_1"
  type: CONVOLUTION
  convolution_param {
    num_output: 64
    pad: 1
    kernel_size: 3
    weight_filler {
      type: "gaussian"
      std: 0.01
    }
    bias_filler {
      type: "constant"
      value: 0
    }
  }
}
layers {
  bottom: "conv1_1"
  top: "conv1_1"
  name: "relu1_1"
  type: RELU
}
layers {
  bottom: "conv1_1"
  top: "conv1_2"
  name: "conv1_2"
  type: CONVOLUTION
  convolution_param {
    num_output: 64
    pad: 1
    kernel_size: 3
    weight_filler {
      type: "gaussian"
      std: 0.01
    }
    bias_filler {
      type: "constant"
      value: 0
    }
  }
}
layers {
  bottom: "conv1_2"
  top: "conv1_2"
  name: "relu1_2"
  type: RELU
}
layers {
  bottom: "conv1_2"
  top: "pool1"
  name: "pool1"
  type: POOLING
  pooling_param {
    pool: MAX
    kernel_size: 2
    stride: 2
  }
}
layers {
  bottom: "pool1"
  top: "conv2_1"
  name: "conv2_1"
  type: CONVOLUTION
  convolution_param {
    num_output: 128
    pad: 1
    kernel_size: 3
    weight_filler {
      type: "gaussian"
      std: 0.01
    }
    bias_filler {
      type: "constant"
      value: 0
    }
  }
}
layers {
  bottom: "conv2_1"
  top: "conv2_1"
  name: "relu2_1"
  type: RELU
}
layers {
  bottom: "conv2_1"
  top: "conv2_2"
  name: "conv2_2"
  type: CONVOLUTION
  convolution_param {
    num_output: 128
    pad: 1
    kernel_size: 3
    weight_filler {
      type: "gaussian"
      std: 0.01
    }
    bias_filler {
      type: "constant"
      value: 0
    }
  }
}
layers {
  bottom: "conv2_2"
  top: "conv2_2"
  name: "relu2_2"
  type: RELU
}
layers {
  bottom: "conv2_2"
  top: "pool2"
  name: "pool2"
  type: POOLING
  pooling_param {
    pool: MAX
    kernel_size: 2
    stride: 2
  }
}
layers {
  bottom: "pool2"
  top: "conv3_1"
  name: "conv3_1"
  type: CONVOLUTION
  convolution_param {
    num_output: 256
    pad: 1
    kernel_size: 3
    weight_filler {
      type: "gaussian"
      std: 0.01
    }
    bias_filler {
      type: "constant"
      value: 0
    }
  }
}
layers {
  bottom: "conv3_1"
  top: "conv3_1"
  name: "relu3_1"
  type: RELU
}
layers {
  bottom: "conv3_1"
  top: "conv3_2"
  name: "conv3_2"
  type: CONVOLUTION
  convolution_param {
    num_output: 256
    pad: 1
    kernel_size: 3
    weight_filler {
      type: "gaussian"
      std: 0.01
    }
    bias_filler {
      type: "constant"
      value: 0
    }
  }
}
layers {
  bottom: "conv3_2"
  top: "conv3_2"
  name: "relu3_2"
  type: RELU
}
layers {
  bottom: "conv3_2"
  top: "conv3_3"
  name: "conv3_3"
  type: CONVOLUTION
  convolution_param {
    num_output: 256
    pad: 1
    kernel_size: 3
    weight_filler {
      type: "gaussian"
      std: 0.01
    }
    bias_filler {
      type: "constant"
      value: 0
    }
  }
}
layers {
  bottom: "conv3_3"
  top: "conv3_3"
  name: "relu3_3"
  type: RELU
}
layers {
  bottom: "conv3_3"
  top: "pool3"
  name: "pool3"
  type: POOLING
  pooling_param {
    pool: MAX
    kernel_size: 2
    stride: 2
  }
}
layers {
  bottom: "pool3"
  top: "conv4_1"
  name: "conv4_1"
  type: CONVOLUTION
  convolution_param {
    num_output: 512
    pad: 1
    kernel_size: 3
    weight_filler {
      type: "gaussian"
      std: 0.01
    }
    bias_filler {
      type: "constant"
      value: 0
    }
  }
}
layers {
  bottom: "conv4_1"
  top: "conv4_1"
  name: "relu4_1"
  type: RELU
}
layers {
  bottom: "conv4_1"
  top: "conv4_2"
  name: "conv4_2"
  type: CONVOLUTION
  convolution_param {
    num_output: 512
    pad: 1
    kernel_size: 3
    weight_filler {
      type: "gaussian"
      std: 0.01
    }
    bias_filler {
      type: "constant"
      value: 0
    }
  }
}
layers {
  bottom: "conv4_2"
  top: "conv4_2"
  name: "relu4_2"
  type: RELU
}
layers {
  bottom: "conv4_2"
  top: "conv4_3"
  name: "conv4_3"
  type: CONVOLUTION
  convolution_param {
    num_output: 512
    pad: 1
    kernel_size: 3
    weight_filler {
      type: "gaussian"
      std: 0.01
    }
    bias_filler {
      type: "constant"
      value: 0
    }
  }
}
layers {
  bottom: "conv4_3"
  top: "conv4_3"
  name: "relu4_3"
  type: RELU
}
layers {
  bottom: "conv4_3"
  top: "pool4"
  name: "pool4"
  type: POOLING
  pooling_param {
    pool: MAX
    kernel_size: 2
    stride: 2
  }
}
layers {
  bottom: "pool4"
  top: "conv5_1"
  name: "conv5_1"
  type: CONVOLUTION
  convolution_param {
    num_output: 512
    pad: 1
    kernel_size: 3
    weight_filler {
      type: "gaussian"
      std: 0.01
    }
    bias_filler {
      type: "constant"
      value: 0
    }
  }
}
layers {
  bottom: "conv5_1"
  top: "conv5_1"
  name: "relu5_1"
  type: RELU
}
layers {
  bottom: "conv5_1"
  top: "conv5_2"
  name: "conv5_2"
  type: CONVOLUTION
  convolution_param {
    num_output: 512
    pad: 1
    kernel_size: 3
    weight_filler {
      type: "gaussian"
      std: 0.01
    }
    bias_filler {
      type: "constant"
      value: 0
    }
  }
}
layers {
  bottom: "conv5_2"
  top: "conv5_2"
  name: "relu5_2"
  type: RELU
}
layers {
  bottom: "conv5_2"
  top: "conv5_3"
  name: "conv5_3"
  type: CONVOLUTION
  convolution_param {
    num_output: 512
    pad: 1
    kernel_size: 3
    weight_filler {
      type: "gaussian"
      std: 0.01
    }
    bias_filler {
      type: "constant"
      value: 0
    }
  }
}
layers {
  bottom: "conv5_3"
  top: "conv5_3"
  name: "relu5_3"
  type: RELU
}
layers {
  bottom: "conv5_3"
  top: "pool5"
  name: "pool5"
  type: POOLING
  pooling_param {
    pool: MAX
    kernel_size: 2
    stride: 2
  }
}
layers {
  bottom: "pool5"
  top: "fc6"
  name: "fc6"
  type: INNER_PRODUCT
  inner_product_param {
    num_output: 4096
    weight_filler {
      type: "gaussian"
      std: 0.01
    }
    bias_filler {
      type: "constant"
      value: 0
    }
  }
}
layers {
  bottom: "fc6"
  top: "fc6"
  name: "relu6"
  type: RELU
}
layers {
  bottom: "fc6"
  top: "fc6"
  name: "drop6"
  type: DROPOUT
  dropout_param {
    dropout_ratio: 0.5
  }
}
layers {
  bottom: "fc6"
  top: "fc7"
  name: "fc7"
  type: INNER_PRODUCT
  inner_product_param {
    num_output: 4096
    weight_filler {
      type: "gaussian"
      std: 0.01
    }
    bias_filler {
      type: "constant"
      value: 0
    }
  }
}
layers {
  bottom: "fc7"
  top: "fc7"
  name: "relu7"
  type: RELU
}
layers {
  bottom: "fc7"
  top: "fc7"
  name: "drop7"
  type: DROPOUT
  dropout_param {
    dropout_ratio: 0.5
  }
}
layers {
  bottom: "fc7"
  top: "fc8_2"
  name: "fc8_2"
  type: INNER_PRODUCT
  inner_product_param {
    num_output: 2
    weight_filler {
      type: "gaussian"
      std: 0.01
    }
    bias_filler {
      type: "constant"
      value: 0
    }
  }
}
layers {
  bottom: "fc8_2"
  bottom: "label"
  name: "loss"
  type: SOFTMAX_LOSS
}
state {
  phase: TRAIN
}
I1104 20:01:18.252291  1250 layer_factory.hpp:78] Creating layer data
I1104 20:01:18.252305  1250 data_transformer.cpp:24] Loading mean file from/data/ad6813/devCaffe/caffe/clampdetMeanVal
I1104 20:01:18.267134  1250 net.cpp:67] Creating Layer data
I1104 20:01:18.267161  1250 net.cpp:356] data -> data
I1104 20:01:18.267182  1250 net.cpp:356] data -> label
I1104 20:01:18.267197  1250 net.cpp:96] Setting up data
I1104 20:01:18.267210  1250 image_data_layer.cpp:34] Opening file /data/ad6813/devCaffe/caffe/task/clamp/clampTrain.txt
I1104 20:01:18.290304  1250 image_data_layer.cpp:49] A total of 23494 images.
I1104 20:01:18.335201  1250 image_data_layer.cpp:78] output data size: 30,3,224,224
I1104 20:01:18.338012  1250 net.cpp:103] Top shape: 30 3 224 224 (4515840)
I1104 20:01:18.338038  1250 net.cpp:103] Top shape: 30 1 1 1 (30)
I1104 20:01:18.338043  1250 layer_factory.hpp:78] Creating layer conv1_1
I1104 20:01:18.338058  1250 net.cpp:67] Creating Layer conv1_1
I1104 20:01:18.338063  1250 net.cpp:394] conv1_1 <- data
I1104 20:01:18.338076  1250 net.cpp:356] conv1_1 -> conv1_1
I1104 20:01:18.338086  1250 net.cpp:96] Setting up conv1_1
I1104 20:01:18.363396  1250 net.cpp:103] Top shape: 30 64 224 224 (96337920)
I1104 20:01:18.363430  1250 layer_factory.hpp:78] Creating layer relu1_1
I1104 20:01:18.363443  1250 net.cpp:67] Creating Layer relu1_1
I1104 20:01:18.363448  1250 net.cpp:394] relu1_1 <- conv1_1
I1104 20:01:18.363454  1250 net.cpp:345] relu1_1 -> conv1_1 (in-place)
I1104 20:01:18.363463  1250 net.cpp:96] Setting up relu1_1
I1104 20:01:18.363471  1250 net.cpp:103] Top shape: 30 64 224 224 (96337920)
I1104 20:01:18.363474  1250 layer_factory.hpp:78] Creating layer conv1_2
I1104 20:01:18.363482  1250 net.cpp:67] Creating Layer conv1_2
I1104 20:01:18.363486  1250 net.cpp:394] conv1_2 <- conv1_1
I1104 20:01:18.363490  1250 net.cpp:356] conv1_2 -> conv1_2
I1104 20:01:18.363497  1250 net.cpp:96] Setting up conv1_2
I1104 20:01:18.364559  1250 net.cpp:103] Top shape: 30 64 224 224 (96337920)
I1104 20:01:18.364572  1250 layer_factory.hpp:78] Creating layer relu1_2
I1104 20:01:18.364578  1250 net.cpp:67] Creating Layer relu1_2
I1104 20:01:18.364580  1250 net.cpp:394] relu1_2 <- conv1_2
I1104 20:01:18.364585  1250 net.cpp:345] relu1_2 -> conv1_2 (in-place)
I1104 20:01:18.364589  1250 net.cpp:96] Setting up relu1_2
I1104 20:01:18.364594  1250 net.cpp:103] Top shape: 30 64 224 224 (96337920)
I1104 20:01:18.364598  1250 layer_factory.hpp:78] Creating layer pool1
I1104 20:01:18.364606  1250 net.cpp:67] Creating Layer pool1
I1104 20:01:18.364609  1250 net.cpp:394] pool1 <- conv1_2
I1104 20:01:18.364614  1250 net.cpp:356] pool1 -> pool1
I1104 20:01:18.364619  1250 net.cpp:96] Setting up pool1
I1104 20:01:18.364635  1250 net.cpp:103] Top shape: 30 64 112 112 (24084480)
I1104 20:01:18.364645  1250 layer_factory.hpp:78] Creating layer conv2_1
I1104 20:01:18.364653  1250 net.cpp:67] Creating Layer conv2_1
I1104 20:01:18.364660  1250 net.cpp:394] conv2_1 <- pool1
I1104 20:01:18.364665  1250 net.cpp:356] conv2_1 -> conv2_1
I1104 20:01:18.364670  1250 net.cpp:96] Setting up conv2_1
I1104 20:01:18.366577  1250 net.cpp:103] Top shape: 30 128 112 112 (48168960)
I1104 20:01:18.366590  1250 layer_factory.hpp:78] Creating layer relu2_1
I1104 20:01:18.366596  1250 net.cpp:67] Creating Layer relu2_1
I1104 20:01:18.366600  1250 net.cpp:394] relu2_1 <- conv2_1
I1104 20:01:18.366603  1250 net.cpp:345] relu2_1 -> conv2_1 (in-place)
I1104 20:01:18.366608  1250 net.cpp:96] Setting up relu2_1
I1104 20:01:18.366613  1250 net.cpp:103] Top shape: 30 128 112 112 (48168960)
I1104 20:01:18.366616  1250 layer_factory.hpp:78] Creating layer conv2_2
I1104 20:01:18.366626  1250 net.cpp:67] Creating Layer conv2_2
I1104 20:01:18.366629  1250 net.cpp:394] conv2_2 <- conv2_1
I1104 20:01:18.366634  1250 net.cpp:356] conv2_2 -> conv2_2
I1104 20:01:18.366639  1250 net.cpp:96] Setting up conv2_2
I1104 20:01:18.370416  1250 net.cpp:103] Top shape: 30 128 112 112 (48168960)
I1104 20:01:18.370430  1250 layer_factory.hpp:78] Creating layer relu2_2
I1104 20:01:18.370436  1250 net.cpp:67] Creating Layer relu2_2
I1104 20:01:18.370440  1250 net.cpp:394] relu2_2 <- conv2_2
I1104 20:01:18.370445  1250 net.cpp:345] relu2_2 -> conv2_2 (in-place)
I1104 20:01:18.370457  1250 net.cpp:96] Setting up relu2_2
I1104 20:01:18.370462  1250 net.cpp:103] Top shape: 30 128 112 112 (48168960)
I1104 20:01:18.370465  1250 layer_factory.hpp:78] Creating layer pool2
I1104 20:01:18.370471  1250 net.cpp:67] Creating Layer pool2
I1104 20:01:18.370473  1250 net.cpp:394] pool2 <- conv2_2
I1104 20:01:18.370481  1250 net.cpp:356] pool2 -> pool2
I1104 20:01:18.370486  1250 net.cpp:96] Setting up pool2
I1104 20:01:18.370491  1250 net.cpp:103] Top shape: 30 128 56 56 (12042240)
I1104 20:01:18.370494  1250 layer_factory.hpp:78] Creating layer conv3_1
I1104 20:01:18.370501  1250 net.cpp:67] Creating Layer conv3_1
I1104 20:01:18.370503  1250 net.cpp:394] conv3_1 <- pool2
I1104 20:01:18.370507  1250 net.cpp:356] conv3_1 -> conv3_1
I1104 20:01:18.370513  1250 net.cpp:96] Setting up conv3_1
I1104 20:01:18.377966  1250 net.cpp:103] Top shape: 30 256 56 56 (24084480)
I1104 20:01:18.377990  1250 layer_factory.hpp:78] Creating layer relu3_1
I1104 20:01:18.377997  1250 net.cpp:67] Creating Layer relu3_1
I1104 20:01:18.378001  1250 net.cpp:394] relu3_1 <- conv3_1
I1104 20:01:18.378006  1250 net.cpp:345] relu3_1 -> conv3_1 (in-place)
I1104 20:01:18.378012  1250 net.cpp:96] Setting up relu3_1
I1104 20:01:18.378017  1250 net.cpp:103] Top shape: 30 256 56 56 (24084480)
I1104 20:01:18.378021  1250 layer_factory.hpp:78] Creating layer conv3_2
I1104 20:01:18.378026  1250 net.cpp:67] Creating Layer conv3_2
I1104 20:01:18.378029  1250 net.cpp:394] conv3_2 <- conv3_1
I1104 20:01:18.378036  1250 net.cpp:356] conv3_2 -> conv3_2
I1104 20:01:18.378041  1250 net.cpp:96] Setting up conv3_2
I1104 20:01:18.393018  1250 net.cpp:103] Top shape: 30 256 56 56 (24084480)
I1104 20:01:18.393040  1250 layer_factory.hpp:78] Creating layer relu3_2
I1104 20:01:18.393051  1250 net.cpp:67] Creating Layer relu3_2
I1104 20:01:18.393056  1250 net.cpp:394] relu3_2 <- conv3_2
I1104 20:01:18.393062  1250 net.cpp:345] relu3_2 -> conv3_2 (in-place)
I1104 20:01:18.393069  1250 net.cpp:96] Setting up relu3_2
I1104 20:01:18.393074  1250 net.cpp:103] Top shape: 30 256 56 56 (24084480)
I1104 20:01:18.393077  1250 layer_factory.hpp:78] Creating layer conv3_3
I1104 20:01:18.393084  1250 net.cpp:67] Creating Layer conv3_3
I1104 20:01:18.393087  1250 net.cpp:394] conv3_3 <- conv3_2
I1104 20:01:18.393091  1250 net.cpp:356] conv3_3 -> conv3_3
I1104 20:01:18.393097  1250 net.cpp:96] Setting up conv3_3
I1104 20:01:18.407939  1250 net.cpp:103] Top shape: 30 256 56 56 (24084480)
I1104 20:01:18.407955  1250 layer_factory.hpp:78] Creating layer relu3_3
I1104 20:01:18.407965  1250 net.cpp:67] Creating Layer relu3_3
I1104 20:01:18.407969  1250 net.cpp:394] relu3_3 <- conv3_3
I1104 20:01:18.407975  1250 net.cpp:345] relu3_3 -> conv3_3 (in-place)
I1104 20:01:18.407980  1250 net.cpp:96] Setting up relu3_3
I1104 20:01:18.407985  1250 net.cpp:103] Top shape: 30 256 56 56 (24084480)
I1104 20:01:18.407989  1250 layer_factory.hpp:78] Creating layer pool3
I1104 20:01:18.407996  1250 net.cpp:67] Creating Layer pool3
I1104 20:01:18.407999  1250 net.cpp:394] pool3 <- conv3_3
I1104 20:01:18.408004  1250 net.cpp:356] pool3 -> pool3
I1104 20:01:18.408010  1250 net.cpp:96] Setting up pool3
I1104 20:01:18.408016  1250 net.cpp:103] Top shape: 30 256 28 28 (6021120)
I1104 20:01:18.408020  1250 layer_factory.hpp:78] Creating layer conv4_1
I1104 20:01:18.408025  1250 net.cpp:67] Creating Layer conv4_1
I1104 20:01:18.408030  1250 net.cpp:394] conv4_1 <- pool3
I1104 20:01:18.408033  1250 net.cpp:356] conv4_1 -> conv4_1
I1104 20:01:18.408038  1250 net.cpp:96] Setting up conv4_1
I1104 20:01:18.437273  1250 net.cpp:103] Top shape: 30 512 28 28 (12042240)
I1104 20:01:18.437294  1250 layer_factory.hpp:78] Creating layer relu4_1
I1104 20:01:18.437302  1250 net.cpp:67] Creating Layer relu4_1
I1104 20:01:18.437307  1250 net.cpp:394] relu4_1 <- conv4_1
I1104 20:01:18.437314  1250 net.cpp:345] relu4_1 -> conv4_1 (in-place)
I1104 20:01:18.437320  1250 net.cpp:96] Setting up relu4_1
I1104 20:01:18.437325  1250 net.cpp:103] Top shape: 30 512 28 28 (12042240)
I1104 20:01:18.437338  1250 layer_factory.hpp:78] Creating layer conv4_2
I1104 20:01:18.437346  1250 net.cpp:67] Creating Layer conv4_2
I1104 20:01:18.437350  1250 net.cpp:394] conv4_2 <- conv4_1
I1104 20:01:18.437355  1250 net.cpp:356] conv4_2 -> conv4_2
I1104 20:01:18.437361  1250 net.cpp:96] Setting up conv4_2
I1104 20:01:18.495426  1250 net.cpp:103] Top shape: 30 512 28 28 (12042240)
I1104 20:01:18.495455  1250 layer_factory.hpp:78] Creating layer relu4_2
I1104 20:01:18.495462  1250 net.cpp:67] Creating Layer relu4_2
I1104 20:01:18.495468  1250 net.cpp:394] relu4_2 <- conv4_2
I1104 20:01:18.495475  1250 net.cpp:345] relu4_2 -> conv4_2 (in-place)
I1104 20:01:18.495481  1250 net.cpp:96] Setting up relu4_2
I1104 20:01:18.495486  1250 net.cpp:103] Top shape: 30 512 28 28 (12042240)
I1104 20:01:18.495489  1250 layer_factory.hpp:78] Creating layer conv4_3
I1104 20:01:18.495497  1250 net.cpp:67] Creating Layer conv4_3
I1104 20:01:18.495501  1250 net.cpp:394] conv4_3 <- conv4_2
I1104 20:01:18.495506  1250 net.cpp:356] conv4_3 -> conv4_3
I1104 20:01:18.495512  1250 net.cpp:96] Setting up conv4_3
I1104 20:01:18.553346  1250 net.cpp:103] Top shape: 30 512 28 28 (12042240)
I1104 20:01:18.553369  1250 layer_factory.hpp:78] Creating layer relu4_3
I1104 20:01:18.553376  1250 net.cpp:67] Creating Layer relu4_3
I1104 20:01:18.553381  1250 net.cpp:394] relu4_3 <- conv4_3
I1104 20:01:18.553390  1250 net.cpp:345] relu4_3 -> conv4_3 (in-place)
I1104 20:01:18.553396  1250 net.cpp:96] Setting up relu4_3
I1104 20:01:18.553401  1250 net.cpp:103] Top shape: 30 512 28 28 (12042240)
I1104 20:01:18.553405  1250 layer_factory.hpp:78] Creating layer pool4
I1104 20:01:18.553411  1250 net.cpp:67] Creating Layer pool4
I1104 20:01:18.553413  1250 net.cpp:394] pool4 <- conv4_3
I1104 20:01:18.553417  1250 net.cpp:356] pool4 -> pool4
I1104 20:01:18.553423  1250 net.cpp:96] Setting up pool4
I1104 20:01:18.553431  1250 net.cpp:103] Top shape: 30 512 14 14 (3010560)
I1104 20:01:18.553433  1250 layer_factory.hpp:78] Creating layer conv5_1
I1104 20:01:18.553441  1250 net.cpp:67] Creating Layer conv5_1
I1104 20:01:18.553444  1250 net.cpp:394] conv5_1 <- pool4
I1104 20:01:18.553449  1250 net.cpp:356] conv5_1 -> conv5_1
I1104 20:01:18.553457  1250 net.cpp:96] Setting up conv5_1
I1104 20:01:18.611845  1250 net.cpp:103] Top shape: 30 512 14 14 (3010560)
I1104 20:01:18.611871  1250 layer_factory.hpp:78] Creating layer relu5_1
I1104 20:01:18.611878  1250 net.cpp:67] Creating Layer relu5_1
I1104 20:01:18.611883  1250 net.cpp:394] relu5_1 <- conv5_1
I1104 20:01:18.611896  1250 net.cpp:345] relu5_1 -> conv5_1 (in-place)
I1104 20:01:18.611903  1250 net.cpp:96] Setting up relu5_1
I1104 20:01:18.611908  1250 net.cpp:103] Top shape: 30 512 14 14 (3010560)
I1104 20:01:18.611912  1250 layer_factory.hpp:78] Creating layer conv5_2
I1104 20:01:18.611918  1250 net.cpp:67] Creating Layer conv5_2
I1104 20:01:18.611922  1250 net.cpp:394] conv5_2 <- conv5_1
I1104 20:01:18.611927  1250 net.cpp:356] conv5_2 -> conv5_2
I1104 20:01:18.611933  1250 net.cpp:96] Setting up conv5_2
I1104 20:01:18.669728  1250 net.cpp:103] Top shape: 30 512 14 14 (3010560)
I1104 20:01:18.669754  1250 layer_factory.hpp:78] Creating layer relu5_2
I1104 20:01:18.669761  1250 net.cpp:67] Creating Layer relu5_2
I1104 20:01:18.669766  1250 net.cpp:394] relu5_2 <- conv5_2
I1104 20:01:18.669773  1250 net.cpp:345] relu5_2 -> conv5_2 (in-place)
I1104 20:01:18.669781  1250 net.cpp:96] Setting up relu5_2
I1104 20:01:18.669787  1250 net.cpp:103] Top shape: 30 512 14 14 (3010560)
I1104 20:01:18.669790  1250 layer_factory.hpp:78] Creating layer conv5_3
I1104 20:01:18.669796  1250 net.cpp:67] Creating Layer conv5_3
I1104 20:01:18.669800  1250 net.cpp:394] conv5_3 <- conv5_2
I1104 20:01:18.669805  1250 net.cpp:356] conv5_3 -> conv5_3
I1104 20:01:18.669809  1250 net.cpp:96] Setting up conv5_3
I1104 20:01:18.727913  1250 net.cpp:103] Top shape: 30 512 14 14 (3010560)
I1104 20:01:18.727941  1250 layer_factory.hpp:78] Creating layer relu5_3
I1104 20:01:18.727948  1250 net.cpp:67] Creating Layer relu5_3
I1104 20:01:18.727953  1250 net.cpp:394] relu5_3 <- conv5_3
I1104 20:01:18.727970  1250 net.cpp:345] relu5_3 -> conv5_3 (in-place)
I1104 20:01:18.727977  1250 net.cpp:96] Setting up relu5_3
I1104 20:01:18.727983  1250 net.cpp:103] Top shape: 30 512 14 14 (3010560)
I1104 20:01:18.727987  1250 layer_factory.hpp:78] Creating layer pool5
I1104 20:01:18.727993  1250 net.cpp:67] Creating Layer pool5
I1104 20:01:18.727995  1250 net.cpp:394] pool5 <- conv5_3
I1104 20:01:18.728000  1250 net.cpp:356] pool5 -> pool5
I1104 20:01:18.728008  1250 net.cpp:96] Setting up pool5
I1104 20:01:18.728014  1250 net.cpp:103] Top shape: 30 512 7 7 (752640)
I1104 20:01:18.728021  1250 layer_factory.hpp:78] Creating layer fc6
I1104 20:01:18.728034  1250 net.cpp:67] Creating Layer fc6
I1104 20:01:18.728039  1250 net.cpp:394] fc6 <- pool5
I1104 20:01:18.728045  1250 net.cpp:356] fc6 -> fc6
I1104 20:01:18.728051  1250 net.cpp:96] Setting up fc6
I1104 20:01:21.263242  1250 net.cpp:103] Top shape: 30 4096 1 1 (122880)
I1104 20:01:21.263272  1250 layer_factory.hpp:78] Creating layer relu6
I1104 20:01:21.263280  1250 net.cpp:67] Creating Layer relu6
I1104 20:01:21.263286  1250 net.cpp:394] relu6 <- fc6
I1104 20:01:21.263293  1250 net.cpp:345] relu6 -> fc6 (in-place)
I1104 20:01:21.263299  1250 net.cpp:96] Setting up relu6
I1104 20:01:21.263313  1250 net.cpp:103] Top shape: 30 4096 1 1 (122880)
I1104 20:01:21.263319  1250 layer_factory.hpp:78] Creating layer drop6
I1104 20:01:21.263327  1250 net.cpp:67] Creating Layer drop6
I1104 20:01:21.263331  1250 net.cpp:394] drop6 <- fc6
I1104 20:01:21.263336  1250 net.cpp:345] drop6 -> fc6 (in-place)
I1104 20:01:21.263340  1250 net.cpp:96] Setting up drop6
I1104 20:01:21.263345  1250 net.cpp:103] Top shape: 30 4096 1 1 (122880)
I1104 20:01:21.263348  1250 layer_factory.hpp:78] Creating layer fc7
I1104 20:01:21.263355  1250 net.cpp:67] Creating Layer fc7
I1104 20:01:21.263360  1250 net.cpp:394] fc7 <- fc6
I1104 20:01:21.263365  1250 net.cpp:356] fc7 -> fc7
I1104 20:01:21.263371  1250 net.cpp:96] Setting up fc7
I1104 20:01:21.673344  1250 net.cpp:103] Top shape: 30 4096 1 1 (122880)
I1104 20:01:21.673372  1250 layer_factory.hpp:78] Creating layer relu7
I1104 20:01:21.673380  1250 net.cpp:67] Creating Layer relu7
I1104 20:01:21.673385  1250 net.cpp:394] relu7 <- fc7
I1104 20:01:21.673393  1250 net.cpp:345] relu7 -> fc7 (in-place)
I1104 20:01:21.673398  1250 net.cpp:96] Setting up relu7
I1104 20:01:21.673411  1250 net.cpp:103] Top shape: 30 4096 1 1 (122880)
I1104 20:01:21.673415  1250 layer_factory.hpp:78] Creating layer drop7
I1104 20:01:21.673420  1250 net.cpp:67] Creating Layer drop7
I1104 20:01:21.673424  1250 net.cpp:394] drop7 <- fc7
I1104 20:01:21.673429  1250 net.cpp:345] drop7 -> fc7 (in-place)
I1104 20:01:21.673434  1250 net.cpp:96] Setting up drop7
I1104 20:01:21.673437  1250 net.cpp:103] Top shape: 30 4096 1 1 (122880)
I1104 20:01:21.673440  1250 layer_factory.hpp:78] Creating layer fc8_2
I1104 20:01:21.673446  1250 net.cpp:67] Creating Layer fc8_2
I1104 20:01:21.673449  1250 net.cpp:394] fc8_2 <- fc7
I1104 20:01:21.673455  1250 net.cpp:356] fc8_2 -> fc8_2
I1104 20:01:21.673465  1250 net.cpp:96] Setting up fc8_2
I1104 20:01:21.673676  1250 net.cpp:103] Top shape: 30 2 1 1 (60)
I1104 20:01:21.673682  1250 layer_factory.hpp:78] Creating layer loss
I1104 20:01:21.673693  1250 net.cpp:67] Creating Layer loss
I1104 20:01:21.673698  1250 net.cpp:394] loss <- fc8_2
I1104 20:01:21.673702  1250 net.cpp:394] loss <- label
I1104 20:01:21.673708  1250 net.cpp:356] loss -> (automatic)
I1104 20:01:21.673715  1250 net.cpp:96] Setting up loss
I1104 20:01:21.673723  1250 net.cpp:103] Top shape: 1 1 1 1 (1)
I1104 20:01:21.673727  1250 net.cpp:109]     with loss weight 1
I1104 20:01:21.673758  1250 net.cpp:170] loss needs backward computation.
I1104 20:01:21.673761  1250 net.cpp:170] fc8_2 needs backward computation.
I1104 20:01:21.673764  1250 net.cpp:170] drop7 needs backward computation.
I1104 20:01:21.673768  1250 net.cpp:170] relu7 needs backward computation.
I1104 20:01:21.673769  1250 net.cpp:170] fc7 needs backward computation.
…
I1104 20:01:21.674674  1250 solver.cpp:151] Creating test net (#0) specified by net file: /data/ad6813/devCaffe/caffe/oxford/small.train
I1104 20:01:21.674715  1250 net.cpp:275] The NetState phase (1) differed from the phase (0) specified by a rule in layer data
I1104 20:01:21.674913  1250 net.cpp:39] Initializing net from parameters: 
name: "small"
layers {
  top: "data"
  top: "label"
  name: "data"
  type: IMAGE_DATA
  image_data_param {
    source: "/data/ad6813/devCaffe/caffe/task/clamp/clampVal.txt"
    batch_size: 8
    new_height: 256
    new_width: 256
  }
  include {
    phase: TEST
  }
  transform_param {
    mirror: true
    crop_size: 224
    mean_file: "/data/ad6813/devCaffe/caffe/clampdetMeanVal"
  }
}
layers {
  bottom: "data"
  top: "conv1_1"
  name: "conv1_1"
  type: CONVOLUTION
  convolution_param {
    num_output: 64
    pad: 1
    kernel_size: 3
    weight_filler {
      type: "gaussian"
      std: 0.01
    }
    bias_filler {
      type: "constant"
      value: 0
    }
  }
}
layers {
  bottom: "conv1_1"
  top: "conv1_1"
  name: "relu1_1"
  type: RELU
}
layers {
  bottom: "conv1_1"
  top: "conv1_2"
  name: "conv1_2"
  type: CONVOLUTION
  convolution_param {
    num_output: 64
    pad: 1
    kernel_size: 3
    weight_filler {
      type: "gaussian"
      std: 0.01
    }
    bias_filler {
      type: "constant"
      value: 0
    }
  }
}
layers {
  bottom: "conv1_2"
  top: "conv1_2"
  name: "relu1_2"
  type: RELU
}
layers {
  bottom: "conv1_2"
  top: "pool1"
  name: "pool1"
  type: POOLING
  pooling_param {
    pool: MAX
    kernel_size: 2
    stride: 2
  }
}
layers {
  bottom: "pool1"
  top: "conv2_1"
  name: "conv2_1"
  type: CONVOLUTION
  convolution_param {
    num_output: 128
    pad: 1
    kernel_size: 3
    weight_filler {
      type: "gaussian"
      std: 0.01
    }
    bias_filler {
      type: "constant"
      value: 0
    }
  }
}
layers {
  bottom: "conv2_1"
  top: "conv2_1"
  name: "relu2_1"
  type: RELU
}
layers {
  bottom: "conv2_1"
  top: "conv2_2"
  name: "conv2_2"
  type: CONVOLUTION
  convolution_param {
    num_output: 128
    pad: 1
    kernel_size: 3
    weight_filler {
      type: "gaussian"
      std: 0.01
    }
    bias_filler {
      type: "constant"
      value: 0
    }
  }
}
layers {
  bottom: "conv2_2"
  top: "conv2_2"
  name: "relu2_2"
  type: RELU
}
layers {
  bottom: "conv2_2"
  top: "pool2"
  name: "pool2"
  type: POOLING
  pooling_param {
    pool: MAX
    kernel_size: 2
    stride: 2
  }
}
layers {
  bottom: "pool2"
  top: "conv3_1"
  name: "conv3_1"
  type: CONVOLUTION
  convolution_param {
    num_output: 256
    pad: 1
    kernel_size: 3
    weight_filler {
      type: "gaussian"
      std: 0.01
    }
    bias_filler {
      type: "constant"
      value: 0
    }
  }
}
layers {
  bottom: "conv3_1"
  top: "conv3_1"
  name: "relu3_1"
  type: RELU
}
layers {
  bottom: "conv3_1"
  top: "conv3_2"
  name: "conv3_2"
  type: CONVOLUTION
  convolution_param {
    num_output: 256
    pad: 1
    kernel_size: 3
    weight_filler {
      type: "gaussian"
      std: 0.01
    }
    bias_filler {
      type: "constant"
      value: 0
    }
  }
}
layers {
  bottom: "conv3_2"
  top: "conv3_2"
  name: "relu3_2"
  type: RELU
}
layers {
  bottom: "conv3_2"
  top: "conv3_3"
  name: "conv3_3"
  type: CONVOLUTION
  convolution_param {
    num_output: 256
    pad: 1
    kernel_size: 3
    weight_filler {
      type: "gaussian"
      std: 0.01
    }
    bias_filler {
      type: "constant"
      value: 0
    }
  }
}
layers {
  bottom: "conv3_3"
  top: "conv3_3"
  name: "relu3_3"
  type: RELU
}
layers {
  bottom: "conv3_3"
  top: "pool3"
  name: "pool3"
  type: POOLING
  pooling_param {
    pool: MAX
    kernel_size: 2
    stride: 2
  }
}
layers {
  bottom: "pool3"
  top: "conv4_1"
  name: "conv4_1"
  type: CONVOLUTION
  convolution_param {
    num_output: 512
    pad: 1
    kernel_size: 3
    weight_filler {
      type: "gaussian"
      std: 0.01
    }
    bias_filler {
      type: "constant"
      value: 0
    }
  }
}
layers {
  bottom: "conv4_1"
  top: "conv4_1"
  name: "relu4_1"
  type: RELU
}
layers {
  bottom: "conv4_1"
  top: "conv4_2"
  name: "conv4_2"
  type: CONVOLUTION
  convolution_param {
    num_output: 512
    pad: 1
    kernel_size: 3
    weight_filler {
      type: "gaussian"
      std: 0.01
    }
    bias_filler {
      type: "constant"
      value: 0
    }
  }
}
layers {
  bottom: "conv4_2"
  top: "conv4_2"
  name: "relu4_2"
  type: RELU
}
layers {
  bottom: "conv4_2"
  top: "conv4_3"
  name: "conv4_3"
  type: CONVOLUTION
  convolution_param {
    num_output: 512
    pad: 1
    kernel_size: 3
    weight_filler {
      type: "gaussian"
      std: 0.01
    }
    bias_filler {
      type: "constant"
      value: 0
    }
  }
}
layers {
  bottom: "conv4_3"
  top: "conv4_3"
  name: "relu4_3"
  type: RELU
}
layers {
  bottom: "conv4_3"
  top: "pool4"
  name: "pool4"
  type: POOLING
  pooling_param {
    pool: MAX
    kernel_size: 2
    stride: 2
  }
}
layers {
  bottom: "pool4"
  top: "conv5_1"
  name: "conv5_1"
  type: CONVOLUTION
  convolution_param {
    num_output: 512
    pad: 1
    kernel_size: 3
    weight_filler {
      type: "gaussian"
      std: 0.01
    }
    bias_filler {
      type: "constant"
      value: 0
    }
  }
}
layers {
  bottom: "conv5_1"
  top: "conv5_1"
  name: "relu5_1"
  type: RELU
}
layers {
  bottom: "conv5_1"
  top: "conv5_2"
  name: "conv5_2"
  type: CONVOLUTION
  convolution_param {
    num_output: 512
    pad: 1
    kernel_size: 3
    weight_filler {
      type: "gaussian"
      std: 0.01
    }
    bias_filler {
      type: "constant"
      value: 0
    }
  }
}
layers {
  bottom: "conv5_2"
  top: "conv5_2"
  name: "relu5_2"
  type: RELU
}
layers {
  bottom: "conv5_2"
  top: "conv5_3"
  name: "conv5_3"
  type: CONVOLUTION
  convolution_param {
    num_output: 512
    pad: 1
    kernel_size: 3
    weight_filler {
      type: "gaussian"
      std: 0.01
    }
    bias_filler {
      type: "constant"
      value: 0
    }
  }
}
layers {
  bottom: "conv5_3"
  top: "conv5_3"
  name: "relu5_3"
  type: RELU
}
layers {
  bottom: "conv5_3"
  top: "pool5"
  name: "pool5"
  type: POOLING
  pooling_param {
    pool: MAX
    kernel_size: 2
    stride: 2
  }
}
layers {
  bottom: "pool5"
  top: "fc6"
  name: "fc6"
  type: INNER_PRODUCT
  inner_product_param {
    num_output: 4096
    weight_filler {
      type: "gaussian"
      std: 0.01
    }
    bias_filler {
      type: "constant"
      value: 0
    }
  }
}
layers {
  bottom: "fc6"
  top: "fc6"
  name: "relu6"
  type: RELU
}
layers {
  bottom: "fc6"
  top: "fc6"
  name: "drop6"
  type: DROPOUT
  dropout_param {
    dropout_ratio: 0.5
  }
}
layers {
  bottom: "fc6"
  top: "fc7"
  name: "fc7"
  type: INNER_PRODUCT
  inner_product_param {
    num_output: 4096
    weight_filler {
      type: "gaussian"
      std: 0.01
    }
    bias_filler {
      type: "constant"
      value: 0
    }
  }
}
layers {
  bottom: "fc7"
  top: "fc7"
  name: "relu7"
  type: RELU
}
layers {
  bottom: "fc7"
  top: "fc7"
  name: "drop7"
  type: DROPOUT
  dropout_param {
    dropout_ratio: 0.5
  }
}
layers {
  bottom: "fc7"
  top: "fc8_2"
  name: "fc8_2"
  type: INNER_PRODUCT
  inner_product_param {
    num_output: 2
    weight_filler {
      type: "gaussian"
      std: 0.01
    }
    bias_filler {
      type: "constant"
      value: 0
    }
  }
}
layers {
  bottom: "fc8_2"
  bottom: "label"
  name: "loss"
  type: SOFTMAX_LOSS
}
layers {
  bottom: "fc8_2"
  bottom: "label"
  top: "accuracy"
  name: "accuracy"
  type: PER_CLASS_ACCURACY
  include {
    phase: TEST
  }
}
state {
  phase: TEST
}
I1104 20:01:21.675047  1250 layer_factory.hpp:78] Creating layer data
I1104 20:01:21.675055  1250 data_transformer.cpp:24] Loading mean file from/data/ad6813/devCaffe/caffe/clampdetMeanVal
I1104 20:01:21.676551  1250 net.cpp:67] Creating Layer data
I1104 20:01:21.676560  1250 net.cpp:356] data -> data
I1104 20:01:21.676569  1250 net.cpp:356] data -> label
I1104 20:01:21.676575  1250 net.cpp:96] Setting up data
I1104 20:01:21.676579  1250 image_data_layer.cpp:34] Opening file /data/ad6813/devCaffe/caffe/task/clamp/clampVal.txt
I1104 20:01:21.691716  1250 image_data_layer.cpp:49] A total of 2005 images.
I1104 20:01:21.697939  1250 image_data_layer.cpp:78] output data size: 8,3,224,224
I1104 20:01:21.698952  1250 net.cpp:103] Top shape: 8 3 224 224 (1204224)
I1104 20:01:21.698962  1250 net.cpp:103] Top shape: 8 1 1 1 (8)
I1104 20:01:21.698967  1250 layer_factory.hpp:78] Creating layer label_data_1_split
I1104 20:01:21.698983  1250 net.cpp:67] Creating Layer label_data_1_split
I1104 20:01:21.698987  1250 net.cpp:394] label_data_1_split <- label
I1104 20:01:21.698994  1250 net.cpp:356] label_data_1_split -> label_data_1_split_0
I1104 20:01:21.699004  1250 net.cpp:356] label_data_1_split -> label_data_1_split_1
I1104 20:01:21.699009  1250 net.cpp:96] Setting up label_data_1_split
I1104 20:01:21.699015  1250 net.cpp:103] Top shape: 8 1 1 1 (8)
I1104 20:01:21.699019  1250 net.cpp:103] Top shape: 8 1 1 1 (8)
I1104 20:01:21.699023  1250 layer_factory.hpp:78] Creating layer conv1_1
I1104 20:01:21.699029  1250 net.cpp:67] Creating Layer conv1_1
I1104 20:01:21.699033  1250 net.cpp:394] conv1_1 <- data
I1104 20:01:21.699038  1250 net.cpp:356] conv1_1 -> conv1_1
I1104 20:01:21.699043  1250 net.cpp:96] Setting up conv1_1
I1104 20:01:21.699198  1250 net.cpp:103] Top shape: 8 64 224 224 (25690112)
I1104 20:01:21.699219  1250 layer_factory.hpp:78] Creating layer relu1_1
I1104 20:01:21.699225  1250 net.cpp:67] Creating Layer relu1_1
I1104 20:01:21.699229  1250 net.cpp:394] relu1_1 <- conv1_1
I1104 20:01:21.699234  1250 net.cpp:345] relu1_1 -> conv1_1 (in-place)
I1104 20:01:21.699239  1250 net.cpp:96] Setting up relu1_1
I1104 20:01:21.699244  1250 net.cpp:103] Top shape: 8 64 224 224 (25690112)
I1104 20:01:21.699247  1250 layer_factory.hpp:78] Creating layer conv1_2
I1104 20:01:21.699252  1250 net.cpp:67] Creating Layer conv1_2
I1104 20:01:21.699255  1250 net.cpp:394] conv1_2 <- conv1_1
I1104 20:01:21.699260  1250 net.cpp:356] conv1_2 -> conv1_2
I1104 20:01:21.699265  1250 net.cpp:96] Setting up conv1_2
I1104 20:01:21.700263  1250 net.cpp:103] Top shape: 8 64 224 224 (25690112)
I1104 20:01:21.700276  1250 layer_factory.hpp:78] Creating layer relu1_2
I1104 20:01:21.700281  1250 net.cpp:67] Creating Layer relu1_2
I1104 20:01:21.700284  1250 net.cpp:394] relu1_2 <- conv1_2
I1104 20:01:21.700289  1250 net.cpp:345] relu1_2 -> conv1_2 (in-place)
I1104 20:01:21.700294  1250 net.cpp:96] Setting up relu1_2
I1104 20:01:21.700299  1250 net.cpp:103] Top shape: 8 64 224 224 (25690112)
I1104 20:01:21.700301  1250 layer_factory.hpp:78] Creating layer pool1
I1104 20:01:21.700307  1250 net.cpp:67] Creating Layer pool1
I1104 20:01:21.700310  1250 net.cpp:394] pool1 <- conv1_2
I1104 20:01:21.700314  1250 net.cpp:356] pool1 -> pool1
I1104 20:01:21.700320  1250 net.cpp:96] Setting up pool1
I1104 20:01:21.700325  1250 net.cpp:103] Top shape: 8 64 112 112 (6422528)
I1104 20:01:21.700330  1250 layer_factory.hpp:78] Creating layer conv2_1
I1104 20:01:21.700335  1250 net.cpp:67] Creating Layer conv2_1
I1104 20:01:21.700337  1250 net.cpp:394] conv2_1 <- pool1
I1104 20:01:21.700341  1250 net.cpp:356] conv2_1 -> conv2_1
I1104 20:01:21.700346  1250 net.cpp:96] Setting up conv2_1
I1104 20:01:21.702374  1250 net.cpp:103] Top shape: 8 128 112 112 (12845056)
I1104 20:01:21.702389  1250 layer_factory.hpp:78] Creating layer relu2_1
I1104 20:01:21.702394  1250 net.cpp:67] Creating Layer relu2_1
I1104 20:01:21.702397  1250 net.cpp:394] relu2_1 <- conv2_1
I1104 20:01:21.702402  1250 net.cpp:345] relu2_1 -> conv2_1 (in-place)
I1104 20:01:21.702407  1250 net.cpp:96] Setting up relu2_1
I1104 20:01:21.702412  1250 net.cpp:103] Top shape: 8 128 112 112 (12845056)
I1104 20:01:21.702415  1250 layer_factory.hpp:78] Creating layer conv2_2
I1104 20:01:21.702420  1250 net.cpp:67] Creating Layer conv2_2
I1104 20:01:21.702422  1250 net.cpp:394] conv2_2 <- conv2_1
I1104 20:01:21.702427  1250 net.cpp:356] conv2_2 -> conv2_2
I1104 20:01:21.702433  1250 net.cpp:96] Setting up conv2_2
I1104 20:01:21.706187  1250 net.cpp:103] Top shape: 8 128 112 112 (12845056)
I1104 20:01:21.706203  1250 layer_factory.hpp:78] Creating layer relu2_2
I1104 20:01:21.706210  1250 net.cpp:67] Creating Layer relu2_2
I1104 20:01:21.706214  1250 net.cpp:394] relu2_2 <- conv2_2
I1104 20:01:21.706219  1250 net.cpp:345] relu2_2 -> conv2_2 (in-place)
I1104 20:01:21.706225  1250 net.cpp:96] Setting up relu2_2
I1104 20:01:21.706230  1250 net.cpp:103] Top shape: 8 128 112 112 (12845056)
I1104 20:01:21.706234  1250 layer_factory.hpp:78] Creating layer pool2
I1104 20:01:21.706239  1250 net.cpp:67] Creating Layer pool2
I1104 20:01:21.706243  1250 net.cpp:394] pool2 <- conv2_2
I1104 20:01:21.706246  1250 net.cpp:356] pool2 -> pool2
I1104 20:01:21.706251  1250 net.cpp:96] Setting up pool2
I1104 20:01:21.706259  1250 net.cpp:103] Top shape: 8 128 56 56 (3211264)
I1104 20:01:21.706261  1250 layer_factory.hpp:78] Creating layer conv3_1
I1104 20:01:21.706266  1250 net.cpp:67] Creating Layer conv3_1
I1104 20:01:21.706269  1250 net.cpp:394] conv3_1 <- pool2
I1104 20:01:21.706274  1250 net.cpp:356] conv3_1 -> conv3_1
I1104 20:01:21.706279  1250 net.cpp:96] Setting up conv3_1
I1104 20:01:21.713717  1250 net.cpp:103] Top shape: 8 256 56 56 (6422528)
I1104 20:01:21.713740  1250 layer_factory.hpp:78] Creating layer relu3_1
I1104 20:01:21.713748  1250 net.cpp:67] Creating Layer relu3_1
I1104 20:01:21.713762  1250 net.cpp:394] relu3_1 <- conv3_1
I1104 20:01:21.713768  1250 net.cpp:345] relu3_1 -> conv3_1 (in-place)
I1104 20:01:21.713774  1250 net.cpp:96] Setting up relu3_1
I1104 20:01:21.713780  1250 net.cpp:103] Top shape: 8 256 56 56 (6422528)
I1104 20:01:21.713783  1250 layer_factory.hpp:78] Creating layer conv3_2
I1104 20:01:21.713789  1250 net.cpp:67] Creating Layer conv3_2
I1104 20:01:21.713791  1250 net.cpp:394] conv3_2 <- conv3_1
I1104 20:01:21.713796  1250 net.cpp:356] conv3_2 -> conv3_2
I1104 20:01:21.713803  1250 net.cpp:96] Setting up conv3_2
I1104 20:01:21.728947  1250 net.cpp:103] Top shape: 8 256 56 56 (6422528)
I1104 20:01:21.728971  1250 layer_factory.hpp:78] Creating layer relu3_2
I1104 20:01:21.728978  1250 net.cpp:67] Creating Layer relu3_2
I1104 20:01:21.728982  1250 net.cpp:394] relu3_2 <- conv3_2
I1104 20:01:21.728991  1250 net.cpp:345] relu3_2 -> conv3_2 (in-place)
I1104 20:01:21.728998  1250 net.cpp:96] Setting up relu3_2
I1104 20:01:21.729003  1250 net.cpp:103] Top shape: 8 256 56 56 (6422528)
I1104 20:01:21.729007  1250 layer_factory.hpp:78] Creating layer conv3_3
I1104 20:01:21.729015  1250 net.cpp:67] Creating Layer conv3_3
I1104 20:01:21.729018  1250 net.cpp:394] conv3_3 <- conv3_2
I1104 20:01:21.729024  1250 net.cpp:356] conv3_3 -> conv3_3
I1104 20:01:21.729030  1250 net.cpp:96] Setting up conv3_3
I1104 20:01:21.744246  1250 net.cpp:103] Top shape: 8 256 56 56 (6422528)
I1104 20:01:21.744271  1250 layer_factory.hpp:78] Creating layer relu3_3
I1104 20:01:21.744278  1250 net.cpp:67] Creating Layer relu3_3
I1104 20:01:21.744283  1250 net.cpp:394] relu3_3 <- conv3_3
I1104 20:01:21.744292  1250 net.cpp:345] relu3_3 -> conv3_3 (in-place)
I1104 20:01:21.744299  1250 net.cpp:96] Setting up relu3_3
I1104 20:01:21.744304  1250 net.cpp:103] Top shape: 8 256 56 56 (6422528)
I1104 20:01:21.744307  1250 layer_factory.hpp:78] Creating layer pool3
I1104 20:01:21.744313  1250 net.cpp:67] Creating Layer pool3
I1104 20:01:21.744317  1250 net.cpp:394] pool3 <- conv3_3
I1104 20:01:21.744320  1250 net.cpp:356] pool3 -> pool3
I1104 20:01:21.744328  1250 net.cpp:96] Setting up pool3
I1104 20:01:21.744334  1250 net.cpp:103] Top shape: 8 256 28 28 (1605632)
I1104 20:01:21.744338  1250 layer_factory.hpp:78] Creating layer conv4_1
I1104 20:01:21.744343  1250 net.cpp:67] Creating Layer conv4_1
I1104 20:01:21.744346  1250 net.cpp:394] conv4_1 <- pool3
I1104 20:01:21.744352  1250 net.cpp:356] conv4_1 -> conv4_1
I1104 20:01:21.744357  1250 net.cpp:96] Setting up conv4_1
I1104 20:01:21.774099  1250 net.cpp:103] Top shape: 8 512 28 28 (3211264)
I1104 20:01:21.774127  1250 layer_factory.hpp:78] Creating layer relu4_1
I1104 20:01:21.774134  1250 net.cpp:67] Creating Layer relu4_1
I1104 20:01:21.774138  1250 net.cpp:394] relu4_1 <- conv4_1
I1104 20:01:21.774147  1250 net.cpp:345] relu4_1 -> conv4_1 (in-place)
I1104 20:01:21.774153  1250 net.cpp:96] Setting up relu4_1
I1104 20:01:21.774158  1250 net.cpp:103] Top shape: 8 512 28 28 (3211264)
I1104 20:01:21.774163  1250 layer_factory.hpp:78] Creating layer conv4_2
I1104 20:01:21.774168  1250 net.cpp:67] Creating Layer conv4_2
I1104 20:01:21.774171  1250 net.cpp:394] conv4_2 <- conv4_1
I1104 20:01:21.774178  1250 net.cpp:356] conv4_2 -> conv4_2
I1104 20:01:21.774183  1250 net.cpp:96] Setting up conv4_2
I1104 20:01:21.833549  1250 net.cpp:103] Top shape: 8 512 28 28 (3211264)
I1104 20:01:21.833581  1250 layer_factory.hpp:78] Creating layer relu4_2
I1104 20:01:21.833590  1250 net.cpp:67] Creating Layer relu4_2
I1104 20:01:21.833595  1250 net.cpp:394] relu4_2 <- conv4_2
I1104 20:01:21.833601  1250 net.cpp:345] relu4_2 -> conv4_2 (in-place)
I1104 20:01:21.833609  1250 net.cpp:96] Setting up relu4_2
I1104 20:01:21.833616  1250 net.cpp:103] Top shape: 8 512 28 28 (3211264)
I1104 20:01:21.833618  1250 layer_factory.hpp:78] Creating layer conv4_3
I1104 20:01:21.833624  1250 net.cpp:67] Creating Layer conv4_3
I1104 20:01:21.833627  1250 net.cpp:394] conv4_3 <- conv4_2
I1104 20:01:21.833632  1250 net.cpp:356] conv4_3 -> conv4_3
I1104 20:01:21.833639  1250 net.cpp:96] Setting up conv4_3
I1104 20:01:21.893328  1250 net.cpp:103] Top shape: 8 512 28 28 (3211264)
I1104 20:01:21.893354  1250 layer_factory.hpp:78] Creating layer relu4_3
I1104 20:01:21.893363  1250 net.cpp:67] Creating Layer relu4_3
I1104 20:01:21.893368  1250 net.cpp:394] relu4_3 <- conv4_3
I1104 20:01:21.893375  1250 net.cpp:345] relu4_3 -> conv4_3 (in-place)
I1104 20:01:21.893383  1250 net.cpp:96] Setting up relu4_3
I1104 20:01:21.893388  1250 net.cpp:103] Top shape: 8 512 28 28 (3211264)
I1104 20:01:21.893391  1250 layer_factory.hpp:78] Creating layer pool4
I1104 20:01:21.893396  1250 net.cpp:67] Creating Layer pool4
I1104 20:01:21.893399  1250 net.cpp:394] pool4 <- conv4_3
I1104 20:01:21.893404  1250 net.cpp:356] pool4 -> pool4
I1104 20:01:21.893409  1250 net.cpp:96] Setting up pool4
I1104 20:01:21.893416  1250 net.cpp:103] Top shape: 8 512 14 14 (802816)
I1104 20:01:21.893419  1250 layer_factory.hpp:78] Creating layer conv5_1
I1104 20:01:21.893426  1250 net.cpp:67] Creating Layer conv5_1
I1104 20:01:21.893435  1250 net.cpp:394] conv5_1 <- pool4
I1104 20:01:21.893440  1250 net.cpp:356] conv5_1 -> conv5_1
I1104 20:01:21.893445  1250 net.cpp:96] Setting up conv5_1
I1104 20:01:21.952780  1250 net.cpp:103] Top shape: 8 512 14 14 (802816)
I1104 20:01:21.952806  1250 layer_factory.hpp:78] Creating layer relu5_1
I1104 20:01:21.952814  1250 net.cpp:67] Creating Layer relu5_1
I1104 20:01:21.952819  1250 net.cpp:394] relu5_1 <- conv5_1
I1104 20:01:21.952827  1250 net.cpp:345] relu5_1 -> conv5_1 (in-place)
I1104 20:01:21.952834  1250 net.cpp:96] Setting up relu5_1
I1104 20:01:21.952841  1250 net.cpp:103] Top shape: 8 512 14 14 (802816)
I1104 20:01:21.952843  1250 layer_factory.hpp:78] Creating layer conv5_2
I1104 20:01:21.952848  1250 net.cpp:67] Creating Layer conv5_2
I1104 20:01:21.952852  1250 net.cpp:394] conv5_2 <- conv5_1
I1104 20:01:21.952857  1250 net.cpp:356] conv5_2 -> conv5_2
I1104 20:01:21.952863  1250 net.cpp:96] Setting up conv5_2
I1104 20:01:22.012410  1250 net.cpp:103] Top shape: 8 512 14 14 (802816)
I1104 20:01:22.012440  1250 layer_factory.hpp:78] Creating layer relu5_2
I1104 20:01:22.012449  1250 net.cpp:67] Creating Layer relu5_2
I1104 20:01:22.012454  1250 net.cpp:394] relu5_2 <- conv5_2
I1104 20:01:22.012460  1250 net.cpp:345] relu5_2 -> conv5_2 (in-place)
I1104 20:01:22.012467  1250 net.cpp:96] Setting up relu5_2
I1104 20:01:22.012473  1250 net.cpp:103] Top shape: 8 512 14 14 (802816)
I1104 20:01:22.012476  1250 layer_factory.hpp:78] Creating layer conv5_3
I1104 20:01:22.012485  1250 net.cpp:67] Creating Layer conv5_3
I1104 20:01:22.012488  1250 net.cpp:394] conv5_3 <- conv5_2
I1104 20:01:22.012493  1250 net.cpp:356] conv5_3 -> conv5_3
I1104 20:01:22.012498  1250 net.cpp:96] Setting up conv5_3
I1104 20:01:22.072096  1250 net.cpp:103] Top shape: 8 512 14 14 (802816)
I1104 20:01:22.072124  1250 layer_factory.hpp:78] Creating layer relu5_3
I1104 20:01:22.072132  1250 net.cpp:67] Creating Layer relu5_3
I1104 20:01:22.072136  1250 net.cpp:394] relu5_3 <- conv5_3
I1104 20:01:22.072144  1250 net.cpp:345] relu5_3 -> conv5_3 (in-place)
I1104 20:01:22.072150  1250 net.cpp:96] Setting up relu5_3
I1104 20:01:22.072156  1250 net.cpp:103] Top shape: 8 512 14 14 (802816)
I1104 20:01:22.072160  1250 layer_factory.hpp:78] Creating layer pool5
I1104 20:01:22.072170  1250 net.cpp:67] Creating Layer pool5
I1104 20:01:22.072173  1250 net.cpp:394] pool5 <- conv5_3
I1104 20:01:22.072180  1250 net.cpp:356] pool5 -> pool5
I1104 20:01:22.072185  1250 net.cpp:96] Setting up pool5
I1104 20:01:22.072193  1250 net.cpp:103] Top shape: 8 512 7 7 (200704)
I1104 20:01:22.072196  1250 layer_factory.hpp:78] Creating layer fc6
I1104 20:01:22.072202  1250 net.cpp:67] Creating Layer fc6
I1104 20:01:22.072206  1250 net.cpp:394] fc6 <- pool5
I1104 20:01:22.072209  1250 net.cpp:356] fc6 -> fc6
I1104 20:01:22.072214  1250 net.cpp:96] Setting up fc6
I1104 20:01:25.125458  1250 net.cpp:103] Top shape: 8 4096 1 1 (32768)
I1104 20:01:25.125486  1250 layer_factory.hpp:78] Creating layer relu6
I1104 20:01:25.125495  1250 net.cpp:67] Creating Layer relu6
I1104 20:01:25.125510  1250 net.cpp:394] relu6 <- fc6
I1104 20:01:25.125519  1250 net.cpp:345] relu6 -> fc6 (in-place)
I1104 20:01:25.125526  1250 net.cpp:96] Setting up relu6
I1104 20:01:25.125541  1250 net.cpp:103] Top shape: 8 4096 1 1 (32768)
I1104 20:01:25.125545  1250 layer_factory.hpp:78] Creating layer drop6
I1104 20:01:25.125550  1250 net.cpp:67] Creating Layer drop6
I1104 20:01:25.125553  1250 net.cpp:394] drop6 <- fc6
I1104 20:01:25.125557  1250 net.cpp:345] drop6 -> fc6 (in-place)
I1104 20:01:25.125561  1250 net.cpp:96] Setting up drop6
I1104 20:01:25.125566  1250 net.cpp:103] Top shape: 8 4096 1 1 (32768)
I1104 20:01:25.125568  1250 layer_factory.hpp:78] Creating layer fc7
I1104 20:01:25.125573  1250 net.cpp:67] Creating Layer fc7
I1104 20:01:25.125576  1250 net.cpp:394] fc7 <- fc6
I1104 20:01:25.125582  1250 net.cpp:356] fc7 -> fc7
I1104 20:01:25.125589  1250 net.cpp:96] Setting up fc7
I1104 20:01:25.549267  1250 net.cpp:103] Top shape: 8 4096 1 1 (32768)
I1104 20:01:25.549295  1250 layer_factory.hpp:78] Creating layer relu7
I1104 20:01:25.549304  1250 net.cpp:67] Creating Layer relu7
I1104 20:01:25.549309  1250 net.cpp:394] relu7 <- fc7
I1104 20:01:25.549316  1250 net.cpp:345] relu7 -> fc7 (in-place)
I1104 20:01:25.549324  1250 net.cpp:96] Setting up relu7
I1104 20:01:25.549337  1250 net.cpp:103] Top shape: 8 4096 1 1 (32768)
I1104 20:01:25.549340  1250 layer_factory.hpp:78] Creating layer drop7
I1104 20:01:25.549346  1250 net.cpp:67] Creating Layer drop7
I1104 20:01:25.549350  1250 net.cpp:394] drop7 <- fc7
I1104 20:01:25.549353  1250 net.cpp:345] drop7 -> fc7 (in-place)
I1104 20:01:25.549358  1250 net.cpp:96] Setting up drop7
I1104 20:01:25.549361  1250 net.cpp:103] Top shape: 8 4096 1 1 (32768)
I1104 20:01:25.549365  1250 layer_factory.hpp:78] Creating layer fc8_2
I1104 20:01:25.549371  1250 net.cpp:67] Creating Layer fc8_2
I1104 20:01:25.549376  1250 net.cpp:394] fc8_2 <- fc7
I1104 20:01:25.549379  1250 net.cpp:356] fc8_2 -> fc8_2
I1104 20:01:25.549386  1250 net.cpp:96] Setting up fc8_2
I1104 20:01:25.549595  1250 net.cpp:103] Top shape: 8 2 1 1 (16)
I1104 20:01:25.549603  1250 layer_factory.hpp:78] Creating layer fc8_2_fc8_2_0_split
I1104 20:01:25.549608  1250 net.cpp:67] Creating Layer fc8_2_fc8_2_0_split
I1104 20:01:25.549612  1250 net.cpp:394] fc8_2_fc8_2_0_split <- fc8_2
I1104 20:01:25.549615  1250 net.cpp:356] fc8_2_fc8_2_0_split -> fc8_2_fc8_2_0_split_0
I1104 20:01:25.549621  1250 net.cpp:356] fc8_2_fc8_2_0_split -> fc8_2_fc8_2_0_split_1
I1104 20:01:25.549626  1250 net.cpp:96] Setting up fc8_2_fc8_2_0_split
I1104 20:01:25.549630  1250 net.cpp:103] Top shape: 8 2 1 1 (16)
I1104 20:01:25.549633  1250 net.cpp:103] Top shape: 8 2 1 1 (16)
I1104 20:01:25.549636  1250 layer_factory.hpp:78] Creating layer loss
I1104 20:01:25.549643  1250 net.cpp:67] Creating Layer loss
I1104 20:01:25.549645  1250 net.cpp:394] loss <- fc8_2_fc8_2_0_split_0
I1104 20:01:25.549649  1250 net.cpp:394] loss <- label_data_1_split_0
I1104 20:01:25.549655  1250 net.cpp:356] loss -> (automatic)
I1104 20:01:25.549659  1250 net.cpp:96] Setting up loss
I1104 20:01:25.549665  1250 net.cpp:103] Top shape: 1 1 1 1 (1)
I1104 20:01:25.549669  1250 net.cpp:109]     with loss weight 1
I1104 20:01:25.549680  1250 layer_factory.hpp:78] Creating layer accuracy
I1104 20:01:25.549685  1250 net.cpp:67] Creating Layer accuracy
I1104 20:01:25.549689  1250 net.cpp:394] accuracy <- fc8_2_fc8_2_0_split_1
I1104 20:01:25.549692  1250 net.cpp:394] accuracy <- label_data_1_split_1
I1104 20:01:25.549700  1250 net.cpp:356] accuracy -> accuracy
I1104 20:01:25.549705  1250 net.cpp:96] Setting up accuracy
I1104 20:01:25.549713  1250 net.cpp:103] Top shape: 1 1 1 4 (4)
I1104 20:01:25.549716  1250 net.cpp:172] accuracy does not need backward computation.
I1104 20:01:25.549718  1250 net.cpp:170] loss needs backward computation.
I1104 20:01:25.549721  1250 net.cpp:170] fc8_2_fc8_2_0_split needs backward computation.
I1104 20:01:25.549724  1250 net.cpp:170] fc8_2 needs backward computation.
I1104 20:01:25.549727  1250 net.cpp:170] drop7 needs backward computation.
…
