…
I1106 15:23:42.963453 17240 net.cpp:275] The NetState phase (0) differed from the phase (1) specified by a rule in layer accuracy
I1106 15:23:42.963639 17240 net.cpp:39] Initializing net from parameters: 
name: "small"
layers {
  top: "data"
  top: "label"
  name: "data"
  type: IMAGE_DATA
  image_data_param {
    source: "/data/ad6813/devCaffe/caffe/data/misal/train.txt"
    batch_size: 32
    new_height: 256
    new_width: 256
  }
  include {
    phase: TRAIN
  }
  transform_param {
    mirror: true
    crop_size: 224
    mean_value: 86.752
    mean_value: 101.46
    mean_value: 104.6
  }
}
layers {
  bottom: "data"
  top: "conv1_1"
  name: "conv1_1"
  type: CONVOLUTION
  convolution_param {
    num_output: 64
    pad: 1
    kernel_size: 3
    weight_filler {
      type: "gaussian"
      std: 0.01
    }
    bias_filler {
      type: "constant"
      value: 0
    }
  }
}
layers {
  bottom: "conv1_1"
  top: "conv1_1"
  name: "relu1_1"
  type: RELU
}
layers {
  bottom: "conv1_1"
  top: "conv1_2"
  name: "conv1_2"
  type: CONVOLUTION
  convolution_param {
    num_output: 64
    pad: 1
    kernel_size: 3
    weight_filler {
      type: "gaussian"
      std: 0.01
    }
    bias_filler {
      type: "constant"
      value: 0
    }
  }
}
layers {
  bottom: "conv1_2"
  top: "conv1_2"
  name: "relu1_2"
  type: RELU
}
layers {
  bottom: "conv1_2"
  top: "pool1"
  name: "pool1"
  type: POOLING
  pooling_param {
    pool: MAX
    kernel_size: 2
    stride: 2
  }
}
layers {
  bottom: "pool1"
  top: "conv2_1"
  name: "conv2_1"
  type: CONVOLUTION
  convolution_param {
    num_output: 128
    pad: 1
    kernel_size: 3
    weight_filler {
      type: "gaussian"
      std: 0.01
    }
    bias_filler {
      type: "constant"
      value: 0
    }
  }
}
layers {
  bottom: "conv2_1"
  top: "conv2_1"
  name: "relu2_1"
  type: RELU
}
layers {
  bottom: "conv2_1"
  top: "conv2_2"
  name: "conv2_2"
  type: CONVOLUTION
  convolution_param {
    num_output: 128
    pad: 1
    kernel_size: 3
    weight_filler {
      type: "gaussian"
      std: 0.01
    }
    bias_filler {
      type: "constant"
      value: 0
    }
  }
}
layers {
  bottom: "conv2_2"
  top: "conv2_2"
  name: "relu2_2"
  type: RELU
}
layers {
  bottom: "conv2_2"
  top: "pool2"
  name: "pool2"
  type: POOLING
  pooling_param {
    pool: MAX
    kernel_size: 2
    stride: 2
  }
}
layers {
  bottom: "pool2"
  top: "conv3_1"
  name: "conv3_1"
  type: CONVOLUTION
  convolution_param {
    num_output: 256
    pad: 1
    kernel_size: 3
    weight_filler {
      type: "gaussian"
      std: 0.01
    }
    bias_filler {
      type: "constant"
      value: 0
    }
  }
}
layers {
  bottom: "conv3_1"
  top: "conv3_1"
  name: "relu3_1"
  type: RELU
}
layers {
  bottom: "conv3_1"
  top: "conv3_2"
  name: "conv3_2"
  type: CONVOLUTION
  convolution_param {
    num_output: 256
    pad: 1
    kernel_size: 3
    weight_filler {
      type: "gaussian"
      std: 0.01
    }
    bias_filler {
      type: "constant"
      value: 0
    }
  }
}
layers {
  bottom: "conv3_2"
  top: "conv3_2"
  name: "relu3_2"
  type: RELU
}
layers {
  bottom: "conv3_2"
  top: "conv3_3"
  name: "conv3_3"
  type: CONVOLUTION
  convolution_param {
    num_output: 256
    pad: 1
    kernel_size: 3
    weight_filler {
      type: "gaussian"
      std: 0.01
    }
    bias_filler {
      type: "constant"
      value: 0
    }
  }
}
layers {
  bottom: "conv3_3"
  top: "conv3_3"
  name: "relu3_3"
  type: RELU
}
layers {
  bottom: "conv3_3"
  top: "pool3"
  name: "pool3"
  type: POOLING
  pooling_param {
    pool: MAX
    kernel_size: 2
    stride: 2
  }
}
layers {
  bottom: "pool3"
  top: "conv4_1"
  name: "conv4_1"
  type: CONVOLUTION
  convolution_param {
    num_output: 512
    pad: 1
    kernel_size: 3
    weight_filler {
      type: "gaussian"
      std: 0.01
    }
    bias_filler {
      type: "constant"
      value: 0
    }
  }
}
layers {
  bottom: "conv4_1"
  top: "conv4_1"
  name: "relu4_1"
  type: RELU
}
layers {
  bottom: "conv4_1"
  top: "conv4_2"
  name: "conv4_2"
  type: CONVOLUTION
  convolution_param {
    num_output: 512
    pad: 1
    kernel_size: 3
    weight_filler {
      type: "gaussian"
      std: 0.01
    }
    bias_filler {
      type: "constant"
      value: 0
    }
  }
}
layers {
  bottom: "conv4_2"
  top: "conv4_2"
  name: "relu4_2"
  type: RELU
}
layers {
  bottom: "conv4_2"
  top: "conv4_3"
  name: "conv4_3"
  type: CONVOLUTION
  convolution_param {
    num_output: 512
    pad: 1
    kernel_size: 3
    weight_filler {
      type: "gaussian"
      std: 0.01
    }
    bias_filler {
      type: "constant"
      value: 0
    }
  }
}
layers {
  bottom: "conv4_3"
  top: "conv4_3"
  name: "relu4_3"
  type: RELU
}
layers {
  bottom: "conv4_3"
  top: "pool4"
  name: "pool4"
  type: POOLING
  pooling_param {
    pool: MAX
    kernel_size: 2
    stride: 2
  }
}
layers {
  bottom: "pool4"
  top: "conv5_1"
  name: "conv5_1"
  type: CONVOLUTION
  convolution_param {
    num_output: 512
    pad: 1
    kernel_size: 3
    weight_filler {
      type: "gaussian"
      std: 0.01
    }
    bias_filler {
      type: "constant"
      value: 0
    }
  }
}
layers {
  bottom: "conv5_1"
  top: "conv5_1"
  name: "relu5_1"
  type: RELU
}
layers {
  bottom: "conv5_1"
  top: "conv5_2"
  name: "conv5_2"
  type: CONVOLUTION
  convolution_param {
    num_output: 512
    pad: 1
    kernel_size: 3
    weight_filler {
      type: "gaussian"
      std: 0.01
    }
    bias_filler {
      type: "constant"
      value: 0
    }
  }
}
layers {
  bottom: "conv5_2"
  top: "conv5_2"
  name: "relu5_2"
  type: RELU
}
layers {
  bottom: "conv5_2"
  top: "conv5_3"
  name: "conv5_3"
  type: CONVOLUTION
  convolution_param {
    num_output: 512
    pad: 1
    kernel_size: 3
    weight_filler {
      type: "gaussian"
      std: 0.01
    }
    bias_filler {
      type: "constant"
      value: 0
    }
  }
}
layers {
  bottom: "conv5_3"
  top: "conv5_3"
  name: "relu5_3"
  type: RELU
}
layers {
  bottom: "conv5_3"
  top: "pool5"
  name: "pool5"
  type: POOLING
  pooling_param {
    pool: MAX
    kernel_size: 2
    stride: 2
  }
}
layers {
  bottom: "pool5"
  top: "fc6"
  name: "fc6"
  type: INNER_PRODUCT
  inner_product_param {
    num_output: 4096
    weight_filler {
      type: "gaussian"
      std: 0.01
    }
    bias_filler {
      type: "constant"
      value: 0
    }
  }
}
layers {
  bottom: "fc6"
  top: "fc6"
  name: "relu6"
  type: RELU
}
layers {
  bottom: "fc6"
  top: "fc6"
  name: "drop6"
  type: DROPOUT
  dropout_param {
    dropout_ratio: 0.5
  }
}
layers {
  bottom: "fc6"
  top: "fc7"
  name: "fc7"
  type: INNER_PRODUCT
  inner_product_param {
    num_output: 4096
    weight_filler {
      type: "gaussian"
      std: 0.01
    }
    bias_filler {
      type: "constant"
      value: 0
    }
  }
}
layers {
  bottom: "fc7"
  top: "fc7"
  name: "relu7"
  type: RELU
}
layers {
  bottom: "fc7"
  top: "fc7"
  name: "drop7"
  type: DROPOUT
  dropout_param {
    dropout_ratio: 0.5
  }
}
layers {
  bottom: "fc7"
  top: "fc8_2"
  name: "fc8_2"
  type: INNER_PRODUCT
  inner_product_param {
    num_output: 2
    weight_filler {
      type: "gaussian"
      std: 0.01
    }
    bias_filler {
      type: "constant"
      value: 0
    }
  }
}
layers {
  bottom: "fc8_2"
  bottom: "label"
  name: "loss"
  type: SOFTMAX_LOSS
}
state {
  phase: TRAIN
}
I1106 15:23:42.963769 17240 layer_factory.hpp:78] Creating layer data
I1106 15:23:42.963788 17240 net.cpp:67] Creating Layer data
I1106 15:23:42.963794 17240 net.cpp:356] data -> data
I1106 15:23:42.963810 17240 net.cpp:356] data -> label
I1106 15:23:42.963822 17240 net.cpp:96] Setting up data
I1106 15:23:42.963829 17240 image_data_layer.cpp:34] Opening file /data/ad6813/devCaffe/caffe/data/misal/train.txt
I1106 15:23:42.993003 17240 image_data_layer.cpp:49] A total of 2696 images.
I1106 15:23:43.011122 17240 image_data_layer.cpp:78] output data size: 32,3,224,224
I1106 15:23:43.013929 17240 net.cpp:103] Top shape: 32 3 224 224 (4816896)
I1106 15:23:43.013957 17240 net.cpp:103] Top shape: 32 1 1 1 (32)
I1106 15:23:43.013962 17240 layer_factory.hpp:78] Creating layer conv1_1
I1106 15:23:43.013978 17240 net.cpp:67] Creating Layer conv1_1
I1106 15:23:43.013981 17240 net.cpp:394] conv1_1 <- data
I1106 15:23:43.013994 17240 net.cpp:356] conv1_1 -> conv1_1
I1106 15:23:43.014005 17240 net.cpp:96] Setting up conv1_1
I1106 15:23:43.030249 17240 net.cpp:103] Top shape: 32 64 224 224 (102760448)
I1106 15:23:43.030284 17240 layer_factory.hpp:78] Creating layer relu1_1
I1106 15:23:43.030297 17240 net.cpp:67] Creating Layer relu1_1
I1106 15:23:43.030300 17240 net.cpp:394] relu1_1 <- conv1_1
I1106 15:23:43.030308 17240 net.cpp:345] relu1_1 -> conv1_1 (in-place)
I1106 15:23:43.030316 17240 net.cpp:96] Setting up relu1_1
I1106 15:23:43.030324 17240 net.cpp:103] Top shape: 32 64 224 224 (102760448)
I1106 15:23:43.030328 17240 layer_factory.hpp:78] Creating layer conv1_2
I1106 15:23:43.030334 17240 net.cpp:67] Creating Layer conv1_2
I1106 15:23:43.030338 17240 net.cpp:394] conv1_2 <- conv1_1
I1106 15:23:43.030342 17240 net.cpp:356] conv1_2 -> conv1_2
I1106 15:23:43.030349 17240 net.cpp:96] Setting up conv1_2
I1106 15:23:43.031388 17240 net.cpp:103] Top shape: 32 64 224 224 (102760448)
I1106 15:23:43.031401 17240 layer_factory.hpp:78] Creating layer relu1_2
I1106 15:23:43.031407 17240 net.cpp:67] Creating Layer relu1_2
I1106 15:23:43.031410 17240 net.cpp:394] relu1_2 <- conv1_2
I1106 15:23:43.031415 17240 net.cpp:345] relu1_2 -> conv1_2 (in-place)
I1106 15:23:43.031419 17240 net.cpp:96] Setting up relu1_2
I1106 15:23:43.031424 17240 net.cpp:103] Top shape: 32 64 224 224 (102760448)
I1106 15:23:43.031429 17240 layer_factory.hpp:78] Creating layer pool1
I1106 15:23:43.031436 17240 net.cpp:67] Creating Layer pool1
I1106 15:23:43.031440 17240 net.cpp:394] pool1 <- conv1_2
I1106 15:23:43.031445 17240 net.cpp:356] pool1 -> pool1
I1106 15:23:43.031450 17240 net.cpp:96] Setting up pool1
I1106 15:23:43.031466 17240 net.cpp:103] Top shape: 32 64 112 112 (25690112)
I1106 15:23:43.031471 17240 layer_factory.hpp:78] Creating layer conv2_1
I1106 15:23:43.031476 17240 net.cpp:67] Creating Layer conv2_1
I1106 15:23:43.031479 17240 net.cpp:394] conv2_1 <- pool1
I1106 15:23:43.031484 17240 net.cpp:356] conv2_1 -> conv2_1
I1106 15:23:43.031489 17240 net.cpp:96] Setting up conv2_1
I1106 15:23:43.033403 17240 net.cpp:103] Top shape: 32 128 112 112 (51380224)
I1106 15:23:43.033418 17240 layer_factory.hpp:78] Creating layer relu2_1
I1106 15:23:43.033423 17240 net.cpp:67] Creating Layer relu2_1
I1106 15:23:43.033427 17240 net.cpp:394] relu2_1 <- conv2_1
I1106 15:23:43.033432 17240 net.cpp:345] relu2_1 -> conv2_1 (in-place)
I1106 15:23:43.033435 17240 net.cpp:96] Setting up relu2_1
I1106 15:23:43.033440 17240 net.cpp:103] Top shape: 32 128 112 112 (51380224)
I1106 15:23:43.033443 17240 layer_factory.hpp:78] Creating layer conv2_2
I1106 15:23:43.033450 17240 net.cpp:67] Creating Layer conv2_2
I1106 15:23:43.033454 17240 net.cpp:394] conv2_2 <- conv2_1
I1106 15:23:43.033459 17240 net.cpp:356] conv2_2 -> conv2_2
I1106 15:23:43.033463 17240 net.cpp:96] Setting up conv2_2
I1106 15:23:43.037184 17240 net.cpp:103] Top shape: 32 128 112 112 (51380224)
I1106 15:23:43.037195 17240 layer_factory.hpp:78] Creating layer relu2_2
I1106 15:23:43.037200 17240 net.cpp:67] Creating Layer relu2_2
I1106 15:23:43.037204 17240 net.cpp:394] relu2_2 <- conv2_2
I1106 15:23:43.037207 17240 net.cpp:345] relu2_2 -> conv2_2 (in-place)
I1106 15:23:43.037212 17240 net.cpp:96] Setting up relu2_2
I1106 15:23:43.037217 17240 net.cpp:103] Top shape: 32 128 112 112 (51380224)
I1106 15:23:43.037220 17240 layer_factory.hpp:78] Creating layer pool2
I1106 15:23:43.037235 17240 net.cpp:67] Creating Layer pool2
I1106 15:23:43.037238 17240 net.cpp:394] pool2 <- conv2_2
I1106 15:23:43.037242 17240 net.cpp:356] pool2 -> pool2
I1106 15:23:43.037247 17240 net.cpp:96] Setting up pool2
I1106 15:23:43.037253 17240 net.cpp:103] Top shape: 32 128 56 56 (12845056)
I1106 15:23:43.037256 17240 layer_factory.hpp:78] Creating layer conv3_1
I1106 15:23:43.037262 17240 net.cpp:67] Creating Layer conv3_1
I1106 15:23:43.037266 17240 net.cpp:394] conv3_1 <- pool2
I1106 15:23:43.037271 17240 net.cpp:356] conv3_1 -> conv3_1
I1106 15:23:43.037276 17240 net.cpp:96] Setting up conv3_1
I1106 15:23:43.044658 17240 net.cpp:103] Top shape: 32 256 56 56 (25690112)
I1106 15:23:43.044674 17240 layer_factory.hpp:78] Creating layer relu3_1
I1106 15:23:43.044679 17240 net.cpp:67] Creating Layer relu3_1
I1106 15:23:43.044682 17240 net.cpp:394] relu3_1 <- conv3_1
I1106 15:23:43.044687 17240 net.cpp:345] relu3_1 -> conv3_1 (in-place)
I1106 15:23:43.044692 17240 net.cpp:96] Setting up relu3_1
I1106 15:23:43.044697 17240 net.cpp:103] Top shape: 32 256 56 56 (25690112)
I1106 15:23:43.044699 17240 layer_factory.hpp:78] Creating layer conv3_2
I1106 15:23:43.044704 17240 net.cpp:67] Creating Layer conv3_2
I1106 15:23:43.044708 17240 net.cpp:394] conv3_2 <- conv3_1
I1106 15:23:43.044714 17240 net.cpp:356] conv3_2 -> conv3_2
I1106 15:23:43.044719 17240 net.cpp:96] Setting up conv3_2
I1106 15:23:43.059543 17240 net.cpp:103] Top shape: 32 256 56 56 (25690112)
I1106 15:23:43.059558 17240 layer_factory.hpp:78] Creating layer relu3_2
I1106 15:23:43.059566 17240 net.cpp:67] Creating Layer relu3_2
I1106 15:23:43.059569 17240 net.cpp:394] relu3_2 <- conv3_2
I1106 15:23:43.059574 17240 net.cpp:345] relu3_2 -> conv3_2 (in-place)
I1106 15:23:43.059579 17240 net.cpp:96] Setting up relu3_2
I1106 15:23:43.059584 17240 net.cpp:103] Top shape: 32 256 56 56 (25690112)
I1106 15:23:43.059587 17240 layer_factory.hpp:78] Creating layer conv3_3
I1106 15:23:43.059592 17240 net.cpp:67] Creating Layer conv3_3
I1106 15:23:43.059595 17240 net.cpp:394] conv3_3 <- conv3_2
I1106 15:23:43.059599 17240 net.cpp:356] conv3_3 -> conv3_3
I1106 15:23:43.059604 17240 net.cpp:96] Setting up conv3_3
I1106 15:23:43.074328 17240 net.cpp:103] Top shape: 32 256 56 56 (25690112)
I1106 15:23:43.074347 17240 layer_factory.hpp:78] Creating layer relu3_3
I1106 15:23:43.074359 17240 net.cpp:67] Creating Layer relu3_3
I1106 15:23:43.074363 17240 net.cpp:394] relu3_3 <- conv3_3
I1106 15:23:43.074368 17240 net.cpp:345] relu3_3 -> conv3_3 (in-place)
I1106 15:23:43.074374 17240 net.cpp:96] Setting up relu3_3
I1106 15:23:43.074380 17240 net.cpp:103] Top shape: 32 256 56 56 (25690112)
I1106 15:23:43.074383 17240 layer_factory.hpp:78] Creating layer pool3
I1106 15:23:43.074389 17240 net.cpp:67] Creating Layer pool3
I1106 15:23:43.074393 17240 net.cpp:394] pool3 <- conv3_3
I1106 15:23:43.074398 17240 net.cpp:356] pool3 -> pool3
I1106 15:23:43.074403 17240 net.cpp:96] Setting up pool3
I1106 15:23:43.074409 17240 net.cpp:103] Top shape: 32 256 28 28 (6422528)
I1106 15:23:43.074412 17240 layer_factory.hpp:78] Creating layer conv4_1
I1106 15:23:43.074419 17240 net.cpp:67] Creating Layer conv4_1
I1106 15:23:43.074422 17240 net.cpp:394] conv4_1 <- pool3
I1106 15:23:43.074427 17240 net.cpp:356] conv4_1 -> conv4_1
I1106 15:23:43.074431 17240 net.cpp:96] Setting up conv4_1
I1106 15:23:43.103510 17240 net.cpp:103] Top shape: 32 512 28 28 (12845056)
I1106 15:23:43.103531 17240 layer_factory.hpp:78] Creating layer relu4_1
I1106 15:23:43.103538 17240 net.cpp:67] Creating Layer relu4_1
I1106 15:23:43.103543 17240 net.cpp:394] relu4_1 <- conv4_1
I1106 15:23:43.103550 17240 net.cpp:345] relu4_1 -> conv4_1 (in-place)
I1106 15:23:43.103557 17240 net.cpp:96] Setting up relu4_1
I1106 15:23:43.103562 17240 net.cpp:103] Top shape: 32 512 28 28 (12845056)
I1106 15:23:43.103566 17240 layer_factory.hpp:78] Creating layer conv4_2
I1106 15:23:43.103572 17240 net.cpp:67] Creating Layer conv4_2
I1106 15:23:43.103575 17240 net.cpp:394] conv4_2 <- conv4_1
I1106 15:23:43.103590 17240 net.cpp:356] conv4_2 -> conv4_2
I1106 15:23:43.103595 17240 net.cpp:96] Setting up conv4_2
I1106 15:23:43.161196 17240 net.cpp:103] Top shape: 32 512 28 28 (12845056)
I1106 15:23:43.161223 17240 layer_factory.hpp:78] Creating layer relu4_2
I1106 15:23:43.161232 17240 net.cpp:67] Creating Layer relu4_2
I1106 15:23:43.161237 17240 net.cpp:394] relu4_2 <- conv4_2
I1106 15:23:43.161243 17240 net.cpp:345] relu4_2 -> conv4_2 (in-place)
I1106 15:23:43.161250 17240 net.cpp:96] Setting up relu4_2
I1106 15:23:43.161257 17240 net.cpp:103] Top shape: 32 512 28 28 (12845056)
I1106 15:23:43.161259 17240 layer_factory.hpp:78] Creating layer conv4_3
I1106 15:23:43.161268 17240 net.cpp:67] Creating Layer conv4_3
I1106 15:23:43.161272 17240 net.cpp:394] conv4_3 <- conv4_2
I1106 15:23:43.161276 17240 net.cpp:356] conv4_3 -> conv4_3
I1106 15:23:43.161281 17240 net.cpp:96] Setting up conv4_3
I1106 15:23:43.219148 17240 net.cpp:103] Top shape: 32 512 28 28 (12845056)
I1106 15:23:43.219171 17240 layer_factory.hpp:78] Creating layer relu4_3
I1106 15:23:43.219177 17240 net.cpp:67] Creating Layer relu4_3
I1106 15:23:43.219182 17240 net.cpp:394] relu4_3 <- conv4_3
I1106 15:23:43.219190 17240 net.cpp:345] relu4_3 -> conv4_3 (in-place)
I1106 15:23:43.219197 17240 net.cpp:96] Setting up relu4_3
I1106 15:23:43.219202 17240 net.cpp:103] Top shape: 32 512 28 28 (12845056)
I1106 15:23:43.219207 17240 layer_factory.hpp:78] Creating layer pool4
I1106 15:23:43.219211 17240 net.cpp:67] Creating Layer pool4
I1106 15:23:43.219214 17240 net.cpp:394] pool4 <- conv4_3
I1106 15:23:43.219219 17240 net.cpp:356] pool4 -> pool4
I1106 15:23:43.219224 17240 net.cpp:96] Setting up pool4
I1106 15:23:43.219233 17240 net.cpp:103] Top shape: 32 512 14 14 (3211264)
I1106 15:23:43.219235 17240 layer_factory.hpp:78] Creating layer conv5_1
I1106 15:23:43.219243 17240 net.cpp:67] Creating Layer conv5_1
I1106 15:23:43.219245 17240 net.cpp:394] conv5_1 <- pool4
I1106 15:23:43.219251 17240 net.cpp:356] conv5_1 -> conv5_1
I1106 15:23:43.219259 17240 net.cpp:96] Setting up conv5_1
I1106 15:23:43.276811 17240 net.cpp:103] Top shape: 32 512 14 14 (3211264)
I1106 15:23:43.276837 17240 layer_factory.hpp:78] Creating layer relu5_1
I1106 15:23:43.276845 17240 net.cpp:67] Creating Layer relu5_1
I1106 15:23:43.276850 17240 net.cpp:394] relu5_1 <- conv5_1
I1106 15:23:43.276859 17240 net.cpp:345] relu5_1 -> conv5_1 (in-place)
I1106 15:23:43.276866 17240 net.cpp:96] Setting up relu5_1
I1106 15:23:43.276872 17240 net.cpp:103] Top shape: 32 512 14 14 (3211264)
I1106 15:23:43.276875 17240 layer_factory.hpp:78] Creating layer conv5_2
I1106 15:23:43.276882 17240 net.cpp:67] Creating Layer conv5_2
I1106 15:23:43.276885 17240 net.cpp:394] conv5_2 <- conv5_1
I1106 15:23:43.276892 17240 net.cpp:356] conv5_2 -> conv5_2
I1106 15:23:43.276898 17240 net.cpp:96] Setting up conv5_2
I1106 15:23:43.334595 17240 net.cpp:103] Top shape: 32 512 14 14 (3211264)
I1106 15:23:43.334621 17240 layer_factory.hpp:78] Creating layer relu5_2
I1106 15:23:43.334628 17240 net.cpp:67] Creating Layer relu5_2
I1106 15:23:43.334633 17240 net.cpp:394] relu5_2 <- conv5_2
I1106 15:23:43.334642 17240 net.cpp:345] relu5_2 -> conv5_2 (in-place)
I1106 15:23:43.334650 17240 net.cpp:96] Setting up relu5_2
I1106 15:23:43.334655 17240 net.cpp:103] Top shape: 32 512 14 14 (3211264)
I1106 15:23:43.334658 17240 layer_factory.hpp:78] Creating layer conv5_3
I1106 15:23:43.334663 17240 net.cpp:67] Creating Layer conv5_3
I1106 15:23:43.334666 17240 net.cpp:394] conv5_3 <- conv5_2
I1106 15:23:43.334671 17240 net.cpp:356] conv5_3 -> conv5_3
I1106 15:23:43.334677 17240 net.cpp:96] Setting up conv5_3
I1106 15:23:43.392045 17240 net.cpp:103] Top shape: 32 512 14 14 (3211264)
I1106 15:23:43.392070 17240 layer_factory.hpp:78] Creating layer relu5_3
I1106 15:23:43.392077 17240 net.cpp:67] Creating Layer relu5_3
I1106 15:23:43.392081 17240 net.cpp:394] relu5_3 <- conv5_3
I1106 15:23:43.392089 17240 net.cpp:345] relu5_3 -> conv5_3 (in-place)
I1106 15:23:43.392096 17240 net.cpp:96] Setting up relu5_3
I1106 15:23:43.392101 17240 net.cpp:103] Top shape: 32 512 14 14 (3211264)
I1106 15:23:43.392113 17240 layer_factory.hpp:78] Creating layer pool5
I1106 15:23:43.392119 17240 net.cpp:67] Creating Layer pool5
I1106 15:23:43.392122 17240 net.cpp:394] pool5 <- conv5_3
I1106 15:23:43.392128 17240 net.cpp:356] pool5 -> pool5
I1106 15:23:43.392134 17240 net.cpp:96] Setting up pool5
I1106 15:23:43.392141 17240 net.cpp:103] Top shape: 32 512 7 7 (802816)
I1106 15:23:43.392145 17240 layer_factory.hpp:78] Creating layer fc6
I1106 15:23:43.392158 17240 net.cpp:67] Creating Layer fc6
I1106 15:23:43.392163 17240 net.cpp:394] fc6 <- pool5
I1106 15:23:43.392168 17240 net.cpp:356] fc6 -> fc6
I1106 15:23:43.392174 17240 net.cpp:96] Setting up fc6
I1106 15:23:45.794673 17240 net.cpp:103] Top shape: 32 4096 1 1 (131072)
I1106 15:23:45.794713 17240 layer_factory.hpp:78] Creating layer relu6
I1106 15:23:45.794723 17240 net.cpp:67] Creating Layer relu6
I1106 15:23:45.794726 17240 net.cpp:394] relu6 <- fc6
I1106 15:23:45.794734 17240 net.cpp:345] relu6 -> fc6 (in-place)
I1106 15:23:45.794740 17240 net.cpp:96] Setting up relu6
I1106 15:23:45.794754 17240 net.cpp:103] Top shape: 32 4096 1 1 (131072)
I1106 15:23:45.794757 17240 layer_factory.hpp:78] Creating layer drop6
I1106 15:23:45.794766 17240 net.cpp:67] Creating Layer drop6
I1106 15:23:45.794770 17240 net.cpp:394] drop6 <- fc6
I1106 15:23:45.794773 17240 net.cpp:345] drop6 -> fc6 (in-place)
I1106 15:23:45.794777 17240 net.cpp:96] Setting up drop6
I1106 15:23:45.794782 17240 net.cpp:103] Top shape: 32 4096 1 1 (131072)
I1106 15:23:45.794786 17240 layer_factory.hpp:78] Creating layer fc7
I1106 15:23:45.794793 17240 net.cpp:67] Creating Layer fc7
I1106 15:23:45.794796 17240 net.cpp:394] fc7 <- fc6
I1106 15:23:45.794800 17240 net.cpp:356] fc7 -> fc7
I1106 15:23:45.794806 17240 net.cpp:96] Setting up fc7
I1106 15:23:46.183799 17240 net.cpp:103] Top shape: 32 4096 1 1 (131072)
I1106 15:23:46.183838 17240 layer_factory.hpp:78] Creating layer relu7
I1106 15:23:46.183847 17240 net.cpp:67] Creating Layer relu7
I1106 15:23:46.183851 17240 net.cpp:394] relu7 <- fc7
I1106 15:23:46.183858 17240 net.cpp:345] relu7 -> fc7 (in-place)
I1106 15:23:46.183864 17240 net.cpp:96] Setting up relu7
I1106 15:23:46.183878 17240 net.cpp:103] Top shape: 32 4096 1 1 (131072)
I1106 15:23:46.183882 17240 layer_factory.hpp:78] Creating layer drop7
I1106 15:23:46.183888 17240 net.cpp:67] Creating Layer drop7
I1106 15:23:46.183892 17240 net.cpp:394] drop7 <- fc7
I1106 15:23:46.183895 17240 net.cpp:345] drop7 -> fc7 (in-place)
I1106 15:23:46.183900 17240 net.cpp:96] Setting up drop7
I1106 15:23:46.183904 17240 net.cpp:103] Top shape: 32 4096 1 1 (131072)
I1106 15:23:46.183907 17240 layer_factory.hpp:78] Creating layer fc8_2
I1106 15:23:46.183912 17240 net.cpp:67] Creating Layer fc8_2
I1106 15:23:46.183915 17240 net.cpp:394] fc8_2 <- fc7
I1106 15:23:46.183922 17240 net.cpp:356] fc8_2 -> fc8_2
I1106 15:23:46.183928 17240 net.cpp:96] Setting up fc8_2
I1106 15:23:46.184144 17240 net.cpp:103] Top shape: 32 2 1 1 (64)
I1106 15:23:46.184151 17240 layer_factory.hpp:78] Creating layer loss
I1106 15:23:46.184161 17240 net.cpp:67] Creating Layer loss
I1106 15:23:46.184166 17240 net.cpp:394] loss <- fc8_2
I1106 15:23:46.184170 17240 net.cpp:394] loss <- label
I1106 15:23:46.184177 17240 net.cpp:356] loss -> (automatic)
I1106 15:23:46.184181 17240 net.cpp:96] Setting up loss
I1106 15:23:46.184190 17240 net.cpp:103] Top shape: 1 1 1 1 (1)
I1106 15:23:46.184195 17240 net.cpp:109]     with loss weight 1
I1106 15:23:46.184223 17240 net.cpp:170] loss needs backward computation.
I1106 15:23:46.184229 17240 net.cpp:170] fc8_2 needs backward computation.
I1106 15:23:46.184232 17240 net.cpp:170] drop7 needs backward computation.
I1106 15:23:46.184234 17240 net.cpp:170] relu7 needs backward computation.
I1106 15:23:46.184237 17240 net.cpp:170] fc7 needs backward computation.
…
I1106 15:23:46.185220 17240 net.cpp:275] The NetState phase (1) differed from the phase (0) specified by a rule in layer data
I1106 15:23:46.185422 17240 net.cpp:39] Initializing net from parameters: 
name: "small"
layers {
  top: "data"
  top: "label"
  name: "data"
  type: IMAGE_DATA
  image_data_param {
    source: "/data/ad6813/devCaffe/caffe/data/misal/val.txt"
    batch_size: 8
    new_height: 256
    new_width: 256
  }
  include {
    phase: TEST
  }
  transform_param {
    mirror: true
    crop_size: 224
    mean_value: 86.752
    mean_value: 101.46
    mean_value: 104.6
  }
}
layers {
  bottom: "data"
  top: "conv1_1"
  name: "conv1_1"
  type: CONVOLUTION
  convolution_param {
    num_output: 64
    pad: 1
    kernel_size: 3
    weight_filler {
      type: "gaussian"
      std: 0.01
    }
    bias_filler {
      type: "constant"
      value: 0
    }
  }
}
layers {
  bottom: "conv1_1"
  top: "conv1_1"
  name: "relu1_1"
  type: RELU
}
layers {
  bottom: "conv1_1"
  top: "conv1_2"
  name: "conv1_2"
  type: CONVOLUTION
  convolution_param {
    num_output: 64
    pad: 1
    kernel_size: 3
    weight_filler {
      type: "gaussian"
      std: 0.01
    }
    bias_filler {
      type: "constant"
      value: 0
    }
  }
}
layers {
  bottom: "conv1_2"
  top: "conv1_2"
  name: "relu1_2"
  type: RELU
}
layers {
  bottom: "conv1_2"
  top: "pool1"
  name: "pool1"
  type: POOLING
  pooling_param {
    pool: MAX
    kernel_size: 2
    stride: 2
  }
}
layers {
  bottom: "pool1"
  top: "conv2_1"
  name: "conv2_1"
  type: CONVOLUTION
  convolution_param {
    num_output: 128
    pad: 1
    kernel_size: 3
    weight_filler {
      type: "gaussian"
      std: 0.01
    }
    bias_filler {
      type: "constant"
      value: 0
    }
  }
}
layers {
  bottom: "conv2_1"
  top: "conv2_1"
  name: "relu2_1"
  type: RELU
}
layers {
  bottom: "conv2_1"
  top: "conv2_2"
  name: "conv2_2"
  type: CONVOLUTION
  convolution_param {
    num_output: 128
    pad: 1
    kernel_size: 3
    weight_filler {
      type: "gaussian"
      std: 0.01
    }
    bias_filler {
      type: "constant"
      value: 0
    }
  }
}
layers {
  bottom: "conv2_2"
  top: "conv2_2"
  name: "relu2_2"
  type: RELU
}
layers {
  bottom: "conv2_2"
  top: "pool2"
  name: "pool2"
  type: POOLING
  pooling_param {
    pool: MAX
    kernel_size: 2
    stride: 2
  }
}
layers {
  bottom: "pool2"
  top: "conv3_1"
  name: "conv3_1"
  type: CONVOLUTION
  convolution_param {
    num_output: 256
    pad: 1
    kernel_size: 3
    weight_filler {
      type: "gaussian"
      std: 0.01
    }
    bias_filler {
      type: "constant"
      value: 0
    }
  }
}
layers {
  bottom: "conv3_1"
  top: "conv3_1"
  name: "relu3_1"
  type: RELU
}
layers {
  bottom: "conv3_1"
  top: "conv3_2"
  name: "conv3_2"
  type: CONVOLUTION
  convolution_param {
    num_output: 256
    pad: 1
    kernel_size: 3
    weight_filler {
      type: "gaussian"
      std: 0.01
    }
    bias_filler {
      type: "constant"
      value: 0
    }
  }
}
layers {
  bottom: "conv3_2"
  top: "conv3_2"
  name: "relu3_2"
  type: RELU
}
layers {
  bottom: "conv3_2"
  top: "conv3_3"
  name: "conv3_3"
  type: CONVOLUTION
  convolution_param {
    num_output: 256
    pad: 1
    kernel_size: 3
    weight_filler {
      type: "gaussian"
      std: 0.01
    }
    bias_filler {
      type: "constant"
      value: 0
    }
  }
}
layers {
  bottom: "conv3_3"
  top: "conv3_3"
  name: "relu3_3"
  type: RELU
}
layers {
  bottom: "conv3_3"
  top: "pool3"
  name: "pool3"
  type: POOLING
  pooling_param {
    pool: MAX
    kernel_size: 2
    stride: 2
  }
}
layers {
  bottom: "pool3"
  top: "conv4_1"
  name: "conv4_1"
  type: CONVOLUTION
  convolution_param {
    num_output: 512
    pad: 1
    kernel_size: 3
    weight_filler {
      type: "gaussian"
      std: 0.01
    }
    bias_filler {
      type: "constant"
      value: 0
    }
  }
}
layers {
  bottom: "conv4_1"
  top: "conv4_1"
  name: "relu4_1"
  type: RELU
}
layers {
  bottom: "conv4_1"
  top: "conv4_2"
  name: "conv4_2"
  type: CONVOLUTION
  convolution_param {
    num_output: 512
    pad: 1
    kernel_size: 3
    weight_filler {
      type: "gaussian"
      std: 0.01
    }
    bias_filler {
      type: "constant"
      value: 0
    }
  }
}
layers {
  bottom: "conv4_2"
  top: "conv4_2"
  name: "relu4_2"
  type: RELU
}
layers {
  bottom: "conv4_2"
  top: "conv4_3"
  name: "conv4_3"
  type: CONVOLUTION
  convolution_param {
    num_output: 512
    pad: 1
    kernel_size: 3
    weight_filler {
      type: "gaussian"
      std: 0.01
    }
    bias_filler {
      type: "constant"
      value: 0
    }
  }
}
layers {
  bottom: "conv4_3"
  top: "conv4_3"
  name: "relu4_3"
  type: RELU
}
layers {
  bottom: "conv4_3"
  top: "pool4"
  name: "pool4"
  type: POOLING
  pooling_param {
    pool: MAX
    kernel_size: 2
    stride: 2
  }
}
layers {
  bottom: "pool4"
  top: "conv5_1"
  name: "conv5_1"
  type: CONVOLUTION
  convolution_param {
    num_output: 512
    pad: 1
    kernel_size: 3
    weight_filler {
      type: "gaussian"
      std: 0.01
    }
    bias_filler {
      type: "constant"
      value: 0
    }
  }
}
layers {
  bottom: "conv5_1"
  top: "conv5_1"
  name: "relu5_1"
  type: RELU
}
layers {
  bottom: "conv5_1"
  top: "conv5_2"
  name: "conv5_2"
  type: CONVOLUTION
  convolution_param {
    num_output: 512
    pad: 1
    kernel_size: 3
    weight_filler {
      type: "gaussian"
      std: 0.01
    }
    bias_filler {
      type: "constant"
      value: 0
    }
  }
}
layers {
  bottom: "conv5_2"
  top: "conv5_2"
  name: "relu5_2"
  type: RELU
}
layers {
  bottom: "conv5_2"
  top: "conv5_3"
  name: "conv5_3"
  type: CONVOLUTION
  convolution_param {
    num_output: 512
    pad: 1
    kernel_size: 3
    weight_filler {
      type: "gaussian"
      std: 0.01
    }
    bias_filler {
      type: "constant"
      value: 0
    }
  }
}
layers {
  bottom: "conv5_3"
  top: "conv5_3"
  name: "relu5_3"
  type: RELU
}
layers {
  bottom: "conv5_3"
  top: "pool5"
  name: "pool5"
  type: POOLING
  pooling_param {
    pool: MAX
    kernel_size: 2
    stride: 2
  }
}
layers {
  bottom: "pool5"
  top: "fc6"
  name: "fc6"
  type: INNER_PRODUCT
  inner_product_param {
    num_output: 4096
    weight_filler {
      type: "gaussian"
      std: 0.01
    }
    bias_filler {
      type: "constant"
      value: 0
    }
  }
}
layers {
  bottom: "fc6"
  top: "fc6"
  name: "relu6"
  type: RELU
}
layers {
  bottom: "fc6"
  top: "fc6"
  name: "drop6"
  type: DROPOUT
  dropout_param {
    dropout_ratio: 0.5
  }
}
layers {
  bottom: "fc6"
  top: "fc7"
  name: "fc7"
  type: INNER_PRODUCT
  inner_product_param {
    num_output: 4096
    weight_filler {
      type: "gaussian"
      std: 0.01
    }
    bias_filler {
      type: "constant"
      value: 0
    }
  }
}
layers {
  bottom: "fc7"
  top: "fc7"
  name: "relu7"
  type: RELU
}
layers {
  bottom: "fc7"
  top: "fc7"
  name: "drop7"
  type: DROPOUT
  dropout_param {
    dropout_ratio: 0.5
  }
}
layers {
  bottom: "fc7"
  top: "fc8_2"
  name: "fc8_2"
  type: INNER_PRODUCT
  inner_product_param {
    num_output: 2
    weight_filler {
      type: "gaussian"
      std: 0.01
    }
    bias_filler {
      type: "constant"
      value: 0
    }
  }
}
layers {
  bottom: "fc8_2"
  bottom: "label"
  name: "loss"
  type: SOFTMAX_LOSS
}
layers {
  bottom: "fc8_2"
  bottom: "label"
  top: "accuracy"
  name: "accuracy"
  type: PER_CLASS_ACCURACY
  include {
    phase: TEST
  }
}
state {
  phase: TEST
}
I1106 15:23:46.185551 17240 layer_factory.hpp:78] Creating layer data
I1106 15:23:46.185561 17240 net.cpp:67] Creating Layer data
I1106 15:23:46.185565 17240 net.cpp:356] data -> data
I1106 15:23:46.185572 17240 net.cpp:356] data -> label
I1106 15:23:46.185578 17240 net.cpp:96] Setting up data
I1106 15:23:46.185582 17240 image_data_layer.cpp:34] Opening file /data/ad6813/devCaffe/caffe/data/misal/val.txt
I1106 15:23:46.185631 17240 image_data_layer.cpp:49] A total of 64 images.
I1106 15:23:46.202884 17240 image_data_layer.cpp:78] output data size: 8,3,224,224
I1106 15:23:46.203825 17240 net.cpp:103] Top shape: 8 3 224 224 (1204224)
I1106 15:23:46.203835 17240 net.cpp:103] Top shape: 8 1 1 1 (8)
I1106 15:23:46.203840 17240 layer_factory.hpp:78] Creating layer label_data_1_split
I1106 15:23:46.203852 17240 net.cpp:67] Creating Layer label_data_1_split
I1106 15:23:46.203856 17240 net.cpp:394] label_data_1_split <- label
I1106 15:23:46.203862 17240 net.cpp:356] label_data_1_split -> label_data_1_split_0
I1106 15:23:46.203871 17240 net.cpp:356] label_data_1_split -> label_data_1_split_1
I1106 15:23:46.203876 17240 net.cpp:96] Setting up label_data_1_split
I1106 15:23:46.203882 17240 net.cpp:103] Top shape: 8 1 1 1 (8)
I1106 15:23:46.203886 17240 net.cpp:103] Top shape: 8 1 1 1 (8)
I1106 15:23:46.203888 17240 layer_factory.hpp:78] Creating layer conv1_1
I1106 15:23:46.203894 17240 net.cpp:67] Creating Layer conv1_1
I1106 15:23:46.203897 17240 net.cpp:394] conv1_1 <- data
I1106 15:23:46.203902 17240 net.cpp:356] conv1_1 -> conv1_1
I1106 15:23:46.203907 17240 net.cpp:96] Setting up conv1_1
I1106 15:23:46.204056 17240 net.cpp:103] Top shape: 8 64 224 224 (25690112)
I1106 15:23:46.204069 17240 layer_factory.hpp:78] Creating layer relu1_1
I1106 15:23:46.204074 17240 net.cpp:67] Creating Layer relu1_1
I1106 15:23:46.204077 17240 net.cpp:394] relu1_1 <- conv1_1
I1106 15:23:46.204082 17240 net.cpp:345] relu1_1 -> conv1_1 (in-place)
I1106 15:23:46.204087 17240 net.cpp:96] Setting up relu1_1
I1106 15:23:46.204099 17240 net.cpp:103] Top shape: 8 64 224 224 (25690112)
I1106 15:23:46.204102 17240 layer_factory.hpp:78] Creating layer conv1_2
I1106 15:23:46.204108 17240 net.cpp:67] Creating Layer conv1_2
I1106 15:23:46.204112 17240 net.cpp:394] conv1_2 <- conv1_1
I1106 15:23:46.204115 17240 net.cpp:356] conv1_2 -> conv1_2
I1106 15:23:46.204120 17240 net.cpp:96] Setting up conv1_2
I1106 15:23:46.205078 17240 net.cpp:103] Top shape: 8 64 224 224 (25690112)
I1106 15:23:46.205090 17240 layer_factory.hpp:78] Creating layer relu1_2
I1106 15:23:46.205096 17240 net.cpp:67] Creating Layer relu1_2
I1106 15:23:46.205098 17240 net.cpp:394] relu1_2 <- conv1_2
I1106 15:23:46.205103 17240 net.cpp:345] relu1_2 -> conv1_2 (in-place)
I1106 15:23:46.205107 17240 net.cpp:96] Setting up relu1_2
I1106 15:23:46.205112 17240 net.cpp:103] Top shape: 8 64 224 224 (25690112)
I1106 15:23:46.205116 17240 layer_factory.hpp:78] Creating layer pool1
I1106 15:23:46.205121 17240 net.cpp:67] Creating Layer pool1
I1106 15:23:46.205123 17240 net.cpp:394] pool1 <- conv1_2
I1106 15:23:46.205127 17240 net.cpp:356] pool1 -> pool1
I1106 15:23:46.205132 17240 net.cpp:96] Setting up pool1
I1106 15:23:46.205139 17240 net.cpp:103] Top shape: 8 64 112 112 (6422528)
I1106 15:23:46.205142 17240 layer_factory.hpp:78] Creating layer conv2_1
I1106 15:23:46.205147 17240 net.cpp:67] Creating Layer conv2_1
I1106 15:23:46.205150 17240 net.cpp:394] conv2_1 <- pool1
I1106 15:23:46.205154 17240 net.cpp:356] conv2_1 -> conv2_1
I1106 15:23:46.205159 17240 net.cpp:96] Setting up conv2_1
I1106 15:23:46.207207 17240 net.cpp:103] Top shape: 8 128 112 112 (12845056)
I1106 15:23:46.207221 17240 layer_factory.hpp:78] Creating layer relu2_1
I1106 15:23:46.207227 17240 net.cpp:67] Creating Layer relu2_1
I1106 15:23:46.207231 17240 net.cpp:394] relu2_1 <- conv2_1
I1106 15:23:46.207236 17240 net.cpp:345] relu2_1 -> conv2_1 (in-place)
I1106 15:23:46.207239 17240 net.cpp:96] Setting up relu2_1
I1106 15:23:46.207244 17240 net.cpp:103] Top shape: 8 128 112 112 (12845056)
I1106 15:23:46.207248 17240 layer_factory.hpp:78] Creating layer conv2_2
I1106 15:23:46.207252 17240 net.cpp:67] Creating Layer conv2_2
I1106 15:23:46.207255 17240 net.cpp:394] conv2_2 <- conv2_1
I1106 15:23:46.207260 17240 net.cpp:356] conv2_2 -> conv2_2
I1106 15:23:46.207265 17240 net.cpp:96] Setting up conv2_2
I1106 15:23:46.210886 17240 net.cpp:103] Top shape: 8 128 112 112 (12845056)
I1106 15:23:46.210896 17240 layer_factory.hpp:78] Creating layer relu2_2
I1106 15:23:46.210901 17240 net.cpp:67] Creating Layer relu2_2
I1106 15:23:46.210904 17240 net.cpp:394] relu2_2 <- conv2_2
I1106 15:23:46.210909 17240 net.cpp:345] relu2_2 -> conv2_2 (in-place)
I1106 15:23:46.210913 17240 net.cpp:96] Setting up relu2_2
I1106 15:23:46.210918 17240 net.cpp:103] Top shape: 8 128 112 112 (12845056)
I1106 15:23:46.210922 17240 layer_factory.hpp:78] Creating layer pool2
I1106 15:23:46.210925 17240 net.cpp:67] Creating Layer pool2
I1106 15:23:46.210928 17240 net.cpp:394] pool2 <- conv2_2
I1106 15:23:46.210932 17240 net.cpp:356] pool2 -> pool2
I1106 15:23:46.210937 17240 net.cpp:96] Setting up pool2
I1106 15:23:46.210942 17240 net.cpp:103] Top shape: 8 128 56 56 (3211264)
I1106 15:23:46.210947 17240 layer_factory.hpp:78] Creating layer conv3_1
I1106 15:23:46.210950 17240 net.cpp:67] Creating Layer conv3_1
I1106 15:23:46.210953 17240 net.cpp:394] conv3_1 <- pool2
I1106 15:23:46.210958 17240 net.cpp:356] conv3_1 -> conv3_1
I1106 15:23:46.210963 17240 net.cpp:96] Setting up conv3_1
I1106 15:23:46.218138 17240 net.cpp:103] Top shape: 8 256 56 56 (6422528)
I1106 15:23:46.218154 17240 layer_factory.hpp:78] Creating layer relu3_1
I1106 15:23:46.218159 17240 net.cpp:67] Creating Layer relu3_1
I1106 15:23:46.218163 17240 net.cpp:394] relu3_1 <- conv3_1
I1106 15:23:46.218168 17240 net.cpp:345] relu3_1 -> conv3_1 (in-place)
I1106 15:23:46.218173 17240 net.cpp:96] Setting up relu3_1
I1106 15:23:46.218178 17240 net.cpp:103] Top shape: 8 256 56 56 (6422528)
I1106 15:23:46.218180 17240 layer_factory.hpp:78] Creating layer conv3_2
I1106 15:23:46.218194 17240 net.cpp:67] Creating Layer conv3_2
I1106 15:23:46.218196 17240 net.cpp:394] conv3_2 <- conv3_1
I1106 15:23:46.218201 17240 net.cpp:356] conv3_2 -> conv3_2
I1106 15:23:46.218206 17240 net.cpp:96] Setting up conv3_2
I1106 15:23:46.232689 17240 net.cpp:103] Top shape: 8 256 56 56 (6422528)
I1106 15:23:46.232708 17240 layer_factory.hpp:78] Creating layer relu3_2
I1106 15:23:46.232714 17240 net.cpp:67] Creating Layer relu3_2
I1106 15:23:46.232718 17240 net.cpp:394] relu3_2 <- conv3_2
I1106 15:23:46.232723 17240 net.cpp:345] relu3_2 -> conv3_2 (in-place)
I1106 15:23:46.232729 17240 net.cpp:96] Setting up relu3_2
I1106 15:23:46.232734 17240 net.cpp:103] Top shape: 8 256 56 56 (6422528)
I1106 15:23:46.232738 17240 layer_factory.hpp:78] Creating layer conv3_3
I1106 15:23:46.232746 17240 net.cpp:67] Creating Layer conv3_3
I1106 15:23:46.232749 17240 net.cpp:394] conv3_3 <- conv3_2
I1106 15:23:46.232754 17240 net.cpp:356] conv3_3 -> conv3_3
I1106 15:23:46.232760 17240 net.cpp:96] Setting up conv3_3
I1106 15:23:46.247078 17240 net.cpp:103] Top shape: 8 256 56 56 (6422528)
I1106 15:23:46.247093 17240 layer_factory.hpp:78] Creating layer relu3_3
I1106 15:23:46.247100 17240 net.cpp:67] Creating Layer relu3_3
I1106 15:23:46.247104 17240 net.cpp:394] relu3_3 <- conv3_3
I1106 15:23:46.247109 17240 net.cpp:345] relu3_3 -> conv3_3 (in-place)
I1106 15:23:46.247114 17240 net.cpp:96] Setting up relu3_3
I1106 15:23:46.247119 17240 net.cpp:103] Top shape: 8 256 56 56 (6422528)
I1106 15:23:46.247123 17240 layer_factory.hpp:78] Creating layer pool3
I1106 15:23:46.247129 17240 net.cpp:67] Creating Layer pool3
I1106 15:23:46.247133 17240 net.cpp:394] pool3 <- conv3_3
I1106 15:23:46.247138 17240 net.cpp:356] pool3 -> pool3
I1106 15:23:46.247143 17240 net.cpp:96] Setting up pool3
I1106 15:23:46.247149 17240 net.cpp:103] Top shape: 8 256 28 28 (1605632)
I1106 15:23:46.247153 17240 layer_factory.hpp:78] Creating layer conv4_1
I1106 15:23:46.247159 17240 net.cpp:67] Creating Layer conv4_1
I1106 15:23:46.247162 17240 net.cpp:394] conv4_1 <- pool3
I1106 15:23:46.247166 17240 net.cpp:356] conv4_1 -> conv4_1
I1106 15:23:46.247171 17240 net.cpp:96] Setting up conv4_1
I1106 15:23:46.276221 17240 net.cpp:103] Top shape: 8 512 28 28 (3211264)
I1106 15:23:46.276255 17240 layer_factory.hpp:78] Creating layer relu4_1
I1106 15:23:46.276265 17240 net.cpp:67] Creating Layer relu4_1
I1106 15:23:46.276270 17240 net.cpp:394] relu4_1 <- conv4_1
I1106 15:23:46.276278 17240 net.cpp:345] relu4_1 -> conv4_1 (in-place)
I1106 15:23:46.276283 17240 net.cpp:96] Setting up relu4_1
I1106 15:23:46.276289 17240 net.cpp:103] Top shape: 8 512 28 28 (3211264)
I1106 15:23:46.276293 17240 layer_factory.hpp:78] Creating layer conv4_2
I1106 15:23:46.276299 17240 net.cpp:67] Creating Layer conv4_2
I1106 15:23:46.276304 17240 net.cpp:394] conv4_2 <- conv4_1
I1106 15:23:46.276307 17240 net.cpp:356] conv4_2 -> conv4_2
I1106 15:23:46.276314 17240 net.cpp:96] Setting up conv4_2
I1106 15:23:46.331429 17240 net.cpp:103] Top shape: 8 512 28 28 (3211264)
I1106 15:23:46.331461 17240 layer_factory.hpp:78] Creating layer relu4_2
I1106 15:23:46.331470 17240 net.cpp:67] Creating Layer relu4_2
I1106 15:23:46.331473 17240 net.cpp:394] relu4_2 <- conv4_2
I1106 15:23:46.331480 17240 net.cpp:345] relu4_2 -> conv4_2 (in-place)
I1106 15:23:46.331486 17240 net.cpp:96] Setting up relu4_2
I1106 15:23:46.331491 17240 net.cpp:103] Top shape: 8 512 28 28 (3211264)
I1106 15:23:46.331496 17240 layer_factory.hpp:78] Creating layer conv4_3
I1106 15:23:46.331501 17240 net.cpp:67] Creating Layer conv4_3
I1106 15:23:46.331503 17240 net.cpp:394] conv4_3 <- conv4_2
I1106 15:23:46.331509 17240 net.cpp:356] conv4_3 -> conv4_3
I1106 15:23:46.331517 17240 net.cpp:96] Setting up conv4_3
I1106 15:23:46.387369 17240 net.cpp:103] Top shape: 8 512 28 28 (3211264)
I1106 15:23:46.387408 17240 layer_factory.hpp:78] Creating layer relu4_3
I1106 15:23:46.387415 17240 net.cpp:67] Creating Layer relu4_3
I1106 15:23:46.387419 17240 net.cpp:394] relu4_3 <- conv4_3
I1106 15:23:46.387426 17240 net.cpp:345] relu4_3 -> conv4_3 (in-place)
I1106 15:23:46.387441 17240 net.cpp:96] Setting up relu4_3
I1106 15:23:46.387449 17240 net.cpp:103] Top shape: 8 512 28 28 (3211264)
I1106 15:23:46.387451 17240 layer_factory.hpp:78] Creating layer pool4
I1106 15:23:46.387456 17240 net.cpp:67] Creating Layer pool4
I1106 15:23:46.387459 17240 net.cpp:394] pool4 <- conv4_3
I1106 15:23:46.387466 17240 net.cpp:356] pool4 -> pool4
I1106 15:23:46.387471 17240 net.cpp:96] Setting up pool4
I1106 15:23:46.387480 17240 net.cpp:103] Top shape: 8 512 14 14 (802816)
I1106 15:23:46.387482 17240 layer_factory.hpp:78] Creating layer conv5_1
I1106 15:23:46.387491 17240 net.cpp:67] Creating Layer conv5_1
I1106 15:23:46.387495 17240 net.cpp:394] conv5_1 <- pool4
I1106 15:23:46.387500 17240 net.cpp:356] conv5_1 -> conv5_1
I1106 15:23:46.387505 17240 net.cpp:96] Setting up conv5_1
I1106 15:23:46.442605 17240 net.cpp:103] Top shape: 8 512 14 14 (802816)
I1106 15:23:46.442641 17240 layer_factory.hpp:78] Creating layer relu5_1
I1106 15:23:46.442649 17240 net.cpp:67] Creating Layer relu5_1
I1106 15:23:46.442653 17240 net.cpp:394] relu5_1 <- conv5_1
I1106 15:23:46.442661 17240 net.cpp:345] relu5_1 -> conv5_1 (in-place)
I1106 15:23:46.442667 17240 net.cpp:96] Setting up relu5_1
I1106 15:23:46.442672 17240 net.cpp:103] Top shape: 8 512 14 14 (802816)
I1106 15:23:46.442675 17240 layer_factory.hpp:78] Creating layer conv5_2
I1106 15:23:46.442683 17240 net.cpp:67] Creating Layer conv5_2
I1106 15:23:46.442687 17240 net.cpp:394] conv5_2 <- conv5_1
I1106 15:23:46.442690 17240 net.cpp:356] conv5_2 -> conv5_2
I1106 15:23:46.442697 17240 net.cpp:96] Setting up conv5_2
I1106 15:23:46.497910 17240 net.cpp:103] Top shape: 8 512 14 14 (802816)
I1106 15:23:46.497946 17240 layer_factory.hpp:78] Creating layer relu5_2
I1106 15:23:46.497956 17240 net.cpp:67] Creating Layer relu5_2
I1106 15:23:46.497959 17240 net.cpp:394] relu5_2 <- conv5_2
I1106 15:23:46.497966 17240 net.cpp:345] relu5_2 -> conv5_2 (in-place)
I1106 15:23:46.497972 17240 net.cpp:96] Setting up relu5_2
I1106 15:23:46.497977 17240 net.cpp:103] Top shape: 8 512 14 14 (802816)
I1106 15:23:46.497980 17240 layer_factory.hpp:78] Creating layer conv5_3
I1106 15:23:46.497987 17240 net.cpp:67] Creating Layer conv5_3
I1106 15:23:46.497990 17240 net.cpp:394] conv5_3 <- conv5_2
I1106 15:23:46.497995 17240 net.cpp:356] conv5_3 -> conv5_3
I1106 15:23:46.498000 17240 net.cpp:96] Setting up conv5_3
I1106 15:23:46.553441 17240 net.cpp:103] Top shape: 8 512 14 14 (802816)
I1106 15:23:46.553479 17240 layer_factory.hpp:78] Creating layer relu5_3
I1106 15:23:46.553489 17240 net.cpp:67] Creating Layer relu5_3
I1106 15:23:46.553494 17240 net.cpp:394] relu5_3 <- conv5_3
I1106 15:23:46.553500 17240 net.cpp:345] relu5_3 -> conv5_3 (in-place)
I1106 15:23:46.553508 17240 net.cpp:96] Setting up relu5_3
I1106 15:23:46.553514 17240 net.cpp:103] Top shape: 8 512 14 14 (802816)
I1106 15:23:46.553516 17240 layer_factory.hpp:78] Creating layer pool5
I1106 15:23:46.553527 17240 net.cpp:67] Creating Layer pool5
I1106 15:23:46.553530 17240 net.cpp:394] pool5 <- conv5_3
I1106 15:23:46.553535 17240 net.cpp:356] pool5 -> pool5
I1106 15:23:46.553541 17240 net.cpp:96] Setting up pool5
I1106 15:23:46.553549 17240 net.cpp:103] Top shape: 8 512 7 7 (200704)
I1106 15:23:46.553551 17240 layer_factory.hpp:78] Creating layer fc6
I1106 15:23:46.553556 17240 net.cpp:67] Creating Layer fc6
I1106 15:23:46.553560 17240 net.cpp:394] fc6 <- pool5
I1106 15:23:46.553566 17240 net.cpp:356] fc6 -> fc6
I1106 15:23:46.553577 17240 net.cpp:96] Setting up fc6
I1106 15:23:48.938309 17240 net.cpp:103] Top shape: 8 4096 1 1 (32768)
I1106 15:23:48.938350 17240 layer_factory.hpp:78] Creating layer relu6
I1106 15:23:48.938359 17240 net.cpp:67] Creating Layer relu6
I1106 15:23:48.938364 17240 net.cpp:394] relu6 <- fc6
I1106 15:23:48.938370 17240 net.cpp:345] relu6 -> fc6 (in-place)
I1106 15:23:48.938377 17240 net.cpp:96] Setting up relu6
I1106 15:23:48.938391 17240 net.cpp:103] Top shape: 8 4096 1 1 (32768)
I1106 15:23:48.938395 17240 layer_factory.hpp:78] Creating layer drop6
I1106 15:23:48.938400 17240 net.cpp:67] Creating Layer drop6
I1106 15:23:48.938412 17240 net.cpp:394] drop6 <- fc6
I1106 15:23:48.938419 17240 net.cpp:345] drop6 -> fc6 (in-place)
I1106 15:23:48.938424 17240 net.cpp:96] Setting up drop6
I1106 15:23:48.938428 17240 net.cpp:103] Top shape: 8 4096 1 1 (32768)
I1106 15:23:48.938431 17240 layer_factory.hpp:78] Creating layer fc7
I1106 15:23:48.938437 17240 net.cpp:67] Creating Layer fc7
I1106 15:23:48.938441 17240 net.cpp:394] fc7 <- fc6
I1106 15:23:48.938444 17240 net.cpp:356] fc7 -> fc7
I1106 15:23:48.938451 17240 net.cpp:96] Setting up fc7
I1106 15:23:49.335434 17240 net.cpp:103] Top shape: 8 4096 1 1 (32768)
I1106 15:23:49.335463 17240 layer_factory.hpp:78] Creating layer relu7
I1106 15:23:49.335471 17240 net.cpp:67] Creating Layer relu7
I1106 15:23:49.335476 17240 net.cpp:394] relu7 <- fc7
I1106 15:23:49.335484 17240 net.cpp:345] relu7 -> fc7 (in-place)
I1106 15:23:49.335491 17240 net.cpp:96] Setting up relu7
I1106 15:23:49.335505 17240 net.cpp:103] Top shape: 8 4096 1 1 (32768)
I1106 15:23:49.335511 17240 layer_factory.hpp:78] Creating layer drop7
I1106 15:23:49.335518 17240 net.cpp:67] Creating Layer drop7
I1106 15:23:49.335521 17240 net.cpp:394] drop7 <- fc7
I1106 15:23:49.335526 17240 net.cpp:345] drop7 -> fc7 (in-place)
I1106 15:23:49.335530 17240 net.cpp:96] Setting up drop7
I1106 15:23:49.335535 17240 net.cpp:103] Top shape: 8 4096 1 1 (32768)
I1106 15:23:49.335537 17240 layer_factory.hpp:78] Creating layer fc8_2
I1106 15:23:49.335542 17240 net.cpp:67] Creating Layer fc8_2
I1106 15:23:49.335546 17240 net.cpp:394] fc8_2 <- fc7
I1106 15:23:49.335551 17240 net.cpp:356] fc8_2 -> fc8_2
I1106 15:23:49.335556 17240 net.cpp:96] Setting up fc8_2
I1106 15:23:49.335777 17240 net.cpp:103] Top shape: 8 2 1 1 (16)
I1106 15:23:49.335786 17240 layer_factory.hpp:78] Creating layer fc8_2_fc8_2_0_split
I1106 15:23:49.335791 17240 net.cpp:67] Creating Layer fc8_2_fc8_2_0_split
I1106 15:23:49.335794 17240 net.cpp:394] fc8_2_fc8_2_0_split <- fc8_2
I1106 15:23:49.335800 17240 net.cpp:356] fc8_2_fc8_2_0_split -> fc8_2_fc8_2_0_split_0
I1106 15:23:49.335806 17240 net.cpp:356] fc8_2_fc8_2_0_split -> fc8_2_fc8_2_0_split_1
I1106 15:23:49.335815 17240 net.cpp:96] Setting up fc8_2_fc8_2_0_split
I1106 15:23:49.335819 17240 net.cpp:103] Top shape: 8 2 1 1 (16)
I1106 15:23:49.335822 17240 net.cpp:103] Top shape: 8 2 1 1 (16)
I1106 15:23:49.335824 17240 layer_factory.hpp:78] Creating layer loss
I1106 15:23:49.335831 17240 net.cpp:67] Creating Layer loss
I1106 15:23:49.335834 17240 net.cpp:394] loss <- fc8_2_fc8_2_0_split_0
I1106 15:23:49.335839 17240 net.cpp:394] loss <- label_data_1_split_0
I1106 15:23:49.335844 17240 net.cpp:356] loss -> (automatic)
I1106 15:23:49.335847 17240 net.cpp:96] Setting up loss
I1106 15:23:49.335854 17240 net.cpp:103] Top shape: 1 1 1 1 (1)
I1106 15:23:49.335856 17240 net.cpp:109]     with loss weight 1
I1106 15:23:49.335870 17240 layer_factory.hpp:78] Creating layer accuracy
I1106 15:23:49.335881 17240 net.cpp:67] Creating Layer accuracy
I1106 15:23:49.335886 17240 net.cpp:394] accuracy <- fc8_2_fc8_2_0_split_1
I1106 15:23:49.335890 17240 net.cpp:394] accuracy <- label_data_1_split_1
I1106 15:23:49.335894 17240 net.cpp:356] accuracy -> accuracy
I1106 15:23:49.335899 17240 net.cpp:96] Setting up accuracy
I1106 15:23:49.335906 17240 net.cpp:103] Top shape: 1 1 1 4 (4)
I1106 15:23:49.335912 17240 net.cpp:172] accuracy does not need backward computation.
I1106 15:23:49.335916 17240 net.cpp:170] loss needs backward computation.
I1106 15:23:49.335918 17240 net.cpp:170] fc8_2_fc8_2_0_split needs backward computation.
I1106 15:23:49.335922 17240 net.cpp:170] fc8_2 needs backward computation.
I1106 15:23:49.335924 17240 net.cpp:170] drop7 needs backward computation.
…
