…
I1110 02:02:35.383831 23301 net.cpp:275] The NetState phase (0) differed from the phase (1) specified by a rule in layer accuracy
I1110 02:02:35.384016 23301 net.cpp:39] Initializing net from parameters: 
name: "small"
layers {
  top: "data"
  top: "label"
  name: "data"
  type: IMAGE_DATA
  image_data_param {
    source: "/data/ad6813/devCaffe/caffe/data/scrape_z_o/train.txt"
    batch_size: 32
    new_height: 256
    new_width: 256
  }
  include {
    phase: TRAIN
  }
  transform_param {
    mirror: true
    crop_size: 224
    mean_value: 86.752
    mean_value: 101.46
    mean_value: 104.6
  }
}
layers {
  bottom: "data"
  top: "conv1_1"
  name: "conv1_1"
  type: CONVOLUTION
  convolution_param {
    num_output: 64
    pad: 1
    kernel_size: 3
    weight_filler {
      type: "gaussian"
      std: 0.01
    }
    bias_filler {
      type: "constant"
      value: 0
    }
  }
}
layers {
  bottom: "conv1_1"
  top: "conv1_1"
  name: "relu1_1"
  type: RELU
}
layers {
  bottom: "conv1_1"
  top: "conv1_2"
  name: "conv1_2"
  type: CONVOLUTION
  convolution_param {
    num_output: 64
    pad: 1
    kernel_size: 3
    weight_filler {
      type: "gaussian"
      std: 0.01
    }
    bias_filler {
      type: "constant"
      value: 0
    }
  }
}
layers {
  bottom: "conv1_2"
  top: "conv1_2"
  name: "relu1_2"
  type: RELU
}
layers {
  bottom: "conv1_2"
  top: "pool1"
  name: "pool1"
  type: POOLING
  pooling_param {
    pool: MAX
    kernel_size: 2
    stride: 2
  }
}
layers {
  bottom: "pool1"
  top: "conv2_1"
  name: "conv2_1"
  type: CONVOLUTION
  convolution_param {
    num_output: 128
    pad: 1
    kernel_size: 3
    weight_filler {
      type: "gaussian"
      std: 0.01
    }
    bias_filler {
      type: "constant"
      value: 0
    }
  }
}
layers {
  bottom: "conv2_1"
  top: "conv2_1"
  name: "relu2_1"
  type: RELU
}
layers {
  bottom: "conv2_1"
  top: "conv2_2"
  name: "conv2_2"
  type: CONVOLUTION
  convolution_param {
    num_output: 128
    pad: 1
    kernel_size: 3
    weight_filler {
      type: "gaussian"
      std: 0.01
    }
    bias_filler {
      type: "constant"
      value: 0
    }
  }
}
layers {
  bottom: "conv2_2"
  top: "conv2_2"
  name: "relu2_2"
  type: RELU
}
layers {
  bottom: "conv2_2"
  top: "pool2"
  name: "pool2"
  type: POOLING
  pooling_param {
    pool: MAX
    kernel_size: 2
    stride: 2
  }
}
layers {
  bottom: "pool2"
  top: "conv3_1"
  name: "conv3_1"
  type: CONVOLUTION
  convolution_param {
    num_output: 256
    pad: 1
    kernel_size: 3
    weight_filler {
      type: "gaussian"
      std: 0.01
    }
    bias_filler {
      type: "constant"
      value: 0
    }
  }
}
layers {
  bottom: "conv3_1"
  top: "conv3_1"
  name: "relu3_1"
  type: RELU
}
layers {
  bottom: "conv3_1"
  top: "conv3_2"
  name: "conv3_2"
  type: CONVOLUTION
  convolution_param {
    num_output: 256
    pad: 1
    kernel_size: 3
    weight_filler {
      type: "gaussian"
      std: 0.01
    }
    bias_filler {
      type: "constant"
      value: 0
    }
  }
}
layers {
  bottom: "conv3_2"
  top: "conv3_2"
  name: "relu3_2"
  type: RELU
}
layers {
  bottom: "conv3_2"
  top: "conv3_3"
  name: "conv3_3"
  type: CONVOLUTION
  convolution_param {
    num_output: 256
    pad: 1
    kernel_size: 3
    weight_filler {
      type: "gaussian"
      std: 0.01
    }
    bias_filler {
      type: "constant"
      value: 0
    }
  }
}
layers {
  bottom: "conv3_3"
  top: "conv3_3"
  name: "relu3_3"
  type: RELU
}
layers {
  bottom: "conv3_3"
  top: "pool3"
  name: "pool3"
  type: POOLING
  pooling_param {
    pool: MAX
    kernel_size: 2
    stride: 2
  }
}
layers {
  bottom: "pool3"
  top: "conv4_1"
  name: "conv4_1"
  type: CONVOLUTION
  convolution_param {
    num_output: 512
    pad: 1
    kernel_size: 3
    weight_filler {
      type: "gaussian"
      std: 0.01
    }
    bias_filler {
      type: "constant"
      value: 0
    }
  }
}
layers {
  bottom: "conv4_1"
  top: "conv4_1"
  name: "relu4_1"
  type: RELU
}
layers {
  bottom: "conv4_1"
  top: "conv4_2"
  name: "conv4_2"
  type: CONVOLUTION
  convolution_param {
    num_output: 512
    pad: 1
    kernel_size: 3
    weight_filler {
      type: "gaussian"
      std: 0.01
    }
    bias_filler {
      type: "constant"
      value: 0
    }
  }
}
layers {
  bottom: "conv4_2"
  top: "conv4_2"
  name: "relu4_2"
  type: RELU
}
layers {
  bottom: "conv4_2"
  top: "conv4_3"
  name: "conv4_3"
  type: CONVOLUTION
  convolution_param {
    num_output: 512
    pad: 1
    kernel_size: 3
    weight_filler {
      type: "gaussian"
      std: 0.01
    }
    bias_filler {
      type: "constant"
      value: 0
    }
  }
}
layers {
  bottom: "conv4_3"
  top: "conv4_3"
  name: "relu4_3"
  type: RELU
}
layers {
  bottom: "conv4_3"
  top: "pool4"
  name: "pool4"
  type: POOLING
  pooling_param {
    pool: MAX
    kernel_size: 2
    stride: 2
  }
}
layers {
  bottom: "pool4"
  top: "conv5_1"
  name: "conv5_1"
  type: CONVOLUTION
  convolution_param {
    num_output: 512
    pad: 1
    kernel_size: 3
    weight_filler {
      type: "gaussian"
      std: 0.01
    }
    bias_filler {
      type: "constant"
      value: 0
    }
  }
}
layers {
  bottom: "conv5_1"
  top: "conv5_1"
  name: "relu5_1"
  type: RELU
}
layers {
  bottom: "conv5_1"
  top: "conv5_2"
  name: "conv5_2"
  type: CONVOLUTION
  convolution_param {
    num_output: 512
    pad: 1
    kernel_size: 3
    weight_filler {
      type: "gaussian"
      std: 0.01
    }
    bias_filler {
      type: "constant"
      value: 0
    }
  }
}
layers {
  bottom: "conv5_2"
  top: "conv5_2"
  name: "relu5_2"
  type: RELU
}
layers {
  bottom: "conv5_2"
  top: "conv5_3"
  name: "conv5_3"
  type: CONVOLUTION
  convolution_param {
    num_output: 512
    pad: 1
    kernel_size: 3
    weight_filler {
      type: "gaussian"
      std: 0.01
    }
    bias_filler {
      type: "constant"
      value: 0
    }
  }
}
layers {
  bottom: "conv5_3"
  top: "conv5_3"
  name: "relu5_3"
  type: RELU
}
layers {
  bottom: "conv5_3"
  top: "pool5"
  name: "pool5"
  type: POOLING
  pooling_param {
    pool: MAX
    kernel_size: 2
    stride: 2
  }
}
layers {
  bottom: "pool5"
  top: "fc6"
  name: "fc6"
  type: INNER_PRODUCT
  inner_product_param {
    num_output: 4096
    weight_filler {
      type: "gaussian"
      std: 0.01
    }
    bias_filler {
      type: "constant"
      value: 0
    }
  }
}
layers {
  bottom: "fc6"
  top: "fc6"
  name: "relu6"
  type: RELU
}
layers {
  bottom: "fc6"
  top: "fc6"
  name: "drop6"
  type: DROPOUT
  dropout_param {
    dropout_ratio: 0.5
  }
}
layers {
  bottom: "fc6"
  top: "fc7"
  name: "fc7"
  type: INNER_PRODUCT
  inner_product_param {
    num_output: 4096
    weight_filler {
      type: "gaussian"
      std: 0.01
    }
    bias_filler {
      type: "constant"
      value: 0
    }
  }
}
layers {
  bottom: "fc7"
  top: "fc7"
  name: "relu7"
  type: RELU
}
layers {
  bottom: "fc7"
  top: "fc7"
  name: "drop7"
  type: DROPOUT
  dropout_param {
    dropout_ratio: 0.5
  }
}
layers {
  bottom: "fc7"
  top: "fc8_2"
  name: "fc8_2"
  type: INNER_PRODUCT
  inner_product_param {
    num_output: 2
    weight_filler {
      type: "gaussian"
      std: 0.01
    }
    bias_filler {
      type: "constant"
      value: 0
    }
  }
}
layers {
  bottom: "fc8_2"
  bottom: "label"
  name: "loss"
  type: SOFTMAX_LOSS
}
state {
  phase: TRAIN
}
I1110 02:02:35.384135 23301 layer_factory.hpp:78] Creating layer data
I1110 02:02:35.384155 23301 net.cpp:67] Creating Layer data
I1110 02:02:35.384162 23301 net.cpp:356] data -> data
I1110 02:02:35.384183 23301 net.cpp:356] data -> label
I1110 02:02:35.384193 23301 net.cpp:96] Setting up data
I1110 02:02:35.384201 23301 image_data_layer.cpp:34] Opening file /data/ad6813/devCaffe/caffe/data/scrape_z_o/train.txt
I1110 02:02:35.449700 23301 image_data_layer.cpp:49] A total of 186931 images.
I1110 02:02:35.455312 23301 image_data_layer.cpp:78] output data size: 32,3,224,224
I1110 02:02:35.458210 23301 net.cpp:103] Top shape: 32 3 224 224 (4816896)
I1110 02:02:35.458237 23301 net.cpp:103] Top shape: 32 1 1 1 (32)
I1110 02:02:35.458242 23301 layer_factory.hpp:78] Creating layer conv1_1
I1110 02:02:35.458256 23301 net.cpp:67] Creating Layer conv1_1
I1110 02:02:35.458261 23301 net.cpp:394] conv1_1 <- data
I1110 02:02:35.458276 23301 net.cpp:356] conv1_1 -> conv1_1
I1110 02:02:35.458287 23301 net.cpp:96] Setting up conv1_1
I1110 02:02:35.638275 23301 net.cpp:103] Top shape: 32 64 224 224 (102760448)
I1110 02:02:35.638310 23301 layer_factory.hpp:78] Creating layer relu1_1
I1110 02:02:35.638322 23301 net.cpp:67] Creating Layer relu1_1
I1110 02:02:35.638327 23301 net.cpp:394] relu1_1 <- conv1_1
I1110 02:02:35.638334 23301 net.cpp:345] relu1_1 -> conv1_1 (in-place)
I1110 02:02:35.638342 23301 net.cpp:96] Setting up relu1_1
I1110 02:02:35.638351 23301 net.cpp:103] Top shape: 32 64 224 224 (102760448)
I1110 02:02:35.638355 23301 layer_factory.hpp:78] Creating layer conv1_2
I1110 02:02:35.638361 23301 net.cpp:67] Creating Layer conv1_2
I1110 02:02:35.638363 23301 net.cpp:394] conv1_2 <- conv1_1
I1110 02:02:35.638370 23301 net.cpp:356] conv1_2 -> conv1_2
I1110 02:02:35.638375 23301 net.cpp:96] Setting up conv1_2
I1110 02:02:35.639417 23301 net.cpp:103] Top shape: 32 64 224 224 (102760448)
I1110 02:02:35.639430 23301 layer_factory.hpp:78] Creating layer relu1_2
I1110 02:02:35.639436 23301 net.cpp:67] Creating Layer relu1_2
I1110 02:02:35.639438 23301 net.cpp:394] relu1_2 <- conv1_2
I1110 02:02:35.639443 23301 net.cpp:345] relu1_2 -> conv1_2 (in-place)
I1110 02:02:35.639447 23301 net.cpp:96] Setting up relu1_2
I1110 02:02:35.639453 23301 net.cpp:103] Top shape: 32 64 224 224 (102760448)
I1110 02:02:35.639456 23301 layer_factory.hpp:78] Creating layer pool1
I1110 02:02:35.639467 23301 net.cpp:67] Creating Layer pool1
I1110 02:02:35.639469 23301 net.cpp:394] pool1 <- conv1_2
I1110 02:02:35.639473 23301 net.cpp:356] pool1 -> pool1
I1110 02:02:35.639485 23301 net.cpp:96] Setting up pool1
I1110 02:02:35.639503 23301 net.cpp:103] Top shape: 32 64 112 112 (25690112)
I1110 02:02:35.639508 23301 layer_factory.hpp:78] Creating layer conv2_1
I1110 02:02:35.639514 23301 net.cpp:67] Creating Layer conv2_1
I1110 02:02:35.639521 23301 net.cpp:394] conv2_1 <- pool1
I1110 02:02:35.639526 23301 net.cpp:356] conv2_1 -> conv2_1
I1110 02:02:35.639533 23301 net.cpp:96] Setting up conv2_1
I1110 02:02:35.641430 23301 net.cpp:103] Top shape: 32 128 112 112 (51380224)
I1110 02:02:35.641443 23301 layer_factory.hpp:78] Creating layer relu2_1
I1110 02:02:35.641449 23301 net.cpp:67] Creating Layer relu2_1
I1110 02:02:35.641453 23301 net.cpp:394] relu2_1 <- conv2_1
I1110 02:02:35.641458 23301 net.cpp:345] relu2_1 -> conv2_1 (in-place)
I1110 02:02:35.641461 23301 net.cpp:96] Setting up relu2_1
I1110 02:02:35.641466 23301 net.cpp:103] Top shape: 32 128 112 112 (51380224)
I1110 02:02:35.641469 23301 layer_factory.hpp:78] Creating layer conv2_2
I1110 02:02:35.641476 23301 net.cpp:67] Creating Layer conv2_2
I1110 02:02:35.641479 23301 net.cpp:394] conv2_2 <- conv2_1
I1110 02:02:35.641484 23301 net.cpp:356] conv2_2 -> conv2_2
I1110 02:02:35.641489 23301 net.cpp:96] Setting up conv2_2
I1110 02:02:35.645226 23301 net.cpp:103] Top shape: 32 128 112 112 (51380224)
I1110 02:02:35.645238 23301 layer_factory.hpp:78] Creating layer relu2_2
I1110 02:02:35.645244 23301 net.cpp:67] Creating Layer relu2_2
I1110 02:02:35.645248 23301 net.cpp:394] relu2_2 <- conv2_2
I1110 02:02:35.645252 23301 net.cpp:345] relu2_2 -> conv2_2 (in-place)
I1110 02:02:35.645256 23301 net.cpp:96] Setting up relu2_2
I1110 02:02:35.645262 23301 net.cpp:103] Top shape: 32 128 112 112 (51380224)
I1110 02:02:35.645273 23301 layer_factory.hpp:78] Creating layer pool2
I1110 02:02:35.645280 23301 net.cpp:67] Creating Layer pool2
I1110 02:02:35.645283 23301 net.cpp:394] pool2 <- conv2_2
I1110 02:02:35.645287 23301 net.cpp:356] pool2 -> pool2
I1110 02:02:35.645292 23301 net.cpp:96] Setting up pool2
I1110 02:02:35.645298 23301 net.cpp:103] Top shape: 32 128 56 56 (12845056)
I1110 02:02:35.645301 23301 layer_factory.hpp:78] Creating layer conv3_1
I1110 02:02:35.645306 23301 net.cpp:67] Creating Layer conv3_1
I1110 02:02:35.645309 23301 net.cpp:394] conv3_1 <- pool2
I1110 02:02:35.645315 23301 net.cpp:356] conv3_1 -> conv3_1
I1110 02:02:35.645321 23301 net.cpp:96] Setting up conv3_1
I1110 02:02:35.652720 23301 net.cpp:103] Top shape: 32 256 56 56 (25690112)
I1110 02:02:35.652734 23301 layer_factory.hpp:78] Creating layer relu3_1
I1110 02:02:35.652739 23301 net.cpp:67] Creating Layer relu3_1
I1110 02:02:35.652741 23301 net.cpp:394] relu3_1 <- conv3_1
I1110 02:02:35.652747 23301 net.cpp:345] relu3_1 -> conv3_1 (in-place)
I1110 02:02:35.652752 23301 net.cpp:96] Setting up relu3_1
I1110 02:02:35.652757 23301 net.cpp:103] Top shape: 32 256 56 56 (25690112)
I1110 02:02:35.652761 23301 layer_factory.hpp:78] Creating layer conv3_2
I1110 02:02:35.652765 23301 net.cpp:67] Creating Layer conv3_2
I1110 02:02:35.652768 23301 net.cpp:394] conv3_2 <- conv3_1
I1110 02:02:35.652775 23301 net.cpp:356] conv3_2 -> conv3_2
I1110 02:02:35.652781 23301 net.cpp:96] Setting up conv3_2
I1110 02:02:35.667646 23301 net.cpp:103] Top shape: 32 256 56 56 (25690112)
I1110 02:02:35.667665 23301 layer_factory.hpp:78] Creating layer relu3_2
I1110 02:02:35.667671 23301 net.cpp:67] Creating Layer relu3_2
I1110 02:02:35.667675 23301 net.cpp:394] relu3_2 <- conv3_2
I1110 02:02:35.667680 23301 net.cpp:345] relu3_2 -> conv3_2 (in-place)
I1110 02:02:35.667685 23301 net.cpp:96] Setting up relu3_2
I1110 02:02:35.667690 23301 net.cpp:103] Top shape: 32 256 56 56 (25690112)
I1110 02:02:35.667693 23301 layer_factory.hpp:78] Creating layer conv3_3
I1110 02:02:35.667700 23301 net.cpp:67] Creating Layer conv3_3
I1110 02:02:35.667701 23301 net.cpp:394] conv3_3 <- conv3_2
I1110 02:02:35.667707 23301 net.cpp:356] conv3_3 -> conv3_3
I1110 02:02:35.667713 23301 net.cpp:96] Setting up conv3_3
I1110 02:02:35.682446 23301 net.cpp:103] Top shape: 32 256 56 56 (25690112)
I1110 02:02:35.682461 23301 layer_factory.hpp:78] Creating layer relu3_3
I1110 02:02:35.682472 23301 net.cpp:67] Creating Layer relu3_3
I1110 02:02:35.682476 23301 net.cpp:394] relu3_3 <- conv3_3
I1110 02:02:35.682482 23301 net.cpp:345] relu3_3 -> conv3_3 (in-place)
I1110 02:02:35.682487 23301 net.cpp:96] Setting up relu3_3
I1110 02:02:35.682493 23301 net.cpp:103] Top shape: 32 256 56 56 (25690112)
I1110 02:02:35.682497 23301 layer_factory.hpp:78] Creating layer pool3
I1110 02:02:35.682502 23301 net.cpp:67] Creating Layer pool3
I1110 02:02:35.682505 23301 net.cpp:394] pool3 <- conv3_3
I1110 02:02:35.682512 23301 net.cpp:356] pool3 -> pool3
I1110 02:02:35.682517 23301 net.cpp:96] Setting up pool3
I1110 02:02:35.682523 23301 net.cpp:103] Top shape: 32 256 28 28 (6422528)
I1110 02:02:35.682528 23301 layer_factory.hpp:78] Creating layer conv4_1
I1110 02:02:35.682533 23301 net.cpp:67] Creating Layer conv4_1
I1110 02:02:35.682536 23301 net.cpp:394] conv4_1 <- pool3
I1110 02:02:35.682541 23301 net.cpp:356] conv4_1 -> conv4_1
I1110 02:02:35.682546 23301 net.cpp:96] Setting up conv4_1
I1110 02:02:35.711426 23301 net.cpp:103] Top shape: 32 512 28 28 (12845056)
I1110 02:02:35.711451 23301 layer_factory.hpp:78] Creating layer relu4_1
I1110 02:02:35.711458 23301 net.cpp:67] Creating Layer relu4_1
I1110 02:02:35.711462 23301 net.cpp:394] relu4_1 <- conv4_1
I1110 02:02:35.711470 23301 net.cpp:345] relu4_1 -> conv4_1 (in-place)
I1110 02:02:35.711483 23301 net.cpp:96] Setting up relu4_1
I1110 02:02:35.711488 23301 net.cpp:103] Top shape: 32 512 28 28 (12845056)
I1110 02:02:35.711491 23301 layer_factory.hpp:78] Creating layer conv4_2
I1110 02:02:35.711498 23301 net.cpp:67] Creating Layer conv4_2
I1110 02:02:35.711500 23301 net.cpp:394] conv4_2 <- conv4_1
I1110 02:02:35.711514 23301 net.cpp:356] conv4_2 -> conv4_2
I1110 02:02:35.711520 23301 net.cpp:96] Setting up conv4_2
I1110 02:02:35.769281 23301 net.cpp:103] Top shape: 32 512 28 28 (12845056)
I1110 02:02:35.769309 23301 layer_factory.hpp:78] Creating layer relu4_2
I1110 02:02:35.769317 23301 net.cpp:67] Creating Layer relu4_2
I1110 02:02:35.769321 23301 net.cpp:394] relu4_2 <- conv4_2
I1110 02:02:35.769328 23301 net.cpp:345] relu4_2 -> conv4_2 (in-place)
I1110 02:02:35.769335 23301 net.cpp:96] Setting up relu4_2
I1110 02:02:35.769340 23301 net.cpp:103] Top shape: 32 512 28 28 (12845056)
I1110 02:02:35.769343 23301 layer_factory.hpp:78] Creating layer conv4_3
I1110 02:02:35.769352 23301 net.cpp:67] Creating Layer conv4_3
I1110 02:02:35.769356 23301 net.cpp:394] conv4_3 <- conv4_2
I1110 02:02:35.769361 23301 net.cpp:356] conv4_3 -> conv4_3
I1110 02:02:35.769366 23301 net.cpp:96] Setting up conv4_3
I1110 02:02:35.826936 23301 net.cpp:103] Top shape: 32 512 28 28 (12845056)
I1110 02:02:35.826961 23301 layer_factory.hpp:78] Creating layer relu4_3
I1110 02:02:35.826968 23301 net.cpp:67] Creating Layer relu4_3
I1110 02:02:35.826973 23301 net.cpp:394] relu4_3 <- conv4_3
I1110 02:02:35.826980 23301 net.cpp:345] relu4_3 -> conv4_3 (in-place)
I1110 02:02:35.826987 23301 net.cpp:96] Setting up relu4_3
I1110 02:02:35.826992 23301 net.cpp:103] Top shape: 32 512 28 28 (12845056)
I1110 02:02:35.826994 23301 layer_factory.hpp:78] Creating layer pool4
I1110 02:02:35.827003 23301 net.cpp:67] Creating Layer pool4
I1110 02:02:35.827006 23301 net.cpp:394] pool4 <- conv4_3
I1110 02:02:35.827011 23301 net.cpp:356] pool4 -> pool4
I1110 02:02:35.827016 23301 net.cpp:96] Setting up pool4
I1110 02:02:35.827023 23301 net.cpp:103] Top shape: 32 512 14 14 (3211264)
I1110 02:02:35.827028 23301 layer_factory.hpp:78] Creating layer conv5_1
I1110 02:02:35.827033 23301 net.cpp:67] Creating Layer conv5_1
I1110 02:02:35.827038 23301 net.cpp:394] conv5_1 <- pool4
I1110 02:02:35.827041 23301 net.cpp:356] conv5_1 -> conv5_1
I1110 02:02:35.827049 23301 net.cpp:96] Setting up conv5_1
I1110 02:02:35.885005 23301 net.cpp:103] Top shape: 32 512 14 14 (3211264)
I1110 02:02:35.885032 23301 layer_factory.hpp:78] Creating layer relu5_1
I1110 02:02:35.885040 23301 net.cpp:67] Creating Layer relu5_1
I1110 02:02:35.885045 23301 net.cpp:394] relu5_1 <- conv5_1
I1110 02:02:35.885053 23301 net.cpp:345] relu5_1 -> conv5_1 (in-place)
I1110 02:02:35.885061 23301 net.cpp:96] Setting up relu5_1
I1110 02:02:35.885066 23301 net.cpp:103] Top shape: 32 512 14 14 (3211264)
I1110 02:02:35.885069 23301 layer_factory.hpp:78] Creating layer conv5_2
I1110 02:02:35.885076 23301 net.cpp:67] Creating Layer conv5_2
I1110 02:02:35.885077 23301 net.cpp:394] conv5_2 <- conv5_1
I1110 02:02:35.885083 23301 net.cpp:356] conv5_2 -> conv5_2
I1110 02:02:35.885090 23301 net.cpp:96] Setting up conv5_2
I1110 02:02:35.942656 23301 net.cpp:103] Top shape: 32 512 14 14 (3211264)
I1110 02:02:35.942683 23301 layer_factory.hpp:78] Creating layer relu5_2
I1110 02:02:35.942692 23301 net.cpp:67] Creating Layer relu5_2
I1110 02:02:35.942697 23301 net.cpp:394] relu5_2 <- conv5_2
I1110 02:02:35.942703 23301 net.cpp:345] relu5_2 -> conv5_2 (in-place)
I1110 02:02:35.942709 23301 net.cpp:96] Setting up relu5_2
I1110 02:02:35.942714 23301 net.cpp:103] Top shape: 32 512 14 14 (3211264)
I1110 02:02:35.942718 23301 layer_factory.hpp:78] Creating layer conv5_3
I1110 02:02:35.942725 23301 net.cpp:67] Creating Layer conv5_3
I1110 02:02:35.942728 23301 net.cpp:394] conv5_3 <- conv5_2
I1110 02:02:35.942734 23301 net.cpp:356] conv5_3 -> conv5_3
I1110 02:02:35.942739 23301 net.cpp:96] Setting up conv5_3
I1110 02:02:36.000531 23301 net.cpp:103] Top shape: 32 512 14 14 (3211264)
I1110 02:02:36.000556 23301 layer_factory.hpp:78] Creating layer relu5_3
I1110 02:02:36.000563 23301 net.cpp:67] Creating Layer relu5_3
I1110 02:02:36.000567 23301 net.cpp:394] relu5_3 <- conv5_3
I1110 02:02:36.000576 23301 net.cpp:345] relu5_3 -> conv5_3 (in-place)
I1110 02:02:36.000582 23301 net.cpp:96] Setting up relu5_3
I1110 02:02:36.000597 23301 net.cpp:103] Top shape: 32 512 14 14 (3211264)
I1110 02:02:36.000602 23301 layer_factory.hpp:78] Creating layer pool5
I1110 02:02:36.000607 23301 net.cpp:67] Creating Layer pool5
I1110 02:02:36.000610 23301 net.cpp:394] pool5 <- conv5_3
I1110 02:02:36.000615 23301 net.cpp:356] pool5 -> pool5
I1110 02:02:36.000620 23301 net.cpp:96] Setting up pool5
I1110 02:02:36.000628 23301 net.cpp:103] Top shape: 32 512 7 7 (802816)
I1110 02:02:36.000633 23301 layer_factory.hpp:78] Creating layer fc6
I1110 02:02:36.000648 23301 net.cpp:67] Creating Layer fc6
I1110 02:02:36.000650 23301 net.cpp:394] fc6 <- pool5
I1110 02:02:36.000656 23301 net.cpp:356] fc6 -> fc6
I1110 02:02:36.000663 23301 net.cpp:96] Setting up fc6
I1110 02:02:38.393528 23301 net.cpp:103] Top shape: 32 4096 1 1 (131072)
I1110 02:02:38.393569 23301 layer_factory.hpp:78] Creating layer relu6
I1110 02:02:38.393578 23301 net.cpp:67] Creating Layer relu6
I1110 02:02:38.393582 23301 net.cpp:394] relu6 <- fc6
I1110 02:02:38.393591 23301 net.cpp:345] relu6 -> fc6 (in-place)
I1110 02:02:38.393599 23301 net.cpp:96] Setting up relu6
I1110 02:02:38.393612 23301 net.cpp:103] Top shape: 32 4096 1 1 (131072)
I1110 02:02:38.393616 23301 layer_factory.hpp:78] Creating layer drop6
I1110 02:02:38.393622 23301 net.cpp:67] Creating Layer drop6
I1110 02:02:38.393625 23301 net.cpp:394] drop6 <- fc6
I1110 02:02:38.393630 23301 net.cpp:345] drop6 -> fc6 (in-place)
I1110 02:02:38.393636 23301 net.cpp:96] Setting up drop6
I1110 02:02:38.393640 23301 net.cpp:103] Top shape: 32 4096 1 1 (131072)
I1110 02:02:38.393642 23301 layer_factory.hpp:78] Creating layer fc7
I1110 02:02:38.393647 23301 net.cpp:67] Creating Layer fc7
I1110 02:02:38.393651 23301 net.cpp:394] fc7 <- fc6
I1110 02:02:38.393656 23301 net.cpp:356] fc7 -> fc7
I1110 02:02:38.393661 23301 net.cpp:96] Setting up fc7
I1110 02:02:38.782028 23301 net.cpp:103] Top shape: 32 4096 1 1 (131072)
I1110 02:02:38.782069 23301 layer_factory.hpp:78] Creating layer relu7
I1110 02:02:38.782079 23301 net.cpp:67] Creating Layer relu7
I1110 02:02:38.782084 23301 net.cpp:394] relu7 <- fc7
I1110 02:02:38.782091 23301 net.cpp:345] relu7 -> fc7 (in-place)
I1110 02:02:38.782098 23301 net.cpp:96] Setting up relu7
I1110 02:02:38.782111 23301 net.cpp:103] Top shape: 32 4096 1 1 (131072)
I1110 02:02:38.782114 23301 layer_factory.hpp:78] Creating layer drop7
I1110 02:02:38.782121 23301 net.cpp:67] Creating Layer drop7
I1110 02:02:38.782124 23301 net.cpp:394] drop7 <- fc7
I1110 02:02:38.782129 23301 net.cpp:345] drop7 -> fc7 (in-place)
I1110 02:02:38.782132 23301 net.cpp:96] Setting up drop7
I1110 02:02:38.782136 23301 net.cpp:103] Top shape: 32 4096 1 1 (131072)
I1110 02:02:38.782140 23301 layer_factory.hpp:78] Creating layer fc8_2
I1110 02:02:38.782145 23301 net.cpp:67] Creating Layer fc8_2
I1110 02:02:38.782146 23301 net.cpp:394] fc8_2 <- fc7
I1110 02:02:38.782152 23301 net.cpp:356] fc8_2 -> fc8_2
I1110 02:02:38.782158 23301 net.cpp:96] Setting up fc8_2
I1110 02:02:38.782369 23301 net.cpp:103] Top shape: 32 2 1 1 (64)
I1110 02:02:38.782377 23301 layer_factory.hpp:78] Creating layer loss
I1110 02:02:38.782383 23301 net.cpp:67] Creating Layer loss
I1110 02:02:38.782387 23301 net.cpp:394] loss <- fc8_2
I1110 02:02:38.782390 23301 net.cpp:394] loss <- label
I1110 02:02:38.782399 23301 net.cpp:356] loss -> (automatic)
I1110 02:02:38.782407 23301 net.cpp:96] Setting up loss
I1110 02:02:38.782413 23301 net.cpp:103] Top shape: 1 1 1 1 (1)
I1110 02:02:38.782418 23301 net.cpp:109]     with loss weight 1
I1110 02:02:38.782449 23301 net.cpp:170] loss needs backward computation.
I1110 02:02:38.782452 23301 net.cpp:170] fc8_2 needs backward computation.
I1110 02:02:38.782455 23301 net.cpp:170] drop7 needs backward computation.
I1110 02:02:38.782457 23301 net.cpp:170] relu7 needs backward computation.
I1110 02:02:38.782460 23301 net.cpp:170] fc7 needs backward computation.
…
I1110 02:02:38.783427 23301 net.cpp:275] The NetState phase (1) differed from the phase (0) specified by a rule in layer data
I1110 02:02:38.783642 23301 net.cpp:39] Initializing net from parameters: 
name: "small"
layers {
  top: "data"
  top: "label"
  name: "data"
  type: IMAGE_DATA
  image_data_param {
    source: "/data/ad6813/devCaffe/caffe/data/scrape_z_o/val.txt"
    batch_size: 8
    new_height: 256
    new_width: 256
  }
  include {
    phase: TEST
  }
  transform_param {
    mirror: true
    crop_size: 224
    mean_value: 86.752
    mean_value: 101.46
    mean_value: 104.6
  }
}
layers {
  bottom: "data"
  top: "conv1_1"
  name: "conv1_1"
  type: CONVOLUTION
  convolution_param {
    num_output: 64
    pad: 1
    kernel_size: 3
    weight_filler {
      type: "gaussian"
      std: 0.01
    }
    bias_filler {
      type: "constant"
      value: 0
    }
  }
}
layers {
  bottom: "conv1_1"
  top: "conv1_1"
  name: "relu1_1"
  type: RELU
}
layers {
  bottom: "conv1_1"
  top: "conv1_2"
  name: "conv1_2"
  type: CONVOLUTION
  convolution_param {
    num_output: 64
    pad: 1
    kernel_size: 3
    weight_filler {
      type: "gaussian"
      std: 0.01
    }
    bias_filler {
      type: "constant"
      value: 0
    }
  }
}
layers {
  bottom: "conv1_2"
  top: "conv1_2"
  name: "relu1_2"
  type: RELU
}
layers {
  bottom: "conv1_2"
  top: "pool1"
  name: "pool1"
  type: POOLING
  pooling_param {
    pool: MAX
    kernel_size: 2
    stride: 2
  }
}
layers {
  bottom: "pool1"
  top: "conv2_1"
  name: "conv2_1"
  type: CONVOLUTION
  convolution_param {
    num_output: 128
    pad: 1
    kernel_size: 3
    weight_filler {
      type: "gaussian"
      std: 0.01
    }
    bias_filler {
      type: "constant"
      value: 0
    }
  }
}
layers {
  bottom: "conv2_1"
  top: "conv2_1"
  name: "relu2_1"
  type: RELU
}
layers {
  bottom: "conv2_1"
  top: "conv2_2"
  name: "conv2_2"
  type: CONVOLUTION
  convolution_param {
    num_output: 128
    pad: 1
    kernel_size: 3
    weight_filler {
      type: "gaussian"
      std: 0.01
    }
    bias_filler {
      type: "constant"
      value: 0
    }
  }
}
layers {
  bottom: "conv2_2"
  top: "conv2_2"
  name: "relu2_2"
  type: RELU
}
layers {
  bottom: "conv2_2"
  top: "pool2"
  name: "pool2"
  type: POOLING
  pooling_param {
    pool: MAX
    kernel_size: 2
    stride: 2
  }
}
layers {
  bottom: "pool2"
  top: "conv3_1"
  name: "conv3_1"
  type: CONVOLUTION
  convolution_param {
    num_output: 256
    pad: 1
    kernel_size: 3
    weight_filler {
      type: "gaussian"
      std: 0.01
    }
    bias_filler {
      type: "constant"
      value: 0
    }
  }
}
layers {
  bottom: "conv3_1"
  top: "conv3_1"
  name: "relu3_1"
  type: RELU
}
layers {
  bottom: "conv3_1"
  top: "conv3_2"
  name: "conv3_2"
  type: CONVOLUTION
  convolution_param {
    num_output: 256
    pad: 1
    kernel_size: 3
    weight_filler {
      type: "gaussian"
      std: 0.01
    }
    bias_filler {
      type: "constant"
      value: 0
    }
  }
}
layers {
  bottom: "conv3_2"
  top: "conv3_2"
  name: "relu3_2"
  type: RELU
}
layers {
  bottom: "conv3_2"
  top: "conv3_3"
  name: "conv3_3"
  type: CONVOLUTION
  convolution_param {
    num_output: 256
    pad: 1
    kernel_size: 3
    weight_filler {
      type: "gaussian"
      std: 0.01
    }
    bias_filler {
      type: "constant"
      value: 0
    }
  }
}
layers {
  bottom: "conv3_3"
  top: "conv3_3"
  name: "relu3_3"
  type: RELU
}
layers {
  bottom: "conv3_3"
  top: "pool3"
  name: "pool3"
  type: POOLING
  pooling_param {
    pool: MAX
    kernel_size: 2
    stride: 2
  }
}
layers {
  bottom: "pool3"
  top: "conv4_1"
  name: "conv4_1"
  type: CONVOLUTION
  convolution_param {
    num_output: 512
    pad: 1
    kernel_size: 3
    weight_filler {
      type: "gaussian"
      std: 0.01
    }
    bias_filler {
      type: "constant"
      value: 0
    }
  }
}
layers {
  bottom: "conv4_1"
  top: "conv4_1"
  name: "relu4_1"
  type: RELU
}
layers {
  bottom: "conv4_1"
  top: "conv4_2"
  name: "conv4_2"
  type: CONVOLUTION
  convolution_param {
    num_output: 512
    pad: 1
    kernel_size: 3
    weight_filler {
      type: "gaussian"
      std: 0.01
    }
    bias_filler {
      type: "constant"
      value: 0
    }
  }
}
layers {
  bottom: "conv4_2"
  top: "conv4_2"
  name: "relu4_2"
  type: RELU
}
layers {
  bottom: "conv4_2"
  top: "conv4_3"
  name: "conv4_3"
  type: CONVOLUTION
  convolution_param {
    num_output: 512
    pad: 1
    kernel_size: 3
    weight_filler {
      type: "gaussian"
      std: 0.01
    }
    bias_filler {
      type: "constant"
      value: 0
    }
  }
}
layers {
  bottom: "conv4_3"
  top: "conv4_3"
  name: "relu4_3"
  type: RELU
}
layers {
  bottom: "conv4_3"
  top: "pool4"
  name: "pool4"
  type: POOLING
  pooling_param {
    pool: MAX
    kernel_size: 2
    stride: 2
  }
}
layers {
  bottom: "pool4"
  top: "conv5_1"
  name: "conv5_1"
  type: CONVOLUTION
  convolution_param {
    num_output: 512
    pad: 1
    kernel_size: 3
    weight_filler {
      type: "gaussian"
      std: 0.01
    }
    bias_filler {
      type: "constant"
      value: 0
    }
  }
}
layers {
  bottom: "conv5_1"
  top: "conv5_1"
  name: "relu5_1"
  type: RELU
}
layers {
  bottom: "conv5_1"
  top: "conv5_2"
  name: "conv5_2"
  type: CONVOLUTION
  convolution_param {
    num_output: 512
    pad: 1
    kernel_size: 3
    weight_filler {
      type: "gaussian"
      std: 0.01
    }
    bias_filler {
      type: "constant"
      value: 0
    }
  }
}
layers {
  bottom: "conv5_2"
  top: "conv5_2"
  name: "relu5_2"
  type: RELU
}
layers {
  bottom: "conv5_2"
  top: "conv5_3"
  name: "conv5_3"
  type: CONVOLUTION
  convolution_param {
    num_output: 512
    pad: 1
    kernel_size: 3
    weight_filler {
      type: "gaussian"
      std: 0.01
    }
    bias_filler {
      type: "constant"
      value: 0
    }
  }
}
layers {
  bottom: "conv5_3"
  top: "conv5_3"
  name: "relu5_3"
  type: RELU
}
layers {
  bottom: "conv5_3"
  top: "pool5"
  name: "pool5"
  type: POOLING
  pooling_param {
    pool: MAX
    kernel_size: 2
    stride: 2
  }
}
layers {
  bottom: "pool5"
  top: "fc6"
  name: "fc6"
  type: INNER_PRODUCT
  inner_product_param {
    num_output: 4096
    weight_filler {
      type: "gaussian"
      std: 0.01
    }
    bias_filler {
      type: "constant"
      value: 0
    }
  }
}
layers {
  bottom: "fc6"
  top: "fc6"
  name: "relu6"
  type: RELU
}
layers {
  bottom: "fc6"
  top: "fc6"
  name: "drop6"
  type: DROPOUT
  dropout_param {
    dropout_ratio: 0.5
  }
}
layers {
  bottom: "fc6"
  top: "fc7"
  name: "fc7"
  type: INNER_PRODUCT
  inner_product_param {
    num_output: 4096
    weight_filler {
      type: "gaussian"
      std: 0.01
    }
    bias_filler {
      type: "constant"
      value: 0
    }
  }
}
layers {
  bottom: "fc7"
  top: "fc7"
  name: "relu7"
  type: RELU
}
layers {
  bottom: "fc7"
  top: "fc7"
  name: "drop7"
  type: DROPOUT
  dropout_param {
    dropout_ratio: 0.5
  }
}
layers {
  bottom: "fc7"
  top: "fc8_2"
  name: "fc8_2"
  type: INNER_PRODUCT
  inner_product_param {
    num_output: 2
    weight_filler {
      type: "gaussian"
      std: 0.01
    }
    bias_filler {
      type: "constant"
      value: 0
    }
  }
}
layers {
  bottom: "fc8_2"
  bottom: "label"
  name: "loss"
  type: SOFTMAX_LOSS
}
layers {
  bottom: "fc8_2"
  bottom: "label"
  top: "accuracy"
  name: "accuracy"
  type: PER_CLASS_ACCURACY
  include {
    phase: TEST
  }
}
state {
  phase: TEST
}
I1110 02:02:38.783767 23301 layer_factory.hpp:78] Creating layer data
I1110 02:02:38.783777 23301 net.cpp:67] Creating Layer data
I1110 02:02:38.783782 23301 net.cpp:356] data -> data
I1110 02:02:38.783789 23301 net.cpp:356] data -> label
I1110 02:02:38.783794 23301 net.cpp:96] Setting up data
I1110 02:02:38.783798 23301 image_data_layer.cpp:34] Opening file /data/ad6813/devCaffe/caffe/data/scrape_z_o/val.txt
I1110 02:02:38.785718 23301 image_data_layer.cpp:49] A total of 5581 images.
I1110 02:02:38.792392 23301 image_data_layer.cpp:78] output data size: 8,3,224,224
I1110 02:02:38.792994 23301 net.cpp:103] Top shape: 8 3 224 224 (1204224)
I1110 02:02:38.793001 23301 net.cpp:103] Top shape: 8 1 1 1 (8)
I1110 02:02:38.793004 23301 layer_factory.hpp:78] Creating layer label_data_1_split
I1110 02:02:38.793014 23301 net.cpp:67] Creating Layer label_data_1_split
I1110 02:02:38.793018 23301 net.cpp:394] label_data_1_split <- label
I1110 02:02:38.793023 23301 net.cpp:356] label_data_1_split -> label_data_1_split_0
I1110 02:02:38.793031 23301 net.cpp:356] label_data_1_split -> label_data_1_split_1
I1110 02:02:38.793036 23301 net.cpp:96] Setting up label_data_1_split
I1110 02:02:38.793040 23301 net.cpp:103] Top shape: 8 1 1 1 (8)
I1110 02:02:38.793043 23301 net.cpp:103] Top shape: 8 1 1 1 (8)
I1110 02:02:38.793046 23301 layer_factory.hpp:78] Creating layer conv1_1
I1110 02:02:38.793051 23301 net.cpp:67] Creating Layer conv1_1
I1110 02:02:38.793054 23301 net.cpp:394] conv1_1 <- data
I1110 02:02:38.793059 23301 net.cpp:356] conv1_1 -> conv1_1
I1110 02:02:38.793066 23301 net.cpp:96] Setting up conv1_1
I1110 02:02:38.793259 23301 net.cpp:103] Top shape: 8 64 224 224 (25690112)
I1110 02:02:38.793273 23301 layer_factory.hpp:78] Creating layer relu1_1
I1110 02:02:38.793282 23301 net.cpp:67] Creating Layer relu1_1
I1110 02:02:38.793285 23301 net.cpp:394] relu1_1 <- conv1_1
I1110 02:02:38.793289 23301 net.cpp:345] relu1_1 -> conv1_1 (in-place)
I1110 02:02:38.793299 23301 net.cpp:96] Setting up relu1_1
I1110 02:02:38.793305 23301 net.cpp:103] Top shape: 8 64 224 224 (25690112)
I1110 02:02:38.793308 23301 layer_factory.hpp:78] Creating layer conv1_2
I1110 02:02:38.793313 23301 net.cpp:67] Creating Layer conv1_2
I1110 02:02:38.793316 23301 net.cpp:394] conv1_2 <- conv1_1
I1110 02:02:38.793323 23301 net.cpp:356] conv1_2 -> conv1_2
I1110 02:02:38.793329 23301 net.cpp:96] Setting up conv1_2
I1110 02:02:38.794359 23301 net.cpp:103] Top shape: 8 64 224 224 (25690112)
I1110 02:02:38.794373 23301 layer_factory.hpp:78] Creating layer relu1_2
I1110 02:02:38.794378 23301 net.cpp:67] Creating Layer relu1_2
I1110 02:02:38.794380 23301 net.cpp:394] relu1_2 <- conv1_2
I1110 02:02:38.794386 23301 net.cpp:345] relu1_2 -> conv1_2 (in-place)
I1110 02:02:38.794390 23301 net.cpp:96] Setting up relu1_2
I1110 02:02:38.794395 23301 net.cpp:103] Top shape: 8 64 224 224 (25690112)
I1110 02:02:38.794399 23301 layer_factory.hpp:78] Creating layer pool1
I1110 02:02:38.794404 23301 net.cpp:67] Creating Layer pool1
I1110 02:02:38.794406 23301 net.cpp:394] pool1 <- conv1_2
I1110 02:02:38.794410 23301 net.cpp:356] pool1 -> pool1
I1110 02:02:38.794415 23301 net.cpp:96] Setting up pool1
I1110 02:02:38.794422 23301 net.cpp:103] Top shape: 8 64 112 112 (6422528)
I1110 02:02:38.794425 23301 layer_factory.hpp:78] Creating layer conv2_1
I1110 02:02:38.794431 23301 net.cpp:67] Creating Layer conv2_1
I1110 02:02:38.794435 23301 net.cpp:394] conv2_1 <- pool1
I1110 02:02:38.794440 23301 net.cpp:356] conv2_1 -> conv2_1
I1110 02:02:38.794445 23301 net.cpp:96] Setting up conv2_1
I1110 02:02:38.796489 23301 net.cpp:103] Top shape: 8 128 112 112 (12845056)
I1110 02:02:38.796504 23301 layer_factory.hpp:78] Creating layer relu2_1
I1110 02:02:38.796510 23301 net.cpp:67] Creating Layer relu2_1
I1110 02:02:38.796514 23301 net.cpp:394] relu2_1 <- conv2_1
I1110 02:02:38.796519 23301 net.cpp:345] relu2_1 -> conv2_1 (in-place)
I1110 02:02:38.796524 23301 net.cpp:96] Setting up relu2_1
I1110 02:02:38.796529 23301 net.cpp:103] Top shape: 8 128 112 112 (12845056)
I1110 02:02:38.796531 23301 layer_factory.hpp:78] Creating layer conv2_2
I1110 02:02:38.796536 23301 net.cpp:67] Creating Layer conv2_2
I1110 02:02:38.796540 23301 net.cpp:394] conv2_2 <- conv2_1
I1110 02:02:38.796545 23301 net.cpp:356] conv2_2 -> conv2_2
I1110 02:02:38.796551 23301 net.cpp:96] Setting up conv2_2
I1110 02:02:38.800297 23301 net.cpp:103] Top shape: 8 128 112 112 (12845056)
I1110 02:02:38.800308 23301 layer_factory.hpp:78] Creating layer relu2_2
I1110 02:02:38.800313 23301 net.cpp:67] Creating Layer relu2_2
I1110 02:02:38.800317 23301 net.cpp:394] relu2_2 <- conv2_2
I1110 02:02:38.800321 23301 net.cpp:345] relu2_2 -> conv2_2 (in-place)
I1110 02:02:38.800325 23301 net.cpp:96] Setting up relu2_2
I1110 02:02:38.800330 23301 net.cpp:103] Top shape: 8 128 112 112 (12845056)
I1110 02:02:38.800334 23301 layer_factory.hpp:78] Creating layer pool2
I1110 02:02:38.800338 23301 net.cpp:67] Creating Layer pool2
I1110 02:02:38.800341 23301 net.cpp:394] pool2 <- conv2_2
I1110 02:02:38.800348 23301 net.cpp:356] pool2 -> pool2
I1110 02:02:38.800353 23301 net.cpp:96] Setting up pool2
I1110 02:02:38.800359 23301 net.cpp:103] Top shape: 8 128 56 56 (3211264)
I1110 02:02:38.800362 23301 layer_factory.hpp:78] Creating layer conv3_1
I1110 02:02:38.800369 23301 net.cpp:67] Creating Layer conv3_1
I1110 02:02:38.800371 23301 net.cpp:394] conv3_1 <- pool2
I1110 02:02:38.800376 23301 net.cpp:356] conv3_1 -> conv3_1
I1110 02:02:38.800381 23301 net.cpp:96] Setting up conv3_1
I1110 02:02:38.807744 23301 net.cpp:103] Top shape: 8 256 56 56 (6422528)
I1110 02:02:38.807757 23301 layer_factory.hpp:78] Creating layer relu3_1
I1110 02:02:38.807762 23301 net.cpp:67] Creating Layer relu3_1
I1110 02:02:38.807766 23301 net.cpp:394] relu3_1 <- conv3_1
I1110 02:02:38.807772 23301 net.cpp:345] relu3_1 -> conv3_1 (in-place)
I1110 02:02:38.807777 23301 net.cpp:96] Setting up relu3_1
I1110 02:02:38.807782 23301 net.cpp:103] Top shape: 8 256 56 56 (6422528)
I1110 02:02:38.807785 23301 layer_factory.hpp:78] Creating layer conv3_2
I1110 02:02:38.807796 23301 net.cpp:67] Creating Layer conv3_2
I1110 02:02:38.807798 23301 net.cpp:394] conv3_2 <- conv3_1
I1110 02:02:38.807806 23301 net.cpp:356] conv3_2 -> conv3_2
I1110 02:02:38.807811 23301 net.cpp:96] Setting up conv3_2
I1110 02:02:38.822490 23301 net.cpp:103] Top shape: 8 256 56 56 (6422528)
I1110 02:02:38.822509 23301 layer_factory.hpp:78] Creating layer relu3_2
I1110 02:02:38.822515 23301 net.cpp:67] Creating Layer relu3_2
I1110 02:02:38.822520 23301 net.cpp:394] relu3_2 <- conv3_2
I1110 02:02:38.822525 23301 net.cpp:345] relu3_2 -> conv3_2 (in-place)
I1110 02:02:38.822530 23301 net.cpp:96] Setting up relu3_2
I1110 02:02:38.822536 23301 net.cpp:103] Top shape: 8 256 56 56 (6422528)
I1110 02:02:38.822540 23301 layer_factory.hpp:78] Creating layer conv3_3
I1110 02:02:38.822548 23301 net.cpp:67] Creating Layer conv3_3
I1110 02:02:38.822551 23301 net.cpp:394] conv3_3 <- conv3_2
I1110 02:02:38.822557 23301 net.cpp:356] conv3_3 -> conv3_3
I1110 02:02:38.822562 23301 net.cpp:96] Setting up conv3_3
I1110 02:02:38.837055 23301 net.cpp:103] Top shape: 8 256 56 56 (6422528)
I1110 02:02:38.837071 23301 layer_factory.hpp:78] Creating layer relu3_3
I1110 02:02:38.837077 23301 net.cpp:67] Creating Layer relu3_3
I1110 02:02:38.837080 23301 net.cpp:394] relu3_3 <- conv3_3
I1110 02:02:38.837085 23301 net.cpp:345] relu3_3 -> conv3_3 (in-place)
I1110 02:02:38.837091 23301 net.cpp:96] Setting up relu3_3
I1110 02:02:38.837096 23301 net.cpp:103] Top shape: 8 256 56 56 (6422528)
I1110 02:02:38.837100 23301 layer_factory.hpp:78] Creating layer pool3
I1110 02:02:38.837105 23301 net.cpp:67] Creating Layer pool3
I1110 02:02:38.837107 23301 net.cpp:394] pool3 <- conv3_3
I1110 02:02:38.837112 23301 net.cpp:356] pool3 -> pool3
I1110 02:02:38.837117 23301 net.cpp:96] Setting up pool3
I1110 02:02:38.837124 23301 net.cpp:103] Top shape: 8 256 28 28 (1605632)
I1110 02:02:38.837128 23301 layer_factory.hpp:78] Creating layer conv4_1
I1110 02:02:38.837133 23301 net.cpp:67] Creating Layer conv4_1
I1110 02:02:38.837136 23301 net.cpp:394] conv4_1 <- pool3
I1110 02:02:38.837141 23301 net.cpp:356] conv4_1 -> conv4_1
I1110 02:02:38.837146 23301 net.cpp:96] Setting up conv4_1
I1110 02:02:38.866225 23301 net.cpp:103] Top shape: 8 512 28 28 (3211264)
I1110 02:02:38.866252 23301 layer_factory.hpp:78] Creating layer relu4_1
I1110 02:02:38.866261 23301 net.cpp:67] Creating Layer relu4_1
I1110 02:02:38.866266 23301 net.cpp:394] relu4_1 <- conv4_1
I1110 02:02:38.866274 23301 net.cpp:345] relu4_1 -> conv4_1 (in-place)
I1110 02:02:38.866281 23301 net.cpp:96] Setting up relu4_1
I1110 02:02:38.866287 23301 net.cpp:103] Top shape: 8 512 28 28 (3211264)
I1110 02:02:38.866291 23301 layer_factory.hpp:78] Creating layer conv4_2
I1110 02:02:38.866297 23301 net.cpp:67] Creating Layer conv4_2
I1110 02:02:38.866299 23301 net.cpp:394] conv4_2 <- conv4_1
I1110 02:02:38.866304 23301 net.cpp:356] conv4_2 -> conv4_2
I1110 02:02:38.866310 23301 net.cpp:96] Setting up conv4_2
I1110 02:02:38.922067 23301 net.cpp:103] Top shape: 8 512 28 28 (3211264)
I1110 02:02:38.922111 23301 layer_factory.hpp:78] Creating layer relu4_2
I1110 02:02:38.922118 23301 net.cpp:67] Creating Layer relu4_2
I1110 02:02:38.922123 23301 net.cpp:394] relu4_2 <- conv4_2
I1110 02:02:38.922130 23301 net.cpp:345] relu4_2 -> conv4_2 (in-place)
I1110 02:02:38.922137 23301 net.cpp:96] Setting up relu4_2
I1110 02:02:38.922142 23301 net.cpp:103] Top shape: 8 512 28 28 (3211264)
I1110 02:02:38.922145 23301 layer_factory.hpp:78] Creating layer conv4_3
I1110 02:02:38.922154 23301 net.cpp:67] Creating Layer conv4_3
I1110 02:02:38.922158 23301 net.cpp:394] conv4_3 <- conv4_2
I1110 02:02:38.922163 23301 net.cpp:356] conv4_3 -> conv4_3
I1110 02:02:38.922169 23301 net.cpp:96] Setting up conv4_3
I1110 02:02:38.976960 23301 net.cpp:103] Top shape: 8 512 28 28 (3211264)
I1110 02:02:38.976996 23301 layer_factory.hpp:78] Creating layer relu4_3
I1110 02:02:38.977005 23301 net.cpp:67] Creating Layer relu4_3
I1110 02:02:38.977010 23301 net.cpp:394] relu4_3 <- conv4_3
I1110 02:02:38.977025 23301 net.cpp:345] relu4_3 -> conv4_3 (in-place)
I1110 02:02:38.977030 23301 net.cpp:96] Setting up relu4_3
I1110 02:02:38.977036 23301 net.cpp:103] Top shape: 8 512 28 28 (3211264)
I1110 02:02:38.977040 23301 layer_factory.hpp:78] Creating layer pool4
I1110 02:02:38.977044 23301 net.cpp:67] Creating Layer pool4
I1110 02:02:38.977047 23301 net.cpp:394] pool4 <- conv4_3
I1110 02:02:38.977056 23301 net.cpp:356] pool4 -> pool4
I1110 02:02:38.977061 23301 net.cpp:96] Setting up pool4
I1110 02:02:38.977068 23301 net.cpp:103] Top shape: 8 512 14 14 (802816)
I1110 02:02:38.977072 23301 layer_factory.hpp:78] Creating layer conv5_1
I1110 02:02:38.977079 23301 net.cpp:67] Creating Layer conv5_1
I1110 02:02:38.977082 23301 net.cpp:394] conv5_1 <- pool4
I1110 02:02:38.977087 23301 net.cpp:356] conv5_1 -> conv5_1
I1110 02:02:38.977092 23301 net.cpp:96] Setting up conv5_1
I1110 02:02:39.032217 23301 net.cpp:103] Top shape: 8 512 14 14 (802816)
I1110 02:02:39.032253 23301 layer_factory.hpp:78] Creating layer relu5_1
I1110 02:02:39.032260 23301 net.cpp:67] Creating Layer relu5_1
I1110 02:02:39.032265 23301 net.cpp:394] relu5_1 <- conv5_1
I1110 02:02:39.032271 23301 net.cpp:345] relu5_1 -> conv5_1 (in-place)
I1110 02:02:39.032277 23301 net.cpp:96] Setting up relu5_1
I1110 02:02:39.032284 23301 net.cpp:103] Top shape: 8 512 14 14 (802816)
I1110 02:02:39.032286 23301 layer_factory.hpp:78] Creating layer conv5_2
I1110 02:02:39.032294 23301 net.cpp:67] Creating Layer conv5_2
I1110 02:02:39.032297 23301 net.cpp:394] conv5_2 <- conv5_1
I1110 02:02:39.032302 23301 net.cpp:356] conv5_2 -> conv5_2
I1110 02:02:39.032310 23301 net.cpp:96] Setting up conv5_2
I1110 02:02:39.087100 23301 net.cpp:103] Top shape: 8 512 14 14 (802816)
I1110 02:02:39.087139 23301 layer_factory.hpp:78] Creating layer relu5_2
I1110 02:02:39.087149 23301 net.cpp:67] Creating Layer relu5_2
I1110 02:02:39.087154 23301 net.cpp:394] relu5_2 <- conv5_2
I1110 02:02:39.087160 23301 net.cpp:345] relu5_2 -> conv5_2 (in-place)
I1110 02:02:39.087167 23301 net.cpp:96] Setting up relu5_2
I1110 02:02:39.087172 23301 net.cpp:103] Top shape: 8 512 14 14 (802816)
I1110 02:02:39.087175 23301 layer_factory.hpp:78] Creating layer conv5_3
I1110 02:02:39.087182 23301 net.cpp:67] Creating Layer conv5_3
I1110 02:02:39.087185 23301 net.cpp:394] conv5_3 <- conv5_2
I1110 02:02:39.087189 23301 net.cpp:356] conv5_3 -> conv5_3
I1110 02:02:39.087195 23301 net.cpp:96] Setting up conv5_3
I1110 02:02:39.142438 23301 net.cpp:103] Top shape: 8 512 14 14 (802816)
I1110 02:02:39.142474 23301 layer_factory.hpp:78] Creating layer relu5_3
I1110 02:02:39.142484 23301 net.cpp:67] Creating Layer relu5_3
I1110 02:02:39.142489 23301 net.cpp:394] relu5_3 <- conv5_3
I1110 02:02:39.142495 23301 net.cpp:345] relu5_3 -> conv5_3 (in-place)
I1110 02:02:39.142503 23301 net.cpp:96] Setting up relu5_3
I1110 02:02:39.142508 23301 net.cpp:103] Top shape: 8 512 14 14 (802816)
I1110 02:02:39.142510 23301 layer_factory.hpp:78] Creating layer pool5
I1110 02:02:39.142520 23301 net.cpp:67] Creating Layer pool5
I1110 02:02:39.142524 23301 net.cpp:394] pool5 <- conv5_3
I1110 02:02:39.142529 23301 net.cpp:356] pool5 -> pool5
I1110 02:02:39.142534 23301 net.cpp:96] Setting up pool5
I1110 02:02:39.142541 23301 net.cpp:103] Top shape: 8 512 7 7 (200704)
I1110 02:02:39.142545 23301 layer_factory.hpp:78] Creating layer fc6
I1110 02:02:39.142551 23301 net.cpp:67] Creating Layer fc6
I1110 02:02:39.142554 23301 net.cpp:394] fc6 <- pool5
I1110 02:02:39.142560 23301 net.cpp:356] fc6 -> fc6
I1110 02:02:39.142565 23301 net.cpp:96] Setting up fc6
I1110 02:02:41.514468 23301 net.cpp:103] Top shape: 8 4096 1 1 (32768)
I1110 02:02:41.514510 23301 layer_factory.hpp:78] Creating layer relu6
I1110 02:02:41.514519 23301 net.cpp:67] Creating Layer relu6
I1110 02:02:41.514523 23301 net.cpp:394] relu6 <- fc6
I1110 02:02:41.514530 23301 net.cpp:345] relu6 -> fc6 (in-place)
I1110 02:02:41.514538 23301 net.cpp:96] Setting up relu6
I1110 02:02:41.514550 23301 net.cpp:103] Top shape: 8 4096 1 1 (32768)
I1110 02:02:41.514554 23301 layer_factory.hpp:78] Creating layer drop6
I1110 02:02:41.514570 23301 net.cpp:67] Creating Layer drop6
I1110 02:02:41.514574 23301 net.cpp:394] drop6 <- fc6
I1110 02:02:41.514580 23301 net.cpp:345] drop6 -> fc6 (in-place)
I1110 02:02:41.514585 23301 net.cpp:96] Setting up drop6
I1110 02:02:41.514588 23301 net.cpp:103] Top shape: 8 4096 1 1 (32768)
I1110 02:02:41.514591 23301 layer_factory.hpp:78] Creating layer fc7
I1110 02:02:41.514596 23301 net.cpp:67] Creating Layer fc7
I1110 02:02:41.514600 23301 net.cpp:394] fc7 <- fc6
I1110 02:02:41.514603 23301 net.cpp:356] fc7 -> fc7
I1110 02:02:41.514610 23301 net.cpp:96] Setting up fc7
I1110 02:02:41.902807 23301 net.cpp:103] Top shape: 8 4096 1 1 (32768)
I1110 02:02:41.902834 23301 layer_factory.hpp:78] Creating layer relu7
I1110 02:02:41.902842 23301 net.cpp:67] Creating Layer relu7
I1110 02:02:41.902847 23301 net.cpp:394] relu7 <- fc7
I1110 02:02:41.902853 23301 net.cpp:345] relu7 -> fc7 (in-place)
I1110 02:02:41.902859 23301 net.cpp:96] Setting up relu7
I1110 02:02:41.902873 23301 net.cpp:103] Top shape: 8 4096 1 1 (32768)
I1110 02:02:41.902876 23301 layer_factory.hpp:78] Creating layer drop7
I1110 02:02:41.902883 23301 net.cpp:67] Creating Layer drop7
I1110 02:02:41.902885 23301 net.cpp:394] drop7 <- fc7
I1110 02:02:41.902890 23301 net.cpp:345] drop7 -> fc7 (in-place)
I1110 02:02:41.902894 23301 net.cpp:96] Setting up drop7
I1110 02:02:41.902899 23301 net.cpp:103] Top shape: 8 4096 1 1 (32768)
I1110 02:02:41.902900 23301 layer_factory.hpp:78] Creating layer fc8_2
I1110 02:02:41.902907 23301 net.cpp:67] Creating Layer fc8_2
I1110 02:02:41.902910 23301 net.cpp:394] fc8_2 <- fc7
I1110 02:02:41.902915 23301 net.cpp:356] fc8_2 -> fc8_2
I1110 02:02:41.902921 23301 net.cpp:96] Setting up fc8_2
I1110 02:02:41.903132 23301 net.cpp:103] Top shape: 8 2 1 1 (16)
I1110 02:02:41.903139 23301 layer_factory.hpp:78] Creating layer fc8_2_fc8_2_0_split
I1110 02:02:41.903146 23301 net.cpp:67] Creating Layer fc8_2_fc8_2_0_split
I1110 02:02:41.903148 23301 net.cpp:394] fc8_2_fc8_2_0_split <- fc8_2
I1110 02:02:41.903153 23301 net.cpp:356] fc8_2_fc8_2_0_split -> fc8_2_fc8_2_0_split_0
I1110 02:02:41.903158 23301 net.cpp:356] fc8_2_fc8_2_0_split -> fc8_2_fc8_2_0_split_1
I1110 02:02:41.903163 23301 net.cpp:96] Setting up fc8_2_fc8_2_0_split
I1110 02:02:41.903167 23301 net.cpp:103] Top shape: 8 2 1 1 (16)
I1110 02:02:41.903170 23301 net.cpp:103] Top shape: 8 2 1 1 (16)
I1110 02:02:41.903173 23301 layer_factory.hpp:78] Creating layer loss
I1110 02:02:41.903180 23301 net.cpp:67] Creating Layer loss
I1110 02:02:41.903183 23301 net.cpp:394] loss <- fc8_2_fc8_2_0_split_0
I1110 02:02:41.903187 23301 net.cpp:394] loss <- label_data_1_split_0
I1110 02:02:41.903192 23301 net.cpp:356] loss -> (automatic)
I1110 02:02:41.903195 23301 net.cpp:96] Setting up loss
I1110 02:02:41.903201 23301 net.cpp:103] Top shape: 1 1 1 1 (1)
I1110 02:02:41.903204 23301 net.cpp:109]     with loss weight 1
I1110 02:02:41.903219 23301 layer_factory.hpp:78] Creating layer accuracy
I1110 02:02:41.903229 23301 net.cpp:67] Creating Layer accuracy
I1110 02:02:41.903235 23301 net.cpp:394] accuracy <- fc8_2_fc8_2_0_split_1
I1110 02:02:41.903239 23301 net.cpp:394] accuracy <- label_data_1_split_1
I1110 02:02:41.903244 23301 net.cpp:356] accuracy -> accuracy
I1110 02:02:41.903249 23301 net.cpp:96] Setting up accuracy
I1110 02:02:41.903257 23301 net.cpp:103] Top shape: 1 1 1 4 (4)
I1110 02:02:41.903260 23301 net.cpp:172] accuracy does not need backward computation.
I1110 02:02:41.903264 23301 net.cpp:170] loss needs backward computation.
I1110 02:02:41.903266 23301 net.cpp:170] fc8_2_fc8_2_0_split needs backward computation.
I1110 02:02:41.903270 23301 net.cpp:170] fc8_2 needs backward computation.
I1110 02:02:41.903272 23301 net.cpp:170] drop7 needs backward computation.
…
