…
I1108 20:18:03.672809 20340 net.cpp:275] The NetState phase (0) differed from the phase (1) specified by a rule in layer accuracy
I1108 20:18:03.672993 20340 net.cpp:39] Initializing net from parameters: 
name: "small"
layers {
  top: "data"
  top: "label"
  name: "data"
  type: IMAGE_DATA
  image_data_param {
    source: "/data/ad6813/devCaffe/caffe/data/inadcl_o/train.txt"
    batch_size: 25
    new_height: 256
    new_width: 256
  }
  include {
    phase: TRAIN
  }
  transform_param {
    mirror: true
    crop_size: 224
    mean_value: 86.752
    mean_value: 101.46
    mean_value: 104.6
  }
}
layers {
  bottom: "data"
  top: "conv1_1"
  name: "conv1_1"
  type: CONVOLUTION
  convolution_param {
    num_output: 64
    pad: 1
    kernel_size: 3
    weight_filler {
      type: "gaussian"
      std: 0.01
    }
    bias_filler {
      type: "constant"
      value: 0
    }
  }
}
layers {
  bottom: "conv1_1"
  top: "conv1_1"
  name: "relu1_1"
  type: RELU
}
layers {
  bottom: "conv1_1"
  top: "conv1_2"
  name: "conv1_2"
  type: CONVOLUTION
  convolution_param {
    num_output: 64
    pad: 1
    kernel_size: 3
    weight_filler {
      type: "gaussian"
      std: 0.01
    }
    bias_filler {
      type: "constant"
      value: 0
    }
  }
}
layers {
  bottom: "conv1_2"
  top: "conv1_2"
  name: "relu1_2"
  type: RELU
}
layers {
  bottom: "conv1_2"
  top: "pool1"
  name: "pool1"
  type: POOLING
  pooling_param {
    pool: MAX
    kernel_size: 2
    stride: 2
  }
}
layers {
  bottom: "pool1"
  top: "conv2_1"
  name: "conv2_1"
  type: CONVOLUTION
  convolution_param {
    num_output: 128
    pad: 1
    kernel_size: 3
    weight_filler {
      type: "gaussian"
      std: 0.01
    }
    bias_filler {
      type: "constant"
      value: 0
    }
  }
}
layers {
  bottom: "conv2_1"
  top: "conv2_1"
  name: "relu2_1"
  type: RELU
}
layers {
  bottom: "conv2_1"
  top: "conv2_2"
  name: "conv2_2"
  type: CONVOLUTION
  convolution_param {
    num_output: 128
    pad: 1
    kernel_size: 3
    weight_filler {
      type: "gaussian"
      std: 0.01
    }
    bias_filler {
      type: "constant"
      value: 0
    }
  }
}
layers {
  bottom: "conv2_2"
  top: "conv2_2"
  name: "relu2_2"
  type: RELU
}
layers {
  bottom: "conv2_2"
  top: "pool2"
  name: "pool2"
  type: POOLING
  pooling_param {
    pool: MAX
    kernel_size: 2
    stride: 2
  }
}
layers {
  bottom: "pool2"
  top: "conv3_1"
  name: "conv3_1"
  type: CONVOLUTION
  convolution_param {
    num_output: 256
    pad: 1
    kernel_size: 3
    weight_filler {
      type: "gaussian"
      std: 0.01
    }
    bias_filler {
      type: "constant"
      value: 0
    }
  }
}
layers {
  bottom: "conv3_1"
  top: "conv3_1"
  name: "relu3_1"
  type: RELU
}
layers {
  bottom: "conv3_1"
  top: "conv3_2"
  name: "conv3_2"
  type: CONVOLUTION
  convolution_param {
    num_output: 256
    pad: 1
    kernel_size: 3
    weight_filler {
      type: "gaussian"
      std: 0.01
    }
    bias_filler {
      type: "constant"
      value: 0
    }
  }
}
layers {
  bottom: "conv3_2"
  top: "conv3_2"
  name: "relu3_2"
  type: RELU
}
layers {
  bottom: "conv3_2"
  top: "conv3_3"
  name: "conv3_3"
  type: CONVOLUTION
  convolution_param {
    num_output: 256
    pad: 1
    kernel_size: 3
    weight_filler {
      type: "gaussian"
      std: 0.01
    }
    bias_filler {
      type: "constant"
      value: 0
    }
  }
}
layers {
  bottom: "conv3_3"
  top: "conv3_3"
  name: "relu3_3"
  type: RELU
}
layers {
  bottom: "conv3_3"
  top: "pool3"
  name: "pool3"
  type: POOLING
  pooling_param {
    pool: MAX
    kernel_size: 2
    stride: 2
  }
}
layers {
  bottom: "pool3"
  top: "conv4_1"
  name: "conv4_1"
  type: CONVOLUTION
  convolution_param {
    num_output: 512
    pad: 1
    kernel_size: 3
    weight_filler {
      type: "gaussian"
      std: 0.01
    }
    bias_filler {
      type: "constant"
      value: 0
    }
  }
}
layers {
  bottom: "conv4_1"
  top: "conv4_1"
  name: "relu4_1"
  type: RELU
}
layers {
  bottom: "conv4_1"
  top: "conv4_2"
  name: "conv4_2"
  type: CONVOLUTION
  convolution_param {
    num_output: 512
    pad: 1
    kernel_size: 3
    weight_filler {
      type: "gaussian"
      std: 0.01
    }
    bias_filler {
      type: "constant"
      value: 0
    }
  }
}
layers {
  bottom: "conv4_2"
  top: "conv4_2"
  name: "relu4_2"
  type: RELU
}
layers {
  bottom: "conv4_2"
  top: "conv4_3"
  name: "conv4_3"
  type: CONVOLUTION
  convolution_param {
    num_output: 512
    pad: 1
    kernel_size: 3
    weight_filler {
      type: "gaussian"
      std: 0.01
    }
    bias_filler {
      type: "constant"
      value: 0
    }
  }
}
layers {
  bottom: "conv4_3"
  top: "conv4_3"
  name: "relu4_3"
  type: RELU
}
layers {
  bottom: "conv4_3"
  top: "pool4"
  name: "pool4"
  type: POOLING
  pooling_param {
    pool: MAX
    kernel_size: 2
    stride: 2
  }
}
layers {
  bottom: "pool4"
  top: "conv5_1"
  name: "conv5_1"
  type: CONVOLUTION
  convolution_param {
    num_output: 512
    pad: 1
    kernel_size: 3
    weight_filler {
      type: "gaussian"
      std: 0.01
    }
    bias_filler {
      type: "constant"
      value: 0
    }
  }
}
layers {
  bottom: "conv5_1"
  top: "conv5_1"
  name: "relu5_1"
  type: RELU
}
layers {
  bottom: "conv5_1"
  top: "conv5_2"
  name: "conv5_2"
  type: CONVOLUTION
  convolution_param {
    num_output: 512
    pad: 1
    kernel_size: 3
    weight_filler {
      type: "gaussian"
      std: 0.01
    }
    bias_filler {
      type: "constant"
      value: 0
    }
  }
}
layers {
  bottom: "conv5_2"
  top: "conv5_2"
  name: "relu5_2"
  type: RELU
}
layers {
  bottom: "conv5_2"
  top: "conv5_3"
  name: "conv5_3"
  type: CONVOLUTION
  convolution_param {
    num_output: 512
    pad: 1
    kernel_size: 3
    weight_filler {
      type: "gaussian"
      std: 0.01
    }
    bias_filler {
      type: "constant"
      value: 0
    }
  }
}
layers {
  bottom: "conv5_3"
  top: "conv5_3"
  name: "relu5_3"
  type: RELU
}
layers {
  bottom: "conv5_3"
  top: "pool5"
  name: "pool5"
  type: POOLING
  pooling_param {
    pool: MAX
    kernel_size: 2
    stride: 2
  }
}
layers {
  bottom: "pool5"
  top: "fc6"
  name: "fc6"
  type: INNER_PRODUCT
  inner_product_param {
    num_output: 4096
    weight_filler {
      type: "gaussian"
      std: 0.01
    }
    bias_filler {
      type: "constant"
      value: 0
    }
  }
}
layers {
  bottom: "fc6"
  top: "fc6"
  name: "relu6"
  type: RELU
}
layers {
  bottom: "fc6"
  top: "fc6"
  name: "drop6"
  type: DROPOUT
  dropout_param {
    dropout_ratio: 0.5
  }
}
layers {
  bottom: "fc6"
  top: "fc7"
  name: "fc7"
  type: INNER_PRODUCT
  inner_product_param {
    num_output: 4096
    weight_filler {
      type: "gaussian"
      std: 0.01
    }
    bias_filler {
      type: "constant"
      value: 0
    }
  }
}
layers {
  bottom: "fc7"
  top: "fc7"
  name: "relu7"
  type: RELU
}
layers {
  bottom: "fc7"
  top: "fc7"
  name: "drop7"
  type: DROPOUT
  dropout_param {
    dropout_ratio: 0.5
  }
}
layers {
  bottom: "fc7"
  top: "fc8_2"
  name: "fc8_2"
  type: INNER_PRODUCT
  inner_product_param {
    num_output: 2
    weight_filler {
      type: "gaussian"
      std: 0.01
    }
    bias_filler {
      type: "constant"
      value: 0
    }
  }
}
layers {
  bottom: "fc8_2"
  bottom: "label"
  name: "loss"
  type: SOFTMAX_LOSS
}
state {
  phase: TRAIN
}
I1108 20:18:03.673111 20340 layer_factory.hpp:78] Creating layer data
I1108 20:18:03.673128 20340 net.cpp:67] Creating Layer data
I1108 20:18:03.673135 20340 net.cpp:356] data -> data
I1108 20:18:03.673153 20340 net.cpp:356] data -> label
I1108 20:18:03.673161 20340 net.cpp:96] Setting up data
I1108 20:18:03.673167 20340 image_data_layer.cpp:34] Opening file /data/ad6813/devCaffe/caffe/data/inadcl_o/train.txt
I1108 20:18:03.683444 20340 image_data_layer.cpp:49] A total of 29797 images.
I1108 20:18:03.693382 20340 image_data_layer.cpp:78] output data size: 25,3,224,224
I1108 20:18:03.695832 20340 net.cpp:103] Top shape: 25 3 224 224 (3763200)
I1108 20:18:03.695857 20340 net.cpp:103] Top shape: 25 1 1 1 (25)
I1108 20:18:03.695863 20340 layer_factory.hpp:78] Creating layer conv1_1
I1108 20:18:03.695878 20340 net.cpp:67] Creating Layer conv1_1
I1108 20:18:03.695883 20340 net.cpp:394] conv1_1 <- data
I1108 20:18:03.695896 20340 net.cpp:356] conv1_1 -> conv1_1
I1108 20:18:03.695907 20340 net.cpp:96] Setting up conv1_1
I1108 20:18:03.712782 20340 net.cpp:103] Top shape: 25 64 224 224 (80281600)
I1108 20:18:03.712817 20340 layer_factory.hpp:78] Creating layer relu1_1
I1108 20:18:03.712831 20340 net.cpp:67] Creating Layer relu1_1
I1108 20:18:03.712836 20340 net.cpp:394] relu1_1 <- conv1_1
I1108 20:18:03.712842 20340 net.cpp:345] relu1_1 -> conv1_1 (in-place)
I1108 20:18:03.712852 20340 net.cpp:96] Setting up relu1_1
I1108 20:18:03.712860 20340 net.cpp:103] Top shape: 25 64 224 224 (80281600)
I1108 20:18:03.712863 20340 layer_factory.hpp:78] Creating layer conv1_2
I1108 20:18:03.712872 20340 net.cpp:67] Creating Layer conv1_2
I1108 20:18:03.712875 20340 net.cpp:394] conv1_2 <- conv1_1
I1108 20:18:03.712880 20340 net.cpp:356] conv1_2 -> conv1_2
I1108 20:18:03.712887 20340 net.cpp:96] Setting up conv1_2
I1108 20:18:03.713943 20340 net.cpp:103] Top shape: 25 64 224 224 (80281600)
I1108 20:18:03.713955 20340 layer_factory.hpp:78] Creating layer relu1_2
I1108 20:18:03.713961 20340 net.cpp:67] Creating Layer relu1_2
I1108 20:18:03.713964 20340 net.cpp:394] relu1_2 <- conv1_2
I1108 20:18:03.713969 20340 net.cpp:345] relu1_2 -> conv1_2 (in-place)
I1108 20:18:03.713973 20340 net.cpp:96] Setting up relu1_2
I1108 20:18:03.713979 20340 net.cpp:103] Top shape: 25 64 224 224 (80281600)
I1108 20:18:03.713982 20340 layer_factory.hpp:78] Creating layer pool1
I1108 20:18:03.713990 20340 net.cpp:67] Creating Layer pool1
I1108 20:18:03.713994 20340 net.cpp:394] pool1 <- conv1_2
I1108 20:18:03.713999 20340 net.cpp:356] pool1 -> pool1
I1108 20:18:03.714005 20340 net.cpp:96] Setting up pool1
I1108 20:18:03.714021 20340 net.cpp:103] Top shape: 25 64 112 112 (20070400)
I1108 20:18:03.714025 20340 layer_factory.hpp:78] Creating layer conv2_1
I1108 20:18:03.714031 20340 net.cpp:67] Creating Layer conv2_1
I1108 20:18:03.714035 20340 net.cpp:394] conv2_1 <- pool1
I1108 20:18:03.714040 20340 net.cpp:356] conv2_1 -> conv2_1
I1108 20:18:03.714045 20340 net.cpp:96] Setting up conv2_1
I1108 20:18:03.715955 20340 net.cpp:103] Top shape: 25 128 112 112 (40140800)
I1108 20:18:03.715970 20340 layer_factory.hpp:78] Creating layer relu2_1
I1108 20:18:03.715975 20340 net.cpp:67] Creating Layer relu2_1
I1108 20:18:03.715978 20340 net.cpp:394] relu2_1 <- conv2_1
I1108 20:18:03.715983 20340 net.cpp:345] relu2_1 -> conv2_1 (in-place)
I1108 20:18:03.715987 20340 net.cpp:96] Setting up relu2_1
I1108 20:18:03.715992 20340 net.cpp:103] Top shape: 25 128 112 112 (40140800)
I1108 20:18:03.715996 20340 layer_factory.hpp:78] Creating layer conv2_2
I1108 20:18:03.716001 20340 net.cpp:67] Creating Layer conv2_2
I1108 20:18:03.716004 20340 net.cpp:394] conv2_2 <- conv2_1
I1108 20:18:03.716011 20340 net.cpp:356] conv2_2 -> conv2_2
I1108 20:18:03.716018 20340 net.cpp:96] Setting up conv2_2
I1108 20:18:03.719785 20340 net.cpp:103] Top shape: 25 128 112 112 (40140800)
I1108 20:18:03.719797 20340 layer_factory.hpp:78] Creating layer relu2_2
I1108 20:18:03.719805 20340 net.cpp:67] Creating Layer relu2_2
I1108 20:18:03.719808 20340 net.cpp:394] relu2_2 <- conv2_2
I1108 20:18:03.719812 20340 net.cpp:345] relu2_2 -> conv2_2 (in-place)
I1108 20:18:03.719817 20340 net.cpp:96] Setting up relu2_2
I1108 20:18:03.719822 20340 net.cpp:103] Top shape: 25 128 112 112 (40140800)
I1108 20:18:03.719833 20340 layer_factory.hpp:78] Creating layer pool2
I1108 20:18:03.719838 20340 net.cpp:67] Creating Layer pool2
I1108 20:18:03.719841 20340 net.cpp:394] pool2 <- conv2_2
I1108 20:18:03.719846 20340 net.cpp:356] pool2 -> pool2
I1108 20:18:03.719852 20340 net.cpp:96] Setting up pool2
I1108 20:18:03.719858 20340 net.cpp:103] Top shape: 25 128 56 56 (10035200)
I1108 20:18:03.719861 20340 layer_factory.hpp:78] Creating layer conv3_1
I1108 20:18:03.719866 20340 net.cpp:67] Creating Layer conv3_1
I1108 20:18:03.719871 20340 net.cpp:394] conv3_1 <- pool2
I1108 20:18:03.719876 20340 net.cpp:356] conv3_1 -> conv3_1
I1108 20:18:03.719882 20340 net.cpp:96] Setting up conv3_1
I1108 20:18:03.727248 20340 net.cpp:103] Top shape: 25 256 56 56 (20070400)
I1108 20:18:03.727272 20340 layer_factory.hpp:78] Creating layer relu3_1
I1108 20:18:03.727277 20340 net.cpp:67] Creating Layer relu3_1
I1108 20:18:03.727283 20340 net.cpp:394] relu3_1 <- conv3_1
I1108 20:18:03.727289 20340 net.cpp:345] relu3_1 -> conv3_1 (in-place)
I1108 20:18:03.727295 20340 net.cpp:96] Setting up relu3_1
I1108 20:18:03.727301 20340 net.cpp:103] Top shape: 25 256 56 56 (20070400)
I1108 20:18:03.727304 20340 layer_factory.hpp:78] Creating layer conv3_2
I1108 20:18:03.727309 20340 net.cpp:67] Creating Layer conv3_2
I1108 20:18:03.727313 20340 net.cpp:394] conv3_2 <- conv3_1
I1108 20:18:03.727318 20340 net.cpp:356] conv3_2 -> conv3_2
I1108 20:18:03.727324 20340 net.cpp:96] Setting up conv3_2
I1108 20:18:03.741907 20340 net.cpp:103] Top shape: 25 256 56 56 (20070400)
I1108 20:18:03.741930 20340 layer_factory.hpp:78] Creating layer relu3_2
I1108 20:18:03.741937 20340 net.cpp:67] Creating Layer relu3_2
I1108 20:18:03.741941 20340 net.cpp:394] relu3_2 <- conv3_2
I1108 20:18:03.741950 20340 net.cpp:345] relu3_2 -> conv3_2 (in-place)
I1108 20:18:03.741956 20340 net.cpp:96] Setting up relu3_2
I1108 20:18:03.741962 20340 net.cpp:103] Top shape: 25 256 56 56 (20070400)
I1108 20:18:03.741966 20340 layer_factory.hpp:78] Creating layer conv3_3
I1108 20:18:03.741971 20340 net.cpp:67] Creating Layer conv3_3
I1108 20:18:03.741973 20340 net.cpp:394] conv3_3 <- conv3_2
I1108 20:18:03.741979 20340 net.cpp:356] conv3_3 -> conv3_3
I1108 20:18:03.741986 20340 net.cpp:96] Setting up conv3_3
I1108 20:18:03.756654 20340 net.cpp:103] Top shape: 25 256 56 56 (20070400)
I1108 20:18:03.756671 20340 layer_factory.hpp:78] Creating layer relu3_3
I1108 20:18:03.756681 20340 net.cpp:67] Creating Layer relu3_3
I1108 20:18:03.756685 20340 net.cpp:394] relu3_3 <- conv3_3
I1108 20:18:03.756691 20340 net.cpp:345] relu3_3 -> conv3_3 (in-place)
I1108 20:18:03.756697 20340 net.cpp:96] Setting up relu3_3
I1108 20:18:03.756702 20340 net.cpp:103] Top shape: 25 256 56 56 (20070400)
I1108 20:18:03.756705 20340 layer_factory.hpp:78] Creating layer pool3
I1108 20:18:03.756711 20340 net.cpp:67] Creating Layer pool3
I1108 20:18:03.756713 20340 net.cpp:394] pool3 <- conv3_3
I1108 20:18:03.756719 20340 net.cpp:356] pool3 -> pool3
I1108 20:18:03.756726 20340 net.cpp:96] Setting up pool3
I1108 20:18:03.756732 20340 net.cpp:103] Top shape: 25 256 28 28 (5017600)
I1108 20:18:03.756736 20340 layer_factory.hpp:78] Creating layer conv4_1
I1108 20:18:03.756741 20340 net.cpp:67] Creating Layer conv4_1
I1108 20:18:03.756743 20340 net.cpp:394] conv4_1 <- pool3
I1108 20:18:03.756750 20340 net.cpp:356] conv4_1 -> conv4_1
I1108 20:18:03.756755 20340 net.cpp:96] Setting up conv4_1
I1108 20:18:03.785454 20340 net.cpp:103] Top shape: 25 512 28 28 (10035200)
I1108 20:18:03.785476 20340 layer_factory.hpp:78] Creating layer relu4_1
I1108 20:18:03.785485 20340 net.cpp:67] Creating Layer relu4_1
I1108 20:18:03.785490 20340 net.cpp:394] relu4_1 <- conv4_1
I1108 20:18:03.785495 20340 net.cpp:345] relu4_1 -> conv4_1 (in-place)
I1108 20:18:03.785502 20340 net.cpp:96] Setting up relu4_1
I1108 20:18:03.785507 20340 net.cpp:103] Top shape: 25 512 28 28 (10035200)
I1108 20:18:03.785511 20340 layer_factory.hpp:78] Creating layer conv4_2
I1108 20:18:03.785518 20340 net.cpp:67] Creating Layer conv4_2
I1108 20:18:03.785521 20340 net.cpp:394] conv4_2 <- conv4_1
I1108 20:18:03.785537 20340 net.cpp:356] conv4_2 -> conv4_2
I1108 20:18:03.785543 20340 net.cpp:96] Setting up conv4_2
I1108 20:18:03.842943 20340 net.cpp:103] Top shape: 25 512 28 28 (10035200)
I1108 20:18:03.842973 20340 layer_factory.hpp:78] Creating layer relu4_2
I1108 20:18:03.842983 20340 net.cpp:67] Creating Layer relu4_2
I1108 20:18:03.842988 20340 net.cpp:394] relu4_2 <- conv4_2
I1108 20:18:03.842994 20340 net.cpp:345] relu4_2 -> conv4_2 (in-place)
I1108 20:18:03.843001 20340 net.cpp:96] Setting up relu4_2
I1108 20:18:03.843006 20340 net.cpp:103] Top shape: 25 512 28 28 (10035200)
I1108 20:18:03.843009 20340 layer_factory.hpp:78] Creating layer conv4_3
I1108 20:18:03.843016 20340 net.cpp:67] Creating Layer conv4_3
I1108 20:18:03.843019 20340 net.cpp:394] conv4_3 <- conv4_2
I1108 20:18:03.843024 20340 net.cpp:356] conv4_3 -> conv4_3
I1108 20:18:03.843029 20340 net.cpp:96] Setting up conv4_3
I1108 20:18:03.900473 20340 net.cpp:103] Top shape: 25 512 28 28 (10035200)
I1108 20:18:03.900501 20340 layer_factory.hpp:78] Creating layer relu4_3
I1108 20:18:03.900509 20340 net.cpp:67] Creating Layer relu4_3
I1108 20:18:03.900514 20340 net.cpp:394] relu4_3 <- conv4_3
I1108 20:18:03.900521 20340 net.cpp:345] relu4_3 -> conv4_3 (in-place)
I1108 20:18:03.900529 20340 net.cpp:96] Setting up relu4_3
I1108 20:18:03.900535 20340 net.cpp:103] Top shape: 25 512 28 28 (10035200)
I1108 20:18:03.900538 20340 layer_factory.hpp:78] Creating layer pool4
I1108 20:18:03.900544 20340 net.cpp:67] Creating Layer pool4
I1108 20:18:03.900547 20340 net.cpp:394] pool4 <- conv4_3
I1108 20:18:03.900552 20340 net.cpp:356] pool4 -> pool4
I1108 20:18:03.900557 20340 net.cpp:96] Setting up pool4
I1108 20:18:03.900564 20340 net.cpp:103] Top shape: 25 512 14 14 (2508800)
I1108 20:18:03.900568 20340 layer_factory.hpp:78] Creating layer conv5_1
I1108 20:18:03.900575 20340 net.cpp:67] Creating Layer conv5_1
I1108 20:18:03.900578 20340 net.cpp:394] conv5_1 <- pool4
I1108 20:18:03.900583 20340 net.cpp:356] conv5_1 -> conv5_1
I1108 20:18:03.900593 20340 net.cpp:96] Setting up conv5_1
I1108 20:18:03.958029 20340 net.cpp:103] Top shape: 25 512 14 14 (2508800)
I1108 20:18:03.958058 20340 layer_factory.hpp:78] Creating layer relu5_1
I1108 20:18:03.958066 20340 net.cpp:67] Creating Layer relu5_1
I1108 20:18:03.958070 20340 net.cpp:394] relu5_1 <- conv5_1
I1108 20:18:03.958077 20340 net.cpp:345] relu5_1 -> conv5_1 (in-place)
I1108 20:18:03.958084 20340 net.cpp:96] Setting up relu5_1
I1108 20:18:03.958089 20340 net.cpp:103] Top shape: 25 512 14 14 (2508800)
I1108 20:18:03.958093 20340 layer_factory.hpp:78] Creating layer conv5_2
I1108 20:18:03.958106 20340 net.cpp:67] Creating Layer conv5_2
I1108 20:18:03.958109 20340 net.cpp:394] conv5_2 <- conv5_1
I1108 20:18:03.958116 20340 net.cpp:356] conv5_2 -> conv5_2
I1108 20:18:03.958122 20340 net.cpp:96] Setting up conv5_2
I1108 20:18:04.015662 20340 net.cpp:103] Top shape: 25 512 14 14 (2508800)
I1108 20:18:04.015691 20340 layer_factory.hpp:78] Creating layer relu5_2
I1108 20:18:04.015700 20340 net.cpp:67] Creating Layer relu5_2
I1108 20:18:04.015705 20340 net.cpp:394] relu5_2 <- conv5_2
I1108 20:18:04.015712 20340 net.cpp:345] relu5_2 -> conv5_2 (in-place)
I1108 20:18:04.015718 20340 net.cpp:96] Setting up relu5_2
I1108 20:18:04.015723 20340 net.cpp:103] Top shape: 25 512 14 14 (2508800)
I1108 20:18:04.015727 20340 layer_factory.hpp:78] Creating layer conv5_3
I1108 20:18:04.015734 20340 net.cpp:67] Creating Layer conv5_3
I1108 20:18:04.015738 20340 net.cpp:394] conv5_3 <- conv5_2
I1108 20:18:04.015741 20340 net.cpp:356] conv5_3 -> conv5_3
I1108 20:18:04.015748 20340 net.cpp:96] Setting up conv5_3
I1108 20:18:04.073043 20340 net.cpp:103] Top shape: 25 512 14 14 (2508800)
I1108 20:18:04.073070 20340 layer_factory.hpp:78] Creating layer relu5_3
I1108 20:18:04.073077 20340 net.cpp:67] Creating Layer relu5_3
I1108 20:18:04.073081 20340 net.cpp:394] relu5_3 <- conv5_3
I1108 20:18:04.073087 20340 net.cpp:345] relu5_3 -> conv5_3 (in-place)
I1108 20:18:04.073094 20340 net.cpp:96] Setting up relu5_3
I1108 20:18:04.073110 20340 net.cpp:103] Top shape: 25 512 14 14 (2508800)
I1108 20:18:04.073113 20340 layer_factory.hpp:78] Creating layer pool5
I1108 20:18:04.073120 20340 net.cpp:67] Creating Layer pool5
I1108 20:18:04.073123 20340 net.cpp:394] pool5 <- conv5_3
I1108 20:18:04.073128 20340 net.cpp:356] pool5 -> pool5
I1108 20:18:04.073133 20340 net.cpp:96] Setting up pool5
I1108 20:18:04.073140 20340 net.cpp:103] Top shape: 25 512 7 7 (627200)
I1108 20:18:04.073144 20340 layer_factory.hpp:78] Creating layer fc6
I1108 20:18:04.073158 20340 net.cpp:67] Creating Layer fc6
I1108 20:18:04.073160 20340 net.cpp:394] fc6 <- pool5
I1108 20:18:04.073166 20340 net.cpp:356] fc6 -> fc6
I1108 20:18:04.073173 20340 net.cpp:96] Setting up fc6
I1108 20:18:06.616416 20340 net.cpp:103] Top shape: 25 4096 1 1 (102400)
I1108 20:18:06.616448 20340 layer_factory.hpp:78] Creating layer relu6
I1108 20:18:06.616457 20340 net.cpp:67] Creating Layer relu6
I1108 20:18:06.616462 20340 net.cpp:394] relu6 <- fc6
I1108 20:18:06.616471 20340 net.cpp:345] relu6 -> fc6 (in-place)
I1108 20:18:06.616478 20340 net.cpp:96] Setting up relu6
I1108 20:18:06.616495 20340 net.cpp:103] Top shape: 25 4096 1 1 (102400)
I1108 20:18:06.616502 20340 layer_factory.hpp:78] Creating layer drop6
I1108 20:18:06.616510 20340 net.cpp:67] Creating Layer drop6
I1108 20:18:06.616513 20340 net.cpp:394] drop6 <- fc6
I1108 20:18:06.616518 20340 net.cpp:345] drop6 -> fc6 (in-place)
I1108 20:18:06.616521 20340 net.cpp:96] Setting up drop6
I1108 20:18:06.616526 20340 net.cpp:103] Top shape: 25 4096 1 1 (102400)
I1108 20:18:06.616529 20340 layer_factory.hpp:78] Creating layer fc7
I1108 20:18:06.616536 20340 net.cpp:67] Creating Layer fc7
I1108 20:18:06.616539 20340 net.cpp:394] fc7 <- fc6
I1108 20:18:06.616544 20340 net.cpp:356] fc7 -> fc7
I1108 20:18:06.616550 20340 net.cpp:96] Setting up fc7
I1108 20:18:07.062443 20340 net.cpp:103] Top shape: 25 4096 1 1 (102400)
I1108 20:18:07.062474 20340 layer_factory.hpp:78] Creating layer relu7
I1108 20:18:07.062484 20340 net.cpp:67] Creating Layer relu7
I1108 20:18:07.062487 20340 net.cpp:394] relu7 <- fc7
I1108 20:18:07.062494 20340 net.cpp:345] relu7 -> fc7 (in-place)
I1108 20:18:07.062501 20340 net.cpp:96] Setting up relu7
I1108 20:18:07.062516 20340 net.cpp:103] Top shape: 25 4096 1 1 (102400)
I1108 20:18:07.062520 20340 layer_factory.hpp:78] Creating layer drop7
I1108 20:18:07.062525 20340 net.cpp:67] Creating Layer drop7
I1108 20:18:07.062527 20340 net.cpp:394] drop7 <- fc7
I1108 20:18:07.062533 20340 net.cpp:345] drop7 -> fc7 (in-place)
I1108 20:18:07.062538 20340 net.cpp:96] Setting up drop7
I1108 20:18:07.062542 20340 net.cpp:103] Top shape: 25 4096 1 1 (102400)
I1108 20:18:07.062546 20340 layer_factory.hpp:78] Creating layer fc8_2
I1108 20:18:07.062551 20340 net.cpp:67] Creating Layer fc8_2
I1108 20:18:07.062553 20340 net.cpp:394] fc8_2 <- fc7
I1108 20:18:07.062559 20340 net.cpp:356] fc8_2 -> fc8_2
I1108 20:18:07.062566 20340 net.cpp:96] Setting up fc8_2
I1108 20:18:07.062777 20340 net.cpp:103] Top shape: 25 2 1 1 (50)
I1108 20:18:07.062784 20340 layer_factory.hpp:78] Creating layer loss
I1108 20:18:07.062793 20340 net.cpp:67] Creating Layer loss
I1108 20:18:07.062796 20340 net.cpp:394] loss <- fc8_2
I1108 20:18:07.062800 20340 net.cpp:394] loss <- label
I1108 20:18:07.062808 20340 net.cpp:356] loss -> (automatic)
I1108 20:18:07.062814 20340 net.cpp:96] Setting up loss
I1108 20:18:07.062822 20340 net.cpp:103] Top shape: 1 1 1 1 (1)
I1108 20:18:07.062826 20340 net.cpp:109]     with loss weight 1
I1108 20:18:07.062863 20340 net.cpp:170] loss needs backward computation.
I1108 20:18:07.062866 20340 net.cpp:170] fc8_2 needs backward computation.
I1108 20:18:07.062870 20340 net.cpp:170] drop7 needs backward computation.
I1108 20:18:07.062872 20340 net.cpp:170] relu7 needs backward computation.
I1108 20:18:07.062875 20340 net.cpp:170] fc7 needs backward computation.
…
I1108 20:18:07.063871 20340 net.cpp:275] The NetState phase (1) differed from the phase (0) specified by a rule in layer data
I1108 20:18:07.064074 20340 net.cpp:39] Initializing net from parameters: 
name: "small"
layers {
  top: "data"
  top: "label"
  name: "data"
  type: IMAGE_DATA
  image_data_param {
    source: "/data/ad6813/devCaffe/caffe/data/inadcl_o/val.txt"
    batch_size: 8
    new_height: 256
    new_width: 256
  }
  include {
    phase: TEST
  }
  transform_param {
    mirror: true
    crop_size: 224
    mean_value: 86.752
    mean_value: 101.46
    mean_value: 104.6
  }
}
layers {
  bottom: "data"
  top: "conv1_1"
  name: "conv1_1"
  type: CONVOLUTION
  convolution_param {
    num_output: 64
    pad: 1
    kernel_size: 3
    weight_filler {
      type: "gaussian"
      std: 0.01
    }
    bias_filler {
      type: "constant"
      value: 0
    }
  }
}
layers {
  bottom: "conv1_1"
  top: "conv1_1"
  name: "relu1_1"
  type: RELU
}
layers {
  bottom: "conv1_1"
  top: "conv1_2"
  name: "conv1_2"
  type: CONVOLUTION
  convolution_param {
    num_output: 64
    pad: 1
    kernel_size: 3
    weight_filler {
      type: "gaussian"
      std: 0.01
    }
    bias_filler {
      type: "constant"
      value: 0
    }
  }
}
layers {
  bottom: "conv1_2"
  top: "conv1_2"
  name: "relu1_2"
  type: RELU
}
layers {
  bottom: "conv1_2"
  top: "pool1"
  name: "pool1"
  type: POOLING
  pooling_param {
    pool: MAX
    kernel_size: 2
    stride: 2
  }
}
layers {
  bottom: "pool1"
  top: "conv2_1"
  name: "conv2_1"
  type: CONVOLUTION
  convolution_param {
    num_output: 128
    pad: 1
    kernel_size: 3
    weight_filler {
      type: "gaussian"
      std: 0.01
    }
    bias_filler {
      type: "constant"
      value: 0
    }
  }
}
layers {
  bottom: "conv2_1"
  top: "conv2_1"
  name: "relu2_1"
  type: RELU
}
layers {
  bottom: "conv2_1"
  top: "conv2_2"
  name: "conv2_2"
  type: CONVOLUTION
  convolution_param {
    num_output: 128
    pad: 1
    kernel_size: 3
    weight_filler {
      type: "gaussian"
      std: 0.01
    }
    bias_filler {
      type: "constant"
      value: 0
    }
  }
}
layers {
  bottom: "conv2_2"
  top: "conv2_2"
  name: "relu2_2"
  type: RELU
}
layers {
  bottom: "conv2_2"
  top: "pool2"
  name: "pool2"
  type: POOLING
  pooling_param {
    pool: MAX
    kernel_size: 2
    stride: 2
  }
}
layers {
  bottom: "pool2"
  top: "conv3_1"
  name: "conv3_1"
  type: CONVOLUTION
  convolution_param {
    num_output: 256
    pad: 1
    kernel_size: 3
    weight_filler {
      type: "gaussian"
      std: 0.01
    }
    bias_filler {
      type: "constant"
      value: 0
    }
  }
}
layers {
  bottom: "conv3_1"
  top: "conv3_1"
  name: "relu3_1"
  type: RELU
}
layers {
  bottom: "conv3_1"
  top: "conv3_2"
  name: "conv3_2"
  type: CONVOLUTION
  convolution_param {
    num_output: 256
    pad: 1
    kernel_size: 3
    weight_filler {
      type: "gaussian"
      std: 0.01
    }
    bias_filler {
      type: "constant"
      value: 0
    }
  }
}
layers {
  bottom: "conv3_2"
  top: "conv3_2"
  name: "relu3_2"
  type: RELU
}
layers {
  bottom: "conv3_2"
  top: "conv3_3"
  name: "conv3_3"
  type: CONVOLUTION
  convolution_param {
    num_output: 256
    pad: 1
    kernel_size: 3
    weight_filler {
      type: "gaussian"
      std: 0.01
    }
    bias_filler {
      type: "constant"
      value: 0
    }
  }
}
layers {
  bottom: "conv3_3"
  top: "conv3_3"
  name: "relu3_3"
  type: RELU
}
layers {
  bottom: "conv3_3"
  top: "pool3"
  name: "pool3"
  type: POOLING
  pooling_param {
    pool: MAX
    kernel_size: 2
    stride: 2
  }
}
layers {
  bottom: "pool3"
  top: "conv4_1"
  name: "conv4_1"
  type: CONVOLUTION
  convolution_param {
    num_output: 512
    pad: 1
    kernel_size: 3
    weight_filler {
      type: "gaussian"
      std: 0.01
    }
    bias_filler {
      type: "constant"
      value: 0
    }
  }
}
layers {
  bottom: "conv4_1"
  top: "conv4_1"
  name: "relu4_1"
  type: RELU
}
layers {
  bottom: "conv4_1"
  top: "conv4_2"
  name: "conv4_2"
  type: CONVOLUTION
  convolution_param {
    num_output: 512
    pad: 1
    kernel_size: 3
    weight_filler {
      type: "gaussian"
      std: 0.01
    }
    bias_filler {
      type: "constant"
      value: 0
    }
  }
}
layers {
  bottom: "conv4_2"
  top: "conv4_2"
  name: "relu4_2"
  type: RELU
}
layers {
  bottom: "conv4_2"
  top: "conv4_3"
  name: "conv4_3"
  type: CONVOLUTION
  convolution_param {
    num_output: 512
    pad: 1
    kernel_size: 3
    weight_filler {
      type: "gaussian"
      std: 0.01
    }
    bias_filler {
      type: "constant"
      value: 0
    }
  }
}
layers {
  bottom: "conv4_3"
  top: "conv4_3"
  name: "relu4_3"
  type: RELU
}
layers {
  bottom: "conv4_3"
  top: "pool4"
  name: "pool4"
  type: POOLING
  pooling_param {
    pool: MAX
    kernel_size: 2
    stride: 2
  }
}
layers {
  bottom: "pool4"
  top: "conv5_1"
  name: "conv5_1"
  type: CONVOLUTION
  convolution_param {
    num_output: 512
    pad: 1
    kernel_size: 3
    weight_filler {
      type: "gaussian"
      std: 0.01
    }
    bias_filler {
      type: "constant"
      value: 0
    }
  }
}
layers {
  bottom: "conv5_1"
  top: "conv5_1"
  name: "relu5_1"
  type: RELU
}
layers {
  bottom: "conv5_1"
  top: "conv5_2"
  name: "conv5_2"
  type: CONVOLUTION
  convolution_param {
    num_output: 512
    pad: 1
    kernel_size: 3
    weight_filler {
      type: "gaussian"
      std: 0.01
    }
    bias_filler {
      type: "constant"
      value: 0
    }
  }
}
layers {
  bottom: "conv5_2"
  top: "conv5_2"
  name: "relu5_2"
  type: RELU
}
layers {
  bottom: "conv5_2"
  top: "conv5_3"
  name: "conv5_3"
  type: CONVOLUTION
  convolution_param {
    num_output: 512
    pad: 1
    kernel_size: 3
    weight_filler {
      type: "gaussian"
      std: 0.01
    }
    bias_filler {
      type: "constant"
      value: 0
    }
  }
}
layers {
  bottom: "conv5_3"
  top: "conv5_3"
  name: "relu5_3"
  type: RELU
}
layers {
  bottom: "conv5_3"
  top: "pool5"
  name: "pool5"
  type: POOLING
  pooling_param {
    pool: MAX
    kernel_size: 2
    stride: 2
  }
}
layers {
  bottom: "pool5"
  top: "fc6"
  name: "fc6"
  type: INNER_PRODUCT
  inner_product_param {
    num_output: 4096
    weight_filler {
      type: "gaussian"
      std: 0.01
    }
    bias_filler {
      type: "constant"
      value: 0
    }
  }
}
layers {
  bottom: "fc6"
  top: "fc6"
  name: "relu6"
  type: RELU
}
layers {
  bottom: "fc6"
  top: "fc6"
  name: "drop6"
  type: DROPOUT
  dropout_param {
    dropout_ratio: 0.5
  }
}
layers {
  bottom: "fc6"
  top: "fc7"
  name: "fc7"
  type: INNER_PRODUCT
  inner_product_param {
    num_output: 4096
    weight_filler {
      type: "gaussian"
      std: 0.01
    }
    bias_filler {
      type: "constant"
      value: 0
    }
  }
}
layers {
  bottom: "fc7"
  top: "fc7"
  name: "relu7"
  type: RELU
}
layers {
  bottom: "fc7"
  top: "fc7"
  name: "drop7"
  type: DROPOUT
  dropout_param {
    dropout_ratio: 0.5
  }
}
layers {
  bottom: "fc7"
  top: "fc8_2"
  name: "fc8_2"
  type: INNER_PRODUCT
  inner_product_param {
    num_output: 2
    weight_filler {
      type: "gaussian"
      std: 0.01
    }
    bias_filler {
      type: "constant"
      value: 0
    }
  }
}
layers {
  bottom: "fc8_2"
  bottom: "label"
  name: "loss"
  type: SOFTMAX_LOSS
}
layers {
  bottom: "fc8_2"
  bottom: "label"
  top: "accuracy"
  name: "accuracy"
  type: PER_CLASS_ACCURACY
  include {
    phase: TEST
  }
}
state {
  phase: TEST
}
I1108 20:18:07.064206 20340 layer_factory.hpp:78] Creating layer data
I1108 20:18:07.064216 20340 net.cpp:67] Creating Layer data
I1108 20:18:07.064220 20340 net.cpp:356] data -> data
I1108 20:18:07.064227 20340 net.cpp:356] data -> label
I1108 20:18:07.064234 20340 net.cpp:96] Setting up data
I1108 20:18:07.064237 20340 image_data_layer.cpp:34] Opening file /data/ad6813/devCaffe/caffe/data/inadcl_o/val.txt
I1108 20:18:07.064430 20340 image_data_layer.cpp:49] A total of 473 images.
I1108 20:18:07.069712 20340 image_data_layer.cpp:78] output data size: 8,3,224,224
I1108 20:18:07.070600 20340 net.cpp:103] Top shape: 8 3 224 224 (1204224)
I1108 20:18:07.070610 20340 net.cpp:103] Top shape: 8 1 1 1 (8)
I1108 20:18:07.070613 20340 layer_factory.hpp:78] Creating layer label_data_1_split
I1108 20:18:07.070626 20340 net.cpp:67] Creating Layer label_data_1_split
I1108 20:18:07.070629 20340 net.cpp:394] label_data_1_split <- label
I1108 20:18:07.070636 20340 net.cpp:356] label_data_1_split -> label_data_1_split_0
I1108 20:18:07.070643 20340 net.cpp:356] label_data_1_split -> label_data_1_split_1
I1108 20:18:07.070649 20340 net.cpp:96] Setting up label_data_1_split
I1108 20:18:07.070657 20340 net.cpp:103] Top shape: 8 1 1 1 (8)
I1108 20:18:07.070659 20340 net.cpp:103] Top shape: 8 1 1 1 (8)
I1108 20:18:07.070662 20340 layer_factory.hpp:78] Creating layer conv1_1
I1108 20:18:07.070668 20340 net.cpp:67] Creating Layer conv1_1
I1108 20:18:07.070672 20340 net.cpp:394] conv1_1 <- data
I1108 20:18:07.070677 20340 net.cpp:356] conv1_1 -> conv1_1
I1108 20:18:07.070683 20340 net.cpp:96] Setting up conv1_1
I1108 20:18:07.070837 20340 net.cpp:103] Top shape: 8 64 224 224 (25690112)
I1108 20:18:07.070850 20340 layer_factory.hpp:78] Creating layer relu1_1
I1108 20:18:07.070857 20340 net.cpp:67] Creating Layer relu1_1
I1108 20:18:07.070859 20340 net.cpp:394] relu1_1 <- conv1_1
I1108 20:18:07.070863 20340 net.cpp:345] relu1_1 -> conv1_1 (in-place)
I1108 20:18:07.070876 20340 net.cpp:96] Setting up relu1_1
I1108 20:18:07.070883 20340 net.cpp:103] Top shape: 8 64 224 224 (25690112)
I1108 20:18:07.070885 20340 layer_factory.hpp:78] Creating layer conv1_2
I1108 20:18:07.070889 20340 net.cpp:67] Creating Layer conv1_2
I1108 20:18:07.070893 20340 net.cpp:394] conv1_2 <- conv1_1
I1108 20:18:07.070897 20340 net.cpp:356] conv1_2 -> conv1_2
I1108 20:18:07.070902 20340 net.cpp:96] Setting up conv1_2
I1108 20:18:07.071872 20340 net.cpp:103] Top shape: 8 64 224 224 (25690112)
I1108 20:18:07.071884 20340 layer_factory.hpp:78] Creating layer relu1_2
I1108 20:18:07.071889 20340 net.cpp:67] Creating Layer relu1_2
I1108 20:18:07.071892 20340 net.cpp:394] relu1_2 <- conv1_2
I1108 20:18:07.071897 20340 net.cpp:345] relu1_2 -> conv1_2 (in-place)
I1108 20:18:07.071902 20340 net.cpp:96] Setting up relu1_2
I1108 20:18:07.071907 20340 net.cpp:103] Top shape: 8 64 224 224 (25690112)
I1108 20:18:07.071909 20340 layer_factory.hpp:78] Creating layer pool1
I1108 20:18:07.071914 20340 net.cpp:67] Creating Layer pool1
I1108 20:18:07.071918 20340 net.cpp:394] pool1 <- conv1_2
I1108 20:18:07.071921 20340 net.cpp:356] pool1 -> pool1
I1108 20:18:07.071926 20340 net.cpp:96] Setting up pool1
I1108 20:18:07.071933 20340 net.cpp:103] Top shape: 8 64 112 112 (6422528)
I1108 20:18:07.071936 20340 layer_factory.hpp:78] Creating layer conv2_1
I1108 20:18:07.071941 20340 net.cpp:67] Creating Layer conv2_1
I1108 20:18:07.071944 20340 net.cpp:394] conv2_1 <- pool1
I1108 20:18:07.071949 20340 net.cpp:356] conv2_1 -> conv2_1
I1108 20:18:07.071954 20340 net.cpp:96] Setting up conv2_1
I1108 20:18:07.073918 20340 net.cpp:103] Top shape: 8 128 112 112 (12845056)
I1108 20:18:07.073931 20340 layer_factory.hpp:78] Creating layer relu2_1
I1108 20:18:07.073937 20340 net.cpp:67] Creating Layer relu2_1
I1108 20:18:07.073940 20340 net.cpp:394] relu2_1 <- conv2_1
I1108 20:18:07.073945 20340 net.cpp:345] relu2_1 -> conv2_1 (in-place)
I1108 20:18:07.073950 20340 net.cpp:96] Setting up relu2_1
I1108 20:18:07.073954 20340 net.cpp:103] Top shape: 8 128 112 112 (12845056)
I1108 20:18:07.073957 20340 layer_factory.hpp:78] Creating layer conv2_2
I1108 20:18:07.073962 20340 net.cpp:67] Creating Layer conv2_2
I1108 20:18:07.073964 20340 net.cpp:394] conv2_2 <- conv2_1
I1108 20:18:07.073969 20340 net.cpp:356] conv2_2 -> conv2_2
I1108 20:18:07.073974 20340 net.cpp:96] Setting up conv2_2
I1108 20:18:07.077600 20340 net.cpp:103] Top shape: 8 128 112 112 (12845056)
I1108 20:18:07.077611 20340 layer_factory.hpp:78] Creating layer relu2_2
I1108 20:18:07.077616 20340 net.cpp:67] Creating Layer relu2_2
I1108 20:18:07.077620 20340 net.cpp:394] relu2_2 <- conv2_2
I1108 20:18:07.077625 20340 net.cpp:345] relu2_2 -> conv2_2 (in-place)
I1108 20:18:07.077628 20340 net.cpp:96] Setting up relu2_2
I1108 20:18:07.077633 20340 net.cpp:103] Top shape: 8 128 112 112 (12845056)
I1108 20:18:07.077636 20340 layer_factory.hpp:78] Creating layer pool2
I1108 20:18:07.077641 20340 net.cpp:67] Creating Layer pool2
I1108 20:18:07.077643 20340 net.cpp:394] pool2 <- conv2_2
I1108 20:18:07.077648 20340 net.cpp:356] pool2 -> pool2
I1108 20:18:07.077652 20340 net.cpp:96] Setting up pool2
I1108 20:18:07.077658 20340 net.cpp:103] Top shape: 8 128 56 56 (3211264)
I1108 20:18:07.077661 20340 layer_factory.hpp:78] Creating layer conv3_1
I1108 20:18:07.077666 20340 net.cpp:67] Creating Layer conv3_1
I1108 20:18:07.077669 20340 net.cpp:394] conv3_1 <- pool2
I1108 20:18:07.077673 20340 net.cpp:356] conv3_1 -> conv3_1
I1108 20:18:07.077678 20340 net.cpp:96] Setting up conv3_1
I1108 20:18:07.084875 20340 net.cpp:103] Top shape: 8 256 56 56 (6422528)
I1108 20:18:07.084892 20340 layer_factory.hpp:78] Creating layer relu3_1
I1108 20:18:07.084897 20340 net.cpp:67] Creating Layer relu3_1
I1108 20:18:07.084902 20340 net.cpp:394] relu3_1 <- conv3_1
I1108 20:18:07.084905 20340 net.cpp:345] relu3_1 -> conv3_1 (in-place)
I1108 20:18:07.084910 20340 net.cpp:96] Setting up relu3_1
I1108 20:18:07.084915 20340 net.cpp:103] Top shape: 8 256 56 56 (6422528)
I1108 20:18:07.084918 20340 layer_factory.hpp:78] Creating layer conv3_2
I1108 20:18:07.084930 20340 net.cpp:67] Creating Layer conv3_2
I1108 20:18:07.084933 20340 net.cpp:394] conv3_2 <- conv3_1
I1108 20:18:07.084938 20340 net.cpp:356] conv3_2 -> conv3_2
I1108 20:18:07.084942 20340 net.cpp:96] Setting up conv3_2
I1108 20:18:07.099570 20340 net.cpp:103] Top shape: 8 256 56 56 (6422528)
I1108 20:18:07.099587 20340 layer_factory.hpp:78] Creating layer relu3_2
I1108 20:18:07.099596 20340 net.cpp:67] Creating Layer relu3_2
I1108 20:18:07.099599 20340 net.cpp:394] relu3_2 <- conv3_2
I1108 20:18:07.099604 20340 net.cpp:345] relu3_2 -> conv3_2 (in-place)
I1108 20:18:07.099609 20340 net.cpp:96] Setting up relu3_2
I1108 20:18:07.099614 20340 net.cpp:103] Top shape: 8 256 56 56 (6422528)
I1108 20:18:07.099618 20340 layer_factory.hpp:78] Creating layer conv3_3
I1108 20:18:07.099628 20340 net.cpp:67] Creating Layer conv3_3
I1108 20:18:07.099632 20340 net.cpp:394] conv3_3 <- conv3_2
I1108 20:18:07.099637 20340 net.cpp:356] conv3_3 -> conv3_3
I1108 20:18:07.099642 20340 net.cpp:96] Setting up conv3_3
I1108 20:18:07.114446 20340 net.cpp:103] Top shape: 8 256 56 56 (6422528)
I1108 20:18:07.114467 20340 layer_factory.hpp:78] Creating layer relu3_3
I1108 20:18:07.114475 20340 net.cpp:67] Creating Layer relu3_3
I1108 20:18:07.114480 20340 net.cpp:394] relu3_3 <- conv3_3
I1108 20:18:07.114485 20340 net.cpp:345] relu3_3 -> conv3_3 (in-place)
I1108 20:18:07.114491 20340 net.cpp:96] Setting up relu3_3
I1108 20:18:07.114496 20340 net.cpp:103] Top shape: 8 256 56 56 (6422528)
I1108 20:18:07.114500 20340 layer_factory.hpp:78] Creating layer pool3
I1108 20:18:07.114507 20340 net.cpp:67] Creating Layer pool3
I1108 20:18:07.114511 20340 net.cpp:394] pool3 <- conv3_3
I1108 20:18:07.114516 20340 net.cpp:356] pool3 -> pool3
I1108 20:18:07.114521 20340 net.cpp:96] Setting up pool3
I1108 20:18:07.114527 20340 net.cpp:103] Top shape: 8 256 28 28 (1605632)
I1108 20:18:07.114531 20340 layer_factory.hpp:78] Creating layer conv4_1
I1108 20:18:07.114538 20340 net.cpp:67] Creating Layer conv4_1
I1108 20:18:07.114542 20340 net.cpp:394] conv4_1 <- pool3
I1108 20:18:07.114547 20340 net.cpp:356] conv4_1 -> conv4_1
I1108 20:18:07.114552 20340 net.cpp:96] Setting up conv4_1
I1108 20:18:07.151016 20340 net.cpp:103] Top shape: 8 512 28 28 (3211264)
I1108 20:18:07.151038 20340 layer_factory.hpp:78] Creating layer relu4_1
I1108 20:18:07.151046 20340 net.cpp:67] Creating Layer relu4_1
I1108 20:18:07.151051 20340 net.cpp:394] relu4_1 <- conv4_1
I1108 20:18:07.151058 20340 net.cpp:345] relu4_1 -> conv4_1 (in-place)
I1108 20:18:07.151064 20340 net.cpp:96] Setting up relu4_1
I1108 20:18:07.151070 20340 net.cpp:103] Top shape: 8 512 28 28 (3211264)
I1108 20:18:07.151073 20340 layer_factory.hpp:78] Creating layer conv4_2
I1108 20:18:07.151082 20340 net.cpp:67] Creating Layer conv4_2
I1108 20:18:07.151085 20340 net.cpp:394] conv4_2 <- conv4_1
I1108 20:18:07.151090 20340 net.cpp:356] conv4_2 -> conv4_2
I1108 20:18:07.151096 20340 net.cpp:96] Setting up conv4_2
I1108 20:18:07.220168 20340 net.cpp:103] Top shape: 8 512 28 28 (3211264)
I1108 20:18:07.220201 20340 layer_factory.hpp:78] Creating layer relu4_2
I1108 20:18:07.220211 20340 net.cpp:67] Creating Layer relu4_2
I1108 20:18:07.220216 20340 net.cpp:394] relu4_2 <- conv4_2
I1108 20:18:07.220223 20340 net.cpp:345] relu4_2 -> conv4_2 (in-place)
I1108 20:18:07.220230 20340 net.cpp:96] Setting up relu4_2
I1108 20:18:07.220235 20340 net.cpp:103] Top shape: 8 512 28 28 (3211264)
I1108 20:18:07.220239 20340 layer_factory.hpp:78] Creating layer conv4_3
I1108 20:18:07.220247 20340 net.cpp:67] Creating Layer conv4_3
I1108 20:18:07.220249 20340 net.cpp:394] conv4_3 <- conv4_2
I1108 20:18:07.220254 20340 net.cpp:356] conv4_3 -> conv4_3
I1108 20:18:07.220262 20340 net.cpp:96] Setting up conv4_3
I1108 20:18:07.280984 20340 net.cpp:103] Top shape: 8 512 28 28 (3211264)
I1108 20:18:07.281014 20340 layer_factory.hpp:78] Creating layer relu4_3
I1108 20:18:07.281023 20340 net.cpp:67] Creating Layer relu4_3
I1108 20:18:07.281028 20340 net.cpp:394] relu4_3 <- conv4_3
I1108 20:18:07.281034 20340 net.cpp:345] relu4_3 -> conv4_3 (in-place)
I1108 20:18:07.281051 20340 net.cpp:96] Setting up relu4_3
I1108 20:18:07.281056 20340 net.cpp:103] Top shape: 8 512 28 28 (3211264)
I1108 20:18:07.281060 20340 layer_factory.hpp:78] Creating layer pool4
I1108 20:18:07.281067 20340 net.cpp:67] Creating Layer pool4
I1108 20:18:07.281070 20340 net.cpp:394] pool4 <- conv4_3
I1108 20:18:07.281075 20340 net.cpp:356] pool4 -> pool4
I1108 20:18:07.281081 20340 net.cpp:96] Setting up pool4
I1108 20:18:07.281088 20340 net.cpp:103] Top shape: 8 512 14 14 (802816)
I1108 20:18:07.281091 20340 layer_factory.hpp:78] Creating layer conv5_1
I1108 20:18:07.281097 20340 net.cpp:67] Creating Layer conv5_1
I1108 20:18:07.281100 20340 net.cpp:394] conv5_1 <- pool4
I1108 20:18:07.281106 20340 net.cpp:356] conv5_1 -> conv5_1
I1108 20:18:07.281111 20340 net.cpp:96] Setting up conv5_1
I1108 20:18:07.344239 20340 net.cpp:103] Top shape: 8 512 14 14 (802816)
I1108 20:18:07.344267 20340 layer_factory.hpp:78] Creating layer relu5_1
I1108 20:18:07.344277 20340 net.cpp:67] Creating Layer relu5_1
I1108 20:18:07.344282 20340 net.cpp:394] relu5_1 <- conv5_1
I1108 20:18:07.344290 20340 net.cpp:345] relu5_1 -> conv5_1 (in-place)
I1108 20:18:07.344296 20340 net.cpp:96] Setting up relu5_1
I1108 20:18:07.344302 20340 net.cpp:103] Top shape: 8 512 14 14 (802816)
I1108 20:18:07.344305 20340 layer_factory.hpp:78] Creating layer conv5_2
I1108 20:18:07.344315 20340 net.cpp:67] Creating Layer conv5_2
I1108 20:18:07.344318 20340 net.cpp:394] conv5_2 <- conv5_1
I1108 20:18:07.344322 20340 net.cpp:356] conv5_2 -> conv5_2
I1108 20:18:07.344328 20340 net.cpp:96] Setting up conv5_2
I1108 20:18:07.404144 20340 net.cpp:103] Top shape: 8 512 14 14 (802816)
I1108 20:18:07.404171 20340 layer_factory.hpp:78] Creating layer relu5_2
I1108 20:18:07.404181 20340 net.cpp:67] Creating Layer relu5_2
I1108 20:18:07.404184 20340 net.cpp:394] relu5_2 <- conv5_2
I1108 20:18:07.404191 20340 net.cpp:345] relu5_2 -> conv5_2 (in-place)
I1108 20:18:07.404201 20340 net.cpp:96] Setting up relu5_2
I1108 20:18:07.404211 20340 net.cpp:103] Top shape: 8 512 14 14 (802816)
I1108 20:18:07.404220 20340 layer_factory.hpp:78] Creating layer conv5_3
I1108 20:18:07.404232 20340 net.cpp:67] Creating Layer conv5_3
I1108 20:18:07.404235 20340 net.cpp:394] conv5_3 <- conv5_2
I1108 20:18:07.404253 20340 net.cpp:356] conv5_3 -> conv5_3
I1108 20:18:07.404268 20340 net.cpp:96] Setting up conv5_3
I1108 20:18:07.465895 20340 net.cpp:103] Top shape: 8 512 14 14 (802816)
I1108 20:18:07.465924 20340 layer_factory.hpp:78] Creating layer relu5_3
I1108 20:18:07.465934 20340 net.cpp:67] Creating Layer relu5_3
I1108 20:18:07.465939 20340 net.cpp:394] relu5_3 <- conv5_3
I1108 20:18:07.465945 20340 net.cpp:345] relu5_3 -> conv5_3 (in-place)
I1108 20:18:07.465955 20340 net.cpp:96] Setting up relu5_3
I1108 20:18:07.465961 20340 net.cpp:103] Top shape: 8 512 14 14 (802816)
I1108 20:18:07.465965 20340 layer_factory.hpp:78] Creating layer pool5
I1108 20:18:07.465975 20340 net.cpp:67] Creating Layer pool5
I1108 20:18:07.465978 20340 net.cpp:394] pool5 <- conv5_3
I1108 20:18:07.465983 20340 net.cpp:356] pool5 -> pool5
I1108 20:18:07.465989 20340 net.cpp:96] Setting up pool5
I1108 20:18:07.465997 20340 net.cpp:103] Top shape: 8 512 7 7 (200704)
I1108 20:18:07.466001 20340 layer_factory.hpp:78] Creating layer fc6
I1108 20:18:07.466006 20340 net.cpp:67] Creating Layer fc6
I1108 20:18:07.466009 20340 net.cpp:394] fc6 <- pool5
I1108 20:18:07.466014 20340 net.cpp:356] fc6 -> fc6
I1108 20:18:07.466019 20340 net.cpp:96] Setting up fc6
I1108 20:18:09.996840 20340 net.cpp:103] Top shape: 8 4096 1 1 (32768)
I1108 20:18:09.996883 20340 layer_factory.hpp:78] Creating layer relu6
I1108 20:18:09.996894 20340 net.cpp:67] Creating Layer relu6
I1108 20:18:09.996901 20340 net.cpp:394] relu6 <- fc6
I1108 20:18:09.996908 20340 net.cpp:345] relu6 -> fc6 (in-place)
I1108 20:18:09.996914 20340 net.cpp:96] Setting up relu6
I1108 20:18:09.996930 20340 net.cpp:103] Top shape: 8 4096 1 1 (32768)
I1108 20:18:09.996933 20340 layer_factory.hpp:78] Creating layer drop6
I1108 20:18:09.996948 20340 net.cpp:67] Creating Layer drop6
I1108 20:18:09.996951 20340 net.cpp:394] drop6 <- fc6
I1108 20:18:09.996956 20340 net.cpp:345] drop6 -> fc6 (in-place)
I1108 20:18:09.996961 20340 net.cpp:96] Setting up drop6
I1108 20:18:09.996965 20340 net.cpp:103] Top shape: 8 4096 1 1 (32768)
I1108 20:18:09.996968 20340 layer_factory.hpp:78] Creating layer fc7
I1108 20:18:09.996973 20340 net.cpp:67] Creating Layer fc7
I1108 20:18:09.996976 20340 net.cpp:394] fc7 <- fc6
I1108 20:18:09.996981 20340 net.cpp:356] fc7 -> fc7
I1108 20:18:09.996987 20340 net.cpp:96] Setting up fc7
I1108 20:18:10.404873 20340 net.cpp:103] Top shape: 8 4096 1 1 (32768)
I1108 20:18:10.404901 20340 layer_factory.hpp:78] Creating layer relu7
I1108 20:18:10.404909 20340 net.cpp:67] Creating Layer relu7
I1108 20:18:10.404914 20340 net.cpp:394] relu7 <- fc7
I1108 20:18:10.404922 20340 net.cpp:345] relu7 -> fc7 (in-place)
I1108 20:18:10.404929 20340 net.cpp:96] Setting up relu7
I1108 20:18:10.404942 20340 net.cpp:103] Top shape: 8 4096 1 1 (32768)
I1108 20:18:10.404945 20340 layer_factory.hpp:78] Creating layer drop7
I1108 20:18:10.404950 20340 net.cpp:67] Creating Layer drop7
I1108 20:18:10.404953 20340 net.cpp:394] drop7 <- fc7
I1108 20:18:10.404958 20340 net.cpp:345] drop7 -> fc7 (in-place)
I1108 20:18:10.404961 20340 net.cpp:96] Setting up drop7
I1108 20:18:10.404965 20340 net.cpp:103] Top shape: 8 4096 1 1 (32768)
I1108 20:18:10.404968 20340 layer_factory.hpp:78] Creating layer fc8_2
I1108 20:18:10.404973 20340 net.cpp:67] Creating Layer fc8_2
I1108 20:18:10.404976 20340 net.cpp:394] fc8_2 <- fc7
I1108 20:18:10.404983 20340 net.cpp:356] fc8_2 -> fc8_2
I1108 20:18:10.404989 20340 net.cpp:96] Setting up fc8_2
I1108 20:18:10.405197 20340 net.cpp:103] Top shape: 8 2 1 1 (16)
I1108 20:18:10.405205 20340 layer_factory.hpp:78] Creating layer fc8_2_fc8_2_0_split
I1108 20:18:10.405212 20340 net.cpp:67] Creating Layer fc8_2_fc8_2_0_split
I1108 20:18:10.405215 20340 net.cpp:394] fc8_2_fc8_2_0_split <- fc8_2
I1108 20:18:10.405220 20340 net.cpp:356] fc8_2_fc8_2_0_split -> fc8_2_fc8_2_0_split_0
I1108 20:18:10.405225 20340 net.cpp:356] fc8_2_fc8_2_0_split -> fc8_2_fc8_2_0_split_1
I1108 20:18:10.405230 20340 net.cpp:96] Setting up fc8_2_fc8_2_0_split
I1108 20:18:10.405233 20340 net.cpp:103] Top shape: 8 2 1 1 (16)
I1108 20:18:10.405236 20340 net.cpp:103] Top shape: 8 2 1 1 (16)
I1108 20:18:10.405239 20340 layer_factory.hpp:78] Creating layer loss
I1108 20:18:10.405246 20340 net.cpp:67] Creating Layer loss
I1108 20:18:10.405248 20340 net.cpp:394] loss <- fc8_2_fc8_2_0_split_0
I1108 20:18:10.405251 20340 net.cpp:394] loss <- label_data_1_split_0
I1108 20:18:10.405256 20340 net.cpp:356] loss -> (automatic)
I1108 20:18:10.405261 20340 net.cpp:96] Setting up loss
I1108 20:18:10.405267 20340 net.cpp:103] Top shape: 1 1 1 1 (1)
I1108 20:18:10.405269 20340 net.cpp:109]     with loss weight 1
I1108 20:18:10.405282 20340 layer_factory.hpp:78] Creating layer accuracy
I1108 20:18:10.405293 20340 net.cpp:67] Creating Layer accuracy
I1108 20:18:10.405298 20340 net.cpp:394] accuracy <- fc8_2_fc8_2_0_split_1
I1108 20:18:10.405302 20340 net.cpp:394] accuracy <- label_data_1_split_1
I1108 20:18:10.405307 20340 net.cpp:356] accuracy -> accuracy
I1108 20:18:10.405311 20340 net.cpp:96] Setting up accuracy
I1108 20:18:10.405318 20340 net.cpp:103] Top shape: 1 1 1 4 (4)
I1108 20:18:10.405325 20340 net.cpp:172] accuracy does not need backward computation.
I1108 20:18:10.405328 20340 net.cpp:170] loss needs backward computation.
I1108 20:18:10.405330 20340 net.cpp:170] fc8_2_fc8_2_0_split needs backward computation.
I1108 20:18:10.405333 20340 net.cpp:170] fc8_2 needs backward computation.
I1108 20:18:10.405336 20340 net.cpp:170] drop7 needs backward computation.
…
