…
I1108 20:34:01.972687 21818 net.cpp:275] The NetState phase (0) differed from the phase (1) specified by a rule in layer accuracy
I1108 20:34:01.972911 21818 net.cpp:39] Initializing net from parameters: 
name: "small"
layers {
  top: "data"
  top: "label"
  name: "data"
  type: IMAGE_DATA
  image_data_param {
    source: "/data/ad6813/devCaffe/caffe/data/inadcl_o/train.txt"
    batch_size: 25
    new_height: 256
    new_width: 256
  }
  include {
    phase: TRAIN
  }
  transform_param {
    mirror: true
    crop_size: 224
    mean_value: 86.752
    mean_value: 101.46
    mean_value: 104.6
  }
}
layers {
  bottom: "data"
  top: "conv1_1"
  name: "conv1_1"
  type: CONVOLUTION
  convolution_param {
    num_output: 64
    pad: 1
    kernel_size: 3
    weight_filler {
      type: "gaussian"
      std: 0.01
    }
    bias_filler {
      type: "constant"
      value: 0
    }
  }
}
layers {
  bottom: "conv1_1"
  top: "conv1_1"
  name: "relu1_1"
  type: RELU
}
layers {
  bottom: "conv1_1"
  top: "conv1_2"
  name: "conv1_2"
  type: CONVOLUTION
  convolution_param {
    num_output: 64
    pad: 1
    kernel_size: 3
    weight_filler {
      type: "gaussian"
      std: 0.01
    }
    bias_filler {
      type: "constant"
      value: 0
    }
  }
}
layers {
  bottom: "conv1_2"
  top: "conv1_2"
  name: "relu1_2"
  type: RELU
}
layers {
  bottom: "conv1_2"
  top: "pool1"
  name: "pool1"
  type: POOLING
  pooling_param {
    pool: MAX
    kernel_size: 2
    stride: 2
  }
}
layers {
  bottom: "pool1"
  top: "conv2_1"
  name: "conv2_1"
  type: CONVOLUTION
  convolution_param {
    num_output: 128
    pad: 1
    kernel_size: 3
    weight_filler {
      type: "gaussian"
      std: 0.01
    }
    bias_filler {
      type: "constant"
      value: 0
    }
  }
}
layers {
  bottom: "conv2_1"
  top: "conv2_1"
  name: "relu2_1"
  type: RELU
}
layers {
  bottom: "conv2_1"
  top: "conv2_2"
  name: "conv2_2"
  type: CONVOLUTION
  convolution_param {
    num_output: 128
    pad: 1
    kernel_size: 3
    weight_filler {
      type: "gaussian"
      std: 0.01
    }
    bias_filler {
      type: "constant"
      value: 0
    }
  }
}
layers {
  bottom: "conv2_2"
  top: "conv2_2"
  name: "relu2_2"
  type: RELU
}
layers {
  bottom: "conv2_2"
  top: "pool2"
  name: "pool2"
  type: POOLING
  pooling_param {
    pool: MAX
    kernel_size: 2
    stride: 2
  }
}
layers {
  bottom: "pool2"
  top: "conv3_1"
  name: "conv3_1"
  type: CONVOLUTION
  convolution_param {
    num_output: 256
    pad: 1
    kernel_size: 3
    weight_filler {
      type: "gaussian"
      std: 0.01
    }
    bias_filler {
      type: "constant"
      value: 0
    }
  }
}
layers {
  bottom: "conv3_1"
  top: "conv3_1"
  name: "relu3_1"
  type: RELU
}
layers {
  bottom: "conv3_1"
  top: "conv3_2"
  name: "conv3_2"
  type: CONVOLUTION
  convolution_param {
    num_output: 256
    pad: 1
    kernel_size: 3
    weight_filler {
      type: "gaussian"
      std: 0.01
    }
    bias_filler {
      type: "constant"
      value: 0
    }
  }
}
layers {
  bottom: "conv3_2"
  top: "conv3_2"
  name: "relu3_2"
  type: RELU
}
layers {
  bottom: "conv3_2"
  top: "conv3_3"
  name: "conv3_3"
  type: CONVOLUTION
  convolution_param {
    num_output: 256
    pad: 1
    kernel_size: 3
    weight_filler {
      type: "gaussian"
      std: 0.01
    }
    bias_filler {
      type: "constant"
      value: 0
    }
  }
}
layers {
  bottom: "conv3_3"
  top: "conv3_3"
  name: "relu3_3"
  type: RELU
}
layers {
  bottom: "conv3_3"
  top: "pool3"
  name: "pool3"
  type: POOLING
  pooling_param {
    pool: MAX
    kernel_size: 2
    stride: 2
  }
}
layers {
  bottom: "pool3"
  top: "conv4_1"
  name: "conv4_1"
  type: CONVOLUTION
  convolution_param {
    num_output: 512
    pad: 1
    kernel_size: 3
    weight_filler {
      type: "gaussian"
      std: 0.01
    }
    bias_filler {
      type: "constant"
      value: 0
    }
  }
}
layers {
  bottom: "conv4_1"
  top: "conv4_1"
  name: "relu4_1"
  type: RELU
}
layers {
  bottom: "conv4_1"
  top: "conv4_2"
  name: "conv4_2"
  type: CONVOLUTION
  convolution_param {
    num_output: 512
    pad: 1
    kernel_size: 3
    weight_filler {
      type: "gaussian"
      std: 0.01
    }
    bias_filler {
      type: "constant"
      value: 0
    }
  }
}
layers {
  bottom: "conv4_2"
  top: "conv4_2"
  name: "relu4_2"
  type: RELU
}
layers {
  bottom: "conv4_2"
  top: "conv4_3"
  name: "conv4_3"
  type: CONVOLUTION
  convolution_param {
    num_output: 512
    pad: 1
    kernel_size: 3
    weight_filler {
      type: "gaussian"
      std: 0.01
    }
    bias_filler {
      type: "constant"
      value: 0
    }
  }
}
layers {
  bottom: "conv4_3"
  top: "conv4_3"
  name: "relu4_3"
  type: RELU
}
layers {
  bottom: "conv4_3"
  top: "pool4"
  name: "pool4"
  type: POOLING
  pooling_param {
    pool: MAX
    kernel_size: 2
    stride: 2
  }
}
layers {
  bottom: "pool4"
  top: "conv5_1"
  name: "conv5_1"
  type: CONVOLUTION
  convolution_param {
    num_output: 512
    pad: 1
    kernel_size: 3
    weight_filler {
      type: "gaussian"
      std: 0.01
    }
    bias_filler {
      type: "constant"
      value: 0
    }
  }
}
layers {
  bottom: "conv5_1"
  top: "conv5_1"
  name: "relu5_1"
  type: RELU
}
layers {
  bottom: "conv5_1"
  top: "conv5_2"
  name: "conv5_2"
  type: CONVOLUTION
  convolution_param {
    num_output: 512
    pad: 1
    kernel_size: 3
    weight_filler {
      type: "gaussian"
      std: 0.01
    }
    bias_filler {
      type: "constant"
      value: 0
    }
  }
}
layers {
  bottom: "conv5_2"
  top: "conv5_2"
  name: "relu5_2"
  type: RELU
}
layers {
  bottom: "conv5_2"
  top: "conv5_3"
  name: "conv5_3"
  type: CONVOLUTION
  convolution_param {
    num_output: 512
    pad: 1
    kernel_size: 3
    weight_filler {
      type: "gaussian"
      std: 0.01
    }
    bias_filler {
      type: "constant"
      value: 0
    }
  }
}
layers {
  bottom: "conv5_3"
  top: "conv5_3"
  name: "relu5_3"
  type: RELU
}
layers {
  bottom: "conv5_3"
  top: "pool5"
  name: "pool5"
  type: POOLING
  pooling_param {
    pool: MAX
    kernel_size: 2
    stride: 2
  }
}
layers {
  bottom: "pool5"
  top: "fc6"
  name: "fc6"
  type: INNER_PRODUCT
  inner_product_param {
    num_output: 4096
    weight_filler {
      type: "gaussian"
      std: 0.01
    }
    bias_filler {
      type: "constant"
      value: 0
    }
  }
}
layers {
  bottom: "fc6"
  top: "fc6"
  name: "relu6"
  type: RELU
}
layers {
  bottom: "fc6"
  top: "fc6"
  name: "drop6"
  type: DROPOUT
  dropout_param {
    dropout_ratio: 0.5
  }
}
layers {
  bottom: "fc6"
  top: "fc7"
  name: "fc7"
  type: INNER_PRODUCT
  inner_product_param {
    num_output: 4096
    weight_filler {
      type: "gaussian"
      std: 0.01
    }
    bias_filler {
      type: "constant"
      value: 0
    }
  }
}
layers {
  bottom: "fc7"
  top: "fc7"
  name: "relu7"
  type: RELU
}
layers {
  bottom: "fc7"
  top: "fc7"
  name: "drop7"
  type: DROPOUT
  dropout_param {
    dropout_ratio: 0.5
  }
}
layers {
  bottom: "fc7"
  top: "fc8_2"
  name: "fc8_2"
  type: INNER_PRODUCT
  inner_product_param {
    num_output: 2
    weight_filler {
      type: "gaussian"
      std: 0.01
    }
    bias_filler {
      type: "constant"
      value: 0
    }
  }
}
layers {
  bottom: "fc8_2"
  bottom: "label"
  name: "loss"
  type: SOFTMAX_LOSS
}
state {
  phase: TRAIN
}
I1108 20:34:01.973054 21818 layer_factory.hpp:78] Creating layer data
I1108 20:34:01.973081 21818 net.cpp:67] Creating Layer data
I1108 20:34:01.973089 21818 net.cpp:356] data -> data
I1108 20:34:01.973108 21818 net.cpp:356] data -> label
I1108 20:34:01.973115 21818 net.cpp:96] Setting up data
I1108 20:34:01.973129 21818 image_data_layer.cpp:34] Opening file /data/ad6813/devCaffe/caffe/data/inadcl_o/train.txt
I1108 20:34:01.984071 21818 image_data_layer.cpp:49] A total of 29797 images.
I1108 20:34:02.000264 21818 image_data_layer.cpp:78] output data size: 25,3,224,224
I1108 20:34:02.002645 21818 net.cpp:103] Top shape: 25 3 224 224 (3763200)
I1108 20:34:02.002673 21818 net.cpp:103] Top shape: 25 1 1 1 (25)
I1108 20:34:02.002677 21818 layer_factory.hpp:78] Creating layer conv1_1
I1108 20:34:02.002692 21818 net.cpp:67] Creating Layer conv1_1
I1108 20:34:02.002697 21818 net.cpp:394] conv1_1 <- data
I1108 20:34:02.002710 21818 net.cpp:356] conv1_1 -> conv1_1
I1108 20:34:02.002722 21818 net.cpp:96] Setting up conv1_1
I1108 20:34:02.019781 21818 net.cpp:103] Top shape: 25 64 224 224 (80281600)
I1108 20:34:02.019815 21818 layer_factory.hpp:78] Creating layer relu1_1
I1108 20:34:02.019829 21818 net.cpp:67] Creating Layer relu1_1
I1108 20:34:02.019834 21818 net.cpp:394] relu1_1 <- conv1_1
I1108 20:34:02.019840 21818 net.cpp:345] relu1_1 -> conv1_1 (in-place)
I1108 20:34:02.019848 21818 net.cpp:96] Setting up relu1_1
I1108 20:34:02.019857 21818 net.cpp:103] Top shape: 25 64 224 224 (80281600)
I1108 20:34:02.019860 21818 layer_factory.hpp:78] Creating layer conv1_2
I1108 20:34:02.019867 21818 net.cpp:67] Creating Layer conv1_2
I1108 20:34:02.019870 21818 net.cpp:394] conv1_2 <- conv1_1
I1108 20:34:02.019876 21818 net.cpp:356] conv1_2 -> conv1_2
I1108 20:34:02.019881 21818 net.cpp:96] Setting up conv1_2
I1108 20:34:02.020906 21818 net.cpp:103] Top shape: 25 64 224 224 (80281600)
I1108 20:34:02.020918 21818 layer_factory.hpp:78] Creating layer relu1_2
I1108 20:34:02.020925 21818 net.cpp:67] Creating Layer relu1_2
I1108 20:34:02.020931 21818 net.cpp:394] relu1_2 <- conv1_2
I1108 20:34:02.020934 21818 net.cpp:345] relu1_2 -> conv1_2 (in-place)
I1108 20:34:02.020939 21818 net.cpp:96] Setting up relu1_2
I1108 20:34:02.020944 21818 net.cpp:103] Top shape: 25 64 224 224 (80281600)
I1108 20:34:02.020948 21818 layer_factory.hpp:78] Creating layer pool1
I1108 20:34:02.020954 21818 net.cpp:67] Creating Layer pool1
I1108 20:34:02.020957 21818 net.cpp:394] pool1 <- conv1_2
I1108 20:34:02.020963 21818 net.cpp:356] pool1 -> pool1
I1108 20:34:02.020968 21818 net.cpp:96] Setting up pool1
I1108 20:34:02.020985 21818 net.cpp:103] Top shape: 25 64 112 112 (20070400)
I1108 20:34:02.020992 21818 layer_factory.hpp:78] Creating layer conv2_1
I1108 20:34:02.020998 21818 net.cpp:67] Creating Layer conv2_1
I1108 20:34:02.021002 21818 net.cpp:394] conv2_1 <- pool1
I1108 20:34:02.021008 21818 net.cpp:356] conv2_1 -> conv2_1
I1108 20:34:02.021013 21818 net.cpp:96] Setting up conv2_1
I1108 20:34:02.022896 21818 net.cpp:103] Top shape: 25 128 112 112 (40140800)
I1108 20:34:02.022907 21818 layer_factory.hpp:78] Creating layer relu2_1
I1108 20:34:02.022912 21818 net.cpp:67] Creating Layer relu2_1
I1108 20:34:02.022915 21818 net.cpp:394] relu2_1 <- conv2_1
I1108 20:34:02.022922 21818 net.cpp:345] relu2_1 -> conv2_1 (in-place)
I1108 20:34:02.022927 21818 net.cpp:96] Setting up relu2_1
I1108 20:34:02.022932 21818 net.cpp:103] Top shape: 25 128 112 112 (40140800)
I1108 20:34:02.022934 21818 layer_factory.hpp:78] Creating layer conv2_2
I1108 20:34:02.022940 21818 net.cpp:67] Creating Layer conv2_2
I1108 20:34:02.022943 21818 net.cpp:394] conv2_2 <- conv2_1
I1108 20:34:02.022949 21818 net.cpp:356] conv2_2 -> conv2_2
I1108 20:34:02.022954 21818 net.cpp:96] Setting up conv2_2
I1108 20:34:02.026671 21818 net.cpp:103] Top shape: 25 128 112 112 (40140800)
I1108 20:34:02.026682 21818 layer_factory.hpp:78] Creating layer relu2_2
I1108 20:34:02.026689 21818 net.cpp:67] Creating Layer relu2_2
I1108 20:34:02.026691 21818 net.cpp:394] relu2_2 <- conv2_2
I1108 20:34:02.026697 21818 net.cpp:345] relu2_2 -> conv2_2 (in-place)
I1108 20:34:02.026702 21818 net.cpp:96] Setting up relu2_2
I1108 20:34:02.026708 21818 net.cpp:103] Top shape: 25 128 112 112 (40140800)
I1108 20:34:02.026718 21818 layer_factory.hpp:78] Creating layer pool2
I1108 20:34:02.026725 21818 net.cpp:67] Creating Layer pool2
I1108 20:34:02.026727 21818 net.cpp:394] pool2 <- conv2_2
I1108 20:34:02.026732 21818 net.cpp:356] pool2 -> pool2
I1108 20:34:02.026737 21818 net.cpp:96] Setting up pool2
I1108 20:34:02.026743 21818 net.cpp:103] Top shape: 25 128 56 56 (10035200)
I1108 20:34:02.026747 21818 layer_factory.hpp:78] Creating layer conv3_1
I1108 20:34:02.026751 21818 net.cpp:67] Creating Layer conv3_1
I1108 20:34:02.026754 21818 net.cpp:394] conv3_1 <- pool2
I1108 20:34:02.026761 21818 net.cpp:356] conv3_1 -> conv3_1
I1108 20:34:02.026767 21818 net.cpp:96] Setting up conv3_1
I1108 20:34:02.034099 21818 net.cpp:103] Top shape: 25 256 56 56 (20070400)
I1108 20:34:02.034116 21818 layer_factory.hpp:78] Creating layer relu3_1
I1108 20:34:02.034121 21818 net.cpp:67] Creating Layer relu3_1
I1108 20:34:02.034124 21818 net.cpp:394] relu3_1 <- conv3_1
I1108 20:34:02.034129 21818 net.cpp:345] relu3_1 -> conv3_1 (in-place)
I1108 20:34:02.034134 21818 net.cpp:96] Setting up relu3_1
I1108 20:34:02.034139 21818 net.cpp:103] Top shape: 25 256 56 56 (20070400)
I1108 20:34:02.034142 21818 layer_factory.hpp:78] Creating layer conv3_2
I1108 20:34:02.034149 21818 net.cpp:67] Creating Layer conv3_2
I1108 20:34:02.034152 21818 net.cpp:394] conv3_2 <- conv3_1
I1108 20:34:02.034157 21818 net.cpp:356] conv3_2 -> conv3_2
I1108 20:34:02.034163 21818 net.cpp:96] Setting up conv3_2
I1108 20:34:02.049005 21818 net.cpp:103] Top shape: 25 256 56 56 (20070400)
I1108 20:34:02.049023 21818 layer_factory.hpp:78] Creating layer relu3_2
I1108 20:34:02.049032 21818 net.cpp:67] Creating Layer relu3_2
I1108 20:34:02.049036 21818 net.cpp:394] relu3_2 <- conv3_2
I1108 20:34:02.049042 21818 net.cpp:345] relu3_2 -> conv3_2 (in-place)
I1108 20:34:02.049048 21818 net.cpp:96] Setting up relu3_2
I1108 20:34:02.049053 21818 net.cpp:103] Top shape: 25 256 56 56 (20070400)
I1108 20:34:02.049057 21818 layer_factory.hpp:78] Creating layer conv3_3
I1108 20:34:02.049062 21818 net.cpp:67] Creating Layer conv3_3
I1108 20:34:02.049065 21818 net.cpp:394] conv3_3 <- conv3_2
I1108 20:34:02.049072 21818 net.cpp:356] conv3_3 -> conv3_3
I1108 20:34:02.049077 21818 net.cpp:96] Setting up conv3_3
I1108 20:34:02.063720 21818 net.cpp:103] Top shape: 25 256 56 56 (20070400)
I1108 20:34:02.063741 21818 layer_factory.hpp:78] Creating layer relu3_3
I1108 20:34:02.063753 21818 net.cpp:67] Creating Layer relu3_3
I1108 20:34:02.063757 21818 net.cpp:394] relu3_3 <- conv3_3
I1108 20:34:02.063765 21818 net.cpp:345] relu3_3 -> conv3_3 (in-place)
I1108 20:34:02.063771 21818 net.cpp:96] Setting up relu3_3
I1108 20:34:02.063776 21818 net.cpp:103] Top shape: 25 256 56 56 (20070400)
I1108 20:34:02.063778 21818 layer_factory.hpp:78] Creating layer pool3
I1108 20:34:02.063784 21818 net.cpp:67] Creating Layer pool3
I1108 20:34:02.063787 21818 net.cpp:394] pool3 <- conv3_3
I1108 20:34:02.063793 21818 net.cpp:356] pool3 -> pool3
I1108 20:34:02.063798 21818 net.cpp:96] Setting up pool3
I1108 20:34:02.063807 21818 net.cpp:103] Top shape: 25 256 28 28 (5017600)
I1108 20:34:02.063809 21818 layer_factory.hpp:78] Creating layer conv4_1
I1108 20:34:02.063815 21818 net.cpp:67] Creating Layer conv4_1
I1108 20:34:02.063818 21818 net.cpp:394] conv4_1 <- pool3
I1108 20:34:02.063824 21818 net.cpp:356] conv4_1 -> conv4_1
I1108 20:34:02.063829 21818 net.cpp:96] Setting up conv4_1
I1108 20:34:02.092732 21818 net.cpp:103] Top shape: 25 512 28 28 (10035200)
I1108 20:34:02.092756 21818 layer_factory.hpp:78] Creating layer relu4_1
I1108 20:34:02.092767 21818 net.cpp:67] Creating Layer relu4_1
I1108 20:34:02.092772 21818 net.cpp:394] relu4_1 <- conv4_1
I1108 20:34:02.092778 21818 net.cpp:345] relu4_1 -> conv4_1 (in-place)
I1108 20:34:02.092785 21818 net.cpp:96] Setting up relu4_1
I1108 20:34:02.092790 21818 net.cpp:103] Top shape: 25 512 28 28 (10035200)
I1108 20:34:02.092793 21818 layer_factory.hpp:78] Creating layer conv4_2
I1108 20:34:02.092802 21818 net.cpp:67] Creating Layer conv4_2
I1108 20:34:02.092804 21818 net.cpp:394] conv4_2 <- conv4_1
I1108 20:34:02.092818 21818 net.cpp:356] conv4_2 -> conv4_2
I1108 20:34:02.092823 21818 net.cpp:96] Setting up conv4_2
I1108 20:34:02.150712 21818 net.cpp:103] Top shape: 25 512 28 28 (10035200)
I1108 20:34:02.150743 21818 layer_factory.hpp:78] Creating layer relu4_2
I1108 20:34:02.150751 21818 net.cpp:67] Creating Layer relu4_2
I1108 20:34:02.150755 21818 net.cpp:394] relu4_2 <- conv4_2
I1108 20:34:02.150763 21818 net.cpp:345] relu4_2 -> conv4_2 (in-place)
I1108 20:34:02.150768 21818 net.cpp:96] Setting up relu4_2
I1108 20:34:02.150774 21818 net.cpp:103] Top shape: 25 512 28 28 (10035200)
I1108 20:34:02.150779 21818 layer_factory.hpp:78] Creating layer conv4_3
I1108 20:34:02.150784 21818 net.cpp:67] Creating Layer conv4_3
I1108 20:34:02.150787 21818 net.cpp:394] conv4_3 <- conv4_2
I1108 20:34:02.150794 21818 net.cpp:356] conv4_3 -> conv4_3
I1108 20:34:02.150799 21818 net.cpp:96] Setting up conv4_3
I1108 20:34:02.208086 21818 net.cpp:103] Top shape: 25 512 28 28 (10035200)
I1108 20:34:02.208114 21818 layer_factory.hpp:78] Creating layer relu4_3
I1108 20:34:02.208122 21818 net.cpp:67] Creating Layer relu4_3
I1108 20:34:02.208127 21818 net.cpp:394] relu4_3 <- conv4_3
I1108 20:34:02.208133 21818 net.cpp:345] relu4_3 -> conv4_3 (in-place)
I1108 20:34:02.208140 21818 net.cpp:96] Setting up relu4_3
I1108 20:34:02.208147 21818 net.cpp:103] Top shape: 25 512 28 28 (10035200)
I1108 20:34:02.208149 21818 layer_factory.hpp:78] Creating layer pool4
I1108 20:34:02.208156 21818 net.cpp:67] Creating Layer pool4
I1108 20:34:02.208159 21818 net.cpp:394] pool4 <- conv4_3
I1108 20:34:02.208164 21818 net.cpp:356] pool4 -> pool4
I1108 20:34:02.208170 21818 net.cpp:96] Setting up pool4
I1108 20:34:02.208178 21818 net.cpp:103] Top shape: 25 512 14 14 (2508800)
I1108 20:34:02.208181 21818 layer_factory.hpp:78] Creating layer conv5_1
I1108 20:34:02.208189 21818 net.cpp:67] Creating Layer conv5_1
I1108 20:34:02.208191 21818 net.cpp:394] conv5_1 <- pool4
I1108 20:34:02.208196 21818 net.cpp:356] conv5_1 -> conv5_1
I1108 20:34:02.208204 21818 net.cpp:96] Setting up conv5_1
I1108 20:34:02.266019 21818 net.cpp:103] Top shape: 25 512 14 14 (2508800)
I1108 20:34:02.266047 21818 layer_factory.hpp:78] Creating layer relu5_1
I1108 20:34:02.266057 21818 net.cpp:67] Creating Layer relu5_1
I1108 20:34:02.266062 21818 net.cpp:394] relu5_1 <- conv5_1
I1108 20:34:02.266069 21818 net.cpp:345] relu5_1 -> conv5_1 (in-place)
I1108 20:34:02.266077 21818 net.cpp:96] Setting up relu5_1
I1108 20:34:02.266083 21818 net.cpp:103] Top shape: 25 512 14 14 (2508800)
I1108 20:34:02.266085 21818 layer_factory.hpp:78] Creating layer conv5_2
I1108 20:34:02.266093 21818 net.cpp:67] Creating Layer conv5_2
I1108 20:34:02.266096 21818 net.cpp:394] conv5_2 <- conv5_1
I1108 20:34:02.266100 21818 net.cpp:356] conv5_2 -> conv5_2
I1108 20:34:02.266106 21818 net.cpp:96] Setting up conv5_2
I1108 20:34:02.323416 21818 net.cpp:103] Top shape: 25 512 14 14 (2508800)
I1108 20:34:02.323444 21818 layer_factory.hpp:78] Creating layer relu5_2
I1108 20:34:02.323452 21818 net.cpp:67] Creating Layer relu5_2
I1108 20:34:02.323457 21818 net.cpp:394] relu5_2 <- conv5_2
I1108 20:34:02.323463 21818 net.cpp:345] relu5_2 -> conv5_2 (in-place)
I1108 20:34:02.323470 21818 net.cpp:96] Setting up relu5_2
I1108 20:34:02.323482 21818 net.cpp:103] Top shape: 25 512 14 14 (2508800)
I1108 20:34:02.323487 21818 layer_factory.hpp:78] Creating layer conv5_3
I1108 20:34:02.323493 21818 net.cpp:67] Creating Layer conv5_3
I1108 20:34:02.323496 21818 net.cpp:394] conv5_3 <- conv5_2
I1108 20:34:02.323503 21818 net.cpp:356] conv5_3 -> conv5_3
I1108 20:34:02.323508 21818 net.cpp:96] Setting up conv5_3
I1108 20:34:02.381110 21818 net.cpp:103] Top shape: 25 512 14 14 (2508800)
I1108 20:34:02.381139 21818 layer_factory.hpp:78] Creating layer relu5_3
I1108 20:34:02.381150 21818 net.cpp:67] Creating Layer relu5_3
I1108 20:34:02.381155 21818 net.cpp:394] relu5_3 <- conv5_3
I1108 20:34:02.381161 21818 net.cpp:345] relu5_3 -> conv5_3 (in-place)
I1108 20:34:02.381168 21818 net.cpp:96] Setting up relu5_3
I1108 20:34:02.381173 21818 net.cpp:103] Top shape: 25 512 14 14 (2508800)
I1108 20:34:02.381186 21818 layer_factory.hpp:78] Creating layer pool5
I1108 20:34:02.381193 21818 net.cpp:67] Creating Layer pool5
I1108 20:34:02.381196 21818 net.cpp:394] pool5 <- conv5_3
I1108 20:34:02.381201 21818 net.cpp:356] pool5 -> pool5
I1108 20:34:02.381206 21818 net.cpp:96] Setting up pool5
I1108 20:34:02.381214 21818 net.cpp:103] Top shape: 25 512 7 7 (627200)
I1108 20:34:02.381217 21818 layer_factory.hpp:78] Creating layer fc6
I1108 20:34:02.381232 21818 net.cpp:67] Creating Layer fc6
I1108 20:34:02.381234 21818 net.cpp:394] fc6 <- pool5
I1108 20:34:02.381242 21818 net.cpp:356] fc6 -> fc6
I1108 20:34:02.381247 21818 net.cpp:96] Setting up fc6
I1108 20:34:04.854310 21818 net.cpp:103] Top shape: 25 4096 1 1 (102400)
I1108 20:34:04.854342 21818 layer_factory.hpp:78] Creating layer relu6
I1108 20:34:04.854351 21818 net.cpp:67] Creating Layer relu6
I1108 20:34:04.854356 21818 net.cpp:394] relu6 <- fc6
I1108 20:34:04.854362 21818 net.cpp:345] relu6 -> fc6 (in-place)
I1108 20:34:04.854369 21818 net.cpp:96] Setting up relu6
I1108 20:34:04.854384 21818 net.cpp:103] Top shape: 25 4096 1 1 (102400)
I1108 20:34:04.854392 21818 layer_factory.hpp:78] Creating layer drop6
I1108 20:34:04.854401 21818 net.cpp:67] Creating Layer drop6
I1108 20:34:04.854406 21818 net.cpp:394] drop6 <- fc6
I1108 20:34:04.854411 21818 net.cpp:345] drop6 -> fc6 (in-place)
I1108 20:34:04.854416 21818 net.cpp:96] Setting up drop6
I1108 20:34:04.854421 21818 net.cpp:103] Top shape: 25 4096 1 1 (102400)
I1108 20:34:04.854424 21818 layer_factory.hpp:78] Creating layer fc7
I1108 20:34:04.854429 21818 net.cpp:67] Creating Layer fc7
I1108 20:34:04.854432 21818 net.cpp:394] fc7 <- fc6
I1108 20:34:04.854437 21818 net.cpp:356] fc7 -> fc7
I1108 20:34:04.854444 21818 net.cpp:96] Setting up fc7
I1108 20:34:05.261083 21818 net.cpp:103] Top shape: 25 4096 1 1 (102400)
I1108 20:34:05.261112 21818 layer_factory.hpp:78] Creating layer relu7
I1108 20:34:05.261121 21818 net.cpp:67] Creating Layer relu7
I1108 20:34:05.261126 21818 net.cpp:394] relu7 <- fc7
I1108 20:34:05.261134 21818 net.cpp:345] relu7 -> fc7 (in-place)
I1108 20:34:05.261142 21818 net.cpp:96] Setting up relu7
I1108 20:34:05.261155 21818 net.cpp:103] Top shape: 25 4096 1 1 (102400)
I1108 20:34:05.261160 21818 layer_factory.hpp:78] Creating layer drop7
I1108 20:34:05.261165 21818 net.cpp:67] Creating Layer drop7
I1108 20:34:05.261168 21818 net.cpp:394] drop7 <- fc7
I1108 20:34:05.261174 21818 net.cpp:345] drop7 -> fc7 (in-place)
I1108 20:34:05.261179 21818 net.cpp:96] Setting up drop7
I1108 20:34:05.261183 21818 net.cpp:103] Top shape: 25 4096 1 1 (102400)
I1108 20:34:05.261186 21818 layer_factory.hpp:78] Creating layer fc8_2
I1108 20:34:05.261191 21818 net.cpp:67] Creating Layer fc8_2
I1108 20:34:05.261193 21818 net.cpp:394] fc8_2 <- fc7
I1108 20:34:05.261198 21818 net.cpp:356] fc8_2 -> fc8_2
I1108 20:34:05.261204 21818 net.cpp:96] Setting up fc8_2
I1108 20:34:05.261414 21818 net.cpp:103] Top shape: 25 2 1 1 (50)
I1108 20:34:05.261421 21818 layer_factory.hpp:78] Creating layer loss
I1108 20:34:05.261431 21818 net.cpp:67] Creating Layer loss
I1108 20:34:05.261437 21818 net.cpp:394] loss <- fc8_2
I1108 20:34:05.261441 21818 net.cpp:394] loss <- label
I1108 20:34:05.261448 21818 net.cpp:356] loss -> (automatic)
I1108 20:34:05.261452 21818 net.cpp:96] Setting up loss
I1108 20:34:05.261461 21818 net.cpp:103] Top shape: 1 1 1 1 (1)
I1108 20:34:05.261466 21818 net.cpp:109]     with loss weight 1
I1108 20:34:05.261494 21818 net.cpp:170] loss needs backward computation.
I1108 20:34:05.261498 21818 net.cpp:170] fc8_2 needs backward computation.
I1108 20:34:05.261502 21818 net.cpp:170] drop7 needs backward computation.
I1108 20:34:05.261504 21818 net.cpp:170] relu7 needs backward computation.
I1108 20:34:05.261507 21818 net.cpp:170] fc7 needs backward computation.
…
I1108 20:34:05.262464 21818 net.cpp:275] The NetState phase (1) differed from the phase (0) specified by a rule in layer data
I1108 20:34:05.262665 21818 net.cpp:39] Initializing net from parameters: 
name: "small"
layers {
  top: "data"
  top: "label"
  name: "data"
  type: IMAGE_DATA
  image_data_param {
    source: "/data/ad6813/devCaffe/caffe/data/inadcl_o/val.txt"
    batch_size: 8
    new_height: 256
    new_width: 256
  }
  include {
    phase: TEST
  }
  transform_param {
    mirror: true
    crop_size: 224
    mean_value: 86.752
    mean_value: 101.46
    mean_value: 104.6
  }
}
layers {
  bottom: "data"
  top: "conv1_1"
  name: "conv1_1"
  type: CONVOLUTION
  convolution_param {
    num_output: 64
    pad: 1
    kernel_size: 3
    weight_filler {
      type: "gaussian"
      std: 0.01
    }
    bias_filler {
      type: "constant"
      value: 0
    }
  }
}
layers {
  bottom: "conv1_1"
  top: "conv1_1"
  name: "relu1_1"
  type: RELU
}
layers {
  bottom: "conv1_1"
  top: "conv1_2"
  name: "conv1_2"
  type: CONVOLUTION
  convolution_param {
    num_output: 64
    pad: 1
    kernel_size: 3
    weight_filler {
      type: "gaussian"
      std: 0.01
    }
    bias_filler {
      type: "constant"
      value: 0
    }
  }
}
layers {
  bottom: "conv1_2"
  top: "conv1_2"
  name: "relu1_2"
  type: RELU
}
layers {
  bottom: "conv1_2"
  top: "pool1"
  name: "pool1"
  type: POOLING
  pooling_param {
    pool: MAX
    kernel_size: 2
    stride: 2
  }
}
layers {
  bottom: "pool1"
  top: "conv2_1"
  name: "conv2_1"
  type: CONVOLUTION
  convolution_param {
    num_output: 128
    pad: 1
    kernel_size: 3
    weight_filler {
      type: "gaussian"
      std: 0.01
    }
    bias_filler {
      type: "constant"
      value: 0
    }
  }
}
layers {
  bottom: "conv2_1"
  top: "conv2_1"
  name: "relu2_1"
  type: RELU
}
layers {
  bottom: "conv2_1"
  top: "conv2_2"
  name: "conv2_2"
  type: CONVOLUTION
  convolution_param {
    num_output: 128
    pad: 1
    kernel_size: 3
    weight_filler {
      type: "gaussian"
      std: 0.01
    }
    bias_filler {
      type: "constant"
      value: 0
    }
  }
}
layers {
  bottom: "conv2_2"
  top: "conv2_2"
  name: "relu2_2"
  type: RELU
}
layers {
  bottom: "conv2_2"
  top: "pool2"
  name: "pool2"
  type: POOLING
  pooling_param {
    pool: MAX
    kernel_size: 2
    stride: 2
  }
}
layers {
  bottom: "pool2"
  top: "conv3_1"
  name: "conv3_1"
  type: CONVOLUTION
  convolution_param {
    num_output: 256
    pad: 1
    kernel_size: 3
    weight_filler {
      type: "gaussian"
      std: 0.01
    }
    bias_filler {
      type: "constant"
      value: 0
    }
  }
}
layers {
  bottom: "conv3_1"
  top: "conv3_1"
  name: "relu3_1"
  type: RELU
}
layers {
  bottom: "conv3_1"
  top: "conv3_2"
  name: "conv3_2"
  type: CONVOLUTION
  convolution_param {
    num_output: 256
    pad: 1
    kernel_size: 3
    weight_filler {
      type: "gaussian"
      std: 0.01
    }
    bias_filler {
      type: "constant"
      value: 0
    }
  }
}
layers {
  bottom: "conv3_2"
  top: "conv3_2"
  name: "relu3_2"
  type: RELU
}
layers {
  bottom: "conv3_2"
  top: "conv3_3"
  name: "conv3_3"
  type: CONVOLUTION
  convolution_param {
    num_output: 256
    pad: 1
    kernel_size: 3
    weight_filler {
      type: "gaussian"
      std: 0.01
    }
    bias_filler {
      type: "constant"
      value: 0
    }
  }
}
layers {
  bottom: "conv3_3"
  top: "conv3_3"
  name: "relu3_3"
  type: RELU
}
layers {
  bottom: "conv3_3"
  top: "pool3"
  name: "pool3"
  type: POOLING
  pooling_param {
    pool: MAX
    kernel_size: 2
    stride: 2
  }
}
layers {
  bottom: "pool3"
  top: "conv4_1"
  name: "conv4_1"
  type: CONVOLUTION
  convolution_param {
    num_output: 512
    pad: 1
    kernel_size: 3
    weight_filler {
      type: "gaussian"
      std: 0.01
    }
    bias_filler {
      type: "constant"
      value: 0
    }
  }
}
layers {
  bottom: "conv4_1"
  top: "conv4_1"
  name: "relu4_1"
  type: RELU
}
layers {
  bottom: "conv4_1"
  top: "conv4_2"
  name: "conv4_2"
  type: CONVOLUTION
  convolution_param {
    num_output: 512
    pad: 1
    kernel_size: 3
    weight_filler {
      type: "gaussian"
      std: 0.01
    }
    bias_filler {
      type: "constant"
      value: 0
    }
  }
}
layers {
  bottom: "conv4_2"
  top: "conv4_2"
  name: "relu4_2"
  type: RELU
}
layers {
  bottom: "conv4_2"
  top: "conv4_3"
  name: "conv4_3"
  type: CONVOLUTION
  convolution_param {
    num_output: 512
    pad: 1
    kernel_size: 3
    weight_filler {
      type: "gaussian"
      std: 0.01
    }
    bias_filler {
      type: "constant"
      value: 0
    }
  }
}
layers {
  bottom: "conv4_3"
  top: "conv4_3"
  name: "relu4_3"
  type: RELU
}
layers {
  bottom: "conv4_3"
  top: "pool4"
  name: "pool4"
  type: POOLING
  pooling_param {
    pool: MAX
    kernel_size: 2
    stride: 2
  }
}
layers {
  bottom: "pool4"
  top: "conv5_1"
  name: "conv5_1"
  type: CONVOLUTION
  convolution_param {
    num_output: 512
    pad: 1
    kernel_size: 3
    weight_filler {
      type: "gaussian"
      std: 0.01
    }
    bias_filler {
      type: "constant"
      value: 0
    }
  }
}
layers {
  bottom: "conv5_1"
  top: "conv5_1"
  name: "relu5_1"
  type: RELU
}
layers {
  bottom: "conv5_1"
  top: "conv5_2"
  name: "conv5_2"
  type: CONVOLUTION
  convolution_param {
    num_output: 512
    pad: 1
    kernel_size: 3
    weight_filler {
      type: "gaussian"
      std: 0.01
    }
    bias_filler {
      type: "constant"
      value: 0
    }
  }
}
layers {
  bottom: "conv5_2"
  top: "conv5_2"
  name: "relu5_2"
  type: RELU
}
layers {
  bottom: "conv5_2"
  top: "conv5_3"
  name: "conv5_3"
  type: CONVOLUTION
  convolution_param {
    num_output: 512
    pad: 1
    kernel_size: 3
    weight_filler {
      type: "gaussian"
      std: 0.01
    }
    bias_filler {
      type: "constant"
      value: 0
    }
  }
}
layers {
  bottom: "conv5_3"
  top: "conv5_3"
  name: "relu5_3"
  type: RELU
}
layers {
  bottom: "conv5_3"
  top: "pool5"
  name: "pool5"
  type: POOLING
  pooling_param {
    pool: MAX
    kernel_size: 2
    stride: 2
  }
}
layers {
  bottom: "pool5"
  top: "fc6"
  name: "fc6"
  type: INNER_PRODUCT
  inner_product_param {
    num_output: 4096
    weight_filler {
      type: "gaussian"
      std: 0.01
    }
    bias_filler {
      type: "constant"
      value: 0
    }
  }
}
layers {
  bottom: "fc6"
  top: "fc6"
  name: "relu6"
  type: RELU
}
layers {
  bottom: "fc6"
  top: "fc6"
  name: "drop6"
  type: DROPOUT
  dropout_param {
    dropout_ratio: 0.5
  }
}
layers {
  bottom: "fc6"
  top: "fc7"
  name: "fc7"
  type: INNER_PRODUCT
  inner_product_param {
    num_output: 4096
    weight_filler {
      type: "gaussian"
      std: 0.01
    }
    bias_filler {
      type: "constant"
      value: 0
    }
  }
}
layers {
  bottom: "fc7"
  top: "fc7"
  name: "relu7"
  type: RELU
}
layers {
  bottom: "fc7"
  top: "fc7"
  name: "drop7"
  type: DROPOUT
  dropout_param {
    dropout_ratio: 0.5
  }
}
layers {
  bottom: "fc7"
  top: "fc8_2"
  name: "fc8_2"
  type: INNER_PRODUCT
  inner_product_param {
    num_output: 2
    weight_filler {
      type: "gaussian"
      std: 0.01
    }
    bias_filler {
      type: "constant"
      value: 0
    }
  }
}
layers {
  bottom: "fc8_2"
  bottom: "label"
  name: "loss"
  type: SOFTMAX_LOSS
}
layers {
  bottom: "fc8_2"
  bottom: "label"
  top: "accuracy"
  name: "accuracy"
  type: PER_CLASS_ACCURACY
  include {
    phase: TEST
  }
}
state {
  phase: TEST
}
I1108 20:34:05.262797 21818 layer_factory.hpp:78] Creating layer data
I1108 20:34:05.262807 21818 net.cpp:67] Creating Layer data
I1108 20:34:05.262811 21818 net.cpp:356] data -> data
I1108 20:34:05.262820 21818 net.cpp:356] data -> label
I1108 20:34:05.262825 21818 net.cpp:96] Setting up data
I1108 20:34:05.262828 21818 image_data_layer.cpp:34] Opening file /data/ad6813/devCaffe/caffe/data/inadcl_o/val.txt
I1108 20:34:05.263020 21818 image_data_layer.cpp:49] A total of 473 images.
I1108 20:34:05.268080 21818 image_data_layer.cpp:78] output data size: 8,3,224,224
I1108 20:34:05.268955 21818 net.cpp:103] Top shape: 8 3 224 224 (1204224)
I1108 20:34:05.268966 21818 net.cpp:103] Top shape: 8 1 1 1 (8)
I1108 20:34:05.268970 21818 layer_factory.hpp:78] Creating layer label_data_1_split
I1108 20:34:05.268982 21818 net.cpp:67] Creating Layer label_data_1_split
I1108 20:34:05.268987 21818 net.cpp:394] label_data_1_split <- label
I1108 20:34:05.268993 21818 net.cpp:356] label_data_1_split -> label_data_1_split_0
I1108 20:34:05.269002 21818 net.cpp:356] label_data_1_split -> label_data_1_split_1
I1108 20:34:05.269008 21818 net.cpp:96] Setting up label_data_1_split
I1108 20:34:05.269021 21818 net.cpp:103] Top shape: 8 1 1 1 (8)
I1108 20:34:05.269029 21818 net.cpp:103] Top shape: 8 1 1 1 (8)
I1108 20:34:05.269032 21818 layer_factory.hpp:78] Creating layer conv1_1
I1108 20:34:05.269042 21818 net.cpp:67] Creating Layer conv1_1
I1108 20:34:05.269044 21818 net.cpp:394] conv1_1 <- data
I1108 20:34:05.269049 21818 net.cpp:356] conv1_1 -> conv1_1
I1108 20:34:05.269057 21818 net.cpp:96] Setting up conv1_1
I1108 20:34:05.269211 21818 net.cpp:103] Top shape: 8 64 224 224 (25690112)
I1108 20:34:05.269223 21818 layer_factory.hpp:78] Creating layer relu1_1
I1108 20:34:05.269229 21818 net.cpp:67] Creating Layer relu1_1
I1108 20:34:05.269232 21818 net.cpp:394] relu1_1 <- conv1_1
I1108 20:34:05.269237 21818 net.cpp:345] relu1_1 -> conv1_1 (in-place)
I1108 20:34:05.269249 21818 net.cpp:96] Setting up relu1_1
I1108 20:34:05.269256 21818 net.cpp:103] Top shape: 8 64 224 224 (25690112)
I1108 20:34:05.269259 21818 layer_factory.hpp:78] Creating layer conv1_2
I1108 20:34:05.269264 21818 net.cpp:67] Creating Layer conv1_2
I1108 20:34:05.269268 21818 net.cpp:394] conv1_2 <- conv1_1
I1108 20:34:05.269273 21818 net.cpp:356] conv1_2 -> conv1_2
I1108 20:34:05.269278 21818 net.cpp:96] Setting up conv1_2
I1108 20:34:05.270237 21818 net.cpp:103] Top shape: 8 64 224 224 (25690112)
I1108 20:34:05.270249 21818 layer_factory.hpp:78] Creating layer relu1_2
I1108 20:34:05.270254 21818 net.cpp:67] Creating Layer relu1_2
I1108 20:34:05.270257 21818 net.cpp:394] relu1_2 <- conv1_2
I1108 20:34:05.270262 21818 net.cpp:345] relu1_2 -> conv1_2 (in-place)
I1108 20:34:05.270267 21818 net.cpp:96] Setting up relu1_2
I1108 20:34:05.270272 21818 net.cpp:103] Top shape: 8 64 224 224 (25690112)
I1108 20:34:05.270274 21818 layer_factory.hpp:78] Creating layer pool1
I1108 20:34:05.270280 21818 net.cpp:67] Creating Layer pool1
I1108 20:34:05.270283 21818 net.cpp:394] pool1 <- conv1_2
I1108 20:34:05.270287 21818 net.cpp:356] pool1 -> pool1
I1108 20:34:05.270292 21818 net.cpp:96] Setting up pool1
I1108 20:34:05.270299 21818 net.cpp:103] Top shape: 8 64 112 112 (6422528)
I1108 20:34:05.270303 21818 layer_factory.hpp:78] Creating layer conv2_1
I1108 20:34:05.270308 21818 net.cpp:67] Creating Layer conv2_1
I1108 20:34:05.270310 21818 net.cpp:394] conv2_1 <- pool1
I1108 20:34:05.270314 21818 net.cpp:356] conv2_1 -> conv2_1
I1108 20:34:05.270319 21818 net.cpp:96] Setting up conv2_1
I1108 20:34:05.272300 21818 net.cpp:103] Top shape: 8 128 112 112 (12845056)
I1108 20:34:05.272313 21818 layer_factory.hpp:78] Creating layer relu2_1
I1108 20:34:05.272320 21818 net.cpp:67] Creating Layer relu2_1
I1108 20:34:05.272323 21818 net.cpp:394] relu2_1 <- conv2_1
I1108 20:34:05.272327 21818 net.cpp:345] relu2_1 -> conv2_1 (in-place)
I1108 20:34:05.272332 21818 net.cpp:96] Setting up relu2_1
I1108 20:34:05.272338 21818 net.cpp:103] Top shape: 8 128 112 112 (12845056)
I1108 20:34:05.272341 21818 layer_factory.hpp:78] Creating layer conv2_2
I1108 20:34:05.272346 21818 net.cpp:67] Creating Layer conv2_2
I1108 20:34:05.272349 21818 net.cpp:394] conv2_2 <- conv2_1
I1108 20:34:05.272354 21818 net.cpp:356] conv2_2 -> conv2_2
I1108 20:34:05.272359 21818 net.cpp:96] Setting up conv2_2
I1108 20:34:05.276000 21818 net.cpp:103] Top shape: 8 128 112 112 (12845056)
I1108 20:34:05.276013 21818 layer_factory.hpp:78] Creating layer relu2_2
I1108 20:34:05.276018 21818 net.cpp:67] Creating Layer relu2_2
I1108 20:34:05.276022 21818 net.cpp:394] relu2_2 <- conv2_2
I1108 20:34:05.276027 21818 net.cpp:345] relu2_2 -> conv2_2 (in-place)
I1108 20:34:05.276032 21818 net.cpp:96] Setting up relu2_2
I1108 20:34:05.276037 21818 net.cpp:103] Top shape: 8 128 112 112 (12845056)
I1108 20:34:05.276041 21818 layer_factory.hpp:78] Creating layer pool2
I1108 20:34:05.276046 21818 net.cpp:67] Creating Layer pool2
I1108 20:34:05.276049 21818 net.cpp:394] pool2 <- conv2_2
I1108 20:34:05.276053 21818 net.cpp:356] pool2 -> pool2
I1108 20:34:05.276058 21818 net.cpp:96] Setting up pool2
I1108 20:34:05.276064 21818 net.cpp:103] Top shape: 8 128 56 56 (3211264)
I1108 20:34:05.276067 21818 layer_factory.hpp:78] Creating layer conv3_1
I1108 20:34:05.276072 21818 net.cpp:67] Creating Layer conv3_1
I1108 20:34:05.276075 21818 net.cpp:394] conv3_1 <- pool2
I1108 20:34:05.276080 21818 net.cpp:356] conv3_1 -> conv3_1
I1108 20:34:05.276085 21818 net.cpp:96] Setting up conv3_1
I1108 20:34:05.283280 21818 net.cpp:103] Top shape: 8 256 56 56 (6422528)
I1108 20:34:05.283301 21818 layer_factory.hpp:78] Creating layer relu3_1
I1108 20:34:05.283308 21818 net.cpp:67] Creating Layer relu3_1
I1108 20:34:05.283313 21818 net.cpp:394] relu3_1 <- conv3_1
I1108 20:34:05.283318 21818 net.cpp:345] relu3_1 -> conv3_1 (in-place)
I1108 20:34:05.283324 21818 net.cpp:96] Setting up relu3_1
I1108 20:34:05.283329 21818 net.cpp:103] Top shape: 8 256 56 56 (6422528)
I1108 20:34:05.283332 21818 layer_factory.hpp:78] Creating layer conv3_2
I1108 20:34:05.283345 21818 net.cpp:67] Creating Layer conv3_2
I1108 20:34:05.283349 21818 net.cpp:394] conv3_2 <- conv3_1
I1108 20:34:05.283354 21818 net.cpp:356] conv3_2 -> conv3_2
I1108 20:34:05.283359 21818 net.cpp:96] Setting up conv3_2
I1108 20:34:05.297981 21818 net.cpp:103] Top shape: 8 256 56 56 (6422528)
I1108 20:34:05.298002 21818 layer_factory.hpp:78] Creating layer relu3_2
I1108 20:34:05.298010 21818 net.cpp:67] Creating Layer relu3_2
I1108 20:34:05.298014 21818 net.cpp:394] relu3_2 <- conv3_2
I1108 20:34:05.298019 21818 net.cpp:345] relu3_2 -> conv3_2 (in-place)
I1108 20:34:05.298025 21818 net.cpp:96] Setting up relu3_2
I1108 20:34:05.298030 21818 net.cpp:103] Top shape: 8 256 56 56 (6422528)
I1108 20:34:05.298034 21818 layer_factory.hpp:78] Creating layer conv3_3
I1108 20:34:05.298044 21818 net.cpp:67] Creating Layer conv3_3
I1108 20:34:05.298048 21818 net.cpp:394] conv3_3 <- conv3_2
I1108 20:34:05.298053 21818 net.cpp:356] conv3_3 -> conv3_3
I1108 20:34:05.298058 21818 net.cpp:96] Setting up conv3_3
I1108 20:34:05.312680 21818 net.cpp:103] Top shape: 8 256 56 56 (6422528)
I1108 20:34:05.312695 21818 layer_factory.hpp:78] Creating layer relu3_3
I1108 20:34:05.312705 21818 net.cpp:67] Creating Layer relu3_3
I1108 20:34:05.312708 21818 net.cpp:394] relu3_3 <- conv3_3
I1108 20:34:05.312715 21818 net.cpp:345] relu3_3 -> conv3_3 (in-place)
I1108 20:34:05.312719 21818 net.cpp:96] Setting up relu3_3
I1108 20:34:05.312724 21818 net.cpp:103] Top shape: 8 256 56 56 (6422528)
I1108 20:34:05.312727 21818 layer_factory.hpp:78] Creating layer pool3
I1108 20:34:05.312734 21818 net.cpp:67] Creating Layer pool3
I1108 20:34:05.312737 21818 net.cpp:394] pool3 <- conv3_3
I1108 20:34:05.312742 21818 net.cpp:356] pool3 -> pool3
I1108 20:34:05.312747 21818 net.cpp:96] Setting up pool3
I1108 20:34:05.312754 21818 net.cpp:103] Top shape: 8 256 28 28 (1605632)
I1108 20:34:05.312757 21818 layer_factory.hpp:78] Creating layer conv4_1
I1108 20:34:05.312764 21818 net.cpp:67] Creating Layer conv4_1
I1108 20:34:05.312767 21818 net.cpp:394] conv4_1 <- pool3
I1108 20:34:05.312772 21818 net.cpp:356] conv4_1 -> conv4_1
I1108 20:34:05.312777 21818 net.cpp:96] Setting up conv4_1
I1108 20:34:05.341641 21818 net.cpp:103] Top shape: 8 512 28 28 (3211264)
I1108 20:34:05.341663 21818 layer_factory.hpp:78] Creating layer relu4_1
I1108 20:34:05.341673 21818 net.cpp:67] Creating Layer relu4_1
I1108 20:34:05.341678 21818 net.cpp:394] relu4_1 <- conv4_1
I1108 20:34:05.341684 21818 net.cpp:345] relu4_1 -> conv4_1 (in-place)
I1108 20:34:05.341691 21818 net.cpp:96] Setting up relu4_1
I1108 20:34:05.341696 21818 net.cpp:103] Top shape: 8 512 28 28 (3211264)
I1108 20:34:05.341699 21818 layer_factory.hpp:78] Creating layer conv4_2
I1108 20:34:05.341706 21818 net.cpp:67] Creating Layer conv4_2
I1108 20:34:05.341709 21818 net.cpp:394] conv4_2 <- conv4_1
I1108 20:34:05.341714 21818 net.cpp:356] conv4_2 -> conv4_2
I1108 20:34:05.341720 21818 net.cpp:96] Setting up conv4_2
I1108 20:34:05.399237 21818 net.cpp:103] Top shape: 8 512 28 28 (3211264)
I1108 20:34:05.399271 21818 layer_factory.hpp:78] Creating layer relu4_2
I1108 20:34:05.399279 21818 net.cpp:67] Creating Layer relu4_2
I1108 20:34:05.399283 21818 net.cpp:394] relu4_2 <- conv4_2
I1108 20:34:05.399289 21818 net.cpp:345] relu4_2 -> conv4_2 (in-place)
I1108 20:34:05.399296 21818 net.cpp:96] Setting up relu4_2
I1108 20:34:05.399302 21818 net.cpp:103] Top shape: 8 512 28 28 (3211264)
I1108 20:34:05.399305 21818 layer_factory.hpp:78] Creating layer conv4_3
I1108 20:34:05.399312 21818 net.cpp:67] Creating Layer conv4_3
I1108 20:34:05.399314 21818 net.cpp:394] conv4_3 <- conv4_2
I1108 20:34:05.399320 21818 net.cpp:356] conv4_3 -> conv4_3
I1108 20:34:05.399328 21818 net.cpp:96] Setting up conv4_3
I1108 20:34:05.454844 21818 net.cpp:103] Top shape: 8 512 28 28 (3211264)
I1108 20:34:05.454885 21818 layer_factory.hpp:78] Creating layer relu4_3
I1108 20:34:05.454895 21818 net.cpp:67] Creating Layer relu4_3
I1108 20:34:05.454898 21818 net.cpp:394] relu4_3 <- conv4_3
I1108 20:34:05.454905 21818 net.cpp:345] relu4_3 -> conv4_3 (in-place)
I1108 20:34:05.454921 21818 net.cpp:96] Setting up relu4_3
I1108 20:34:05.454926 21818 net.cpp:103] Top shape: 8 512 28 28 (3211264)
I1108 20:34:05.454931 21818 layer_factory.hpp:78] Creating layer pool4
I1108 20:34:05.454936 21818 net.cpp:67] Creating Layer pool4
I1108 20:34:05.454939 21818 net.cpp:394] pool4 <- conv4_3
I1108 20:34:05.454946 21818 net.cpp:356] pool4 -> pool4
I1108 20:34:05.454952 21818 net.cpp:96] Setting up pool4
I1108 20:34:05.454959 21818 net.cpp:103] Top shape: 8 512 14 14 (802816)
I1108 20:34:05.454962 21818 layer_factory.hpp:78] Creating layer conv5_1
I1108 20:34:05.454969 21818 net.cpp:67] Creating Layer conv5_1
I1108 20:34:05.454972 21818 net.cpp:394] conv5_1 <- pool4
I1108 20:34:05.454977 21818 net.cpp:356] conv5_1 -> conv5_1
I1108 20:34:05.454982 21818 net.cpp:96] Setting up conv5_1
I1108 20:34:05.509762 21818 net.cpp:103] Top shape: 8 512 14 14 (802816)
I1108 20:34:05.509799 21818 layer_factory.hpp:78] Creating layer relu5_1
I1108 20:34:05.509806 21818 net.cpp:67] Creating Layer relu5_1
I1108 20:34:05.509810 21818 net.cpp:394] relu5_1 <- conv5_1
I1108 20:34:05.509816 21818 net.cpp:345] relu5_1 -> conv5_1 (in-place)
I1108 20:34:05.509824 21818 net.cpp:96] Setting up relu5_1
I1108 20:34:05.509829 21818 net.cpp:103] Top shape: 8 512 14 14 (802816)
I1108 20:34:05.509832 21818 layer_factory.hpp:78] Creating layer conv5_2
I1108 20:34:05.509840 21818 net.cpp:67] Creating Layer conv5_2
I1108 20:34:05.509842 21818 net.cpp:394] conv5_2 <- conv5_1
I1108 20:34:05.509847 21818 net.cpp:356] conv5_2 -> conv5_2
I1108 20:34:05.509853 21818 net.cpp:96] Setting up conv5_2
I1108 20:34:05.566984 21818 net.cpp:103] Top shape: 8 512 14 14 (802816)
I1108 20:34:05.567011 21818 layer_factory.hpp:78] Creating layer relu5_2
I1108 20:34:05.567019 21818 net.cpp:67] Creating Layer relu5_2
I1108 20:34:05.567024 21818 net.cpp:394] relu5_2 <- conv5_2
I1108 20:34:05.567033 21818 net.cpp:345] relu5_2 -> conv5_2 (in-place)
I1108 20:34:05.567039 21818 net.cpp:96] Setting up relu5_2
I1108 20:34:05.567044 21818 net.cpp:103] Top shape: 8 512 14 14 (802816)
I1108 20:34:05.567047 21818 layer_factory.hpp:78] Creating layer conv5_3
I1108 20:34:05.567054 21818 net.cpp:67] Creating Layer conv5_3
I1108 20:34:05.567057 21818 net.cpp:394] conv5_3 <- conv5_2
I1108 20:34:05.567062 21818 net.cpp:356] conv5_3 -> conv5_3
I1108 20:34:05.567069 21818 net.cpp:96] Setting up conv5_3
I1108 20:34:05.624742 21818 net.cpp:103] Top shape: 8 512 14 14 (802816)
I1108 20:34:05.624769 21818 layer_factory.hpp:78] Creating layer relu5_3
I1108 20:34:05.624778 21818 net.cpp:67] Creating Layer relu5_3
I1108 20:34:05.624783 21818 net.cpp:394] relu5_3 <- conv5_3
I1108 20:34:05.624790 21818 net.cpp:345] relu5_3 -> conv5_3 (in-place)
I1108 20:34:05.624797 21818 net.cpp:96] Setting up relu5_3
I1108 20:34:05.624802 21818 net.cpp:103] Top shape: 8 512 14 14 (802816)
I1108 20:34:05.624806 21818 layer_factory.hpp:78] Creating layer pool5
I1108 20:34:05.624817 21818 net.cpp:67] Creating Layer pool5
I1108 20:34:05.624820 21818 net.cpp:394] pool5 <- conv5_3
I1108 20:34:05.624825 21818 net.cpp:356] pool5 -> pool5
I1108 20:34:05.624830 21818 net.cpp:96] Setting up pool5
I1108 20:34:05.624837 21818 net.cpp:103] Top shape: 8 512 7 7 (200704)
I1108 20:34:05.624840 21818 layer_factory.hpp:78] Creating layer fc6
I1108 20:34:05.624846 21818 net.cpp:67] Creating Layer fc6
I1108 20:34:05.624850 21818 net.cpp:394] fc6 <- pool5
I1108 20:34:05.624855 21818 net.cpp:356] fc6 -> fc6
I1108 20:34:05.624861 21818 net.cpp:96] Setting up fc6
I1108 20:34:08.074854 21818 net.cpp:103] Top shape: 8 4096 1 1 (32768)
I1108 20:34:08.074895 21818 layer_factory.hpp:78] Creating layer relu6
I1108 20:34:08.074906 21818 net.cpp:67] Creating Layer relu6
I1108 20:34:08.074911 21818 net.cpp:394] relu6 <- fc6
I1108 20:34:08.074918 21818 net.cpp:345] relu6 -> fc6 (in-place)
I1108 20:34:08.074924 21818 net.cpp:96] Setting up relu6
I1108 20:34:08.074939 21818 net.cpp:103] Top shape: 8 4096 1 1 (32768)
I1108 20:34:08.074944 21818 layer_factory.hpp:78] Creating layer drop6
I1108 20:34:08.074956 21818 net.cpp:67] Creating Layer drop6
I1108 20:34:08.074959 21818 net.cpp:394] drop6 <- fc6
I1108 20:34:08.074965 21818 net.cpp:345] drop6 -> fc6 (in-place)
I1108 20:34:08.074970 21818 net.cpp:96] Setting up drop6
I1108 20:34:08.074975 21818 net.cpp:103] Top shape: 8 4096 1 1 (32768)
I1108 20:34:08.074977 21818 layer_factory.hpp:78] Creating layer fc7
I1108 20:34:08.074982 21818 net.cpp:67] Creating Layer fc7
I1108 20:34:08.074985 21818 net.cpp:394] fc7 <- fc6
I1108 20:34:08.074990 21818 net.cpp:356] fc7 -> fc7
I1108 20:34:08.074996 21818 net.cpp:96] Setting up fc7
I1108 20:34:08.485218 21818 net.cpp:103] Top shape: 8 4096 1 1 (32768)
I1108 20:34:08.485257 21818 layer_factory.hpp:78] Creating layer relu7
I1108 20:34:08.485266 21818 net.cpp:67] Creating Layer relu7
I1108 20:34:08.485271 21818 net.cpp:394] relu7 <- fc7
I1108 20:34:08.485278 21818 net.cpp:345] relu7 -> fc7 (in-place)
I1108 20:34:08.485285 21818 net.cpp:96] Setting up relu7
I1108 20:34:08.485299 21818 net.cpp:103] Top shape: 8 4096 1 1 (32768)
I1108 20:34:08.485303 21818 layer_factory.hpp:78] Creating layer drop7
I1108 20:34:08.485311 21818 net.cpp:67] Creating Layer drop7
I1108 20:34:08.485313 21818 net.cpp:394] drop7 <- fc7
I1108 20:34:08.485318 21818 net.cpp:345] drop7 -> fc7 (in-place)
I1108 20:34:08.485323 21818 net.cpp:96] Setting up drop7
I1108 20:34:08.485327 21818 net.cpp:103] Top shape: 8 4096 1 1 (32768)
I1108 20:34:08.485329 21818 layer_factory.hpp:78] Creating layer fc8_2
I1108 20:34:08.485335 21818 net.cpp:67] Creating Layer fc8_2
I1108 20:34:08.485338 21818 net.cpp:394] fc8_2 <- fc7
I1108 20:34:08.485344 21818 net.cpp:356] fc8_2 -> fc8_2
I1108 20:34:08.485350 21818 net.cpp:96] Setting up fc8_2
I1108 20:34:08.485570 21818 net.cpp:103] Top shape: 8 2 1 1 (16)
I1108 20:34:08.485579 21818 layer_factory.hpp:78] Creating layer fc8_2_fc8_2_0_split
I1108 20:34:08.485584 21818 net.cpp:67] Creating Layer fc8_2_fc8_2_0_split
I1108 20:34:08.485586 21818 net.cpp:394] fc8_2_fc8_2_0_split <- fc8_2
I1108 20:34:08.485592 21818 net.cpp:356] fc8_2_fc8_2_0_split -> fc8_2_fc8_2_0_split_0
I1108 20:34:08.485599 21818 net.cpp:356] fc8_2_fc8_2_0_split -> fc8_2_fc8_2_0_split_1
I1108 20:34:08.485604 21818 net.cpp:96] Setting up fc8_2_fc8_2_0_split
I1108 20:34:08.485610 21818 net.cpp:103] Top shape: 8 2 1 1 (16)
I1108 20:34:08.485613 21818 net.cpp:103] Top shape: 8 2 1 1 (16)
I1108 20:34:08.485616 21818 layer_factory.hpp:78] Creating layer loss
I1108 20:34:08.485623 21818 net.cpp:67] Creating Layer loss
I1108 20:34:08.485626 21818 net.cpp:394] loss <- fc8_2_fc8_2_0_split_0
I1108 20:34:08.485630 21818 net.cpp:394] loss <- label_data_1_split_0
I1108 20:34:08.485635 21818 net.cpp:356] loss -> (automatic)
I1108 20:34:08.485638 21818 net.cpp:96] Setting up loss
I1108 20:34:08.485644 21818 net.cpp:103] Top shape: 1 1 1 1 (1)
I1108 20:34:08.485647 21818 net.cpp:109]     with loss weight 1
I1108 20:34:08.485661 21818 layer_factory.hpp:78] Creating layer accuracy
I1108 20:34:08.485671 21818 net.cpp:67] Creating Layer accuracy
I1108 20:34:08.485677 21818 net.cpp:394] accuracy <- fc8_2_fc8_2_0_split_1
I1108 20:34:08.485680 21818 net.cpp:394] accuracy <- label_data_1_split_1
I1108 20:34:08.485685 21818 net.cpp:356] accuracy -> accuracy
I1108 20:34:08.485690 21818 net.cpp:96] Setting up accuracy
I1108 20:34:08.485697 21818 net.cpp:103] Top shape: 1 1 1 4 (4)
I1108 20:34:08.485700 21818 net.cpp:172] accuracy does not need backward computation.
I1108 20:34:08.485702 21818 net.cpp:170] loss needs backward computation.
I1108 20:34:08.485705 21818 net.cpp:170] fc8_2_fc8_2_0_split needs backward computation.
I1108 20:34:08.485708 21818 net.cpp:170] fc8_2 needs backward computation.
I1108 20:34:08.485712 21818 net.cpp:170] drop7 needs backward computation.
…
