…
I1108 21:28:58.182134 15069 net.cpp:275] The NetState phase (0) differed from the phase (1) specified by a rule in layer accuracy
I1108 21:28:58.182490 15069 net.cpp:39] Initializing net from parameters: 
name: "small"
layers {
  top: "data"
  top: "label"
  name: "data"
  type: IMAGE_DATA
  image_data_param {
    source: "/data/ad6813/devCaffe/caffe/data/inadcl_o/train.txt"
    batch_size: 8
    new_height: 256
    new_width: 256
  }
  include {
    phase: TRAIN
  }
  transform_param {
    mirror: true
    crop_size: 224
    mean_value: 86.752
    mean_value: 101.46
    mean_value: 104.6
  }
}
layers {
  bottom: "data"
  top: "conv1_1"
  name: "conv1_1"
  type: CONVOLUTION
  convolution_param {
    num_output: 64
    pad: 1
    kernel_size: 3
    weight_filler {
      type: "gaussian"
      std: 0.01
    }
    bias_filler {
      type: "constant"
      value: 0
    }
  }
}
layers {
  bottom: "conv1_1"
  top: "conv1_1"
  name: "relu1_1"
  type: RELU
}
layers {
  bottom: "conv1_1"
  top: "conv1_2"
  name: "conv1_2"
  type: CONVOLUTION
  convolution_param {
    num_output: 64
    pad: 1
    kernel_size: 3
    weight_filler {
      type: "gaussian"
      std: 0.01
    }
    bias_filler {
      type: "constant"
      value: 0
    }
  }
}
layers {
  bottom: "conv1_2"
  top: "conv1_2"
  name: "relu1_2"
  type: RELU
}
layers {
  bottom: "conv1_2"
  top: "pool1"
  name: "pool1"
  type: POOLING
  pooling_param {
    pool: MAX
    kernel_size: 2
    stride: 2
  }
}
layers {
  bottom: "pool1"
  top: "conv2_1"
  name: "conv2_1"
  type: CONVOLUTION
  convolution_param {
    num_output: 128
    pad: 1
    kernel_size: 3
    weight_filler {
      type: "gaussian"
      std: 0.01
    }
    bias_filler {
      type: "constant"
      value: 0
    }
  }
}
layers {
  bottom: "conv2_1"
  top: "conv2_1"
  name: "relu2_1"
  type: RELU
}
layers {
  bottom: "conv2_1"
  top: "conv2_2"
  name: "conv2_2"
  type: CONVOLUTION
  convolution_param {
    num_output: 128
    pad: 1
    kernel_size: 3
    weight_filler {
      type: "gaussian"
      std: 0.01
    }
    bias_filler {
      type: "constant"
      value: 0
    }
  }
}
layers {
  bottom: "conv2_2"
  top: "conv2_2"
  name: "relu2_2"
  type: RELU
}
layers {
  bottom: "conv2_2"
  top: "pool2"
  name: "pool2"
  type: POOLING
  pooling_param {
    pool: MAX
    kernel_size: 2
    stride: 2
  }
}
layers {
  bottom: "pool2"
  top: "conv3_1"
  name: "conv3_1"
  type: CONVOLUTION
  convolution_param {
    num_output: 256
    pad: 1
    kernel_size: 3
    weight_filler {
      type: "gaussian"
      std: 0.01
    }
    bias_filler {
      type: "constant"
      value: 0
    }
  }
}
layers {
  bottom: "conv3_1"
  top: "conv3_1"
  name: "relu3_1"
  type: RELU
}
layers {
  bottom: "conv3_1"
  top: "conv3_2"
  name: "conv3_2"
  type: CONVOLUTION
  convolution_param {
    num_output: 256
    pad: 1
    kernel_size: 3
    weight_filler {
      type: "gaussian"
      std: 0.01
    }
    bias_filler {
      type: "constant"
      value: 0
    }
  }
}
layers {
  bottom: "conv3_2"
  top: "conv3_2"
  name: "relu3_2"
  type: RELU
}
layers {
  bottom: "conv3_2"
  top: "conv3_3"
  name: "conv3_3"
  type: CONVOLUTION
  convolution_param {
    num_output: 256
    pad: 1
    kernel_size: 3
    weight_filler {
      type: "gaussian"
      std: 0.01
    }
    bias_filler {
      type: "constant"
      value: 0
    }
  }
}
layers {
  bottom: "conv3_3"
  top: "conv3_3"
  name: "relu3_3"
  type: RELU
}
layers {
  bottom: "conv3_3"
  top: "pool3"
  name: "pool3"
  type: POOLING
  pooling_param {
    pool: MAX
    kernel_size: 2
    stride: 2
  }
}
layers {
  bottom: "pool3"
  top: "conv4_1"
  name: "conv4_1"
  type: CONVOLUTION
  convolution_param {
    num_output: 512
    pad: 1
    kernel_size: 3
    weight_filler {
      type: "gaussian"
      std: 0.01
    }
    bias_filler {
      type: "constant"
      value: 0
    }
  }
}
layers {
  bottom: "conv4_1"
  top: "conv4_1"
  name: "relu4_1"
  type: RELU
}
layers {
  bottom: "conv4_1"
  top: "conv4_2"
  name: "conv4_2"
  type: CONVOLUTION
  convolution_param {
    num_output: 512
    pad: 1
    kernel_size: 3
    weight_filler {
      type: "gaussian"
      std: 0.01
    }
    bias_filler {
      type: "constant"
      value: 0
    }
  }
}
layers {
  bottom: "conv4_2"
  top: "conv4_2"
  name: "relu4_2"
  type: RELU
}
layers {
  bottom: "conv4_2"
  top: "conv4_3"
  name: "conv4_3"
  type: CONVOLUTION
  convolution_param {
    num_output: 512
    pad: 1
    kernel_size: 3
    weight_filler {
      type: "gaussian"
      std: 0.01
    }
    bias_filler {
      type: "constant"
      value: 0
    }
  }
}
layers {
  bottom: "conv4_3"
  top: "conv4_3"
  name: "relu4_3"
  type: RELU
}
layers {
  bottom: "conv4_3"
  top: "pool4"
  name: "pool4"
  type: POOLING
  pooling_param {
    pool: MAX
    kernel_size: 2
    stride: 2
  }
}
layers {
  bottom: "pool4"
  top: "conv5_1"
  name: "conv5_1"
  type: CONVOLUTION
  convolution_param {
    num_output: 512
    pad: 1
    kernel_size: 3
    weight_filler {
      type: "gaussian"
      std: 0.01
    }
    bias_filler {
      type: "constant"
      value: 0
    }
  }
}
layers {
  bottom: "conv5_1"
  top: "conv5_1"
  name: "relu5_1"
  type: RELU
}
layers {
  bottom: "conv5_1"
  top: "conv5_2"
  name: "conv5_2"
  type: CONVOLUTION
  convolution_param {
    num_output: 512
    pad: 1
    kernel_size: 3
    weight_filler {
      type: "gaussian"
      std: 0.01
    }
    bias_filler {
      type: "constant"
      value: 0
    }
  }
}
layers {
  bottom: "conv5_2"
  top: "conv5_2"
  name: "relu5_2"
  type: RELU
}
layers {
  bottom: "conv5_2"
  top: "conv5_3"
  name: "conv5_3"
  type: CONVOLUTION
  convolution_param {
    num_output: 512
    pad: 1
    kernel_size: 3
    weight_filler {
      type: "gaussian"
      std: 0.01
    }
    bias_filler {
      type: "constant"
      value: 0
    }
  }
}
layers {
  bottom: "conv5_3"
  top: "conv5_3"
  name: "relu5_3"
  type: RELU
}
layers {
  bottom: "conv5_3"
  top: "pool5"
  name: "pool5"
  type: POOLING
  pooling_param {
    pool: MAX
    kernel_size: 2
    stride: 2
  }
}
layers {
  bottom: "pool5"
  top: "fc6"
  name: "fc6"
  type: INNER_PRODUCT
  inner_product_param {
    num_output: 4096
    weight_filler {
      type: "gaussian"
      std: 0.01
    }
    bias_filler {
      type: "constant"
      value: 0
    }
  }
}
layers {
  bottom: "fc6"
  top: "fc6"
  name: "relu6"
  type: RELU
}
layers {
  bottom: "fc6"
  top: "fc6"
  name: "drop6"
  type: DROPOUT
  dropout_param {
    dropout_ratio: 0.5
  }
}
layers {
  bottom: "fc6"
  top: "fc7"
  name: "fc7"
  type: INNER_PRODUCT
  inner_product_param {
    num_output: 4096
    weight_filler {
      type: "gaussian"
      std: 0.01
    }
    bias_filler {
      type: "constant"
      value: 0
    }
  }
}
layers {
  bottom: "fc7"
  top: "fc7"
  name: "relu7"
  type: RELU
}
layers {
  bottom: "fc7"
  top: "fc7"
  name: "drop7"
  type: DROPOUT
  dropout_param {
    dropout_ratio: 0.5
  }
}
layers {
  bottom: "fc7"
  top: "fc8_2"
  name: "fc8_2"
  type: INNER_PRODUCT
  inner_product_param {
    num_output: 2
    weight_filler {
      type: "gaussian"
      std: 0.01
    }
    bias_filler {
      type: "constant"
      value: 0
    }
  }
}
layers {
  bottom: "fc8_2"
  bottom: "label"
  name: "loss"
  type: SOFTMAX_LOSS
}
state {
  phase: TRAIN
}
I1108 21:28:58.182695 15069 layer_factory.hpp:78] Creating layer data
I1108 21:28:58.182724 15069 net.cpp:67] Creating Layer data
I1108 21:28:58.182736 15069 net.cpp:356] data -> data
I1108 21:28:58.182767 15069 net.cpp:356] data -> label
I1108 21:28:58.182781 15069 net.cpp:96] Setting up data
I1108 21:28:58.182791 15069 image_data_layer.cpp:34] Opening file /data/ad6813/devCaffe/caffe/data/inadcl_o/train.txt
I1108 21:28:58.201786 15069 image_data_layer.cpp:49] A total of 29797 images.
I1108 21:28:58.212321 15069 image_data_layer.cpp:78] output data size: 8,3,224,224
I1108 21:28:58.214603 15069 net.cpp:103] Top shape: 8 3 224 224 (1204224)
I1108 21:28:58.214627 15069 net.cpp:103] Top shape: 8 1 1 1 (8)
I1108 21:28:58.214635 15069 layer_factory.hpp:78] Creating layer conv1_1
I1108 21:28:58.214654 15069 net.cpp:67] Creating Layer conv1_1
I1108 21:28:58.214661 15069 net.cpp:394] conv1_1 <- data
I1108 21:28:58.214697 15069 net.cpp:356] conv1_1 -> conv1_1
I1108 21:28:58.214715 15069 net.cpp:96] Setting up conv1_1
I1108 21:28:58.244228 15069 net.cpp:103] Top shape: 8 64 224 224 (25690112)
I1108 21:28:58.244278 15069 layer_factory.hpp:78] Creating layer relu1_1
I1108 21:28:58.244297 15069 net.cpp:67] Creating Layer relu1_1
I1108 21:28:58.244305 15069 net.cpp:394] relu1_1 <- conv1_1
I1108 21:28:58.244315 15069 net.cpp:345] relu1_1 -> conv1_1 (in-place)
I1108 21:28:58.244329 15069 net.cpp:96] Setting up relu1_1
I1108 21:28:58.244344 15069 net.cpp:103] Top shape: 8 64 224 224 (25690112)
I1108 21:28:58.244351 15069 layer_factory.hpp:78] Creating layer conv1_2
I1108 21:28:58.244362 15069 net.cpp:67] Creating Layer conv1_2
I1108 21:28:58.244369 15069 net.cpp:394] conv1_2 <- conv1_1
I1108 21:28:58.244376 15069 net.cpp:356] conv1_2 -> conv1_2
I1108 21:28:58.244397 15069 net.cpp:96] Setting up conv1_2
I1108 21:28:58.246471 15069 net.cpp:103] Top shape: 8 64 224 224 (25690112)
I1108 21:28:58.246498 15069 layer_factory.hpp:78] Creating layer relu1_2
I1108 21:28:58.246508 15069 net.cpp:67] Creating Layer relu1_2
I1108 21:28:58.246515 15069 net.cpp:394] relu1_2 <- conv1_2
I1108 21:28:58.246526 15069 net.cpp:345] relu1_2 -> conv1_2 (in-place)
I1108 21:28:58.246534 15069 net.cpp:96] Setting up relu1_2
I1108 21:28:58.246546 15069 net.cpp:103] Top shape: 8 64 224 224 (25690112)
I1108 21:28:58.246551 15069 layer_factory.hpp:78] Creating layer pool1
I1108 21:28:58.246563 15069 net.cpp:67] Creating Layer pool1
I1108 21:28:58.246569 15069 net.cpp:394] pool1 <- conv1_2
I1108 21:28:58.246577 15069 net.cpp:356] pool1 -> pool1
I1108 21:28:58.246587 15069 net.cpp:96] Setting up pool1
I1108 21:28:58.246613 15069 net.cpp:103] Top shape: 8 64 112 112 (6422528)
I1108 21:28:58.246620 15069 layer_factory.hpp:78] Creating layer conv2_1
I1108 21:28:58.246633 15069 net.cpp:67] Creating Layer conv2_1
I1108 21:28:58.246639 15069 net.cpp:394] conv2_1 <- pool1
I1108 21:28:58.246650 15069 net.cpp:356] conv2_1 -> conv2_1
I1108 21:28:58.246660 15069 net.cpp:96] Setting up conv2_1
I1108 21:28:58.250394 15069 net.cpp:103] Top shape: 8 128 112 112 (12845056)
I1108 21:28:58.250421 15069 layer_factory.hpp:78] Creating layer relu2_1
I1108 21:28:58.250433 15069 net.cpp:67] Creating Layer relu2_1
I1108 21:28:58.250439 15069 net.cpp:394] relu2_1 <- conv2_1
I1108 21:28:58.250447 15069 net.cpp:345] relu2_1 -> conv2_1 (in-place)
I1108 21:28:58.250455 15069 net.cpp:96] Setting up relu2_1
I1108 21:28:58.250465 15069 net.cpp:103] Top shape: 8 128 112 112 (12845056)
I1108 21:28:58.250471 15069 layer_factory.hpp:78] Creating layer conv2_2
I1108 21:28:58.250484 15069 net.cpp:67] Creating Layer conv2_2
I1108 21:28:58.250490 15069 net.cpp:394] conv2_2 <- conv2_1
I1108 21:28:58.250499 15069 net.cpp:356] conv2_2 -> conv2_2
I1108 21:28:58.250507 15069 net.cpp:96] Setting up conv2_2
I1108 21:28:58.257863 15069 net.cpp:103] Top shape: 8 128 112 112 (12845056)
I1108 21:28:58.257891 15069 layer_factory.hpp:78] Creating layer relu2_2
I1108 21:28:58.257905 15069 net.cpp:67] Creating Layer relu2_2
I1108 21:28:58.257911 15069 net.cpp:394] relu2_2 <- conv2_2
I1108 21:28:58.257920 15069 net.cpp:345] relu2_2 -> conv2_2 (in-place)
I1108 21:28:58.257930 15069 net.cpp:96] Setting up relu2_2
I1108 21:28:58.257940 15069 net.cpp:103] Top shape: 8 128 112 112 (12845056)
I1108 21:28:58.257946 15069 layer_factory.hpp:78] Creating layer pool2
I1108 21:28:58.257971 15069 net.cpp:67] Creating Layer pool2
I1108 21:28:58.257977 15069 net.cpp:394] pool2 <- conv2_2
I1108 21:28:58.257984 15069 net.cpp:356] pool2 -> pool2
I1108 21:28:58.257993 15069 net.cpp:96] Setting up pool2
I1108 21:28:58.258005 15069 net.cpp:103] Top shape: 8 128 56 56 (3211264)
I1108 21:28:58.258011 15069 layer_factory.hpp:78] Creating layer conv3_1
I1108 21:28:58.258023 15069 net.cpp:67] Creating Layer conv3_1
I1108 21:28:58.258029 15069 net.cpp:394] conv3_1 <- pool2
I1108 21:28:58.258038 15069 net.cpp:356] conv3_1 -> conv3_1
I1108 21:28:58.258049 15069 net.cpp:96] Setting up conv3_1
I1108 21:28:58.272546 15069 net.cpp:103] Top shape: 8 256 56 56 (6422528)
I1108 21:28:58.272574 15069 layer_factory.hpp:78] Creating layer relu3_1
I1108 21:28:58.272586 15069 net.cpp:67] Creating Layer relu3_1
I1108 21:28:58.272593 15069 net.cpp:394] relu3_1 <- conv3_1
I1108 21:28:58.272603 15069 net.cpp:345] relu3_1 -> conv3_1 (in-place)
I1108 21:28:58.272611 15069 net.cpp:96] Setting up relu3_1
I1108 21:28:58.272620 15069 net.cpp:103] Top shape: 8 256 56 56 (6422528)
I1108 21:28:58.272627 15069 layer_factory.hpp:78] Creating layer conv3_2
I1108 21:28:58.272639 15069 net.cpp:67] Creating Layer conv3_2
I1108 21:28:58.272645 15069 net.cpp:394] conv3_2 <- conv3_1
I1108 21:28:58.272653 15069 net.cpp:356] conv3_2 -> conv3_2
I1108 21:28:58.272662 15069 net.cpp:96] Setting up conv3_2
I1108 21:28:58.301705 15069 net.cpp:103] Top shape: 8 256 56 56 (6422528)
I1108 21:28:58.301736 15069 layer_factory.hpp:78] Creating layer relu3_2
I1108 21:28:58.301748 15069 net.cpp:67] Creating Layer relu3_2
I1108 21:28:58.301754 15069 net.cpp:394] relu3_2 <- conv3_2
I1108 21:28:58.301762 15069 net.cpp:345] relu3_2 -> conv3_2 (in-place)
I1108 21:28:58.301771 15069 net.cpp:96] Setting up relu3_2
I1108 21:28:58.301781 15069 net.cpp:103] Top shape: 8 256 56 56 (6422528)
I1108 21:28:58.301787 15069 layer_factory.hpp:78] Creating layer conv3_3
I1108 21:28:58.301800 15069 net.cpp:67] Creating Layer conv3_3
I1108 21:28:58.301805 15069 net.cpp:394] conv3_3 <- conv3_2
I1108 21:28:58.301815 15069 net.cpp:356] conv3_3 -> conv3_3
I1108 21:28:58.301823 15069 net.cpp:96] Setting up conv3_3
I1108 21:28:58.330566 15069 net.cpp:103] Top shape: 8 256 56 56 (6422528)
I1108 21:28:58.330592 15069 layer_factory.hpp:78] Creating layer relu3_3
I1108 21:28:58.330605 15069 net.cpp:67] Creating Layer relu3_3
I1108 21:28:58.330610 15069 net.cpp:394] relu3_3 <- conv3_3
I1108 21:28:58.330618 15069 net.cpp:345] relu3_3 -> conv3_3 (in-place)
I1108 21:28:58.330627 15069 net.cpp:96] Setting up relu3_3
I1108 21:28:58.330636 15069 net.cpp:103] Top shape: 8 256 56 56 (6422528)
I1108 21:28:58.330643 15069 layer_factory.hpp:78] Creating layer pool3
I1108 21:28:58.330656 15069 net.cpp:67] Creating Layer pool3
I1108 21:28:58.330662 15069 net.cpp:394] pool3 <- conv3_3
I1108 21:28:58.330669 15069 net.cpp:356] pool3 -> pool3
I1108 21:28:58.330678 15069 net.cpp:96] Setting up pool3
I1108 21:28:58.330690 15069 net.cpp:103] Top shape: 8 256 28 28 (1605632)
I1108 21:28:58.330696 15069 layer_factory.hpp:78] Creating layer conv4_1
I1108 21:28:58.330708 15069 net.cpp:67] Creating Layer conv4_1
I1108 21:28:58.330713 15069 net.cpp:394] conv4_1 <- pool3
I1108 21:28:58.330721 15069 net.cpp:356] conv4_1 -> conv4_1
I1108 21:28:58.330730 15069 net.cpp:96] Setting up conv4_1
I1108 21:28:58.387719 15069 net.cpp:103] Top shape: 8 512 28 28 (3211264)
I1108 21:28:58.387750 15069 layer_factory.hpp:78] Creating layer relu4_1
I1108 21:28:58.387760 15069 net.cpp:67] Creating Layer relu4_1
I1108 21:28:58.387768 15069 net.cpp:394] relu4_1 <- conv4_1
I1108 21:28:58.387778 15069 net.cpp:345] relu4_1 -> conv4_1 (in-place)
I1108 21:28:58.387789 15069 net.cpp:96] Setting up relu4_1
I1108 21:28:58.387799 15069 net.cpp:103] Top shape: 8 512 28 28 (3211264)
I1108 21:28:58.387804 15069 layer_factory.hpp:78] Creating layer conv4_2
I1108 21:28:58.387814 15069 net.cpp:67] Creating Layer conv4_2
I1108 21:28:58.387820 15069 net.cpp:394] conv4_2 <- conv4_1
I1108 21:28:58.387842 15069 net.cpp:356] conv4_2 -> conv4_2
I1108 21:28:58.387852 15069 net.cpp:96] Setting up conv4_2
I1108 21:28:58.501169 15069 net.cpp:103] Top shape: 8 512 28 28 (3211264)
I1108 21:28:58.501221 15069 layer_factory.hpp:78] Creating layer relu4_2
I1108 21:28:58.501235 15069 net.cpp:67] Creating Layer relu4_2
I1108 21:28:58.501242 15069 net.cpp:394] relu4_2 <- conv4_2
I1108 21:28:58.501252 15069 net.cpp:345] relu4_2 -> conv4_2 (in-place)
I1108 21:28:58.501263 15069 net.cpp:96] Setting up relu4_2
I1108 21:28:58.501274 15069 net.cpp:103] Top shape: 8 512 28 28 (3211264)
I1108 21:28:58.501281 15069 layer_factory.hpp:78] Creating layer conv4_3
I1108 21:28:58.501293 15069 net.cpp:67] Creating Layer conv4_3
I1108 21:28:58.501299 15069 net.cpp:394] conv4_3 <- conv4_2
I1108 21:28:58.501307 15069 net.cpp:356] conv4_3 -> conv4_3
I1108 21:28:58.501317 15069 net.cpp:96] Setting up conv4_3
I1108 21:28:58.614460 15069 net.cpp:103] Top shape: 8 512 28 28 (3211264)
I1108 21:28:58.614502 15069 layer_factory.hpp:78] Creating layer relu4_3
I1108 21:28:58.614514 15069 net.cpp:67] Creating Layer relu4_3
I1108 21:28:58.614521 15069 net.cpp:394] relu4_3 <- conv4_3
I1108 21:28:58.614534 15069 net.cpp:345] relu4_3 -> conv4_3 (in-place)
I1108 21:28:58.614545 15069 net.cpp:96] Setting up relu4_3
I1108 21:28:58.614557 15069 net.cpp:103] Top shape: 8 512 28 28 (3211264)
I1108 21:28:58.614563 15069 layer_factory.hpp:78] Creating layer pool4
I1108 21:28:58.614573 15069 net.cpp:67] Creating Layer pool4
I1108 21:28:58.614578 15069 net.cpp:394] pool4 <- conv4_3
I1108 21:28:58.614588 15069 net.cpp:356] pool4 -> pool4
I1108 21:28:58.614598 15069 net.cpp:96] Setting up pool4
I1108 21:28:58.614611 15069 net.cpp:103] Top shape: 8 512 14 14 (802816)
I1108 21:28:58.614617 15069 layer_factory.hpp:78] Creating layer conv5_1
I1108 21:28:58.614626 15069 net.cpp:67] Creating Layer conv5_1
I1108 21:28:58.614631 15069 net.cpp:394] conv5_1 <- pool4
I1108 21:28:58.614642 15069 net.cpp:356] conv5_1 -> conv5_1
I1108 21:28:58.614655 15069 net.cpp:96] Setting up conv5_1
I1108 21:28:58.730166 15069 net.cpp:103] Top shape: 8 512 14 14 (802816)
I1108 21:28:58.730209 15069 layer_factory.hpp:78] Creating layer relu5_1
I1108 21:28:58.730226 15069 net.cpp:67] Creating Layer relu5_1
I1108 21:28:58.730233 15069 net.cpp:394] relu5_1 <- conv5_1
I1108 21:28:58.730244 15069 net.cpp:345] relu5_1 -> conv5_1 (in-place)
I1108 21:28:58.730255 15069 net.cpp:96] Setting up relu5_1
I1108 21:28:58.730267 15069 net.cpp:103] Top shape: 8 512 14 14 (802816)
I1108 21:28:58.730273 15069 layer_factory.hpp:78] Creating layer conv5_2
I1108 21:28:58.730283 15069 net.cpp:67] Creating Layer conv5_2
I1108 21:28:58.730288 15069 net.cpp:394] conv5_2 <- conv5_1
I1108 21:28:58.730298 15069 net.cpp:356] conv5_2 -> conv5_2
I1108 21:28:58.730309 15069 net.cpp:96] Setting up conv5_2
I1108 21:28:58.845199 15069 net.cpp:103] Top shape: 8 512 14 14 (802816)
I1108 21:28:58.845243 15069 layer_factory.hpp:78] Creating layer relu5_2
I1108 21:28:58.845257 15069 net.cpp:67] Creating Layer relu5_2
I1108 21:28:58.845263 15069 net.cpp:394] relu5_2 <- conv5_2
I1108 21:28:58.845273 15069 net.cpp:345] relu5_2 -> conv5_2 (in-place)
I1108 21:28:58.845283 15069 net.cpp:96] Setting up relu5_2
I1108 21:28:58.845294 15069 net.cpp:103] Top shape: 8 512 14 14 (802816)
I1108 21:28:58.845300 15069 layer_factory.hpp:78] Creating layer conv5_3
I1108 21:28:58.845314 15069 net.cpp:67] Creating Layer conv5_3
I1108 21:28:58.845319 15069 net.cpp:394] conv5_3 <- conv5_2
I1108 21:28:58.845330 15069 net.cpp:356] conv5_3 -> conv5_3
I1108 21:28:58.845340 15069 net.cpp:96] Setting up conv5_3
I1108 21:28:58.958855 15069 net.cpp:103] Top shape: 8 512 14 14 (802816)
I1108 21:28:58.958899 15069 layer_factory.hpp:78] Creating layer relu5_3
I1108 21:28:58.958911 15069 net.cpp:67] Creating Layer relu5_3
I1108 21:28:58.958919 15069 net.cpp:394] relu5_3 <- conv5_3
I1108 21:28:58.958930 15069 net.cpp:345] relu5_3 -> conv5_3 (in-place)
I1108 21:28:58.958940 15069 net.cpp:96] Setting up relu5_3
I1108 21:28:58.958950 15069 net.cpp:103] Top shape: 8 512 14 14 (802816)
I1108 21:28:58.958972 15069 layer_factory.hpp:78] Creating layer pool5
I1108 21:28:58.958982 15069 net.cpp:67] Creating Layer pool5
I1108 21:28:58.958987 15069 net.cpp:394] pool5 <- conv5_3
I1108 21:28:58.958997 15069 net.cpp:356] pool5 -> pool5
I1108 21:28:58.959005 15069 net.cpp:96] Setting up pool5
I1108 21:28:58.959018 15069 net.cpp:103] Top shape: 8 512 7 7 (200704)
I1108 21:28:58.959024 15069 layer_factory.hpp:78] Creating layer fc6
I1108 21:28:58.959049 15069 net.cpp:67] Creating Layer fc6
I1108 21:28:58.959056 15069 net.cpp:394] fc6 <- pool5
I1108 21:28:58.959064 15069 net.cpp:356] fc6 -> fc6
I1108 21:28:58.959074 15069 net.cpp:96] Setting up fc6
I1108 21:29:03.852937 15069 net.cpp:103] Top shape: 8 4096 1 1 (32768)
I1108 21:29:03.852983 15069 layer_factory.hpp:78] Creating layer relu6
I1108 21:29:03.852995 15069 net.cpp:67] Creating Layer relu6
I1108 21:29:03.853003 15069 net.cpp:394] relu6 <- fc6
I1108 21:29:03.853016 15069 net.cpp:345] relu6 -> fc6 (in-place)
I1108 21:29:03.853027 15069 net.cpp:96] Setting up relu6
I1108 21:29:03.853049 15069 net.cpp:103] Top shape: 8 4096 1 1 (32768)
I1108 21:29:03.853055 15069 layer_factory.hpp:78] Creating layer drop6
I1108 21:29:03.853068 15069 net.cpp:67] Creating Layer drop6
I1108 21:29:03.853075 15069 net.cpp:394] drop6 <- fc6
I1108 21:29:03.853085 15069 net.cpp:345] drop6 -> fc6 (in-place)
I1108 21:29:03.853092 15069 net.cpp:96] Setting up drop6
I1108 21:29:03.853101 15069 net.cpp:103] Top shape: 8 4096 1 1 (32768)
I1108 21:29:03.853107 15069 layer_factory.hpp:78] Creating layer fc7
I1108 21:29:03.853116 15069 net.cpp:67] Creating Layer fc7
I1108 21:29:03.853121 15069 net.cpp:394] fc7 <- fc6
I1108 21:29:03.853137 15069 net.cpp:356] fc7 -> fc7
I1108 21:29:03.853149 15069 net.cpp:96] Setting up fc7
I1108 21:29:04.653602 15069 net.cpp:103] Top shape: 8 4096 1 1 (32768)
I1108 21:29:04.653646 15069 layer_factory.hpp:78] Creating layer relu7
I1108 21:29:04.653661 15069 net.cpp:67] Creating Layer relu7
I1108 21:29:04.653669 15069 net.cpp:394] relu7 <- fc7
I1108 21:29:04.653679 15069 net.cpp:345] relu7 -> fc7 (in-place)
I1108 21:29:04.653689 15069 net.cpp:96] Setting up relu7
I1108 21:29:04.653709 15069 net.cpp:103] Top shape: 8 4096 1 1 (32768)
I1108 21:29:04.653715 15069 layer_factory.hpp:78] Creating layer drop7
I1108 21:29:04.653727 15069 net.cpp:67] Creating Layer drop7
I1108 21:29:04.653733 15069 net.cpp:394] drop7 <- fc7
I1108 21:29:04.653739 15069 net.cpp:345] drop7 -> fc7 (in-place)
I1108 21:29:04.653748 15069 net.cpp:96] Setting up drop7
I1108 21:29:04.653754 15069 net.cpp:103] Top shape: 8 4096 1 1 (32768)
I1108 21:29:04.653759 15069 layer_factory.hpp:78] Creating layer fc8_2
I1108 21:29:04.653769 15069 net.cpp:67] Creating Layer fc8_2
I1108 21:29:04.653774 15069 net.cpp:394] fc8_2 <- fc7
I1108 21:29:04.653784 15069 net.cpp:356] fc8_2 -> fc8_2
I1108 21:29:04.653795 15069 net.cpp:96] Setting up fc8_2
I1108 21:29:04.654206 15069 net.cpp:103] Top shape: 8 2 1 1 (16)
I1108 21:29:04.654222 15069 layer_factory.hpp:78] Creating layer loss
I1108 21:29:04.654237 15069 net.cpp:67] Creating Layer loss
I1108 21:29:04.654243 15069 net.cpp:394] loss <- fc8_2
I1108 21:29:04.654249 15069 net.cpp:394] loss <- label
I1108 21:29:04.654260 15069 net.cpp:356] loss -> (automatic)
I1108 21:29:04.654268 15069 net.cpp:96] Setting up loss
I1108 21:29:04.654281 15069 net.cpp:103] Top shape: 1 1 1 1 (1)
I1108 21:29:04.654288 15069 net.cpp:109]     with loss weight 1
I1108 21:29:04.654330 15069 net.cpp:170] loss needs backward computation.
I1108 21:29:04.654336 15069 net.cpp:170] fc8_2 needs backward computation.
I1108 21:29:04.654341 15069 net.cpp:170] drop7 needs backward computation.
I1108 21:29:04.654346 15069 net.cpp:170] relu7 needs backward computation.
I1108 21:29:04.654350 15069 net.cpp:170] fc7 needs backward computation.
…
I1108 21:29:04.656167 15069 net.cpp:275] The NetState phase (1) differed from the phase (0) specified by a rule in layer data
I1108 21:29:04.656551 15069 net.cpp:39] Initializing net from parameters: 
name: "small"
layers {
  top: "data"
  top: "label"
  name: "data"
  type: IMAGE_DATA
  image_data_param {
    source: "/data/ad6813/devCaffe/caffe/data/inadcl_o/val.txt"
    batch_size: 8
    new_height: 256
    new_width: 256
  }
  include {
    phase: TEST
  }
  transform_param {
    mirror: true
    crop_size: 224
    mean_value: 86.752
    mean_value: 101.46
    mean_value: 104.6
  }
}
layers {
  bottom: "data"
  top: "conv1_1"
  name: "conv1_1"
  type: CONVOLUTION
  convolution_param {
    num_output: 64
    pad: 1
    kernel_size: 3
    weight_filler {
      type: "gaussian"
      std: 0.01
    }
    bias_filler {
      type: "constant"
      value: 0
    }
  }
}
layers {
  bottom: "conv1_1"
  top: "conv1_1"
  name: "relu1_1"
  type: RELU
}
layers {
  bottom: "conv1_1"
  top: "conv1_2"
  name: "conv1_2"
  type: CONVOLUTION
  convolution_param {
    num_output: 64
    pad: 1
    kernel_size: 3
    weight_filler {
      type: "gaussian"
      std: 0.01
    }
    bias_filler {
      type: "constant"
      value: 0
    }
  }
}
layers {
  bottom: "conv1_2"
  top: "conv1_2"
  name: "relu1_2"
  type: RELU
}
layers {
  bottom: "conv1_2"
  top: "pool1"
  name: "pool1"
  type: POOLING
  pooling_param {
    pool: MAX
    kernel_size: 2
    stride: 2
  }
}
layers {
  bottom: "pool1"
  top: "conv2_1"
  name: "conv2_1"
  type: CONVOLUTION
  convolution_param {
    num_output: 128
    pad: 1
    kernel_size: 3
    weight_filler {
      type: "gaussian"
      std: 0.01
    }
    bias_filler {
      type: "constant"
      value: 0
    }
  }
}
layers {
  bottom: "conv2_1"
  top: "conv2_1"
  name: "relu2_1"
  type: RELU
}
layers {
  bottom: "conv2_1"
  top: "conv2_2"
  name: "conv2_2"
  type: CONVOLUTION
  convolution_param {
    num_output: 128
    pad: 1
    kernel_size: 3
    weight_filler {
      type: "gaussian"
      std: 0.01
    }
    bias_filler {
      type: "constant"
      value: 0
    }
  }
}
layers {
  bottom: "conv2_2"
  top: "conv2_2"
  name: "relu2_2"
  type: RELU
}
layers {
  bottom: "conv2_2"
  top: "pool2"
  name: "pool2"
  type: POOLING
  pooling_param {
    pool: MAX
    kernel_size: 2
    stride: 2
  }
}
layers {
  bottom: "pool2"
  top: "conv3_1"
  name: "conv3_1"
  type: CONVOLUTION
  convolution_param {
    num_output: 256
    pad: 1
    kernel_size: 3
    weight_filler {
      type: "gaussian"
      std: 0.01
    }
    bias_filler {
      type: "constant"
      value: 0
    }
  }
}
layers {
  bottom: "conv3_1"
  top: "conv3_1"
  name: "relu3_1"
  type: RELU
}
layers {
  bottom: "conv3_1"
  top: "conv3_2"
  name: "conv3_2"
  type: CONVOLUTION
  convolution_param {
    num_output: 256
    pad: 1
    kernel_size: 3
    weight_filler {
      type: "gaussian"
      std: 0.01
    }
    bias_filler {
      type: "constant"
      value: 0
    }
  }
}
layers {
  bottom: "conv3_2"
  top: "conv3_2"
  name: "relu3_2"
  type: RELU
}
layers {
  bottom: "conv3_2"
  top: "conv3_3"
  name: "conv3_3"
  type: CONVOLUTION
  convolution_param {
    num_output: 256
    pad: 1
    kernel_size: 3
    weight_filler {
      type: "gaussian"
      std: 0.01
    }
    bias_filler {
      type: "constant"
      value: 0
    }
  }
}
layers {
  bottom: "conv3_3"
  top: "conv3_3"
  name: "relu3_3"
  type: RELU
}
layers {
  bottom: "conv3_3"
  top: "pool3"
  name: "pool3"
  type: POOLING
  pooling_param {
    pool: MAX
    kernel_size: 2
    stride: 2
  }
}
layers {
  bottom: "pool3"
  top: "conv4_1"
  name: "conv4_1"
  type: CONVOLUTION
  convolution_param {
    num_output: 512
    pad: 1
    kernel_size: 3
    weight_filler {
      type: "gaussian"
      std: 0.01
    }
    bias_filler {
      type: "constant"
      value: 0
    }
  }
}
layers {
  bottom: "conv4_1"
  top: "conv4_1"
  name: "relu4_1"
  type: RELU
}
layers {
  bottom: "conv4_1"
  top: "conv4_2"
  name: "conv4_2"
  type: CONVOLUTION
  convolution_param {
    num_output: 512
    pad: 1
    kernel_size: 3
    weight_filler {
      type: "gaussian"
      std: 0.01
    }
    bias_filler {
      type: "constant"
      value: 0
    }
  }
}
layers {
  bottom: "conv4_2"
  top: "conv4_2"
  name: "relu4_2"
  type: RELU
}
layers {
  bottom: "conv4_2"
  top: "conv4_3"
  name: "conv4_3"
  type: CONVOLUTION
  convolution_param {
    num_output: 512
    pad: 1
    kernel_size: 3
    weight_filler {
      type: "gaussian"
      std: 0.01
    }
    bias_filler {
      type: "constant"
      value: 0
    }
  }
}
layers {
  bottom: "conv4_3"
  top: "conv4_3"
  name: "relu4_3"
  type: RELU
}
layers {
  bottom: "conv4_3"
  top: "pool4"
  name: "pool4"
  type: POOLING
  pooling_param {
    pool: MAX
    kernel_size: 2
    stride: 2
  }
}
layers {
  bottom: "pool4"
  top: "conv5_1"
  name: "conv5_1"
  type: CONVOLUTION
  convolution_param {
    num_output: 512
    pad: 1
    kernel_size: 3
    weight_filler {
      type: "gaussian"
      std: 0.01
    }
    bias_filler {
      type: "constant"
      value: 0
    }
  }
}
layers {
  bottom: "conv5_1"
  top: "conv5_1"
  name: "relu5_1"
  type: RELU
}
layers {
  bottom: "conv5_1"
  top: "conv5_2"
  name: "conv5_2"
  type: CONVOLUTION
  convolution_param {
    num_output: 512
    pad: 1
    kernel_size: 3
    weight_filler {
      type: "gaussian"
      std: 0.01
    }
    bias_filler {
      type: "constant"
      value: 0
    }
  }
}
layers {
  bottom: "conv5_2"
  top: "conv5_2"
  name: "relu5_2"
  type: RELU
}
layers {
  bottom: "conv5_2"
  top: "conv5_3"
  name: "conv5_3"
  type: CONVOLUTION
  convolution_param {
    num_output: 512
    pad: 1
    kernel_size: 3
    weight_filler {
      type: "gaussian"
      std: 0.01
    }
    bias_filler {
      type: "constant"
      value: 0
    }
  }
}
layers {
  bottom: "conv5_3"
  top: "conv5_3"
  name: "relu5_3"
  type: RELU
}
layers {
  bottom: "conv5_3"
  top: "pool5"
  name: "pool5"
  type: POOLING
  pooling_param {
    pool: MAX
    kernel_size: 2
    stride: 2
  }
}
layers {
  bottom: "pool5"
  top: "fc6"
  name: "fc6"
  type: INNER_PRODUCT
  inner_product_param {
    num_output: 4096
    weight_filler {
      type: "gaussian"
      std: 0.01
    }
    bias_filler {
      type: "constant"
      value: 0
    }
  }
}
layers {
  bottom: "fc6"
  top: "fc6"
  name: "relu6"
  type: RELU
}
layers {
  bottom: "fc6"
  top: "fc6"
  name: "drop6"
  type: DROPOUT
  dropout_param {
    dropout_ratio: 0.5
  }
}
layers {
  bottom: "fc6"
  top: "fc7"
  name: "fc7"
  type: INNER_PRODUCT
  inner_product_param {
    num_output: 4096
    weight_filler {
      type: "gaussian"
      std: 0.01
    }
    bias_filler {
      type: "constant"
      value: 0
    }
  }
}
layers {
  bottom: "fc7"
  top: "fc7"
  name: "relu7"
  type: RELU
}
layers {
  bottom: "fc7"
  top: "fc7"
  name: "drop7"
  type: DROPOUT
  dropout_param {
    dropout_ratio: 0.5
  }
}
layers {
  bottom: "fc7"
  top: "fc8_2"
  name: "fc8_2"
  type: INNER_PRODUCT
  inner_product_param {
    num_output: 2
    weight_filler {
      type: "gaussian"
      std: 0.01
    }
    bias_filler {
      type: "constant"
      value: 0
    }
  }
}
layers {
  bottom: "fc8_2"
  bottom: "label"
  name: "loss"
  type: SOFTMAX_LOSS
}
layers {
  bottom: "fc8_2"
  bottom: "label"
  top: "accuracy"
  name: "accuracy"
  type: PER_CLASS_ACCURACY
  include {
    phase: TEST
  }
}
state {
  phase: TEST
}
I1108 21:29:04.656786 15069 layer_factory.hpp:78] Creating layer data
I1108 21:29:04.656805 15069 net.cpp:67] Creating Layer data
I1108 21:29:04.656812 15069 net.cpp:356] data -> data
I1108 21:29:04.656824 15069 net.cpp:356] data -> label
I1108 21:29:04.656836 15069 net.cpp:96] Setting up data
I1108 21:29:04.656841 15069 image_data_layer.cpp:34] Opening file /data/ad6813/devCaffe/caffe/data/inadcl_o/val.txt
I1108 21:29:04.657203 15069 image_data_layer.cpp:49] A total of 473 images.
I1108 21:29:04.667256 15069 image_data_layer.cpp:78] output data size: 8,3,224,224
I1108 21:29:04.669042 15069 net.cpp:103] Top shape: 8 3 224 224 (1204224)
I1108 21:29:04.669064 15069 net.cpp:103] Top shape: 8 1 1 1 (8)
I1108 21:29:04.669070 15069 layer_factory.hpp:78] Creating layer label_data_1_split
I1108 21:29:04.669090 15069 net.cpp:67] Creating Layer label_data_1_split
I1108 21:29:04.669097 15069 net.cpp:394] label_data_1_split <- label
I1108 21:29:04.669111 15069 net.cpp:356] label_data_1_split -> label_data_1_split_0
I1108 21:29:04.669126 15069 net.cpp:356] label_data_1_split -> label_data_1_split_1
I1108 21:29:04.669155 15069 net.cpp:96] Setting up label_data_1_split
I1108 21:29:04.669167 15069 net.cpp:103] Top shape: 8 1 1 1 (8)
I1108 21:29:04.669173 15069 net.cpp:103] Top shape: 8 1 1 1 (8)
I1108 21:29:04.669178 15069 layer_factory.hpp:78] Creating layer conv1_1
I1108 21:29:04.669190 15069 net.cpp:67] Creating Layer conv1_1
I1108 21:29:04.669196 15069 net.cpp:394] conv1_1 <- data
I1108 21:29:04.669205 15069 net.cpp:356] conv1_1 -> conv1_1
I1108 21:29:04.669216 15069 net.cpp:96] Setting up conv1_1
I1108 21:29:04.669519 15069 net.cpp:103] Top shape: 8 64 224 224 (25690112)
I1108 21:29:04.669545 15069 layer_factory.hpp:78] Creating layer relu1_1
I1108 21:29:04.669555 15069 net.cpp:67] Creating Layer relu1_1
I1108 21:29:04.669561 15069 net.cpp:394] relu1_1 <- conv1_1
I1108 21:29:04.669569 15069 net.cpp:345] relu1_1 -> conv1_1 (in-place)
I1108 21:29:04.669579 15069 net.cpp:96] Setting up relu1_1
I1108 21:29:04.669589 15069 net.cpp:103] Top shape: 8 64 224 224 (25690112)
I1108 21:29:04.669610 15069 layer_factory.hpp:78] Creating layer conv1_2
I1108 21:29:04.669620 15069 net.cpp:67] Creating Layer conv1_2
I1108 21:29:04.669625 15069 net.cpp:394] conv1_2 <- conv1_1
I1108 21:29:04.669633 15069 net.cpp:356] conv1_2 -> conv1_2
I1108 21:29:04.669643 15069 net.cpp:96] Setting up conv1_2
I1108 21:29:04.671551 15069 net.cpp:103] Top shape: 8 64 224 224 (25690112)
I1108 21:29:04.671576 15069 layer_factory.hpp:78] Creating layer relu1_2
I1108 21:29:04.671584 15069 net.cpp:67] Creating Layer relu1_2
I1108 21:29:04.671591 15069 net.cpp:394] relu1_2 <- conv1_2
I1108 21:29:04.671599 15069 net.cpp:345] relu1_2 -> conv1_2 (in-place)
I1108 21:29:04.671607 15069 net.cpp:96] Setting up relu1_2
I1108 21:29:04.671617 15069 net.cpp:103] Top shape: 8 64 224 224 (25690112)
I1108 21:29:04.671623 15069 layer_factory.hpp:78] Creating layer pool1
I1108 21:29:04.671633 15069 net.cpp:67] Creating Layer pool1
I1108 21:29:04.671638 15069 net.cpp:394] pool1 <- conv1_2
I1108 21:29:04.671645 15069 net.cpp:356] pool1 -> pool1
I1108 21:29:04.671654 15069 net.cpp:96] Setting up pool1
I1108 21:29:04.671665 15069 net.cpp:103] Top shape: 8 64 112 112 (6422528)
I1108 21:29:04.671672 15069 layer_factory.hpp:78] Creating layer conv2_1
I1108 21:29:04.671680 15069 net.cpp:67] Creating Layer conv2_1
I1108 21:29:04.671685 15069 net.cpp:394] conv2_1 <- pool1
I1108 21:29:04.671694 15069 net.cpp:356] conv2_1 -> conv2_1
I1108 21:29:04.671702 15069 net.cpp:96] Setting up conv2_1
I1108 21:29:04.675537 15069 net.cpp:103] Top shape: 8 128 112 112 (12845056)
I1108 21:29:04.675565 15069 layer_factory.hpp:78] Creating layer relu2_1
I1108 21:29:04.675575 15069 net.cpp:67] Creating Layer relu2_1
I1108 21:29:04.675581 15069 net.cpp:394] relu2_1 <- conv2_1
I1108 21:29:04.675590 15069 net.cpp:345] relu2_1 -> conv2_1 (in-place)
I1108 21:29:04.675598 15069 net.cpp:96] Setting up relu2_1
I1108 21:29:04.675608 15069 net.cpp:103] Top shape: 8 128 112 112 (12845056)
I1108 21:29:04.675614 15069 layer_factory.hpp:78] Creating layer conv2_2
I1108 21:29:04.675623 15069 net.cpp:67] Creating Layer conv2_2
I1108 21:29:04.675628 15069 net.cpp:394] conv2_2 <- conv2_1
I1108 21:29:04.675637 15069 net.cpp:356] conv2_2 -> conv2_2
I1108 21:29:04.675647 15069 net.cpp:96] Setting up conv2_2
I1108 21:29:04.682796 15069 net.cpp:103] Top shape: 8 128 112 112 (12845056)
I1108 21:29:04.682821 15069 layer_factory.hpp:78] Creating layer relu2_2
I1108 21:29:04.682831 15069 net.cpp:67] Creating Layer relu2_2
I1108 21:29:04.682837 15069 net.cpp:394] relu2_2 <- conv2_2
I1108 21:29:04.682845 15069 net.cpp:345] relu2_2 -> conv2_2 (in-place)
I1108 21:29:04.682854 15069 net.cpp:96] Setting up relu2_2
I1108 21:29:04.682864 15069 net.cpp:103] Top shape: 8 128 112 112 (12845056)
I1108 21:29:04.682870 15069 layer_factory.hpp:78] Creating layer pool2
I1108 21:29:04.682878 15069 net.cpp:67] Creating Layer pool2
I1108 21:29:04.682884 15069 net.cpp:394] pool2 <- conv2_2
I1108 21:29:04.682891 15069 net.cpp:356] pool2 -> pool2
I1108 21:29:04.682900 15069 net.cpp:96] Setting up pool2
I1108 21:29:04.682910 15069 net.cpp:103] Top shape: 8 128 56 56 (3211264)
I1108 21:29:04.682917 15069 layer_factory.hpp:78] Creating layer conv3_1
I1108 21:29:04.682925 15069 net.cpp:67] Creating Layer conv3_1
I1108 21:29:04.682930 15069 net.cpp:394] conv3_1 <- pool2
I1108 21:29:04.682939 15069 net.cpp:356] conv3_1 -> conv3_1
I1108 21:29:04.682947 15069 net.cpp:96] Setting up conv3_1
I1108 21:29:04.697115 15069 net.cpp:103] Top shape: 8 256 56 56 (6422528)
I1108 21:29:04.697166 15069 layer_factory.hpp:78] Creating layer relu3_1
I1108 21:29:04.697178 15069 net.cpp:67] Creating Layer relu3_1
I1108 21:29:04.697185 15069 net.cpp:394] relu3_1 <- conv3_1
I1108 21:29:04.697195 15069 net.cpp:345] relu3_1 -> conv3_1 (in-place)
I1108 21:29:04.697203 15069 net.cpp:96] Setting up relu3_1
I1108 21:29:04.697214 15069 net.cpp:103] Top shape: 8 256 56 56 (6422528)
I1108 21:29:04.697221 15069 layer_factory.hpp:78] Creating layer conv3_2
I1108 21:29:04.697231 15069 net.cpp:67] Creating Layer conv3_2
I1108 21:29:04.697249 15069 net.cpp:394] conv3_2 <- conv3_1
I1108 21:29:04.697258 15069 net.cpp:356] conv3_2 -> conv3_2
I1108 21:29:04.697268 15069 net.cpp:96] Setting up conv3_2
I1108 21:29:04.726058 15069 net.cpp:103] Top shape: 8 256 56 56 (6422528)
I1108 21:29:04.726093 15069 layer_factory.hpp:78] Creating layer relu3_2
I1108 21:29:04.726105 15069 net.cpp:67] Creating Layer relu3_2
I1108 21:29:04.726112 15069 net.cpp:394] relu3_2 <- conv3_2
I1108 21:29:04.726121 15069 net.cpp:345] relu3_2 -> conv3_2 (in-place)
I1108 21:29:04.726131 15069 net.cpp:96] Setting up relu3_2
I1108 21:29:04.726142 15069 net.cpp:103] Top shape: 8 256 56 56 (6422528)
I1108 21:29:04.726148 15069 layer_factory.hpp:78] Creating layer conv3_3
I1108 21:29:04.726166 15069 net.cpp:67] Creating Layer conv3_3
I1108 21:29:04.726171 15069 net.cpp:394] conv3_3 <- conv3_2
I1108 21:29:04.726181 15069 net.cpp:356] conv3_3 -> conv3_3
I1108 21:29:04.726192 15069 net.cpp:96] Setting up conv3_3
I1108 21:29:04.755133 15069 net.cpp:103] Top shape: 8 256 56 56 (6422528)
I1108 21:29:04.755168 15069 layer_factory.hpp:78] Creating layer relu3_3
I1108 21:29:04.755183 15069 net.cpp:67] Creating Layer relu3_3
I1108 21:29:04.755190 15069 net.cpp:394] relu3_3 <- conv3_3
I1108 21:29:04.755200 15069 net.cpp:345] relu3_3 -> conv3_3 (in-place)
I1108 21:29:04.755211 15069 net.cpp:96] Setting up relu3_3
I1108 21:29:04.755221 15069 net.cpp:103] Top shape: 8 256 56 56 (6422528)
I1108 21:29:04.755228 15069 layer_factory.hpp:78] Creating layer pool3
I1108 21:29:04.755236 15069 net.cpp:67] Creating Layer pool3
I1108 21:29:04.755242 15069 net.cpp:394] pool3 <- conv3_3
I1108 21:29:04.755250 15069 net.cpp:356] pool3 -> pool3
I1108 21:29:04.755259 15069 net.cpp:96] Setting up pool3
I1108 21:29:04.755270 15069 net.cpp:103] Top shape: 8 256 28 28 (1605632)
I1108 21:29:04.755277 15069 layer_factory.hpp:78] Creating layer conv4_1
I1108 21:29:04.755290 15069 net.cpp:67] Creating Layer conv4_1
I1108 21:29:04.755296 15069 net.cpp:394] conv4_1 <- pool3
I1108 21:29:04.755308 15069 net.cpp:356] conv4_1 -> conv4_1
I1108 21:29:04.755318 15069 net.cpp:96] Setting up conv4_1
I1108 21:29:04.812255 15069 net.cpp:103] Top shape: 8 512 28 28 (3211264)
I1108 21:29:04.812294 15069 layer_factory.hpp:78] Creating layer relu4_1
I1108 21:29:04.812309 15069 net.cpp:67] Creating Layer relu4_1
I1108 21:29:04.812316 15069 net.cpp:394] relu4_1 <- conv4_1
I1108 21:29:04.812326 15069 net.cpp:345] relu4_1 -> conv4_1 (in-place)
I1108 21:29:04.812337 15069 net.cpp:96] Setting up relu4_1
I1108 21:29:04.812350 15069 net.cpp:103] Top shape: 8 512 28 28 (3211264)
I1108 21:29:04.812356 15069 layer_factory.hpp:78] Creating layer conv4_2
I1108 21:29:04.812366 15069 net.cpp:67] Creating Layer conv4_2
I1108 21:29:04.812371 15069 net.cpp:394] conv4_2 <- conv4_1
I1108 21:29:04.812382 15069 net.cpp:356] conv4_2 -> conv4_2
I1108 21:29:04.812392 15069 net.cpp:96] Setting up conv4_2
I1108 21:29:04.925689 15069 net.cpp:103] Top shape: 8 512 28 28 (3211264)
I1108 21:29:04.925740 15069 layer_factory.hpp:78] Creating layer relu4_2
I1108 21:29:04.925753 15069 net.cpp:67] Creating Layer relu4_2
I1108 21:29:04.925761 15069 net.cpp:394] relu4_2 <- conv4_2
I1108 21:29:04.925770 15069 net.cpp:345] relu4_2 -> conv4_2 (in-place)
I1108 21:29:04.925781 15069 net.cpp:96] Setting up relu4_2
I1108 21:29:04.925791 15069 net.cpp:103] Top shape: 8 512 28 28 (3211264)
I1108 21:29:04.925798 15069 layer_factory.hpp:78] Creating layer conv4_3
I1108 21:29:04.925811 15069 net.cpp:67] Creating Layer conv4_3
I1108 21:29:04.925817 15069 net.cpp:394] conv4_3 <- conv4_2
I1108 21:29:04.925824 15069 net.cpp:356] conv4_3 -> conv4_3
I1108 21:29:04.925839 15069 net.cpp:96] Setting up conv4_3
I1108 21:29:05.038826 15069 net.cpp:103] Top shape: 8 512 28 28 (3211264)
I1108 21:29:05.038872 15069 layer_factory.hpp:78] Creating layer relu4_3
I1108 21:29:05.038883 15069 net.cpp:67] Creating Layer relu4_3
I1108 21:29:05.038892 15069 net.cpp:394] relu4_3 <- conv4_3
I1108 21:29:05.038902 15069 net.cpp:345] relu4_3 -> conv4_3 (in-place)
I1108 21:29:05.038911 15069 net.cpp:96] Setting up relu4_3
I1108 21:29:05.038938 15069 net.cpp:103] Top shape: 8 512 28 28 (3211264)
I1108 21:29:05.038945 15069 layer_factory.hpp:78] Creating layer pool4
I1108 21:29:05.038957 15069 net.cpp:67] Creating Layer pool4
I1108 21:29:05.038964 15069 net.cpp:394] pool4 <- conv4_3
I1108 21:29:05.038972 15069 net.cpp:356] pool4 -> pool4
I1108 21:29:05.038982 15069 net.cpp:96] Setting up pool4
I1108 21:29:05.038995 15069 net.cpp:103] Top shape: 8 512 14 14 (802816)
I1108 21:29:05.039001 15069 layer_factory.hpp:78] Creating layer conv5_1
I1108 21:29:05.039013 15069 net.cpp:67] Creating Layer conv5_1
I1108 21:29:05.039019 15069 net.cpp:394] conv5_1 <- pool4
I1108 21:29:05.039027 15069 net.cpp:356] conv5_1 -> conv5_1
I1108 21:29:05.039037 15069 net.cpp:96] Setting up conv5_1
I1108 21:29:05.152410 15069 net.cpp:103] Top shape: 8 512 14 14 (802816)
I1108 21:29:05.152453 15069 layer_factory.hpp:78] Creating layer relu5_1
I1108 21:29:05.152465 15069 net.cpp:67] Creating Layer relu5_1
I1108 21:29:05.152473 15069 net.cpp:394] relu5_1 <- conv5_1
I1108 21:29:05.152493 15069 net.cpp:345] relu5_1 -> conv5_1 (in-place)
I1108 21:29:05.152504 15069 net.cpp:96] Setting up relu5_1
I1108 21:29:05.152515 15069 net.cpp:103] Top shape: 8 512 14 14 (802816)
I1108 21:29:05.152523 15069 layer_factory.hpp:78] Creating layer conv5_2
I1108 21:29:05.152533 15069 net.cpp:67] Creating Layer conv5_2
I1108 21:29:05.152539 15069 net.cpp:394] conv5_2 <- conv5_1
I1108 21:29:05.152550 15069 net.cpp:356] conv5_2 -> conv5_2
I1108 21:29:05.152562 15069 net.cpp:96] Setting up conv5_2
I1108 21:29:05.265529 15069 net.cpp:103] Top shape: 8 512 14 14 (802816)
I1108 21:29:05.265573 15069 layer_factory.hpp:78] Creating layer relu5_2
I1108 21:29:05.265585 15069 net.cpp:67] Creating Layer relu5_2
I1108 21:29:05.265594 15069 net.cpp:394] relu5_2 <- conv5_2
I1108 21:29:05.265604 15069 net.cpp:345] relu5_2 -> conv5_2 (in-place)
I1108 21:29:05.265616 15069 net.cpp:96] Setting up relu5_2
I1108 21:29:05.265627 15069 net.cpp:103] Top shape: 8 512 14 14 (802816)
I1108 21:29:05.265633 15069 layer_factory.hpp:78] Creating layer conv5_3
I1108 21:29:05.265643 15069 net.cpp:67] Creating Layer conv5_3
I1108 21:29:05.265648 15069 net.cpp:394] conv5_3 <- conv5_2
I1108 21:29:05.265656 15069 net.cpp:356] conv5_3 -> conv5_3
I1108 21:29:05.265666 15069 net.cpp:96] Setting up conv5_3
I1108 21:29:05.379132 15069 net.cpp:103] Top shape: 8 512 14 14 (802816)
I1108 21:29:05.379178 15069 layer_factory.hpp:78] Creating layer relu5_3
I1108 21:29:05.379194 15069 net.cpp:67] Creating Layer relu5_3
I1108 21:29:05.379201 15069 net.cpp:394] relu5_3 <- conv5_3
I1108 21:29:05.379212 15069 net.cpp:345] relu5_3 -> conv5_3 (in-place)
I1108 21:29:05.379223 15069 net.cpp:96] Setting up relu5_3
I1108 21:29:05.379233 15069 net.cpp:103] Top shape: 8 512 14 14 (802816)
I1108 21:29:05.379240 15069 layer_factory.hpp:78] Creating layer pool5
I1108 21:29:05.379257 15069 net.cpp:67] Creating Layer pool5
I1108 21:29:05.379263 15069 net.cpp:394] pool5 <- conv5_3
I1108 21:29:05.379271 15069 net.cpp:356] pool5 -> pool5
I1108 21:29:05.379281 15069 net.cpp:96] Setting up pool5
I1108 21:29:05.379293 15069 net.cpp:103] Top shape: 8 512 7 7 (200704)
I1108 21:29:05.379299 15069 layer_factory.hpp:78] Creating layer fc6
I1108 21:29:05.379313 15069 net.cpp:67] Creating Layer fc6
I1108 21:29:05.379319 15069 net.cpp:394] fc6 <- pool5
I1108 21:29:05.379329 15069 net.cpp:356] fc6 -> fc6
I1108 21:29:05.379340 15069 net.cpp:96] Setting up fc6
I1108 21:29:10.282456 15069 net.cpp:103] Top shape: 8 4096 1 1 (32768)
I1108 21:29:10.282500 15069 layer_factory.hpp:78] Creating layer relu6
I1108 21:29:10.282513 15069 net.cpp:67] Creating Layer relu6
I1108 21:29:10.282521 15069 net.cpp:394] relu6 <- fc6
I1108 21:29:10.282532 15069 net.cpp:345] relu6 -> fc6 (in-place)
I1108 21:29:10.282542 15069 net.cpp:96] Setting up relu6
I1108 21:29:10.282563 15069 net.cpp:103] Top shape: 8 4096 1 1 (32768)
I1108 21:29:10.282569 15069 layer_factory.hpp:78] Creating layer drop6
I1108 21:29:10.282584 15069 net.cpp:67] Creating Layer drop6
I1108 21:29:10.282603 15069 net.cpp:394] drop6 <- fc6
I1108 21:29:10.282613 15069 net.cpp:345] drop6 -> fc6 (in-place)
I1108 21:29:10.282621 15069 net.cpp:96] Setting up drop6
I1108 21:29:10.282634 15069 net.cpp:103] Top shape: 8 4096 1 1 (32768)
I1108 21:29:10.282640 15069 layer_factory.hpp:78] Creating layer fc7
I1108 21:29:10.282649 15069 net.cpp:67] Creating Layer fc7
I1108 21:29:10.282655 15069 net.cpp:394] fc7 <- fc6
I1108 21:29:10.282663 15069 net.cpp:356] fc7 -> fc7
I1108 21:29:10.282672 15069 net.cpp:96] Setting up fc7
I1108 21:29:11.082782 15069 net.cpp:103] Top shape: 8 4096 1 1 (32768)
I1108 21:29:11.082828 15069 layer_factory.hpp:78] Creating layer relu7
I1108 21:29:11.082839 15069 net.cpp:67] Creating Layer relu7
I1108 21:29:11.082846 15069 net.cpp:394] relu7 <- fc7
I1108 21:29:11.082859 15069 net.cpp:345] relu7 -> fc7 (in-place)
I1108 21:29:11.082870 15069 net.cpp:96] Setting up relu7
I1108 21:29:11.082892 15069 net.cpp:103] Top shape: 8 4096 1 1 (32768)
I1108 21:29:11.082898 15069 layer_factory.hpp:78] Creating layer drop7
I1108 21:29:11.082907 15069 net.cpp:67] Creating Layer drop7
I1108 21:29:11.082912 15069 net.cpp:394] drop7 <- fc7
I1108 21:29:11.082922 15069 net.cpp:345] drop7 -> fc7 (in-place)
I1108 21:29:11.082931 15069 net.cpp:96] Setting up drop7
I1108 21:29:11.082937 15069 net.cpp:103] Top shape: 8 4096 1 1 (32768)
I1108 21:29:11.082947 15069 layer_factory.hpp:78] Creating layer fc8_2
I1108 21:29:11.082957 15069 net.cpp:67] Creating Layer fc8_2
I1108 21:29:11.082962 15069 net.cpp:394] fc8_2 <- fc7
I1108 21:29:11.082969 15069 net.cpp:356] fc8_2 -> fc8_2
I1108 21:29:11.082979 15069 net.cpp:96] Setting up fc8_2
I1108 21:29:11.083391 15069 net.cpp:103] Top shape: 8 2 1 1 (16)
I1108 21:29:11.083405 15069 layer_factory.hpp:78] Creating layer fc8_2_fc8_2_0_split
I1108 21:29:11.083416 15069 net.cpp:67] Creating Layer fc8_2_fc8_2_0_split
I1108 21:29:11.083422 15069 net.cpp:394] fc8_2_fc8_2_0_split <- fc8_2
I1108 21:29:11.083431 15069 net.cpp:356] fc8_2_fc8_2_0_split -> fc8_2_fc8_2_0_split_0
I1108 21:29:11.083441 15069 net.cpp:356] fc8_2_fc8_2_0_split -> fc8_2_fc8_2_0_split_1
I1108 21:29:11.083451 15069 net.cpp:96] Setting up fc8_2_fc8_2_0_split
I1108 21:29:11.083461 15069 net.cpp:103] Top shape: 8 2 1 1 (16)
I1108 21:29:11.083466 15069 net.cpp:103] Top shape: 8 2 1 1 (16)
I1108 21:29:11.083472 15069 layer_factory.hpp:78] Creating layer loss
I1108 21:29:11.083479 15069 net.cpp:67] Creating Layer loss
I1108 21:29:11.083484 15069 net.cpp:394] loss <- fc8_2_fc8_2_0_split_0
I1108 21:29:11.083492 15069 net.cpp:394] loss <- label_data_1_split_0
I1108 21:29:11.083498 15069 net.cpp:356] loss -> (automatic)
I1108 21:29:11.083505 15069 net.cpp:96] Setting up loss
I1108 21:29:11.083518 15069 net.cpp:103] Top shape: 1 1 1 1 (1)
I1108 21:29:11.083523 15069 net.cpp:109]     with loss weight 1
I1108 21:29:11.083544 15069 layer_factory.hpp:78] Creating layer accuracy
I1108 21:29:11.083557 15069 net.cpp:67] Creating Layer accuracy
I1108 21:29:11.083564 15069 net.cpp:394] accuracy <- fc8_2_fc8_2_0_split_1
I1108 21:29:11.083570 15069 net.cpp:394] accuracy <- label_data_1_split_1
I1108 21:29:11.083581 15069 net.cpp:356] accuracy -> accuracy
I1108 21:29:11.083590 15069 net.cpp:96] Setting up accuracy
I1108 21:29:11.083601 15069 net.cpp:103] Top shape: 1 1 1 4 (4)
I1108 21:29:11.083608 15069 net.cpp:172] accuracy does not need backward computation.
I1108 21:29:11.083612 15069 net.cpp:170] loss needs backward computation.
I1108 21:29:11.083618 15069 net.cpp:170] fc8_2_fc8_2_0_split needs backward computation.
I1108 21:29:11.083623 15069 net.cpp:170] fc8_2 needs backward computation.
I1108 21:29:11.083628 15069 net.cpp:170] drop7 needs backward computation.
…
