…
I1103 19:59:21.252547 19041 net.cpp:275] The NetState phase (0) differed from the phase (1) specified by a rule in layer accuracy
I1103 19:59:21.252734 19041 net.cpp:39] Initializing net from parameters: 
name: "VGG_ILSVRC_16_layers"
layers {
  top: "data"
  top: "label"
  name: "data"
  type: IMAGE_DATA
  image_data_param {
    source: "/data/ad6813/caffe/data/clamp/train.txt"
    batch_size: 32
    new_height: 256
    new_width: 256
  }
  include {
    phase: TRAIN
  }
  transform_param {
    mirror: true
    crop_size: 224
    mean_file: "/data/ad6813/devCaffe/caffe/clampdetMeanVal"
  }
}
layers {
  bottom: "data"
  top: "conv1_1"
  name: "conv1_1"
  type: CONVOLUTION
  convolution_param {
    num_output: 64
    pad: 1
    kernel_size: 3
    weight_filler {
      type: "gaussian"
      std: 0.01
    }
    bias_filler {
      type: "constant"
      value: 0
    }
  }
}
layers {
  bottom: "conv1_1"
  top: "conv1_1"
  name: "relu1_1"
  type: RELU
}
layers {
  bottom: "conv1_1"
  top: "conv1_2"
  name: "conv1_2"
  type: CONVOLUTION
  convolution_param {
    num_output: 64
    pad: 1
    kernel_size: 3
    weight_filler {
      type: "gaussian"
      std: 0.01
    }
    bias_filler {
      type: "constant"
      value: 0
    }
  }
}
layers {
  bottom: "conv1_2"
  top: "conv1_2"
  name: "relu1_2"
  type: RELU
}
layers {
  bottom: "conv1_2"
  top: "pool1"
  name: "pool1"
  type: POOLING
  pooling_param {
    pool: MAX
    kernel_size: 2
    stride: 2
  }
}
layers {
  bottom: "pool1"
  top: "conv2_1"
  name: "conv2_1"
  type: CONVOLUTION
  convolution_param {
    num_output: 128
    pad: 1
    kernel_size: 3
    weight_filler {
      type: "gaussian"
      std: 0.01
    }
    bias_filler {
      type: "constant"
      value: 0
    }
  }
}
layers {
  bottom: "conv2_1"
  top: "conv2_1"
  name: "relu2_1"
  type: RELU
}
layers {
  bottom: "conv2_1"
  top: "conv2_2"
  name: "conv2_2"
  type: CONVOLUTION
  convolution_param {
    num_output: 128
    pad: 1
    kernel_size: 3
    weight_filler {
      type: "gaussian"
      std: 0.01
    }
    bias_filler {
      type: "constant"
      value: 0
    }
  }
}
layers {
  bottom: "conv2_2"
  top: "conv2_2"
  name: "relu2_2"
  type: RELU
}
layers {
  bottom: "conv2_2"
  top: "pool2"
  name: "pool2"
  type: POOLING
  pooling_param {
    pool: MAX
    kernel_size: 2
    stride: 2
  }
}
layers {
  bottom: "pool2"
  top: "conv3_1"
  name: "conv3_1"
  type: CONVOLUTION
  convolution_param {
    num_output: 256
    pad: 1
    kernel_size: 3
    weight_filler {
      type: "gaussian"
      std: 0.01
    }
    bias_filler {
      type: "constant"
      value: 0
    }
  }
}
layers {
  bottom: "conv3_1"
  top: "conv3_1"
  name: "relu3_1"
  type: RELU
}
layers {
  bottom: "conv3_1"
  top: "conv3_2"
  name: "conv3_2"
  type: CONVOLUTION
  convolution_param {
    num_output: 256
    pad: 1
    kernel_size: 3
    weight_filler {
      type: "gaussian"
      std: 0.01
    }
    bias_filler {
      type: "constant"
      value: 0
    }
  }
}
layers {
  bottom: "conv3_2"
  top: "conv3_2"
  name: "relu3_2"
  type: RELU
}
layers {
  bottom: "conv3_2"
  top: "conv3_3"
  name: "conv3_3"
  type: CONVOLUTION
  convolution_param {
    num_output: 256
    pad: 1
    kernel_size: 3
    weight_filler {
      type: "gaussian"
      std: 0.01
    }
    bias_filler {
      type: "constant"
      value: 0
    }
  }
}
layers {
  bottom: "conv3_3"
  top: "conv3_3"
  name: "relu3_3"
  type: RELU
}
layers {
  bottom: "conv3_3"
  top: "pool3"
  name: "pool3"
  type: POOLING
  pooling_param {
    pool: MAX
    kernel_size: 2
    stride: 2
  }
}
layers {
  bottom: "pool3"
  top: "conv4_1"
  name: "conv4_1"
  type: CONVOLUTION
  convolution_param {
    num_output: 512
    pad: 1
    kernel_size: 3
    weight_filler {
      type: "gaussian"
      std: 0.01
    }
    bias_filler {
      type: "constant"
      value: 0
    }
  }
}
layers {
  bottom: "conv4_1"
  top: "conv4_1"
  name: "relu4_1"
  type: RELU
}
layers {
  bottom: "conv4_1"
  top: "conv4_2"
  name: "conv4_2"
  type: CONVOLUTION
  convolution_param {
    num_output: 512
    pad: 1
    kernel_size: 3
    weight_filler {
      type: "gaussian"
      std: 0.01
    }
    bias_filler {
      type: "constant"
      value: 0
    }
  }
}
layers {
  bottom: "conv4_2"
  top: "conv4_2"
  name: "relu4_2"
  type: RELU
}
layers {
  bottom: "conv4_2"
  top: "conv4_3"
  name: "conv4_3"
  type: CONVOLUTION
  convolution_param {
    num_output: 512
    pad: 1
    kernel_size: 3
    weight_filler {
      type: "gaussian"
      std: 0.01
    }
    bias_filler {
      type: "constant"
      value: 0
    }
  }
}
layers {
  bottom: "conv4_3"
  top: "conv4_3"
  name: "relu4_3"
  type: RELU
}
layers {
  bottom: "conv4_3"
  top: "pool4"
  name: "pool4"
  type: POOLING
  pooling_param {
    pool: MAX
    kernel_size: 2
    stride: 2
  }
}
layers {
  bottom: "pool4"
  top: "conv5_1"
  name: "conv5_1"
  type: CONVOLUTION
  convolution_param {
    num_output: 512
    pad: 1
    kernel_size: 3
    weight_filler {
      type: "gaussian"
      std: 0.01
    }
    bias_filler {
      type: "constant"
      value: 0
    }
  }
}
layers {
  bottom: "conv5_1"
  top: "conv5_1"
  name: "relu5_1"
  type: RELU
}
layers {
  bottom: "conv5_1"
  top: "conv5_2"
  name: "conv5_2"
  type: CONVOLUTION
  convolution_param {
    num_output: 512
    pad: 1
    kernel_size: 3
    weight_filler {
      type: "gaussian"
      std: 0.01
    }
    bias_filler {
      type: "constant"
      value: 0
    }
  }
}
layers {
  bottom: "conv5_2"
  top: "conv5_2"
  name: "relu5_2"
  type: RELU
}
layers {
  bottom: "conv5_2"
  top: "conv5_3"
  name: "conv5_3"
  type: CONVOLUTION
  convolution_param {
    num_output: 512
    pad: 1
    kernel_size: 3
    weight_filler {
      type: "gaussian"
      std: 0.01
    }
    bias_filler {
      type: "constant"
      value: 0
    }
  }
}
layers {
  bottom: "conv5_3"
  top: "conv5_3"
  name: "relu5_3"
  type: RELU
}
layers {
  bottom: "conv5_3"
  top: "pool5"
  name: "pool5"
  type: POOLING
  pooling_param {
    pool: MAX
    kernel_size: 2
    stride: 2
  }
}
layers {
  bottom: "pool5"
  top: "fc6"
  name: "fc6"
  type: INNER_PRODUCT
  inner_product_param {
    num_output: 4096
    weight_filler {
      type: "gaussian"
      std: 0.01
    }
    bias_filler {
      type: "constant"
      value: 0
    }
  }
}
layers {
  bottom: "fc6"
  top: "fc6"
  name: "relu6"
  type: RELU
}
layers {
  bottom: "fc6"
  top: "fc6"
  name: "drop6"
  type: DROPOUT
  dropout_param {
    dropout_ratio: 0.5
  }
}
layers {
  bottom: "fc6"
  top: "fc7"
  name: "fc7"
  type: INNER_PRODUCT
  inner_product_param {
    num_output: 4096
    weight_filler {
      type: "gaussian"
      std: 0.01
    }
    bias_filler {
      type: "constant"
      value: 0
    }
  }
}
layers {
  bottom: "fc7"
  top: "fc7"
  name: "relu7"
  type: RELU
}
layers {
  bottom: "fc7"
  top: "fc7"
  name: "drop7"
  type: DROPOUT
  dropout_param {
    dropout_ratio: 0.5
  }
}
layers {
  bottom: "fc7"
  top: "fc8_2"
  name: "fc8_2"
  type: INNER_PRODUCT
  inner_product_param {
    num_output: 2
    weight_filler {
      type: "gaussian"
      std: 0.01
    }
    bias_filler {
      type: "constant"
      value: 0
    }
  }
}
layers {
  bottom: "fc8_2"
  bottom: "label"
  name: "loss"
  type: SOFTMAX_LOSS
}
state {
  phase: TRAIN
}
I1103 19:59:21.252861 19041 layer_factory.hpp:78] Creating layer data
I1103 19:59:21.252881 19041 data_transformer.cpp:24] Loading mean file from/data/ad6813/devCaffe/caffe/clampdetMeanVal
I1103 19:59:21.254494 19041 net.cpp:67] Creating Layer data
I1103 19:59:21.254506 19041 net.cpp:356] data -> data
I1103 19:59:21.254523 19041 net.cpp:356] data -> label
I1103 19:59:21.254533 19041 net.cpp:96] Setting up data
I1103 19:59:21.254539 19041 image_data_layer.cpp:34] Opening file /data/ad6813/caffe/data/clamp/train.txt
I1103 19:59:21.262429 19041 image_data_layer.cpp:49] A total of 23495 images.
I1103 19:59:21.297217 19041 image_data_layer.cpp:78] output data size: 32,3,224,224
I1103 19:59:21.299971 19041 net.cpp:103] Top shape: 32 3 224 224 (4816896)
I1103 19:59:21.299998 19041 net.cpp:103] Top shape: 32 1 1 1 (32)
I1103 19:59:21.300004 19041 layer_factory.hpp:78] Creating layer conv1_1
I1103 19:59:21.300017 19041 net.cpp:67] Creating Layer conv1_1
I1103 19:59:21.300022 19041 net.cpp:394] conv1_1 <- data
I1103 19:59:21.300046 19041 net.cpp:356] conv1_1 -> conv1_1
I1103 19:59:21.300057 19041 net.cpp:96] Setting up conv1_1
I1103 19:59:21.317716 19041 net.cpp:103] Top shape: 32 64 224 224 (102760448)
I1103 19:59:21.317749 19041 layer_factory.hpp:78] Creating layer relu1_1
I1103 19:59:21.317762 19041 net.cpp:67] Creating Layer relu1_1
I1103 19:59:21.317766 19041 net.cpp:394] relu1_1 <- conv1_1
I1103 19:59:21.317773 19041 net.cpp:345] relu1_1 -> conv1_1 (in-place)
I1103 19:59:21.317781 19041 net.cpp:96] Setting up relu1_1
I1103 19:59:21.317790 19041 net.cpp:103] Top shape: 32 64 224 224 (102760448)
I1103 19:59:21.317792 19041 layer_factory.hpp:78] Creating layer conv1_2
I1103 19:59:21.317800 19041 net.cpp:67] Creating Layer conv1_2
I1103 19:59:21.317802 19041 net.cpp:394] conv1_2 <- conv1_1
I1103 19:59:21.317807 19041 net.cpp:356] conv1_2 -> conv1_2
I1103 19:59:21.317813 19041 net.cpp:96] Setting up conv1_2
I1103 19:59:21.318852 19041 net.cpp:103] Top shape: 32 64 224 224 (102760448)
I1103 19:59:21.318864 19041 layer_factory.hpp:78] Creating layer relu1_2
I1103 19:59:21.318871 19041 net.cpp:67] Creating Layer relu1_2
I1103 19:59:21.318873 19041 net.cpp:394] relu1_2 <- conv1_2
I1103 19:59:21.318877 19041 net.cpp:345] relu1_2 -> conv1_2 (in-place)
I1103 19:59:21.318882 19041 net.cpp:96] Setting up relu1_2
I1103 19:59:21.318887 19041 net.cpp:103] Top shape: 32 64 224 224 (102760448)
I1103 19:59:21.318891 19041 layer_factory.hpp:78] Creating layer pool1
I1103 19:59:21.318898 19041 net.cpp:67] Creating Layer pool1
I1103 19:59:21.318902 19041 net.cpp:394] pool1 <- conv1_2
I1103 19:59:21.318907 19041 net.cpp:356] pool1 -> pool1
I1103 19:59:21.318912 19041 net.cpp:96] Setting up pool1
I1103 19:59:21.318928 19041 net.cpp:103] Top shape: 32 64 112 112 (25690112)
I1103 19:59:21.318933 19041 layer_factory.hpp:78] Creating layer conv2_1
I1103 19:59:21.318940 19041 net.cpp:67] Creating Layer conv2_1
I1103 19:59:21.318943 19041 net.cpp:394] conv2_1 <- pool1
I1103 19:59:21.318948 19041 net.cpp:356] conv2_1 -> conv2_1
I1103 19:59:21.318953 19041 net.cpp:96] Setting up conv2_1
I1103 19:59:21.320862 19041 net.cpp:103] Top shape: 32 128 112 112 (51380224)
I1103 19:59:21.320875 19041 layer_factory.hpp:78] Creating layer relu2_1
I1103 19:59:21.320881 19041 net.cpp:67] Creating Layer relu2_1
I1103 19:59:21.320884 19041 net.cpp:394] relu2_1 <- conv2_1
I1103 19:59:21.320888 19041 net.cpp:345] relu2_1 -> conv2_1 (in-place)
I1103 19:59:21.320893 19041 net.cpp:96] Setting up relu2_1
I1103 19:59:21.320897 19041 net.cpp:103] Top shape: 32 128 112 112 (51380224)
I1103 19:59:21.320900 19041 layer_factory.hpp:78] Creating layer conv2_2
I1103 19:59:21.320909 19041 net.cpp:67] Creating Layer conv2_2
I1103 19:59:21.320911 19041 net.cpp:394] conv2_2 <- conv2_1
I1103 19:59:21.320916 19041 net.cpp:356] conv2_2 -> conv2_2
I1103 19:59:21.320920 19041 net.cpp:96] Setting up conv2_2
I1103 19:59:21.324676 19041 net.cpp:103] Top shape: 32 128 112 112 (51380224)
I1103 19:59:21.324688 19041 layer_factory.hpp:78] Creating layer relu2_2
I1103 19:59:21.324693 19041 net.cpp:67] Creating Layer relu2_2
I1103 19:59:21.324697 19041 net.cpp:394] relu2_2 <- conv2_2
I1103 19:59:21.324709 19041 net.cpp:345] relu2_2 -> conv2_2 (in-place)
I1103 19:59:21.324714 19041 net.cpp:96] Setting up relu2_2
I1103 19:59:21.324719 19041 net.cpp:103] Top shape: 32 128 112 112 (51380224)
I1103 19:59:21.324723 19041 layer_factory.hpp:78] Creating layer pool2
I1103 19:59:21.324728 19041 net.cpp:67] Creating Layer pool2
I1103 19:59:21.324731 19041 net.cpp:394] pool2 <- conv2_2
I1103 19:59:21.324736 19041 net.cpp:356] pool2 -> pool2
I1103 19:59:21.324740 19041 net.cpp:96] Setting up pool2
I1103 19:59:21.324746 19041 net.cpp:103] Top shape: 32 128 56 56 (12845056)
I1103 19:59:21.324750 19041 layer_factory.hpp:78] Creating layer conv3_1
I1103 19:59:21.324756 19041 net.cpp:67] Creating Layer conv3_1
I1103 19:59:21.324759 19041 net.cpp:394] conv3_1 <- pool2
I1103 19:59:21.324764 19041 net.cpp:356] conv3_1 -> conv3_1
I1103 19:59:21.324769 19041 net.cpp:96] Setting up conv3_1
I1103 19:59:21.332180 19041 net.cpp:103] Top shape: 32 256 56 56 (25690112)
I1103 19:59:21.332197 19041 layer_factory.hpp:78] Creating layer relu3_1
I1103 19:59:21.332203 19041 net.cpp:67] Creating Layer relu3_1
I1103 19:59:21.332206 19041 net.cpp:394] relu3_1 <- conv3_1
I1103 19:59:21.332211 19041 net.cpp:345] relu3_1 -> conv3_1 (in-place)
I1103 19:59:21.332216 19041 net.cpp:96] Setting up relu3_1
I1103 19:59:21.332221 19041 net.cpp:103] Top shape: 32 256 56 56 (25690112)
I1103 19:59:21.332224 19041 layer_factory.hpp:78] Creating layer conv3_2
I1103 19:59:21.332229 19041 net.cpp:67] Creating Layer conv3_2
I1103 19:59:21.332232 19041 net.cpp:394] conv3_2 <- conv3_1
I1103 19:59:21.332238 19041 net.cpp:356] conv3_2 -> conv3_2
I1103 19:59:21.332243 19041 net.cpp:96] Setting up conv3_2
I1103 19:59:21.347100 19041 net.cpp:103] Top shape: 32 256 56 56 (25690112)
I1103 19:59:21.347118 19041 layer_factory.hpp:78] Creating layer relu3_2
I1103 19:59:21.347126 19041 net.cpp:67] Creating Layer relu3_2
I1103 19:59:21.347131 19041 net.cpp:394] relu3_2 <- conv3_2
I1103 19:59:21.347136 19041 net.cpp:345] relu3_2 -> conv3_2 (in-place)
I1103 19:59:21.347141 19041 net.cpp:96] Setting up relu3_2
I1103 19:59:21.347146 19041 net.cpp:103] Top shape: 32 256 56 56 (25690112)
I1103 19:59:21.347149 19041 layer_factory.hpp:78] Creating layer conv3_3
I1103 19:59:21.347157 19041 net.cpp:67] Creating Layer conv3_3
I1103 19:59:21.347159 19041 net.cpp:394] conv3_3 <- conv3_2
I1103 19:59:21.347163 19041 net.cpp:356] conv3_3 -> conv3_3
I1103 19:59:21.347168 19041 net.cpp:96] Setting up conv3_3
I1103 19:59:21.361912 19041 net.cpp:103] Top shape: 32 256 56 56 (25690112)
I1103 19:59:21.361933 19041 layer_factory.hpp:78] Creating layer relu3_3
I1103 19:59:21.361944 19041 net.cpp:67] Creating Layer relu3_3
I1103 19:59:21.361948 19041 net.cpp:394] relu3_3 <- conv3_3
I1103 19:59:21.361955 19041 net.cpp:345] relu3_3 -> conv3_3 (in-place)
I1103 19:59:21.361961 19041 net.cpp:96] Setting up relu3_3
I1103 19:59:21.361966 19041 net.cpp:103] Top shape: 32 256 56 56 (25690112)
I1103 19:59:21.361969 19041 layer_factory.hpp:78] Creating layer pool3
I1103 19:59:21.361976 19041 net.cpp:67] Creating Layer pool3
I1103 19:59:21.361979 19041 net.cpp:394] pool3 <- conv3_3
I1103 19:59:21.361984 19041 net.cpp:356] pool3 -> pool3
I1103 19:59:21.361989 19041 net.cpp:96] Setting up pool3
I1103 19:59:21.361996 19041 net.cpp:103] Top shape: 32 256 28 28 (6422528)
I1103 19:59:21.361999 19041 layer_factory.hpp:78] Creating layer conv4_1
I1103 19:59:21.362006 19041 net.cpp:67] Creating Layer conv4_1
I1103 19:59:21.362010 19041 net.cpp:394] conv4_1 <- pool3
I1103 19:59:21.362013 19041 net.cpp:356] conv4_1 -> conv4_1
I1103 19:59:21.362018 19041 net.cpp:96] Setting up conv4_1
I1103 19:59:21.391250 19041 net.cpp:103] Top shape: 32 512 28 28 (12845056)
I1103 19:59:21.391274 19041 layer_factory.hpp:78] Creating layer relu4_1
I1103 19:59:21.391283 19041 net.cpp:67] Creating Layer relu4_1
I1103 19:59:21.391286 19041 net.cpp:394] relu4_1 <- conv4_1
I1103 19:59:21.391294 19041 net.cpp:345] relu4_1 -> conv4_1 (in-place)
I1103 19:59:21.391301 19041 net.cpp:96] Setting up relu4_1
I1103 19:59:21.391306 19041 net.cpp:103] Top shape: 32 512 28 28 (12845056)
I1103 19:59:21.391319 19041 layer_factory.hpp:78] Creating layer conv4_2
I1103 19:59:21.391325 19041 net.cpp:67] Creating Layer conv4_2
I1103 19:59:21.391329 19041 net.cpp:394] conv4_2 <- conv4_1
I1103 19:59:21.391335 19041 net.cpp:356] conv4_2 -> conv4_2
I1103 19:59:21.391341 19041 net.cpp:96] Setting up conv4_2
I1103 19:59:21.449172 19041 net.cpp:103] Top shape: 32 512 28 28 (12845056)
I1103 19:59:21.449201 19041 layer_factory.hpp:78] Creating layer relu4_2
I1103 19:59:21.449210 19041 net.cpp:67] Creating Layer relu4_2
I1103 19:59:21.449215 19041 net.cpp:394] relu4_2 <- conv4_2
I1103 19:59:21.449223 19041 net.cpp:345] relu4_2 -> conv4_2 (in-place)
I1103 19:59:21.449229 19041 net.cpp:96] Setting up relu4_2
I1103 19:59:21.449234 19041 net.cpp:103] Top shape: 32 512 28 28 (12845056)
I1103 19:59:21.449237 19041 layer_factory.hpp:78] Creating layer conv4_3
I1103 19:59:21.449244 19041 net.cpp:67] Creating Layer conv4_3
I1103 19:59:21.449246 19041 net.cpp:394] conv4_3 <- conv4_2
I1103 19:59:21.449251 19041 net.cpp:356] conv4_3 -> conv4_3
I1103 19:59:21.449257 19041 net.cpp:96] Setting up conv4_3
I1103 19:59:21.506916 19041 net.cpp:103] Top shape: 32 512 28 28 (12845056)
I1103 19:59:21.506942 19041 layer_factory.hpp:78] Creating layer relu4_3
I1103 19:59:21.506949 19041 net.cpp:67] Creating Layer relu4_3
I1103 19:59:21.506953 19041 net.cpp:394] relu4_3 <- conv4_3
I1103 19:59:21.506963 19041 net.cpp:345] relu4_3 -> conv4_3 (in-place)
I1103 19:59:21.506969 19041 net.cpp:96] Setting up relu4_3
I1103 19:59:21.506974 19041 net.cpp:103] Top shape: 32 512 28 28 (12845056)
I1103 19:59:21.506978 19041 layer_factory.hpp:78] Creating layer pool4
I1103 19:59:21.506983 19041 net.cpp:67] Creating Layer pool4
I1103 19:59:21.506986 19041 net.cpp:394] pool4 <- conv4_3
I1103 19:59:21.506990 19041 net.cpp:356] pool4 -> pool4
I1103 19:59:21.506995 19041 net.cpp:96] Setting up pool4
I1103 19:59:21.507004 19041 net.cpp:103] Top shape: 32 512 14 14 (3211264)
I1103 19:59:21.507006 19041 layer_factory.hpp:78] Creating layer conv5_1
I1103 19:59:21.507014 19041 net.cpp:67] Creating Layer conv5_1
I1103 19:59:21.507017 19041 net.cpp:394] conv5_1 <- pool4
I1103 19:59:21.507024 19041 net.cpp:356] conv5_1 -> conv5_1
I1103 19:59:21.507030 19041 net.cpp:96] Setting up conv5_1
I1103 19:59:21.565035 19041 net.cpp:103] Top shape: 32 512 14 14 (3211264)
I1103 19:59:21.565062 19041 layer_factory.hpp:78] Creating layer relu5_1
I1103 19:59:21.565070 19041 net.cpp:67] Creating Layer relu5_1
I1103 19:59:21.565074 19041 net.cpp:394] relu5_1 <- conv5_1
I1103 19:59:21.565088 19041 net.cpp:345] relu5_1 -> conv5_1 (in-place)
I1103 19:59:21.565094 19041 net.cpp:96] Setting up relu5_1
I1103 19:59:21.565100 19041 net.cpp:103] Top shape: 32 512 14 14 (3211264)
I1103 19:59:21.565104 19041 layer_factory.hpp:78] Creating layer conv5_2
I1103 19:59:21.565109 19041 net.cpp:67] Creating Layer conv5_2
I1103 19:59:21.565111 19041 net.cpp:394] conv5_2 <- conv5_1
I1103 19:59:21.565117 19041 net.cpp:356] conv5_2 -> conv5_2
I1103 19:59:21.565124 19041 net.cpp:96] Setting up conv5_2
I1103 19:59:21.623610 19041 net.cpp:103] Top shape: 32 512 14 14 (3211264)
I1103 19:59:21.623637 19041 layer_factory.hpp:78] Creating layer relu5_2
I1103 19:59:21.623644 19041 net.cpp:67] Creating Layer relu5_2
I1103 19:59:21.623649 19041 net.cpp:394] relu5_2 <- conv5_2
I1103 19:59:21.623657 19041 net.cpp:345] relu5_2 -> conv5_2 (in-place)
I1103 19:59:21.623664 19041 net.cpp:96] Setting up relu5_2
I1103 19:59:21.623669 19041 net.cpp:103] Top shape: 32 512 14 14 (3211264)
I1103 19:59:21.623673 19041 layer_factory.hpp:78] Creating layer conv5_3
I1103 19:59:21.623678 19041 net.cpp:67] Creating Layer conv5_3
I1103 19:59:21.623682 19041 net.cpp:394] conv5_3 <- conv5_2
I1103 19:59:21.623685 19041 net.cpp:356] conv5_3 -> conv5_3
I1103 19:59:21.623692 19041 net.cpp:96] Setting up conv5_3
I1103 19:59:21.681154 19041 net.cpp:103] Top shape: 32 512 14 14 (3211264)
I1103 19:59:21.681181 19041 layer_factory.hpp:78] Creating layer relu5_3
I1103 19:59:21.681190 19041 net.cpp:67] Creating Layer relu5_3
I1103 19:59:21.681205 19041 net.cpp:394] relu5_3 <- conv5_3
I1103 19:59:21.681211 19041 net.cpp:345] relu5_3 -> conv5_3 (in-place)
I1103 19:59:21.681218 19041 net.cpp:96] Setting up relu5_3
I1103 19:59:21.681223 19041 net.cpp:103] Top shape: 32 512 14 14 (3211264)
I1103 19:59:21.681227 19041 layer_factory.hpp:78] Creating layer pool5
I1103 19:59:21.681232 19041 net.cpp:67] Creating Layer pool5
I1103 19:59:21.681236 19041 net.cpp:394] pool5 <- conv5_3
I1103 19:59:21.681241 19041 net.cpp:356] pool5 -> pool5
I1103 19:59:21.681247 19041 net.cpp:96] Setting up pool5
I1103 19:59:21.681254 19041 net.cpp:103] Top shape: 32 512 7 7 (802816)
I1103 19:59:21.681257 19041 layer_factory.hpp:78] Creating layer fc6
I1103 19:59:21.681270 19041 net.cpp:67] Creating Layer fc6
I1103 19:59:21.681273 19041 net.cpp:394] fc6 <- pool5
I1103 19:59:21.681279 19041 net.cpp:356] fc6 -> fc6
I1103 19:59:21.681285 19041 net.cpp:96] Setting up fc6
I1103 19:59:24.115443 19041 net.cpp:103] Top shape: 32 4096 1 1 (131072)
I1103 19:59:24.115485 19041 layer_factory.hpp:78] Creating layer relu6
I1103 19:59:24.115495 19041 net.cpp:67] Creating Layer relu6
I1103 19:59:24.115500 19041 net.cpp:394] relu6 <- fc6
I1103 19:59:24.115507 19041 net.cpp:345] relu6 -> fc6 (in-place)
I1103 19:59:24.115514 19041 net.cpp:96] Setting up relu6
I1103 19:59:24.115527 19041 net.cpp:103] Top shape: 32 4096 1 1 (131072)
I1103 19:59:24.115531 19041 layer_factory.hpp:78] Creating layer drop6
I1103 19:59:24.115540 19041 net.cpp:67] Creating Layer drop6
I1103 19:59:24.115542 19041 net.cpp:394] drop6 <- fc6
I1103 19:59:24.115546 19041 net.cpp:345] drop6 -> fc6 (in-place)
I1103 19:59:24.115551 19041 net.cpp:96] Setting up drop6
I1103 19:59:24.115556 19041 net.cpp:103] Top shape: 32 4096 1 1 (131072)
I1103 19:59:24.115558 19041 layer_factory.hpp:78] Creating layer fc7
I1103 19:59:24.115566 19041 net.cpp:67] Creating Layer fc7
I1103 19:59:24.115568 19041 net.cpp:394] fc7 <- fc6
I1103 19:59:24.115573 19041 net.cpp:356] fc7 -> fc7
I1103 19:59:24.115578 19041 net.cpp:96] Setting up fc7
I1103 19:59:24.547016 19041 net.cpp:103] Top shape: 32 4096 1 1 (131072)
I1103 19:59:24.547060 19041 layer_factory.hpp:78] Creating layer relu7
I1103 19:59:24.547067 19041 net.cpp:67] Creating Layer relu7
I1103 19:59:24.547072 19041 net.cpp:394] relu7 <- fc7
I1103 19:59:24.547080 19041 net.cpp:345] relu7 -> fc7 (in-place)
I1103 19:59:24.547086 19041 net.cpp:96] Setting up relu7
I1103 19:59:24.547101 19041 net.cpp:103] Top shape: 32 4096 1 1 (131072)
I1103 19:59:24.547103 19041 layer_factory.hpp:78] Creating layer drop7
I1103 19:59:24.547109 19041 net.cpp:67] Creating Layer drop7
I1103 19:59:24.547112 19041 net.cpp:394] drop7 <- fc7
I1103 19:59:24.547116 19041 net.cpp:345] drop7 -> fc7 (in-place)
I1103 19:59:24.547122 19041 net.cpp:96] Setting up drop7
I1103 19:59:24.547124 19041 net.cpp:103] Top shape: 32 4096 1 1 (131072)
I1103 19:59:24.547127 19041 layer_factory.hpp:78] Creating layer fc8_2
I1103 19:59:24.547132 19041 net.cpp:67] Creating Layer fc8_2
I1103 19:59:24.547135 19041 net.cpp:394] fc8_2 <- fc7
I1103 19:59:24.547142 19041 net.cpp:356] fc8_2 -> fc8_2
I1103 19:59:24.547147 19041 net.cpp:96] Setting up fc8_2
I1103 19:59:24.547358 19041 net.cpp:103] Top shape: 32 2 1 1 (64)
I1103 19:59:24.547365 19041 layer_factory.hpp:78] Creating layer loss
I1103 19:59:24.547375 19041 net.cpp:67] Creating Layer loss
I1103 19:59:24.547381 19041 net.cpp:394] loss <- fc8_2
I1103 19:59:24.547385 19041 net.cpp:394] loss <- label
I1103 19:59:24.547392 19041 net.cpp:356] loss -> (automatic)
I1103 19:59:24.547396 19041 net.cpp:96] Setting up loss
I1103 19:59:24.547405 19041 net.cpp:103] Top shape: 1 1 1 1 (1)
I1103 19:59:24.547408 19041 net.cpp:109]     with loss weight 1
I1103 19:59:24.547440 19041 net.cpp:170] loss needs backward computation.
I1103 19:59:24.547444 19041 net.cpp:170] fc8_2 needs backward computation.
I1103 19:59:24.547447 19041 net.cpp:170] drop7 needs backward computation.
I1103 19:59:24.547449 19041 net.cpp:170] relu7 needs backward computation.
I1103 19:59:24.547452 19041 net.cpp:170] fc7 needs backward computation.
…
I1103 19:59:24.548373 19041 solver.cpp:151] Creating test net (#0) specified by net file: /data/ad6813/devCaffe/caffe/oxfordNet/VGG_ILSVRC_16_train_val.prototxt
I1103 19:59:24.548421 19041 net.cpp:275] The NetState phase (1) differed from the phase (0) specified by a rule in layer data
I1103 19:59:24.548620 19041 net.cpp:39] Initializing net from parameters: 
name: "VGG_ILSVRC_16_layers"
layers {
  top: "data"
  top: "label"
  name: "data"
  type: IMAGE_DATA
  image_data_param {
    source: "/data/ad6813/caffe/data/clamp/val.txt"
    batch_size: 8
    new_height: 256
    new_width: 256
  }
  include {
    phase: TEST
  }
  transform_param {
    mirror: true
    crop_size: 224
    mean_file: "/data/ad6813/devCaffe/caffe/clampdetMeanVal"
  }
}
layers {
  bottom: "data"
  top: "conv1_1"
  name: "conv1_1"
  type: CONVOLUTION
  convolution_param {
    num_output: 64
    pad: 1
    kernel_size: 3
    weight_filler {
      type: "gaussian"
      std: 0.01
    }
    bias_filler {
      type: "constant"
      value: 0
    }
  }
}
layers {
  bottom: "conv1_1"
  top: "conv1_1"
  name: "relu1_1"
  type: RELU
}
layers {
  bottom: "conv1_1"
  top: "conv1_2"
  name: "conv1_2"
  type: CONVOLUTION
  convolution_param {
    num_output: 64
    pad: 1
    kernel_size: 3
    weight_filler {
      type: "gaussian"
      std: 0.01
    }
    bias_filler {
      type: "constant"
      value: 0
    }
  }
}
layers {
  bottom: "conv1_2"
  top: "conv1_2"
  name: "relu1_2"
  type: RELU
}
layers {
  bottom: "conv1_2"
  top: "pool1"
  name: "pool1"
  type: POOLING
  pooling_param {
    pool: MAX
    kernel_size: 2
    stride: 2
  }
}
layers {
  bottom: "pool1"
  top: "conv2_1"
  name: "conv2_1"
  type: CONVOLUTION
  convolution_param {
    num_output: 128
    pad: 1
    kernel_size: 3
    weight_filler {
      type: "gaussian"
      std: 0.01
    }
    bias_filler {
      type: "constant"
      value: 0
    }
  }
}
layers {
  bottom: "conv2_1"
  top: "conv2_1"
  name: "relu2_1"
  type: RELU
}
layers {
  bottom: "conv2_1"
  top: "conv2_2"
  name: "conv2_2"
  type: CONVOLUTION
  convolution_param {
    num_output: 128
    pad: 1
    kernel_size: 3
    weight_filler {
      type: "gaussian"
      std: 0.01
    }
    bias_filler {
      type: "constant"
      value: 0
    }
  }
}
layers {
  bottom: "conv2_2"
  top: "conv2_2"
  name: "relu2_2"
  type: RELU
}
layers {
  bottom: "conv2_2"
  top: "pool2"
  name: "pool2"
  type: POOLING
  pooling_param {
    pool: MAX
    kernel_size: 2
    stride: 2
  }
}
layers {
  bottom: "pool2"
  top: "conv3_1"
  name: "conv3_1"
  type: CONVOLUTION
  convolution_param {
    num_output: 256
    pad: 1
    kernel_size: 3
    weight_filler {
      type: "gaussian"
      std: 0.01
    }
    bias_filler {
      type: "constant"
      value: 0
    }
  }
}
layers {
  bottom: "conv3_1"
  top: "conv3_1"
  name: "relu3_1"
  type: RELU
}
layers {
  bottom: "conv3_1"
  top: "conv3_2"
  name: "conv3_2"
  type: CONVOLUTION
  convolution_param {
    num_output: 256
    pad: 1
    kernel_size: 3
    weight_filler {
      type: "gaussian"
      std: 0.01
    }
    bias_filler {
      type: "constant"
      value: 0
    }
  }
}
layers {
  bottom: "conv3_2"
  top: "conv3_2"
  name: "relu3_2"
  type: RELU
}
layers {
  bottom: "conv3_2"
  top: "conv3_3"
  name: "conv3_3"
  type: CONVOLUTION
  convolution_param {
    num_output: 256
    pad: 1
    kernel_size: 3
    weight_filler {
      type: "gaussian"
      std: 0.01
    }
    bias_filler {
      type: "constant"
      value: 0
    }
  }
}
layers {
  bottom: "conv3_3"
  top: "conv3_3"
  name: "relu3_3"
  type: RELU
}
layers {
  bottom: "conv3_3"
  top: "pool3"
  name: "pool3"
  type: POOLING
  pooling_param {
    pool: MAX
    kernel_size: 2
    stride: 2
  }
}
layers {
  bottom: "pool3"
  top: "conv4_1"
  name: "conv4_1"
  type: CONVOLUTION
  convolution_param {
    num_output: 512
    pad: 1
    kernel_size: 3
    weight_filler {
      type: "gaussian"
      std: 0.01
    }
    bias_filler {
      type: "constant"
      value: 0
    }
  }
}
layers {
  bottom: "conv4_1"
  top: "conv4_1"
  name: "relu4_1"
  type: RELU
}
layers {
  bottom: "conv4_1"
  top: "conv4_2"
  name: "conv4_2"
  type: CONVOLUTION
  convolution_param {
    num_output: 512
    pad: 1
    kernel_size: 3
    weight_filler {
      type: "gaussian"
      std: 0.01
    }
    bias_filler {
      type: "constant"
      value: 0
    }
  }
}
layers {
  bottom: "conv4_2"
  top: "conv4_2"
  name: "relu4_2"
  type: RELU
}
layers {
  bottom: "conv4_2"
  top: "conv4_3"
  name: "conv4_3"
  type: CONVOLUTION
  convolution_param {
    num_output: 512
    pad: 1
    kernel_size: 3
    weight_filler {
      type: "gaussian"
      std: 0.01
    }
    bias_filler {
      type: "constant"
      value: 0
    }
  }
}
layers {
  bottom: "conv4_3"
  top: "conv4_3"
  name: "relu4_3"
  type: RELU
}
layers {
  bottom: "conv4_3"
  top: "pool4"
  name: "pool4"
  type: POOLING
  pooling_param {
    pool: MAX
    kernel_size: 2
    stride: 2
  }
}
layers {
  bottom: "pool4"
  top: "conv5_1"
  name: "conv5_1"
  type: CONVOLUTION
  convolution_param {
    num_output: 512
    pad: 1
    kernel_size: 3
    weight_filler {
      type: "gaussian"
      std: 0.01
    }
    bias_filler {
      type: "constant"
      value: 0
    }
  }
}
layers {
  bottom: "conv5_1"
  top: "conv5_1"
  name: "relu5_1"
  type: RELU
}
layers {
  bottom: "conv5_1"
  top: "conv5_2"
  name: "conv5_2"
  type: CONVOLUTION
  convolution_param {
    num_output: 512
    pad: 1
    kernel_size: 3
    weight_filler {
      type: "gaussian"
      std: 0.01
    }
    bias_filler {
      type: "constant"
      value: 0
    }
  }
}
layers {
  bottom: "conv5_2"
  top: "conv5_2"
  name: "relu5_2"
  type: RELU
}
layers {
  bottom: "conv5_2"
  top: "conv5_3"
  name: "conv5_3"
  type: CONVOLUTION
  convolution_param {
    num_output: 512
    pad: 1
    kernel_size: 3
    weight_filler {
      type: "gaussian"
      std: 0.01
    }
    bias_filler {
      type: "constant"
      value: 0
    }
  }
}
layers {
  bottom: "conv5_3"
  top: "conv5_3"
  name: "relu5_3"
  type: RELU
}
layers {
  bottom: "conv5_3"
  top: "pool5"
  name: "pool5"
  type: POOLING
  pooling_param {
    pool: MAX
    kernel_size: 2
    stride: 2
  }
}
layers {
  bottom: "pool5"
  top: "fc6"
  name: "fc6"
  type: INNER_PRODUCT
  inner_product_param {
    num_output: 4096
    weight_filler {
      type: "gaussian"
      std: 0.01
    }
    bias_filler {
      type: "constant"
      value: 0
    }
  }
}
layers {
  bottom: "fc6"
  top: "fc6"
  name: "relu6"
  type: RELU
}
layers {
  bottom: "fc6"
  top: "fc6"
  name: "drop6"
  type: DROPOUT
  dropout_param {
    dropout_ratio: 0.5
  }
}
layers {
  bottom: "fc6"
  top: "fc7"
  name: "fc7"
  type: INNER_PRODUCT
  inner_product_param {
    num_output: 4096
    weight_filler {
      type: "gaussian"
      std: 0.01
    }
    bias_filler {
      type: "constant"
      value: 0
    }
  }
}
layers {
  bottom: "fc7"
  top: "fc7"
  name: "relu7"
  type: RELU
}
layers {
  bottom: "fc7"
  top: "fc7"
  name: "drop7"
  type: DROPOUT
  dropout_param {
    dropout_ratio: 0.5
  }
}
layers {
  bottom: "fc7"
  top: "fc8_2"
  name: "fc8_2"
  type: INNER_PRODUCT
  inner_product_param {
    num_output: 2
    weight_filler {
      type: "gaussian"
      std: 0.01
    }
    bias_filler {
      type: "constant"
      value: 0
    }
  }
}
layers {
  bottom: "fc8_2"
  bottom: "label"
  name: "loss"
  type: SOFTMAX_LOSS
}
layers {
  bottom: "fc8_2"
  bottom: "label"
  top: "accuracy"
  name: "accuracy"
  type: ACCURACY
  include {
    phase: TEST
  }
}
state {
  phase: TEST
}
I1103 19:59:24.548750 19041 layer_factory.hpp:78] Creating layer data
I1103 19:59:24.548758 19041 data_transformer.cpp:24] Loading mean file from/data/ad6813/devCaffe/caffe/clampdetMeanVal
I1103 19:59:24.550115 19041 net.cpp:67] Creating Layer data
I1103 19:59:24.550125 19041 net.cpp:356] data -> data
I1103 19:59:24.550133 19041 net.cpp:356] data -> label
I1103 19:59:24.550138 19041 net.cpp:96] Setting up data
I1103 19:59:24.550143 19041 image_data_layer.cpp:34] Opening file /data/ad6813/caffe/data/clamp/val.txt
I1103 19:59:24.550830 19041 image_data_layer.cpp:49] A total of 2006 images.
I1103 19:59:24.556700 19041 image_data_layer.cpp:78] output data size: 8,3,224,224
I1103 19:59:24.559183 19041 net.cpp:103] Top shape: 8 3 224 224 (1204224)
I1103 19:59:24.559201 19041 net.cpp:103] Top shape: 8 1 1 1 (8)
I1103 19:59:24.559206 19041 layer_factory.hpp:78] Creating layer label_data_1_split
I1103 19:59:24.559218 19041 net.cpp:67] Creating Layer label_data_1_split
I1103 19:59:24.559223 19041 net.cpp:394] label_data_1_split <- label
I1103 19:59:24.559229 19041 net.cpp:356] label_data_1_split -> label_data_1_split_0
I1103 19:59:24.559238 19041 net.cpp:356] label_data_1_split -> label_data_1_split_1
I1103 19:59:24.559243 19041 net.cpp:96] Setting up label_data_1_split
I1103 19:59:24.559249 19041 net.cpp:103] Top shape: 8 1 1 1 (8)
I1103 19:59:24.559252 19041 net.cpp:103] Top shape: 8 1 1 1 (8)
I1103 19:59:24.559255 19041 layer_factory.hpp:78] Creating layer conv1_1
I1103 19:59:24.559262 19041 net.cpp:67] Creating Layer conv1_1
I1103 19:59:24.559265 19041 net.cpp:394] conv1_1 <- data
I1103 19:59:24.559270 19041 net.cpp:356] conv1_1 -> conv1_1
I1103 19:59:24.559276 19041 net.cpp:96] Setting up conv1_1
I1103 19:59:24.559443 19041 net.cpp:103] Top shape: 8 64 224 224 (25690112)
I1103 19:59:24.559458 19041 layer_factory.hpp:78] Creating layer relu1_1
I1103 19:59:24.559463 19041 net.cpp:67] Creating Layer relu1_1
I1103 19:59:24.559465 19041 net.cpp:394] relu1_1 <- conv1_1
I1103 19:59:24.559470 19041 net.cpp:345] relu1_1 -> conv1_1 (in-place)
I1103 19:59:24.559474 19041 net.cpp:96] Setting up relu1_1
I1103 19:59:24.559480 19041 net.cpp:103] Top shape: 8 64 224 224 (25690112)
I1103 19:59:24.559484 19041 layer_factory.hpp:78] Creating layer conv1_2
I1103 19:59:24.559489 19041 net.cpp:67] Creating Layer conv1_2
I1103 19:59:24.559491 19041 net.cpp:394] conv1_2 <- conv1_1
I1103 19:59:24.559496 19041 net.cpp:356] conv1_2 -> conv1_2
I1103 19:59:24.559501 19041 net.cpp:96] Setting up conv1_2
I1103 19:59:24.560483 19041 net.cpp:103] Top shape: 8 64 224 224 (25690112)
I1103 19:59:24.560497 19041 layer_factory.hpp:78] Creating layer relu1_2
I1103 19:59:24.560502 19041 net.cpp:67] Creating Layer relu1_2
I1103 19:59:24.560504 19041 net.cpp:394] relu1_2 <- conv1_2
I1103 19:59:24.560508 19041 net.cpp:345] relu1_2 -> conv1_2 (in-place)
I1103 19:59:24.560514 19041 net.cpp:96] Setting up relu1_2
I1103 19:59:24.560519 19041 net.cpp:103] Top shape: 8 64 224 224 (25690112)
I1103 19:59:24.560523 19041 layer_factory.hpp:78] Creating layer pool1
I1103 19:59:24.560528 19041 net.cpp:67] Creating Layer pool1
I1103 19:59:24.560530 19041 net.cpp:394] pool1 <- conv1_2
I1103 19:59:24.560535 19041 net.cpp:356] pool1 -> pool1
I1103 19:59:24.560539 19041 net.cpp:96] Setting up pool1
I1103 19:59:24.560546 19041 net.cpp:103] Top shape: 8 64 112 112 (6422528)
I1103 19:59:24.560549 19041 layer_factory.hpp:78] Creating layer conv2_1
I1103 19:59:24.560554 19041 net.cpp:67] Creating Layer conv2_1
I1103 19:59:24.560557 19041 net.cpp:394] conv2_1 <- pool1
I1103 19:59:24.560561 19041 net.cpp:356] conv2_1 -> conv2_1
I1103 19:59:24.560566 19041 net.cpp:96] Setting up conv2_1
I1103 19:59:24.562567 19041 net.cpp:103] Top shape: 8 128 112 112 (12845056)
I1103 19:59:24.562584 19041 layer_factory.hpp:78] Creating layer relu2_1
I1103 19:59:24.562592 19041 net.cpp:67] Creating Layer relu2_1
I1103 19:59:24.562595 19041 net.cpp:394] relu2_1 <- conv2_1
I1103 19:59:24.562600 19041 net.cpp:345] relu2_1 -> conv2_1 (in-place)
I1103 19:59:24.562605 19041 net.cpp:96] Setting up relu2_1
I1103 19:59:24.562610 19041 net.cpp:103] Top shape: 8 128 112 112 (12845056)
I1103 19:59:24.562613 19041 layer_factory.hpp:78] Creating layer conv2_2
I1103 19:59:24.562618 19041 net.cpp:67] Creating Layer conv2_2
I1103 19:59:24.562620 19041 net.cpp:394] conv2_2 <- conv2_1
I1103 19:59:24.562625 19041 net.cpp:356] conv2_2 -> conv2_2
I1103 19:59:24.562631 19041 net.cpp:96] Setting up conv2_2
I1103 19:59:24.566261 19041 net.cpp:103] Top shape: 8 128 112 112 (12845056)
I1103 19:59:24.566272 19041 layer_factory.hpp:78] Creating layer relu2_2
I1103 19:59:24.566275 19041 net.cpp:67] Creating Layer relu2_2
I1103 19:59:24.566278 19041 net.cpp:394] relu2_2 <- conv2_2
I1103 19:59:24.566283 19041 net.cpp:345] relu2_2 -> conv2_2 (in-place)
I1103 19:59:24.566287 19041 net.cpp:96] Setting up relu2_2
I1103 19:59:24.566293 19041 net.cpp:103] Top shape: 8 128 112 112 (12845056)
I1103 19:59:24.566295 19041 layer_factory.hpp:78] Creating layer pool2
I1103 19:59:24.566300 19041 net.cpp:67] Creating Layer pool2
I1103 19:59:24.566303 19041 net.cpp:394] pool2 <- conv2_2
I1103 19:59:24.566308 19041 net.cpp:356] pool2 -> pool2
I1103 19:59:24.566311 19041 net.cpp:96] Setting up pool2
I1103 19:59:24.566318 19041 net.cpp:103] Top shape: 8 128 56 56 (3211264)
I1103 19:59:24.566320 19041 layer_factory.hpp:78] Creating layer conv3_1
I1103 19:59:24.566325 19041 net.cpp:67] Creating Layer conv3_1
I1103 19:59:24.566328 19041 net.cpp:394] conv3_1 <- pool2
I1103 19:59:24.566332 19041 net.cpp:356] conv3_1 -> conv3_1
I1103 19:59:24.566336 19041 net.cpp:96] Setting up conv3_1
I1103 19:59:24.573519 19041 net.cpp:103] Top shape: 8 256 56 56 (6422528)
I1103 19:59:24.573534 19041 layer_factory.hpp:78] Creating layer relu3_1
I1103 19:59:24.573539 19041 net.cpp:67] Creating Layer relu3_1
I1103 19:59:24.573551 19041 net.cpp:394] relu3_1 <- conv3_1
I1103 19:59:24.573556 19041 net.cpp:345] relu3_1 -> conv3_1 (in-place)
I1103 19:59:24.573561 19041 net.cpp:96] Setting up relu3_1
I1103 19:59:24.573566 19041 net.cpp:103] Top shape: 8 256 56 56 (6422528)
I1103 19:59:24.573570 19041 layer_factory.hpp:78] Creating layer conv3_2
I1103 19:59:24.573575 19041 net.cpp:67] Creating Layer conv3_2
I1103 19:59:24.573576 19041 net.cpp:394] conv3_2 <- conv3_1
I1103 19:59:24.573581 19041 net.cpp:356] conv3_2 -> conv3_2
I1103 19:59:24.573586 19041 net.cpp:96] Setting up conv3_2
I1103 19:59:24.588294 19041 net.cpp:103] Top shape: 8 256 56 56 (6422528)
I1103 19:59:24.588310 19041 layer_factory.hpp:78] Creating layer relu3_2
I1103 19:59:24.588315 19041 net.cpp:67] Creating Layer relu3_2
I1103 19:59:24.588318 19041 net.cpp:394] relu3_2 <- conv3_2
I1103 19:59:24.588325 19041 net.cpp:345] relu3_2 -> conv3_2 (in-place)
I1103 19:59:24.588331 19041 net.cpp:96] Setting up relu3_2
I1103 19:59:24.588336 19041 net.cpp:103] Top shape: 8 256 56 56 (6422528)
I1103 19:59:24.588340 19041 layer_factory.hpp:78] Creating layer conv3_3
I1103 19:59:24.588346 19041 net.cpp:67] Creating Layer conv3_3
I1103 19:59:24.588349 19041 net.cpp:394] conv3_3 <- conv3_2
I1103 19:59:24.588356 19041 net.cpp:356] conv3_3 -> conv3_3
I1103 19:59:24.588361 19041 net.cpp:96] Setting up conv3_3
I1103 19:59:24.603081 19041 net.cpp:103] Top shape: 8 256 56 56 (6422528)
I1103 19:59:24.603098 19041 layer_factory.hpp:78] Creating layer relu3_3
I1103 19:59:24.603104 19041 net.cpp:67] Creating Layer relu3_3
I1103 19:59:24.603108 19041 net.cpp:394] relu3_3 <- conv3_3
I1103 19:59:24.603116 19041 net.cpp:345] relu3_3 -> conv3_3 (in-place)
I1103 19:59:24.603121 19041 net.cpp:96] Setting up relu3_3
I1103 19:59:24.603126 19041 net.cpp:103] Top shape: 8 256 56 56 (6422528)
I1103 19:59:24.603128 19041 layer_factory.hpp:78] Creating layer pool3
I1103 19:59:24.603134 19041 net.cpp:67] Creating Layer pool3
I1103 19:59:24.603137 19041 net.cpp:394] pool3 <- conv3_3
I1103 19:59:24.603142 19041 net.cpp:356] pool3 -> pool3
I1103 19:59:24.603148 19041 net.cpp:96] Setting up pool3
I1103 19:59:24.603155 19041 net.cpp:103] Top shape: 8 256 28 28 (1605632)
I1103 19:59:24.603158 19041 layer_factory.hpp:78] Creating layer conv4_1
I1103 19:59:24.603164 19041 net.cpp:67] Creating Layer conv4_1
I1103 19:59:24.603168 19041 net.cpp:394] conv4_1 <- pool3
I1103 19:59:24.603173 19041 net.cpp:356] conv4_1 -> conv4_1
I1103 19:59:24.603178 19041 net.cpp:96] Setting up conv4_1
I1103 19:59:24.631793 19041 net.cpp:103] Top shape: 8 512 28 28 (3211264)
I1103 19:59:24.631829 19041 layer_factory.hpp:78] Creating layer relu4_1
I1103 19:59:24.631837 19041 net.cpp:67] Creating Layer relu4_1
I1103 19:59:24.631842 19041 net.cpp:394] relu4_1 <- conv4_1
I1103 19:59:24.631851 19041 net.cpp:345] relu4_1 -> conv4_1 (in-place)
I1103 19:59:24.631860 19041 net.cpp:96] Setting up relu4_1
I1103 19:59:24.631865 19041 net.cpp:103] Top shape: 8 512 28 28 (3211264)
I1103 19:59:24.631867 19041 layer_factory.hpp:78] Creating layer conv4_2
I1103 19:59:24.631873 19041 net.cpp:67] Creating Layer conv4_2
I1103 19:59:24.631876 19041 net.cpp:394] conv4_2 <- conv4_1
I1103 19:59:24.631882 19041 net.cpp:356] conv4_2 -> conv4_2
I1103 19:59:24.631888 19041 net.cpp:96] Setting up conv4_2
I1103 19:59:24.690268 19041 net.cpp:103] Top shape: 8 512 28 28 (3211264)
I1103 19:59:24.690317 19041 layer_factory.hpp:78] Creating layer relu4_2
I1103 19:59:24.690326 19041 net.cpp:67] Creating Layer relu4_2
I1103 19:59:24.690330 19041 net.cpp:394] relu4_2 <- conv4_2
I1103 19:59:24.690338 19041 net.cpp:345] relu4_2 -> conv4_2 (in-place)
I1103 19:59:24.690346 19041 net.cpp:96] Setting up relu4_2
I1103 19:59:24.690351 19041 net.cpp:103] Top shape: 8 512 28 28 (3211264)
I1103 19:59:24.690354 19041 layer_factory.hpp:78] Creating layer conv4_3
I1103 19:59:24.690361 19041 net.cpp:67] Creating Layer conv4_3
I1103 19:59:24.690363 19041 net.cpp:394] conv4_3 <- conv4_2
I1103 19:59:24.690368 19041 net.cpp:356] conv4_3 -> conv4_3
I1103 19:59:24.690384 19041 net.cpp:96] Setting up conv4_3
I1103 19:59:24.749476 19041 net.cpp:103] Top shape: 8 512 28 28 (3211264)
I1103 19:59:24.749518 19041 layer_factory.hpp:78] Creating layer relu4_3
I1103 19:59:24.749526 19041 net.cpp:67] Creating Layer relu4_3
I1103 19:59:24.749531 19041 net.cpp:394] relu4_3 <- conv4_3
I1103 19:59:24.749538 19041 net.cpp:345] relu4_3 -> conv4_3 (in-place)
I1103 19:59:24.749546 19041 net.cpp:96] Setting up relu4_3
I1103 19:59:24.749552 19041 net.cpp:103] Top shape: 8 512 28 28 (3211264)
I1103 19:59:24.749554 19041 layer_factory.hpp:78] Creating layer pool4
I1103 19:59:24.749559 19041 net.cpp:67] Creating Layer pool4
I1103 19:59:24.749562 19041 net.cpp:394] pool4 <- conv4_3
I1103 19:59:24.749567 19041 net.cpp:356] pool4 -> pool4
I1103 19:59:24.749573 19041 net.cpp:96] Setting up pool4
I1103 19:59:24.749582 19041 net.cpp:103] Top shape: 8 512 14 14 (802816)
I1103 19:59:24.749584 19041 layer_factory.hpp:78] Creating layer conv5_1
I1103 19:59:24.749591 19041 net.cpp:67] Creating Layer conv5_1
I1103 19:59:24.749594 19041 net.cpp:394] conv5_1 <- pool4
I1103 19:59:24.749599 19041 net.cpp:356] conv5_1 -> conv5_1
I1103 19:59:24.749604 19041 net.cpp:96] Setting up conv5_1
I1103 19:59:24.809517 19041 net.cpp:103] Top shape: 8 512 14 14 (802816)
I1103 19:59:24.809556 19041 layer_factory.hpp:78] Creating layer relu5_1
I1103 19:59:24.809564 19041 net.cpp:67] Creating Layer relu5_1
I1103 19:59:24.809569 19041 net.cpp:394] relu5_1 <- conv5_1
I1103 19:59:24.809576 19041 net.cpp:345] relu5_1 -> conv5_1 (in-place)
I1103 19:59:24.809582 19041 net.cpp:96] Setting up relu5_1
I1103 19:59:24.809588 19041 net.cpp:103] Top shape: 8 512 14 14 (802816)
I1103 19:59:24.809592 19041 layer_factory.hpp:78] Creating layer conv5_2
I1103 19:59:24.809597 19041 net.cpp:67] Creating Layer conv5_2
I1103 19:59:24.809600 19041 net.cpp:394] conv5_2 <- conv5_1
I1103 19:59:24.809607 19041 net.cpp:356] conv5_2 -> conv5_2
I1103 19:59:24.809612 19041 net.cpp:96] Setting up conv5_2
I1103 19:59:24.867650 19041 net.cpp:103] Top shape: 8 512 14 14 (802816)
I1103 19:59:24.867692 19041 layer_factory.hpp:78] Creating layer relu5_2
I1103 19:59:24.867701 19041 net.cpp:67] Creating Layer relu5_2
I1103 19:59:24.867705 19041 net.cpp:394] relu5_2 <- conv5_2
I1103 19:59:24.867712 19041 net.cpp:345] relu5_2 -> conv5_2 (in-place)
I1103 19:59:24.867717 19041 net.cpp:96] Setting up relu5_2
I1103 19:59:24.867723 19041 net.cpp:103] Top shape: 8 512 14 14 (802816)
I1103 19:59:24.867727 19041 layer_factory.hpp:78] Creating layer conv5_3
I1103 19:59:24.867734 19041 net.cpp:67] Creating Layer conv5_3
I1103 19:59:24.867738 19041 net.cpp:394] conv5_3 <- conv5_2
I1103 19:59:24.867743 19041 net.cpp:356] conv5_3 -> conv5_3
I1103 19:59:24.867748 19041 net.cpp:96] Setting up conv5_3
I1103 19:59:24.928144 19041 net.cpp:103] Top shape: 8 512 14 14 (802816)
I1103 19:59:24.928185 19041 layer_factory.hpp:78] Creating layer relu5_3
I1103 19:59:24.928194 19041 net.cpp:67] Creating Layer relu5_3
I1103 19:59:24.928199 19041 net.cpp:394] relu5_3 <- conv5_3
I1103 19:59:24.928205 19041 net.cpp:345] relu5_3 -> conv5_3 (in-place)
I1103 19:59:24.928211 19041 net.cpp:96] Setting up relu5_3
I1103 19:59:24.928217 19041 net.cpp:103] Top shape: 8 512 14 14 (802816)
I1103 19:59:24.928220 19041 layer_factory.hpp:78] Creating layer pool5
I1103 19:59:24.928232 19041 net.cpp:67] Creating Layer pool5
I1103 19:59:24.928236 19041 net.cpp:394] pool5 <- conv5_3
I1103 19:59:24.928241 19041 net.cpp:356] pool5 -> pool5
I1103 19:59:24.928247 19041 net.cpp:96] Setting up pool5
I1103 19:59:24.928256 19041 net.cpp:103] Top shape: 8 512 7 7 (200704)
I1103 19:59:24.928258 19041 layer_factory.hpp:78] Creating layer fc6
I1103 19:59:24.928264 19041 net.cpp:67] Creating Layer fc6
I1103 19:59:24.928267 19041 net.cpp:394] fc6 <- pool5
I1103 19:59:24.928272 19041 net.cpp:356] fc6 -> fc6
I1103 19:59:24.928277 19041 net.cpp:96] Setting up fc6
I1103 19:59:27.491083 19041 net.cpp:103] Top shape: 8 4096 1 1 (32768)
I1103 19:59:27.491129 19041 layer_factory.hpp:78] Creating layer relu6
I1103 19:59:27.491138 19041 net.cpp:67] Creating Layer relu6
I1103 19:59:27.491153 19041 net.cpp:394] relu6 <- fc6
I1103 19:59:27.491161 19041 net.cpp:345] relu6 -> fc6 (in-place)
I1103 19:59:27.491168 19041 net.cpp:96] Setting up relu6
I1103 19:59:27.491183 19041 net.cpp:103] Top shape: 8 4096 1 1 (32768)
I1103 19:59:27.491188 19041 layer_factory.hpp:78] Creating layer drop6
I1103 19:59:27.491192 19041 net.cpp:67] Creating Layer drop6
I1103 19:59:27.491195 19041 net.cpp:394] drop6 <- fc6
I1103 19:59:27.491199 19041 net.cpp:345] drop6 -> fc6 (in-place)
I1103 19:59:27.491204 19041 net.cpp:96] Setting up drop6
I1103 19:59:27.491207 19041 net.cpp:103] Top shape: 8 4096 1 1 (32768)
I1103 19:59:27.491209 19041 layer_factory.hpp:78] Creating layer fc7
I1103 19:59:27.491214 19041 net.cpp:67] Creating Layer fc7
I1103 19:59:27.491217 19041 net.cpp:394] fc7 <- fc6
I1103 19:59:27.491225 19041 net.cpp:356] fc7 -> fc7
I1103 19:59:27.491231 19041 net.cpp:96] Setting up fc7
I1103 19:59:27.887212 19041 net.cpp:103] Top shape: 8 4096 1 1 (32768)
I1103 19:59:27.887256 19041 layer_factory.hpp:78] Creating layer relu7
I1103 19:59:27.887266 19041 net.cpp:67] Creating Layer relu7
I1103 19:59:27.887271 19041 net.cpp:394] relu7 <- fc7
I1103 19:59:27.887279 19041 net.cpp:345] relu7 -> fc7 (in-place)
I1103 19:59:27.887285 19041 net.cpp:96] Setting up relu7
I1103 19:59:27.887300 19041 net.cpp:103] Top shape: 8 4096 1 1 (32768)
I1103 19:59:27.887302 19041 layer_factory.hpp:78] Creating layer drop7
I1103 19:59:27.887308 19041 net.cpp:67] Creating Layer drop7
I1103 19:59:27.887310 19041 net.cpp:394] drop7 <- fc7
I1103 19:59:27.887315 19041 net.cpp:345] drop7 -> fc7 (in-place)
I1103 19:59:27.887320 19041 net.cpp:96] Setting up drop7
I1103 19:59:27.887322 19041 net.cpp:103] Top shape: 8 4096 1 1 (32768)
I1103 19:59:27.887326 19041 layer_factory.hpp:78] Creating layer fc8_2
I1103 19:59:27.887331 19041 net.cpp:67] Creating Layer fc8_2
I1103 19:59:27.887334 19041 net.cpp:394] fc8_2 <- fc7
I1103 19:59:27.887339 19041 net.cpp:356] fc8_2 -> fc8_2
I1103 19:59:27.887344 19041 net.cpp:96] Setting up fc8_2
I1103 19:59:27.887557 19041 net.cpp:103] Top shape: 8 2 1 1 (16)
I1103 19:59:27.887563 19041 layer_factory.hpp:78] Creating layer fc8_2_fc8_2_0_split
I1103 19:59:27.887568 19041 net.cpp:67] Creating Layer fc8_2_fc8_2_0_split
I1103 19:59:27.887572 19041 net.cpp:394] fc8_2_fc8_2_0_split <- fc8_2
I1103 19:59:27.887575 19041 net.cpp:356] fc8_2_fc8_2_0_split -> fc8_2_fc8_2_0_split_0
I1103 19:59:27.887581 19041 net.cpp:356] fc8_2_fc8_2_0_split -> fc8_2_fc8_2_0_split_1
I1103 19:59:27.887586 19041 net.cpp:96] Setting up fc8_2_fc8_2_0_split
I1103 19:59:27.887590 19041 net.cpp:103] Top shape: 8 2 1 1 (16)
I1103 19:59:27.887593 19041 net.cpp:103] Top shape: 8 2 1 1 (16)
I1103 19:59:27.887595 19041 layer_factory.hpp:78] Creating layer loss
I1103 19:59:27.887601 19041 net.cpp:67] Creating Layer loss
I1103 19:59:27.887604 19041 net.cpp:394] loss <- fc8_2_fc8_2_0_split_0
I1103 19:59:27.887609 19041 net.cpp:394] loss <- label_data_1_split_0
I1103 19:59:27.887614 19041 net.cpp:356] loss -> (automatic)
I1103 19:59:27.887619 19041 net.cpp:96] Setting up loss
I1103 19:59:27.887624 19041 net.cpp:103] Top shape: 1 1 1 1 (1)
I1103 19:59:27.887630 19041 net.cpp:109]     with loss weight 1
I1103 19:59:27.887645 19041 layer_factory.hpp:78] Creating layer accuracy
I1103 19:59:27.887653 19041 net.cpp:67] Creating Layer accuracy
I1103 19:59:27.887656 19041 net.cpp:394] accuracy <- fc8_2_fc8_2_0_split_1
I1103 19:59:27.887660 19041 net.cpp:394] accuracy <- label_data_1_split_1
I1103 19:59:27.887665 19041 net.cpp:356] accuracy -> accuracy
I1103 19:59:27.887670 19041 net.cpp:96] Setting up accuracy
I1103 19:59:27.887678 19041 net.cpp:103] Top shape: 1 1 1 1 (1)
I1103 19:59:27.887681 19041 net.cpp:172] accuracy does not need backward computation.
I1103 19:59:27.887684 19041 net.cpp:170] loss needs backward computation.
I1103 19:59:27.887687 19041 net.cpp:170] fc8_2_fc8_2_0_split needs backward computation.
I1103 19:59:27.887691 19041 net.cpp:170] fc8_2 needs backward computation.
I1103 19:59:27.887692 19041 net.cpp:170] drop7 needs backward computation.
…
