…
I1109 04:16:22.965612  4467 net.cpp:275] The NetState phase (0) differed from the phase (1) specified by a rule in layer accuracy
I1109 04:16:22.965977  4467 net.cpp:39] Initializing net from parameters: 
name: "small"
layers {
  top: "data"
  top: "label"
  name: "data"
  type: IMAGE_DATA
  image_data_param {
    source: "/data/ad6813/devCaffe/caffe/data/misal_o/train.txt"
    batch_size: 5
    new_height: 256
    new_width: 256
  }
  include {
    phase: TRAIN
  }
  transform_param {
    mirror: true
    crop_size: 224
    mean_value: 86.752
    mean_value: 101.46
    mean_value: 104.6
  }
}
layers {
  bottom: "data"
  top: "conv1_1"
  name: "conv1_1"
  type: CONVOLUTION
  convolution_param {
    num_output: 64
    pad: 1
    kernel_size: 3
    weight_filler {
      type: "gaussian"
      std: 0.01
    }
    bias_filler {
      type: "constant"
      value: 0
    }
  }
}
layers {
  bottom: "conv1_1"
  top: "conv1_1"
  name: "relu1_1"
  type: RELU
}
layers {
  bottom: "conv1_1"
  top: "conv1_2"
  name: "conv1_2"
  type: CONVOLUTION
  convolution_param {
    num_output: 64
    pad: 1
    kernel_size: 3
    weight_filler {
      type: "gaussian"
      std: 0.01
    }
    bias_filler {
      type: "constant"
      value: 0
    }
  }
}
layers {
  bottom: "conv1_2"
  top: "conv1_2"
  name: "relu1_2"
  type: RELU
}
layers {
  bottom: "conv1_2"
  top: "pool1"
  name: "pool1"
  type: POOLING
  pooling_param {
    pool: MAX
    kernel_size: 2
    stride: 2
  }
}
layers {
  bottom: "pool1"
  top: "conv2_1"
  name: "conv2_1"
  type: CONVOLUTION
  convolution_param {
    num_output: 128
    pad: 1
    kernel_size: 3
    weight_filler {
      type: "gaussian"
      std: 0.01
    }
    bias_filler {
      type: "constant"
      value: 0
    }
  }
}
layers {
  bottom: "conv2_1"
  top: "conv2_1"
  name: "relu2_1"
  type: RELU
}
layers {
  bottom: "conv2_1"
  top: "conv2_2"
  name: "conv2_2"
  type: CONVOLUTION
  convolution_param {
    num_output: 128
    pad: 1
    kernel_size: 3
    weight_filler {
      type: "gaussian"
      std: 0.01
    }
    bias_filler {
      type: "constant"
      value: 0
    }
  }
}
layers {
  bottom: "conv2_2"
  top: "conv2_2"
  name: "relu2_2"
  type: RELU
}
layers {
  bottom: "conv2_2"
  top: "pool2"
  name: "pool2"
  type: POOLING
  pooling_param {
    pool: MAX
    kernel_size: 2
    stride: 2
  }
}
layers {
  bottom: "pool2"
  top: "conv3_1"
  name: "conv3_1"
  type: CONVOLUTION
  convolution_param {
    num_output: 256
    pad: 1
    kernel_size: 3
    weight_filler {
      type: "gaussian"
      std: 0.01
    }
    bias_filler {
      type: "constant"
      value: 0
    }
  }
}
layers {
  bottom: "conv3_1"
  top: "conv3_1"
  name: "relu3_1"
  type: RELU
}
layers {
  bottom: "conv3_1"
  top: "conv3_2"
  name: "conv3_2"
  type: CONVOLUTION
  convolution_param {
    num_output: 256
    pad: 1
    kernel_size: 3
    weight_filler {
      type: "gaussian"
      std: 0.01
    }
    bias_filler {
      type: "constant"
      value: 0
    }
  }
}
layers {
  bottom: "conv3_2"
  top: "conv3_2"
  name: "relu3_2"
  type: RELU
}
layers {
  bottom: "conv3_2"
  top: "conv3_3"
  name: "conv3_3"
  type: CONVOLUTION
  convolution_param {
    num_output: 256
    pad: 1
    kernel_size: 3
    weight_filler {
      type: "gaussian"
      std: 0.01
    }
    bias_filler {
      type: "constant"
      value: 0
    }
  }
}
layers {
  bottom: "conv3_3"
  top: "conv3_3"
  name: "relu3_3"
  type: RELU
}
layers {
  bottom: "conv3_3"
  top: "pool3"
  name: "pool3"
  type: POOLING
  pooling_param {
    pool: MAX
    kernel_size: 2
    stride: 2
  }
}
layers {
  bottom: "pool3"
  top: "conv4_1"
  name: "conv4_1"
  type: CONVOLUTION
  convolution_param {
    num_output: 512
    pad: 1
    kernel_size: 3
    weight_filler {
      type: "gaussian"
      std: 0.01
    }
    bias_filler {
      type: "constant"
      value: 0
    }
  }
}
layers {
  bottom: "conv4_1"
  top: "conv4_1"
  name: "relu4_1"
  type: RELU
}
layers {
  bottom: "conv4_1"
  top: "conv4_2"
  name: "conv4_2"
  type: CONVOLUTION
  convolution_param {
    num_output: 512
    pad: 1
    kernel_size: 3
    weight_filler {
      type: "gaussian"
      std: 0.01
    }
    bias_filler {
      type: "constant"
      value: 0
    }
  }
}
layers {
  bottom: "conv4_2"
  top: "conv4_2"
  name: "relu4_2"
  type: RELU
}
layers {
  bottom: "conv4_2"
  top: "conv4_3"
  name: "conv4_3"
  type: CONVOLUTION
  convolution_param {
    num_output: 512
    pad: 1
    kernel_size: 3
    weight_filler {
      type: "gaussian"
      std: 0.01
    }
    bias_filler {
      type: "constant"
      value: 0
    }
  }
}
layers {
  bottom: "conv4_3"
  top: "conv4_3"
  name: "relu4_3"
  type: RELU
}
layers {
  bottom: "conv4_3"
  top: "pool4"
  name: "pool4"
  type: POOLING
  pooling_param {
    pool: MAX
    kernel_size: 2
    stride: 2
  }
}
layers {
  bottom: "pool4"
  top: "conv5_1"
  name: "conv5_1"
  type: CONVOLUTION
  convolution_param {
    num_output: 512
    pad: 1
    kernel_size: 3
    weight_filler {
      type: "gaussian"
      std: 0.01
    }
    bias_filler {
      type: "constant"
      value: 0
    }
  }
}
layers {
  bottom: "conv5_1"
  top: "conv5_1"
  name: "relu5_1"
  type: RELU
}
layers {
  bottom: "conv5_1"
  top: "conv5_2"
  name: "conv5_2"
  type: CONVOLUTION
  convolution_param {
    num_output: 512
    pad: 1
    kernel_size: 3
    weight_filler {
      type: "gaussian"
      std: 0.01
    }
    bias_filler {
      type: "constant"
      value: 0
    }
  }
}
layers {
  bottom: "conv5_2"
  top: "conv5_2"
  name: "relu5_2"
  type: RELU
}
layers {
  bottom: "conv5_2"
  top: "conv5_3"
  name: "conv5_3"
  type: CONVOLUTION
  convolution_param {
    num_output: 512
    pad: 1
    kernel_size: 3
    weight_filler {
      type: "gaussian"
      std: 0.01
    }
    bias_filler {
      type: "constant"
      value: 0
    }
  }
}
layers {
  bottom: "conv5_3"
  top: "conv5_3"
  name: "relu5_3"
  type: RELU
}
layers {
  bottom: "conv5_3"
  top: "pool5"
  name: "pool5"
  type: POOLING
  pooling_param {
    pool: MAX
    kernel_size: 2
    stride: 2
  }
}
layers {
  bottom: "pool5"
  top: "fc6"
  name: "fc6"
  type: INNER_PRODUCT
  inner_product_param {
    num_output: 4096
    weight_filler {
      type: "gaussian"
      std: 0.01
    }
    bias_filler {
      type: "constant"
      value: 0
    }
  }
}
layers {
  bottom: "fc6"
  top: "fc6"
  name: "relu6"
  type: RELU
}
layers {
  bottom: "fc6"
  top: "fc6"
  name: "drop6"
  type: DROPOUT
  dropout_param {
    dropout_ratio: 0.5
  }
}
layers {
  bottom: "fc6"
  top: "fc7"
  name: "fc7"
  type: INNER_PRODUCT
  inner_product_param {
    num_output: 4096
    weight_filler {
      type: "gaussian"
      std: 0.01
    }
    bias_filler {
      type: "constant"
      value: 0
    }
  }
}
layers {
  bottom: "fc7"
  top: "fc7"
  name: "relu7"
  type: RELU
}
layers {
  bottom: "fc7"
  top: "fc7"
  name: "drop7"
  type: DROPOUT
  dropout_param {
    dropout_ratio: 0.5
  }
}
layers {
  bottom: "fc7"
  top: "fc8_2"
  name: "fc8_2"
  type: INNER_PRODUCT
  inner_product_param {
    num_output: 2
    weight_filler {
      type: "gaussian"
      std: 0.01
    }
    bias_filler {
      type: "constant"
      value: 0
    }
  }
}
layers {
  bottom: "fc8_2"
  bottom: "label"
  name: "loss"
  type: SOFTMAX_LOSS
}
state {
  phase: TRAIN
}
I1109 04:16:22.966724  4467 layer_factory.hpp:78] Creating layer data
I1109 04:16:22.967299  4467 net.cpp:67] Creating Layer data
I1109 04:16:22.967332  4467 net.cpp:356] data -> data
I1109 04:16:22.967376  4467 net.cpp:356] data -> label
I1109 04:16:22.967391  4467 net.cpp:96] Setting up data
I1109 04:16:22.967402  4467 image_data_layer.cpp:34] Opening file /data/ad6813/devCaffe/caffe/data/misal_o/train.txt
I1109 04:16:22.993984  4467 image_data_layer.cpp:49] A total of 8788 images.
I1109 04:16:23.234428  4467 image_data_layer.cpp:78] output data size: 5,3,224,224
I1109 04:16:23.235280  4467 net.cpp:103] Top shape: 5 3 224 224 (752640)
I1109 04:16:23.235297  4467 net.cpp:103] Top shape: 5 1 1 1 (5)
I1109 04:16:23.235306  4467 layer_factory.hpp:78] Creating layer conv1_1
I1109 04:16:23.235324  4467 net.cpp:67] Creating Layer conv1_1
I1109 04:16:23.235332  4467 net.cpp:394] conv1_1 <- data
I1109 04:16:23.235349  4467 net.cpp:356] conv1_1 -> conv1_1
I1109 04:16:23.235365  4467 net.cpp:96] Setting up conv1_1
I1109 04:16:23.235857  4467 net.cpp:103] Top shape: 5 64 224 224 (16056320)
I1109 04:16:23.235891  4467 layer_factory.hpp:78] Creating layer relu1_1
I1109 04:16:23.235903  4467 net.cpp:67] Creating Layer relu1_1
I1109 04:16:23.235909  4467 net.cpp:394] relu1_1 <- conv1_1
I1109 04:16:23.235918  4467 net.cpp:345] relu1_1 -> conv1_1 (in-place)
I1109 04:16:23.235927  4467 net.cpp:96] Setting up relu1_1
I1109 04:16:23.237270  4467 net.cpp:103] Top shape: 5 64 224 224 (16056320)
I1109 04:16:23.237305  4467 layer_factory.hpp:78] Creating layer conv1_2
I1109 04:16:23.237328  4467 net.cpp:67] Creating Layer conv1_2
I1109 04:16:23.237339  4467 net.cpp:394] conv1_2 <- conv1_1
I1109 04:16:23.237356  4467 net.cpp:356] conv1_2 -> conv1_2
I1109 04:16:23.237376  4467 net.cpp:96] Setting up conv1_2
I1109 04:16:23.239222  4467 net.cpp:103] Top shape: 5 64 224 224 (16056320)
I1109 04:16:23.239245  4467 layer_factory.hpp:78] Creating layer relu1_2
I1109 04:16:23.239256  4467 net.cpp:67] Creating Layer relu1_2
I1109 04:16:23.239262  4467 net.cpp:394] relu1_2 <- conv1_2
I1109 04:16:23.239271  4467 net.cpp:345] relu1_2 -> conv1_2 (in-place)
I1109 04:16:23.239280  4467 net.cpp:96] Setting up relu1_2
I1109 04:16:23.239286  4467 net.cpp:103] Top shape: 5 64 224 224 (16056320)
I1109 04:16:23.239291  4467 layer_factory.hpp:78] Creating layer pool1
I1109 04:16:23.239303  4467 net.cpp:67] Creating Layer pool1
I1109 04:16:23.239310  4467 net.cpp:394] pool1 <- conv1_2
I1109 04:16:23.239318  4467 net.cpp:356] pool1 -> pool1
I1109 04:16:23.239328  4467 net.cpp:96] Setting up pool1
I1109 04:16:23.239382  4467 net.cpp:103] Top shape: 5 64 112 112 (4014080)
I1109 04:16:23.239392  4467 layer_factory.hpp:78] Creating layer conv2_1
I1109 04:16:23.239401  4467 net.cpp:67] Creating Layer conv2_1
I1109 04:16:23.239416  4467 net.cpp:394] conv2_1 <- pool1
I1109 04:16:23.239426  4467 net.cpp:356] conv2_1 -> conv2_1
I1109 04:16:23.239437  4467 net.cpp:96] Setting up conv2_1
I1109 04:16:23.243026  4467 net.cpp:103] Top shape: 5 128 112 112 (8028160)
I1109 04:16:23.243051  4467 layer_factory.hpp:78] Creating layer relu2_1
I1109 04:16:23.243059  4467 net.cpp:67] Creating Layer relu2_1
I1109 04:16:23.243067  4467 net.cpp:394] relu2_1 <- conv2_1
I1109 04:16:23.243074  4467 net.cpp:345] relu2_1 -> conv2_1 (in-place)
I1109 04:16:23.243084  4467 net.cpp:96] Setting up relu2_1
I1109 04:16:23.243090  4467 net.cpp:103] Top shape: 5 128 112 112 (8028160)
I1109 04:16:23.243096  4467 layer_factory.hpp:78] Creating layer conv2_2
I1109 04:16:23.243106  4467 net.cpp:67] Creating Layer conv2_2
I1109 04:16:23.243111  4467 net.cpp:394] conv2_2 <- conv2_1
I1109 04:16:23.243120  4467 net.cpp:356] conv2_2 -> conv2_2
I1109 04:16:23.243129  4467 net.cpp:96] Setting up conv2_2
I1109 04:16:23.250335  4467 net.cpp:103] Top shape: 5 128 112 112 (8028160)
I1109 04:16:23.250360  4467 layer_factory.hpp:78] Creating layer relu2_2
I1109 04:16:23.250370  4467 net.cpp:67] Creating Layer relu2_2
I1109 04:16:23.250375  4467 net.cpp:394] relu2_2 <- conv2_2
I1109 04:16:23.250385  4467 net.cpp:345] relu2_2 -> conv2_2 (in-place)
I1109 04:16:23.250393  4467 net.cpp:96] Setting up relu2_2
I1109 04:16:23.250399  4467 net.cpp:103] Top shape: 5 128 112 112 (8028160)
I1109 04:16:23.250406  4467 layer_factory.hpp:78] Creating layer pool2
I1109 04:16:23.250422  4467 net.cpp:67] Creating Layer pool2
I1109 04:16:23.250429  4467 net.cpp:394] pool2 <- conv2_2
I1109 04:16:23.250437  4467 net.cpp:356] pool2 -> pool2
I1109 04:16:23.250447  4467 net.cpp:96] Setting up pool2
I1109 04:16:23.250454  4467 net.cpp:103] Top shape: 5 128 56 56 (2007040)
I1109 04:16:23.250460  4467 layer_factory.hpp:78] Creating layer conv3_1
I1109 04:16:23.250469  4467 net.cpp:67] Creating Layer conv3_1
I1109 04:16:23.250479  4467 net.cpp:394] conv3_1 <- pool2
I1109 04:16:23.250488  4467 net.cpp:356] conv3_1 -> conv3_1
I1109 04:16:23.250499  4467 net.cpp:96] Setting up conv3_1
I1109 04:16:23.264928  4467 net.cpp:103] Top shape: 5 256 56 56 (4014080)
I1109 04:16:23.264957  4467 layer_factory.hpp:78] Creating layer relu3_1
I1109 04:16:23.264966  4467 net.cpp:67] Creating Layer relu3_1
I1109 04:16:23.264973  4467 net.cpp:394] relu3_1 <- conv3_1
I1109 04:16:23.264982  4467 net.cpp:345] relu3_1 -> conv3_1 (in-place)
I1109 04:16:23.264991  4467 net.cpp:96] Setting up relu3_1
I1109 04:16:23.264997  4467 net.cpp:103] Top shape: 5 256 56 56 (4014080)
I1109 04:16:23.265002  4467 layer_factory.hpp:78] Creating layer conv3_2
I1109 04:16:23.265012  4467 net.cpp:67] Creating Layer conv3_2
I1109 04:16:23.265017  4467 net.cpp:394] conv3_2 <- conv3_1
I1109 04:16:23.265027  4467 net.cpp:356] conv3_2 -> conv3_2
I1109 04:16:23.265041  4467 net.cpp:96] Setting up conv3_2
I1109 04:16:23.293738  4467 net.cpp:103] Top shape: 5 256 56 56 (4014080)
I1109 04:16:23.293761  4467 layer_factory.hpp:78] Creating layer relu3_2
I1109 04:16:23.293771  4467 net.cpp:67] Creating Layer relu3_2
I1109 04:16:23.293777  4467 net.cpp:394] relu3_2 <- conv3_2
I1109 04:16:23.293787  4467 net.cpp:345] relu3_2 -> conv3_2 (in-place)
I1109 04:16:23.293794  4467 net.cpp:96] Setting up relu3_2
I1109 04:16:23.293802  4467 net.cpp:103] Top shape: 5 256 56 56 (4014080)
I1109 04:16:23.293807  4467 layer_factory.hpp:78] Creating layer conv3_3
I1109 04:16:23.293818  4467 net.cpp:67] Creating Layer conv3_3
I1109 04:16:23.293824  4467 net.cpp:394] conv3_3 <- conv3_2
I1109 04:16:23.293833  4467 net.cpp:356] conv3_3 -> conv3_3
I1109 04:16:23.293843  4467 net.cpp:96] Setting up conv3_3
I1109 04:16:23.322672  4467 net.cpp:103] Top shape: 5 256 56 56 (4014080)
I1109 04:16:23.322696  4467 layer_factory.hpp:78] Creating layer relu3_3
I1109 04:16:23.322711  4467 net.cpp:67] Creating Layer relu3_3
I1109 04:16:23.322718  4467 net.cpp:394] relu3_3 <- conv3_3
I1109 04:16:23.322726  4467 net.cpp:345] relu3_3 -> conv3_3 (in-place)
I1109 04:16:23.322736  4467 net.cpp:96] Setting up relu3_3
I1109 04:16:23.322741  4467 net.cpp:103] Top shape: 5 256 56 56 (4014080)
I1109 04:16:23.322747  4467 layer_factory.hpp:78] Creating layer pool3
I1109 04:16:23.322757  4467 net.cpp:67] Creating Layer pool3
I1109 04:16:23.322764  4467 net.cpp:394] pool3 <- conv3_3
I1109 04:16:23.322772  4467 net.cpp:356] pool3 -> pool3
I1109 04:16:23.322782  4467 net.cpp:96] Setting up pool3
I1109 04:16:23.322790  4467 net.cpp:103] Top shape: 5 256 28 28 (1003520)
I1109 04:16:23.322796  4467 layer_factory.hpp:78] Creating layer conv4_1
I1109 04:16:23.322805  4467 net.cpp:67] Creating Layer conv4_1
I1109 04:16:23.322810  4467 net.cpp:394] conv4_1 <- pool3
I1109 04:16:23.322821  4467 net.cpp:356] conv4_1 -> conv4_1
I1109 04:16:23.322831  4467 net.cpp:96] Setting up conv4_1
I1109 04:16:23.379956  4467 net.cpp:103] Top shape: 5 512 28 28 (2007040)
I1109 04:16:23.379992  4467 layer_factory.hpp:78] Creating layer relu4_1
I1109 04:16:23.380002  4467 net.cpp:67] Creating Layer relu4_1
I1109 04:16:23.380009  4467 net.cpp:394] relu4_1 <- conv4_1
I1109 04:16:23.380020  4467 net.cpp:345] relu4_1 -> conv4_1 (in-place)
I1109 04:16:23.380030  4467 net.cpp:96] Setting up relu4_1
I1109 04:16:23.380036  4467 net.cpp:103] Top shape: 5 512 28 28 (2007040)
I1109 04:16:23.380043  4467 layer_factory.hpp:78] Creating layer conv4_2
I1109 04:16:23.380054  4467 net.cpp:67] Creating Layer conv4_2
I1109 04:16:23.380060  4467 net.cpp:394] conv4_2 <- conv4_1
I1109 04:16:23.380069  4467 net.cpp:356] conv4_2 -> conv4_2
I1109 04:16:23.380091  4467 net.cpp:96] Setting up conv4_2
I1109 04:16:23.493700  4467 net.cpp:103] Top shape: 5 512 28 28 (2007040)
I1109 04:16:23.493746  4467 layer_factory.hpp:78] Creating layer relu4_2
I1109 04:16:23.493762  4467 net.cpp:67] Creating Layer relu4_2
I1109 04:16:23.493770  4467 net.cpp:394] relu4_2 <- conv4_2
I1109 04:16:23.493782  4467 net.cpp:345] relu4_2 -> conv4_2 (in-place)
I1109 04:16:23.493793  4467 net.cpp:96] Setting up relu4_2
I1109 04:16:23.493799  4467 net.cpp:103] Top shape: 5 512 28 28 (2007040)
I1109 04:16:23.493804  4467 layer_factory.hpp:78] Creating layer conv4_3
I1109 04:16:23.493814  4467 net.cpp:67] Creating Layer conv4_3
I1109 04:16:23.493820  4467 net.cpp:394] conv4_3 <- conv4_2
I1109 04:16:23.493834  4467 net.cpp:356] conv4_3 -> conv4_3
I1109 04:16:23.493845  4467 net.cpp:96] Setting up conv4_3
I1109 04:16:23.607758  4467 net.cpp:103] Top shape: 5 512 28 28 (2007040)
I1109 04:16:23.607795  4467 layer_factory.hpp:78] Creating layer relu4_3
I1109 04:16:23.607807  4467 net.cpp:67] Creating Layer relu4_3
I1109 04:16:23.607815  4467 net.cpp:394] relu4_3 <- conv4_3
I1109 04:16:23.607826  4467 net.cpp:345] relu4_3 -> conv4_3 (in-place)
I1109 04:16:23.607837  4467 net.cpp:96] Setting up relu4_3
I1109 04:16:23.607844  4467 net.cpp:103] Top shape: 5 512 28 28 (2007040)
I1109 04:16:23.607851  4467 layer_factory.hpp:78] Creating layer pool4
I1109 04:16:23.607859  4467 net.cpp:67] Creating Layer pool4
I1109 04:16:23.607866  4467 net.cpp:394] pool4 <- conv4_3
I1109 04:16:23.607874  4467 net.cpp:356] pool4 -> pool4
I1109 04:16:23.607884  4467 net.cpp:96] Setting up pool4
I1109 04:16:23.607893  4467 net.cpp:103] Top shape: 5 512 14 14 (501760)
I1109 04:16:23.607899  4467 layer_factory.hpp:78] Creating layer conv5_1
I1109 04:16:23.607909  4467 net.cpp:67] Creating Layer conv5_1
I1109 04:16:23.607914  4467 net.cpp:394] conv5_1 <- pool4
I1109 04:16:23.607926  4467 net.cpp:356] conv5_1 -> conv5_1
I1109 04:16:23.607940  4467 net.cpp:96] Setting up conv5_1
I1109 04:16:23.721053  4467 net.cpp:103] Top shape: 5 512 14 14 (501760)
I1109 04:16:23.721091  4467 layer_factory.hpp:78] Creating layer relu5_1
I1109 04:16:23.721103  4467 net.cpp:67] Creating Layer relu5_1
I1109 04:16:23.721112  4467 net.cpp:394] relu5_1 <- conv5_1
I1109 04:16:23.721122  4467 net.cpp:345] relu5_1 -> conv5_1 (in-place)
I1109 04:16:23.721133  4467 net.cpp:96] Setting up relu5_1
I1109 04:16:23.721140  4467 net.cpp:103] Top shape: 5 512 14 14 (501760)
I1109 04:16:23.721145  4467 layer_factory.hpp:78] Creating layer conv5_2
I1109 04:16:23.721155  4467 net.cpp:67] Creating Layer conv5_2
I1109 04:16:23.721161  4467 net.cpp:394] conv5_2 <- conv5_1
I1109 04:16:23.721170  4467 net.cpp:356] conv5_2 -> conv5_2
I1109 04:16:23.721181  4467 net.cpp:96] Setting up conv5_2
I1109 04:16:23.834530  4467 net.cpp:103] Top shape: 5 512 14 14 (501760)
I1109 04:16:23.834569  4467 layer_factory.hpp:78] Creating layer relu5_2
I1109 04:16:23.834583  4467 net.cpp:67] Creating Layer relu5_2
I1109 04:16:23.834590  4467 net.cpp:394] relu5_2 <- conv5_2
I1109 04:16:23.834604  4467 net.cpp:345] relu5_2 -> conv5_2 (in-place)
I1109 04:16:23.834615  4467 net.cpp:96] Setting up relu5_2
I1109 04:16:23.834621  4467 net.cpp:103] Top shape: 5 512 14 14 (501760)
I1109 04:16:23.834628  4467 layer_factory.hpp:78] Creating layer conv5_3
I1109 04:16:23.834638  4467 net.cpp:67] Creating Layer conv5_3
I1109 04:16:23.834645  4467 net.cpp:394] conv5_3 <- conv5_2
I1109 04:16:23.834653  4467 net.cpp:356] conv5_3 -> conv5_3
I1109 04:16:23.834663  4467 net.cpp:96] Setting up conv5_3
I1109 04:16:23.948079  4467 net.cpp:103] Top shape: 5 512 14 14 (501760)
I1109 04:16:23.948115  4467 layer_factory.hpp:78] Creating layer relu5_3
I1109 04:16:23.948128  4467 net.cpp:67] Creating Layer relu5_3
I1109 04:16:23.948137  4467 net.cpp:394] relu5_3 <- conv5_3
I1109 04:16:23.948148  4467 net.cpp:345] relu5_3 -> conv5_3 (in-place)
I1109 04:16:23.948158  4467 net.cpp:96] Setting up relu5_3
I1109 04:16:23.948164  4467 net.cpp:103] Top shape: 5 512 14 14 (501760)
I1109 04:16:23.948182  4467 layer_factory.hpp:78] Creating layer pool5
I1109 04:16:23.948192  4467 net.cpp:67] Creating Layer pool5
I1109 04:16:23.948197  4467 net.cpp:394] pool5 <- conv5_3
I1109 04:16:23.948210  4467 net.cpp:356] pool5 -> pool5
I1109 04:16:23.948220  4467 net.cpp:96] Setting up pool5
I1109 04:16:23.948230  4467 net.cpp:103] Top shape: 5 512 7 7 (125440)
I1109 04:16:23.948235  4467 layer_factory.hpp:78] Creating layer fc6
I1109 04:16:23.948254  4467 net.cpp:67] Creating Layer fc6
I1109 04:16:23.948261  4467 net.cpp:394] fc6 <- pool5
I1109 04:16:23.948271  4467 net.cpp:356] fc6 -> fc6
I1109 04:16:23.948281  4467 net.cpp:96] Setting up fc6
I1109 04:16:28.852171  4467 net.cpp:103] Top shape: 5 4096 1 1 (20480)
I1109 04:16:28.852218  4467 layer_factory.hpp:78] Creating layer relu6
I1109 04:16:28.852231  4467 net.cpp:67] Creating Layer relu6
I1109 04:16:28.852239  4467 net.cpp:394] relu6 <- fc6
I1109 04:16:28.852253  4467 net.cpp:345] relu6 -> fc6 (in-place)
I1109 04:16:28.852264  4467 net.cpp:96] Setting up relu6
I1109 04:16:28.852272  4467 net.cpp:103] Top shape: 5 4096 1 1 (20480)
I1109 04:16:28.852278  4467 layer_factory.hpp:78] Creating layer drop6
I1109 04:16:28.852296  4467 net.cpp:67] Creating Layer drop6
I1109 04:16:28.852303  4467 net.cpp:394] drop6 <- fc6
I1109 04:16:28.852310  4467 net.cpp:345] drop6 -> fc6 (in-place)
I1109 04:16:28.852319  4467 net.cpp:96] Setting up drop6
I1109 04:16:28.852326  4467 net.cpp:103] Top shape: 5 4096 1 1 (20480)
I1109 04:16:28.852331  4467 layer_factory.hpp:78] Creating layer fc7
I1109 04:16:28.852341  4467 net.cpp:67] Creating Layer fc7
I1109 04:16:28.852347  4467 net.cpp:394] fc7 <- fc6
I1109 04:16:28.852355  4467 net.cpp:356] fc7 -> fc7
I1109 04:16:28.852365  4467 net.cpp:96] Setting up fc7
I1109 04:16:29.653965  4467 net.cpp:103] Top shape: 5 4096 1 1 (20480)
I1109 04:16:29.654011  4467 layer_factory.hpp:78] Creating layer relu7
I1109 04:16:29.654028  4467 net.cpp:67] Creating Layer relu7
I1109 04:16:29.654037  4467 net.cpp:394] relu7 <- fc7
I1109 04:16:29.654047  4467 net.cpp:345] relu7 -> fc7 (in-place)
I1109 04:16:29.654059  4467 net.cpp:96] Setting up relu7
I1109 04:16:29.654065  4467 net.cpp:103] Top shape: 5 4096 1 1 (20480)
I1109 04:16:29.654072  4467 layer_factory.hpp:78] Creating layer drop7
I1109 04:16:29.654083  4467 net.cpp:67] Creating Layer drop7
I1109 04:16:29.654089  4467 net.cpp:394] drop7 <- fc7
I1109 04:16:29.654096  4467 net.cpp:345] drop7 -> fc7 (in-place)
I1109 04:16:29.654105  4467 net.cpp:96] Setting up drop7
I1109 04:16:29.654113  4467 net.cpp:103] Top shape: 5 4096 1 1 (20480)
I1109 04:16:29.654117  4467 layer_factory.hpp:78] Creating layer fc8_2
I1109 04:16:29.654126  4467 net.cpp:67] Creating Layer fc8_2
I1109 04:16:29.654132  4467 net.cpp:394] fc8_2 <- fc7
I1109 04:16:29.654140  4467 net.cpp:356] fc8_2 -> fc8_2
I1109 04:16:29.654151  4467 net.cpp:96] Setting up fc8_2
I1109 04:16:29.654566  4467 net.cpp:103] Top shape: 5 2 1 1 (10)
I1109 04:16:29.654582  4467 layer_factory.hpp:78] Creating layer loss
I1109 04:16:29.654602  4467 net.cpp:67] Creating Layer loss
I1109 04:16:29.654608  4467 net.cpp:394] loss <- fc8_2
I1109 04:16:29.654615  4467 net.cpp:394] loss <- label
I1109 04:16:29.654626  4467 net.cpp:356] loss -> (automatic)
I1109 04:16:29.654634  4467 net.cpp:96] Setting up loss
I1109 04:16:29.654649  4467 net.cpp:103] Top shape: 1 1 1 1 (1)
I1109 04:16:29.654654  4467 net.cpp:109]     with loss weight 1
I1109 04:16:29.654695  4467 net.cpp:170] loss needs backward computation.
I1109 04:16:29.654700  4467 net.cpp:170] fc8_2 needs backward computation.
I1109 04:16:29.654706  4467 net.cpp:170] drop7 needs backward computation.
I1109 04:16:29.654711  4467 net.cpp:170] relu7 needs backward computation.
I1109 04:16:29.654716  4467 net.cpp:170] fc7 needs backward computation.
…
I1109 04:16:29.656566  4467 net.cpp:275] The NetState phase (1) differed from the phase (0) specified by a rule in layer data
I1109 04:16:29.656977  4467 net.cpp:39] Initializing net from parameters: 
name: "small"
layers {
  top: "data"
  top: "label"
  name: "data"
  type: IMAGE_DATA
  image_data_param {
    source: "/data/ad6813/devCaffe/caffe/data/misal_o/val.txt"
    batch_size: 1
    new_height: 256
    new_width: 256
  }
  include {
    phase: TEST
  }
  transform_param {
    mirror: true
    crop_size: 224
    mean_value: 86.752
    mean_value: 101.46
    mean_value: 104.6
  }
}
layers {
  bottom: "data"
  top: "conv1_1"
  name: "conv1_1"
  type: CONVOLUTION
  convolution_param {
    num_output: 64
    pad: 1
    kernel_size: 3
    weight_filler {
      type: "gaussian"
      std: 0.01
    }
    bias_filler {
      type: "constant"
      value: 0
    }
  }
}
layers {
  bottom: "conv1_1"
  top: "conv1_1"
  name: "relu1_1"
  type: RELU
}
layers {
  bottom: "conv1_1"
  top: "conv1_2"
  name: "conv1_2"
  type: CONVOLUTION
  convolution_param {
    num_output: 64
    pad: 1
    kernel_size: 3
    weight_filler {
      type: "gaussian"
      std: 0.01
    }
    bias_filler {
      type: "constant"
      value: 0
    }
  }
}
layers {
  bottom: "conv1_2"
  top: "conv1_2"
  name: "relu1_2"
  type: RELU
}
layers {
  bottom: "conv1_2"
  top: "pool1"
  name: "pool1"
  type: POOLING
  pooling_param {
    pool: MAX
    kernel_size: 2
    stride: 2
  }
}
layers {
  bottom: "pool1"
  top: "conv2_1"
  name: "conv2_1"
  type: CONVOLUTION
  convolution_param {
    num_output: 128
    pad: 1
    kernel_size: 3
    weight_filler {
      type: "gaussian"
      std: 0.01
    }
    bias_filler {
      type: "constant"
      value: 0
    }
  }
}
layers {
  bottom: "conv2_1"
  top: "conv2_1"
  name: "relu2_1"
  type: RELU
}
layers {
  bottom: "conv2_1"
  top: "conv2_2"
  name: "conv2_2"
  type: CONVOLUTION
  convolution_param {
    num_output: 128
    pad: 1
    kernel_size: 3
    weight_filler {
      type: "gaussian"
      std: 0.01
    }
    bias_filler {
      type: "constant"
      value: 0
    }
  }
}
layers {
  bottom: "conv2_2"
  top: "conv2_2"
  name: "relu2_2"
  type: RELU
}
layers {
  bottom: "conv2_2"
  top: "pool2"
  name: "pool2"
  type: POOLING
  pooling_param {
    pool: MAX
    kernel_size: 2
    stride: 2
  }
}
layers {
  bottom: "pool2"
  top: "conv3_1"
  name: "conv3_1"
  type: CONVOLUTION
  convolution_param {
    num_output: 256
    pad: 1
    kernel_size: 3
    weight_filler {
      type: "gaussian"
      std: 0.01
    }
    bias_filler {
      type: "constant"
      value: 0
    }
  }
}
layers {
  bottom: "conv3_1"
  top: "conv3_1"
  name: "relu3_1"
  type: RELU
}
layers {
  bottom: "conv3_1"
  top: "conv3_2"
  name: "conv3_2"
  type: CONVOLUTION
  convolution_param {
    num_output: 256
    pad: 1
    kernel_size: 3
    weight_filler {
      type: "gaussian"
      std: 0.01
    }
    bias_filler {
      type: "constant"
      value: 0
    }
  }
}
layers {
  bottom: "conv3_2"
  top: "conv3_2"
  name: "relu3_2"
  type: RELU
}
layers {
  bottom: "conv3_2"
  top: "conv3_3"
  name: "conv3_3"
  type: CONVOLUTION
  convolution_param {
    num_output: 256
    pad: 1
    kernel_size: 3
    weight_filler {
      type: "gaussian"
      std: 0.01
    }
    bias_filler {
      type: "constant"
      value: 0
    }
  }
}
layers {
  bottom: "conv3_3"
  top: "conv3_3"
  name: "relu3_3"
  type: RELU
}
layers {
  bottom: "conv3_3"
  top: "pool3"
  name: "pool3"
  type: POOLING
  pooling_param {
    pool: MAX
    kernel_size: 2
    stride: 2
  }
}
layers {
  bottom: "pool3"
  top: "conv4_1"
  name: "conv4_1"
  type: CONVOLUTION
  convolution_param {
    num_output: 512
    pad: 1
    kernel_size: 3
    weight_filler {
      type: "gaussian"
      std: 0.01
    }
    bias_filler {
      type: "constant"
      value: 0
    }
  }
}
layers {
  bottom: "conv4_1"
  top: "conv4_1"
  name: "relu4_1"
  type: RELU
}
layers {
  bottom: "conv4_1"
  top: "conv4_2"
  name: "conv4_2"
  type: CONVOLUTION
  convolution_param {
    num_output: 512
    pad: 1
    kernel_size: 3
    weight_filler {
      type: "gaussian"
      std: 0.01
    }
    bias_filler {
      type: "constant"
      value: 0
    }
  }
}
layers {
  bottom: "conv4_2"
  top: "conv4_2"
  name: "relu4_2"
  type: RELU
}
layers {
  bottom: "conv4_2"
  top: "conv4_3"
  name: "conv4_3"
  type: CONVOLUTION
  convolution_param {
    num_output: 512
    pad: 1
    kernel_size: 3
    weight_filler {
      type: "gaussian"
      std: 0.01
    }
    bias_filler {
      type: "constant"
      value: 0
    }
  }
}
layers {
  bottom: "conv4_3"
  top: "conv4_3"
  name: "relu4_3"
  type: RELU
}
layers {
  bottom: "conv4_3"
  top: "pool4"
  name: "pool4"
  type: POOLING
  pooling_param {
    pool: MAX
    kernel_size: 2
    stride: 2
  }
}
layers {
  bottom: "pool4"
  top: "conv5_1"
  name: "conv5_1"
  type: CONVOLUTION
  convolution_param {
    num_output: 512
    pad: 1
    kernel_size: 3
    weight_filler {
      type: "gaussian"
      std: 0.01
    }
    bias_filler {
      type: "constant"
      value: 0
    }
  }
}
layers {
  bottom: "conv5_1"
  top: "conv5_1"
  name: "relu5_1"
  type: RELU
}
layers {
  bottom: "conv5_1"
  top: "conv5_2"
  name: "conv5_2"
  type: CONVOLUTION
  convolution_param {
    num_output: 512
    pad: 1
    kernel_size: 3
    weight_filler {
      type: "gaussian"
      std: 0.01
    }
    bias_filler {
      type: "constant"
      value: 0
    }
  }
}
layers {
  bottom: "conv5_2"
  top: "conv5_2"
  name: "relu5_2"
  type: RELU
}
layers {
  bottom: "conv5_2"
  top: "conv5_3"
  name: "conv5_3"
  type: CONVOLUTION
  convolution_param {
    num_output: 512
    pad: 1
    kernel_size: 3
    weight_filler {
      type: "gaussian"
      std: 0.01
    }
    bias_filler {
      type: "constant"
      value: 0
    }
  }
}
layers {
  bottom: "conv5_3"
  top: "conv5_3"
  name: "relu5_3"
  type: RELU
}
layers {
  bottom: "conv5_3"
  top: "pool5"
  name: "pool5"
  type: POOLING
  pooling_param {
    pool: MAX
    kernel_size: 2
    stride: 2
  }
}
layers {
  bottom: "pool5"
  top: "fc6"
  name: "fc6"
  type: INNER_PRODUCT
  inner_product_param {
    num_output: 4096
    weight_filler {
      type: "gaussian"
      std: 0.01
    }
    bias_filler {
      type: "constant"
      value: 0
    }
  }
}
layers {
  bottom: "fc6"
  top: "fc6"
  name: "relu6"
  type: RELU
}
layers {
  bottom: "fc6"
  top: "fc6"
  name: "drop6"
  type: DROPOUT
  dropout_param {
    dropout_ratio: 0.5
  }
}
layers {
  bottom: "fc6"
  top: "fc7"
  name: "fc7"
  type: INNER_PRODUCT
  inner_product_param {
    num_output: 4096
    weight_filler {
      type: "gaussian"
      std: 0.01
    }
    bias_filler {
      type: "constant"
      value: 0
    }
  }
}
layers {
  bottom: "fc7"
  top: "fc7"
  name: "relu7"
  type: RELU
}
layers {
  bottom: "fc7"
  top: "fc7"
  name: "drop7"
  type: DROPOUT
  dropout_param {
    dropout_ratio: 0.5
  }
}
layers {
  bottom: "fc7"
  top: "fc8_2"
  name: "fc8_2"
  type: INNER_PRODUCT
  inner_product_param {
    num_output: 2
    weight_filler {
      type: "gaussian"
      std: 0.01
    }
    bias_filler {
      type: "constant"
      value: 0
    }
  }
}
layers {
  bottom: "fc8_2"
  bottom: "label"
  name: "loss"
  type: SOFTMAX_LOSS
}
layers {
  bottom: "fc8_2"
  bottom: "label"
  top: "accuracy"
  name: "accuracy"
  type: PER_CLASS_ACCURACY
  include {
    phase: TEST
  }
}
state {
  phase: TEST
}
I1109 04:16:29.657209  4467 layer_factory.hpp:78] Creating layer data
I1109 04:16:29.657227  4467 net.cpp:67] Creating Layer data
I1109 04:16:29.657235  4467 net.cpp:356] data -> data
I1109 04:16:29.657248  4467 net.cpp:356] data -> label
I1109 04:16:29.657259  4467 net.cpp:96] Setting up data
I1109 04:16:29.657266  4467 image_data_layer.cpp:34] Opening file /data/ad6813/devCaffe/caffe/data/misal_o/val.txt
I1109 04:16:29.678515  4467 image_data_layer.cpp:49] A total of 137 images.
I1109 04:16:29.821566  4467 image_data_layer.cpp:78] output data size: 1,3,224,224
I1109 04:16:29.821838  4467 net.cpp:103] Top shape: 1 3 224 224 (150528)
I1109 04:16:29.821856  4467 net.cpp:103] Top shape: 1 1 1 1 (1)
I1109 04:16:29.821864  4467 layer_factory.hpp:78] Creating layer label_data_1_split
I1109 04:16:29.821884  4467 net.cpp:67] Creating Layer label_data_1_split
I1109 04:16:29.821892  4467 net.cpp:394] label_data_1_split <- label
I1109 04:16:29.821903  4467 net.cpp:356] label_data_1_split -> label_data_1_split_0
I1109 04:16:29.821919  4467 net.cpp:356] label_data_1_split -> label_data_1_split_1
I1109 04:16:29.821929  4467 net.cpp:96] Setting up label_data_1_split
I1109 04:16:29.821938  4467 net.cpp:103] Top shape: 1 1 1 1 (1)
I1109 04:16:29.821943  4467 net.cpp:103] Top shape: 1 1 1 1 (1)
I1109 04:16:29.821949  4467 layer_factory.hpp:78] Creating layer conv1_1
I1109 04:16:29.821961  4467 net.cpp:67] Creating Layer conv1_1
I1109 04:16:29.821967  4467 net.cpp:394] conv1_1 <- data
I1109 04:16:29.821976  4467 net.cpp:356] conv1_1 -> conv1_1
I1109 04:16:29.821987  4467 net.cpp:96] Setting up conv1_1
I1109 04:16:29.822302  4467 net.cpp:103] Top shape: 1 64 224 224 (3211264)
I1109 04:16:29.822330  4467 layer_factory.hpp:78] Creating layer relu1_1
I1109 04:16:29.822347  4467 net.cpp:67] Creating Layer relu1_1
I1109 04:16:29.822355  4467 net.cpp:394] relu1_1 <- conv1_1
I1109 04:16:29.822365  4467 net.cpp:345] relu1_1 -> conv1_1 (in-place)
I1109 04:16:29.822373  4467 net.cpp:96] Setting up relu1_1
I1109 04:16:29.822381  4467 net.cpp:103] Top shape: 1 64 224 224 (3211264)
I1109 04:16:29.822396  4467 layer_factory.hpp:78] Creating layer conv1_2
I1109 04:16:29.822409  4467 net.cpp:67] Creating Layer conv1_2
I1109 04:16:29.822415  4467 net.cpp:394] conv1_2 <- conv1_1
I1109 04:16:29.822424  4467 net.cpp:356] conv1_2 -> conv1_2
I1109 04:16:29.822434  4467 net.cpp:96] Setting up conv1_2
I1109 04:16:29.824383  4467 net.cpp:103] Top shape: 1 64 224 224 (3211264)
I1109 04:16:29.824406  4467 layer_factory.hpp:78] Creating layer relu1_2
I1109 04:16:29.824419  4467 net.cpp:67] Creating Layer relu1_2
I1109 04:16:29.824425  4467 net.cpp:394] relu1_2 <- conv1_2
I1109 04:16:29.824434  4467 net.cpp:345] relu1_2 -> conv1_2 (in-place)
I1109 04:16:29.824442  4467 net.cpp:96] Setting up relu1_2
I1109 04:16:29.824448  4467 net.cpp:103] Top shape: 1 64 224 224 (3211264)
I1109 04:16:29.824455  4467 layer_factory.hpp:78] Creating layer pool1
I1109 04:16:29.824463  4467 net.cpp:67] Creating Layer pool1
I1109 04:16:29.824468  4467 net.cpp:394] pool1 <- conv1_2
I1109 04:16:29.824481  4467 net.cpp:356] pool1 -> pool1
I1109 04:16:29.824491  4467 net.cpp:96] Setting up pool1
I1109 04:16:29.824501  4467 net.cpp:103] Top shape: 1 64 112 112 (802816)
I1109 04:16:29.824506  4467 layer_factory.hpp:78] Creating layer conv2_1
I1109 04:16:29.824515  4467 net.cpp:67] Creating Layer conv2_1
I1109 04:16:29.824520  4467 net.cpp:394] conv2_1 <- pool1
I1109 04:16:29.824532  4467 net.cpp:356] conv2_1 -> conv2_1
I1109 04:16:29.824542  4467 net.cpp:96] Setting up conv2_1
I1109 04:16:29.828191  4467 net.cpp:103] Top shape: 1 128 112 112 (1605632)
I1109 04:16:29.828214  4467 layer_factory.hpp:78] Creating layer relu2_1
I1109 04:16:29.828224  4467 net.cpp:67] Creating Layer relu2_1
I1109 04:16:29.828230  4467 net.cpp:394] relu2_1 <- conv2_1
I1109 04:16:29.828243  4467 net.cpp:345] relu2_1 -> conv2_1 (in-place)
I1109 04:16:29.828251  4467 net.cpp:96] Setting up relu2_1
I1109 04:16:29.828258  4467 net.cpp:103] Top shape: 1 128 112 112 (1605632)
I1109 04:16:29.828263  4467 layer_factory.hpp:78] Creating layer conv2_2
I1109 04:16:29.828272  4467 net.cpp:67] Creating Layer conv2_2
I1109 04:16:29.828277  4467 net.cpp:394] conv2_2 <- conv2_1
I1109 04:16:29.828289  4467 net.cpp:356] conv2_2 -> conv2_2
I1109 04:16:29.828299  4467 net.cpp:96] Setting up conv2_2
I1109 04:16:29.835530  4467 net.cpp:103] Top shape: 1 128 112 112 (1605632)
I1109 04:16:29.835558  4467 layer_factory.hpp:78] Creating layer relu2_2
I1109 04:16:29.835567  4467 net.cpp:67] Creating Layer relu2_2
I1109 04:16:29.835574  4467 net.cpp:394] relu2_2 <- conv2_2
I1109 04:16:29.835582  4467 net.cpp:345] relu2_2 -> conv2_2 (in-place)
I1109 04:16:29.835592  4467 net.cpp:96] Setting up relu2_2
I1109 04:16:29.835598  4467 net.cpp:103] Top shape: 1 128 112 112 (1605632)
I1109 04:16:29.835604  4467 layer_factory.hpp:78] Creating layer pool2
I1109 04:16:29.835615  4467 net.cpp:67] Creating Layer pool2
I1109 04:16:29.835621  4467 net.cpp:394] pool2 <- conv2_2
I1109 04:16:29.835630  4467 net.cpp:356] pool2 -> pool2
I1109 04:16:29.835639  4467 net.cpp:96] Setting up pool2
I1109 04:16:29.835647  4467 net.cpp:103] Top shape: 1 128 56 56 (401408)
I1109 04:16:29.835654  4467 layer_factory.hpp:78] Creating layer conv3_1
I1109 04:16:29.835664  4467 net.cpp:67] Creating Layer conv3_1
I1109 04:16:29.835669  4467 net.cpp:394] conv3_1 <- pool2
I1109 04:16:29.835680  4467 net.cpp:356] conv3_1 -> conv3_1
I1109 04:16:29.835690  4467 net.cpp:96] Setting up conv3_1
I1109 04:16:29.850028  4467 net.cpp:103] Top shape: 1 256 56 56 (802816)
I1109 04:16:29.850060  4467 layer_factory.hpp:78] Creating layer relu3_1
I1109 04:16:29.850070  4467 net.cpp:67] Creating Layer relu3_1
I1109 04:16:29.850077  4467 net.cpp:394] relu3_1 <- conv3_1
I1109 04:16:29.850091  4467 net.cpp:345] relu3_1 -> conv3_1 (in-place)
I1109 04:16:29.850101  4467 net.cpp:96] Setting up relu3_1
I1109 04:16:29.850107  4467 net.cpp:103] Top shape: 1 256 56 56 (802816)
I1109 04:16:29.850113  4467 layer_factory.hpp:78] Creating layer conv3_2
I1109 04:16:29.850122  4467 net.cpp:67] Creating Layer conv3_2
I1109 04:16:29.850141  4467 net.cpp:394] conv3_2 <- conv3_1
I1109 04:16:29.850152  4467 net.cpp:356] conv3_2 -> conv3_2
I1109 04:16:29.850162  4467 net.cpp:96] Setting up conv3_2
I1109 04:16:29.878921  4467 net.cpp:103] Top shape: 1 256 56 56 (802816)
I1109 04:16:29.878962  4467 layer_factory.hpp:78] Creating layer relu3_2
I1109 04:16:29.878976  4467 net.cpp:67] Creating Layer relu3_2
I1109 04:16:29.878985  4467 net.cpp:394] relu3_2 <- conv3_2
I1109 04:16:29.878995  4467 net.cpp:345] relu3_2 -> conv3_2 (in-place)
I1109 04:16:29.879006  4467 net.cpp:96] Setting up relu3_2
I1109 04:16:29.879014  4467 net.cpp:103] Top shape: 1 256 56 56 (802816)
I1109 04:16:29.879019  4467 layer_factory.hpp:78] Creating layer conv3_3
I1109 04:16:29.879035  4467 net.cpp:67] Creating Layer conv3_3
I1109 04:16:29.879041  4467 net.cpp:394] conv3_3 <- conv3_2
I1109 04:16:29.879051  4467 net.cpp:356] conv3_3 -> conv3_3
I1109 04:16:29.879061  4467 net.cpp:96] Setting up conv3_3
I1109 04:16:29.907788  4467 net.cpp:103] Top shape: 1 256 56 56 (802816)
I1109 04:16:29.907812  4467 layer_factory.hpp:78] Creating layer relu3_3
I1109 04:16:29.907824  4467 net.cpp:67] Creating Layer relu3_3
I1109 04:16:29.907830  4467 net.cpp:394] relu3_3 <- conv3_3
I1109 04:16:29.907840  4467 net.cpp:345] relu3_3 -> conv3_3 (in-place)
I1109 04:16:29.907848  4467 net.cpp:96] Setting up relu3_3
I1109 04:16:29.907855  4467 net.cpp:103] Top shape: 1 256 56 56 (802816)
I1109 04:16:29.907860  4467 layer_factory.hpp:78] Creating layer pool3
I1109 04:16:29.907870  4467 net.cpp:67] Creating Layer pool3
I1109 04:16:29.907874  4467 net.cpp:394] pool3 <- conv3_3
I1109 04:16:29.907883  4467 net.cpp:356] pool3 -> pool3
I1109 04:16:29.907892  4467 net.cpp:96] Setting up pool3
I1109 04:16:29.907902  4467 net.cpp:103] Top shape: 1 256 28 28 (200704)
I1109 04:16:29.907907  4467 layer_factory.hpp:78] Creating layer conv4_1
I1109 04:16:29.907918  4467 net.cpp:67] Creating Layer conv4_1
I1109 04:16:29.907924  4467 net.cpp:394] conv4_1 <- pool3
I1109 04:16:29.907935  4467 net.cpp:356] conv4_1 -> conv4_1
I1109 04:16:29.907945  4467 net.cpp:96] Setting up conv4_1
I1109 04:16:29.964630  4467 net.cpp:103] Top shape: 1 512 28 28 (401408)
I1109 04:16:29.964661  4467 layer_factory.hpp:78] Creating layer relu4_1
I1109 04:16:29.964674  4467 net.cpp:67] Creating Layer relu4_1
I1109 04:16:29.964681  4467 net.cpp:394] relu4_1 <- conv4_1
I1109 04:16:29.964691  4467 net.cpp:345] relu4_1 -> conv4_1 (in-place)
I1109 04:16:29.964701  4467 net.cpp:96] Setting up relu4_1
I1109 04:16:29.964709  4467 net.cpp:103] Top shape: 1 512 28 28 (401408)
I1109 04:16:29.964714  4467 layer_factory.hpp:78] Creating layer conv4_2
I1109 04:16:29.964726  4467 net.cpp:67] Creating Layer conv4_2
I1109 04:16:29.964732  4467 net.cpp:394] conv4_2 <- conv4_1
I1109 04:16:29.964741  4467 net.cpp:356] conv4_2 -> conv4_2
I1109 04:16:29.964751  4467 net.cpp:96] Setting up conv4_2
I1109 04:16:30.077919  4467 net.cpp:103] Top shape: 1 512 28 28 (401408)
I1109 04:16:30.077968  4467 layer_factory.hpp:78] Creating layer relu4_2
I1109 04:16:30.077983  4467 net.cpp:67] Creating Layer relu4_2
I1109 04:16:30.077992  4467 net.cpp:394] relu4_2 <- conv4_2
I1109 04:16:30.078003  4467 net.cpp:345] relu4_2 -> conv4_2 (in-place)
I1109 04:16:30.078014  4467 net.cpp:96] Setting up relu4_2
I1109 04:16:30.078022  4467 net.cpp:103] Top shape: 1 512 28 28 (401408)
I1109 04:16:30.078027  4467 layer_factory.hpp:78] Creating layer conv4_3
I1109 04:16:30.078037  4467 net.cpp:67] Creating Layer conv4_3
I1109 04:16:30.078043  4467 net.cpp:394] conv4_3 <- conv4_2
I1109 04:16:30.078053  4467 net.cpp:356] conv4_3 -> conv4_3
I1109 04:16:30.078068  4467 net.cpp:96] Setting up conv4_3
I1109 04:16:30.191545  4467 net.cpp:103] Top shape: 1 512 28 28 (401408)
I1109 04:16:30.191584  4467 layer_factory.hpp:78] Creating layer relu4_3
I1109 04:16:30.191597  4467 net.cpp:67] Creating Layer relu4_3
I1109 04:16:30.191604  4467 net.cpp:394] relu4_3 <- conv4_3
I1109 04:16:30.191615  4467 net.cpp:345] relu4_3 -> conv4_3 (in-place)
I1109 04:16:30.191627  4467 net.cpp:96] Setting up relu4_3
I1109 04:16:30.191645  4467 net.cpp:103] Top shape: 1 512 28 28 (401408)
I1109 04:16:30.191653  4467 layer_factory.hpp:78] Creating layer pool4
I1109 04:16:30.191664  4467 net.cpp:67] Creating Layer pool4
I1109 04:16:30.191670  4467 net.cpp:394] pool4 <- conv4_3
I1109 04:16:30.191680  4467 net.cpp:356] pool4 -> pool4
I1109 04:16:30.191690  4467 net.cpp:96] Setting up pool4
I1109 04:16:30.191699  4467 net.cpp:103] Top shape: 1 512 14 14 (100352)
I1109 04:16:30.191709  4467 layer_factory.hpp:78] Creating layer conv5_1
I1109 04:16:30.191722  4467 net.cpp:67] Creating Layer conv5_1
I1109 04:16:30.191728  4467 net.cpp:394] conv5_1 <- pool4
I1109 04:16:30.191740  4467 net.cpp:356] conv5_1 -> conv5_1
I1109 04:16:30.191751  4467 net.cpp:96] Setting up conv5_1
I1109 04:16:30.304867  4467 net.cpp:103] Top shape: 1 512 14 14 (100352)
I1109 04:16:30.304914  4467 layer_factory.hpp:78] Creating layer relu5_1
I1109 04:16:30.304927  4467 net.cpp:67] Creating Layer relu5_1
I1109 04:16:30.304935  4467 net.cpp:394] relu5_1 <- conv5_1
I1109 04:16:30.304945  4467 net.cpp:345] relu5_1 -> conv5_1 (in-place)
I1109 04:16:30.304956  4467 net.cpp:96] Setting up relu5_1
I1109 04:16:30.304963  4467 net.cpp:103] Top shape: 1 512 14 14 (100352)
I1109 04:16:30.304970  4467 layer_factory.hpp:78] Creating layer conv5_2
I1109 04:16:30.304982  4467 net.cpp:67] Creating Layer conv5_2
I1109 04:16:30.304988  4467 net.cpp:394] conv5_2 <- conv5_1
I1109 04:16:30.304997  4467 net.cpp:356] conv5_2 -> conv5_2
I1109 04:16:30.305008  4467 net.cpp:96] Setting up conv5_2
I1109 04:16:30.418561  4467 net.cpp:103] Top shape: 1 512 14 14 (100352)
I1109 04:16:30.418603  4467 layer_factory.hpp:78] Creating layer relu5_2
I1109 04:16:30.418617  4467 net.cpp:67] Creating Layer relu5_2
I1109 04:16:30.418623  4467 net.cpp:394] relu5_2 <- conv5_2
I1109 04:16:30.418637  4467 net.cpp:345] relu5_2 -> conv5_2 (in-place)
I1109 04:16:30.418648  4467 net.cpp:96] Setting up relu5_2
I1109 04:16:30.418655  4467 net.cpp:103] Top shape: 1 512 14 14 (100352)
I1109 04:16:30.418661  4467 layer_factory.hpp:78] Creating layer conv5_3
I1109 04:16:30.418671  4467 net.cpp:67] Creating Layer conv5_3
I1109 04:16:30.418678  4467 net.cpp:394] conv5_3 <- conv5_2
I1109 04:16:30.418685  4467 net.cpp:356] conv5_3 -> conv5_3
I1109 04:16:30.418696  4467 net.cpp:96] Setting up conv5_3
I1109 04:16:30.531973  4467 net.cpp:103] Top shape: 1 512 14 14 (100352)
I1109 04:16:30.532016  4467 layer_factory.hpp:78] Creating layer relu5_3
I1109 04:16:30.532027  4467 net.cpp:67] Creating Layer relu5_3
I1109 04:16:30.532037  4467 net.cpp:394] relu5_3 <- conv5_3
I1109 04:16:30.532049  4467 net.cpp:345] relu5_3 -> conv5_3 (in-place)
I1109 04:16:30.532060  4467 net.cpp:96] Setting up relu5_3
I1109 04:16:30.532068  4467 net.cpp:103] Top shape: 1 512 14 14 (100352)
I1109 04:16:30.532073  4467 layer_factory.hpp:78] Creating layer pool5
I1109 04:16:30.532091  4467 net.cpp:67] Creating Layer pool5
I1109 04:16:30.532098  4467 net.cpp:394] pool5 <- conv5_3
I1109 04:16:30.532106  4467 net.cpp:356] pool5 -> pool5
I1109 04:16:30.532116  4467 net.cpp:96] Setting up pool5
I1109 04:16:30.532130  4467 net.cpp:103] Top shape: 1 512 7 7 (25088)
I1109 04:16:30.532136  4467 layer_factory.hpp:78] Creating layer fc6
I1109 04:16:30.532145  4467 net.cpp:67] Creating Layer fc6
I1109 04:16:30.532151  4467 net.cpp:394] fc6 <- pool5
I1109 04:16:30.532162  4467 net.cpp:356] fc6 -> fc6
I1109 04:16:30.532172  4467 net.cpp:96] Setting up fc6
I1109 04:16:35.437042  4467 net.cpp:103] Top shape: 1 4096 1 1 (4096)
I1109 04:16:35.437088  4467 layer_factory.hpp:78] Creating layer relu6
I1109 04:16:35.437103  4467 net.cpp:67] Creating Layer relu6
I1109 04:16:35.437110  4467 net.cpp:394] relu6 <- fc6
I1109 04:16:35.437121  4467 net.cpp:345] relu6 -> fc6 (in-place)
I1109 04:16:35.437132  4467 net.cpp:96] Setting up relu6
I1109 04:16:35.437139  4467 net.cpp:103] Top shape: 1 4096 1 1 (4096)
I1109 04:16:35.437145  4467 layer_factory.hpp:78] Creating layer drop6
I1109 04:16:35.437154  4467 net.cpp:67] Creating Layer drop6
I1109 04:16:35.437160  4467 net.cpp:394] drop6 <- fc6
I1109 04:16:35.437186  4467 net.cpp:345] drop6 -> fc6 (in-place)
I1109 04:16:35.437196  4467 net.cpp:96] Setting up drop6
I1109 04:16:35.437202  4467 net.cpp:103] Top shape: 1 4096 1 1 (4096)
I1109 04:16:35.437208  4467 layer_factory.hpp:78] Creating layer fc7
I1109 04:16:35.437221  4467 net.cpp:67] Creating Layer fc7
I1109 04:16:35.437232  4467 net.cpp:394] fc7 <- fc6
I1109 04:16:35.437240  4467 net.cpp:356] fc7 -> fc7
I1109 04:16:35.437252  4467 net.cpp:96] Setting up fc7
I1109 04:16:36.238766  4467 net.cpp:103] Top shape: 1 4096 1 1 (4096)
I1109 04:16:36.238812  4467 layer_factory.hpp:78] Creating layer relu7
I1109 04:16:36.238826  4467 net.cpp:67] Creating Layer relu7
I1109 04:16:36.238833  4467 net.cpp:394] relu7 <- fc7
I1109 04:16:36.238844  4467 net.cpp:345] relu7 -> fc7 (in-place)
I1109 04:16:36.238854  4467 net.cpp:96] Setting up relu7
I1109 04:16:36.238862  4467 net.cpp:103] Top shape: 1 4096 1 1 (4096)
I1109 04:16:36.238869  4467 layer_factory.hpp:78] Creating layer drop7
I1109 04:16:36.238878  4467 net.cpp:67] Creating Layer drop7
I1109 04:16:36.238883  4467 net.cpp:394] drop7 <- fc7
I1109 04:16:36.238893  4467 net.cpp:345] drop7 -> fc7 (in-place)
I1109 04:16:36.238903  4467 net.cpp:96] Setting up drop7
I1109 04:16:36.238909  4467 net.cpp:103] Top shape: 1 4096 1 1 (4096)
I1109 04:16:36.238914  4467 layer_factory.hpp:78] Creating layer fc8_2
I1109 04:16:36.238924  4467 net.cpp:67] Creating Layer fc8_2
I1109 04:16:36.238935  4467 net.cpp:394] fc8_2 <- fc7
I1109 04:16:36.238946  4467 net.cpp:356] fc8_2 -> fc8_2
I1109 04:16:36.238957  4467 net.cpp:96] Setting up fc8_2
I1109 04:16:36.239367  4467 net.cpp:103] Top shape: 1 2 1 1 (2)
I1109 04:16:36.239382  4467 layer_factory.hpp:78] Creating layer fc8_2_fc8_2_0_split
I1109 04:16:36.239392  4467 net.cpp:67] Creating Layer fc8_2_fc8_2_0_split
I1109 04:16:36.239398  4467 net.cpp:394] fc8_2_fc8_2_0_split <- fc8_2
I1109 04:16:36.239405  4467 net.cpp:356] fc8_2_fc8_2_0_split -> fc8_2_fc8_2_0_split_0
I1109 04:16:36.239415  4467 net.cpp:356] fc8_2_fc8_2_0_split -> fc8_2_fc8_2_0_split_1
I1109 04:16:36.239425  4467 net.cpp:96] Setting up fc8_2_fc8_2_0_split
I1109 04:16:36.239433  4467 net.cpp:103] Top shape: 1 2 1 1 (2)
I1109 04:16:36.239437  4467 net.cpp:103] Top shape: 1 2 1 1 (2)
I1109 04:16:36.239444  4467 layer_factory.hpp:78] Creating layer loss
I1109 04:16:36.239454  4467 net.cpp:67] Creating Layer loss
I1109 04:16:36.239461  4467 net.cpp:394] loss <- fc8_2_fc8_2_0_split_0
I1109 04:16:36.239469  4467 net.cpp:394] loss <- label_data_1_split_0
I1109 04:16:36.239487  4467 net.cpp:356] loss -> (automatic)
I1109 04:16:36.239496  4467 net.cpp:96] Setting up loss
I1109 04:16:36.239506  4467 net.cpp:103] Top shape: 1 1 1 1 (1)
I1109 04:16:36.239512  4467 net.cpp:109]     with loss weight 1
I1109 04:16:36.239531  4467 layer_factory.hpp:78] Creating layer accuracy
I1109 04:16:36.239542  4467 net.cpp:67] Creating Layer accuracy
I1109 04:16:36.239547  4467 net.cpp:394] accuracy <- fc8_2_fc8_2_0_split_1
I1109 04:16:36.239553  4467 net.cpp:394] accuracy <- label_data_1_split_1
I1109 04:16:36.239565  4467 net.cpp:356] accuracy -> accuracy
I1109 04:16:36.239575  4467 net.cpp:96] Setting up accuracy
I1109 04:16:36.239588  4467 net.cpp:103] Top shape: 1 1 1 4 (4)
I1109 04:16:36.239594  4467 net.cpp:172] accuracy does not need backward computation.
I1109 04:16:36.239599  4467 net.cpp:170] loss needs backward computation.
I1109 04:16:36.239605  4467 net.cpp:170] fc8_2_fc8_2_0_split needs backward computation.
I1109 04:16:36.239611  4467 net.cpp:170] fc8_2 needs backward computation.
I1109 04:16:36.239616  4467 net.cpp:170] drop7 needs backward computation.
…
