…
I1105 00:27:27.596591  1881 net.cpp:275] The NetState phase (0) differed from the phase (1) specified by a rule in layer accuracy
I1105 00:27:27.596770  1881 net.cpp:39] Initializing net from parameters: 
name: "small"
layers {
  top: "data"
  top: "label"
  name: "data"
  type: IMAGE_DATA
  image_data_param {
    source: "/data/ad6813/devCaffe/caffe/task/clamp/clampTrain.txt"
    batch_size: 32
    new_height: 256
    new_width: 256
  }
  include {
    phase: TRAIN
  }
  transform_param {
    mirror: true
    crop_size: 224
    mean_file: "/data/ad6813/devCaffe/caffe/clampdetMeanVal"
  }
}
layers {
  bottom: "data"
  top: "conv1_1"
  name: "conv1_1"
  type: CONVOLUTION
  convolution_param {
    num_output: 64
    pad: 1
    kernel_size: 3
    weight_filler {
      type: "gaussian"
      std: 0.01
    }
    bias_filler {
      type: "constant"
      value: 0
    }
  }
}
layers {
  bottom: "conv1_1"
  top: "conv1_1"
  name: "relu1_1"
  type: RELU
}
layers {
  bottom: "conv1_1"
  top: "conv1_2"
  name: "conv1_2"
  type: CONVOLUTION
  convolution_param {
    num_output: 64
    pad: 1
    kernel_size: 3
    weight_filler {
      type: "gaussian"
      std: 0.01
    }
    bias_filler {
      type: "constant"
      value: 0
    }
  }
}
layers {
  bottom: "conv1_2"
  top: "conv1_2"
  name: "relu1_2"
  type: RELU
}
layers {
  bottom: "conv1_2"
  top: "pool1"
  name: "pool1"
  type: POOLING
  pooling_param {
    pool: MAX
    kernel_size: 2
    stride: 2
  }
}
layers {
  bottom: "pool1"
  top: "conv2_1"
  name: "conv2_1"
  type: CONVOLUTION
  convolution_param {
    num_output: 128
    pad: 1
    kernel_size: 3
    weight_filler {
      type: "gaussian"
      std: 0.01
    }
    bias_filler {
      type: "constant"
      value: 0
    }
  }
}
layers {
  bottom: "conv2_1"
  top: "conv2_1"
  name: "relu2_1"
  type: RELU
}
layers {
  bottom: "conv2_1"
  top: "conv2_2"
  name: "conv2_2"
  type: CONVOLUTION
  convolution_param {
    num_output: 128
    pad: 1
    kernel_size: 3
    weight_filler {
      type: "gaussian"
      std: 0.01
    }
    bias_filler {
      type: "constant"
      value: 0
    }
  }
}
layers {
  bottom: "conv2_2"
  top: "conv2_2"
  name: "relu2_2"
  type: RELU
}
layers {
  bottom: "conv2_2"
  top: "pool2"
  name: "pool2"
  type: POOLING
  pooling_param {
    pool: MAX
    kernel_size: 2
    stride: 2
  }
}
layers {
  bottom: "pool2"
  top: "conv3_1"
  name: "conv3_1"
  type: CONVOLUTION
  convolution_param {
    num_output: 256
    pad: 1
    kernel_size: 3
    weight_filler {
      type: "gaussian"
      std: 0.01
    }
    bias_filler {
      type: "constant"
      value: 0
    }
  }
}
layers {
  bottom: "conv3_1"
  top: "conv3_1"
  name: "relu3_1"
  type: RELU
}
layers {
  bottom: "conv3_1"
  top: "conv3_2"
  name: "conv3_2"
  type: CONVOLUTION
  convolution_param {
    num_output: 256
    pad: 1
    kernel_size: 3
    weight_filler {
      type: "gaussian"
      std: 0.01
    }
    bias_filler {
      type: "constant"
      value: 0
    }
  }
}
layers {
  bottom: "conv3_2"
  top: "conv3_2"
  name: "relu3_2"
  type: RELU
}
layers {
  bottom: "conv3_2"
  top: "conv3_3"
  name: "conv3_3"
  type: CONVOLUTION
  convolution_param {
    num_output: 256
    pad: 1
    kernel_size: 3
    weight_filler {
      type: "gaussian"
      std: 0.01
    }
    bias_filler {
      type: "constant"
      value: 0
    }
  }
}
layers {
  bottom: "conv3_3"
  top: "conv3_3"
  name: "relu3_3"
  type: RELU
}
layers {
  bottom: "conv3_3"
  top: "pool3"
  name: "pool3"
  type: POOLING
  pooling_param {
    pool: MAX
    kernel_size: 2
    stride: 2
  }
}
layers {
  bottom: "pool3"
  top: "conv4_1"
  name: "conv4_1"
  type: CONVOLUTION
  convolution_param {
    num_output: 512
    pad: 1
    kernel_size: 3
    weight_filler {
      type: "gaussian"
      std: 0.01
    }
    bias_filler {
      type: "constant"
      value: 0
    }
  }
}
layers {
  bottom: "conv4_1"
  top: "conv4_1"
  name: "relu4_1"
  type: RELU
}
layers {
  bottom: "conv4_1"
  top: "conv4_2"
  name: "conv4_2"
  type: CONVOLUTION
  convolution_param {
    num_output: 512
    pad: 1
    kernel_size: 3
    weight_filler {
      type: "gaussian"
      std: 0.01
    }
    bias_filler {
      type: "constant"
      value: 0
    }
  }
}
layers {
  bottom: "conv4_2"
  top: "conv4_2"
  name: "relu4_2"
  type: RELU
}
layers {
  bottom: "conv4_2"
  top: "conv4_3"
  name: "conv4_3"
  type: CONVOLUTION
  convolution_param {
    num_output: 512
    pad: 1
    kernel_size: 3
    weight_filler {
      type: "gaussian"
      std: 0.01
    }
    bias_filler {
      type: "constant"
      value: 0
    }
  }
}
layers {
  bottom: "conv4_3"
  top: "conv4_3"
  name: "relu4_3"
  type: RELU
}
layers {
  bottom: "conv4_3"
  top: "pool4"
  name: "pool4"
  type: POOLING
  pooling_param {
    pool: MAX
    kernel_size: 2
    stride: 2
  }
}
layers {
  bottom: "pool4"
  top: "conv5_1"
  name: "conv5_1"
  type: CONVOLUTION
  convolution_param {
    num_output: 512
    pad: 1
    kernel_size: 3
    weight_filler {
      type: "gaussian"
      std: 0.01
    }
    bias_filler {
      type: "constant"
      value: 0
    }
  }
}
layers {
  bottom: "conv5_1"
  top: "conv5_1"
  name: "relu5_1"
  type: RELU
}
layers {
  bottom: "conv5_1"
  top: "conv5_2"
  name: "conv5_2"
  type: CONVOLUTION
  convolution_param {
    num_output: 512
    pad: 1
    kernel_size: 3
    weight_filler {
      type: "gaussian"
      std: 0.01
    }
    bias_filler {
      type: "constant"
      value: 0
    }
  }
}
layers {
  bottom: "conv5_2"
  top: "conv5_2"
  name: "relu5_2"
  type: RELU
}
layers {
  bottom: "conv5_2"
  top: "conv5_3"
  name: "conv5_3"
  type: CONVOLUTION
  convolution_param {
    num_output: 512
    pad: 1
    kernel_size: 3
    weight_filler {
      type: "gaussian"
      std: 0.01
    }
    bias_filler {
      type: "constant"
      value: 0
    }
  }
}
layers {
  bottom: "conv5_3"
  top: "conv5_3"
  name: "relu5_3"
  type: RELU
}
layers {
  bottom: "conv5_3"
  top: "pool5"
  name: "pool5"
  type: POOLING
  pooling_param {
    pool: MAX
    kernel_size: 2
    stride: 2
  }
}
layers {
  bottom: "pool5"
  top: "fc6"
  name: "fc6"
  type: INNER_PRODUCT
  inner_product_param {
    num_output: 4096
    weight_filler {
      type: "gaussian"
      std: 0.01
    }
    bias_filler {
      type: "constant"
      value: 0
    }
  }
}
layers {
  bottom: "fc6"
  top: "fc6"
  name: "relu6"
  type: RELU
}
layers {
  bottom: "fc6"
  top: "fc6"
  name: "drop6"
  type: DROPOUT
  dropout_param {
    dropout_ratio: 0.5
  }
}
layers {
  bottom: "fc6"
  top: "fc7"
  name: "fc7"
  type: INNER_PRODUCT
  inner_product_param {
    num_output: 4096
    weight_filler {
      type: "gaussian"
      std: 0.01
    }
    bias_filler {
      type: "constant"
      value: 0
    }
  }
}
layers {
  bottom: "fc7"
  top: "fc7"
  name: "relu7"
  type: RELU
}
layers {
  bottom: "fc7"
  top: "fc7"
  name: "drop7"
  type: DROPOUT
  dropout_param {
    dropout_ratio: 0.5
  }
}
layers {
  bottom: "fc7"
  top: "fc8_2"
  name: "fc8_2"
  type: INNER_PRODUCT
  inner_product_param {
    num_output: 2
    weight_filler {
      type: "gaussian"
      std: 0.01
    }
    bias_filler {
      type: "constant"
      value: 0
    }
  }
}
layers {
  bottom: "fc8_2"
  bottom: "label"
  name: "loss"
  type: SOFTMAX_LOSS
}
state {
  phase: TRAIN
}
I1105 00:27:27.596887  1881 layer_factory.hpp:78] Creating layer data
I1105 00:27:27.596897  1881 data_transformer.cpp:25] Loading mean file from/data/ad6813/devCaffe/caffe/clampdetMeanVal
I1105 00:27:27.598328  1881 net.cpp:67] Creating Layer data
I1105 00:27:27.598338  1881 net.cpp:356] data -> data
I1105 00:27:27.598352  1881 net.cpp:356] data -> label
I1105 00:27:27.598362  1881 net.cpp:96] Setting up data
I1105 00:27:27.598368  1881 image_data_layer.cpp:34] Opening file /data/ad6813/devCaffe/caffe/task/clamp/clampTrain.txt
I1105 00:27:27.606222  1881 image_data_layer.cpp:49] A total of 23494 images.
I1105 00:27:27.617131  1881 image_data_layer.cpp:78] output data size: 32,3,224,224
I1105 00:27:27.619891  1881 net.cpp:103] Top shape: 32 3 224 224 (4816896)
I1105 00:27:27.619917  1881 net.cpp:103] Top shape: 32 1 1 1 (32)
I1105 00:27:27.619923  1881 layer_factory.hpp:78] Creating layer conv1_1
I1105 00:27:27.619937  1881 net.cpp:67] Creating Layer conv1_1
I1105 00:27:27.619942  1881 net.cpp:394] conv1_1 <- data
I1105 00:27:27.619956  1881 net.cpp:356] conv1_1 -> conv1_1
I1105 00:27:27.619966  1881 net.cpp:96] Setting up conv1_1
I1105 00:27:27.634099  1881 net.cpp:103] Top shape: 32 64 224 224 (102760448)
I1105 00:27:27.634145  1881 layer_factory.hpp:78] Creating layer relu1_1
I1105 00:27:27.634162  1881 net.cpp:67] Creating Layer relu1_1
I1105 00:27:27.634171  1881 net.cpp:394] relu1_1 <- conv1_1
I1105 00:27:27.634210  1881 net.cpp:345] relu1_1 -> conv1_1 (in-place)
I1105 00:27:27.634230  1881 net.cpp:96] Setting up relu1_1
I1105 00:27:27.634248  1881 net.cpp:103] Top shape: 32 64 224 224 (102760448)
I1105 00:27:27.634258  1881 layer_factory.hpp:78] Creating layer conv1_2
I1105 00:27:27.634271  1881 net.cpp:67] Creating Layer conv1_2
I1105 00:27:27.634280  1881 net.cpp:394] conv1_2 <- conv1_1
I1105 00:27:27.634292  1881 net.cpp:356] conv1_2 -> conv1_2
I1105 00:27:27.634307  1881 net.cpp:96] Setting up conv1_2
I1105 00:27:27.635830  1881 net.cpp:103] Top shape: 32 64 224 224 (102760448)
I1105 00:27:27.635850  1881 layer_factory.hpp:78] Creating layer relu1_2
I1105 00:27:27.635864  1881 net.cpp:67] Creating Layer relu1_2
I1105 00:27:27.635874  1881 net.cpp:394] relu1_2 <- conv1_2
I1105 00:27:27.635887  1881 net.cpp:345] relu1_2 -> conv1_2 (in-place)
I1105 00:27:27.635900  1881 net.cpp:96] Setting up relu1_2
I1105 00:27:27.635912  1881 net.cpp:103] Top shape: 32 64 224 224 (102760448)
I1105 00:27:27.635921  1881 layer_factory.hpp:78] Creating layer pool1
I1105 00:27:27.635936  1881 net.cpp:67] Creating Layer pool1
I1105 00:27:27.635946  1881 net.cpp:394] pool1 <- conv1_2
I1105 00:27:27.635957  1881 net.cpp:356] pool1 -> pool1
I1105 00:27:27.635969  1881 net.cpp:96] Setting up pool1
I1105 00:27:27.636001  1881 net.cpp:103] Top shape: 32 64 112 112 (25690112)
I1105 00:27:27.636013  1881 layer_factory.hpp:78] Creating layer conv2_1
I1105 00:27:27.636021  1881 net.cpp:67] Creating Layer conv2_1
I1105 00:27:27.636029  1881 net.cpp:394] conv2_1 <- pool1
I1105 00:27:27.636040  1881 net.cpp:356] conv2_1 -> conv2_1
I1105 00:27:27.636054  1881 net.cpp:96] Setting up conv2_1
I1105 00:27:27.638815  1881 net.cpp:103] Top shape: 32 128 112 112 (51380224)
I1105 00:27:27.638838  1881 layer_factory.hpp:78] Creating layer relu2_1
I1105 00:27:27.638849  1881 net.cpp:67] Creating Layer relu2_1
I1105 00:27:27.638859  1881 net.cpp:394] relu2_1 <- conv2_1
I1105 00:27:27.638870  1881 net.cpp:345] relu2_1 -> conv2_1 (in-place)
I1105 00:27:27.638880  1881 net.cpp:96] Setting up relu2_1
I1105 00:27:27.638893  1881 net.cpp:103] Top shape: 32 128 112 112 (51380224)
I1105 00:27:27.638902  1881 layer_factory.hpp:78] Creating layer conv2_2
I1105 00:27:27.638916  1881 net.cpp:67] Creating Layer conv2_2
I1105 00:27:27.638926  1881 net.cpp:394] conv2_2 <- conv2_1
I1105 00:27:27.638936  1881 net.cpp:356] conv2_2 -> conv2_2
I1105 00:27:27.638948  1881 net.cpp:96] Setting up conv2_2
I1105 00:27:27.644372  1881 net.cpp:103] Top shape: 32 128 112 112 (51380224)
I1105 00:27:27.644393  1881 layer_factory.hpp:78] Creating layer relu2_2
I1105 00:27:27.644403  1881 net.cpp:67] Creating Layer relu2_2
I1105 00:27:27.644409  1881 net.cpp:394] relu2_2 <- conv2_2
I1105 00:27:27.644418  1881 net.cpp:345] relu2_2 -> conv2_2 (in-place)
I1105 00:27:27.644441  1881 net.cpp:96] Setting up relu2_2
I1105 00:27:27.644454  1881 net.cpp:103] Top shape: 32 128 112 112 (51380224)
I1105 00:27:27.644464  1881 layer_factory.hpp:78] Creating layer pool2
I1105 00:27:27.644479  1881 net.cpp:67] Creating Layer pool2
I1105 00:27:27.644489  1881 net.cpp:394] pool2 <- conv2_2
I1105 00:27:27.644500  1881 net.cpp:356] pool2 -> pool2
I1105 00:27:27.644511  1881 net.cpp:96] Setting up pool2
I1105 00:27:27.644526  1881 net.cpp:103] Top shape: 32 128 56 56 (12845056)
I1105 00:27:27.644536  1881 layer_factory.hpp:78] Creating layer conv3_1
I1105 00:27:27.644548  1881 net.cpp:67] Creating Layer conv3_1
I1105 00:27:27.644556  1881 net.cpp:394] conv3_1 <- pool2
I1105 00:27:27.644567  1881 net.cpp:356] conv3_1 -> conv3_1
I1105 00:27:27.644582  1881 net.cpp:96] Setting up conv3_1
I1105 00:27:27.652248  1881 net.cpp:103] Top shape: 32 256 56 56 (25690112)
I1105 00:27:27.652269  1881 layer_factory.hpp:78] Creating layer relu3_1
I1105 00:27:27.652276  1881 net.cpp:67] Creating Layer relu3_1
I1105 00:27:27.652279  1881 net.cpp:394] relu3_1 <- conv3_1
I1105 00:27:27.652284  1881 net.cpp:345] relu3_1 -> conv3_1 (in-place)
I1105 00:27:27.652289  1881 net.cpp:96] Setting up relu3_1
I1105 00:27:27.652295  1881 net.cpp:103] Top shape: 32 256 56 56 (25690112)
I1105 00:27:27.652299  1881 layer_factory.hpp:78] Creating layer conv3_2
I1105 00:27:27.652307  1881 net.cpp:67] Creating Layer conv3_2
I1105 00:27:27.652312  1881 net.cpp:394] conv3_2 <- conv3_1
I1105 00:27:27.652317  1881 net.cpp:356] conv3_2 -> conv3_2
I1105 00:27:27.652322  1881 net.cpp:96] Setting up conv3_2
I1105 00:27:27.667167  1881 net.cpp:103] Top shape: 32 256 56 56 (25690112)
I1105 00:27:27.667196  1881 layer_factory.hpp:78] Creating layer relu3_2
I1105 00:27:27.667208  1881 net.cpp:67] Creating Layer relu3_2
I1105 00:27:27.667215  1881 net.cpp:394] relu3_2 <- conv3_2
I1105 00:27:27.667225  1881 net.cpp:345] relu3_2 -> conv3_2 (in-place)
I1105 00:27:27.667238  1881 net.cpp:96] Setting up relu3_2
I1105 00:27:27.667248  1881 net.cpp:103] Top shape: 32 256 56 56 (25690112)
I1105 00:27:27.667255  1881 layer_factory.hpp:78] Creating layer conv3_3
I1105 00:27:27.667265  1881 net.cpp:67] Creating Layer conv3_3
I1105 00:27:27.667271  1881 net.cpp:394] conv3_3 <- conv3_2
I1105 00:27:27.667280  1881 net.cpp:356] conv3_3 -> conv3_3
I1105 00:27:27.667291  1881 net.cpp:96] Setting up conv3_3
I1105 00:27:27.681769  1881 net.cpp:103] Top shape: 32 256 56 56 (25690112)
I1105 00:27:27.681795  1881 layer_factory.hpp:78] Creating layer relu3_3
I1105 00:27:27.681809  1881 net.cpp:67] Creating Layer relu3_3
I1105 00:27:27.681817  1881 net.cpp:394] relu3_3 <- conv3_3
I1105 00:27:27.681825  1881 net.cpp:345] relu3_3 -> conv3_3 (in-place)
I1105 00:27:27.681836  1881 net.cpp:96] Setting up relu3_3
I1105 00:27:27.681846  1881 net.cpp:103] Top shape: 32 256 56 56 (25690112)
I1105 00:27:27.681854  1881 layer_factory.hpp:78] Creating layer pool3
I1105 00:27:27.681862  1881 net.cpp:67] Creating Layer pool3
I1105 00:27:27.681869  1881 net.cpp:394] pool3 <- conv3_3
I1105 00:27:27.681877  1881 net.cpp:356] pool3 -> pool3
I1105 00:27:27.681887  1881 net.cpp:96] Setting up pool3
I1105 00:27:27.681905  1881 net.cpp:103] Top shape: 32 256 28 28 (6422528)
I1105 00:27:27.681915  1881 layer_factory.hpp:78] Creating layer conv4_1
I1105 00:27:27.681924  1881 net.cpp:67] Creating Layer conv4_1
I1105 00:27:27.681931  1881 net.cpp:394] conv4_1 <- pool3
I1105 00:27:27.681941  1881 net.cpp:356] conv4_1 -> conv4_1
I1105 00:27:27.681956  1881 net.cpp:96] Setting up conv4_1
I1105 00:27:27.710695  1881 net.cpp:103] Top shape: 32 512 28 28 (12845056)
I1105 00:27:27.710722  1881 layer_factory.hpp:78] Creating layer relu4_1
I1105 00:27:27.710733  1881 net.cpp:67] Creating Layer relu4_1
I1105 00:27:27.710741  1881 net.cpp:394] relu4_1 <- conv4_1
I1105 00:27:27.710754  1881 net.cpp:345] relu4_1 -> conv4_1 (in-place)
I1105 00:27:27.710764  1881 net.cpp:96] Setting up relu4_1
I1105 00:27:27.710775  1881 net.cpp:103] Top shape: 32 512 28 28 (12845056)
I1105 00:27:27.710791  1881 layer_factory.hpp:78] Creating layer conv4_2
I1105 00:27:27.710803  1881 net.cpp:67] Creating Layer conv4_2
I1105 00:27:27.710808  1881 net.cpp:394] conv4_2 <- conv4_1
I1105 00:27:27.710818  1881 net.cpp:356] conv4_2 -> conv4_2
I1105 00:27:27.710829  1881 net.cpp:96] Setting up conv4_2
I1105 00:27:27.768527  1881 net.cpp:103] Top shape: 32 512 28 28 (12845056)
I1105 00:27:27.768561  1881 layer_factory.hpp:78] Creating layer relu4_2
I1105 00:27:27.768573  1881 net.cpp:67] Creating Layer relu4_2
I1105 00:27:27.768581  1881 net.cpp:394] relu4_2 <- conv4_2
I1105 00:27:27.768594  1881 net.cpp:345] relu4_2 -> conv4_2 (in-place)
I1105 00:27:27.768605  1881 net.cpp:96] Setting up relu4_2
I1105 00:27:27.768616  1881 net.cpp:103] Top shape: 32 512 28 28 (12845056)
I1105 00:27:27.768626  1881 layer_factory.hpp:78] Creating layer conv4_3
I1105 00:27:27.768637  1881 net.cpp:67] Creating Layer conv4_3
I1105 00:27:27.768646  1881 net.cpp:394] conv4_3 <- conv4_2
I1105 00:27:27.768656  1881 net.cpp:356] conv4_3 -> conv4_3
I1105 00:27:27.768671  1881 net.cpp:96] Setting up conv4_3
I1105 00:27:27.826114  1881 net.cpp:103] Top shape: 32 512 28 28 (12845056)
I1105 00:27:27.826141  1881 layer_factory.hpp:78] Creating layer relu4_3
I1105 00:27:27.826154  1881 net.cpp:67] Creating Layer relu4_3
I1105 00:27:27.826163  1881 net.cpp:394] relu4_3 <- conv4_3
I1105 00:27:27.826172  1881 net.cpp:345] relu4_3 -> conv4_3 (in-place)
I1105 00:27:27.826184  1881 net.cpp:96] Setting up relu4_3
I1105 00:27:27.826195  1881 net.cpp:103] Top shape: 32 512 28 28 (12845056)
I1105 00:27:27.826200  1881 layer_factory.hpp:78] Creating layer pool4
I1105 00:27:27.826210  1881 net.cpp:67] Creating Layer pool4
I1105 00:27:27.826215  1881 net.cpp:394] pool4 <- conv4_3
I1105 00:27:27.826227  1881 net.cpp:356] pool4 -> pool4
I1105 00:27:27.826248  1881 net.cpp:96] Setting up pool4
I1105 00:27:27.826264  1881 net.cpp:103] Top shape: 32 512 14 14 (3211264)
I1105 00:27:27.826272  1881 layer_factory.hpp:78] Creating layer conv5_1
I1105 00:27:27.826283  1881 net.cpp:67] Creating Layer conv5_1
I1105 00:27:27.826289  1881 net.cpp:394] conv5_1 <- pool4
I1105 00:27:27.826300  1881 net.cpp:356] conv5_1 -> conv5_1
I1105 00:27:27.826318  1881 net.cpp:96] Setting up conv5_1
I1105 00:27:27.884183  1881 net.cpp:103] Top shape: 32 512 14 14 (3211264)
I1105 00:27:27.884215  1881 layer_factory.hpp:78] Creating layer relu5_1
I1105 00:27:27.884232  1881 net.cpp:67] Creating Layer relu5_1
I1105 00:27:27.884240  1881 net.cpp:394] relu5_1 <- conv5_1
I1105 00:27:27.884251  1881 net.cpp:345] relu5_1 -> conv5_1 (in-place)
I1105 00:27:27.884263  1881 net.cpp:96] Setting up relu5_1
I1105 00:27:27.884274  1881 net.cpp:103] Top shape: 32 512 14 14 (3211264)
I1105 00:27:27.884289  1881 layer_factory.hpp:78] Creating layer conv5_2
I1105 00:27:27.884304  1881 net.cpp:67] Creating Layer conv5_2
I1105 00:27:27.884311  1881 net.cpp:394] conv5_2 <- conv5_1
I1105 00:27:27.884321  1881 net.cpp:356] conv5_2 -> conv5_2
I1105 00:27:27.884333  1881 net.cpp:96] Setting up conv5_2
I1105 00:27:27.941743  1881 net.cpp:103] Top shape: 32 512 14 14 (3211264)
I1105 00:27:27.941777  1881 layer_factory.hpp:78] Creating layer relu5_2
I1105 00:27:27.941787  1881 net.cpp:67] Creating Layer relu5_2
I1105 00:27:27.941795  1881 net.cpp:394] relu5_2 <- conv5_2
I1105 00:27:27.941807  1881 net.cpp:345] relu5_2 -> conv5_2 (in-place)
I1105 00:27:27.941818  1881 net.cpp:96] Setting up relu5_2
I1105 00:27:27.941828  1881 net.cpp:103] Top shape: 32 512 14 14 (3211264)
I1105 00:27:27.941835  1881 layer_factory.hpp:78] Creating layer conv5_3
I1105 00:27:27.941845  1881 net.cpp:67] Creating Layer conv5_3
I1105 00:27:27.941851  1881 net.cpp:394] conv5_3 <- conv5_2
I1105 00:27:27.941862  1881 net.cpp:356] conv5_3 -> conv5_3
I1105 00:27:27.941874  1881 net.cpp:96] Setting up conv5_3
I1105 00:27:27.999320  1881 net.cpp:103] Top shape: 32 512 14 14 (3211264)
I1105 00:27:27.999352  1881 layer_factory.hpp:78] Creating layer relu5_3
I1105 00:27:27.999363  1881 net.cpp:67] Creating Layer relu5_3
I1105 00:27:27.999372  1881 net.cpp:394] relu5_3 <- conv5_3
I1105 00:27:27.999397  1881 net.cpp:345] relu5_3 -> conv5_3 (in-place)
I1105 00:27:27.999409  1881 net.cpp:96] Setting up relu5_3
I1105 00:27:27.999419  1881 net.cpp:103] Top shape: 32 512 14 14 (3211264)
I1105 00:27:27.999426  1881 layer_factory.hpp:78] Creating layer pool5
I1105 00:27:27.999436  1881 net.cpp:67] Creating Layer pool5
I1105 00:27:27.999443  1881 net.cpp:394] pool5 <- conv5_3
I1105 00:27:27.999454  1881 net.cpp:356] pool5 -> pool5
I1105 00:27:27.999470  1881 net.cpp:96] Setting up pool5
I1105 00:27:27.999487  1881 net.cpp:103] Top shape: 32 512 7 7 (802816)
I1105 00:27:27.999498  1881 layer_factory.hpp:78] Creating layer fc6
I1105 00:27:27.999522  1881 net.cpp:67] Creating Layer fc6
I1105 00:27:27.999531  1881 net.cpp:394] fc6 <- pool5
I1105 00:27:27.999541  1881 net.cpp:356] fc6 -> fc6
I1105 00:27:27.999552  1881 net.cpp:96] Setting up fc6
I1105 00:27:30.490509  1881 net.cpp:103] Top shape: 32 4096 1 1 (131072)
I1105 00:27:30.490541  1881 layer_factory.hpp:78] Creating layer relu6
I1105 00:27:30.490550  1881 net.cpp:67] Creating Layer relu6
I1105 00:27:30.490556  1881 net.cpp:394] relu6 <- fc6
I1105 00:27:30.490562  1881 net.cpp:345] relu6 -> fc6 (in-place)
I1105 00:27:30.490569  1881 net.cpp:96] Setting up relu6
I1105 00:27:30.490583  1881 net.cpp:103] Top shape: 32 4096 1 1 (131072)
I1105 00:27:30.490587  1881 layer_factory.hpp:78] Creating layer drop6
I1105 00:27:30.490597  1881 net.cpp:67] Creating Layer drop6
I1105 00:27:30.490599  1881 net.cpp:394] drop6 <- fc6
I1105 00:27:30.490604  1881 net.cpp:345] drop6 -> fc6 (in-place)
I1105 00:27:30.490609  1881 net.cpp:96] Setting up drop6
I1105 00:27:30.490614  1881 net.cpp:103] Top shape: 32 4096 1 1 (131072)
I1105 00:27:30.490617  1881 layer_factory.hpp:78] Creating layer fc7
I1105 00:27:30.490623  1881 net.cpp:67] Creating Layer fc7
I1105 00:27:30.490627  1881 net.cpp:394] fc7 <- fc6
I1105 00:27:30.490631  1881 net.cpp:356] fc7 -> fc7
I1105 00:27:30.490638  1881 net.cpp:96] Setting up fc7
I1105 00:27:30.896903  1881 net.cpp:103] Top shape: 32 4096 1 1 (131072)
I1105 00:27:30.896931  1881 layer_factory.hpp:78] Creating layer relu7
I1105 00:27:30.896939  1881 net.cpp:67] Creating Layer relu7
I1105 00:27:30.896944  1881 net.cpp:394] relu7 <- fc7
I1105 00:27:30.896950  1881 net.cpp:345] relu7 -> fc7 (in-place)
I1105 00:27:30.896956  1881 net.cpp:96] Setting up relu7
I1105 00:27:30.896970  1881 net.cpp:103] Top shape: 32 4096 1 1 (131072)
I1105 00:27:30.896973  1881 layer_factory.hpp:78] Creating layer drop7
I1105 00:27:30.896980  1881 net.cpp:67] Creating Layer drop7
I1105 00:27:30.896982  1881 net.cpp:394] drop7 <- fc7
I1105 00:27:30.896986  1881 net.cpp:345] drop7 -> fc7 (in-place)
I1105 00:27:30.896991  1881 net.cpp:96] Setting up drop7
I1105 00:27:30.896996  1881 net.cpp:103] Top shape: 32 4096 1 1 (131072)
I1105 00:27:30.896998  1881 layer_factory.hpp:78] Creating layer fc8_2
I1105 00:27:30.897003  1881 net.cpp:67] Creating Layer fc8_2
I1105 00:27:30.897006  1881 net.cpp:394] fc8_2 <- fc7
I1105 00:27:30.897011  1881 net.cpp:356] fc8_2 -> fc8_2
I1105 00:27:30.897017  1881 net.cpp:96] Setting up fc8_2
I1105 00:27:30.897229  1881 net.cpp:103] Top shape: 32 2 1 1 (64)
I1105 00:27:30.897238  1881 layer_factory.hpp:78] Creating layer loss
I1105 00:27:30.897248  1881 net.cpp:67] Creating Layer loss
I1105 00:27:30.897253  1881 net.cpp:394] loss <- fc8_2
I1105 00:27:30.897256  1881 net.cpp:394] loss <- label
I1105 00:27:30.897264  1881 net.cpp:356] loss -> (automatic)
I1105 00:27:30.897271  1881 net.cpp:96] Setting up loss
I1105 00:27:30.897279  1881 net.cpp:103] Top shape: 1 1 1 1 (1)
I1105 00:27:30.897284  1881 net.cpp:109]     with loss weight 1
I1105 00:27:30.897315  1881 net.cpp:170] loss needs backward computation.
I1105 00:27:30.897318  1881 net.cpp:170] fc8_2 needs backward computation.
I1105 00:27:30.897321  1881 net.cpp:170] drop7 needs backward computation.
I1105 00:27:30.897323  1881 net.cpp:170] relu7 needs backward computation.
I1105 00:27:30.897326  1881 net.cpp:170] fc7 needs backward computation.
…
I1105 00:27:30.898234  1881 solver.cpp:151] Creating test net (#0) specified by net file: /data/ad6813/devCaffe/caffe/oxford/small.train
I1105 00:27:30.898277  1881 net.cpp:275] The NetState phase (1) differed from the phase (0) specified by a rule in layer data
I1105 00:27:30.898473  1881 net.cpp:39] Initializing net from parameters: 
name: "small"
layers {
  top: "data"
  top: "label"
  name: "data"
  type: IMAGE_DATA
  image_data_param {
    source: "/data/ad6813/devCaffe/caffe/task/clamp/clampVal.txt"
    batch_size: 8
    new_height: 256
    new_width: 256
  }
  include {
    phase: TEST
  }
  transform_param {
    mirror: true
    crop_size: 224
    mean_file: "/data/ad6813/devCaffe/caffe/clampdetMeanVal"
  }
}
layers {
  bottom: "data"
  top: "conv1_1"
  name: "conv1_1"
  type: CONVOLUTION
  convolution_param {
    num_output: 64
    pad: 1
    kernel_size: 3
    weight_filler {
      type: "gaussian"
      std: 0.01
    }
    bias_filler {
      type: "constant"
      value: 0
    }
  }
}
layers {
  bottom: "conv1_1"
  top: "conv1_1"
  name: "relu1_1"
  type: RELU
}
layers {
  bottom: "conv1_1"
  top: "conv1_2"
  name: "conv1_2"
  type: CONVOLUTION
  convolution_param {
    num_output: 64
    pad: 1
    kernel_size: 3
    weight_filler {
      type: "gaussian"
      std: 0.01
    }
    bias_filler {
      type: "constant"
      value: 0
    }
  }
}
layers {
  bottom: "conv1_2"
  top: "conv1_2"
  name: "relu1_2"
  type: RELU
}
layers {
  bottom: "conv1_2"
  top: "pool1"
  name: "pool1"
  type: POOLING
  pooling_param {
    pool: MAX
    kernel_size: 2
    stride: 2
  }
}
layers {
  bottom: "pool1"
  top: "conv2_1"
  name: "conv2_1"
  type: CONVOLUTION
  convolution_param {
    num_output: 128
    pad: 1
    kernel_size: 3
    weight_filler {
      type: "gaussian"
      std: 0.01
    }
    bias_filler {
      type: "constant"
      value: 0
    }
  }
}
layers {
  bottom: "conv2_1"
  top: "conv2_1"
  name: "relu2_1"
  type: RELU
}
layers {
  bottom: "conv2_1"
  top: "conv2_2"
  name: "conv2_2"
  type: CONVOLUTION
  convolution_param {
    num_output: 128
    pad: 1
    kernel_size: 3
    weight_filler {
      type: "gaussian"
      std: 0.01
    }
    bias_filler {
      type: "constant"
      value: 0
    }
  }
}
layers {
  bottom: "conv2_2"
  top: "conv2_2"
  name: "relu2_2"
  type: RELU
}
layers {
  bottom: "conv2_2"
  top: "pool2"
  name: "pool2"
  type: POOLING
  pooling_param {
    pool: MAX
    kernel_size: 2
    stride: 2
  }
}
layers {
  bottom: "pool2"
  top: "conv3_1"
  name: "conv3_1"
  type: CONVOLUTION
  convolution_param {
    num_output: 256
    pad: 1
    kernel_size: 3
    weight_filler {
      type: "gaussian"
      std: 0.01
    }
    bias_filler {
      type: "constant"
      value: 0
    }
  }
}
layers {
  bottom: "conv3_1"
  top: "conv3_1"
  name: "relu3_1"
  type: RELU
}
layers {
  bottom: "conv3_1"
  top: "conv3_2"
  name: "conv3_2"
  type: CONVOLUTION
  convolution_param {
    num_output: 256
    pad: 1
    kernel_size: 3
    weight_filler {
      type: "gaussian"
      std: 0.01
    }
    bias_filler {
      type: "constant"
      value: 0
    }
  }
}
layers {
  bottom: "conv3_2"
  top: "conv3_2"
  name: "relu3_2"
  type: RELU
}
layers {
  bottom: "conv3_2"
  top: "conv3_3"
  name: "conv3_3"
  type: CONVOLUTION
  convolution_param {
    num_output: 256
    pad: 1
    kernel_size: 3
    weight_filler {
      type: "gaussian"
      std: 0.01
    }
    bias_filler {
      type: "constant"
      value: 0
    }
  }
}
layers {
  bottom: "conv3_3"
  top: "conv3_3"
  name: "relu3_3"
  type: RELU
}
layers {
  bottom: "conv3_3"
  top: "pool3"
  name: "pool3"
  type: POOLING
  pooling_param {
    pool: MAX
    kernel_size: 2
    stride: 2
  }
}
layers {
  bottom: "pool3"
  top: "conv4_1"
  name: "conv4_1"
  type: CONVOLUTION
  convolution_param {
    num_output: 512
    pad: 1
    kernel_size: 3
    weight_filler {
      type: "gaussian"
      std: 0.01
    }
    bias_filler {
      type: "constant"
      value: 0
    }
  }
}
layers {
  bottom: "conv4_1"
  top: "conv4_1"
  name: "relu4_1"
  type: RELU
}
layers {
  bottom: "conv4_1"
  top: "conv4_2"
  name: "conv4_2"
  type: CONVOLUTION
  convolution_param {
    num_output: 512
    pad: 1
    kernel_size: 3
    weight_filler {
      type: "gaussian"
      std: 0.01
    }
    bias_filler {
      type: "constant"
      value: 0
    }
  }
}
layers {
  bottom: "conv4_2"
  top: "conv4_2"
  name: "relu4_2"
  type: RELU
}
layers {
  bottom: "conv4_2"
  top: "conv4_3"
  name: "conv4_3"
  type: CONVOLUTION
  convolution_param {
    num_output: 512
    pad: 1
    kernel_size: 3
    weight_filler {
      type: "gaussian"
      std: 0.01
    }
    bias_filler {
      type: "constant"
      value: 0
    }
  }
}
layers {
  bottom: "conv4_3"
  top: "conv4_3"
  name: "relu4_3"
  type: RELU
}
layers {
  bottom: "conv4_3"
  top: "pool4"
  name: "pool4"
  type: POOLING
  pooling_param {
    pool: MAX
    kernel_size: 2
    stride: 2
  }
}
layers {
  bottom: "pool4"
  top: "conv5_1"
  name: "conv5_1"
  type: CONVOLUTION
  convolution_param {
    num_output: 512
    pad: 1
    kernel_size: 3
    weight_filler {
      type: "gaussian"
      std: 0.01
    }
    bias_filler {
      type: "constant"
      value: 0
    }
  }
}
layers {
  bottom: "conv5_1"
  top: "conv5_1"
  name: "relu5_1"
  type: RELU
}
layers {
  bottom: "conv5_1"
  top: "conv5_2"
  name: "conv5_2"
  type: CONVOLUTION
  convolution_param {
    num_output: 512
    pad: 1
    kernel_size: 3
    weight_filler {
      type: "gaussian"
      std: 0.01
    }
    bias_filler {
      type: "constant"
      value: 0
    }
  }
}
layers {
  bottom: "conv5_2"
  top: "conv5_2"
  name: "relu5_2"
  type: RELU
}
layers {
  bottom: "conv5_2"
  top: "conv5_3"
  name: "conv5_3"
  type: CONVOLUTION
  convolution_param {
    num_output: 512
    pad: 1
    kernel_size: 3
    weight_filler {
      type: "gaussian"
      std: 0.01
    }
    bias_filler {
      type: "constant"
      value: 0
    }
  }
}
layers {
  bottom: "conv5_3"
  top: "conv5_3"
  name: "relu5_3"
  type: RELU
}
layers {
  bottom: "conv5_3"
  top: "pool5"
  name: "pool5"
  type: POOLING
  pooling_param {
    pool: MAX
    kernel_size: 2
    stride: 2
  }
}
layers {
  bottom: "pool5"
  top: "fc6"
  name: "fc6"
  type: INNER_PRODUCT
  inner_product_param {
    num_output: 4096
    weight_filler {
      type: "gaussian"
      std: 0.01
    }
    bias_filler {
      type: "constant"
      value: 0
    }
  }
}
layers {
  bottom: "fc6"
  top: "fc6"
  name: "relu6"
  type: RELU
}
layers {
  bottom: "fc6"
  top: "fc6"
  name: "drop6"
  type: DROPOUT
  dropout_param {
    dropout_ratio: 0.5
  }
}
layers {
  bottom: "fc6"
  top: "fc7"
  name: "fc7"
  type: INNER_PRODUCT
  inner_product_param {
    num_output: 4096
    weight_filler {
      type: "gaussian"
      std: 0.01
    }
    bias_filler {
      type: "constant"
      value: 0
    }
  }
}
layers {
  bottom: "fc7"
  top: "fc7"
  name: "relu7"
  type: RELU
}
layers {
  bottom: "fc7"
  top: "fc7"
  name: "drop7"
  type: DROPOUT
  dropout_param {
    dropout_ratio: 0.5
  }
}
layers {
  bottom: "fc7"
  top: "fc8_2"
  name: "fc8_2"
  type: INNER_PRODUCT
  inner_product_param {
    num_output: 2
    weight_filler {
      type: "gaussian"
      std: 0.01
    }
    bias_filler {
      type: "constant"
      value: 0
    }
  }
}
layers {
  bottom: "fc8_2"
  bottom: "label"
  name: "loss"
  type: SOFTMAX_LOSS
}
layers {
  bottom: "fc8_2"
  bottom: "label"
  top: "accuracy"
  name: "accuracy"
  type: PER_CLASS_ACCURACY
  include {
    phase: TEST
  }
}
state {
  phase: TEST
}
I1105 00:27:30.898607  1881 layer_factory.hpp:78] Creating layer data
I1105 00:27:30.898613  1881 data_transformer.cpp:25] Loading mean file from/data/ad6813/devCaffe/caffe/clampdetMeanVal
I1105 00:27:30.899970  1881 net.cpp:67] Creating Layer data
I1105 00:27:30.899979  1881 net.cpp:356] data -> data
I1105 00:27:30.899987  1881 net.cpp:356] data -> label
I1105 00:27:30.899993  1881 net.cpp:96] Setting up data
I1105 00:27:30.899999  1881 image_data_layer.cpp:34] Opening file /data/ad6813/devCaffe/caffe/task/clamp/clampVal.txt
I1105 00:27:30.900666  1881 image_data_layer.cpp:49] A total of 2005 images.
I1105 00:27:30.906599  1881 image_data_layer.cpp:78] output data size: 8,3,224,224
I1105 00:27:30.907522  1881 net.cpp:103] Top shape: 8 3 224 224 (1204224)
I1105 00:27:30.907531  1881 net.cpp:103] Top shape: 8 1 1 1 (8)
I1105 00:27:30.907534  1881 layer_factory.hpp:78] Creating layer label_data_1_split
I1105 00:27:30.907546  1881 net.cpp:67] Creating Layer label_data_1_split
I1105 00:27:30.907548  1881 net.cpp:394] label_data_1_split <- label
I1105 00:27:30.907555  1881 net.cpp:356] label_data_1_split -> label_data_1_split_0
I1105 00:27:30.907563  1881 net.cpp:356] label_data_1_split -> label_data_1_split_1
I1105 00:27:30.907568  1881 net.cpp:96] Setting up label_data_1_split
I1105 00:27:30.907574  1881 net.cpp:103] Top shape: 8 1 1 1 (8)
I1105 00:27:30.907577  1881 net.cpp:103] Top shape: 8 1 1 1 (8)
I1105 00:27:30.907580  1881 layer_factory.hpp:78] Creating layer conv1_1
I1105 00:27:30.907587  1881 net.cpp:67] Creating Layer conv1_1
I1105 00:27:30.907589  1881 net.cpp:394] conv1_1 <- data
I1105 00:27:30.907594  1881 net.cpp:356] conv1_1 -> conv1_1
I1105 00:27:30.907600  1881 net.cpp:96] Setting up conv1_1
I1105 00:27:30.907759  1881 net.cpp:103] Top shape: 8 64 224 224 (25690112)
I1105 00:27:30.907780  1881 layer_factory.hpp:78] Creating layer relu1_1
I1105 00:27:30.907786  1881 net.cpp:67] Creating Layer relu1_1
I1105 00:27:30.907789  1881 net.cpp:394] relu1_1 <- conv1_1
I1105 00:27:30.907793  1881 net.cpp:345] relu1_1 -> conv1_1 (in-place)
I1105 00:27:30.907799  1881 net.cpp:96] Setting up relu1_1
I1105 00:27:30.907804  1881 net.cpp:103] Top shape: 8 64 224 224 (25690112)
I1105 00:27:30.907807  1881 layer_factory.hpp:78] Creating layer conv1_2
I1105 00:27:30.907812  1881 net.cpp:67] Creating Layer conv1_2
I1105 00:27:30.907815  1881 net.cpp:394] conv1_2 <- conv1_1
I1105 00:27:30.907820  1881 net.cpp:356] conv1_2 -> conv1_2
I1105 00:27:30.907825  1881 net.cpp:96] Setting up conv1_2
I1105 00:27:30.908784  1881 net.cpp:103] Top shape: 8 64 224 224 (25690112)
I1105 00:27:30.908797  1881 layer_factory.hpp:78] Creating layer relu1_2
I1105 00:27:30.908802  1881 net.cpp:67] Creating Layer relu1_2
I1105 00:27:30.908805  1881 net.cpp:394] relu1_2 <- conv1_2
I1105 00:27:30.908810  1881 net.cpp:345] relu1_2 -> conv1_2 (in-place)
I1105 00:27:30.908814  1881 net.cpp:96] Setting up relu1_2
I1105 00:27:30.908819  1881 net.cpp:103] Top shape: 8 64 224 224 (25690112)
I1105 00:27:30.908823  1881 layer_factory.hpp:78] Creating layer pool1
I1105 00:27:30.908828  1881 net.cpp:67] Creating Layer pool1
I1105 00:27:30.908831  1881 net.cpp:394] pool1 <- conv1_2
I1105 00:27:30.908835  1881 net.cpp:356] pool1 -> pool1
I1105 00:27:30.908839  1881 net.cpp:96] Setting up pool1
I1105 00:27:30.908848  1881 net.cpp:103] Top shape: 8 64 112 112 (6422528)
I1105 00:27:30.908850  1881 layer_factory.hpp:78] Creating layer conv2_1
I1105 00:27:30.908855  1881 net.cpp:67] Creating Layer conv2_1
I1105 00:27:30.908857  1881 net.cpp:394] conv2_1 <- pool1
I1105 00:27:30.908862  1881 net.cpp:356] conv2_1 -> conv2_1
I1105 00:27:30.908867  1881 net.cpp:96] Setting up conv2_1
I1105 00:27:30.910838  1881 net.cpp:103] Top shape: 8 128 112 112 (12845056)
I1105 00:27:30.910851  1881 layer_factory.hpp:78] Creating layer relu2_1
I1105 00:27:30.910857  1881 net.cpp:67] Creating Layer relu2_1
I1105 00:27:30.910861  1881 net.cpp:394] relu2_1 <- conv2_1
I1105 00:27:30.910866  1881 net.cpp:345] relu2_1 -> conv2_1 (in-place)
I1105 00:27:30.910871  1881 net.cpp:96] Setting up relu2_1
I1105 00:27:30.910876  1881 net.cpp:103] Top shape: 8 128 112 112 (12845056)
I1105 00:27:30.910879  1881 layer_factory.hpp:78] Creating layer conv2_2
I1105 00:27:30.910884  1881 net.cpp:67] Creating Layer conv2_2
I1105 00:27:30.910887  1881 net.cpp:394] conv2_2 <- conv2_1
I1105 00:27:30.910892  1881 net.cpp:356] conv2_2 -> conv2_2
I1105 00:27:30.910897  1881 net.cpp:96] Setting up conv2_2
I1105 00:27:30.914515  1881 net.cpp:103] Top shape: 8 128 112 112 (12845056)
I1105 00:27:30.914527  1881 layer_factory.hpp:78] Creating layer relu2_2
I1105 00:27:30.914532  1881 net.cpp:67] Creating Layer relu2_2
I1105 00:27:30.914536  1881 net.cpp:394] relu2_2 <- conv2_2
I1105 00:27:30.914541  1881 net.cpp:345] relu2_2 -> conv2_2 (in-place)
I1105 00:27:30.914546  1881 net.cpp:96] Setting up relu2_2
I1105 00:27:30.914551  1881 net.cpp:103] Top shape: 8 128 112 112 (12845056)
I1105 00:27:30.914553  1881 layer_factory.hpp:78] Creating layer pool2
I1105 00:27:30.914558  1881 net.cpp:67] Creating Layer pool2
I1105 00:27:30.914561  1881 net.cpp:394] pool2 <- conv2_2
I1105 00:27:30.914566  1881 net.cpp:356] pool2 -> pool2
I1105 00:27:30.914571  1881 net.cpp:96] Setting up pool2
I1105 00:27:30.914576  1881 net.cpp:103] Top shape: 8 128 56 56 (3211264)
I1105 00:27:30.914578  1881 layer_factory.hpp:78] Creating layer conv3_1
I1105 00:27:30.914583  1881 net.cpp:67] Creating Layer conv3_1
I1105 00:27:30.914587  1881 net.cpp:394] conv3_1 <- pool2
I1105 00:27:30.914590  1881 net.cpp:356] conv3_1 -> conv3_1
I1105 00:27:30.914595  1881 net.cpp:96] Setting up conv3_1
I1105 00:27:30.921773  1881 net.cpp:103] Top shape: 8 256 56 56 (6422528)
I1105 00:27:30.921787  1881 layer_factory.hpp:78] Creating layer relu3_1
I1105 00:27:30.921792  1881 net.cpp:67] Creating Layer relu3_1
I1105 00:27:30.921804  1881 net.cpp:394] relu3_1 <- conv3_1
I1105 00:27:30.921809  1881 net.cpp:345] relu3_1 -> conv3_1 (in-place)
I1105 00:27:30.921814  1881 net.cpp:96] Setting up relu3_1
I1105 00:27:30.921819  1881 net.cpp:103] Top shape: 8 256 56 56 (6422528)
I1105 00:27:30.921823  1881 layer_factory.hpp:78] Creating layer conv3_2
I1105 00:27:30.921828  1881 net.cpp:67] Creating Layer conv3_2
I1105 00:27:30.921830  1881 net.cpp:394] conv3_2 <- conv3_1
I1105 00:27:30.921835  1881 net.cpp:356] conv3_2 -> conv3_2
I1105 00:27:30.921839  1881 net.cpp:96] Setting up conv3_2
I1105 00:27:30.936231  1881 net.cpp:103] Top shape: 8 256 56 56 (6422528)
I1105 00:27:30.936250  1881 layer_factory.hpp:78] Creating layer relu3_2
I1105 00:27:30.936259  1881 net.cpp:67] Creating Layer relu3_2
I1105 00:27:30.936262  1881 net.cpp:394] relu3_2 <- conv3_2
I1105 00:27:30.936267  1881 net.cpp:345] relu3_2 -> conv3_2 (in-place)
I1105 00:27:30.936274  1881 net.cpp:96] Setting up relu3_2
I1105 00:27:30.936280  1881 net.cpp:103] Top shape: 8 256 56 56 (6422528)
I1105 00:27:30.936282  1881 layer_factory.hpp:78] Creating layer conv3_3
I1105 00:27:30.936290  1881 net.cpp:67] Creating Layer conv3_3
I1105 00:27:30.936293  1881 net.cpp:394] conv3_3 <- conv3_2
I1105 00:27:30.936298  1881 net.cpp:356] conv3_3 -> conv3_3
I1105 00:27:30.936305  1881 net.cpp:96] Setting up conv3_3
I1105 00:27:30.951007  1881 net.cpp:103] Top shape: 8 256 56 56 (6422528)
I1105 00:27:30.951028  1881 layer_factory.hpp:78] Creating layer relu3_3
I1105 00:27:30.951038  1881 net.cpp:67] Creating Layer relu3_3
I1105 00:27:30.951042  1881 net.cpp:394] relu3_3 <- conv3_3
I1105 00:27:30.951048  1881 net.cpp:345] relu3_3 -> conv3_3 (in-place)
I1105 00:27:30.951055  1881 net.cpp:96] Setting up relu3_3
I1105 00:27:30.951059  1881 net.cpp:103] Top shape: 8 256 56 56 (6422528)
I1105 00:27:30.951063  1881 layer_factory.hpp:78] Creating layer pool3
I1105 00:27:30.951068  1881 net.cpp:67] Creating Layer pool3
I1105 00:27:30.951071  1881 net.cpp:394] pool3 <- conv3_3
I1105 00:27:30.951077  1881 net.cpp:356] pool3 -> pool3
I1105 00:27:30.951082  1881 net.cpp:96] Setting up pool3
I1105 00:27:30.951091  1881 net.cpp:103] Top shape: 8 256 28 28 (1605632)
I1105 00:27:30.951094  1881 layer_factory.hpp:78] Creating layer conv4_1
I1105 00:27:30.951099  1881 net.cpp:67] Creating Layer conv4_1
I1105 00:27:30.951102  1881 net.cpp:394] conv4_1 <- pool3
I1105 00:27:30.951108  1881 net.cpp:356] conv4_1 -> conv4_1
I1105 00:27:30.951113  1881 net.cpp:96] Setting up conv4_1
I1105 00:27:30.980224  1881 net.cpp:103] Top shape: 8 512 28 28 (3211264)
I1105 00:27:30.980247  1881 layer_factory.hpp:78] Creating layer relu4_1
I1105 00:27:30.980257  1881 net.cpp:67] Creating Layer relu4_1
I1105 00:27:30.980262  1881 net.cpp:394] relu4_1 <- conv4_1
I1105 00:27:30.980268  1881 net.cpp:345] relu4_1 -> conv4_1 (in-place)
I1105 00:27:30.980274  1881 net.cpp:96] Setting up relu4_1
I1105 00:27:30.980280  1881 net.cpp:103] Top shape: 8 512 28 28 (3211264)
I1105 00:27:30.980283  1881 layer_factory.hpp:78] Creating layer conv4_2
I1105 00:27:30.980290  1881 net.cpp:67] Creating Layer conv4_2
I1105 00:27:30.980293  1881 net.cpp:394] conv4_2 <- conv4_1
I1105 00:27:30.980298  1881 net.cpp:356] conv4_2 -> conv4_2
I1105 00:27:30.980303  1881 net.cpp:96] Setting up conv4_2
I1105 00:27:31.037600  1881 net.cpp:103] Top shape: 8 512 28 28 (3211264)
I1105 00:27:31.037631  1881 layer_factory.hpp:78] Creating layer relu4_2
I1105 00:27:31.037641  1881 net.cpp:67] Creating Layer relu4_2
I1105 00:27:31.037644  1881 net.cpp:394] relu4_2 <- conv4_2
I1105 00:27:31.037652  1881 net.cpp:345] relu4_2 -> conv4_2 (in-place)
I1105 00:27:31.037659  1881 net.cpp:96] Setting up relu4_2
I1105 00:27:31.037664  1881 net.cpp:103] Top shape: 8 512 28 28 (3211264)
I1105 00:27:31.037668  1881 layer_factory.hpp:78] Creating layer conv4_3
I1105 00:27:31.037674  1881 net.cpp:67] Creating Layer conv4_3
I1105 00:27:31.037677  1881 net.cpp:394] conv4_3 <- conv4_2
I1105 00:27:31.037683  1881 net.cpp:356] conv4_3 -> conv4_3
I1105 00:27:31.037690  1881 net.cpp:96] Setting up conv4_3
I1105 00:27:31.095304  1881 net.cpp:103] Top shape: 8 512 28 28 (3211264)
I1105 00:27:31.095332  1881 layer_factory.hpp:78] Creating layer relu4_3
I1105 00:27:31.095340  1881 net.cpp:67] Creating Layer relu4_3
I1105 00:27:31.095346  1881 net.cpp:394] relu4_3 <- conv4_3
I1105 00:27:31.095355  1881 net.cpp:345] relu4_3 -> conv4_3 (in-place)
I1105 00:27:31.095360  1881 net.cpp:96] Setting up relu4_3
I1105 00:27:31.095366  1881 net.cpp:103] Top shape: 8 512 28 28 (3211264)
I1105 00:27:31.095370  1881 layer_factory.hpp:78] Creating layer pool4
I1105 00:27:31.095376  1881 net.cpp:67] Creating Layer pool4
I1105 00:27:31.095378  1881 net.cpp:394] pool4 <- conv4_3
I1105 00:27:31.095382  1881 net.cpp:356] pool4 -> pool4
I1105 00:27:31.095388  1881 net.cpp:96] Setting up pool4
I1105 00:27:31.095396  1881 net.cpp:103] Top shape: 8 512 14 14 (802816)
I1105 00:27:31.095398  1881 layer_factory.hpp:78] Creating layer conv5_1
I1105 00:27:31.095405  1881 net.cpp:67] Creating Layer conv5_1
I1105 00:27:31.095409  1881 net.cpp:394] conv5_1 <- pool4
I1105 00:27:31.095413  1881 net.cpp:356] conv5_1 -> conv5_1
I1105 00:27:31.095418  1881 net.cpp:96] Setting up conv5_1
I1105 00:27:31.152740  1881 net.cpp:103] Top shape: 8 512 14 14 (802816)
I1105 00:27:31.152766  1881 layer_factory.hpp:78] Creating layer relu5_1
I1105 00:27:31.152776  1881 net.cpp:67] Creating Layer relu5_1
I1105 00:27:31.152781  1881 net.cpp:394] relu5_1 <- conv5_1
I1105 00:27:31.152787  1881 net.cpp:345] relu5_1 -> conv5_1 (in-place)
I1105 00:27:31.152794  1881 net.cpp:96] Setting up relu5_1
I1105 00:27:31.152799  1881 net.cpp:103] Top shape: 8 512 14 14 (802816)
I1105 00:27:31.152803  1881 layer_factory.hpp:78] Creating layer conv5_2
I1105 00:27:31.152809  1881 net.cpp:67] Creating Layer conv5_2
I1105 00:27:31.152812  1881 net.cpp:394] conv5_2 <- conv5_1
I1105 00:27:31.152817  1881 net.cpp:356] conv5_2 -> conv5_2
I1105 00:27:31.152823  1881 net.cpp:96] Setting up conv5_2
I1105 00:27:31.210412  1881 net.cpp:103] Top shape: 8 512 14 14 (802816)
I1105 00:27:31.210438  1881 layer_factory.hpp:78] Creating layer relu5_2
I1105 00:27:31.210445  1881 net.cpp:67] Creating Layer relu5_2
I1105 00:27:31.210450  1881 net.cpp:394] relu5_2 <- conv5_2
I1105 00:27:31.210458  1881 net.cpp:345] relu5_2 -> conv5_2 (in-place)
I1105 00:27:31.210464  1881 net.cpp:96] Setting up relu5_2
I1105 00:27:31.210470  1881 net.cpp:103] Top shape: 8 512 14 14 (802816)
I1105 00:27:31.210474  1881 layer_factory.hpp:78] Creating layer conv5_3
I1105 00:27:31.210479  1881 net.cpp:67] Creating Layer conv5_3
I1105 00:27:31.210481  1881 net.cpp:394] conv5_3 <- conv5_2
I1105 00:27:31.210487  1881 net.cpp:356] conv5_3 -> conv5_3
I1105 00:27:31.210494  1881 net.cpp:96] Setting up conv5_3
I1105 00:27:31.267974  1881 net.cpp:103] Top shape: 8 512 14 14 (802816)
I1105 00:27:31.268002  1881 layer_factory.hpp:78] Creating layer relu5_3
I1105 00:27:31.268012  1881 net.cpp:67] Creating Layer relu5_3
I1105 00:27:31.268017  1881 net.cpp:394] relu5_3 <- conv5_3
I1105 00:27:31.268025  1881 net.cpp:345] relu5_3 -> conv5_3 (in-place)
I1105 00:27:31.268033  1881 net.cpp:96] Setting up relu5_3
I1105 00:27:31.268038  1881 net.cpp:103] Top shape: 8 512 14 14 (802816)
I1105 00:27:31.268041  1881 layer_factory.hpp:78] Creating layer pool5
I1105 00:27:31.268051  1881 net.cpp:67] Creating Layer pool5
I1105 00:27:31.268055  1881 net.cpp:394] pool5 <- conv5_3
I1105 00:27:31.268059  1881 net.cpp:356] pool5 -> pool5
I1105 00:27:31.268066  1881 net.cpp:96] Setting up pool5
I1105 00:27:31.268076  1881 net.cpp:103] Top shape: 8 512 7 7 (200704)
I1105 00:27:31.268081  1881 layer_factory.hpp:78] Creating layer fc6
I1105 00:27:31.268087  1881 net.cpp:67] Creating Layer fc6
I1105 00:27:31.268090  1881 net.cpp:394] fc6 <- pool5
I1105 00:27:31.268097  1881 net.cpp:356] fc6 -> fc6
I1105 00:27:31.268105  1881 net.cpp:96] Setting up fc6
I1105 00:27:33.751546  1881 net.cpp:103] Top shape: 8 4096 1 1 (32768)
I1105 00:27:33.751577  1881 layer_factory.hpp:78] Creating layer relu6
I1105 00:27:33.751585  1881 net.cpp:67] Creating Layer relu6
I1105 00:27:33.751600  1881 net.cpp:394] relu6 <- fc6
I1105 00:27:33.751610  1881 net.cpp:345] relu6 -> fc6 (in-place)
I1105 00:27:33.751616  1881 net.cpp:96] Setting up relu6
I1105 00:27:33.751631  1881 net.cpp:103] Top shape: 8 4096 1 1 (32768)
I1105 00:27:33.751633  1881 layer_factory.hpp:78] Creating layer drop6
I1105 00:27:33.751638  1881 net.cpp:67] Creating Layer drop6
I1105 00:27:33.751641  1881 net.cpp:394] drop6 <- fc6
I1105 00:27:33.751646  1881 net.cpp:345] drop6 -> fc6 (in-place)
I1105 00:27:33.751651  1881 net.cpp:96] Setting up drop6
I1105 00:27:33.751653  1881 net.cpp:103] Top shape: 8 4096 1 1 (32768)
I1105 00:27:33.751657  1881 layer_factory.hpp:78] Creating layer fc7
I1105 00:27:33.751663  1881 net.cpp:67] Creating Layer fc7
I1105 00:27:33.751667  1881 net.cpp:394] fc7 <- fc6
I1105 00:27:33.751672  1881 net.cpp:356] fc7 -> fc7
I1105 00:27:33.751677  1881 net.cpp:96] Setting up fc7
I1105 00:27:34.158022  1881 net.cpp:103] Top shape: 8 4096 1 1 (32768)
I1105 00:27:34.158053  1881 layer_factory.hpp:78] Creating layer relu7
I1105 00:27:34.158061  1881 net.cpp:67] Creating Layer relu7
I1105 00:27:34.158066  1881 net.cpp:394] relu7 <- fc7
I1105 00:27:34.158073  1881 net.cpp:345] relu7 -> fc7 (in-place)
I1105 00:27:34.158079  1881 net.cpp:96] Setting up relu7
I1105 00:27:34.158093  1881 net.cpp:103] Top shape: 8 4096 1 1 (32768)
I1105 00:27:34.158097  1881 layer_factory.hpp:78] Creating layer drop7
I1105 00:27:34.158102  1881 net.cpp:67] Creating Layer drop7
I1105 00:27:34.158104  1881 net.cpp:394] drop7 <- fc7
I1105 00:27:34.158109  1881 net.cpp:345] drop7 -> fc7 (in-place)
I1105 00:27:34.158114  1881 net.cpp:96] Setting up drop7
I1105 00:27:34.158118  1881 net.cpp:103] Top shape: 8 4096 1 1 (32768)
I1105 00:27:34.158121  1881 layer_factory.hpp:78] Creating layer fc8_2
I1105 00:27:34.158126  1881 net.cpp:67] Creating Layer fc8_2
I1105 00:27:34.158129  1881 net.cpp:394] fc8_2 <- fc7
I1105 00:27:34.158135  1881 net.cpp:356] fc8_2 -> fc8_2
I1105 00:27:34.158141  1881 net.cpp:96] Setting up fc8_2
I1105 00:27:34.158350  1881 net.cpp:103] Top shape: 8 2 1 1 (16)
I1105 00:27:34.158359  1881 layer_factory.hpp:78] Creating layer fc8_2_fc8_2_0_split
I1105 00:27:34.158363  1881 net.cpp:67] Creating Layer fc8_2_fc8_2_0_split
I1105 00:27:34.158366  1881 net.cpp:394] fc8_2_fc8_2_0_split <- fc8_2
I1105 00:27:34.158370  1881 net.cpp:356] fc8_2_fc8_2_0_split -> fc8_2_fc8_2_0_split_0
I1105 00:27:34.158378  1881 net.cpp:356] fc8_2_fc8_2_0_split -> fc8_2_fc8_2_0_split_1
I1105 00:27:34.158387  1881 net.cpp:96] Setting up fc8_2_fc8_2_0_split
I1105 00:27:34.158391  1881 net.cpp:103] Top shape: 8 2 1 1 (16)
I1105 00:27:34.158395  1881 net.cpp:103] Top shape: 8 2 1 1 (16)
I1105 00:27:34.158397  1881 layer_factory.hpp:78] Creating layer loss
I1105 00:27:34.158404  1881 net.cpp:67] Creating Layer loss
I1105 00:27:34.158407  1881 net.cpp:394] loss <- fc8_2_fc8_2_0_split_0
I1105 00:27:34.158411  1881 net.cpp:394] loss <- label_data_1_split_0
I1105 00:27:34.158416  1881 net.cpp:356] loss -> (automatic)
I1105 00:27:34.158419  1881 net.cpp:96] Setting up loss
I1105 00:27:34.158426  1881 net.cpp:103] Top shape: 1 1 1 1 (1)
I1105 00:27:34.158428  1881 net.cpp:109]     with loss weight 1
I1105 00:27:34.158443  1881 layer_factory.hpp:78] Creating layer accuracy
I1105 00:27:34.158452  1881 net.cpp:67] Creating Layer accuracy
I1105 00:27:34.158457  1881 net.cpp:394] accuracy <- fc8_2_fc8_2_0_split_1
I1105 00:27:34.158459  1881 net.cpp:394] accuracy <- label_data_1_split_1
I1105 00:27:34.158465  1881 net.cpp:356] accuracy -> accuracy
I1105 00:27:34.158471  1881 net.cpp:96] Setting up accuracy
I1105 00:27:34.158478  1881 net.cpp:103] Top shape: 1 1 1 4 (4)
I1105 00:27:34.158481  1881 net.cpp:172] accuracy does not need backward computation.
I1105 00:27:34.158484  1881 net.cpp:170] loss needs backward computation.
I1105 00:27:34.158488  1881 net.cpp:170] fc8_2_fc8_2_0_split needs backward computation.
I1105 00:27:34.158490  1881 net.cpp:170] fc8_2 needs backward computation.
I1105 00:27:34.158493  1881 net.cpp:170] drop7 needs backward computation.
…
