…
I1105 20:33:31.270495  3026 net.cpp:275] The NetState phase (0) differed from the phase (1) specified by a rule in layer accuracy
I1105 20:33:31.270714  3026 net.cpp:39] Initializing net from parameters: 
name: "big"
layers {
  top: "data"
  top: "label"
  name: "data"
  type: IMAGE_DATA
  image_data_param {
    source: "/data/ad6813/devCaffe/caffe/task/clamp/clampTrain.txt"
    batch_size: 28
    new_height: 256
    new_width: 256
  }
  include {
    phase: TRAIN
  }
  transform_param {
    mirror: true
    crop_size: 224
    mean_value: 86.752
    mean_value: 101.46
    mean_value: 104.6
  }
}
layers {
  bottom: "data"
  top: "conv1_1"
  name: "conv1_1"
  type: CONVOLUTION
  convolution_param {
    num_output: 64
    pad: 1
    kernel_size: 3
    weight_filler {
      type: "gaussian"
      std: 0.01
    }
    bias_filler {
      type: "constant"
      value: 0
    }
  }
}
layers {
  bottom: "conv1_1"
  top: "conv1_1"
  name: "relu1_1"
  type: RELU
}
layers {
  bottom: "conv1_1"
  top: "conv1_2"
  name: "conv1_2"
  type: CONVOLUTION
  convolution_param {
    num_output: 64
    pad: 1
    kernel_size: 3
    weight_filler {
      type: "gaussian"
      std: 0.01
    }
    bias_filler {
      type: "constant"
      value: 0
    }
  }
}
layers {
  bottom: "conv1_2"
  top: "conv1_2"
  name: "relu1_2"
  type: RELU
}
layers {
  bottom: "conv1_2"
  top: "pool1"
  name: "pool1"
  type: POOLING
  pooling_param {
    pool: MAX
    kernel_size: 2
    stride: 2
  }
}
layers {
  bottom: "pool1"
  top: "conv2_1"
  name: "conv2_1"
  type: CONVOLUTION
  convolution_param {
    num_output: 128
    pad: 1
    kernel_size: 3
    weight_filler {
      type: "gaussian"
      std: 0.01
    }
    bias_filler {
      type: "constant"
      value: 0
    }
  }
}
layers {
  bottom: "conv2_1"
  top: "conv2_1"
  name: "relu2_1"
  type: RELU
}
layers {
  bottom: "conv2_1"
  top: "conv2_2"
  name: "conv2_2"
  type: CONVOLUTION
  convolution_param {
    num_output: 128
    pad: 1
    kernel_size: 3
    weight_filler {
      type: "gaussian"
      std: 0.01
    }
    bias_filler {
      type: "constant"
      value: 0
    }
  }
}
layers {
  bottom: "conv2_2"
  top: "conv2_2"
  name: "relu2_2"
  type: RELU
}
layers {
  bottom: "conv2_2"
  top: "pool2"
  name: "pool2"
  type: POOLING
  pooling_param {
    pool: MAX
    kernel_size: 2
    stride: 2
  }
}
layers {
  bottom: "pool2"
  top: "conv3_1"
  name: "conv3_1"
  type: CONVOLUTION
  convolution_param {
    num_output: 256
    pad: 1
    kernel_size: 3
    weight_filler {
      type: "gaussian"
      std: 0.01
    }
    bias_filler {
      type: "constant"
      value: 0
    }
  }
}
layers {
  bottom: "conv3_1"
  top: "conv3_1"
  name: "relu3_1"
  type: RELU
}
layers {
  bottom: "conv3_1"
  top: "conv3_2"
  name: "conv3_2"
  type: CONVOLUTION
  convolution_param {
    num_output: 256
    pad: 1
    kernel_size: 3
    weight_filler {
      type: "gaussian"
      std: 0.01
    }
    bias_filler {
      type: "constant"
      value: 0
    }
  }
}
layers {
  bottom: "conv3_2"
  top: "conv3_2"
  name: "relu3_2"
  type: RELU
}
layers {
  bottom: "conv3_2"
  top: "conv3_3"
  name: "conv3_3"
  type: CONVOLUTION
  convolution_param {
    num_output: 256
    pad: 1
    kernel_size: 3
    weight_filler {
      type: "gaussian"
      std: 0.01
    }
    bias_filler {
      type: "constant"
      value: 0
    }
  }
}
layers {
  bottom: "conv3_3"
  top: "conv3_3"
  name: "relu3_3"
  type: RELU
}
layers {
  bottom: "conv3_3"
  top: "conv3_4"
  name: "conv3_4"
  type: CONVOLUTION
  convolution_param {
    num_output: 256
    pad: 1
    kernel_size: 3
    weight_filler {
      type: "gaussian"
      std: 0.01
    }
    bias_filler {
      type: "constant"
      value: 0
    }
  }
}
layers {
  bottom: "conv3_4"
  top: "conv3_4"
  name: "relu3_4"
  type: RELU
}
layers {
  bottom: "conv3_4"
  top: "pool3"
  name: "pool3"
  type: POOLING
  pooling_param {
    pool: MAX
    kernel_size: 2
    stride: 2
  }
}
layers {
  bottom: "pool3"
  top: "conv4_1"
  name: "conv4_1"
  type: CONVOLUTION
  convolution_param {
    num_output: 512
    pad: 1
    kernel_size: 3
    weight_filler {
      type: "gaussian"
      std: 0.01
    }
    bias_filler {
      type: "constant"
      value: 0
    }
  }
}
layers {
  bottom: "conv4_1"
  top: "conv4_1"
  name: "relu4_1"
  type: RELU
}
layers {
  bottom: "conv4_1"
  top: "conv4_2"
  name: "conv4_2"
  type: CONVOLUTION
  convolution_param {
    num_output: 512
    pad: 1
    kernel_size: 3
    weight_filler {
      type: "gaussian"
      std: 0.01
    }
    bias_filler {
      type: "constant"
      value: 0
    }
  }
}
layers {
  bottom: "conv4_2"
  top: "conv4_2"
  name: "relu4_2"
  type: RELU
}
layers {
  bottom: "conv4_2"
  top: "conv4_3"
  name: "conv4_3"
  type: CONVOLUTION
  convolution_param {
    num_output: 512
    pad: 1
    kernel_size: 3
    weight_filler {
      type: "gaussian"
      std: 0.01
    }
    bias_filler {
      type: "constant"
      value: 0
    }
  }
}
layers {
  bottom: "conv4_3"
  top: "conv4_3"
  name: "relu4_3"
  type: RELU
}
layers {
  bottom: "conv4_3"
  top: "conv4_4"
  name: "conv4_4"
  type: CONVOLUTION
  convolution_param {
    num_output: 512
    pad: 1
    kernel_size: 3
    weight_filler {
      type: "gaussian"
      std: 0.01
    }
    bias_filler {
      type: "constant"
      value: 0
    }
  }
}
layers {
  bottom: "conv4_4"
  top: "conv4_4"
  name: "relu4_4"
  type: RELU
}
layers {
  bottom: "conv4_4"
  top: "pool4"
  name: "pool4"
  type: POOLING
  pooling_param {
    pool: MAX
    kernel_size: 2
    stride: 2
  }
}
layers {
  bottom: "pool4"
  top: "conv5_1"
  name: "conv5_1"
  type: CONVOLUTION
  convolution_param {
    num_output: 512
    pad: 1
    kernel_size: 3
    weight_filler {
      type: "gaussian"
      std: 0.01
    }
    bias_filler {
      type: "constant"
      value: 0
    }
  }
}
layers {
  bottom: "conv5_1"
  top: "conv5_1"
  name: "relu5_1"
  type: RELU
}
layers {
  bottom: "conv5_1"
  top: "conv5_2"
  name: "conv5_2"
  type: CONVOLUTION
  convolution_param {
    num_output: 512
    pad: 1
    kernel_size: 3
    weight_filler {
      type: "gaussian"
      std: 0.01
    }
    bias_filler {
      type: "constant"
      value: 0
    }
  }
}
layers {
  bottom: "conv5_2"
  top: "conv5_2"
  name: "relu5_2"
  type: RELU
}
layers {
  bottom: "conv5_2"
  top: "conv5_3"
  name: "conv5_3"
  type: CONVOLUTION
  convolution_param {
    num_output: 512
    pad: 1
    kernel_size: 3
    weight_filler {
      type: "gaussian"
      std: 0.01
    }
    bias_filler {
      type: "constant"
      value: 0
    }
  }
}
layers {
  bottom: "conv5_3"
  top: "conv5_3"
  name: "relu5_3"
  type: RELU
}
layers {
  bottom: "conv5_3"
  top: "conv5_4"
  name: "conv5_4"
  type: CONVOLUTION
  convolution_param {
    num_output: 512
    pad: 1
    kernel_size: 3
    weight_filler {
      type: "gaussian"
      std: 0.01
    }
    bias_filler {
      type: "constant"
      value: 0
    }
  }
}
layers {
  bottom: "conv5_4"
  top: "conv5_4"
  name: "relu5_4"
  type: RELU
}
layers {
  bottom: "conv5_4"
  top: "pool5"
  name: "pool5"
  type: POOLING
  pooling_param {
    pool: MAX
    kernel_size: 2
    stride: 2
  }
}
layers {
  bottom: "pool5"
  top: "fc6"
  name: "fc6"
  type: INNER_PRODUCT
  inner_product_param {
    num_output: 4096
    weight_filler {
      type: "gaussian"
      std: 0.01
    }
    bias_filler {
      type: "constant"
      value: 0
    }
  }
}
layers {
  bottom: "fc6"
  top: "fc6"
  name: "relu6"
  type: RELU
}
layers {
  bottom: "fc6"
  top: "fc6"
  name: "drop6"
  type: DROPOUT
  dropout_param {
    dropout_ratio: 0.5
  }
}
layers {
  bottom: "fc6"
  top: "fc7"
  name: "fc7"
  type: INNER_PRODUCT
  inner_product_param {
    num_output: 4096
    weight_filler {
      type: "gaussian"
      std: 0.01
    }
    bias_filler {
      type: "constant"
      value: 0
    }
  }
}
layers {
  bottom: "fc7"
  top: "fc7"
  name: "relu7"
  type: RELU
}
layers {
  bottom: "fc7"
  top: "fc7"
  name: "drop7"
  type: DROPOUT
  dropout_param {
    dropout_ratio: 0.5
  }
}
layers {
  bottom: "fc7"
  top: "fc8_2"
  name: "fc8_2"
  type: INNER_PRODUCT
  inner_product_param {
    num_output: 2
    weight_filler {
      type: "gaussian"
      std: 0.01
    }
    bias_filler {
      type: "constant"
      value: 0
    }
  }
}
layers {
  bottom: "fc8_2"
  bottom: "label"
  name: "loss"
  type: SOFTMAX_LOSS
}
state {
  phase: TRAIN
}
I1105 20:33:31.270843  3026 layer_factory.hpp:78] Creating layer data
I1105 20:33:31.270861  3026 net.cpp:67] Creating Layer data
I1105 20:33:31.270869  3026 net.cpp:356] data -> data
I1105 20:33:31.270884  3026 net.cpp:356] data -> label
I1105 20:33:31.270895  3026 net.cpp:96] Setting up data
I1105 20:33:31.270902  3026 image_data_layer.cpp:34] Opening file /data/ad6813/devCaffe/caffe/task/clamp/clampTrain.txt
I1105 20:33:31.279036  3026 image_data_layer.cpp:49] A total of 23494 images.
I1105 20:33:31.289919  3026 image_data_layer.cpp:78] output data size: 28,3,224,224
I1105 20:33:31.292498  3026 net.cpp:103] Top shape: 28 3 224 224 (4214784)
I1105 20:33:31.292525  3026 net.cpp:103] Top shape: 28 1 1 1 (28)
I1105 20:33:31.292529  3026 layer_factory.hpp:78] Creating layer conv1_1
I1105 20:33:31.292543  3026 net.cpp:67] Creating Layer conv1_1
I1105 20:33:31.292547  3026 net.cpp:394] conv1_1 <- data
I1105 20:33:31.292562  3026 net.cpp:356] conv1_1 -> conv1_1
I1105 20:33:31.292572  3026 net.cpp:96] Setting up conv1_1
I1105 20:33:31.311583  3026 net.cpp:103] Top shape: 28 64 224 224 (89915392)
I1105 20:33:31.311619  3026 layer_factory.hpp:78] Creating layer relu1_1
I1105 20:33:31.311631  3026 net.cpp:67] Creating Layer relu1_1
I1105 20:33:31.311636  3026 net.cpp:394] relu1_1 <- conv1_1
I1105 20:33:31.311643  3026 net.cpp:345] relu1_1 -> conv1_1 (in-place)
I1105 20:33:31.311652  3026 net.cpp:96] Setting up relu1_1
I1105 20:33:31.311661  3026 net.cpp:103] Top shape: 28 64 224 224 (89915392)
I1105 20:33:31.311666  3026 layer_factory.hpp:78] Creating layer conv1_2
I1105 20:33:31.311673  3026 net.cpp:67] Creating Layer conv1_2
I1105 20:33:31.311677  3026 net.cpp:394] conv1_2 <- conv1_1
I1105 20:33:31.311682  3026 net.cpp:356] conv1_2 -> conv1_2
I1105 20:33:31.311689  3026 net.cpp:96] Setting up conv1_2
I1105 20:33:31.312777  3026 net.cpp:103] Top shape: 28 64 224 224 (89915392)
I1105 20:33:31.312790  3026 layer_factory.hpp:78] Creating layer relu1_2
I1105 20:33:31.312798  3026 net.cpp:67] Creating Layer relu1_2
I1105 20:33:31.312800  3026 net.cpp:394] relu1_2 <- conv1_2
I1105 20:33:31.312805  3026 net.cpp:345] relu1_2 -> conv1_2 (in-place)
I1105 20:33:31.312810  3026 net.cpp:96] Setting up relu1_2
I1105 20:33:31.312815  3026 net.cpp:103] Top shape: 28 64 224 224 (89915392)
I1105 20:33:31.312819  3026 layer_factory.hpp:78] Creating layer pool1
I1105 20:33:31.312829  3026 net.cpp:67] Creating Layer pool1
I1105 20:33:31.312832  3026 net.cpp:394] pool1 <- conv1_2
I1105 20:33:31.312836  3026 net.cpp:356] pool1 -> pool1
I1105 20:33:31.312842  3026 net.cpp:96] Setting up pool1
I1105 20:33:31.312860  3026 net.cpp:103] Top shape: 28 64 112 112 (22478848)
I1105 20:33:31.312866  3026 layer_factory.hpp:78] Creating layer conv2_1
I1105 20:33:31.312873  3026 net.cpp:67] Creating Layer conv2_1
I1105 20:33:31.312876  3026 net.cpp:394] conv2_1 <- pool1
I1105 20:33:31.312881  3026 net.cpp:356] conv2_1 -> conv2_1
I1105 20:33:31.312887  3026 net.cpp:96] Setting up conv2_1
I1105 20:33:31.314805  3026 net.cpp:103] Top shape: 28 128 112 112 (44957696)
I1105 20:33:31.314821  3026 layer_factory.hpp:78] Creating layer relu2_1
I1105 20:33:31.314833  3026 net.cpp:67] Creating Layer relu2_1
I1105 20:33:31.314837  3026 net.cpp:394] relu2_1 <- conv2_1
I1105 20:33:31.314841  3026 net.cpp:345] relu2_1 -> conv2_1 (in-place)
I1105 20:33:31.314846  3026 net.cpp:96] Setting up relu2_1
I1105 20:33:31.314852  3026 net.cpp:103] Top shape: 28 128 112 112 (44957696)
I1105 20:33:31.314856  3026 layer_factory.hpp:78] Creating layer conv2_2
I1105 20:33:31.314863  3026 net.cpp:67] Creating Layer conv2_2
I1105 20:33:31.314867  3026 net.cpp:394] conv2_2 <- conv2_1
I1105 20:33:31.314872  3026 net.cpp:356] conv2_2 -> conv2_2
I1105 20:33:31.314877  3026 net.cpp:96] Setting up conv2_2
I1105 20:33:31.318640  3026 net.cpp:103] Top shape: 28 128 112 112 (44957696)
I1105 20:33:31.318655  3026 layer_factory.hpp:78] Creating layer relu2_2
I1105 20:33:31.318660  3026 net.cpp:67] Creating Layer relu2_2
I1105 20:33:31.318662  3026 net.cpp:394] relu2_2 <- conv2_2
I1105 20:33:31.318667  3026 net.cpp:345] relu2_2 -> conv2_2 (in-place)
I1105 20:33:31.318672  3026 net.cpp:96] Setting up relu2_2
I1105 20:33:31.318677  3026 net.cpp:103] Top shape: 28 128 112 112 (44957696)
I1105 20:33:31.318681  3026 layer_factory.hpp:78] Creating layer pool2
I1105 20:33:31.318687  3026 net.cpp:67] Creating Layer pool2
I1105 20:33:31.318691  3026 net.cpp:394] pool2 <- conv2_2
I1105 20:33:31.318696  3026 net.cpp:356] pool2 -> pool2
I1105 20:33:31.318701  3026 net.cpp:96] Setting up pool2
I1105 20:33:31.318706  3026 net.cpp:103] Top shape: 28 128 56 56 (11239424)
I1105 20:33:31.318711  3026 layer_factory.hpp:78] Creating layer conv3_1
I1105 20:33:31.318717  3026 net.cpp:67] Creating Layer conv3_1
I1105 20:33:31.318720  3026 net.cpp:394] conv3_1 <- pool2
I1105 20:33:31.318724  3026 net.cpp:356] conv3_1 -> conv3_1
I1105 20:33:31.318730  3026 net.cpp:96] Setting up conv3_1
I1105 20:33:31.326110  3026 net.cpp:103] Top shape: 28 256 56 56 (22478848)
I1105 20:33:31.326127  3026 layer_factory.hpp:78] Creating layer relu3_1
I1105 20:33:31.326133  3026 net.cpp:67] Creating Layer relu3_1
I1105 20:33:31.326135  3026 net.cpp:394] relu3_1 <- conv3_1
I1105 20:33:31.326140  3026 net.cpp:345] relu3_1 -> conv3_1 (in-place)
I1105 20:33:31.326145  3026 net.cpp:96] Setting up relu3_1
I1105 20:33:31.326151  3026 net.cpp:103] Top shape: 28 256 56 56 (22478848)
I1105 20:33:31.326154  3026 layer_factory.hpp:78] Creating layer conv3_2
I1105 20:33:31.326159  3026 net.cpp:67] Creating Layer conv3_2
I1105 20:33:31.326163  3026 net.cpp:394] conv3_2 <- conv3_1
I1105 20:33:31.326169  3026 net.cpp:356] conv3_2 -> conv3_2
I1105 20:33:31.326175  3026 net.cpp:96] Setting up conv3_2
I1105 20:33:31.340998  3026 net.cpp:103] Top shape: 28 256 56 56 (22478848)
I1105 20:33:31.341017  3026 layer_factory.hpp:78] Creating layer relu3_2
I1105 20:33:31.341023  3026 net.cpp:67] Creating Layer relu3_2
I1105 20:33:31.341027  3026 net.cpp:394] relu3_2 <- conv3_2
I1105 20:33:31.341033  3026 net.cpp:345] relu3_2 -> conv3_2 (in-place)
I1105 20:33:31.341039  3026 net.cpp:96] Setting up relu3_2
I1105 20:33:31.341044  3026 net.cpp:103] Top shape: 28 256 56 56 (22478848)
I1105 20:33:31.341048  3026 layer_factory.hpp:78] Creating layer conv3_3
I1105 20:33:31.341054  3026 net.cpp:67] Creating Layer conv3_3
I1105 20:33:31.341058  3026 net.cpp:394] conv3_3 <- conv3_2
I1105 20:33:31.341063  3026 net.cpp:356] conv3_3 -> conv3_3
I1105 20:33:31.341068  3026 net.cpp:96] Setting up conv3_3
I1105 20:33:31.355777  3026 net.cpp:103] Top shape: 28 256 56 56 (22478848)
I1105 20:33:31.355797  3026 layer_factory.hpp:78] Creating layer relu3_3
I1105 20:33:31.355808  3026 net.cpp:67] Creating Layer relu3_3
I1105 20:33:31.355813  3026 net.cpp:394] relu3_3 <- conv3_3
I1105 20:33:31.355818  3026 net.cpp:345] relu3_3 -> conv3_3 (in-place)
I1105 20:33:31.355826  3026 net.cpp:96] Setting up relu3_3
I1105 20:33:31.355833  3026 net.cpp:103] Top shape: 28 256 56 56 (22478848)
I1105 20:33:31.355836  3026 layer_factory.hpp:78] Creating layer conv3_4
I1105 20:33:31.355842  3026 net.cpp:67] Creating Layer conv3_4
I1105 20:33:31.355845  3026 net.cpp:394] conv3_4 <- conv3_3
I1105 20:33:31.355859  3026 net.cpp:356] conv3_4 -> conv3_4
I1105 20:33:31.355866  3026 net.cpp:96] Setting up conv3_4
I1105 20:33:31.370318  3026 net.cpp:103] Top shape: 28 256 56 56 (22478848)
I1105 20:33:31.370335  3026 layer_factory.hpp:78] Creating layer relu3_4
I1105 20:33:31.370342  3026 net.cpp:67] Creating Layer relu3_4
I1105 20:33:31.370347  3026 net.cpp:394] relu3_4 <- conv3_4
I1105 20:33:31.370352  3026 net.cpp:345] relu3_4 -> conv3_4 (in-place)
I1105 20:33:31.370357  3026 net.cpp:96] Setting up relu3_4
I1105 20:33:31.370363  3026 net.cpp:103] Top shape: 28 256 56 56 (22478848)
I1105 20:33:31.370367  3026 layer_factory.hpp:78] Creating layer pool3
I1105 20:33:31.370373  3026 net.cpp:67] Creating Layer pool3
I1105 20:33:31.370375  3026 net.cpp:394] pool3 <- conv3_4
I1105 20:33:31.370379  3026 net.cpp:356] pool3 -> pool3
I1105 20:33:31.370385  3026 net.cpp:96] Setting up pool3
I1105 20:33:31.370393  3026 net.cpp:103] Top shape: 28 256 28 28 (5619712)
I1105 20:33:31.370396  3026 layer_factory.hpp:78] Creating layer conv4_1
I1105 20:33:31.370401  3026 net.cpp:67] Creating Layer conv4_1
I1105 20:33:31.370404  3026 net.cpp:394] conv4_1 <- pool3
I1105 20:33:31.370409  3026 net.cpp:356] conv4_1 -> conv4_1
I1105 20:33:31.370415  3026 net.cpp:96] Setting up conv4_1
I1105 20:33:31.399408  3026 net.cpp:103] Top shape: 28 512 28 28 (11239424)
I1105 20:33:31.399436  3026 layer_factory.hpp:78] Creating layer relu4_1
I1105 20:33:31.399444  3026 net.cpp:67] Creating Layer relu4_1
I1105 20:33:31.399448  3026 net.cpp:394] relu4_1 <- conv4_1
I1105 20:33:31.399456  3026 net.cpp:345] relu4_1 -> conv4_1 (in-place)
I1105 20:33:31.399463  3026 net.cpp:96] Setting up relu4_1
I1105 20:33:31.399469  3026 net.cpp:103] Top shape: 28 512 28 28 (11239424)
I1105 20:33:31.399472  3026 layer_factory.hpp:78] Creating layer conv4_2
I1105 20:33:31.399478  3026 net.cpp:67] Creating Layer conv4_2
I1105 20:33:31.399482  3026 net.cpp:394] conv4_2 <- conv4_1
I1105 20:33:31.399487  3026 net.cpp:356] conv4_2 -> conv4_2
I1105 20:33:31.399492  3026 net.cpp:96] Setting up conv4_2
I1105 20:33:31.456938  3026 net.cpp:103] Top shape: 28 512 28 28 (11239424)
I1105 20:33:31.456960  3026 layer_factory.hpp:78] Creating layer relu4_2
I1105 20:33:31.456969  3026 net.cpp:67] Creating Layer relu4_2
I1105 20:33:31.456974  3026 net.cpp:394] relu4_2 <- conv4_2
I1105 20:33:31.456980  3026 net.cpp:345] relu4_2 -> conv4_2 (in-place)
I1105 20:33:31.456987  3026 net.cpp:96] Setting up relu4_2
I1105 20:33:31.456993  3026 net.cpp:103] Top shape: 28 512 28 28 (11239424)
I1105 20:33:31.456996  3026 layer_factory.hpp:78] Creating layer conv4_3
I1105 20:33:31.457002  3026 net.cpp:67] Creating Layer conv4_3
I1105 20:33:31.457005  3026 net.cpp:394] conv4_3 <- conv4_2
I1105 20:33:31.457012  3026 net.cpp:356] conv4_3 -> conv4_3
I1105 20:33:31.457020  3026 net.cpp:96] Setting up conv4_3
I1105 20:33:31.514675  3026 net.cpp:103] Top shape: 28 512 28 28 (11239424)
I1105 20:33:31.514698  3026 layer_factory.hpp:78] Creating layer relu4_3
I1105 20:33:31.514708  3026 net.cpp:67] Creating Layer relu4_3
I1105 20:33:31.514714  3026 net.cpp:394] relu4_3 <- conv4_3
I1105 20:33:31.514721  3026 net.cpp:345] relu4_3 -> conv4_3 (in-place)
I1105 20:33:31.514729  3026 net.cpp:96] Setting up relu4_3
I1105 20:33:31.514734  3026 net.cpp:103] Top shape: 28 512 28 28 (11239424)
I1105 20:33:31.514739  3026 layer_factory.hpp:78] Creating layer conv4_4
I1105 20:33:31.514744  3026 net.cpp:67] Creating Layer conv4_4
I1105 20:33:31.514747  3026 net.cpp:394] conv4_4 <- conv4_3
I1105 20:33:31.514752  3026 net.cpp:356] conv4_4 -> conv4_4
I1105 20:33:31.514760  3026 net.cpp:96] Setting up conv4_4
I1105 20:33:31.572180  3026 net.cpp:103] Top shape: 28 512 28 28 (11239424)
I1105 20:33:31.572207  3026 layer_factory.hpp:78] Creating layer relu4_4
I1105 20:33:31.572221  3026 net.cpp:67] Creating Layer relu4_4
I1105 20:33:31.572227  3026 net.cpp:394] relu4_4 <- conv4_4
I1105 20:33:31.572233  3026 net.cpp:345] relu4_4 -> conv4_4 (in-place)
I1105 20:33:31.572240  3026 net.cpp:96] Setting up relu4_4
I1105 20:33:31.572247  3026 net.cpp:103] Top shape: 28 512 28 28 (11239424)
I1105 20:33:31.572259  3026 layer_factory.hpp:78] Creating layer pool4
I1105 20:33:31.572265  3026 net.cpp:67] Creating Layer pool4
I1105 20:33:31.572269  3026 net.cpp:394] pool4 <- conv4_4
I1105 20:33:31.572275  3026 net.cpp:356] pool4 -> pool4
I1105 20:33:31.572280  3026 net.cpp:96] Setting up pool4
I1105 20:33:31.572288  3026 net.cpp:103] Top shape: 28 512 14 14 (2809856)
I1105 20:33:31.572293  3026 layer_factory.hpp:78] Creating layer conv5_1
I1105 20:33:31.572299  3026 net.cpp:67] Creating Layer conv5_1
I1105 20:33:31.572301  3026 net.cpp:394] conv5_1 <- pool4
I1105 20:33:31.572309  3026 net.cpp:356] conv5_1 -> conv5_1
I1105 20:33:31.572314  3026 net.cpp:96] Setting up conv5_1
I1105 20:33:31.629930  3026 net.cpp:103] Top shape: 28 512 14 14 (2809856)
I1105 20:33:31.629956  3026 layer_factory.hpp:78] Creating layer relu5_1
I1105 20:33:31.629964  3026 net.cpp:67] Creating Layer relu5_1
I1105 20:33:31.629969  3026 net.cpp:394] relu5_1 <- conv5_1
I1105 20:33:31.629976  3026 net.cpp:345] relu5_1 -> conv5_1 (in-place)
I1105 20:33:31.629982  3026 net.cpp:96] Setting up relu5_1
I1105 20:33:31.629987  3026 net.cpp:103] Top shape: 28 512 14 14 (2809856)
I1105 20:33:31.629992  3026 layer_factory.hpp:78] Creating layer conv5_2
I1105 20:33:31.629998  3026 net.cpp:67] Creating Layer conv5_2
I1105 20:33:31.630002  3026 net.cpp:394] conv5_2 <- conv5_1
I1105 20:33:31.630007  3026 net.cpp:356] conv5_2 -> conv5_2
I1105 20:33:31.630012  3026 net.cpp:96] Setting up conv5_2
I1105 20:33:31.687412  3026 net.cpp:103] Top shape: 28 512 14 14 (2809856)
I1105 20:33:31.687438  3026 layer_factory.hpp:78] Creating layer relu5_2
I1105 20:33:31.687450  3026 net.cpp:67] Creating Layer relu5_2
I1105 20:33:31.687455  3026 net.cpp:394] relu5_2 <- conv5_2
I1105 20:33:31.687463  3026 net.cpp:345] relu5_2 -> conv5_2 (in-place)
I1105 20:33:31.687471  3026 net.cpp:96] Setting up relu5_2
I1105 20:33:31.687477  3026 net.cpp:103] Top shape: 28 512 14 14 (2809856)
I1105 20:33:31.687480  3026 layer_factory.hpp:78] Creating layer conv5_3
I1105 20:33:31.687486  3026 net.cpp:67] Creating Layer conv5_3
I1105 20:33:31.687489  3026 net.cpp:394] conv5_3 <- conv5_2
I1105 20:33:31.687494  3026 net.cpp:356] conv5_3 -> conv5_3
I1105 20:33:31.687500  3026 net.cpp:96] Setting up conv5_3
I1105 20:33:31.745126  3026 net.cpp:103] Top shape: 28 512 14 14 (2809856)
I1105 20:33:31.745149  3026 layer_factory.hpp:78] Creating layer relu5_3
I1105 20:33:31.745157  3026 net.cpp:67] Creating Layer relu5_3
I1105 20:33:31.745162  3026 net.cpp:394] relu5_3 <- conv5_3
I1105 20:33:31.745168  3026 net.cpp:345] relu5_3 -> conv5_3 (in-place)
I1105 20:33:31.745175  3026 net.cpp:96] Setting up relu5_3
I1105 20:33:31.745180  3026 net.cpp:103] Top shape: 28 512 14 14 (2809856)
I1105 20:33:31.745184  3026 layer_factory.hpp:78] Creating layer conv5_4
I1105 20:33:31.745189  3026 net.cpp:67] Creating Layer conv5_4
I1105 20:33:31.745193  3026 net.cpp:394] conv5_4 <- conv5_3
I1105 20:33:31.745198  3026 net.cpp:356] conv5_4 -> conv5_4
I1105 20:33:31.745204  3026 net.cpp:96] Setting up conv5_4
I1105 20:33:31.802698  3026 net.cpp:103] Top shape: 28 512 14 14 (2809856)
I1105 20:33:31.802724  3026 layer_factory.hpp:78] Creating layer relu5_4
I1105 20:33:31.802732  3026 net.cpp:67] Creating Layer relu5_4
I1105 20:33:31.802737  3026 net.cpp:394] relu5_4 <- conv5_4
I1105 20:33:31.802747  3026 net.cpp:345] relu5_4 -> conv5_4 (in-place)
I1105 20:33:31.802753  3026 net.cpp:96] Setting up relu5_4
I1105 20:33:31.802759  3026 net.cpp:103] Top shape: 28 512 14 14 (2809856)
I1105 20:33:31.802762  3026 layer_factory.hpp:78] Creating layer pool5
I1105 20:33:31.802768  3026 net.cpp:67] Creating Layer pool5
I1105 20:33:31.802772  3026 net.cpp:394] pool5 <- conv5_4
I1105 20:33:31.802777  3026 net.cpp:356] pool5 -> pool5
I1105 20:33:31.802783  3026 net.cpp:96] Setting up pool5
I1105 20:33:31.802789  3026 net.cpp:103] Top shape: 28 512 7 7 (702464)
I1105 20:33:31.802793  3026 layer_factory.hpp:78] Creating layer fc6
I1105 20:33:31.802804  3026 net.cpp:67] Creating Layer fc6
I1105 20:33:31.802815  3026 net.cpp:394] fc6 <- pool5
I1105 20:33:31.802820  3026 net.cpp:356] fc6 -> fc6
I1105 20:33:31.802826  3026 net.cpp:96] Setting up fc6
I1105 20:33:34.200870  3026 net.cpp:103] Top shape: 28 4096 1 1 (114688)
I1105 20:33:34.200917  3026 layer_factory.hpp:78] Creating layer relu6
I1105 20:33:34.200927  3026 net.cpp:67] Creating Layer relu6
I1105 20:33:34.200932  3026 net.cpp:394] relu6 <- fc6
I1105 20:33:34.200939  3026 net.cpp:345] relu6 -> fc6 (in-place)
I1105 20:33:34.200947  3026 net.cpp:96] Setting up relu6
I1105 20:33:34.200960  3026 net.cpp:103] Top shape: 28 4096 1 1 (114688)
I1105 20:33:34.200964  3026 layer_factory.hpp:78] Creating layer drop6
I1105 20:33:34.200973  3026 net.cpp:67] Creating Layer drop6
I1105 20:33:34.200975  3026 net.cpp:394] drop6 <- fc6
I1105 20:33:34.200980  3026 net.cpp:345] drop6 -> fc6 (in-place)
I1105 20:33:34.200985  3026 net.cpp:96] Setting up drop6
I1105 20:33:34.200990  3026 net.cpp:103] Top shape: 28 4096 1 1 (114688)
I1105 20:33:34.200999  3026 layer_factory.hpp:78] Creating layer fc7
I1105 20:33:34.201004  3026 net.cpp:67] Creating Layer fc7
I1105 20:33:34.201007  3026 net.cpp:394] fc7 <- fc6
I1105 20:33:34.201012  3026 net.cpp:356] fc7 -> fc7
I1105 20:33:34.201020  3026 net.cpp:96] Setting up fc7
I1105 20:33:34.598830  3026 net.cpp:103] Top shape: 28 4096 1 1 (114688)
I1105 20:33:34.598858  3026 layer_factory.hpp:78] Creating layer relu7
I1105 20:33:34.598868  3026 net.cpp:67] Creating Layer relu7
I1105 20:33:34.598873  3026 net.cpp:394] relu7 <- fc7
I1105 20:33:34.598881  3026 net.cpp:345] relu7 -> fc7 (in-place)
I1105 20:33:34.598887  3026 net.cpp:96] Setting up relu7
I1105 20:33:34.598902  3026 net.cpp:103] Top shape: 28 4096 1 1 (114688)
I1105 20:33:34.598906  3026 layer_factory.hpp:78] Creating layer drop7
I1105 20:33:34.598913  3026 net.cpp:67] Creating Layer drop7
I1105 20:33:34.598917  3026 net.cpp:394] drop7 <- fc7
I1105 20:33:34.598920  3026 net.cpp:345] drop7 -> fc7 (in-place)
I1105 20:33:34.598925  3026 net.cpp:96] Setting up drop7
I1105 20:33:34.598929  3026 net.cpp:103] Top shape: 28 4096 1 1 (114688)
I1105 20:33:34.598932  3026 layer_factory.hpp:78] Creating layer fc8_2
I1105 20:33:34.598939  3026 net.cpp:67] Creating Layer fc8_2
I1105 20:33:34.598942  3026 net.cpp:394] fc8_2 <- fc7
I1105 20:33:34.598948  3026 net.cpp:356] fc8_2 -> fc8_2
I1105 20:33:34.598960  3026 net.cpp:96] Setting up fc8_2
I1105 20:33:34.599181  3026 net.cpp:103] Top shape: 28 2 1 1 (56)
I1105 20:33:34.599189  3026 layer_factory.hpp:78] Creating layer loss
I1105 20:33:34.599200  3026 net.cpp:67] Creating Layer loss
I1105 20:33:34.599205  3026 net.cpp:394] loss <- fc8_2
I1105 20:33:34.599208  3026 net.cpp:394] loss <- label
I1105 20:33:34.599216  3026 net.cpp:356] loss -> (automatic)
I1105 20:33:34.599220  3026 net.cpp:96] Setting up loss
I1105 20:33:34.599228  3026 net.cpp:103] Top shape: 1 1 1 1 (1)
I1105 20:33:34.599233  3026 net.cpp:109]     with loss weight 1
I1105 20:33:34.599269  3026 net.cpp:170] loss needs backward computation.
I1105 20:33:34.599273  3026 net.cpp:170] fc8_2 needs backward computation.
I1105 20:33:34.599277  3026 net.cpp:170] drop7 needs backward computation.
I1105 20:33:34.599279  3026 net.cpp:170] relu7 needs backward computation.
I1105 20:33:34.599282  3026 net.cpp:170] fc7 needs backward computation.
…
I1105 20:33:34.600466  3026 net.cpp:275] The NetState phase (1) differed from the phase (0) specified by a rule in layer data
I1105 20:33:34.600700  3026 net.cpp:39] Initializing net from parameters: 
name: "big"
layers {
  top: "data"
  top: "label"
  name: "data"
  type: IMAGE_DATA
  image_data_param {
    source: "/data/ad6813/devCaffe/caffe/task/clamp/clampVal.txt"
    batch_size: 8
    new_height: 256
    new_width: 256
  }
  include {
    phase: TEST
  }
  transform_param {
    mirror: true
    crop_size: 224
    mean_value: 86.752
    mean_value: 101.46
    mean_value: 104.6
  }
}
layers {
  bottom: "data"
  top: "conv1_1"
  name: "conv1_1"
  type: CONVOLUTION
  convolution_param {
    num_output: 64
    pad: 1
    kernel_size: 3
    weight_filler {
      type: "gaussian"
      std: 0.01
    }
    bias_filler {
      type: "constant"
      value: 0
    }
  }
}
layers {
  bottom: "conv1_1"
  top: "conv1_1"
  name: "relu1_1"
  type: RELU
}
layers {
  bottom: "conv1_1"
  top: "conv1_2"
  name: "conv1_2"
  type: CONVOLUTION
  convolution_param {
    num_output: 64
    pad: 1
    kernel_size: 3
    weight_filler {
      type: "gaussian"
      std: 0.01
    }
    bias_filler {
      type: "constant"
      value: 0
    }
  }
}
layers {
  bottom: "conv1_2"
  top: "conv1_2"
  name: "relu1_2"
  type: RELU
}
layers {
  bottom: "conv1_2"
  top: "pool1"
  name: "pool1"
  type: POOLING
  pooling_param {
    pool: MAX
    kernel_size: 2
    stride: 2
  }
}
layers {
  bottom: "pool1"
  top: "conv2_1"
  name: "conv2_1"
  type: CONVOLUTION
  convolution_param {
    num_output: 128
    pad: 1
    kernel_size: 3
    weight_filler {
      type: "gaussian"
      std: 0.01
    }
    bias_filler {
      type: "constant"
      value: 0
    }
  }
}
layers {
  bottom: "conv2_1"
  top: "conv2_1"
  name: "relu2_1"
  type: RELU
}
layers {
  bottom: "conv2_1"
  top: "conv2_2"
  name: "conv2_2"
  type: CONVOLUTION
  convolution_param {
    num_output: 128
    pad: 1
    kernel_size: 3
    weight_filler {
      type: "gaussian"
      std: 0.01
    }
    bias_filler {
      type: "constant"
      value: 0
    }
  }
}
layers {
  bottom: "conv2_2"
  top: "conv2_2"
  name: "relu2_2"
  type: RELU
}
layers {
  bottom: "conv2_2"
  top: "pool2"
  name: "pool2"
  type: POOLING
  pooling_param {
    pool: MAX
    kernel_size: 2
    stride: 2
  }
}
layers {
  bottom: "pool2"
  top: "conv3_1"
  name: "conv3_1"
  type: CONVOLUTION
  convolution_param {
    num_output: 256
    pad: 1
    kernel_size: 3
    weight_filler {
      type: "gaussian"
      std: 0.01
    }
    bias_filler {
      type: "constant"
      value: 0
    }
  }
}
layers {
  bottom: "conv3_1"
  top: "conv3_1"
  name: "relu3_1"
  type: RELU
}
layers {
  bottom: "conv3_1"
  top: "conv3_2"
  name: "conv3_2"
  type: CONVOLUTION
  convolution_param {
    num_output: 256
    pad: 1
    kernel_size: 3
    weight_filler {
      type: "gaussian"
      std: 0.01
    }
    bias_filler {
      type: "constant"
      value: 0
    }
  }
}
layers {
  bottom: "conv3_2"
  top: "conv3_2"
  name: "relu3_2"
  type: RELU
}
layers {
  bottom: "conv3_2"
  top: "conv3_3"
  name: "conv3_3"
  type: CONVOLUTION
  convolution_param {
    num_output: 256
    pad: 1
    kernel_size: 3
    weight_filler {
      type: "gaussian"
      std: 0.01
    }
    bias_filler {
      type: "constant"
      value: 0
    }
  }
}
layers {
  bottom: "conv3_3"
  top: "conv3_3"
  name: "relu3_3"
  type: RELU
}
layers {
  bottom: "conv3_3"
  top: "conv3_4"
  name: "conv3_4"
  type: CONVOLUTION
  convolution_param {
    num_output: 256
    pad: 1
    kernel_size: 3
    weight_filler {
      type: "gaussian"
      std: 0.01
    }
    bias_filler {
      type: "constant"
      value: 0
    }
  }
}
layers {
  bottom: "conv3_4"
  top: "conv3_4"
  name: "relu3_4"
  type: RELU
}
layers {
  bottom: "conv3_4"
  top: "pool3"
  name: "pool3"
  type: POOLING
  pooling_param {
    pool: MAX
    kernel_size: 2
    stride: 2
  }
}
layers {
  bottom: "pool3"
  top: "conv4_1"
  name: "conv4_1"
  type: CONVOLUTION
  convolution_param {
    num_output: 512
    pad: 1
    kernel_size: 3
    weight_filler {
      type: "gaussian"
      std: 0.01
    }
    bias_filler {
      type: "constant"
      value: 0
    }
  }
}
layers {
  bottom: "conv4_1"
  top: "conv4_1"
  name: "relu4_1"
  type: RELU
}
layers {
  bottom: "conv4_1"
  top: "conv4_2"
  name: "conv4_2"
  type: CONVOLUTION
  convolution_param {
    num_output: 512
    pad: 1
    kernel_size: 3
    weight_filler {
      type: "gaussian"
      std: 0.01
    }
    bias_filler {
      type: "constant"
      value: 0
    }
  }
}
layers {
  bottom: "conv4_2"
  top: "conv4_2"
  name: "relu4_2"
  type: RELU
}
layers {
  bottom: "conv4_2"
  top: "conv4_3"
  name: "conv4_3"
  type: CONVOLUTION
  convolution_param {
    num_output: 512
    pad: 1
    kernel_size: 3
    weight_filler {
      type: "gaussian"
      std: 0.01
    }
    bias_filler {
      type: "constant"
      value: 0
    }
  }
}
layers {
  bottom: "conv4_3"
  top: "conv4_3"
  name: "relu4_3"
  type: RELU
}
layers {
  bottom: "conv4_3"
  top: "conv4_4"
  name: "conv4_4"
  type: CONVOLUTION
  convolution_param {
    num_output: 512
    pad: 1
    kernel_size: 3
    weight_filler {
      type: "gaussian"
      std: 0.01
    }
    bias_filler {
      type: "constant"
      value: 0
    }
  }
}
layers {
  bottom: "conv4_4"
  top: "conv4_4"
  name: "relu4_4"
  type: RELU
}
layers {
  bottom: "conv4_4"
  top: "pool4"
  name: "pool4"
  type: POOLING
  pooling_param {
    pool: MAX
    kernel_size: 2
    stride: 2
  }
}
layers {
  bottom: "pool4"
  top: "conv5_1"
  name: "conv5_1"
  type: CONVOLUTION
  convolution_param {
    num_output: 512
    pad: 1
    kernel_size: 3
    weight_filler {
      type: "gaussian"
      std: 0.01
    }
    bias_filler {
      type: "constant"
      value: 0
    }
  }
}
layers {
  bottom: "conv5_1"
  top: "conv5_1"
  name: "relu5_1"
  type: RELU
}
layers {
  bottom: "conv5_1"
  top: "conv5_2"
  name: "conv5_2"
  type: CONVOLUTION
  convolution_param {
    num_output: 512
    pad: 1
    kernel_size: 3
    weight_filler {
      type: "gaussian"
      std: 0.01
    }
    bias_filler {
      type: "constant"
      value: 0
    }
  }
}
layers {
  bottom: "conv5_2"
  top: "conv5_2"
  name: "relu5_2"
  type: RELU
}
layers {
  bottom: "conv5_2"
  top: "conv5_3"
  name: "conv5_3"
  type: CONVOLUTION
  convolution_param {
    num_output: 512
    pad: 1
    kernel_size: 3
    weight_filler {
      type: "gaussian"
      std: 0.01
    }
    bias_filler {
      type: "constant"
      value: 0
    }
  }
}
layers {
  bottom: "conv5_3"
  top: "conv5_3"
  name: "relu5_3"
  type: RELU
}
layers {
  bottom: "conv5_3"
  top: "conv5_4"
  name: "conv5_4"
  type: CONVOLUTION
  convolution_param {
    num_output: 512
    pad: 1
    kernel_size: 3
    weight_filler {
      type: "gaussian"
      std: 0.01
    }
    bias_filler {
      type: "constant"
      value: 0
    }
  }
}
layers {
  bottom: "conv5_4"
  top: "conv5_4"
  name: "relu5_4"
  type: RELU
}
layers {
  bottom: "conv5_4"
  top: "pool5"
  name: "pool5"
  type: POOLING
  pooling_param {
    pool: MAX
    kernel_size: 2
    stride: 2
  }
}
layers {
  bottom: "pool5"
  top: "fc6"
  name: "fc6"
  type: INNER_PRODUCT
  inner_product_param {
    num_output: 4096
    weight_filler {
      type: "gaussian"
      std: 0.01
    }
    bias_filler {
      type: "constant"
      value: 0
    }
  }
}
layers {
  bottom: "fc6"
  top: "fc6"
  name: "relu6"
  type: RELU
}
layers {
  bottom: "fc6"
  top: "fc6"
  name: "drop6"
  type: DROPOUT
  dropout_param {
    dropout_ratio: 0.5
  }
}
layers {
  bottom: "fc6"
  top: "fc7"
  name: "fc7"
  type: INNER_PRODUCT
  inner_product_param {
    num_output: 4096
    weight_filler {
      type: "gaussian"
      std: 0.01
    }
    bias_filler {
      type: "constant"
      value: 0
    }
  }
}
layers {
  bottom: "fc7"
  top: "fc7"
  name: "relu7"
  type: RELU
}
layers {
  bottom: "fc7"
  top: "fc7"
  name: "drop7"
  type: DROPOUT
  dropout_param {
    dropout_ratio: 0.5
  }
}
layers {
  bottom: "fc7"
  top: "fc8_2"
  name: "fc8_2"
  type: INNER_PRODUCT
  inner_product_param {
    num_output: 2
    weight_filler {
      type: "gaussian"
      std: 0.01
    }
    bias_filler {
      type: "constant"
      value: 0
    }
  }
}
layers {
  bottom: "fc8_2"
  bottom: "label"
  name: "loss"
  type: SOFTMAX_LOSS
}
layers {
  bottom: "fc8_2"
  bottom: "label"
  top: "accuracy"
  name: "accuracy"
  type: PER_CLASS_ACCURACY
  include {
    phase: TEST
  }
}
state {
  phase: TEST
}
I1105 20:33:34.600853  3026 layer_factory.hpp:78] Creating layer data
I1105 20:33:34.600863  3026 net.cpp:67] Creating Layer data
I1105 20:33:34.600868  3026 net.cpp:356] data -> data
I1105 20:33:34.600875  3026 net.cpp:356] data -> label
I1105 20:33:34.600885  3026 net.cpp:96] Setting up data
I1105 20:33:34.600889  3026 image_data_layer.cpp:34] Opening file /data/ad6813/devCaffe/caffe/task/clamp/clampVal.txt
I1105 20:33:34.601634  3026 image_data_layer.cpp:49] A total of 2005 images.
I1105 20:33:34.607887  3026 image_data_layer.cpp:78] output data size: 8,3,224,224
I1105 20:33:34.608810  3026 net.cpp:103] Top shape: 8 3 224 224 (1204224)
I1105 20:33:34.608820  3026 net.cpp:103] Top shape: 8 1 1 1 (8)
I1105 20:33:34.608824  3026 layer_factory.hpp:78] Creating layer label_data_1_split
I1105 20:33:34.608835  3026 net.cpp:67] Creating Layer label_data_1_split
I1105 20:33:34.608840  3026 net.cpp:394] label_data_1_split <- label
I1105 20:33:34.608852  3026 net.cpp:356] label_data_1_split -> label_data_1_split_0
I1105 20:33:34.608862  3026 net.cpp:356] label_data_1_split -> label_data_1_split_1
I1105 20:33:34.608867  3026 net.cpp:96] Setting up label_data_1_split
I1105 20:33:34.608873  3026 net.cpp:103] Top shape: 8 1 1 1 (8)
I1105 20:33:34.608877  3026 net.cpp:103] Top shape: 8 1 1 1 (8)
I1105 20:33:34.608880  3026 layer_factory.hpp:78] Creating layer conv1_1
I1105 20:33:34.608887  3026 net.cpp:67] Creating Layer conv1_1
I1105 20:33:34.608891  3026 net.cpp:394] conv1_1 <- data
I1105 20:33:34.608896  3026 net.cpp:356] conv1_1 -> conv1_1
I1105 20:33:34.608902  3026 net.cpp:96] Setting up conv1_1
I1105 20:33:34.609051  3026 net.cpp:103] Top shape: 8 64 224 224 (25690112)
I1105 20:33:34.609066  3026 layer_factory.hpp:78] Creating layer relu1_1
I1105 20:33:34.609073  3026 net.cpp:67] Creating Layer relu1_1
I1105 20:33:34.609077  3026 net.cpp:394] relu1_1 <- conv1_1
I1105 20:33:34.609081  3026 net.cpp:345] relu1_1 -> conv1_1 (in-place)
I1105 20:33:34.609087  3026 net.cpp:96] Setting up relu1_1
I1105 20:33:34.609092  3026 net.cpp:103] Top shape: 8 64 224 224 (25690112)
I1105 20:33:34.609098  3026 layer_factory.hpp:78] Creating layer conv1_2
I1105 20:33:34.609103  3026 net.cpp:67] Creating Layer conv1_2
I1105 20:33:34.609107  3026 net.cpp:394] conv1_2 <- conv1_1
I1105 20:33:34.609112  3026 net.cpp:356] conv1_2 -> conv1_2
I1105 20:33:34.609117  3026 net.cpp:96] Setting up conv1_2
I1105 20:33:34.610127  3026 net.cpp:103] Top shape: 8 64 224 224 (25690112)
I1105 20:33:34.610141  3026 layer_factory.hpp:78] Creating layer relu1_2
I1105 20:33:34.610146  3026 net.cpp:67] Creating Layer relu1_2
I1105 20:33:34.610149  3026 net.cpp:394] relu1_2 <- conv1_2
I1105 20:33:34.610154  3026 net.cpp:345] relu1_2 -> conv1_2 (in-place)
I1105 20:33:34.610159  3026 net.cpp:96] Setting up relu1_2
I1105 20:33:34.610164  3026 net.cpp:103] Top shape: 8 64 224 224 (25690112)
I1105 20:33:34.610167  3026 layer_factory.hpp:78] Creating layer pool1
I1105 20:33:34.610173  3026 net.cpp:67] Creating Layer pool1
I1105 20:33:34.610177  3026 net.cpp:394] pool1 <- conv1_2
I1105 20:33:34.610180  3026 net.cpp:356] pool1 -> pool1
I1105 20:33:34.610185  3026 net.cpp:96] Setting up pool1
I1105 20:33:34.610193  3026 net.cpp:103] Top shape: 8 64 112 112 (6422528)
I1105 20:33:34.610196  3026 layer_factory.hpp:78] Creating layer conv2_1
I1105 20:33:34.610201  3026 net.cpp:67] Creating Layer conv2_1
I1105 20:33:34.610204  3026 net.cpp:394] conv2_1 <- pool1
I1105 20:33:34.610209  3026 net.cpp:356] conv2_1 -> conv2_1
I1105 20:33:34.610214  3026 net.cpp:96] Setting up conv2_1
I1105 20:33:34.612074  3026 net.cpp:103] Top shape: 8 128 112 112 (12845056)
I1105 20:33:34.612087  3026 layer_factory.hpp:78] Creating layer relu2_1
I1105 20:33:34.612092  3026 net.cpp:67] Creating Layer relu2_1
I1105 20:33:34.612097  3026 net.cpp:394] relu2_1 <- conv2_1
I1105 20:33:34.612100  3026 net.cpp:345] relu2_1 -> conv2_1 (in-place)
I1105 20:33:34.612105  3026 net.cpp:96] Setting up relu2_1
I1105 20:33:34.612112  3026 net.cpp:103] Top shape: 8 128 112 112 (12845056)
I1105 20:33:34.612114  3026 layer_factory.hpp:78] Creating layer conv2_2
I1105 20:33:34.612119  3026 net.cpp:67] Creating Layer conv2_2
I1105 20:33:34.612123  3026 net.cpp:394] conv2_2 <- conv2_1
I1105 20:33:34.612128  3026 net.cpp:356] conv2_2 -> conv2_2
I1105 20:33:34.612133  3026 net.cpp:96] Setting up conv2_2
I1105 20:33:34.615773  3026 net.cpp:103] Top shape: 8 128 112 112 (12845056)
I1105 20:33:34.615784  3026 layer_factory.hpp:78] Creating layer relu2_2
I1105 20:33:34.615789  3026 net.cpp:67] Creating Layer relu2_2
I1105 20:33:34.615793  3026 net.cpp:394] relu2_2 <- conv2_2
I1105 20:33:34.615797  3026 net.cpp:345] relu2_2 -> conv2_2 (in-place)
I1105 20:33:34.615803  3026 net.cpp:96] Setting up relu2_2
I1105 20:33:34.615808  3026 net.cpp:103] Top shape: 8 128 112 112 (12845056)
I1105 20:33:34.615811  3026 layer_factory.hpp:78] Creating layer pool2
I1105 20:33:34.615816  3026 net.cpp:67] Creating Layer pool2
I1105 20:33:34.615819  3026 net.cpp:394] pool2 <- conv2_2
I1105 20:33:34.615829  3026 net.cpp:356] pool2 -> pool2
I1105 20:33:34.615834  3026 net.cpp:96] Setting up pool2
I1105 20:33:34.615840  3026 net.cpp:103] Top shape: 8 128 56 56 (3211264)
I1105 20:33:34.615844  3026 layer_factory.hpp:78] Creating layer conv3_1
I1105 20:33:34.615849  3026 net.cpp:67] Creating Layer conv3_1
I1105 20:33:34.615851  3026 net.cpp:394] conv3_1 <- pool2
I1105 20:33:34.615856  3026 net.cpp:356] conv3_1 -> conv3_1
I1105 20:33:34.615861  3026 net.cpp:96] Setting up conv3_1
I1105 20:33:34.623201  3026 net.cpp:103] Top shape: 8 256 56 56 (6422528)
I1105 20:33:34.623215  3026 layer_factory.hpp:78] Creating layer relu3_1
I1105 20:33:34.623221  3026 net.cpp:67] Creating Layer relu3_1
I1105 20:33:34.623225  3026 net.cpp:394] relu3_1 <- conv3_1
I1105 20:33:34.623230  3026 net.cpp:345] relu3_1 -> conv3_1 (in-place)
I1105 20:33:34.623236  3026 net.cpp:96] Setting up relu3_1
I1105 20:33:34.623241  3026 net.cpp:103] Top shape: 8 256 56 56 (6422528)
I1105 20:33:34.623245  3026 layer_factory.hpp:78] Creating layer conv3_2
I1105 20:33:34.623250  3026 net.cpp:67] Creating Layer conv3_2
I1105 20:33:34.623252  3026 net.cpp:394] conv3_2 <- conv3_1
I1105 20:33:34.623257  3026 net.cpp:356] conv3_2 -> conv3_2
I1105 20:33:34.623262  3026 net.cpp:96] Setting up conv3_2
I1105 20:33:34.638032  3026 net.cpp:103] Top shape: 8 256 56 56 (6422528)
I1105 20:33:34.638052  3026 layer_factory.hpp:78] Creating layer relu3_2
I1105 20:33:34.638062  3026 net.cpp:67] Creating Layer relu3_2
I1105 20:33:34.638066  3026 net.cpp:394] relu3_2 <- conv3_2
I1105 20:33:34.638072  3026 net.cpp:345] relu3_2 -> conv3_2 (in-place)
I1105 20:33:34.638078  3026 net.cpp:96] Setting up relu3_2
I1105 20:33:34.638084  3026 net.cpp:103] Top shape: 8 256 56 56 (6422528)
I1105 20:33:34.638087  3026 layer_factory.hpp:78] Creating layer conv3_3
I1105 20:33:34.638097  3026 net.cpp:67] Creating Layer conv3_3
I1105 20:33:34.638099  3026 net.cpp:394] conv3_3 <- conv3_2
I1105 20:33:34.638105  3026 net.cpp:356] conv3_3 -> conv3_3
I1105 20:33:34.638111  3026 net.cpp:96] Setting up conv3_3
I1105 20:33:34.652830  3026 net.cpp:103] Top shape: 8 256 56 56 (6422528)
I1105 20:33:34.652848  3026 layer_factory.hpp:78] Creating layer relu3_3
I1105 20:33:34.652854  3026 net.cpp:67] Creating Layer relu3_3
I1105 20:33:34.652858  3026 net.cpp:394] relu3_3 <- conv3_3
I1105 20:33:34.652865  3026 net.cpp:345] relu3_3 -> conv3_3 (in-place)
I1105 20:33:34.652871  3026 net.cpp:96] Setting up relu3_3
I1105 20:33:34.652878  3026 net.cpp:103] Top shape: 8 256 56 56 (6422528)
I1105 20:33:34.652880  3026 layer_factory.hpp:78] Creating layer conv3_4
I1105 20:33:34.652886  3026 net.cpp:67] Creating Layer conv3_4
I1105 20:33:34.652889  3026 net.cpp:394] conv3_4 <- conv3_3
I1105 20:33:34.652894  3026 net.cpp:356] conv3_4 -> conv3_4
I1105 20:33:34.652899  3026 net.cpp:96] Setting up conv3_4
I1105 20:33:34.667403  3026 net.cpp:103] Top shape: 8 256 56 56 (6422528)
I1105 20:33:34.667429  3026 layer_factory.hpp:78] Creating layer relu3_4
I1105 20:33:34.667436  3026 net.cpp:67] Creating Layer relu3_4
I1105 20:33:34.667440  3026 net.cpp:394] relu3_4 <- conv3_4
I1105 20:33:34.667445  3026 net.cpp:345] relu3_4 -> conv3_4 (in-place)
I1105 20:33:34.667451  3026 net.cpp:96] Setting up relu3_4
I1105 20:33:34.667456  3026 net.cpp:103] Top shape: 8 256 56 56 (6422528)
I1105 20:33:34.667460  3026 layer_factory.hpp:78] Creating layer pool3
I1105 20:33:34.667465  3026 net.cpp:67] Creating Layer pool3
I1105 20:33:34.667469  3026 net.cpp:394] pool3 <- conv3_4
I1105 20:33:34.667475  3026 net.cpp:356] pool3 -> pool3
I1105 20:33:34.667481  3026 net.cpp:96] Setting up pool3
I1105 20:33:34.667490  3026 net.cpp:103] Top shape: 8 256 28 28 (1605632)
I1105 20:33:34.667492  3026 layer_factory.hpp:78] Creating layer conv4_1
I1105 20:33:34.667497  3026 net.cpp:67] Creating Layer conv4_1
I1105 20:33:34.667500  3026 net.cpp:394] conv4_1 <- pool3
I1105 20:33:34.667506  3026 net.cpp:356] conv4_1 -> conv4_1
I1105 20:33:34.667512  3026 net.cpp:96] Setting up conv4_1
I1105 20:33:34.695739  3026 net.cpp:103] Top shape: 8 512 28 28 (3211264)
I1105 20:33:34.695777  3026 layer_factory.hpp:78] Creating layer relu4_1
I1105 20:33:34.695785  3026 net.cpp:67] Creating Layer relu4_1
I1105 20:33:34.695790  3026 net.cpp:394] relu4_1 <- conv4_1
I1105 20:33:34.695794  3026 net.cpp:345] relu4_1 -> conv4_1 (in-place)
I1105 20:33:34.695799  3026 net.cpp:96] Setting up relu4_1
I1105 20:33:34.695806  3026 net.cpp:103] Top shape: 8 512 28 28 (3211264)
I1105 20:33:34.695808  3026 layer_factory.hpp:78] Creating layer conv4_2
I1105 20:33:34.695816  3026 net.cpp:67] Creating Layer conv4_2
I1105 20:33:34.695818  3026 net.cpp:394] conv4_2 <- conv4_1
I1105 20:33:34.695823  3026 net.cpp:356] conv4_2 -> conv4_2
I1105 20:33:34.695830  3026 net.cpp:96] Setting up conv4_2
I1105 20:33:34.752017  3026 net.cpp:103] Top shape: 8 512 28 28 (3211264)
I1105 20:33:34.752053  3026 layer_factory.hpp:78] Creating layer relu4_2
I1105 20:33:34.752060  3026 net.cpp:67] Creating Layer relu4_2
I1105 20:33:34.752065  3026 net.cpp:394] relu4_2 <- conv4_2
I1105 20:33:34.752073  3026 net.cpp:345] relu4_2 -> conv4_2 (in-place)
I1105 20:33:34.752079  3026 net.cpp:96] Setting up relu4_2
I1105 20:33:34.752085  3026 net.cpp:103] Top shape: 8 512 28 28 (3211264)
I1105 20:33:34.752089  3026 layer_factory.hpp:78] Creating layer conv4_3
I1105 20:33:34.752096  3026 net.cpp:67] Creating Layer conv4_3
I1105 20:33:34.752099  3026 net.cpp:394] conv4_3 <- conv4_2
I1105 20:33:34.752104  3026 net.cpp:356] conv4_3 -> conv4_3
I1105 20:33:34.752110  3026 net.cpp:96] Setting up conv4_3
I1105 20:33:34.807744  3026 net.cpp:103] Top shape: 8 512 28 28 (3211264)
I1105 20:33:34.807772  3026 layer_factory.hpp:78] Creating layer relu4_3
I1105 20:33:34.807780  3026 net.cpp:67] Creating Layer relu4_3
I1105 20:33:34.807785  3026 net.cpp:394] relu4_3 <- conv4_3
I1105 20:33:34.807793  3026 net.cpp:345] relu4_3 -> conv4_3 (in-place)
I1105 20:33:34.807800  3026 net.cpp:96] Setting up relu4_3
I1105 20:33:34.807806  3026 net.cpp:103] Top shape: 8 512 28 28 (3211264)
I1105 20:33:34.807809  3026 layer_factory.hpp:78] Creating layer conv4_4
I1105 20:33:34.807814  3026 net.cpp:67] Creating Layer conv4_4
I1105 20:33:34.807817  3026 net.cpp:394] conv4_4 <- conv4_3
I1105 20:33:34.807824  3026 net.cpp:356] conv4_4 -> conv4_4
I1105 20:33:34.807831  3026 net.cpp:96] Setting up conv4_4
I1105 20:33:34.863476  3026 net.cpp:103] Top shape: 8 512 28 28 (3211264)
I1105 20:33:34.863512  3026 layer_factory.hpp:78] Creating layer relu4_4
I1105 20:33:34.863519  3026 net.cpp:67] Creating Layer relu4_4
I1105 20:33:34.863524  3026 net.cpp:394] relu4_4 <- conv4_4
I1105 20:33:34.863534  3026 net.cpp:345] relu4_4 -> conv4_4 (in-place)
I1105 20:33:34.863541  3026 net.cpp:96] Setting up relu4_4
I1105 20:33:34.863548  3026 net.cpp:103] Top shape: 8 512 28 28 (3211264)
I1105 20:33:34.863550  3026 layer_factory.hpp:78] Creating layer pool4
I1105 20:33:34.863558  3026 net.cpp:67] Creating Layer pool4
I1105 20:33:34.863561  3026 net.cpp:394] pool4 <- conv4_4
I1105 20:33:34.863566  3026 net.cpp:356] pool4 -> pool4
I1105 20:33:34.863572  3026 net.cpp:96] Setting up pool4
I1105 20:33:34.863580  3026 net.cpp:103] Top shape: 8 512 14 14 (802816)
I1105 20:33:34.863584  3026 layer_factory.hpp:78] Creating layer conv5_1
I1105 20:33:34.863592  3026 net.cpp:67] Creating Layer conv5_1
I1105 20:33:34.863600  3026 net.cpp:394] conv5_1 <- pool4
I1105 20:33:34.863605  3026 net.cpp:356] conv5_1 -> conv5_1
I1105 20:33:34.863611  3026 net.cpp:96] Setting up conv5_1
I1105 20:33:34.918468  3026 net.cpp:103] Top shape: 8 512 14 14 (802816)
I1105 20:33:34.918504  3026 layer_factory.hpp:78] Creating layer relu5_1
I1105 20:33:34.918512  3026 net.cpp:67] Creating Layer relu5_1
I1105 20:33:34.918517  3026 net.cpp:394] relu5_1 <- conv5_1
I1105 20:33:34.918525  3026 net.cpp:345] relu5_1 -> conv5_1 (in-place)
I1105 20:33:34.918532  3026 net.cpp:96] Setting up relu5_1
I1105 20:33:34.918539  3026 net.cpp:103] Top shape: 8 512 14 14 (802816)
I1105 20:33:34.918541  3026 layer_factory.hpp:78] Creating layer conv5_2
I1105 20:33:34.918552  3026 net.cpp:67] Creating Layer conv5_2
I1105 20:33:34.918556  3026 net.cpp:394] conv5_2 <- conv5_1
I1105 20:33:34.918570  3026 net.cpp:356] conv5_2 -> conv5_2
I1105 20:33:34.918576  3026 net.cpp:96] Setting up conv5_2
I1105 20:33:34.973680  3026 net.cpp:103] Top shape: 8 512 14 14 (802816)
I1105 20:33:34.973716  3026 layer_factory.hpp:78] Creating layer relu5_2
I1105 20:33:34.973722  3026 net.cpp:67] Creating Layer relu5_2
I1105 20:33:34.973727  3026 net.cpp:394] relu5_2 <- conv5_2
I1105 20:33:34.973733  3026 net.cpp:345] relu5_2 -> conv5_2 (in-place)
I1105 20:33:34.973739  3026 net.cpp:96] Setting up relu5_2
I1105 20:33:34.973745  3026 net.cpp:103] Top shape: 8 512 14 14 (802816)
I1105 20:33:34.973748  3026 layer_factory.hpp:78] Creating layer conv5_3
I1105 20:33:34.973757  3026 net.cpp:67] Creating Layer conv5_3
I1105 20:33:34.973762  3026 net.cpp:394] conv5_3 <- conv5_2
I1105 20:33:34.973767  3026 net.cpp:356] conv5_3 -> conv5_3
I1105 20:33:34.973773  3026 net.cpp:96] Setting up conv5_3
I1105 20:33:35.028630  3026 net.cpp:103] Top shape: 8 512 14 14 (802816)
I1105 20:33:35.028666  3026 layer_factory.hpp:78] Creating layer relu5_3
I1105 20:33:35.028676  3026 net.cpp:67] Creating Layer relu5_3
I1105 20:33:35.028681  3026 net.cpp:394] relu5_3 <- conv5_3
I1105 20:33:35.028687  3026 net.cpp:345] relu5_3 -> conv5_3 (in-place)
I1105 20:33:35.028694  3026 net.cpp:96] Setting up relu5_3
I1105 20:33:35.028700  3026 net.cpp:103] Top shape: 8 512 14 14 (802816)
I1105 20:33:35.028704  3026 layer_factory.hpp:78] Creating layer conv5_4
I1105 20:33:35.028710  3026 net.cpp:67] Creating Layer conv5_4
I1105 20:33:35.028713  3026 net.cpp:394] conv5_4 <- conv5_3
I1105 20:33:35.028719  3026 net.cpp:356] conv5_4 -> conv5_4
I1105 20:33:35.028727  3026 net.cpp:96] Setting up conv5_4
I1105 20:33:35.083780  3026 net.cpp:103] Top shape: 8 512 14 14 (802816)
I1105 20:33:35.083814  3026 layer_factory.hpp:78] Creating layer relu5_4
I1105 20:33:35.083823  3026 net.cpp:67] Creating Layer relu5_4
I1105 20:33:35.083828  3026 net.cpp:394] relu5_4 <- conv5_4
I1105 20:33:35.083834  3026 net.cpp:345] relu5_4 -> conv5_4 (in-place)
I1105 20:33:35.083842  3026 net.cpp:96] Setting up relu5_4
I1105 20:33:35.083847  3026 net.cpp:103] Top shape: 8 512 14 14 (802816)
I1105 20:33:35.083850  3026 layer_factory.hpp:78] Creating layer pool5
I1105 20:33:35.083856  3026 net.cpp:67] Creating Layer pool5
I1105 20:33:35.083863  3026 net.cpp:394] pool5 <- conv5_4
I1105 20:33:35.083868  3026 net.cpp:356] pool5 -> pool5
I1105 20:33:35.083873  3026 net.cpp:96] Setting up pool5
I1105 20:33:35.083881  3026 net.cpp:103] Top shape: 8 512 7 7 (200704)
I1105 20:33:35.083884  3026 layer_factory.hpp:78] Creating layer fc6
I1105 20:33:35.083889  3026 net.cpp:67] Creating Layer fc6
I1105 20:33:35.083894  3026 net.cpp:394] fc6 <- pool5
I1105 20:33:35.083899  3026 net.cpp:356] fc6 -> fc6
I1105 20:33:35.083910  3026 net.cpp:96] Setting up fc6
I1105 20:33:37.726917  3026 net.cpp:103] Top shape: 8 4096 1 1 (32768)
I1105 20:33:37.726963  3026 layer_factory.hpp:78] Creating layer relu6
I1105 20:33:37.726974  3026 net.cpp:67] Creating Layer relu6
I1105 20:33:37.726979  3026 net.cpp:394] relu6 <- fc6
I1105 20:33:37.726985  3026 net.cpp:345] relu6 -> fc6 (in-place)
I1105 20:33:37.726994  3026 net.cpp:96] Setting up relu6
I1105 20:33:37.727007  3026 net.cpp:103] Top shape: 8 4096 1 1 (32768)
I1105 20:33:37.727011  3026 layer_factory.hpp:78] Creating layer drop6
I1105 20:33:37.727018  3026 net.cpp:67] Creating Layer drop6
I1105 20:33:37.727021  3026 net.cpp:394] drop6 <- fc6
I1105 20:33:37.727026  3026 net.cpp:345] drop6 -> fc6 (in-place)
I1105 20:33:37.727031  3026 net.cpp:96] Setting up drop6
I1105 20:33:37.727035  3026 net.cpp:103] Top shape: 8 4096 1 1 (32768)
I1105 20:33:37.727038  3026 layer_factory.hpp:78] Creating layer fc7
I1105 20:33:37.727043  3026 net.cpp:67] Creating Layer fc7
I1105 20:33:37.727046  3026 net.cpp:394] fc7 <- fc6
I1105 20:33:37.727051  3026 net.cpp:356] fc7 -> fc7
I1105 20:33:37.727058  3026 net.cpp:96] Setting up fc7
I1105 20:33:38.122093  3026 net.cpp:103] Top shape: 8 4096 1 1 (32768)
I1105 20:33:38.122133  3026 layer_factory.hpp:78] Creating layer relu7
I1105 20:33:38.122153  3026 net.cpp:67] Creating Layer relu7
I1105 20:33:38.122158  3026 net.cpp:394] relu7 <- fc7
I1105 20:33:38.122165  3026 net.cpp:345] relu7 -> fc7 (in-place)
I1105 20:33:38.122174  3026 net.cpp:96] Setting up relu7
I1105 20:33:38.122189  3026 net.cpp:103] Top shape: 8 4096 1 1 (32768)
I1105 20:33:38.122192  3026 layer_factory.hpp:78] Creating layer drop7
I1105 20:33:38.122197  3026 net.cpp:67] Creating Layer drop7
I1105 20:33:38.122200  3026 net.cpp:394] drop7 <- fc7
I1105 20:33:38.122205  3026 net.cpp:345] drop7 -> fc7 (in-place)
I1105 20:33:38.122210  3026 net.cpp:96] Setting up drop7
I1105 20:33:38.122213  3026 net.cpp:103] Top shape: 8 4096 1 1 (32768)
I1105 20:33:38.122217  3026 layer_factory.hpp:78] Creating layer fc8_2
I1105 20:33:38.122225  3026 net.cpp:67] Creating Layer fc8_2
I1105 20:33:38.122227  3026 net.cpp:394] fc8_2 <- fc7
I1105 20:33:38.122232  3026 net.cpp:356] fc8_2 -> fc8_2
I1105 20:33:38.122238  3026 net.cpp:96] Setting up fc8_2
I1105 20:33:38.122462  3026 net.cpp:103] Top shape: 8 2 1 1 (16)
I1105 20:33:38.122470  3026 layer_factory.hpp:78] Creating layer fc8_2_fc8_2_0_split
I1105 20:33:38.122478  3026 net.cpp:67] Creating Layer fc8_2_fc8_2_0_split
I1105 20:33:38.122481  3026 net.cpp:394] fc8_2_fc8_2_0_split <- fc8_2
I1105 20:33:38.122486  3026 net.cpp:356] fc8_2_fc8_2_0_split -> fc8_2_fc8_2_0_split_0
I1105 20:33:38.122491  3026 net.cpp:356] fc8_2_fc8_2_0_split -> fc8_2_fc8_2_0_split_1
I1105 20:33:38.122498  3026 net.cpp:96] Setting up fc8_2_fc8_2_0_split
I1105 20:33:38.122504  3026 net.cpp:103] Top shape: 8 2 1 1 (16)
I1105 20:33:38.122509  3026 net.cpp:103] Top shape: 8 2 1 1 (16)
I1105 20:33:38.122511  3026 layer_factory.hpp:78] Creating layer loss
I1105 20:33:38.122517  3026 net.cpp:67] Creating Layer loss
I1105 20:33:38.122520  3026 net.cpp:394] loss <- fc8_2_fc8_2_0_split_0
I1105 20:33:38.122530  3026 net.cpp:394] loss <- label_data_1_split_0
I1105 20:33:38.122537  3026 net.cpp:356] loss -> (automatic)
I1105 20:33:38.122541  3026 net.cpp:96] Setting up loss
I1105 20:33:38.122547  3026 net.cpp:103] Top shape: 1 1 1 1 (1)
I1105 20:33:38.122552  3026 net.cpp:109]     with loss weight 1
I1105 20:33:38.122567  3026 layer_factory.hpp:78] Creating layer accuracy
I1105 20:33:38.122582  3026 net.cpp:67] Creating Layer accuracy
I1105 20:33:38.122587  3026 net.cpp:394] accuracy <- fc8_2_fc8_2_0_split_1
I1105 20:33:38.122591  3026 net.cpp:394] accuracy <- label_data_1_split_1
I1105 20:33:38.122598  3026 net.cpp:356] accuracy -> accuracy
I1105 20:33:38.122603  3026 net.cpp:96] Setting up accuracy
I1105 20:33:38.122611  3026 net.cpp:103] Top shape: 1 1 1 4 (4)
I1105 20:33:38.122616  3026 net.cpp:172] accuracy does not need backward computation.
I1105 20:33:38.122618  3026 net.cpp:170] loss needs backward computation.
I1105 20:33:38.122622  3026 net.cpp:170] fc8_2_fc8_2_0_split needs backward computation.
I1105 20:33:38.122625  3026 net.cpp:170] fc8_2 needs backward computation.
I1105 20:33:38.122628  3026 net.cpp:170] drop7 needs backward computation.
…
