…
I1125 11:22:54.967979 22964 net.cpp:275] The NetState phase (0) differed from the phase (1) specified by a rule in layer accuracy
I1125 11:22:54.968165 22964 net.cpp:39] Initializing net from parameters: 
name: "small"
layers {
  top: "data"
  top: "label"
  name: "data"
  type: IMAGE_DATA
  image_data_param {
    source: "/data/ad6813/devCaffe/caffe/data/scrape_blue/train.txt"
    batch_size: 32
    new_height: 256
    new_width: 256
  }
  include {
    phase: TRAIN
  }
  transform_param {
    mirror: true
    crop_size: 224
    mean_value: 86.752
    mean_value: 101.46
    mean_value: 104.6
  }
}
layers {
  bottom: "data"
  top: "conv1_1"
  name: "conv1_1"
  type: CONVOLUTION
  convolution_param {
    num_output: 64
    pad: 1
    kernel_size: 3
    weight_filler {
      type: "gaussian"
      std: 0.01
    }
    bias_filler {
      type: "constant"
      value: 0
    }
  }
}
layers {
  bottom: "conv1_1"
  top: "conv1_1"
  name: "relu1_1"
  type: RELU
}
layers {
  bottom: "conv1_1"
  top: "conv1_2"
  name: "conv1_2"
  type: CONVOLUTION
  convolution_param {
    num_output: 64
    pad: 1
    kernel_size: 3
    weight_filler {
      type: "gaussian"
      std: 0.01
    }
    bias_filler {
      type: "constant"
      value: 0
    }
  }
}
layers {
  bottom: "conv1_2"
  top: "conv1_2"
  name: "relu1_2"
  type: RELU
}
layers {
  bottom: "conv1_2"
  top: "pool1"
  name: "pool1"
  type: POOLING
  pooling_param {
    pool: MAX
    kernel_size: 2
    stride: 2
  }
}
layers {
  bottom: "pool1"
  top: "conv2_1"
  name: "conv2_1"
  type: CONVOLUTION
  convolution_param {
    num_output: 128
    pad: 1
    kernel_size: 3
    weight_filler {
      type: "gaussian"
      std: 0.01
    }
    bias_filler {
      type: "constant"
      value: 0
    }
  }
}
layers {
  bottom: "conv2_1"
  top: "conv2_1"
  name: "relu2_1"
  type: RELU
}
layers {
  bottom: "conv2_1"
  top: "conv2_2"
  name: "conv2_2"
  type: CONVOLUTION
  convolution_param {
    num_output: 128
    pad: 1
    kernel_size: 3
    weight_filler {
      type: "gaussian"
      std: 0.01
    }
    bias_filler {
      type: "constant"
      value: 0
    }
  }
}
layers {
  bottom: "conv2_2"
  top: "conv2_2"
  name: "relu2_2"
  type: RELU
}
layers {
  bottom: "conv2_2"
  top: "pool2"
  name: "pool2"
  type: POOLING
  pooling_param {
    pool: MAX
    kernel_size: 2
    stride: 2
  }
}
layers {
  bottom: "pool2"
  top: "conv3_1"
  name: "conv3_1"
  type: CONVOLUTION
  convolution_param {
    num_output: 256
    pad: 1
    kernel_size: 3
    weight_filler {
      type: "gaussian"
      std: 0.01
    }
    bias_filler {
      type: "constant"
      value: 0
    }
  }
}
layers {
  bottom: "conv3_1"
  top: "conv3_1"
  name: "relu3_1"
  type: RELU
}
layers {
  bottom: "conv3_1"
  top: "conv3_2"
  name: "conv3_2"
  type: CONVOLUTION
  convolution_param {
    num_output: 256
    pad: 1
    kernel_size: 3
    weight_filler {
      type: "gaussian"
      std: 0.01
    }
    bias_filler {
      type: "constant"
      value: 0
    }
  }
}
layers {
  bottom: "conv3_2"
  top: "conv3_2"
  name: "relu3_2"
  type: RELU
}
layers {
  bottom: "conv3_2"
  top: "conv3_3"
  name: "conv3_3"
  type: CONVOLUTION
  convolution_param {
    num_output: 256
    pad: 1
    kernel_size: 3
    weight_filler {
      type: "gaussian"
      std: 0.01
    }
    bias_filler {
      type: "constant"
      value: 0
    }
  }
}
layers {
  bottom: "conv3_3"
  top: "conv3_3"
  name: "relu3_3"
  type: RELU
}
layers {
  bottom: "conv3_3"
  top: "pool3"
  name: "pool3"
  type: POOLING
  pooling_param {
    pool: MAX
    kernel_size: 2
    stride: 2
  }
}
layers {
  bottom: "pool3"
  top: "conv4_1"
  name: "conv4_1"
  type: CONVOLUTION
  convolution_param {
    num_output: 512
    pad: 1
    kernel_size: 3
    weight_filler {
      type: "gaussian"
      std: 0.01
    }
    bias_filler {
      type: "constant"
      value: 0
    }
  }
}
layers {
  bottom: "conv4_1"
  top: "conv4_1"
  name: "relu4_1"
  type: RELU
}
layers {
  bottom: "conv4_1"
  top: "conv4_2"
  name: "conv4_2"
  type: CONVOLUTION
  convolution_param {
    num_output: 512
    pad: 1
    kernel_size: 3
    weight_filler {
      type: "gaussian"
      std: 0.01
    }
    bias_filler {
      type: "constant"
      value: 0
    }
  }
}
layers {
  bottom: "conv4_2"
  top: "conv4_2"
  name: "relu4_2"
  type: RELU
}
layers {
  bottom: "conv4_2"
  top: "conv4_3"
  name: "conv4_3"
  type: CONVOLUTION
  convolution_param {
    num_output: 512
    pad: 1
    kernel_size: 3
    weight_filler {
      type: "gaussian"
      std: 0.01
    }
    bias_filler {
      type: "constant"
      value: 0
    }
  }
}
layers {
  bottom: "conv4_3"
  top: "conv4_3"
  name: "relu4_3"
  type: RELU
}
layers {
  bottom: "conv4_3"
  top: "pool4"
  name: "pool4"
  type: POOLING
  pooling_param {
    pool: MAX
    kernel_size: 2
    stride: 2
  }
}
layers {
  bottom: "pool4"
  top: "conv5_1"
  name: "conv5_1"
  type: CONVOLUTION
  convolution_param {
    num_output: 512
    pad: 1
    kernel_size: 3
    weight_filler {
      type: "gaussian"
      std: 0.01
    }
    bias_filler {
      type: "constant"
      value: 0
    }
  }
}
layers {
  bottom: "conv5_1"
  top: "conv5_1"
  name: "relu5_1"
  type: RELU
}
layers {
  bottom: "conv5_1"
  top: "conv5_2"
  name: "conv5_2"
  type: CONVOLUTION
  convolution_param {
    num_output: 512
    pad: 1
    kernel_size: 3
    weight_filler {
      type: "gaussian"
      std: 0.01
    }
    bias_filler {
      type: "constant"
      value: 0
    }
  }
}
layers {
  bottom: "conv5_2"
  top: "conv5_2"
  name: "relu5_2"
  type: RELU
}
layers {
  bottom: "conv5_2"
  top: "conv5_3"
  name: "conv5_3"
  type: CONVOLUTION
  convolution_param {
    num_output: 512
    pad: 1
    kernel_size: 3
    weight_filler {
      type: "gaussian"
      std: 0.01
    }
    bias_filler {
      type: "constant"
      value: 0
    }
  }
}
layers {
  bottom: "conv5_3"
  top: "conv5_3"
  name: "relu5_3"
  type: RELU
}
layers {
  bottom: "conv5_3"
  top: "pool5"
  name: "pool5"
  type: POOLING
  pooling_param {
    pool: MAX
    kernel_size: 2
    stride: 2
  }
}
layers {
  bottom: "pool5"
  top: "fc6"
  name: "fc6"
  type: INNER_PRODUCT
  inner_product_param {
    num_output: 4096
    weight_filler {
      type: "gaussian"
      std: 0.01
    }
    bias_filler {
      type: "constant"
      value: 0
    }
  }
}
layers {
  bottom: "fc6"
  top: "fc6"
  name: "relu6"
  type: RELU
}
layers {
  bottom: "fc6"
  top: "fc6"
  name: "drop6"
  type: DROPOUT
  dropout_param {
    dropout_ratio: 0.5
  }
}
layers {
  bottom: "fc6"
  top: "fc7"
  name: "fc7"
  type: INNER_PRODUCT
  inner_product_param {
    num_output: 4096
    weight_filler {
      type: "gaussian"
      std: 0.01
    }
    bias_filler {
      type: "constant"
      value: 0
    }
  }
}
layers {
  bottom: "fc7"
  top: "fc7"
  name: "relu7"
  type: RELU
}
layers {
  bottom: "fc7"
  top: "fc7"
  name: "drop7"
  type: DROPOUT
  dropout_param {
    dropout_ratio: 0.5
  }
}
layers {
  bottom: "fc7"
  top: "fc8_2"
  name: "fc8_2"
  type: INNER_PRODUCT
  inner_product_param {
    num_output: 2
    weight_filler {
      type: "gaussian"
      std: 0.01
    }
    bias_filler {
      type: "constant"
      value: 0
    }
  }
}
layers {
  bottom: "fc8_2"
  bottom: "label"
  name: "loss"
  type: SOFTMAX_LOSS
}
state {
  phase: TRAIN
}
I1125 11:22:54.968281 22964 layer_factory.hpp:78] Creating layer data
I1125 11:22:54.968298 22964 net.cpp:67] Creating Layer data
I1125 11:22:54.968307 22964 net.cpp:356] data -> data
I1125 11:22:54.968327 22964 net.cpp:356] data -> label
I1125 11:22:54.968335 22964 net.cpp:96] Setting up data
I1125 11:22:54.968343 22964 image_data_layer.cpp:34] Opening file /data/ad6813/devCaffe/caffe/data/scrape_blue/train.txt
I1125 11:22:54.982228 22964 image_data_layer.cpp:49] A total of 40401 images.
I1125 11:22:55.006017 22964 image_data_layer.cpp:78] output data size: 32,3,224,224
I1125 11:22:55.008864 22964 net.cpp:103] Top shape: 32 3 224 224 (4816896)
I1125 11:22:55.008889 22964 net.cpp:103] Top shape: 32 1 1 1 (32)
I1125 11:22:55.008894 22964 layer_factory.hpp:78] Creating layer conv1_1
I1125 11:22:55.008910 22964 net.cpp:67] Creating Layer conv1_1
I1125 11:22:55.008914 22964 net.cpp:394] conv1_1 <- data
I1125 11:22:55.008936 22964 net.cpp:356] conv1_1 -> conv1_1
I1125 11:22:55.008949 22964 net.cpp:96] Setting up conv1_1
I1125 11:22:55.160774 22964 net.cpp:103] Top shape: 32 64 224 224 (102760448)
I1125 11:22:55.160810 22964 layer_factory.hpp:78] Creating layer relu1_1
I1125 11:22:55.160821 22964 net.cpp:67] Creating Layer relu1_1
I1125 11:22:55.160825 22964 net.cpp:394] relu1_1 <- conv1_1
I1125 11:22:55.160832 22964 net.cpp:345] relu1_1 -> conv1_1 (in-place)
I1125 11:22:55.160840 22964 net.cpp:96] Setting up relu1_1
I1125 11:22:55.160856 22964 net.cpp:103] Top shape: 32 64 224 224 (102760448)
I1125 11:22:55.160861 22964 layer_factory.hpp:78] Creating layer conv1_2
I1125 11:22:55.160871 22964 net.cpp:67] Creating Layer conv1_2
I1125 11:22:55.160876 22964 net.cpp:394] conv1_2 <- conv1_1
I1125 11:22:55.160883 22964 net.cpp:356] conv1_2 -> conv1_2
I1125 11:22:55.160892 22964 net.cpp:96] Setting up conv1_2
I1125 11:22:55.161943 22964 net.cpp:103] Top shape: 32 64 224 224 (102760448)
I1125 11:22:55.161955 22964 layer_factory.hpp:78] Creating layer relu1_2
I1125 11:22:55.161962 22964 net.cpp:67] Creating Layer relu1_2
I1125 11:22:55.161967 22964 net.cpp:394] relu1_2 <- conv1_2
I1125 11:22:55.161972 22964 net.cpp:345] relu1_2 -> conv1_2 (in-place)
I1125 11:22:55.161979 22964 net.cpp:96] Setting up relu1_2
I1125 11:22:55.161985 22964 net.cpp:103] Top shape: 32 64 224 224 (102760448)
I1125 11:22:55.161989 22964 layer_factory.hpp:78] Creating layer pool1
I1125 11:22:55.161998 22964 net.cpp:67] Creating Layer pool1
I1125 11:22:55.162003 22964 net.cpp:394] pool1 <- conv1_2
I1125 11:22:55.162010 22964 net.cpp:356] pool1 -> pool1
I1125 11:22:55.162017 22964 net.cpp:96] Setting up pool1
I1125 11:22:55.162034 22964 net.cpp:103] Top shape: 32 64 112 112 (25690112)
I1125 11:22:55.162039 22964 layer_factory.hpp:78] Creating layer conv2_1
I1125 11:22:55.162047 22964 net.cpp:67] Creating Layer conv2_1
I1125 11:22:55.162051 22964 net.cpp:394] conv2_1 <- pool1
I1125 11:22:55.162057 22964 net.cpp:356] conv2_1 -> conv2_1
I1125 11:22:55.162065 22964 net.cpp:96] Setting up conv2_1
I1125 11:22:55.164024 22964 net.cpp:103] Top shape: 32 128 112 112 (51380224)
I1125 11:22:55.164037 22964 layer_factory.hpp:78] Creating layer relu2_1
I1125 11:22:55.164043 22964 net.cpp:67] Creating Layer relu2_1
I1125 11:22:55.164047 22964 net.cpp:394] relu2_1 <- conv2_1
I1125 11:22:55.164055 22964 net.cpp:345] relu2_1 -> conv2_1 (in-place)
I1125 11:22:55.164062 22964 net.cpp:96] Setting up relu2_1
I1125 11:22:55.164067 22964 net.cpp:103] Top shape: 32 128 112 112 (51380224)
I1125 11:22:55.164072 22964 layer_factory.hpp:78] Creating layer conv2_2
I1125 11:22:55.164078 22964 net.cpp:67] Creating Layer conv2_2
I1125 11:22:55.164083 22964 net.cpp:394] conv2_2 <- conv2_1
I1125 11:22:55.164091 22964 net.cpp:356] conv2_2 -> conv2_2
I1125 11:22:55.164098 22964 net.cpp:96] Setting up conv2_2
I1125 11:22:55.167942 22964 net.cpp:103] Top shape: 32 128 112 112 (51380224)
I1125 11:22:55.167953 22964 layer_factory.hpp:78] Creating layer relu2_2
I1125 11:22:55.167961 22964 net.cpp:67] Creating Layer relu2_2
I1125 11:22:55.167966 22964 net.cpp:394] relu2_2 <- conv2_2
I1125 11:22:55.167973 22964 net.cpp:345] relu2_2 -> conv2_2 (in-place)
I1125 11:22:55.167979 22964 net.cpp:96] Setting up relu2_2
I1125 11:22:55.167984 22964 net.cpp:103] Top shape: 32 128 112 112 (51380224)
I1125 11:22:55.167997 22964 layer_factory.hpp:78] Creating layer pool2
I1125 11:22:55.168002 22964 net.cpp:67] Creating Layer pool2
I1125 11:22:55.168005 22964 net.cpp:394] pool2 <- conv2_2
I1125 11:22:55.168010 22964 net.cpp:356] pool2 -> pool2
I1125 11:22:55.168016 22964 net.cpp:96] Setting up pool2
I1125 11:22:55.168025 22964 net.cpp:103] Top shape: 32 128 56 56 (12845056)
I1125 11:22:55.168030 22964 layer_factory.hpp:78] Creating layer conv3_1
I1125 11:22:55.168035 22964 net.cpp:67] Creating Layer conv3_1
I1125 11:22:55.168040 22964 net.cpp:394] conv3_1 <- pool2
I1125 11:22:55.168046 22964 net.cpp:356] conv3_1 -> conv3_1
I1125 11:22:55.168054 22964 net.cpp:96] Setting up conv3_1
I1125 11:22:55.175637 22964 net.cpp:103] Top shape: 32 256 56 56 (25690112)
I1125 11:22:55.175653 22964 layer_factory.hpp:78] Creating layer relu3_1
I1125 11:22:55.175662 22964 net.cpp:67] Creating Layer relu3_1
I1125 11:22:55.175668 22964 net.cpp:394] relu3_1 <- conv3_1
I1125 11:22:55.175675 22964 net.cpp:345] relu3_1 -> conv3_1 (in-place)
I1125 11:22:55.175681 22964 net.cpp:96] Setting up relu3_1
I1125 11:22:55.175688 22964 net.cpp:103] Top shape: 32 256 56 56 (25690112)
I1125 11:22:55.175693 22964 layer_factory.hpp:78] Creating layer conv3_2
I1125 11:22:55.175698 22964 net.cpp:67] Creating Layer conv3_2
I1125 11:22:55.175704 22964 net.cpp:394] conv3_2 <- conv3_1
I1125 11:22:55.175709 22964 net.cpp:356] conv3_2 -> conv3_2
I1125 11:22:55.175715 22964 net.cpp:96] Setting up conv3_2
I1125 11:22:55.190971 22964 net.cpp:103] Top shape: 32 256 56 56 (25690112)
I1125 11:22:55.190991 22964 layer_factory.hpp:78] Creating layer relu3_2
I1125 11:22:55.190999 22964 net.cpp:67] Creating Layer relu3_2
I1125 11:22:55.191005 22964 net.cpp:394] relu3_2 <- conv3_2
I1125 11:22:55.191015 22964 net.cpp:345] relu3_2 -> conv3_2 (in-place)
I1125 11:22:55.191022 22964 net.cpp:96] Setting up relu3_2
I1125 11:22:55.191030 22964 net.cpp:103] Top shape: 32 256 56 56 (25690112)
I1125 11:22:55.191033 22964 layer_factory.hpp:78] Creating layer conv3_3
I1125 11:22:55.191041 22964 net.cpp:67] Creating Layer conv3_3
I1125 11:22:55.191046 22964 net.cpp:394] conv3_3 <- conv3_2
I1125 11:22:55.191053 22964 net.cpp:356] conv3_3 -> conv3_3
I1125 11:22:55.191061 22964 net.cpp:96] Setting up conv3_3
I1125 11:22:55.205945 22964 net.cpp:103] Top shape: 32 256 56 56 (25690112)
I1125 11:22:55.205963 22964 layer_factory.hpp:78] Creating layer relu3_3
I1125 11:22:55.205972 22964 net.cpp:67] Creating Layer relu3_3
I1125 11:22:55.205976 22964 net.cpp:394] relu3_3 <- conv3_3
I1125 11:22:55.205983 22964 net.cpp:345] relu3_3 -> conv3_3 (in-place)
I1125 11:22:55.205991 22964 net.cpp:96] Setting up relu3_3
I1125 11:22:55.205996 22964 net.cpp:103] Top shape: 32 256 56 56 (25690112)
I1125 11:22:55.205998 22964 layer_factory.hpp:78] Creating layer pool3
I1125 11:22:55.206004 22964 net.cpp:67] Creating Layer pool3
I1125 11:22:55.206010 22964 net.cpp:394] pool3 <- conv3_3
I1125 11:22:55.206017 22964 net.cpp:356] pool3 -> pool3
I1125 11:22:55.206024 22964 net.cpp:96] Setting up pool3
I1125 11:22:55.206033 22964 net.cpp:103] Top shape: 32 256 28 28 (6422528)
I1125 11:22:55.206038 22964 layer_factory.hpp:78] Creating layer conv4_1
I1125 11:22:55.206043 22964 net.cpp:67] Creating Layer conv4_1
I1125 11:22:55.206048 22964 net.cpp:394] conv4_1 <- pool3
I1125 11:22:55.206058 22964 net.cpp:356] conv4_1 -> conv4_1
I1125 11:22:55.206064 22964 net.cpp:96] Setting up conv4_1
I1125 11:22:55.235920 22964 net.cpp:103] Top shape: 32 512 28 28 (12845056)
I1125 11:22:55.235944 22964 layer_factory.hpp:78] Creating layer relu4_1
I1125 11:22:55.235951 22964 net.cpp:67] Creating Layer relu4_1
I1125 11:22:55.235961 22964 net.cpp:394] relu4_1 <- conv4_1
I1125 11:22:55.235968 22964 net.cpp:345] relu4_1 -> conv4_1 (in-place)
I1125 11:22:55.235976 22964 net.cpp:96] Setting up relu4_1
I1125 11:22:55.235983 22964 net.cpp:103] Top shape: 32 512 28 28 (12845056)
I1125 11:22:55.235988 22964 layer_factory.hpp:78] Creating layer conv4_2
I1125 11:22:55.235998 22964 net.cpp:67] Creating Layer conv4_2
I1125 11:22:55.236002 22964 net.cpp:394] conv4_2 <- conv4_1
I1125 11:22:55.236016 22964 net.cpp:356] conv4_2 -> conv4_2
I1125 11:22:55.236023 22964 net.cpp:96] Setting up conv4_2
I1125 11:22:55.295253 22964 net.cpp:103] Top shape: 32 512 28 28 (12845056)
I1125 11:22:55.295284 22964 layer_factory.hpp:78] Creating layer relu4_2
I1125 11:22:55.295291 22964 net.cpp:67] Creating Layer relu4_2
I1125 11:22:55.295299 22964 net.cpp:394] relu4_2 <- conv4_2
I1125 11:22:55.295307 22964 net.cpp:345] relu4_2 -> conv4_2 (in-place)
I1125 11:22:55.295315 22964 net.cpp:96] Setting up relu4_2
I1125 11:22:55.295322 22964 net.cpp:103] Top shape: 32 512 28 28 (12845056)
I1125 11:22:55.295327 22964 layer_factory.hpp:78] Creating layer conv4_3
I1125 11:22:55.295336 22964 net.cpp:67] Creating Layer conv4_3
I1125 11:22:55.295339 22964 net.cpp:394] conv4_3 <- conv4_2
I1125 11:22:55.295347 22964 net.cpp:356] conv4_3 -> conv4_3
I1125 11:22:55.295356 22964 net.cpp:96] Setting up conv4_3
I1125 11:22:55.354827 22964 net.cpp:103] Top shape: 32 512 28 28 (12845056)
I1125 11:22:55.354850 22964 layer_factory.hpp:78] Creating layer relu4_3
I1125 11:22:55.354859 22964 net.cpp:67] Creating Layer relu4_3
I1125 11:22:55.354863 22964 net.cpp:394] relu4_3 <- conv4_3
I1125 11:22:55.354871 22964 net.cpp:345] relu4_3 -> conv4_3 (in-place)
I1125 11:22:55.354877 22964 net.cpp:96] Setting up relu4_3
I1125 11:22:55.354882 22964 net.cpp:103] Top shape: 32 512 28 28 (12845056)
I1125 11:22:55.354887 22964 layer_factory.hpp:78] Creating layer pool4
I1125 11:22:55.354898 22964 net.cpp:67] Creating Layer pool4
I1125 11:22:55.354903 22964 net.cpp:394] pool4 <- conv4_3
I1125 11:22:55.354912 22964 net.cpp:356] pool4 -> pool4
I1125 11:22:55.354918 22964 net.cpp:96] Setting up pool4
I1125 11:22:55.354928 22964 net.cpp:103] Top shape: 32 512 14 14 (3211264)
I1125 11:22:55.354933 22964 layer_factory.hpp:78] Creating layer conv5_1
I1125 11:22:55.354940 22964 net.cpp:67] Creating Layer conv5_1
I1125 11:22:55.354945 22964 net.cpp:394] conv5_1 <- pool4
I1125 11:22:55.354951 22964 net.cpp:356] conv5_1 -> conv5_1
I1125 11:22:55.354960 22964 net.cpp:96] Setting up conv5_1
I1125 11:22:55.414268 22964 net.cpp:103] Top shape: 32 512 14 14 (3211264)
I1125 11:22:55.414295 22964 layer_factory.hpp:78] Creating layer relu5_1
I1125 11:22:55.414304 22964 net.cpp:67] Creating Layer relu5_1
I1125 11:22:55.414307 22964 net.cpp:394] relu5_1 <- conv5_1
I1125 11:22:55.414315 22964 net.cpp:345] relu5_1 -> conv5_1 (in-place)
I1125 11:22:55.414321 22964 net.cpp:96] Setting up relu5_1
I1125 11:22:55.414327 22964 net.cpp:103] Top shape: 32 512 14 14 (3211264)
I1125 11:22:55.414330 22964 layer_factory.hpp:78] Creating layer conv5_2
I1125 11:22:55.414348 22964 net.cpp:67] Creating Layer conv5_2
I1125 11:22:55.414353 22964 net.cpp:394] conv5_2 <- conv5_1
I1125 11:22:55.414361 22964 net.cpp:356] conv5_2 -> conv5_2
I1125 11:22:55.414368 22964 net.cpp:96] Setting up conv5_2
I1125 11:22:55.473494 22964 net.cpp:103] Top shape: 32 512 14 14 (3211264)
I1125 11:22:55.473516 22964 layer_factory.hpp:78] Creating layer relu5_2
I1125 11:22:55.473526 22964 net.cpp:67] Creating Layer relu5_2
I1125 11:22:55.473530 22964 net.cpp:394] relu5_2 <- conv5_2
I1125 11:22:55.473536 22964 net.cpp:345] relu5_2 -> conv5_2 (in-place)
I1125 11:22:55.473541 22964 net.cpp:96] Setting up relu5_2
I1125 11:22:55.473547 22964 net.cpp:103] Top shape: 32 512 14 14 (3211264)
I1125 11:22:55.473551 22964 layer_factory.hpp:78] Creating layer conv5_3
I1125 11:22:55.473557 22964 net.cpp:67] Creating Layer conv5_3
I1125 11:22:55.473562 22964 net.cpp:394] conv5_3 <- conv5_2
I1125 11:22:55.473570 22964 net.cpp:356] conv5_3 -> conv5_3
I1125 11:22:55.473578 22964 net.cpp:96] Setting up conv5_3
I1125 11:22:55.532933 22964 net.cpp:103] Top shape: 32 512 14 14 (3211264)
I1125 11:22:55.532958 22964 layer_factory.hpp:78] Creating layer relu5_3
I1125 11:22:55.532964 22964 net.cpp:67] Creating Layer relu5_3
I1125 11:22:55.532968 22964 net.cpp:394] relu5_3 <- conv5_3
I1125 11:22:55.532974 22964 net.cpp:345] relu5_3 -> conv5_3 (in-place)
I1125 11:22:55.532981 22964 net.cpp:96] Setting up relu5_3
I1125 11:22:55.532995 22964 net.cpp:103] Top shape: 32 512 14 14 (3211264)
I1125 11:22:55.532999 22964 layer_factory.hpp:78] Creating layer pool5
I1125 11:22:55.533005 22964 net.cpp:67] Creating Layer pool5
I1125 11:22:55.533011 22964 net.cpp:394] pool5 <- conv5_3
I1125 11:22:55.533020 22964 net.cpp:356] pool5 -> pool5
I1125 11:22:55.533027 22964 net.cpp:96] Setting up pool5
I1125 11:22:55.533035 22964 net.cpp:103] Top shape: 32 512 7 7 (802816)
I1125 11:22:55.533041 22964 layer_factory.hpp:78] Creating layer fc6
I1125 11:22:55.533056 22964 net.cpp:67] Creating Layer fc6
I1125 11:22:55.533061 22964 net.cpp:394] fc6 <- pool5
I1125 11:22:55.533067 22964 net.cpp:356] fc6 -> fc6
I1125 11:22:55.533074 22964 net.cpp:96] Setting up fc6
I1125 11:22:58.099732 22964 net.cpp:103] Top shape: 32 4096 1 1 (131072)
I1125 11:22:58.099762 22964 layer_factory.hpp:78] Creating layer relu6
I1125 11:22:58.099771 22964 net.cpp:67] Creating Layer relu6
I1125 11:22:58.099776 22964 net.cpp:394] relu6 <- fc6
I1125 11:22:58.099784 22964 net.cpp:345] relu6 -> fc6 (in-place)
I1125 11:22:58.099792 22964 net.cpp:96] Setting up relu6
I1125 11:22:58.099807 22964 net.cpp:103] Top shape: 32 4096 1 1 (131072)
I1125 11:22:58.099812 22964 layer_factory.hpp:78] Creating layer drop6
I1125 11:22:58.099822 22964 net.cpp:67] Creating Layer drop6
I1125 11:22:58.099825 22964 net.cpp:394] drop6 <- fc6
I1125 11:22:58.099833 22964 net.cpp:345] drop6 -> fc6 (in-place)
I1125 11:22:58.099839 22964 net.cpp:96] Setting up drop6
I1125 11:22:58.099844 22964 net.cpp:103] Top shape: 32 4096 1 1 (131072)
I1125 11:22:58.099848 22964 layer_factory.hpp:78] Creating layer fc7
I1125 11:22:58.099855 22964 net.cpp:67] Creating Layer fc7
I1125 11:22:58.099859 22964 net.cpp:394] fc7 <- fc6
I1125 11:22:58.099867 22964 net.cpp:356] fc7 -> fc7
I1125 11:22:58.099875 22964 net.cpp:96] Setting up fc7
I1125 11:22:58.518992 22964 net.cpp:103] Top shape: 32 4096 1 1 (131072)
I1125 11:22:58.519021 22964 layer_factory.hpp:78] Creating layer relu7
I1125 11:22:58.519029 22964 net.cpp:67] Creating Layer relu7
I1125 11:22:58.519034 22964 net.cpp:394] relu7 <- fc7
I1125 11:22:58.519042 22964 net.cpp:345] relu7 -> fc7 (in-place)
I1125 11:22:58.519048 22964 net.cpp:96] Setting up relu7
I1125 11:22:58.519062 22964 net.cpp:103] Top shape: 32 4096 1 1 (131072)
I1125 11:22:58.519068 22964 layer_factory.hpp:78] Creating layer drop7
I1125 11:22:58.519073 22964 net.cpp:67] Creating Layer drop7
I1125 11:22:58.519076 22964 net.cpp:394] drop7 <- fc7
I1125 11:22:58.519084 22964 net.cpp:345] drop7 -> fc7 (in-place)
I1125 11:22:58.519090 22964 net.cpp:96] Setting up drop7
I1125 11:22:58.519095 22964 net.cpp:103] Top shape: 32 4096 1 1 (131072)
I1125 11:22:58.519099 22964 layer_factory.hpp:78] Creating layer fc8_2
I1125 11:22:58.519109 22964 net.cpp:67] Creating Layer fc8_2
I1125 11:22:58.519114 22964 net.cpp:394] fc8_2 <- fc7
I1125 11:22:58.519119 22964 net.cpp:356] fc8_2 -> fc8_2
I1125 11:22:58.519127 22964 net.cpp:96] Setting up fc8_2
I1125 11:22:58.519346 22964 net.cpp:103] Top shape: 32 2 1 1 (64)
I1125 11:22:58.519353 22964 layer_factory.hpp:78] Creating layer loss
I1125 11:22:58.519359 22964 net.cpp:67] Creating Layer loss
I1125 11:22:58.519363 22964 net.cpp:394] loss <- fc8_2
I1125 11:22:58.519368 22964 net.cpp:394] loss <- label
I1125 11:22:58.519381 22964 net.cpp:356] loss -> (automatic)
I1125 11:22:58.519387 22964 net.cpp:96] Setting up loss
I1125 11:22:58.519397 22964 net.cpp:103] Top shape: 1 1 1 1 (1)
I1125 11:22:58.519400 22964 net.cpp:109]     with loss weight 1
I1125 11:22:58.519429 22964 net.cpp:170] loss needs backward computation.
I1125 11:22:58.519434 22964 net.cpp:170] fc8_2 needs backward computation.
I1125 11:22:58.519438 22964 net.cpp:170] drop7 needs backward computation.
I1125 11:22:58.519443 22964 net.cpp:170] relu7 needs backward computation.
I1125 11:22:58.519445 22964 net.cpp:170] fc7 needs backward computation.
…
I1125 11:22:58.520457 22964 net.cpp:275] The NetState phase (1) differed from the phase (0) specified by a rule in layer data
I1125 11:22:58.520659 22964 net.cpp:39] Initializing net from parameters: 
name: "small"
layers {
  top: "data"
  top: "label"
  name: "data"
  type: IMAGE_DATA
  image_data_param {
    source: "/data/ad6813/devCaffe/caffe/data/scrape_blue/val.txt"
    batch_size: 8
    new_height: 256
    new_width: 256
  }
  include {
    phase: TEST
  }
  transform_param {
    mirror: true
    crop_size: 224
    mean_value: 86.752
    mean_value: 101.46
    mean_value: 104.6
  }
}
layers {
  bottom: "data"
  top: "conv1_1"
  name: "conv1_1"
  type: CONVOLUTION
  convolution_param {
    num_output: 64
    pad: 1
    kernel_size: 3
    weight_filler {
      type: "gaussian"
      std: 0.01
    }
    bias_filler {
      type: "constant"
      value: 0
    }
  }
}
layers {
  bottom: "conv1_1"
  top: "conv1_1"
  name: "relu1_1"
  type: RELU
}
layers {
  bottom: "conv1_1"
  top: "conv1_2"
  name: "conv1_2"
  type: CONVOLUTION
  convolution_param {
    num_output: 64
    pad: 1
    kernel_size: 3
    weight_filler {
      type: "gaussian"
      std: 0.01
    }
    bias_filler {
      type: "constant"
      value: 0
    }
  }
}
layers {
  bottom: "conv1_2"
  top: "conv1_2"
  name: "relu1_2"
  type: RELU
}
layers {
  bottom: "conv1_2"
  top: "pool1"
  name: "pool1"
  type: POOLING
  pooling_param {
    pool: MAX
    kernel_size: 2
    stride: 2
  }
}
layers {
  bottom: "pool1"
  top: "conv2_1"
  name: "conv2_1"
  type: CONVOLUTION
  convolution_param {
    num_output: 128
    pad: 1
    kernel_size: 3
    weight_filler {
      type: "gaussian"
      std: 0.01
    }
    bias_filler {
      type: "constant"
      value: 0
    }
  }
}
layers {
  bottom: "conv2_1"
  top: "conv2_1"
  name: "relu2_1"
  type: RELU
}
layers {
  bottom: "conv2_1"
  top: "conv2_2"
  name: "conv2_2"
  type: CONVOLUTION
  convolution_param {
    num_output: 128
    pad: 1
    kernel_size: 3
    weight_filler {
      type: "gaussian"
      std: 0.01
    }
    bias_filler {
      type: "constant"
      value: 0
    }
  }
}
layers {
  bottom: "conv2_2"
  top: "conv2_2"
  name: "relu2_2"
  type: RELU
}
layers {
  bottom: "conv2_2"
  top: "pool2"
  name: "pool2"
  type: POOLING
  pooling_param {
    pool: MAX
    kernel_size: 2
    stride: 2
  }
}
layers {
  bottom: "pool2"
  top: "conv3_1"
  name: "conv3_1"
  type: CONVOLUTION
  convolution_param {
    num_output: 256
    pad: 1
    kernel_size: 3
    weight_filler {
      type: "gaussian"
      std: 0.01
    }
    bias_filler {
      type: "constant"
      value: 0
    }
  }
}
layers {
  bottom: "conv3_1"
  top: "conv3_1"
  name: "relu3_1"
  type: RELU
}
layers {
  bottom: "conv3_1"
  top: "conv3_2"
  name: "conv3_2"
  type: CONVOLUTION
  convolution_param {
    num_output: 256
    pad: 1
    kernel_size: 3
    weight_filler {
      type: "gaussian"
      std: 0.01
    }
    bias_filler {
      type: "constant"
      value: 0
    }
  }
}
layers {
  bottom: "conv3_2"
  top: "conv3_2"
  name: "relu3_2"
  type: RELU
}
layers {
  bottom: "conv3_2"
  top: "conv3_3"
  name: "conv3_3"
  type: CONVOLUTION
  convolution_param {
    num_output: 256
    pad: 1
    kernel_size: 3
    weight_filler {
      type: "gaussian"
      std: 0.01
    }
    bias_filler {
      type: "constant"
      value: 0
    }
  }
}
layers {
  bottom: "conv3_3"
  top: "conv3_3"
  name: "relu3_3"
  type: RELU
}
layers {
  bottom: "conv3_3"
  top: "pool3"
  name: "pool3"
  type: POOLING
  pooling_param {
    pool: MAX
    kernel_size: 2
    stride: 2
  }
}
layers {
  bottom: "pool3"
  top: "conv4_1"
  name: "conv4_1"
  type: CONVOLUTION
  convolution_param {
    num_output: 512
    pad: 1
    kernel_size: 3
    weight_filler {
      type: "gaussian"
      std: 0.01
    }
    bias_filler {
      type: "constant"
      value: 0
    }
  }
}
layers {
  bottom: "conv4_1"
  top: "conv4_1"
  name: "relu4_1"
  type: RELU
}
layers {
  bottom: "conv4_1"
  top: "conv4_2"
  name: "conv4_2"
  type: CONVOLUTION
  convolution_param {
    num_output: 512
    pad: 1
    kernel_size: 3
    weight_filler {
      type: "gaussian"
      std: 0.01
    }
    bias_filler {
      type: "constant"
      value: 0
    }
  }
}
layers {
  bottom: "conv4_2"
  top: "conv4_2"
  name: "relu4_2"
  type: RELU
}
layers {
  bottom: "conv4_2"
  top: "conv4_3"
  name: "conv4_3"
  type: CONVOLUTION
  convolution_param {
    num_output: 512
    pad: 1
    kernel_size: 3
    weight_filler {
      type: "gaussian"
      std: 0.01
    }
    bias_filler {
      type: "constant"
      value: 0
    }
  }
}
layers {
  bottom: "conv4_3"
  top: "conv4_3"
  name: "relu4_3"
  type: RELU
}
layers {
  bottom: "conv4_3"
  top: "pool4"
  name: "pool4"
  type: POOLING
  pooling_param {
    pool: MAX
    kernel_size: 2
    stride: 2
  }
}
layers {
  bottom: "pool4"
  top: "conv5_1"
  name: "conv5_1"
  type: CONVOLUTION
  convolution_param {
    num_output: 512
    pad: 1
    kernel_size: 3
    weight_filler {
      type: "gaussian"
      std: 0.01
    }
    bias_filler {
      type: "constant"
      value: 0
    }
  }
}
layers {
  bottom: "conv5_1"
  top: "conv5_1"
  name: "relu5_1"
  type: RELU
}
layers {
  bottom: "conv5_1"
  top: "conv5_2"
  name: "conv5_2"
  type: CONVOLUTION
  convolution_param {
    num_output: 512
    pad: 1
    kernel_size: 3
    weight_filler {
      type: "gaussian"
      std: 0.01
    }
    bias_filler {
      type: "constant"
      value: 0
    }
  }
}
layers {
  bottom: "conv5_2"
  top: "conv5_2"
  name: "relu5_2"
  type: RELU
}
layers {
  bottom: "conv5_2"
  top: "conv5_3"
  name: "conv5_3"
  type: CONVOLUTION
  convolution_param {
    num_output: 512
    pad: 1
    kernel_size: 3
    weight_filler {
      type: "gaussian"
      std: 0.01
    }
    bias_filler {
      type: "constant"
      value: 0
    }
  }
}
layers {
  bottom: "conv5_3"
  top: "conv5_3"
  name: "relu5_3"
  type: RELU
}
layers {
  bottom: "conv5_3"
  top: "pool5"
  name: "pool5"
  type: POOLING
  pooling_param {
    pool: MAX
    kernel_size: 2
    stride: 2
  }
}
layers {
  bottom: "pool5"
  top: "fc6"
  name: "fc6"
  type: INNER_PRODUCT
  inner_product_param {
    num_output: 4096
    weight_filler {
      type: "gaussian"
      std: 0.01
    }
    bias_filler {
      type: "constant"
      value: 0
    }
  }
}
layers {
  bottom: "fc6"
  top: "fc6"
  name: "relu6"
  type: RELU
}
layers {
  bottom: "fc6"
  top: "fc6"
  name: "drop6"
  type: DROPOUT
  dropout_param {
    dropout_ratio: 0.5
  }
}
layers {
  bottom: "fc6"
  top: "fc7"
  name: "fc7"
  type: INNER_PRODUCT
  inner_product_param {
    num_output: 4096
    weight_filler {
      type: "gaussian"
      std: 0.01
    }
    bias_filler {
      type: "constant"
      value: 0
    }
  }
}
layers {
  bottom: "fc7"
  top: "fc7"
  name: "relu7"
  type: RELU
}
layers {
  bottom: "fc7"
  top: "fc7"
  name: "drop7"
  type: DROPOUT
  dropout_param {
    dropout_ratio: 0.5
  }
}
layers {
  bottom: "fc7"
  top: "fc8_2"
  name: "fc8_2"
  type: INNER_PRODUCT
  inner_product_param {
    num_output: 2
    weight_filler {
      type: "gaussian"
      std: 0.01
    }
    bias_filler {
      type: "constant"
      value: 0
    }
  }
}
layers {
  bottom: "fc8_2"
  bottom: "label"
  name: "loss"
  type: SOFTMAX_LOSS
}
layers {
  bottom: "fc8_2"
  bottom: "label"
  top: "accuracy"
  name: "accuracy"
  type: PER_CLASS_ACCURACY
  include {
    phase: TEST
  }
}
state {
  phase: TEST
}
I1125 11:22:58.520788 22964 layer_factory.hpp:78] Creating layer data
I1125 11:22:58.520800 22964 net.cpp:67] Creating Layer data
I1125 11:22:58.520805 22964 net.cpp:356] data -> data
I1125 11:22:58.520814 22964 net.cpp:356] data -> label
I1125 11:22:58.520822 22964 net.cpp:96] Setting up data
I1125 11:22:58.520827 22964 image_data_layer.cpp:34] Opening file /data/ad6813/devCaffe/caffe/data/scrape_blue/val.txt
I1125 11:22:58.522181 22964 image_data_layer.cpp:49] A total of 3963 images.
I1125 11:22:58.529345 22964 image_data_layer.cpp:78] output data size: 8,3,224,224
I1125 11:22:58.530210 22964 net.cpp:103] Top shape: 8 3 224 224 (1204224)
I1125 11:22:58.530218 22964 net.cpp:103] Top shape: 8 1 1 1 (8)
I1125 11:22:58.530223 22964 layer_factory.hpp:78] Creating layer label_data_1_split
I1125 11:22:58.530235 22964 net.cpp:67] Creating Layer label_data_1_split
I1125 11:22:58.530238 22964 net.cpp:394] label_data_1_split <- label
I1125 11:22:58.530252 22964 net.cpp:356] label_data_1_split -> label_data_1_split_0
I1125 11:22:58.530261 22964 net.cpp:356] label_data_1_split -> label_data_1_split_1
I1125 11:22:58.530268 22964 net.cpp:96] Setting up label_data_1_split
I1125 11:22:58.530275 22964 net.cpp:103] Top shape: 8 1 1 1 (8)
I1125 11:22:58.530282 22964 net.cpp:103] Top shape: 8 1 1 1 (8)
I1125 11:22:58.530284 22964 layer_factory.hpp:78] Creating layer conv1_1
I1125 11:22:58.530292 22964 net.cpp:67] Creating Layer conv1_1
I1125 11:22:58.530297 22964 net.cpp:394] conv1_1 <- data
I1125 11:22:58.530303 22964 net.cpp:356] conv1_1 -> conv1_1
I1125 11:22:58.530309 22964 net.cpp:96] Setting up conv1_1
I1125 11:22:58.530464 22964 net.cpp:103] Top shape: 8 64 224 224 (25690112)
I1125 11:22:58.530478 22964 layer_factory.hpp:78] Creating layer relu1_1
I1125 11:22:58.530483 22964 net.cpp:67] Creating Layer relu1_1
I1125 11:22:58.530488 22964 net.cpp:394] relu1_1 <- conv1_1
I1125 11:22:58.530494 22964 net.cpp:345] relu1_1 -> conv1_1 (in-place)
I1125 11:22:58.530506 22964 net.cpp:96] Setting up relu1_1
I1125 11:22:58.530514 22964 net.cpp:103] Top shape: 8 64 224 224 (25690112)
I1125 11:22:58.530519 22964 layer_factory.hpp:78] Creating layer conv1_2
I1125 11:22:58.530524 22964 net.cpp:67] Creating Layer conv1_2
I1125 11:22:58.530529 22964 net.cpp:394] conv1_2 <- conv1_1
I1125 11:22:58.530534 22964 net.cpp:356] conv1_2 -> conv1_2
I1125 11:22:58.530539 22964 net.cpp:96] Setting up conv1_2
I1125 11:22:58.531538 22964 net.cpp:103] Top shape: 8 64 224 224 (25690112)
I1125 11:22:58.531550 22964 layer_factory.hpp:78] Creating layer relu1_2
I1125 11:22:58.531555 22964 net.cpp:67] Creating Layer relu1_2
I1125 11:22:58.531558 22964 net.cpp:394] relu1_2 <- conv1_2
I1125 11:22:58.531564 22964 net.cpp:345] relu1_2 -> conv1_2 (in-place)
I1125 11:22:58.531571 22964 net.cpp:96] Setting up relu1_2
I1125 11:22:58.531577 22964 net.cpp:103] Top shape: 8 64 224 224 (25690112)
I1125 11:22:58.531581 22964 layer_factory.hpp:78] Creating layer pool1
I1125 11:22:58.531587 22964 net.cpp:67] Creating Layer pool1
I1125 11:22:58.531591 22964 net.cpp:394] pool1 <- conv1_2
I1125 11:22:58.531595 22964 net.cpp:356] pool1 -> pool1
I1125 11:22:58.531601 22964 net.cpp:96] Setting up pool1
I1125 11:22:58.531610 22964 net.cpp:103] Top shape: 8 64 112 112 (6422528)
I1125 11:22:58.531615 22964 layer_factory.hpp:78] Creating layer conv2_1
I1125 11:22:58.531620 22964 net.cpp:67] Creating Layer conv2_1
I1125 11:22:58.531623 22964 net.cpp:394] conv2_1 <- pool1
I1125 11:22:58.531628 22964 net.cpp:356] conv2_1 -> conv2_1
I1125 11:22:58.531635 22964 net.cpp:96] Setting up conv2_1
I1125 11:22:58.533661 22964 net.cpp:103] Top shape: 8 128 112 112 (12845056)
I1125 11:22:58.533674 22964 layer_factory.hpp:78] Creating layer relu2_1
I1125 11:22:58.533681 22964 net.cpp:67] Creating Layer relu2_1
I1125 11:22:58.533685 22964 net.cpp:394] relu2_1 <- conv2_1
I1125 11:22:58.533690 22964 net.cpp:345] relu2_1 -> conv2_1 (in-place)
I1125 11:22:58.533696 22964 net.cpp:96] Setting up relu2_1
I1125 11:22:58.533704 22964 net.cpp:103] Top shape: 8 128 112 112 (12845056)
I1125 11:22:58.533707 22964 layer_factory.hpp:78] Creating layer conv2_2
I1125 11:22:58.533712 22964 net.cpp:67] Creating Layer conv2_2
I1125 11:22:58.533716 22964 net.cpp:394] conv2_2 <- conv2_1
I1125 11:22:58.533721 22964 net.cpp:356] conv2_2 -> conv2_2
I1125 11:22:58.533728 22964 net.cpp:96] Setting up conv2_2
I1125 11:22:58.537456 22964 net.cpp:103] Top shape: 8 128 112 112 (12845056)
I1125 11:22:58.537467 22964 layer_factory.hpp:78] Creating layer relu2_2
I1125 11:22:58.537470 22964 net.cpp:67] Creating Layer relu2_2
I1125 11:22:58.537473 22964 net.cpp:394] relu2_2 <- conv2_2
I1125 11:22:58.537483 22964 net.cpp:345] relu2_2 -> conv2_2 (in-place)
I1125 11:22:58.537490 22964 net.cpp:96] Setting up relu2_2
I1125 11:22:58.537497 22964 net.cpp:103] Top shape: 8 128 112 112 (12845056)
I1125 11:22:58.537500 22964 layer_factory.hpp:78] Creating layer pool2
I1125 11:22:58.537505 22964 net.cpp:67] Creating Layer pool2
I1125 11:22:58.537509 22964 net.cpp:394] pool2 <- conv2_2
I1125 11:22:58.537513 22964 net.cpp:356] pool2 -> pool2
I1125 11:22:58.537519 22964 net.cpp:96] Setting up pool2
I1125 11:22:58.537526 22964 net.cpp:103] Top shape: 8 128 56 56 (3211264)
I1125 11:22:58.537531 22964 layer_factory.hpp:78] Creating layer conv3_1
I1125 11:22:58.537536 22964 net.cpp:67] Creating Layer conv3_1
I1125 11:22:58.537540 22964 net.cpp:394] conv3_1 <- pool2
I1125 11:22:58.537544 22964 net.cpp:356] conv3_1 -> conv3_1
I1125 11:22:58.537551 22964 net.cpp:96] Setting up conv3_1
I1125 11:22:58.544960 22964 net.cpp:103] Top shape: 8 256 56 56 (6422528)
I1125 11:22:58.544975 22964 layer_factory.hpp:78] Creating layer relu3_1
I1125 11:22:58.544981 22964 net.cpp:67] Creating Layer relu3_1
I1125 11:22:58.544991 22964 net.cpp:394] relu3_1 <- conv3_1
I1125 11:22:58.544999 22964 net.cpp:345] relu3_1 -> conv3_1 (in-place)
I1125 11:22:58.545006 22964 net.cpp:96] Setting up relu3_1
I1125 11:22:58.545013 22964 net.cpp:103] Top shape: 8 256 56 56 (6422528)
I1125 11:22:58.545017 22964 layer_factory.hpp:78] Creating layer conv3_2
I1125 11:22:58.545030 22964 net.cpp:67] Creating Layer conv3_2
I1125 11:22:58.545035 22964 net.cpp:394] conv3_2 <- conv3_1
I1125 11:22:58.545042 22964 net.cpp:356] conv3_2 -> conv3_2
I1125 11:22:58.545049 22964 net.cpp:96] Setting up conv3_2
I1125 11:22:58.560039 22964 net.cpp:103] Top shape: 8 256 56 56 (6422528)
I1125 11:22:58.560057 22964 layer_factory.hpp:78] Creating layer relu3_2
I1125 11:22:58.560065 22964 net.cpp:67] Creating Layer relu3_2
I1125 11:22:58.560068 22964 net.cpp:394] relu3_2 <- conv3_2
I1125 11:22:58.560075 22964 net.cpp:345] relu3_2 -> conv3_2 (in-place)
I1125 11:22:58.560083 22964 net.cpp:96] Setting up relu3_2
I1125 11:22:58.560091 22964 net.cpp:103] Top shape: 8 256 56 56 (6422528)
I1125 11:22:58.560096 22964 layer_factory.hpp:78] Creating layer conv3_3
I1125 11:22:58.560103 22964 net.cpp:67] Creating Layer conv3_3
I1125 11:22:58.560108 22964 net.cpp:394] conv3_3 <- conv3_2
I1125 11:22:58.560116 22964 net.cpp:356] conv3_3 -> conv3_3
I1125 11:22:58.560122 22964 net.cpp:96] Setting up conv3_3
I1125 11:22:58.574978 22964 net.cpp:103] Top shape: 8 256 56 56 (6422528)
I1125 11:22:58.575001 22964 layer_factory.hpp:78] Creating layer relu3_3
I1125 11:22:58.575009 22964 net.cpp:67] Creating Layer relu3_3
I1125 11:22:58.575013 22964 net.cpp:394] relu3_3 <- conv3_3
I1125 11:22:58.575021 22964 net.cpp:345] relu3_3 -> conv3_3 (in-place)
I1125 11:22:58.575031 22964 net.cpp:96] Setting up relu3_3
I1125 11:22:58.575037 22964 net.cpp:103] Top shape: 8 256 56 56 (6422528)
I1125 11:22:58.575042 22964 layer_factory.hpp:78] Creating layer pool3
I1125 11:22:58.575047 22964 net.cpp:67] Creating Layer pool3
I1125 11:22:58.575052 22964 net.cpp:394] pool3 <- conv3_3
I1125 11:22:58.575057 22964 net.cpp:356] pool3 -> pool3
I1125 11:22:58.575064 22964 net.cpp:96] Setting up pool3
I1125 11:22:58.575073 22964 net.cpp:103] Top shape: 8 256 28 28 (1605632)
I1125 11:22:58.575076 22964 layer_factory.hpp:78] Creating layer conv4_1
I1125 11:22:58.575083 22964 net.cpp:67] Creating Layer conv4_1
I1125 11:22:58.575088 22964 net.cpp:394] conv4_1 <- pool3
I1125 11:22:58.575091 22964 net.cpp:356] conv4_1 -> conv4_1
I1125 11:22:58.575098 22964 net.cpp:96] Setting up conv4_1
I1125 11:22:58.604915 22964 net.cpp:103] Top shape: 8 512 28 28 (3211264)
I1125 11:22:58.604938 22964 layer_factory.hpp:78] Creating layer relu4_1
I1125 11:22:58.604945 22964 net.cpp:67] Creating Layer relu4_1
I1125 11:22:58.604949 22964 net.cpp:394] relu4_1 <- conv4_1
I1125 11:22:58.604965 22964 net.cpp:345] relu4_1 -> conv4_1 (in-place)
I1125 11:22:58.604974 22964 net.cpp:96] Setting up relu4_1
I1125 11:22:58.604981 22964 net.cpp:103] Top shape: 8 512 28 28 (3211264)
I1125 11:22:58.604985 22964 layer_factory.hpp:78] Creating layer conv4_2
I1125 11:22:58.604995 22964 net.cpp:67] Creating Layer conv4_2
I1125 11:22:58.604998 22964 net.cpp:394] conv4_2 <- conv4_1
I1125 11:22:58.605005 22964 net.cpp:356] conv4_2 -> conv4_2
I1125 11:22:58.605012 22964 net.cpp:96] Setting up conv4_2
I1125 11:22:58.664338 22964 net.cpp:103] Top shape: 8 512 28 28 (3211264)
I1125 11:22:58.664368 22964 layer_factory.hpp:78] Creating layer relu4_2
I1125 11:22:58.664381 22964 net.cpp:67] Creating Layer relu4_2
I1125 11:22:58.664386 22964 net.cpp:394] relu4_2 <- conv4_2
I1125 11:22:58.664393 22964 net.cpp:345] relu4_2 -> conv4_2 (in-place)
I1125 11:22:58.664401 22964 net.cpp:96] Setting up relu4_2
I1125 11:22:58.664407 22964 net.cpp:103] Top shape: 8 512 28 28 (3211264)
I1125 11:22:58.664412 22964 layer_factory.hpp:78] Creating layer conv4_3
I1125 11:22:58.664420 22964 net.cpp:67] Creating Layer conv4_3
I1125 11:22:58.664424 22964 net.cpp:394] conv4_3 <- conv4_2
I1125 11:22:58.664430 22964 net.cpp:356] conv4_3 -> conv4_3
I1125 11:22:58.664438 22964 net.cpp:96] Setting up conv4_3
I1125 11:22:58.723551 22964 net.cpp:103] Top shape: 8 512 28 28 (3211264)
I1125 11:22:58.723577 22964 layer_factory.hpp:78] Creating layer relu4_3
I1125 11:22:58.723584 22964 net.cpp:67] Creating Layer relu4_3
I1125 11:22:58.723592 22964 net.cpp:394] relu4_3 <- conv4_3
I1125 11:22:58.723608 22964 net.cpp:345] relu4_3 -> conv4_3 (in-place)
I1125 11:22:58.723615 22964 net.cpp:96] Setting up relu4_3
I1125 11:22:58.723623 22964 net.cpp:103] Top shape: 8 512 28 28 (3211264)
I1125 11:22:58.723628 22964 layer_factory.hpp:78] Creating layer pool4
I1125 11:22:58.723635 22964 net.cpp:67] Creating Layer pool4
I1125 11:22:58.723640 22964 net.cpp:394] pool4 <- conv4_3
I1125 11:22:58.723646 22964 net.cpp:356] pool4 -> pool4
I1125 11:22:58.723654 22964 net.cpp:96] Setting up pool4
I1125 11:22:58.723662 22964 net.cpp:103] Top shape: 8 512 14 14 (802816)
I1125 11:22:58.723666 22964 layer_factory.hpp:78] Creating layer conv5_1
I1125 11:22:58.723675 22964 net.cpp:67] Creating Layer conv5_1
I1125 11:22:58.723680 22964 net.cpp:394] conv5_1 <- pool4
I1125 11:22:58.723685 22964 net.cpp:356] conv5_1 -> conv5_1
I1125 11:22:58.723692 22964 net.cpp:96] Setting up conv5_1
I1125 11:22:58.783043 22964 net.cpp:103] Top shape: 8 512 14 14 (802816)
I1125 11:22:58.783068 22964 layer_factory.hpp:78] Creating layer relu5_1
I1125 11:22:58.783076 22964 net.cpp:67] Creating Layer relu5_1
I1125 11:22:58.783082 22964 net.cpp:394] relu5_1 <- conv5_1
I1125 11:22:58.783090 22964 net.cpp:345] relu5_1 -> conv5_1 (in-place)
I1125 11:22:58.783097 22964 net.cpp:96] Setting up relu5_1
I1125 11:22:58.783104 22964 net.cpp:103] Top shape: 8 512 14 14 (802816)
I1125 11:22:58.783108 22964 layer_factory.hpp:78] Creating layer conv5_2
I1125 11:22:58.783116 22964 net.cpp:67] Creating Layer conv5_2
I1125 11:22:58.783121 22964 net.cpp:394] conv5_2 <- conv5_1
I1125 11:22:58.783128 22964 net.cpp:356] conv5_2 -> conv5_2
I1125 11:22:58.783136 22964 net.cpp:96] Setting up conv5_2
I1125 11:22:58.842211 22964 net.cpp:103] Top shape: 8 512 14 14 (802816)
I1125 11:22:58.842234 22964 layer_factory.hpp:78] Creating layer relu5_2
I1125 11:22:58.842242 22964 net.cpp:67] Creating Layer relu5_2
I1125 11:22:58.842247 22964 net.cpp:394] relu5_2 <- conv5_2
I1125 11:22:58.842255 22964 net.cpp:345] relu5_2 -> conv5_2 (in-place)
I1125 11:22:58.842263 22964 net.cpp:96] Setting up relu5_2
I1125 11:22:58.842270 22964 net.cpp:103] Top shape: 8 512 14 14 (802816)
I1125 11:22:58.842275 22964 layer_factory.hpp:78] Creating layer conv5_3
I1125 11:22:58.842284 22964 net.cpp:67] Creating Layer conv5_3
I1125 11:22:58.842288 22964 net.cpp:394] conv5_3 <- conv5_2
I1125 11:22:58.842295 22964 net.cpp:356] conv5_3 -> conv5_3
I1125 11:22:58.842303 22964 net.cpp:96] Setting up conv5_3
I1125 11:22:58.901800 22964 net.cpp:103] Top shape: 8 512 14 14 (802816)
I1125 11:22:58.901825 22964 layer_factory.hpp:78] Creating layer relu5_3
I1125 11:22:58.901834 22964 net.cpp:67] Creating Layer relu5_3
I1125 11:22:58.901839 22964 net.cpp:394] relu5_3 <- conv5_3
I1125 11:22:58.901844 22964 net.cpp:345] relu5_3 -> conv5_3 (in-place)
I1125 11:22:58.901850 22964 net.cpp:96] Setting up relu5_3
I1125 11:22:58.901856 22964 net.cpp:103] Top shape: 8 512 14 14 (802816)
I1125 11:22:58.901859 22964 layer_factory.hpp:78] Creating layer pool5
I1125 11:22:58.901878 22964 net.cpp:67] Creating Layer pool5
I1125 11:22:58.901883 22964 net.cpp:394] pool5 <- conv5_3
I1125 11:22:58.901893 22964 net.cpp:356] pool5 -> pool5
I1125 11:22:58.901901 22964 net.cpp:96] Setting up pool5
I1125 11:22:58.901909 22964 net.cpp:103] Top shape: 8 512 7 7 (200704)
I1125 11:22:58.901913 22964 layer_factory.hpp:78] Creating layer fc6
I1125 11:22:58.901921 22964 net.cpp:67] Creating Layer fc6
I1125 11:22:58.901926 22964 net.cpp:394] fc6 <- pool5
I1125 11:22:58.901932 22964 net.cpp:356] fc6 -> fc6
I1125 11:22:58.901937 22964 net.cpp:96] Setting up fc6
I1125 11:23:01.464195 22964 net.cpp:103] Top shape: 8 4096 1 1 (32768)
I1125 11:23:01.464226 22964 layer_factory.hpp:78] Creating layer relu6
I1125 11:23:01.464233 22964 net.cpp:67] Creating Layer relu6
I1125 11:23:01.464238 22964 net.cpp:394] relu6 <- fc6
I1125 11:23:01.464246 22964 net.cpp:345] relu6 -> fc6 (in-place)
I1125 11:23:01.464253 22964 net.cpp:96] Setting up relu6
I1125 11:23:01.464268 22964 net.cpp:103] Top shape: 8 4096 1 1 (32768)
I1125 11:23:01.464273 22964 layer_factory.hpp:78] Creating layer drop6
I1125 11:23:01.464287 22964 net.cpp:67] Creating Layer drop6
I1125 11:23:01.464290 22964 net.cpp:394] drop6 <- fc6
I1125 11:23:01.464298 22964 net.cpp:345] drop6 -> fc6 (in-place)
I1125 11:23:01.464304 22964 net.cpp:96] Setting up drop6
I1125 11:23:01.464309 22964 net.cpp:103] Top shape: 8 4096 1 1 (32768)
I1125 11:23:01.464314 22964 layer_factory.hpp:78] Creating layer fc7
I1125 11:23:01.464323 22964 net.cpp:67] Creating Layer fc7
I1125 11:23:01.464326 22964 net.cpp:394] fc7 <- fc6
I1125 11:23:01.464334 22964 net.cpp:356] fc7 -> fc7
I1125 11:23:01.464342 22964 net.cpp:96] Setting up fc7
I1125 11:23:01.883548 22964 net.cpp:103] Top shape: 8 4096 1 1 (32768)
I1125 11:23:01.883576 22964 layer_factory.hpp:78] Creating layer relu7
I1125 11:23:01.883585 22964 net.cpp:67] Creating Layer relu7
I1125 11:23:01.883590 22964 net.cpp:394] relu7 <- fc7
I1125 11:23:01.883597 22964 net.cpp:345] relu7 -> fc7 (in-place)
I1125 11:23:01.883605 22964 net.cpp:96] Setting up relu7
I1125 11:23:01.883617 22964 net.cpp:103] Top shape: 8 4096 1 1 (32768)
I1125 11:23:01.883623 22964 layer_factory.hpp:78] Creating layer drop7
I1125 11:23:01.883628 22964 net.cpp:67] Creating Layer drop7
I1125 11:23:01.883632 22964 net.cpp:394] drop7 <- fc7
I1125 11:23:01.883641 22964 net.cpp:345] drop7 -> fc7 (in-place)
I1125 11:23:01.883646 22964 net.cpp:96] Setting up drop7
I1125 11:23:01.883651 22964 net.cpp:103] Top shape: 8 4096 1 1 (32768)
I1125 11:23:01.883656 22964 layer_factory.hpp:78] Creating layer fc8_2
I1125 11:23:01.883664 22964 net.cpp:67] Creating Layer fc8_2
I1125 11:23:01.883668 22964 net.cpp:394] fc8_2 <- fc7
I1125 11:23:01.883676 22964 net.cpp:356] fc8_2 -> fc8_2
I1125 11:23:01.883682 22964 net.cpp:96] Setting up fc8_2
I1125 11:23:01.883900 22964 net.cpp:103] Top shape: 8 2 1 1 (16)
I1125 11:23:01.883908 22964 layer_factory.hpp:78] Creating layer fc8_2_fc8_2_0_split
I1125 11:23:01.883913 22964 net.cpp:67] Creating Layer fc8_2_fc8_2_0_split
I1125 11:23:01.883918 22964 net.cpp:394] fc8_2_fc8_2_0_split <- fc8_2
I1125 11:23:01.883924 22964 net.cpp:356] fc8_2_fc8_2_0_split -> fc8_2_fc8_2_0_split_0
I1125 11:23:01.883930 22964 net.cpp:356] fc8_2_fc8_2_0_split -> fc8_2_fc8_2_0_split_1
I1125 11:23:01.883936 22964 net.cpp:96] Setting up fc8_2_fc8_2_0_split
I1125 11:23:01.883942 22964 net.cpp:103] Top shape: 8 2 1 1 (16)
I1125 11:23:01.883946 22964 net.cpp:103] Top shape: 8 2 1 1 (16)
I1125 11:23:01.883950 22964 layer_factory.hpp:78] Creating layer loss
I1125 11:23:01.883957 22964 net.cpp:67] Creating Layer loss
I1125 11:23:01.883961 22964 net.cpp:394] loss <- fc8_2_fc8_2_0_split_0
I1125 11:23:01.883966 22964 net.cpp:394] loss <- label_data_1_split_0
I1125 11:23:01.883975 22964 net.cpp:356] loss -> (automatic)
I1125 11:23:01.883980 22964 net.cpp:96] Setting up loss
I1125 11:23:01.883986 22964 net.cpp:103] Top shape: 1 1 1 1 (1)
I1125 11:23:01.883991 22964 net.cpp:109]     with loss weight 1
I1125 11:23:01.884003 22964 layer_factory.hpp:78] Creating layer accuracy
I1125 11:23:01.884011 22964 net.cpp:67] Creating Layer accuracy
I1125 11:23:01.884014 22964 net.cpp:394] accuracy <- fc8_2_fc8_2_0_split_1
I1125 11:23:01.884019 22964 net.cpp:394] accuracy <- label_data_1_split_1
I1125 11:23:01.884027 22964 net.cpp:356] accuracy -> accuracy
I1125 11:23:01.884033 22964 net.cpp:96] Setting up accuracy
I1125 11:23:01.884042 22964 net.cpp:103] Top shape: 1 1 1 4 (4)
I1125 11:23:01.884047 22964 net.cpp:172] accuracy does not need backward computation.
I1125 11:23:01.884050 22964 net.cpp:170] loss needs backward computation.
I1125 11:23:01.884055 22964 net.cpp:170] fc8_2_fc8_2_0_split needs backward computation.
I1125 11:23:01.884059 22964 net.cpp:170] fc8_2 needs backward computation.
I1125 11:23:01.884063 22964 net.cpp:170] drop7 needs backward computation.
…
