…
I1126 11:41:46.535132 31861 net.cpp:275] The NetState phase (0) differed from the phase (1) specified by a rule in layer accuracy
I1126 11:41:46.535315 31861 net.cpp:39] Initializing net from parameters: 
name: "small"
layers {
  top: "data"
  top: "label"
  name: "data"
  type: IMAGE_DATA
  image_data_param {
    source: "/data/ad6813/devCaffe/caffe/data/scrape_blue/train.txt"
    batch_size: 32
    new_height: 256
    new_width: 256
  }
  include {
    phase: TRAIN
  }
  transform_param {
    mirror: true
    crop_size: 224
    mean_value: 86.752
    mean_value: 101.46
    mean_value: 104.6
  }
}
layers {
  bottom: "data"
  top: "conv1_1"
  name: "conv1_1"
  type: CONVOLUTION
  convolution_param {
    num_output: 64
    pad: 1
    kernel_size: 3
    weight_filler {
      type: "gaussian"
      std: 0.01
    }
    bias_filler {
      type: "constant"
      value: 0
    }
  }
}
layers {
  bottom: "conv1_1"
  top: "conv1_1"
  name: "relu1_1"
  type: RELU
}
layers {
  bottom: "conv1_1"
  top: "conv1_2"
  name: "conv1_2"
  type: CONVOLUTION
  convolution_param {
    num_output: 64
    pad: 1
    kernel_size: 3
    weight_filler {
      type: "gaussian"
      std: 0.01
    }
    bias_filler {
      type: "constant"
      value: 0
    }
  }
}
layers {
  bottom: "conv1_2"
  top: "conv1_2"
  name: "relu1_2"
  type: RELU
}
layers {
  bottom: "conv1_2"
  top: "pool1"
  name: "pool1"
  type: POOLING
  pooling_param {
    pool: MAX
    kernel_size: 2
    stride: 2
  }
}
layers {
  bottom: "pool1"
  top: "conv2_1"
  name: "conv2_1"
  type: CONVOLUTION
  convolution_param {
    num_output: 128
    pad: 1
    kernel_size: 3
    weight_filler {
      type: "gaussian"
      std: 0.01
    }
    bias_filler {
      type: "constant"
      value: 0
    }
  }
}
layers {
  bottom: "conv2_1"
  top: "conv2_1"
  name: "relu2_1"
  type: RELU
}
layers {
  bottom: "conv2_1"
  top: "conv2_2"
  name: "conv2_2"
  type: CONVOLUTION
  convolution_param {
    num_output: 128
    pad: 1
    kernel_size: 3
    weight_filler {
      type: "gaussian"
      std: 0.01
    }
    bias_filler {
      type: "constant"
      value: 0
    }
  }
}
layers {
  bottom: "conv2_2"
  top: "conv2_2"
  name: "relu2_2"
  type: RELU
}
layers {
  bottom: "conv2_2"
  top: "pool2"
  name: "pool2"
  type: POOLING
  pooling_param {
    pool: MAX
    kernel_size: 2
    stride: 2
  }
}
layers {
  bottom: "pool2"
  top: "conv3_1"
  name: "conv3_1"
  type: CONVOLUTION
  convolution_param {
    num_output: 256
    pad: 1
    kernel_size: 3
    weight_filler {
      type: "gaussian"
      std: 0.01
    }
    bias_filler {
      type: "constant"
      value: 0
    }
  }
}
layers {
  bottom: "conv3_1"
  top: "conv3_1"
  name: "relu3_1"
  type: RELU
}
layers {
  bottom: "conv3_1"
  top: "conv3_2"
  name: "conv3_2"
  type: CONVOLUTION
  convolution_param {
    num_output: 256
    pad: 1
    kernel_size: 3
    weight_filler {
      type: "gaussian"
      std: 0.01
    }
    bias_filler {
      type: "constant"
      value: 0
    }
  }
}
layers {
  bottom: "conv3_2"
  top: "conv3_2"
  name: "relu3_2"
  type: RELU
}
layers {
  bottom: "conv3_2"
  top: "conv3_3"
  name: "conv3_3"
  type: CONVOLUTION
  convolution_param {
    num_output: 256
    pad: 1
    kernel_size: 3
    weight_filler {
      type: "gaussian"
      std: 0.01
    }
    bias_filler {
      type: "constant"
      value: 0
    }
  }
}
layers {
  bottom: "conv3_3"
  top: "conv3_3"
  name: "relu3_3"
  type: RELU
}
layers {
  bottom: "conv3_3"
  top: "pool3"
  name: "pool3"
  type: POOLING
  pooling_param {
    pool: MAX
    kernel_size: 2
    stride: 2
  }
}
layers {
  bottom: "pool3"
  top: "conv4_1"
  name: "conv4_1"
  type: CONVOLUTION
  convolution_param {
    num_output: 512
    pad: 1
    kernel_size: 3
    weight_filler {
      type: "gaussian"
      std: 0.01
    }
    bias_filler {
      type: "constant"
      value: 0
    }
  }
}
layers {
  bottom: "conv4_1"
  top: "conv4_1"
  name: "relu4_1"
  type: RELU
}
layers {
  bottom: "conv4_1"
  top: "conv4_2"
  name: "conv4_2"
  type: CONVOLUTION
  convolution_param {
    num_output: 512
    pad: 1
    kernel_size: 3
    weight_filler {
      type: "gaussian"
      std: 0.01
    }
    bias_filler {
      type: "constant"
      value: 0
    }
  }
}
layers {
  bottom: "conv4_2"
  top: "conv4_2"
  name: "relu4_2"
  type: RELU
}
layers {
  bottom: "conv4_2"
  top: "conv4_3"
  name: "conv4_3"
  type: CONVOLUTION
  convolution_param {
    num_output: 512
    pad: 1
    kernel_size: 3
    weight_filler {
      type: "gaussian"
      std: 0.01
    }
    bias_filler {
      type: "constant"
      value: 0
    }
  }
}
layers {
  bottom: "conv4_3"
  top: "conv4_3"
  name: "relu4_3"
  type: RELU
}
layers {
  bottom: "conv4_3"
  top: "pool4"
  name: "pool4"
  type: POOLING
  pooling_param {
    pool: MAX
    kernel_size: 2
    stride: 2
  }
}
layers {
  bottom: "pool4"
  top: "conv5_1"
  name: "conv5_1"
  type: CONVOLUTION
  convolution_param {
    num_output: 512
    pad: 1
    kernel_size: 3
    weight_filler {
      type: "gaussian"
      std: 0.01
    }
    bias_filler {
      type: "constant"
      value: 0
    }
  }
}
layers {
  bottom: "conv5_1"
  top: "conv5_1"
  name: "relu5_1"
  type: RELU
}
layers {
  bottom: "conv5_1"
  top: "conv5_2"
  name: "conv5_2"
  type: CONVOLUTION
  convolution_param {
    num_output: 512
    pad: 1
    kernel_size: 3
    weight_filler {
      type: "gaussian"
      std: 0.01
    }
    bias_filler {
      type: "constant"
      value: 0
    }
  }
}
layers {
  bottom: "conv5_2"
  top: "conv5_2"
  name: "relu5_2"
  type: RELU
}
layers {
  bottom: "conv5_2"
  top: "conv5_3"
  name: "conv5_3"
  type: CONVOLUTION
  convolution_param {
    num_output: 512
    pad: 1
    kernel_size: 3
    weight_filler {
      type: "gaussian"
      std: 0.01
    }
    bias_filler {
      type: "constant"
      value: 0
    }
  }
}
layers {
  bottom: "conv5_3"
  top: "conv5_3"
  name: "relu5_3"
  type: RELU
}
layers {
  bottom: "conv5_3"
  top: "pool5"
  name: "pool5"
  type: POOLING
  pooling_param {
    pool: MAX
    kernel_size: 2
    stride: 2
  }
}
layers {
  bottom: "pool5"
  top: "fc6"
  name: "fc6"
  type: INNER_PRODUCT
  inner_product_param {
    num_output: 4096
    weight_filler {
      type: "gaussian"
      std: 0.01
    }
    bias_filler {
      type: "constant"
      value: 0
    }
  }
}
layers {
  bottom: "fc6"
  top: "fc6"
  name: "relu6"
  type: RELU
}
layers {
  bottom: "fc6"
  top: "fc6"
  name: "drop6"
  type: DROPOUT
  dropout_param {
    dropout_ratio: 0.5
  }
}
layers {
  bottom: "fc6"
  top: "fc7"
  name: "fc7"
  type: INNER_PRODUCT
  inner_product_param {
    num_output: 4096
    weight_filler {
      type: "gaussian"
      std: 0.01
    }
    bias_filler {
      type: "constant"
      value: 0
    }
  }
}
layers {
  bottom: "fc7"
  top: "fc7"
  name: "relu7"
  type: RELU
}
layers {
  bottom: "fc7"
  top: "fc7"
  name: "drop7"
  type: DROPOUT
  dropout_param {
    dropout_ratio: 0.5
  }
}
layers {
  bottom: "fc7"
  top: "fc8_2"
  name: "fc8_2"
  type: INNER_PRODUCT
  inner_product_param {
    num_output: 2
    weight_filler {
      type: "gaussian"
      std: 0.01
    }
    bias_filler {
      type: "constant"
      value: 0
    }
  }
}
layers {
  bottom: "fc8_2"
  bottom: "label"
  name: "loss"
  type: SOFTMAX_LOSS
}
state {
  phase: TRAIN
}
I1126 11:41:46.535434 31861 layer_factory.hpp:78] Creating layer data
I1126 11:41:46.535451 31861 net.cpp:67] Creating Layer data
I1126 11:41:46.535470 31861 net.cpp:356] data -> data
I1126 11:41:46.535490 31861 net.cpp:356] data -> label
I1126 11:41:46.535498 31861 net.cpp:96] Setting up data
I1126 11:41:46.535506 31861 image_data_layer.cpp:34] Opening file /data/ad6813/devCaffe/caffe/data/scrape_blue/train.txt
I1126 11:41:46.550431 31861 image_data_layer.cpp:49] A total of 40401 images.
I1126 11:41:46.561410 31861 image_data_layer.cpp:78] output data size: 32,3,224,224
I1126 11:41:46.564460 31861 net.cpp:103] Top shape: 32 3 224 224 (4816896)
I1126 11:41:46.564497 31861 net.cpp:103] Top shape: 32 1 1 1 (32)
I1126 11:41:46.564506 31861 layer_factory.hpp:78] Creating layer conv1_1
I1126 11:41:46.564524 31861 net.cpp:67] Creating Layer conv1_1
I1126 11:41:46.564543 31861 net.cpp:394] conv1_1 <- data
I1126 11:41:46.564571 31861 net.cpp:356] conv1_1 -> conv1_1
I1126 11:41:46.564596 31861 net.cpp:96] Setting up conv1_1
I1126 11:41:46.743952 31861 net.cpp:103] Top shape: 32 64 224 224 (102760448)
I1126 11:41:46.743993 31861 layer_factory.hpp:78] Creating layer relu1_1
I1126 11:41:46.744006 31861 net.cpp:67] Creating Layer relu1_1
I1126 11:41:46.744024 31861 net.cpp:394] relu1_1 <- conv1_1
I1126 11:41:46.744041 31861 net.cpp:345] relu1_1 -> conv1_1 (in-place)
I1126 11:41:46.744061 31861 net.cpp:96] Setting up relu1_1
I1126 11:41:46.744084 31861 net.cpp:103] Top shape: 32 64 224 224 (102760448)
I1126 11:41:46.744098 31861 layer_factory.hpp:78] Creating layer conv1_2
I1126 11:41:46.744120 31861 net.cpp:67] Creating Layer conv1_2
I1126 11:41:46.744134 31861 net.cpp:394] conv1_2 <- conv1_1
I1126 11:41:46.744151 31861 net.cpp:356] conv1_2 -> conv1_2
I1126 11:41:46.744173 31861 net.cpp:96] Setting up conv1_2
I1126 11:41:46.745290 31861 net.cpp:103] Top shape: 32 64 224 224 (102760448)
I1126 11:41:46.745307 31861 layer_factory.hpp:78] Creating layer relu1_2
I1126 11:41:46.745326 31861 net.cpp:67] Creating Layer relu1_2
I1126 11:41:46.745340 31861 net.cpp:394] relu1_2 <- conv1_2
I1126 11:41:46.745358 31861 net.cpp:345] relu1_2 -> conv1_2 (in-place)
I1126 11:41:46.745374 31861 net.cpp:96] Setting up relu1_2
I1126 11:41:46.745393 31861 net.cpp:103] Top shape: 32 64 224 224 (102760448)
I1126 11:41:46.745406 31861 layer_factory.hpp:78] Creating layer pool1
I1126 11:41:46.745429 31861 net.cpp:67] Creating Layer pool1
I1126 11:41:46.745445 31861 net.cpp:394] pool1 <- conv1_2
I1126 11:41:46.745461 31861 net.cpp:356] pool1 -> pool1
I1126 11:41:46.745479 31861 net.cpp:96] Setting up pool1
I1126 11:41:46.745512 31861 net.cpp:103] Top shape: 32 64 112 112 (25690112)
I1126 11:41:46.745528 31861 layer_factory.hpp:78] Creating layer conv2_1
I1126 11:41:46.745546 31861 net.cpp:67] Creating Layer conv2_1
I1126 11:41:46.745560 31861 net.cpp:394] conv2_1 <- pool1
I1126 11:41:46.745578 31861 net.cpp:356] conv2_1 -> conv2_1
I1126 11:41:46.745595 31861 net.cpp:96] Setting up conv2_1
I1126 11:41:46.747581 31861 net.cpp:103] Top shape: 32 128 112 112 (51380224)
I1126 11:41:46.747601 31861 layer_factory.hpp:78] Creating layer relu2_1
I1126 11:41:46.747620 31861 net.cpp:67] Creating Layer relu2_1
I1126 11:41:46.747633 31861 net.cpp:394] relu2_1 <- conv2_1
I1126 11:41:46.747652 31861 net.cpp:345] relu2_1 -> conv2_1 (in-place)
I1126 11:41:46.747668 31861 net.cpp:96] Setting up relu2_1
I1126 11:41:46.747685 31861 net.cpp:103] Top shape: 32 128 112 112 (51380224)
I1126 11:41:46.747699 31861 layer_factory.hpp:78] Creating layer conv2_2
I1126 11:41:46.747720 31861 net.cpp:67] Creating Layer conv2_2
I1126 11:41:46.747735 31861 net.cpp:394] conv2_2 <- conv2_1
I1126 11:41:46.747751 31861 net.cpp:356] conv2_2 -> conv2_2
I1126 11:41:46.747771 31861 net.cpp:96] Setting up conv2_2
I1126 11:41:46.751708 31861 net.cpp:103] Top shape: 32 128 112 112 (51380224)
I1126 11:41:46.751724 31861 layer_factory.hpp:78] Creating layer relu2_2
I1126 11:41:46.751734 31861 net.cpp:67] Creating Layer relu2_2
I1126 11:41:46.751762 31861 net.cpp:394] relu2_2 <- conv2_2
I1126 11:41:46.751782 31861 net.cpp:345] relu2_2 -> conv2_2 (in-place)
I1126 11:41:46.751799 31861 net.cpp:96] Setting up relu2_2
I1126 11:41:46.751817 31861 net.cpp:103] Top shape: 32 128 112 112 (51380224)
I1126 11:41:46.751864 31861 layer_factory.hpp:78] Creating layer pool2
I1126 11:41:46.751883 31861 net.cpp:67] Creating Layer pool2
I1126 11:41:46.751896 31861 net.cpp:394] pool2 <- conv2_2
I1126 11:41:46.751916 31861 net.cpp:356] pool2 -> pool2
I1126 11:41:46.751935 31861 net.cpp:96] Setting up pool2
I1126 11:41:46.751955 31861 net.cpp:103] Top shape: 32 128 56 56 (12845056)
I1126 11:41:46.751970 31861 layer_factory.hpp:78] Creating layer conv3_1
I1126 11:41:46.751989 31861 net.cpp:67] Creating Layer conv3_1
I1126 11:41:46.752017 31861 net.cpp:394] conv3_1 <- pool2
I1126 11:41:46.752035 31861 net.cpp:356] conv3_1 -> conv3_1
I1126 11:41:46.752054 31861 net.cpp:96] Setting up conv3_1
I1126 11:41:46.759766 31861 net.cpp:103] Top shape: 32 256 56 56 (25690112)
I1126 11:41:46.759793 31861 layer_factory.hpp:78] Creating layer relu3_1
I1126 11:41:46.759804 31861 net.cpp:67] Creating Layer relu3_1
I1126 11:41:46.759821 31861 net.cpp:394] relu3_1 <- conv3_1
I1126 11:41:46.759837 31861 net.cpp:345] relu3_1 -> conv3_1 (in-place)
I1126 11:41:46.759855 31861 net.cpp:96] Setting up relu3_1
I1126 11:41:46.759872 31861 net.cpp:103] Top shape: 32 256 56 56 (25690112)
I1126 11:41:46.759886 31861 layer_factory.hpp:78] Creating layer conv3_2
I1126 11:41:46.759903 31861 net.cpp:67] Creating Layer conv3_2
I1126 11:41:46.759918 31861 net.cpp:394] conv3_2 <- conv3_1
I1126 11:41:46.759938 31861 net.cpp:356] conv3_2 -> conv3_2
I1126 11:41:46.759956 31861 net.cpp:96] Setting up conv3_2
I1126 11:41:46.774917 31861 net.cpp:103] Top shape: 32 256 56 56 (25690112)
I1126 11:41:46.774935 31861 layer_factory.hpp:78] Creating layer relu3_2
I1126 11:41:46.774947 31861 net.cpp:67] Creating Layer relu3_2
I1126 11:41:46.774965 31861 net.cpp:394] relu3_2 <- conv3_2
I1126 11:41:46.774981 31861 net.cpp:345] relu3_2 -> conv3_2 (in-place)
I1126 11:41:46.774998 31861 net.cpp:96] Setting up relu3_2
I1126 11:41:46.775017 31861 net.cpp:103] Top shape: 32 256 56 56 (25690112)
I1126 11:41:46.775030 31861 layer_factory.hpp:78] Creating layer conv3_3
I1126 11:41:46.775050 31861 net.cpp:67] Creating Layer conv3_3
I1126 11:41:46.775064 31861 net.cpp:394] conv3_3 <- conv3_2
I1126 11:41:46.775081 31861 net.cpp:356] conv3_3 -> conv3_3
I1126 11:41:46.775100 31861 net.cpp:96] Setting up conv3_3
I1126 11:41:46.790321 31861 net.cpp:103] Top shape: 32 256 56 56 (25690112)
I1126 11:41:46.790348 31861 layer_factory.hpp:78] Creating layer relu3_3
I1126 11:41:46.790364 31861 net.cpp:67] Creating Layer relu3_3
I1126 11:41:46.790384 31861 net.cpp:394] relu3_3 <- conv3_3
I1126 11:41:46.790402 31861 net.cpp:345] relu3_3 -> conv3_3 (in-place)
I1126 11:41:46.790421 31861 net.cpp:96] Setting up relu3_3
I1126 11:41:46.790439 31861 net.cpp:103] Top shape: 32 256 56 56 (25690112)
I1126 11:41:46.790453 31861 layer_factory.hpp:78] Creating layer pool3
I1126 11:41:46.790473 31861 net.cpp:67] Creating Layer pool3
I1126 11:41:46.790488 31861 net.cpp:394] pool3 <- conv3_3
I1126 11:41:46.790505 31861 net.cpp:356] pool3 -> pool3
I1126 11:41:46.790524 31861 net.cpp:96] Setting up pool3
I1126 11:41:46.790544 31861 net.cpp:103] Top shape: 32 256 28 28 (6422528)
I1126 11:41:46.790560 31861 layer_factory.hpp:78] Creating layer conv4_1
I1126 11:41:46.790580 31861 net.cpp:67] Creating Layer conv4_1
I1126 11:41:46.790593 31861 net.cpp:394] conv4_1 <- pool3
I1126 11:41:46.790611 31861 net.cpp:356] conv4_1 -> conv4_1
I1126 11:41:46.790629 31861 net.cpp:96] Setting up conv4_1
I1126 11:41:46.820236 31861 net.cpp:103] Top shape: 32 512 28 28 (12845056)
I1126 11:41:46.820266 31861 layer_factory.hpp:78] Creating layer relu4_1
I1126 11:41:46.820276 31861 net.cpp:67] Creating Layer relu4_1
I1126 11:41:46.820283 31861 net.cpp:394] relu4_1 <- conv4_1
I1126 11:41:46.820305 31861 net.cpp:345] relu4_1 -> conv4_1 (in-place)
I1126 11:41:46.820324 31861 net.cpp:96] Setting up relu4_1
I1126 11:41:46.820343 31861 net.cpp:103] Top shape: 32 512 28 28 (12845056)
I1126 11:41:46.820358 31861 layer_factory.hpp:78] Creating layer conv4_2
I1126 11:41:46.820379 31861 net.cpp:67] Creating Layer conv4_2
I1126 11:41:46.820405 31861 net.cpp:394] conv4_2 <- conv4_1
I1126 11:41:46.820433 31861 net.cpp:356] conv4_2 -> conv4_2
I1126 11:41:46.820453 31861 net.cpp:96] Setting up conv4_2
I1126 11:41:46.879149 31861 net.cpp:103] Top shape: 32 512 28 28 (12845056)
I1126 11:41:46.879186 31861 layer_factory.hpp:78] Creating layer relu4_2
I1126 11:41:46.879199 31861 net.cpp:67] Creating Layer relu4_2
I1126 11:41:46.879217 31861 net.cpp:394] relu4_2 <- conv4_2
I1126 11:41:46.879235 31861 net.cpp:345] relu4_2 -> conv4_2 (in-place)
I1126 11:41:46.879253 31861 net.cpp:96] Setting up relu4_2
I1126 11:41:46.879272 31861 net.cpp:103] Top shape: 32 512 28 28 (12845056)
I1126 11:41:46.879287 31861 layer_factory.hpp:78] Creating layer conv4_3
I1126 11:41:46.879308 31861 net.cpp:67] Creating Layer conv4_3
I1126 11:41:46.879323 31861 net.cpp:394] conv4_3 <- conv4_2
I1126 11:41:46.879341 31861 net.cpp:356] conv4_3 -> conv4_3
I1126 11:41:46.879361 31861 net.cpp:96] Setting up conv4_3
I1126 11:41:46.938769 31861 net.cpp:103] Top shape: 32 512 28 28 (12845056)
I1126 11:41:46.938797 31861 layer_factory.hpp:78] Creating layer relu4_3
I1126 11:41:46.938808 31861 net.cpp:67] Creating Layer relu4_3
I1126 11:41:46.938815 31861 net.cpp:394] relu4_3 <- conv4_3
I1126 11:41:46.938841 31861 net.cpp:345] relu4_3 -> conv4_3 (in-place)
I1126 11:41:46.938860 31861 net.cpp:96] Setting up relu4_3
I1126 11:41:46.938879 31861 net.cpp:103] Top shape: 32 512 28 28 (12845056)
I1126 11:41:46.938894 31861 layer_factory.hpp:78] Creating layer pool4
I1126 11:41:46.938926 31861 net.cpp:67] Creating Layer pool4
I1126 11:41:46.938945 31861 net.cpp:394] pool4 <- conv4_3
I1126 11:41:46.938962 31861 net.cpp:356] pool4 -> pool4
I1126 11:41:46.938982 31861 net.cpp:96] Setting up pool4
I1126 11:41:46.939002 31861 net.cpp:103] Top shape: 32 512 14 14 (3211264)
I1126 11:41:46.939018 31861 layer_factory.hpp:78] Creating layer conv5_1
I1126 11:41:46.939044 31861 net.cpp:67] Creating Layer conv5_1
I1126 11:41:46.939059 31861 net.cpp:394] conv5_1 <- pool4
I1126 11:41:46.939079 31861 net.cpp:356] conv5_1 -> conv5_1
I1126 11:41:46.939102 31861 net.cpp:96] Setting up conv5_1
I1126 11:41:46.997787 31861 net.cpp:103] Top shape: 32 512 14 14 (3211264)
I1126 11:41:46.997817 31861 layer_factory.hpp:78] Creating layer relu5_1
I1126 11:41:46.997828 31861 net.cpp:67] Creating Layer relu5_1
I1126 11:41:46.997834 31861 net.cpp:394] relu5_1 <- conv5_1
I1126 11:41:46.997853 31861 net.cpp:345] relu5_1 -> conv5_1 (in-place)
I1126 11:41:46.997874 31861 net.cpp:96] Setting up relu5_1
I1126 11:41:46.997891 31861 net.cpp:103] Top shape: 32 512 14 14 (3211264)
I1126 11:41:46.997907 31861 layer_factory.hpp:78] Creating layer conv5_2
I1126 11:41:46.997925 31861 net.cpp:67] Creating Layer conv5_2
I1126 11:41:46.997939 31861 net.cpp:394] conv5_2 <- conv5_1
I1126 11:41:46.997959 31861 net.cpp:356] conv5_2 -> conv5_2
I1126 11:41:46.997979 31861 net.cpp:96] Setting up conv5_2
I1126 11:41:47.056279 31861 net.cpp:103] Top shape: 32 512 14 14 (3211264)
I1126 11:41:47.056313 31861 layer_factory.hpp:78] Creating layer relu5_2
I1126 11:41:47.056320 31861 net.cpp:67] Creating Layer relu5_2
I1126 11:41:47.056325 31861 net.cpp:394] relu5_2 <- conv5_2
I1126 11:41:47.056332 31861 net.cpp:345] relu5_2 -> conv5_2 (in-place)
I1126 11:41:47.056341 31861 net.cpp:96] Setting up relu5_2
I1126 11:41:47.056351 31861 net.cpp:103] Top shape: 32 512 14 14 (3211264)
I1126 11:41:47.056365 31861 layer_factory.hpp:78] Creating layer conv5_3
I1126 11:41:47.056376 31861 net.cpp:67] Creating Layer conv5_3
I1126 11:41:47.056382 31861 net.cpp:394] conv5_3 <- conv5_2
I1126 11:41:47.056392 31861 net.cpp:356] conv5_3 -> conv5_3
I1126 11:41:47.056404 31861 net.cpp:96] Setting up conv5_3
I1126 11:41:47.114883 31861 net.cpp:103] Top shape: 32 512 14 14 (3211264)
I1126 11:41:47.114910 31861 layer_factory.hpp:78] Creating layer relu5_3
I1126 11:41:47.114918 31861 net.cpp:67] Creating Layer relu5_3
I1126 11:41:47.114923 31861 net.cpp:394] relu5_3 <- conv5_3
I1126 11:41:47.114930 31861 net.cpp:345] relu5_3 -> conv5_3 (in-place)
I1126 11:41:47.114939 31861 net.cpp:96] Setting up relu5_3
I1126 11:41:47.114959 31861 net.cpp:103] Top shape: 32 512 14 14 (3211264)
I1126 11:41:47.114969 31861 layer_factory.hpp:78] Creating layer pool5
I1126 11:41:47.114980 31861 net.cpp:67] Creating Layer pool5
I1126 11:41:47.114987 31861 net.cpp:394] pool5 <- conv5_3
I1126 11:41:47.114997 31861 net.cpp:356] pool5 -> pool5
I1126 11:41:47.115011 31861 net.cpp:96] Setting up pool5
I1126 11:41:47.115025 31861 net.cpp:103] Top shape: 32 512 7 7 (802816)
I1126 11:41:47.115046 31861 layer_factory.hpp:78] Creating layer fc6
I1126 11:41:47.115070 31861 net.cpp:67] Creating Layer fc6
I1126 11:41:47.115085 31861 net.cpp:394] fc6 <- pool5
I1126 11:41:47.115105 31861 net.cpp:356] fc6 -> fc6
I1126 11:41:47.115124 31861 net.cpp:96] Setting up fc6
I1126 11:41:49.788444 31861 net.cpp:103] Top shape: 32 4096 1 1 (131072)
I1126 11:41:49.788472 31861 layer_factory.hpp:78] Creating layer relu6
I1126 11:41:49.788482 31861 net.cpp:67] Creating Layer relu6
I1126 11:41:49.788487 31861 net.cpp:394] relu6 <- fc6
I1126 11:41:49.788494 31861 net.cpp:345] relu6 -> fc6 (in-place)
I1126 11:41:49.788507 31861 net.cpp:96] Setting up relu6
I1126 11:41:49.788524 31861 net.cpp:103] Top shape: 32 4096 1 1 (131072)
I1126 11:41:49.788532 31861 layer_factory.hpp:78] Creating layer drop6
I1126 11:41:49.788547 31861 net.cpp:67] Creating Layer drop6
I1126 11:41:49.788554 31861 net.cpp:394] drop6 <- fc6
I1126 11:41:49.788565 31861 net.cpp:345] drop6 -> fc6 (in-place)
I1126 11:41:49.788575 31861 net.cpp:96] Setting up drop6
I1126 11:41:49.788584 31861 net.cpp:103] Top shape: 32 4096 1 1 (131072)
I1126 11:41:49.788591 31861 layer_factory.hpp:78] Creating layer fc7
I1126 11:41:49.788604 31861 net.cpp:67] Creating Layer fc7
I1126 11:41:49.788611 31861 net.cpp:394] fc7 <- fc6
I1126 11:41:49.788621 31861 net.cpp:356] fc7 -> fc7
I1126 11:41:49.788632 31861 net.cpp:96] Setting up fc7
I1126 11:41:50.197433 31861 net.cpp:103] Top shape: 32 4096 1 1 (131072)
I1126 11:41:50.197463 31861 layer_factory.hpp:78] Creating layer relu7
I1126 11:41:50.197474 31861 net.cpp:67] Creating Layer relu7
I1126 11:41:50.197480 31861 net.cpp:394] relu7 <- fc7
I1126 11:41:50.197502 31861 net.cpp:345] relu7 -> fc7 (in-place)
I1126 11:41:50.197522 31861 net.cpp:96] Setting up relu7
I1126 11:41:50.197548 31861 net.cpp:103] Top shape: 32 4096 1 1 (131072)
I1126 11:41:50.197563 31861 layer_factory.hpp:78] Creating layer drop7
I1126 11:41:50.197579 31861 net.cpp:67] Creating Layer drop7
I1126 11:41:50.197593 31861 net.cpp:394] drop7 <- fc7
I1126 11:41:50.197613 31861 net.cpp:345] drop7 -> fc7 (in-place)
I1126 11:41:50.197631 31861 net.cpp:96] Setting up drop7
I1126 11:41:50.197646 31861 net.cpp:103] Top shape: 32 4096 1 1 (131072)
I1126 11:41:50.197659 31861 layer_factory.hpp:78] Creating layer fc8_2
I1126 11:41:50.197677 31861 net.cpp:67] Creating Layer fc8_2
I1126 11:41:50.197691 31861 net.cpp:394] fc8_2 <- fc7
I1126 11:41:50.197710 31861 net.cpp:356] fc8_2 -> fc8_2
I1126 11:41:50.197731 31861 net.cpp:96] Setting up fc8_2
I1126 11:41:50.198036 31861 net.cpp:103] Top shape: 32 2 1 1 (64)
I1126 11:41:50.198050 31861 layer_factory.hpp:78] Creating layer loss
I1126 11:41:50.198071 31861 net.cpp:67] Creating Layer loss
I1126 11:41:50.198084 31861 net.cpp:394] loss <- fc8_2
I1126 11:41:50.198101 31861 net.cpp:394] loss <- label
I1126 11:41:50.198122 31861 net.cpp:356] loss -> (automatic)
I1126 11:41:50.198137 31861 net.cpp:96] Setting up loss
I1126 11:41:50.198159 31861 net.cpp:103] Top shape: 1 1 1 1 (1)
I1126 11:41:50.198174 31861 net.cpp:109]     with loss weight 1
I1126 11:41:50.198218 31861 net.cpp:170] loss needs backward computation.
I1126 11:41:50.198232 31861 net.cpp:170] fc8_2 needs backward computation.
I1126 11:41:50.198246 31861 net.cpp:170] drop7 needs backward computation.
I1126 11:41:50.198258 31861 net.cpp:170] relu7 needs backward computation.
I1126 11:41:50.198271 31861 net.cpp:170] fc7 needs backward computation.
…
I1126 11:41:50.200323 31861 net.cpp:275] The NetState phase (1) differed from the phase (0) specified by a rule in layer data
I1126 11:41:50.200567 31861 net.cpp:39] Initializing net from parameters: 
name: "small"
layers {
  top: "data"
  top: "label"
  name: "data"
  type: IMAGE_DATA
  image_data_param {
    source: "/data/ad6813/devCaffe/caffe/data/scrape_blue/val.txt"
    batch_size: 8
    new_height: 256
    new_width: 256
  }
  include {
    phase: TEST
  }
  transform_param {
    mirror: true
    crop_size: 224
    mean_value: 86.752
    mean_value: 101.46
    mean_value: 104.6
  }
}
layers {
  bottom: "data"
  top: "conv1_1"
  name: "conv1_1"
  type: CONVOLUTION
  convolution_param {
    num_output: 64
    pad: 1
    kernel_size: 3
    weight_filler {
      type: "gaussian"
      std: 0.01
    }
    bias_filler {
      type: "constant"
      value: 0
    }
  }
}
layers {
  bottom: "conv1_1"
  top: "conv1_1"
  name: "relu1_1"
  type: RELU
}
layers {
  bottom: "conv1_1"
  top: "conv1_2"
  name: "conv1_2"
  type: CONVOLUTION
  convolution_param {
    num_output: 64
    pad: 1
    kernel_size: 3
    weight_filler {
      type: "gaussian"
      std: 0.01
    }
    bias_filler {
      type: "constant"
      value: 0
    }
  }
}
layers {
  bottom: "conv1_2"
  top: "conv1_2"
  name: "relu1_2"
  type: RELU
}
layers {
  bottom: "conv1_2"
  top: "pool1"
  name: "pool1"
  type: POOLING
  pooling_param {
    pool: MAX
    kernel_size: 2
    stride: 2
  }
}
layers {
  bottom: "pool1"
  top: "conv2_1"
  name: "conv2_1"
  type: CONVOLUTION
  convolution_param {
    num_output: 128
    pad: 1
    kernel_size: 3
    weight_filler {
      type: "gaussian"
      std: 0.01
    }
    bias_filler {
      type: "constant"
      value: 0
    }
  }
}
layers {
  bottom: "conv2_1"
  top: "conv2_1"
  name: "relu2_1"
  type: RELU
}
layers {
  bottom: "conv2_1"
  top: "conv2_2"
  name: "conv2_2"
  type: CONVOLUTION
  convolution_param {
    num_output: 128
    pad: 1
    kernel_size: 3
    weight_filler {
      type: "gaussian"
      std: 0.01
    }
    bias_filler {
      type: "constant"
      value: 0
    }
  }
}
layers {
  bottom: "conv2_2"
  top: "conv2_2"
  name: "relu2_2"
  type: RELU
}
layers {
  bottom: "conv2_2"
  top: "pool2"
  name: "pool2"
  type: POOLING
  pooling_param {
    pool: MAX
    kernel_size: 2
    stride: 2
  }
}
layers {
  bottom: "pool2"
  top: "conv3_1"
  name: "conv3_1"
  type: CONVOLUTION
  convolution_param {
    num_output: 256
    pad: 1
    kernel_size: 3
    weight_filler {
      type: "gaussian"
      std: 0.01
    }
    bias_filler {
      type: "constant"
      value: 0
    }
  }
}
layers {
  bottom: "conv3_1"
  top: "conv3_1"
  name: "relu3_1"
  type: RELU
}
layers {
  bottom: "conv3_1"
  top: "conv3_2"
  name: "conv3_2"
  type: CONVOLUTION
  convolution_param {
    num_output: 256
    pad: 1
    kernel_size: 3
    weight_filler {
      type: "gaussian"
      std: 0.01
    }
    bias_filler {
      type: "constant"
      value: 0
    }
  }
}
layers {
  bottom: "conv3_2"
  top: "conv3_2"
  name: "relu3_2"
  type: RELU
}
layers {
  bottom: "conv3_2"
  top: "conv3_3"
  name: "conv3_3"
  type: CONVOLUTION
  convolution_param {
    num_output: 256
    pad: 1
    kernel_size: 3
    weight_filler {
      type: "gaussian"
      std: 0.01
    }
    bias_filler {
      type: "constant"
      value: 0
    }
  }
}
layers {
  bottom: "conv3_3"
  top: "conv3_3"
  name: "relu3_3"
  type: RELU
}
layers {
  bottom: "conv3_3"
  top: "pool3"
  name: "pool3"
  type: POOLING
  pooling_param {
    pool: MAX
    kernel_size: 2
    stride: 2
  }
}
layers {
  bottom: "pool3"
  top: "conv4_1"
  name: "conv4_1"
  type: CONVOLUTION
  convolution_param {
    num_output: 512
    pad: 1
    kernel_size: 3
    weight_filler {
      type: "gaussian"
      std: 0.01
    }
    bias_filler {
      type: "constant"
      value: 0
    }
  }
}
layers {
  bottom: "conv4_1"
  top: "conv4_1"
  name: "relu4_1"
  type: RELU
}
layers {
  bottom: "conv4_1"
  top: "conv4_2"
  name: "conv4_2"
  type: CONVOLUTION
  convolution_param {
    num_output: 512
    pad: 1
    kernel_size: 3
    weight_filler {
      type: "gaussian"
      std: 0.01
    }
    bias_filler {
      type: "constant"
      value: 0
    }
  }
}
layers {
  bottom: "conv4_2"
  top: "conv4_2"
  name: "relu4_2"
  type: RELU
}
layers {
  bottom: "conv4_2"
  top: "conv4_3"
  name: "conv4_3"
  type: CONVOLUTION
  convolution_param {
    num_output: 512
    pad: 1
    kernel_size: 3
    weight_filler {
      type: "gaussian"
      std: 0.01
    }
    bias_filler {
      type: "constant"
      value: 0
    }
  }
}
layers {
  bottom: "conv4_3"
  top: "conv4_3"
  name: "relu4_3"
  type: RELU
}
layers {
  bottom: "conv4_3"
  top: "pool4"
  name: "pool4"
  type: POOLING
  pooling_param {
    pool: MAX
    kernel_size: 2
    stride: 2
  }
}
layers {
  bottom: "pool4"
  top: "conv5_1"
  name: "conv5_1"
  type: CONVOLUTION
  convolution_param {
    num_output: 512
    pad: 1
    kernel_size: 3
    weight_filler {
      type: "gaussian"
      std: 0.01
    }
    bias_filler {
      type: "constant"
      value: 0
    }
  }
}
layers {
  bottom: "conv5_1"
  top: "conv5_1"
  name: "relu5_1"
  type: RELU
}
layers {
  bottom: "conv5_1"
  top: "conv5_2"
  name: "conv5_2"
  type: CONVOLUTION
  convolution_param {
    num_output: 512
    pad: 1
    kernel_size: 3
    weight_filler {
      type: "gaussian"
      std: 0.01
    }
    bias_filler {
      type: "constant"
      value: 0
    }
  }
}
layers {
  bottom: "conv5_2"
  top: "conv5_2"
  name: "relu5_2"
  type: RELU
}
layers {
  bottom: "conv5_2"
  top: "conv5_3"
  name: "conv5_3"
  type: CONVOLUTION
  convolution_param {
    num_output: 512
    pad: 1
    kernel_size: 3
    weight_filler {
      type: "gaussian"
      std: 0.01
    }
    bias_filler {
      type: "constant"
      value: 0
    }
  }
}
layers {
  bottom: "conv5_3"
  top: "conv5_3"
  name: "relu5_3"
  type: RELU
}
layers {
  bottom: "conv5_3"
  top: "pool5"
  name: "pool5"
  type: POOLING
  pooling_param {
    pool: MAX
    kernel_size: 2
    stride: 2
  }
}
layers {
  bottom: "pool5"
  top: "fc6"
  name: "fc6"
  type: INNER_PRODUCT
  inner_product_param {
    num_output: 4096
    weight_filler {
      type: "gaussian"
      std: 0.01
    }
    bias_filler {
      type: "constant"
      value: 0
    }
  }
}
layers {
  bottom: "fc6"
  top: "fc6"
  name: "relu6"
  type: RELU
}
layers {
  bottom: "fc6"
  top: "fc6"
  name: "drop6"
  type: DROPOUT
  dropout_param {
    dropout_ratio: 0.5
  }
}
layers {
  bottom: "fc6"
  top: "fc7"
  name: "fc7"
  type: INNER_PRODUCT
  inner_product_param {
    num_output: 4096
    weight_filler {
      type: "gaussian"
      std: 0.01
    }
    bias_filler {
      type: "constant"
      value: 0
    }
  }
}
layers {
  bottom: "fc7"
  top: "fc7"
  name: "relu7"
  type: RELU
}
layers {
  bottom: "fc7"
  top: "fc7"
  name: "drop7"
  type: DROPOUT
  dropout_param {
    dropout_ratio: 0.5
  }
}
layers {
  bottom: "fc7"
  top: "fc8_2"
  name: "fc8_2"
  type: INNER_PRODUCT
  inner_product_param {
    num_output: 2
    weight_filler {
      type: "gaussian"
      std: 0.01
    }
    bias_filler {
      type: "constant"
      value: 0
    }
  }
}
layers {
  bottom: "fc8_2"
  bottom: "label"
  name: "loss"
  type: SOFTMAX_LOSS
}
layers {
  bottom: "fc8_2"
  bottom: "label"
  top: "accuracy"
  name: "accuracy"
  type: PER_CLASS_ACCURACY
  include {
    phase: TEST
  }
}
state {
  phase: TEST
}
I1126 11:41:50.200788 31861 layer_factory.hpp:78] Creating layer data
I1126 11:41:50.200815 31861 net.cpp:67] Creating Layer data
I1126 11:41:50.200834 31861 net.cpp:356] data -> data
I1126 11:41:50.200855 31861 net.cpp:356] data -> label
I1126 11:41:50.200876 31861 net.cpp:96] Setting up data
I1126 11:41:50.200892 31861 image_data_layer.cpp:34] Opening file /data/ad6813/devCaffe/caffe/data/scrape_blue/val.txt
I1126 11:41:50.203922 31861 image_data_layer.cpp:49] A total of 3963 images.
I1126 11:41:50.211968 31861 image_data_layer.cpp:78] output data size: 8,3,224,224
I1126 11:41:50.212663 31861 net.cpp:103] Top shape: 8 3 224 224 (1204224)
I1126 11:41:50.212692 31861 net.cpp:103] Top shape: 8 1 1 1 (8)
I1126 11:41:50.212707 31861 layer_factory.hpp:78] Creating layer label_data_1_split
I1126 11:41:50.212734 31861 net.cpp:67] Creating Layer label_data_1_split
I1126 11:41:50.212750 31861 net.cpp:394] label_data_1_split <- label
I1126 11:41:50.212769 31861 net.cpp:356] label_data_1_split -> label_data_1_split_0
I1126 11:41:50.212792 31861 net.cpp:356] label_data_1_split -> label_data_1_split_1
I1126 11:41:50.212811 31861 net.cpp:96] Setting up label_data_1_split
I1126 11:41:50.212828 31861 net.cpp:103] Top shape: 8 1 1 1 (8)
I1126 11:41:50.212841 31861 net.cpp:103] Top shape: 8 1 1 1 (8)
I1126 11:41:50.212856 31861 layer_factory.hpp:78] Creating layer conv1_1
I1126 11:41:50.212874 31861 net.cpp:67] Creating Layer conv1_1
I1126 11:41:50.212888 31861 net.cpp:394] conv1_1 <- data
I1126 11:41:50.212904 31861 net.cpp:356] conv1_1 -> conv1_1
I1126 11:41:50.212924 31861 net.cpp:96] Setting up conv1_1
I1126 11:41:50.213224 31861 net.cpp:103] Top shape: 8 64 224 224 (25690112)
I1126 11:41:50.213258 31861 layer_factory.hpp:78] Creating layer relu1_1
I1126 11:41:50.213274 31861 net.cpp:67] Creating Layer relu1_1
I1126 11:41:50.213290 31861 net.cpp:394] relu1_1 <- conv1_1
I1126 11:41:50.213318 31861 net.cpp:345] relu1_1 -> conv1_1 (in-place)
I1126 11:41:50.213346 31861 net.cpp:96] Setting up relu1_1
I1126 11:41:50.213363 31861 net.cpp:103] Top shape: 8 64 224 224 (25690112)
I1126 11:41:50.213378 31861 layer_factory.hpp:78] Creating layer conv1_2
I1126 11:41:50.213395 31861 net.cpp:67] Creating Layer conv1_2
I1126 11:41:50.213409 31861 net.cpp:394] conv1_2 <- conv1_1
I1126 11:41:50.213428 31861 net.cpp:356] conv1_2 -> conv1_2
I1126 11:41:50.213444 31861 net.cpp:96] Setting up conv1_2
I1126 11:41:50.214857 31861 net.cpp:103] Top shape: 8 64 224 224 (25690112)
I1126 11:41:50.214889 31861 layer_factory.hpp:78] Creating layer relu1_2
I1126 11:41:50.214905 31861 net.cpp:67] Creating Layer relu1_2
I1126 11:41:50.214921 31861 net.cpp:394] relu1_2 <- conv1_2
I1126 11:41:50.214936 31861 net.cpp:345] relu1_2 -> conv1_2 (in-place)
I1126 11:41:50.214954 31861 net.cpp:96] Setting up relu1_2
I1126 11:41:50.214972 31861 net.cpp:103] Top shape: 8 64 224 224 (25690112)
I1126 11:41:50.214987 31861 layer_factory.hpp:78] Creating layer pool1
I1126 11:41:50.215003 31861 net.cpp:67] Creating Layer pool1
I1126 11:41:50.215016 31861 net.cpp:394] pool1 <- conv1_2
I1126 11:41:50.215034 31861 net.cpp:356] pool1 -> pool1
I1126 11:41:50.215050 31861 net.cpp:96] Setting up pool1
I1126 11:41:50.215070 31861 net.cpp:103] Top shape: 8 64 112 112 (6422528)
I1126 11:41:50.215085 31861 layer_factory.hpp:78] Creating layer conv2_1
I1126 11:41:50.215102 31861 net.cpp:67] Creating Layer conv2_1
I1126 11:41:50.215116 31861 net.cpp:394] conv2_1 <- pool1
I1126 11:41:50.215132 31861 net.cpp:356] conv2_1 -> conv2_1
I1126 11:41:50.215150 31861 net.cpp:96] Setting up conv2_1
I1126 11:41:50.217999 31861 net.cpp:103] Top shape: 8 128 112 112 (12845056)
I1126 11:41:50.218042 31861 layer_factory.hpp:78] Creating layer relu2_1
I1126 11:41:50.218063 31861 net.cpp:67] Creating Layer relu2_1
I1126 11:41:50.218078 31861 net.cpp:394] relu2_1 <- conv2_1
I1126 11:41:50.218096 31861 net.cpp:345] relu2_1 -> conv2_1 (in-place)
I1126 11:41:50.218113 31861 net.cpp:96] Setting up relu2_1
I1126 11:41:50.218132 31861 net.cpp:103] Top shape: 8 128 112 112 (12845056)
I1126 11:41:50.218147 31861 layer_factory.hpp:78] Creating layer conv2_2
I1126 11:41:50.218163 31861 net.cpp:67] Creating Layer conv2_2
I1126 11:41:50.218176 31861 net.cpp:394] conv2_2 <- conv2_1
I1126 11:41:50.218194 31861 net.cpp:356] conv2_2 -> conv2_2
I1126 11:41:50.218212 31861 net.cpp:96] Setting up conv2_2
I1126 11:41:50.223552 31861 net.cpp:103] Top shape: 8 128 112 112 (12845056)
I1126 11:41:50.223626 31861 layer_factory.hpp:78] Creating layer relu2_2
I1126 11:41:50.223680 31861 net.cpp:67] Creating Layer relu2_2
I1126 11:41:50.223729 31861 net.cpp:394] relu2_2 <- conv2_2
I1126 11:41:50.223779 31861 net.cpp:345] relu2_2 -> conv2_2 (in-place)
I1126 11:41:50.223830 31861 net.cpp:96] Setting up relu2_2
I1126 11:41:50.223880 31861 net.cpp:103] Top shape: 8 128 112 112 (12845056)
I1126 11:41:50.223933 31861 layer_factory.hpp:78] Creating layer pool2
I1126 11:41:50.223984 31861 net.cpp:67] Creating Layer pool2
I1126 11:41:50.224030 31861 net.cpp:394] pool2 <- conv2_2
I1126 11:41:50.224077 31861 net.cpp:356] pool2 -> pool2
I1126 11:41:50.224123 31861 net.cpp:96] Setting up pool2
I1126 11:41:50.224172 31861 net.cpp:103] Top shape: 8 128 56 56 (3211264)
I1126 11:41:50.224225 31861 layer_factory.hpp:78] Creating layer conv3_1
I1126 11:41:50.224279 31861 net.cpp:67] Creating Layer conv3_1
I1126 11:41:50.224325 31861 net.cpp:394] conv3_1 <- pool2
I1126 11:41:50.224373 31861 net.cpp:356] conv3_1 -> conv3_1
I1126 11:41:50.224423 31861 net.cpp:96] Setting up conv3_1
I1126 11:41:50.235059 31861 net.cpp:103] Top shape: 8 256 56 56 (6422528)
I1126 11:41:50.235179 31861 layer_factory.hpp:78] Creating layer relu3_1
I1126 11:41:50.235235 31861 net.cpp:67] Creating Layer relu3_1
I1126 11:41:50.235558 31861 net.cpp:394] relu3_1 <- conv3_1
I1126 11:41:50.235620 31861 net.cpp:345] relu3_1 -> conv3_1 (in-place)
I1126 11:41:50.235641 31861 net.cpp:96] Setting up relu3_1
I1126 11:41:50.235661 31861 net.cpp:103] Top shape: 8 256 56 56 (6422528)
I1126 11:41:50.235684 31861 layer_factory.hpp:78] Creating layer conv3_2
I1126 11:41:50.235713 31861 net.cpp:67] Creating Layer conv3_2
I1126 11:41:50.235725 31861 net.cpp:394] conv3_2 <- conv3_1
I1126 11:41:50.235741 31861 net.cpp:356] conv3_2 -> conv3_2
I1126 11:41:50.235764 31861 net.cpp:96] Setting up conv3_2
I1126 11:41:50.257133 31861 net.cpp:103] Top shape: 8 256 56 56 (6422528)
I1126 11:41:50.257159 31861 layer_factory.hpp:78] Creating layer relu3_2
I1126 11:41:50.257171 31861 net.cpp:67] Creating Layer relu3_2
I1126 11:41:50.257177 31861 net.cpp:394] relu3_2 <- conv3_2
I1126 11:41:50.257186 31861 net.cpp:345] relu3_2 -> conv3_2 (in-place)
I1126 11:41:50.257196 31861 net.cpp:96] Setting up relu3_2
I1126 11:41:50.257213 31861 net.cpp:103] Top shape: 8 256 56 56 (6422528)
I1126 11:41:50.257221 31861 layer_factory.hpp:78] Creating layer conv3_3
I1126 11:41:50.257238 31861 net.cpp:67] Creating Layer conv3_3
I1126 11:41:50.257246 31861 net.cpp:394] conv3_3 <- conv3_2
I1126 11:41:50.257258 31861 net.cpp:356] conv3_3 -> conv3_3
I1126 11:41:50.257268 31861 net.cpp:96] Setting up conv3_3
I1126 11:41:50.275189 31861 net.cpp:103] Top shape: 8 256 56 56 (6422528)
I1126 11:41:50.275214 31861 layer_factory.hpp:78] Creating layer relu3_3
I1126 11:41:50.275226 31861 net.cpp:67] Creating Layer relu3_3
I1126 11:41:50.275233 31861 net.cpp:394] relu3_3 <- conv3_3
I1126 11:41:50.275246 31861 net.cpp:345] relu3_3 -> conv3_3 (in-place)
I1126 11:41:50.275259 31861 net.cpp:96] Setting up relu3_3
I1126 11:41:50.275269 31861 net.cpp:103] Top shape: 8 256 56 56 (6422528)
I1126 11:41:50.275277 31861 layer_factory.hpp:78] Creating layer pool3
I1126 11:41:50.275291 31861 net.cpp:67] Creating Layer pool3
I1126 11:41:50.275298 31861 net.cpp:394] pool3 <- conv3_3
I1126 11:41:50.275310 31861 net.cpp:356] pool3 -> pool3
I1126 11:41:50.275320 31861 net.cpp:96] Setting up pool3
I1126 11:41:50.275332 31861 net.cpp:103] Top shape: 8 256 28 28 (1605632)
I1126 11:41:50.275339 31861 layer_factory.hpp:78] Creating layer conv4_1
I1126 11:41:50.275351 31861 net.cpp:67] Creating Layer conv4_1
I1126 11:41:50.275357 31861 net.cpp:394] conv4_1 <- pool3
I1126 11:41:50.275369 31861 net.cpp:356] conv4_1 -> conv4_1
I1126 11:41:50.275380 31861 net.cpp:96] Setting up conv4_1
I1126 11:41:50.304618 31861 net.cpp:103] Top shape: 8 512 28 28 (3211264)
I1126 11:41:50.304644 31861 layer_factory.hpp:78] Creating layer relu4_1
I1126 11:41:50.304657 31861 net.cpp:67] Creating Layer relu4_1
I1126 11:41:50.304664 31861 net.cpp:394] relu4_1 <- conv4_1
I1126 11:41:50.304677 31861 net.cpp:345] relu4_1 -> conv4_1 (in-place)
I1126 11:41:50.304689 31861 net.cpp:96] Setting up relu4_1
I1126 11:41:50.304700 31861 net.cpp:103] Top shape: 8 512 28 28 (3211264)
I1126 11:41:50.304707 31861 layer_factory.hpp:78] Creating layer conv4_2
I1126 11:41:50.304723 31861 net.cpp:67] Creating Layer conv4_2
I1126 11:41:50.304728 31861 net.cpp:394] conv4_2 <- conv4_1
I1126 11:41:50.304740 31861 net.cpp:356] conv4_2 -> conv4_2
I1126 11:41:50.304750 31861 net.cpp:96] Setting up conv4_2
I1126 11:41:50.362608 31861 net.cpp:103] Top shape: 8 512 28 28 (3211264)
I1126 11:41:50.362643 31861 layer_factory.hpp:78] Creating layer relu4_2
I1126 11:41:50.362656 31861 net.cpp:67] Creating Layer relu4_2
I1126 11:41:50.362675 31861 net.cpp:394] relu4_2 <- conv4_2
I1126 11:41:50.362694 31861 net.cpp:345] relu4_2 -> conv4_2 (in-place)
I1126 11:41:50.362711 31861 net.cpp:96] Setting up relu4_2
I1126 11:41:50.362730 31861 net.cpp:103] Top shape: 8 512 28 28 (3211264)
I1126 11:41:50.362745 31861 layer_factory.hpp:78] Creating layer conv4_3
I1126 11:41:50.362762 31861 net.cpp:67] Creating Layer conv4_3
I1126 11:41:50.362776 31861 net.cpp:394] conv4_3 <- conv4_2
I1126 11:41:50.362797 31861 net.cpp:356] conv4_3 -> conv4_3
I1126 11:41:50.362819 31861 net.cpp:96] Setting up conv4_3
I1126 11:41:50.420693 31861 net.cpp:103] Top shape: 8 512 28 28 (3211264)
I1126 11:41:50.420718 31861 layer_factory.hpp:78] Creating layer relu4_3
I1126 11:41:50.420727 31861 net.cpp:67] Creating Layer relu4_3
I1126 11:41:50.420732 31861 net.cpp:394] relu4_3 <- conv4_3
I1126 11:41:50.420750 31861 net.cpp:345] relu4_3 -> conv4_3 (in-place)
I1126 11:41:50.420761 31861 net.cpp:96] Setting up relu4_3
I1126 11:41:50.420770 31861 net.cpp:103] Top shape: 8 512 28 28 (3211264)
I1126 11:41:50.420778 31861 layer_factory.hpp:78] Creating layer pool4
I1126 11:41:50.420789 31861 net.cpp:67] Creating Layer pool4
I1126 11:41:50.420796 31861 net.cpp:394] pool4 <- conv4_3
I1126 11:41:50.420809 31861 net.cpp:356] pool4 -> pool4
I1126 11:41:50.420822 31861 net.cpp:96] Setting up pool4
I1126 11:41:50.420835 31861 net.cpp:103] Top shape: 8 512 14 14 (802816)
I1126 11:41:50.420845 31861 layer_factory.hpp:78] Creating layer conv5_1
I1126 11:41:50.420855 31861 net.cpp:67] Creating Layer conv5_1
I1126 11:41:50.420862 31861 net.cpp:394] conv5_1 <- pool4
I1126 11:41:50.420873 31861 net.cpp:356] conv5_1 -> conv5_1
I1126 11:41:50.420884 31861 net.cpp:96] Setting up conv5_1
I1126 11:41:50.478916 31861 net.cpp:103] Top shape: 8 512 14 14 (802816)
I1126 11:41:50.478941 31861 layer_factory.hpp:78] Creating layer relu5_1
I1126 11:41:50.478948 31861 net.cpp:67] Creating Layer relu5_1
I1126 11:41:50.478952 31861 net.cpp:394] relu5_1 <- conv5_1
I1126 11:41:50.478960 31861 net.cpp:345] relu5_1 -> conv5_1 (in-place)
I1126 11:41:50.478966 31861 net.cpp:96] Setting up relu5_1
I1126 11:41:50.478976 31861 net.cpp:103] Top shape: 8 512 14 14 (802816)
I1126 11:41:50.478981 31861 layer_factory.hpp:78] Creating layer conv5_2
I1126 11:41:50.478996 31861 net.cpp:67] Creating Layer conv5_2
I1126 11:41:50.479001 31861 net.cpp:394] conv5_2 <- conv5_1
I1126 11:41:50.479013 31861 net.cpp:356] conv5_2 -> conv5_2
I1126 11:41:50.479027 31861 net.cpp:96] Setting up conv5_2
I1126 11:41:50.536804 31861 net.cpp:103] Top shape: 8 512 14 14 (802816)
I1126 11:41:50.536829 31861 layer_factory.hpp:78] Creating layer relu5_2
I1126 11:41:50.536839 31861 net.cpp:67] Creating Layer relu5_2
I1126 11:41:50.536846 31861 net.cpp:394] relu5_2 <- conv5_2
I1126 11:41:50.536859 31861 net.cpp:345] relu5_2 -> conv5_2 (in-place)
I1126 11:41:50.536871 31861 net.cpp:96] Setting up relu5_2
I1126 11:41:50.536881 31861 net.cpp:103] Top shape: 8 512 14 14 (802816)
I1126 11:41:50.536888 31861 layer_factory.hpp:78] Creating layer conv5_3
I1126 11:41:50.536902 31861 net.cpp:67] Creating Layer conv5_3
I1126 11:41:50.536909 31861 net.cpp:394] conv5_3 <- conv5_2
I1126 11:41:50.536924 31861 net.cpp:356] conv5_3 -> conv5_3
I1126 11:41:50.536936 31861 net.cpp:96] Setting up conv5_3
I1126 11:41:50.595072 31861 net.cpp:103] Top shape: 8 512 14 14 (802816)
I1126 11:41:50.595098 31861 layer_factory.hpp:78] Creating layer relu5_3
I1126 11:41:50.595106 31861 net.cpp:67] Creating Layer relu5_3
I1126 11:41:50.595110 31861 net.cpp:394] relu5_3 <- conv5_3
I1126 11:41:50.595118 31861 net.cpp:345] relu5_3 -> conv5_3 (in-place)
I1126 11:41:50.595127 31861 net.cpp:96] Setting up relu5_3
I1126 11:41:50.595137 31861 net.cpp:103] Top shape: 8 512 14 14 (802816)
I1126 11:41:50.595149 31861 layer_factory.hpp:78] Creating layer pool5
I1126 11:41:50.595167 31861 net.cpp:67] Creating Layer pool5
I1126 11:41:50.595175 31861 net.cpp:394] pool5 <- conv5_3
I1126 11:41:50.595185 31861 net.cpp:356] pool5 -> pool5
I1126 11:41:50.595197 31861 net.cpp:96] Setting up pool5
I1126 11:41:50.595211 31861 net.cpp:103] Top shape: 8 512 7 7 (200704)
I1126 11:41:50.595219 31861 layer_factory.hpp:78] Creating layer fc6
I1126 11:41:50.595229 31861 net.cpp:67] Creating Layer fc6
I1126 11:41:50.595237 31861 net.cpp:394] fc6 <- pool5
I1126 11:41:50.595249 31861 net.cpp:356] fc6 -> fc6
I1126 11:41:50.595262 31861 net.cpp:96] Setting up fc6
I1126 11:41:53.109516 31861 net.cpp:103] Top shape: 8 4096 1 1 (32768)
I1126 11:41:53.109544 31861 layer_factory.hpp:78] Creating layer relu6
I1126 11:41:53.109557 31861 net.cpp:67] Creating Layer relu6
I1126 11:41:53.109565 31861 net.cpp:394] relu6 <- fc6
I1126 11:41:53.109576 31861 net.cpp:345] relu6 -> fc6 (in-place)
I1126 11:41:53.109590 31861 net.cpp:96] Setting up relu6
I1126 11:41:53.109609 31861 net.cpp:103] Top shape: 8 4096 1 1 (32768)
I1126 11:41:53.109617 31861 layer_factory.hpp:78] Creating layer drop6
I1126 11:41:53.109639 31861 net.cpp:67] Creating Layer drop6
I1126 11:41:53.109647 31861 net.cpp:394] drop6 <- fc6
I1126 11:41:53.109658 31861 net.cpp:345] drop6 -> fc6 (in-place)
I1126 11:41:53.109668 31861 net.cpp:96] Setting up drop6
I1126 11:41:53.109675 31861 net.cpp:103] Top shape: 8 4096 1 1 (32768)
I1126 11:41:53.109683 31861 layer_factory.hpp:78] Creating layer fc7
I1126 11:41:53.109697 31861 net.cpp:67] Creating Layer fc7
I1126 11:41:53.109704 31861 net.cpp:394] fc7 <- fc6
I1126 11:41:53.109716 31861 net.cpp:356] fc7 -> fc7
I1126 11:41:53.109730 31861 net.cpp:96] Setting up fc7
I1126 11:41:53.525054 31861 net.cpp:103] Top shape: 8 4096 1 1 (32768)
I1126 11:41:53.525080 31861 layer_factory.hpp:78] Creating layer relu7
I1126 11:41:53.525089 31861 net.cpp:67] Creating Layer relu7
I1126 11:41:53.525094 31861 net.cpp:394] relu7 <- fc7
I1126 11:41:53.525100 31861 net.cpp:345] relu7 -> fc7 (in-place)
I1126 11:41:53.525109 31861 net.cpp:96] Setting up relu7
I1126 11:41:53.525126 31861 net.cpp:103] Top shape: 8 4096 1 1 (32768)
I1126 11:41:53.525135 31861 layer_factory.hpp:78] Creating layer drop7
I1126 11:41:53.525145 31861 net.cpp:67] Creating Layer drop7
I1126 11:41:53.525151 31861 net.cpp:394] drop7 <- fc7
I1126 11:41:53.525162 31861 net.cpp:345] drop7 -> fc7 (in-place)
I1126 11:41:53.525173 31861 net.cpp:96] Setting up drop7
I1126 11:41:53.525182 31861 net.cpp:103] Top shape: 8 4096 1 1 (32768)
I1126 11:41:53.525188 31861 layer_factory.hpp:78] Creating layer fc8_2
I1126 11:41:53.525199 31861 net.cpp:67] Creating Layer fc8_2
I1126 11:41:53.525207 31861 net.cpp:394] fc8_2 <- fc7
I1126 11:41:53.525219 31861 net.cpp:356] fc8_2 -> fc8_2
I1126 11:41:53.525233 31861 net.cpp:96] Setting up fc8_2
I1126 11:41:53.525552 31861 net.cpp:103] Top shape: 8 2 1 1 (16)
I1126 11:41:53.525565 31861 layer_factory.hpp:78] Creating layer fc8_2_fc8_2_0_split
I1126 11:41:53.525575 31861 net.cpp:67] Creating Layer fc8_2_fc8_2_0_split
I1126 11:41:53.525583 31861 net.cpp:394] fc8_2_fc8_2_0_split <- fc8_2
I1126 11:41:53.525593 31861 net.cpp:356] fc8_2_fc8_2_0_split -> fc8_2_fc8_2_0_split_0
I1126 11:41:53.525606 31861 net.cpp:356] fc8_2_fc8_2_0_split -> fc8_2_fc8_2_0_split_1
I1126 11:41:53.525617 31861 net.cpp:96] Setting up fc8_2_fc8_2_0_split
I1126 11:41:53.525626 31861 net.cpp:103] Top shape: 8 2 1 1 (16)
I1126 11:41:53.525634 31861 net.cpp:103] Top shape: 8 2 1 1 (16)
I1126 11:41:53.525640 31861 layer_factory.hpp:78] Creating layer loss
I1126 11:41:53.525652 31861 net.cpp:67] Creating Layer loss
I1126 11:41:53.525660 31861 net.cpp:394] loss <- fc8_2_fc8_2_0_split_0
I1126 11:41:53.525670 31861 net.cpp:394] loss <- label_data_1_split_0
I1126 11:41:53.525679 31861 net.cpp:356] loss -> (automatic)
I1126 11:41:53.525688 31861 net.cpp:96] Setting up loss
I1126 11:41:53.525701 31861 net.cpp:103] Top shape: 1 1 1 1 (1)
I1126 11:41:53.525707 31861 net.cpp:109]     with loss weight 1
I1126 11:41:53.525724 31861 layer_factory.hpp:78] Creating layer accuracy
I1126 11:41:53.525734 31861 net.cpp:67] Creating Layer accuracy
I1126 11:41:53.525742 31861 net.cpp:394] accuracy <- fc8_2_fc8_2_0_split_1
I1126 11:41:53.525751 31861 net.cpp:394] accuracy <- label_data_1_split_1
I1126 11:41:53.525763 31861 net.cpp:356] accuracy -> accuracy
I1126 11:41:53.525774 31861 net.cpp:96] Setting up accuracy
I1126 11:41:53.525786 31861 net.cpp:103] Top shape: 1 1 1 4 (4)
I1126 11:41:53.525794 31861 net.cpp:172] accuracy does not need backward computation.
I1126 11:41:53.525801 31861 net.cpp:170] loss needs backward computation.
I1126 11:41:53.525810 31861 net.cpp:170] fc8_2_fc8_2_0_split needs backward computation.
I1126 11:41:53.525815 31861 net.cpp:170] fc8_2 needs backward computation.
I1126 11:41:53.525822 31861 net.cpp:170] drop7 needs backward computation.
…
