…
I1120 00:58:10.284415 26347 net.cpp:275] The NetState phase (0) differed from the phase (1) specified by a rule in layer accuracy
I1120 00:58:10.284600 26347 net.cpp:39] Initializing net from parameters: 
name: "small"
layers {
  top: "data"
  top: "label"
  name: "data"
  type: IMAGE_DATA
  image_data_param {
    source: "/data/ad6813/devCaffe/caffe/data/scrape_blue/train.txt"
    batch_size: 32
    new_height: 256
    new_width: 256
  }
  include {
    phase: TRAIN
  }
  transform_param {
    mirror: true
    crop_size: 224
    mean_value: 86.752
    mean_value: 101.46
    mean_value: 104.6
  }
}
layers {
  bottom: "data"
  top: "conv1_1"
  name: "conv1_1"
  type: CONVOLUTION
  convolution_param {
    num_output: 64
    pad: 1
    kernel_size: 3
    weight_filler {
      type: "gaussian"
      std: 0.01
    }
    bias_filler {
      type: "constant"
      value: 0
    }
  }
}
layers {
  bottom: "conv1_1"
  top: "conv1_1"
  name: "relu1_1"
  type: RELU
}
layers {
  bottom: "conv1_1"
  top: "conv1_2"
  name: "conv1_2"
  type: CONVOLUTION
  convolution_param {
    num_output: 64
    pad: 1
    kernel_size: 3
    weight_filler {
      type: "gaussian"
      std: 0.01
    }
    bias_filler {
      type: "constant"
      value: 0
    }
  }
}
layers {
  bottom: "conv1_2"
  top: "conv1_2"
  name: "relu1_2"
  type: RELU
}
layers {
  bottom: "conv1_2"
  top: "pool1"
  name: "pool1"
  type: POOLING
  pooling_param {
    pool: MAX
    kernel_size: 2
    stride: 2
  }
}
layers {
  bottom: "pool1"
  top: "conv2_1"
  name: "conv2_1"
  type: CONVOLUTION
  convolution_param {
    num_output: 128
    pad: 1
    kernel_size: 3
    weight_filler {
      type: "gaussian"
      std: 0.01
    }
    bias_filler {
      type: "constant"
      value: 0
    }
  }
}
layers {
  bottom: "conv2_1"
  top: "conv2_1"
  name: "relu2_1"
  type: RELU
}
layers {
  bottom: "conv2_1"
  top: "conv2_2"
  name: "conv2_2"
  type: CONVOLUTION
  convolution_param {
    num_output: 128
    pad: 1
    kernel_size: 3
    weight_filler {
      type: "gaussian"
      std: 0.01
    }
    bias_filler {
      type: "constant"
      value: 0
    }
  }
}
layers {
  bottom: "conv2_2"
  top: "conv2_2"
  name: "relu2_2"
  type: RELU
}
layers {
  bottom: "conv2_2"
  top: "pool2"
  name: "pool2"
  type: POOLING
  pooling_param {
    pool: MAX
    kernel_size: 2
    stride: 2
  }
}
layers {
  bottom: "pool2"
  top: "conv3_1"
  name: "conv3_1"
  type: CONVOLUTION
  convolution_param {
    num_output: 256
    pad: 1
    kernel_size: 3
    weight_filler {
      type: "gaussian"
      std: 0.01
    }
    bias_filler {
      type: "constant"
      value: 0
    }
  }
}
layers {
  bottom: "conv3_1"
  top: "conv3_1"
  name: "relu3_1"
  type: RELU
}
layers {
  bottom: "conv3_1"
  top: "conv3_2"
  name: "conv3_2"
  type: CONVOLUTION
  convolution_param {
    num_output: 256
    pad: 1
    kernel_size: 3
    weight_filler {
      type: "gaussian"
      std: 0.01
    }
    bias_filler {
      type: "constant"
      value: 0
    }
  }
}
layers {
  bottom: "conv3_2"
  top: "conv3_2"
  name: "relu3_2"
  type: RELU
}
layers {
  bottom: "conv3_2"
  top: "conv3_3"
  name: "conv3_3"
  type: CONVOLUTION
  convolution_param {
    num_output: 256
    pad: 1
    kernel_size: 3
    weight_filler {
      type: "gaussian"
      std: 0.01
    }
    bias_filler {
      type: "constant"
      value: 0
    }
  }
}
layers {
  bottom: "conv3_3"
  top: "conv3_3"
  name: "relu3_3"
  type: RELU
}
layers {
  bottom: "conv3_3"
  top: "pool3"
  name: "pool3"
  type: POOLING
  pooling_param {
    pool: MAX
    kernel_size: 2
    stride: 2
  }
}
layers {
  bottom: "pool3"
  top: "conv4_1"
  name: "conv4_1"
  type: CONVOLUTION
  convolution_param {
    num_output: 512
    pad: 1
    kernel_size: 3
    weight_filler {
      type: "gaussian"
      std: 0.01
    }
    bias_filler {
      type: "constant"
      value: 0
    }
  }
}
layers {
  bottom: "conv4_1"
  top: "conv4_1"
  name: "relu4_1"
  type: RELU
}
layers {
  bottom: "conv4_1"
  top: "conv4_2"
  name: "conv4_2"
  type: CONVOLUTION
  convolution_param {
    num_output: 512
    pad: 1
    kernel_size: 3
    weight_filler {
      type: "gaussian"
      std: 0.01
    }
    bias_filler {
      type: "constant"
      value: 0
    }
  }
}
layers {
  bottom: "conv4_2"
  top: "conv4_2"
  name: "relu4_2"
  type: RELU
}
layers {
  bottom: "conv4_2"
  top: "conv4_3"
  name: "conv4_3"
  type: CONVOLUTION
  convolution_param {
    num_output: 512
    pad: 1
    kernel_size: 3
    weight_filler {
      type: "gaussian"
      std: 0.01
    }
    bias_filler {
      type: "constant"
      value: 0
    }
  }
}
layers {
  bottom: "conv4_3"
  top: "conv4_3"
  name: "relu4_3"
  type: RELU
}
layers {
  bottom: "conv4_3"
  top: "pool4"
  name: "pool4"
  type: POOLING
  pooling_param {
    pool: MAX
    kernel_size: 2
    stride: 2
  }
}
layers {
  bottom: "pool4"
  top: "conv5_1"
  name: "conv5_1"
  type: CONVOLUTION
  convolution_param {
    num_output: 512
    pad: 1
    kernel_size: 3
    weight_filler {
      type: "gaussian"
      std: 0.01
    }
    bias_filler {
      type: "constant"
      value: 0
    }
  }
}
layers {
  bottom: "conv5_1"
  top: "conv5_1"
  name: "relu5_1"
  type: RELU
}
layers {
  bottom: "conv5_1"
  top: "conv5_2"
  name: "conv5_2"
  type: CONVOLUTION
  convolution_param {
    num_output: 512
    pad: 1
    kernel_size: 3
    weight_filler {
      type: "gaussian"
      std: 0.01
    }
    bias_filler {
      type: "constant"
      value: 0
    }
  }
}
layers {
  bottom: "conv5_2"
  top: "conv5_2"
  name: "relu5_2"
  type: RELU
}
layers {
  bottom: "conv5_2"
  top: "conv5_3"
  name: "conv5_3"
  type: CONVOLUTION
  convolution_param {
    num_output: 512
    pad: 1
    kernel_size: 3
    weight_filler {
      type: "gaussian"
      std: 0.01
    }
    bias_filler {
      type: "constant"
      value: 0
    }
  }
}
layers {
  bottom: "conv5_3"
  top: "conv5_3"
  name: "relu5_3"
  type: RELU
}
layers {
  bottom: "conv5_3"
  top: "pool5"
  name: "pool5"
  type: POOLING
  pooling_param {
    pool: MAX
    kernel_size: 2
    stride: 2
  }
}
layers {
  bottom: "pool5"
  top: "fc6"
  name: "fc6"
  type: INNER_PRODUCT
  inner_product_param {
    num_output: 4096
    weight_filler {
      type: "gaussian"
      std: 0.01
    }
    bias_filler {
      type: "constant"
      value: 0
    }
  }
}
layers {
  bottom: "fc6"
  top: "fc6"
  name: "relu6"
  type: RELU
}
layers {
  bottom: "fc6"
  top: "fc6"
  name: "drop6"
  type: DROPOUT
  dropout_param {
    dropout_ratio: 0.5
  }
}
layers {
  bottom: "fc6"
  top: "fc7"
  name: "fc7"
  type: INNER_PRODUCT
  inner_product_param {
    num_output: 4096
    weight_filler {
      type: "gaussian"
      std: 0.01
    }
    bias_filler {
      type: "constant"
      value: 0
    }
  }
}
layers {
  bottom: "fc7"
  top: "fc7"
  name: "relu7"
  type: RELU
}
layers {
  bottom: "fc7"
  top: "fc7"
  name: "drop7"
  type: DROPOUT
  dropout_param {
    dropout_ratio: 0.5
  }
}
layers {
  bottom: "fc7"
  top: "fc8_2"
  name: "fc8_2"
  type: INNER_PRODUCT
  inner_product_param {
    num_output: 2
    weight_filler {
      type: "gaussian"
      std: 0.01
    }
    bias_filler {
      type: "constant"
      value: 0
    }
  }
}
layers {
  bottom: "fc8_2"
  bottom: "label"
  name: "loss"
  type: SOFTMAX_LOSS
}
state {
  phase: TRAIN
}
I1120 00:58:10.284719 26347 layer_factory.hpp:78] Creating layer data
I1120 00:58:10.284742 26347 net.cpp:67] Creating Layer data
I1120 00:58:10.284760 26347 net.cpp:356] data -> data
I1120 00:58:10.284790 26347 net.cpp:356] data -> label
I1120 00:58:10.284803 26347 net.cpp:96] Setting up data
I1120 00:58:10.284816 26347 image_data_layer.cpp:34] Opening file /data/ad6813/devCaffe/caffe/data/scrape_blue/train.txt
I1120 00:58:10.298825 26347 image_data_layer.cpp:49] A total of 40401 images.
I1120 00:58:10.308284 26347 image_data_layer.cpp:78] output data size: 32,3,224,224
I1120 00:58:10.311332 26347 net.cpp:103] Top shape: 32 3 224 224 (4816896)
I1120 00:58:10.311358 26347 net.cpp:103] Top shape: 32 1 1 1 (32)
I1120 00:58:10.311367 26347 layer_factory.hpp:78] Creating layer conv1_1
I1120 00:58:10.311386 26347 net.cpp:67] Creating Layer conv1_1
I1120 00:58:10.311393 26347 net.cpp:394] conv1_1 <- data
I1120 00:58:10.311413 26347 net.cpp:356] conv1_1 -> conv1_1
I1120 00:58:10.311435 26347 net.cpp:96] Setting up conv1_1
I1120 00:58:10.875176 26347 net.cpp:103] Top shape: 32 64 224 224 (102760448)
I1120 00:58:10.875212 26347 layer_factory.hpp:78] Creating layer relu1_1
I1120 00:58:10.875223 26347 net.cpp:67] Creating Layer relu1_1
I1120 00:58:10.875228 26347 net.cpp:394] relu1_1 <- conv1_1
I1120 00:58:10.875234 26347 net.cpp:345] relu1_1 -> conv1_1 (in-place)
I1120 00:58:10.875242 26347 net.cpp:96] Setting up relu1_1
I1120 00:58:10.875251 26347 net.cpp:103] Top shape: 32 64 224 224 (102760448)
I1120 00:58:10.875254 26347 layer_factory.hpp:78] Creating layer conv1_2
I1120 00:58:10.875260 26347 net.cpp:67] Creating Layer conv1_2
I1120 00:58:10.875263 26347 net.cpp:394] conv1_2 <- conv1_1
I1120 00:58:10.875268 26347 net.cpp:356] conv1_2 -> conv1_2
I1120 00:58:10.875275 26347 net.cpp:96] Setting up conv1_2
I1120 00:58:10.876377 26347 net.cpp:103] Top shape: 32 64 224 224 (102760448)
I1120 00:58:10.876391 26347 layer_factory.hpp:78] Creating layer relu1_2
I1120 00:58:10.876396 26347 net.cpp:67] Creating Layer relu1_2
I1120 00:58:10.876400 26347 net.cpp:394] relu1_2 <- conv1_2
I1120 00:58:10.876406 26347 net.cpp:345] relu1_2 -> conv1_2 (in-place)
I1120 00:58:10.876411 26347 net.cpp:96] Setting up relu1_2
I1120 00:58:10.876416 26347 net.cpp:103] Top shape: 32 64 224 224 (102760448)
I1120 00:58:10.876420 26347 layer_factory.hpp:78] Creating layer pool1
I1120 00:58:10.876427 26347 net.cpp:67] Creating Layer pool1
I1120 00:58:10.876430 26347 net.cpp:394] pool1 <- conv1_2
I1120 00:58:10.876435 26347 net.cpp:356] pool1 -> pool1
I1120 00:58:10.876441 26347 net.cpp:96] Setting up pool1
I1120 00:58:10.876458 26347 net.cpp:103] Top shape: 32 64 112 112 (25690112)
I1120 00:58:10.876466 26347 layer_factory.hpp:78] Creating layer conv2_1
I1120 00:58:10.876471 26347 net.cpp:67] Creating Layer conv2_1
I1120 00:58:10.876473 26347 net.cpp:394] conv2_1 <- pool1
I1120 00:58:10.876479 26347 net.cpp:356] conv2_1 -> conv2_1
I1120 00:58:10.876484 26347 net.cpp:96] Setting up conv2_1
I1120 00:58:10.878504 26347 net.cpp:103] Top shape: 32 128 112 112 (51380224)
I1120 00:58:10.878516 26347 layer_factory.hpp:78] Creating layer relu2_1
I1120 00:58:10.878521 26347 net.cpp:67] Creating Layer relu2_1
I1120 00:58:10.878525 26347 net.cpp:394] relu2_1 <- conv2_1
I1120 00:58:10.878528 26347 net.cpp:345] relu2_1 -> conv2_1 (in-place)
I1120 00:58:10.878533 26347 net.cpp:96] Setting up relu2_1
I1120 00:58:10.878538 26347 net.cpp:103] Top shape: 32 128 112 112 (51380224)
I1120 00:58:10.878541 26347 layer_factory.hpp:78] Creating layer conv2_2
I1120 00:58:10.878548 26347 net.cpp:67] Creating Layer conv2_2
I1120 00:58:10.878551 26347 net.cpp:394] conv2_2 <- conv2_1
I1120 00:58:10.878556 26347 net.cpp:356] conv2_2 -> conv2_2
I1120 00:58:10.878562 26347 net.cpp:96] Setting up conv2_2
I1120 00:58:10.882557 26347 net.cpp:103] Top shape: 32 128 112 112 (51380224)
I1120 00:58:10.882570 26347 layer_factory.hpp:78] Creating layer relu2_2
I1120 00:58:10.882575 26347 net.cpp:67] Creating Layer relu2_2
I1120 00:58:10.882578 26347 net.cpp:394] relu2_2 <- conv2_2
I1120 00:58:10.882582 26347 net.cpp:345] relu2_2 -> conv2_2 (in-place)
I1120 00:58:10.882587 26347 net.cpp:96] Setting up relu2_2
I1120 00:58:10.882592 26347 net.cpp:103] Top shape: 32 128 112 112 (51380224)
I1120 00:58:10.882603 26347 layer_factory.hpp:78] Creating layer pool2
I1120 00:58:10.882609 26347 net.cpp:67] Creating Layer pool2
I1120 00:58:10.882612 26347 net.cpp:394] pool2 <- conv2_2
I1120 00:58:10.882617 26347 net.cpp:356] pool2 -> pool2
I1120 00:58:10.882622 26347 net.cpp:96] Setting up pool2
I1120 00:58:10.882627 26347 net.cpp:103] Top shape: 32 128 56 56 (12845056)
I1120 00:58:10.882630 26347 layer_factory.hpp:78] Creating layer conv3_1
I1120 00:58:10.882637 26347 net.cpp:67] Creating Layer conv3_1
I1120 00:58:10.882640 26347 net.cpp:394] conv3_1 <- pool2
I1120 00:58:10.882644 26347 net.cpp:356] conv3_1 -> conv3_1
I1120 00:58:10.882650 26347 net.cpp:96] Setting up conv3_1
I1120 00:58:10.890486 26347 net.cpp:103] Top shape: 32 256 56 56 (25690112)
I1120 00:58:10.890502 26347 layer_factory.hpp:78] Creating layer relu3_1
I1120 00:58:10.890507 26347 net.cpp:67] Creating Layer relu3_1
I1120 00:58:10.890511 26347 net.cpp:394] relu3_1 <- conv3_1
I1120 00:58:10.890514 26347 net.cpp:345] relu3_1 -> conv3_1 (in-place)
I1120 00:58:10.890519 26347 net.cpp:96] Setting up relu3_1
I1120 00:58:10.890524 26347 net.cpp:103] Top shape: 32 256 56 56 (25690112)
I1120 00:58:10.890527 26347 layer_factory.hpp:78] Creating layer conv3_2
I1120 00:58:10.890533 26347 net.cpp:67] Creating Layer conv3_2
I1120 00:58:10.890537 26347 net.cpp:394] conv3_2 <- conv3_1
I1120 00:58:10.890542 26347 net.cpp:356] conv3_2 -> conv3_2
I1120 00:58:10.890547 26347 net.cpp:96] Setting up conv3_2
I1120 00:58:10.906445 26347 net.cpp:103] Top shape: 32 256 56 56 (25690112)
I1120 00:58:10.906469 26347 layer_factory.hpp:78] Creating layer relu3_2
I1120 00:58:10.906477 26347 net.cpp:67] Creating Layer relu3_2
I1120 00:58:10.906482 26347 net.cpp:394] relu3_2 <- conv3_2
I1120 00:58:10.906489 26347 net.cpp:345] relu3_2 -> conv3_2 (in-place)
I1120 00:58:10.906497 26347 net.cpp:96] Setting up relu3_2
I1120 00:58:10.906502 26347 net.cpp:103] Top shape: 32 256 56 56 (25690112)
I1120 00:58:10.906505 26347 layer_factory.hpp:78] Creating layer conv3_3
I1120 00:58:10.906510 26347 net.cpp:67] Creating Layer conv3_3
I1120 00:58:10.906513 26347 net.cpp:394] conv3_3 <- conv3_2
I1120 00:58:10.906518 26347 net.cpp:356] conv3_3 -> conv3_3
I1120 00:58:10.906523 26347 net.cpp:96] Setting up conv3_3
I1120 00:58:10.922247 26347 net.cpp:103] Top shape: 32 256 56 56 (25690112)
I1120 00:58:10.922269 26347 layer_factory.hpp:78] Creating layer relu3_3
I1120 00:58:10.922281 26347 net.cpp:67] Creating Layer relu3_3
I1120 00:58:10.922286 26347 net.cpp:394] relu3_3 <- conv3_3
I1120 00:58:10.922293 26347 net.cpp:345] relu3_3 -> conv3_3 (in-place)
I1120 00:58:10.922301 26347 net.cpp:96] Setting up relu3_3
I1120 00:58:10.922305 26347 net.cpp:103] Top shape: 32 256 56 56 (25690112)
I1120 00:58:10.922308 26347 layer_factory.hpp:78] Creating layer pool3
I1120 00:58:10.922313 26347 net.cpp:67] Creating Layer pool3
I1120 00:58:10.922317 26347 net.cpp:394] pool3 <- conv3_3
I1120 00:58:10.922322 26347 net.cpp:356] pool3 -> pool3
I1120 00:58:10.922327 26347 net.cpp:96] Setting up pool3
I1120 00:58:10.922333 26347 net.cpp:103] Top shape: 32 256 28 28 (6422528)
I1120 00:58:10.922336 26347 layer_factory.hpp:78] Creating layer conv4_1
I1120 00:58:10.922343 26347 net.cpp:67] Creating Layer conv4_1
I1120 00:58:10.922346 26347 net.cpp:394] conv4_1 <- pool3
I1120 00:58:10.922353 26347 net.cpp:356] conv4_1 -> conv4_1
I1120 00:58:10.922358 26347 net.cpp:96] Setting up conv4_1
I1120 00:58:10.953447 26347 net.cpp:103] Top shape: 32 512 28 28 (12845056)
I1120 00:58:10.953471 26347 layer_factory.hpp:78] Creating layer relu4_1
I1120 00:58:10.953480 26347 net.cpp:67] Creating Layer relu4_1
I1120 00:58:10.953485 26347 net.cpp:394] relu4_1 <- conv4_1
I1120 00:58:10.953492 26347 net.cpp:345] relu4_1 -> conv4_1 (in-place)
I1120 00:58:10.953500 26347 net.cpp:96] Setting up relu4_1
I1120 00:58:10.953505 26347 net.cpp:103] Top shape: 32 512 28 28 (12845056)
I1120 00:58:10.953508 26347 layer_factory.hpp:78] Creating layer conv4_2
I1120 00:58:10.953515 26347 net.cpp:67] Creating Layer conv4_2
I1120 00:58:10.953517 26347 net.cpp:394] conv4_2 <- conv4_1
I1120 00:58:10.953532 26347 net.cpp:356] conv4_2 -> conv4_2
I1120 00:58:10.953538 26347 net.cpp:96] Setting up conv4_2
I1120 00:58:11.015213 26347 net.cpp:103] Top shape: 32 512 28 28 (12845056)
I1120 00:58:11.015244 26347 layer_factory.hpp:78] Creating layer relu4_2
I1120 00:58:11.015252 26347 net.cpp:67] Creating Layer relu4_2
I1120 00:58:11.015256 26347 net.cpp:394] relu4_2 <- conv4_2
I1120 00:58:11.015264 26347 net.cpp:345] relu4_2 -> conv4_2 (in-place)
I1120 00:58:11.015270 26347 net.cpp:96] Setting up relu4_2
I1120 00:58:11.015276 26347 net.cpp:103] Top shape: 32 512 28 28 (12845056)
I1120 00:58:11.015280 26347 layer_factory.hpp:78] Creating layer conv4_3
I1120 00:58:11.015285 26347 net.cpp:67] Creating Layer conv4_3
I1120 00:58:11.015288 26347 net.cpp:394] conv4_3 <- conv4_2
I1120 00:58:11.015293 26347 net.cpp:356] conv4_3 -> conv4_3
I1120 00:58:11.015298 26347 net.cpp:96] Setting up conv4_3
I1120 00:58:11.076658 26347 net.cpp:103] Top shape: 32 512 28 28 (12845056)
I1120 00:58:11.076683 26347 layer_factory.hpp:78] Creating layer relu4_3
I1120 00:58:11.076692 26347 net.cpp:67] Creating Layer relu4_3
I1120 00:58:11.076697 26347 net.cpp:394] relu4_3 <- conv4_3
I1120 00:58:11.076704 26347 net.cpp:345] relu4_3 -> conv4_3 (in-place)
I1120 00:58:11.076710 26347 net.cpp:96] Setting up relu4_3
I1120 00:58:11.076716 26347 net.cpp:103] Top shape: 32 512 28 28 (12845056)
I1120 00:58:11.076719 26347 layer_factory.hpp:78] Creating layer pool4
I1120 00:58:11.076725 26347 net.cpp:67] Creating Layer pool4
I1120 00:58:11.076727 26347 net.cpp:394] pool4 <- conv4_3
I1120 00:58:11.076733 26347 net.cpp:356] pool4 -> pool4
I1120 00:58:11.076740 26347 net.cpp:96] Setting up pool4
I1120 00:58:11.076747 26347 net.cpp:103] Top shape: 32 512 14 14 (3211264)
I1120 00:58:11.076750 26347 layer_factory.hpp:78] Creating layer conv5_1
I1120 00:58:11.076756 26347 net.cpp:67] Creating Layer conv5_1
I1120 00:58:11.076760 26347 net.cpp:394] conv5_1 <- pool4
I1120 00:58:11.076766 26347 net.cpp:356] conv5_1 -> conv5_1
I1120 00:58:11.076772 26347 net.cpp:96] Setting up conv5_1
I1120 00:58:11.138420 26347 net.cpp:103] Top shape: 32 512 14 14 (3211264)
I1120 00:58:11.138447 26347 layer_factory.hpp:78] Creating layer relu5_1
I1120 00:58:11.138460 26347 net.cpp:67] Creating Layer relu5_1
I1120 00:58:11.138466 26347 net.cpp:394] relu5_1 <- conv5_1
I1120 00:58:11.138473 26347 net.cpp:345] relu5_1 -> conv5_1 (in-place)
I1120 00:58:11.138479 26347 net.cpp:96] Setting up relu5_1
I1120 00:58:11.138484 26347 net.cpp:103] Top shape: 32 512 14 14 (3211264)
I1120 00:58:11.138488 26347 layer_factory.hpp:78] Creating layer conv5_2
I1120 00:58:11.138494 26347 net.cpp:67] Creating Layer conv5_2
I1120 00:58:11.138497 26347 net.cpp:394] conv5_2 <- conv5_1
I1120 00:58:11.138502 26347 net.cpp:356] conv5_2 -> conv5_2
I1120 00:58:11.138509 26347 net.cpp:96] Setting up conv5_2
I1120 00:58:11.199785 26347 net.cpp:103] Top shape: 32 512 14 14 (3211264)
I1120 00:58:11.199811 26347 layer_factory.hpp:78] Creating layer relu5_2
I1120 00:58:11.199820 26347 net.cpp:67] Creating Layer relu5_2
I1120 00:58:11.199823 26347 net.cpp:394] relu5_2 <- conv5_2
I1120 00:58:11.199831 26347 net.cpp:345] relu5_2 -> conv5_2 (in-place)
I1120 00:58:11.199837 26347 net.cpp:96] Setting up relu5_2
I1120 00:58:11.199843 26347 net.cpp:103] Top shape: 32 512 14 14 (3211264)
I1120 00:58:11.199846 26347 layer_factory.hpp:78] Creating layer conv5_3
I1120 00:58:11.199852 26347 net.cpp:67] Creating Layer conv5_3
I1120 00:58:11.199856 26347 net.cpp:394] conv5_3 <- conv5_2
I1120 00:58:11.199861 26347 net.cpp:356] conv5_3 -> conv5_3
I1120 00:58:11.199867 26347 net.cpp:96] Setting up conv5_3
I1120 00:58:11.261428 26347 net.cpp:103] Top shape: 32 512 14 14 (3211264)
I1120 00:58:11.261453 26347 layer_factory.hpp:78] Creating layer relu5_3
I1120 00:58:11.261461 26347 net.cpp:67] Creating Layer relu5_3
I1120 00:58:11.261466 26347 net.cpp:394] relu5_3 <- conv5_3
I1120 00:58:11.261471 26347 net.cpp:345] relu5_3 -> conv5_3 (in-place)
I1120 00:58:11.261477 26347 net.cpp:96] Setting up relu5_3
I1120 00:58:11.261492 26347 net.cpp:103] Top shape: 32 512 14 14 (3211264)
I1120 00:58:11.261497 26347 layer_factory.hpp:78] Creating layer pool5
I1120 00:58:11.261502 26347 net.cpp:67] Creating Layer pool5
I1120 00:58:11.261504 26347 net.cpp:394] pool5 <- conv5_3
I1120 00:58:11.261510 26347 net.cpp:356] pool5 -> pool5
I1120 00:58:11.261517 26347 net.cpp:96] Setting up pool5
I1120 00:58:11.261523 26347 net.cpp:103] Top shape: 32 512 7 7 (802816)
I1120 00:58:11.261528 26347 layer_factory.hpp:78] Creating layer fc6
I1120 00:58:11.261543 26347 net.cpp:67] Creating Layer fc6
I1120 00:58:11.261545 26347 net.cpp:394] fc6 <- pool5
I1120 00:58:11.261550 26347 net.cpp:356] fc6 -> fc6
I1120 00:58:11.261556 26347 net.cpp:96] Setting up fc6
I1120 00:58:13.916283 26347 net.cpp:103] Top shape: 32 4096 1 1 (131072)
I1120 00:58:13.916312 26347 layer_factory.hpp:78] Creating layer relu6
I1120 00:58:13.916321 26347 net.cpp:67] Creating Layer relu6
I1120 00:58:13.916326 26347 net.cpp:394] relu6 <- fc6
I1120 00:58:13.916332 26347 net.cpp:345] relu6 -> fc6 (in-place)
I1120 00:58:13.916339 26347 net.cpp:96] Setting up relu6
I1120 00:58:13.916353 26347 net.cpp:103] Top shape: 32 4096 1 1 (131072)
I1120 00:58:13.916357 26347 layer_factory.hpp:78] Creating layer drop6
I1120 00:58:13.916363 26347 net.cpp:67] Creating Layer drop6
I1120 00:58:13.916367 26347 net.cpp:394] drop6 <- fc6
I1120 00:58:13.916373 26347 net.cpp:345] drop6 -> fc6 (in-place)
I1120 00:58:13.916376 26347 net.cpp:96] Setting up drop6
I1120 00:58:13.916380 26347 net.cpp:103] Top shape: 32 4096 1 1 (131072)
I1120 00:58:13.916383 26347 layer_factory.hpp:78] Creating layer fc7
I1120 00:58:13.916388 26347 net.cpp:67] Creating Layer fc7
I1120 00:58:13.916390 26347 net.cpp:394] fc7 <- fc6
I1120 00:58:13.916395 26347 net.cpp:356] fc7 -> fc7
I1120 00:58:13.916401 26347 net.cpp:96] Setting up fc7
I1120 00:58:14.350574 26347 net.cpp:103] Top shape: 32 4096 1 1 (131072)
I1120 00:58:14.350601 26347 layer_factory.hpp:78] Creating layer relu7
I1120 00:58:14.350608 26347 net.cpp:67] Creating Layer relu7
I1120 00:58:14.350612 26347 net.cpp:394] relu7 <- fc7
I1120 00:58:14.350620 26347 net.cpp:345] relu7 -> fc7 (in-place)
I1120 00:58:14.350625 26347 net.cpp:96] Setting up relu7
I1120 00:58:14.350639 26347 net.cpp:103] Top shape: 32 4096 1 1 (131072)
I1120 00:58:14.350642 26347 layer_factory.hpp:78] Creating layer drop7
I1120 00:58:14.350648 26347 net.cpp:67] Creating Layer drop7
I1120 00:58:14.350652 26347 net.cpp:394] drop7 <- fc7
I1120 00:58:14.350656 26347 net.cpp:345] drop7 -> fc7 (in-place)
I1120 00:58:14.350661 26347 net.cpp:96] Setting up drop7
I1120 00:58:14.350664 26347 net.cpp:103] Top shape: 32 4096 1 1 (131072)
I1120 00:58:14.350667 26347 layer_factory.hpp:78] Creating layer fc8_2
I1120 00:58:14.350674 26347 net.cpp:67] Creating Layer fc8_2
I1120 00:58:14.350677 26347 net.cpp:394] fc8_2 <- fc7
I1120 00:58:14.350682 26347 net.cpp:356] fc8_2 -> fc8_2
I1120 00:58:14.350687 26347 net.cpp:96] Setting up fc8_2
I1120 00:58:14.350915 26347 net.cpp:103] Top shape: 32 2 1 1 (64)
I1120 00:58:14.350924 26347 layer_factory.hpp:78] Creating layer loss
I1120 00:58:14.350929 26347 net.cpp:67] Creating Layer loss
I1120 00:58:14.350934 26347 net.cpp:394] loss <- fc8_2
I1120 00:58:14.350936 26347 net.cpp:394] loss <- label
I1120 00:58:14.350946 26347 net.cpp:356] loss -> (automatic)
I1120 00:58:14.350952 26347 net.cpp:96] Setting up loss
I1120 00:58:14.350961 26347 net.cpp:103] Top shape: 1 1 1 1 (1)
I1120 00:58:14.350965 26347 net.cpp:109]     with loss weight 1
I1120 00:58:14.350994 26347 net.cpp:170] loss needs backward computation.
I1120 00:58:14.350997 26347 net.cpp:170] fc8_2 needs backward computation.
I1120 00:58:14.351001 26347 net.cpp:170] drop7 needs backward computation.
I1120 00:58:14.351003 26347 net.cpp:170] relu7 needs backward computation.
I1120 00:58:14.351006 26347 net.cpp:170] fc7 needs backward computation.
…
I1120 00:58:14.351974 26347 net.cpp:275] The NetState phase (1) differed from the phase (0) specified by a rule in layer data
I1120 00:58:14.352180 26347 net.cpp:39] Initializing net from parameters: 
name: "small"
layers {
  top: "data"
  top: "label"
  name: "data"
  type: IMAGE_DATA
  image_data_param {
    source: "/data/ad6813/devCaffe/caffe/data/scrape_blue/val.txt"
    batch_size: 8
    new_height: 256
    new_width: 256
  }
  include {
    phase: TEST
  }
  transform_param {
    mirror: true
    crop_size: 224
    mean_value: 86.752
    mean_value: 101.46
    mean_value: 104.6
  }
}
layers {
  bottom: "data"
  top: "conv1_1"
  name: "conv1_1"
  type: CONVOLUTION
  convolution_param {
    num_output: 64
    pad: 1
    kernel_size: 3
    weight_filler {
      type: "gaussian"
      std: 0.01
    }
    bias_filler {
      type: "constant"
      value: 0
    }
  }
}
layers {
  bottom: "conv1_1"
  top: "conv1_1"
  name: "relu1_1"
  type: RELU
}
layers {
  bottom: "conv1_1"
  top: "conv1_2"
  name: "conv1_2"
  type: CONVOLUTION
  convolution_param {
    num_output: 64
    pad: 1
    kernel_size: 3
    weight_filler {
      type: "gaussian"
      std: 0.01
    }
    bias_filler {
      type: "constant"
      value: 0
    }
  }
}
layers {
  bottom: "conv1_2"
  top: "conv1_2"
  name: "relu1_2"
  type: RELU
}
layers {
  bottom: "conv1_2"
  top: "pool1"
  name: "pool1"
  type: POOLING
  pooling_param {
    pool: MAX
    kernel_size: 2
    stride: 2
  }
}
layers {
  bottom: "pool1"
  top: "conv2_1"
  name: "conv2_1"
  type: CONVOLUTION
  convolution_param {
    num_output: 128
    pad: 1
    kernel_size: 3
    weight_filler {
      type: "gaussian"
      std: 0.01
    }
    bias_filler {
      type: "constant"
      value: 0
    }
  }
}
layers {
  bottom: "conv2_1"
  top: "conv2_1"
  name: "relu2_1"
  type: RELU
}
layers {
  bottom: "conv2_1"
  top: "conv2_2"
  name: "conv2_2"
  type: CONVOLUTION
  convolution_param {
    num_output: 128
    pad: 1
    kernel_size: 3
    weight_filler {
      type: "gaussian"
      std: 0.01
    }
    bias_filler {
      type: "constant"
      value: 0
    }
  }
}
layers {
  bottom: "conv2_2"
  top: "conv2_2"
  name: "relu2_2"
  type: RELU
}
layers {
  bottom: "conv2_2"
  top: "pool2"
  name: "pool2"
  type: POOLING
  pooling_param {
    pool: MAX
    kernel_size: 2
    stride: 2
  }
}
layers {
  bottom: "pool2"
  top: "conv3_1"
  name: "conv3_1"
  type: CONVOLUTION
  convolution_param {
    num_output: 256
    pad: 1
    kernel_size: 3
    weight_filler {
      type: "gaussian"
      std: 0.01
    }
    bias_filler {
      type: "constant"
      value: 0
    }
  }
}
layers {
  bottom: "conv3_1"
  top: "conv3_1"
  name: "relu3_1"
  type: RELU
}
layers {
  bottom: "conv3_1"
  top: "conv3_2"
  name: "conv3_2"
  type: CONVOLUTION
  convolution_param {
    num_output: 256
    pad: 1
    kernel_size: 3
    weight_filler {
      type: "gaussian"
      std: 0.01
    }
    bias_filler {
      type: "constant"
      value: 0
    }
  }
}
layers {
  bottom: "conv3_2"
  top: "conv3_2"
  name: "relu3_2"
  type: RELU
}
layers {
  bottom: "conv3_2"
  top: "conv3_3"
  name: "conv3_3"
  type: CONVOLUTION
  convolution_param {
    num_output: 256
    pad: 1
    kernel_size: 3
    weight_filler {
      type: "gaussian"
      std: 0.01
    }
    bias_filler {
      type: "constant"
      value: 0
    }
  }
}
layers {
  bottom: "conv3_3"
  top: "conv3_3"
  name: "relu3_3"
  type: RELU
}
layers {
  bottom: "conv3_3"
  top: "pool3"
  name: "pool3"
  type: POOLING
  pooling_param {
    pool: MAX
    kernel_size: 2
    stride: 2
  }
}
layers {
  bottom: "pool3"
  top: "conv4_1"
  name: "conv4_1"
  type: CONVOLUTION
  convolution_param {
    num_output: 512
    pad: 1
    kernel_size: 3
    weight_filler {
      type: "gaussian"
      std: 0.01
    }
    bias_filler {
      type: "constant"
      value: 0
    }
  }
}
layers {
  bottom: "conv4_1"
  top: "conv4_1"
  name: "relu4_1"
  type: RELU
}
layers {
  bottom: "conv4_1"
  top: "conv4_2"
  name: "conv4_2"
  type: CONVOLUTION
  convolution_param {
    num_output: 512
    pad: 1
    kernel_size: 3
    weight_filler {
      type: "gaussian"
      std: 0.01
    }
    bias_filler {
      type: "constant"
      value: 0
    }
  }
}
layers {
  bottom: "conv4_2"
  top: "conv4_2"
  name: "relu4_2"
  type: RELU
}
layers {
  bottom: "conv4_2"
  top: "conv4_3"
  name: "conv4_3"
  type: CONVOLUTION
  convolution_param {
    num_output: 512
    pad: 1
    kernel_size: 3
    weight_filler {
      type: "gaussian"
      std: 0.01
    }
    bias_filler {
      type: "constant"
      value: 0
    }
  }
}
layers {
  bottom: "conv4_3"
  top: "conv4_3"
  name: "relu4_3"
  type: RELU
}
layers {
  bottom: "conv4_3"
  top: "pool4"
  name: "pool4"
  type: POOLING
  pooling_param {
    pool: MAX
    kernel_size: 2
    stride: 2
  }
}
layers {
  bottom: "pool4"
  top: "conv5_1"
  name: "conv5_1"
  type: CONVOLUTION
  convolution_param {
    num_output: 512
    pad: 1
    kernel_size: 3
    weight_filler {
      type: "gaussian"
      std: 0.01
    }
    bias_filler {
      type: "constant"
      value: 0
    }
  }
}
layers {
  bottom: "conv5_1"
  top: "conv5_1"
  name: "relu5_1"
  type: RELU
}
layers {
  bottom: "conv5_1"
  top: "conv5_2"
  name: "conv5_2"
  type: CONVOLUTION
  convolution_param {
    num_output: 512
    pad: 1
    kernel_size: 3
    weight_filler {
      type: "gaussian"
      std: 0.01
    }
    bias_filler {
      type: "constant"
      value: 0
    }
  }
}
layers {
  bottom: "conv5_2"
  top: "conv5_2"
  name: "relu5_2"
  type: RELU
}
layers {
  bottom: "conv5_2"
  top: "conv5_3"
  name: "conv5_3"
  type: CONVOLUTION
  convolution_param {
    num_output: 512
    pad: 1
    kernel_size: 3
    weight_filler {
      type: "gaussian"
      std: 0.01
    }
    bias_filler {
      type: "constant"
      value: 0
    }
  }
}
layers {
  bottom: "conv5_3"
  top: "conv5_3"
  name: "relu5_3"
  type: RELU
}
layers {
  bottom: "conv5_3"
  top: "pool5"
  name: "pool5"
  type: POOLING
  pooling_param {
    pool: MAX
    kernel_size: 2
    stride: 2
  }
}
layers {
  bottom: "pool5"
  top: "fc6"
  name: "fc6"
  type: INNER_PRODUCT
  inner_product_param {
    num_output: 4096
    weight_filler {
      type: "gaussian"
      std: 0.01
    }
    bias_filler {
      type: "constant"
      value: 0
    }
  }
}
layers {
  bottom: "fc6"
  top: "fc6"
  name: "relu6"
  type: RELU
}
layers {
  bottom: "fc6"
  top: "fc6"
  name: "drop6"
  type: DROPOUT
  dropout_param {
    dropout_ratio: 0.5
  }
}
layers {
  bottom: "fc6"
  top: "fc7"
  name: "fc7"
  type: INNER_PRODUCT
  inner_product_param {
    num_output: 4096
    weight_filler {
      type: "gaussian"
      std: 0.01
    }
    bias_filler {
      type: "constant"
      value: 0
    }
  }
}
layers {
  bottom: "fc7"
  top: "fc7"
  name: "relu7"
  type: RELU
}
layers {
  bottom: "fc7"
  top: "fc7"
  name: "drop7"
  type: DROPOUT
  dropout_param {
    dropout_ratio: 0.5
  }
}
layers {
  bottom: "fc7"
  top: "fc8_2"
  name: "fc8_2"
  type: INNER_PRODUCT
  inner_product_param {
    num_output: 2
    weight_filler {
      type: "gaussian"
      std: 0.01
    }
    bias_filler {
      type: "constant"
      value: 0
    }
  }
}
layers {
  bottom: "fc8_2"
  bottom: "label"
  name: "loss"
  type: SOFTMAX_LOSS
}
layers {
  bottom: "fc8_2"
  bottom: "label"
  top: "accuracy"
  name: "accuracy"
  type: PER_CLASS_ACCURACY
  include {
    phase: TEST
  }
}
state {
  phase: TEST
}
I1120 00:58:14.352313 26347 layer_factory.hpp:78] Creating layer data
I1120 00:58:14.352322 26347 net.cpp:67] Creating Layer data
I1120 00:58:14.352326 26347 net.cpp:356] data -> data
I1120 00:58:14.352334 26347 net.cpp:356] data -> label
I1120 00:58:14.352339 26347 net.cpp:96] Setting up data
I1120 00:58:14.352344 26347 image_data_layer.cpp:34] Opening file /data/ad6813/devCaffe/caffe/data/scrape_blue/val.txt
I1120 00:58:14.353708 26347 image_data_layer.cpp:49] A total of 3963 images.
I1120 00:58:14.360786 26347 image_data_layer.cpp:78] output data size: 8,3,224,224
I1120 00:58:14.361443 26347 net.cpp:103] Top shape: 8 3 224 224 (1204224)
I1120 00:58:14.361452 26347 net.cpp:103] Top shape: 8 1 1 1 (8)
I1120 00:58:14.361456 26347 layer_factory.hpp:78] Creating layer label_data_1_split
I1120 00:58:14.361469 26347 net.cpp:67] Creating Layer label_data_1_split
I1120 00:58:14.361474 26347 net.cpp:394] label_data_1_split <- label
I1120 00:58:14.361479 26347 net.cpp:356] label_data_1_split -> label_data_1_split_0
I1120 00:58:14.361487 26347 net.cpp:356] label_data_1_split -> label_data_1_split_1
I1120 00:58:14.361492 26347 net.cpp:96] Setting up label_data_1_split
I1120 00:58:14.361497 26347 net.cpp:103] Top shape: 8 1 1 1 (8)
I1120 00:58:14.361500 26347 net.cpp:103] Top shape: 8 1 1 1 (8)
I1120 00:58:14.361503 26347 layer_factory.hpp:78] Creating layer conv1_1
I1120 00:58:14.361510 26347 net.cpp:67] Creating Layer conv1_1
I1120 00:58:14.361512 26347 net.cpp:394] conv1_1 <- data
I1120 00:58:14.361516 26347 net.cpp:356] conv1_1 -> conv1_1
I1120 00:58:14.361522 26347 net.cpp:96] Setting up conv1_1
I1120 00:58:14.361680 26347 net.cpp:103] Top shape: 8 64 224 224 (25690112)
I1120 00:58:14.361693 26347 layer_factory.hpp:78] Creating layer relu1_1
I1120 00:58:14.361701 26347 net.cpp:67] Creating Layer relu1_1
I1120 00:58:14.361704 26347 net.cpp:394] relu1_1 <- conv1_1
I1120 00:58:14.361709 26347 net.cpp:345] relu1_1 -> conv1_1 (in-place)
I1120 00:58:14.361721 26347 net.cpp:96] Setting up relu1_1
I1120 00:58:14.361726 26347 net.cpp:103] Top shape: 8 64 224 224 (25690112)
I1120 00:58:14.361731 26347 layer_factory.hpp:78] Creating layer conv1_2
I1120 00:58:14.361735 26347 net.cpp:67] Creating Layer conv1_2
I1120 00:58:14.361738 26347 net.cpp:394] conv1_2 <- conv1_1
I1120 00:58:14.361742 26347 net.cpp:356] conv1_2 -> conv1_2
I1120 00:58:14.361747 26347 net.cpp:96] Setting up conv1_2
I1120 00:58:14.362769 26347 net.cpp:103] Top shape: 8 64 224 224 (25690112)
I1120 00:58:14.362782 26347 layer_factory.hpp:78] Creating layer relu1_2
I1120 00:58:14.362787 26347 net.cpp:67] Creating Layer relu1_2
I1120 00:58:14.362789 26347 net.cpp:394] relu1_2 <- conv1_2
I1120 00:58:14.362794 26347 net.cpp:345] relu1_2 -> conv1_2 (in-place)
I1120 00:58:14.362798 26347 net.cpp:96] Setting up relu1_2
I1120 00:58:14.362803 26347 net.cpp:103] Top shape: 8 64 224 224 (25690112)
I1120 00:58:14.362807 26347 layer_factory.hpp:78] Creating layer pool1
I1120 00:58:14.362812 26347 net.cpp:67] Creating Layer pool1
I1120 00:58:14.362814 26347 net.cpp:394] pool1 <- conv1_2
I1120 00:58:14.362818 26347 net.cpp:356] pool1 -> pool1
I1120 00:58:14.362823 26347 net.cpp:96] Setting up pool1
I1120 00:58:14.362830 26347 net.cpp:103] Top shape: 8 64 112 112 (6422528)
I1120 00:58:14.362833 26347 layer_factory.hpp:78] Creating layer conv2_1
I1120 00:58:14.362838 26347 net.cpp:67] Creating Layer conv2_1
I1120 00:58:14.362841 26347 net.cpp:394] conv2_1 <- pool1
I1120 00:58:14.362845 26347 net.cpp:356] conv2_1 -> conv2_1
I1120 00:58:14.362850 26347 net.cpp:96] Setting up conv2_1
I1120 00:58:14.364960 26347 net.cpp:103] Top shape: 8 128 112 112 (12845056)
I1120 00:58:14.364974 26347 layer_factory.hpp:78] Creating layer relu2_1
I1120 00:58:14.364980 26347 net.cpp:67] Creating Layer relu2_1
I1120 00:58:14.364984 26347 net.cpp:394] relu2_1 <- conv2_1
I1120 00:58:14.364987 26347 net.cpp:345] relu2_1 -> conv2_1 (in-place)
I1120 00:58:14.364992 26347 net.cpp:96] Setting up relu2_1
I1120 00:58:14.364997 26347 net.cpp:103] Top shape: 8 128 112 112 (12845056)
I1120 00:58:14.365000 26347 layer_factory.hpp:78] Creating layer conv2_2
I1120 00:58:14.365005 26347 net.cpp:67] Creating Layer conv2_2
I1120 00:58:14.365008 26347 net.cpp:394] conv2_2 <- conv2_1
I1120 00:58:14.365013 26347 net.cpp:356] conv2_2 -> conv2_2
I1120 00:58:14.365018 26347 net.cpp:96] Setting up conv2_2
I1120 00:58:14.368876 26347 net.cpp:103] Top shape: 8 128 112 112 (12845056)
I1120 00:58:14.368886 26347 layer_factory.hpp:78] Creating layer relu2_2
I1120 00:58:14.368891 26347 net.cpp:67] Creating Layer relu2_2
I1120 00:58:14.368895 26347 net.cpp:394] relu2_2 <- conv2_2
I1120 00:58:14.368899 26347 net.cpp:345] relu2_2 -> conv2_2 (in-place)
I1120 00:58:14.368904 26347 net.cpp:96] Setting up relu2_2
I1120 00:58:14.368909 26347 net.cpp:103] Top shape: 8 128 112 112 (12845056)
I1120 00:58:14.368912 26347 layer_factory.hpp:78] Creating layer pool2
I1120 00:58:14.368916 26347 net.cpp:67] Creating Layer pool2
I1120 00:58:14.368919 26347 net.cpp:394] pool2 <- conv2_2
I1120 00:58:14.368923 26347 net.cpp:356] pool2 -> pool2
I1120 00:58:14.368928 26347 net.cpp:96] Setting up pool2
I1120 00:58:14.368933 26347 net.cpp:103] Top shape: 8 128 56 56 (3211264)
I1120 00:58:14.368937 26347 layer_factory.hpp:78] Creating layer conv3_1
I1120 00:58:14.368942 26347 net.cpp:67] Creating Layer conv3_1
I1120 00:58:14.368945 26347 net.cpp:394] conv3_1 <- pool2
I1120 00:58:14.368949 26347 net.cpp:356] conv3_1 -> conv3_1
I1120 00:58:14.368954 26347 net.cpp:96] Setting up conv3_1
I1120 00:58:14.376633 26347 net.cpp:103] Top shape: 8 256 56 56 (6422528)
I1120 00:58:14.376649 26347 layer_factory.hpp:78] Creating layer relu3_1
I1120 00:58:14.376655 26347 net.cpp:67] Creating Layer relu3_1
I1120 00:58:14.376658 26347 net.cpp:394] relu3_1 <- conv3_1
I1120 00:58:14.376663 26347 net.cpp:345] relu3_1 -> conv3_1 (in-place)
I1120 00:58:14.376668 26347 net.cpp:96] Setting up relu3_1
I1120 00:58:14.376673 26347 net.cpp:103] Top shape: 8 256 56 56 (6422528)
I1120 00:58:14.376677 26347 layer_factory.hpp:78] Creating layer conv3_2
I1120 00:58:14.376690 26347 net.cpp:67] Creating Layer conv3_2
I1120 00:58:14.376693 26347 net.cpp:394] conv3_2 <- conv3_1
I1120 00:58:14.376698 26347 net.cpp:356] conv3_2 -> conv3_2
I1120 00:58:14.376703 26347 net.cpp:96] Setting up conv3_2
I1120 00:58:14.392334 26347 net.cpp:103] Top shape: 8 256 56 56 (6422528)
I1120 00:58:14.392354 26347 layer_factory.hpp:78] Creating layer relu3_2
I1120 00:58:14.392362 26347 net.cpp:67] Creating Layer relu3_2
I1120 00:58:14.392366 26347 net.cpp:394] relu3_2 <- conv3_2
I1120 00:58:14.392372 26347 net.cpp:345] relu3_2 -> conv3_2 (in-place)
I1120 00:58:14.392379 26347 net.cpp:96] Setting up relu3_2
I1120 00:58:14.392384 26347 net.cpp:103] Top shape: 8 256 56 56 (6422528)
I1120 00:58:14.392387 26347 layer_factory.hpp:78] Creating layer conv3_3
I1120 00:58:14.392396 26347 net.cpp:67] Creating Layer conv3_3
I1120 00:58:14.392400 26347 net.cpp:394] conv3_3 <- conv3_2
I1120 00:58:14.392406 26347 net.cpp:356] conv3_3 -> conv3_3
I1120 00:58:14.392411 26347 net.cpp:96] Setting up conv3_3
I1120 00:58:14.408085 26347 net.cpp:103] Top shape: 8 256 56 56 (6422528)
I1120 00:58:14.408107 26347 layer_factory.hpp:78] Creating layer relu3_3
I1120 00:58:14.408115 26347 net.cpp:67] Creating Layer relu3_3
I1120 00:58:14.408119 26347 net.cpp:394] relu3_3 <- conv3_3
I1120 00:58:14.408128 26347 net.cpp:345] relu3_3 -> conv3_3 (in-place)
I1120 00:58:14.408134 26347 net.cpp:96] Setting up relu3_3
I1120 00:58:14.408140 26347 net.cpp:103] Top shape: 8 256 56 56 (6422528)
I1120 00:58:14.408143 26347 layer_factory.hpp:78] Creating layer pool3
I1120 00:58:14.408149 26347 net.cpp:67] Creating Layer pool3
I1120 00:58:14.408151 26347 net.cpp:394] pool3 <- conv3_3
I1120 00:58:14.408156 26347 net.cpp:356] pool3 -> pool3
I1120 00:58:14.408161 26347 net.cpp:96] Setting up pool3
I1120 00:58:14.408169 26347 net.cpp:103] Top shape: 8 256 28 28 (1605632)
I1120 00:58:14.408172 26347 layer_factory.hpp:78] Creating layer conv4_1
I1120 00:58:14.408179 26347 net.cpp:67] Creating Layer conv4_1
I1120 00:58:14.408182 26347 net.cpp:394] conv4_1 <- pool3
I1120 00:58:14.408186 26347 net.cpp:356] conv4_1 -> conv4_1
I1120 00:58:14.408191 26347 net.cpp:96] Setting up conv4_1
I1120 00:58:14.439285 26347 net.cpp:103] Top shape: 8 512 28 28 (3211264)
I1120 00:58:14.439306 26347 layer_factory.hpp:78] Creating layer relu4_1
I1120 00:58:14.439313 26347 net.cpp:67] Creating Layer relu4_1
I1120 00:58:14.439317 26347 net.cpp:394] relu4_1 <- conv4_1
I1120 00:58:14.439326 26347 net.cpp:345] relu4_1 -> conv4_1 (in-place)
I1120 00:58:14.439332 26347 net.cpp:96] Setting up relu4_1
I1120 00:58:14.439337 26347 net.cpp:103] Top shape: 8 512 28 28 (3211264)
I1120 00:58:14.439342 26347 layer_factory.hpp:78] Creating layer conv4_2
I1120 00:58:14.439347 26347 net.cpp:67] Creating Layer conv4_2
I1120 00:58:14.439349 26347 net.cpp:394] conv4_2 <- conv4_1
I1120 00:58:14.439354 26347 net.cpp:356] conv4_2 -> conv4_2
I1120 00:58:14.439360 26347 net.cpp:96] Setting up conv4_2
I1120 00:58:14.500885 26347 net.cpp:103] Top shape: 8 512 28 28 (3211264)
I1120 00:58:14.500916 26347 layer_factory.hpp:78] Creating layer relu4_2
I1120 00:58:14.500922 26347 net.cpp:67] Creating Layer relu4_2
I1120 00:58:14.500926 26347 net.cpp:394] relu4_2 <- conv4_2
I1120 00:58:14.500933 26347 net.cpp:345] relu4_2 -> conv4_2 (in-place)
I1120 00:58:14.500939 26347 net.cpp:96] Setting up relu4_2
I1120 00:58:14.500946 26347 net.cpp:103] Top shape: 8 512 28 28 (3211264)
I1120 00:58:14.500948 26347 layer_factory.hpp:78] Creating layer conv4_3
I1120 00:58:14.500957 26347 net.cpp:67] Creating Layer conv4_3
I1120 00:58:14.500959 26347 net.cpp:394] conv4_3 <- conv4_2
I1120 00:58:14.500963 26347 net.cpp:356] conv4_3 -> conv4_3
I1120 00:58:14.500970 26347 net.cpp:96] Setting up conv4_3
I1120 00:58:14.562271 26347 net.cpp:103] Top shape: 8 512 28 28 (3211264)
I1120 00:58:14.562296 26347 layer_factory.hpp:78] Creating layer relu4_3
I1120 00:58:14.562304 26347 net.cpp:67] Creating Layer relu4_3
I1120 00:58:14.562309 26347 net.cpp:394] relu4_3 <- conv4_3
I1120 00:58:14.562324 26347 net.cpp:345] relu4_3 -> conv4_3 (in-place)
I1120 00:58:14.562330 26347 net.cpp:96] Setting up relu4_3
I1120 00:58:14.562335 26347 net.cpp:103] Top shape: 8 512 28 28 (3211264)
I1120 00:58:14.562338 26347 layer_factory.hpp:78] Creating layer pool4
I1120 00:58:14.562345 26347 net.cpp:67] Creating Layer pool4
I1120 00:58:14.562347 26347 net.cpp:394] pool4 <- conv4_3
I1120 00:58:14.562353 26347 net.cpp:356] pool4 -> pool4
I1120 00:58:14.562358 26347 net.cpp:96] Setting up pool4
I1120 00:58:14.562366 26347 net.cpp:103] Top shape: 8 512 14 14 (802816)
I1120 00:58:14.562369 26347 layer_factory.hpp:78] Creating layer conv5_1
I1120 00:58:14.562377 26347 net.cpp:67] Creating Layer conv5_1
I1120 00:58:14.562381 26347 net.cpp:394] conv5_1 <- pool4
I1120 00:58:14.562386 26347 net.cpp:356] conv5_1 -> conv5_1
I1120 00:58:14.562391 26347 net.cpp:96] Setting up conv5_1
I1120 00:58:14.623955 26347 net.cpp:103] Top shape: 8 512 14 14 (802816)
I1120 00:58:14.623980 26347 layer_factory.hpp:78] Creating layer relu5_1
I1120 00:58:14.623986 26347 net.cpp:67] Creating Layer relu5_1
I1120 00:58:14.623991 26347 net.cpp:394] relu5_1 <- conv5_1
I1120 00:58:14.623996 26347 net.cpp:345] relu5_1 -> conv5_1 (in-place)
I1120 00:58:14.624002 26347 net.cpp:96] Setting up relu5_1
I1120 00:58:14.624007 26347 net.cpp:103] Top shape: 8 512 14 14 (802816)
I1120 00:58:14.624011 26347 layer_factory.hpp:78] Creating layer conv5_2
I1120 00:58:14.624022 26347 net.cpp:67] Creating Layer conv5_2
I1120 00:58:14.624025 26347 net.cpp:394] conv5_2 <- conv5_1
I1120 00:58:14.624030 26347 net.cpp:356] conv5_2 -> conv5_2
I1120 00:58:14.624037 26347 net.cpp:96] Setting up conv5_2
I1120 00:58:14.685322 26347 net.cpp:103] Top shape: 8 512 14 14 (802816)
I1120 00:58:14.685346 26347 layer_factory.hpp:78] Creating layer relu5_2
I1120 00:58:14.685355 26347 net.cpp:67] Creating Layer relu5_2
I1120 00:58:14.685359 26347 net.cpp:394] relu5_2 <- conv5_2
I1120 00:58:14.685365 26347 net.cpp:345] relu5_2 -> conv5_2 (in-place)
I1120 00:58:14.685371 26347 net.cpp:96] Setting up relu5_2
I1120 00:58:14.685377 26347 net.cpp:103] Top shape: 8 512 14 14 (802816)
I1120 00:58:14.685380 26347 layer_factory.hpp:78] Creating layer conv5_3
I1120 00:58:14.685387 26347 net.cpp:67] Creating Layer conv5_3
I1120 00:58:14.685390 26347 net.cpp:394] conv5_3 <- conv5_2
I1120 00:58:14.685395 26347 net.cpp:356] conv5_3 -> conv5_3
I1120 00:58:14.685400 26347 net.cpp:96] Setting up conv5_3
I1120 00:58:14.747099 26347 net.cpp:103] Top shape: 8 512 14 14 (802816)
I1120 00:58:14.747125 26347 layer_factory.hpp:78] Creating layer relu5_3
I1120 00:58:14.747134 26347 net.cpp:67] Creating Layer relu5_3
I1120 00:58:14.747139 26347 net.cpp:394] relu5_3 <- conv5_3
I1120 00:58:14.747146 26347 net.cpp:345] relu5_3 -> conv5_3 (in-place)
I1120 00:58:14.747153 26347 net.cpp:96] Setting up relu5_3
I1120 00:58:14.747159 26347 net.cpp:103] Top shape: 8 512 14 14 (802816)
I1120 00:58:14.747161 26347 layer_factory.hpp:78] Creating layer pool5
I1120 00:58:14.747171 26347 net.cpp:67] Creating Layer pool5
I1120 00:58:14.747174 26347 net.cpp:394] pool5 <- conv5_3
I1120 00:58:14.747179 26347 net.cpp:356] pool5 -> pool5
I1120 00:58:14.747185 26347 net.cpp:96] Setting up pool5
I1120 00:58:14.747192 26347 net.cpp:103] Top shape: 8 512 7 7 (200704)
I1120 00:58:14.747196 26347 layer_factory.hpp:78] Creating layer fc6
I1120 00:58:14.747203 26347 net.cpp:67] Creating Layer fc6
I1120 00:58:14.747206 26347 net.cpp:394] fc6 <- pool5
I1120 00:58:14.747211 26347 net.cpp:356] fc6 -> fc6
I1120 00:58:14.747216 26347 net.cpp:96] Setting up fc6
I1120 00:58:17.406747 26347 net.cpp:103] Top shape: 8 4096 1 1 (32768)
I1120 00:58:17.406780 26347 layer_factory.hpp:78] Creating layer relu6
I1120 00:58:17.406787 26347 net.cpp:67] Creating Layer relu6
I1120 00:58:17.406792 26347 net.cpp:394] relu6 <- fc6
I1120 00:58:17.406800 26347 net.cpp:345] relu6 -> fc6 (in-place)
I1120 00:58:17.406806 26347 net.cpp:96] Setting up relu6
I1120 00:58:17.406819 26347 net.cpp:103] Top shape: 8 4096 1 1 (32768)
I1120 00:58:17.406823 26347 layer_factory.hpp:78] Creating layer drop6
I1120 00:58:17.406839 26347 net.cpp:67] Creating Layer drop6
I1120 00:58:17.406842 26347 net.cpp:394] drop6 <- fc6
I1120 00:58:17.406848 26347 net.cpp:345] drop6 -> fc6 (in-place)
I1120 00:58:17.406852 26347 net.cpp:96] Setting up drop6
I1120 00:58:17.406857 26347 net.cpp:103] Top shape: 8 4096 1 1 (32768)
I1120 00:58:17.406859 26347 layer_factory.hpp:78] Creating layer fc7
I1120 00:58:17.406865 26347 net.cpp:67] Creating Layer fc7
I1120 00:58:17.406868 26347 net.cpp:394] fc7 <- fc6
I1120 00:58:17.406872 26347 net.cpp:356] fc7 -> fc7
I1120 00:58:17.406878 26347 net.cpp:96] Setting up fc7
I1120 00:58:17.841305 26347 net.cpp:103] Top shape: 8 4096 1 1 (32768)
I1120 00:58:17.841332 26347 layer_factory.hpp:78] Creating layer relu7
I1120 00:58:17.841339 26347 net.cpp:67] Creating Layer relu7
I1120 00:58:17.841344 26347 net.cpp:394] relu7 <- fc7
I1120 00:58:17.841351 26347 net.cpp:345] relu7 -> fc7 (in-place)
I1120 00:58:17.841357 26347 net.cpp:96] Setting up relu7
I1120 00:58:17.841370 26347 net.cpp:103] Top shape: 8 4096 1 1 (32768)
I1120 00:58:17.841373 26347 layer_factory.hpp:78] Creating layer drop7
I1120 00:58:17.841380 26347 net.cpp:67] Creating Layer drop7
I1120 00:58:17.841383 26347 net.cpp:394] drop7 <- fc7
I1120 00:58:17.841387 26347 net.cpp:345] drop7 -> fc7 (in-place)
I1120 00:58:17.841392 26347 net.cpp:96] Setting up drop7
I1120 00:58:17.841397 26347 net.cpp:103] Top shape: 8 4096 1 1 (32768)
I1120 00:58:17.841398 26347 layer_factory.hpp:78] Creating layer fc8_2
I1120 00:58:17.841405 26347 net.cpp:67] Creating Layer fc8_2
I1120 00:58:17.841408 26347 net.cpp:394] fc8_2 <- fc7
I1120 00:58:17.841413 26347 net.cpp:356] fc8_2 -> fc8_2
I1120 00:58:17.841418 26347 net.cpp:96] Setting up fc8_2
I1120 00:58:17.841642 26347 net.cpp:103] Top shape: 8 2 1 1 (16)
I1120 00:58:17.841650 26347 layer_factory.hpp:78] Creating layer fc8_2_fc8_2_0_split
I1120 00:58:17.841655 26347 net.cpp:67] Creating Layer fc8_2_fc8_2_0_split
I1120 00:58:17.841657 26347 net.cpp:394] fc8_2_fc8_2_0_split <- fc8_2
I1120 00:58:17.841663 26347 net.cpp:356] fc8_2_fc8_2_0_split -> fc8_2_fc8_2_0_split_0
I1120 00:58:17.841670 26347 net.cpp:356] fc8_2_fc8_2_0_split -> fc8_2_fc8_2_0_split_1
I1120 00:58:17.841675 26347 net.cpp:96] Setting up fc8_2_fc8_2_0_split
I1120 00:58:17.841682 26347 net.cpp:103] Top shape: 8 2 1 1 (16)
I1120 00:58:17.841686 26347 net.cpp:103] Top shape: 8 2 1 1 (16)
I1120 00:58:17.841688 26347 layer_factory.hpp:78] Creating layer loss
I1120 00:58:17.841694 26347 net.cpp:67] Creating Layer loss
I1120 00:58:17.841697 26347 net.cpp:394] loss <- fc8_2_fc8_2_0_split_0
I1120 00:58:17.841701 26347 net.cpp:394] loss <- label_data_1_split_0
I1120 00:58:17.841706 26347 net.cpp:356] loss -> (automatic)
I1120 00:58:17.841709 26347 net.cpp:96] Setting up loss
I1120 00:58:17.841716 26347 net.cpp:103] Top shape: 1 1 1 1 (1)
I1120 00:58:17.841722 26347 net.cpp:109]     with loss weight 1
I1120 00:58:17.841735 26347 layer_factory.hpp:78] Creating layer accuracy
I1120 00:58:17.841745 26347 net.cpp:67] Creating Layer accuracy
I1120 00:58:17.841750 26347 net.cpp:394] accuracy <- fc8_2_fc8_2_0_split_1
I1120 00:58:17.841754 26347 net.cpp:394] accuracy <- label_data_1_split_1
I1120 00:58:17.841758 26347 net.cpp:356] accuracy -> accuracy
I1120 00:58:17.841763 26347 net.cpp:96] Setting up accuracy
I1120 00:58:17.841773 26347 net.cpp:103] Top shape: 1 1 1 4 (4)
I1120 00:58:17.841775 26347 net.cpp:172] accuracy does not need backward computation.
I1120 00:58:17.841778 26347 net.cpp:170] loss needs backward computation.
I1120 00:58:17.841780 26347 net.cpp:170] fc8_2_fc8_2_0_split needs backward computation.
I1120 00:58:17.841784 26347 net.cpp:170] fc8_2 needs backward computation.
I1120 00:58:17.841786 26347 net.cpp:170] drop7 needs backward computation.
…
