…
I1110 04:48:13.872970 10490 net.cpp:275] The NetState phase (0) differed from the phase (1) specified by a rule in layer accuracy
I1110 04:48:13.873165 10490 net.cpp:39] Initializing net from parameters: 
name: "small"
layers {
  top: "data"
  top: "label"
  name: "data"
  type: IMAGE_DATA
  image_data_param {
    source: "/data/ad6813/devCaffe/caffe/data/scrape_blue/train.txt"
    batch_size: 32
    new_height: 256
    new_width: 256
  }
  include {
    phase: TRAIN
  }
  transform_param {
    mirror: true
    crop_size: 224
    mean_value: 86.752
    mean_value: 101.46
    mean_value: 104.6
  }
}
layers {
  bottom: "data"
  top: "conv1_1"
  name: "conv1_1"
  type: CONVOLUTION
  convolution_param {
    num_output: 64
    pad: 1
    kernel_size: 3
    weight_filler {
      type: "gaussian"
      std: 0.01
    }
    bias_filler {
      type: "constant"
      value: 0
    }
  }
}
layers {
  bottom: "conv1_1"
  top: "conv1_1"
  name: "relu1_1"
  type: RELU
}
layers {
  bottom: "conv1_1"
  top: "conv1_2"
  name: "conv1_2"
  type: CONVOLUTION
  convolution_param {
    num_output: 64
    pad: 1
    kernel_size: 3
    weight_filler {
      type: "gaussian"
      std: 0.01
    }
    bias_filler {
      type: "constant"
      value: 0
    }
  }
}
layers {
  bottom: "conv1_2"
  top: "conv1_2"
  name: "relu1_2"
  type: RELU
}
layers {
  bottom: "conv1_2"
  top: "pool1"
  name: "pool1"
  type: POOLING
  pooling_param {
    pool: MAX
    kernel_size: 2
    stride: 2
  }
}
layers {
  bottom: "pool1"
  top: "conv2_1"
  name: "conv2_1"
  type: CONVOLUTION
  convolution_param {
    num_output: 128
    pad: 1
    kernel_size: 3
    weight_filler {
      type: "gaussian"
      std: 0.01
    }
    bias_filler {
      type: "constant"
      value: 0
    }
  }
}
layers {
  bottom: "conv2_1"
  top: "conv2_1"
  name: "relu2_1"
  type: RELU
}
layers {
  bottom: "conv2_1"
  top: "conv2_2"
  name: "conv2_2"
  type: CONVOLUTION
  convolution_param {
    num_output: 128
    pad: 1
    kernel_size: 3
    weight_filler {
      type: "gaussian"
      std: 0.01
    }
    bias_filler {
      type: "constant"
      value: 0
    }
  }
}
layers {
  bottom: "conv2_2"
  top: "conv2_2"
  name: "relu2_2"
  type: RELU
}
layers {
  bottom: "conv2_2"
  top: "pool2"
  name: "pool2"
  type: POOLING
  pooling_param {
    pool: MAX
    kernel_size: 2
    stride: 2
  }
}
layers {
  bottom: "pool2"
  top: "conv3_1"
  name: "conv3_1"
  type: CONVOLUTION
  convolution_param {
    num_output: 256
    pad: 1
    kernel_size: 3
    weight_filler {
      type: "gaussian"
      std: 0.01
    }
    bias_filler {
      type: "constant"
      value: 0
    }
  }
}
layers {
  bottom: "conv3_1"
  top: "conv3_1"
  name: "relu3_1"
  type: RELU
}
layers {
  bottom: "conv3_1"
  top: "conv3_2"
  name: "conv3_2"
  type: CONVOLUTION
  convolution_param {
    num_output: 256
    pad: 1
    kernel_size: 3
    weight_filler {
      type: "gaussian"
      std: 0.01
    }
    bias_filler {
      type: "constant"
      value: 0
    }
  }
}
layers {
  bottom: "conv3_2"
  top: "conv3_2"
  name: "relu3_2"
  type: RELU
}
layers {
  bottom: "conv3_2"
  top: "conv3_3"
  name: "conv3_3"
  type: CONVOLUTION
  convolution_param {
    num_output: 256
    pad: 1
    kernel_size: 3
    weight_filler {
      type: "gaussian"
      std: 0.01
    }
    bias_filler {
      type: "constant"
      value: 0
    }
  }
}
layers {
  bottom: "conv3_3"
  top: "conv3_3"
  name: "relu3_3"
  type: RELU
}
layers {
  bottom: "conv3_3"
  top: "pool3"
  name: "pool3"
  type: POOLING
  pooling_param {
    pool: MAX
    kernel_size: 2
    stride: 2
  }
}
layers {
  bottom: "pool3"
  top: "conv4_1"
  name: "conv4_1"
  type: CONVOLUTION
  convolution_param {
    num_output: 512
    pad: 1
    kernel_size: 3
    weight_filler {
      type: "gaussian"
      std: 0.01
    }
    bias_filler {
      type: "constant"
      value: 0
    }
  }
}
layers {
  bottom: "conv4_1"
  top: "conv4_1"
  name: "relu4_1"
  type: RELU
}
layers {
  bottom: "conv4_1"
  top: "conv4_2"
  name: "conv4_2"
  type: CONVOLUTION
  convolution_param {
    num_output: 512
    pad: 1
    kernel_size: 3
    weight_filler {
      type: "gaussian"
      std: 0.01
    }
    bias_filler {
      type: "constant"
      value: 0
    }
  }
}
layers {
  bottom: "conv4_2"
  top: "conv4_2"
  name: "relu4_2"
  type: RELU
}
layers {
  bottom: "conv4_2"
  top: "conv4_3"
  name: "conv4_3"
  type: CONVOLUTION
  convolution_param {
    num_output: 512
    pad: 1
    kernel_size: 3
    weight_filler {
      type: "gaussian"
      std: 0.01
    }
    bias_filler {
      type: "constant"
      value: 0
    }
  }
}
layers {
  bottom: "conv4_3"
  top: "conv4_3"
  name: "relu4_3"
  type: RELU
}
layers {
  bottom: "conv4_3"
  top: "pool4"
  name: "pool4"
  type: POOLING
  pooling_param {
    pool: MAX
    kernel_size: 2
    stride: 2
  }
}
layers {
  bottom: "pool4"
  top: "conv5_1"
  name: "conv5_1"
  type: CONVOLUTION
  convolution_param {
    num_output: 512
    pad: 1
    kernel_size: 3
    weight_filler {
      type: "gaussian"
      std: 0.01
    }
    bias_filler {
      type: "constant"
      value: 0
    }
  }
}
layers {
  bottom: "conv5_1"
  top: "conv5_1"
  name: "relu5_1"
  type: RELU
}
layers {
  bottom: "conv5_1"
  top: "conv5_2"
  name: "conv5_2"
  type: CONVOLUTION
  convolution_param {
    num_output: 512
    pad: 1
    kernel_size: 3
    weight_filler {
      type: "gaussian"
      std: 0.01
    }
    bias_filler {
      type: "constant"
      value: 0
    }
  }
}
layers {
  bottom: "conv5_2"
  top: "conv5_2"
  name: "relu5_2"
  type: RELU
}
layers {
  bottom: "conv5_2"
  top: "conv5_3"
  name: "conv5_3"
  type: CONVOLUTION
  convolution_param {
    num_output: 512
    pad: 1
    kernel_size: 3
    weight_filler {
      type: "gaussian"
      std: 0.01
    }
    bias_filler {
      type: "constant"
      value: 0
    }
  }
}
layers {
  bottom: "conv5_3"
  top: "conv5_3"
  name: "relu5_3"
  type: RELU
}
layers {
  bottom: "conv5_3"
  top: "pool5"
  name: "pool5"
  type: POOLING
  pooling_param {
    pool: MAX
    kernel_size: 2
    stride: 2
  }
}
layers {
  bottom: "pool5"
  top: "fc6"
  name: "fc6"
  type: INNER_PRODUCT
  inner_product_param {
    num_output: 4096
    weight_filler {
      type: "gaussian"
      std: 0.01
    }
    bias_filler {
      type: "constant"
      value: 0
    }
  }
}
layers {
  bottom: "fc6"
  top: "fc6"
  name: "relu6"
  type: RELU
}
layers {
  bottom: "fc6"
  top: "fc6"
  name: "drop6"
  type: DROPOUT
  dropout_param {
    dropout_ratio: 0.5
  }
}
layers {
  bottom: "fc6"
  top: "fc7"
  name: "fc7"
  type: INNER_PRODUCT
  inner_product_param {
    num_output: 4096
    weight_filler {
      type: "gaussian"
      std: 0.01
    }
    bias_filler {
      type: "constant"
      value: 0
    }
  }
}
layers {
  bottom: "fc7"
  top: "fc7"
  name: "relu7"
  type: RELU
}
layers {
  bottom: "fc7"
  top: "fc7"
  name: "drop7"
  type: DROPOUT
  dropout_param {
    dropout_ratio: 0.5
  }
}
layers {
  bottom: "fc7"
  top: "fc8_2"
  name: "fc8_2"
  type: INNER_PRODUCT
  inner_product_param {
    num_output: 2
    weight_filler {
      type: "gaussian"
      std: 0.01
    }
    bias_filler {
      type: "constant"
      value: 0
    }
  }
}
layers {
  bottom: "fc8_2"
  bottom: "label"
  name: "loss"
  type: SOFTMAX_LOSS
}
state {
  phase: TRAIN
}
I1110 04:48:13.873284 10490 layer_factory.hpp:78] Creating layer data
I1110 04:48:13.873303 10490 net.cpp:67] Creating Layer data
I1110 04:48:13.873311 10490 net.cpp:356] data -> data
I1110 04:48:13.873327 10490 net.cpp:356] data -> label
I1110 04:48:13.873338 10490 net.cpp:96] Setting up data
I1110 04:48:13.873344 10490 image_data_layer.cpp:34] Opening file /data/ad6813/devCaffe/caffe/data/scrape_blue/train.txt
I1110 04:48:13.887351 10490 image_data_layer.cpp:49] A total of 40401 images.
I1110 04:48:13.897930 10490 image_data_layer.cpp:78] output data size: 32,3,224,224
I1110 04:48:13.900962 10490 net.cpp:103] Top shape: 32 3 224 224 (4816896)
I1110 04:48:13.900988 10490 net.cpp:103] Top shape: 32 1 1 1 (32)
I1110 04:48:13.900993 10490 layer_factory.hpp:78] Creating layer conv1_1
I1110 04:48:13.901010 10490 net.cpp:67] Creating Layer conv1_1
I1110 04:48:13.901015 10490 net.cpp:394] conv1_1 <- data
I1110 04:48:13.901029 10490 net.cpp:356] conv1_1 -> conv1_1
I1110 04:48:13.901041 10490 net.cpp:96] Setting up conv1_1
I1110 04:48:14.076068 10490 net.cpp:103] Top shape: 32 64 224 224 (102760448)
I1110 04:48:14.076100 10490 layer_factory.hpp:78] Creating layer relu1_1
I1110 04:48:14.076113 10490 net.cpp:67] Creating Layer relu1_1
I1110 04:48:14.076117 10490 net.cpp:394] relu1_1 <- conv1_1
I1110 04:48:14.076125 10490 net.cpp:345] relu1_1 -> conv1_1 (in-place)
I1110 04:48:14.076133 10490 net.cpp:96] Setting up relu1_1
I1110 04:48:14.076141 10490 net.cpp:103] Top shape: 32 64 224 224 (102760448)
I1110 04:48:14.076144 10490 layer_factory.hpp:78] Creating layer conv1_2
I1110 04:48:14.076151 10490 net.cpp:67] Creating Layer conv1_2
I1110 04:48:14.076154 10490 net.cpp:394] conv1_2 <- conv1_1
I1110 04:48:14.076159 10490 net.cpp:356] conv1_2 -> conv1_2
I1110 04:48:14.076165 10490 net.cpp:96] Setting up conv1_2
I1110 04:48:14.077241 10490 net.cpp:103] Top shape: 32 64 224 224 (102760448)
I1110 04:48:14.077255 10490 layer_factory.hpp:78] Creating layer relu1_2
I1110 04:48:14.077260 10490 net.cpp:67] Creating Layer relu1_2
I1110 04:48:14.077263 10490 net.cpp:394] relu1_2 <- conv1_2
I1110 04:48:14.077268 10490 net.cpp:345] relu1_2 -> conv1_2 (in-place)
I1110 04:48:14.077273 10490 net.cpp:96] Setting up relu1_2
I1110 04:48:14.077278 10490 net.cpp:103] Top shape: 32 64 224 224 (102760448)
I1110 04:48:14.077281 10490 layer_factory.hpp:78] Creating layer pool1
I1110 04:48:14.077289 10490 net.cpp:67] Creating Layer pool1
I1110 04:48:14.077292 10490 net.cpp:394] pool1 <- conv1_2
I1110 04:48:14.077298 10490 net.cpp:356] pool1 -> pool1
I1110 04:48:14.077304 10490 net.cpp:96] Setting up pool1
I1110 04:48:14.077321 10490 net.cpp:103] Top shape: 32 64 112 112 (25690112)
I1110 04:48:14.077327 10490 layer_factory.hpp:78] Creating layer conv2_1
I1110 04:48:14.077332 10490 net.cpp:67] Creating Layer conv2_1
I1110 04:48:14.077335 10490 net.cpp:394] conv2_1 <- pool1
I1110 04:48:14.077342 10490 net.cpp:356] conv2_1 -> conv2_1
I1110 04:48:14.077347 10490 net.cpp:96] Setting up conv2_1
I1110 04:48:14.079272 10490 net.cpp:103] Top shape: 32 128 112 112 (51380224)
I1110 04:48:14.079285 10490 layer_factory.hpp:78] Creating layer relu2_1
I1110 04:48:14.079290 10490 net.cpp:67] Creating Layer relu2_1
I1110 04:48:14.079293 10490 net.cpp:394] relu2_1 <- conv2_1
I1110 04:48:14.079299 10490 net.cpp:345] relu2_1 -> conv2_1 (in-place)
I1110 04:48:14.079304 10490 net.cpp:96] Setting up relu2_1
I1110 04:48:14.079309 10490 net.cpp:103] Top shape: 32 128 112 112 (51380224)
I1110 04:48:14.079313 10490 layer_factory.hpp:78] Creating layer conv2_2
I1110 04:48:14.079319 10490 net.cpp:67] Creating Layer conv2_2
I1110 04:48:14.079321 10490 net.cpp:394] conv2_2 <- conv2_1
I1110 04:48:14.079329 10490 net.cpp:356] conv2_2 -> conv2_2
I1110 04:48:14.079334 10490 net.cpp:96] Setting up conv2_2
I1110 04:48:14.083103 10490 net.cpp:103] Top shape: 32 128 112 112 (51380224)
I1110 04:48:14.083117 10490 layer_factory.hpp:78] Creating layer relu2_2
I1110 04:48:14.083123 10490 net.cpp:67] Creating Layer relu2_2
I1110 04:48:14.083127 10490 net.cpp:394] relu2_2 <- conv2_2
I1110 04:48:14.083132 10490 net.cpp:345] relu2_2 -> conv2_2 (in-place)
I1110 04:48:14.083137 10490 net.cpp:96] Setting up relu2_2
I1110 04:48:14.083142 10490 net.cpp:103] Top shape: 32 128 112 112 (51380224)
I1110 04:48:14.083154 10490 layer_factory.hpp:78] Creating layer pool2
I1110 04:48:14.083159 10490 net.cpp:67] Creating Layer pool2
I1110 04:48:14.083163 10490 net.cpp:394] pool2 <- conv2_2
I1110 04:48:14.083166 10490 net.cpp:356] pool2 -> pool2
I1110 04:48:14.083171 10490 net.cpp:96] Setting up pool2
I1110 04:48:14.083178 10490 net.cpp:103] Top shape: 32 128 56 56 (12845056)
I1110 04:48:14.083180 10490 layer_factory.hpp:78] Creating layer conv3_1
I1110 04:48:14.083187 10490 net.cpp:67] Creating Layer conv3_1
I1110 04:48:14.083190 10490 net.cpp:394] conv3_1 <- pool2
I1110 04:48:14.083195 10490 net.cpp:356] conv3_1 -> conv3_1
I1110 04:48:14.083201 10490 net.cpp:96] Setting up conv3_1
I1110 04:48:14.090591 10490 net.cpp:103] Top shape: 32 256 56 56 (25690112)
I1110 04:48:14.090606 10490 layer_factory.hpp:78] Creating layer relu3_1
I1110 04:48:14.090612 10490 net.cpp:67] Creating Layer relu3_1
I1110 04:48:14.090615 10490 net.cpp:394] relu3_1 <- conv3_1
I1110 04:48:14.090621 10490 net.cpp:345] relu3_1 -> conv3_1 (in-place)
I1110 04:48:14.090626 10490 net.cpp:96] Setting up relu3_1
I1110 04:48:14.090631 10490 net.cpp:103] Top shape: 32 256 56 56 (25690112)
I1110 04:48:14.090634 10490 layer_factory.hpp:78] Creating layer conv3_2
I1110 04:48:14.090639 10490 net.cpp:67] Creating Layer conv3_2
I1110 04:48:14.090641 10490 net.cpp:394] conv3_2 <- conv3_1
I1110 04:48:14.090646 10490 net.cpp:356] conv3_2 -> conv3_2
I1110 04:48:14.090651 10490 net.cpp:96] Setting up conv3_2
I1110 04:48:14.105551 10490 net.cpp:103] Top shape: 32 256 56 56 (25690112)
I1110 04:48:14.105573 10490 layer_factory.hpp:78] Creating layer relu3_2
I1110 04:48:14.105581 10490 net.cpp:67] Creating Layer relu3_2
I1110 04:48:14.105586 10490 net.cpp:394] relu3_2 <- conv3_2
I1110 04:48:14.105593 10490 net.cpp:345] relu3_2 -> conv3_2 (in-place)
I1110 04:48:14.105599 10490 net.cpp:96] Setting up relu3_2
I1110 04:48:14.105605 10490 net.cpp:103] Top shape: 32 256 56 56 (25690112)
I1110 04:48:14.105608 10490 layer_factory.hpp:78] Creating layer conv3_3
I1110 04:48:14.105614 10490 net.cpp:67] Creating Layer conv3_3
I1110 04:48:14.105617 10490 net.cpp:394] conv3_3 <- conv3_2
I1110 04:48:14.105623 10490 net.cpp:356] conv3_3 -> conv3_3
I1110 04:48:14.105628 10490 net.cpp:96] Setting up conv3_3
I1110 04:48:14.120394 10490 net.cpp:103] Top shape: 32 256 56 56 (25690112)
I1110 04:48:14.120412 10490 layer_factory.hpp:78] Creating layer relu3_3
I1110 04:48:14.120420 10490 net.cpp:67] Creating Layer relu3_3
I1110 04:48:14.120424 10490 net.cpp:394] relu3_3 <- conv3_3
I1110 04:48:14.120432 10490 net.cpp:345] relu3_3 -> conv3_3 (in-place)
I1110 04:48:14.120437 10490 net.cpp:96] Setting up relu3_3
I1110 04:48:14.120442 10490 net.cpp:103] Top shape: 32 256 56 56 (25690112)
I1110 04:48:14.120445 10490 layer_factory.hpp:78] Creating layer pool3
I1110 04:48:14.120451 10490 net.cpp:67] Creating Layer pool3
I1110 04:48:14.120455 10490 net.cpp:394] pool3 <- conv3_3
I1110 04:48:14.120460 10490 net.cpp:356] pool3 -> pool3
I1110 04:48:14.120465 10490 net.cpp:96] Setting up pool3
I1110 04:48:14.120473 10490 net.cpp:103] Top shape: 32 256 28 28 (6422528)
I1110 04:48:14.120476 10490 layer_factory.hpp:78] Creating layer conv4_1
I1110 04:48:14.120481 10490 net.cpp:67] Creating Layer conv4_1
I1110 04:48:14.120484 10490 net.cpp:394] conv4_1 <- pool3
I1110 04:48:14.120491 10490 net.cpp:356] conv4_1 -> conv4_1
I1110 04:48:14.120496 10490 net.cpp:96] Setting up conv4_1
I1110 04:48:14.149688 10490 net.cpp:103] Top shape: 32 512 28 28 (12845056)
I1110 04:48:14.149713 10490 layer_factory.hpp:78] Creating layer relu4_1
I1110 04:48:14.149720 10490 net.cpp:67] Creating Layer relu4_1
I1110 04:48:14.149724 10490 net.cpp:394] relu4_1 <- conv4_1
I1110 04:48:14.149732 10490 net.cpp:345] relu4_1 -> conv4_1 (in-place)
I1110 04:48:14.149739 10490 net.cpp:96] Setting up relu4_1
I1110 04:48:14.149744 10490 net.cpp:103] Top shape: 32 512 28 28 (12845056)
I1110 04:48:14.149749 10490 layer_factory.hpp:78] Creating layer conv4_2
I1110 04:48:14.149754 10490 net.cpp:67] Creating Layer conv4_2
I1110 04:48:14.149756 10490 net.cpp:394] conv4_2 <- conv4_1
I1110 04:48:14.149772 10490 net.cpp:356] conv4_2 -> conv4_2
I1110 04:48:14.149778 10490 net.cpp:96] Setting up conv4_2
I1110 04:48:14.207756 10490 net.cpp:103] Top shape: 32 512 28 28 (12845056)
I1110 04:48:14.207784 10490 layer_factory.hpp:78] Creating layer relu4_2
I1110 04:48:14.207792 10490 net.cpp:67] Creating Layer relu4_2
I1110 04:48:14.207798 10490 net.cpp:394] relu4_2 <- conv4_2
I1110 04:48:14.207805 10490 net.cpp:345] relu4_2 -> conv4_2 (in-place)
I1110 04:48:14.207813 10490 net.cpp:96] Setting up relu4_2
I1110 04:48:14.207818 10490 net.cpp:103] Top shape: 32 512 28 28 (12845056)
I1110 04:48:14.207821 10490 layer_factory.hpp:78] Creating layer conv4_3
I1110 04:48:14.207828 10490 net.cpp:67] Creating Layer conv4_3
I1110 04:48:14.207830 10490 net.cpp:394] conv4_3 <- conv4_2
I1110 04:48:14.207836 10490 net.cpp:356] conv4_3 -> conv4_3
I1110 04:48:14.207844 10490 net.cpp:96] Setting up conv4_3
I1110 04:48:14.265547 10490 net.cpp:103] Top shape: 32 512 28 28 (12845056)
I1110 04:48:14.265571 10490 layer_factory.hpp:78] Creating layer relu4_3
I1110 04:48:14.265580 10490 net.cpp:67] Creating Layer relu4_3
I1110 04:48:14.265585 10490 net.cpp:394] relu4_3 <- conv4_3
I1110 04:48:14.265593 10490 net.cpp:345] relu4_3 -> conv4_3 (in-place)
I1110 04:48:14.265599 10490 net.cpp:96] Setting up relu4_3
I1110 04:48:14.265604 10490 net.cpp:103] Top shape: 32 512 28 28 (12845056)
I1110 04:48:14.265607 10490 layer_factory.hpp:78] Creating layer pool4
I1110 04:48:14.265614 10490 net.cpp:67] Creating Layer pool4
I1110 04:48:14.265617 10490 net.cpp:394] pool4 <- conv4_3
I1110 04:48:14.265622 10490 net.cpp:356] pool4 -> pool4
I1110 04:48:14.265627 10490 net.cpp:96] Setting up pool4
I1110 04:48:14.265635 10490 net.cpp:103] Top shape: 32 512 14 14 (3211264)
I1110 04:48:14.265638 10490 layer_factory.hpp:78] Creating layer conv5_1
I1110 04:48:14.265643 10490 net.cpp:67] Creating Layer conv5_1
I1110 04:48:14.265646 10490 net.cpp:394] conv5_1 <- pool4
I1110 04:48:14.265652 10490 net.cpp:356] conv5_1 -> conv5_1
I1110 04:48:14.265661 10490 net.cpp:96] Setting up conv5_1
I1110 04:48:14.323653 10490 net.cpp:103] Top shape: 32 512 14 14 (3211264)
I1110 04:48:14.323680 10490 layer_factory.hpp:78] Creating layer relu5_1
I1110 04:48:14.323688 10490 net.cpp:67] Creating Layer relu5_1
I1110 04:48:14.323693 10490 net.cpp:394] relu5_1 <- conv5_1
I1110 04:48:14.323700 10490 net.cpp:345] relu5_1 -> conv5_1 (in-place)
I1110 04:48:14.323706 10490 net.cpp:96] Setting up relu5_1
I1110 04:48:14.323712 10490 net.cpp:103] Top shape: 32 512 14 14 (3211264)
I1110 04:48:14.323715 10490 layer_factory.hpp:78] Creating layer conv5_2
I1110 04:48:14.323729 10490 net.cpp:67] Creating Layer conv5_2
I1110 04:48:14.323736 10490 net.cpp:394] conv5_2 <- conv5_1
I1110 04:48:14.323741 10490 net.cpp:356] conv5_2 -> conv5_2
I1110 04:48:14.323748 10490 net.cpp:96] Setting up conv5_2
I1110 04:48:14.381291 10490 net.cpp:103] Top shape: 32 512 14 14 (3211264)
I1110 04:48:14.381319 10490 layer_factory.hpp:78] Creating layer relu5_2
I1110 04:48:14.381327 10490 net.cpp:67] Creating Layer relu5_2
I1110 04:48:14.381331 10490 net.cpp:394] relu5_2 <- conv5_2
I1110 04:48:14.381340 10490 net.cpp:345] relu5_2 -> conv5_2 (in-place)
I1110 04:48:14.381346 10490 net.cpp:96] Setting up relu5_2
I1110 04:48:14.381351 10490 net.cpp:103] Top shape: 32 512 14 14 (3211264)
I1110 04:48:14.381355 10490 layer_factory.hpp:78] Creating layer conv5_3
I1110 04:48:14.381361 10490 net.cpp:67] Creating Layer conv5_3
I1110 04:48:14.381366 10490 net.cpp:394] conv5_3 <- conv5_2
I1110 04:48:14.381369 10490 net.cpp:356] conv5_3 -> conv5_3
I1110 04:48:14.381376 10490 net.cpp:96] Setting up conv5_3
I1110 04:48:14.439198 10490 net.cpp:103] Top shape: 32 512 14 14 (3211264)
I1110 04:48:14.439224 10490 layer_factory.hpp:78] Creating layer relu5_3
I1110 04:48:14.439231 10490 net.cpp:67] Creating Layer relu5_3
I1110 04:48:14.439236 10490 net.cpp:394] relu5_3 <- conv5_3
I1110 04:48:14.439242 10490 net.cpp:345] relu5_3 -> conv5_3 (in-place)
I1110 04:48:14.439249 10490 net.cpp:96] Setting up relu5_3
I1110 04:48:14.439254 10490 net.cpp:103] Top shape: 32 512 14 14 (3211264)
I1110 04:48:14.439267 10490 layer_factory.hpp:78] Creating layer pool5
I1110 04:48:14.439273 10490 net.cpp:67] Creating Layer pool5
I1110 04:48:14.439276 10490 net.cpp:394] pool5 <- conv5_3
I1110 04:48:14.439282 10490 net.cpp:356] pool5 -> pool5
I1110 04:48:14.439288 10490 net.cpp:96] Setting up pool5
I1110 04:48:14.439296 10490 net.cpp:103] Top shape: 32 512 7 7 (802816)
I1110 04:48:14.439299 10490 layer_factory.hpp:78] Creating layer fc6
I1110 04:48:14.439312 10490 net.cpp:67] Creating Layer fc6
I1110 04:48:14.439316 10490 net.cpp:394] fc6 <- pool5
I1110 04:48:14.439321 10490 net.cpp:356] fc6 -> fc6
I1110 04:48:14.439327 10490 net.cpp:96] Setting up fc6
I1110 04:48:16.842074 10490 net.cpp:103] Top shape: 32 4096 1 1 (131072)
I1110 04:48:16.842118 10490 layer_factory.hpp:78] Creating layer relu6
I1110 04:48:16.842126 10490 net.cpp:67] Creating Layer relu6
I1110 04:48:16.842131 10490 net.cpp:394] relu6 <- fc6
I1110 04:48:16.842139 10490 net.cpp:345] relu6 -> fc6 (in-place)
I1110 04:48:16.842144 10490 net.cpp:96] Setting up relu6
I1110 04:48:16.842159 10490 net.cpp:103] Top shape: 32 4096 1 1 (131072)
I1110 04:48:16.842164 10490 layer_factory.hpp:78] Creating layer drop6
I1110 04:48:16.842172 10490 net.cpp:67] Creating Layer drop6
I1110 04:48:16.842176 10490 net.cpp:394] drop6 <- fc6
I1110 04:48:16.842180 10490 net.cpp:345] drop6 -> fc6 (in-place)
I1110 04:48:16.842185 10490 net.cpp:96] Setting up drop6
I1110 04:48:16.842188 10490 net.cpp:103] Top shape: 32 4096 1 1 (131072)
I1110 04:48:16.842191 10490 layer_factory.hpp:78] Creating layer fc7
I1110 04:48:16.842196 10490 net.cpp:67] Creating Layer fc7
I1110 04:48:16.842200 10490 net.cpp:394] fc7 <- fc6
I1110 04:48:16.842206 10490 net.cpp:356] fc7 -> fc7
I1110 04:48:16.842211 10490 net.cpp:96] Setting up fc7
I1110 04:48:17.230134 10490 net.cpp:103] Top shape: 32 4096 1 1 (131072)
I1110 04:48:17.230175 10490 layer_factory.hpp:78] Creating layer relu7
I1110 04:48:17.230185 10490 net.cpp:67] Creating Layer relu7
I1110 04:48:17.230190 10490 net.cpp:394] relu7 <- fc7
I1110 04:48:17.230197 10490 net.cpp:345] relu7 -> fc7 (in-place)
I1110 04:48:17.230204 10490 net.cpp:96] Setting up relu7
I1110 04:48:17.230218 10490 net.cpp:103] Top shape: 32 4096 1 1 (131072)
I1110 04:48:17.230221 10490 layer_factory.hpp:78] Creating layer drop7
I1110 04:48:17.230227 10490 net.cpp:67] Creating Layer drop7
I1110 04:48:17.230231 10490 net.cpp:394] drop7 <- fc7
I1110 04:48:17.230234 10490 net.cpp:345] drop7 -> fc7 (in-place)
I1110 04:48:17.230238 10490 net.cpp:96] Setting up drop7
I1110 04:48:17.230242 10490 net.cpp:103] Top shape: 32 4096 1 1 (131072)
I1110 04:48:17.230245 10490 layer_factory.hpp:78] Creating layer fc8_2
I1110 04:48:17.230252 10490 net.cpp:67] Creating Layer fc8_2
I1110 04:48:17.230255 10490 net.cpp:394] fc8_2 <- fc7
I1110 04:48:17.230260 10490 net.cpp:356] fc8_2 -> fc8_2
I1110 04:48:17.230267 10490 net.cpp:96] Setting up fc8_2
I1110 04:48:17.230495 10490 net.cpp:103] Top shape: 32 2 1 1 (64)
I1110 04:48:17.230502 10490 layer_factory.hpp:78] Creating layer loss
I1110 04:48:17.230509 10490 net.cpp:67] Creating Layer loss
I1110 04:48:17.230510 10490 net.cpp:394] loss <- fc8_2
I1110 04:48:17.230515 10490 net.cpp:394] loss <- label
I1110 04:48:17.230525 10490 net.cpp:356] loss -> (automatic)
I1110 04:48:17.230530 10490 net.cpp:96] Setting up loss
I1110 04:48:17.230540 10490 net.cpp:103] Top shape: 1 1 1 1 (1)
I1110 04:48:17.230543 10490 net.cpp:109]     with loss weight 1
I1110 04:48:17.230578 10490 net.cpp:170] loss needs backward computation.
I1110 04:48:17.230581 10490 net.cpp:170] fc8_2 needs backward computation.
I1110 04:48:17.230584 10490 net.cpp:170] drop7 needs backward computation.
I1110 04:48:17.230587 10490 net.cpp:170] relu7 needs backward computation.
I1110 04:48:17.230589 10490 net.cpp:170] fc7 needs backward computation.
…
I1110 04:48:17.231657 10490 net.cpp:275] The NetState phase (1) differed from the phase (0) specified by a rule in layer data
I1110 04:48:17.231868 10490 net.cpp:39] Initializing net from parameters: 
name: "small"
layers {
  top: "data"
  top: "label"
  name: "data"
  type: IMAGE_DATA
  image_data_param {
    source: "/data/ad6813/devCaffe/caffe/data/scrape_blue/val.txt"
    batch_size: 8
    new_height: 256
    new_width: 256
  }
  include {
    phase: TEST
  }
  transform_param {
    mirror: true
    crop_size: 224
    mean_value: 86.752
    mean_value: 101.46
    mean_value: 104.6
  }
}
layers {
  bottom: "data"
  top: "conv1_1"
  name: "conv1_1"
  type: CONVOLUTION
  convolution_param {
    num_output: 64
    pad: 1
    kernel_size: 3
    weight_filler {
      type: "gaussian"
      std: 0.01
    }
    bias_filler {
      type: "constant"
      value: 0
    }
  }
}
layers {
  bottom: "conv1_1"
  top: "conv1_1"
  name: "relu1_1"
  type: RELU
}
layers {
  bottom: "conv1_1"
  top: "conv1_2"
  name: "conv1_2"
  type: CONVOLUTION
  convolution_param {
    num_output: 64
    pad: 1
    kernel_size: 3
    weight_filler {
      type: "gaussian"
      std: 0.01
    }
    bias_filler {
      type: "constant"
      value: 0
    }
  }
}
layers {
  bottom: "conv1_2"
  top: "conv1_2"
  name: "relu1_2"
  type: RELU
}
layers {
  bottom: "conv1_2"
  top: "pool1"
  name: "pool1"
  type: POOLING
  pooling_param {
    pool: MAX
    kernel_size: 2
    stride: 2
  }
}
layers {
  bottom: "pool1"
  top: "conv2_1"
  name: "conv2_1"
  type: CONVOLUTION
  convolution_param {
    num_output: 128
    pad: 1
    kernel_size: 3
    weight_filler {
      type: "gaussian"
      std: 0.01
    }
    bias_filler {
      type: "constant"
      value: 0
    }
  }
}
layers {
  bottom: "conv2_1"
  top: "conv2_1"
  name: "relu2_1"
  type: RELU
}
layers {
  bottom: "conv2_1"
  top: "conv2_2"
  name: "conv2_2"
  type: CONVOLUTION
  convolution_param {
    num_output: 128
    pad: 1
    kernel_size: 3
    weight_filler {
      type: "gaussian"
      std: 0.01
    }
    bias_filler {
      type: "constant"
      value: 0
    }
  }
}
layers {
  bottom: "conv2_2"
  top: "conv2_2"
  name: "relu2_2"
  type: RELU
}
layers {
  bottom: "conv2_2"
  top: "pool2"
  name: "pool2"
  type: POOLING
  pooling_param {
    pool: MAX
    kernel_size: 2
    stride: 2
  }
}
layers {
  bottom: "pool2"
  top: "conv3_1"
  name: "conv3_1"
  type: CONVOLUTION
  convolution_param {
    num_output: 256
    pad: 1
    kernel_size: 3
    weight_filler {
      type: "gaussian"
      std: 0.01
    }
    bias_filler {
      type: "constant"
      value: 0
    }
  }
}
layers {
  bottom: "conv3_1"
  top: "conv3_1"
  name: "relu3_1"
  type: RELU
}
layers {
  bottom: "conv3_1"
  top: "conv3_2"
  name: "conv3_2"
  type: CONVOLUTION
  convolution_param {
    num_output: 256
    pad: 1
    kernel_size: 3
    weight_filler {
      type: "gaussian"
      std: 0.01
    }
    bias_filler {
      type: "constant"
      value: 0
    }
  }
}
layers {
  bottom: "conv3_2"
  top: "conv3_2"
  name: "relu3_2"
  type: RELU
}
layers {
  bottom: "conv3_2"
  top: "conv3_3"
  name: "conv3_3"
  type: CONVOLUTION
  convolution_param {
    num_output: 256
    pad: 1
    kernel_size: 3
    weight_filler {
      type: "gaussian"
      std: 0.01
    }
    bias_filler {
      type: "constant"
      value: 0
    }
  }
}
layers {
  bottom: "conv3_3"
  top: "conv3_3"
  name: "relu3_3"
  type: RELU
}
layers {
  bottom: "conv3_3"
  top: "pool3"
  name: "pool3"
  type: POOLING
  pooling_param {
    pool: MAX
    kernel_size: 2
    stride: 2
  }
}
layers {
  bottom: "pool3"
  top: "conv4_1"
  name: "conv4_1"
  type: CONVOLUTION
  convolution_param {
    num_output: 512
    pad: 1
    kernel_size: 3
    weight_filler {
      type: "gaussian"
      std: 0.01
    }
    bias_filler {
      type: "constant"
      value: 0
    }
  }
}
layers {
  bottom: "conv4_1"
  top: "conv4_1"
  name: "relu4_1"
  type: RELU
}
layers {
  bottom: "conv4_1"
  top: "conv4_2"
  name: "conv4_2"
  type: CONVOLUTION
  convolution_param {
    num_output: 512
    pad: 1
    kernel_size: 3
    weight_filler {
      type: "gaussian"
      std: 0.01
    }
    bias_filler {
      type: "constant"
      value: 0
    }
  }
}
layers {
  bottom: "conv4_2"
  top: "conv4_2"
  name: "relu4_2"
  type: RELU
}
layers {
  bottom: "conv4_2"
  top: "conv4_3"
  name: "conv4_3"
  type: CONVOLUTION
  convolution_param {
    num_output: 512
    pad: 1
    kernel_size: 3
    weight_filler {
      type: "gaussian"
      std: 0.01
    }
    bias_filler {
      type: "constant"
      value: 0
    }
  }
}
layers {
  bottom: "conv4_3"
  top: "conv4_3"
  name: "relu4_3"
  type: RELU
}
layers {
  bottom: "conv4_3"
  top: "pool4"
  name: "pool4"
  type: POOLING
  pooling_param {
    pool: MAX
    kernel_size: 2
    stride: 2
  }
}
layers {
  bottom: "pool4"
  top: "conv5_1"
  name: "conv5_1"
  type: CONVOLUTION
  convolution_param {
    num_output: 512
    pad: 1
    kernel_size: 3
    weight_filler {
      type: "gaussian"
      std: 0.01
    }
    bias_filler {
      type: "constant"
      value: 0
    }
  }
}
layers {
  bottom: "conv5_1"
  top: "conv5_1"
  name: "relu5_1"
  type: RELU
}
layers {
  bottom: "conv5_1"
  top: "conv5_2"
  name: "conv5_2"
  type: CONVOLUTION
  convolution_param {
    num_output: 512
    pad: 1
    kernel_size: 3
    weight_filler {
      type: "gaussian"
      std: 0.01
    }
    bias_filler {
      type: "constant"
      value: 0
    }
  }
}
layers {
  bottom: "conv5_2"
  top: "conv5_2"
  name: "relu5_2"
  type: RELU
}
layers {
  bottom: "conv5_2"
  top: "conv5_3"
  name: "conv5_3"
  type: CONVOLUTION
  convolution_param {
    num_output: 512
    pad: 1
    kernel_size: 3
    weight_filler {
      type: "gaussian"
      std: 0.01
    }
    bias_filler {
      type: "constant"
      value: 0
    }
  }
}
layers {
  bottom: "conv5_3"
  top: "conv5_3"
  name: "relu5_3"
  type: RELU
}
layers {
  bottom: "conv5_3"
  top: "pool5"
  name: "pool5"
  type: POOLING
  pooling_param {
    pool: MAX
    kernel_size: 2
    stride: 2
  }
}
layers {
  bottom: "pool5"
  top: "fc6"
  name: "fc6"
  type: INNER_PRODUCT
  inner_product_param {
    num_output: 4096
    weight_filler {
      type: "gaussian"
      std: 0.01
    }
    bias_filler {
      type: "constant"
      value: 0
    }
  }
}
layers {
  bottom: "fc6"
  top: "fc6"
  name: "relu6"
  type: RELU
}
layers {
  bottom: "fc6"
  top: "fc6"
  name: "drop6"
  type: DROPOUT
  dropout_param {
    dropout_ratio: 0.5
  }
}
layers {
  bottom: "fc6"
  top: "fc7"
  name: "fc7"
  type: INNER_PRODUCT
  inner_product_param {
    num_output: 4096
    weight_filler {
      type: "gaussian"
      std: 0.01
    }
    bias_filler {
      type: "constant"
      value: 0
    }
  }
}
layers {
  bottom: "fc7"
  top: "fc7"
  name: "relu7"
  type: RELU
}
layers {
  bottom: "fc7"
  top: "fc7"
  name: "drop7"
  type: DROPOUT
  dropout_param {
    dropout_ratio: 0.5
  }
}
layers {
  bottom: "fc7"
  top: "fc8_2"
  name: "fc8_2"
  type: INNER_PRODUCT
  inner_product_param {
    num_output: 2
    weight_filler {
      type: "gaussian"
      std: 0.01
    }
    bias_filler {
      type: "constant"
      value: 0
    }
  }
}
layers {
  bottom: "fc8_2"
  bottom: "label"
  name: "loss"
  type: SOFTMAX_LOSS
}
layers {
  bottom: "fc8_2"
  bottom: "label"
  top: "accuracy"
  name: "accuracy"
  type: PER_CLASS_ACCURACY
  include {
    phase: TEST
  }
}
state {
  phase: TEST
}
I1110 04:48:17.232009 10490 layer_factory.hpp:78] Creating layer data
I1110 04:48:17.232019 10490 net.cpp:67] Creating Layer data
I1110 04:48:17.232024 10490 net.cpp:356] data -> data
I1110 04:48:17.232031 10490 net.cpp:356] data -> label
I1110 04:48:17.232038 10490 net.cpp:96] Setting up data
I1110 04:48:17.232040 10490 image_data_layer.cpp:34] Opening file /data/ad6813/devCaffe/caffe/data/scrape_blue/val.txt
I1110 04:48:17.233577 10490 image_data_layer.cpp:49] A total of 3963 images.
I1110 04:48:17.240656 10490 image_data_layer.cpp:78] output data size: 8,3,224,224
I1110 04:48:17.241328 10490 net.cpp:103] Top shape: 8 3 224 224 (1204224)
I1110 04:48:17.241350 10490 net.cpp:103] Top shape: 8 1 1 1 (8)
I1110 04:48:17.241354 10490 layer_factory.hpp:78] Creating layer label_data_1_split
I1110 04:48:17.241366 10490 net.cpp:67] Creating Layer label_data_1_split
I1110 04:48:17.241370 10490 net.cpp:394] label_data_1_split <- label
I1110 04:48:17.241377 10490 net.cpp:356] label_data_1_split -> label_data_1_split_0
I1110 04:48:17.241385 10490 net.cpp:356] label_data_1_split -> label_data_1_split_1
I1110 04:48:17.241390 10490 net.cpp:96] Setting up label_data_1_split
I1110 04:48:17.241395 10490 net.cpp:103] Top shape: 8 1 1 1 (8)
I1110 04:48:17.241399 10490 net.cpp:103] Top shape: 8 1 1 1 (8)
I1110 04:48:17.241401 10490 layer_factory.hpp:78] Creating layer conv1_1
I1110 04:48:17.241406 10490 net.cpp:67] Creating Layer conv1_1
I1110 04:48:17.241410 10490 net.cpp:394] conv1_1 <- data
I1110 04:48:17.241415 10490 net.cpp:356] conv1_1 -> conv1_1
I1110 04:48:17.241420 10490 net.cpp:96] Setting up conv1_1
I1110 04:48:17.241583 10490 net.cpp:103] Top shape: 8 64 224 224 (25690112)
I1110 04:48:17.241597 10490 layer_factory.hpp:78] Creating layer relu1_1
I1110 04:48:17.241602 10490 net.cpp:67] Creating Layer relu1_1
I1110 04:48:17.241605 10490 net.cpp:394] relu1_1 <- conv1_1
I1110 04:48:17.241610 10490 net.cpp:345] relu1_1 -> conv1_1 (in-place)
I1110 04:48:17.241621 10490 net.cpp:96] Setting up relu1_1
I1110 04:48:17.241626 10490 net.cpp:103] Top shape: 8 64 224 224 (25690112)
I1110 04:48:17.241629 10490 layer_factory.hpp:78] Creating layer conv1_2
I1110 04:48:17.241636 10490 net.cpp:67] Creating Layer conv1_2
I1110 04:48:17.241638 10490 net.cpp:394] conv1_2 <- conv1_1
I1110 04:48:17.241643 10490 net.cpp:356] conv1_2 -> conv1_2
I1110 04:48:17.241648 10490 net.cpp:96] Setting up conv1_2
I1110 04:48:17.242647 10490 net.cpp:103] Top shape: 8 64 224 224 (25690112)
I1110 04:48:17.242660 10490 layer_factory.hpp:78] Creating layer relu1_2
I1110 04:48:17.242665 10490 net.cpp:67] Creating Layer relu1_2
I1110 04:48:17.242668 10490 net.cpp:394] relu1_2 <- conv1_2
I1110 04:48:17.242672 10490 net.cpp:345] relu1_2 -> conv1_2 (in-place)
I1110 04:48:17.242677 10490 net.cpp:96] Setting up relu1_2
I1110 04:48:17.242682 10490 net.cpp:103] Top shape: 8 64 224 224 (25690112)
I1110 04:48:17.242686 10490 layer_factory.hpp:78] Creating layer pool1
I1110 04:48:17.242691 10490 net.cpp:67] Creating Layer pool1
I1110 04:48:17.242693 10490 net.cpp:394] pool1 <- conv1_2
I1110 04:48:17.242697 10490 net.cpp:356] pool1 -> pool1
I1110 04:48:17.242702 10490 net.cpp:96] Setting up pool1
I1110 04:48:17.242708 10490 net.cpp:103] Top shape: 8 64 112 112 (6422528)
I1110 04:48:17.242712 10490 layer_factory.hpp:78] Creating layer conv2_1
I1110 04:48:17.242717 10490 net.cpp:67] Creating Layer conv2_1
I1110 04:48:17.242719 10490 net.cpp:394] conv2_1 <- pool1
I1110 04:48:17.242724 10490 net.cpp:356] conv2_1 -> conv2_1
I1110 04:48:17.242728 10490 net.cpp:96] Setting up conv2_1
I1110 04:48:17.244740 10490 net.cpp:103] Top shape: 8 128 112 112 (12845056)
I1110 04:48:17.244755 10490 layer_factory.hpp:78] Creating layer relu2_1
I1110 04:48:17.244760 10490 net.cpp:67] Creating Layer relu2_1
I1110 04:48:17.244763 10490 net.cpp:394] relu2_1 <- conv2_1
I1110 04:48:17.244768 10490 net.cpp:345] relu2_1 -> conv2_1 (in-place)
I1110 04:48:17.244772 10490 net.cpp:96] Setting up relu2_1
I1110 04:48:17.244777 10490 net.cpp:103] Top shape: 8 128 112 112 (12845056)
I1110 04:48:17.244781 10490 layer_factory.hpp:78] Creating layer conv2_2
I1110 04:48:17.244786 10490 net.cpp:67] Creating Layer conv2_2
I1110 04:48:17.244789 10490 net.cpp:394] conv2_2 <- conv2_1
I1110 04:48:17.244793 10490 net.cpp:356] conv2_2 -> conv2_2
I1110 04:48:17.244799 10490 net.cpp:96] Setting up conv2_2
I1110 04:48:17.248445 10490 net.cpp:103] Top shape: 8 128 112 112 (12845056)
I1110 04:48:17.248457 10490 layer_factory.hpp:78] Creating layer relu2_2
I1110 04:48:17.248462 10490 net.cpp:67] Creating Layer relu2_2
I1110 04:48:17.248466 10490 net.cpp:394] relu2_2 <- conv2_2
I1110 04:48:17.248471 10490 net.cpp:345] relu2_2 -> conv2_2 (in-place)
I1110 04:48:17.248474 10490 net.cpp:96] Setting up relu2_2
I1110 04:48:17.248479 10490 net.cpp:103] Top shape: 8 128 112 112 (12845056)
I1110 04:48:17.248482 10490 layer_factory.hpp:78] Creating layer pool2
I1110 04:48:17.248486 10490 net.cpp:67] Creating Layer pool2
I1110 04:48:17.248489 10490 net.cpp:394] pool2 <- conv2_2
I1110 04:48:17.248493 10490 net.cpp:356] pool2 -> pool2
I1110 04:48:17.248498 10490 net.cpp:96] Setting up pool2
I1110 04:48:17.248503 10490 net.cpp:103] Top shape: 8 128 56 56 (3211264)
I1110 04:48:17.248507 10490 layer_factory.hpp:78] Creating layer conv3_1
I1110 04:48:17.248512 10490 net.cpp:67] Creating Layer conv3_1
I1110 04:48:17.248517 10490 net.cpp:394] conv3_1 <- pool2
I1110 04:48:17.248522 10490 net.cpp:356] conv3_1 -> conv3_1
I1110 04:48:17.248527 10490 net.cpp:96] Setting up conv3_1
I1110 04:48:17.255774 10490 net.cpp:103] Top shape: 8 256 56 56 (6422528)
I1110 04:48:17.255789 10490 layer_factory.hpp:78] Creating layer relu3_1
I1110 04:48:17.255795 10490 net.cpp:67] Creating Layer relu3_1
I1110 04:48:17.255799 10490 net.cpp:394] relu3_1 <- conv3_1
I1110 04:48:17.255803 10490 net.cpp:345] relu3_1 -> conv3_1 (in-place)
I1110 04:48:17.255808 10490 net.cpp:96] Setting up relu3_1
I1110 04:48:17.255813 10490 net.cpp:103] Top shape: 8 256 56 56 (6422528)
I1110 04:48:17.255816 10490 layer_factory.hpp:78] Creating layer conv3_2
I1110 04:48:17.255830 10490 net.cpp:67] Creating Layer conv3_2
I1110 04:48:17.255832 10490 net.cpp:394] conv3_2 <- conv3_1
I1110 04:48:17.255837 10490 net.cpp:356] conv3_2 -> conv3_2
I1110 04:48:17.255842 10490 net.cpp:96] Setting up conv3_2
I1110 04:48:17.270460 10490 net.cpp:103] Top shape: 8 256 56 56 (6422528)
I1110 04:48:17.270483 10490 layer_factory.hpp:78] Creating layer relu3_2
I1110 04:48:17.270489 10490 net.cpp:67] Creating Layer relu3_2
I1110 04:48:17.270494 10490 net.cpp:394] relu3_2 <- conv3_2
I1110 04:48:17.270501 10490 net.cpp:345] relu3_2 -> conv3_2 (in-place)
I1110 04:48:17.270509 10490 net.cpp:96] Setting up relu3_2
I1110 04:48:17.270514 10490 net.cpp:103] Top shape: 8 256 56 56 (6422528)
I1110 04:48:17.270516 10490 layer_factory.hpp:78] Creating layer conv3_3
I1110 04:48:17.270524 10490 net.cpp:67] Creating Layer conv3_3
I1110 04:48:17.270527 10490 net.cpp:394] conv3_3 <- conv3_2
I1110 04:48:17.270534 10490 net.cpp:356] conv3_3 -> conv3_3
I1110 04:48:17.270539 10490 net.cpp:96] Setting up conv3_3
I1110 04:48:17.285271 10490 net.cpp:103] Top shape: 8 256 56 56 (6422528)
I1110 04:48:17.285291 10490 layer_factory.hpp:78] Creating layer relu3_3
I1110 04:48:17.285300 10490 net.cpp:67] Creating Layer relu3_3
I1110 04:48:17.285302 10490 net.cpp:394] relu3_3 <- conv3_3
I1110 04:48:17.285310 10490 net.cpp:345] relu3_3 -> conv3_3 (in-place)
I1110 04:48:17.285316 10490 net.cpp:96] Setting up relu3_3
I1110 04:48:17.285321 10490 net.cpp:103] Top shape: 8 256 56 56 (6422528)
I1110 04:48:17.285325 10490 layer_factory.hpp:78] Creating layer pool3
I1110 04:48:17.285329 10490 net.cpp:67] Creating Layer pool3
I1110 04:48:17.285332 10490 net.cpp:394] pool3 <- conv3_3
I1110 04:48:17.285337 10490 net.cpp:356] pool3 -> pool3
I1110 04:48:17.285342 10490 net.cpp:96] Setting up pool3
I1110 04:48:17.285351 10490 net.cpp:103] Top shape: 8 256 28 28 (1605632)
I1110 04:48:17.285354 10490 layer_factory.hpp:78] Creating layer conv4_1
I1110 04:48:17.285361 10490 net.cpp:67] Creating Layer conv4_1
I1110 04:48:17.285363 10490 net.cpp:394] conv4_1 <- pool3
I1110 04:48:17.285368 10490 net.cpp:356] conv4_1 -> conv4_1
I1110 04:48:17.285373 10490 net.cpp:96] Setting up conv4_1
I1110 04:48:17.313969 10490 net.cpp:103] Top shape: 8 512 28 28 (3211264)
I1110 04:48:17.314004 10490 layer_factory.hpp:78] Creating layer relu4_1
I1110 04:48:17.314013 10490 net.cpp:67] Creating Layer relu4_1
I1110 04:48:17.314016 10490 net.cpp:394] relu4_1 <- conv4_1
I1110 04:48:17.314025 10490 net.cpp:345] relu4_1 -> conv4_1 (in-place)
I1110 04:48:17.314033 10490 net.cpp:96] Setting up relu4_1
I1110 04:48:17.314038 10490 net.cpp:103] Top shape: 8 512 28 28 (3211264)
I1110 04:48:17.314041 10490 layer_factory.hpp:78] Creating layer conv4_2
I1110 04:48:17.314048 10490 net.cpp:67] Creating Layer conv4_2
I1110 04:48:17.314050 10490 net.cpp:394] conv4_2 <- conv4_1
I1110 04:48:17.314056 10490 net.cpp:356] conv4_2 -> conv4_2
I1110 04:48:17.314062 10490 net.cpp:96] Setting up conv4_2
I1110 04:48:17.369139 10490 net.cpp:103] Top shape: 8 512 28 28 (3211264)
I1110 04:48:17.369182 10490 layer_factory.hpp:78] Creating layer relu4_2
I1110 04:48:17.369190 10490 net.cpp:67] Creating Layer relu4_2
I1110 04:48:17.369194 10490 net.cpp:394] relu4_2 <- conv4_2
I1110 04:48:17.369201 10490 net.cpp:345] relu4_2 -> conv4_2 (in-place)
I1110 04:48:17.369207 10490 net.cpp:96] Setting up relu4_2
I1110 04:48:17.369212 10490 net.cpp:103] Top shape: 8 512 28 28 (3211264)
I1110 04:48:17.369216 10490 layer_factory.hpp:78] Creating layer conv4_3
I1110 04:48:17.369223 10490 net.cpp:67] Creating Layer conv4_3
I1110 04:48:17.369226 10490 net.cpp:394] conv4_3 <- conv4_2
I1110 04:48:17.369230 10490 net.cpp:356] conv4_3 -> conv4_3
I1110 04:48:17.369238 10490 net.cpp:96] Setting up conv4_3
I1110 04:48:17.424134 10490 net.cpp:103] Top shape: 8 512 28 28 (3211264)
I1110 04:48:17.424173 10490 layer_factory.hpp:78] Creating layer relu4_3
I1110 04:48:17.424182 10490 net.cpp:67] Creating Layer relu4_3
I1110 04:48:17.424186 10490 net.cpp:394] relu4_3 <- conv4_3
I1110 04:48:17.424195 10490 net.cpp:345] relu4_3 -> conv4_3 (in-place)
I1110 04:48:17.424211 10490 net.cpp:96] Setting up relu4_3
I1110 04:48:17.424217 10490 net.cpp:103] Top shape: 8 512 28 28 (3211264)
I1110 04:48:17.424221 10490 layer_factory.hpp:78] Creating layer pool4
I1110 04:48:17.424226 10490 net.cpp:67] Creating Layer pool4
I1110 04:48:17.424229 10490 net.cpp:394] pool4 <- conv4_3
I1110 04:48:17.424233 10490 net.cpp:356] pool4 -> pool4
I1110 04:48:17.424239 10490 net.cpp:96] Setting up pool4
I1110 04:48:17.424247 10490 net.cpp:103] Top shape: 8 512 14 14 (802816)
I1110 04:48:17.424249 10490 layer_factory.hpp:78] Creating layer conv5_1
I1110 04:48:17.424259 10490 net.cpp:67] Creating Layer conv5_1
I1110 04:48:17.424263 10490 net.cpp:394] conv5_1 <- pool4
I1110 04:48:17.424268 10490 net.cpp:356] conv5_1 -> conv5_1
I1110 04:48:17.424273 10490 net.cpp:96] Setting up conv5_1
I1110 04:48:17.479293 10490 net.cpp:103] Top shape: 8 512 14 14 (802816)
I1110 04:48:17.479331 10490 layer_factory.hpp:78] Creating layer relu5_1
I1110 04:48:17.479337 10490 net.cpp:67] Creating Layer relu5_1
I1110 04:48:17.479342 10490 net.cpp:394] relu5_1 <- conv5_1
I1110 04:48:17.479349 10490 net.cpp:345] relu5_1 -> conv5_1 (in-place)
I1110 04:48:17.479356 10490 net.cpp:96] Setting up relu5_1
I1110 04:48:17.479362 10490 net.cpp:103] Top shape: 8 512 14 14 (802816)
I1110 04:48:17.479365 10490 layer_factory.hpp:78] Creating layer conv5_2
I1110 04:48:17.479370 10490 net.cpp:67] Creating Layer conv5_2
I1110 04:48:17.479373 10490 net.cpp:394] conv5_2 <- conv5_1
I1110 04:48:17.479382 10490 net.cpp:356] conv5_2 -> conv5_2
I1110 04:48:17.479388 10490 net.cpp:96] Setting up conv5_2
I1110 04:48:17.534209 10490 net.cpp:103] Top shape: 8 512 14 14 (802816)
I1110 04:48:17.534246 10490 layer_factory.hpp:78] Creating layer relu5_2
I1110 04:48:17.534255 10490 net.cpp:67] Creating Layer relu5_2
I1110 04:48:17.534258 10490 net.cpp:394] relu5_2 <- conv5_2
I1110 04:48:17.534265 10490 net.cpp:345] relu5_2 -> conv5_2 (in-place)
I1110 04:48:17.534272 10490 net.cpp:96] Setting up relu5_2
I1110 04:48:17.534277 10490 net.cpp:103] Top shape: 8 512 14 14 (802816)
I1110 04:48:17.534281 10490 layer_factory.hpp:78] Creating layer conv5_3
I1110 04:48:17.534288 10490 net.cpp:67] Creating Layer conv5_3
I1110 04:48:17.534291 10490 net.cpp:394] conv5_3 <- conv5_2
I1110 04:48:17.534296 10490 net.cpp:356] conv5_3 -> conv5_3
I1110 04:48:17.534302 10490 net.cpp:96] Setting up conv5_3
I1110 04:48:17.589541 10490 net.cpp:103] Top shape: 8 512 14 14 (802816)
I1110 04:48:17.589579 10490 layer_factory.hpp:78] Creating layer relu5_3
I1110 04:48:17.589587 10490 net.cpp:67] Creating Layer relu5_3
I1110 04:48:17.589592 10490 net.cpp:394] relu5_3 <- conv5_3
I1110 04:48:17.589599 10490 net.cpp:345] relu5_3 -> conv5_3 (in-place)
I1110 04:48:17.589606 10490 net.cpp:96] Setting up relu5_3
I1110 04:48:17.589611 10490 net.cpp:103] Top shape: 8 512 14 14 (802816)
I1110 04:48:17.589613 10490 layer_factory.hpp:78] Creating layer pool5
I1110 04:48:17.589624 10490 net.cpp:67] Creating Layer pool5
I1110 04:48:17.589628 10490 net.cpp:394] pool5 <- conv5_3
I1110 04:48:17.589634 10490 net.cpp:356] pool5 -> pool5
I1110 04:48:17.589640 10490 net.cpp:96] Setting up pool5
I1110 04:48:17.589648 10490 net.cpp:103] Top shape: 8 512 7 7 (200704)
I1110 04:48:17.589651 10490 layer_factory.hpp:78] Creating layer fc6
I1110 04:48:17.589656 10490 net.cpp:67] Creating Layer fc6
I1110 04:48:17.589659 10490 net.cpp:394] fc6 <- pool5
I1110 04:48:17.589664 10490 net.cpp:356] fc6 -> fc6
I1110 04:48:17.589669 10490 net.cpp:96] Setting up fc6
I1110 04:48:19.962410 10490 net.cpp:103] Top shape: 8 4096 1 1 (32768)
I1110 04:48:19.962451 10490 layer_factory.hpp:78] Creating layer relu6
I1110 04:48:19.962460 10490 net.cpp:67] Creating Layer relu6
I1110 04:48:19.962466 10490 net.cpp:394] relu6 <- fc6
I1110 04:48:19.962472 10490 net.cpp:345] relu6 -> fc6 (in-place)
I1110 04:48:19.962478 10490 net.cpp:96] Setting up relu6
I1110 04:48:19.962492 10490 net.cpp:103] Top shape: 8 4096 1 1 (32768)
I1110 04:48:19.962496 10490 layer_factory.hpp:78] Creating layer drop6
I1110 04:48:19.962512 10490 net.cpp:67] Creating Layer drop6
I1110 04:48:19.962514 10490 net.cpp:394] drop6 <- fc6
I1110 04:48:19.962519 10490 net.cpp:345] drop6 -> fc6 (in-place)
I1110 04:48:19.962523 10490 net.cpp:96] Setting up drop6
I1110 04:48:19.962527 10490 net.cpp:103] Top shape: 8 4096 1 1 (32768)
I1110 04:48:19.962530 10490 layer_factory.hpp:78] Creating layer fc7
I1110 04:48:19.962535 10490 net.cpp:67] Creating Layer fc7
I1110 04:48:19.962538 10490 net.cpp:394] fc7 <- fc6
I1110 04:48:19.962544 10490 net.cpp:356] fc7 -> fc7
I1110 04:48:19.962550 10490 net.cpp:96] Setting up fc7
I1110 04:48:20.351889 10490 net.cpp:103] Top shape: 8 4096 1 1 (32768)
I1110 04:48:20.351929 10490 layer_factory.hpp:78] Creating layer relu7
I1110 04:48:20.351938 10490 net.cpp:67] Creating Layer relu7
I1110 04:48:20.351944 10490 net.cpp:394] relu7 <- fc7
I1110 04:48:20.351951 10490 net.cpp:345] relu7 -> fc7 (in-place)
I1110 04:48:20.351958 10490 net.cpp:96] Setting up relu7
I1110 04:48:20.351971 10490 net.cpp:103] Top shape: 8 4096 1 1 (32768)
I1110 04:48:20.351974 10490 layer_factory.hpp:78] Creating layer drop7
I1110 04:48:20.351979 10490 net.cpp:67] Creating Layer drop7
I1110 04:48:20.351982 10490 net.cpp:394] drop7 <- fc7
I1110 04:48:20.351987 10490 net.cpp:345] drop7 -> fc7 (in-place)
I1110 04:48:20.351991 10490 net.cpp:96] Setting up drop7
I1110 04:48:20.351995 10490 net.cpp:103] Top shape: 8 4096 1 1 (32768)
I1110 04:48:20.351999 10490 layer_factory.hpp:78] Creating layer fc8_2
I1110 04:48:20.352005 10490 net.cpp:67] Creating Layer fc8_2
I1110 04:48:20.352008 10490 net.cpp:394] fc8_2 <- fc7
I1110 04:48:20.352013 10490 net.cpp:356] fc8_2 -> fc8_2
I1110 04:48:20.352018 10490 net.cpp:96] Setting up fc8_2
I1110 04:48:20.352239 10490 net.cpp:103] Top shape: 8 2 1 1 (16)
I1110 04:48:20.352248 10490 layer_factory.hpp:78] Creating layer fc8_2_fc8_2_0_split
I1110 04:48:20.352253 10490 net.cpp:67] Creating Layer fc8_2_fc8_2_0_split
I1110 04:48:20.352257 10490 net.cpp:394] fc8_2_fc8_2_0_split <- fc8_2
I1110 04:48:20.352260 10490 net.cpp:356] fc8_2_fc8_2_0_split -> fc8_2_fc8_2_0_split_0
I1110 04:48:20.352267 10490 net.cpp:356] fc8_2_fc8_2_0_split -> fc8_2_fc8_2_0_split_1
I1110 04:48:20.352272 10490 net.cpp:96] Setting up fc8_2_fc8_2_0_split
I1110 04:48:20.352275 10490 net.cpp:103] Top shape: 8 2 1 1 (16)
I1110 04:48:20.352278 10490 net.cpp:103] Top shape: 8 2 1 1 (16)
I1110 04:48:20.352282 10490 layer_factory.hpp:78] Creating layer loss
I1110 04:48:20.352288 10490 net.cpp:67] Creating Layer loss
I1110 04:48:20.352290 10490 net.cpp:394] loss <- fc8_2_fc8_2_0_split_0
I1110 04:48:20.352294 10490 net.cpp:394] loss <- label_data_1_split_0
I1110 04:48:20.352298 10490 net.cpp:356] loss -> (automatic)
I1110 04:48:20.352303 10490 net.cpp:96] Setting up loss
I1110 04:48:20.352314 10490 net.cpp:103] Top shape: 1 1 1 1 (1)
I1110 04:48:20.352319 10490 net.cpp:109]     with loss weight 1
I1110 04:48:20.352334 10490 layer_factory.hpp:78] Creating layer accuracy
I1110 04:48:20.352342 10490 net.cpp:67] Creating Layer accuracy
I1110 04:48:20.352346 10490 net.cpp:394] accuracy <- fc8_2_fc8_2_0_split_1
I1110 04:48:20.352349 10490 net.cpp:394] accuracy <- label_data_1_split_1
I1110 04:48:20.352355 10490 net.cpp:356] accuracy -> accuracy
I1110 04:48:20.352363 10490 net.cpp:96] Setting up accuracy
I1110 04:48:20.352372 10490 net.cpp:103] Top shape: 1 1 1 4 (4)
I1110 04:48:20.352375 10490 net.cpp:172] accuracy does not need backward computation.
I1110 04:48:20.352377 10490 net.cpp:170] loss needs backward computation.
I1110 04:48:20.352381 10490 net.cpp:170] fc8_2_fc8_2_0_split needs backward computation.
I1110 04:48:20.352383 10490 net.cpp:170] fc8_2 needs backward computation.
I1110 04:48:20.352386 10490 net.cpp:170] drop7 needs backward computation.
…
