…
I1106 18:31:54.613383 13439 net.cpp:275] The NetState phase (0) differed from the phase (1) specified by a rule in layer accuracy
I1106 18:31:54.613948 13439 net.cpp:39] Initializing net from parameters: 
name: "small"
layers {
  top: "data"
  top: "label"
  name: "data"
  type: IMAGE_DATA
  image_data_param {
    source: "/data/ad6813/devCaffe/caffe/data/water_high/train.txt"
    batch_size: 32
    new_height: 256
    new_width: 256
  }
  include {
    phase: TRAIN
  }
  transform_param {
    mirror: true
    crop_size: 224
    mean_value: 86.752
    mean_value: 101.46
    mean_value: 104.6
  }
}
layers {
  bottom: "data"
  top: "conv1_1"
  name: "conv1_1"
  type: CONVOLUTION
  convolution_param {
    num_output: 64
    pad: 1
    kernel_size: 3
    weight_filler {
      type: "gaussian"
      std: 0.01
    }
    bias_filler {
      type: "constant"
      value: 0
    }
  }
}
layers {
  bottom: "conv1_1"
  top: "conv1_1"
  name: "relu1_1"
  type: RELU
}
layers {
  bottom: "conv1_1"
  top: "conv1_2"
  name: "conv1_2"
  type: CONVOLUTION
  convolution_param {
    num_output: 64
    pad: 1
    kernel_size: 3
    weight_filler {
      type: "gaussian"
      std: 0.01
    }
    bias_filler {
      type: "constant"
      value: 0
    }
  }
}
layers {
  bottom: "conv1_2"
  top: "conv1_2"
  name: "relu1_2"
  type: RELU
}
layers {
  bottom: "conv1_2"
  top: "pool1"
  name: "pool1"
  type: POOLING
  pooling_param {
    pool: MAX
    kernel_size: 2
    stride: 2
  }
}
layers {
  bottom: "pool1"
  top: "conv2_1"
  name: "conv2_1"
  type: CONVOLUTION
  convolution_param {
    num_output: 128
    pad: 1
    kernel_size: 3
    weight_filler {
      type: "gaussian"
      std: 0.01
    }
    bias_filler {
      type: "constant"
      value: 0
    }
  }
}
layers {
  bottom: "conv2_1"
  top: "conv2_1"
  name: "relu2_1"
  type: RELU
}
layers {
  bottom: "conv2_1"
  top: "conv2_2"
  name: "conv2_2"
  type: CONVOLUTION
  convolution_param {
    num_output: 128
    pad: 1
    kernel_size: 3
    weight_filler {
      type: "gaussian"
      std: 0.01
    }
    bias_filler {
      type: "constant"
      value: 0
    }
  }
}
layers {
  bottom: "conv2_2"
  top: "conv2_2"
  name: "relu2_2"
  type: RELU
}
layers {
  bottom: "conv2_2"
  top: "pool2"
  name: "pool2"
  type: POOLING
  pooling_param {
    pool: MAX
    kernel_size: 2
    stride: 2
  }
}
layers {
  bottom: "pool2"
  top: "conv3_1"
  name: "conv3_1"
  type: CONVOLUTION
  convolution_param {
    num_output: 256
    pad: 1
    kernel_size: 3
    weight_filler {
      type: "gaussian"
      std: 0.01
    }
    bias_filler {
      type: "constant"
      value: 0
    }
  }
}
layers {
  bottom: "conv3_1"
  top: "conv3_1"
  name: "relu3_1"
  type: RELU
}
layers {
  bottom: "conv3_1"
  top: "conv3_2"
  name: "conv3_2"
  type: CONVOLUTION
  convolution_param {
    num_output: 256
    pad: 1
    kernel_size: 3
    weight_filler {
      type: "gaussian"
      std: 0.01
    }
    bias_filler {
      type: "constant"
      value: 0
    }
  }
}
layers {
  bottom: "conv3_2"
  top: "conv3_2"
  name: "relu3_2"
  type: RELU
}
layers {
  bottom: "conv3_2"
  top: "conv3_3"
  name: "conv3_3"
  type: CONVOLUTION
  convolution_param {
    num_output: 256
    pad: 1
    kernel_size: 3
    weight_filler {
      type: "gaussian"
      std: 0.01
    }
    bias_filler {
      type: "constant"
      value: 0
    }
  }
}
layers {
  bottom: "conv3_3"
  top: "conv3_3"
  name: "relu3_3"
  type: RELU
}
layers {
  bottom: "conv3_3"
  top: "pool3"
  name: "pool3"
  type: POOLING
  pooling_param {
    pool: MAX
    kernel_size: 2
    stride: 2
  }
}
layers {
  bottom: "pool3"
  top: "conv4_1"
  name: "conv4_1"
  type: CONVOLUTION
  convolution_param {
    num_output: 512
    pad: 1
    kernel_size: 3
    weight_filler {
      type: "gaussian"
      std: 0.01
    }
    bias_filler {
      type: "constant"
      value: 0
    }
  }
}
layers {
  bottom: "conv4_1"
  top: "conv4_1"
  name: "relu4_1"
  type: RELU
}
layers {
  bottom: "conv4_1"
  top: "conv4_2"
  name: "conv4_2"
  type: CONVOLUTION
  convolution_param {
    num_output: 512
    pad: 1
    kernel_size: 3
    weight_filler {
      type: "gaussian"
      std: 0.01
    }
    bias_filler {
      type: "constant"
      value: 0
    }
  }
}
layers {
  bottom: "conv4_2"
  top: "conv4_2"
  name: "relu4_2"
  type: RELU
}
layers {
  bottom: "conv4_2"
  top: "conv4_3"
  name: "conv4_3"
  type: CONVOLUTION
  convolution_param {
    num_output: 512
    pad: 1
    kernel_size: 3
    weight_filler {
      type: "gaussian"
      std: 0.01
    }
    bias_filler {
      type: "constant"
      value: 0
    }
  }
}
layers {
  bottom: "conv4_3"
  top: "conv4_3"
  name: "relu4_3"
  type: RELU
}
layers {
  bottom: "conv4_3"
  top: "pool4"
  name: "pool4"
  type: POOLING
  pooling_param {
    pool: MAX
    kernel_size: 2
    stride: 2
  }
}
layers {
  bottom: "pool4"
  top: "conv5_1"
  name: "conv5_1"
  type: CONVOLUTION
  convolution_param {
    num_output: 512
    pad: 1
    kernel_size: 3
    weight_filler {
      type: "gaussian"
      std: 0.01
    }
    bias_filler {
      type: "constant"
      value: 0
    }
  }
}
layers {
  bottom: "conv5_1"
  top: "conv5_1"
  name: "relu5_1"
  type: RELU
}
layers {
  bottom: "conv5_1"
  top: "conv5_2"
  name: "conv5_2"
  type: CONVOLUTION
  convolution_param {
    num_output: 512
    pad: 1
    kernel_size: 3
    weight_filler {
      type: "gaussian"
      std: 0.01
    }
    bias_filler {
      type: "constant"
      value: 0
    }
  }
}
layers {
  bottom: "conv5_2"
  top: "conv5_2"
  name: "relu5_2"
  type: RELU
}
layers {
  bottom: "conv5_2"
  top: "conv5_3"
  name: "conv5_3"
  type: CONVOLUTION
  convolution_param {
    num_output: 512
    pad: 1
    kernel_size: 3
    weight_filler {
      type: "gaussian"
      std: 0.01
    }
    bias_filler {
      type: "constant"
      value: 0
    }
  }
}
layers {
  bottom: "conv5_3"
  top: "conv5_3"
  name: "relu5_3"
  type: RELU
}
layers {
  bottom: "conv5_3"
  top: "pool5"
  name: "pool5"
  type: POOLING
  pooling_param {
    pool: MAX
    kernel_size: 2
    stride: 2
  }
}
layers {
  bottom: "pool5"
  top: "fc6"
  name: "fc6"
  type: INNER_PRODUCT
  inner_product_param {
    num_output: 4096
    weight_filler {
      type: "gaussian"
      std: 0.01
    }
    bias_filler {
      type: "constant"
      value: 0
    }
  }
}
layers {
  bottom: "fc6"
  top: "fc6"
  name: "relu6"
  type: RELU
}
layers {
  bottom: "fc6"
  top: "fc6"
  name: "drop6"
  type: DROPOUT
  dropout_param {
    dropout_ratio: 0.5
  }
}
layers {
  bottom: "fc6"
  top: "fc7"
  name: "fc7"
  type: INNER_PRODUCT
  inner_product_param {
    num_output: 4096
    weight_filler {
      type: "gaussian"
      std: 0.01
    }
    bias_filler {
      type: "constant"
      value: 0
    }
  }
}
layers {
  bottom: "fc7"
  top: "fc7"
  name: "relu7"
  type: RELU
}
layers {
  bottom: "fc7"
  top: "fc7"
  name: "drop7"
  type: DROPOUT
  dropout_param {
    dropout_ratio: 0.5
  }
}
layers {
  bottom: "fc7"
  top: "fc8_2"
  name: "fc8_2"
  type: INNER_PRODUCT
  inner_product_param {
    num_output: 2
    weight_filler {
      type: "gaussian"
      std: 0.01
    }
    bias_filler {
      type: "constant"
      value: 0
    }
  }
}
layers {
  bottom: "fc8_2"
  bottom: "label"
  name: "loss"
  type: SOFTMAX_LOSS
}
state {
  phase: TRAIN
}
I1106 18:31:54.614301 13439 layer_factory.hpp:78] Creating layer data
I1106 18:31:54.614351 13439 net.cpp:67] Creating Layer data
I1106 18:31:54.614377 13439 net.cpp:356] data -> data
I1106 18:31:54.614430 13439 net.cpp:356] data -> label
I1106 18:31:54.614459 13439 net.cpp:96] Setting up data
I1106 18:31:54.614481 13439 image_data_layer.cpp:34] Opening file /data/ad6813/devCaffe/caffe/data/water_high/train.txt
I1106 18:31:54.635861 13439 image_data_layer.cpp:49] A total of 11507 images.
I1106 18:31:54.647704 13439 image_data_layer.cpp:78] output data size: 32,3,224,224
I1106 18:31:54.650516 13439 net.cpp:103] Top shape: 32 3 224 224 (4816896)
I1106 18:31:54.650542 13439 net.cpp:103] Top shape: 32 1 1 1 (32)
I1106 18:31:54.650548 13439 layer_factory.hpp:78] Creating layer conv1_1
I1106 18:31:54.650564 13439 net.cpp:67] Creating Layer conv1_1
I1106 18:31:54.650568 13439 net.cpp:394] conv1_1 <- data
I1106 18:31:54.650583 13439 net.cpp:356] conv1_1 -> conv1_1
I1106 18:31:54.650594 13439 net.cpp:96] Setting up conv1_1
I1106 18:31:54.672806 13439 net.cpp:103] Top shape: 32 64 224 224 (102760448)
I1106 18:31:54.672840 13439 layer_factory.hpp:78] Creating layer relu1_1
I1106 18:31:54.672852 13439 net.cpp:67] Creating Layer relu1_1
I1106 18:31:54.672857 13439 net.cpp:394] relu1_1 <- conv1_1
I1106 18:31:54.672863 13439 net.cpp:345] relu1_1 -> conv1_1 (in-place)
I1106 18:31:54.672871 13439 net.cpp:96] Setting up relu1_1
I1106 18:31:54.672885 13439 net.cpp:103] Top shape: 32 64 224 224 (102760448)
I1106 18:31:54.672890 13439 layer_factory.hpp:78] Creating layer conv1_2
I1106 18:31:54.672898 13439 net.cpp:67] Creating Layer conv1_2
I1106 18:31:54.672901 13439 net.cpp:394] conv1_2 <- conv1_1
I1106 18:31:54.672906 13439 net.cpp:356] conv1_2 -> conv1_2
I1106 18:31:54.672914 13439 net.cpp:96] Setting up conv1_2
I1106 18:31:54.673956 13439 net.cpp:103] Top shape: 32 64 224 224 (102760448)
I1106 18:31:54.673969 13439 layer_factory.hpp:78] Creating layer relu1_2
I1106 18:31:54.673977 13439 net.cpp:67] Creating Layer relu1_2
I1106 18:31:54.673980 13439 net.cpp:394] relu1_2 <- conv1_2
I1106 18:31:54.673985 13439 net.cpp:345] relu1_2 -> conv1_2 (in-place)
I1106 18:31:54.673990 13439 net.cpp:96] Setting up relu1_2
I1106 18:31:54.673995 13439 net.cpp:103] Top shape: 32 64 224 224 (102760448)
I1106 18:31:54.674001 13439 layer_factory.hpp:78] Creating layer pool1
I1106 18:31:54.674011 13439 net.cpp:67] Creating Layer pool1
I1106 18:31:54.674016 13439 net.cpp:394] pool1 <- conv1_2
I1106 18:31:54.674022 13439 net.cpp:356] pool1 -> pool1
I1106 18:31:54.674029 13439 net.cpp:96] Setting up pool1
I1106 18:31:54.674048 13439 net.cpp:103] Top shape: 32 64 112 112 (25690112)
I1106 18:31:54.674053 13439 layer_factory.hpp:78] Creating layer conv2_1
I1106 18:31:54.674060 13439 net.cpp:67] Creating Layer conv2_1
I1106 18:31:54.674064 13439 net.cpp:394] conv2_1 <- pool1
I1106 18:31:54.674072 13439 net.cpp:356] conv2_1 -> conv2_1
I1106 18:31:54.674077 13439 net.cpp:96] Setting up conv2_1
I1106 18:31:54.675983 13439 net.cpp:103] Top shape: 32 128 112 112 (51380224)
I1106 18:31:54.675995 13439 layer_factory.hpp:78] Creating layer relu2_1
I1106 18:31:54.676002 13439 net.cpp:67] Creating Layer relu2_1
I1106 18:31:54.676007 13439 net.cpp:394] relu2_1 <- conv2_1
I1106 18:31:54.676013 13439 net.cpp:345] relu2_1 -> conv2_1 (in-place)
I1106 18:31:54.676019 13439 net.cpp:96] Setting up relu2_1
I1106 18:31:54.676025 13439 net.cpp:103] Top shape: 32 128 112 112 (51380224)
I1106 18:31:54.676030 13439 layer_factory.hpp:78] Creating layer conv2_2
I1106 18:31:54.676038 13439 net.cpp:67] Creating Layer conv2_2
I1106 18:31:54.676043 13439 net.cpp:394] conv2_2 <- conv2_1
I1106 18:31:54.676050 13439 net.cpp:356] conv2_2 -> conv2_2
I1106 18:31:54.676058 13439 net.cpp:96] Setting up conv2_2
I1106 18:31:54.679813 13439 net.cpp:103] Top shape: 32 128 112 112 (51380224)
I1106 18:31:54.679832 13439 layer_factory.hpp:78] Creating layer relu2_2
I1106 18:31:54.679838 13439 net.cpp:67] Creating Layer relu2_2
I1106 18:31:54.679842 13439 net.cpp:394] relu2_2 <- conv2_2
I1106 18:31:54.679851 13439 net.cpp:345] relu2_2 -> conv2_2 (in-place)
I1106 18:31:54.679857 13439 net.cpp:96] Setting up relu2_2
I1106 18:31:54.679863 13439 net.cpp:103] Top shape: 32 128 112 112 (51380224)
I1106 18:31:54.679875 13439 layer_factory.hpp:78] Creating layer pool2
I1106 18:31:54.679883 13439 net.cpp:67] Creating Layer pool2
I1106 18:31:54.679888 13439 net.cpp:394] pool2 <- conv2_2
I1106 18:31:54.679893 13439 net.cpp:356] pool2 -> pool2
I1106 18:31:54.679900 13439 net.cpp:96] Setting up pool2
I1106 18:31:54.679908 13439 net.cpp:103] Top shape: 32 128 56 56 (12845056)
I1106 18:31:54.679913 13439 layer_factory.hpp:78] Creating layer conv3_1
I1106 18:31:54.679919 13439 net.cpp:67] Creating Layer conv3_1
I1106 18:31:54.679924 13439 net.cpp:394] conv3_1 <- pool2
I1106 18:31:54.679929 13439 net.cpp:356] conv3_1 -> conv3_1
I1106 18:31:54.679937 13439 net.cpp:96] Setting up conv3_1
I1106 18:31:54.687366 13439 net.cpp:103] Top shape: 32 256 56 56 (25690112)
I1106 18:31:54.687382 13439 layer_factory.hpp:78] Creating layer relu3_1
I1106 18:31:54.687389 13439 net.cpp:67] Creating Layer relu3_1
I1106 18:31:54.687394 13439 net.cpp:394] relu3_1 <- conv3_1
I1106 18:31:54.687402 13439 net.cpp:345] relu3_1 -> conv3_1 (in-place)
I1106 18:31:54.687408 13439 net.cpp:96] Setting up relu3_1
I1106 18:31:54.687414 13439 net.cpp:103] Top shape: 32 256 56 56 (25690112)
I1106 18:31:54.687419 13439 layer_factory.hpp:78] Creating layer conv3_2
I1106 18:31:54.687425 13439 net.cpp:67] Creating Layer conv3_2
I1106 18:31:54.687430 13439 net.cpp:394] conv3_2 <- conv3_1
I1106 18:31:54.687436 13439 net.cpp:356] conv3_2 -> conv3_2
I1106 18:31:54.687444 13439 net.cpp:96] Setting up conv3_2
I1106 18:31:54.707279 13439 net.cpp:103] Top shape: 32 256 56 56 (25690112)
I1106 18:31:54.707298 13439 layer_factory.hpp:78] Creating layer relu3_2
I1106 18:31:54.707305 13439 net.cpp:67] Creating Layer relu3_2
I1106 18:31:54.707309 13439 net.cpp:394] relu3_2 <- conv3_2
I1106 18:31:54.707314 13439 net.cpp:345] relu3_2 -> conv3_2 (in-place)
I1106 18:31:54.707320 13439 net.cpp:96] Setting up relu3_2
I1106 18:31:54.707325 13439 net.cpp:103] Top shape: 32 256 56 56 (25690112)
I1106 18:31:54.707329 13439 layer_factory.hpp:78] Creating layer conv3_3
I1106 18:31:54.707334 13439 net.cpp:67] Creating Layer conv3_3
I1106 18:31:54.707341 13439 net.cpp:394] conv3_3 <- conv3_2
I1106 18:31:54.707345 13439 net.cpp:356] conv3_3 -> conv3_3
I1106 18:31:54.707353 13439 net.cpp:96] Setting up conv3_3
I1106 18:31:54.722018 13439 net.cpp:103] Top shape: 32 256 56 56 (25690112)
I1106 18:31:54.722029 13439 layer_factory.hpp:78] Creating layer relu3_3
I1106 18:31:54.722038 13439 net.cpp:67] Creating Layer relu3_3
I1106 18:31:54.722041 13439 net.cpp:394] relu3_3 <- conv3_3
I1106 18:31:54.722046 13439 net.cpp:345] relu3_3 -> conv3_3 (in-place)
I1106 18:31:54.722051 13439 net.cpp:96] Setting up relu3_3
I1106 18:31:54.722056 13439 net.cpp:103] Top shape: 32 256 56 56 (25690112)
I1106 18:31:54.722059 13439 layer_factory.hpp:78] Creating layer pool3
I1106 18:31:54.722065 13439 net.cpp:67] Creating Layer pool3
I1106 18:31:54.722067 13439 net.cpp:394] pool3 <- conv3_3
I1106 18:31:54.722077 13439 net.cpp:356] pool3 -> pool3
I1106 18:31:54.722084 13439 net.cpp:96] Setting up pool3
I1106 18:31:54.722093 13439 net.cpp:103] Top shape: 32 256 28 28 (6422528)
I1106 18:31:54.722098 13439 layer_factory.hpp:78] Creating layer conv4_1
I1106 18:31:54.722105 13439 net.cpp:67] Creating Layer conv4_1
I1106 18:31:54.722110 13439 net.cpp:394] conv4_1 <- pool3
I1106 18:31:54.722115 13439 net.cpp:356] conv4_1 -> conv4_1
I1106 18:31:54.722122 13439 net.cpp:96] Setting up conv4_1
I1106 18:31:54.751159 13439 net.cpp:103] Top shape: 32 512 28 28 (12845056)
I1106 18:31:54.751183 13439 layer_factory.hpp:78] Creating layer relu4_1
I1106 18:31:54.751193 13439 net.cpp:67] Creating Layer relu4_1
I1106 18:31:54.751200 13439 net.cpp:394] relu4_1 <- conv4_1
I1106 18:31:54.751209 13439 net.cpp:345] relu4_1 -> conv4_1 (in-place)
I1106 18:31:54.751216 13439 net.cpp:96] Setting up relu4_1
I1106 18:31:54.751224 13439 net.cpp:103] Top shape: 32 512 28 28 (12845056)
I1106 18:31:54.751230 13439 layer_factory.hpp:78] Creating layer conv4_2
I1106 18:31:54.751240 13439 net.cpp:67] Creating Layer conv4_2
I1106 18:31:54.751243 13439 net.cpp:394] conv4_2 <- conv4_1
I1106 18:31:54.751256 13439 net.cpp:356] conv4_2 -> conv4_2
I1106 18:31:54.751266 13439 net.cpp:96] Setting up conv4_2
I1106 18:31:54.808747 13439 net.cpp:103] Top shape: 32 512 28 28 (12845056)
I1106 18:31:54.808773 13439 layer_factory.hpp:78] Creating layer relu4_2
I1106 18:31:54.808783 13439 net.cpp:67] Creating Layer relu4_2
I1106 18:31:54.808789 13439 net.cpp:394] relu4_2 <- conv4_2
I1106 18:31:54.808795 13439 net.cpp:345] relu4_2 -> conv4_2 (in-place)
I1106 18:31:54.808801 13439 net.cpp:96] Setting up relu4_2
I1106 18:31:54.808807 13439 net.cpp:103] Top shape: 32 512 28 28 (12845056)
I1106 18:31:54.808816 13439 layer_factory.hpp:78] Creating layer conv4_3
I1106 18:31:54.808822 13439 net.cpp:67] Creating Layer conv4_3
I1106 18:31:54.808826 13439 net.cpp:394] conv4_3 <- conv4_2
I1106 18:31:54.808832 13439 net.cpp:356] conv4_3 -> conv4_3
I1106 18:31:54.808840 13439 net.cpp:96] Setting up conv4_3
I1106 18:31:54.866447 13439 net.cpp:103] Top shape: 32 512 28 28 (12845056)
I1106 18:31:54.866472 13439 layer_factory.hpp:78] Creating layer relu4_3
I1106 18:31:54.866480 13439 net.cpp:67] Creating Layer relu4_3
I1106 18:31:54.866485 13439 net.cpp:394] relu4_3 <- conv4_3
I1106 18:31:54.866492 13439 net.cpp:345] relu4_3 -> conv4_3 (in-place)
I1106 18:31:54.866499 13439 net.cpp:96] Setting up relu4_3
I1106 18:31:54.866504 13439 net.cpp:103] Top shape: 32 512 28 28 (12845056)
I1106 18:31:54.866508 13439 layer_factory.hpp:78] Creating layer pool4
I1106 18:31:54.866519 13439 net.cpp:67] Creating Layer pool4
I1106 18:31:54.866523 13439 net.cpp:394] pool4 <- conv4_3
I1106 18:31:54.866530 13439 net.cpp:356] pool4 -> pool4
I1106 18:31:54.866538 13439 net.cpp:96] Setting up pool4
I1106 18:31:54.866546 13439 net.cpp:103] Top shape: 32 512 14 14 (3211264)
I1106 18:31:54.866551 13439 layer_factory.hpp:78] Creating layer conv5_1
I1106 18:31:54.866559 13439 net.cpp:67] Creating Layer conv5_1
I1106 18:31:54.866564 13439 net.cpp:394] conv5_1 <- pool4
I1106 18:31:54.866567 13439 net.cpp:356] conv5_1 -> conv5_1
I1106 18:31:54.866576 13439 net.cpp:96] Setting up conv5_1
I1106 18:31:54.924178 13439 net.cpp:103] Top shape: 32 512 14 14 (3211264)
I1106 18:31:54.924202 13439 layer_factory.hpp:78] Creating layer relu5_1
I1106 18:31:54.924218 13439 net.cpp:67] Creating Layer relu5_1
I1106 18:31:54.924223 13439 net.cpp:394] relu5_1 <- conv5_1
I1106 18:31:54.924231 13439 net.cpp:345] relu5_1 -> conv5_1 (in-place)
I1106 18:31:54.924237 13439 net.cpp:96] Setting up relu5_1
I1106 18:31:54.924243 13439 net.cpp:103] Top shape: 32 512 14 14 (3211264)
I1106 18:31:54.924250 13439 layer_factory.hpp:78] Creating layer conv5_2
I1106 18:31:54.924258 13439 net.cpp:67] Creating Layer conv5_2
I1106 18:31:54.924262 13439 net.cpp:394] conv5_2 <- conv5_1
I1106 18:31:54.924268 13439 net.cpp:356] conv5_2 -> conv5_2
I1106 18:31:54.924276 13439 net.cpp:96] Setting up conv5_2
I1106 18:31:54.981634 13439 net.cpp:103] Top shape: 32 512 14 14 (3211264)
I1106 18:31:54.981660 13439 layer_factory.hpp:78] Creating layer relu5_2
I1106 18:31:54.981669 13439 net.cpp:67] Creating Layer relu5_2
I1106 18:31:54.981674 13439 net.cpp:394] relu5_2 <- conv5_2
I1106 18:31:54.981681 13439 net.cpp:345] relu5_2 -> conv5_2 (in-place)
I1106 18:31:54.981688 13439 net.cpp:96] Setting up relu5_2
I1106 18:31:54.981693 13439 net.cpp:103] Top shape: 32 512 14 14 (3211264)
I1106 18:31:54.981696 13439 layer_factory.hpp:78] Creating layer conv5_3
I1106 18:31:54.981701 13439 net.cpp:67] Creating Layer conv5_3
I1106 18:31:54.981709 13439 net.cpp:394] conv5_3 <- conv5_2
I1106 18:31:54.981719 13439 net.cpp:356] conv5_3 -> conv5_3
I1106 18:31:54.981726 13439 net.cpp:96] Setting up conv5_3
I1106 18:31:55.039209 13439 net.cpp:103] Top shape: 32 512 14 14 (3211264)
I1106 18:31:55.039233 13439 layer_factory.hpp:78] Creating layer relu5_3
I1106 18:31:55.039242 13439 net.cpp:67] Creating Layer relu5_3
I1106 18:31:55.039253 13439 net.cpp:394] relu5_3 <- conv5_3
I1106 18:31:55.039263 13439 net.cpp:345] relu5_3 -> conv5_3 (in-place)
I1106 18:31:55.039273 13439 net.cpp:96] Setting up relu5_3
I1106 18:31:55.039285 13439 net.cpp:103] Top shape: 32 512 14 14 (3211264)
I1106 18:31:55.039290 13439 layer_factory.hpp:78] Creating layer pool5
I1106 18:31:55.039299 13439 net.cpp:67] Creating Layer pool5
I1106 18:31:55.039302 13439 net.cpp:394] pool5 <- conv5_3
I1106 18:31:55.039309 13439 net.cpp:356] pool5 -> pool5
I1106 18:31:55.039316 13439 net.cpp:96] Setting up pool5
I1106 18:31:55.039325 13439 net.cpp:103] Top shape: 32 512 7 7 (802816)
I1106 18:31:55.039330 13439 layer_factory.hpp:78] Creating layer fc6
I1106 18:31:55.039345 13439 net.cpp:67] Creating Layer fc6
I1106 18:31:55.039350 13439 net.cpp:394] fc6 <- pool5
I1106 18:31:55.039356 13439 net.cpp:356] fc6 -> fc6
I1106 18:31:55.039363 13439 net.cpp:96] Setting up fc6
I1106 18:31:57.456307 13439 net.cpp:103] Top shape: 32 4096 1 1 (131072)
I1106 18:31:57.456347 13439 layer_factory.hpp:78] Creating layer relu6
I1106 18:31:57.456356 13439 net.cpp:67] Creating Layer relu6
I1106 18:31:57.456359 13439 net.cpp:394] relu6 <- fc6
I1106 18:31:57.456367 13439 net.cpp:345] relu6 -> fc6 (in-place)
I1106 18:31:57.456373 13439 net.cpp:96] Setting up relu6
I1106 18:31:57.456387 13439 net.cpp:103] Top shape: 32 4096 1 1 (131072)
I1106 18:31:57.456393 13439 layer_factory.hpp:78] Creating layer drop6
I1106 18:31:57.456403 13439 net.cpp:67] Creating Layer drop6
I1106 18:31:57.456406 13439 net.cpp:394] drop6 <- fc6
I1106 18:31:57.456411 13439 net.cpp:345] drop6 -> fc6 (in-place)
I1106 18:31:57.456418 13439 net.cpp:96] Setting up drop6
I1106 18:31:57.456423 13439 net.cpp:103] Top shape: 32 4096 1 1 (131072)
I1106 18:31:57.456428 13439 layer_factory.hpp:78] Creating layer fc7
I1106 18:31:57.456434 13439 net.cpp:67] Creating Layer fc7
I1106 18:31:57.456437 13439 net.cpp:394] fc7 <- fc6
I1106 18:31:57.456441 13439 net.cpp:356] fc7 -> fc7
I1106 18:31:57.456449 13439 net.cpp:96] Setting up fc7
I1106 18:31:57.849573 13439 net.cpp:103] Top shape: 32 4096 1 1 (131072)
I1106 18:31:57.849617 13439 layer_factory.hpp:78] Creating layer relu7
I1106 18:31:57.849624 13439 net.cpp:67] Creating Layer relu7
I1106 18:31:57.849629 13439 net.cpp:394] relu7 <- fc7
I1106 18:31:57.849637 13439 net.cpp:345] relu7 -> fc7 (in-place)
I1106 18:31:57.849644 13439 net.cpp:96] Setting up relu7
I1106 18:31:57.849658 13439 net.cpp:103] Top shape: 32 4096 1 1 (131072)
I1106 18:31:57.849663 13439 layer_factory.hpp:78] Creating layer drop7
I1106 18:31:57.849668 13439 net.cpp:67] Creating Layer drop7
I1106 18:31:57.849673 13439 net.cpp:394] drop7 <- fc7
I1106 18:31:57.849676 13439 net.cpp:345] drop7 -> fc7 (in-place)
I1106 18:31:57.849681 13439 net.cpp:96] Setting up drop7
I1106 18:31:57.849689 13439 net.cpp:103] Top shape: 32 4096 1 1 (131072)
I1106 18:31:57.849691 13439 layer_factory.hpp:78] Creating layer fc8_2
I1106 18:31:57.849697 13439 net.cpp:67] Creating Layer fc8_2
I1106 18:31:57.849700 13439 net.cpp:394] fc8_2 <- fc7
I1106 18:31:57.849707 13439 net.cpp:356] fc8_2 -> fc8_2
I1106 18:31:57.849715 13439 net.cpp:96] Setting up fc8_2
I1106 18:31:57.849930 13439 net.cpp:103] Top shape: 32 2 1 1 (64)
I1106 18:31:57.849936 13439 layer_factory.hpp:78] Creating layer loss
I1106 18:31:57.849947 13439 net.cpp:67] Creating Layer loss
I1106 18:31:57.849952 13439 net.cpp:394] loss <- fc8_2
I1106 18:31:57.849957 13439 net.cpp:394] loss <- label
I1106 18:31:57.849967 13439 net.cpp:356] loss -> (automatic)
I1106 18:31:57.849972 13439 net.cpp:96] Setting up loss
I1106 18:31:57.849982 13439 net.cpp:103] Top shape: 1 1 1 1 (1)
I1106 18:31:57.849987 13439 net.cpp:109]     with loss weight 1
I1106 18:31:57.850018 13439 net.cpp:170] loss needs backward computation.
I1106 18:31:57.850023 13439 net.cpp:170] fc8_2 needs backward computation.
I1106 18:31:57.850025 13439 net.cpp:170] drop7 needs backward computation.
I1106 18:31:57.850028 13439 net.cpp:170] relu7 needs backward computation.
I1106 18:31:57.850031 13439 net.cpp:170] fc7 needs backward computation.
…
I1106 18:31:57.851016 13439 net.cpp:275] The NetState phase (1) differed from the phase (0) specified by a rule in layer data
I1106 18:31:57.851217 13439 net.cpp:39] Initializing net from parameters: 
name: "small"
layers {
  top: "data"
  top: "label"
  name: "data"
  type: IMAGE_DATA
  image_data_param {
    source: "/data/ad6813/devCaffe/caffe/data/water_high/val.txt"
    batch_size: 8
    new_height: 256
    new_width: 256
  }
  include {
    phase: TEST
  }
  transform_param {
    mirror: true
    crop_size: 224
    mean_value: 86.752
    mean_value: 101.46
    mean_value: 104.6
  }
}
layers {
  bottom: "data"
  top: "conv1_1"
  name: "conv1_1"
  type: CONVOLUTION
  convolution_param {
    num_output: 64
    pad: 1
    kernel_size: 3
    weight_filler {
      type: "gaussian"
      std: 0.01
    }
    bias_filler {
      type: "constant"
      value: 0
    }
  }
}
layers {
  bottom: "conv1_1"
  top: "conv1_1"
  name: "relu1_1"
  type: RELU
}
layers {
  bottom: "conv1_1"
  top: "conv1_2"
  name: "conv1_2"
  type: CONVOLUTION
  convolution_param {
    num_output: 64
    pad: 1
    kernel_size: 3
    weight_filler {
      type: "gaussian"
      std: 0.01
    }
    bias_filler {
      type: "constant"
      value: 0
    }
  }
}
layers {
  bottom: "conv1_2"
  top: "conv1_2"
  name: "relu1_2"
  type: RELU
}
layers {
  bottom: "conv1_2"
  top: "pool1"
  name: "pool1"
  type: POOLING
  pooling_param {
    pool: MAX
    kernel_size: 2
    stride: 2
  }
}
layers {
  bottom: "pool1"
  top: "conv2_1"
  name: "conv2_1"
  type: CONVOLUTION
  convolution_param {
    num_output: 128
    pad: 1
    kernel_size: 3
    weight_filler {
      type: "gaussian"
      std: 0.01
    }
    bias_filler {
      type: "constant"
      value: 0
    }
  }
}
layers {
  bottom: "conv2_1"
  top: "conv2_1"
  name: "relu2_1"
  type: RELU
}
layers {
  bottom: "conv2_1"
  top: "conv2_2"
  name: "conv2_2"
  type: CONVOLUTION
  convolution_param {
    num_output: 128
    pad: 1
    kernel_size: 3
    weight_filler {
      type: "gaussian"
      std: 0.01
    }
    bias_filler {
      type: "constant"
      value: 0
    }
  }
}
layers {
  bottom: "conv2_2"
  top: "conv2_2"
  name: "relu2_2"
  type: RELU
}
layers {
  bottom: "conv2_2"
  top: "pool2"
  name: "pool2"
  type: POOLING
  pooling_param {
    pool: MAX
    kernel_size: 2
    stride: 2
  }
}
layers {
  bottom: "pool2"
  top: "conv3_1"
  name: "conv3_1"
  type: CONVOLUTION
  convolution_param {
    num_output: 256
    pad: 1
    kernel_size: 3
    weight_filler {
      type: "gaussian"
      std: 0.01
    }
    bias_filler {
      type: "constant"
      value: 0
    }
  }
}
layers {
  bottom: "conv3_1"
  top: "conv3_1"
  name: "relu3_1"
  type: RELU
}
layers {
  bottom: "conv3_1"
  top: "conv3_2"
  name: "conv3_2"
  type: CONVOLUTION
  convolution_param {
    num_output: 256
    pad: 1
    kernel_size: 3
    weight_filler {
      type: "gaussian"
      std: 0.01
    }
    bias_filler {
      type: "constant"
      value: 0
    }
  }
}
layers {
  bottom: "conv3_2"
  top: "conv3_2"
  name: "relu3_2"
  type: RELU
}
layers {
  bottom: "conv3_2"
  top: "conv3_3"
  name: "conv3_3"
  type: CONVOLUTION
  convolution_param {
    num_output: 256
    pad: 1
    kernel_size: 3
    weight_filler {
      type: "gaussian"
      std: 0.01
    }
    bias_filler {
      type: "constant"
      value: 0
    }
  }
}
layers {
  bottom: "conv3_3"
  top: "conv3_3"
  name: "relu3_3"
  type: RELU
}
layers {
  bottom: "conv3_3"
  top: "pool3"
  name: "pool3"
  type: POOLING
  pooling_param {
    pool: MAX
    kernel_size: 2
    stride: 2
  }
}
layers {
  bottom: "pool3"
  top: "conv4_1"
  name: "conv4_1"
  type: CONVOLUTION
  convolution_param {
    num_output: 512
    pad: 1
    kernel_size: 3
    weight_filler {
      type: "gaussian"
      std: 0.01
    }
    bias_filler {
      type: "constant"
      value: 0
    }
  }
}
layers {
  bottom: "conv4_1"
  top: "conv4_1"
  name: "relu4_1"
  type: RELU
}
layers {
  bottom: "conv4_1"
  top: "conv4_2"
  name: "conv4_2"
  type: CONVOLUTION
  convolution_param {
    num_output: 512
    pad: 1
    kernel_size: 3
    weight_filler {
      type: "gaussian"
      std: 0.01
    }
    bias_filler {
      type: "constant"
      value: 0
    }
  }
}
layers {
  bottom: "conv4_2"
  top: "conv4_2"
  name: "relu4_2"
  type: RELU
}
layers {
  bottom: "conv4_2"
  top: "conv4_3"
  name: "conv4_3"
  type: CONVOLUTION
  convolution_param {
    num_output: 512
    pad: 1
    kernel_size: 3
    weight_filler {
      type: "gaussian"
      std: 0.01
    }
    bias_filler {
      type: "constant"
      value: 0
    }
  }
}
layers {
  bottom: "conv4_3"
  top: "conv4_3"
  name: "relu4_3"
  type: RELU
}
layers {
  bottom: "conv4_3"
  top: "pool4"
  name: "pool4"
  type: POOLING
  pooling_param {
    pool: MAX
    kernel_size: 2
    stride: 2
  }
}
layers {
  bottom: "pool4"
  top: "conv5_1"
  name: "conv5_1"
  type: CONVOLUTION
  convolution_param {
    num_output: 512
    pad: 1
    kernel_size: 3
    weight_filler {
      type: "gaussian"
      std: 0.01
    }
    bias_filler {
      type: "constant"
      value: 0
    }
  }
}
layers {
  bottom: "conv5_1"
  top: "conv5_1"
  name: "relu5_1"
  type: RELU
}
layers {
  bottom: "conv5_1"
  top: "conv5_2"
  name: "conv5_2"
  type: CONVOLUTION
  convolution_param {
    num_output: 512
    pad: 1
    kernel_size: 3
    weight_filler {
      type: "gaussian"
      std: 0.01
    }
    bias_filler {
      type: "constant"
      value: 0
    }
  }
}
layers {
  bottom: "conv5_2"
  top: "conv5_2"
  name: "relu5_2"
  type: RELU
}
layers {
  bottom: "conv5_2"
  top: "conv5_3"
  name: "conv5_3"
  type: CONVOLUTION
  convolution_param {
    num_output: 512
    pad: 1
    kernel_size: 3
    weight_filler {
      type: "gaussian"
      std: 0.01
    }
    bias_filler {
      type: "constant"
      value: 0
    }
  }
}
layers {
  bottom: "conv5_3"
  top: "conv5_3"
  name: "relu5_3"
  type: RELU
}
layers {
  bottom: "conv5_3"
  top: "pool5"
  name: "pool5"
  type: POOLING
  pooling_param {
    pool: MAX
    kernel_size: 2
    stride: 2
  }
}
layers {
  bottom: "pool5"
  top: "fc6"
  name: "fc6"
  type: INNER_PRODUCT
  inner_product_param {
    num_output: 4096
    weight_filler {
      type: "gaussian"
      std: 0.01
    }
    bias_filler {
      type: "constant"
      value: 0
    }
  }
}
layers {
  bottom: "fc6"
  top: "fc6"
  name: "relu6"
  type: RELU
}
layers {
  bottom: "fc6"
  top: "fc6"
  name: "drop6"
  type: DROPOUT
  dropout_param {
    dropout_ratio: 0.5
  }
}
layers {
  bottom: "fc6"
  top: "fc7"
  name: "fc7"
  type: INNER_PRODUCT
  inner_product_param {
    num_output: 4096
    weight_filler {
      type: "gaussian"
      std: 0.01
    }
    bias_filler {
      type: "constant"
      value: 0
    }
  }
}
layers {
  bottom: "fc7"
  top: "fc7"
  name: "relu7"
  type: RELU
}
layers {
  bottom: "fc7"
  top: "fc7"
  name: "drop7"
  type: DROPOUT
  dropout_param {
    dropout_ratio: 0.5
  }
}
layers {
  bottom: "fc7"
  top: "fc8_2"
  name: "fc8_2"
  type: INNER_PRODUCT
  inner_product_param {
    num_output: 2
    weight_filler {
      type: "gaussian"
      std: 0.01
    }
    bias_filler {
      type: "constant"
      value: 0
    }
  }
}
layers {
  bottom: "fc8_2"
  bottom: "label"
  name: "loss"
  type: SOFTMAX_LOSS
}
layers {
  bottom: "fc8_2"
  bottom: "label"
  top: "accuracy"
  name: "accuracy"
  type: PER_CLASS_ACCURACY
  include {
    phase: TEST
  }
}
state {
  phase: TEST
}
I1106 18:31:57.851351 13439 layer_factory.hpp:78] Creating layer data
I1106 18:31:57.851361 13439 net.cpp:67] Creating Layer data
I1106 18:31:57.851367 13439 net.cpp:356] data -> data
I1106 18:31:57.851377 13439 net.cpp:356] data -> label
I1106 18:31:57.851383 13439 net.cpp:96] Setting up data
I1106 18:31:57.851389 13439 image_data_layer.cpp:34] Opening file /data/ad6813/devCaffe/caffe/data/water_high/val.txt
I1106 18:31:57.859508 13439 image_data_layer.cpp:49] A total of 288 images.
I1106 18:31:57.880424 13439 image_data_layer.cpp:78] output data size: 8,3,224,224
I1106 18:31:57.881333 13439 net.cpp:103] Top shape: 8 3 224 224 (1204224)
I1106 18:31:57.881356 13439 net.cpp:103] Top shape: 8 1 1 1 (8)
I1106 18:31:57.881361 13439 layer_factory.hpp:78] Creating layer label_data_1_split
I1106 18:31:57.881372 13439 net.cpp:67] Creating Layer label_data_1_split
I1106 18:31:57.881376 13439 net.cpp:394] label_data_1_split <- label
I1106 18:31:57.881382 13439 net.cpp:356] label_data_1_split -> label_data_1_split_0
I1106 18:31:57.881392 13439 net.cpp:356] label_data_1_split -> label_data_1_split_1
I1106 18:31:57.881399 13439 net.cpp:96] Setting up label_data_1_split
I1106 18:31:57.881412 13439 net.cpp:103] Top shape: 8 1 1 1 (8)
I1106 18:31:57.881417 13439 net.cpp:103] Top shape: 8 1 1 1 (8)
I1106 18:31:57.881422 13439 layer_factory.hpp:78] Creating layer conv1_1
I1106 18:31:57.881428 13439 net.cpp:67] Creating Layer conv1_1
I1106 18:31:57.881433 13439 net.cpp:394] conv1_1 <- data
I1106 18:31:57.881439 13439 net.cpp:356] conv1_1 -> conv1_1
I1106 18:31:57.881448 13439 net.cpp:96] Setting up conv1_1
I1106 18:31:57.881599 13439 net.cpp:103] Top shape: 8 64 224 224 (25690112)
I1106 18:31:57.881613 13439 layer_factory.hpp:78] Creating layer relu1_1
I1106 18:31:57.881618 13439 net.cpp:67] Creating Layer relu1_1
I1106 18:31:57.881623 13439 net.cpp:394] relu1_1 <- conv1_1
I1106 18:31:57.881628 13439 net.cpp:345] relu1_1 -> conv1_1 (in-place)
I1106 18:31:57.881642 13439 net.cpp:96] Setting up relu1_1
I1106 18:31:57.881649 13439 net.cpp:103] Top shape: 8 64 224 224 (25690112)
I1106 18:31:57.881654 13439 layer_factory.hpp:78] Creating layer conv1_2
I1106 18:31:57.881660 13439 net.cpp:67] Creating Layer conv1_2
I1106 18:31:57.881664 13439 net.cpp:394] conv1_2 <- conv1_1
I1106 18:31:57.881670 13439 net.cpp:356] conv1_2 -> conv1_2
I1106 18:31:57.881676 13439 net.cpp:96] Setting up conv1_2
I1106 18:31:57.882634 13439 net.cpp:103] Top shape: 8 64 224 224 (25690112)
I1106 18:31:57.882647 13439 layer_factory.hpp:78] Creating layer relu1_2
I1106 18:31:57.882652 13439 net.cpp:67] Creating Layer relu1_2
I1106 18:31:57.882657 13439 net.cpp:394] relu1_2 <- conv1_2
I1106 18:31:57.882663 13439 net.cpp:345] relu1_2 -> conv1_2 (in-place)
I1106 18:31:57.882668 13439 net.cpp:96] Setting up relu1_2
I1106 18:31:57.882674 13439 net.cpp:103] Top shape: 8 64 224 224 (25690112)
I1106 18:31:57.882678 13439 layer_factory.hpp:78] Creating layer pool1
I1106 18:31:57.882685 13439 net.cpp:67] Creating Layer pool1
I1106 18:31:57.882689 13439 net.cpp:394] pool1 <- conv1_2
I1106 18:31:57.882695 13439 net.cpp:356] pool1 -> pool1
I1106 18:31:57.882701 13439 net.cpp:96] Setting up pool1
I1106 18:31:57.882709 13439 net.cpp:103] Top shape: 8 64 112 112 (6422528)
I1106 18:31:57.882714 13439 layer_factory.hpp:78] Creating layer conv2_1
I1106 18:31:57.882720 13439 net.cpp:67] Creating Layer conv2_1
I1106 18:31:57.882725 13439 net.cpp:394] conv2_1 <- pool1
I1106 18:31:57.882730 13439 net.cpp:356] conv2_1 -> conv2_1
I1106 18:31:57.882736 13439 net.cpp:96] Setting up conv2_1
I1106 18:31:57.884716 13439 net.cpp:103] Top shape: 8 128 112 112 (12845056)
I1106 18:31:57.884731 13439 layer_factory.hpp:78] Creating layer relu2_1
I1106 18:31:57.884737 13439 net.cpp:67] Creating Layer relu2_1
I1106 18:31:57.884740 13439 net.cpp:394] relu2_1 <- conv2_1
I1106 18:31:57.884747 13439 net.cpp:345] relu2_1 -> conv2_1 (in-place)
I1106 18:31:57.884753 13439 net.cpp:96] Setting up relu2_1
I1106 18:31:57.884760 13439 net.cpp:103] Top shape: 8 128 112 112 (12845056)
I1106 18:31:57.884764 13439 layer_factory.hpp:78] Creating layer conv2_2
I1106 18:31:57.884769 13439 net.cpp:67] Creating Layer conv2_2
I1106 18:31:57.884773 13439 net.cpp:394] conv2_2 <- conv2_1
I1106 18:31:57.884778 13439 net.cpp:356] conv2_2 -> conv2_2
I1106 18:31:57.884785 13439 net.cpp:96] Setting up conv2_2
I1106 18:31:57.888402 13439 net.cpp:103] Top shape: 8 128 112 112 (12845056)
I1106 18:31:57.888413 13439 layer_factory.hpp:78] Creating layer relu2_2
I1106 18:31:57.888420 13439 net.cpp:67] Creating Layer relu2_2
I1106 18:31:57.888424 13439 net.cpp:394] relu2_2 <- conv2_2
I1106 18:31:57.888429 13439 net.cpp:345] relu2_2 -> conv2_2 (in-place)
I1106 18:31:57.888435 13439 net.cpp:96] Setting up relu2_2
I1106 18:31:57.888442 13439 net.cpp:103] Top shape: 8 128 112 112 (12845056)
I1106 18:31:57.888447 13439 layer_factory.hpp:78] Creating layer pool2
I1106 18:31:57.888450 13439 net.cpp:67] Creating Layer pool2
I1106 18:31:57.888454 13439 net.cpp:394] pool2 <- conv2_2
I1106 18:31:57.888458 13439 net.cpp:356] pool2 -> pool2
I1106 18:31:57.888464 13439 net.cpp:96] Setting up pool2
I1106 18:31:57.888471 13439 net.cpp:103] Top shape: 8 128 56 56 (3211264)
I1106 18:31:57.888476 13439 layer_factory.hpp:78] Creating layer conv3_1
I1106 18:31:57.888481 13439 net.cpp:67] Creating Layer conv3_1
I1106 18:31:57.888485 13439 net.cpp:394] conv3_1 <- pool2
I1106 18:31:57.888489 13439 net.cpp:356] conv3_1 -> conv3_1
I1106 18:31:57.888496 13439 net.cpp:96] Setting up conv3_1
I1106 18:31:57.895673 13439 net.cpp:103] Top shape: 8 256 56 56 (6422528)
I1106 18:31:57.895686 13439 layer_factory.hpp:78] Creating layer relu3_1
I1106 18:31:57.895694 13439 net.cpp:67] Creating Layer relu3_1
I1106 18:31:57.895699 13439 net.cpp:394] relu3_1 <- conv3_1
I1106 18:31:57.895705 13439 net.cpp:345] relu3_1 -> conv3_1 (in-place)
I1106 18:31:57.895711 13439 net.cpp:96] Setting up relu3_1
I1106 18:31:57.895717 13439 net.cpp:103] Top shape: 8 256 56 56 (6422528)
I1106 18:31:57.895722 13439 layer_factory.hpp:78] Creating layer conv3_2
I1106 18:31:57.895735 13439 net.cpp:67] Creating Layer conv3_2
I1106 18:31:57.895740 13439 net.cpp:394] conv3_2 <- conv3_1
I1106 18:31:57.895745 13439 net.cpp:356] conv3_2 -> conv3_2
I1106 18:31:57.895758 13439 net.cpp:96] Setting up conv3_2
I1106 18:31:57.910279 13439 net.cpp:103] Top shape: 8 256 56 56 (6422528)
I1106 18:31:57.910291 13439 layer_factory.hpp:78] Creating layer relu3_2
I1106 18:31:57.910297 13439 net.cpp:67] Creating Layer relu3_2
I1106 18:31:57.910302 13439 net.cpp:394] relu3_2 <- conv3_2
I1106 18:31:57.910310 13439 net.cpp:345] relu3_2 -> conv3_2 (in-place)
I1106 18:31:57.910317 13439 net.cpp:96] Setting up relu3_2
I1106 18:31:57.910323 13439 net.cpp:103] Top shape: 8 256 56 56 (6422528)
I1106 18:31:57.910328 13439 layer_factory.hpp:78] Creating layer conv3_3
I1106 18:31:57.910337 13439 net.cpp:67] Creating Layer conv3_3
I1106 18:31:57.910341 13439 net.cpp:394] conv3_3 <- conv3_2
I1106 18:31:57.910346 13439 net.cpp:356] conv3_3 -> conv3_3
I1106 18:31:57.910352 13439 net.cpp:96] Setting up conv3_3
I1106 18:31:57.925009 13439 net.cpp:103] Top shape: 8 256 56 56 (6422528)
I1106 18:31:57.925024 13439 layer_factory.hpp:78] Creating layer relu3_3
I1106 18:31:57.925030 13439 net.cpp:67] Creating Layer relu3_3
I1106 18:31:57.925037 13439 net.cpp:394] relu3_3 <- conv3_3
I1106 18:31:57.925045 13439 net.cpp:345] relu3_3 -> conv3_3 (in-place)
I1106 18:31:57.925052 13439 net.cpp:96] Setting up relu3_3
I1106 18:31:57.925058 13439 net.cpp:103] Top shape: 8 256 56 56 (6422528)
I1106 18:31:57.925063 13439 layer_factory.hpp:78] Creating layer pool3
I1106 18:31:57.925068 13439 net.cpp:67] Creating Layer pool3
I1106 18:31:57.925072 13439 net.cpp:394] pool3 <- conv3_3
I1106 18:31:57.925078 13439 net.cpp:356] pool3 -> pool3
I1106 18:31:57.925086 13439 net.cpp:96] Setting up pool3
I1106 18:31:57.925093 13439 net.cpp:103] Top shape: 8 256 28 28 (1605632)
I1106 18:31:57.925098 13439 layer_factory.hpp:78] Creating layer conv4_1
I1106 18:31:57.925103 13439 net.cpp:67] Creating Layer conv4_1
I1106 18:31:57.925107 13439 net.cpp:394] conv4_1 <- pool3
I1106 18:31:57.925115 13439 net.cpp:356] conv4_1 -> conv4_1
I1106 18:31:57.925122 13439 net.cpp:96] Setting up conv4_1
I1106 18:31:57.954324 13439 net.cpp:103] Top shape: 8 512 28 28 (3211264)
I1106 18:31:57.954347 13439 layer_factory.hpp:78] Creating layer relu4_1
I1106 18:31:57.954357 13439 net.cpp:67] Creating Layer relu4_1
I1106 18:31:57.954362 13439 net.cpp:394] relu4_1 <- conv4_1
I1106 18:31:57.954371 13439 net.cpp:345] relu4_1 -> conv4_1 (in-place)
I1106 18:31:57.954378 13439 net.cpp:96] Setting up relu4_1
I1106 18:31:57.954385 13439 net.cpp:103] Top shape: 8 512 28 28 (3211264)
I1106 18:31:57.954390 13439 layer_factory.hpp:78] Creating layer conv4_2
I1106 18:31:57.954396 13439 net.cpp:67] Creating Layer conv4_2
I1106 18:31:57.954399 13439 net.cpp:394] conv4_2 <- conv4_1
I1106 18:31:57.954406 13439 net.cpp:356] conv4_2 -> conv4_2
I1106 18:31:57.954412 13439 net.cpp:96] Setting up conv4_2
I1106 18:31:58.010718 13439 net.cpp:103] Top shape: 8 512 28 28 (3211264)
I1106 18:31:58.010759 13439 layer_factory.hpp:78] Creating layer relu4_2
I1106 18:31:58.010768 13439 net.cpp:67] Creating Layer relu4_2
I1106 18:31:58.010773 13439 net.cpp:394] relu4_2 <- conv4_2
I1106 18:31:58.010782 13439 net.cpp:345] relu4_2 -> conv4_2 (in-place)
I1106 18:31:58.010789 13439 net.cpp:96] Setting up relu4_2
I1106 18:31:58.010798 13439 net.cpp:103] Top shape: 8 512 28 28 (3211264)
I1106 18:31:58.010803 13439 layer_factory.hpp:78] Creating layer conv4_3
I1106 18:31:58.010809 13439 net.cpp:67] Creating Layer conv4_3
I1106 18:31:58.010814 13439 net.cpp:394] conv4_3 <- conv4_2
I1106 18:31:58.010820 13439 net.cpp:356] conv4_3 -> conv4_3
I1106 18:31:58.010829 13439 net.cpp:96] Setting up conv4_3
I1106 18:31:58.065834 13439 net.cpp:103] Top shape: 8 512 28 28 (3211264)
I1106 18:31:58.065871 13439 layer_factory.hpp:78] Creating layer relu4_3
I1106 18:31:58.065878 13439 net.cpp:67] Creating Layer relu4_3
I1106 18:31:58.065883 13439 net.cpp:394] relu4_3 <- conv4_3
I1106 18:31:58.065899 13439 net.cpp:345] relu4_3 -> conv4_3 (in-place)
I1106 18:31:58.065907 13439 net.cpp:96] Setting up relu4_3
I1106 18:31:58.065912 13439 net.cpp:103] Top shape: 8 512 28 28 (3211264)
I1106 18:31:58.065918 13439 layer_factory.hpp:78] Creating layer pool4
I1106 18:31:58.065924 13439 net.cpp:67] Creating Layer pool4
I1106 18:31:58.065928 13439 net.cpp:394] pool4 <- conv4_3
I1106 18:31:58.065934 13439 net.cpp:356] pool4 -> pool4
I1106 18:31:58.065942 13439 net.cpp:96] Setting up pool4
I1106 18:31:58.065950 13439 net.cpp:103] Top shape: 8 512 14 14 (802816)
I1106 18:31:58.065955 13439 layer_factory.hpp:78] Creating layer conv5_1
I1106 18:31:58.065960 13439 net.cpp:67] Creating Layer conv5_1
I1106 18:31:58.065964 13439 net.cpp:394] conv5_1 <- pool4
I1106 18:31:58.065971 13439 net.cpp:356] conv5_1 -> conv5_1
I1106 18:31:58.065979 13439 net.cpp:96] Setting up conv5_1
I1106 18:31:58.123313 13439 net.cpp:103] Top shape: 8 512 14 14 (802816)
I1106 18:31:58.123339 13439 layer_factory.hpp:78] Creating layer relu5_1
I1106 18:31:58.123347 13439 net.cpp:67] Creating Layer relu5_1
I1106 18:31:58.123352 13439 net.cpp:394] relu5_1 <- conv5_1
I1106 18:31:58.123365 13439 net.cpp:345] relu5_1 -> conv5_1 (in-place)
I1106 18:31:58.123373 13439 net.cpp:96] Setting up relu5_1
I1106 18:31:58.123379 13439 net.cpp:103] Top shape: 8 512 14 14 (802816)
I1106 18:31:58.123384 13439 layer_factory.hpp:78] Creating layer conv5_2
I1106 18:31:58.123389 13439 net.cpp:67] Creating Layer conv5_2
I1106 18:31:58.123395 13439 net.cpp:394] conv5_2 <- conv5_1
I1106 18:31:58.123400 13439 net.cpp:356] conv5_2 -> conv5_2
I1106 18:31:58.123407 13439 net.cpp:96] Setting up conv5_2
I1106 18:31:58.179926 13439 net.cpp:103] Top shape: 8 512 14 14 (802816)
I1106 18:31:58.179961 13439 layer_factory.hpp:78] Creating layer relu5_2
I1106 18:31:58.179970 13439 net.cpp:67] Creating Layer relu5_2
I1106 18:31:58.179973 13439 net.cpp:394] relu5_2 <- conv5_2
I1106 18:31:58.179980 13439 net.cpp:345] relu5_2 -> conv5_2 (in-place)
I1106 18:31:58.179986 13439 net.cpp:96] Setting up relu5_2
I1106 18:31:58.179992 13439 net.cpp:103] Top shape: 8 512 14 14 (802816)
I1106 18:31:58.179996 13439 layer_factory.hpp:78] Creating layer conv5_3
I1106 18:31:58.180006 13439 net.cpp:67] Creating Layer conv5_3
I1106 18:31:58.180011 13439 net.cpp:394] conv5_3 <- conv5_2
I1106 18:31:58.180017 13439 net.cpp:356] conv5_3 -> conv5_3
I1106 18:31:58.180024 13439 net.cpp:96] Setting up conv5_3
I1106 18:31:58.234711 13439 net.cpp:103] Top shape: 8 512 14 14 (802816)
I1106 18:31:58.234750 13439 layer_factory.hpp:78] Creating layer relu5_3
I1106 18:31:58.234757 13439 net.cpp:67] Creating Layer relu5_3
I1106 18:31:58.234762 13439 net.cpp:394] relu5_3 <- conv5_3
I1106 18:31:58.234771 13439 net.cpp:345] relu5_3 -> conv5_3 (in-place)
I1106 18:31:58.234776 13439 net.cpp:96] Setting up relu5_3
I1106 18:31:58.234782 13439 net.cpp:103] Top shape: 8 512 14 14 (802816)
I1106 18:31:58.234786 13439 layer_factory.hpp:78] Creating layer pool5
I1106 18:31:58.234794 13439 net.cpp:67] Creating Layer pool5
I1106 18:31:58.234799 13439 net.cpp:394] pool5 <- conv5_3
I1106 18:31:58.234805 13439 net.cpp:356] pool5 -> pool5
I1106 18:31:58.234812 13439 net.cpp:96] Setting up pool5
I1106 18:31:58.234822 13439 net.cpp:103] Top shape: 8 512 7 7 (200704)
I1106 18:31:58.234827 13439 layer_factory.hpp:78] Creating layer fc6
I1106 18:31:58.234833 13439 net.cpp:67] Creating Layer fc6
I1106 18:31:58.234836 13439 net.cpp:394] fc6 <- pool5
I1106 18:31:58.234843 13439 net.cpp:356] fc6 -> fc6
I1106 18:31:58.234849 13439 net.cpp:96] Setting up fc6
I1106 18:32:00.768467 13439 net.cpp:103] Top shape: 8 4096 1 1 (32768)
I1106 18:32:00.768498 13439 layer_factory.hpp:78] Creating layer relu6
I1106 18:32:00.768507 13439 net.cpp:67] Creating Layer relu6
I1106 18:32:00.768512 13439 net.cpp:394] relu6 <- fc6
I1106 18:32:00.768520 13439 net.cpp:345] relu6 -> fc6 (in-place)
I1106 18:32:00.768529 13439 net.cpp:96] Setting up relu6
I1106 18:32:00.768545 13439 net.cpp:103] Top shape: 8 4096 1 1 (32768)
I1106 18:32:00.768549 13439 layer_factory.hpp:78] Creating layer drop6
I1106 18:32:00.768563 13439 net.cpp:67] Creating Layer drop6
I1106 18:32:00.768570 13439 net.cpp:394] drop6 <- fc6
I1106 18:32:00.768579 13439 net.cpp:345] drop6 -> fc6 (in-place)
I1106 18:32:00.768584 13439 net.cpp:96] Setting up drop6
I1106 18:32:00.768589 13439 net.cpp:103] Top shape: 8 4096 1 1 (32768)
I1106 18:32:00.768594 13439 layer_factory.hpp:78] Creating layer fc7
I1106 18:32:00.768599 13439 net.cpp:67] Creating Layer fc7
I1106 18:32:00.768602 13439 net.cpp:394] fc7 <- fc6
I1106 18:32:00.768607 13439 net.cpp:356] fc7 -> fc7
I1106 18:32:00.768615 13439 net.cpp:96] Setting up fc7
I1106 18:32:01.189990 13439 net.cpp:103] Top shape: 8 4096 1 1 (32768)
I1106 18:32:01.190021 13439 layer_factory.hpp:78] Creating layer relu7
I1106 18:32:01.190029 13439 net.cpp:67] Creating Layer relu7
I1106 18:32:01.190034 13439 net.cpp:394] relu7 <- fc7
I1106 18:32:01.190040 13439 net.cpp:345] relu7 -> fc7 (in-place)
I1106 18:32:01.190048 13439 net.cpp:96] Setting up relu7
I1106 18:32:01.190062 13439 net.cpp:103] Top shape: 8 4096 1 1 (32768)
I1106 18:32:01.190068 13439 layer_factory.hpp:78] Creating layer drop7
I1106 18:32:01.190073 13439 net.cpp:67] Creating Layer drop7
I1106 18:32:01.190076 13439 net.cpp:394] drop7 <- fc7
I1106 18:32:01.190083 13439 net.cpp:345] drop7 -> fc7 (in-place)
I1106 18:32:01.190089 13439 net.cpp:96] Setting up drop7
I1106 18:32:01.190095 13439 net.cpp:103] Top shape: 8 4096 1 1 (32768)
I1106 18:32:01.190099 13439 layer_factory.hpp:78] Creating layer fc8_2
I1106 18:32:01.190105 13439 net.cpp:67] Creating Layer fc8_2
I1106 18:32:01.190109 13439 net.cpp:394] fc8_2 <- fc7
I1106 18:32:01.190114 13439 net.cpp:356] fc8_2 -> fc8_2
I1106 18:32:01.190120 13439 net.cpp:96] Setting up fc8_2
I1106 18:32:01.190342 13439 net.cpp:103] Top shape: 8 2 1 1 (16)
I1106 18:32:01.190351 13439 layer_factory.hpp:78] Creating layer fc8_2_fc8_2_0_split
I1106 18:32:01.190356 13439 net.cpp:67] Creating Layer fc8_2_fc8_2_0_split
I1106 18:32:01.190361 13439 net.cpp:394] fc8_2_fc8_2_0_split <- fc8_2
I1106 18:32:01.190367 13439 net.cpp:356] fc8_2_fc8_2_0_split -> fc8_2_fc8_2_0_split_0
I1106 18:32:01.190374 13439 net.cpp:356] fc8_2_fc8_2_0_split -> fc8_2_fc8_2_0_split_1
I1106 18:32:01.190382 13439 net.cpp:96] Setting up fc8_2_fc8_2_0_split
I1106 18:32:01.190387 13439 net.cpp:103] Top shape: 8 2 1 1 (16)
I1106 18:32:01.190392 13439 net.cpp:103] Top shape: 8 2 1 1 (16)
I1106 18:32:01.190395 13439 layer_factory.hpp:78] Creating layer loss
I1106 18:32:01.190402 13439 net.cpp:67] Creating Layer loss
I1106 18:32:01.190407 13439 net.cpp:394] loss <- fc8_2_fc8_2_0_split_0
I1106 18:32:01.190410 13439 net.cpp:394] loss <- label_data_1_split_0
I1106 18:32:01.190417 13439 net.cpp:356] loss -> (automatic)
I1106 18:32:01.190420 13439 net.cpp:96] Setting up loss
I1106 18:32:01.190428 13439 net.cpp:103] Top shape: 1 1 1 1 (1)
I1106 18:32:01.190433 13439 net.cpp:109]     with loss weight 1
I1106 18:32:01.190446 13439 layer_factory.hpp:78] Creating layer accuracy
I1106 18:32:01.190457 13439 net.cpp:67] Creating Layer accuracy
I1106 18:32:01.190461 13439 net.cpp:394] accuracy <- fc8_2_fc8_2_0_split_1
I1106 18:32:01.190467 13439 net.cpp:394] accuracy <- label_data_1_split_1
I1106 18:32:01.190474 13439 net.cpp:356] accuracy -> accuracy
I1106 18:32:01.190479 13439 net.cpp:96] Setting up accuracy
I1106 18:32:01.190489 13439 net.cpp:103] Top shape: 1 1 1 4 (4)
I1106 18:32:01.190492 13439 net.cpp:172] accuracy does not need backward computation.
I1106 18:32:01.190495 13439 net.cpp:170] loss needs backward computation.
I1106 18:32:01.190500 13439 net.cpp:170] fc8_2_fc8_2_0_split needs backward computation.
I1106 18:32:01.190502 13439 net.cpp:170] fc8_2 needs backward computation.
I1106 18:32:01.190506 13439 net.cpp:170] drop7 needs backward computation.
…
