…
I1109 01:27:15.682384 30776 net.cpp:275] The NetState phase (0) differed from the phase (1) specified by a rule in layer accuracy
I1109 01:27:15.682739 30776 net.cpp:39] Initializing net from parameters: 
name: "small"
layers {
  top: "data"
  top: "label"
  name: "data"
  type: IMAGE_DATA
  image_data_param {
    source: "/data/ad6813/devCaffe/caffe/data/inadcl_o/train.txt"
    batch_size: 8
    new_height: 256
    new_width: 256
  }
  include {
    phase: TRAIN
  }
  transform_param {
    mirror: true
    crop_size: 224
    mean_value: 86.752
    mean_value: 101.46
    mean_value: 104.6
  }
}
layers {
  bottom: "data"
  top: "conv1_1"
  name: "conv1_1"
  type: CONVOLUTION
  convolution_param {
    num_output: 64
    pad: 1
    kernel_size: 3
    weight_filler {
      type: "gaussian"
      std: 0.01
    }
    bias_filler {
      type: "constant"
      value: 0
    }
  }
}
layers {
  bottom: "conv1_1"
  top: "conv1_1"
  name: "relu1_1"
  type: RELU
}
layers {
  bottom: "conv1_1"
  top: "conv1_2"
  name: "conv1_2"
  type: CONVOLUTION
  convolution_param {
    num_output: 64
    pad: 1
    kernel_size: 3
    weight_filler {
      type: "gaussian"
      std: 0.01
    }
    bias_filler {
      type: "constant"
      value: 0
    }
  }
}
layers {
  bottom: "conv1_2"
  top: "conv1_2"
  name: "relu1_2"
  type: RELU
}
layers {
  bottom: "conv1_2"
  top: "pool1"
  name: "pool1"
  type: POOLING
  pooling_param {
    pool: MAX
    kernel_size: 2
    stride: 2
  }
}
layers {
  bottom: "pool1"
  top: "conv2_1"
  name: "conv2_1"
  type: CONVOLUTION
  convolution_param {
    num_output: 128
    pad: 1
    kernel_size: 3
    weight_filler {
      type: "gaussian"
      std: 0.01
    }
    bias_filler {
      type: "constant"
      value: 0
    }
  }
}
layers {
  bottom: "conv2_1"
  top: "conv2_1"
  name: "relu2_1"
  type: RELU
}
layers {
  bottom: "conv2_1"
  top: "conv2_2"
  name: "conv2_2"
  type: CONVOLUTION
  convolution_param {
    num_output: 128
    pad: 1
    kernel_size: 3
    weight_filler {
      type: "gaussian"
      std: 0.01
    }
    bias_filler {
      type: "constant"
      value: 0
    }
  }
}
layers {
  bottom: "conv2_2"
  top: "conv2_2"
  name: "relu2_2"
  type: RELU
}
layers {
  bottom: "conv2_2"
  top: "pool2"
  name: "pool2"
  type: POOLING
  pooling_param {
    pool: MAX
    kernel_size: 2
    stride: 2
  }
}
layers {
  bottom: "pool2"
  top: "conv3_1"
  name: "conv3_1"
  type: CONVOLUTION
  convolution_param {
    num_output: 256
    pad: 1
    kernel_size: 3
    weight_filler {
      type: "gaussian"
      std: 0.01
    }
    bias_filler {
      type: "constant"
      value: 0
    }
  }
}
layers {
  bottom: "conv3_1"
  top: "conv3_1"
  name: "relu3_1"
  type: RELU
}
layers {
  bottom: "conv3_1"
  top: "conv3_2"
  name: "conv3_2"
  type: CONVOLUTION
  convolution_param {
    num_output: 256
    pad: 1
    kernel_size: 3
    weight_filler {
      type: "gaussian"
      std: 0.01
    }
    bias_filler {
      type: "constant"
      value: 0
    }
  }
}
layers {
  bottom: "conv3_2"
  top: "conv3_2"
  name: "relu3_2"
  type: RELU
}
layers {
  bottom: "conv3_2"
  top: "conv3_3"
  name: "conv3_3"
  type: CONVOLUTION
  convolution_param {
    num_output: 256
    pad: 1
    kernel_size: 3
    weight_filler {
      type: "gaussian"
      std: 0.01
    }
    bias_filler {
      type: "constant"
      value: 0
    }
  }
}
layers {
  bottom: "conv3_3"
  top: "conv3_3"
  name: "relu3_3"
  type: RELU
}
layers {
  bottom: "conv3_3"
  top: "pool3"
  name: "pool3"
  type: POOLING
  pooling_param {
    pool: MAX
    kernel_size: 2
    stride: 2
  }
}
layers {
  bottom: "pool3"
  top: "conv4_1"
  name: "conv4_1"
  type: CONVOLUTION
  convolution_param {
    num_output: 512
    pad: 1
    kernel_size: 3
    weight_filler {
      type: "gaussian"
      std: 0.01
    }
    bias_filler {
      type: "constant"
      value: 0
    }
  }
}
layers {
  bottom: "conv4_1"
  top: "conv4_1"
  name: "relu4_1"
  type: RELU
}
layers {
  bottom: "conv4_1"
  top: "conv4_2"
  name: "conv4_2"
  type: CONVOLUTION
  convolution_param {
    num_output: 512
    pad: 1
    kernel_size: 3
    weight_filler {
      type: "gaussian"
      std: 0.01
    }
    bias_filler {
      type: "constant"
      value: 0
    }
  }
}
layers {
  bottom: "conv4_2"
  top: "conv4_2"
  name: "relu4_2"
  type: RELU
}
layers {
  bottom: "conv4_2"
  top: "conv4_3"
  name: "conv4_3"
  type: CONVOLUTION
  convolution_param {
    num_output: 512
    pad: 1
    kernel_size: 3
    weight_filler {
      type: "gaussian"
      std: 0.01
    }
    bias_filler {
      type: "constant"
      value: 0
    }
  }
}
layers {
  bottom: "conv4_3"
  top: "conv4_3"
  name: "relu4_3"
  type: RELU
}
layers {
  bottom: "conv4_3"
  top: "pool4"
  name: "pool4"
  type: POOLING
  pooling_param {
    pool: MAX
    kernel_size: 2
    stride: 2
  }
}
layers {
  bottom: "pool4"
  top: "conv5_1"
  name: "conv5_1"
  type: CONVOLUTION
  convolution_param {
    num_output: 512
    pad: 1
    kernel_size: 3
    weight_filler {
      type: "gaussian"
      std: 0.01
    }
    bias_filler {
      type: "constant"
      value: 0
    }
  }
}
layers {
  bottom: "conv5_1"
  top: "conv5_1"
  name: "relu5_1"
  type: RELU
}
layers {
  bottom: "conv5_1"
  top: "conv5_2"
  name: "conv5_2"
  type: CONVOLUTION
  convolution_param {
    num_output: 512
    pad: 1
    kernel_size: 3
    weight_filler {
      type: "gaussian"
      std: 0.01
    }
    bias_filler {
      type: "constant"
      value: 0
    }
  }
}
layers {
  bottom: "conv5_2"
  top: "conv5_2"
  name: "relu5_2"
  type: RELU
}
layers {
  bottom: "conv5_2"
  top: "conv5_3"
  name: "conv5_3"
  type: CONVOLUTION
  convolution_param {
    num_output: 512
    pad: 1
    kernel_size: 3
    weight_filler {
      type: "gaussian"
      std: 0.01
    }
    bias_filler {
      type: "constant"
      value: 0
    }
  }
}
layers {
  bottom: "conv5_3"
  top: "conv5_3"
  name: "relu5_3"
  type: RELU
}
layers {
  bottom: "conv5_3"
  top: "pool5"
  name: "pool5"
  type: POOLING
  pooling_param {
    pool: MAX
    kernel_size: 2
    stride: 2
  }
}
layers {
  bottom: "pool5"
  top: "fc6"
  name: "fc6"
  type: INNER_PRODUCT
  inner_product_param {
    num_output: 4096
    weight_filler {
      type: "gaussian"
      std: 0.01
    }
    bias_filler {
      type: "constant"
      value: 0
    }
  }
}
layers {
  bottom: "fc6"
  top: "fc6"
  name: "relu6"
  type: RELU
}
layers {
  bottom: "fc6"
  top: "fc6"
  name: "drop6"
  type: DROPOUT
  dropout_param {
    dropout_ratio: 0.5
  }
}
layers {
  bottom: "fc6"
  top: "fc7"
  name: "fc7"
  type: INNER_PRODUCT
  inner_product_param {
    num_output: 4096
    weight_filler {
      type: "gaussian"
      std: 0.01
    }
    bias_filler {
      type: "constant"
      value: 0
    }
  }
}
layers {
  bottom: "fc7"
  top: "fc7"
  name: "relu7"
  type: RELU
}
layers {
  bottom: "fc7"
  top: "fc7"
  name: "drop7"
  type: DROPOUT
  dropout_param {
    dropout_ratio: 0.5
  }
}
layers {
  bottom: "fc7"
  top: "fc8_2"
  name: "fc8_2"
  type: INNER_PRODUCT
  inner_product_param {
    num_output: 2
    weight_filler {
      type: "gaussian"
      std: 0.01
    }
    bias_filler {
      type: "constant"
      value: 0
    }
  }
}
layers {
  bottom: "fc8_2"
  bottom: "label"
  name: "loss"
  type: SOFTMAX_LOSS
}
state {
  phase: TRAIN
}
I1109 01:27:15.682945 30776 layer_factory.hpp:78] Creating layer data
I1109 01:27:15.682972 30776 net.cpp:67] Creating Layer data
I1109 01:27:15.682983 30776 net.cpp:356] data -> data
I1109 01:27:15.683014 30776 net.cpp:356] data -> label
I1109 01:27:15.683034 30776 net.cpp:96] Setting up data
I1109 01:27:15.683045 30776 image_data_layer.cpp:34] Opening file /data/ad6813/devCaffe/caffe/data/inadcl_o/train.txt
I1109 01:27:15.702039 30776 image_data_layer.cpp:49] A total of 29740 images.
I1109 01:27:15.712597 30776 image_data_layer.cpp:78] output data size: 8,3,224,224
I1109 01:27:15.715209 30776 net.cpp:103] Top shape: 8 3 224 224 (1204224)
I1109 01:27:15.715239 30776 net.cpp:103] Top shape: 8 1 1 1 (8)
I1109 01:27:15.715246 30776 layer_factory.hpp:78] Creating layer conv1_1
I1109 01:27:15.715267 30776 net.cpp:67] Creating Layer conv1_1
I1109 01:27:15.715275 30776 net.cpp:394] conv1_1 <- data
I1109 01:27:15.715319 30776 net.cpp:356] conv1_1 -> conv1_1
I1109 01:27:15.715342 30776 net.cpp:96] Setting up conv1_1
I1109 01:27:15.744451 30776 net.cpp:103] Top shape: 8 64 224 224 (25690112)
I1109 01:27:15.744501 30776 layer_factory.hpp:78] Creating layer relu1_1
I1109 01:27:15.744519 30776 net.cpp:67] Creating Layer relu1_1
I1109 01:27:15.744526 30776 net.cpp:394] relu1_1 <- conv1_1
I1109 01:27:15.744536 30776 net.cpp:345] relu1_1 -> conv1_1 (in-place)
I1109 01:27:15.744550 30776 net.cpp:96] Setting up relu1_1
I1109 01:27:15.744565 30776 net.cpp:103] Top shape: 8 64 224 224 (25690112)
I1109 01:27:15.744572 30776 layer_factory.hpp:78] Creating layer conv1_2
I1109 01:27:15.744586 30776 net.cpp:67] Creating Layer conv1_2
I1109 01:27:15.744591 30776 net.cpp:394] conv1_2 <- conv1_1
I1109 01:27:15.744601 30776 net.cpp:356] conv1_2 -> conv1_2
I1109 01:27:15.744611 30776 net.cpp:96] Setting up conv1_2
I1109 01:27:15.746659 30776 net.cpp:103] Top shape: 8 64 224 224 (25690112)
I1109 01:27:15.746685 30776 layer_factory.hpp:78] Creating layer relu1_2
I1109 01:27:15.746695 30776 net.cpp:67] Creating Layer relu1_2
I1109 01:27:15.746701 30776 net.cpp:394] relu1_2 <- conv1_2
I1109 01:27:15.746709 30776 net.cpp:345] relu1_2 -> conv1_2 (in-place)
I1109 01:27:15.746717 30776 net.cpp:96] Setting up relu1_2
I1109 01:27:15.746728 30776 net.cpp:103] Top shape: 8 64 224 224 (25690112)
I1109 01:27:15.746734 30776 layer_factory.hpp:78] Creating layer pool1
I1109 01:27:15.746749 30776 net.cpp:67] Creating Layer pool1
I1109 01:27:15.746757 30776 net.cpp:394] pool1 <- conv1_2
I1109 01:27:15.746764 30776 net.cpp:356] pool1 -> pool1
I1109 01:27:15.746774 30776 net.cpp:96] Setting up pool1
I1109 01:27:15.746800 30776 net.cpp:103] Top shape: 8 64 112 112 (6422528)
I1109 01:27:15.746808 30776 layer_factory.hpp:78] Creating layer conv2_1
I1109 01:27:15.746819 30776 net.cpp:67] Creating Layer conv2_1
I1109 01:27:15.746825 30776 net.cpp:394] conv2_1 <- pool1
I1109 01:27:15.746834 30776 net.cpp:356] conv2_1 -> conv2_1
I1109 01:27:15.746842 30776 net.cpp:96] Setting up conv2_1
I1109 01:27:15.750586 30776 net.cpp:103] Top shape: 8 128 112 112 (12845056)
I1109 01:27:15.750614 30776 layer_factory.hpp:78] Creating layer relu2_1
I1109 01:27:15.750624 30776 net.cpp:67] Creating Layer relu2_1
I1109 01:27:15.750630 30776 net.cpp:394] relu2_1 <- conv2_1
I1109 01:27:15.750638 30776 net.cpp:345] relu2_1 -> conv2_1 (in-place)
I1109 01:27:15.750646 30776 net.cpp:96] Setting up relu2_1
I1109 01:27:15.750656 30776 net.cpp:103] Top shape: 8 128 112 112 (12845056)
I1109 01:27:15.750663 30776 layer_factory.hpp:78] Creating layer conv2_2
I1109 01:27:15.750674 30776 net.cpp:67] Creating Layer conv2_2
I1109 01:27:15.750680 30776 net.cpp:394] conv2_2 <- conv2_1
I1109 01:27:15.750689 30776 net.cpp:356] conv2_2 -> conv2_2
I1109 01:27:15.750699 30776 net.cpp:96] Setting up conv2_2
I1109 01:27:15.757992 30776 net.cpp:103] Top shape: 8 128 112 112 (12845056)
I1109 01:27:15.758014 30776 layer_factory.hpp:78] Creating layer relu2_2
I1109 01:27:15.758023 30776 net.cpp:67] Creating Layer relu2_2
I1109 01:27:15.758029 30776 net.cpp:394] relu2_2 <- conv2_2
I1109 01:27:15.758038 30776 net.cpp:345] relu2_2 -> conv2_2 (in-place)
I1109 01:27:15.758046 30776 net.cpp:96] Setting up relu2_2
I1109 01:27:15.758055 30776 net.cpp:103] Top shape: 8 128 112 112 (12845056)
I1109 01:27:15.758074 30776 layer_factory.hpp:78] Creating layer pool2
I1109 01:27:15.758085 30776 net.cpp:67] Creating Layer pool2
I1109 01:27:15.758091 30776 net.cpp:394] pool2 <- conv2_2
I1109 01:27:15.758100 30776 net.cpp:356] pool2 -> pool2
I1109 01:27:15.758108 30776 net.cpp:96] Setting up pool2
I1109 01:27:15.758119 30776 net.cpp:103] Top shape: 8 128 56 56 (3211264)
I1109 01:27:15.758126 30776 layer_factory.hpp:78] Creating layer conv3_1
I1109 01:27:15.758136 30776 net.cpp:67] Creating Layer conv3_1
I1109 01:27:15.758142 30776 net.cpp:394] conv3_1 <- pool2
I1109 01:27:15.758152 30776 net.cpp:356] conv3_1 -> conv3_1
I1109 01:27:15.758162 30776 net.cpp:96] Setting up conv3_1
I1109 01:27:15.772621 30776 net.cpp:103] Top shape: 8 256 56 56 (6422528)
I1109 01:27:15.772655 30776 layer_factory.hpp:78] Creating layer relu3_1
I1109 01:27:15.772665 30776 net.cpp:67] Creating Layer relu3_1
I1109 01:27:15.772671 30776 net.cpp:394] relu3_1 <- conv3_1
I1109 01:27:15.772680 30776 net.cpp:345] relu3_1 -> conv3_1 (in-place)
I1109 01:27:15.772688 30776 net.cpp:96] Setting up relu3_1
I1109 01:27:15.772698 30776 net.cpp:103] Top shape: 8 256 56 56 (6422528)
I1109 01:27:15.772704 30776 layer_factory.hpp:78] Creating layer conv3_2
I1109 01:27:15.772713 30776 net.cpp:67] Creating Layer conv3_2
I1109 01:27:15.772718 30776 net.cpp:394] conv3_2 <- conv3_1
I1109 01:27:15.772730 30776 net.cpp:356] conv3_2 -> conv3_2
I1109 01:27:15.772740 30776 net.cpp:96] Setting up conv3_2
I1109 01:27:15.801816 30776 net.cpp:103] Top shape: 8 256 56 56 (6422528)
I1109 01:27:15.801843 30776 layer_factory.hpp:78] Creating layer relu3_2
I1109 01:27:15.801857 30776 net.cpp:67] Creating Layer relu3_2
I1109 01:27:15.801864 30776 net.cpp:394] relu3_2 <- conv3_2
I1109 01:27:15.801872 30776 net.cpp:345] relu3_2 -> conv3_2 (in-place)
I1109 01:27:15.801882 30776 net.cpp:96] Setting up relu3_2
I1109 01:27:15.801892 30776 net.cpp:103] Top shape: 8 256 56 56 (6422528)
I1109 01:27:15.801898 30776 layer_factory.hpp:78] Creating layer conv3_3
I1109 01:27:15.801906 30776 net.cpp:67] Creating Layer conv3_3
I1109 01:27:15.801913 30776 net.cpp:394] conv3_3 <- conv3_2
I1109 01:27:15.801920 30776 net.cpp:356] conv3_3 -> conv3_3
I1109 01:27:15.801929 30776 net.cpp:96] Setting up conv3_3
I1109 01:27:15.830649 30776 net.cpp:103] Top shape: 8 256 56 56 (6422528)
I1109 01:27:15.830672 30776 layer_factory.hpp:78] Creating layer relu3_3
I1109 01:27:15.830687 30776 net.cpp:67] Creating Layer relu3_3
I1109 01:27:15.830693 30776 net.cpp:394] relu3_3 <- conv3_3
I1109 01:27:15.830703 30776 net.cpp:345] relu3_3 -> conv3_3 (in-place)
I1109 01:27:15.830710 30776 net.cpp:96] Setting up relu3_3
I1109 01:27:15.830720 30776 net.cpp:103] Top shape: 8 256 56 56 (6422528)
I1109 01:27:15.830726 30776 layer_factory.hpp:78] Creating layer pool3
I1109 01:27:15.830735 30776 net.cpp:67] Creating Layer pool3
I1109 01:27:15.830741 30776 net.cpp:394] pool3 <- conv3_3
I1109 01:27:15.830749 30776 net.cpp:356] pool3 -> pool3
I1109 01:27:15.830757 30776 net.cpp:96] Setting up pool3
I1109 01:27:15.830770 30776 net.cpp:103] Top shape: 8 256 28 28 (1605632)
I1109 01:27:15.830775 30776 layer_factory.hpp:78] Creating layer conv4_1
I1109 01:27:15.830786 30776 net.cpp:67] Creating Layer conv4_1
I1109 01:27:15.830792 30776 net.cpp:394] conv4_1 <- pool3
I1109 01:27:15.830801 30776 net.cpp:356] conv4_1 -> conv4_1
I1109 01:27:15.830811 30776 net.cpp:96] Setting up conv4_1
I1109 01:27:15.887917 30776 net.cpp:103] Top shape: 8 512 28 28 (3211264)
I1109 01:27:15.887946 30776 layer_factory.hpp:78] Creating layer relu4_1
I1109 01:27:15.887958 30776 net.cpp:67] Creating Layer relu4_1
I1109 01:27:15.887964 30776 net.cpp:394] relu4_1 <- conv4_1
I1109 01:27:15.887974 30776 net.cpp:345] relu4_1 -> conv4_1 (in-place)
I1109 01:27:15.887984 30776 net.cpp:96] Setting up relu4_1
I1109 01:27:15.887995 30776 net.cpp:103] Top shape: 8 512 28 28 (3211264)
I1109 01:27:15.888001 30776 layer_factory.hpp:78] Creating layer conv4_2
I1109 01:27:15.888011 30776 net.cpp:67] Creating Layer conv4_2
I1109 01:27:15.888016 30776 net.cpp:394] conv4_2 <- conv4_1
I1109 01:27:15.888041 30776 net.cpp:356] conv4_2 -> conv4_2
I1109 01:27:15.888051 30776 net.cpp:96] Setting up conv4_2
I1109 01:27:16.001651 30776 net.cpp:103] Top shape: 8 512 28 28 (3211264)
I1109 01:27:16.001699 30776 layer_factory.hpp:78] Creating layer relu4_2
I1109 01:27:16.001713 30776 net.cpp:67] Creating Layer relu4_2
I1109 01:27:16.001720 30776 net.cpp:394] relu4_2 <- conv4_2
I1109 01:27:16.001731 30776 net.cpp:345] relu4_2 -> conv4_2 (in-place)
I1109 01:27:16.001742 30776 net.cpp:96] Setting up relu4_2
I1109 01:27:16.001752 30776 net.cpp:103] Top shape: 8 512 28 28 (3211264)
I1109 01:27:16.001759 30776 layer_factory.hpp:78] Creating layer conv4_3
I1109 01:27:16.001771 30776 net.cpp:67] Creating Layer conv4_3
I1109 01:27:16.001776 30776 net.cpp:394] conv4_3 <- conv4_2
I1109 01:27:16.001785 30776 net.cpp:356] conv4_3 -> conv4_3
I1109 01:27:16.001796 30776 net.cpp:96] Setting up conv4_3
I1109 01:27:16.115064 30776 net.cpp:103] Top shape: 8 512 28 28 (3211264)
I1109 01:27:16.115108 30776 layer_factory.hpp:78] Creating layer relu4_3
I1109 01:27:16.115120 30776 net.cpp:67] Creating Layer relu4_3
I1109 01:27:16.115130 30776 net.cpp:394] relu4_3 <- conv4_3
I1109 01:27:16.115141 30776 net.cpp:345] relu4_3 -> conv4_3 (in-place)
I1109 01:27:16.115151 30776 net.cpp:96] Setting up relu4_3
I1109 01:27:16.115162 30776 net.cpp:103] Top shape: 8 512 28 28 (3211264)
I1109 01:27:16.115169 30776 layer_factory.hpp:78] Creating layer pool4
I1109 01:27:16.115177 30776 net.cpp:67] Creating Layer pool4
I1109 01:27:16.115183 30776 net.cpp:394] pool4 <- conv4_3
I1109 01:27:16.115191 30776 net.cpp:356] pool4 -> pool4
I1109 01:27:16.115200 30776 net.cpp:96] Setting up pool4
I1109 01:27:16.115212 30776 net.cpp:103] Top shape: 8 512 14 14 (802816)
I1109 01:27:16.115218 30776 layer_factory.hpp:78] Creating layer conv5_1
I1109 01:27:16.115231 30776 net.cpp:67] Creating Layer conv5_1
I1109 01:27:16.115236 30776 net.cpp:394] conv5_1 <- pool4
I1109 01:27:16.115247 30776 net.cpp:356] conv5_1 -> conv5_1
I1109 01:27:16.115262 30776 net.cpp:96] Setting up conv5_1
I1109 01:27:16.228970 30776 net.cpp:103] Top shape: 8 512 14 14 (802816)
I1109 01:27:16.229013 30776 layer_factory.hpp:78] Creating layer relu5_1
I1109 01:27:16.229027 30776 net.cpp:67] Creating Layer relu5_1
I1109 01:27:16.229033 30776 net.cpp:394] relu5_1 <- conv5_1
I1109 01:27:16.229048 30776 net.cpp:345] relu5_1 -> conv5_1 (in-place)
I1109 01:27:16.229058 30776 net.cpp:96] Setting up relu5_1
I1109 01:27:16.229070 30776 net.cpp:103] Top shape: 8 512 14 14 (802816)
I1109 01:27:16.229076 30776 layer_factory.hpp:78] Creating layer conv5_2
I1109 01:27:16.229086 30776 net.cpp:67] Creating Layer conv5_2
I1109 01:27:16.229091 30776 net.cpp:394] conv5_2 <- conv5_1
I1109 01:27:16.229102 30776 net.cpp:356] conv5_2 -> conv5_2
I1109 01:27:16.229113 30776 net.cpp:96] Setting up conv5_2
I1109 01:27:16.342254 30776 net.cpp:103] Top shape: 8 512 14 14 (802816)
I1109 01:27:16.342295 30776 layer_factory.hpp:78] Creating layer relu5_2
I1109 01:27:16.342308 30776 net.cpp:67] Creating Layer relu5_2
I1109 01:27:16.342314 30776 net.cpp:394] relu5_2 <- conv5_2
I1109 01:27:16.342327 30776 net.cpp:345] relu5_2 -> conv5_2 (in-place)
I1109 01:27:16.342339 30776 net.cpp:96] Setting up relu5_2
I1109 01:27:16.342350 30776 net.cpp:103] Top shape: 8 512 14 14 (802816)
I1109 01:27:16.342355 30776 layer_factory.hpp:78] Creating layer conv5_3
I1109 01:27:16.342365 30776 net.cpp:67] Creating Layer conv5_3
I1109 01:27:16.342370 30776 net.cpp:394] conv5_3 <- conv5_2
I1109 01:27:16.342378 30776 net.cpp:356] conv5_3 -> conv5_3
I1109 01:27:16.342388 30776 net.cpp:96] Setting up conv5_3
I1109 01:27:16.455843 30776 net.cpp:103] Top shape: 8 512 14 14 (802816)
I1109 01:27:16.455888 30776 layer_factory.hpp:78] Creating layer relu5_3
I1109 01:27:16.455900 30776 net.cpp:67] Creating Layer relu5_3
I1109 01:27:16.455907 30776 net.cpp:394] relu5_3 <- conv5_3
I1109 01:27:16.455920 30776 net.cpp:345] relu5_3 -> conv5_3 (in-place)
I1109 01:27:16.455932 30776 net.cpp:96] Setting up relu5_3
I1109 01:27:16.455942 30776 net.cpp:103] Top shape: 8 512 14 14 (802816)
I1109 01:27:16.455963 30776 layer_factory.hpp:78] Creating layer pool5
I1109 01:27:16.455972 30776 net.cpp:67] Creating Layer pool5
I1109 01:27:16.455977 30776 net.cpp:394] pool5 <- conv5_3
I1109 01:27:16.455988 30776 net.cpp:356] pool5 -> pool5
I1109 01:27:16.455998 30776 net.cpp:96] Setting up pool5
I1109 01:27:16.456012 30776 net.cpp:103] Top shape: 8 512 7 7 (200704)
I1109 01:27:16.456017 30776 layer_factory.hpp:78] Creating layer fc6
I1109 01:27:16.456037 30776 net.cpp:67] Creating Layer fc6
I1109 01:27:16.456043 30776 net.cpp:394] fc6 <- pool5
I1109 01:27:16.456054 30776 net.cpp:356] fc6 -> fc6
I1109 01:27:16.456064 30776 net.cpp:96] Setting up fc6
I1109 01:27:21.354468 30776 net.cpp:103] Top shape: 8 4096 1 1 (32768)
I1109 01:27:21.354511 30776 layer_factory.hpp:78] Creating layer relu6
I1109 01:27:21.354526 30776 net.cpp:67] Creating Layer relu6
I1109 01:27:21.354533 30776 net.cpp:394] relu6 <- fc6
I1109 01:27:21.354544 30776 net.cpp:345] relu6 -> fc6 (in-place)
I1109 01:27:21.354555 30776 net.cpp:96] Setting up relu6
I1109 01:27:21.354576 30776 net.cpp:103] Top shape: 8 4096 1 1 (32768)
I1109 01:27:21.354583 30776 layer_factory.hpp:78] Creating layer drop6
I1109 01:27:21.354596 30776 net.cpp:67] Creating Layer drop6
I1109 01:27:21.354601 30776 net.cpp:394] drop6 <- fc6
I1109 01:27:21.354609 30776 net.cpp:345] drop6 -> fc6 (in-place)
I1109 01:27:21.354616 30776 net.cpp:96] Setting up drop6
I1109 01:27:21.354624 30776 net.cpp:103] Top shape: 8 4096 1 1 (32768)
I1109 01:27:21.354630 30776 layer_factory.hpp:78] Creating layer fc7
I1109 01:27:21.354642 30776 net.cpp:67] Creating Layer fc7
I1109 01:27:21.354648 30776 net.cpp:394] fc7 <- fc6
I1109 01:27:21.354656 30776 net.cpp:356] fc7 -> fc7
I1109 01:27:21.354666 30776 net.cpp:96] Setting up fc7
I1109 01:27:22.156538 30776 net.cpp:103] Top shape: 8 4096 1 1 (32768)
I1109 01:27:22.156582 30776 layer_factory.hpp:78] Creating layer relu7
I1109 01:27:22.156595 30776 net.cpp:67] Creating Layer relu7
I1109 01:27:22.156604 30776 net.cpp:394] relu7 <- fc7
I1109 01:27:22.156613 30776 net.cpp:345] relu7 -> fc7 (in-place)
I1109 01:27:22.156623 30776 net.cpp:96] Setting up relu7
I1109 01:27:22.156646 30776 net.cpp:103] Top shape: 8 4096 1 1 (32768)
I1109 01:27:22.156651 30776 layer_factory.hpp:78] Creating layer drop7
I1109 01:27:22.156666 30776 net.cpp:67] Creating Layer drop7
I1109 01:27:22.156672 30776 net.cpp:394] drop7 <- fc7
I1109 01:27:22.156680 30776 net.cpp:345] drop7 -> fc7 (in-place)
I1109 01:27:22.156688 30776 net.cpp:96] Setting up drop7
I1109 01:27:22.156694 30776 net.cpp:103] Top shape: 8 4096 1 1 (32768)
I1109 01:27:22.156700 30776 layer_factory.hpp:78] Creating layer fc8_2
I1109 01:27:22.156709 30776 net.cpp:67] Creating Layer fc8_2
I1109 01:27:22.156714 30776 net.cpp:394] fc8_2 <- fc7
I1109 01:27:22.156724 30776 net.cpp:356] fc8_2 -> fc8_2
I1109 01:27:22.156735 30776 net.cpp:96] Setting up fc8_2
I1109 01:27:22.157171 30776 net.cpp:103] Top shape: 8 2 1 1 (16)
I1109 01:27:22.157187 30776 layer_factory.hpp:78] Creating layer loss
I1109 01:27:22.157204 30776 net.cpp:67] Creating Layer loss
I1109 01:27:22.157210 30776 net.cpp:394] loss <- fc8_2
I1109 01:27:22.157217 30776 net.cpp:394] loss <- label
I1109 01:27:22.157230 30776 net.cpp:356] loss -> (automatic)
I1109 01:27:22.157238 30776 net.cpp:96] Setting up loss
I1109 01:27:22.157251 30776 net.cpp:103] Top shape: 1 1 1 1 (1)
I1109 01:27:22.157258 30776 net.cpp:109]     with loss weight 1
I1109 01:27:22.157299 30776 net.cpp:170] loss needs backward computation.
I1109 01:27:22.157305 30776 net.cpp:170] fc8_2 needs backward computation.
I1109 01:27:22.157310 30776 net.cpp:170] drop7 needs backward computation.
I1109 01:27:22.157315 30776 net.cpp:170] relu7 needs backward computation.
I1109 01:27:22.157320 30776 net.cpp:170] fc7 needs backward computation.
…
I1109 01:27:22.159153 30776 net.cpp:275] The NetState phase (1) differed from the phase (0) specified by a rule in layer data
I1109 01:27:22.159538 30776 net.cpp:39] Initializing net from parameters: 
name: "small"
layers {
  top: "data"
  top: "label"
  name: "data"
  type: IMAGE_DATA
  image_data_param {
    source: "/data/ad6813/devCaffe/caffe/data/inadcl_o/val.txt"
    batch_size: 8
    new_height: 256
    new_width: 256
  }
  include {
    phase: TEST
  }
  transform_param {
    mirror: true
    crop_size: 224
    mean_value: 86.752
    mean_value: 101.46
    mean_value: 104.6
  }
}
layers {
  bottom: "data"
  top: "conv1_1"
  name: "conv1_1"
  type: CONVOLUTION
  convolution_param {
    num_output: 64
    pad: 1
    kernel_size: 3
    weight_filler {
      type: "gaussian"
      std: 0.01
    }
    bias_filler {
      type: "constant"
      value: 0
    }
  }
}
layers {
  bottom: "conv1_1"
  top: "conv1_1"
  name: "relu1_1"
  type: RELU
}
layers {
  bottom: "conv1_1"
  top: "conv1_2"
  name: "conv1_2"
  type: CONVOLUTION
  convolution_param {
    num_output: 64
    pad: 1
    kernel_size: 3
    weight_filler {
      type: "gaussian"
      std: 0.01
    }
    bias_filler {
      type: "constant"
      value: 0
    }
  }
}
layers {
  bottom: "conv1_2"
  top: "conv1_2"
  name: "relu1_2"
  type: RELU
}
layers {
  bottom: "conv1_2"
  top: "pool1"
  name: "pool1"
  type: POOLING
  pooling_param {
    pool: MAX
    kernel_size: 2
    stride: 2
  }
}
layers {
  bottom: "pool1"
  top: "conv2_1"
  name: "conv2_1"
  type: CONVOLUTION
  convolution_param {
    num_output: 128
    pad: 1
    kernel_size: 3
    weight_filler {
      type: "gaussian"
      std: 0.01
    }
    bias_filler {
      type: "constant"
      value: 0
    }
  }
}
layers {
  bottom: "conv2_1"
  top: "conv2_1"
  name: "relu2_1"
  type: RELU
}
layers {
  bottom: "conv2_1"
  top: "conv2_2"
  name: "conv2_2"
  type: CONVOLUTION
  convolution_param {
    num_output: 128
    pad: 1
    kernel_size: 3
    weight_filler {
      type: "gaussian"
      std: 0.01
    }
    bias_filler {
      type: "constant"
      value: 0
    }
  }
}
layers {
  bottom: "conv2_2"
  top: "conv2_2"
  name: "relu2_2"
  type: RELU
}
layers {
  bottom: "conv2_2"
  top: "pool2"
  name: "pool2"
  type: POOLING
  pooling_param {
    pool: MAX
    kernel_size: 2
    stride: 2
  }
}
layers {
  bottom: "pool2"
  top: "conv3_1"
  name: "conv3_1"
  type: CONVOLUTION
  convolution_param {
    num_output: 256
    pad: 1
    kernel_size: 3
    weight_filler {
      type: "gaussian"
      std: 0.01
    }
    bias_filler {
      type: "constant"
      value: 0
    }
  }
}
layers {
  bottom: "conv3_1"
  top: "conv3_1"
  name: "relu3_1"
  type: RELU
}
layers {
  bottom: "conv3_1"
  top: "conv3_2"
  name: "conv3_2"
  type: CONVOLUTION
  convolution_param {
    num_output: 256
    pad: 1
    kernel_size: 3
    weight_filler {
      type: "gaussian"
      std: 0.01
    }
    bias_filler {
      type: "constant"
      value: 0
    }
  }
}
layers {
  bottom: "conv3_2"
  top: "conv3_2"
  name: "relu3_2"
  type: RELU
}
layers {
  bottom: "conv3_2"
  top: "conv3_3"
  name: "conv3_3"
  type: CONVOLUTION
  convolution_param {
    num_output: 256
    pad: 1
    kernel_size: 3
    weight_filler {
      type: "gaussian"
      std: 0.01
    }
    bias_filler {
      type: "constant"
      value: 0
    }
  }
}
layers {
  bottom: "conv3_3"
  top: "conv3_3"
  name: "relu3_3"
  type: RELU
}
layers {
  bottom: "conv3_3"
  top: "pool3"
  name: "pool3"
  type: POOLING
  pooling_param {
    pool: MAX
    kernel_size: 2
    stride: 2
  }
}
layers {
  bottom: "pool3"
  top: "conv4_1"
  name: "conv4_1"
  type: CONVOLUTION
  convolution_param {
    num_output: 512
    pad: 1
    kernel_size: 3
    weight_filler {
      type: "gaussian"
      std: 0.01
    }
    bias_filler {
      type: "constant"
      value: 0
    }
  }
}
layers {
  bottom: "conv4_1"
  top: "conv4_1"
  name: "relu4_1"
  type: RELU
}
layers {
  bottom: "conv4_1"
  top: "conv4_2"
  name: "conv4_2"
  type: CONVOLUTION
  convolution_param {
    num_output: 512
    pad: 1
    kernel_size: 3
    weight_filler {
      type: "gaussian"
      std: 0.01
    }
    bias_filler {
      type: "constant"
      value: 0
    }
  }
}
layers {
  bottom: "conv4_2"
  top: "conv4_2"
  name: "relu4_2"
  type: RELU
}
layers {
  bottom: "conv4_2"
  top: "conv4_3"
  name: "conv4_3"
  type: CONVOLUTION
  convolution_param {
    num_output: 512
    pad: 1
    kernel_size: 3
    weight_filler {
      type: "gaussian"
      std: 0.01
    }
    bias_filler {
      type: "constant"
      value: 0
    }
  }
}
layers {
  bottom: "conv4_3"
  top: "conv4_3"
  name: "relu4_3"
  type: RELU
}
layers {
  bottom: "conv4_3"
  top: "pool4"
  name: "pool4"
  type: POOLING
  pooling_param {
    pool: MAX
    kernel_size: 2
    stride: 2
  }
}
layers {
  bottom: "pool4"
  top: "conv5_1"
  name: "conv5_1"
  type: CONVOLUTION
  convolution_param {
    num_output: 512
    pad: 1
    kernel_size: 3
    weight_filler {
      type: "gaussian"
      std: 0.01
    }
    bias_filler {
      type: "constant"
      value: 0
    }
  }
}
layers {
  bottom: "conv5_1"
  top: "conv5_1"
  name: "relu5_1"
  type: RELU
}
layers {
  bottom: "conv5_1"
  top: "conv5_2"
  name: "conv5_2"
  type: CONVOLUTION
  convolution_param {
    num_output: 512
    pad: 1
    kernel_size: 3
    weight_filler {
      type: "gaussian"
      std: 0.01
    }
    bias_filler {
      type: "constant"
      value: 0
    }
  }
}
layers {
  bottom: "conv5_2"
  top: "conv5_2"
  name: "relu5_2"
  type: RELU
}
layers {
  bottom: "conv5_2"
  top: "conv5_3"
  name: "conv5_3"
  type: CONVOLUTION
  convolution_param {
    num_output: 512
    pad: 1
    kernel_size: 3
    weight_filler {
      type: "gaussian"
      std: 0.01
    }
    bias_filler {
      type: "constant"
      value: 0
    }
  }
}
layers {
  bottom: "conv5_3"
  top: "conv5_3"
  name: "relu5_3"
  type: RELU
}
layers {
  bottom: "conv5_3"
  top: "pool5"
  name: "pool5"
  type: POOLING
  pooling_param {
    pool: MAX
    kernel_size: 2
    stride: 2
  }
}
layers {
  bottom: "pool5"
  top: "fc6"
  name: "fc6"
  type: INNER_PRODUCT
  inner_product_param {
    num_output: 4096
    weight_filler {
      type: "gaussian"
      std: 0.01
    }
    bias_filler {
      type: "constant"
      value: 0
    }
  }
}
layers {
  bottom: "fc6"
  top: "fc6"
  name: "relu6"
  type: RELU
}
layers {
  bottom: "fc6"
  top: "fc6"
  name: "drop6"
  type: DROPOUT
  dropout_param {
    dropout_ratio: 0.5
  }
}
layers {
  bottom: "fc6"
  top: "fc7"
  name: "fc7"
  type: INNER_PRODUCT
  inner_product_param {
    num_output: 4096
    weight_filler {
      type: "gaussian"
      std: 0.01
    }
    bias_filler {
      type: "constant"
      value: 0
    }
  }
}
layers {
  bottom: "fc7"
  top: "fc7"
  name: "relu7"
  type: RELU
}
layers {
  bottom: "fc7"
  top: "fc7"
  name: "drop7"
  type: DROPOUT
  dropout_param {
    dropout_ratio: 0.5
  }
}
layers {
  bottom: "fc7"
  top: "fc8_2"
  name: "fc8_2"
  type: INNER_PRODUCT
  inner_product_param {
    num_output: 2
    weight_filler {
      type: "gaussian"
      std: 0.01
    }
    bias_filler {
      type: "constant"
      value: 0
    }
  }
}
layers {
  bottom: "fc8_2"
  bottom: "label"
  name: "loss"
  type: SOFTMAX_LOSS
}
layers {
  bottom: "fc8_2"
  bottom: "label"
  top: "accuracy"
  name: "accuracy"
  type: PER_CLASS_ACCURACY
  include {
    phase: TEST
  }
}
state {
  phase: TEST
}
I1109 01:27:22.159766 30776 layer_factory.hpp:78] Creating layer data
I1109 01:27:22.159785 30776 net.cpp:67] Creating Layer data
I1109 01:27:22.159791 30776 net.cpp:356] data -> data
I1109 01:27:22.159804 30776 net.cpp:356] data -> label
I1109 01:27:22.159814 30776 net.cpp:96] Setting up data
I1109 01:27:22.159821 30776 image_data_layer.cpp:34] Opening file /data/ad6813/devCaffe/caffe/data/inadcl_o/val.txt
I1109 01:27:22.160166 30776 image_data_layer.cpp:49] A total of 468 images.
I1109 01:27:22.170353 30776 image_data_layer.cpp:78] output data size: 8,3,224,224
I1109 01:27:22.172199 30776 net.cpp:103] Top shape: 8 3 224 224 (1204224)
I1109 01:27:22.172221 30776 net.cpp:103] Top shape: 8 1 1 1 (8)
I1109 01:27:22.172230 30776 layer_factory.hpp:78] Creating layer label_data_1_split
I1109 01:27:22.172248 30776 net.cpp:67] Creating Layer label_data_1_split
I1109 01:27:22.172256 30776 net.cpp:394] label_data_1_split <- label
I1109 01:27:22.172269 30776 net.cpp:356] label_data_1_split -> label_data_1_split_0
I1109 01:27:22.172283 30776 net.cpp:356] label_data_1_split -> label_data_1_split_1
I1109 01:27:22.172292 30776 net.cpp:96] Setting up label_data_1_split
I1109 01:27:22.172302 30776 net.cpp:103] Top shape: 8 1 1 1 (8)
I1109 01:27:22.172308 30776 net.cpp:103] Top shape: 8 1 1 1 (8)
I1109 01:27:22.172313 30776 layer_factory.hpp:78] Creating layer conv1_1
I1109 01:27:22.172324 30776 net.cpp:67] Creating Layer conv1_1
I1109 01:27:22.172330 30776 net.cpp:394] conv1_1 <- data
I1109 01:27:22.172339 30776 net.cpp:356] conv1_1 -> conv1_1
I1109 01:27:22.172349 30776 net.cpp:96] Setting up conv1_1
I1109 01:27:22.172713 30776 net.cpp:103] Top shape: 8 64 224 224 (25690112)
I1109 01:27:22.172741 30776 layer_factory.hpp:78] Creating layer relu1_1
I1109 01:27:22.172751 30776 net.cpp:67] Creating Layer relu1_1
I1109 01:27:22.172757 30776 net.cpp:394] relu1_1 <- conv1_1
I1109 01:27:22.172765 30776 net.cpp:345] relu1_1 -> conv1_1 (in-place)
I1109 01:27:22.172775 30776 net.cpp:96] Setting up relu1_1
I1109 01:27:22.172797 30776 net.cpp:103] Top shape: 8 64 224 224 (25690112)
I1109 01:27:22.172804 30776 layer_factory.hpp:78] Creating layer conv1_2
I1109 01:27:22.172814 30776 net.cpp:67] Creating Layer conv1_2
I1109 01:27:22.172821 30776 net.cpp:394] conv1_2 <- conv1_1
I1109 01:27:22.172828 30776 net.cpp:356] conv1_2 -> conv1_2
I1109 01:27:22.172838 30776 net.cpp:96] Setting up conv1_2
I1109 01:27:22.174850 30776 net.cpp:103] Top shape: 8 64 224 224 (25690112)
I1109 01:27:22.174877 30776 layer_factory.hpp:78] Creating layer relu1_2
I1109 01:27:22.174886 30776 net.cpp:67] Creating Layer relu1_2
I1109 01:27:22.174892 30776 net.cpp:394] relu1_2 <- conv1_2
I1109 01:27:22.174901 30776 net.cpp:345] relu1_2 -> conv1_2 (in-place)
I1109 01:27:22.174909 30776 net.cpp:96] Setting up relu1_2
I1109 01:27:22.174919 30776 net.cpp:103] Top shape: 8 64 224 224 (25690112)
I1109 01:27:22.174926 30776 layer_factory.hpp:78] Creating layer pool1
I1109 01:27:22.174934 30776 net.cpp:67] Creating Layer pool1
I1109 01:27:22.174940 30776 net.cpp:394] pool1 <- conv1_2
I1109 01:27:22.174948 30776 net.cpp:356] pool1 -> pool1
I1109 01:27:22.174957 30776 net.cpp:96] Setting up pool1
I1109 01:27:22.174968 30776 net.cpp:103] Top shape: 8 64 112 112 (6422528)
I1109 01:27:22.174974 30776 layer_factory.hpp:78] Creating layer conv2_1
I1109 01:27:22.174983 30776 net.cpp:67] Creating Layer conv2_1
I1109 01:27:22.174988 30776 net.cpp:394] conv2_1 <- pool1
I1109 01:27:22.174996 30776 net.cpp:356] conv2_1 -> conv2_1
I1109 01:27:22.175005 30776 net.cpp:96] Setting up conv2_1
I1109 01:27:22.178997 30776 net.cpp:103] Top shape: 8 128 112 112 (12845056)
I1109 01:27:22.179026 30776 layer_factory.hpp:78] Creating layer relu2_1
I1109 01:27:22.179039 30776 net.cpp:67] Creating Layer relu2_1
I1109 01:27:22.179044 30776 net.cpp:394] relu2_1 <- conv2_1
I1109 01:27:22.179052 30776 net.cpp:345] relu2_1 -> conv2_1 (in-place)
I1109 01:27:22.179061 30776 net.cpp:96] Setting up relu2_1
I1109 01:27:22.179071 30776 net.cpp:103] Top shape: 8 128 112 112 (12845056)
I1109 01:27:22.179077 30776 layer_factory.hpp:78] Creating layer conv2_2
I1109 01:27:22.179086 30776 net.cpp:67] Creating Layer conv2_2
I1109 01:27:22.179091 30776 net.cpp:394] conv2_2 <- conv2_1
I1109 01:27:22.179100 30776 net.cpp:356] conv2_2 -> conv2_2
I1109 01:27:22.179111 30776 net.cpp:96] Setting up conv2_2
I1109 01:27:22.186485 30776 net.cpp:103] Top shape: 8 128 112 112 (12845056)
I1109 01:27:22.186511 30776 layer_factory.hpp:78] Creating layer relu2_2
I1109 01:27:22.186525 30776 net.cpp:67] Creating Layer relu2_2
I1109 01:27:22.186532 30776 net.cpp:394] relu2_2 <- conv2_2
I1109 01:27:22.186542 30776 net.cpp:345] relu2_2 -> conv2_2 (in-place)
I1109 01:27:22.186550 30776 net.cpp:96] Setting up relu2_2
I1109 01:27:22.186560 30776 net.cpp:103] Top shape: 8 128 112 112 (12845056)
I1109 01:27:22.186566 30776 layer_factory.hpp:78] Creating layer pool2
I1109 01:27:22.186578 30776 net.cpp:67] Creating Layer pool2
I1109 01:27:22.186583 30776 net.cpp:394] pool2 <- conv2_2
I1109 01:27:22.186591 30776 net.cpp:356] pool2 -> pool2
I1109 01:27:22.186600 30776 net.cpp:96] Setting up pool2
I1109 01:27:22.186612 30776 net.cpp:103] Top shape: 8 128 56 56 (3211264)
I1109 01:27:22.186619 30776 layer_factory.hpp:78] Creating layer conv3_1
I1109 01:27:22.186630 30776 net.cpp:67] Creating Layer conv3_1
I1109 01:27:22.186635 30776 net.cpp:394] conv3_1 <- pool2
I1109 01:27:22.186645 30776 net.cpp:356] conv3_1 -> conv3_1
I1109 01:27:22.186653 30776 net.cpp:96] Setting up conv3_1
I1109 01:27:22.201112 30776 net.cpp:103] Top shape: 8 256 56 56 (6422528)
I1109 01:27:22.201158 30776 layer_factory.hpp:78] Creating layer relu3_1
I1109 01:27:22.201169 30776 net.cpp:67] Creating Layer relu3_1
I1109 01:27:22.201175 30776 net.cpp:394] relu3_1 <- conv3_1
I1109 01:27:22.201190 30776 net.cpp:345] relu3_1 -> conv3_1 (in-place)
I1109 01:27:22.201200 30776 net.cpp:96] Setting up relu3_1
I1109 01:27:22.201210 30776 net.cpp:103] Top shape: 8 256 56 56 (6422528)
I1109 01:27:22.201216 30776 layer_factory.hpp:78] Creating layer conv3_2
I1109 01:27:22.201244 30776 net.cpp:67] Creating Layer conv3_2
I1109 01:27:22.201251 30776 net.cpp:394] conv3_2 <- conv3_1
I1109 01:27:22.201262 30776 net.cpp:356] conv3_2 -> conv3_2
I1109 01:27:22.201272 30776 net.cpp:96] Setting up conv3_2
I1109 01:27:22.230074 30776 net.cpp:103] Top shape: 8 256 56 56 (6422528)
I1109 01:27:22.230108 30776 layer_factory.hpp:78] Creating layer relu3_2
I1109 01:27:22.230121 30776 net.cpp:67] Creating Layer relu3_2
I1109 01:27:22.230129 30776 net.cpp:394] relu3_2 <- conv3_2
I1109 01:27:22.230139 30776 net.cpp:345] relu3_2 -> conv3_2 (in-place)
I1109 01:27:22.230149 30776 net.cpp:96] Setting up relu3_2
I1109 01:27:22.230159 30776 net.cpp:103] Top shape: 8 256 56 56 (6422528)
I1109 01:27:22.230165 30776 layer_factory.hpp:78] Creating layer conv3_3
I1109 01:27:22.230183 30776 net.cpp:67] Creating Layer conv3_3
I1109 01:27:22.230190 30776 net.cpp:394] conv3_3 <- conv3_2
I1109 01:27:22.230198 30776 net.cpp:356] conv3_3 -> conv3_3
I1109 01:27:22.230208 30776 net.cpp:96] Setting up conv3_3
I1109 01:27:22.259214 30776 net.cpp:103] Top shape: 8 256 56 56 (6422528)
I1109 01:27:22.259249 30776 layer_factory.hpp:78] Creating layer relu3_3
I1109 01:27:22.259261 30776 net.cpp:67] Creating Layer relu3_3
I1109 01:27:22.259268 30776 net.cpp:394] relu3_3 <- conv3_3
I1109 01:27:22.259279 30776 net.cpp:345] relu3_3 -> conv3_3 (in-place)
I1109 01:27:22.259289 30776 net.cpp:96] Setting up relu3_3
I1109 01:27:22.259300 30776 net.cpp:103] Top shape: 8 256 56 56 (6422528)
I1109 01:27:22.259306 30776 layer_factory.hpp:78] Creating layer pool3
I1109 01:27:22.259321 30776 net.cpp:67] Creating Layer pool3
I1109 01:27:22.259327 30776 net.cpp:394] pool3 <- conv3_3
I1109 01:27:22.259336 30776 net.cpp:356] pool3 -> pool3
I1109 01:27:22.259346 30776 net.cpp:96] Setting up pool3
I1109 01:27:22.259357 30776 net.cpp:103] Top shape: 8 256 28 28 (1605632)
I1109 01:27:22.259363 30776 layer_factory.hpp:78] Creating layer conv4_1
I1109 01:27:22.259377 30776 net.cpp:67] Creating Layer conv4_1
I1109 01:27:22.259382 30776 net.cpp:394] conv4_1 <- pool3
I1109 01:27:22.259390 30776 net.cpp:356] conv4_1 -> conv4_1
I1109 01:27:22.259399 30776 net.cpp:96] Setting up conv4_1
I1109 01:27:22.316618 30776 net.cpp:103] Top shape: 8 512 28 28 (3211264)
I1109 01:27:22.316658 30776 layer_factory.hpp:78] Creating layer relu4_1
I1109 01:27:22.316670 30776 net.cpp:67] Creating Layer relu4_1
I1109 01:27:22.316679 30776 net.cpp:394] relu4_1 <- conv4_1
I1109 01:27:22.316689 30776 net.cpp:345] relu4_1 -> conv4_1 (in-place)
I1109 01:27:22.316699 30776 net.cpp:96] Setting up relu4_1
I1109 01:27:22.316710 30776 net.cpp:103] Top shape: 8 512 28 28 (3211264)
I1109 01:27:22.316716 30776 layer_factory.hpp:78] Creating layer conv4_2
I1109 01:27:22.316730 30776 net.cpp:67] Creating Layer conv4_2
I1109 01:27:22.316735 30776 net.cpp:394] conv4_2 <- conv4_1
I1109 01:27:22.316745 30776 net.cpp:356] conv4_2 -> conv4_2
I1109 01:27:22.316756 30776 net.cpp:96] Setting up conv4_2
I1109 01:27:22.429760 30776 net.cpp:103] Top shape: 8 512 28 28 (3211264)
I1109 01:27:22.429811 30776 layer_factory.hpp:78] Creating layer relu4_2
I1109 01:27:22.429826 30776 net.cpp:67] Creating Layer relu4_2
I1109 01:27:22.429834 30776 net.cpp:394] relu4_2 <- conv4_2
I1109 01:27:22.429846 30776 net.cpp:345] relu4_2 -> conv4_2 (in-place)
I1109 01:27:22.429855 30776 net.cpp:96] Setting up relu4_2
I1109 01:27:22.429867 30776 net.cpp:103] Top shape: 8 512 28 28 (3211264)
I1109 01:27:22.429872 30776 layer_factory.hpp:78] Creating layer conv4_3
I1109 01:27:22.429884 30776 net.cpp:67] Creating Layer conv4_3
I1109 01:27:22.429889 30776 net.cpp:394] conv4_3 <- conv4_2
I1109 01:27:22.429898 30776 net.cpp:356] conv4_3 -> conv4_3
I1109 01:27:22.429910 30776 net.cpp:96] Setting up conv4_3
I1109 01:27:22.543403 30776 net.cpp:103] Top shape: 8 512 28 28 (3211264)
I1109 01:27:22.543447 30776 layer_factory.hpp:78] Creating layer relu4_3
I1109 01:27:22.543463 30776 net.cpp:67] Creating Layer relu4_3
I1109 01:27:22.543472 30776 net.cpp:394] relu4_3 <- conv4_3
I1109 01:27:22.543481 30776 net.cpp:345] relu4_3 -> conv4_3 (in-place)
I1109 01:27:22.543509 30776 net.cpp:96] Setting up relu4_3
I1109 01:27:22.543519 30776 net.cpp:103] Top shape: 8 512 28 28 (3211264)
I1109 01:27:22.543525 30776 layer_factory.hpp:78] Creating layer pool4
I1109 01:27:22.543536 30776 net.cpp:67] Creating Layer pool4
I1109 01:27:22.543542 30776 net.cpp:394] pool4 <- conv4_3
I1109 01:27:22.543550 30776 net.cpp:356] pool4 -> pool4
I1109 01:27:22.543560 30776 net.cpp:96] Setting up pool4
I1109 01:27:22.543572 30776 net.cpp:103] Top shape: 8 512 14 14 (802816)
I1109 01:27:22.543579 30776 layer_factory.hpp:78] Creating layer conv5_1
I1109 01:27:22.543591 30776 net.cpp:67] Creating Layer conv5_1
I1109 01:27:22.543597 30776 net.cpp:394] conv5_1 <- pool4
I1109 01:27:22.543606 30776 net.cpp:356] conv5_1 -> conv5_1
I1109 01:27:22.543615 30776 net.cpp:96] Setting up conv5_1
I1109 01:27:22.657037 30776 net.cpp:103] Top shape: 8 512 14 14 (802816)
I1109 01:27:22.657079 30776 layer_factory.hpp:78] Creating layer relu5_1
I1109 01:27:22.657094 30776 net.cpp:67] Creating Layer relu5_1
I1109 01:27:22.657101 30776 net.cpp:394] relu5_1 <- conv5_1
I1109 01:27:22.657114 30776 net.cpp:345] relu5_1 -> conv5_1 (in-place)
I1109 01:27:22.657126 30776 net.cpp:96] Setting up relu5_1
I1109 01:27:22.657146 30776 net.cpp:103] Top shape: 8 512 14 14 (802816)
I1109 01:27:22.657152 30776 layer_factory.hpp:78] Creating layer conv5_2
I1109 01:27:22.657162 30776 net.cpp:67] Creating Layer conv5_2
I1109 01:27:22.657168 30776 net.cpp:394] conv5_2 <- conv5_1
I1109 01:27:22.657176 30776 net.cpp:356] conv5_2 -> conv5_2
I1109 01:27:22.657186 30776 net.cpp:96] Setting up conv5_2
I1109 01:27:22.770493 30776 net.cpp:103] Top shape: 8 512 14 14 (802816)
I1109 01:27:22.770536 30776 layer_factory.hpp:78] Creating layer relu5_2
I1109 01:27:22.770548 30776 net.cpp:67] Creating Layer relu5_2
I1109 01:27:22.770556 30776 net.cpp:394] relu5_2 <- conv5_2
I1109 01:27:22.770566 30776 net.cpp:345] relu5_2 -> conv5_2 (in-place)
I1109 01:27:22.770576 30776 net.cpp:96] Setting up relu5_2
I1109 01:27:22.770587 30776 net.cpp:103] Top shape: 8 512 14 14 (802816)
I1109 01:27:22.770593 30776 layer_factory.hpp:78] Creating layer conv5_3
I1109 01:27:22.770606 30776 net.cpp:67] Creating Layer conv5_3
I1109 01:27:22.770612 30776 net.cpp:394] conv5_3 <- conv5_2
I1109 01:27:22.770620 30776 net.cpp:356] conv5_3 -> conv5_3
I1109 01:27:22.770632 30776 net.cpp:96] Setting up conv5_3
I1109 01:27:22.883776 30776 net.cpp:103] Top shape: 8 512 14 14 (802816)
I1109 01:27:22.883822 30776 layer_factory.hpp:78] Creating layer relu5_3
I1109 01:27:22.883836 30776 net.cpp:67] Creating Layer relu5_3
I1109 01:27:22.883844 30776 net.cpp:394] relu5_3 <- conv5_3
I1109 01:27:22.883854 30776 net.cpp:345] relu5_3 -> conv5_3 (in-place)
I1109 01:27:22.883865 30776 net.cpp:96] Setting up relu5_3
I1109 01:27:22.883877 30776 net.cpp:103] Top shape: 8 512 14 14 (802816)
I1109 01:27:22.883882 30776 layer_factory.hpp:78] Creating layer pool5
I1109 01:27:22.883899 30776 net.cpp:67] Creating Layer pool5
I1109 01:27:22.883905 30776 net.cpp:394] pool5 <- conv5_3
I1109 01:27:22.883914 30776 net.cpp:356] pool5 -> pool5
I1109 01:27:22.883924 30776 net.cpp:96] Setting up pool5
I1109 01:27:22.883936 30776 net.cpp:103] Top shape: 8 512 7 7 (200704)
I1109 01:27:22.883942 30776 layer_factory.hpp:78] Creating layer fc6
I1109 01:27:22.883955 30776 net.cpp:67] Creating Layer fc6
I1109 01:27:22.883960 30776 net.cpp:394] fc6 <- pool5
I1109 01:27:22.883968 30776 net.cpp:356] fc6 -> fc6
I1109 01:27:22.883978 30776 net.cpp:96] Setting up fc6
I1109 01:27:27.802198 30776 net.cpp:103] Top shape: 8 4096 1 1 (32768)
I1109 01:27:27.802242 30776 layer_factory.hpp:78] Creating layer relu6
I1109 01:27:27.802256 30776 net.cpp:67] Creating Layer relu6
I1109 01:27:27.802265 30776 net.cpp:394] relu6 <- fc6
I1109 01:27:27.802276 30776 net.cpp:345] relu6 -> fc6 (in-place)
I1109 01:27:27.802287 30776 net.cpp:96] Setting up relu6
I1109 01:27:27.802307 30776 net.cpp:103] Top shape: 8 4096 1 1 (32768)
I1109 01:27:27.802314 30776 layer_factory.hpp:78] Creating layer drop6
I1109 01:27:27.802325 30776 net.cpp:67] Creating Layer drop6
I1109 01:27:27.802342 30776 net.cpp:394] drop6 <- fc6
I1109 01:27:27.802351 30776 net.cpp:345] drop6 -> fc6 (in-place)
I1109 01:27:27.802359 30776 net.cpp:96] Setting up drop6
I1109 01:27:27.802373 30776 net.cpp:103] Top shape: 8 4096 1 1 (32768)
I1109 01:27:27.802379 30776 layer_factory.hpp:78] Creating layer fc7
I1109 01:27:27.802388 30776 net.cpp:67] Creating Layer fc7
I1109 01:27:27.802393 30776 net.cpp:394] fc7 <- fc6
I1109 01:27:27.802403 30776 net.cpp:356] fc7 -> fc7
I1109 01:27:27.802414 30776 net.cpp:96] Setting up fc7
I1109 01:27:28.614902 30776 net.cpp:103] Top shape: 8 4096 1 1 (32768)
I1109 01:27:28.614950 30776 layer_factory.hpp:78] Creating layer relu7
I1109 01:27:28.614963 30776 net.cpp:67] Creating Layer relu7
I1109 01:27:28.614969 30776 net.cpp:394] relu7 <- fc7
I1109 01:27:28.614984 30776 net.cpp:345] relu7 -> fc7 (in-place)
I1109 01:27:28.614995 30776 net.cpp:96] Setting up relu7
I1109 01:27:28.615017 30776 net.cpp:103] Top shape: 8 4096 1 1 (32768)
I1109 01:27:28.615023 30776 layer_factory.hpp:78] Creating layer drop7
I1109 01:27:28.615031 30776 net.cpp:67] Creating Layer drop7
I1109 01:27:28.615037 30776 net.cpp:394] drop7 <- fc7
I1109 01:27:28.615044 30776 net.cpp:345] drop7 -> fc7 (in-place)
I1109 01:27:28.615052 30776 net.cpp:96] Setting up drop7
I1109 01:27:28.615058 30776 net.cpp:103] Top shape: 8 4096 1 1 (32768)
I1109 01:27:28.615068 30776 layer_factory.hpp:78] Creating layer fc8_2
I1109 01:27:28.615080 30776 net.cpp:67] Creating Layer fc8_2
I1109 01:27:28.615087 30776 net.cpp:394] fc8_2 <- fc7
I1109 01:27:28.615095 30776 net.cpp:356] fc8_2 -> fc8_2
I1109 01:27:28.615106 30776 net.cpp:96] Setting up fc8_2
I1109 01:27:28.615512 30776 net.cpp:103] Top shape: 8 2 1 1 (16)
I1109 01:27:28.615530 30776 layer_factory.hpp:78] Creating layer fc8_2_fc8_2_0_split
I1109 01:27:28.615538 30776 net.cpp:67] Creating Layer fc8_2_fc8_2_0_split
I1109 01:27:28.615545 30776 net.cpp:394] fc8_2_fc8_2_0_split <- fc8_2
I1109 01:27:28.615552 30776 net.cpp:356] fc8_2_fc8_2_0_split -> fc8_2_fc8_2_0_split_0
I1109 01:27:28.615561 30776 net.cpp:356] fc8_2_fc8_2_0_split -> fc8_2_fc8_2_0_split_1
I1109 01:27:28.615571 30776 net.cpp:96] Setting up fc8_2_fc8_2_0_split
I1109 01:27:28.615578 30776 net.cpp:103] Top shape: 8 2 1 1 (16)
I1109 01:27:28.615583 30776 net.cpp:103] Top shape: 8 2 1 1 (16)
I1109 01:27:28.615589 30776 layer_factory.hpp:78] Creating layer loss
I1109 01:27:28.615599 30776 net.cpp:67] Creating Layer loss
I1109 01:27:28.615605 30776 net.cpp:394] loss <- fc8_2_fc8_2_0_split_0
I1109 01:27:28.615612 30776 net.cpp:394] loss <- label_data_1_split_0
I1109 01:27:28.615620 30776 net.cpp:356] loss -> (automatic)
I1109 01:27:28.615633 30776 net.cpp:96] Setting up loss
I1109 01:27:28.615645 30776 net.cpp:103] Top shape: 1 1 1 1 (1)
I1109 01:27:28.615651 30776 net.cpp:109]     with loss weight 1
I1109 01:27:28.615670 30776 layer_factory.hpp:78] Creating layer accuracy
I1109 01:27:28.615684 30776 net.cpp:67] Creating Layer accuracy
I1109 01:27:28.615690 30776 net.cpp:394] accuracy <- fc8_2_fc8_2_0_split_1
I1109 01:27:28.615697 30776 net.cpp:394] accuracy <- label_data_1_split_1
I1109 01:27:28.615705 30776 net.cpp:356] accuracy -> accuracy
I1109 01:27:28.615715 30776 net.cpp:96] Setting up accuracy
I1109 01:27:28.615726 30776 net.cpp:103] Top shape: 1 1 1 4 (4)
I1109 01:27:28.615737 30776 net.cpp:172] accuracy does not need backward computation.
I1109 01:27:28.615743 30776 net.cpp:170] loss needs backward computation.
I1109 01:27:28.615748 30776 net.cpp:170] fc8_2_fc8_2_0_split needs backward computation.
I1109 01:27:28.615753 30776 net.cpp:170] fc8_2 needs backward computation.
I1109 01:27:28.615758 30776 net.cpp:170] drop7 needs backward computation.
…
