…
I1109 19:42:26.699404 16604 net.cpp:275] The NetState phase (0) differed from the phase (1) specified by a rule in layer accuracy
I1109 19:42:26.699856 16604 net.cpp:39] Initializing net from parameters: 
name: "small"
layers {
  top: "data"
  top: "label"
  name: "data"
  type: IMAGE_DATA
  image_data_param {
    source: "/data/ad6813/devCaffe/caffe/data/inadcl_o/train.txt"
    batch_size: 32
    new_height: 256
    new_width: 256
  }
  include {
    phase: TRAIN
  }
  transform_param {
    mirror: true
    crop_size: 224
    mean_value: 86.752
    mean_value: 101.46
    mean_value: 104.6
  }
}
layers {
  bottom: "data"
  top: "conv1_1"
  name: "conv1_1"
  type: CONVOLUTION
  convolution_param {
    num_output: 64
    pad: 1
    kernel_size: 3
    weight_filler {
      type: "gaussian"
      std: 0.01
    }
    bias_filler {
      type: "constant"
      value: 0
    }
  }
}
layers {
  bottom: "conv1_1"
  top: "conv1_1"
  name: "relu1_1"
  type: RELU
}
layers {
  bottom: "conv1_1"
  top: "conv1_2"
  name: "conv1_2"
  type: CONVOLUTION
  convolution_param {
    num_output: 64
    pad: 1
    kernel_size: 3
    weight_filler {
      type: "gaussian"
      std: 0.01
    }
    bias_filler {
      type: "constant"
      value: 0
    }
  }
}
layers {
  bottom: "conv1_2"
  top: "conv1_2"
  name: "relu1_2"
  type: RELU
}
layers {
  bottom: "conv1_2"
  top: "pool1"
  name: "pool1"
  type: POOLING
  pooling_param {
    pool: MAX
    kernel_size: 2
    stride: 2
  }
}
layers {
  bottom: "pool1"
  top: "conv2_1"
  name: "conv2_1"
  type: CONVOLUTION
  convolution_param {
    num_output: 128
    pad: 1
    kernel_size: 3
    weight_filler {
      type: "gaussian"
      std: 0.01
    }
    bias_filler {
      type: "constant"
      value: 0
    }
  }
}
layers {
  bottom: "conv2_1"
  top: "conv2_1"
  name: "relu2_1"
  type: RELU
}
layers {
  bottom: "conv2_1"
  top: "conv2_2"
  name: "conv2_2"
  type: CONVOLUTION
  convolution_param {
    num_output: 128
    pad: 1
    kernel_size: 3
    weight_filler {
      type: "gaussian"
      std: 0.01
    }
    bias_filler {
      type: "constant"
      value: 0
    }
  }
}
layers {
  bottom: "conv2_2"
  top: "conv2_2"
  name: "relu2_2"
  type: RELU
}
layers {
  bottom: "conv2_2"
  top: "pool2"
  name: "pool2"
  type: POOLING
  pooling_param {
    pool: MAX
    kernel_size: 2
    stride: 2
  }
}
layers {
  bottom: "pool2"
  top: "conv3_1"
  name: "conv3_1"
  type: CONVOLUTION
  convolution_param {
    num_output: 256
    pad: 1
    kernel_size: 3
    weight_filler {
      type: "gaussian"
      std: 0.01
    }
    bias_filler {
      type: "constant"
      value: 0
    }
  }
}
layers {
  bottom: "conv3_1"
  top: "conv3_1"
  name: "relu3_1"
  type: RELU
}
layers {
  bottom: "conv3_1"
  top: "conv3_2"
  name: "conv3_2"
  type: CONVOLUTION
  convolution_param {
    num_output: 256
    pad: 1
    kernel_size: 3
    weight_filler {
      type: "gaussian"
      std: 0.01
    }
    bias_filler {
      type: "constant"
      value: 0
    }
  }
}
layers {
  bottom: "conv3_2"
  top: "conv3_2"
  name: "relu3_2"
  type: RELU
}
layers {
  bottom: "conv3_2"
  top: "conv3_3"
  name: "conv3_3"
  type: CONVOLUTION
  convolution_param {
    num_output: 256
    pad: 1
    kernel_size: 3
    weight_filler {
      type: "gaussian"
      std: 0.01
    }
    bias_filler {
      type: "constant"
      value: 0
    }
  }
}
layers {
  bottom: "conv3_3"
  top: "conv3_3"
  name: "relu3_3"
  type: RELU
}
layers {
  bottom: "conv3_3"
  top: "pool3"
  name: "pool3"
  type: POOLING
  pooling_param {
    pool: MAX
    kernel_size: 2
    stride: 2
  }
}
layers {
  bottom: "pool3"
  top: "conv4_1"
  name: "conv4_1"
  type: CONVOLUTION
  convolution_param {
    num_output: 512
    pad: 1
    kernel_size: 3
    weight_filler {
      type: "gaussian"
      std: 0.01
    }
    bias_filler {
      type: "constant"
      value: 0
    }
  }
}
layers {
  bottom: "conv4_1"
  top: "conv4_1"
  name: "relu4_1"
  type: RELU
}
layers {
  bottom: "conv4_1"
  top: "conv4_2"
  name: "conv4_2"
  type: CONVOLUTION
  convolution_param {
    num_output: 512
    pad: 1
    kernel_size: 3
    weight_filler {
      type: "gaussian"
      std: 0.01
    }
    bias_filler {
      type: "constant"
      value: 0
    }
  }
}
layers {
  bottom: "conv4_2"
  top: "conv4_2"
  name: "relu4_2"
  type: RELU
}
layers {
  bottom: "conv4_2"
  top: "conv4_3"
  name: "conv4_3"
  type: CONVOLUTION
  convolution_param {
    num_output: 512
    pad: 1
    kernel_size: 3
    weight_filler {
      type: "gaussian"
      std: 0.01
    }
    bias_filler {
      type: "constant"
      value: 0
    }
  }
}
layers {
  bottom: "conv4_3"
  top: "conv4_3"
  name: "relu4_3"
  type: RELU
}
layers {
  bottom: "conv4_3"
  top: "pool4"
  name: "pool4"
  type: POOLING
  pooling_param {
    pool: MAX
    kernel_size: 2
    stride: 2
  }
}
layers {
  bottom: "pool4"
  top: "conv5_1"
  name: "conv5_1"
  type: CONVOLUTION
  convolution_param {
    num_output: 512
    pad: 1
    kernel_size: 3
    weight_filler {
      type: "gaussian"
      std: 0.01
    }
    bias_filler {
      type: "constant"
      value: 0
    }
  }
}
layers {
  bottom: "conv5_1"
  top: "conv5_1"
  name: "relu5_1"
  type: RELU
}
layers {
  bottom: "conv5_1"
  top: "conv5_2"
  name: "conv5_2"
  type: CONVOLUTION
  convolution_param {
    num_output: 512
    pad: 1
    kernel_size: 3
    weight_filler {
      type: "gaussian"
      std: 0.01
    }
    bias_filler {
      type: "constant"
      value: 0
    }
  }
}
layers {
  bottom: "conv5_2"
  top: "conv5_2"
  name: "relu5_2"
  type: RELU
}
layers {
  bottom: "conv5_2"
  top: "conv5_3"
  name: "conv5_3"
  type: CONVOLUTION
  convolution_param {
    num_output: 512
    pad: 1
    kernel_size: 3
    weight_filler {
      type: "gaussian"
      std: 0.01
    }
    bias_filler {
      type: "constant"
      value: 0
    }
  }
}
layers {
  bottom: "conv5_3"
  top: "conv5_3"
  name: "relu5_3"
  type: RELU
}
layers {
  bottom: "conv5_3"
  top: "pool5"
  name: "pool5"
  type: POOLING
  pooling_param {
    pool: MAX
    kernel_size: 2
    stride: 2
  }
}
layers {
  bottom: "pool5"
  top: "fc6"
  name: "fc6"
  type: INNER_PRODUCT
  inner_product_param {
    num_output: 4096
    weight_filler {
      type: "gaussian"
      std: 0.01
    }
    bias_filler {
      type: "constant"
      value: 0
    }
  }
}
layers {
  bottom: "fc6"
  top: "fc6"
  name: "relu6"
  type: RELU
}
layers {
  bottom: "fc6"
  top: "fc6"
  name: "drop6"
  type: DROPOUT
  dropout_param {
    dropout_ratio: 0.5
  }
}
layers {
  bottom: "fc6"
  top: "fc7"
  name: "fc7"
  type: INNER_PRODUCT
  inner_product_param {
    num_output: 4096
    weight_filler {
      type: "gaussian"
      std: 0.01
    }
    bias_filler {
      type: "constant"
      value: 0
    }
  }
}
layers {
  bottom: "fc7"
  top: "fc7"
  name: "relu7"
  type: RELU
}
layers {
  bottom: "fc7"
  top: "fc7"
  name: "drop7"
  type: DROPOUT
  dropout_param {
    dropout_ratio: 0.5
  }
}
layers {
  bottom: "fc7"
  top: "fc8_2"
  name: "fc8_2"
  type: INNER_PRODUCT
  inner_product_param {
    num_output: 2
    weight_filler {
      type: "gaussian"
      std: 0.01
    }
    bias_filler {
      type: "constant"
      value: 0
    }
  }
}
layers {
  bottom: "fc8_2"
  bottom: "label"
  name: "loss"
  type: SOFTMAX_LOSS
}
state {
  phase: TRAIN
}
I1109 19:42:26.700911 16604 layer_factory.hpp:78] Creating layer data
I1109 19:42:26.702419 16604 net.cpp:67] Creating Layer data
I1109 19:42:26.702447 16604 net.cpp:356] data -> data
I1109 19:42:26.702702 16604 net.cpp:356] data -> label
I1109 19:42:26.702725 16604 net.cpp:96] Setting up data
I1109 19:42:26.702736 16604 image_data_layer.cpp:34] Opening file /data/ad6813/devCaffe/caffe/data/inadcl_o/train.txt
I1109 19:42:26.758075 16604 image_data_layer.cpp:49] A total of 20637 images.
I1109 19:42:26.815999 16604 image_data_layer.cpp:78] output data size: 32,3,224,224
I1109 19:42:26.818876 16604 net.cpp:103] Top shape: 32 3 224 224 (4816896)
I1109 19:42:26.818903 16604 net.cpp:103] Top shape: 32 1 1 1 (32)
I1109 19:42:26.818907 16604 layer_factory.hpp:78] Creating layer conv1_1
I1109 19:42:26.818923 16604 net.cpp:67] Creating Layer conv1_1
I1109 19:42:26.818928 16604 net.cpp:394] conv1_1 <- data
I1109 19:42:26.818943 16604 net.cpp:356] conv1_1 -> conv1_1
I1109 19:42:26.818953 16604 net.cpp:96] Setting up conv1_1
I1109 19:42:27.050791 16604 net.cpp:103] Top shape: 32 64 224 224 (102760448)
I1109 19:42:27.050828 16604 layer_factory.hpp:78] Creating layer relu1_1
I1109 19:42:27.050840 16604 net.cpp:67] Creating Layer relu1_1
I1109 19:42:27.050845 16604 net.cpp:394] relu1_1 <- conv1_1
I1109 19:42:27.050853 16604 net.cpp:345] relu1_1 -> conv1_1 (in-place)
I1109 19:42:27.050860 16604 net.cpp:96] Setting up relu1_1
I1109 19:42:27.051585 16604 net.cpp:103] Top shape: 32 64 224 224 (102760448)
I1109 19:42:27.051615 16604 layer_factory.hpp:78] Creating layer conv1_2
I1109 19:42:27.051625 16604 net.cpp:67] Creating Layer conv1_2
I1109 19:42:27.051627 16604 net.cpp:394] conv1_2 <- conv1_1
I1109 19:42:27.051633 16604 net.cpp:356] conv1_2 -> conv1_2
I1109 19:42:27.051640 16604 net.cpp:96] Setting up conv1_2
I1109 19:42:27.052680 16604 net.cpp:103] Top shape: 32 64 224 224 (102760448)
I1109 19:42:27.052693 16604 layer_factory.hpp:78] Creating layer relu1_2
I1109 19:42:27.052700 16604 net.cpp:67] Creating Layer relu1_2
I1109 19:42:27.052702 16604 net.cpp:394] relu1_2 <- conv1_2
I1109 19:42:27.052707 16604 net.cpp:345] relu1_2 -> conv1_2 (in-place)
I1109 19:42:27.052711 16604 net.cpp:96] Setting up relu1_2
I1109 19:42:27.052717 16604 net.cpp:103] Top shape: 32 64 224 224 (102760448)
I1109 19:42:27.052721 16604 layer_factory.hpp:78] Creating layer pool1
I1109 19:42:27.052728 16604 net.cpp:67] Creating Layer pool1
I1109 19:42:27.052731 16604 net.cpp:394] pool1 <- conv1_2
I1109 19:42:27.052737 16604 net.cpp:356] pool1 -> pool1
I1109 19:42:27.052743 16604 net.cpp:96] Setting up pool1
I1109 19:42:27.052762 16604 net.cpp:103] Top shape: 32 64 112 112 (25690112)
I1109 19:42:27.052767 16604 layer_factory.hpp:78] Creating layer conv2_1
I1109 19:42:27.052773 16604 net.cpp:67] Creating Layer conv2_1
I1109 19:42:27.052783 16604 net.cpp:394] conv2_1 <- pool1
I1109 19:42:27.052788 16604 net.cpp:356] conv2_1 -> conv2_1
I1109 19:42:27.052793 16604 net.cpp:96] Setting up conv2_1
I1109 19:42:27.054684 16604 net.cpp:103] Top shape: 32 128 112 112 (51380224)
I1109 19:42:27.054697 16604 layer_factory.hpp:78] Creating layer relu2_1
I1109 19:42:27.054702 16604 net.cpp:67] Creating Layer relu2_1
I1109 19:42:27.054704 16604 net.cpp:394] relu2_1 <- conv2_1
I1109 19:42:27.054710 16604 net.cpp:345] relu2_1 -> conv2_1 (in-place)
I1109 19:42:27.054715 16604 net.cpp:96] Setting up relu2_1
I1109 19:42:27.054720 16604 net.cpp:103] Top shape: 32 128 112 112 (51380224)
I1109 19:42:27.054723 16604 layer_factory.hpp:78] Creating layer conv2_2
I1109 19:42:27.054729 16604 net.cpp:67] Creating Layer conv2_2
I1109 19:42:27.054733 16604 net.cpp:394] conv2_2 <- conv2_1
I1109 19:42:27.054738 16604 net.cpp:356] conv2_2 -> conv2_2
I1109 19:42:27.054744 16604 net.cpp:96] Setting up conv2_2
I1109 19:42:27.058490 16604 net.cpp:103] Top shape: 32 128 112 112 (51380224)
I1109 19:42:27.058502 16604 layer_factory.hpp:78] Creating layer relu2_2
I1109 19:42:27.058511 16604 net.cpp:67] Creating Layer relu2_2
I1109 19:42:27.058513 16604 net.cpp:394] relu2_2 <- conv2_2
I1109 19:42:27.058518 16604 net.cpp:345] relu2_2 -> conv2_2 (in-place)
I1109 19:42:27.058522 16604 net.cpp:96] Setting up relu2_2
I1109 19:42:27.058528 16604 net.cpp:103] Top shape: 32 128 112 112 (51380224)
I1109 19:42:27.058538 16604 layer_factory.hpp:78] Creating layer pool2
I1109 19:42:27.058542 16604 net.cpp:67] Creating Layer pool2
I1109 19:42:27.058545 16604 net.cpp:394] pool2 <- conv2_2
I1109 19:42:27.058550 16604 net.cpp:356] pool2 -> pool2
I1109 19:42:27.058555 16604 net.cpp:96] Setting up pool2
I1109 19:42:27.058562 16604 net.cpp:103] Top shape: 32 128 56 56 (12845056)
I1109 19:42:27.058565 16604 layer_factory.hpp:78] Creating layer conv3_1
I1109 19:42:27.058570 16604 net.cpp:67] Creating Layer conv3_1
I1109 19:42:27.058573 16604 net.cpp:394] conv3_1 <- pool2
I1109 19:42:27.058579 16604 net.cpp:356] conv3_1 -> conv3_1
I1109 19:42:27.058585 16604 net.cpp:96] Setting up conv3_1
I1109 19:42:27.065954 16604 net.cpp:103] Top shape: 32 256 56 56 (25690112)
I1109 19:42:27.065966 16604 layer_factory.hpp:78] Creating layer relu3_1
I1109 19:42:27.065973 16604 net.cpp:67] Creating Layer relu3_1
I1109 19:42:27.065975 16604 net.cpp:394] relu3_1 <- conv3_1
I1109 19:42:27.065981 16604 net.cpp:345] relu3_1 -> conv3_1 (in-place)
I1109 19:42:27.065985 16604 net.cpp:96] Setting up relu3_1
I1109 19:42:27.065990 16604 net.cpp:103] Top shape: 32 256 56 56 (25690112)
I1109 19:42:27.065994 16604 layer_factory.hpp:78] Creating layer conv3_2
I1109 19:42:27.065999 16604 net.cpp:67] Creating Layer conv3_2
I1109 19:42:27.066001 16604 net.cpp:394] conv3_2 <- conv3_1
I1109 19:42:27.066006 16604 net.cpp:356] conv3_2 -> conv3_2
I1109 19:42:27.066011 16604 net.cpp:96] Setting up conv3_2
I1109 19:42:27.080878 16604 net.cpp:103] Top shape: 32 256 56 56 (25690112)
I1109 19:42:27.080893 16604 layer_factory.hpp:78] Creating layer relu3_2
I1109 19:42:27.080899 16604 net.cpp:67] Creating Layer relu3_2
I1109 19:42:27.080903 16604 net.cpp:394] relu3_2 <- conv3_2
I1109 19:42:27.080909 16604 net.cpp:345] relu3_2 -> conv3_2 (in-place)
I1109 19:42:27.080914 16604 net.cpp:96] Setting up relu3_2
I1109 19:42:27.080920 16604 net.cpp:103] Top shape: 32 256 56 56 (25690112)
I1109 19:42:27.080924 16604 layer_factory.hpp:78] Creating layer conv3_3
I1109 19:42:27.080929 16604 net.cpp:67] Creating Layer conv3_3
I1109 19:42:27.080931 16604 net.cpp:394] conv3_3 <- conv3_2
I1109 19:42:27.080936 16604 net.cpp:356] conv3_3 -> conv3_3
I1109 19:42:27.080941 16604 net.cpp:96] Setting up conv3_3
I1109 19:42:27.095415 16604 net.cpp:103] Top shape: 32 256 56 56 (25690112)
I1109 19:42:27.095432 16604 layer_factory.hpp:78] Creating layer relu3_3
I1109 19:42:27.095440 16604 net.cpp:67] Creating Layer relu3_3
I1109 19:42:27.095444 16604 net.cpp:394] relu3_3 <- conv3_3
I1109 19:42:27.095450 16604 net.cpp:345] relu3_3 -> conv3_3 (in-place)
I1109 19:42:27.095455 16604 net.cpp:96] Setting up relu3_3
I1109 19:42:27.095460 16604 net.cpp:103] Top shape: 32 256 56 56 (25690112)
I1109 19:42:27.095464 16604 layer_factory.hpp:78] Creating layer pool3
I1109 19:42:27.095469 16604 net.cpp:67] Creating Layer pool3
I1109 19:42:27.095473 16604 net.cpp:394] pool3 <- conv3_3
I1109 19:42:27.095480 16604 net.cpp:356] pool3 -> pool3
I1109 19:42:27.095486 16604 net.cpp:96] Setting up pool3
I1109 19:42:27.095494 16604 net.cpp:103] Top shape: 32 256 28 28 (6422528)
I1109 19:42:27.095496 16604 layer_factory.hpp:78] Creating layer conv4_1
I1109 19:42:27.095501 16604 net.cpp:67] Creating Layer conv4_1
I1109 19:42:27.095504 16604 net.cpp:394] conv4_1 <- pool3
I1109 19:42:27.095510 16604 net.cpp:356] conv4_1 -> conv4_1
I1109 19:42:27.095515 16604 net.cpp:96] Setting up conv4_1
I1109 19:42:27.124533 16604 net.cpp:103] Top shape: 32 512 28 28 (12845056)
I1109 19:42:27.124557 16604 layer_factory.hpp:78] Creating layer relu4_1
I1109 19:42:27.124564 16604 net.cpp:67] Creating Layer relu4_1
I1109 19:42:27.124568 16604 net.cpp:394] relu4_1 <- conv4_1
I1109 19:42:27.124575 16604 net.cpp:345] relu4_1 -> conv4_1 (in-place)
I1109 19:42:27.124582 16604 net.cpp:96] Setting up relu4_1
I1109 19:42:27.124586 16604 net.cpp:103] Top shape: 32 512 28 28 (12845056)
I1109 19:42:27.124590 16604 layer_factory.hpp:78] Creating layer conv4_2
I1109 19:42:27.124595 16604 net.cpp:67] Creating Layer conv4_2
I1109 19:42:27.124598 16604 net.cpp:394] conv4_2 <- conv4_1
I1109 19:42:27.124614 16604 net.cpp:356] conv4_2 -> conv4_2
I1109 19:42:27.124619 16604 net.cpp:96] Setting up conv4_2
I1109 19:42:27.182328 16604 net.cpp:103] Top shape: 32 512 28 28 (12845056)
I1109 19:42:27.182354 16604 layer_factory.hpp:78] Creating layer relu4_2
I1109 19:42:27.182363 16604 net.cpp:67] Creating Layer relu4_2
I1109 19:42:27.182368 16604 net.cpp:394] relu4_2 <- conv4_2
I1109 19:42:27.182382 16604 net.cpp:345] relu4_2 -> conv4_2 (in-place)
I1109 19:42:27.182389 16604 net.cpp:96] Setting up relu4_2
I1109 19:42:27.182395 16604 net.cpp:103] Top shape: 32 512 28 28 (12845056)
I1109 19:42:27.182399 16604 layer_factory.hpp:78] Creating layer conv4_3
I1109 19:42:27.182405 16604 net.cpp:67] Creating Layer conv4_3
I1109 19:42:27.182409 16604 net.cpp:394] conv4_3 <- conv4_2
I1109 19:42:27.182412 16604 net.cpp:356] conv4_3 -> conv4_3
I1109 19:42:27.182418 16604 net.cpp:96] Setting up conv4_3
I1109 19:42:27.240316 16604 net.cpp:103] Top shape: 32 512 28 28 (12845056)
I1109 19:42:27.240337 16604 layer_factory.hpp:78] Creating layer relu4_3
I1109 19:42:27.240346 16604 net.cpp:67] Creating Layer relu4_3
I1109 19:42:27.240350 16604 net.cpp:394] relu4_3 <- conv4_3
I1109 19:42:27.240357 16604 net.cpp:345] relu4_3 -> conv4_3 (in-place)
I1109 19:42:27.240363 16604 net.cpp:96] Setting up relu4_3
I1109 19:42:27.240370 16604 net.cpp:103] Top shape: 32 512 28 28 (12845056)
I1109 19:42:27.240372 16604 layer_factory.hpp:78] Creating layer pool4
I1109 19:42:27.240378 16604 net.cpp:67] Creating Layer pool4
I1109 19:42:27.240381 16604 net.cpp:394] pool4 <- conv4_3
I1109 19:42:27.240386 16604 net.cpp:356] pool4 -> pool4
I1109 19:42:27.240391 16604 net.cpp:96] Setting up pool4
I1109 19:42:27.240398 16604 net.cpp:103] Top shape: 32 512 14 14 (3211264)
I1109 19:42:27.240401 16604 layer_factory.hpp:78] Creating layer conv5_1
I1109 19:42:27.240409 16604 net.cpp:67] Creating Layer conv5_1
I1109 19:42:27.240412 16604 net.cpp:394] conv5_1 <- pool4
I1109 19:42:27.240417 16604 net.cpp:356] conv5_1 -> conv5_1
I1109 19:42:27.240424 16604 net.cpp:96] Setting up conv5_1
I1109 19:42:27.298277 16604 net.cpp:103] Top shape: 32 512 14 14 (3211264)
I1109 19:42:27.298300 16604 layer_factory.hpp:78] Creating layer relu5_1
I1109 19:42:27.298308 16604 net.cpp:67] Creating Layer relu5_1
I1109 19:42:27.298313 16604 net.cpp:394] relu5_1 <- conv5_1
I1109 19:42:27.298320 16604 net.cpp:345] relu5_1 -> conv5_1 (in-place)
I1109 19:42:27.298326 16604 net.cpp:96] Setting up relu5_1
I1109 19:42:27.298332 16604 net.cpp:103] Top shape: 32 512 14 14 (3211264)
I1109 19:42:27.298336 16604 layer_factory.hpp:78] Creating layer conv5_2
I1109 19:42:27.298347 16604 net.cpp:67] Creating Layer conv5_2
I1109 19:42:27.298352 16604 net.cpp:394] conv5_2 <- conv5_1
I1109 19:42:27.298355 16604 net.cpp:356] conv5_2 -> conv5_2
I1109 19:42:27.298362 16604 net.cpp:96] Setting up conv5_2
I1109 19:42:27.356017 16604 net.cpp:103] Top shape: 32 512 14 14 (3211264)
I1109 19:42:27.356040 16604 layer_factory.hpp:78] Creating layer relu5_2
I1109 19:42:27.356048 16604 net.cpp:67] Creating Layer relu5_2
I1109 19:42:27.356053 16604 net.cpp:394] relu5_2 <- conv5_2
I1109 19:42:27.356060 16604 net.cpp:345] relu5_2 -> conv5_2 (in-place)
I1109 19:42:27.356067 16604 net.cpp:96] Setting up relu5_2
I1109 19:42:27.356073 16604 net.cpp:103] Top shape: 32 512 14 14 (3211264)
I1109 19:42:27.356076 16604 layer_factory.hpp:78] Creating layer conv5_3
I1109 19:42:27.356083 16604 net.cpp:67] Creating Layer conv5_3
I1109 19:42:27.356086 16604 net.cpp:394] conv5_3 <- conv5_2
I1109 19:42:27.356091 16604 net.cpp:356] conv5_3 -> conv5_3
I1109 19:42:27.356096 16604 net.cpp:96] Setting up conv5_3
I1109 19:42:27.413843 16604 net.cpp:103] Top shape: 32 512 14 14 (3211264)
I1109 19:42:27.413868 16604 layer_factory.hpp:78] Creating layer relu5_3
I1109 19:42:27.413877 16604 net.cpp:67] Creating Layer relu5_3
I1109 19:42:27.413882 16604 net.cpp:394] relu5_3 <- conv5_3
I1109 19:42:27.413887 16604 net.cpp:345] relu5_3 -> conv5_3 (in-place)
I1109 19:42:27.413893 16604 net.cpp:96] Setting up relu5_3
I1109 19:42:27.413909 16604 net.cpp:103] Top shape: 32 512 14 14 (3211264)
I1109 19:42:27.413913 16604 layer_factory.hpp:78] Creating layer pool5
I1109 19:42:27.413920 16604 net.cpp:67] Creating Layer pool5
I1109 19:42:27.413923 16604 net.cpp:394] pool5 <- conv5_3
I1109 19:42:27.413928 16604 net.cpp:356] pool5 -> pool5
I1109 19:42:27.413933 16604 net.cpp:96] Setting up pool5
I1109 19:42:27.413941 16604 net.cpp:103] Top shape: 32 512 7 7 (802816)
I1109 19:42:27.413944 16604 layer_factory.hpp:78] Creating layer fc6
I1109 19:42:27.413959 16604 net.cpp:67] Creating Layer fc6
I1109 19:42:27.413962 16604 net.cpp:394] fc6 <- pool5
I1109 19:42:27.413967 16604 net.cpp:356] fc6 -> fc6
I1109 19:42:27.413972 16604 net.cpp:96] Setting up fc6
I1109 19:42:29.808071 16604 net.cpp:103] Top shape: 32 4096 1 1 (131072)
I1109 19:42:29.808110 16604 layer_factory.hpp:78] Creating layer relu6
I1109 19:42:29.808118 16604 net.cpp:67] Creating Layer relu6
I1109 19:42:29.808123 16604 net.cpp:394] relu6 <- fc6
I1109 19:42:29.808131 16604 net.cpp:345] relu6 -> fc6 (in-place)
I1109 19:42:29.808138 16604 net.cpp:96] Setting up relu6
I1109 19:42:29.808153 16604 net.cpp:103] Top shape: 32 4096 1 1 (131072)
I1109 19:42:29.808156 16604 layer_factory.hpp:78] Creating layer drop6
I1109 19:42:29.808163 16604 net.cpp:67] Creating Layer drop6
I1109 19:42:29.808166 16604 net.cpp:394] drop6 <- fc6
I1109 19:42:29.808171 16604 net.cpp:345] drop6 -> fc6 (in-place)
I1109 19:42:29.808176 16604 net.cpp:96] Setting up drop6
I1109 19:42:29.808179 16604 net.cpp:103] Top shape: 32 4096 1 1 (131072)
I1109 19:42:29.808182 16604 layer_factory.hpp:78] Creating layer fc7
I1109 19:42:29.808187 16604 net.cpp:67] Creating Layer fc7
I1109 19:42:29.808190 16604 net.cpp:394] fc7 <- fc6
I1109 19:42:29.808197 16604 net.cpp:356] fc7 -> fc7
I1109 19:42:29.808202 16604 net.cpp:96] Setting up fc7
I1109 19:42:30.196497 16604 net.cpp:103] Top shape: 32 4096 1 1 (131072)
I1109 19:42:30.196538 16604 layer_factory.hpp:78] Creating layer relu7
I1109 19:42:30.196548 16604 net.cpp:67] Creating Layer relu7
I1109 19:42:30.196553 16604 net.cpp:394] relu7 <- fc7
I1109 19:42:30.196559 16604 net.cpp:345] relu7 -> fc7 (in-place)
I1109 19:42:30.196565 16604 net.cpp:96] Setting up relu7
I1109 19:42:30.196579 16604 net.cpp:103] Top shape: 32 4096 1 1 (131072)
I1109 19:42:30.196583 16604 layer_factory.hpp:78] Creating layer drop7
I1109 19:42:30.196588 16604 net.cpp:67] Creating Layer drop7
I1109 19:42:30.196590 16604 net.cpp:394] drop7 <- fc7
I1109 19:42:30.196595 16604 net.cpp:345] drop7 -> fc7 (in-place)
I1109 19:42:30.196599 16604 net.cpp:96] Setting up drop7
I1109 19:42:30.196602 16604 net.cpp:103] Top shape: 32 4096 1 1 (131072)
I1109 19:42:30.196605 16604 layer_factory.hpp:78] Creating layer fc8_2
I1109 19:42:30.196612 16604 net.cpp:67] Creating Layer fc8_2
I1109 19:42:30.196615 16604 net.cpp:394] fc8_2 <- fc7
I1109 19:42:30.196619 16604 net.cpp:356] fc8_2 -> fc8_2
I1109 19:42:30.196625 16604 net.cpp:96] Setting up fc8_2
I1109 19:42:30.196838 16604 net.cpp:103] Top shape: 32 2 1 1 (64)
I1109 19:42:30.196846 16604 layer_factory.hpp:78] Creating layer loss
I1109 19:42:30.196851 16604 net.cpp:67] Creating Layer loss
I1109 19:42:30.196854 16604 net.cpp:394] loss <- fc8_2
I1109 19:42:30.196858 16604 net.cpp:394] loss <- label
I1109 19:42:30.196869 16604 net.cpp:356] loss -> (automatic)
I1109 19:42:30.196876 16604 net.cpp:96] Setting up loss
I1109 19:42:30.196883 16604 net.cpp:103] Top shape: 1 1 1 1 (1)
I1109 19:42:30.196888 16604 net.cpp:109]     with loss weight 1
I1109 19:42:30.196918 16604 net.cpp:170] loss needs backward computation.
I1109 19:42:30.196921 16604 net.cpp:170] fc8_2 needs backward computation.
I1109 19:42:30.196924 16604 net.cpp:170] drop7 needs backward computation.
I1109 19:42:30.196928 16604 net.cpp:170] relu7 needs backward computation.
I1109 19:42:30.196929 16604 net.cpp:170] fc7 needs backward computation.
…
I1109 19:42:30.197890 16604 net.cpp:275] The NetState phase (1) differed from the phase (0) specified by a rule in layer data
I1109 19:42:30.198091 16604 net.cpp:39] Initializing net from parameters: 
name: "small"
layers {
  top: "data"
  top: "label"
  name: "data"
  type: IMAGE_DATA
  image_data_param {
    source: "/data/ad6813/devCaffe/caffe/data/inadcl_o/val.txt"
    batch_size: 8
    new_height: 256
    new_width: 256
  }
  include {
    phase: TEST
  }
  transform_param {
    mirror: true
    crop_size: 224
    mean_value: 86.752
    mean_value: 101.46
    mean_value: 104.6
  }
}
layers {
  bottom: "data"
  top: "conv1_1"
  name: "conv1_1"
  type: CONVOLUTION
  convolution_param {
    num_output: 64
    pad: 1
    kernel_size: 3
    weight_filler {
      type: "gaussian"
      std: 0.01
    }
    bias_filler {
      type: "constant"
      value: 0
    }
  }
}
layers {
  bottom: "conv1_1"
  top: "conv1_1"
  name: "relu1_1"
  type: RELU
}
layers {
  bottom: "conv1_1"
  top: "conv1_2"
  name: "conv1_2"
  type: CONVOLUTION
  convolution_param {
    num_output: 64
    pad: 1
    kernel_size: 3
    weight_filler {
      type: "gaussian"
      std: 0.01
    }
    bias_filler {
      type: "constant"
      value: 0
    }
  }
}
layers {
  bottom: "conv1_2"
  top: "conv1_2"
  name: "relu1_2"
  type: RELU
}
layers {
  bottom: "conv1_2"
  top: "pool1"
  name: "pool1"
  type: POOLING
  pooling_param {
    pool: MAX
    kernel_size: 2
    stride: 2
  }
}
layers {
  bottom: "pool1"
  top: "conv2_1"
  name: "conv2_1"
  type: CONVOLUTION
  convolution_param {
    num_output: 128
    pad: 1
    kernel_size: 3
    weight_filler {
      type: "gaussian"
      std: 0.01
    }
    bias_filler {
      type: "constant"
      value: 0
    }
  }
}
layers {
  bottom: "conv2_1"
  top: "conv2_1"
  name: "relu2_1"
  type: RELU
}
layers {
  bottom: "conv2_1"
  top: "conv2_2"
  name: "conv2_2"
  type: CONVOLUTION
  convolution_param {
    num_output: 128
    pad: 1
    kernel_size: 3
    weight_filler {
      type: "gaussian"
      std: 0.01
    }
    bias_filler {
      type: "constant"
      value: 0
    }
  }
}
layers {
  bottom: "conv2_2"
  top: "conv2_2"
  name: "relu2_2"
  type: RELU
}
layers {
  bottom: "conv2_2"
  top: "pool2"
  name: "pool2"
  type: POOLING
  pooling_param {
    pool: MAX
    kernel_size: 2
    stride: 2
  }
}
layers {
  bottom: "pool2"
  top: "conv3_1"
  name: "conv3_1"
  type: CONVOLUTION
  convolution_param {
    num_output: 256
    pad: 1
    kernel_size: 3
    weight_filler {
      type: "gaussian"
      std: 0.01
    }
    bias_filler {
      type: "constant"
      value: 0
    }
  }
}
layers {
  bottom: "conv3_1"
  top: "conv3_1"
  name: "relu3_1"
  type: RELU
}
layers {
  bottom: "conv3_1"
  top: "conv3_2"
  name: "conv3_2"
  type: CONVOLUTION
  convolution_param {
    num_output: 256
    pad: 1
    kernel_size: 3
    weight_filler {
      type: "gaussian"
      std: 0.01
    }
    bias_filler {
      type: "constant"
      value: 0
    }
  }
}
layers {
  bottom: "conv3_2"
  top: "conv3_2"
  name: "relu3_2"
  type: RELU
}
layers {
  bottom: "conv3_2"
  top: "conv3_3"
  name: "conv3_3"
  type: CONVOLUTION
  convolution_param {
    num_output: 256
    pad: 1
    kernel_size: 3
    weight_filler {
      type: "gaussian"
      std: 0.01
    }
    bias_filler {
      type: "constant"
      value: 0
    }
  }
}
layers {
  bottom: "conv3_3"
  top: "conv3_3"
  name: "relu3_3"
  type: RELU
}
layers {
  bottom: "conv3_3"
  top: "pool3"
  name: "pool3"
  type: POOLING
  pooling_param {
    pool: MAX
    kernel_size: 2
    stride: 2
  }
}
layers {
  bottom: "pool3"
  top: "conv4_1"
  name: "conv4_1"
  type: CONVOLUTION
  convolution_param {
    num_output: 512
    pad: 1
    kernel_size: 3
    weight_filler {
      type: "gaussian"
      std: 0.01
    }
    bias_filler {
      type: "constant"
      value: 0
    }
  }
}
layers {
  bottom: "conv4_1"
  top: "conv4_1"
  name: "relu4_1"
  type: RELU
}
layers {
  bottom: "conv4_1"
  top: "conv4_2"
  name: "conv4_2"
  type: CONVOLUTION
  convolution_param {
    num_output: 512
    pad: 1
    kernel_size: 3
    weight_filler {
      type: "gaussian"
      std: 0.01
    }
    bias_filler {
      type: "constant"
      value: 0
    }
  }
}
layers {
  bottom: "conv4_2"
  top: "conv4_2"
  name: "relu4_2"
  type: RELU
}
layers {
  bottom: "conv4_2"
  top: "conv4_3"
  name: "conv4_3"
  type: CONVOLUTION
  convolution_param {
    num_output: 512
    pad: 1
    kernel_size: 3
    weight_filler {
      type: "gaussian"
      std: 0.01
    }
    bias_filler {
      type: "constant"
      value: 0
    }
  }
}
layers {
  bottom: "conv4_3"
  top: "conv4_3"
  name: "relu4_3"
  type: RELU
}
layers {
  bottom: "conv4_3"
  top: "pool4"
  name: "pool4"
  type: POOLING
  pooling_param {
    pool: MAX
    kernel_size: 2
    stride: 2
  }
}
layers {
  bottom: "pool4"
  top: "conv5_1"
  name: "conv5_1"
  type: CONVOLUTION
  convolution_param {
    num_output: 512
    pad: 1
    kernel_size: 3
    weight_filler {
      type: "gaussian"
      std: 0.01
    }
    bias_filler {
      type: "constant"
      value: 0
    }
  }
}
layers {
  bottom: "conv5_1"
  top: "conv5_1"
  name: "relu5_1"
  type: RELU
}
layers {
  bottom: "conv5_1"
  top: "conv5_2"
  name: "conv5_2"
  type: CONVOLUTION
  convolution_param {
    num_output: 512
    pad: 1
    kernel_size: 3
    weight_filler {
      type: "gaussian"
      std: 0.01
    }
    bias_filler {
      type: "constant"
      value: 0
    }
  }
}
layers {
  bottom: "conv5_2"
  top: "conv5_2"
  name: "relu5_2"
  type: RELU
}
layers {
  bottom: "conv5_2"
  top: "conv5_3"
  name: "conv5_3"
  type: CONVOLUTION
  convolution_param {
    num_output: 512
    pad: 1
    kernel_size: 3
    weight_filler {
      type: "gaussian"
      std: 0.01
    }
    bias_filler {
      type: "constant"
      value: 0
    }
  }
}
layers {
  bottom: "conv5_3"
  top: "conv5_3"
  name: "relu5_3"
  type: RELU
}
layers {
  bottom: "conv5_3"
  top: "pool5"
  name: "pool5"
  type: POOLING
  pooling_param {
    pool: MAX
    kernel_size: 2
    stride: 2
  }
}
layers {
  bottom: "pool5"
  top: "fc6"
  name: "fc6"
  type: INNER_PRODUCT
  inner_product_param {
    num_output: 4096
    weight_filler {
      type: "gaussian"
      std: 0.01
    }
    bias_filler {
      type: "constant"
      value: 0
    }
  }
}
layers {
  bottom: "fc6"
  top: "fc6"
  name: "relu6"
  type: RELU
}
layers {
  bottom: "fc6"
  top: "fc6"
  name: "drop6"
  type: DROPOUT
  dropout_param {
    dropout_ratio: 0.5
  }
}
layers {
  bottom: "fc6"
  top: "fc7"
  name: "fc7"
  type: INNER_PRODUCT
  inner_product_param {
    num_output: 4096
    weight_filler {
      type: "gaussian"
      std: 0.01
    }
    bias_filler {
      type: "constant"
      value: 0
    }
  }
}
layers {
  bottom: "fc7"
  top: "fc7"
  name: "relu7"
  type: RELU
}
layers {
  bottom: "fc7"
  top: "fc7"
  name: "drop7"
  type: DROPOUT
  dropout_param {
    dropout_ratio: 0.5
  }
}
layers {
  bottom: "fc7"
  top: "fc8_2"
  name: "fc8_2"
  type: INNER_PRODUCT
  inner_product_param {
    num_output: 2
    weight_filler {
      type: "gaussian"
      std: 0.01
    }
    bias_filler {
      type: "constant"
      value: 0
    }
  }
}
layers {
  bottom: "fc8_2"
  bottom: "label"
  name: "loss"
  type: SOFTMAX_LOSS
}
layers {
  bottom: "fc8_2"
  bottom: "label"
  top: "accuracy"
  name: "accuracy"
  type: PER_CLASS_ACCURACY
  include {
    phase: TEST
  }
}
state {
  phase: TEST
}
I1109 19:42:30.198225 16604 layer_factory.hpp:78] Creating layer data
I1109 19:42:30.198235 16604 net.cpp:67] Creating Layer data
I1109 19:42:30.198240 16604 net.cpp:356] data -> data
I1109 19:42:30.198247 16604 net.cpp:356] data -> label
I1109 19:42:30.198253 16604 net.cpp:96] Setting up data
I1109 19:42:30.198256 16604 image_data_layer.cpp:34] Opening file /data/ad6813/devCaffe/caffe/data/inadcl_o/val.txt
I1109 19:42:30.207881 16604 image_data_layer.cpp:49] A total of 315 images.
I1109 19:42:30.230178 16604 image_data_layer.cpp:78] output data size: 8,3,224,224
I1109 19:42:30.231096 16604 net.cpp:103] Top shape: 8 3 224 224 (1204224)
I1109 19:42:30.231106 16604 net.cpp:103] Top shape: 8 1 1 1 (8)
I1109 19:42:30.231109 16604 layer_factory.hpp:78] Creating layer label_data_1_split
I1109 19:42:30.231120 16604 net.cpp:67] Creating Layer label_data_1_split
I1109 19:42:30.231124 16604 net.cpp:394] label_data_1_split <- label
I1109 19:42:30.231142 16604 net.cpp:356] label_data_1_split -> label_data_1_split_0
I1109 19:42:30.231150 16604 net.cpp:356] label_data_1_split -> label_data_1_split_1
I1109 19:42:30.231156 16604 net.cpp:96] Setting up label_data_1_split
I1109 19:42:30.231161 16604 net.cpp:103] Top shape: 8 1 1 1 (8)
I1109 19:42:30.231164 16604 net.cpp:103] Top shape: 8 1 1 1 (8)
I1109 19:42:30.231168 16604 layer_factory.hpp:78] Creating layer conv1_1
I1109 19:42:30.231173 16604 net.cpp:67] Creating Layer conv1_1
I1109 19:42:30.231176 16604 net.cpp:394] conv1_1 <- data
I1109 19:42:30.231181 16604 net.cpp:356] conv1_1 -> conv1_1
I1109 19:42:30.231187 16604 net.cpp:96] Setting up conv1_1
I1109 19:42:30.231338 16604 net.cpp:103] Top shape: 8 64 224 224 (25690112)
I1109 19:42:30.231351 16604 layer_factory.hpp:78] Creating layer relu1_1
I1109 19:42:30.231359 16604 net.cpp:67] Creating Layer relu1_1
I1109 19:42:30.231362 16604 net.cpp:394] relu1_1 <- conv1_1
I1109 19:42:30.231367 16604 net.cpp:345] relu1_1 -> conv1_1 (in-place)
I1109 19:42:30.231379 16604 net.cpp:96] Setting up relu1_1
I1109 19:42:30.231385 16604 net.cpp:103] Top shape: 8 64 224 224 (25690112)
I1109 19:42:30.231389 16604 layer_factory.hpp:78] Creating layer conv1_2
I1109 19:42:30.231394 16604 net.cpp:67] Creating Layer conv1_2
I1109 19:42:30.231396 16604 net.cpp:394] conv1_2 <- conv1_1
I1109 19:42:30.231401 16604 net.cpp:356] conv1_2 -> conv1_2
I1109 19:42:30.231406 16604 net.cpp:96] Setting up conv1_2
I1109 19:42:30.232378 16604 net.cpp:103] Top shape: 8 64 224 224 (25690112)
I1109 19:42:30.232390 16604 layer_factory.hpp:78] Creating layer relu1_2
I1109 19:42:30.232395 16604 net.cpp:67] Creating Layer relu1_2
I1109 19:42:30.232398 16604 net.cpp:394] relu1_2 <- conv1_2
I1109 19:42:30.232403 16604 net.cpp:345] relu1_2 -> conv1_2 (in-place)
I1109 19:42:30.232408 16604 net.cpp:96] Setting up relu1_2
I1109 19:42:30.232413 16604 net.cpp:103] Top shape: 8 64 224 224 (25690112)
I1109 19:42:30.232415 16604 layer_factory.hpp:78] Creating layer pool1
I1109 19:42:30.232421 16604 net.cpp:67] Creating Layer pool1
I1109 19:42:30.232424 16604 net.cpp:394] pool1 <- conv1_2
I1109 19:42:30.232429 16604 net.cpp:356] pool1 -> pool1
I1109 19:42:30.232432 16604 net.cpp:96] Setting up pool1
I1109 19:42:30.232439 16604 net.cpp:103] Top shape: 8 64 112 112 (6422528)
I1109 19:42:30.232444 16604 layer_factory.hpp:78] Creating layer conv2_1
I1109 19:42:30.232447 16604 net.cpp:67] Creating Layer conv2_1
I1109 19:42:30.232450 16604 net.cpp:394] conv2_1 <- pool1
I1109 19:42:30.232455 16604 net.cpp:356] conv2_1 -> conv2_1
I1109 19:42:30.232460 16604 net.cpp:96] Setting up conv2_1
I1109 19:42:30.234436 16604 net.cpp:103] Top shape: 8 128 112 112 (12845056)
I1109 19:42:30.234449 16604 layer_factory.hpp:78] Creating layer relu2_1
I1109 19:42:30.234455 16604 net.cpp:67] Creating Layer relu2_1
I1109 19:42:30.234458 16604 net.cpp:394] relu2_1 <- conv2_1
I1109 19:42:30.234462 16604 net.cpp:345] relu2_1 -> conv2_1 (in-place)
I1109 19:42:30.234467 16604 net.cpp:96] Setting up relu2_1
I1109 19:42:30.234472 16604 net.cpp:103] Top shape: 8 128 112 112 (12845056)
I1109 19:42:30.234475 16604 layer_factory.hpp:78] Creating layer conv2_2
I1109 19:42:30.234480 16604 net.cpp:67] Creating Layer conv2_2
I1109 19:42:30.234483 16604 net.cpp:394] conv2_2 <- conv2_1
I1109 19:42:30.234488 16604 net.cpp:356] conv2_2 -> conv2_2
I1109 19:42:30.234493 16604 net.cpp:96] Setting up conv2_2
I1109 19:42:30.238131 16604 net.cpp:103] Top shape: 8 128 112 112 (12845056)
I1109 19:42:30.238142 16604 layer_factory.hpp:78] Creating layer relu2_2
I1109 19:42:30.238147 16604 net.cpp:67] Creating Layer relu2_2
I1109 19:42:30.238150 16604 net.cpp:394] relu2_2 <- conv2_2
I1109 19:42:30.238154 16604 net.cpp:345] relu2_2 -> conv2_2 (in-place)
I1109 19:42:30.238159 16604 net.cpp:96] Setting up relu2_2
I1109 19:42:30.238164 16604 net.cpp:103] Top shape: 8 128 112 112 (12845056)
I1109 19:42:30.238168 16604 layer_factory.hpp:78] Creating layer pool2
I1109 19:42:30.238173 16604 net.cpp:67] Creating Layer pool2
I1109 19:42:30.238175 16604 net.cpp:394] pool2 <- conv2_2
I1109 19:42:30.238179 16604 net.cpp:356] pool2 -> pool2
I1109 19:42:30.238183 16604 net.cpp:96] Setting up pool2
I1109 19:42:30.238189 16604 net.cpp:103] Top shape: 8 128 56 56 (3211264)
I1109 19:42:30.238193 16604 layer_factory.hpp:78] Creating layer conv3_1
I1109 19:42:30.238198 16604 net.cpp:67] Creating Layer conv3_1
I1109 19:42:30.238200 16604 net.cpp:394] conv3_1 <- pool2
I1109 19:42:30.238204 16604 net.cpp:356] conv3_1 -> conv3_1
I1109 19:42:30.238209 16604 net.cpp:96] Setting up conv3_1
I1109 19:42:30.245190 16604 net.cpp:103] Top shape: 8 256 56 56 (6422528)
I1109 19:42:30.245203 16604 layer_factory.hpp:78] Creating layer relu3_1
I1109 19:42:30.245220 16604 net.cpp:67] Creating Layer relu3_1
I1109 19:42:30.245223 16604 net.cpp:394] relu3_1 <- conv3_1
I1109 19:42:30.245228 16604 net.cpp:345] relu3_1 -> conv3_1 (in-place)
I1109 19:42:30.245232 16604 net.cpp:96] Setting up relu3_1
I1109 19:42:30.245237 16604 net.cpp:103] Top shape: 8 256 56 56 (6422528)
I1109 19:42:30.245240 16604 layer_factory.hpp:78] Creating layer conv3_2
I1109 19:42:30.245254 16604 net.cpp:67] Creating Layer conv3_2
I1109 19:42:30.245256 16604 net.cpp:394] conv3_2 <- conv3_1
I1109 19:42:30.245260 16604 net.cpp:356] conv3_2 -> conv3_2
I1109 19:42:30.245266 16604 net.cpp:96] Setting up conv3_2
I1109 19:42:30.259682 16604 net.cpp:103] Top shape: 8 256 56 56 (6422528)
I1109 19:42:30.259698 16604 layer_factory.hpp:78] Creating layer relu3_2
I1109 19:42:30.259706 16604 net.cpp:67] Creating Layer relu3_2
I1109 19:42:30.259709 16604 net.cpp:394] relu3_2 <- conv3_2
I1109 19:42:30.259714 16604 net.cpp:345] relu3_2 -> conv3_2 (in-place)
I1109 19:42:30.259719 16604 net.cpp:96] Setting up relu3_2
I1109 19:42:30.259726 16604 net.cpp:103] Top shape: 8 256 56 56 (6422528)
I1109 19:42:30.259728 16604 layer_factory.hpp:78] Creating layer conv3_3
I1109 19:42:30.259737 16604 net.cpp:67] Creating Layer conv3_3
I1109 19:42:30.259739 16604 net.cpp:394] conv3_3 <- conv3_2
I1109 19:42:30.259744 16604 net.cpp:356] conv3_3 -> conv3_3
I1109 19:42:30.259749 16604 net.cpp:96] Setting up conv3_3
I1109 19:42:30.274245 16604 net.cpp:103] Top shape: 8 256 56 56 (6422528)
I1109 19:42:30.274274 16604 layer_factory.hpp:78] Creating layer relu3_3
I1109 19:42:30.274282 16604 net.cpp:67] Creating Layer relu3_3
I1109 19:42:30.274286 16604 net.cpp:394] relu3_3 <- conv3_3
I1109 19:42:30.274292 16604 net.cpp:345] relu3_3 -> conv3_3 (in-place)
I1109 19:42:30.274297 16604 net.cpp:96] Setting up relu3_3
I1109 19:42:30.274303 16604 net.cpp:103] Top shape: 8 256 56 56 (6422528)
I1109 19:42:30.274307 16604 layer_factory.hpp:78] Creating layer pool3
I1109 19:42:30.274312 16604 net.cpp:67] Creating Layer pool3
I1109 19:42:30.274314 16604 net.cpp:394] pool3 <- conv3_3
I1109 19:42:30.274320 16604 net.cpp:356] pool3 -> pool3
I1109 19:42:30.274325 16604 net.cpp:96] Setting up pool3
I1109 19:42:30.274333 16604 net.cpp:103] Top shape: 8 256 28 28 (1605632)
I1109 19:42:30.274337 16604 layer_factory.hpp:78] Creating layer conv4_1
I1109 19:42:30.274343 16604 net.cpp:67] Creating Layer conv4_1
I1109 19:42:30.274345 16604 net.cpp:394] conv4_1 <- pool3
I1109 19:42:30.274350 16604 net.cpp:356] conv4_1 -> conv4_1
I1109 19:42:30.274355 16604 net.cpp:96] Setting up conv4_1
I1109 19:42:30.303082 16604 net.cpp:103] Top shape: 8 512 28 28 (3211264)
I1109 19:42:30.303117 16604 layer_factory.hpp:78] Creating layer relu4_1
I1109 19:42:30.303125 16604 net.cpp:67] Creating Layer relu4_1
I1109 19:42:30.303129 16604 net.cpp:394] relu4_1 <- conv4_1
I1109 19:42:30.303136 16604 net.cpp:345] relu4_1 -> conv4_1 (in-place)
I1109 19:42:30.303143 16604 net.cpp:96] Setting up relu4_1
I1109 19:42:30.303148 16604 net.cpp:103] Top shape: 8 512 28 28 (3211264)
I1109 19:42:30.303153 16604 layer_factory.hpp:78] Creating layer conv4_2
I1109 19:42:30.303160 16604 net.cpp:67] Creating Layer conv4_2
I1109 19:42:30.303164 16604 net.cpp:394] conv4_2 <- conv4_1
I1109 19:42:30.303169 16604 net.cpp:356] conv4_2 -> conv4_2
I1109 19:42:30.303174 16604 net.cpp:96] Setting up conv4_2
I1109 19:42:30.358955 16604 net.cpp:103] Top shape: 8 512 28 28 (3211264)
I1109 19:42:30.358994 16604 layer_factory.hpp:78] Creating layer relu4_2
I1109 19:42:30.359002 16604 net.cpp:67] Creating Layer relu4_2
I1109 19:42:30.359007 16604 net.cpp:394] relu4_2 <- conv4_2
I1109 19:42:30.359016 16604 net.cpp:345] relu4_2 -> conv4_2 (in-place)
I1109 19:42:30.359024 16604 net.cpp:96] Setting up relu4_2
I1109 19:42:30.359030 16604 net.cpp:103] Top shape: 8 512 28 28 (3211264)
I1109 19:42:30.359032 16604 layer_factory.hpp:78] Creating layer conv4_3
I1109 19:42:30.359038 16604 net.cpp:67] Creating Layer conv4_3
I1109 19:42:30.359041 16604 net.cpp:394] conv4_3 <- conv4_2
I1109 19:42:30.359047 16604 net.cpp:356] conv4_3 -> conv4_3
I1109 19:42:30.359055 16604 net.cpp:96] Setting up conv4_3
I1109 19:42:30.415292 16604 net.cpp:103] Top shape: 8 512 28 28 (3211264)
I1109 19:42:30.415328 16604 layer_factory.hpp:78] Creating layer relu4_3
I1109 19:42:30.415338 16604 net.cpp:67] Creating Layer relu4_3
I1109 19:42:30.415341 16604 net.cpp:394] relu4_3 <- conv4_3
I1109 19:42:30.415352 16604 net.cpp:345] relu4_3 -> conv4_3 (in-place)
I1109 19:42:30.415367 16604 net.cpp:96] Setting up relu4_3
I1109 19:42:30.415374 16604 net.cpp:103] Top shape: 8 512 28 28 (3211264)
I1109 19:42:30.415377 16604 layer_factory.hpp:78] Creating layer pool4
I1109 19:42:30.415384 16604 net.cpp:67] Creating Layer pool4
I1109 19:42:30.415386 16604 net.cpp:394] pool4 <- conv4_3
I1109 19:42:30.415393 16604 net.cpp:356] pool4 -> pool4
I1109 19:42:30.415400 16604 net.cpp:96] Setting up pool4
I1109 19:42:30.415407 16604 net.cpp:103] Top shape: 8 512 14 14 (802816)
I1109 19:42:30.415410 16604 layer_factory.hpp:78] Creating layer conv5_1
I1109 19:42:30.415416 16604 net.cpp:67] Creating Layer conv5_1
I1109 19:42:30.415418 16604 net.cpp:394] conv5_1 <- pool4
I1109 19:42:30.415424 16604 net.cpp:356] conv5_1 -> conv5_1
I1109 19:42:30.415431 16604 net.cpp:96] Setting up conv5_1
I1109 19:42:30.470219 16604 net.cpp:103] Top shape: 8 512 14 14 (802816)
I1109 19:42:30.470257 16604 layer_factory.hpp:78] Creating layer relu5_1
I1109 19:42:30.470271 16604 net.cpp:67] Creating Layer relu5_1
I1109 19:42:30.470276 16604 net.cpp:394] relu5_1 <- conv5_1
I1109 19:42:30.470283 16604 net.cpp:345] relu5_1 -> conv5_1 (in-place)
I1109 19:42:30.470289 16604 net.cpp:96] Setting up relu5_1
I1109 19:42:30.470295 16604 net.cpp:103] Top shape: 8 512 14 14 (802816)
I1109 19:42:30.470299 16604 layer_factory.hpp:78] Creating layer conv5_2
I1109 19:42:30.470305 16604 net.cpp:67] Creating Layer conv5_2
I1109 19:42:30.470309 16604 net.cpp:394] conv5_2 <- conv5_1
I1109 19:42:30.470314 16604 net.cpp:356] conv5_2 -> conv5_2
I1109 19:42:30.470319 16604 net.cpp:96] Setting up conv5_2
I1109 19:42:30.525262 16604 net.cpp:103] Top shape: 8 512 14 14 (802816)
I1109 19:42:30.525297 16604 layer_factory.hpp:78] Creating layer relu5_2
I1109 19:42:30.525305 16604 net.cpp:67] Creating Layer relu5_2
I1109 19:42:30.525310 16604 net.cpp:394] relu5_2 <- conv5_2
I1109 19:42:30.525315 16604 net.cpp:345] relu5_2 -> conv5_2 (in-place)
I1109 19:42:30.525321 16604 net.cpp:96] Setting up relu5_2
I1109 19:42:30.525326 16604 net.cpp:103] Top shape: 8 512 14 14 (802816)
I1109 19:42:30.525331 16604 layer_factory.hpp:78] Creating layer conv5_3
I1109 19:42:30.525336 16604 net.cpp:67] Creating Layer conv5_3
I1109 19:42:30.525338 16604 net.cpp:394] conv5_3 <- conv5_2
I1109 19:42:30.525344 16604 net.cpp:356] conv5_3 -> conv5_3
I1109 19:42:30.525351 16604 net.cpp:96] Setting up conv5_3
I1109 19:42:30.580642 16604 net.cpp:103] Top shape: 8 512 14 14 (802816)
I1109 19:42:30.580680 16604 layer_factory.hpp:78] Creating layer relu5_3
I1109 19:42:30.580690 16604 net.cpp:67] Creating Layer relu5_3
I1109 19:42:30.580695 16604 net.cpp:394] relu5_3 <- conv5_3
I1109 19:42:30.580701 16604 net.cpp:345] relu5_3 -> conv5_3 (in-place)
I1109 19:42:30.580708 16604 net.cpp:96] Setting up relu5_3
I1109 19:42:30.580714 16604 net.cpp:103] Top shape: 8 512 14 14 (802816)
I1109 19:42:30.580718 16604 layer_factory.hpp:78] Creating layer pool5
I1109 19:42:30.580728 16604 net.cpp:67] Creating Layer pool5
I1109 19:42:30.580731 16604 net.cpp:394] pool5 <- conv5_3
I1109 19:42:30.580736 16604 net.cpp:356] pool5 -> pool5
I1109 19:42:30.580741 16604 net.cpp:96] Setting up pool5
I1109 19:42:30.580749 16604 net.cpp:103] Top shape: 8 512 7 7 (200704)
I1109 19:42:30.580752 16604 layer_factory.hpp:78] Creating layer fc6
I1109 19:42:30.580757 16604 net.cpp:67] Creating Layer fc6
I1109 19:42:30.580767 16604 net.cpp:394] fc6 <- pool5
I1109 19:42:30.580772 16604 net.cpp:356] fc6 -> fc6
I1109 19:42:30.580778 16604 net.cpp:96] Setting up fc6
I1109 19:42:32.956671 16604 net.cpp:103] Top shape: 8 4096 1 1 (32768)
I1109 19:42:32.956713 16604 layer_factory.hpp:78] Creating layer relu6
I1109 19:42:32.956722 16604 net.cpp:67] Creating Layer relu6
I1109 19:42:32.956727 16604 net.cpp:394] relu6 <- fc6
I1109 19:42:32.956737 16604 net.cpp:345] relu6 -> fc6 (in-place)
I1109 19:42:32.956743 16604 net.cpp:96] Setting up relu6
I1109 19:42:32.956759 16604 net.cpp:103] Top shape: 8 4096 1 1 (32768)
I1109 19:42:32.956763 16604 layer_factory.hpp:78] Creating layer drop6
I1109 19:42:32.956778 16604 net.cpp:67] Creating Layer drop6
I1109 19:42:32.956780 16604 net.cpp:394] drop6 <- fc6
I1109 19:42:32.956785 16604 net.cpp:345] drop6 -> fc6 (in-place)
I1109 19:42:32.956790 16604 net.cpp:96] Setting up drop6
I1109 19:42:32.956794 16604 net.cpp:103] Top shape: 8 4096 1 1 (32768)
I1109 19:42:32.956797 16604 layer_factory.hpp:78] Creating layer fc7
I1109 19:42:32.956802 16604 net.cpp:67] Creating Layer fc7
I1109 19:42:32.956805 16604 net.cpp:394] fc7 <- fc6
I1109 19:42:32.956810 16604 net.cpp:356] fc7 -> fc7
I1109 19:42:32.956817 16604 net.cpp:96] Setting up fc7
I1109 19:42:33.344856 16604 net.cpp:103] Top shape: 8 4096 1 1 (32768)
I1109 19:42:33.344897 16604 layer_factory.hpp:78] Creating layer relu7
I1109 19:42:33.344907 16604 net.cpp:67] Creating Layer relu7
I1109 19:42:33.344912 16604 net.cpp:394] relu7 <- fc7
I1109 19:42:33.344918 16604 net.cpp:345] relu7 -> fc7 (in-place)
I1109 19:42:33.344924 16604 net.cpp:96] Setting up relu7
I1109 19:42:33.344939 16604 net.cpp:103] Top shape: 8 4096 1 1 (32768)
I1109 19:42:33.344943 16604 layer_factory.hpp:78] Creating layer drop7
I1109 19:42:33.344949 16604 net.cpp:67] Creating Layer drop7
I1109 19:42:33.344952 16604 net.cpp:394] drop7 <- fc7
I1109 19:42:33.344956 16604 net.cpp:345] drop7 -> fc7 (in-place)
I1109 19:42:33.344961 16604 net.cpp:96] Setting up drop7
I1109 19:42:33.344964 16604 net.cpp:103] Top shape: 8 4096 1 1 (32768)
I1109 19:42:33.344967 16604 layer_factory.hpp:78] Creating layer fc8_2
I1109 19:42:33.344974 16604 net.cpp:67] Creating Layer fc8_2
I1109 19:42:33.344976 16604 net.cpp:394] fc8_2 <- fc7
I1109 19:42:33.344981 16604 net.cpp:356] fc8_2 -> fc8_2
I1109 19:42:33.344988 16604 net.cpp:96] Setting up fc8_2
I1109 19:42:33.345198 16604 net.cpp:103] Top shape: 8 2 1 1 (16)
I1109 19:42:33.345206 16604 layer_factory.hpp:78] Creating layer fc8_2_fc8_2_0_split
I1109 19:42:33.345211 16604 net.cpp:67] Creating Layer fc8_2_fc8_2_0_split
I1109 19:42:33.345214 16604 net.cpp:394] fc8_2_fc8_2_0_split <- fc8_2
I1109 19:42:33.345219 16604 net.cpp:356] fc8_2_fc8_2_0_split -> fc8_2_fc8_2_0_split_0
I1109 19:42:33.345226 16604 net.cpp:356] fc8_2_fc8_2_0_split -> fc8_2_fc8_2_0_split_1
I1109 19:42:33.345234 16604 net.cpp:96] Setting up fc8_2_fc8_2_0_split
I1109 19:42:33.345238 16604 net.cpp:103] Top shape: 8 2 1 1 (16)
I1109 19:42:33.345242 16604 net.cpp:103] Top shape: 8 2 1 1 (16)
I1109 19:42:33.345244 16604 layer_factory.hpp:78] Creating layer loss
I1109 19:42:33.345250 16604 net.cpp:67] Creating Layer loss
I1109 19:42:33.345253 16604 net.cpp:394] loss <- fc8_2_fc8_2_0_split_0
I1109 19:42:33.345257 16604 net.cpp:394] loss <- label_data_1_split_0
I1109 19:42:33.345263 16604 net.cpp:356] loss -> (automatic)
I1109 19:42:33.345266 16604 net.cpp:96] Setting up loss
I1109 19:42:33.345273 16604 net.cpp:103] Top shape: 1 1 1 1 (1)
I1109 19:42:33.345275 16604 net.cpp:109]     with loss weight 1
I1109 19:42:33.345289 16604 layer_factory.hpp:78] Creating layer accuracy
I1109 19:42:33.345299 16604 net.cpp:67] Creating Layer accuracy
I1109 19:42:33.345304 16604 net.cpp:394] accuracy <- fc8_2_fc8_2_0_split_1
I1109 19:42:33.345309 16604 net.cpp:394] accuracy <- label_data_1_split_1
I1109 19:42:33.345314 16604 net.cpp:356] accuracy -> accuracy
I1109 19:42:33.345319 16604 net.cpp:96] Setting up accuracy
I1109 19:42:33.345325 16604 net.cpp:103] Top shape: 1 1 1 4 (4)
I1109 19:42:33.345329 16604 net.cpp:172] accuracy does not need backward computation.
I1109 19:42:33.345330 16604 net.cpp:170] loss needs backward computation.
I1109 19:42:33.345335 16604 net.cpp:170] fc8_2_fc8_2_0_split needs backward computation.
I1109 19:42:33.345336 16604 net.cpp:170] fc8_2 needs backward computation.
I1109 19:42:33.345340 16604 net.cpp:170] drop7 needs backward computation.
…
