…
I1109 06:25:36.084451  5368 net.cpp:275] The NetState phase (0) differed from the phase (1) specified by a rule in layer accuracy
I1109 06:25:36.084810  5368 net.cpp:39] Initializing net from parameters: 
name: "small"
layers {
  top: "data"
  top: "label"
  name: "data"
  type: IMAGE_DATA
  image_data_param {
    source: "/data/ad6813/devCaffe/caffe/data/scrape_o/train.txt"
    batch_size: 9
    new_height: 256
    new_width: 256
  }
  include {
    phase: TRAIN
  }
  transform_param {
    mirror: true
    crop_size: 224
    mean_value: 86.752
    mean_value: 101.46
    mean_value: 104.6
  }
}
layers {
  bottom: "data"
  top: "conv1_1"
  name: "conv1_1"
  type: CONVOLUTION
  convolution_param {
    num_output: 64
    pad: 1
    kernel_size: 3
    weight_filler {
      type: "gaussian"
      std: 0.01
    }
    bias_filler {
      type: "constant"
      value: 0
    }
  }
}
layers {
  bottom: "conv1_1"
  top: "conv1_1"
  name: "relu1_1"
  type: RELU
}
layers {
  bottom: "conv1_1"
  top: "conv1_2"
  name: "conv1_2"
  type: CONVOLUTION
  convolution_param {
    num_output: 64
    pad: 1
    kernel_size: 3
    weight_filler {
      type: "gaussian"
      std: 0.01
    }
    bias_filler {
      type: "constant"
      value: 0
    }
  }
}
layers {
  bottom: "conv1_2"
  top: "conv1_2"
  name: "relu1_2"
  type: RELU
}
layers {
  bottom: "conv1_2"
  top: "pool1"
  name: "pool1"
  type: POOLING
  pooling_param {
    pool: MAX
    kernel_size: 2
    stride: 2
  }
}
layers {
  bottom: "pool1"
  top: "conv2_1"
  name: "conv2_1"
  type: CONVOLUTION
  convolution_param {
    num_output: 128
    pad: 1
    kernel_size: 3
    weight_filler {
      type: "gaussian"
      std: 0.01
    }
    bias_filler {
      type: "constant"
      value: 0
    }
  }
}
layers {
  bottom: "conv2_1"
  top: "conv2_1"
  name: "relu2_1"
  type: RELU
}
layers {
  bottom: "conv2_1"
  top: "conv2_2"
  name: "conv2_2"
  type: CONVOLUTION
  convolution_param {
    num_output: 128
    pad: 1
    kernel_size: 3
    weight_filler {
      type: "gaussian"
      std: 0.01
    }
    bias_filler {
      type: "constant"
      value: 0
    }
  }
}
layers {
  bottom: "conv2_2"
  top: "conv2_2"
  name: "relu2_2"
  type: RELU
}
layers {
  bottom: "conv2_2"
  top: "pool2"
  name: "pool2"
  type: POOLING
  pooling_param {
    pool: MAX
    kernel_size: 2
    stride: 2
  }
}
layers {
  bottom: "pool2"
  top: "conv3_1"
  name: "conv3_1"
  type: CONVOLUTION
  convolution_param {
    num_output: 256
    pad: 1
    kernel_size: 3
    weight_filler {
      type: "gaussian"
      std: 0.01
    }
    bias_filler {
      type: "constant"
      value: 0
    }
  }
}
layers {
  bottom: "conv3_1"
  top: "conv3_1"
  name: "relu3_1"
  type: RELU
}
layers {
  bottom: "conv3_1"
  top: "conv3_2"
  name: "conv3_2"
  type: CONVOLUTION
  convolution_param {
    num_output: 256
    pad: 1
    kernel_size: 3
    weight_filler {
      type: "gaussian"
      std: 0.01
    }
    bias_filler {
      type: "constant"
      value: 0
    }
  }
}
layers {
  bottom: "conv3_2"
  top: "conv3_2"
  name: "relu3_2"
  type: RELU
}
layers {
  bottom: "conv3_2"
  top: "conv3_3"
  name: "conv3_3"
  type: CONVOLUTION
  convolution_param {
    num_output: 256
    pad: 1
    kernel_size: 3
    weight_filler {
      type: "gaussian"
      std: 0.01
    }
    bias_filler {
      type: "constant"
      value: 0
    }
  }
}
layers {
  bottom: "conv3_3"
  top: "conv3_3"
  name: "relu3_3"
  type: RELU
}
layers {
  bottom: "conv3_3"
  top: "pool3"
  name: "pool3"
  type: POOLING
  pooling_param {
    pool: MAX
    kernel_size: 2
    stride: 2
  }
}
layers {
  bottom: "pool3"
  top: "conv4_1"
  name: "conv4_1"
  type: CONVOLUTION
  convolution_param {
    num_output: 512
    pad: 1
    kernel_size: 3
    weight_filler {
      type: "gaussian"
      std: 0.01
    }
    bias_filler {
      type: "constant"
      value: 0
    }
  }
}
layers {
  bottom: "conv4_1"
  top: "conv4_1"
  name: "relu4_1"
  type: RELU
}
layers {
  bottom: "conv4_1"
  top: "conv4_2"
  name: "conv4_2"
  type: CONVOLUTION
  convolution_param {
    num_output: 512
    pad: 1
    kernel_size: 3
    weight_filler {
      type: "gaussian"
      std: 0.01
    }
    bias_filler {
      type: "constant"
      value: 0
    }
  }
}
layers {
  bottom: "conv4_2"
  top: "conv4_2"
  name: "relu4_2"
  type: RELU
}
layers {
  bottom: "conv4_2"
  top: "conv4_3"
  name: "conv4_3"
  type: CONVOLUTION
  convolution_param {
    num_output: 512
    pad: 1
    kernel_size: 3
    weight_filler {
      type: "gaussian"
      std: 0.01
    }
    bias_filler {
      type: "constant"
      value: 0
    }
  }
}
layers {
  bottom: "conv4_3"
  top: "conv4_3"
  name: "relu4_3"
  type: RELU
}
layers {
  bottom: "conv4_3"
  top: "pool4"
  name: "pool4"
  type: POOLING
  pooling_param {
    pool: MAX
    kernel_size: 2
    stride: 2
  }
}
layers {
  bottom: "pool4"
  top: "conv5_1"
  name: "conv5_1"
  type: CONVOLUTION
  convolution_param {
    num_output: 512
    pad: 1
    kernel_size: 3
    weight_filler {
      type: "gaussian"
      std: 0.01
    }
    bias_filler {
      type: "constant"
      value: 0
    }
  }
}
layers {
  bottom: "conv5_1"
  top: "conv5_1"
  name: "relu5_1"
  type: RELU
}
layers {
  bottom: "conv5_1"
  top: "conv5_2"
  name: "conv5_2"
  type: CONVOLUTION
  convolution_param {
    num_output: 512
    pad: 1
    kernel_size: 3
    weight_filler {
      type: "gaussian"
      std: 0.01
    }
    bias_filler {
      type: "constant"
      value: 0
    }
  }
}
layers {
  bottom: "conv5_2"
  top: "conv5_2"
  name: "relu5_2"
  type: RELU
}
layers {
  bottom: "conv5_2"
  top: "conv5_3"
  name: "conv5_3"
  type: CONVOLUTION
  convolution_param {
    num_output: 512
    pad: 1
    kernel_size: 3
    weight_filler {
      type: "gaussian"
      std: 0.01
    }
    bias_filler {
      type: "constant"
      value: 0
    }
  }
}
layers {
  bottom: "conv5_3"
  top: "conv5_3"
  name: "relu5_3"
  type: RELU
}
layers {
  bottom: "conv5_3"
  top: "pool5"
  name: "pool5"
  type: POOLING
  pooling_param {
    pool: MAX
    kernel_size: 2
    stride: 2
  }
}
layers {
  bottom: "pool5"
  top: "fc6"
  name: "fc6"
  type: INNER_PRODUCT
  inner_product_param {
    num_output: 4096
    weight_filler {
      type: "gaussian"
      std: 0.01
    }
    bias_filler {
      type: "constant"
      value: 0
    }
  }
}
layers {
  bottom: "fc6"
  top: "fc6"
  name: "relu6"
  type: RELU
}
layers {
  bottom: "fc6"
  top: "fc6"
  name: "drop6"
  type: DROPOUT
  dropout_param {
    dropout_ratio: 0.5
  }
}
layers {
  bottom: "fc6"
  top: "fc7"
  name: "fc7"
  type: INNER_PRODUCT
  inner_product_param {
    num_output: 4096
    weight_filler {
      type: "gaussian"
      std: 0.01
    }
    bias_filler {
      type: "constant"
      value: 0
    }
  }
}
layers {
  bottom: "fc7"
  top: "fc7"
  name: "relu7"
  type: RELU
}
layers {
  bottom: "fc7"
  top: "fc7"
  name: "drop7"
  type: DROPOUT
  dropout_param {
    dropout_ratio: 0.5
  }
}
layers {
  bottom: "fc7"
  top: "fc8_2"
  name: "fc8_2"
  type: INNER_PRODUCT
  inner_product_param {
    num_output: 2
    weight_filler {
      type: "gaussian"
      std: 0.01
    }
    bias_filler {
      type: "constant"
      value: 0
    }
  }
}
layers {
  bottom: "fc8_2"
  bottom: "label"
  name: "loss"
  type: SOFTMAX_LOSS
}
state {
  phase: TRAIN
}
I1109 06:25:36.085012  5368 layer_factory.hpp:78] Creating layer data
I1109 06:25:36.085041  5368 net.cpp:67] Creating Layer data
I1109 06:25:36.085053  5368 net.cpp:356] data -> data
I1109 06:25:36.085088  5368 net.cpp:356] data -> label
I1109 06:25:36.085103  5368 net.cpp:96] Setting up data
I1109 06:25:36.085114  5368 image_data_layer.cpp:34] Opening file /data/ad6813/devCaffe/caffe/data/scrape_o/train.txt
I1109 06:25:36.233566  5368 image_data_layer.cpp:49] A total of 230287 images.
I1109 06:25:36.252676  5368 image_data_layer.cpp:78] output data size: 9,3,224,224
I1109 06:25:36.255180  5368 net.cpp:103] Top shape: 9 3 224 224 (1354752)
I1109 06:25:36.255206  5368 net.cpp:103] Top shape: 9 1 1 1 (9)
I1109 06:25:36.255215  5368 layer_factory.hpp:78] Creating layer conv1_1
I1109 06:25:36.255234  5368 net.cpp:67] Creating Layer conv1_1
I1109 06:25:36.255242  5368 net.cpp:394] conv1_1 <- data
I1109 06:25:36.255265  5368 net.cpp:356] conv1_1 -> conv1_1
I1109 06:25:36.255282  5368 net.cpp:96] Setting up conv1_1
I1109 06:25:36.255496  5368 net.cpp:103] Top shape: 9 64 224 224 (28901376)
I1109 06:25:36.255529  5368 layer_factory.hpp:78] Creating layer relu1_1
I1109 06:25:36.255540  5368 net.cpp:67] Creating Layer relu1_1
I1109 06:25:36.255548  5368 net.cpp:394] relu1_1 <- conv1_1
I1109 06:25:36.255556  5368 net.cpp:345] relu1_1 -> conv1_1 (in-place)
I1109 06:25:36.255565  5368 net.cpp:96] Setting up relu1_1
I1109 06:25:36.255575  5368 net.cpp:103] Top shape: 9 64 224 224 (28901376)
I1109 06:25:36.255581  5368 layer_factory.hpp:78] Creating layer conv1_2
I1109 06:25:36.255590  5368 net.cpp:67] Creating Layer conv1_2
I1109 06:25:36.255596  5368 net.cpp:394] conv1_2 <- conv1_1
I1109 06:25:36.255605  5368 net.cpp:356] conv1_2 -> conv1_2
I1109 06:25:36.255616  5368 net.cpp:96] Setting up conv1_2
I1109 06:25:36.257482  5368 net.cpp:103] Top shape: 9 64 224 224 (28901376)
I1109 06:25:36.257505  5368 layer_factory.hpp:78] Creating layer relu1_2
I1109 06:25:36.257515  5368 net.cpp:67] Creating Layer relu1_2
I1109 06:25:36.257521  5368 net.cpp:394] relu1_2 <- conv1_2
I1109 06:25:36.257531  5368 net.cpp:345] relu1_2 -> conv1_2 (in-place)
I1109 06:25:36.257539  5368 net.cpp:96] Setting up relu1_2
I1109 06:25:36.257545  5368 net.cpp:103] Top shape: 9 64 224 224 (28901376)
I1109 06:25:36.257551  5368 layer_factory.hpp:78] Creating layer pool1
I1109 06:25:36.257563  5368 net.cpp:67] Creating Layer pool1
I1109 06:25:36.257570  5368 net.cpp:394] pool1 <- conv1_2
I1109 06:25:36.257578  5368 net.cpp:356] pool1 -> pool1
I1109 06:25:36.257588  5368 net.cpp:96] Setting up pool1
I1109 06:25:36.257606  5368 net.cpp:103] Top shape: 9 64 112 112 (7225344)
I1109 06:25:36.257613  5368 layer_factory.hpp:78] Creating layer conv2_1
I1109 06:25:36.257622  5368 net.cpp:67] Creating Layer conv2_1
I1109 06:25:36.257628  5368 net.cpp:394] conv2_1 <- pool1
I1109 06:25:36.257638  5368 net.cpp:356] conv2_1 -> conv2_1
I1109 06:25:36.257649  5368 net.cpp:96] Setting up conv2_1
I1109 06:25:36.261226  5368 net.cpp:103] Top shape: 9 128 112 112 (14450688)
I1109 06:25:36.261250  5368 layer_factory.hpp:78] Creating layer relu2_1
I1109 06:25:36.261260  5368 net.cpp:67] Creating Layer relu2_1
I1109 06:25:36.261266  5368 net.cpp:394] relu2_1 <- conv2_1
I1109 06:25:36.261275  5368 net.cpp:345] relu2_1 -> conv2_1 (in-place)
I1109 06:25:36.261284  5368 net.cpp:96] Setting up relu2_1
I1109 06:25:36.261291  5368 net.cpp:103] Top shape: 9 128 112 112 (14450688)
I1109 06:25:36.261296  5368 layer_factory.hpp:78] Creating layer conv2_2
I1109 06:25:36.261307  5368 net.cpp:67] Creating Layer conv2_2
I1109 06:25:36.261312  5368 net.cpp:394] conv2_2 <- conv2_1
I1109 06:25:36.261320  5368 net.cpp:356] conv2_2 -> conv2_2
I1109 06:25:36.261330  5368 net.cpp:96] Setting up conv2_2
I1109 06:25:36.268427  5368 net.cpp:103] Top shape: 9 128 112 112 (14450688)
I1109 06:25:36.268450  5368 layer_factory.hpp:78] Creating layer relu2_2
I1109 06:25:36.268460  5368 net.cpp:67] Creating Layer relu2_2
I1109 06:25:36.268465  5368 net.cpp:394] relu2_2 <- conv2_2
I1109 06:25:36.268474  5368 net.cpp:345] relu2_2 -> conv2_2 (in-place)
I1109 06:25:36.268484  5368 net.cpp:96] Setting up relu2_2
I1109 06:25:36.268491  5368 net.cpp:103] Top shape: 9 128 112 112 (14450688)
I1109 06:25:36.268496  5368 layer_factory.hpp:78] Creating layer pool2
I1109 06:25:36.268517  5368 net.cpp:67] Creating Layer pool2
I1109 06:25:36.268523  5368 net.cpp:394] pool2 <- conv2_2
I1109 06:25:36.268532  5368 net.cpp:356] pool2 -> pool2
I1109 06:25:36.268543  5368 net.cpp:96] Setting up pool2
I1109 06:25:36.268550  5368 net.cpp:103] Top shape: 9 128 56 56 (3612672)
I1109 06:25:36.268556  5368 layer_factory.hpp:78] Creating layer conv3_1
I1109 06:25:36.268565  5368 net.cpp:67] Creating Layer conv3_1
I1109 06:25:36.268571  5368 net.cpp:394] conv3_1 <- pool2
I1109 06:25:36.268579  5368 net.cpp:356] conv3_1 -> conv3_1
I1109 06:25:36.268591  5368 net.cpp:96] Setting up conv3_1
I1109 06:25:36.282690  5368 net.cpp:103] Top shape: 9 256 56 56 (7225344)
I1109 06:25:36.282723  5368 layer_factory.hpp:78] Creating layer relu3_1
I1109 06:25:36.282734  5368 net.cpp:67] Creating Layer relu3_1
I1109 06:25:36.282740  5368 net.cpp:394] relu3_1 <- conv3_1
I1109 06:25:36.282750  5368 net.cpp:345] relu3_1 -> conv3_1 (in-place)
I1109 06:25:36.282760  5368 net.cpp:96] Setting up relu3_1
I1109 06:25:36.282766  5368 net.cpp:103] Top shape: 9 256 56 56 (7225344)
I1109 06:25:36.282773  5368 layer_factory.hpp:78] Creating layer conv3_2
I1109 06:25:36.282781  5368 net.cpp:67] Creating Layer conv3_2
I1109 06:25:36.282786  5368 net.cpp:394] conv3_2 <- conv3_1
I1109 06:25:36.282795  5368 net.cpp:356] conv3_2 -> conv3_2
I1109 06:25:36.282805  5368 net.cpp:96] Setting up conv3_2
I1109 06:25:36.311550  5368 net.cpp:103] Top shape: 9 256 56 56 (7225344)
I1109 06:25:36.311585  5368 layer_factory.hpp:78] Creating layer relu3_2
I1109 06:25:36.311597  5368 net.cpp:67] Creating Layer relu3_2
I1109 06:25:36.311604  5368 net.cpp:394] relu3_2 <- conv3_2
I1109 06:25:36.311615  5368 net.cpp:345] relu3_2 -> conv3_2 (in-place)
I1109 06:25:36.311626  5368 net.cpp:96] Setting up relu3_2
I1109 06:25:36.311632  5368 net.cpp:103] Top shape: 9 256 56 56 (7225344)
I1109 06:25:36.311638  5368 layer_factory.hpp:78] Creating layer conv3_3
I1109 06:25:36.311648  5368 net.cpp:67] Creating Layer conv3_3
I1109 06:25:36.311655  5368 net.cpp:394] conv3_3 <- conv3_2
I1109 06:25:36.311662  5368 net.cpp:356] conv3_3 -> conv3_3
I1109 06:25:36.311673  5368 net.cpp:96] Setting up conv3_3
I1109 06:25:36.340037  5368 net.cpp:103] Top shape: 9 256 56 56 (7225344)
I1109 06:25:36.340065  5368 layer_factory.hpp:78] Creating layer relu3_3
I1109 06:25:36.340080  5368 net.cpp:67] Creating Layer relu3_3
I1109 06:25:36.340085  5368 net.cpp:394] relu3_3 <- conv3_3
I1109 06:25:36.340095  5368 net.cpp:345] relu3_3 -> conv3_3 (in-place)
I1109 06:25:36.340106  5368 net.cpp:96] Setting up relu3_3
I1109 06:25:36.340111  5368 net.cpp:103] Top shape: 9 256 56 56 (7225344)
I1109 06:25:36.340117  5368 layer_factory.hpp:78] Creating layer pool3
I1109 06:25:36.340131  5368 net.cpp:67] Creating Layer pool3
I1109 06:25:36.340137  5368 net.cpp:394] pool3 <- conv3_3
I1109 06:25:36.340145  5368 net.cpp:356] pool3 -> pool3
I1109 06:25:36.340155  5368 net.cpp:96] Setting up pool3
I1109 06:25:36.340163  5368 net.cpp:103] Top shape: 9 256 28 28 (1806336)
I1109 06:25:36.340169  5368 layer_factory.hpp:78] Creating layer conv4_1
I1109 06:25:36.340183  5368 net.cpp:67] Creating Layer conv4_1
I1109 06:25:36.340188  5368 net.cpp:394] conv4_1 <- pool3
I1109 06:25:36.340198  5368 net.cpp:356] conv4_1 -> conv4_1
I1109 06:25:36.340206  5368 net.cpp:96] Setting up conv4_1
I1109 06:25:36.396718  5368 net.cpp:103] Top shape: 9 512 28 28 (3612672)
I1109 06:25:36.396744  5368 layer_factory.hpp:78] Creating layer relu4_1
I1109 06:25:36.396754  5368 net.cpp:67] Creating Layer relu4_1
I1109 06:25:36.396761  5368 net.cpp:394] relu4_1 <- conv4_1
I1109 06:25:36.396772  5368 net.cpp:345] relu4_1 -> conv4_1 (in-place)
I1109 06:25:36.396781  5368 net.cpp:96] Setting up relu4_1
I1109 06:25:36.396788  5368 net.cpp:103] Top shape: 9 512 28 28 (3612672)
I1109 06:25:36.396795  5368 layer_factory.hpp:78] Creating layer conv4_2
I1109 06:25:36.396803  5368 net.cpp:67] Creating Layer conv4_2
I1109 06:25:36.396808  5368 net.cpp:394] conv4_2 <- conv4_1
I1109 06:25:36.396817  5368 net.cpp:356] conv4_2 -> conv4_2
I1109 06:25:36.396839  5368 net.cpp:96] Setting up conv4_2
I1109 06:25:36.510237  5368 net.cpp:103] Top shape: 9 512 28 28 (3612672)
I1109 06:25:36.510289  5368 layer_factory.hpp:78] Creating layer relu4_2
I1109 06:25:36.510303  5368 net.cpp:67] Creating Layer relu4_2
I1109 06:25:36.510309  5368 net.cpp:394] relu4_2 <- conv4_2
I1109 06:25:36.510320  5368 net.cpp:345] relu4_2 -> conv4_2 (in-place)
I1109 06:25:36.510331  5368 net.cpp:96] Setting up relu4_2
I1109 06:25:36.510337  5368 net.cpp:103] Top shape: 9 512 28 28 (3612672)
I1109 06:25:36.510344  5368 layer_factory.hpp:78] Creating layer conv4_3
I1109 06:25:36.510354  5368 net.cpp:67] Creating Layer conv4_3
I1109 06:25:36.510359  5368 net.cpp:394] conv4_3 <- conv4_2
I1109 06:25:36.510370  5368 net.cpp:356] conv4_3 -> conv4_3
I1109 06:25:36.510380  5368 net.cpp:96] Setting up conv4_3
I1109 06:25:36.623201  5368 net.cpp:103] Top shape: 9 512 28 28 (3612672)
I1109 06:25:36.623242  5368 layer_factory.hpp:78] Creating layer relu4_3
I1109 06:25:36.623255  5368 net.cpp:67] Creating Layer relu4_3
I1109 06:25:36.623262  5368 net.cpp:394] relu4_3 <- conv4_3
I1109 06:25:36.623276  5368 net.cpp:345] relu4_3 -> conv4_3 (in-place)
I1109 06:25:36.623287  5368 net.cpp:96] Setting up relu4_3
I1109 06:25:36.623294  5368 net.cpp:103] Top shape: 9 512 28 28 (3612672)
I1109 06:25:36.623301  5368 layer_factory.hpp:78] Creating layer pool4
I1109 06:25:36.623309  5368 net.cpp:67] Creating Layer pool4
I1109 06:25:36.623316  5368 net.cpp:394] pool4 <- conv4_3
I1109 06:25:36.623324  5368 net.cpp:356] pool4 -> pool4
I1109 06:25:36.623334  5368 net.cpp:96] Setting up pool4
I1109 06:25:36.623343  5368 net.cpp:103] Top shape: 9 512 14 14 (903168)
I1109 06:25:36.623349  5368 layer_factory.hpp:78] Creating layer conv5_1
I1109 06:25:36.623359  5368 net.cpp:67] Creating Layer conv5_1
I1109 06:25:36.623364  5368 net.cpp:394] conv5_1 <- pool4
I1109 06:25:36.623373  5368 net.cpp:356] conv5_1 -> conv5_1
I1109 06:25:36.623386  5368 net.cpp:96] Setting up conv5_1
I1109 06:25:36.736582  5368 net.cpp:103] Top shape: 9 512 14 14 (903168)
I1109 06:25:36.736627  5368 layer_factory.hpp:78] Creating layer relu5_1
I1109 06:25:36.736639  5368 net.cpp:67] Creating Layer relu5_1
I1109 06:25:36.736647  5368 net.cpp:394] relu5_1 <- conv5_1
I1109 06:25:36.736661  5368 net.cpp:345] relu5_1 -> conv5_1 (in-place)
I1109 06:25:36.736672  5368 net.cpp:96] Setting up relu5_1
I1109 06:25:36.736680  5368 net.cpp:103] Top shape: 9 512 14 14 (903168)
I1109 06:25:36.736685  5368 layer_factory.hpp:78] Creating layer conv5_2
I1109 06:25:36.736695  5368 net.cpp:67] Creating Layer conv5_2
I1109 06:25:36.736701  5368 net.cpp:394] conv5_2 <- conv5_1
I1109 06:25:36.736709  5368 net.cpp:356] conv5_2 -> conv5_2
I1109 06:25:36.736721  5368 net.cpp:96] Setting up conv5_2
I1109 06:25:36.849710  5368 net.cpp:103] Top shape: 9 512 14 14 (903168)
I1109 06:25:36.849761  5368 layer_factory.hpp:78] Creating layer relu5_2
I1109 06:25:36.849772  5368 net.cpp:67] Creating Layer relu5_2
I1109 06:25:36.849779  5368 net.cpp:394] relu5_2 <- conv5_2
I1109 06:25:36.849791  5368 net.cpp:345] relu5_2 -> conv5_2 (in-place)
I1109 06:25:36.849802  5368 net.cpp:96] Setting up relu5_2
I1109 06:25:36.849808  5368 net.cpp:103] Top shape: 9 512 14 14 (903168)
I1109 06:25:36.849815  5368 layer_factory.hpp:78] Creating layer conv5_3
I1109 06:25:36.849825  5368 net.cpp:67] Creating Layer conv5_3
I1109 06:25:36.849831  5368 net.cpp:394] conv5_3 <- conv5_2
I1109 06:25:36.849843  5368 net.cpp:356] conv5_3 -> conv5_3
I1109 06:25:36.849854  5368 net.cpp:96] Setting up conv5_3
I1109 06:25:36.962708  5368 net.cpp:103] Top shape: 9 512 14 14 (903168)
I1109 06:25:36.962752  5368 layer_factory.hpp:78] Creating layer relu5_3
I1109 06:25:36.962765  5368 net.cpp:67] Creating Layer relu5_3
I1109 06:25:36.962774  5368 net.cpp:394] relu5_3 <- conv5_3
I1109 06:25:36.962785  5368 net.cpp:345] relu5_3 -> conv5_3 (in-place)
I1109 06:25:36.962795  5368 net.cpp:96] Setting up relu5_3
I1109 06:25:36.962801  5368 net.cpp:103] Top shape: 9 512 14 14 (903168)
I1109 06:25:36.962823  5368 layer_factory.hpp:78] Creating layer pool5
I1109 06:25:36.962832  5368 net.cpp:67] Creating Layer pool5
I1109 06:25:36.962838  5368 net.cpp:394] pool5 <- conv5_3
I1109 06:25:36.962847  5368 net.cpp:356] pool5 -> pool5
I1109 06:25:36.962857  5368 net.cpp:96] Setting up pool5
I1109 06:25:36.962867  5368 net.cpp:103] Top shape: 9 512 7 7 (225792)
I1109 06:25:36.962872  5368 layer_factory.hpp:78] Creating layer fc6
I1109 06:25:36.962894  5368 net.cpp:67] Creating Layer fc6
I1109 06:25:36.962901  5368 net.cpp:394] fc6 <- pool5
I1109 06:25:36.962910  5368 net.cpp:356] fc6 -> fc6
I1109 06:25:36.962920  5368 net.cpp:96] Setting up fc6
I1109 06:25:41.858855  5368 net.cpp:103] Top shape: 9 4096 1 1 (36864)
I1109 06:25:41.858901  5368 layer_factory.hpp:78] Creating layer relu6
I1109 06:25:41.858912  5368 net.cpp:67] Creating Layer relu6
I1109 06:25:41.858921  5368 net.cpp:394] relu6 <- fc6
I1109 06:25:41.858932  5368 net.cpp:345] relu6 -> fc6 (in-place)
I1109 06:25:41.858942  5368 net.cpp:96] Setting up relu6
I1109 06:25:41.858952  5368 net.cpp:103] Top shape: 9 4096 1 1 (36864)
I1109 06:25:41.858958  5368 layer_factory.hpp:78] Creating layer drop6
I1109 06:25:41.858973  5368 net.cpp:67] Creating Layer drop6
I1109 06:25:41.858978  5368 net.cpp:394] drop6 <- fc6
I1109 06:25:41.858989  5368 net.cpp:345] drop6 -> fc6 (in-place)
I1109 06:25:41.858999  5368 net.cpp:96] Setting up drop6
I1109 06:25:41.859005  5368 net.cpp:103] Top shape: 9 4096 1 1 (36864)
I1109 06:25:41.859011  5368 layer_factory.hpp:78] Creating layer fc7
I1109 06:25:41.859020  5368 net.cpp:67] Creating Layer fc7
I1109 06:25:41.859026  5368 net.cpp:394] fc7 <- fc6
I1109 06:25:41.859035  5368 net.cpp:356] fc7 -> fc7
I1109 06:25:41.859045  5368 net.cpp:96] Setting up fc7
I1109 06:25:42.659001  5368 net.cpp:103] Top shape: 9 4096 1 1 (36864)
I1109 06:25:42.659045  5368 layer_factory.hpp:78] Creating layer relu7
I1109 06:25:42.659057  5368 net.cpp:67] Creating Layer relu7
I1109 06:25:42.659065  5368 net.cpp:394] relu7 <- fc7
I1109 06:25:42.659076  5368 net.cpp:345] relu7 -> fc7 (in-place)
I1109 06:25:42.659086  5368 net.cpp:96] Setting up relu7
I1109 06:25:42.659093  5368 net.cpp:103] Top shape: 9 4096 1 1 (36864)
I1109 06:25:42.659101  5368 layer_factory.hpp:78] Creating layer drop7
I1109 06:25:42.659111  5368 net.cpp:67] Creating Layer drop7
I1109 06:25:42.659117  5368 net.cpp:394] drop7 <- fc7
I1109 06:25:42.659126  5368 net.cpp:345] drop7 -> fc7 (in-place)
I1109 06:25:42.659134  5368 net.cpp:96] Setting up drop7
I1109 06:25:42.659140  5368 net.cpp:103] Top shape: 9 4096 1 1 (36864)
I1109 06:25:42.659147  5368 layer_factory.hpp:78] Creating layer fc8_2
I1109 06:25:42.659155  5368 net.cpp:67] Creating Layer fc8_2
I1109 06:25:42.659163  5368 net.cpp:394] fc8_2 <- fc7
I1109 06:25:42.659173  5368 net.cpp:356] fc8_2 -> fc8_2
I1109 06:25:42.659183  5368 net.cpp:96] Setting up fc8_2
I1109 06:25:42.659592  5368 net.cpp:103] Top shape: 9 2 1 1 (18)
I1109 06:25:42.659607  5368 layer_factory.hpp:78] Creating layer loss
I1109 06:25:42.659625  5368 net.cpp:67] Creating Layer loss
I1109 06:25:42.659631  5368 net.cpp:394] loss <- fc8_2
I1109 06:25:42.659638  5368 net.cpp:394] loss <- label
I1109 06:25:42.659649  5368 net.cpp:356] loss -> (automatic)
I1109 06:25:42.659657  5368 net.cpp:96] Setting up loss
I1109 06:25:42.659672  5368 net.cpp:103] Top shape: 1 1 1 1 (1)
I1109 06:25:42.659679  5368 net.cpp:109]     with loss weight 1
I1109 06:25:42.659720  5368 net.cpp:170] loss needs backward computation.
I1109 06:25:42.659726  5368 net.cpp:170] fc8_2 needs backward computation.
I1109 06:25:42.659732  5368 net.cpp:170] drop7 needs backward computation.
I1109 06:25:42.659737  5368 net.cpp:170] relu7 needs backward computation.
I1109 06:25:42.659742  5368 net.cpp:170] fc7 needs backward computation.
…
I1109 06:25:42.661615  5368 net.cpp:275] The NetState phase (1) differed from the phase (0) specified by a rule in layer data
I1109 06:25:42.661999  5368 net.cpp:39] Initializing net from parameters: 
name: "small"
layers {
  top: "data"
  top: "label"
  name: "data"
  type: IMAGE_DATA
  image_data_param {
    source: "/data/ad6813/devCaffe/caffe/data/scrape_o/val.txt"
    batch_size: 10
    new_height: 256
    new_width: 256
  }
  include {
    phase: TEST
  }
  transform_param {
    mirror: true
    crop_size: 224
    mean_value: 86.752
    mean_value: 101.46
    mean_value: 104.6
  }
}
layers {
  bottom: "data"
  top: "conv1_1"
  name: "conv1_1"
  type: CONVOLUTION
  convolution_param {
    num_output: 64
    pad: 1
    kernel_size: 3
    weight_filler {
      type: "gaussian"
      std: 0.01
    }
    bias_filler {
      type: "constant"
      value: 0
    }
  }
}
layers {
  bottom: "conv1_1"
  top: "conv1_1"
  name: "relu1_1"
  type: RELU
}
layers {
  bottom: "conv1_1"
  top: "conv1_2"
  name: "conv1_2"
  type: CONVOLUTION
  convolution_param {
    num_output: 64
    pad: 1
    kernel_size: 3
    weight_filler {
      type: "gaussian"
      std: 0.01
    }
    bias_filler {
      type: "constant"
      value: 0
    }
  }
}
layers {
  bottom: "conv1_2"
  top: "conv1_2"
  name: "relu1_2"
  type: RELU
}
layers {
  bottom: "conv1_2"
  top: "pool1"
  name: "pool1"
  type: POOLING
  pooling_param {
    pool: MAX
    kernel_size: 2
    stride: 2
  }
}
layers {
  bottom: "pool1"
  top: "conv2_1"
  name: "conv2_1"
  type: CONVOLUTION
  convolution_param {
    num_output: 128
    pad: 1
    kernel_size: 3
    weight_filler {
      type: "gaussian"
      std: 0.01
    }
    bias_filler {
      type: "constant"
      value: 0
    }
  }
}
layers {
  bottom: "conv2_1"
  top: "conv2_1"
  name: "relu2_1"
  type: RELU
}
layers {
  bottom: "conv2_1"
  top: "conv2_2"
  name: "conv2_2"
  type: CONVOLUTION
  convolution_param {
    num_output: 128
    pad: 1
    kernel_size: 3
    weight_filler {
      type: "gaussian"
      std: 0.01
    }
    bias_filler {
      type: "constant"
      value: 0
    }
  }
}
layers {
  bottom: "conv2_2"
  top: "conv2_2"
  name: "relu2_2"
  type: RELU
}
layers {
  bottom: "conv2_2"
  top: "pool2"
  name: "pool2"
  type: POOLING
  pooling_param {
    pool: MAX
    kernel_size: 2
    stride: 2
  }
}
layers {
  bottom: "pool2"
  top: "conv3_1"
  name: "conv3_1"
  type: CONVOLUTION
  convolution_param {
    num_output: 256
    pad: 1
    kernel_size: 3
    weight_filler {
      type: "gaussian"
      std: 0.01
    }
    bias_filler {
      type: "constant"
      value: 0
    }
  }
}
layers {
  bottom: "conv3_1"
  top: "conv3_1"
  name: "relu3_1"
  type: RELU
}
layers {
  bottom: "conv3_1"
  top: "conv3_2"
  name: "conv3_2"
  type: CONVOLUTION
  convolution_param {
    num_output: 256
    pad: 1
    kernel_size: 3
    weight_filler {
      type: "gaussian"
      std: 0.01
    }
    bias_filler {
      type: "constant"
      value: 0
    }
  }
}
layers {
  bottom: "conv3_2"
  top: "conv3_2"
  name: "relu3_2"
  type: RELU
}
layers {
  bottom: "conv3_2"
  top: "conv3_3"
  name: "conv3_3"
  type: CONVOLUTION
  convolution_param {
    num_output: 256
    pad: 1
    kernel_size: 3
    weight_filler {
      type: "gaussian"
      std: 0.01
    }
    bias_filler {
      type: "constant"
      value: 0
    }
  }
}
layers {
  bottom: "conv3_3"
  top: "conv3_3"
  name: "relu3_3"
  type: RELU
}
layers {
  bottom: "conv3_3"
  top: "pool3"
  name: "pool3"
  type: POOLING
  pooling_param {
    pool: MAX
    kernel_size: 2
    stride: 2
  }
}
layers {
  bottom: "pool3"
  top: "conv4_1"
  name: "conv4_1"
  type: CONVOLUTION
  convolution_param {
    num_output: 512
    pad: 1
    kernel_size: 3
    weight_filler {
      type: "gaussian"
      std: 0.01
    }
    bias_filler {
      type: "constant"
      value: 0
    }
  }
}
layers {
  bottom: "conv4_1"
  top: "conv4_1"
  name: "relu4_1"
  type: RELU
}
layers {
  bottom: "conv4_1"
  top: "conv4_2"
  name: "conv4_2"
  type: CONVOLUTION
  convolution_param {
    num_output: 512
    pad: 1
    kernel_size: 3
    weight_filler {
      type: "gaussian"
      std: 0.01
    }
    bias_filler {
      type: "constant"
      value: 0
    }
  }
}
layers {
  bottom: "conv4_2"
  top: "conv4_2"
  name: "relu4_2"
  type: RELU
}
layers {
  bottom: "conv4_2"
  top: "conv4_3"
  name: "conv4_3"
  type: CONVOLUTION
  convolution_param {
    num_output: 512
    pad: 1
    kernel_size: 3
    weight_filler {
      type: "gaussian"
      std: 0.01
    }
    bias_filler {
      type: "constant"
      value: 0
    }
  }
}
layers {
  bottom: "conv4_3"
  top: "conv4_3"
  name: "relu4_3"
  type: RELU
}
layers {
  bottom: "conv4_3"
  top: "pool4"
  name: "pool4"
  type: POOLING
  pooling_param {
    pool: MAX
    kernel_size: 2
    stride: 2
  }
}
layers {
  bottom: "pool4"
  top: "conv5_1"
  name: "conv5_1"
  type: CONVOLUTION
  convolution_param {
    num_output: 512
    pad: 1
    kernel_size: 3
    weight_filler {
      type: "gaussian"
      std: 0.01
    }
    bias_filler {
      type: "constant"
      value: 0
    }
  }
}
layers {
  bottom: "conv5_1"
  top: "conv5_1"
  name: "relu5_1"
  type: RELU
}
layers {
  bottom: "conv5_1"
  top: "conv5_2"
  name: "conv5_2"
  type: CONVOLUTION
  convolution_param {
    num_output: 512
    pad: 1
    kernel_size: 3
    weight_filler {
      type: "gaussian"
      std: 0.01
    }
    bias_filler {
      type: "constant"
      value: 0
    }
  }
}
layers {
  bottom: "conv5_2"
  top: "conv5_2"
  name: "relu5_2"
  type: RELU
}
layers {
  bottom: "conv5_2"
  top: "conv5_3"
  name: "conv5_3"
  type: CONVOLUTION
  convolution_param {
    num_output: 512
    pad: 1
    kernel_size: 3
    weight_filler {
      type: "gaussian"
      std: 0.01
    }
    bias_filler {
      type: "constant"
      value: 0
    }
  }
}
layers {
  bottom: "conv5_3"
  top: "conv5_3"
  name: "relu5_3"
  type: RELU
}
layers {
  bottom: "conv5_3"
  top: "pool5"
  name: "pool5"
  type: POOLING
  pooling_param {
    pool: MAX
    kernel_size: 2
    stride: 2
  }
}
layers {
  bottom: "pool5"
  top: "fc6"
  name: "fc6"
  type: INNER_PRODUCT
  inner_product_param {
    num_output: 4096
    weight_filler {
      type: "gaussian"
      std: 0.01
    }
    bias_filler {
      type: "constant"
      value: 0
    }
  }
}
layers {
  bottom: "fc6"
  top: "fc6"
  name: "relu6"
  type: RELU
}
layers {
  bottom: "fc6"
  top: "fc6"
  name: "drop6"
  type: DROPOUT
  dropout_param {
    dropout_ratio: 0.5
  }
}
layers {
  bottom: "fc6"
  top: "fc7"
  name: "fc7"
  type: INNER_PRODUCT
  inner_product_param {
    num_output: 4096
    weight_filler {
      type: "gaussian"
      std: 0.01
    }
    bias_filler {
      type: "constant"
      value: 0
    }
  }
}
layers {
  bottom: "fc7"
  top: "fc7"
  name: "relu7"
  type: RELU
}
layers {
  bottom: "fc7"
  top: "fc7"
  name: "drop7"
  type: DROPOUT
  dropout_param {
    dropout_ratio: 0.5
  }
}
layers {
  bottom: "fc7"
  top: "fc8_2"
  name: "fc8_2"
  type: INNER_PRODUCT
  inner_product_param {
    num_output: 2
    weight_filler {
      type: "gaussian"
      std: 0.01
    }
    bias_filler {
      type: "constant"
      value: 0
    }
  }
}
layers {
  bottom: "fc8_2"
  bottom: "label"
  name: "loss"
  type: SOFTMAX_LOSS
}
layers {
  bottom: "fc8_2"
  bottom: "label"
  top: "accuracy"
  name: "accuracy"
  type: PER_CLASS_ACCURACY
  include {
    phase: TEST
  }
}
state {
  phase: TEST
}
I1109 06:25:42.662225  5368 layer_factory.hpp:78] Creating layer data
I1109 06:25:42.662243  5368 net.cpp:67] Creating Layer data
I1109 06:25:42.662251  5368 net.cpp:356] data -> data
I1109 06:25:42.662266  5368 net.cpp:356] data -> label
I1109 06:25:42.662276  5368 net.cpp:96] Setting up data
I1109 06:25:42.662282  5368 image_data_layer.cpp:34] Opening file /data/ad6813/devCaffe/caffe/data/scrape_o/val.txt
I1109 06:25:42.662952  5368 image_data_layer.cpp:49] A total of 800 images.
I1109 06:25:42.677804  5368 image_data_layer.cpp:78] output data size: 10,3,224,224
I1109 06:25:42.679729  5368 net.cpp:103] Top shape: 10 3 224 224 (1505280)
I1109 06:25:42.679755  5368 net.cpp:103] Top shape: 10 1 1 1 (10)
I1109 06:25:42.679764  5368 layer_factory.hpp:78] Creating layer label_data_1_split
I1109 06:25:42.679783  5368 net.cpp:67] Creating Layer label_data_1_split
I1109 06:25:42.679791  5368 net.cpp:394] label_data_1_split <- label
I1109 06:25:42.679803  5368 net.cpp:356] label_data_1_split -> label_data_1_split_0
I1109 06:25:42.679818  5368 net.cpp:356] label_data_1_split -> label_data_1_split_1
I1109 06:25:42.679828  5368 net.cpp:96] Setting up label_data_1_split
I1109 06:25:42.679836  5368 net.cpp:103] Top shape: 10 1 1 1 (10)
I1109 06:25:42.679842  5368 net.cpp:103] Top shape: 10 1 1 1 (10)
I1109 06:25:42.679848  5368 layer_factory.hpp:78] Creating layer conv1_1
I1109 06:25:42.679860  5368 net.cpp:67] Creating Layer conv1_1
I1109 06:25:42.679867  5368 net.cpp:394] conv1_1 <- data
I1109 06:25:42.679875  5368 net.cpp:356] conv1_1 -> conv1_1
I1109 06:25:42.679886  5368 net.cpp:96] Setting up conv1_1
I1109 06:25:42.680076  5368 net.cpp:103] Top shape: 10 64 224 224 (32112640)
I1109 06:25:42.680101  5368 layer_factory.hpp:78] Creating layer relu1_1
I1109 06:25:42.680110  5368 net.cpp:67] Creating Layer relu1_1
I1109 06:25:42.680116  5368 net.cpp:394] relu1_1 <- conv1_1
I1109 06:25:42.680124  5368 net.cpp:345] relu1_1 -> conv1_1 (in-place)
I1109 06:25:42.680133  5368 net.cpp:96] Setting up relu1_1
I1109 06:25:42.680153  5368 net.cpp:103] Top shape: 10 64 224 224 (32112640)
I1109 06:25:42.680160  5368 layer_factory.hpp:78] Creating layer conv1_2
I1109 06:25:42.680169  5368 net.cpp:67] Creating Layer conv1_2
I1109 06:25:42.680176  5368 net.cpp:394] conv1_2 <- conv1_1
I1109 06:25:42.680186  5368 net.cpp:356] conv1_2 -> conv1_2
I1109 06:25:42.680196  5368 net.cpp:96] Setting up conv1_2
I1109 06:25:42.682065  5368 net.cpp:103] Top shape: 10 64 224 224 (32112640)
I1109 06:25:42.682088  5368 layer_factory.hpp:78] Creating layer relu1_2
I1109 06:25:42.682097  5368 net.cpp:67] Creating Layer relu1_2
I1109 06:25:42.682103  5368 net.cpp:394] relu1_2 <- conv1_2
I1109 06:25:42.682111  5368 net.cpp:345] relu1_2 -> conv1_2 (in-place)
I1109 06:25:42.682121  5368 net.cpp:96] Setting up relu1_2
I1109 06:25:42.682126  5368 net.cpp:103] Top shape: 10 64 224 224 (32112640)
I1109 06:25:42.682132  5368 layer_factory.hpp:78] Creating layer pool1
I1109 06:25:42.682140  5368 net.cpp:67] Creating Layer pool1
I1109 06:25:42.682147  5368 net.cpp:394] pool1 <- conv1_2
I1109 06:25:42.682155  5368 net.cpp:356] pool1 -> pool1
I1109 06:25:42.682164  5368 net.cpp:96] Setting up pool1
I1109 06:25:42.682173  5368 net.cpp:103] Top shape: 10 64 112 112 (8028160)
I1109 06:25:42.682179  5368 layer_factory.hpp:78] Creating layer conv2_1
I1109 06:25:42.682188  5368 net.cpp:67] Creating Layer conv2_1
I1109 06:25:42.682193  5368 net.cpp:394] conv2_1 <- pool1
I1109 06:25:42.682203  5368 net.cpp:356] conv2_1 -> conv2_1
I1109 06:25:42.682211  5368 net.cpp:96] Setting up conv2_1
I1109 06:25:42.685788  5368 net.cpp:103] Top shape: 10 128 112 112 (16056320)
I1109 06:25:42.685811  5368 layer_factory.hpp:78] Creating layer relu2_1
I1109 06:25:42.685822  5368 net.cpp:67] Creating Layer relu2_1
I1109 06:25:42.685827  5368 net.cpp:394] relu2_1 <- conv2_1
I1109 06:25:42.685835  5368 net.cpp:345] relu2_1 -> conv2_1 (in-place)
I1109 06:25:42.685844  5368 net.cpp:96] Setting up relu2_1
I1109 06:25:42.685850  5368 net.cpp:103] Top shape: 10 128 112 112 (16056320)
I1109 06:25:42.685855  5368 layer_factory.hpp:78] Creating layer conv2_2
I1109 06:25:42.685864  5368 net.cpp:67] Creating Layer conv2_2
I1109 06:25:42.685869  5368 net.cpp:394] conv2_2 <- conv2_1
I1109 06:25:42.685878  5368 net.cpp:356] conv2_2 -> conv2_2
I1109 06:25:42.685889  5368 net.cpp:96] Setting up conv2_2
I1109 06:25:42.693007  5368 net.cpp:103] Top shape: 10 128 112 112 (16056320)
I1109 06:25:42.693029  5368 layer_factory.hpp:78] Creating layer relu2_2
I1109 06:25:42.693038  5368 net.cpp:67] Creating Layer relu2_2
I1109 06:25:42.693044  5368 net.cpp:394] relu2_2 <- conv2_2
I1109 06:25:42.693053  5368 net.cpp:345] relu2_2 -> conv2_2 (in-place)
I1109 06:25:42.693061  5368 net.cpp:96] Setting up relu2_2
I1109 06:25:42.693068  5368 net.cpp:103] Top shape: 10 128 112 112 (16056320)
I1109 06:25:42.693073  5368 layer_factory.hpp:78] Creating layer pool2
I1109 06:25:42.693081  5368 net.cpp:67] Creating Layer pool2
I1109 06:25:42.693086  5368 net.cpp:394] pool2 <- conv2_2
I1109 06:25:42.693094  5368 net.cpp:356] pool2 -> pool2
I1109 06:25:42.693104  5368 net.cpp:96] Setting up pool2
I1109 06:25:42.693111  5368 net.cpp:103] Top shape: 10 128 56 56 (4014080)
I1109 06:25:42.693117  5368 layer_factory.hpp:78] Creating layer conv3_1
I1109 06:25:42.693126  5368 net.cpp:67] Creating Layer conv3_1
I1109 06:25:42.693131  5368 net.cpp:394] conv3_1 <- pool2
I1109 06:25:42.693140  5368 net.cpp:356] conv3_1 -> conv3_1
I1109 06:25:42.693150  5368 net.cpp:96] Setting up conv3_1
I1109 06:25:42.707335  5368 net.cpp:103] Top shape: 10 256 56 56 (8028160)
I1109 06:25:42.707367  5368 layer_factory.hpp:78] Creating layer relu3_1
I1109 06:25:42.707378  5368 net.cpp:67] Creating Layer relu3_1
I1109 06:25:42.707386  5368 net.cpp:394] relu3_1 <- conv3_1
I1109 06:25:42.707394  5368 net.cpp:345] relu3_1 -> conv3_1 (in-place)
I1109 06:25:42.707404  5368 net.cpp:96] Setting up relu3_1
I1109 06:25:42.707411  5368 net.cpp:103] Top shape: 10 256 56 56 (8028160)
I1109 06:25:42.707417  5368 layer_factory.hpp:78] Creating layer conv3_2
I1109 06:25:42.707425  5368 net.cpp:67] Creating Layer conv3_2
I1109 06:25:42.707447  5368 net.cpp:394] conv3_2 <- conv3_1
I1109 06:25:42.707455  5368 net.cpp:356] conv3_2 -> conv3_2
I1109 06:25:42.707465  5368 net.cpp:96] Setting up conv3_2
I1109 06:25:42.736091  5368 net.cpp:103] Top shape: 10 256 56 56 (8028160)
I1109 06:25:42.736124  5368 layer_factory.hpp:78] Creating layer relu3_2
I1109 06:25:42.736136  5368 net.cpp:67] Creating Layer relu3_2
I1109 06:25:42.736142  5368 net.cpp:394] relu3_2 <- conv3_2
I1109 06:25:42.736153  5368 net.cpp:345] relu3_2 -> conv3_2 (in-place)
I1109 06:25:42.736165  5368 net.cpp:96] Setting up relu3_2
I1109 06:25:42.736171  5368 net.cpp:103] Top shape: 10 256 56 56 (8028160)
I1109 06:25:42.736176  5368 layer_factory.hpp:78] Creating layer conv3_3
I1109 06:25:42.736193  5368 net.cpp:67] Creating Layer conv3_3
I1109 06:25:42.736199  5368 net.cpp:394] conv3_3 <- conv3_2
I1109 06:25:42.736212  5368 net.cpp:356] conv3_3 -> conv3_3
I1109 06:25:42.736222  5368 net.cpp:96] Setting up conv3_3
I1109 06:25:42.765179  5368 net.cpp:103] Top shape: 10 256 56 56 (8028160)
I1109 06:25:42.765213  5368 layer_factory.hpp:78] Creating layer relu3_3
I1109 06:25:42.765228  5368 net.cpp:67] Creating Layer relu3_3
I1109 06:25:42.765234  5368 net.cpp:394] relu3_3 <- conv3_3
I1109 06:25:42.765245  5368 net.cpp:345] relu3_3 -> conv3_3 (in-place)
I1109 06:25:42.765255  5368 net.cpp:96] Setting up relu3_3
I1109 06:25:42.765262  5368 net.cpp:103] Top shape: 10 256 56 56 (8028160)
I1109 06:25:42.765269  5368 layer_factory.hpp:78] Creating layer pool3
I1109 06:25:42.765281  5368 net.cpp:67] Creating Layer pool3
I1109 06:25:42.765287  5368 net.cpp:394] pool3 <- conv3_3
I1109 06:25:42.765295  5368 net.cpp:356] pool3 -> pool3
I1109 06:25:42.765305  5368 net.cpp:96] Setting up pool3
I1109 06:25:42.765314  5368 net.cpp:103] Top shape: 10 256 28 28 (2007040)
I1109 06:25:42.765321  5368 layer_factory.hpp:78] Creating layer conv4_1
I1109 06:25:42.765331  5368 net.cpp:67] Creating Layer conv4_1
I1109 06:25:42.765336  5368 net.cpp:394] conv4_1 <- pool3
I1109 06:25:42.765347  5368 net.cpp:356] conv4_1 -> conv4_1
I1109 06:25:42.765357  5368 net.cpp:96] Setting up conv4_1
I1109 06:25:42.822782  5368 net.cpp:103] Top shape: 10 512 28 28 (4014080)
I1109 06:25:42.822825  5368 layer_factory.hpp:78] Creating layer relu4_1
I1109 06:25:42.822837  5368 net.cpp:67] Creating Layer relu4_1
I1109 06:25:42.822845  5368 net.cpp:394] relu4_1 <- conv4_1
I1109 06:25:42.822856  5368 net.cpp:345] relu4_1 -> conv4_1 (in-place)
I1109 06:25:42.822866  5368 net.cpp:96] Setting up relu4_1
I1109 06:25:42.822873  5368 net.cpp:103] Top shape: 10 512 28 28 (4014080)
I1109 06:25:42.822880  5368 layer_factory.hpp:78] Creating layer conv4_2
I1109 06:25:42.822893  5368 net.cpp:67] Creating Layer conv4_2
I1109 06:25:42.822899  5368 net.cpp:394] conv4_2 <- conv4_1
I1109 06:25:42.822908  5368 net.cpp:356] conv4_2 -> conv4_2
I1109 06:25:42.822919  5368 net.cpp:96] Setting up conv4_2
I1109 06:25:42.937173  5368 net.cpp:103] Top shape: 10 512 28 28 (4014080)
I1109 06:25:42.937219  5368 layer_factory.hpp:78] Creating layer relu4_2
I1109 06:25:42.937234  5368 net.cpp:67] Creating Layer relu4_2
I1109 06:25:42.937242  5368 net.cpp:394] relu4_2 <- conv4_2
I1109 06:25:42.937253  5368 net.cpp:345] relu4_2 -> conv4_2 (in-place)
I1109 06:25:42.937264  5368 net.cpp:96] Setting up relu4_2
I1109 06:25:42.937271  5368 net.cpp:103] Top shape: 10 512 28 28 (4014080)
I1109 06:25:42.937278  5368 layer_factory.hpp:78] Creating layer conv4_3
I1109 06:25:42.937288  5368 net.cpp:67] Creating Layer conv4_3
I1109 06:25:42.937294  5368 net.cpp:394] conv4_3 <- conv4_2
I1109 06:25:42.937304  5368 net.cpp:356] conv4_3 -> conv4_3
I1109 06:25:42.937316  5368 net.cpp:96] Setting up conv4_3
I1109 06:25:43.051014  5368 net.cpp:103] Top shape: 10 512 28 28 (4014080)
I1109 06:25:43.051059  5368 layer_factory.hpp:78] Creating layer relu4_3
I1109 06:25:43.051070  5368 net.cpp:67] Creating Layer relu4_3
I1109 06:25:43.051079  5368 net.cpp:394] relu4_3 <- conv4_3
I1109 06:25:43.051095  5368 net.cpp:345] relu4_3 -> conv4_3 (in-place)
I1109 06:25:43.051121  5368 net.cpp:96] Setting up relu4_3
I1109 06:25:43.051128  5368 net.cpp:103] Top shape: 10 512 28 28 (4014080)
I1109 06:25:43.051134  5368 layer_factory.hpp:78] Creating layer pool4
I1109 06:25:43.051142  5368 net.cpp:67] Creating Layer pool4
I1109 06:25:43.051148  5368 net.cpp:394] pool4 <- conv4_3
I1109 06:25:43.051157  5368 net.cpp:356] pool4 -> pool4
I1109 06:25:43.051167  5368 net.cpp:96] Setting up pool4
I1109 06:25:43.051177  5368 net.cpp:103] Top shape: 10 512 14 14 (1003520)
I1109 06:25:43.051183  5368 layer_factory.hpp:78] Creating layer conv5_1
I1109 06:25:43.051195  5368 net.cpp:67] Creating Layer conv5_1
I1109 06:25:43.051203  5368 net.cpp:394] conv5_1 <- pool4
I1109 06:25:43.051211  5368 net.cpp:356] conv5_1 -> conv5_1
I1109 06:25:43.051221  5368 net.cpp:96] Setting up conv5_1
I1109 06:25:43.165349  5368 net.cpp:103] Top shape: 10 512 14 14 (1003520)
I1109 06:25:43.165393  5368 layer_factory.hpp:78] Creating layer relu5_1
I1109 06:25:43.165406  5368 net.cpp:67] Creating Layer relu5_1
I1109 06:25:43.165413  5368 net.cpp:394] relu5_1 <- conv5_1
I1109 06:25:43.165427  5368 net.cpp:345] relu5_1 -> conv5_1 (in-place)
I1109 06:25:43.165438  5368 net.cpp:96] Setting up relu5_1
I1109 06:25:43.165446  5368 net.cpp:103] Top shape: 10 512 14 14 (1003520)
I1109 06:25:43.165452  5368 layer_factory.hpp:78] Creating layer conv5_2
I1109 06:25:43.165462  5368 net.cpp:67] Creating Layer conv5_2
I1109 06:25:43.165467  5368 net.cpp:394] conv5_2 <- conv5_1
I1109 06:25:43.165475  5368 net.cpp:356] conv5_2 -> conv5_2
I1109 06:25:43.165485  5368 net.cpp:96] Setting up conv5_2
I1109 06:25:43.279189  5368 net.cpp:103] Top shape: 10 512 14 14 (1003520)
I1109 06:25:43.279230  5368 layer_factory.hpp:78] Creating layer relu5_2
I1109 06:25:43.279243  5368 net.cpp:67] Creating Layer relu5_2
I1109 06:25:43.279250  5368 net.cpp:394] relu5_2 <- conv5_2
I1109 06:25:43.279265  5368 net.cpp:345] relu5_2 -> conv5_2 (in-place)
I1109 06:25:43.279276  5368 net.cpp:96] Setting up relu5_2
I1109 06:25:43.279284  5368 net.cpp:103] Top shape: 10 512 14 14 (1003520)
I1109 06:25:43.279289  5368 layer_factory.hpp:78] Creating layer conv5_3
I1109 06:25:43.279299  5368 net.cpp:67] Creating Layer conv5_3
I1109 06:25:43.279305  5368 net.cpp:394] conv5_3 <- conv5_2
I1109 06:25:43.279316  5368 net.cpp:356] conv5_3 -> conv5_3
I1109 06:25:43.279327  5368 net.cpp:96] Setting up conv5_3
I1109 06:25:43.393414  5368 net.cpp:103] Top shape: 10 512 14 14 (1003520)
I1109 06:25:43.393457  5368 layer_factory.hpp:78] Creating layer relu5_3
I1109 06:25:43.393470  5368 net.cpp:67] Creating Layer relu5_3
I1109 06:25:43.393477  5368 net.cpp:394] relu5_3 <- conv5_3
I1109 06:25:43.393488  5368 net.cpp:345] relu5_3 -> conv5_3 (in-place)
I1109 06:25:43.393499  5368 net.cpp:96] Setting up relu5_3
I1109 06:25:43.393507  5368 net.cpp:103] Top shape: 10 512 14 14 (1003520)
I1109 06:25:43.393512  5368 layer_factory.hpp:78] Creating layer pool5
I1109 06:25:43.393529  5368 net.cpp:67] Creating Layer pool5
I1109 06:25:43.393535  5368 net.cpp:394] pool5 <- conv5_3
I1109 06:25:43.393544  5368 net.cpp:356] pool5 -> pool5
I1109 06:25:43.393555  5368 net.cpp:96] Setting up pool5
I1109 06:25:43.393564  5368 net.cpp:103] Top shape: 10 512 7 7 (250880)
I1109 06:25:43.393570  5368 layer_factory.hpp:78] Creating layer fc6
I1109 06:25:43.393582  5368 net.cpp:67] Creating Layer fc6
I1109 06:25:43.393589  5368 net.cpp:394] fc6 <- pool5
I1109 06:25:43.393599  5368 net.cpp:356] fc6 -> fc6
I1109 06:25:43.393609  5368 net.cpp:96] Setting up fc6
I1109 06:25:48.287498  5368 net.cpp:103] Top shape: 10 4096 1 1 (40960)
I1109 06:25:48.287544  5368 layer_factory.hpp:78] Creating layer relu6
I1109 06:25:48.287559  5368 net.cpp:67] Creating Layer relu6
I1109 06:25:48.287567  5368 net.cpp:394] relu6 <- fc6
I1109 06:25:48.287580  5368 net.cpp:345] relu6 -> fc6 (in-place)
I1109 06:25:48.287590  5368 net.cpp:96] Setting up relu6
I1109 06:25:48.287600  5368 net.cpp:103] Top shape: 10 4096 1 1 (40960)
I1109 06:25:48.287606  5368 layer_factory.hpp:78] Creating layer drop6
I1109 06:25:48.287613  5368 net.cpp:67] Creating Layer drop6
I1109 06:25:48.287636  5368 net.cpp:394] drop6 <- fc6
I1109 06:25:48.287647  5368 net.cpp:345] drop6 -> fc6 (in-place)
I1109 06:25:48.287657  5368 net.cpp:96] Setting up drop6
I1109 06:25:48.287663  5368 net.cpp:103] Top shape: 10 4096 1 1 (40960)
I1109 06:25:48.287668  5368 layer_factory.hpp:78] Creating layer fc7
I1109 06:25:48.287678  5368 net.cpp:67] Creating Layer fc7
I1109 06:25:48.287689  5368 net.cpp:394] fc7 <- fc6
I1109 06:25:48.287699  5368 net.cpp:356] fc7 -> fc7
I1109 06:25:48.287710  5368 net.cpp:96] Setting up fc7
I1109 06:25:49.087571  5368 net.cpp:103] Top shape: 10 4096 1 1 (40960)
I1109 06:25:49.087618  5368 layer_factory.hpp:78] Creating layer relu7
I1109 06:25:49.087630  5368 net.cpp:67] Creating Layer relu7
I1109 06:25:49.087638  5368 net.cpp:394] relu7 <- fc7
I1109 06:25:49.087651  5368 net.cpp:345] relu7 -> fc7 (in-place)
I1109 06:25:49.087661  5368 net.cpp:96] Setting up relu7
I1109 06:25:49.087668  5368 net.cpp:103] Top shape: 10 4096 1 1 (40960)
I1109 06:25:49.087674  5368 layer_factory.hpp:78] Creating layer drop7
I1109 06:25:49.087685  5368 net.cpp:67] Creating Layer drop7
I1109 06:25:49.087692  5368 net.cpp:394] drop7 <- fc7
I1109 06:25:49.087700  5368 net.cpp:345] drop7 -> fc7 (in-place)
I1109 06:25:49.087708  5368 net.cpp:96] Setting up drop7
I1109 06:25:49.087715  5368 net.cpp:103] Top shape: 10 4096 1 1 (40960)
I1109 06:25:49.087721  5368 layer_factory.hpp:78] Creating layer fc8_2
I1109 06:25:49.087730  5368 net.cpp:67] Creating Layer fc8_2
I1109 06:25:49.087741  5368 net.cpp:394] fc8_2 <- fc7
I1109 06:25:49.087752  5368 net.cpp:356] fc8_2 -> fc8_2
I1109 06:25:49.087764  5368 net.cpp:96] Setting up fc8_2
I1109 06:25:49.088176  5368 net.cpp:103] Top shape: 10 2 1 1 (20)
I1109 06:25:49.088191  5368 layer_factory.hpp:78] Creating layer fc8_2_fc8_2_0_split
I1109 06:25:49.088199  5368 net.cpp:67] Creating Layer fc8_2_fc8_2_0_split
I1109 06:25:49.088206  5368 net.cpp:394] fc8_2_fc8_2_0_split <- fc8_2
I1109 06:25:49.088217  5368 net.cpp:356] fc8_2_fc8_2_0_split -> fc8_2_fc8_2_0_split_0
I1109 06:25:49.088227  5368 net.cpp:356] fc8_2_fc8_2_0_split -> fc8_2_fc8_2_0_split_1
I1109 06:25:49.088238  5368 net.cpp:96] Setting up fc8_2_fc8_2_0_split
I1109 06:25:49.088244  5368 net.cpp:103] Top shape: 10 2 1 1 (20)
I1109 06:25:49.088259  5368 net.cpp:103] Top shape: 10 2 1 1 (20)
I1109 06:25:49.088266  5368 layer_factory.hpp:78] Creating layer loss
I1109 06:25:49.088277  5368 net.cpp:67] Creating Layer loss
I1109 06:25:49.088284  5368 net.cpp:394] loss <- fc8_2_fc8_2_0_split_0
I1109 06:25:49.088290  5368 net.cpp:394] loss <- label_data_1_split_0
I1109 06:25:49.088299  5368 net.cpp:356] loss -> (automatic)
I1109 06:25:49.088307  5368 net.cpp:96] Setting up loss
I1109 06:25:49.088317  5368 net.cpp:103] Top shape: 1 1 1 1 (1)
I1109 06:25:49.088323  5368 net.cpp:109]     with loss weight 1
I1109 06:25:49.088342  5368 layer_factory.hpp:78] Creating layer accuracy
I1109 06:25:49.088356  5368 net.cpp:67] Creating Layer accuracy
I1109 06:25:49.088361  5368 net.cpp:394] accuracy <- fc8_2_fc8_2_0_split_1
I1109 06:25:49.088368  5368 net.cpp:394] accuracy <- label_data_1_split_1
I1109 06:25:49.088377  5368 net.cpp:356] accuracy -> accuracy
I1109 06:25:49.088387  5368 net.cpp:96] Setting up accuracy
I1109 06:25:49.088400  5368 net.cpp:103] Top shape: 1 1 1 4 (4)
I1109 06:25:49.088407  5368 net.cpp:172] accuracy does not need backward computation.
I1109 06:25:49.088413  5368 net.cpp:170] loss needs backward computation.
I1109 06:25:49.088418  5368 net.cpp:170] fc8_2_fc8_2_0_split needs backward computation.
I1109 06:25:49.088423  5368 net.cpp:170] fc8_2 needs backward computation.
I1109 06:25:49.088428  5368 net.cpp:170] drop7 needs backward computation.
…
I1109 16:53:28.360483 27576 net.cpp:275] The NetState phase (0) differed from the phase (1) specified by a rule in layer accuracy
I1109 16:53:28.360677 27576 net.cpp:39] Initializing net from parameters: 
name: "small"
layers {
  top: "data"
  top: "label"
  name: "data"
  type: IMAGE_DATA
  image_data_param {
    source: "/data/ad6813/devCaffe/caffe/data/scrape_o/train.txt"
    batch_size: 10
    new_height: 256
    new_width: 256
  }
  include {
    phase: TRAIN
  }
  transform_param {
    mirror: true
    crop_size: 224
    mean_value: 86.752
    mean_value: 101.46
    mean_value: 104.6
  }
}
layers {
  bottom: "data"
  top: "conv1_1"
  name: "conv1_1"
  type: CONVOLUTION
  convolution_param {
    num_output: 64
    pad: 1
    kernel_size: 3
    weight_filler {
      type: "gaussian"
      std: 0.01
    }
    bias_filler {
      type: "constant"
      value: 0
    }
  }
}
layers {
  bottom: "conv1_1"
  top: "conv1_1"
  name: "relu1_1"
  type: RELU
}
layers {
  bottom: "conv1_1"
  top: "conv1_2"
  name: "conv1_2"
  type: CONVOLUTION
  convolution_param {
    num_output: 64
    pad: 1
    kernel_size: 3
    weight_filler {
      type: "gaussian"
      std: 0.01
    }
    bias_filler {
      type: "constant"
      value: 0
    }
  }
}
layers {
  bottom: "conv1_2"
  top: "conv1_2"
  name: "relu1_2"
  type: RELU
}
layers {
  bottom: "conv1_2"
  top: "pool1"
  name: "pool1"
  type: POOLING
  pooling_param {
    pool: MAX
    kernel_size: 2
    stride: 2
  }
}
layers {
  bottom: "pool1"
  top: "conv2_1"
  name: "conv2_1"
  type: CONVOLUTION
  convolution_param {
    num_output: 128
    pad: 1
    kernel_size: 3
    weight_filler {
      type: "gaussian"
      std: 0.01
    }
    bias_filler {
      type: "constant"
      value: 0
    }
  }
}
layers {
  bottom: "conv2_1"
  top: "conv2_1"
  name: "relu2_1"
  type: RELU
}
layers {
  bottom: "conv2_1"
  top: "conv2_2"
  name: "conv2_2"
  type: CONVOLUTION
  convolution_param {
    num_output: 128
    pad: 1
    kernel_size: 3
    weight_filler {
      type: "gaussian"
      std: 0.01
    }
    bias_filler {
      type: "constant"
      value: 0
    }
  }
}
layers {
  bottom: "conv2_2"
  top: "conv2_2"
  name: "relu2_2"
  type: RELU
}
layers {
  bottom: "conv2_2"
  top: "pool2"
  name: "pool2"
  type: POOLING
  pooling_param {
    pool: MAX
    kernel_size: 2
    stride: 2
  }
}
layers {
  bottom: "pool2"
  top: "conv3_1"
  name: "conv3_1"
  type: CONVOLUTION
  convolution_param {
    num_output: 256
    pad: 1
    kernel_size: 3
    weight_filler {
      type: "gaussian"
      std: 0.01
    }
    bias_filler {
      type: "constant"
      value: 0
    }
  }
}
layers {
  bottom: "conv3_1"
  top: "conv3_1"
  name: "relu3_1"
  type: RELU
}
layers {
  bottom: "conv3_1"
  top: "conv3_2"
  name: "conv3_2"
  type: CONVOLUTION
  convolution_param {
    num_output: 256
    pad: 1
    kernel_size: 3
    weight_filler {
      type: "gaussian"
      std: 0.01
    }
    bias_filler {
      type: "constant"
      value: 0
    }
  }
}
layers {
  bottom: "conv3_2"
  top: "conv3_2"
  name: "relu3_2"
  type: RELU
}
layers {
  bottom: "conv3_2"
  top: "conv3_3"
  name: "conv3_3"
  type: CONVOLUTION
  convolution_param {
    num_output: 256
    pad: 1
    kernel_size: 3
    weight_filler {
      type: "gaussian"
      std: 0.01
    }
    bias_filler {
      type: "constant"
      value: 0
    }
  }
}
layers {
  bottom: "conv3_3"
  top: "conv3_3"
  name: "relu3_3"
  type: RELU
}
layers {
  bottom: "conv3_3"
  top: "pool3"
  name: "pool3"
  type: POOLING
  pooling_param {
    pool: MAX
    kernel_size: 2
    stride: 2
  }
}
layers {
  bottom: "pool3"
  top: "conv4_1"
  name: "conv4_1"
  type: CONVOLUTION
  convolution_param {
    num_output: 512
    pad: 1
    kernel_size: 3
    weight_filler {
      type: "gaussian"
      std: 0.01
    }
    bias_filler {
      type: "constant"
      value: 0
    }
  }
}
layers {
  bottom: "conv4_1"
  top: "conv4_1"
  name: "relu4_1"
  type: RELU
}
layers {
  bottom: "conv4_1"
  top: "conv4_2"
  name: "conv4_2"
  type: CONVOLUTION
  convolution_param {
    num_output: 512
    pad: 1
    kernel_size: 3
    weight_filler {
      type: "gaussian"
      std: 0.01
    }
    bias_filler {
      type: "constant"
      value: 0
    }
  }
}
layers {
  bottom: "conv4_2"
  top: "conv4_2"
  name: "relu4_2"
  type: RELU
}
layers {
  bottom: "conv4_2"
  top: "conv4_3"
  name: "conv4_3"
  type: CONVOLUTION
  convolution_param {
    num_output: 512
    pad: 1
    kernel_size: 3
    weight_filler {
      type: "gaussian"
      std: 0.01
    }
    bias_filler {
      type: "constant"
      value: 0
    }
  }
}
layers {
  bottom: "conv4_3"
  top: "conv4_3"
  name: "relu4_3"
  type: RELU
}
layers {
  bottom: "conv4_3"
  top: "pool4"
  name: "pool4"
  type: POOLING
  pooling_param {
    pool: MAX
    kernel_size: 2
    stride: 2
  }
}
layers {
  bottom: "pool4"
  top: "conv5_1"
  name: "conv5_1"
  type: CONVOLUTION
  convolution_param {
    num_output: 512
    pad: 1
    kernel_size: 3
    weight_filler {
      type: "gaussian"
      std: 0.01
    }
    bias_filler {
      type: "constant"
      value: 0
    }
  }
}
layers {
  bottom: "conv5_1"
  top: "conv5_1"
  name: "relu5_1"
  type: RELU
}
layers {
  bottom: "conv5_1"
  top: "conv5_2"
  name: "conv5_2"
  type: CONVOLUTION
  convolution_param {
    num_output: 512
    pad: 1
    kernel_size: 3
    weight_filler {
      type: "gaussian"
      std: 0.01
    }
    bias_filler {
      type: "constant"
      value: 0
    }
  }
}
layers {
  bottom: "conv5_2"
  top: "conv5_2"
  name: "relu5_2"
  type: RELU
}
layers {
  bottom: "conv5_2"
  top: "conv5_3"
  name: "conv5_3"
  type: CONVOLUTION
  convolution_param {
    num_output: 512
    pad: 1
    kernel_size: 3
    weight_filler {
      type: "gaussian"
      std: 0.01
    }
    bias_filler {
      type: "constant"
      value: 0
    }
  }
}
layers {
  bottom: "conv5_3"
  top: "conv5_3"
  name: "relu5_3"
  type: RELU
}
layers {
  bottom: "conv5_3"
  top: "pool5"
  name: "pool5"
  type: POOLING
  pooling_param {
    pool: MAX
    kernel_size: 2
    stride: 2
  }
}
layers {
  bottom: "pool5"
  top: "fc6"
  name: "fc6"
  type: INNER_PRODUCT
  inner_product_param {
    num_output: 4096
    weight_filler {
      type: "gaussian"
      std: 0.01
    }
    bias_filler {
      type: "constant"
      value: 0
    }
  }
}
layers {
  bottom: "fc6"
  top: "fc6"
  name: "relu6"
  type: RELU
}
layers {
  bottom: "fc6"
  top: "fc6"
  name: "drop6"
  type: DROPOUT
  dropout_param {
    dropout_ratio: 0.5
  }
}
layers {
  bottom: "fc6"
  top: "fc7"
  name: "fc7"
  type: INNER_PRODUCT
  inner_product_param {
    num_output: 4096
    weight_filler {
      type: "gaussian"
      std: 0.01
    }
    bias_filler {
      type: "constant"
      value: 0
    }
  }
}
layers {
  bottom: "fc7"
  top: "fc7"
  name: "relu7"
  type: RELU
}
layers {
  bottom: "fc7"
  top: "fc7"
  name: "drop7"
  type: DROPOUT
  dropout_param {
    dropout_ratio: 0.5
  }
}
layers {
  bottom: "fc7"
  top: "fc8_2"
  name: "fc8_2"
  type: INNER_PRODUCT
  inner_product_param {
    num_output: 2
    weight_filler {
      type: "gaussian"
      std: 0.01
    }
    bias_filler {
      type: "constant"
      value: 0
    }
  }
}
layers {
  bottom: "fc8_2"
  bottom: "label"
  name: "loss"
  type: SOFTMAX_LOSS
}
state {
  phase: TRAIN
}
I1109 16:53:28.360795 27576 layer_factory.hpp:78] Creating layer data
I1109 16:53:28.360811 27576 net.cpp:67] Creating Layer data
I1109 16:53:28.360821 27576 net.cpp:356] data -> data
I1109 16:53:28.360842 27576 net.cpp:356] data -> label
I1109 16:53:28.360852 27576 net.cpp:96] Setting up data
I1109 16:53:28.360860 27576 image_data_layer.cpp:34] Opening file /data/ad6813/devCaffe/caffe/data/scrape_o/train.txt
I1109 16:53:28.440101 27576 image_data_layer.cpp:49] A total of 230287 images.
I1109 16:53:28.450530 27576 image_data_layer.cpp:78] output data size: 10,3,224,224
I1109 16:53:28.451779 27576 net.cpp:103] Top shape: 10 3 224 224 (1505280)
I1109 16:53:28.451792 27576 net.cpp:103] Top shape: 10 1 1 1 (10)
I1109 16:53:28.451797 27576 layer_factory.hpp:78] Creating layer conv1_1
I1109 16:53:28.451824 27576 net.cpp:67] Creating Layer conv1_1
I1109 16:53:28.451831 27576 net.cpp:394] conv1_1 <- data
I1109 16:53:28.451844 27576 net.cpp:356] conv1_1 -> conv1_1
I1109 16:53:28.451856 27576 net.cpp:96] Setting up conv1_1
I1109 16:53:28.451982 27576 net.cpp:103] Top shape: 10 64 224 224 (32112640)
I1109 16:53:28.452003 27576 layer_factory.hpp:78] Creating layer relu1_1
I1109 16:53:28.452011 27576 net.cpp:67] Creating Layer relu1_1
I1109 16:53:28.452018 27576 net.cpp:394] relu1_1 <- conv1_1
I1109 16:53:28.452023 27576 net.cpp:345] relu1_1 -> conv1_1 (in-place)
I1109 16:53:28.452028 27576 net.cpp:96] Setting up relu1_1
I1109 16:53:28.452036 27576 net.cpp:103] Top shape: 10 64 224 224 (32112640)
I1109 16:53:28.452039 27576 layer_factory.hpp:78] Creating layer conv1_2
I1109 16:53:28.452045 27576 net.cpp:67] Creating Layer conv1_2
I1109 16:53:28.452049 27576 net.cpp:394] conv1_2 <- conv1_1
I1109 16:53:28.452057 27576 net.cpp:356] conv1_2 -> conv1_2
I1109 16:53:28.452064 27576 net.cpp:96] Setting up conv1_2
I1109 16:53:28.453063 27576 net.cpp:103] Top shape: 10 64 224 224 (32112640)
I1109 16:53:28.453075 27576 layer_factory.hpp:78] Creating layer relu1_2
I1109 16:53:28.453081 27576 net.cpp:67] Creating Layer relu1_2
I1109 16:53:28.453084 27576 net.cpp:394] relu1_2 <- conv1_2
I1109 16:53:28.453089 27576 net.cpp:345] relu1_2 -> conv1_2 (in-place)
I1109 16:53:28.453094 27576 net.cpp:96] Setting up relu1_2
I1109 16:53:28.453097 27576 net.cpp:103] Top shape: 10 64 224 224 (32112640)
I1109 16:53:28.453101 27576 layer_factory.hpp:78] Creating layer pool1
I1109 16:53:28.453107 27576 net.cpp:67] Creating Layer pool1
I1109 16:53:28.453114 27576 net.cpp:394] pool1 <- conv1_2
I1109 16:53:28.453117 27576 net.cpp:356] pool1 -> pool1
I1109 16:53:28.453124 27576 net.cpp:96] Setting up pool1
I1109 16:53:28.453135 27576 net.cpp:103] Top shape: 10 64 112 112 (8028160)
I1109 16:53:28.453140 27576 layer_factory.hpp:78] Creating layer conv2_1
I1109 16:53:28.453145 27576 net.cpp:67] Creating Layer conv2_1
I1109 16:53:28.453150 27576 net.cpp:394] conv2_1 <- pool1
I1109 16:53:28.453155 27576 net.cpp:356] conv2_1 -> conv2_1
I1109 16:53:28.453162 27576 net.cpp:96] Setting up conv2_1
I1109 16:53:28.455112 27576 net.cpp:103] Top shape: 10 128 112 112 (16056320)
I1109 16:53:28.455126 27576 layer_factory.hpp:78] Creating layer relu2_1
I1109 16:53:28.455132 27576 net.cpp:67] Creating Layer relu2_1
I1109 16:53:28.455135 27576 net.cpp:394] relu2_1 <- conv2_1
I1109 16:53:28.455140 27576 net.cpp:345] relu2_1 -> conv2_1 (in-place)
I1109 16:53:28.455145 27576 net.cpp:96] Setting up relu2_1
I1109 16:53:28.455149 27576 net.cpp:103] Top shape: 10 128 112 112 (16056320)
I1109 16:53:28.455154 27576 layer_factory.hpp:78] Creating layer conv2_2
I1109 16:53:28.455160 27576 net.cpp:67] Creating Layer conv2_2
I1109 16:53:28.455164 27576 net.cpp:394] conv2_2 <- conv2_1
I1109 16:53:28.455169 27576 net.cpp:356] conv2_2 -> conv2_2
I1109 16:53:28.455174 27576 net.cpp:96] Setting up conv2_2
I1109 16:53:28.458930 27576 net.cpp:103] Top shape: 10 128 112 112 (16056320)
I1109 16:53:28.458941 27576 layer_factory.hpp:78] Creating layer relu2_2
I1109 16:53:28.458946 27576 net.cpp:67] Creating Layer relu2_2
I1109 16:53:28.458950 27576 net.cpp:394] relu2_2 <- conv2_2
I1109 16:53:28.458955 27576 net.cpp:345] relu2_2 -> conv2_2 (in-place)
I1109 16:53:28.458959 27576 net.cpp:96] Setting up relu2_2
I1109 16:53:28.458962 27576 net.cpp:103] Top shape: 10 128 112 112 (16056320)
I1109 16:53:28.458973 27576 layer_factory.hpp:78] Creating layer pool2
I1109 16:53:28.458978 27576 net.cpp:67] Creating Layer pool2
I1109 16:53:28.458984 27576 net.cpp:394] pool2 <- conv2_2
I1109 16:53:28.458988 27576 net.cpp:356] pool2 -> pool2
I1109 16:53:28.458993 27576 net.cpp:96] Setting up pool2
I1109 16:53:28.458998 27576 net.cpp:103] Top shape: 10 128 56 56 (4014080)
I1109 16:53:28.459002 27576 layer_factory.hpp:78] Creating layer conv3_1
I1109 16:53:28.459007 27576 net.cpp:67] Creating Layer conv3_1
I1109 16:53:28.459009 27576 net.cpp:394] conv3_1 <- pool2
I1109 16:53:28.459014 27576 net.cpp:356] conv3_1 -> conv3_1
I1109 16:53:28.459024 27576 net.cpp:96] Setting up conv3_1
I1109 16:53:28.466459 27576 net.cpp:103] Top shape: 10 256 56 56 (8028160)
I1109 16:53:28.466471 27576 layer_factory.hpp:78] Creating layer relu3_1
I1109 16:53:28.466476 27576 net.cpp:67] Creating Layer relu3_1
I1109 16:53:28.466480 27576 net.cpp:394] relu3_1 <- conv3_1
I1109 16:53:28.466485 27576 net.cpp:345] relu3_1 -> conv3_1 (in-place)
I1109 16:53:28.466491 27576 net.cpp:96] Setting up relu3_1
I1109 16:53:28.466495 27576 net.cpp:103] Top shape: 10 256 56 56 (8028160)
I1109 16:53:28.466498 27576 layer_factory.hpp:78] Creating layer conv3_2
I1109 16:53:28.466503 27576 net.cpp:67] Creating Layer conv3_2
I1109 16:53:28.466506 27576 net.cpp:394] conv3_2 <- conv3_1
I1109 16:53:28.466511 27576 net.cpp:356] conv3_2 -> conv3_2
I1109 16:53:28.466516 27576 net.cpp:96] Setting up conv3_2
I1109 16:53:28.481626 27576 net.cpp:103] Top shape: 10 256 56 56 (8028160)
I1109 16:53:28.481638 27576 layer_factory.hpp:78] Creating layer relu3_2
I1109 16:53:28.481643 27576 net.cpp:67] Creating Layer relu3_2
I1109 16:53:28.481647 27576 net.cpp:394] relu3_2 <- conv3_2
I1109 16:53:28.481652 27576 net.cpp:345] relu3_2 -> conv3_2 (in-place)
I1109 16:53:28.481657 27576 net.cpp:96] Setting up relu3_2
I1109 16:53:28.481660 27576 net.cpp:103] Top shape: 10 256 56 56 (8028160)
I1109 16:53:28.481663 27576 layer_factory.hpp:78] Creating layer conv3_3
I1109 16:53:28.481670 27576 net.cpp:67] Creating Layer conv3_3
I1109 16:53:28.481676 27576 net.cpp:394] conv3_3 <- conv3_2
I1109 16:53:28.481683 27576 net.cpp:356] conv3_3 -> conv3_3
I1109 16:53:28.481688 27576 net.cpp:96] Setting up conv3_3
I1109 16:53:28.496794 27576 net.cpp:103] Top shape: 10 256 56 56 (8028160)
I1109 16:53:28.496805 27576 layer_factory.hpp:78] Creating layer relu3_3
I1109 16:53:28.496814 27576 net.cpp:67] Creating Layer relu3_3
I1109 16:53:28.496824 27576 net.cpp:394] relu3_3 <- conv3_3
I1109 16:53:28.496829 27576 net.cpp:345] relu3_3 -> conv3_3 (in-place)
I1109 16:53:28.496834 27576 net.cpp:96] Setting up relu3_3
I1109 16:53:28.496840 27576 net.cpp:103] Top shape: 10 256 56 56 (8028160)
I1109 16:53:28.496844 27576 layer_factory.hpp:78] Creating layer pool3
I1109 16:53:28.496851 27576 net.cpp:67] Creating Layer pool3
I1109 16:53:28.496856 27576 net.cpp:394] pool3 <- conv3_3
I1109 16:53:28.496861 27576 net.cpp:356] pool3 -> pool3
I1109 16:53:28.496867 27576 net.cpp:96] Setting up pool3
I1109 16:53:28.496872 27576 net.cpp:103] Top shape: 10 256 28 28 (2007040)
I1109 16:53:28.496876 27576 layer_factory.hpp:78] Creating layer conv4_1
I1109 16:53:28.496882 27576 net.cpp:67] Creating Layer conv4_1
I1109 16:53:28.496887 27576 net.cpp:394] conv4_1 <- pool3
I1109 16:53:28.496893 27576 net.cpp:356] conv4_1 -> conv4_1
I1109 16:53:28.496899 27576 net.cpp:96] Setting up conv4_1
I1109 16:53:28.526967 27576 net.cpp:103] Top shape: 10 512 28 28 (4014080)
I1109 16:53:28.526983 27576 layer_factory.hpp:78] Creating layer relu4_1
I1109 16:53:28.526990 27576 net.cpp:67] Creating Layer relu4_1
I1109 16:53:28.526994 27576 net.cpp:394] relu4_1 <- conv4_1
I1109 16:53:28.527003 27576 net.cpp:345] relu4_1 -> conv4_1 (in-place)
I1109 16:53:28.527009 27576 net.cpp:96] Setting up relu4_1
I1109 16:53:28.527011 27576 net.cpp:103] Top shape: 10 512 28 28 (4014080)
I1109 16:53:28.527014 27576 layer_factory.hpp:78] Creating layer conv4_2
I1109 16:53:28.527021 27576 net.cpp:67] Creating Layer conv4_2
I1109 16:53:28.527024 27576 net.cpp:394] conv4_2 <- conv4_1
I1109 16:53:28.527036 27576 net.cpp:356] conv4_2 -> conv4_2
I1109 16:53:28.527042 27576 net.cpp:96] Setting up conv4_2
I1109 16:53:28.586159 27576 net.cpp:103] Top shape: 10 512 28 28 (4014080)
I1109 16:53:28.586185 27576 layer_factory.hpp:78] Creating layer relu4_2
I1109 16:53:28.586194 27576 net.cpp:67] Creating Layer relu4_2
I1109 16:53:28.586199 27576 net.cpp:394] relu4_2 <- conv4_2
I1109 16:53:28.586206 27576 net.cpp:345] relu4_2 -> conv4_2 (in-place)
I1109 16:53:28.586213 27576 net.cpp:96] Setting up relu4_2
I1109 16:53:28.586217 27576 net.cpp:103] Top shape: 10 512 28 28 (4014080)
I1109 16:53:28.586220 27576 layer_factory.hpp:78] Creating layer conv4_3
I1109 16:53:28.586226 27576 net.cpp:67] Creating Layer conv4_3
I1109 16:53:28.586230 27576 net.cpp:394] conv4_3 <- conv4_2
I1109 16:53:28.586236 27576 net.cpp:356] conv4_3 -> conv4_3
I1109 16:53:28.586242 27576 net.cpp:96] Setting up conv4_3
I1109 16:53:28.643815 27576 net.cpp:103] Top shape: 10 512 28 28 (4014080)
I1109 16:53:28.643839 27576 layer_factory.hpp:78] Creating layer relu4_3
I1109 16:53:28.643847 27576 net.cpp:67] Creating Layer relu4_3
I1109 16:53:28.643852 27576 net.cpp:394] relu4_3 <- conv4_3
I1109 16:53:28.643859 27576 net.cpp:345] relu4_3 -> conv4_3 (in-place)
I1109 16:53:28.643867 27576 net.cpp:96] Setting up relu4_3
I1109 16:53:28.643870 27576 net.cpp:103] Top shape: 10 512 28 28 (4014080)
I1109 16:53:28.643873 27576 layer_factory.hpp:78] Creating layer pool4
I1109 16:53:28.643878 27576 net.cpp:67] Creating Layer pool4
I1109 16:53:28.643882 27576 net.cpp:394] pool4 <- conv4_3
I1109 16:53:28.643888 27576 net.cpp:356] pool4 -> pool4
I1109 16:53:28.643894 27576 net.cpp:96] Setting up pool4
I1109 16:53:28.643900 27576 net.cpp:103] Top shape: 10 512 14 14 (1003520)
I1109 16:53:28.643903 27576 layer_factory.hpp:78] Creating layer conv5_1
I1109 16:53:28.643909 27576 net.cpp:67] Creating Layer conv5_1
I1109 16:53:28.643913 27576 net.cpp:394] conv5_1 <- pool4
I1109 16:53:28.643918 27576 net.cpp:356] conv5_1 -> conv5_1
I1109 16:53:28.643924 27576 net.cpp:96] Setting up conv5_1
I1109 16:53:28.701577 27576 net.cpp:103] Top shape: 10 512 14 14 (1003520)
I1109 16:53:28.701606 27576 layer_factory.hpp:78] Creating layer relu5_1
I1109 16:53:28.701612 27576 net.cpp:67] Creating Layer relu5_1
I1109 16:53:28.701617 27576 net.cpp:394] relu5_1 <- conv5_1
I1109 16:53:28.701624 27576 net.cpp:345] relu5_1 -> conv5_1 (in-place)
I1109 16:53:28.701630 27576 net.cpp:96] Setting up relu5_1
I1109 16:53:28.701634 27576 net.cpp:103] Top shape: 10 512 14 14 (1003520)
I1109 16:53:28.701637 27576 layer_factory.hpp:78] Creating layer conv5_2
I1109 16:53:28.701644 27576 net.cpp:67] Creating Layer conv5_2
I1109 16:53:28.701653 27576 net.cpp:394] conv5_2 <- conv5_1
I1109 16:53:28.701658 27576 net.cpp:356] conv5_2 -> conv5_2
I1109 16:53:28.701664 27576 net.cpp:96] Setting up conv5_2
I1109 16:53:28.759078 27576 net.cpp:103] Top shape: 10 512 14 14 (1003520)
I1109 16:53:28.759101 27576 layer_factory.hpp:78] Creating layer relu5_2
I1109 16:53:28.759109 27576 net.cpp:67] Creating Layer relu5_2
I1109 16:53:28.759114 27576 net.cpp:394] relu5_2 <- conv5_2
I1109 16:53:28.759121 27576 net.cpp:345] relu5_2 -> conv5_2 (in-place)
I1109 16:53:28.759127 27576 net.cpp:96] Setting up relu5_2
I1109 16:53:28.759131 27576 net.cpp:103] Top shape: 10 512 14 14 (1003520)
I1109 16:53:28.759135 27576 layer_factory.hpp:78] Creating layer conv5_3
I1109 16:53:28.759140 27576 net.cpp:67] Creating Layer conv5_3
I1109 16:53:28.759145 27576 net.cpp:394] conv5_3 <- conv5_2
I1109 16:53:28.759148 27576 net.cpp:356] conv5_3 -> conv5_3
I1109 16:53:28.759155 27576 net.cpp:96] Setting up conv5_3
I1109 16:53:28.816728 27576 net.cpp:103] Top shape: 10 512 14 14 (1003520)
I1109 16:53:28.816753 27576 layer_factory.hpp:78] Creating layer relu5_3
I1109 16:53:28.816759 27576 net.cpp:67] Creating Layer relu5_3
I1109 16:53:28.816764 27576 net.cpp:394] relu5_3 <- conv5_3
I1109 16:53:28.816772 27576 net.cpp:345] relu5_3 -> conv5_3 (in-place)
I1109 16:53:28.816779 27576 net.cpp:96] Setting up relu5_3
I1109 16:53:28.816783 27576 net.cpp:103] Top shape: 10 512 14 14 (1003520)
I1109 16:53:28.816795 27576 layer_factory.hpp:78] Creating layer pool5
I1109 16:53:28.816802 27576 net.cpp:67] Creating Layer pool5
I1109 16:53:28.816804 27576 net.cpp:394] pool5 <- conv5_3
I1109 16:53:28.816809 27576 net.cpp:356] pool5 -> pool5
I1109 16:53:28.816814 27576 net.cpp:96] Setting up pool5
I1109 16:53:28.816820 27576 net.cpp:103] Top shape: 10 512 7 7 (250880)
I1109 16:53:28.816823 27576 layer_factory.hpp:78] Creating layer fc6
I1109 16:53:28.816836 27576 net.cpp:67] Creating Layer fc6
I1109 16:53:28.816840 27576 net.cpp:394] fc6 <- pool5
I1109 16:53:28.816846 27576 net.cpp:356] fc6 -> fc6
I1109 16:53:28.816855 27576 net.cpp:96] Setting up fc6
I1109 16:53:31.204866 27576 net.cpp:103] Top shape: 10 4096 1 1 (40960)
I1109 16:53:31.204908 27576 layer_factory.hpp:78] Creating layer relu6
I1109 16:53:31.204916 27576 net.cpp:67] Creating Layer relu6
I1109 16:53:31.204921 27576 net.cpp:394] relu6 <- fc6
I1109 16:53:31.204928 27576 net.cpp:345] relu6 -> fc6 (in-place)
I1109 16:53:31.204936 27576 net.cpp:96] Setting up relu6
I1109 16:53:31.204938 27576 net.cpp:103] Top shape: 10 4096 1 1 (40960)
I1109 16:53:31.204942 27576 layer_factory.hpp:78] Creating layer drop6
I1109 16:53:31.204952 27576 net.cpp:67] Creating Layer drop6
I1109 16:53:31.204954 27576 net.cpp:394] drop6 <- fc6
I1109 16:53:31.204958 27576 net.cpp:345] drop6 -> fc6 (in-place)
I1109 16:53:31.204963 27576 net.cpp:96] Setting up drop6
I1109 16:53:31.204967 27576 net.cpp:103] Top shape: 10 4096 1 1 (40960)
I1109 16:53:31.204970 27576 layer_factory.hpp:78] Creating layer fc7
I1109 16:53:31.204980 27576 net.cpp:67] Creating Layer fc7
I1109 16:53:31.204983 27576 net.cpp:394] fc7 <- fc6
I1109 16:53:31.204988 27576 net.cpp:356] fc7 -> fc7
I1109 16:53:31.204995 27576 net.cpp:96] Setting up fc7
I1109 16:53:31.592346 27576 net.cpp:103] Top shape: 10 4096 1 1 (40960)
I1109 16:53:31.592389 27576 layer_factory.hpp:78] Creating layer relu7
I1109 16:53:31.592397 27576 net.cpp:67] Creating Layer relu7
I1109 16:53:31.592401 27576 net.cpp:394] relu7 <- fc7
I1109 16:53:31.592409 27576 net.cpp:345] relu7 -> fc7 (in-place)
I1109 16:53:31.592416 27576 net.cpp:96] Setting up relu7
I1109 16:53:31.592419 27576 net.cpp:103] Top shape: 10 4096 1 1 (40960)
I1109 16:53:31.592422 27576 layer_factory.hpp:78] Creating layer drop7
I1109 16:53:31.592428 27576 net.cpp:67] Creating Layer drop7
I1109 16:53:31.592432 27576 net.cpp:394] drop7 <- fc7
I1109 16:53:31.592437 27576 net.cpp:345] drop7 -> fc7 (in-place)
I1109 16:53:31.592442 27576 net.cpp:96] Setting up drop7
I1109 16:53:31.592445 27576 net.cpp:103] Top shape: 10 4096 1 1 (40960)
I1109 16:53:31.592448 27576 layer_factory.hpp:78] Creating layer fc8_2
I1109 16:53:31.592454 27576 net.cpp:67] Creating Layer fc8_2
I1109 16:53:31.592458 27576 net.cpp:394] fc8_2 <- fc7
I1109 16:53:31.592463 27576 net.cpp:356] fc8_2 -> fc8_2
I1109 16:53:31.592470 27576 net.cpp:96] Setting up fc8_2
I1109 16:53:31.592691 27576 net.cpp:103] Top shape: 10 2 1 1 (20)
I1109 16:53:31.592700 27576 layer_factory.hpp:78] Creating layer loss
I1109 16:53:31.592710 27576 net.cpp:67] Creating Layer loss
I1109 16:53:31.592715 27576 net.cpp:394] loss <- fc8_2
I1109 16:53:31.592720 27576 net.cpp:394] loss <- label
I1109 16:53:31.592728 27576 net.cpp:356] loss -> (automatic)
I1109 16:53:31.592735 27576 net.cpp:96] Setting up loss
I1109 16:53:31.592742 27576 net.cpp:103] Top shape: 1 1 1 1 (1)
I1109 16:53:31.592746 27576 net.cpp:109]     with loss weight 1
I1109 16:53:31.592782 27576 net.cpp:170] loss needs backward computation.
I1109 16:53:31.592785 27576 net.cpp:170] fc8_2 needs backward computation.
I1109 16:53:31.592788 27576 net.cpp:170] drop7 needs backward computation.
I1109 16:53:31.592792 27576 net.cpp:170] relu7 needs backward computation.
I1109 16:53:31.592794 27576 net.cpp:170] fc7 needs backward computation.
…
I1109 16:53:31.593873 27576 net.cpp:275] The NetState phase (1) differed from the phase (0) specified by a rule in layer data
I1109 16:53:31.594085 27576 net.cpp:39] Initializing net from parameters: 
name: "small"
layers {
  top: "data"
  top: "label"
  name: "data"
  type: IMAGE_DATA
  image_data_param {
    source: "/data/ad6813/devCaffe/caffe/data/scrape_o/val.txt"
    batch_size: 5
    new_height: 256
    new_width: 256
  }
  include {
    phase: TEST
  }
  transform_param {
    mirror: true
    crop_size: 224
    mean_value: 86.752
    mean_value: 101.46
    mean_value: 104.6
  }
}
layers {
  bottom: "data"
  top: "conv1_1"
  name: "conv1_1"
  type: CONVOLUTION
  convolution_param {
    num_output: 64
    pad: 1
    kernel_size: 3
    weight_filler {
      type: "gaussian"
      std: 0.01
    }
    bias_filler {
      type: "constant"
      value: 0
    }
  }
}
layers {
  bottom: "conv1_1"
  top: "conv1_1"
  name: "relu1_1"
  type: RELU
}
layers {
  bottom: "conv1_1"
  top: "conv1_2"
  name: "conv1_2"
  type: CONVOLUTION
  convolution_param {
    num_output: 64
    pad: 1
    kernel_size: 3
    weight_filler {
      type: "gaussian"
      std: 0.01
    }
    bias_filler {
      type: "constant"
      value: 0
    }
  }
}
layers {
  bottom: "conv1_2"
  top: "conv1_2"
  name: "relu1_2"
  type: RELU
}
layers {
  bottom: "conv1_2"
  top: "pool1"
  name: "pool1"
  type: POOLING
  pooling_param {
    pool: MAX
    kernel_size: 2
    stride: 2
  }
}
layers {
  bottom: "pool1"
  top: "conv2_1"
  name: "conv2_1"
  type: CONVOLUTION
  convolution_param {
    num_output: 128
    pad: 1
    kernel_size: 3
    weight_filler {
      type: "gaussian"
      std: 0.01
    }
    bias_filler {
      type: "constant"
      value: 0
    }
  }
}
layers {
  bottom: "conv2_1"
  top: "conv2_1"
  name: "relu2_1"
  type: RELU
}
layers {
  bottom: "conv2_1"
  top: "conv2_2"
  name: "conv2_2"
  type: CONVOLUTION
  convolution_param {
    num_output: 128
    pad: 1
    kernel_size: 3
    weight_filler {
      type: "gaussian"
      std: 0.01
    }
    bias_filler {
      type: "constant"
      value: 0
    }
  }
}
layers {
  bottom: "conv2_2"
  top: "conv2_2"
  name: "relu2_2"
  type: RELU
}
layers {
  bottom: "conv2_2"
  top: "pool2"
  name: "pool2"
  type: POOLING
  pooling_param {
    pool: MAX
    kernel_size: 2
    stride: 2
  }
}
layers {
  bottom: "pool2"
  top: "conv3_1"
  name: "conv3_1"
  type: CONVOLUTION
  convolution_param {
    num_output: 256
    pad: 1
    kernel_size: 3
    weight_filler {
      type: "gaussian"
      std: 0.01
    }
    bias_filler {
      type: "constant"
      value: 0
    }
  }
}
layers {
  bottom: "conv3_1"
  top: "conv3_1"
  name: "relu3_1"
  type: RELU
}
layers {
  bottom: "conv3_1"
  top: "conv3_2"
  name: "conv3_2"
  type: CONVOLUTION
  convolution_param {
    num_output: 256
    pad: 1
    kernel_size: 3
    weight_filler {
      type: "gaussian"
      std: 0.01
    }
    bias_filler {
      type: "constant"
      value: 0
    }
  }
}
layers {
  bottom: "conv3_2"
  top: "conv3_2"
  name: "relu3_2"
  type: RELU
}
layers {
  bottom: "conv3_2"
  top: "conv3_3"
  name: "conv3_3"
  type: CONVOLUTION
  convolution_param {
    num_output: 256
    pad: 1
    kernel_size: 3
    weight_filler {
      type: "gaussian"
      std: 0.01
    }
    bias_filler {
      type: "constant"
      value: 0
    }
  }
}
layers {
  bottom: "conv3_3"
  top: "conv3_3"
  name: "relu3_3"
  type: RELU
}
layers {
  bottom: "conv3_3"
  top: "pool3"
  name: "pool3"
  type: POOLING
  pooling_param {
    pool: MAX
    kernel_size: 2
    stride: 2
  }
}
layers {
  bottom: "pool3"
  top: "conv4_1"
  name: "conv4_1"
  type: CONVOLUTION
  convolution_param {
    num_output: 512
    pad: 1
    kernel_size: 3
    weight_filler {
      type: "gaussian"
      std: 0.01
    }
    bias_filler {
      type: "constant"
      value: 0
    }
  }
}
layers {
  bottom: "conv4_1"
  top: "conv4_1"
  name: "relu4_1"
  type: RELU
}
layers {
  bottom: "conv4_1"
  top: "conv4_2"
  name: "conv4_2"
  type: CONVOLUTION
  convolution_param {
    num_output: 512
    pad: 1
    kernel_size: 3
    weight_filler {
      type: "gaussian"
      std: 0.01
    }
    bias_filler {
      type: "constant"
      value: 0
    }
  }
}
layers {
  bottom: "conv4_2"
  top: "conv4_2"
  name: "relu4_2"
  type: RELU
}
layers {
  bottom: "conv4_2"
  top: "conv4_3"
  name: "conv4_3"
  type: CONVOLUTION
  convolution_param {
    num_output: 512
    pad: 1
    kernel_size: 3
    weight_filler {
      type: "gaussian"
      std: 0.01
    }
    bias_filler {
      type: "constant"
      value: 0
    }
  }
}
layers {
  bottom: "conv4_3"
  top: "conv4_3"
  name: "relu4_3"
  type: RELU
}
layers {
  bottom: "conv4_3"
  top: "pool4"
  name: "pool4"
  type: POOLING
  pooling_param {
    pool: MAX
    kernel_size: 2
    stride: 2
  }
}
layers {
  bottom: "pool4"
  top: "conv5_1"
  name: "conv5_1"
  type: CONVOLUTION
  convolution_param {
    num_output: 512
    pad: 1
    kernel_size: 3
    weight_filler {
      type: "gaussian"
      std: 0.01
    }
    bias_filler {
      type: "constant"
      value: 0
    }
  }
}
layers {
  bottom: "conv5_1"
  top: "conv5_1"
  name: "relu5_1"
  type: RELU
}
layers {
  bottom: "conv5_1"
  top: "conv5_2"
  name: "conv5_2"
  type: CONVOLUTION
  convolution_param {
    num_output: 512
    pad: 1
    kernel_size: 3
    weight_filler {
      type: "gaussian"
      std: 0.01
    }
    bias_filler {
      type: "constant"
      value: 0
    }
  }
}
layers {
  bottom: "conv5_2"
  top: "conv5_2"
  name: "relu5_2"
  type: RELU
}
layers {
  bottom: "conv5_2"
  top: "conv5_3"
  name: "conv5_3"
  type: CONVOLUTION
  convolution_param {
    num_output: 512
    pad: 1
    kernel_size: 3
    weight_filler {
      type: "gaussian"
      std: 0.01
    }
    bias_filler {
      type: "constant"
      value: 0
    }
  }
}
layers {
  bottom: "conv5_3"
  top: "conv5_3"
  name: "relu5_3"
  type: RELU
}
layers {
  bottom: "conv5_3"
  top: "pool5"
  name: "pool5"
  type: POOLING
  pooling_param {
    pool: MAX
    kernel_size: 2
    stride: 2
  }
}
layers {
  bottom: "pool5"
  top: "fc6"
  name: "fc6"
  type: INNER_PRODUCT
  inner_product_param {
    num_output: 4096
    weight_filler {
      type: "gaussian"
      std: 0.01
    }
    bias_filler {
      type: "constant"
      value: 0
    }
  }
}
layers {
  bottom: "fc6"
  top: "fc6"
  name: "relu6"
  type: RELU
}
layers {
  bottom: "fc6"
  top: "fc6"
  name: "drop6"
  type: DROPOUT
  dropout_param {
    dropout_ratio: 0.5
  }
}
layers {
  bottom: "fc6"
  top: "fc7"
  name: "fc7"
  type: INNER_PRODUCT
  inner_product_param {
    num_output: 4096
    weight_filler {
      type: "gaussian"
      std: 0.01
    }
    bias_filler {
      type: "constant"
      value: 0
    }
  }
}
layers {
  bottom: "fc7"
  top: "fc7"
  name: "relu7"
  type: RELU
}
layers {
  bottom: "fc7"
  top: "fc7"
  name: "drop7"
  type: DROPOUT
  dropout_param {
    dropout_ratio: 0.5
  }
}
layers {
  bottom: "fc7"
  top: "fc8_2"
  name: "fc8_2"
  type: INNER_PRODUCT
  inner_product_param {
    num_output: 2
    weight_filler {
      type: "gaussian"
      std: 0.01
    }
    bias_filler {
      type: "constant"
      value: 0
    }
  }
}
layers {
  bottom: "fc8_2"
  bottom: "label"
  name: "loss"
  type: SOFTMAX_LOSS
}
layers {
  bottom: "fc8_2"
  bottom: "label"
  top: "accuracy"
  name: "accuracy"
  type: PER_CLASS_ACCURACY
  include {
    phase: TEST
  }
}
state {
  phase: TEST
}
I1109 16:53:31.594218 27576 layer_factory.hpp:78] Creating layer data
I1109 16:53:31.594228 27576 net.cpp:67] Creating Layer data
I1109 16:53:31.594233 27576 net.cpp:356] data -> data
I1109 16:53:31.594240 27576 net.cpp:356] data -> label
I1109 16:53:31.594246 27576 net.cpp:96] Setting up data
I1109 16:53:31.594250 27576 image_data_layer.cpp:34] Opening file /data/ad6813/devCaffe/caffe/data/scrape_o/val.txt
I1109 16:53:31.594583 27576 image_data_layer.cpp:49] A total of 800 images.
I1109 16:53:31.602272 27576 image_data_layer.cpp:78] output data size: 5,3,224,224
I1109 16:53:31.602442 27576 net.cpp:103] Top shape: 5 3 224 224 (752640)
I1109 16:53:31.602450 27576 net.cpp:103] Top shape: 5 1 1 1 (5)
I1109 16:53:31.602454 27576 layer_factory.hpp:78] Creating layer label_data_1_split
I1109 16:53:31.602462 27576 net.cpp:67] Creating Layer label_data_1_split
I1109 16:53:31.602465 27576 net.cpp:394] label_data_1_split <- label
I1109 16:53:31.602471 27576 net.cpp:356] label_data_1_split -> label_data_1_split_0
I1109 16:53:31.602478 27576 net.cpp:356] label_data_1_split -> label_data_1_split_1
I1109 16:53:31.602483 27576 net.cpp:96] Setting up label_data_1_split
I1109 16:53:31.602490 27576 net.cpp:103] Top shape: 5 1 1 1 (5)
I1109 16:53:31.602494 27576 net.cpp:103] Top shape: 5 1 1 1 (5)
I1109 16:53:31.602496 27576 layer_factory.hpp:78] Creating layer conv1_1
I1109 16:53:31.602502 27576 net.cpp:67] Creating Layer conv1_1
I1109 16:53:31.602505 27576 net.cpp:394] conv1_1 <- data
I1109 16:53:31.602515 27576 net.cpp:356] conv1_1 -> conv1_1
I1109 16:53:31.602524 27576 net.cpp:96] Setting up conv1_1
I1109 16:53:31.602761 27576 net.cpp:103] Top shape: 5 64 224 224 (16056320)
I1109 16:53:31.602771 27576 layer_factory.hpp:78] Creating layer relu1_1
I1109 16:53:31.602778 27576 net.cpp:67] Creating Layer relu1_1
I1109 16:53:31.602782 27576 net.cpp:394] relu1_1 <- conv1_1
I1109 16:53:31.602787 27576 net.cpp:345] relu1_1 -> conv1_1 (in-place)
I1109 16:53:31.602792 27576 net.cpp:96] Setting up relu1_1
I1109 16:53:31.602800 27576 net.cpp:103] Top shape: 5 64 224 224 (16056320)
I1109 16:53:31.602804 27576 layer_factory.hpp:78] Creating layer conv1_2
I1109 16:53:31.602809 27576 net.cpp:67] Creating Layer conv1_2
I1109 16:53:31.602828 27576 net.cpp:394] conv1_2 <- conv1_1
I1109 16:53:31.602834 27576 net.cpp:356] conv1_2 -> conv1_2
I1109 16:53:31.602839 27576 net.cpp:96] Setting up conv1_2
I1109 16:53:31.603796 27576 net.cpp:103] Top shape: 5 64 224 224 (16056320)
I1109 16:53:31.603808 27576 layer_factory.hpp:78] Creating layer relu1_2
I1109 16:53:31.603813 27576 net.cpp:67] Creating Layer relu1_2
I1109 16:53:31.603816 27576 net.cpp:394] relu1_2 <- conv1_2
I1109 16:53:31.603821 27576 net.cpp:345] relu1_2 -> conv1_2 (in-place)
I1109 16:53:31.603826 27576 net.cpp:96] Setting up relu1_2
I1109 16:53:31.603828 27576 net.cpp:103] Top shape: 5 64 224 224 (16056320)
I1109 16:53:31.603832 27576 layer_factory.hpp:78] Creating layer pool1
I1109 16:53:31.603835 27576 net.cpp:67] Creating Layer pool1
I1109 16:53:31.603838 27576 net.cpp:394] pool1 <- conv1_2
I1109 16:53:31.603843 27576 net.cpp:356] pool1 -> pool1
I1109 16:53:31.603848 27576 net.cpp:96] Setting up pool1
I1109 16:53:31.603853 27576 net.cpp:103] Top shape: 5 64 112 112 (4014080)
I1109 16:53:31.603858 27576 layer_factory.hpp:78] Creating layer conv2_1
I1109 16:53:31.603863 27576 net.cpp:67] Creating Layer conv2_1
I1109 16:53:31.603865 27576 net.cpp:394] conv2_1 <- pool1
I1109 16:53:31.603870 27576 net.cpp:356] conv2_1 -> conv2_1
I1109 16:53:31.603875 27576 net.cpp:96] Setting up conv2_1
I1109 16:53:31.605680 27576 net.cpp:103] Top shape: 5 128 112 112 (8028160)
I1109 16:53:31.605692 27576 layer_factory.hpp:78] Creating layer relu2_1
I1109 16:53:31.605700 27576 net.cpp:67] Creating Layer relu2_1
I1109 16:53:31.605703 27576 net.cpp:394] relu2_1 <- conv2_1
I1109 16:53:31.605708 27576 net.cpp:345] relu2_1 -> conv2_1 (in-place)
I1109 16:53:31.605712 27576 net.cpp:96] Setting up relu2_1
I1109 16:53:31.605715 27576 net.cpp:103] Top shape: 5 128 112 112 (8028160)
I1109 16:53:31.605718 27576 layer_factory.hpp:78] Creating layer conv2_2
I1109 16:53:31.605725 27576 net.cpp:67] Creating Layer conv2_2
I1109 16:53:31.605727 27576 net.cpp:394] conv2_2 <- conv2_1
I1109 16:53:31.605732 27576 net.cpp:356] conv2_2 -> conv2_2
I1109 16:53:31.605738 27576 net.cpp:96] Setting up conv2_2
I1109 16:53:31.609437 27576 net.cpp:103] Top shape: 5 128 112 112 (8028160)
I1109 16:53:31.609450 27576 layer_factory.hpp:78] Creating layer relu2_2
I1109 16:53:31.609455 27576 net.cpp:67] Creating Layer relu2_2
I1109 16:53:31.609458 27576 net.cpp:394] relu2_2 <- conv2_2
I1109 16:53:31.609463 27576 net.cpp:345] relu2_2 -> conv2_2 (in-place)
I1109 16:53:31.609468 27576 net.cpp:96] Setting up relu2_2
I1109 16:53:31.609472 27576 net.cpp:103] Top shape: 5 128 112 112 (8028160)
I1109 16:53:31.609474 27576 layer_factory.hpp:78] Creating layer pool2
I1109 16:53:31.609479 27576 net.cpp:67] Creating Layer pool2
I1109 16:53:31.609483 27576 net.cpp:394] pool2 <- conv2_2
I1109 16:53:31.609488 27576 net.cpp:356] pool2 -> pool2
I1109 16:53:31.609493 27576 net.cpp:96] Setting up pool2
I1109 16:53:31.609498 27576 net.cpp:103] Top shape: 5 128 56 56 (2007040)
I1109 16:53:31.609500 27576 layer_factory.hpp:78] Creating layer conv3_1
I1109 16:53:31.609506 27576 net.cpp:67] Creating Layer conv3_1
I1109 16:53:31.609509 27576 net.cpp:394] conv3_1 <- pool2
I1109 16:53:31.609515 27576 net.cpp:356] conv3_1 -> conv3_1
I1109 16:53:31.609520 27576 net.cpp:96] Setting up conv3_1
I1109 16:53:31.616866 27576 net.cpp:103] Top shape: 5 256 56 56 (4014080)
I1109 16:53:31.616881 27576 layer_factory.hpp:78] Creating layer relu3_1
I1109 16:53:31.616888 27576 net.cpp:67] Creating Layer relu3_1
I1109 16:53:31.616890 27576 net.cpp:394] relu3_1 <- conv3_1
I1109 16:53:31.616897 27576 net.cpp:345] relu3_1 -> conv3_1 (in-place)
I1109 16:53:31.616902 27576 net.cpp:96] Setting up relu3_1
I1109 16:53:31.616905 27576 net.cpp:103] Top shape: 5 256 56 56 (4014080)
I1109 16:53:31.616909 27576 layer_factory.hpp:78] Creating layer conv3_2
I1109 16:53:31.616919 27576 net.cpp:67] Creating Layer conv3_2
I1109 16:53:31.616922 27576 net.cpp:394] conv3_2 <- conv3_1
I1109 16:53:31.616927 27576 net.cpp:356] conv3_2 -> conv3_2
I1109 16:53:31.616932 27576 net.cpp:96] Setting up conv3_2
I1109 16:53:31.631561 27576 net.cpp:103] Top shape: 5 256 56 56 (4014080)
I1109 16:53:31.631582 27576 layer_factory.hpp:78] Creating layer relu3_2
I1109 16:53:31.631589 27576 net.cpp:67] Creating Layer relu3_2
I1109 16:53:31.631593 27576 net.cpp:394] relu3_2 <- conv3_2
I1109 16:53:31.631599 27576 net.cpp:345] relu3_2 -> conv3_2 (in-place)
I1109 16:53:31.631604 27576 net.cpp:96] Setting up relu3_2
I1109 16:53:31.631608 27576 net.cpp:103] Top shape: 5 256 56 56 (4014080)
I1109 16:53:31.631611 27576 layer_factory.hpp:78] Creating layer conv3_3
I1109 16:53:31.631619 27576 net.cpp:67] Creating Layer conv3_3
I1109 16:53:31.631623 27576 net.cpp:394] conv3_3 <- conv3_2
I1109 16:53:31.631628 27576 net.cpp:356] conv3_3 -> conv3_3
I1109 16:53:31.631633 27576 net.cpp:96] Setting up conv3_3
I1109 16:53:31.645987 27576 net.cpp:103] Top shape: 5 256 56 56 (4014080)
I1109 16:53:31.646003 27576 layer_factory.hpp:78] Creating layer relu3_3
I1109 16:53:31.646021 27576 net.cpp:67] Creating Layer relu3_3
I1109 16:53:31.646024 27576 net.cpp:394] relu3_3 <- conv3_3
I1109 16:53:31.646031 27576 net.cpp:345] relu3_3 -> conv3_3 (in-place)
I1109 16:53:31.646037 27576 net.cpp:96] Setting up relu3_3
I1109 16:53:31.646040 27576 net.cpp:103] Top shape: 5 256 56 56 (4014080)
I1109 16:53:31.646044 27576 layer_factory.hpp:78] Creating layer pool3
I1109 16:53:31.646049 27576 net.cpp:67] Creating Layer pool3
I1109 16:53:31.646051 27576 net.cpp:394] pool3 <- conv3_3
I1109 16:53:31.646056 27576 net.cpp:356] pool3 -> pool3
I1109 16:53:31.646061 27576 net.cpp:96] Setting up pool3
I1109 16:53:31.646067 27576 net.cpp:103] Top shape: 5 256 28 28 (1003520)
I1109 16:53:31.646070 27576 layer_factory.hpp:78] Creating layer conv4_1
I1109 16:53:31.646076 27576 net.cpp:67] Creating Layer conv4_1
I1109 16:53:31.646080 27576 net.cpp:394] conv4_1 <- pool3
I1109 16:53:31.646085 27576 net.cpp:356] conv4_1 -> conv4_1
I1109 16:53:31.646090 27576 net.cpp:96] Setting up conv4_1
I1109 16:53:31.673547 27576 net.cpp:103] Top shape: 5 512 28 28 (2007040)
I1109 16:53:31.673559 27576 layer_factory.hpp:78] Creating layer relu4_1
I1109 16:53:31.673578 27576 net.cpp:67] Creating Layer relu4_1
I1109 16:53:31.673583 27576 net.cpp:394] relu4_1 <- conv4_1
I1109 16:53:31.673588 27576 net.cpp:345] relu4_1 -> conv4_1 (in-place)
I1109 16:53:31.673593 27576 net.cpp:96] Setting up relu4_1
I1109 16:53:31.673595 27576 net.cpp:103] Top shape: 5 512 28 28 (2007040)
I1109 16:53:31.673599 27576 layer_factory.hpp:78] Creating layer conv4_2
I1109 16:53:31.673604 27576 net.cpp:67] Creating Layer conv4_2
I1109 16:53:31.673606 27576 net.cpp:394] conv4_2 <- conv4_1
I1109 16:53:31.673612 27576 net.cpp:356] conv4_2 -> conv4_2
I1109 16:53:31.673617 27576 net.cpp:96] Setting up conv4_2
I1109 16:53:31.728150 27576 net.cpp:103] Top shape: 5 512 28 28 (2007040)
I1109 16:53:31.728191 27576 layer_factory.hpp:78] Creating layer relu4_2
I1109 16:53:31.728199 27576 net.cpp:67] Creating Layer relu4_2
I1109 16:53:31.728205 27576 net.cpp:394] relu4_2 <- conv4_2
I1109 16:53:31.728211 27576 net.cpp:345] relu4_2 -> conv4_2 (in-place)
I1109 16:53:31.728217 27576 net.cpp:96] Setting up relu4_2
I1109 16:53:31.728221 27576 net.cpp:103] Top shape: 5 512 28 28 (2007040)
I1109 16:53:31.728224 27576 layer_factory.hpp:78] Creating layer conv4_3
I1109 16:53:31.728231 27576 net.cpp:67] Creating Layer conv4_3
I1109 16:53:31.728235 27576 net.cpp:394] conv4_3 <- conv4_2
I1109 16:53:31.728240 27576 net.cpp:356] conv4_3 -> conv4_3
I1109 16:53:31.728248 27576 net.cpp:96] Setting up conv4_3
I1109 16:53:31.783002 27576 net.cpp:103] Top shape: 5 512 28 28 (2007040)
I1109 16:53:31.783041 27576 layer_factory.hpp:78] Creating layer relu4_3
I1109 16:53:31.783051 27576 net.cpp:67] Creating Layer relu4_3
I1109 16:53:31.783056 27576 net.cpp:394] relu4_3 <- conv4_3
I1109 16:53:31.783062 27576 net.cpp:345] relu4_3 -> conv4_3 (in-place)
I1109 16:53:31.783079 27576 net.cpp:96] Setting up relu4_3
I1109 16:53:31.783083 27576 net.cpp:103] Top shape: 5 512 28 28 (2007040)
I1109 16:53:31.783087 27576 layer_factory.hpp:78] Creating layer pool4
I1109 16:53:31.783092 27576 net.cpp:67] Creating Layer pool4
I1109 16:53:31.783095 27576 net.cpp:394] pool4 <- conv4_3
I1109 16:53:31.783100 27576 net.cpp:356] pool4 -> pool4
I1109 16:53:31.783107 27576 net.cpp:96] Setting up pool4
I1109 16:53:31.783112 27576 net.cpp:103] Top shape: 5 512 14 14 (501760)
I1109 16:53:31.783114 27576 layer_factory.hpp:78] Creating layer conv5_1
I1109 16:53:31.783120 27576 net.cpp:67] Creating Layer conv5_1
I1109 16:53:31.783123 27576 net.cpp:394] conv5_1 <- pool4
I1109 16:53:31.783129 27576 net.cpp:356] conv5_1 -> conv5_1
I1109 16:53:31.783141 27576 net.cpp:96] Setting up conv5_1
I1109 16:53:31.837651 27576 net.cpp:103] Top shape: 5 512 14 14 (501760)
I1109 16:53:31.837689 27576 layer_factory.hpp:78] Creating layer relu5_1
I1109 16:53:31.837698 27576 net.cpp:67] Creating Layer relu5_1
I1109 16:53:31.837703 27576 net.cpp:394] relu5_1 <- conv5_1
I1109 16:53:31.837709 27576 net.cpp:345] relu5_1 -> conv5_1 (in-place)
I1109 16:53:31.837716 27576 net.cpp:96] Setting up relu5_1
I1109 16:53:31.837720 27576 net.cpp:103] Top shape: 5 512 14 14 (501760)
I1109 16:53:31.837723 27576 layer_factory.hpp:78] Creating layer conv5_2
I1109 16:53:31.837728 27576 net.cpp:67] Creating Layer conv5_2
I1109 16:53:31.837731 27576 net.cpp:394] conv5_2 <- conv5_1
I1109 16:53:31.837736 27576 net.cpp:356] conv5_2 -> conv5_2
I1109 16:53:31.837743 27576 net.cpp:96] Setting up conv5_2
I1109 16:53:31.892385 27576 net.cpp:103] Top shape: 5 512 14 14 (501760)
I1109 16:53:31.892423 27576 layer_factory.hpp:78] Creating layer relu5_2
I1109 16:53:31.892431 27576 net.cpp:67] Creating Layer relu5_2
I1109 16:53:31.892436 27576 net.cpp:394] relu5_2 <- conv5_2
I1109 16:53:31.892442 27576 net.cpp:345] relu5_2 -> conv5_2 (in-place)
I1109 16:53:31.892449 27576 net.cpp:96] Setting up relu5_2
I1109 16:53:31.892452 27576 net.cpp:103] Top shape: 5 512 14 14 (501760)
I1109 16:53:31.892456 27576 layer_factory.hpp:78] Creating layer conv5_3
I1109 16:53:31.892462 27576 net.cpp:67] Creating Layer conv5_3
I1109 16:53:31.892467 27576 net.cpp:394] conv5_3 <- conv5_2
I1109 16:53:31.892472 27576 net.cpp:356] conv5_3 -> conv5_3
I1109 16:53:31.892477 27576 net.cpp:96] Setting up conv5_3
I1109 16:53:31.947146 27576 net.cpp:103] Top shape: 5 512 14 14 (501760)
I1109 16:53:31.947181 27576 layer_factory.hpp:78] Creating layer relu5_3
I1109 16:53:31.947190 27576 net.cpp:67] Creating Layer relu5_3
I1109 16:53:31.947193 27576 net.cpp:394] relu5_3 <- conv5_3
I1109 16:53:31.947199 27576 net.cpp:345] relu5_3 -> conv5_3 (in-place)
I1109 16:53:31.947206 27576 net.cpp:96] Setting up relu5_3
I1109 16:53:31.947209 27576 net.cpp:103] Top shape: 5 512 14 14 (501760)
I1109 16:53:31.947212 27576 layer_factory.hpp:78] Creating layer pool5
I1109 16:53:31.947221 27576 net.cpp:67] Creating Layer pool5
I1109 16:53:31.947224 27576 net.cpp:394] pool5 <- conv5_3
I1109 16:53:31.947232 27576 net.cpp:356] pool5 -> pool5
I1109 16:53:31.947237 27576 net.cpp:96] Setting up pool5
I1109 16:53:31.947243 27576 net.cpp:103] Top shape: 5 512 7 7 (125440)
I1109 16:53:31.947247 27576 layer_factory.hpp:78] Creating layer fc6
I1109 16:53:31.947252 27576 net.cpp:67] Creating Layer fc6
I1109 16:53:31.947255 27576 net.cpp:394] fc6 <- pool5
I1109 16:53:31.947260 27576 net.cpp:356] fc6 -> fc6
I1109 16:53:31.947265 27576 net.cpp:96] Setting up fc6
I1109 16:53:34.313664 27576 net.cpp:103] Top shape: 5 4096 1 1 (20480)
I1109 16:53:34.313709 27576 layer_factory.hpp:78] Creating layer relu6
I1109 16:53:34.313716 27576 net.cpp:67] Creating Layer relu6
I1109 16:53:34.313721 27576 net.cpp:394] relu6 <- fc6
I1109 16:53:34.313729 27576 net.cpp:345] relu6 -> fc6 (in-place)
I1109 16:53:34.313735 27576 net.cpp:96] Setting up relu6
I1109 16:53:34.313740 27576 net.cpp:103] Top shape: 5 4096 1 1 (20480)
I1109 16:53:34.313742 27576 layer_factory.hpp:78] Creating layer drop6
I1109 16:53:34.313750 27576 net.cpp:67] Creating Layer drop6
I1109 16:53:34.313763 27576 net.cpp:394] drop6 <- fc6
I1109 16:53:34.313767 27576 net.cpp:345] drop6 -> fc6 (in-place)
I1109 16:53:34.313772 27576 net.cpp:96] Setting up drop6
I1109 16:53:34.313776 27576 net.cpp:103] Top shape: 5 4096 1 1 (20480)
I1109 16:53:34.313779 27576 layer_factory.hpp:78] Creating layer fc7
I1109 16:53:34.313786 27576 net.cpp:67] Creating Layer fc7
I1109 16:53:34.313788 27576 net.cpp:394] fc7 <- fc6
I1109 16:53:34.313792 27576 net.cpp:356] fc7 -> fc7
I1109 16:53:34.313799 27576 net.cpp:96] Setting up fc7
I1109 16:53:34.702188 27576 net.cpp:103] Top shape: 5 4096 1 1 (20480)
I1109 16:53:34.702214 27576 layer_factory.hpp:78] Creating layer relu7
I1109 16:53:34.702222 27576 net.cpp:67] Creating Layer relu7
I1109 16:53:34.702227 27576 net.cpp:394] relu7 <- fc7
I1109 16:53:34.702235 27576 net.cpp:345] relu7 -> fc7 (in-place)
I1109 16:53:34.702244 27576 net.cpp:96] Setting up relu7
I1109 16:53:34.702247 27576 net.cpp:103] Top shape: 5 4096 1 1 (20480)
I1109 16:53:34.702250 27576 layer_factory.hpp:78] Creating layer drop7
I1109 16:53:34.702256 27576 net.cpp:67] Creating Layer drop7
I1109 16:53:34.702260 27576 net.cpp:394] drop7 <- fc7
I1109 16:53:34.702263 27576 net.cpp:345] drop7 -> fc7 (in-place)
I1109 16:53:34.702271 27576 net.cpp:96] Setting up drop7
I1109 16:53:34.702280 27576 net.cpp:103] Top shape: 5 4096 1 1 (20480)
I1109 16:53:34.702282 27576 layer_factory.hpp:78] Creating layer fc8_2
I1109 16:53:34.702288 27576 net.cpp:67] Creating Layer fc8_2
I1109 16:53:34.702291 27576 net.cpp:394] fc8_2 <- fc7
I1109 16:53:34.702296 27576 net.cpp:356] fc8_2 -> fc8_2
I1109 16:53:34.702302 27576 net.cpp:96] Setting up fc8_2
I1109 16:53:34.702524 27576 net.cpp:103] Top shape: 5 2 1 1 (10)
I1109 16:53:34.702533 27576 layer_factory.hpp:78] Creating layer fc8_2_fc8_2_0_split
I1109 16:53:34.702538 27576 net.cpp:67] Creating Layer fc8_2_fc8_2_0_split
I1109 16:53:34.702543 27576 net.cpp:394] fc8_2_fc8_2_0_split <- fc8_2
I1109 16:53:34.702546 27576 net.cpp:356] fc8_2_fc8_2_0_split -> fc8_2_fc8_2_0_split_0
I1109 16:53:34.702553 27576 net.cpp:356] fc8_2_fc8_2_0_split -> fc8_2_fc8_2_0_split_1
I1109 16:53:34.702558 27576 net.cpp:96] Setting up fc8_2_fc8_2_0_split
I1109 16:53:34.702564 27576 net.cpp:103] Top shape: 5 2 1 1 (10)
I1109 16:53:34.702568 27576 net.cpp:103] Top shape: 5 2 1 1 (10)
I1109 16:53:34.702570 27576 layer_factory.hpp:78] Creating layer loss
I1109 16:53:34.702576 27576 net.cpp:67] Creating Layer loss
I1109 16:53:34.702580 27576 net.cpp:394] loss <- fc8_2_fc8_2_0_split_0
I1109 16:53:34.702584 27576 net.cpp:394] loss <- label_data_1_split_0
I1109 16:53:34.702589 27576 net.cpp:356] loss -> (automatic)
I1109 16:53:34.702600 27576 net.cpp:96] Setting up loss
I1109 16:53:34.702605 27576 net.cpp:103] Top shape: 1 1 1 1 (1)
I1109 16:53:34.702608 27576 net.cpp:109]     with loss weight 1
I1109 16:53:34.702618 27576 layer_factory.hpp:78] Creating layer accuracy
I1109 16:53:34.702625 27576 net.cpp:67] Creating Layer accuracy
I1109 16:53:34.702630 27576 net.cpp:394] accuracy <- fc8_2_fc8_2_0_split_1
I1109 16:53:34.702633 27576 net.cpp:394] accuracy <- label_data_1_split_1
I1109 16:53:34.702639 27576 net.cpp:356] accuracy -> accuracy
I1109 16:53:34.702644 27576 net.cpp:96] Setting up accuracy
I1109 16:53:34.702652 27576 net.cpp:103] Top shape: 1 1 1 4 (4)
I1109 16:53:34.702656 27576 net.cpp:172] accuracy does not need backward computation.
I1109 16:53:34.702658 27576 net.cpp:170] loss needs backward computation.
I1109 16:53:34.702661 27576 net.cpp:170] fc8_2_fc8_2_0_split needs backward computation.
I1109 16:53:34.702664 27576 net.cpp:170] fc8_2 needs backward computation.
I1109 16:53:34.702667 27576 net.cpp:170] drop7 needs backward computation.
…
