…
I1106 05:34:46.971194  6728 net.cpp:275] The NetState phase (0) differed from the phase (1) specified by a rule in layer accuracy
I1106 05:34:46.971382  6728 net.cpp:39] Initializing net from parameters: 
name: "small"
layers {
  top: "data"
  top: "label"
  name: "data"
  type: IMAGE_DATA
  image_data_param {
    source: "/data/ad6813/devCaffe/caffe/data/inadcl/train.txt"
    batch_size: 32
    new_height: 256
    new_width: 256
  }
  include {
    phase: TRAIN
  }
  transform_param {
    mirror: true
    crop_size: 224
    mean_value: 86.752
    mean_value: 101.46
    mean_value: 104.6
  }
}
layers {
  bottom: "data"
  top: "conv1_1"
  name: "conv1_1"
  type: CONVOLUTION
  convolution_param {
    num_output: 64
    pad: 1
    kernel_size: 3
    weight_filler {
      type: "gaussian"
      std: 0.01
    }
    bias_filler {
      type: "constant"
      value: 0
    }
  }
}
layers {
  bottom: "conv1_1"
  top: "conv1_1"
  name: "relu1_1"
  type: RELU
}
layers {
  bottom: "conv1_1"
  top: "conv1_2"
  name: "conv1_2"
  type: CONVOLUTION
  convolution_param {
    num_output: 64
    pad: 1
    kernel_size: 3
    weight_filler {
      type: "gaussian"
      std: 0.01
    }
    bias_filler {
      type: "constant"
      value: 0
    }
  }
}
layers {
  bottom: "conv1_2"
  top: "conv1_2"
  name: "relu1_2"
  type: RELU
}
layers {
  bottom: "conv1_2"
  top: "pool1"
  name: "pool1"
  type: POOLING
  pooling_param {
    pool: MAX
    kernel_size: 2
    stride: 2
  }
}
layers {
  bottom: "pool1"
  top: "conv2_1"
  name: "conv2_1"
  type: CONVOLUTION
  convolution_param {
    num_output: 128
    pad: 1
    kernel_size: 3
    weight_filler {
      type: "gaussian"
      std: 0.01
    }
    bias_filler {
      type: "constant"
      value: 0
    }
  }
}
layers {
  bottom: "conv2_1"
  top: "conv2_1"
  name: "relu2_1"
  type: RELU
}
layers {
  bottom: "conv2_1"
  top: "conv2_2"
  name: "conv2_2"
  type: CONVOLUTION
  convolution_param {
    num_output: 128
    pad: 1
    kernel_size: 3
    weight_filler {
      type: "gaussian"
      std: 0.01
    }
    bias_filler {
      type: "constant"
      value: 0
    }
  }
}
layers {
  bottom: "conv2_2"
  top: "conv2_2"
  name: "relu2_2"
  type: RELU
}
layers {
  bottom: "conv2_2"
  top: "pool2"
  name: "pool2"
  type: POOLING
  pooling_param {
    pool: MAX
    kernel_size: 2
    stride: 2
  }
}
layers {
  bottom: "pool2"
  top: "conv3_1"
  name: "conv3_1"
  type: CONVOLUTION
  convolution_param {
    num_output: 256
    pad: 1
    kernel_size: 3
    weight_filler {
      type: "gaussian"
      std: 0.01
    }
    bias_filler {
      type: "constant"
      value: 0
    }
  }
}
layers {
  bottom: "conv3_1"
  top: "conv3_1"
  name: "relu3_1"
  type: RELU
}
layers {
  bottom: "conv3_1"
  top: "conv3_2"
  name: "conv3_2"
  type: CONVOLUTION
  convolution_param {
    num_output: 256
    pad: 1
    kernel_size: 3
    weight_filler {
      type: "gaussian"
      std: 0.01
    }
    bias_filler {
      type: "constant"
      value: 0
    }
  }
}
layers {
  bottom: "conv3_2"
  top: "conv3_2"
  name: "relu3_2"
  type: RELU
}
layers {
  bottom: "conv3_2"
  top: "conv3_3"
  name: "conv3_3"
  type: CONVOLUTION
  convolution_param {
    num_output: 256
    pad: 1
    kernel_size: 3
    weight_filler {
      type: "gaussian"
      std: 0.01
    }
    bias_filler {
      type: "constant"
      value: 0
    }
  }
}
layers {
  bottom: "conv3_3"
  top: "conv3_3"
  name: "relu3_3"
  type: RELU
}
layers {
  bottom: "conv3_3"
  top: "pool3"
  name: "pool3"
  type: POOLING
  pooling_param {
    pool: MAX
    kernel_size: 2
    stride: 2
  }
}
layers {
  bottom: "pool3"
  top: "conv4_1"
  name: "conv4_1"
  type: CONVOLUTION
  convolution_param {
    num_output: 512
    pad: 1
    kernel_size: 3
    weight_filler {
      type: "gaussian"
      std: 0.01
    }
    bias_filler {
      type: "constant"
      value: 0
    }
  }
}
layers {
  bottom: "conv4_1"
  top: "conv4_1"
  name: "relu4_1"
  type: RELU
}
layers {
  bottom: "conv4_1"
  top: "conv4_2"
  name: "conv4_2"
  type: CONVOLUTION
  convolution_param {
    num_output: 512
    pad: 1
    kernel_size: 3
    weight_filler {
      type: "gaussian"
      std: 0.01
    }
    bias_filler {
      type: "constant"
      value: 0
    }
  }
}
layers {
  bottom: "conv4_2"
  top: "conv4_2"
  name: "relu4_2"
  type: RELU
}
layers {
  bottom: "conv4_2"
  top: "conv4_3"
  name: "conv4_3"
  type: CONVOLUTION
  convolution_param {
    num_output: 512
    pad: 1
    kernel_size: 3
    weight_filler {
      type: "gaussian"
      std: 0.01
    }
    bias_filler {
      type: "constant"
      value: 0
    }
  }
}
layers {
  bottom: "conv4_3"
  top: "conv4_3"
  name: "relu4_3"
  type: RELU
}
layers {
  bottom: "conv4_3"
  top: "pool4"
  name: "pool4"
  type: POOLING
  pooling_param {
    pool: MAX
    kernel_size: 2
    stride: 2
  }
}
layers {
  bottom: "pool4"
  top: "conv5_1"
  name: "conv5_1"
  type: CONVOLUTION
  convolution_param {
    num_output: 512
    pad: 1
    kernel_size: 3
    weight_filler {
      type: "gaussian"
      std: 0.01
    }
    bias_filler {
      type: "constant"
      value: 0
    }
  }
}
layers {
  bottom: "conv5_1"
  top: "conv5_1"
  name: "relu5_1"
  type: RELU
}
layers {
  bottom: "conv5_1"
  top: "conv5_2"
  name: "conv5_2"
  type: CONVOLUTION
  convolution_param {
    num_output: 512
    pad: 1
    kernel_size: 3
    weight_filler {
      type: "gaussian"
      std: 0.01
    }
    bias_filler {
      type: "constant"
      value: 0
    }
  }
}
layers {
  bottom: "conv5_2"
  top: "conv5_2"
  name: "relu5_2"
  type: RELU
}
layers {
  bottom: "conv5_2"
  top: "conv5_3"
  name: "conv5_3"
  type: CONVOLUTION
  convolution_param {
    num_output: 512
    pad: 1
    kernel_size: 3
    weight_filler {
      type: "gaussian"
      std: 0.01
    }
    bias_filler {
      type: "constant"
      value: 0
    }
  }
}
layers {
  bottom: "conv5_3"
  top: "conv5_3"
  name: "relu5_3"
  type: RELU
}
layers {
  bottom: "conv5_3"
  top: "pool5"
  name: "pool5"
  type: POOLING
  pooling_param {
    pool: MAX
    kernel_size: 2
    stride: 2
  }
}
layers {
  bottom: "pool5"
  top: "fc6"
  name: "fc6"
  type: INNER_PRODUCT
  inner_product_param {
    num_output: 4096
    weight_filler {
      type: "gaussian"
      std: 0.01
    }
    bias_filler {
      type: "constant"
      value: 0
    }
  }
}
layers {
  bottom: "fc6"
  top: "fc6"
  name: "relu6"
  type: RELU
}
layers {
  bottom: "fc6"
  top: "fc6"
  name: "drop6"
  type: DROPOUT
  dropout_param {
    dropout_ratio: 0.5
  }
}
layers {
  bottom: "fc6"
  top: "fc7"
  name: "fc7"
  type: INNER_PRODUCT
  inner_product_param {
    num_output: 4096
    weight_filler {
      type: "gaussian"
      std: 0.01
    }
    bias_filler {
      type: "constant"
      value: 0
    }
  }
}
layers {
  bottom: "fc7"
  top: "fc7"
  name: "relu7"
  type: RELU
}
layers {
  bottom: "fc7"
  top: "fc7"
  name: "drop7"
  type: DROPOUT
  dropout_param {
    dropout_ratio: 0.5
  }
}
layers {
  bottom: "fc7"
  top: "fc8_2"
  name: "fc8_2"
  type: INNER_PRODUCT
  inner_product_param {
    num_output: 2
    weight_filler {
      type: "gaussian"
      std: 0.01
    }
    bias_filler {
      type: "constant"
      value: 0
    }
  }
}
layers {
  bottom: "fc8_2"
  bottom: "label"
  name: "loss"
  type: SOFTMAX_LOSS
}
state {
  phase: TRAIN
}
I1106 05:34:46.971515  6728 layer_factory.hpp:78] Creating layer data
I1106 05:34:46.971535  6728 net.cpp:67] Creating Layer data
I1106 05:34:46.971542  6728 net.cpp:356] data -> data
I1106 05:34:46.971557  6728 net.cpp:356] data -> label
I1106 05:34:46.971571  6728 net.cpp:96] Setting up data
I1106 05:34:46.971578  6728 image_data_layer.cpp:34] Opening file /data/ad6813/devCaffe/caffe/data/inadcl/train.txt
I1106 05:34:46.974982  6728 image_data_layer.cpp:49] A total of 9113 images.
I1106 05:34:46.980716  6728 image_data_layer.cpp:78] output data size: 32,3,224,224
I1106 05:34:46.983549  6728 net.cpp:103] Top shape: 32 3 224 224 (4816896)
I1106 05:34:46.983575  6728 net.cpp:103] Top shape: 32 1 1 1 (32)
I1106 05:34:46.983580  6728 layer_factory.hpp:78] Creating layer conv1_1
I1106 05:34:46.983597  6728 net.cpp:67] Creating Layer conv1_1
I1106 05:34:46.983600  6728 net.cpp:394] conv1_1 <- data
I1106 05:34:46.983614  6728 net.cpp:356] conv1_1 -> conv1_1
I1106 05:34:46.983624  6728 net.cpp:96] Setting up conv1_1
I1106 05:34:46.998751  6728 net.cpp:103] Top shape: 32 64 224 224 (102760448)
I1106 05:34:46.998785  6728 layer_factory.hpp:78] Creating layer relu1_1
I1106 05:34:46.998800  6728 net.cpp:67] Creating Layer relu1_1
I1106 05:34:46.998805  6728 net.cpp:394] relu1_1 <- conv1_1
I1106 05:34:46.998812  6728 net.cpp:345] relu1_1 -> conv1_1 (in-place)
I1106 05:34:46.998821  6728 net.cpp:96] Setting up relu1_1
I1106 05:34:46.998837  6728 net.cpp:103] Top shape: 32 64 224 224 (102760448)
I1106 05:34:46.998842  6728 layer_factory.hpp:78] Creating layer conv1_2
I1106 05:34:46.998852  6728 net.cpp:67] Creating Layer conv1_2
I1106 05:34:46.998859  6728 net.cpp:394] conv1_2 <- conv1_1
I1106 05:34:46.998864  6728 net.cpp:356] conv1_2 -> conv1_2
I1106 05:34:46.998870  6728 net.cpp:96] Setting up conv1_2
I1106 05:34:46.999958  6728 net.cpp:103] Top shape: 32 64 224 224 (102760448)
I1106 05:34:46.999971  6728 layer_factory.hpp:78] Creating layer relu1_2
I1106 05:34:46.999979  6728 net.cpp:67] Creating Layer relu1_2
I1106 05:34:46.999982  6728 net.cpp:394] relu1_2 <- conv1_2
I1106 05:34:46.999987  6728 net.cpp:345] relu1_2 -> conv1_2 (in-place)
I1106 05:34:46.999992  6728 net.cpp:96] Setting up relu1_2
I1106 05:34:46.999997  6728 net.cpp:103] Top shape: 32 64 224 224 (102760448)
I1106 05:34:47.000000  6728 layer_factory.hpp:78] Creating layer pool1
I1106 05:34:47.000010  6728 net.cpp:67] Creating Layer pool1
I1106 05:34:47.000012  6728 net.cpp:394] pool1 <- conv1_2
I1106 05:34:47.000016  6728 net.cpp:356] pool1 -> pool1
I1106 05:34:47.000022  6728 net.cpp:96] Setting up pool1
I1106 05:34:47.000038  6728 net.cpp:103] Top shape: 32 64 112 112 (25690112)
I1106 05:34:47.000046  6728 layer_factory.hpp:78] Creating layer conv2_1
I1106 05:34:47.000052  6728 net.cpp:67] Creating Layer conv2_1
I1106 05:34:47.000056  6728 net.cpp:394] conv2_1 <- pool1
I1106 05:34:47.000061  6728 net.cpp:356] conv2_1 -> conv2_1
I1106 05:34:47.000073  6728 net.cpp:96] Setting up conv2_1
I1106 05:34:47.001993  6728 net.cpp:103] Top shape: 32 128 112 112 (51380224)
I1106 05:34:47.002007  6728 layer_factory.hpp:78] Creating layer relu2_1
I1106 05:34:47.002014  6728 net.cpp:67] Creating Layer relu2_1
I1106 05:34:47.002017  6728 net.cpp:394] relu2_1 <- conv2_1
I1106 05:34:47.002022  6728 net.cpp:345] relu2_1 -> conv2_1 (in-place)
I1106 05:34:47.002027  6728 net.cpp:96] Setting up relu2_1
I1106 05:34:47.002032  6728 net.cpp:103] Top shape: 32 128 112 112 (51380224)
I1106 05:34:47.002037  6728 layer_factory.hpp:78] Creating layer conv2_2
I1106 05:34:47.002045  6728 net.cpp:67] Creating Layer conv2_2
I1106 05:34:47.002048  6728 net.cpp:394] conv2_2 <- conv2_1
I1106 05:34:47.002053  6728 net.cpp:356] conv2_2 -> conv2_2
I1106 05:34:47.002058  6728 net.cpp:96] Setting up conv2_2
I1106 05:34:47.005828  6728 net.cpp:103] Top shape: 32 128 112 112 (51380224)
I1106 05:34:47.005841  6728 layer_factory.hpp:78] Creating layer relu2_2
I1106 05:34:47.005847  6728 net.cpp:67] Creating Layer relu2_2
I1106 05:34:47.005851  6728 net.cpp:394] relu2_2 <- conv2_2
I1106 05:34:47.005854  6728 net.cpp:345] relu2_2 -> conv2_2 (in-place)
I1106 05:34:47.005859  6728 net.cpp:96] Setting up relu2_2
I1106 05:34:47.005864  6728 net.cpp:103] Top shape: 32 128 112 112 (51380224)
I1106 05:34:47.005868  6728 layer_factory.hpp:78] Creating layer pool2
I1106 05:34:47.005882  6728 net.cpp:67] Creating Layer pool2
I1106 05:34:47.005885  6728 net.cpp:394] pool2 <- conv2_2
I1106 05:34:47.005890  6728 net.cpp:356] pool2 -> pool2
I1106 05:34:47.005894  6728 net.cpp:96] Setting up pool2
I1106 05:34:47.005900  6728 net.cpp:103] Top shape: 32 128 56 56 (12845056)
I1106 05:34:47.005904  6728 layer_factory.hpp:78] Creating layer conv3_1
I1106 05:34:47.005909  6728 net.cpp:67] Creating Layer conv3_1
I1106 05:34:47.005913  6728 net.cpp:394] conv3_1 <- pool2
I1106 05:34:47.005918  6728 net.cpp:356] conv3_1 -> conv3_1
I1106 05:34:47.005924  6728 net.cpp:96] Setting up conv3_1
I1106 05:34:47.013358  6728 net.cpp:103] Top shape: 32 256 56 56 (25690112)
I1106 05:34:47.013373  6728 layer_factory.hpp:78] Creating layer relu3_1
I1106 05:34:47.013378  6728 net.cpp:67] Creating Layer relu3_1
I1106 05:34:47.013382  6728 net.cpp:394] relu3_1 <- conv3_1
I1106 05:34:47.013388  6728 net.cpp:345] relu3_1 -> conv3_1 (in-place)
I1106 05:34:47.013394  6728 net.cpp:96] Setting up relu3_1
I1106 05:34:47.013399  6728 net.cpp:103] Top shape: 32 256 56 56 (25690112)
I1106 05:34:47.013402  6728 layer_factory.hpp:78] Creating layer conv3_2
I1106 05:34:47.013407  6728 net.cpp:67] Creating Layer conv3_2
I1106 05:34:47.013411  6728 net.cpp:394] conv3_2 <- conv3_1
I1106 05:34:47.013417  6728 net.cpp:356] conv3_2 -> conv3_2
I1106 05:34:47.013422  6728 net.cpp:96] Setting up conv3_2
I1106 05:34:47.028321  6728 net.cpp:103] Top shape: 32 256 56 56 (25690112)
I1106 05:34:47.028342  6728 layer_factory.hpp:78] Creating layer relu3_2
I1106 05:34:47.028349  6728 net.cpp:67] Creating Layer relu3_2
I1106 05:34:47.028352  6728 net.cpp:394] relu3_2 <- conv3_2
I1106 05:34:47.028359  6728 net.cpp:345] relu3_2 -> conv3_2 (in-place)
I1106 05:34:47.028365  6728 net.cpp:96] Setting up relu3_2
I1106 05:34:47.028372  6728 net.cpp:103] Top shape: 32 256 56 56 (25690112)
I1106 05:34:47.028374  6728 layer_factory.hpp:78] Creating layer conv3_3
I1106 05:34:47.028379  6728 net.cpp:67] Creating Layer conv3_3
I1106 05:34:47.028383  6728 net.cpp:394] conv3_3 <- conv3_2
I1106 05:34:47.028389  6728 net.cpp:356] conv3_3 -> conv3_3
I1106 05:34:47.028395  6728 net.cpp:96] Setting up conv3_3
I1106 05:34:47.043170  6728 net.cpp:103] Top shape: 32 256 56 56 (25690112)
I1106 05:34:47.043190  6728 layer_factory.hpp:78] Creating layer relu3_3
I1106 05:34:47.043200  6728 net.cpp:67] Creating Layer relu3_3
I1106 05:34:47.043205  6728 net.cpp:394] relu3_3 <- conv3_3
I1106 05:34:47.043210  6728 net.cpp:345] relu3_3 -> conv3_3 (in-place)
I1106 05:34:47.043215  6728 net.cpp:96] Setting up relu3_3
I1106 05:34:47.043220  6728 net.cpp:103] Top shape: 32 256 56 56 (25690112)
I1106 05:34:47.043223  6728 layer_factory.hpp:78] Creating layer pool3
I1106 05:34:47.043229  6728 net.cpp:67] Creating Layer pool3
I1106 05:34:47.043232  6728 net.cpp:394] pool3 <- conv3_3
I1106 05:34:47.043238  6728 net.cpp:356] pool3 -> pool3
I1106 05:34:47.043244  6728 net.cpp:96] Setting up pool3
I1106 05:34:47.043251  6728 net.cpp:103] Top shape: 32 256 28 28 (6422528)
I1106 05:34:47.043256  6728 layer_factory.hpp:78] Creating layer conv4_1
I1106 05:34:47.043262  6728 net.cpp:67] Creating Layer conv4_1
I1106 05:34:47.043265  6728 net.cpp:394] conv4_1 <- pool3
I1106 05:34:47.043269  6728 net.cpp:356] conv4_1 -> conv4_1
I1106 05:34:47.043274  6728 net.cpp:96] Setting up conv4_1
I1106 05:34:47.072396  6728 net.cpp:103] Top shape: 32 512 28 28 (12845056)
I1106 05:34:47.072417  6728 layer_factory.hpp:78] Creating layer relu4_1
I1106 05:34:47.072427  6728 net.cpp:67] Creating Layer relu4_1
I1106 05:34:47.072430  6728 net.cpp:394] relu4_1 <- conv4_1
I1106 05:34:47.072438  6728 net.cpp:345] relu4_1 -> conv4_1 (in-place)
I1106 05:34:47.072445  6728 net.cpp:96] Setting up relu4_1
I1106 05:34:47.072450  6728 net.cpp:103] Top shape: 32 512 28 28 (12845056)
I1106 05:34:47.072454  6728 layer_factory.hpp:78] Creating layer conv4_2
I1106 05:34:47.072460  6728 net.cpp:67] Creating Layer conv4_2
I1106 05:34:47.072463  6728 net.cpp:394] conv4_2 <- conv4_1
I1106 05:34:47.072476  6728 net.cpp:356] conv4_2 -> conv4_2
I1106 05:34:47.072482  6728 net.cpp:96] Setting up conv4_2
I1106 05:34:47.130326  6728 net.cpp:103] Top shape: 32 512 28 28 (12845056)
I1106 05:34:47.130354  6728 layer_factory.hpp:78] Creating layer relu4_2
I1106 05:34:47.130363  6728 net.cpp:67] Creating Layer relu4_2
I1106 05:34:47.130368  6728 net.cpp:394] relu4_2 <- conv4_2
I1106 05:34:47.130374  6728 net.cpp:345] relu4_2 -> conv4_2 (in-place)
I1106 05:34:47.130381  6728 net.cpp:96] Setting up relu4_2
I1106 05:34:47.130388  6728 net.cpp:103] Top shape: 32 512 28 28 (12845056)
I1106 05:34:47.130390  6728 layer_factory.hpp:78] Creating layer conv4_3
I1106 05:34:47.130398  6728 net.cpp:67] Creating Layer conv4_3
I1106 05:34:47.130401  6728 net.cpp:394] conv4_3 <- conv4_2
I1106 05:34:47.130406  6728 net.cpp:356] conv4_3 -> conv4_3
I1106 05:34:47.130411  6728 net.cpp:96] Setting up conv4_3
I1106 05:34:47.187847  6728 net.cpp:103] Top shape: 32 512 28 28 (12845056)
I1106 05:34:47.187872  6728 layer_factory.hpp:78] Creating layer relu4_3
I1106 05:34:47.187880  6728 net.cpp:67] Creating Layer relu4_3
I1106 05:34:47.187885  6728 net.cpp:394] relu4_3 <- conv4_3
I1106 05:34:47.187892  6728 net.cpp:345] relu4_3 -> conv4_3 (in-place)
I1106 05:34:47.187898  6728 net.cpp:96] Setting up relu4_3
I1106 05:34:47.187904  6728 net.cpp:103] Top shape: 32 512 28 28 (12845056)
I1106 05:34:47.187907  6728 layer_factory.hpp:78] Creating layer pool4
I1106 05:34:47.187914  6728 net.cpp:67] Creating Layer pool4
I1106 05:34:47.187918  6728 net.cpp:394] pool4 <- conv4_3
I1106 05:34:47.187922  6728 net.cpp:356] pool4 -> pool4
I1106 05:34:47.187928  6728 net.cpp:96] Setting up pool4
I1106 05:34:47.187935  6728 net.cpp:103] Top shape: 32 512 14 14 (3211264)
I1106 05:34:47.187939  6728 layer_factory.hpp:78] Creating layer conv5_1
I1106 05:34:47.187947  6728 net.cpp:67] Creating Layer conv5_1
I1106 05:34:47.187949  6728 net.cpp:394] conv5_1 <- pool4
I1106 05:34:47.187953  6728 net.cpp:356] conv5_1 -> conv5_1
I1106 05:34:47.187961  6728 net.cpp:96] Setting up conv5_1
I1106 05:34:47.245798  6728 net.cpp:103] Top shape: 32 512 14 14 (3211264)
I1106 05:34:47.245823  6728 layer_factory.hpp:78] Creating layer relu5_1
I1106 05:34:47.245831  6728 net.cpp:67] Creating Layer relu5_1
I1106 05:34:47.245836  6728 net.cpp:394] relu5_1 <- conv5_1
I1106 05:34:47.245843  6728 net.cpp:345] relu5_1 -> conv5_1 (in-place)
I1106 05:34:47.245851  6728 net.cpp:96] Setting up relu5_1
I1106 05:34:47.245857  6728 net.cpp:103] Top shape: 32 512 14 14 (3211264)
I1106 05:34:47.245859  6728 layer_factory.hpp:78] Creating layer conv5_2
I1106 05:34:47.245865  6728 net.cpp:67] Creating Layer conv5_2
I1106 05:34:47.245868  6728 net.cpp:394] conv5_2 <- conv5_1
I1106 05:34:47.245874  6728 net.cpp:356] conv5_2 -> conv5_2
I1106 05:34:47.245880  6728 net.cpp:96] Setting up conv5_2
I1106 05:34:47.303268  6728 net.cpp:103] Top shape: 32 512 14 14 (3211264)
I1106 05:34:47.303293  6728 layer_factory.hpp:78] Creating layer relu5_2
I1106 05:34:47.303302  6728 net.cpp:67] Creating Layer relu5_2
I1106 05:34:47.303306  6728 net.cpp:394] relu5_2 <- conv5_2
I1106 05:34:47.303313  6728 net.cpp:345] relu5_2 -> conv5_2 (in-place)
I1106 05:34:47.303319  6728 net.cpp:96] Setting up relu5_2
I1106 05:34:47.303325  6728 net.cpp:103] Top shape: 32 512 14 14 (3211264)
I1106 05:34:47.303328  6728 layer_factory.hpp:78] Creating layer conv5_3
I1106 05:34:47.303335  6728 net.cpp:67] Creating Layer conv5_3
I1106 05:34:47.303339  6728 net.cpp:394] conv5_3 <- conv5_2
I1106 05:34:47.303344  6728 net.cpp:356] conv5_3 -> conv5_3
I1106 05:34:47.303349  6728 net.cpp:96] Setting up conv5_3
I1106 05:34:47.360857  6728 net.cpp:103] Top shape: 32 512 14 14 (3211264)
I1106 05:34:47.360882  6728 layer_factory.hpp:78] Creating layer relu5_3
I1106 05:34:47.360889  6728 net.cpp:67] Creating Layer relu5_3
I1106 05:34:47.360894  6728 net.cpp:394] relu5_3 <- conv5_3
I1106 05:34:47.360901  6728 net.cpp:345] relu5_3 -> conv5_3 (in-place)
I1106 05:34:47.360908  6728 net.cpp:96] Setting up relu5_3
I1106 05:34:47.360913  6728 net.cpp:103] Top shape: 32 512 14 14 (3211264)
I1106 05:34:47.360926  6728 layer_factory.hpp:78] Creating layer pool5
I1106 05:34:47.360932  6728 net.cpp:67] Creating Layer pool5
I1106 05:34:47.360935  6728 net.cpp:394] pool5 <- conv5_3
I1106 05:34:47.360940  6728 net.cpp:356] pool5 -> pool5
I1106 05:34:47.360945  6728 net.cpp:96] Setting up pool5
I1106 05:34:47.360954  6728 net.cpp:103] Top shape: 32 512 7 7 (802816)
I1106 05:34:47.360957  6728 layer_factory.hpp:78] Creating layer fc6
I1106 05:34:47.360971  6728 net.cpp:67] Creating Layer fc6
I1106 05:34:47.360975  6728 net.cpp:394] fc6 <- pool5
I1106 05:34:47.360981  6728 net.cpp:356] fc6 -> fc6
I1106 05:34:47.360987  6728 net.cpp:96] Setting up fc6
I1106 05:34:49.796303  6728 net.cpp:103] Top shape: 32 4096 1 1 (131072)
I1106 05:34:49.796332  6728 layer_factory.hpp:78] Creating layer relu6
I1106 05:34:49.796341  6728 net.cpp:67] Creating Layer relu6
I1106 05:34:49.796347  6728 net.cpp:394] relu6 <- fc6
I1106 05:34:49.796356  6728 net.cpp:345] relu6 -> fc6 (in-place)
I1106 05:34:49.796363  6728 net.cpp:96] Setting up relu6
I1106 05:34:49.796378  6728 net.cpp:103] Top shape: 32 4096 1 1 (131072)
I1106 05:34:49.796383  6728 layer_factory.hpp:78] Creating layer drop6
I1106 05:34:49.796392  6728 net.cpp:67] Creating Layer drop6
I1106 05:34:49.796398  6728 net.cpp:394] drop6 <- fc6
I1106 05:34:49.796402  6728 net.cpp:345] drop6 -> fc6 (in-place)
I1106 05:34:49.796407  6728 net.cpp:96] Setting up drop6
I1106 05:34:49.796412  6728 net.cpp:103] Top shape: 32 4096 1 1 (131072)
I1106 05:34:49.796416  6728 layer_factory.hpp:78] Creating layer fc7
I1106 05:34:49.796422  6728 net.cpp:67] Creating Layer fc7
I1106 05:34:49.796427  6728 net.cpp:394] fc7 <- fc6
I1106 05:34:49.796442  6728 net.cpp:356] fc7 -> fc7
I1106 05:34:49.796449  6728 net.cpp:96] Setting up fc7
I1106 05:34:50.203009  6728 net.cpp:103] Top shape: 32 4096 1 1 (131072)
I1106 05:34:50.203039  6728 layer_factory.hpp:78] Creating layer relu7
I1106 05:34:50.203049  6728 net.cpp:67] Creating Layer relu7
I1106 05:34:50.203054  6728 net.cpp:394] relu7 <- fc7
I1106 05:34:50.203063  6728 net.cpp:345] relu7 -> fc7 (in-place)
I1106 05:34:50.203069  6728 net.cpp:96] Setting up relu7
I1106 05:34:50.203083  6728 net.cpp:103] Top shape: 32 4096 1 1 (131072)
I1106 05:34:50.203088  6728 layer_factory.hpp:78] Creating layer drop7
I1106 05:34:50.203095  6728 net.cpp:67] Creating Layer drop7
I1106 05:34:50.203099  6728 net.cpp:394] drop7 <- fc7
I1106 05:34:50.203102  6728 net.cpp:345] drop7 -> fc7 (in-place)
I1106 05:34:50.203107  6728 net.cpp:96] Setting up drop7
I1106 05:34:50.203111  6728 net.cpp:103] Top shape: 32 4096 1 1 (131072)
I1106 05:34:50.203114  6728 layer_factory.hpp:78] Creating layer fc8_2
I1106 05:34:50.203119  6728 net.cpp:67] Creating Layer fc8_2
I1106 05:34:50.203122  6728 net.cpp:394] fc8_2 <- fc7
I1106 05:34:50.203129  6728 net.cpp:356] fc8_2 -> fc8_2
I1106 05:34:50.203138  6728 net.cpp:96] Setting up fc8_2
I1106 05:34:50.203361  6728 net.cpp:103] Top shape: 32 2 1 1 (64)
I1106 05:34:50.203368  6728 layer_factory.hpp:78] Creating layer loss
I1106 05:34:50.203378  6728 net.cpp:67] Creating Layer loss
I1106 05:34:50.203383  6728 net.cpp:394] loss <- fc8_2
I1106 05:34:50.203387  6728 net.cpp:394] loss <- label
I1106 05:34:50.203393  6728 net.cpp:356] loss -> (automatic)
I1106 05:34:50.203398  6728 net.cpp:96] Setting up loss
I1106 05:34:50.203407  6728 net.cpp:103] Top shape: 1 1 1 1 (1)
I1106 05:34:50.203410  6728 net.cpp:109]     with loss weight 1
I1106 05:34:50.203446  6728 net.cpp:170] loss needs backward computation.
I1106 05:34:50.203449  6728 net.cpp:170] fc8_2 needs backward computation.
I1106 05:34:50.203452  6728 net.cpp:170] drop7 needs backward computation.
I1106 05:34:50.203455  6728 net.cpp:170] relu7 needs backward computation.
I1106 05:34:50.203457  6728 net.cpp:170] fc7 needs backward computation.
…
I1106 05:34:50.204512  6728 net.cpp:275] The NetState phase (1) differed from the phase (0) specified by a rule in layer data
I1106 05:34:50.204732  6728 net.cpp:39] Initializing net from parameters: 
name: "small"
layers {
  top: "data"
  top: "label"
  name: "data"
  type: IMAGE_DATA
  image_data_param {
    source: "/data/ad6813/devCaffe/caffe/data/inadcl/val.txt"
    batch_size: 8
    new_height: 256
    new_width: 256
  }
  include {
    phase: TEST
  }
  transform_param {
    mirror: true
    crop_size: 224
    mean_value: 86.752
    mean_value: 101.46
    mean_value: 104.6
  }
}
layers {
  bottom: "data"
  top: "conv1_1"
  name: "conv1_1"
  type: CONVOLUTION
  convolution_param {
    num_output: 64
    pad: 1
    kernel_size: 3
    weight_filler {
      type: "gaussian"
      std: 0.01
    }
    bias_filler {
      type: "constant"
      value: 0
    }
  }
}
layers {
  bottom: "conv1_1"
  top: "conv1_1"
  name: "relu1_1"
  type: RELU
}
layers {
  bottom: "conv1_1"
  top: "conv1_2"
  name: "conv1_2"
  type: CONVOLUTION
  convolution_param {
    num_output: 64
    pad: 1
    kernel_size: 3
    weight_filler {
      type: "gaussian"
      std: 0.01
    }
    bias_filler {
      type: "constant"
      value: 0
    }
  }
}
layers {
  bottom: "conv1_2"
  top: "conv1_2"
  name: "relu1_2"
  type: RELU
}
layers {
  bottom: "conv1_2"
  top: "pool1"
  name: "pool1"
  type: POOLING
  pooling_param {
    pool: MAX
    kernel_size: 2
    stride: 2
  }
}
layers {
  bottom: "pool1"
  top: "conv2_1"
  name: "conv2_1"
  type: CONVOLUTION
  convolution_param {
    num_output: 128
    pad: 1
    kernel_size: 3
    weight_filler {
      type: "gaussian"
      std: 0.01
    }
    bias_filler {
      type: "constant"
      value: 0
    }
  }
}
layers {
  bottom: "conv2_1"
  top: "conv2_1"
  name: "relu2_1"
  type: RELU
}
layers {
  bottom: "conv2_1"
  top: "conv2_2"
  name: "conv2_2"
  type: CONVOLUTION
  convolution_param {
    num_output: 128
    pad: 1
    kernel_size: 3
    weight_filler {
      type: "gaussian"
      std: 0.01
    }
    bias_filler {
      type: "constant"
      value: 0
    }
  }
}
layers {
  bottom: "conv2_2"
  top: "conv2_2"
  name: "relu2_2"
  type: RELU
}
layers {
  bottom: "conv2_2"
  top: "pool2"
  name: "pool2"
  type: POOLING
  pooling_param {
    pool: MAX
    kernel_size: 2
    stride: 2
  }
}
layers {
  bottom: "pool2"
  top: "conv3_1"
  name: "conv3_1"
  type: CONVOLUTION
  convolution_param {
    num_output: 256
    pad: 1
    kernel_size: 3
    weight_filler {
      type: "gaussian"
      std: 0.01
    }
    bias_filler {
      type: "constant"
      value: 0
    }
  }
}
layers {
  bottom: "conv3_1"
  top: "conv3_1"
  name: "relu3_1"
  type: RELU
}
layers {
  bottom: "conv3_1"
  top: "conv3_2"
  name: "conv3_2"
  type: CONVOLUTION
  convolution_param {
    num_output: 256
    pad: 1
    kernel_size: 3
    weight_filler {
      type: "gaussian"
      std: 0.01
    }
    bias_filler {
      type: "constant"
      value: 0
    }
  }
}
layers {
  bottom: "conv3_2"
  top: "conv3_2"
  name: "relu3_2"
  type: RELU
}
layers {
  bottom: "conv3_2"
  top: "conv3_3"
  name: "conv3_3"
  type: CONVOLUTION
  convolution_param {
    num_output: 256
    pad: 1
    kernel_size: 3
    weight_filler {
      type: "gaussian"
      std: 0.01
    }
    bias_filler {
      type: "constant"
      value: 0
    }
  }
}
layers {
  bottom: "conv3_3"
  top: "conv3_3"
  name: "relu3_3"
  type: RELU
}
layers {
  bottom: "conv3_3"
  top: "pool3"
  name: "pool3"
  type: POOLING
  pooling_param {
    pool: MAX
    kernel_size: 2
    stride: 2
  }
}
layers {
  bottom: "pool3"
  top: "conv4_1"
  name: "conv4_1"
  type: CONVOLUTION
  convolution_param {
    num_output: 512
    pad: 1
    kernel_size: 3
    weight_filler {
      type: "gaussian"
      std: 0.01
    }
    bias_filler {
      type: "constant"
      value: 0
    }
  }
}
layers {
  bottom: "conv4_1"
  top: "conv4_1"
  name: "relu4_1"
  type: RELU
}
layers {
  bottom: "conv4_1"
  top: "conv4_2"
  name: "conv4_2"
  type: CONVOLUTION
  convolution_param {
    num_output: 512
    pad: 1
    kernel_size: 3
    weight_filler {
      type: "gaussian"
      std: 0.01
    }
    bias_filler {
      type: "constant"
      value: 0
    }
  }
}
layers {
  bottom: "conv4_2"
  top: "conv4_2"
  name: "relu4_2"
  type: RELU
}
layers {
  bottom: "conv4_2"
  top: "conv4_3"
  name: "conv4_3"
  type: CONVOLUTION
  convolution_param {
    num_output: 512
    pad: 1
    kernel_size: 3
    weight_filler {
      type: "gaussian"
      std: 0.01
    }
    bias_filler {
      type: "constant"
      value: 0
    }
  }
}
layers {
  bottom: "conv4_3"
  top: "conv4_3"
  name: "relu4_3"
  type: RELU
}
layers {
  bottom: "conv4_3"
  top: "pool4"
  name: "pool4"
  type: POOLING
  pooling_param {
    pool: MAX
    kernel_size: 2
    stride: 2
  }
}
layers {
  bottom: "pool4"
  top: "conv5_1"
  name: "conv5_1"
  type: CONVOLUTION
  convolution_param {
    num_output: 512
    pad: 1
    kernel_size: 3
    weight_filler {
      type: "gaussian"
      std: 0.01
    }
    bias_filler {
      type: "constant"
      value: 0
    }
  }
}
layers {
  bottom: "conv5_1"
  top: "conv5_1"
  name: "relu5_1"
  type: RELU
}
layers {
  bottom: "conv5_1"
  top: "conv5_2"
  name: "conv5_2"
  type: CONVOLUTION
  convolution_param {
    num_output: 512
    pad: 1
    kernel_size: 3
    weight_filler {
      type: "gaussian"
      std: 0.01
    }
    bias_filler {
      type: "constant"
      value: 0
    }
  }
}
layers {
  bottom: "conv5_2"
  top: "conv5_2"
  name: "relu5_2"
  type: RELU
}
layers {
  bottom: "conv5_2"
  top: "conv5_3"
  name: "conv5_3"
  type: CONVOLUTION
  convolution_param {
    num_output: 512
    pad: 1
    kernel_size: 3
    weight_filler {
      type: "gaussian"
      std: 0.01
    }
    bias_filler {
      type: "constant"
      value: 0
    }
  }
}
layers {
  bottom: "conv5_3"
  top: "conv5_3"
  name: "relu5_3"
  type: RELU
}
layers {
  bottom: "conv5_3"
  top: "pool5"
  name: "pool5"
  type: POOLING
  pooling_param {
    pool: MAX
    kernel_size: 2
    stride: 2
  }
}
layers {
  bottom: "pool5"
  top: "fc6"
  name: "fc6"
  type: INNER_PRODUCT
  inner_product_param {
    num_output: 4096
    weight_filler {
      type: "gaussian"
      std: 0.01
    }
    bias_filler {
      type: "constant"
      value: 0
    }
  }
}
layers {
  bottom: "fc6"
  top: "fc6"
  name: "relu6"
  type: RELU
}
layers {
  bottom: "fc6"
  top: "fc6"
  name: "drop6"
  type: DROPOUT
  dropout_param {
    dropout_ratio: 0.5
  }
}
layers {
  bottom: "fc6"
  top: "fc7"
  name: "fc7"
  type: INNER_PRODUCT
  inner_product_param {
    num_output: 4096
    weight_filler {
      type: "gaussian"
      std: 0.01
    }
    bias_filler {
      type: "constant"
      value: 0
    }
  }
}
layers {
  bottom: "fc7"
  top: "fc7"
  name: "relu7"
  type: RELU
}
layers {
  bottom: "fc7"
  top: "fc7"
  name: "drop7"
  type: DROPOUT
  dropout_param {
    dropout_ratio: 0.5
  }
}
layers {
  bottom: "fc7"
  top: "fc8_2"
  name: "fc8_2"
  type: INNER_PRODUCT
  inner_product_param {
    num_output: 2
    weight_filler {
      type: "gaussian"
      std: 0.01
    }
    bias_filler {
      type: "constant"
      value: 0
    }
  }
}
layers {
  bottom: "fc8_2"
  bottom: "label"
  name: "loss"
  type: SOFTMAX_LOSS
}
layers {
  bottom: "fc8_2"
  bottom: "label"
  top: "accuracy"
  name: "accuracy"
  type: PER_CLASS_ACCURACY
  include {
    phase: TEST
  }
}
state {
  phase: TEST
}
I1106 05:34:50.204877  6728 layer_factory.hpp:78] Creating layer data
I1106 05:34:50.204887  6728 net.cpp:67] Creating Layer data
I1106 05:34:50.204891  6728 net.cpp:356] data -> data
I1106 05:34:50.204900  6728 net.cpp:356] data -> label
I1106 05:34:50.204905  6728 net.cpp:96] Setting up data
I1106 05:34:50.204908  6728 image_data_layer.cpp:34] Opening file /data/ad6813/devCaffe/caffe/data/inadcl/val.txt
I1106 05:34:50.205049  6728 image_data_layer.cpp:49] A total of 232 images.
I1106 05:34:50.211621  6728 image_data_layer.cpp:78] output data size: 8,3,224,224
I1106 05:34:50.212632  6728 net.cpp:103] Top shape: 8 3 224 224 (1204224)
I1106 05:34:50.212642  6728 net.cpp:103] Top shape: 8 1 1 1 (8)
I1106 05:34:50.212646  6728 layer_factory.hpp:78] Creating layer label_data_1_split
I1106 05:34:50.212656  6728 net.cpp:67] Creating Layer label_data_1_split
I1106 05:34:50.212661  6728 net.cpp:394] label_data_1_split <- label
I1106 05:34:50.212666  6728 net.cpp:356] label_data_1_split -> label_data_1_split_0
I1106 05:34:50.212674  6728 net.cpp:356] label_data_1_split -> label_data_1_split_1
I1106 05:34:50.212682  6728 net.cpp:96] Setting up label_data_1_split
I1106 05:34:50.212687  6728 net.cpp:103] Top shape: 8 1 1 1 (8)
I1106 05:34:50.212692  6728 net.cpp:103] Top shape: 8 1 1 1 (8)
I1106 05:34:50.212695  6728 layer_factory.hpp:78] Creating layer conv1_1
I1106 05:34:50.212702  6728 net.cpp:67] Creating Layer conv1_1
I1106 05:34:50.212705  6728 net.cpp:394] conv1_1 <- data
I1106 05:34:50.212710  6728 net.cpp:356] conv1_1 -> conv1_1
I1106 05:34:50.212716  6728 net.cpp:96] Setting up conv1_1
I1106 05:34:50.212875  6728 net.cpp:103] Top shape: 8 64 224 224 (25690112)
I1106 05:34:50.212888  6728 layer_factory.hpp:78] Creating layer relu1_1
I1106 05:34:50.212896  6728 net.cpp:67] Creating Layer relu1_1
I1106 05:34:50.212899  6728 net.cpp:394] relu1_1 <- conv1_1
I1106 05:34:50.212903  6728 net.cpp:345] relu1_1 -> conv1_1 (in-place)
I1106 05:34:50.212908  6728 net.cpp:96] Setting up relu1_1
I1106 05:34:50.212921  6728 net.cpp:103] Top shape: 8 64 224 224 (25690112)
I1106 05:34:50.212926  6728 layer_factory.hpp:78] Creating layer conv1_2
I1106 05:34:50.212931  6728 net.cpp:67] Creating Layer conv1_2
I1106 05:34:50.212935  6728 net.cpp:394] conv1_2 <- conv1_1
I1106 05:34:50.212939  6728 net.cpp:356] conv1_2 -> conv1_2
I1106 05:34:50.212944  6728 net.cpp:96] Setting up conv1_2
I1106 05:34:50.213935  6728 net.cpp:103] Top shape: 8 64 224 224 (25690112)
I1106 05:34:50.213948  6728 layer_factory.hpp:78] Creating layer relu1_2
I1106 05:34:50.213954  6728 net.cpp:67] Creating Layer relu1_2
I1106 05:34:50.213958  6728 net.cpp:394] relu1_2 <- conv1_2
I1106 05:34:50.213963  6728 net.cpp:345] relu1_2 -> conv1_2 (in-place)
I1106 05:34:50.213966  6728 net.cpp:96] Setting up relu1_2
I1106 05:34:50.213971  6728 net.cpp:103] Top shape: 8 64 224 224 (25690112)
I1106 05:34:50.213976  6728 layer_factory.hpp:78] Creating layer pool1
I1106 05:34:50.213982  6728 net.cpp:67] Creating Layer pool1
I1106 05:34:50.213985  6728 net.cpp:394] pool1 <- conv1_2
I1106 05:34:50.213989  6728 net.cpp:356] pool1 -> pool1
I1106 05:34:50.213994  6728 net.cpp:96] Setting up pool1
I1106 05:34:50.214001  6728 net.cpp:103] Top shape: 8 64 112 112 (6422528)
I1106 05:34:50.214006  6728 layer_factory.hpp:78] Creating layer conv2_1
I1106 05:34:50.214018  6728 net.cpp:67] Creating Layer conv2_1
I1106 05:34:50.214021  6728 net.cpp:394] conv2_1 <- pool1
I1106 05:34:50.214026  6728 net.cpp:356] conv2_1 -> conv2_1
I1106 05:34:50.214031  6728 net.cpp:96] Setting up conv2_1
I1106 05:34:50.216023  6728 net.cpp:103] Top shape: 8 128 112 112 (12845056)
I1106 05:34:50.216037  6728 layer_factory.hpp:78] Creating layer relu2_1
I1106 05:34:50.216043  6728 net.cpp:67] Creating Layer relu2_1
I1106 05:34:50.216047  6728 net.cpp:394] relu2_1 <- conv2_1
I1106 05:34:50.216051  6728 net.cpp:345] relu2_1 -> conv2_1 (in-place)
I1106 05:34:50.216056  6728 net.cpp:96] Setting up relu2_1
I1106 05:34:50.216061  6728 net.cpp:103] Top shape: 8 128 112 112 (12845056)
I1106 05:34:50.216066  6728 layer_factory.hpp:78] Creating layer conv2_2
I1106 05:34:50.216071  6728 net.cpp:67] Creating Layer conv2_2
I1106 05:34:50.216074  6728 net.cpp:394] conv2_2 <- conv2_1
I1106 05:34:50.216078  6728 net.cpp:356] conv2_2 -> conv2_2
I1106 05:34:50.216084  6728 net.cpp:96] Setting up conv2_2
I1106 05:34:50.219708  6728 net.cpp:103] Top shape: 8 128 112 112 (12845056)
I1106 05:34:50.219719  6728 layer_factory.hpp:78] Creating layer relu2_2
I1106 05:34:50.219724  6728 net.cpp:67] Creating Layer relu2_2
I1106 05:34:50.219727  6728 net.cpp:394] relu2_2 <- conv2_2
I1106 05:34:50.219732  6728 net.cpp:345] relu2_2 -> conv2_2 (in-place)
I1106 05:34:50.219737  6728 net.cpp:96] Setting up relu2_2
I1106 05:34:50.219741  6728 net.cpp:103] Top shape: 8 128 112 112 (12845056)
I1106 05:34:50.219744  6728 layer_factory.hpp:78] Creating layer pool2
I1106 05:34:50.219749  6728 net.cpp:67] Creating Layer pool2
I1106 05:34:50.219764  6728 net.cpp:394] pool2 <- conv2_2
I1106 05:34:50.219774  6728 net.cpp:356] pool2 -> pool2
I1106 05:34:50.219779  6728 net.cpp:96] Setting up pool2
I1106 05:34:50.219784  6728 net.cpp:103] Top shape: 8 128 56 56 (3211264)
I1106 05:34:50.219794  6728 layer_factory.hpp:78] Creating layer conv3_1
I1106 05:34:50.219800  6728 net.cpp:67] Creating Layer conv3_1
I1106 05:34:50.219804  6728 net.cpp:394] conv3_1 <- pool2
I1106 05:34:50.219807  6728 net.cpp:356] conv3_1 -> conv3_1
I1106 05:34:50.219812  6728 net.cpp:96] Setting up conv3_1
I1106 05:34:50.227018  6728 net.cpp:103] Top shape: 8 256 56 56 (6422528)
I1106 05:34:50.227035  6728 layer_factory.hpp:78] Creating layer relu3_1
I1106 05:34:50.227041  6728 net.cpp:67] Creating Layer relu3_1
I1106 05:34:50.227044  6728 net.cpp:394] relu3_1 <- conv3_1
I1106 05:34:50.227049  6728 net.cpp:345] relu3_1 -> conv3_1 (in-place)
I1106 05:34:50.227056  6728 net.cpp:96] Setting up relu3_1
I1106 05:34:50.227061  6728 net.cpp:103] Top shape: 8 256 56 56 (6422528)
I1106 05:34:50.227063  6728 layer_factory.hpp:78] Creating layer conv3_2
I1106 05:34:50.227077  6728 net.cpp:67] Creating Layer conv3_2
I1106 05:34:50.227079  6728 net.cpp:394] conv3_2 <- conv3_1
I1106 05:34:50.227083  6728 net.cpp:356] conv3_2 -> conv3_2
I1106 05:34:50.227089  6728 net.cpp:96] Setting up conv3_2
I1106 05:34:50.241880  6728 net.cpp:103] Top shape: 8 256 56 56 (6422528)
I1106 05:34:50.241904  6728 layer_factory.hpp:78] Creating layer relu3_2
I1106 05:34:50.241914  6728 net.cpp:67] Creating Layer relu3_2
I1106 05:34:50.241919  6728 net.cpp:394] relu3_2 <- conv3_2
I1106 05:34:50.241926  6728 net.cpp:345] relu3_2 -> conv3_2 (in-place)
I1106 05:34:50.241932  6728 net.cpp:96] Setting up relu3_2
I1106 05:34:50.241938  6728 net.cpp:103] Top shape: 8 256 56 56 (6422528)
I1106 05:34:50.241941  6728 layer_factory.hpp:78] Creating layer conv3_3
I1106 05:34:50.241952  6728 net.cpp:67] Creating Layer conv3_3
I1106 05:34:50.241957  6728 net.cpp:394] conv3_3 <- conv3_2
I1106 05:34:50.241962  6728 net.cpp:356] conv3_3 -> conv3_3
I1106 05:34:50.241967  6728 net.cpp:96] Setting up conv3_3
I1106 05:34:50.256800  6728 net.cpp:103] Top shape: 8 256 56 56 (6422528)
I1106 05:34:50.256829  6728 layer_factory.hpp:78] Creating layer relu3_3
I1106 05:34:50.256836  6728 net.cpp:67] Creating Layer relu3_3
I1106 05:34:50.256841  6728 net.cpp:394] relu3_3 <- conv3_3
I1106 05:34:50.256849  6728 net.cpp:345] relu3_3 -> conv3_3 (in-place)
I1106 05:34:50.256855  6728 net.cpp:96] Setting up relu3_3
I1106 05:34:50.256860  6728 net.cpp:103] Top shape: 8 256 56 56 (6422528)
I1106 05:34:50.256863  6728 layer_factory.hpp:78] Creating layer pool3
I1106 05:34:50.256870  6728 net.cpp:67] Creating Layer pool3
I1106 05:34:50.256876  6728 net.cpp:394] pool3 <- conv3_3
I1106 05:34:50.256882  6728 net.cpp:356] pool3 -> pool3
I1106 05:34:50.256888  6728 net.cpp:96] Setting up pool3
I1106 05:34:50.256897  6728 net.cpp:103] Top shape: 8 256 28 28 (1605632)
I1106 05:34:50.256902  6728 layer_factory.hpp:78] Creating layer conv4_1
I1106 05:34:50.256911  6728 net.cpp:67] Creating Layer conv4_1
I1106 05:34:50.256913  6728 net.cpp:394] conv4_1 <- pool3
I1106 05:34:50.256917  6728 net.cpp:356] conv4_1 -> conv4_1
I1106 05:34:50.256922  6728 net.cpp:96] Setting up conv4_1
I1106 05:34:50.286360  6728 net.cpp:103] Top shape: 8 512 28 28 (3211264)
I1106 05:34:50.286384  6728 layer_factory.hpp:78] Creating layer relu4_1
I1106 05:34:50.286393  6728 net.cpp:67] Creating Layer relu4_1
I1106 05:34:50.286397  6728 net.cpp:394] relu4_1 <- conv4_1
I1106 05:34:50.286404  6728 net.cpp:345] relu4_1 -> conv4_1 (in-place)
I1106 05:34:50.286412  6728 net.cpp:96] Setting up relu4_1
I1106 05:34:50.286417  6728 net.cpp:103] Top shape: 8 512 28 28 (3211264)
I1106 05:34:50.286420  6728 layer_factory.hpp:78] Creating layer conv4_2
I1106 05:34:50.286428  6728 net.cpp:67] Creating Layer conv4_2
I1106 05:34:50.286432  6728 net.cpp:394] conv4_2 <- conv4_1
I1106 05:34:50.286437  6728 net.cpp:356] conv4_2 -> conv4_2
I1106 05:34:50.286442  6728 net.cpp:96] Setting up conv4_2
I1106 05:34:50.342541  6728 net.cpp:103] Top shape: 8 512 28 28 (3211264)
I1106 05:34:50.342571  6728 layer_factory.hpp:78] Creating layer relu4_2
I1106 05:34:50.342579  6728 net.cpp:67] Creating Layer relu4_2
I1106 05:34:50.342583  6728 net.cpp:394] relu4_2 <- conv4_2
I1106 05:34:50.342592  6728 net.cpp:345] relu4_2 -> conv4_2 (in-place)
I1106 05:34:50.342598  6728 net.cpp:96] Setting up relu4_2
I1106 05:34:50.342604  6728 net.cpp:103] Top shape: 8 512 28 28 (3211264)
I1106 05:34:50.342607  6728 layer_factory.hpp:78] Creating layer conv4_3
I1106 05:34:50.342613  6728 net.cpp:67] Creating Layer conv4_3
I1106 05:34:50.342617  6728 net.cpp:394] conv4_3 <- conv4_2
I1106 05:34:50.342624  6728 net.cpp:356] conv4_3 -> conv4_3
I1106 05:34:50.342631  6728 net.cpp:96] Setting up conv4_3
I1106 05:34:50.397843  6728 net.cpp:103] Top shape: 8 512 28 28 (3211264)
I1106 05:34:50.397879  6728 layer_factory.hpp:78] Creating layer relu4_3
I1106 05:34:50.397889  6728 net.cpp:67] Creating Layer relu4_3
I1106 05:34:50.397894  6728 net.cpp:394] relu4_3 <- conv4_3
I1106 05:34:50.397900  6728 net.cpp:345] relu4_3 -> conv4_3 (in-place)
I1106 05:34:50.397917  6728 net.cpp:96] Setting up relu4_3
I1106 05:34:50.397923  6728 net.cpp:103] Top shape: 8 512 28 28 (3211264)
I1106 05:34:50.397927  6728 layer_factory.hpp:78] Creating layer pool4
I1106 05:34:50.397933  6728 net.cpp:67] Creating Layer pool4
I1106 05:34:50.397935  6728 net.cpp:394] pool4 <- conv4_3
I1106 05:34:50.397941  6728 net.cpp:356] pool4 -> pool4
I1106 05:34:50.397948  6728 net.cpp:96] Setting up pool4
I1106 05:34:50.397955  6728 net.cpp:103] Top shape: 8 512 14 14 (802816)
I1106 05:34:50.397958  6728 layer_factory.hpp:78] Creating layer conv5_1
I1106 05:34:50.397964  6728 net.cpp:67] Creating Layer conv5_1
I1106 05:34:50.397969  6728 net.cpp:394] conv5_1 <- pool4
I1106 05:34:50.397974  6728 net.cpp:356] conv5_1 -> conv5_1
I1106 05:34:50.397979  6728 net.cpp:96] Setting up conv5_1
I1106 05:34:50.453229  6728 net.cpp:103] Top shape: 8 512 14 14 (802816)
I1106 05:34:50.453265  6728 layer_factory.hpp:78] Creating layer relu5_1
I1106 05:34:50.453275  6728 net.cpp:67] Creating Layer relu5_1
I1106 05:34:50.453279  6728 net.cpp:394] relu5_1 <- conv5_1
I1106 05:34:50.453285  6728 net.cpp:345] relu5_1 -> conv5_1 (in-place)
I1106 05:34:50.453291  6728 net.cpp:96] Setting up relu5_1
I1106 05:34:50.453296  6728 net.cpp:103] Top shape: 8 512 14 14 (802816)
I1106 05:34:50.453300  6728 layer_factory.hpp:78] Creating layer conv5_2
I1106 05:34:50.453307  6728 net.cpp:67] Creating Layer conv5_2
I1106 05:34:50.453310  6728 net.cpp:394] conv5_2 <- conv5_1
I1106 05:34:50.453315  6728 net.cpp:356] conv5_2 -> conv5_2
I1106 05:34:50.453320  6728 net.cpp:96] Setting up conv5_2
I1106 05:34:50.508190  6728 net.cpp:103] Top shape: 8 512 14 14 (802816)
I1106 05:34:50.508226  6728 layer_factory.hpp:78] Creating layer relu5_2
I1106 05:34:50.508239  6728 net.cpp:67] Creating Layer relu5_2
I1106 05:34:50.508244  6728 net.cpp:394] relu5_2 <- conv5_2
I1106 05:34:50.508249  6728 net.cpp:345] relu5_2 -> conv5_2 (in-place)
I1106 05:34:50.508255  6728 net.cpp:96] Setting up relu5_2
I1106 05:34:50.508261  6728 net.cpp:103] Top shape: 8 512 14 14 (802816)
I1106 05:34:50.508265  6728 layer_factory.hpp:78] Creating layer conv5_3
I1106 05:34:50.508270  6728 net.cpp:67] Creating Layer conv5_3
I1106 05:34:50.508273  6728 net.cpp:394] conv5_3 <- conv5_2
I1106 05:34:50.508280  6728 net.cpp:356] conv5_3 -> conv5_3
I1106 05:34:50.508285  6728 net.cpp:96] Setting up conv5_3
I1106 05:34:50.563653  6728 net.cpp:103] Top shape: 8 512 14 14 (802816)
I1106 05:34:50.563690  6728 layer_factory.hpp:78] Creating layer relu5_3
I1106 05:34:50.563700  6728 net.cpp:67] Creating Layer relu5_3
I1106 05:34:50.563705  6728 net.cpp:394] relu5_3 <- conv5_3
I1106 05:34:50.563711  6728 net.cpp:345] relu5_3 -> conv5_3 (in-place)
I1106 05:34:50.563719  6728 net.cpp:96] Setting up relu5_3
I1106 05:34:50.563724  6728 net.cpp:103] Top shape: 8 512 14 14 (802816)
I1106 05:34:50.563727  6728 layer_factory.hpp:78] Creating layer pool5
I1106 05:34:50.563738  6728 net.cpp:67] Creating Layer pool5
I1106 05:34:50.563741  6728 net.cpp:394] pool5 <- conv5_3
I1106 05:34:50.563746  6728 net.cpp:356] pool5 -> pool5
I1106 05:34:50.563761  6728 net.cpp:96] Setting up pool5
I1106 05:34:50.563771  6728 net.cpp:103] Top shape: 8 512 7 7 (200704)
I1106 05:34:50.563774  6728 layer_factory.hpp:78] Creating layer fc6
I1106 05:34:50.563782  6728 net.cpp:67] Creating Layer fc6
I1106 05:34:50.563786  6728 net.cpp:394] fc6 <- pool5
I1106 05:34:50.563791  6728 net.cpp:356] fc6 -> fc6
I1106 05:34:50.563796  6728 net.cpp:96] Setting up fc6
I1106 05:34:52.936074  6728 net.cpp:103] Top shape: 8 4096 1 1 (32768)
I1106 05:34:52.936115  6728 layer_factory.hpp:78] Creating layer relu6
I1106 05:34:52.936125  6728 net.cpp:67] Creating Layer relu6
I1106 05:34:52.936130  6728 net.cpp:394] relu6 <- fc6
I1106 05:34:52.936137  6728 net.cpp:345] relu6 -> fc6 (in-place)
I1106 05:34:52.936144  6728 net.cpp:96] Setting up relu6
I1106 05:34:52.936158  6728 net.cpp:103] Top shape: 8 4096 1 1 (32768)
I1106 05:34:52.936162  6728 layer_factory.hpp:78] Creating layer drop6
I1106 05:34:52.936167  6728 net.cpp:67] Creating Layer drop6
I1106 05:34:52.936180  6728 net.cpp:394] drop6 <- fc6
I1106 05:34:52.936187  6728 net.cpp:345] drop6 -> fc6 (in-place)
I1106 05:34:52.936192  6728 net.cpp:96] Setting up drop6
I1106 05:34:52.936195  6728 net.cpp:103] Top shape: 8 4096 1 1 (32768)
I1106 05:34:52.936198  6728 layer_factory.hpp:78] Creating layer fc7
I1106 05:34:52.936204  6728 net.cpp:67] Creating Layer fc7
I1106 05:34:52.936206  6728 net.cpp:394] fc7 <- fc6
I1106 05:34:52.936211  6728 net.cpp:356] fc7 -> fc7
I1106 05:34:52.936218  6728 net.cpp:96] Setting up fc7
I1106 05:34:53.324163  6728 net.cpp:103] Top shape: 8 4096 1 1 (32768)
I1106 05:34:53.324204  6728 layer_factory.hpp:78] Creating layer relu7
I1106 05:34:53.324214  6728 net.cpp:67] Creating Layer relu7
I1106 05:34:53.324219  6728 net.cpp:394] relu7 <- fc7
I1106 05:34:53.324226  6728 net.cpp:345] relu7 -> fc7 (in-place)
I1106 05:34:53.324234  6728 net.cpp:96] Setting up relu7
I1106 05:34:53.324247  6728 net.cpp:103] Top shape: 8 4096 1 1 (32768)
I1106 05:34:53.324250  6728 layer_factory.hpp:78] Creating layer drop7
I1106 05:34:53.324260  6728 net.cpp:67] Creating Layer drop7
I1106 05:34:53.324264  6728 net.cpp:394] drop7 <- fc7
I1106 05:34:53.324267  6728 net.cpp:345] drop7 -> fc7 (in-place)
I1106 05:34:53.324272  6728 net.cpp:96] Setting up drop7
I1106 05:34:53.324276  6728 net.cpp:103] Top shape: 8 4096 1 1 (32768)
I1106 05:34:53.324280  6728 layer_factory.hpp:78] Creating layer fc8_2
I1106 05:34:53.324285  6728 net.cpp:67] Creating Layer fc8_2
I1106 05:34:53.324287  6728 net.cpp:394] fc8_2 <- fc7
I1106 05:34:53.324293  6728 net.cpp:356] fc8_2 -> fc8_2
I1106 05:34:53.324300  6728 net.cpp:96] Setting up fc8_2
I1106 05:34:53.324522  6728 net.cpp:103] Top shape: 8 2 1 1 (16)
I1106 05:34:53.324530  6728 layer_factory.hpp:78] Creating layer fc8_2_fc8_2_0_split
I1106 05:34:53.324535  6728 net.cpp:67] Creating Layer fc8_2_fc8_2_0_split
I1106 05:34:53.324538  6728 net.cpp:394] fc8_2_fc8_2_0_split <- fc8_2
I1106 05:34:53.324544  6728 net.cpp:356] fc8_2_fc8_2_0_split -> fc8_2_fc8_2_0_split_0
I1106 05:34:53.324550  6728 net.cpp:356] fc8_2_fc8_2_0_split -> fc8_2_fc8_2_0_split_1
I1106 05:34:53.324555  6728 net.cpp:96] Setting up fc8_2_fc8_2_0_split
I1106 05:34:53.324561  6728 net.cpp:103] Top shape: 8 2 1 1 (16)
I1106 05:34:53.324564  6728 net.cpp:103] Top shape: 8 2 1 1 (16)
I1106 05:34:53.324568  6728 layer_factory.hpp:78] Creating layer loss
I1106 05:34:53.324574  6728 net.cpp:67] Creating Layer loss
I1106 05:34:53.324578  6728 net.cpp:394] loss <- fc8_2_fc8_2_0_split_0
I1106 05:34:53.324581  6728 net.cpp:394] loss <- label_data_1_split_0
I1106 05:34:53.324591  6728 net.cpp:356] loss -> (automatic)
I1106 05:34:53.324597  6728 net.cpp:96] Setting up loss
I1106 05:34:53.324604  6728 net.cpp:103] Top shape: 1 1 1 1 (1)
I1106 05:34:53.324607  6728 net.cpp:109]     with loss weight 1
I1106 05:34:53.324620  6728 layer_factory.hpp:78] Creating layer accuracy
I1106 05:34:53.324631  6728 net.cpp:67] Creating Layer accuracy
I1106 05:34:53.324640  6728 net.cpp:394] accuracy <- fc8_2_fc8_2_0_split_1
I1106 05:34:53.324645  6728 net.cpp:394] accuracy <- label_data_1_split_1
I1106 05:34:53.324650  6728 net.cpp:356] accuracy -> accuracy
I1106 05:34:53.324654  6728 net.cpp:96] Setting up accuracy
I1106 05:34:53.324661  6728 net.cpp:103] Top shape: 1 1 1 4 (4)
I1106 05:34:53.324666  6728 net.cpp:172] accuracy does not need backward computation.
I1106 05:34:53.324669  6728 net.cpp:170] loss needs backward computation.
I1106 05:34:53.324672  6728 net.cpp:170] fc8_2_fc8_2_0_split needs backward computation.
I1106 05:34:53.324676  6728 net.cpp:170] fc8_2 needs backward computation.
I1106 05:34:53.324678  6728 net.cpp:170] drop7 needs backward computation.
…
