…
I1106 14:35:58.008362 10880 net.cpp:275] The NetState phase (0) differed from the phase (1) specified by a rule in layer accuracy
I1106 14:35:58.008553 10880 net.cpp:39] Initializing net from parameters: 
name: "small"
layers {
  top: "data"
  top: "label"
  name: "data"
  type: IMAGE_DATA
  image_data_param {
    source: "/data/ad6813/devCaffe/caffe/data/inadcl/train.txt"
    batch_size: 32
    new_height: 256
    new_width: 256
  }
  include {
    phase: TRAIN
  }
  transform_param {
    mirror: true
    crop_size: 224
    mean_value: 86.752
    mean_value: 101.46
    mean_value: 104.6
  }
}
layers {
  bottom: "data"
  top: "conv1_1"
  name: "conv1_1"
  type: CONVOLUTION
  convolution_param {
    num_output: 64
    pad: 1
    kernel_size: 3
    weight_filler {
      type: "gaussian"
      std: 0.01
    }
    bias_filler {
      type: "constant"
      value: 0
    }
  }
}
layers {
  bottom: "conv1_1"
  top: "conv1_1"
  name: "relu1_1"
  type: RELU
}
layers {
  bottom: "conv1_1"
  top: "conv1_2"
  name: "conv1_2"
  type: CONVOLUTION
  convolution_param {
    num_output: 64
    pad: 1
    kernel_size: 3
    weight_filler {
      type: "gaussian"
      std: 0.01
    }
    bias_filler {
      type: "constant"
      value: 0
    }
  }
}
layers {
  bottom: "conv1_2"
  top: "conv1_2"
  name: "relu1_2"
  type: RELU
}
layers {
  bottom: "conv1_2"
  top: "pool1"
  name: "pool1"
  type: POOLING
  pooling_param {
    pool: MAX
    kernel_size: 2
    stride: 2
  }
}
layers {
  bottom: "pool1"
  top: "conv2_1"
  name: "conv2_1"
  type: CONVOLUTION
  convolution_param {
    num_output: 128
    pad: 1
    kernel_size: 3
    weight_filler {
      type: "gaussian"
      std: 0.01
    }
    bias_filler {
      type: "constant"
      value: 0
    }
  }
}
layers {
  bottom: "conv2_1"
  top: "conv2_1"
  name: "relu2_1"
  type: RELU
}
layers {
  bottom: "conv2_1"
  top: "conv2_2"
  name: "conv2_2"
  type: CONVOLUTION
  convolution_param {
    num_output: 128
    pad: 1
    kernel_size: 3
    weight_filler {
      type: "gaussian"
      std: 0.01
    }
    bias_filler {
      type: "constant"
      value: 0
    }
  }
}
layers {
  bottom: "conv2_2"
  top: "conv2_2"
  name: "relu2_2"
  type: RELU
}
layers {
  bottom: "conv2_2"
  top: "pool2"
  name: "pool2"
  type: POOLING
  pooling_param {
    pool: MAX
    kernel_size: 2
    stride: 2
  }
}
layers {
  bottom: "pool2"
  top: "conv3_1"
  name: "conv3_1"
  type: CONVOLUTION
  convolution_param {
    num_output: 256
    pad: 1
    kernel_size: 3
    weight_filler {
      type: "gaussian"
      std: 0.01
    }
    bias_filler {
      type: "constant"
      value: 0
    }
  }
}
layers {
  bottom: "conv3_1"
  top: "conv3_1"
  name: "relu3_1"
  type: RELU
}
layers {
  bottom: "conv3_1"
  top: "conv3_2"
  name: "conv3_2"
  type: CONVOLUTION
  convolution_param {
    num_output: 256
    pad: 1
    kernel_size: 3
    weight_filler {
      type: "gaussian"
      std: 0.01
    }
    bias_filler {
      type: "constant"
      value: 0
    }
  }
}
layers {
  bottom: "conv3_2"
  top: "conv3_2"
  name: "relu3_2"
  type: RELU
}
layers {
  bottom: "conv3_2"
  top: "conv3_3"
  name: "conv3_3"
  type: CONVOLUTION
  convolution_param {
    num_output: 256
    pad: 1
    kernel_size: 3
    weight_filler {
      type: "gaussian"
      std: 0.01
    }
    bias_filler {
      type: "constant"
      value: 0
    }
  }
}
layers {
  bottom: "conv3_3"
  top: "conv3_3"
  name: "relu3_3"
  type: RELU
}
layers {
  bottom: "conv3_3"
  top: "pool3"
  name: "pool3"
  type: POOLING
  pooling_param {
    pool: MAX
    kernel_size: 2
    stride: 2
  }
}
layers {
  bottom: "pool3"
  top: "conv4_1"
  name: "conv4_1"
  type: CONVOLUTION
  convolution_param {
    num_output: 512
    pad: 1
    kernel_size: 3
    weight_filler {
      type: "gaussian"
      std: 0.01
    }
    bias_filler {
      type: "constant"
      value: 0
    }
  }
}
layers {
  bottom: "conv4_1"
  top: "conv4_1"
  name: "relu4_1"
  type: RELU
}
layers {
  bottom: "conv4_1"
  top: "conv4_2"
  name: "conv4_2"
  type: CONVOLUTION
  convolution_param {
    num_output: 512
    pad: 1
    kernel_size: 3
    weight_filler {
      type: "gaussian"
      std: 0.01
    }
    bias_filler {
      type: "constant"
      value: 0
    }
  }
}
layers {
  bottom: "conv4_2"
  top: "conv4_2"
  name: "relu4_2"
  type: RELU
}
layers {
  bottom: "conv4_2"
  top: "conv4_3"
  name: "conv4_3"
  type: CONVOLUTION
  convolution_param {
    num_output: 512
    pad: 1
    kernel_size: 3
    weight_filler {
      type: "gaussian"
      std: 0.01
    }
    bias_filler {
      type: "constant"
      value: 0
    }
  }
}
layers {
  bottom: "conv4_3"
  top: "conv4_3"
  name: "relu4_3"
  type: RELU
}
layers {
  bottom: "conv4_3"
  top: "pool4"
  name: "pool4"
  type: POOLING
  pooling_param {
    pool: MAX
    kernel_size: 2
    stride: 2
  }
}
layers {
  bottom: "pool4"
  top: "conv5_1"
  name: "conv5_1"
  type: CONVOLUTION
  convolution_param {
    num_output: 512
    pad: 1
    kernel_size: 3
    weight_filler {
      type: "gaussian"
      std: 0.01
    }
    bias_filler {
      type: "constant"
      value: 0
    }
  }
}
layers {
  bottom: "conv5_1"
  top: "conv5_1"
  name: "relu5_1"
  type: RELU
}
layers {
  bottom: "conv5_1"
  top: "conv5_2"
  name: "conv5_2"
  type: CONVOLUTION
  convolution_param {
    num_output: 512
    pad: 1
    kernel_size: 3
    weight_filler {
      type: "gaussian"
      std: 0.01
    }
    bias_filler {
      type: "constant"
      value: 0
    }
  }
}
layers {
  bottom: "conv5_2"
  top: "conv5_2"
  name: "relu5_2"
  type: RELU
}
layers {
  bottom: "conv5_2"
  top: "conv5_3"
  name: "conv5_3"
  type: CONVOLUTION
  convolution_param {
    num_output: 512
    pad: 1
    kernel_size: 3
    weight_filler {
      type: "gaussian"
      std: 0.01
    }
    bias_filler {
      type: "constant"
      value: 0
    }
  }
}
layers {
  bottom: "conv5_3"
  top: "conv5_3"
  name: "relu5_3"
  type: RELU
}
layers {
  bottom: "conv5_3"
  top: "pool5"
  name: "pool5"
  type: POOLING
  pooling_param {
    pool: MAX
    kernel_size: 2
    stride: 2
  }
}
layers {
  bottom: "pool5"
  top: "fc6"
  name: "fc6"
  type: INNER_PRODUCT
  inner_product_param {
    num_output: 4096
    weight_filler {
      type: "gaussian"
      std: 0.01
    }
    bias_filler {
      type: "constant"
      value: 0
    }
  }
}
layers {
  bottom: "fc6"
  top: "fc6"
  name: "relu6"
  type: RELU
}
layers {
  bottom: "fc6"
  top: "fc6"
  name: "drop6"
  type: DROPOUT
  dropout_param {
    dropout_ratio: 0.5
  }
}
layers {
  bottom: "fc6"
  top: "fc7"
  name: "fc7"
  type: INNER_PRODUCT
  inner_product_param {
    num_output: 4096
    weight_filler {
      type: "gaussian"
      std: 0.01
    }
    bias_filler {
      type: "constant"
      value: 0
    }
  }
}
layers {
  bottom: "fc7"
  top: "fc7"
  name: "relu7"
  type: RELU
}
layers {
  bottom: "fc7"
  top: "fc7"
  name: "drop7"
  type: DROPOUT
  dropout_param {
    dropout_ratio: 0.5
  }
}
layers {
  bottom: "fc7"
  top: "fc8_2"
  name: "fc8_2"
  type: INNER_PRODUCT
  inner_product_param {
    num_output: 2
    weight_filler {
      type: "gaussian"
      std: 0.01
    }
    bias_filler {
      type: "constant"
      value: 0
    }
  }
}
layers {
  bottom: "fc8_2"
  bottom: "label"
  name: "loss"
  type: SOFTMAX_LOSS
}
state {
  phase: TRAIN
}
I1106 14:35:58.008677 10880 layer_factory.hpp:78] Creating layer data
I1106 14:35:58.008699 10880 net.cpp:67] Creating Layer data
I1106 14:35:58.008708 10880 net.cpp:356] data -> data
I1106 14:35:58.008723 10880 net.cpp:356] data -> label
I1106 14:35:58.008734 10880 net.cpp:96] Setting up data
I1106 14:35:58.008740 10880 image_data_layer.cpp:34] Opening file /data/ad6813/devCaffe/caffe/data/inadcl/train.txt
I1106 14:35:58.012197 10880 image_data_layer.cpp:49] A total of 9113 images.
I1106 14:35:58.017768 10880 image_data_layer.cpp:78] output data size: 32,3,224,224
I1106 14:35:58.020699 10880 net.cpp:103] Top shape: 32 3 224 224 (4816896)
I1106 14:35:58.020725 10880 net.cpp:103] Top shape: 32 1 1 1 (32)
I1106 14:35:58.020730 10880 layer_factory.hpp:78] Creating layer conv1_1
I1106 14:35:58.020743 10880 net.cpp:67] Creating Layer conv1_1
I1106 14:35:58.020748 10880 net.cpp:394] conv1_1 <- data
I1106 14:35:58.020761 10880 net.cpp:356] conv1_1 -> conv1_1
I1106 14:35:58.020772 10880 net.cpp:96] Setting up conv1_1
I1106 14:35:58.037842 10880 net.cpp:103] Top shape: 32 64 224 224 (102760448)
I1106 14:35:58.037876 10880 layer_factory.hpp:78] Creating layer relu1_1
I1106 14:35:58.037889 10880 net.cpp:67] Creating Layer relu1_1
I1106 14:35:58.037894 10880 net.cpp:394] relu1_1 <- conv1_1
I1106 14:35:58.037901 10880 net.cpp:345] relu1_1 -> conv1_1 (in-place)
I1106 14:35:58.037910 10880 net.cpp:96] Setting up relu1_1
I1106 14:35:58.037919 10880 net.cpp:103] Top shape: 32 64 224 224 (102760448)
I1106 14:35:58.037922 10880 layer_factory.hpp:78] Creating layer conv1_2
I1106 14:35:58.037930 10880 net.cpp:67] Creating Layer conv1_2
I1106 14:35:58.037932 10880 net.cpp:394] conv1_2 <- conv1_1
I1106 14:35:58.037936 10880 net.cpp:356] conv1_2 -> conv1_2
I1106 14:35:58.037943 10880 net.cpp:96] Setting up conv1_2
I1106 14:35:58.039007 10880 net.cpp:103] Top shape: 32 64 224 224 (102760448)
I1106 14:35:58.039021 10880 layer_factory.hpp:78] Creating layer relu1_2
I1106 14:35:58.039026 10880 net.cpp:67] Creating Layer relu1_2
I1106 14:35:58.039031 10880 net.cpp:394] relu1_2 <- conv1_2
I1106 14:35:58.039037 10880 net.cpp:345] relu1_2 -> conv1_2 (in-place)
I1106 14:35:58.039042 10880 net.cpp:96] Setting up relu1_2
I1106 14:35:58.039047 10880 net.cpp:103] Top shape: 32 64 224 224 (102760448)
I1106 14:35:58.039052 10880 layer_factory.hpp:78] Creating layer pool1
I1106 14:35:58.039058 10880 net.cpp:67] Creating Layer pool1
I1106 14:35:58.039062 10880 net.cpp:394] pool1 <- conv1_2
I1106 14:35:58.039065 10880 net.cpp:356] pool1 -> pool1
I1106 14:35:58.039070 10880 net.cpp:96] Setting up pool1
I1106 14:35:58.039088 10880 net.cpp:103] Top shape: 32 64 112 112 (25690112)
I1106 14:35:58.039093 10880 layer_factory.hpp:78] Creating layer conv2_1
I1106 14:35:58.039100 10880 net.cpp:67] Creating Layer conv2_1
I1106 14:35:58.039103 10880 net.cpp:394] conv2_1 <- pool1
I1106 14:35:58.039109 10880 net.cpp:356] conv2_1 -> conv2_1
I1106 14:35:58.039120 10880 net.cpp:96] Setting up conv2_1
I1106 14:35:58.041031 10880 net.cpp:103] Top shape: 32 128 112 112 (51380224)
I1106 14:35:58.041045 10880 layer_factory.hpp:78] Creating layer relu2_1
I1106 14:35:58.041052 10880 net.cpp:67] Creating Layer relu2_1
I1106 14:35:58.041055 10880 net.cpp:394] relu2_1 <- conv2_1
I1106 14:35:58.041060 10880 net.cpp:345] relu2_1 -> conv2_1 (in-place)
I1106 14:35:58.041065 10880 net.cpp:96] Setting up relu2_1
I1106 14:35:58.041070 10880 net.cpp:103] Top shape: 32 128 112 112 (51380224)
I1106 14:35:58.041074 10880 layer_factory.hpp:78] Creating layer conv2_2
I1106 14:35:58.041081 10880 net.cpp:67] Creating Layer conv2_2
I1106 14:35:58.041085 10880 net.cpp:394] conv2_2 <- conv2_1
I1106 14:35:58.041088 10880 net.cpp:356] conv2_2 -> conv2_2
I1106 14:35:58.041093 10880 net.cpp:96] Setting up conv2_2
I1106 14:35:58.044836 10880 net.cpp:103] Top shape: 32 128 112 112 (51380224)
I1106 14:35:58.044847 10880 layer_factory.hpp:78] Creating layer relu2_2
I1106 14:35:58.044852 10880 net.cpp:67] Creating Layer relu2_2
I1106 14:35:58.044855 10880 net.cpp:394] relu2_2 <- conv2_2
I1106 14:35:58.044859 10880 net.cpp:345] relu2_2 -> conv2_2 (in-place)
I1106 14:35:58.044867 10880 net.cpp:96] Setting up relu2_2
I1106 14:35:58.044872 10880 net.cpp:103] Top shape: 32 128 112 112 (51380224)
I1106 14:35:58.044874 10880 layer_factory.hpp:78] Creating layer pool2
I1106 14:35:58.044886 10880 net.cpp:67] Creating Layer pool2
I1106 14:35:58.044890 10880 net.cpp:394] pool2 <- conv2_2
I1106 14:35:58.044894 10880 net.cpp:356] pool2 -> pool2
I1106 14:35:58.044899 10880 net.cpp:96] Setting up pool2
I1106 14:35:58.044905 10880 net.cpp:103] Top shape: 32 128 56 56 (12845056)
I1106 14:35:58.044909 10880 layer_factory.hpp:78] Creating layer conv3_1
I1106 14:35:58.044915 10880 net.cpp:67] Creating Layer conv3_1
I1106 14:35:58.044919 10880 net.cpp:394] conv3_1 <- pool2
I1106 14:35:58.044924 10880 net.cpp:356] conv3_1 -> conv3_1
I1106 14:35:58.044930 10880 net.cpp:96] Setting up conv3_1
I1106 14:35:58.052295 10880 net.cpp:103] Top shape: 32 256 56 56 (25690112)
I1106 14:35:58.052310 10880 layer_factory.hpp:78] Creating layer relu3_1
I1106 14:35:58.052317 10880 net.cpp:67] Creating Layer relu3_1
I1106 14:35:58.052321 10880 net.cpp:394] relu3_1 <- conv3_1
I1106 14:35:58.052326 10880 net.cpp:345] relu3_1 -> conv3_1 (in-place)
I1106 14:35:58.052331 10880 net.cpp:96] Setting up relu3_1
I1106 14:35:58.052336 10880 net.cpp:103] Top shape: 32 256 56 56 (25690112)
I1106 14:35:58.052340 10880 layer_factory.hpp:78] Creating layer conv3_2
I1106 14:35:58.052345 10880 net.cpp:67] Creating Layer conv3_2
I1106 14:35:58.052348 10880 net.cpp:394] conv3_2 <- conv3_1
I1106 14:35:58.052352 10880 net.cpp:356] conv3_2 -> conv3_2
I1106 14:35:58.052358 10880 net.cpp:96] Setting up conv3_2
I1106 14:35:58.067193 10880 net.cpp:103] Top shape: 32 256 56 56 (25690112)
I1106 14:35:58.067212 10880 layer_factory.hpp:78] Creating layer relu3_2
I1106 14:35:58.067220 10880 net.cpp:67] Creating Layer relu3_2
I1106 14:35:58.067224 10880 net.cpp:394] relu3_2 <- conv3_2
I1106 14:35:58.067230 10880 net.cpp:345] relu3_2 -> conv3_2 (in-place)
I1106 14:35:58.067236 10880 net.cpp:96] Setting up relu3_2
I1106 14:35:58.067242 10880 net.cpp:103] Top shape: 32 256 56 56 (25690112)
I1106 14:35:58.067245 10880 layer_factory.hpp:78] Creating layer conv3_3
I1106 14:35:58.067252 10880 net.cpp:67] Creating Layer conv3_3
I1106 14:35:58.067255 10880 net.cpp:394] conv3_3 <- conv3_2
I1106 14:35:58.067260 10880 net.cpp:356] conv3_3 -> conv3_3
I1106 14:35:58.067265 10880 net.cpp:96] Setting up conv3_3
I1106 14:35:58.081946 10880 net.cpp:103] Top shape: 32 256 56 56 (25690112)
I1106 14:35:58.081967 10880 layer_factory.hpp:78] Creating layer relu3_3
I1106 14:35:58.081977 10880 net.cpp:67] Creating Layer relu3_3
I1106 14:35:58.081981 10880 net.cpp:394] relu3_3 <- conv3_3
I1106 14:35:58.081989 10880 net.cpp:345] relu3_3 -> conv3_3 (in-place)
I1106 14:35:58.081995 10880 net.cpp:96] Setting up relu3_3
I1106 14:35:58.082000 10880 net.cpp:103] Top shape: 32 256 56 56 (25690112)
I1106 14:35:58.082003 10880 layer_factory.hpp:78] Creating layer pool3
I1106 14:35:58.082010 10880 net.cpp:67] Creating Layer pool3
I1106 14:35:58.082013 10880 net.cpp:394] pool3 <- conv3_3
I1106 14:35:58.082018 10880 net.cpp:356] pool3 -> pool3
I1106 14:35:58.082023 10880 net.cpp:96] Setting up pool3
I1106 14:35:58.082031 10880 net.cpp:103] Top shape: 32 256 28 28 (6422528)
I1106 14:35:58.082034 10880 layer_factory.hpp:78] Creating layer conv4_1
I1106 14:35:58.082041 10880 net.cpp:67] Creating Layer conv4_1
I1106 14:35:58.082044 10880 net.cpp:394] conv4_1 <- pool3
I1106 14:35:58.082048 10880 net.cpp:356] conv4_1 -> conv4_1
I1106 14:35:58.082053 10880 net.cpp:96] Setting up conv4_1
I1106 14:35:58.110865 10880 net.cpp:103] Top shape: 32 512 28 28 (12845056)
I1106 14:35:58.110888 10880 layer_factory.hpp:78] Creating layer relu4_1
I1106 14:35:58.110896 10880 net.cpp:67] Creating Layer relu4_1
I1106 14:35:58.110901 10880 net.cpp:394] relu4_1 <- conv4_1
I1106 14:35:58.110908 10880 net.cpp:345] relu4_1 -> conv4_1 (in-place)
I1106 14:35:58.110915 10880 net.cpp:96] Setting up relu4_1
I1106 14:35:58.110921 10880 net.cpp:103] Top shape: 32 512 28 28 (12845056)
I1106 14:35:58.110924 10880 layer_factory.hpp:78] Creating layer conv4_2
I1106 14:35:58.110930 10880 net.cpp:67] Creating Layer conv4_2
I1106 14:35:58.110932 10880 net.cpp:394] conv4_2 <- conv4_1
I1106 14:35:58.110949 10880 net.cpp:356] conv4_2 -> conv4_2
I1106 14:35:58.110954 10880 net.cpp:96] Setting up conv4_2
I1106 14:35:58.168642 10880 net.cpp:103] Top shape: 32 512 28 28 (12845056)
I1106 14:35:58.168671 10880 layer_factory.hpp:78] Creating layer relu4_2
I1106 14:35:58.168679 10880 net.cpp:67] Creating Layer relu4_2
I1106 14:35:58.168684 10880 net.cpp:394] relu4_2 <- conv4_2
I1106 14:35:58.168690 10880 net.cpp:345] relu4_2 -> conv4_2 (in-place)
I1106 14:35:58.168697 10880 net.cpp:96] Setting up relu4_2
I1106 14:35:58.168704 10880 net.cpp:103] Top shape: 32 512 28 28 (12845056)
I1106 14:35:58.168706 10880 layer_factory.hpp:78] Creating layer conv4_3
I1106 14:35:58.168714 10880 net.cpp:67] Creating Layer conv4_3
I1106 14:35:58.168716 10880 net.cpp:394] conv4_3 <- conv4_2
I1106 14:35:58.168721 10880 net.cpp:356] conv4_3 -> conv4_3
I1106 14:35:58.168727 10880 net.cpp:96] Setting up conv4_3
I1106 14:35:58.226122 10880 net.cpp:103] Top shape: 32 512 28 28 (12845056)
I1106 14:35:58.226146 10880 layer_factory.hpp:78] Creating layer relu4_3
I1106 14:35:58.226155 10880 net.cpp:67] Creating Layer relu4_3
I1106 14:35:58.226160 10880 net.cpp:394] relu4_3 <- conv4_3
I1106 14:35:58.226167 10880 net.cpp:345] relu4_3 -> conv4_3 (in-place)
I1106 14:35:58.226174 10880 net.cpp:96] Setting up relu4_3
I1106 14:35:58.226181 10880 net.cpp:103] Top shape: 32 512 28 28 (12845056)
I1106 14:35:58.226183 10880 layer_factory.hpp:78] Creating layer pool4
I1106 14:35:58.226188 10880 net.cpp:67] Creating Layer pool4
I1106 14:35:58.226191 10880 net.cpp:394] pool4 <- conv4_3
I1106 14:35:58.226197 10880 net.cpp:356] pool4 -> pool4
I1106 14:35:58.226203 10880 net.cpp:96] Setting up pool4
I1106 14:35:58.226210 10880 net.cpp:103] Top shape: 32 512 14 14 (3211264)
I1106 14:35:58.226214 10880 layer_factory.hpp:78] Creating layer conv5_1
I1106 14:35:58.226220 10880 net.cpp:67] Creating Layer conv5_1
I1106 14:35:58.226223 10880 net.cpp:394] conv5_1 <- pool4
I1106 14:35:58.226228 10880 net.cpp:356] conv5_1 -> conv5_1
I1106 14:35:58.226236 10880 net.cpp:96] Setting up conv5_1
I1106 14:35:58.283958 10880 net.cpp:103] Top shape: 32 512 14 14 (3211264)
I1106 14:35:58.283984 10880 layer_factory.hpp:78] Creating layer relu5_1
I1106 14:35:58.283994 10880 net.cpp:67] Creating Layer relu5_1
I1106 14:35:58.283999 10880 net.cpp:394] relu5_1 <- conv5_1
I1106 14:35:58.284005 10880 net.cpp:345] relu5_1 -> conv5_1 (in-place)
I1106 14:35:58.284013 10880 net.cpp:96] Setting up relu5_1
I1106 14:35:58.284018 10880 net.cpp:103] Top shape: 32 512 14 14 (3211264)
I1106 14:35:58.284021 10880 layer_factory.hpp:78] Creating layer conv5_2
I1106 14:35:58.284028 10880 net.cpp:67] Creating Layer conv5_2
I1106 14:35:58.284029 10880 net.cpp:394] conv5_2 <- conv5_1
I1106 14:35:58.284035 10880 net.cpp:356] conv5_2 -> conv5_2
I1106 14:35:58.284041 10880 net.cpp:96] Setting up conv5_2
I1106 14:35:58.341392 10880 net.cpp:103] Top shape: 32 512 14 14 (3211264)
I1106 14:35:58.341416 10880 layer_factory.hpp:78] Creating layer relu5_2
I1106 14:35:58.341423 10880 net.cpp:67] Creating Layer relu5_2
I1106 14:35:58.341428 10880 net.cpp:394] relu5_2 <- conv5_2
I1106 14:35:58.341435 10880 net.cpp:345] relu5_2 -> conv5_2 (in-place)
I1106 14:35:58.341442 10880 net.cpp:96] Setting up relu5_2
I1106 14:35:58.341447 10880 net.cpp:103] Top shape: 32 512 14 14 (3211264)
I1106 14:35:58.341451 10880 layer_factory.hpp:78] Creating layer conv5_3
I1106 14:35:58.341456 10880 net.cpp:67] Creating Layer conv5_3
I1106 14:35:58.341459 10880 net.cpp:394] conv5_3 <- conv5_2
I1106 14:35:58.341465 10880 net.cpp:356] conv5_3 -> conv5_3
I1106 14:35:58.341471 10880 net.cpp:96] Setting up conv5_3
I1106 14:35:58.399044 10880 net.cpp:103] Top shape: 32 512 14 14 (3211264)
I1106 14:35:58.399070 10880 layer_factory.hpp:78] Creating layer relu5_3
I1106 14:35:58.399077 10880 net.cpp:67] Creating Layer relu5_3
I1106 14:35:58.399081 10880 net.cpp:394] relu5_3 <- conv5_3
I1106 14:35:58.399087 10880 net.cpp:345] relu5_3 -> conv5_3 (in-place)
I1106 14:35:58.399093 10880 net.cpp:96] Setting up relu5_3
I1106 14:35:58.399099 10880 net.cpp:103] Top shape: 32 512 14 14 (3211264)
I1106 14:35:58.399111 10880 layer_factory.hpp:78] Creating layer pool5
I1106 14:35:58.399117 10880 net.cpp:67] Creating Layer pool5
I1106 14:35:58.399121 10880 net.cpp:394] pool5 <- conv5_3
I1106 14:35:58.399124 10880 net.cpp:356] pool5 -> pool5
I1106 14:35:58.399130 10880 net.cpp:96] Setting up pool5
I1106 14:35:58.399138 10880 net.cpp:103] Top shape: 32 512 7 7 (802816)
I1106 14:35:58.399142 10880 layer_factory.hpp:78] Creating layer fc6
I1106 14:35:58.399157 10880 net.cpp:67] Creating Layer fc6
I1106 14:35:58.399162 10880 net.cpp:394] fc6 <- pool5
I1106 14:35:58.399166 10880 net.cpp:356] fc6 -> fc6
I1106 14:35:58.399173 10880 net.cpp:96] Setting up fc6
I1106 14:36:00.833346 10880 net.cpp:103] Top shape: 32 4096 1 1 (131072)
I1106 14:36:00.833384 10880 layer_factory.hpp:78] Creating layer relu6
I1106 14:36:00.833395 10880 net.cpp:67] Creating Layer relu6
I1106 14:36:00.833400 10880 net.cpp:394] relu6 <- fc6
I1106 14:36:00.833406 10880 net.cpp:345] relu6 -> fc6 (in-place)
I1106 14:36:00.833413 10880 net.cpp:96] Setting up relu6
I1106 14:36:00.833428 10880 net.cpp:103] Top shape: 32 4096 1 1 (131072)
I1106 14:36:00.833431 10880 layer_factory.hpp:78] Creating layer drop6
I1106 14:36:00.833439 10880 net.cpp:67] Creating Layer drop6
I1106 14:36:00.833442 10880 net.cpp:394] drop6 <- fc6
I1106 14:36:00.833448 10880 net.cpp:345] drop6 -> fc6 (in-place)
I1106 14:36:00.833452 10880 net.cpp:96] Setting up drop6
I1106 14:36:00.833457 10880 net.cpp:103] Top shape: 32 4096 1 1 (131072)
I1106 14:36:00.833461 10880 layer_factory.hpp:78] Creating layer fc7
I1106 14:36:00.833467 10880 net.cpp:67] Creating Layer fc7
I1106 14:36:00.833469 10880 net.cpp:394] fc7 <- fc6
I1106 14:36:00.833473 10880 net.cpp:356] fc7 -> fc7
I1106 14:36:00.833479 10880 net.cpp:96] Setting up fc7
I1106 14:36:01.222883 10880 net.cpp:103] Top shape: 32 4096 1 1 (131072)
I1106 14:36:01.222923 10880 layer_factory.hpp:78] Creating layer relu7
I1106 14:36:01.222931 10880 net.cpp:67] Creating Layer relu7
I1106 14:36:01.222936 10880 net.cpp:394] relu7 <- fc7
I1106 14:36:01.222946 10880 net.cpp:345] relu7 -> fc7 (in-place)
I1106 14:36:01.222952 10880 net.cpp:96] Setting up relu7
I1106 14:36:01.222967 10880 net.cpp:103] Top shape: 32 4096 1 1 (131072)
I1106 14:36:01.222970 10880 layer_factory.hpp:78] Creating layer drop7
I1106 14:36:01.222975 10880 net.cpp:67] Creating Layer drop7
I1106 14:36:01.222978 10880 net.cpp:394] drop7 <- fc7
I1106 14:36:01.222982 10880 net.cpp:345] drop7 -> fc7 (in-place)
I1106 14:36:01.222987 10880 net.cpp:96] Setting up drop7
I1106 14:36:01.222990 10880 net.cpp:103] Top shape: 32 4096 1 1 (131072)
I1106 14:36:01.222993 10880 layer_factory.hpp:78] Creating layer fc8_2
I1106 14:36:01.222998 10880 net.cpp:67] Creating Layer fc8_2
I1106 14:36:01.223001 10880 net.cpp:394] fc8_2 <- fc7
I1106 14:36:01.223007 10880 net.cpp:356] fc8_2 -> fc8_2
I1106 14:36:01.223013 10880 net.cpp:96] Setting up fc8_2
I1106 14:36:01.223232 10880 net.cpp:103] Top shape: 32 2 1 1 (64)
I1106 14:36:01.223240 10880 layer_factory.hpp:78] Creating layer loss
I1106 14:36:01.223250 10880 net.cpp:67] Creating Layer loss
I1106 14:36:01.223255 10880 net.cpp:394] loss <- fc8_2
I1106 14:36:01.223259 10880 net.cpp:394] loss <- label
I1106 14:36:01.223266 10880 net.cpp:356] loss -> (automatic)
I1106 14:36:01.223270 10880 net.cpp:96] Setting up loss
I1106 14:36:01.223278 10880 net.cpp:103] Top shape: 1 1 1 1 (1)
I1106 14:36:01.223284 10880 net.cpp:109]     with loss weight 1
I1106 14:36:01.223319 10880 net.cpp:170] loss needs backward computation.
I1106 14:36:01.223322 10880 net.cpp:170] fc8_2 needs backward computation.
I1106 14:36:01.223325 10880 net.cpp:170] drop7 needs backward computation.
I1106 14:36:01.223327 10880 net.cpp:170] relu7 needs backward computation.
I1106 14:36:01.223330 10880 net.cpp:170] fc7 needs backward computation.
…
I1106 14:36:01.224375 10880 net.cpp:275] The NetState phase (1) differed from the phase (0) specified by a rule in layer data
I1106 14:36:01.224584 10880 net.cpp:39] Initializing net from parameters: 
name: "small"
layers {
  top: "data"
  top: "label"
  name: "data"
  type: IMAGE_DATA
  image_data_param {
    source: "/data/ad6813/devCaffe/caffe/data/inadcl/val.txt"
    batch_size: 8
    new_height: 256
    new_width: 256
  }
  include {
    phase: TEST
  }
  transform_param {
    mirror: true
    crop_size: 224
    mean_value: 86.752
    mean_value: 101.46
    mean_value: 104.6
  }
}
layers {
  bottom: "data"
  top: "conv1_1"
  name: "conv1_1"
  type: CONVOLUTION
  convolution_param {
    num_output: 64
    pad: 1
    kernel_size: 3
    weight_filler {
      type: "gaussian"
      std: 0.01
    }
    bias_filler {
      type: "constant"
      value: 0
    }
  }
}
layers {
  bottom: "conv1_1"
  top: "conv1_1"
  name: "relu1_1"
  type: RELU
}
layers {
  bottom: "conv1_1"
  top: "conv1_2"
  name: "conv1_2"
  type: CONVOLUTION
  convolution_param {
    num_output: 64
    pad: 1
    kernel_size: 3
    weight_filler {
      type: "gaussian"
      std: 0.01
    }
    bias_filler {
      type: "constant"
      value: 0
    }
  }
}
layers {
  bottom: "conv1_2"
  top: "conv1_2"
  name: "relu1_2"
  type: RELU
}
layers {
  bottom: "conv1_2"
  top: "pool1"
  name: "pool1"
  type: POOLING
  pooling_param {
    pool: MAX
    kernel_size: 2
    stride: 2
  }
}
layers {
  bottom: "pool1"
  top: "conv2_1"
  name: "conv2_1"
  type: CONVOLUTION
  convolution_param {
    num_output: 128
    pad: 1
    kernel_size: 3
    weight_filler {
      type: "gaussian"
      std: 0.01
    }
    bias_filler {
      type: "constant"
      value: 0
    }
  }
}
layers {
  bottom: "conv2_1"
  top: "conv2_1"
  name: "relu2_1"
  type: RELU
}
layers {
  bottom: "conv2_1"
  top: "conv2_2"
  name: "conv2_2"
  type: CONVOLUTION
  convolution_param {
    num_output: 128
    pad: 1
    kernel_size: 3
    weight_filler {
      type: "gaussian"
      std: 0.01
    }
    bias_filler {
      type: "constant"
      value: 0
    }
  }
}
layers {
  bottom: "conv2_2"
  top: "conv2_2"
  name: "relu2_2"
  type: RELU
}
layers {
  bottom: "conv2_2"
  top: "pool2"
  name: "pool2"
  type: POOLING
  pooling_param {
    pool: MAX
    kernel_size: 2
    stride: 2
  }
}
layers {
  bottom: "pool2"
  top: "conv3_1"
  name: "conv3_1"
  type: CONVOLUTION
  convolution_param {
    num_output: 256
    pad: 1
    kernel_size: 3
    weight_filler {
      type: "gaussian"
      std: 0.01
    }
    bias_filler {
      type: "constant"
      value: 0
    }
  }
}
layers {
  bottom: "conv3_1"
  top: "conv3_1"
  name: "relu3_1"
  type: RELU
}
layers {
  bottom: "conv3_1"
  top: "conv3_2"
  name: "conv3_2"
  type: CONVOLUTION
  convolution_param {
    num_output: 256
    pad: 1
    kernel_size: 3
    weight_filler {
      type: "gaussian"
      std: 0.01
    }
    bias_filler {
      type: "constant"
      value: 0
    }
  }
}
layers {
  bottom: "conv3_2"
  top: "conv3_2"
  name: "relu3_2"
  type: RELU
}
layers {
  bottom: "conv3_2"
  top: "conv3_3"
  name: "conv3_3"
  type: CONVOLUTION
  convolution_param {
    num_output: 256
    pad: 1
    kernel_size: 3
    weight_filler {
      type: "gaussian"
      std: 0.01
    }
    bias_filler {
      type: "constant"
      value: 0
    }
  }
}
layers {
  bottom: "conv3_3"
  top: "conv3_3"
  name: "relu3_3"
  type: RELU
}
layers {
  bottom: "conv3_3"
  top: "pool3"
  name: "pool3"
  type: POOLING
  pooling_param {
    pool: MAX
    kernel_size: 2
    stride: 2
  }
}
layers {
  bottom: "pool3"
  top: "conv4_1"
  name: "conv4_1"
  type: CONVOLUTION
  convolution_param {
    num_output: 512
    pad: 1
    kernel_size: 3
    weight_filler {
      type: "gaussian"
      std: 0.01
    }
    bias_filler {
      type: "constant"
      value: 0
    }
  }
}
layers {
  bottom: "conv4_1"
  top: "conv4_1"
  name: "relu4_1"
  type: RELU
}
layers {
  bottom: "conv4_1"
  top: "conv4_2"
  name: "conv4_2"
  type: CONVOLUTION
  convolution_param {
    num_output: 512
    pad: 1
    kernel_size: 3
    weight_filler {
      type: "gaussian"
      std: 0.01
    }
    bias_filler {
      type: "constant"
      value: 0
    }
  }
}
layers {
  bottom: "conv4_2"
  top: "conv4_2"
  name: "relu4_2"
  type: RELU
}
layers {
  bottom: "conv4_2"
  top: "conv4_3"
  name: "conv4_3"
  type: CONVOLUTION
  convolution_param {
    num_output: 512
    pad: 1
    kernel_size: 3
    weight_filler {
      type: "gaussian"
      std: 0.01
    }
    bias_filler {
      type: "constant"
      value: 0
    }
  }
}
layers {
  bottom: "conv4_3"
  top: "conv4_3"
  name: "relu4_3"
  type: RELU
}
layers {
  bottom: "conv4_3"
  top: "pool4"
  name: "pool4"
  type: POOLING
  pooling_param {
    pool: MAX
    kernel_size: 2
    stride: 2
  }
}
layers {
  bottom: "pool4"
  top: "conv5_1"
  name: "conv5_1"
  type: CONVOLUTION
  convolution_param {
    num_output: 512
    pad: 1
    kernel_size: 3
    weight_filler {
      type: "gaussian"
      std: 0.01
    }
    bias_filler {
      type: "constant"
      value: 0
    }
  }
}
layers {
  bottom: "conv5_1"
  top: "conv5_1"
  name: "relu5_1"
  type: RELU
}
layers {
  bottom: "conv5_1"
  top: "conv5_2"
  name: "conv5_2"
  type: CONVOLUTION
  convolution_param {
    num_output: 512
    pad: 1
    kernel_size: 3
    weight_filler {
      type: "gaussian"
      std: 0.01
    }
    bias_filler {
      type: "constant"
      value: 0
    }
  }
}
layers {
  bottom: "conv5_2"
  top: "conv5_2"
  name: "relu5_2"
  type: RELU
}
layers {
  bottom: "conv5_2"
  top: "conv5_3"
  name: "conv5_3"
  type: CONVOLUTION
  convolution_param {
    num_output: 512
    pad: 1
    kernel_size: 3
    weight_filler {
      type: "gaussian"
      std: 0.01
    }
    bias_filler {
      type: "constant"
      value: 0
    }
  }
}
layers {
  bottom: "conv5_3"
  top: "conv5_3"
  name: "relu5_3"
  type: RELU
}
layers {
  bottom: "conv5_3"
  top: "pool5"
  name: "pool5"
  type: POOLING
  pooling_param {
    pool: MAX
    kernel_size: 2
    stride: 2
  }
}
layers {
  bottom: "pool5"
  top: "fc6"
  name: "fc6"
  type: INNER_PRODUCT
  inner_product_param {
    num_output: 4096
    weight_filler {
      type: "gaussian"
      std: 0.01
    }
    bias_filler {
      type: "constant"
      value: 0
    }
  }
}
layers {
  bottom: "fc6"
  top: "fc6"
  name: "relu6"
  type: RELU
}
layers {
  bottom: "fc6"
  top: "fc6"
  name: "drop6"
  type: DROPOUT
  dropout_param {
    dropout_ratio: 0.5
  }
}
layers {
  bottom: "fc6"
  top: "fc7"
  name: "fc7"
  type: INNER_PRODUCT
  inner_product_param {
    num_output: 4096
    weight_filler {
      type: "gaussian"
      std: 0.01
    }
    bias_filler {
      type: "constant"
      value: 0
    }
  }
}
layers {
  bottom: "fc7"
  top: "fc7"
  name: "relu7"
  type: RELU
}
layers {
  bottom: "fc7"
  top: "fc7"
  name: "drop7"
  type: DROPOUT
  dropout_param {
    dropout_ratio: 0.5
  }
}
layers {
  bottom: "fc7"
  top: "fc8_2"
  name: "fc8_2"
  type: INNER_PRODUCT
  inner_product_param {
    num_output: 2
    weight_filler {
      type: "gaussian"
      std: 0.01
    }
    bias_filler {
      type: "constant"
      value: 0
    }
  }
}
layers {
  bottom: "fc8_2"
  bottom: "label"
  name: "loss"
  type: SOFTMAX_LOSS
}
layers {
  bottom: "fc8_2"
  bottom: "label"
  top: "accuracy"
  name: "accuracy"
  type: PER_CLASS_ACCURACY
  include {
    phase: TEST
  }
}
state {
  phase: TEST
}
I1106 14:36:01.224730 10880 layer_factory.hpp:78] Creating layer data
I1106 14:36:01.224741 10880 net.cpp:67] Creating Layer data
I1106 14:36:01.224745 10880 net.cpp:356] data -> data
I1106 14:36:01.224752 10880 net.cpp:356] data -> label
I1106 14:36:01.224758 10880 net.cpp:96] Setting up data
I1106 14:36:01.224762 10880 image_data_layer.cpp:34] Opening file /data/ad6813/devCaffe/caffe/data/inadcl/val.txt
I1106 14:36:01.224895 10880 image_data_layer.cpp:49] A total of 232 images.
I1106 14:36:01.231446 10880 image_data_layer.cpp:78] output data size: 8,3,224,224
I1106 14:36:01.232107 10880 net.cpp:103] Top shape: 8 3 224 224 (1204224)
I1106 14:36:01.232115 10880 net.cpp:103] Top shape: 8 1 1 1 (8)
I1106 14:36:01.232131 10880 layer_factory.hpp:78] Creating layer label_data_1_split
I1106 14:36:01.232142 10880 net.cpp:67] Creating Layer label_data_1_split
I1106 14:36:01.232146 10880 net.cpp:394] label_data_1_split <- label
I1106 14:36:01.232152 10880 net.cpp:356] label_data_1_split -> label_data_1_split_0
I1106 14:36:01.232159 10880 net.cpp:356] label_data_1_split -> label_data_1_split_1
I1106 14:36:01.232164 10880 net.cpp:96] Setting up label_data_1_split
I1106 14:36:01.232170 10880 net.cpp:103] Top shape: 8 1 1 1 (8)
I1106 14:36:01.232175 10880 net.cpp:103] Top shape: 8 1 1 1 (8)
I1106 14:36:01.232178 10880 layer_factory.hpp:78] Creating layer conv1_1
I1106 14:36:01.232184 10880 net.cpp:67] Creating Layer conv1_1
I1106 14:36:01.232187 10880 net.cpp:394] conv1_1 <- data
I1106 14:36:01.232192 10880 net.cpp:356] conv1_1 -> conv1_1
I1106 14:36:01.232198 10880 net.cpp:96] Setting up conv1_1
I1106 14:36:01.232357 10880 net.cpp:103] Top shape: 8 64 224 224 (25690112)
I1106 14:36:01.232370 10880 layer_factory.hpp:78] Creating layer relu1_1
I1106 14:36:01.232379 10880 net.cpp:67] Creating Layer relu1_1
I1106 14:36:01.232383 10880 net.cpp:394] relu1_1 <- conv1_1
I1106 14:36:01.232388 10880 net.cpp:345] relu1_1 -> conv1_1 (in-place)
I1106 14:36:01.232391 10880 net.cpp:96] Setting up relu1_1
I1106 14:36:01.232405 10880 net.cpp:103] Top shape: 8 64 224 224 (25690112)
I1106 14:36:01.232409 10880 layer_factory.hpp:78] Creating layer conv1_2
I1106 14:36:01.232414 10880 net.cpp:67] Creating Layer conv1_2
I1106 14:36:01.232417 10880 net.cpp:394] conv1_2 <- conv1_1
I1106 14:36:01.232421 10880 net.cpp:356] conv1_2 -> conv1_2
I1106 14:36:01.232426 10880 net.cpp:96] Setting up conv1_2
I1106 14:36:01.233419 10880 net.cpp:103] Top shape: 8 64 224 224 (25690112)
I1106 14:36:01.233433 10880 layer_factory.hpp:78] Creating layer relu1_2
I1106 14:36:01.233438 10880 net.cpp:67] Creating Layer relu1_2
I1106 14:36:01.233440 10880 net.cpp:394] relu1_2 <- conv1_2
I1106 14:36:01.233444 10880 net.cpp:345] relu1_2 -> conv1_2 (in-place)
I1106 14:36:01.233449 10880 net.cpp:96] Setting up relu1_2
I1106 14:36:01.233454 10880 net.cpp:103] Top shape: 8 64 224 224 (25690112)
I1106 14:36:01.233458 10880 layer_factory.hpp:78] Creating layer pool1
I1106 14:36:01.233463 10880 net.cpp:67] Creating Layer pool1
I1106 14:36:01.233465 10880 net.cpp:394] pool1 <- conv1_2
I1106 14:36:01.233469 10880 net.cpp:356] pool1 -> pool1
I1106 14:36:01.233474 10880 net.cpp:96] Setting up pool1
I1106 14:36:01.233481 10880 net.cpp:103] Top shape: 8 64 112 112 (6422528)
I1106 14:36:01.233484 10880 layer_factory.hpp:78] Creating layer conv2_1
I1106 14:36:01.233489 10880 net.cpp:67] Creating Layer conv2_1
I1106 14:36:01.233492 10880 net.cpp:394] conv2_1 <- pool1
I1106 14:36:01.233496 10880 net.cpp:356] conv2_1 -> conv2_1
I1106 14:36:01.233501 10880 net.cpp:96] Setting up conv2_1
I1106 14:36:01.235484 10880 net.cpp:103] Top shape: 8 128 112 112 (12845056)
I1106 14:36:01.235497 10880 layer_factory.hpp:78] Creating layer relu2_1
I1106 14:36:01.235503 10880 net.cpp:67] Creating Layer relu2_1
I1106 14:36:01.235507 10880 net.cpp:394] relu2_1 <- conv2_1
I1106 14:36:01.235512 10880 net.cpp:345] relu2_1 -> conv2_1 (in-place)
I1106 14:36:01.235517 10880 net.cpp:96] Setting up relu2_1
I1106 14:36:01.235522 10880 net.cpp:103] Top shape: 8 128 112 112 (12845056)
I1106 14:36:01.235524 10880 layer_factory.hpp:78] Creating layer conv2_2
I1106 14:36:01.235529 10880 net.cpp:67] Creating Layer conv2_2
I1106 14:36:01.235532 10880 net.cpp:394] conv2_2 <- conv2_1
I1106 14:36:01.235537 10880 net.cpp:356] conv2_2 -> conv2_2
I1106 14:36:01.235543 10880 net.cpp:96] Setting up conv2_2
I1106 14:36:01.239173 10880 net.cpp:103] Top shape: 8 128 112 112 (12845056)
I1106 14:36:01.239184 10880 layer_factory.hpp:78] Creating layer relu2_2
I1106 14:36:01.239189 10880 net.cpp:67] Creating Layer relu2_2
I1106 14:36:01.239193 10880 net.cpp:394] relu2_2 <- conv2_2
I1106 14:36:01.239197 10880 net.cpp:345] relu2_2 -> conv2_2 (in-place)
I1106 14:36:01.239202 10880 net.cpp:96] Setting up relu2_2
I1106 14:36:01.239207 10880 net.cpp:103] Top shape: 8 128 112 112 (12845056)
I1106 14:36:01.239210 10880 layer_factory.hpp:78] Creating layer pool2
I1106 14:36:01.239214 10880 net.cpp:67] Creating Layer pool2
I1106 14:36:01.239217 10880 net.cpp:394] pool2 <- conv2_2
I1106 14:36:01.239222 10880 net.cpp:356] pool2 -> pool2
I1106 14:36:01.239226 10880 net.cpp:96] Setting up pool2
I1106 14:36:01.239231 10880 net.cpp:103] Top shape: 8 128 56 56 (3211264)
I1106 14:36:01.239235 10880 layer_factory.hpp:78] Creating layer conv3_1
I1106 14:36:01.239239 10880 net.cpp:67] Creating Layer conv3_1
I1106 14:36:01.239243 10880 net.cpp:394] conv3_1 <- pool2
I1106 14:36:01.239248 10880 net.cpp:356] conv3_1 -> conv3_1
I1106 14:36:01.239253 10880 net.cpp:96] Setting up conv3_1
I1106 14:36:01.246453 10880 net.cpp:103] Top shape: 8 256 56 56 (6422528)
I1106 14:36:01.246466 10880 layer_factory.hpp:78] Creating layer relu3_1
I1106 14:36:01.246471 10880 net.cpp:67] Creating Layer relu3_1
I1106 14:36:01.246474 10880 net.cpp:394] relu3_1 <- conv3_1
I1106 14:36:01.246479 10880 net.cpp:345] relu3_1 -> conv3_1 (in-place)
I1106 14:36:01.246484 10880 net.cpp:96] Setting up relu3_1
I1106 14:36:01.246490 10880 net.cpp:103] Top shape: 8 256 56 56 (6422528)
I1106 14:36:01.246492 10880 layer_factory.hpp:78] Creating layer conv3_2
I1106 14:36:01.246505 10880 net.cpp:67] Creating Layer conv3_2
I1106 14:36:01.246507 10880 net.cpp:394] conv3_2 <- conv3_1
I1106 14:36:01.246512 10880 net.cpp:356] conv3_2 -> conv3_2
I1106 14:36:01.246517 10880 net.cpp:96] Setting up conv3_2
I1106 14:36:01.261214 10880 net.cpp:103] Top shape: 8 256 56 56 (6422528)
I1106 14:36:01.261240 10880 layer_factory.hpp:78] Creating layer relu3_2
I1106 14:36:01.261248 10880 net.cpp:67] Creating Layer relu3_2
I1106 14:36:01.261253 10880 net.cpp:394] relu3_2 <- conv3_2
I1106 14:36:01.261260 10880 net.cpp:345] relu3_2 -> conv3_2 (in-place)
I1106 14:36:01.261266 10880 net.cpp:96] Setting up relu3_2
I1106 14:36:01.261271 10880 net.cpp:103] Top shape: 8 256 56 56 (6422528)
I1106 14:36:01.261276 10880 layer_factory.hpp:78] Creating layer conv3_3
I1106 14:36:01.261286 10880 net.cpp:67] Creating Layer conv3_3
I1106 14:36:01.261288 10880 net.cpp:394] conv3_3 <- conv3_2
I1106 14:36:01.261293 10880 net.cpp:356] conv3_3 -> conv3_3
I1106 14:36:01.261299 10880 net.cpp:96] Setting up conv3_3
I1106 14:36:01.276003 10880 net.cpp:103] Top shape: 8 256 56 56 (6422528)
I1106 14:36:01.276031 10880 layer_factory.hpp:78] Creating layer relu3_3
I1106 14:36:01.276039 10880 net.cpp:67] Creating Layer relu3_3
I1106 14:36:01.276043 10880 net.cpp:394] relu3_3 <- conv3_3
I1106 14:36:01.276049 10880 net.cpp:345] relu3_3 -> conv3_3 (in-place)
I1106 14:36:01.276057 10880 net.cpp:96] Setting up relu3_3
I1106 14:36:01.276062 10880 net.cpp:103] Top shape: 8 256 56 56 (6422528)
I1106 14:36:01.276065 10880 layer_factory.hpp:78] Creating layer pool3
I1106 14:36:01.276072 10880 net.cpp:67] Creating Layer pool3
I1106 14:36:01.276075 10880 net.cpp:394] pool3 <- conv3_3
I1106 14:36:01.276080 10880 net.cpp:356] pool3 -> pool3
I1106 14:36:01.276085 10880 net.cpp:96] Setting up pool3
I1106 14:36:01.276093 10880 net.cpp:103] Top shape: 8 256 28 28 (1605632)
I1106 14:36:01.276096 10880 layer_factory.hpp:78] Creating layer conv4_1
I1106 14:36:01.276103 10880 net.cpp:67] Creating Layer conv4_1
I1106 14:36:01.276105 10880 net.cpp:394] conv4_1 <- pool3
I1106 14:36:01.276110 10880 net.cpp:356] conv4_1 -> conv4_1
I1106 14:36:01.276115 10880 net.cpp:96] Setting up conv4_1
I1106 14:36:01.305322 10880 net.cpp:103] Top shape: 8 512 28 28 (3211264)
I1106 14:36:01.305344 10880 layer_factory.hpp:78] Creating layer relu4_1
I1106 14:36:01.305353 10880 net.cpp:67] Creating Layer relu4_1
I1106 14:36:01.305357 10880 net.cpp:394] relu4_1 <- conv4_1
I1106 14:36:01.305363 10880 net.cpp:345] relu4_1 -> conv4_1 (in-place)
I1106 14:36:01.305371 10880 net.cpp:96] Setting up relu4_1
I1106 14:36:01.305377 10880 net.cpp:103] Top shape: 8 512 28 28 (3211264)
I1106 14:36:01.305379 10880 layer_factory.hpp:78] Creating layer conv4_2
I1106 14:36:01.305388 10880 net.cpp:67] Creating Layer conv4_2
I1106 14:36:01.305392 10880 net.cpp:394] conv4_2 <- conv4_1
I1106 14:36:01.305395 10880 net.cpp:356] conv4_2 -> conv4_2
I1106 14:36:01.305403 10880 net.cpp:96] Setting up conv4_2
I1106 14:36:01.360939 10880 net.cpp:103] Top shape: 8 512 28 28 (3211264)
I1106 14:36:01.360980 10880 layer_factory.hpp:78] Creating layer relu4_2
I1106 14:36:01.360990 10880 net.cpp:67] Creating Layer relu4_2
I1106 14:36:01.360995 10880 net.cpp:394] relu4_2 <- conv4_2
I1106 14:36:01.361001 10880 net.cpp:345] relu4_2 -> conv4_2 (in-place)
I1106 14:36:01.361008 10880 net.cpp:96] Setting up relu4_2
I1106 14:36:01.361013 10880 net.cpp:103] Top shape: 8 512 28 28 (3211264)
I1106 14:36:01.361017 10880 layer_factory.hpp:78] Creating layer conv4_3
I1106 14:36:01.361024 10880 net.cpp:67] Creating Layer conv4_3
I1106 14:36:01.361027 10880 net.cpp:394] conv4_3 <- conv4_2
I1106 14:36:01.361032 10880 net.cpp:356] conv4_3 -> conv4_3
I1106 14:36:01.361038 10880 net.cpp:96] Setting up conv4_3
I1106 14:36:01.415879 10880 net.cpp:103] Top shape: 8 512 28 28 (3211264)
I1106 14:36:01.415915 10880 layer_factory.hpp:78] Creating layer relu4_3
I1106 14:36:01.415925 10880 net.cpp:67] Creating Layer relu4_3
I1106 14:36:01.415930 10880 net.cpp:394] relu4_3 <- conv4_3
I1106 14:36:01.415936 10880 net.cpp:345] relu4_3 -> conv4_3 (in-place)
I1106 14:36:01.415952 10880 net.cpp:96] Setting up relu4_3
I1106 14:36:01.415958 10880 net.cpp:103] Top shape: 8 512 28 28 (3211264)
I1106 14:36:01.415961 10880 layer_factory.hpp:78] Creating layer pool4
I1106 14:36:01.415968 10880 net.cpp:67] Creating Layer pool4
I1106 14:36:01.415972 10880 net.cpp:394] pool4 <- conv4_3
I1106 14:36:01.415977 10880 net.cpp:356] pool4 -> pool4
I1106 14:36:01.415982 10880 net.cpp:96] Setting up pool4
I1106 14:36:01.415990 10880 net.cpp:103] Top shape: 8 512 14 14 (802816)
I1106 14:36:01.415993 10880 layer_factory.hpp:78] Creating layer conv5_1
I1106 14:36:01.415999 10880 net.cpp:67] Creating Layer conv5_1
I1106 14:36:01.416003 10880 net.cpp:394] conv5_1 <- pool4
I1106 14:36:01.416007 10880 net.cpp:356] conv5_1 -> conv5_1
I1106 14:36:01.416013 10880 net.cpp:96] Setting up conv5_1
I1106 14:36:01.470872 10880 net.cpp:103] Top shape: 8 512 14 14 (802816)
I1106 14:36:01.470911 10880 layer_factory.hpp:78] Creating layer relu5_1
I1106 14:36:01.470918 10880 net.cpp:67] Creating Layer relu5_1
I1106 14:36:01.470923 10880 net.cpp:394] relu5_1 <- conv5_1
I1106 14:36:01.470931 10880 net.cpp:345] relu5_1 -> conv5_1 (in-place)
I1106 14:36:01.470937 10880 net.cpp:96] Setting up relu5_1
I1106 14:36:01.470943 10880 net.cpp:103] Top shape: 8 512 14 14 (802816)
I1106 14:36:01.470947 10880 layer_factory.hpp:78] Creating layer conv5_2
I1106 14:36:01.470952 10880 net.cpp:67] Creating Layer conv5_2
I1106 14:36:01.470954 10880 net.cpp:394] conv5_2 <- conv5_1
I1106 14:36:01.470959 10880 net.cpp:356] conv5_2 -> conv5_2
I1106 14:36:01.470964 10880 net.cpp:96] Setting up conv5_2
I1106 14:36:01.525794 10880 net.cpp:103] Top shape: 8 512 14 14 (802816)
I1106 14:36:01.525831 10880 layer_factory.hpp:78] Creating layer relu5_2
I1106 14:36:01.525838 10880 net.cpp:67] Creating Layer relu5_2
I1106 14:36:01.525843 10880 net.cpp:394] relu5_2 <- conv5_2
I1106 14:36:01.525849 10880 net.cpp:345] relu5_2 -> conv5_2 (in-place)
I1106 14:36:01.525856 10880 net.cpp:96] Setting up relu5_2
I1106 14:36:01.525861 10880 net.cpp:103] Top shape: 8 512 14 14 (802816)
I1106 14:36:01.525863 10880 layer_factory.hpp:78] Creating layer conv5_3
I1106 14:36:01.525871 10880 net.cpp:67] Creating Layer conv5_3
I1106 14:36:01.525873 10880 net.cpp:394] conv5_3 <- conv5_2
I1106 14:36:01.525878 10880 net.cpp:356] conv5_3 -> conv5_3
I1106 14:36:01.525884 10880 net.cpp:96] Setting up conv5_3
I1106 14:36:01.581048 10880 net.cpp:103] Top shape: 8 512 14 14 (802816)
I1106 14:36:01.581087 10880 layer_factory.hpp:78] Creating layer relu5_3
I1106 14:36:01.581095 10880 net.cpp:67] Creating Layer relu5_3
I1106 14:36:01.581100 10880 net.cpp:394] relu5_3 <- conv5_3
I1106 14:36:01.581107 10880 net.cpp:345] relu5_3 -> conv5_3 (in-place)
I1106 14:36:01.581114 10880 net.cpp:96] Setting up relu5_3
I1106 14:36:01.581120 10880 net.cpp:103] Top shape: 8 512 14 14 (802816)
I1106 14:36:01.581122 10880 layer_factory.hpp:78] Creating layer pool5
I1106 14:36:01.581133 10880 net.cpp:67] Creating Layer pool5
I1106 14:36:01.581136 10880 net.cpp:394] pool5 <- conv5_3
I1106 14:36:01.581141 10880 net.cpp:356] pool5 -> pool5
I1106 14:36:01.581146 10880 net.cpp:96] Setting up pool5
I1106 14:36:01.581154 10880 net.cpp:103] Top shape: 8 512 7 7 (200704)
I1106 14:36:01.581157 10880 layer_factory.hpp:78] Creating layer fc6
I1106 14:36:01.581164 10880 net.cpp:67] Creating Layer fc6
I1106 14:36:01.581167 10880 net.cpp:394] fc6 <- pool5
I1106 14:36:01.581172 10880 net.cpp:356] fc6 -> fc6
I1106 14:36:01.581177 10880 net.cpp:96] Setting up fc6
I1106 14:36:03.955435 10880 net.cpp:103] Top shape: 8 4096 1 1 (32768)
I1106 14:36:03.955476 10880 layer_factory.hpp:78] Creating layer relu6
I1106 14:36:03.955485 10880 net.cpp:67] Creating Layer relu6
I1106 14:36:03.955492 10880 net.cpp:394] relu6 <- fc6
I1106 14:36:03.955498 10880 net.cpp:345] relu6 -> fc6 (in-place)
I1106 14:36:03.955505 10880 net.cpp:96] Setting up relu6
I1106 14:36:03.955519 10880 net.cpp:103] Top shape: 8 4096 1 1 (32768)
I1106 14:36:03.955523 10880 layer_factory.hpp:78] Creating layer drop6
I1106 14:36:03.955528 10880 net.cpp:67] Creating Layer drop6
I1106 14:36:03.955540 10880 net.cpp:394] drop6 <- fc6
I1106 14:36:03.955545 10880 net.cpp:345] drop6 -> fc6 (in-place)
I1106 14:36:03.955549 10880 net.cpp:96] Setting up drop6
I1106 14:36:03.955554 10880 net.cpp:103] Top shape: 8 4096 1 1 (32768)
I1106 14:36:03.955556 10880 layer_factory.hpp:78] Creating layer fc7
I1106 14:36:03.955562 10880 net.cpp:67] Creating Layer fc7
I1106 14:36:03.955564 10880 net.cpp:394] fc7 <- fc6
I1106 14:36:03.955570 10880 net.cpp:356] fc7 -> fc7
I1106 14:36:03.955577 10880 net.cpp:96] Setting up fc7
I1106 14:36:04.343561 10880 net.cpp:103] Top shape: 8 4096 1 1 (32768)
I1106 14:36:04.343600 10880 layer_factory.hpp:78] Creating layer relu7
I1106 14:36:04.343610 10880 net.cpp:67] Creating Layer relu7
I1106 14:36:04.343615 10880 net.cpp:394] relu7 <- fc7
I1106 14:36:04.343622 10880 net.cpp:345] relu7 -> fc7 (in-place)
I1106 14:36:04.343629 10880 net.cpp:96] Setting up relu7
I1106 14:36:04.343643 10880 net.cpp:103] Top shape: 8 4096 1 1 (32768)
I1106 14:36:04.343647 10880 layer_factory.hpp:78] Creating layer drop7
I1106 14:36:04.343652 10880 net.cpp:67] Creating Layer drop7
I1106 14:36:04.343654 10880 net.cpp:394] drop7 <- fc7
I1106 14:36:04.343658 10880 net.cpp:345] drop7 -> fc7 (in-place)
I1106 14:36:04.343663 10880 net.cpp:96] Setting up drop7
I1106 14:36:04.343667 10880 net.cpp:103] Top shape: 8 4096 1 1 (32768)
I1106 14:36:04.343670 10880 layer_factory.hpp:78] Creating layer fc8_2
I1106 14:36:04.343675 10880 net.cpp:67] Creating Layer fc8_2
I1106 14:36:04.343677 10880 net.cpp:394] fc8_2 <- fc7
I1106 14:36:04.343685 10880 net.cpp:356] fc8_2 -> fc8_2
I1106 14:36:04.343691 10880 net.cpp:96] Setting up fc8_2
I1106 14:36:04.343916 10880 net.cpp:103] Top shape: 8 2 1 1 (16)
I1106 14:36:04.343925 10880 layer_factory.hpp:78] Creating layer fc8_2_fc8_2_0_split
I1106 14:36:04.343931 10880 net.cpp:67] Creating Layer fc8_2_fc8_2_0_split
I1106 14:36:04.343935 10880 net.cpp:394] fc8_2_fc8_2_0_split <- fc8_2
I1106 14:36:04.343940 10880 net.cpp:356] fc8_2_fc8_2_0_split -> fc8_2_fc8_2_0_split_0
I1106 14:36:04.343945 10880 net.cpp:356] fc8_2_fc8_2_0_split -> fc8_2_fc8_2_0_split_1
I1106 14:36:04.343950 10880 net.cpp:96] Setting up fc8_2_fc8_2_0_split
I1106 14:36:04.343955 10880 net.cpp:103] Top shape: 8 2 1 1 (16)
I1106 14:36:04.343957 10880 net.cpp:103] Top shape: 8 2 1 1 (16)
I1106 14:36:04.343961 10880 layer_factory.hpp:78] Creating layer loss
I1106 14:36:04.343966 10880 net.cpp:67] Creating Layer loss
I1106 14:36:04.343969 10880 net.cpp:394] loss <- fc8_2_fc8_2_0_split_0
I1106 14:36:04.343973 10880 net.cpp:394] loss <- label_data_1_split_0
I1106 14:36:04.343978 10880 net.cpp:356] loss -> (automatic)
I1106 14:36:04.343989 10880 net.cpp:96] Setting up loss
I1106 14:36:04.343996 10880 net.cpp:103] Top shape: 1 1 1 1 (1)
I1106 14:36:04.343998 10880 net.cpp:109]     with loss weight 1
I1106 14:36:04.344012 10880 layer_factory.hpp:78] Creating layer accuracy
I1106 14:36:04.344022 10880 net.cpp:67] Creating Layer accuracy
I1106 14:36:04.344027 10880 net.cpp:394] accuracy <- fc8_2_fc8_2_0_split_1
I1106 14:36:04.344035 10880 net.cpp:394] accuracy <- label_data_1_split_1
I1106 14:36:04.344040 10880 net.cpp:356] accuracy -> accuracy
I1106 14:36:04.344045 10880 net.cpp:96] Setting up accuracy
I1106 14:36:04.344053 10880 net.cpp:103] Top shape: 1 1 1 4 (4)
I1106 14:36:04.344058 10880 net.cpp:172] accuracy does not need backward computation.
I1106 14:36:04.344060 10880 net.cpp:170] loss needs backward computation.
I1106 14:36:04.344063 10880 net.cpp:170] fc8_2_fc8_2_0_split needs backward computation.
I1106 14:36:04.344066 10880 net.cpp:170] fc8_2 needs backward computation.
I1106 14:36:04.344069 10880 net.cpp:170] drop7 needs backward computation.
…
