…
I1118 01:01:31.547261 26872 net.cpp:275] The NetState phase (0) differed from the phase (1) specified by a rule in layer accuracy
I1118 01:01:31.547472 26872 net.cpp:39] Initializing net from parameters: 
>>>>>>> d3a087dcb4d34942a36fa41fa5daea2e88cc020e
name: "small"
layers {
  top: "data"
  top: "label"
  name: "data"
  type: IMAGE_DATA
  image_data_param {
    source: "/data/ad6813/devCaffe/caffe/data/water_high_o/train.txt"
    batch_size: 8
    new_height: 256
    new_width: 256
  }
  include {
    phase: TRAIN
  }
  transform_param {
    mirror: true
    crop_size: 224
    mean_value: 86.752
    mean_value: 101.46
    mean_value: 104.6
  }
}
layers {
  bottom: "data"
  top: "conv1_1"
  name: "conv1_1"
  type: CONVOLUTION
  convolution_param {
    num_output: 64
    pad: 1
    kernel_size: 3
    weight_filler {
      type: "gaussian"
      std: 0.01
    }
    bias_filler {
      type: "constant"
      value: 0
    }
  }
}
layers {
  bottom: "conv1_1"
  top: "conv1_1"
  name: "relu1_1"
  type: RELU
}
layers {
  bottom: "conv1_1"
  top: "conv1_2"
  name: "conv1_2"
  type: CONVOLUTION
  convolution_param {
    num_output: 64
    pad: 1
    kernel_size: 3
    weight_filler {
      type: "gaussian"
      std: 0.01
    }
    bias_filler {
      type: "constant"
      value: 0
    }
  }
}
layers {
  bottom: "conv1_2"
  top: "conv1_2"
  name: "relu1_2"
  type: RELU
}
layers {
  bottom: "conv1_2"
  top: "pool1"
  name: "pool1"
  type: POOLING
  pooling_param {
    pool: MAX
    kernel_size: 2
    stride: 2
  }
}
layers {
  bottom: "pool1"
  top: "conv2_1"
  name: "conv2_1"
  type: CONVOLUTION
  convolution_param {
    num_output: 128
    pad: 1
    kernel_size: 3
    weight_filler {
      type: "gaussian"
      std: 0.01
    }
    bias_filler {
      type: "constant"
      value: 0
    }
  }
}
layers {
  bottom: "conv2_1"
  top: "conv2_1"
  name: "relu2_1"
  type: RELU
}
layers {
  bottom: "conv2_1"
  top: "conv2_2"
  name: "conv2_2"
  type: CONVOLUTION
  convolution_param {
    num_output: 128
    pad: 1
    kernel_size: 3
    weight_filler {
      type: "gaussian"
      std: 0.01
    }
    bias_filler {
      type: "constant"
      value: 0
    }
  }
}
layers {
  bottom: "conv2_2"
  top: "conv2_2"
  name: "relu2_2"
  type: RELU
}
layers {
  bottom: "conv2_2"
  top: "pool2"
  name: "pool2"
  type: POOLING
  pooling_param {
    pool: MAX
    kernel_size: 2
    stride: 2
  }
}
layers {
  bottom: "pool2"
  top: "conv3_1"
  name: "conv3_1"
  type: CONVOLUTION
  convolution_param {
    num_output: 256
    pad: 1
    kernel_size: 3
    weight_filler {
      type: "gaussian"
      std: 0.01
    }
    bias_filler {
      type: "constant"
      value: 0
    }
  }
}
layers {
  bottom: "conv3_1"
  top: "conv3_1"
  name: "relu3_1"
  type: RELU
}
layers {
  bottom: "conv3_1"
  top: "conv3_2"
  name: "conv3_2"
  type: CONVOLUTION
  convolution_param {
    num_output: 256
    pad: 1
    kernel_size: 3
    weight_filler {
      type: "gaussian"
      std: 0.01
    }
    bias_filler {
      type: "constant"
      value: 0
    }
  }
}
layers {
  bottom: "conv3_2"
  top: "conv3_2"
  name: "relu3_2"
  type: RELU
}
layers {
  bottom: "conv3_2"
  top: "conv3_3"
  name: "conv3_3"
  type: CONVOLUTION
  convolution_param {
    num_output: 256
    pad: 1
    kernel_size: 3
    weight_filler {
      type: "gaussian"
      std: 0.01
    }
    bias_filler {
      type: "constant"
      value: 0
    }
  }
}
layers {
  bottom: "conv3_3"
  top: "conv3_3"
  name: "relu3_3"
  type: RELU
}
layers {
  bottom: "conv3_3"
  top: "pool3"
  name: "pool3"
  type: POOLING
  pooling_param {
    pool: MAX
    kernel_size: 2
    stride: 2
  }
}
layers {
  bottom: "pool3"
  top: "conv4_1"
  name: "conv4_1"
  type: CONVOLUTION
  convolution_param {
    num_output: 512
    pad: 1
    kernel_size: 3
    weight_filler {
      type: "gaussian"
      std: 0.01
    }
    bias_filler {
      type: "constant"
      value: 0
    }
  }
}
layers {
  bottom: "conv4_1"
  top: "conv4_1"
  name: "relu4_1"
  type: RELU
}
layers {
  bottom: "conv4_1"
  top: "conv4_2"
  name: "conv4_2"
  type: CONVOLUTION
  convolution_param {
    num_output: 512
    pad: 1
    kernel_size: 3
    weight_filler {
      type: "gaussian"
      std: 0.01
    }
    bias_filler {
      type: "constant"
      value: 0
    }
  }
}
layers {
  bottom: "conv4_2"
  top: "conv4_2"
  name: "relu4_2"
  type: RELU
}
layers {
  bottom: "conv4_2"
  top: "conv4_3"
  name: "conv4_3"
  type: CONVOLUTION
  convolution_param {
    num_output: 512
    pad: 1
    kernel_size: 3
    weight_filler {
      type: "gaussian"
      std: 0.01
    }
    bias_filler {
      type: "constant"
      value: 0
    }
  }
}
layers {
  bottom: "conv4_3"
  top: "conv4_3"
  name: "relu4_3"
  type: RELU
}
layers {
  bottom: "conv4_3"
  top: "pool4"
  name: "pool4"
  type: POOLING
  pooling_param {
    pool: MAX
    kernel_size: 2
    stride: 2
  }
}
layers {
  bottom: "pool4"
  top: "conv5_1"
  name: "conv5_1"
  type: CONVOLUTION
  convolution_param {
    num_output: 512
    pad: 1
    kernel_size: 3
    weight_filler {
      type: "gaussian"
      std: 0.01
    }
    bias_filler {
      type: "constant"
      value: 0
    }
  }
}
layers {
  bottom: "conv5_1"
  top: "conv5_1"
  name: "relu5_1"
  type: RELU
}
layers {
  bottom: "conv5_1"
  top: "conv5_2"
  name: "conv5_2"
  type: CONVOLUTION
  convolution_param {
    num_output: 512
    pad: 1
    kernel_size: 3
    weight_filler {
      type: "gaussian"
      std: 0.01
    }
    bias_filler {
      type: "constant"
      value: 0
    }
  }
}
layers {
  bottom: "conv5_2"
  top: "conv5_2"
  name: "relu5_2"
  type: RELU
}
layers {
  bottom: "conv5_2"
  top: "conv5_3"
  name: "conv5_3"
  type: CONVOLUTION
  convolution_param {
    num_output: 512
    pad: 1
    kernel_size: 3
    weight_filler {
      type: "gaussian"
      std: 0.01
    }
    bias_filler {
      type: "constant"
      value: 0
    }
  }
}
layers {
  bottom: "conv5_3"
  top: "conv5_3"
  name: "relu5_3"
  type: RELU
}
layers {
  bottom: "conv5_3"
  top: "pool5"
  name: "pool5"
  type: POOLING
  pooling_param {
    pool: MAX
    kernel_size: 2
    stride: 2
  }
}
layers {
  bottom: "pool5"
  top: "fc6"
  name: "fc6"
  type: INNER_PRODUCT
  inner_product_param {
    num_output: 4096
    weight_filler {
      type: "gaussian"
      std: 0.01
    }
    bias_filler {
      type: "constant"
      value: 0
    }
  }
}
layers {
  bottom: "fc6"
  top: "fc6"
  name: "relu6"
  type: RELU
}
layers {
  bottom: "fc6"
  top: "fc6"
  name: "drop6"
  type: DROPOUT
  dropout_param {
    dropout_ratio: 0.5
  }
}
layers {
  bottom: "fc6"
  top: "fc7"
  name: "fc7"
  type: INNER_PRODUCT
  inner_product_param {
    num_output: 4096
    weight_filler {
      type: "gaussian"
      std: 0.01
    }
    bias_filler {
      type: "constant"
      value: 0
    }
  }
}
layers {
  bottom: "fc7"
  top: "fc7"
  name: "relu7"
  type: RELU
}
layers {
  bottom: "fc7"
  top: "fc7"
  name: "drop7"
  type: DROPOUT
  dropout_param {
    dropout_ratio: 0.5
  }
}
layers {
  bottom: "fc7"
  top: "fc8_2"
  name: "fc8_2"
  type: INNER_PRODUCT
  inner_product_param {
    num_output: 2
    weight_filler {
      type: "gaussian"
      std: 0.01
    }
    bias_filler {
      type: "constant"
      value: 0
    }
  }
}
layers {
  bottom: "fc8_2"
  bottom: "label"
  name: "loss"
  type: SOFTMAX_LOSS
}
state {
  phase: TRAIN
}
<<<<<<< HEAD
I1118 01:12:06.252591  4537 layer_factory.hpp:78] Creating layer data
I1118 01:12:06.252609  4537 net.cpp:67] Creating Layer data
I1118 01:12:06.252619  4537 net.cpp:356] data -> data
I1118 01:12:06.252640  4537 net.cpp:356] data -> label
I1118 01:12:06.252647  4537 net.cpp:96] Setting up data
I1118 01:12:06.252653  4537 image_data_layer.cpp:34] Opening file /data/ad6813/devCaffe/caffe/data/water_high_o/train.txt
I1118 01:12:06.253881  4537 image_data_layer.cpp:49] A total of 3289 images.
I1118 01:12:06.305052  4537 image_data_layer.cpp:78] output data size: 8,3,224,224
I1118 01:12:06.306216  4537 net.cpp:103] Top shape: 8 3 224 224 (1204224)
I1118 01:12:06.306226  4537 net.cpp:103] Top shape: 8 1 1 1 (8)
I1118 01:12:06.306231  4537 layer_factory.hpp:78] Creating layer conv1_1
I1118 01:12:06.306243  4537 net.cpp:67] Creating Layer conv1_1
I1118 01:12:06.306247  4537 net.cpp:394] conv1_1 <- data
I1118 01:12:06.306260  4537 net.cpp:356] conv1_1 -> conv1_1
I1118 01:12:06.306272  4537 net.cpp:96] Setting up conv1_1
I1118 01:12:06.329123  4537 net.cpp:103] Top shape: 8 64 224 224 (25690112)
I1118 01:12:06.329157  4537 layer_factory.hpp:78] Creating layer relu1_1
I1118 01:12:06.329169  4537 net.cpp:67] Creating Layer relu1_1
I1118 01:12:06.329174  4537 net.cpp:394] relu1_1 <- conv1_1
I1118 01:12:06.329181  4537 net.cpp:345] relu1_1 -> conv1_1 (in-place)
I1118 01:12:06.329190  4537 net.cpp:96] Setting up relu1_1
I1118 01:12:06.329198  4537 net.cpp:103] Top shape: 8 64 224 224 (25690112)
I1118 01:12:06.329201  4537 layer_factory.hpp:78] Creating layer conv1_2
I1118 01:12:06.329208  4537 net.cpp:67] Creating Layer conv1_2
I1118 01:12:06.329211  4537 net.cpp:394] conv1_2 <- conv1_1
I1118 01:12:06.329216  4537 net.cpp:356] conv1_2 -> conv1_2
I1118 01:12:06.329222  4537 net.cpp:96] Setting up conv1_2
I1118 01:12:06.330252  4537 net.cpp:103] Top shape: 8 64 224 224 (25690112)
I1118 01:12:06.330265  4537 layer_factory.hpp:78] Creating layer relu1_2
I1118 01:12:06.330270  4537 net.cpp:67] Creating Layer relu1_2
I1118 01:12:06.330273  4537 net.cpp:394] relu1_2 <- conv1_2
I1118 01:12:06.330279  4537 net.cpp:345] relu1_2 -> conv1_2 (in-place)
I1118 01:12:06.330283  4537 net.cpp:96] Setting up relu1_2
I1118 01:12:06.330289  4537 net.cpp:103] Top shape: 8 64 224 224 (25690112)
I1118 01:12:06.330292  4537 layer_factory.hpp:78] Creating layer pool1
I1118 01:12:06.330298  4537 net.cpp:67] Creating Layer pool1
I1118 01:12:06.330302  4537 net.cpp:394] pool1 <- conv1_2
I1118 01:12:06.330307  4537 net.cpp:356] pool1 -> pool1
I1118 01:12:06.330312  4537 net.cpp:96] Setting up pool1
I1118 01:12:06.330327  4537 net.cpp:103] Top shape: 8 64 112 112 (6422528)
I1118 01:12:06.330334  4537 layer_factory.hpp:78] Creating layer conv2_1
I1118 01:12:06.330340  4537 net.cpp:67] Creating Layer conv2_1
I1118 01:12:06.330344  4537 net.cpp:394] conv2_1 <- pool1
I1118 01:12:06.330349  4537 net.cpp:356] conv2_1 -> conv2_1
I1118 01:12:06.330355  4537 net.cpp:96] Setting up conv2_1
I1118 01:12:06.332275  4537 net.cpp:103] Top shape: 8 128 112 112 (12845056)
I1118 01:12:06.332289  4537 layer_factory.hpp:78] Creating layer relu2_1
I1118 01:12:06.332295  4537 net.cpp:67] Creating Layer relu2_1
I1118 01:12:06.332298  4537 net.cpp:394] relu2_1 <- conv2_1
I1118 01:12:06.332303  4537 net.cpp:345] relu2_1 -> conv2_1 (in-place)
I1118 01:12:06.332308  4537 net.cpp:96] Setting up relu2_1
I1118 01:12:06.332312  4537 net.cpp:103] Top shape: 8 128 112 112 (12845056)
I1118 01:12:06.332315  4537 layer_factory.hpp:78] Creating layer conv2_2
I1118 01:12:06.332324  4537 net.cpp:67] Creating Layer conv2_2
I1118 01:12:06.332327  4537 net.cpp:394] conv2_2 <- conv2_1
I1118 01:12:06.332331  4537 net.cpp:356] conv2_2 -> conv2_2
I1118 01:12:06.332337  4537 net.cpp:96] Setting up conv2_2
I1118 01:12:06.336050  4537 net.cpp:103] Top shape: 8 128 112 112 (12845056)
I1118 01:12:06.336061  4537 layer_factory.hpp:78] Creating layer relu2_2
I1118 01:12:06.336066  4537 net.cpp:67] Creating Layer relu2_2
I1118 01:12:06.336068  4537 net.cpp:394] relu2_2 <- conv2_2
I1118 01:12:06.336074  4537 net.cpp:345] relu2_2 -> conv2_2 (in-place)
I1118 01:12:06.336079  4537 net.cpp:96] Setting up relu2_2
I1118 01:12:06.336084  4537 net.cpp:103] Top shape: 8 128 112 112 (12845056)
I1118 01:12:06.336087  4537 layer_factory.hpp:78] Creating layer pool2
I1118 01:12:06.336099  4537 net.cpp:67] Creating Layer pool2
I1118 01:12:06.336102  4537 net.cpp:394] pool2 <- conv2_2
I1118 01:12:06.336107  4537 net.cpp:356] pool2 -> pool2
I1118 01:12:06.336112  4537 net.cpp:96] Setting up pool2
I1118 01:12:06.336117  4537 net.cpp:103] Top shape: 8 128 56 56 (3211264)
I1118 01:12:06.336122  4537 layer_factory.hpp:78] Creating layer conv3_1
I1118 01:12:06.336127  4537 net.cpp:67] Creating Layer conv3_1
I1118 01:12:06.336130  4537 net.cpp:394] conv3_1 <- pool2
I1118 01:12:06.336135  4537 net.cpp:356] conv3_1 -> conv3_1
I1118 01:12:06.336141  4537 net.cpp:96] Setting up conv3_1
I1118 01:12:06.343489  4537 net.cpp:103] Top shape: 8 256 56 56 (6422528)
I1118 01:12:06.343502  4537 layer_factory.hpp:78] Creating layer relu3_1
I1118 01:12:06.343508  4537 net.cpp:67] Creating Layer relu3_1
I1118 01:12:06.343511  4537 net.cpp:394] relu3_1 <- conv3_1
I1118 01:12:06.343516  4537 net.cpp:345] relu3_1 -> conv3_1 (in-place)
I1118 01:12:06.343521  4537 net.cpp:96] Setting up relu3_1
I1118 01:12:06.343526  4537 net.cpp:103] Top shape: 8 256 56 56 (6422528)
I1118 01:12:06.343529  4537 layer_factory.hpp:78] Creating layer conv3_2
I1118 01:12:06.343536  4537 net.cpp:67] Creating Layer conv3_2
I1118 01:12:06.343538  4537 net.cpp:394] conv3_2 <- conv3_1
I1118 01:12:06.343544  4537 net.cpp:356] conv3_2 -> conv3_2
I1118 01:12:06.343549  4537 net.cpp:96] Setting up conv3_2
I1118 01:12:06.358346  4537 net.cpp:103] Top shape: 8 256 56 56 (6422528)
I1118 01:12:06.358363  4537 layer_factory.hpp:78] Creating layer relu3_2
I1118 01:12:06.358369  4537 net.cpp:67] Creating Layer relu3_2
I1118 01:12:06.358373  4537 net.cpp:394] relu3_2 <- conv3_2
I1118 01:12:06.358378  4537 net.cpp:345] relu3_2 -> conv3_2 (in-place)
I1118 01:12:06.358384  4537 net.cpp:96] Setting up relu3_2
I1118 01:12:06.358389  4537 net.cpp:103] Top shape: 8 256 56 56 (6422528)
I1118 01:12:06.358392  4537 layer_factory.hpp:78] Creating layer conv3_3
I1118 01:12:06.358399  4537 net.cpp:67] Creating Layer conv3_3
I1118 01:12:06.358402  4537 net.cpp:394] conv3_3 <- conv3_2
I1118 01:12:06.358407  4537 net.cpp:356] conv3_3 -> conv3_3
I1118 01:12:06.358414  4537 net.cpp:96] Setting up conv3_3
I1118 01:12:06.373081  4537 net.cpp:103] Top shape: 8 256 56 56 (6422528)
I1118 01:12:06.373095  4537 layer_factory.hpp:78] Creating layer relu3_3
I1118 01:12:06.373102  4537 net.cpp:67] Creating Layer relu3_3
I1118 01:12:06.373106  4537 net.cpp:394] relu3_3 <- conv3_3
I1118 01:12:06.373111  4537 net.cpp:345] relu3_3 -> conv3_3 (in-place)
I1118 01:12:06.373116  4537 net.cpp:96] Setting up relu3_3
I1118 01:12:06.373121  4537 net.cpp:103] Top shape: 8 256 56 56 (6422528)
I1118 01:12:06.373123  4537 layer_factory.hpp:78] Creating layer pool3
I1118 01:12:06.373131  4537 net.cpp:67] Creating Layer pool3
I1118 01:12:06.373133  4537 net.cpp:394] pool3 <- conv3_3
I1118 01:12:06.373137  4537 net.cpp:356] pool3 -> pool3
I1118 01:12:06.373142  4537 net.cpp:96] Setting up pool3
I1118 01:12:06.373149  4537 net.cpp:103] Top shape: 8 256 28 28 (1605632)
I1118 01:12:06.373153  4537 layer_factory.hpp:78] Creating layer conv4_1
I1118 01:12:06.373159  4537 net.cpp:67] Creating Layer conv4_1
I1118 01:12:06.373162  4537 net.cpp:394] conv4_1 <- pool3
I1118 01:12:06.373167  4537 net.cpp:356] conv4_1 -> conv4_1
I1118 01:12:06.373172  4537 net.cpp:96] Setting up conv4_1
I1118 01:12:06.402194  4537 net.cpp:103] Top shape: 8 512 28 28 (3211264)
I1118 01:12:06.402215  4537 layer_factory.hpp:78] Creating layer relu4_1
I1118 01:12:06.402225  4537 net.cpp:67] Creating Layer relu4_1
I1118 01:12:06.402230  4537 net.cpp:394] relu4_1 <- conv4_1
I1118 01:12:06.402237  4537 net.cpp:345] relu4_1 -> conv4_1 (in-place)
I1118 01:12:06.402243  4537 net.cpp:96] Setting up relu4_1
I1118 01:12:06.402250  4537 net.cpp:103] Top shape: 8 512 28 28 (3211264)
I1118 01:12:06.402252  4537 layer_factory.hpp:78] Creating layer conv4_2
I1118 01:12:06.402258  4537 net.cpp:67] Creating Layer conv4_2
I1118 01:12:06.402261  4537 net.cpp:394] conv4_2 <- conv4_1
I1118 01:12:06.402266  4537 net.cpp:356] conv4_2 -> conv4_2
I1118 01:12:06.402283  4537 net.cpp:96] Setting up conv4_2
I1118 01:12:06.459774  4537 net.cpp:103] Top shape: 8 512 28 28 (3211264)
I1118 01:12:06.459800  4537 layer_factory.hpp:78] Creating layer relu4_2
I1118 01:12:06.459810  4537 net.cpp:67] Creating Layer relu4_2
I1118 01:12:06.459813  4537 net.cpp:394] relu4_2 <- conv4_2
I1118 01:12:06.459820  4537 net.cpp:345] relu4_2 -> conv4_2 (in-place)
I1118 01:12:06.459826  4537 net.cpp:96] Setting up relu4_2
I1118 01:12:06.459831  4537 net.cpp:103] Top shape: 8 512 28 28 (3211264)
I1118 01:12:06.459835  4537 layer_factory.hpp:78] Creating layer conv4_3
I1118 01:12:06.459842  4537 net.cpp:67] Creating Layer conv4_3
I1118 01:12:06.459846  4537 net.cpp:394] conv4_3 <- conv4_2
I1118 01:12:06.459851  4537 net.cpp:356] conv4_3 -> conv4_3
I1118 01:12:06.459856  4537 net.cpp:96] Setting up conv4_3
I1118 01:12:06.517590  4537 net.cpp:103] Top shape: 8 512 28 28 (3211264)
I1118 01:12:06.517612  4537 layer_factory.hpp:78] Creating layer relu4_3
I1118 01:12:06.517623  4537 net.cpp:67] Creating Layer relu4_3
I1118 01:12:06.517628  4537 net.cpp:394] relu4_3 <- conv4_3
I1118 01:12:06.517635  4537 net.cpp:345] relu4_3 -> conv4_3 (in-place)
I1118 01:12:06.517642  4537 net.cpp:96] Setting up relu4_3
I1118 01:12:06.517647  4537 net.cpp:103] Top shape: 8 512 28 28 (3211264)
I1118 01:12:06.517650  4537 layer_factory.hpp:78] Creating layer pool4
I1118 01:12:06.517655  4537 net.cpp:67] Creating Layer pool4
I1118 01:12:06.517658  4537 net.cpp:394] pool4 <- conv4_3
I1118 01:12:06.517664  4537 net.cpp:356] pool4 -> pool4
I1118 01:12:06.517670  4537 net.cpp:96] Setting up pool4
I1118 01:12:06.517678  4537 net.cpp:103] Top shape: 8 512 14 14 (802816)
I1118 01:12:06.517681  4537 layer_factory.hpp:78] Creating layer conv5_1
I1118 01:12:06.517686  4537 net.cpp:67] Creating Layer conv5_1
I1118 01:12:06.517689  4537 net.cpp:394] conv5_1 <- pool4
I1118 01:12:06.517694  4537 net.cpp:356] conv5_1 -> conv5_1
I1118 01:12:06.517702  4537 net.cpp:96] Setting up conv5_1
I1118 01:12:06.575217  4537 net.cpp:103] Top shape: 8 512 14 14 (802816)
I1118 01:12:06.575245  4537 layer_factory.hpp:78] Creating layer relu5_1
I1118 01:12:06.575254  4537 net.cpp:67] Creating Layer relu5_1
I1118 01:12:06.575258  4537 net.cpp:394] relu5_1 <- conv5_1
I1118 01:12:06.575265  4537 net.cpp:345] relu5_1 -> conv5_1 (in-place)
I1118 01:12:06.575271  4537 net.cpp:96] Setting up relu5_1
I1118 01:12:06.575276  4537 net.cpp:103] Top shape: 8 512 14 14 (802816)
I1118 01:12:06.575280  4537 layer_factory.hpp:78] Creating layer conv5_2
I1118 01:12:06.575285  4537 net.cpp:67] Creating Layer conv5_2
I1118 01:12:06.575289  4537 net.cpp:394] conv5_2 <- conv5_1
I1118 01:12:06.575300  4537 net.cpp:356] conv5_2 -> conv5_2
I1118 01:12:06.575306  4537 net.cpp:96] Setting up conv5_2
I1118 01:12:06.632629  4537 net.cpp:103] Top shape: 8 512 14 14 (802816)
I1118 01:12:06.632654  4537 layer_factory.hpp:78] Creating layer relu5_2
I1118 01:12:06.632663  4537 net.cpp:67] Creating Layer relu5_2
I1118 01:12:06.632668  4537 net.cpp:394] relu5_2 <- conv5_2
I1118 01:12:06.632674  4537 net.cpp:345] relu5_2 -> conv5_2 (in-place)
I1118 01:12:06.632680  4537 net.cpp:96] Setting up relu5_2
I1118 01:12:06.632686  4537 net.cpp:103] Top shape: 8 512 14 14 (802816)
I1118 01:12:06.632689  4537 layer_factory.hpp:78] Creating layer conv5_3
I1118 01:12:06.632695  4537 net.cpp:67] Creating Layer conv5_3
I1118 01:12:06.632697  4537 net.cpp:394] conv5_3 <- conv5_2
I1118 01:12:06.632704  4537 net.cpp:356] conv5_3 -> conv5_3
I1118 01:12:06.632709  4537 net.cpp:96] Setting up conv5_3
I1118 01:12:06.690281  4537 net.cpp:103] Top shape: 8 512 14 14 (802816)
I1118 01:12:06.690306  4537 layer_factory.hpp:78] Creating layer relu5_3
I1118 01:12:06.690314  4537 net.cpp:67] Creating Layer relu5_3
I1118 01:12:06.690317  4537 net.cpp:394] relu5_3 <- conv5_3
I1118 01:12:06.690323  4537 net.cpp:345] relu5_3 -> conv5_3 (in-place)
I1118 01:12:06.690330  4537 net.cpp:96] Setting up relu5_3
I1118 01:12:06.690335  4537 net.cpp:103] Top shape: 8 512 14 14 (802816)
I1118 01:12:06.690348  4537 layer_factory.hpp:78] Creating layer pool5
I1118 01:12:06.690354  4537 net.cpp:67] Creating Layer pool5
I1118 01:12:06.690357  4537 net.cpp:394] pool5 <- conv5_3
I1118 01:12:06.690363  4537 net.cpp:356] pool5 -> pool5
I1118 01:12:06.690368  4537 net.cpp:96] Setting up pool5
I1118 01:12:06.690376  4537 net.cpp:103] Top shape: 8 512 7 7 (200704)
I1118 01:12:06.690379  4537 layer_factory.hpp:78] Creating layer fc6
I1118 01:12:06.690392  4537 net.cpp:67] Creating Layer fc6
I1118 01:12:06.690397  4537 net.cpp:394] fc6 <- pool5
I1118 01:12:06.690400  4537 net.cpp:356] fc6 -> fc6
I1118 01:12:06.690407  4537 net.cpp:96] Setting up fc6
I1118 01:12:09.088374  4537 net.cpp:103] Top shape: 8 4096 1 1 (32768)
I1118 01:12:09.088415  4537 layer_factory.hpp:78] Creating layer relu6
I1118 01:12:09.088425  4537 net.cpp:67] Creating Layer relu6
I1118 01:12:09.088429  4537 net.cpp:394] relu6 <- fc6
I1118 01:12:09.088438  4537 net.cpp:345] relu6 -> fc6 (in-place)
I1118 01:12:09.088443  4537 net.cpp:96] Setting up relu6
I1118 01:12:09.088457  4537 net.cpp:103] Top shape: 8 4096 1 1 (32768)
I1118 01:12:09.088461  4537 layer_factory.hpp:78] Creating layer drop6
I1118 01:12:09.088469  4537 net.cpp:67] Creating Layer drop6
I1118 01:12:09.088474  4537 net.cpp:394] drop6 <- fc6
I1118 01:12:09.088477  4537 net.cpp:345] drop6 -> fc6 (in-place)
I1118 01:12:09.088482  4537 net.cpp:96] Setting up drop6
I1118 01:12:09.088487  4537 net.cpp:103] Top shape: 8 4096 1 1 (32768)
I1118 01:12:09.088491  4537 layer_factory.hpp:78] Creating layer fc7
I1118 01:12:09.088496  4537 net.cpp:67] Creating Layer fc7
I1118 01:12:09.088500  4537 net.cpp:394] fc7 <- fc6
I1118 01:12:09.088503  4537 net.cpp:356] fc7 -> fc7
I1118 01:12:09.088510  4537 net.cpp:96] Setting up fc7
I1118 01:12:09.475327  4537 net.cpp:103] Top shape: 8 4096 1 1 (32768)
I1118 01:12:09.475368  4537 layer_factory.hpp:78] Creating layer relu7
I1118 01:12:09.475378  4537 net.cpp:67] Creating Layer relu7
I1118 01:12:09.475381  4537 net.cpp:394] relu7 <- fc7
I1118 01:12:09.475389  4537 net.cpp:345] relu7 -> fc7 (in-place)
I1118 01:12:09.475396  4537 net.cpp:96] Setting up relu7
I1118 01:12:09.475410  4537 net.cpp:103] Top shape: 8 4096 1 1 (32768)
I1118 01:12:09.475414  4537 layer_factory.hpp:78] Creating layer drop7
I1118 01:12:09.475419  4537 net.cpp:67] Creating Layer drop7
I1118 01:12:09.475420  4537 net.cpp:394] drop7 <- fc7
I1118 01:12:09.475425  4537 net.cpp:345] drop7 -> fc7 (in-place)
I1118 01:12:09.475430  4537 net.cpp:96] Setting up drop7
I1118 01:12:09.475432  4537 net.cpp:103] Top shape: 8 4096 1 1 (32768)
I1118 01:12:09.475435  4537 layer_factory.hpp:78] Creating layer fc8_2
I1118 01:12:09.475440  4537 net.cpp:67] Creating Layer fc8_2
I1118 01:12:09.475443  4537 net.cpp:394] fc8_2 <- fc7
I1118 01:12:09.475450  4537 net.cpp:356] fc8_2 -> fc8_2
I1118 01:12:09.475455  4537 net.cpp:96] Setting up fc8_2
I1118 01:12:09.475666  4537 net.cpp:103] Top shape: 8 2 1 1 (16)
I1118 01:12:09.475674  4537 layer_factory.hpp:78] Creating layer loss
I1118 01:12:09.475684  4537 net.cpp:67] Creating Layer loss
I1118 01:12:09.475690  4537 net.cpp:394] loss <- fc8_2
I1118 01:12:09.475693  4537 net.cpp:394] loss <- label
I1118 01:12:09.475700  4537 net.cpp:356] loss -> (automatic)
I1118 01:12:09.475705  4537 net.cpp:96] Setting up loss
I1118 01:12:09.475713  4537 net.cpp:103] Top shape: 1 1 1 1 (1)
I1118 01:12:09.475718  4537 net.cpp:109]     with loss weight 1
I1118 01:12:09.475746  4537 net.cpp:170] loss needs backward computation.
I1118 01:12:09.475750  4537 net.cpp:170] fc8_2 needs backward computation.
I1118 01:12:09.475754  4537 net.cpp:170] drop7 needs backward computation.
I1118 01:12:09.475755  4537 net.cpp:170] relu7 needs backward computation.
I1118 01:12:09.475759  4537 net.cpp:170] fc7 needs backward computation.
…
I1118 01:01:34.905948 26872 net.cpp:39] Initializing net from parameters: 
>>>>>>> d3a087dcb4d34942a36fa41fa5daea2e88cc020e
name: "small"
layers {
  top: "data"
  top: "label"
  name: "data"
  type: IMAGE_DATA
  image_data_param {
    source: "/data/ad6813/devCaffe/caffe/data/water_high_o/val.txt"
<<<<<<< HEAD
    batch_size: 1
=======
    batch_size: 50
>>>>>>> d3a087dcb4d34942a36fa41fa5daea2e88cc020e
    new_height: 256
    new_width: 256
  }
  include {
    phase: TEST
  }
  transform_param {
    mirror: true
    crop_size: 224
    mean_value: 86.752
    mean_value: 101.46
    mean_value: 104.6
  }
}
layers {
  bottom: "data"
  top: "conv1_1"
  name: "conv1_1"
  type: CONVOLUTION
  convolution_param {
    num_output: 64
    pad: 1
    kernel_size: 3
    weight_filler {
      type: "gaussian"
      std: 0.01
    }
    bias_filler {
      type: "constant"
      value: 0
    }
  }
}
layers {
  bottom: "conv1_1"
  top: "conv1_1"
  name: "relu1_1"
  type: RELU
}
layers {
  bottom: "conv1_1"
  top: "conv1_2"
  name: "conv1_2"
  type: CONVOLUTION
  convolution_param {
    num_output: 64
    pad: 1
    kernel_size: 3
    weight_filler {
      type: "gaussian"
      std: 0.01
    }
    bias_filler {
      type: "constant"
      value: 0
    }
  }
}
layers {
  bottom: "conv1_2"
  top: "conv1_2"
  name: "relu1_2"
  type: RELU
}
layers {
  bottom: "conv1_2"
  top: "pool1"
  name: "pool1"
  type: POOLING
  pooling_param {
    pool: MAX
    kernel_size: 2
    stride: 2
  }
}
layers {
  bottom: "pool1"
  top: "conv2_1"
  name: "conv2_1"
  type: CONVOLUTION
  convolution_param {
    num_output: 128
    pad: 1
    kernel_size: 3
    weight_filler {
      type: "gaussian"
      std: 0.01
    }
    bias_filler {
      type: "constant"
      value: 0
    }
  }
}
layers {
  bottom: "conv2_1"
  top: "conv2_1"
  name: "relu2_1"
  type: RELU
}
layers {
  bottom: "conv2_1"
  top: "conv2_2"
  name: "conv2_2"
  type: CONVOLUTION
  convolution_param {
    num_output: 128
    pad: 1
    kernel_size: 3
    weight_filler {
      type: "gaussian"
      std: 0.01
    }
    bias_filler {
      type: "constant"
      value: 0
    }
  }
}
layers {
  bottom: "conv2_2"
  top: "conv2_2"
  name: "relu2_2"
  type: RELU
}
layers {
  bottom: "conv2_2"
  top: "pool2"
  name: "pool2"
  type: POOLING
  pooling_param {
    pool: MAX
    kernel_size: 2
    stride: 2
  }
}
layers {
  bottom: "pool2"
  top: "conv3_1"
  name: "conv3_1"
  type: CONVOLUTION
  convolution_param {
    num_output: 256
    pad: 1
    kernel_size: 3
    weight_filler {
      type: "gaussian"
      std: 0.01
    }
    bias_filler {
      type: "constant"
      value: 0
    }
  }
}
layers {
  bottom: "conv3_1"
  top: "conv3_1"
  name: "relu3_1"
  type: RELU
}
layers {
  bottom: "conv3_1"
  top: "conv3_2"
  name: "conv3_2"
  type: CONVOLUTION
  convolution_param {
    num_output: 256
    pad: 1
    kernel_size: 3
    weight_filler {
      type: "gaussian"
      std: 0.01
    }
    bias_filler {
      type: "constant"
      value: 0
    }
  }
}
layers {
  bottom: "conv3_2"
  top: "conv3_2"
  name: "relu3_2"
  type: RELU
}
layers {
  bottom: "conv3_2"
  top: "conv3_3"
  name: "conv3_3"
  type: CONVOLUTION
  convolution_param {
    num_output: 256
    pad: 1
    kernel_size: 3
    weight_filler {
      type: "gaussian"
      std: 0.01
    }
    bias_filler {
      type: "constant"
      value: 0
    }
  }
}
layers {
  bottom: "conv3_3"
  top: "conv3_3"
  name: "relu3_3"
  type: RELU
}
layers {
  bottom: "conv3_3"
  top: "pool3"
  name: "pool3"
  type: POOLING
  pooling_param {
    pool: MAX
    kernel_size: 2
    stride: 2
  }
}
layers {
  bottom: "pool3"
  top: "conv4_1"
  name: "conv4_1"
  type: CONVOLUTION
  convolution_param {
    num_output: 512
    pad: 1
    kernel_size: 3
    weight_filler {
      type: "gaussian"
      std: 0.01
    }
    bias_filler {
      type: "constant"
      value: 0
    }
  }
}
layers {
  bottom: "conv4_1"
  top: "conv4_1"
  name: "relu4_1"
  type: RELU
}
layers {
  bottom: "conv4_1"
  top: "conv4_2"
  name: "conv4_2"
  type: CONVOLUTION
  convolution_param {
    num_output: 512
    pad: 1
    kernel_size: 3
    weight_filler {
      type: "gaussian"
      std: 0.01
    }
    bias_filler {
      type: "constant"
      value: 0
    }
  }
}
layers {
  bottom: "conv4_2"
  top: "conv4_2"
  name: "relu4_2"
  type: RELU
}
layers {
  bottom: "conv4_2"
  top: "conv4_3"
  name: "conv4_3"
  type: CONVOLUTION
  convolution_param {
    num_output: 512
    pad: 1
    kernel_size: 3
    weight_filler {
      type: "gaussian"
      std: 0.01
    }
    bias_filler {
      type: "constant"
      value: 0
    }
  }
}
layers {
  bottom: "conv4_3"
  top: "conv4_3"
  name: "relu4_3"
  type: RELU
}
layers {
  bottom: "conv4_3"
  top: "pool4"
  name: "pool4"
  type: POOLING
  pooling_param {
    pool: MAX
    kernel_size: 2
    stride: 2
  }
}
layers {
  bottom: "pool4"
  top: "conv5_1"
  name: "conv5_1"
  type: CONVOLUTION
  convolution_param {
    num_output: 512
    pad: 1
    kernel_size: 3
    weight_filler {
      type: "gaussian"
      std: 0.01
    }
    bias_filler {
      type: "constant"
      value: 0
    }
  }
}
layers {
  bottom: "conv5_1"
  top: "conv5_1"
  name: "relu5_1"
  type: RELU
}
layers {
  bottom: "conv5_1"
  top: "conv5_2"
  name: "conv5_2"
  type: CONVOLUTION
  convolution_param {
    num_output: 512
    pad: 1
    kernel_size: 3
    weight_filler {
      type: "gaussian"
      std: 0.01
    }
    bias_filler {
      type: "constant"
      value: 0
    }
  }
}
layers {
  bottom: "conv5_2"
  top: "conv5_2"
  name: "relu5_2"
  type: RELU
}
layers {
  bottom: "conv5_2"
  top: "conv5_3"
  name: "conv5_3"
  type: CONVOLUTION
  convolution_param {
    num_output: 512
    pad: 1
    kernel_size: 3
    weight_filler {
      type: "gaussian"
      std: 0.01
    }
    bias_filler {
      type: "constant"
      value: 0
    }
  }
}
layers {
  bottom: "conv5_3"
  top: "conv5_3"
  name: "relu5_3"
  type: RELU
}
layers {
  bottom: "conv5_3"
  top: "pool5"
  name: "pool5"
  type: POOLING
  pooling_param {
    pool: MAX
    kernel_size: 2
    stride: 2
  }
}
layers {
  bottom: "pool5"
  top: "fc6"
  name: "fc6"
  type: INNER_PRODUCT
  inner_product_param {
    num_output: 4096
    weight_filler {
      type: "gaussian"
      std: 0.01
    }
    bias_filler {
      type: "constant"
      value: 0
    }
  }
}
layers {
  bottom: "fc6"
  top: "fc6"
  name: "relu6"
  type: RELU
}
layers {
  bottom: "fc6"
  top: "fc6"
  name: "drop6"
  type: DROPOUT
  dropout_param {
    dropout_ratio: 0.5
  }
}
layers {
  bottom: "fc6"
  top: "fc7"
  name: "fc7"
  type: INNER_PRODUCT
  inner_product_param {
    num_output: 4096
    weight_filler {
      type: "gaussian"
      std: 0.01
    }
    bias_filler {
      type: "constant"
      value: 0
    }
  }
}
layers {
  bottom: "fc7"
  top: "fc7"
  name: "relu7"
  type: RELU
}
layers {
  bottom: "fc7"
  top: "fc7"
  name: "drop7"
  type: DROPOUT
  dropout_param {
    dropout_ratio: 0.5
  }
}
layers {
  bottom: "fc7"
  top: "fc8_2"
  name: "fc8_2"
  type: INNER_PRODUCT
  inner_product_param {
    num_output: 2
    weight_filler {
      type: "gaussian"
      std: 0.01
    }
    bias_filler {
      type: "constant"
      value: 0
    }
  }
}
layers {
  bottom: "fc8_2"
  bottom: "label"
  name: "loss"
  type: SOFTMAX_LOSS
}
layers {
  bottom: "fc8_2"
  bottom: "label"
  top: "accuracy"
  name: "accuracy"
  type: PER_CLASS_ACCURACY
  include {
    phase: TEST
  }
}
state {
  phase: TEST
}
<<<<<<< HEAD
I1118 01:12:09.477049  4537 layer_factory.hpp:78] Creating layer data
I1118 01:12:09.477059  4537 net.cpp:67] Creating Layer data
I1118 01:12:09.477063  4537 net.cpp:356] data -> data
I1118 01:12:09.477072  4537 net.cpp:356] data -> label
I1118 01:12:09.477077  4537 net.cpp:96] Setting up data
I1118 01:12:09.477080  4537 image_data_layer.cpp:34] Opening file /data/ad6813/devCaffe/caffe/data/water_high_o/val.txt
I1118 01:12:09.477314  4537 image_data_layer.cpp:49] A total of 582 images.
I1118 01:12:09.484352  4537 image_data_layer.cpp:78] output data size: 1,3,224,224
I1118 01:12:09.484436  4537 net.cpp:103] Top shape: 1 3 224 224 (150528)
I1118 01:12:09.484444  4537 net.cpp:103] Top shape: 1 1 1 1 (1)
I1118 01:12:09.484447  4537 layer_factory.hpp:78] Creating layer label_data_1_split
I1118 01:12:09.484454  4537 net.cpp:67] Creating Layer label_data_1_split
I1118 01:12:09.484459  4537 net.cpp:394] label_data_1_split <- label
I1118 01:12:09.484467  4537 net.cpp:356] label_data_1_split -> label_data_1_split_0
I1118 01:12:09.484474  4537 net.cpp:356] label_data_1_split -> label_data_1_split_1
I1118 01:12:09.484479  4537 net.cpp:96] Setting up label_data_1_split
I1118 01:12:09.484484  4537 net.cpp:103] Top shape: 1 1 1 1 (1)
I1118 01:12:09.484488  4537 net.cpp:103] Top shape: 1 1 1 1 (1)
I1118 01:12:09.484490  4537 layer_factory.hpp:78] Creating layer conv1_1
I1118 01:12:09.484495  4537 net.cpp:67] Creating Layer conv1_1
I1118 01:12:09.484498  4537 net.cpp:394] conv1_1 <- data
I1118 01:12:09.484503  4537 net.cpp:356] conv1_1 -> conv1_1
I1118 01:12:09.484509  4537 net.cpp:96] Setting up conv1_1
I1118 01:12:09.484648  4537 net.cpp:103] Top shape: 1 64 224 224 (3211264)
I1118 01:12:09.484660  4537 layer_factory.hpp:78] Creating layer relu1_1
I1118 01:12:09.484665  4537 net.cpp:67] Creating Layer relu1_1
I1118 01:12:09.484668  4537 net.cpp:394] relu1_1 <- conv1_1
I1118 01:12:09.484673  4537 net.cpp:345] relu1_1 -> conv1_1 (in-place)
I1118 01:12:09.484678  4537 net.cpp:96] Setting up relu1_1
I1118 01:12:09.484688  4537 net.cpp:103] Top shape: 1 64 224 224 (3211264)
I1118 01:12:09.484691  4537 layer_factory.hpp:78] Creating layer conv1_2
I1118 01:12:09.484696  4537 net.cpp:67] Creating Layer conv1_2
I1118 01:12:09.484699  4537 net.cpp:394] conv1_2 <- conv1_1
I1118 01:12:09.484704  4537 net.cpp:356] conv1_2 -> conv1_2
I1118 01:12:09.484709  4537 net.cpp:96] Setting up conv1_2
I1118 01:12:09.485659  4537 net.cpp:103] Top shape: 1 64 224 224 (3211264)
I1118 01:12:09.485671  4537 layer_factory.hpp:78] Creating layer relu1_2
I1118 01:12:09.485677  4537 net.cpp:67] Creating Layer relu1_2
I1118 01:12:09.485679  4537 net.cpp:394] relu1_2 <- conv1_2
I1118 01:12:09.485683  4537 net.cpp:345] relu1_2 -> conv1_2 (in-place)
I1118 01:12:09.485687  4537 net.cpp:96] Setting up relu1_2
I1118 01:12:09.485692  4537 net.cpp:103] Top shape: 1 64 224 224 (3211264)
I1118 01:12:09.485695  4537 layer_factory.hpp:78] Creating layer pool1
I1118 01:12:09.485700  4537 net.cpp:67] Creating Layer pool1
I1118 01:12:09.485703  4537 net.cpp:394] pool1 <- conv1_2
I1118 01:12:09.485707  4537 net.cpp:356] pool1 -> pool1
I1118 01:12:09.485712  4537 net.cpp:96] Setting up pool1
I1118 01:12:09.485718  4537 net.cpp:103] Top shape: 1 64 112 112 (802816)
I1118 01:12:09.485721  4537 layer_factory.hpp:78] Creating layer conv2_1
I1118 01:12:09.485725  4537 net.cpp:67] Creating Layer conv2_1
I1118 01:12:09.485728  4537 net.cpp:394] conv2_1 <- pool1
I1118 01:12:09.485733  4537 net.cpp:356] conv2_1 -> conv2_1
I1118 01:12:09.485738  4537 net.cpp:96] Setting up conv2_1
I1118 01:12:09.487690  4537 net.cpp:103] Top shape: 1 128 112 112 (1605632)
I1118 01:12:09.487704  4537 layer_factory.hpp:78] Creating layer relu2_1
I1118 01:12:09.487709  4537 net.cpp:67] Creating Layer relu2_1
I1118 01:12:09.487712  4537 net.cpp:394] relu2_1 <- conv2_1
I1118 01:12:09.487716  4537 net.cpp:345] relu2_1 -> conv2_1 (in-place)
I1118 01:12:09.487721  4537 net.cpp:96] Setting up relu2_1
I1118 01:12:09.487726  4537 net.cpp:103] Top shape: 1 128 112 112 (1605632)
I1118 01:12:09.487730  4537 layer_factory.hpp:78] Creating layer conv2_2
I1118 01:12:09.487735  4537 net.cpp:67] Creating Layer conv2_2
I1118 01:12:09.487737  4537 net.cpp:394] conv2_2 <- conv2_1
I1118 01:12:09.487741  4537 net.cpp:356] conv2_2 -> conv2_2
I1118 01:12:09.487747  4537 net.cpp:96] Setting up conv2_2
I1118 01:12:09.491340  4537 net.cpp:103] Top shape: 1 128 112 112 (1605632)
I1118 01:12:09.491351  4537 layer_factory.hpp:78] Creating layer relu2_2
I1118 01:12:09.491356  4537 net.cpp:67] Creating Layer relu2_2
I1118 01:12:09.491359  4537 net.cpp:394] relu2_2 <- conv2_2
I1118 01:12:09.491364  4537 net.cpp:345] relu2_2 -> conv2_2 (in-place)
I1118 01:12:09.491367  4537 net.cpp:96] Setting up relu2_2
I1118 01:12:09.491372  4537 net.cpp:103] Top shape: 1 128 112 112 (1605632)
I1118 01:12:09.491375  4537 layer_factory.hpp:78] Creating layer pool2
I1118 01:12:09.491380  4537 net.cpp:67] Creating Layer pool2
I1118 01:12:09.491382  4537 net.cpp:394] pool2 <- conv2_2
I1118 01:12:09.491387  4537 net.cpp:356] pool2 -> pool2
I1118 01:12:09.491391  4537 net.cpp:96] Setting up pool2
I1118 01:12:09.491396  4537 net.cpp:103] Top shape: 1 128 56 56 (401408)
I1118 01:12:09.491400  4537 layer_factory.hpp:78] Creating layer conv3_1
I1118 01:12:09.491405  4537 net.cpp:67] Creating Layer conv3_1
I1118 01:12:09.491407  4537 net.cpp:394] conv3_1 <- pool2
I1118 01:12:09.491412  4537 net.cpp:356] conv3_1 -> conv3_1
I1118 01:12:09.491417  4537 net.cpp:96] Setting up conv3_1
I1118 01:12:09.498286  4537 net.cpp:103] Top shape: 1 256 56 56 (802816)
I1118 01:12:09.498297  4537 layer_factory.hpp:78] Creating layer relu3_1
I1118 01:12:09.498316  4537 net.cpp:67] Creating Layer relu3_1
I1118 01:12:09.498318  4537 net.cpp:394] relu3_1 <- conv3_1
I1118 01:12:09.498322  4537 net.cpp:345] relu3_1 -> conv3_1 (in-place)
I1118 01:12:09.498327  4537 net.cpp:96] Setting up relu3_1
I1118 01:12:09.498332  4537 net.cpp:103] Top shape: 1 256 56 56 (802816)
I1118 01:12:09.498335  4537 layer_factory.hpp:78] Creating layer conv3_2
I1118 01:12:09.498339  4537 net.cpp:67] Creating Layer conv3_2
I1118 01:12:09.498349  4537 net.cpp:394] conv3_2 <- conv3_1
I1118 01:12:09.498353  4537 net.cpp:356] conv3_2 -> conv3_2
I1118 01:12:09.498359  4537 net.cpp:96] Setting up conv3_2
I1118 01:12:09.512327  4537 net.cpp:103] Top shape: 1 256 56 56 (802816)
I1118 01:12:09.512338  4537 layer_factory.hpp:78] Creating layer relu3_2
I1118 01:12:09.512356  4537 net.cpp:67] Creating Layer relu3_2
I1118 01:12:09.512359  4537 net.cpp:394] relu3_2 <- conv3_2
I1118 01:12:09.512364  4537 net.cpp:345] relu3_2 -> conv3_2 (in-place)
I1118 01:12:09.512368  4537 net.cpp:96] Setting up relu3_2
I1118 01:12:09.512373  4537 net.cpp:103] Top shape: 1 256 56 56 (802816)
I1118 01:12:09.512377  4537 layer_factory.hpp:78] Creating layer conv3_3
I1118 01:12:09.512384  4537 net.cpp:67] Creating Layer conv3_3
I1118 01:12:09.512387  4537 net.cpp:394] conv3_3 <- conv3_2
I1118 01:12:09.512392  4537 net.cpp:356] conv3_3 -> conv3_3
I1118 01:12:09.512398  4537 net.cpp:96] Setting up conv3_3
I1118 01:12:09.526106  4537 net.cpp:103] Top shape: 1 256 56 56 (802816)
I1118 01:12:09.526116  4537 layer_factory.hpp:78] Creating layer relu3_3
I1118 01:12:09.526134  4537 net.cpp:67] Creating Layer relu3_3
I1118 01:12:09.526137  4537 net.cpp:394] relu3_3 <- conv3_3
I1118 01:12:09.526141  4537 net.cpp:345] relu3_3 -> conv3_3 (in-place)
I1118 01:12:09.526146  4537 net.cpp:96] Setting up relu3_3
I1118 01:12:09.526150  4537 net.cpp:103] Top shape: 1 256 56 56 (802816)
I1118 01:12:09.526154  4537 layer_factory.hpp:78] Creating layer pool3
I1118 01:12:09.526159  4537 net.cpp:67] Creating Layer pool3
I1118 01:12:09.526161  4537 net.cpp:394] pool3 <- conv3_3
I1118 01:12:09.526165  4537 net.cpp:356] pool3 -> pool3
I1118 01:12:09.526170  4537 net.cpp:96] Setting up pool3
I1118 01:12:09.526176  4537 net.cpp:103] Top shape: 1 256 28 28 (200704)
I1118 01:12:09.526180  4537 layer_factory.hpp:78] Creating layer conv4_1
I1118 01:12:09.526185  4537 net.cpp:67] Creating Layer conv4_1
I1118 01:12:09.526187  4537 net.cpp:394] conv4_1 <- pool3
I1118 01:12:09.526191  4537 net.cpp:356] conv4_1 -> conv4_1
I1118 01:12:09.526196  4537 net.cpp:96] Setting up conv4_1
I1118 01:12:09.553704  4537 net.cpp:103] Top shape: 1 512 28 28 (401408)
I1118 01:12:09.553728  4537 layer_factory.hpp:78] Creating layer relu4_1
I1118 01:12:09.553735  4537 net.cpp:67] Creating Layer relu4_1
I1118 01:12:09.553738  4537 net.cpp:394] relu4_1 <- conv4_1
I1118 01:12:09.553742  4537 net.cpp:345] relu4_1 -> conv4_1 (in-place)
I1118 01:12:09.553747  4537 net.cpp:96] Setting up relu4_1
I1118 01:12:09.553752  4537 net.cpp:103] Top shape: 1 512 28 28 (401408)
I1118 01:12:09.553755  4537 layer_factory.hpp:78] Creating layer conv4_2
I1118 01:12:09.553761  4537 net.cpp:67] Creating Layer conv4_2
I1118 01:12:09.553764  4537 net.cpp:394] conv4_2 <- conv4_1
I1118 01:12:09.553769  4537 net.cpp:356] conv4_2 -> conv4_2
I1118 01:12:09.553774  4537 net.cpp:96] Setting up conv4_2
I1118 01:12:09.608487  4537 net.cpp:103] Top shape: 1 512 28 28 (401408)
I1118 01:12:09.608530  4537 layer_factory.hpp:78] Creating layer relu4_2
I1118 01:12:09.608539  4537 net.cpp:67] Creating Layer relu4_2
I1118 01:12:09.608543  4537 net.cpp:394] relu4_2 <- conv4_2
I1118 01:12:09.608549  4537 net.cpp:345] relu4_2 -> conv4_2 (in-place)
I1118 01:12:09.608556  4537 net.cpp:96] Setting up relu4_2
I1118 01:12:09.608561  4537 net.cpp:103] Top shape: 1 512 28 28 (401408)
I1118 01:12:09.608564  4537 layer_factory.hpp:78] Creating layer conv4_3
I1118 01:12:09.608569  4537 net.cpp:67] Creating Layer conv4_3
I1118 01:12:09.608572  4537 net.cpp:394] conv4_3 <- conv4_2
I1118 01:12:09.608577  4537 net.cpp:356] conv4_3 -> conv4_3
I1118 01:12:09.608583  4537 net.cpp:96] Setting up conv4_3
I1118 01:12:09.663429  4537 net.cpp:103] Top shape: 1 512 28 28 (401408)
I1118 01:12:09.663465  4537 layer_factory.hpp:78] Creating layer relu4_3
I1118 01:12:09.663473  4537 net.cpp:67] Creating Layer relu4_3
I1118 01:12:09.663477  4537 net.cpp:394] relu4_3 <- conv4_3
I1118 01:12:09.663483  4537 net.cpp:345] relu4_3 -> conv4_3 (in-place)
I1118 01:12:09.663491  4537 net.cpp:96] Setting up relu4_3
I1118 01:12:09.663508  4537 net.cpp:103] Top shape: 1 512 28 28 (401408)
I1118 01:12:09.663512  4537 layer_factory.hpp:78] Creating layer pool4
I1118 01:12:09.663517  4537 net.cpp:67] Creating Layer pool4
I1118 01:12:09.663521  4537 net.cpp:394] pool4 <- conv4_3
I1118 01:12:09.663525  4537 net.cpp:356] pool4 -> pool4
I1118 01:12:09.663532  4537 net.cpp:96] Setting up pool4
I1118 01:12:09.663538  4537 net.cpp:103] Top shape: 1 512 14 14 (100352)
I1118 01:12:09.663542  4537 layer_factory.hpp:78] Creating layer conv5_1
I1118 01:12:09.663547  4537 net.cpp:67] Creating Layer conv5_1
I1118 01:12:09.663550  4537 net.cpp:394] conv5_1 <- pool4
I1118 01:12:09.663568  4537 net.cpp:356] conv5_1 -> conv5_1
I1118 01:12:09.663578  4537 net.cpp:96] Setting up conv5_1
I1118 01:12:09.718194  4537 net.cpp:103] Top shape: 1 512 14 14 (100352)
I1118 01:12:09.718230  4537 layer_factory.hpp:78] Creating layer relu5_1
I1118 01:12:09.718245  4537 net.cpp:67] Creating Layer relu5_1
I1118 01:12:09.718248  4537 net.cpp:394] relu5_1 <- conv5_1
I1118 01:12:09.718255  4537 net.cpp:345] relu5_1 -> conv5_1 (in-place)
I1118 01:12:09.718261  4537 net.cpp:96] Setting up relu5_1
I1118 01:12:09.718266  4537 net.cpp:103] Top shape: 1 512 14 14 (100352)
I1118 01:12:09.718271  4537 layer_factory.hpp:78] Creating layer conv5_2
I1118 01:12:09.718276  4537 net.cpp:67] Creating Layer conv5_2
I1118 01:12:09.718278  4537 net.cpp:394] conv5_2 <- conv5_1
I1118 01:12:09.718282  4537 net.cpp:356] conv5_2 -> conv5_2
I1118 01:12:09.718288  4537 net.cpp:96] Setting up conv5_2
I1118 01:12:09.773113  4537 net.cpp:103] Top shape: 1 512 14 14 (100352)
I1118 01:12:09.773149  4537 layer_factory.hpp:78] Creating layer relu5_2
I1118 01:12:09.773155  4537 net.cpp:67] Creating Layer relu5_2
I1118 01:12:09.773160  4537 net.cpp:394] relu5_2 <- conv5_2
I1118 01:12:09.773166  4537 net.cpp:345] relu5_2 -> conv5_2 (in-place)
I1118 01:12:09.773171  4537 net.cpp:96] Setting up relu5_2
I1118 01:12:09.773177  4537 net.cpp:103] Top shape: 1 512 14 14 (100352)
I1118 01:12:09.773180  4537 layer_factory.hpp:78] Creating layer conv5_3
I1118 01:12:09.773185  4537 net.cpp:67] Creating Layer conv5_3
I1118 01:12:09.773188  4537 net.cpp:394] conv5_3 <- conv5_2
I1118 01:12:09.773196  4537 net.cpp:356] conv5_3 -> conv5_3
I1118 01:12:09.773202  4537 net.cpp:96] Setting up conv5_3
I1118 01:12:09.827996  4537 net.cpp:103] Top shape: 1 512 14 14 (100352)
I1118 01:12:09.828033  4537 layer_factory.hpp:78] Creating layer relu5_3
I1118 01:12:09.828042  4537 net.cpp:67] Creating Layer relu5_3
I1118 01:12:09.828047  4537 net.cpp:394] relu5_3 <- conv5_3
I1118 01:12:09.828053  4537 net.cpp:345] relu5_3 -> conv5_3 (in-place)
I1118 01:12:09.828060  4537 net.cpp:96] Setting up relu5_3
I1118 01:12:09.828065  4537 net.cpp:103] Top shape: 1 512 14 14 (100352)
I1118 01:12:09.828068  4537 layer_factory.hpp:78] Creating layer pool5
I1118 01:12:09.828080  4537 net.cpp:67] Creating Layer pool5
I1118 01:12:09.828083  4537 net.cpp:394] pool5 <- conv5_3
I1118 01:12:09.828088  4537 net.cpp:356] pool5 -> pool5
I1118 01:12:09.828094  4537 net.cpp:96] Setting up pool5
I1118 01:12:09.828101  4537 net.cpp:103] Top shape: 1 512 7 7 (25088)
I1118 01:12:09.828104  4537 layer_factory.hpp:78] Creating layer fc6
I1118 01:12:09.828111  4537 net.cpp:67] Creating Layer fc6
I1118 01:12:09.828114  4537 net.cpp:394] fc6 <- pool5
I1118 01:12:09.828119  4537 net.cpp:356] fc6 -> fc6
I1118 01:12:09.828125  4537 net.cpp:96] Setting up fc6
I1118 01:12:12.195157  4537 net.cpp:103] Top shape: 1 4096 1 1 (4096)
I1118 01:12:12.195200  4537 layer_factory.hpp:78] Creating layer relu6
I1118 01:12:12.195209  4537 net.cpp:67] Creating Layer relu6
I1118 01:12:12.195214  4537 net.cpp:394] relu6 <- fc6
I1118 01:12:12.195222  4537 net.cpp:345] relu6 -> fc6 (in-place)
I1118 01:12:12.195230  4537 net.cpp:96] Setting up relu6
I1118 01:12:12.195245  4537 net.cpp:103] Top shape: 1 4096 1 1 (4096)
I1118 01:12:12.195248  4537 layer_factory.hpp:78] Creating layer drop6
I1118 01:12:12.195253  4537 net.cpp:67] Creating Layer drop6
I1118 01:12:12.195256  4537 net.cpp:394] drop6 <- fc6
I1118 01:12:12.195272  4537 net.cpp:345] drop6 -> fc6 (in-place)
I1118 01:12:12.195277  4537 net.cpp:96] Setting up drop6
I1118 01:12:12.195281  4537 net.cpp:103] Top shape: 1 4096 1 1 (4096)
I1118 01:12:12.195284  4537 layer_factory.hpp:78] Creating layer fc7
I1118 01:12:12.195291  4537 net.cpp:67] Creating Layer fc7
I1118 01:12:12.195292  4537 net.cpp:394] fc7 <- fc6
I1118 01:12:12.195297  4537 net.cpp:356] fc7 -> fc7
I1118 01:12:12.195303  4537 net.cpp:96] Setting up fc7
I1118 01:12:12.582193  4537 net.cpp:103] Top shape: 1 4096 1 1 (4096)
I1118 01:12:12.582236  4537 layer_factory.hpp:78] Creating layer relu7
I1118 01:12:12.582244  4537 net.cpp:67] Creating Layer relu7
I1118 01:12:12.582249  4537 net.cpp:394] relu7 <- fc7
I1118 01:12:12.582257  4537 net.cpp:345] relu7 -> fc7 (in-place)
I1118 01:12:12.582262  4537 net.cpp:96] Setting up relu7
I1118 01:12:12.582278  4537 net.cpp:103] Top shape: 1 4096 1 1 (4096)
I1118 01:12:12.582280  4537 layer_factory.hpp:78] Creating layer drop7
I1118 01:12:12.582286  4537 net.cpp:67] Creating Layer drop7
I1118 01:12:12.582289  4537 net.cpp:394] drop7 <- fc7
I1118 01:12:12.582293  4537 net.cpp:345] drop7 -> fc7 (in-place)
I1118 01:12:12.582298  4537 net.cpp:96] Setting up drop7
I1118 01:12:12.582301  4537 net.cpp:103] Top shape: 1 4096 1 1 (4096)
I1118 01:12:12.582304  4537 layer_factory.hpp:78] Creating layer fc8_2
I1118 01:12:12.582309  4537 net.cpp:67] Creating Layer fc8_2
I1118 01:12:12.582312  4537 net.cpp:394] fc8_2 <- fc7
I1118 01:12:12.582319  4537 net.cpp:356] fc8_2 -> fc8_2
I1118 01:12:12.582324  4537 net.cpp:96] Setting up fc8_2
I1118 01:12:12.582535  4537 net.cpp:103] Top shape: 1 2 1 1 (2)
I1118 01:12:12.582543  4537 layer_factory.hpp:78] Creating layer fc8_2_fc8_2_0_split
I1118 01:12:12.582548  4537 net.cpp:67] Creating Layer fc8_2_fc8_2_0_split
I1118 01:12:12.582551  4537 net.cpp:394] fc8_2_fc8_2_0_split <- fc8_2
I1118 01:12:12.582556  4537 net.cpp:356] fc8_2_fc8_2_0_split -> fc8_2_fc8_2_0_split_0
I1118 01:12:12.582562  4537 net.cpp:356] fc8_2_fc8_2_0_split -> fc8_2_fc8_2_0_split_1
I1118 01:12:12.582567  4537 net.cpp:96] Setting up fc8_2_fc8_2_0_split
I1118 01:12:12.582574  4537 net.cpp:103] Top shape: 1 2 1 1 (2)
I1118 01:12:12.582577  4537 net.cpp:103] Top shape: 1 2 1 1 (2)
I1118 01:12:12.582586  4537 layer_factory.hpp:78] Creating layer loss
I1118 01:12:12.582592  4537 net.cpp:67] Creating Layer loss
I1118 01:12:12.582595  4537 net.cpp:394] loss <- fc8_2_fc8_2_0_split_0
I1118 01:12:12.582599  4537 net.cpp:394] loss <- label_data_1_split_0
I1118 01:12:12.582604  4537 net.cpp:356] loss -> (automatic)
I1118 01:12:12.582608  4537 net.cpp:96] Setting up loss
I1118 01:12:12.582614  4537 net.cpp:103] Top shape: 1 1 1 1 (1)
I1118 01:12:12.582617  4537 net.cpp:109]     with loss weight 1
I1118 01:12:12.582633  4537 layer_factory.hpp:78] Creating layer accuracy
I1118 01:12:12.582639  4537 net.cpp:67] Creating Layer accuracy
I1118 01:12:12.582643  4537 net.cpp:394] accuracy <- fc8_2_fc8_2_0_split_1
I1118 01:12:12.582646  4537 net.cpp:394] accuracy <- label_data_1_split_1
I1118 01:12:12.582651  4537 net.cpp:356] accuracy -> accuracy
I1118 01:12:12.582656  4537 net.cpp:96] Setting up accuracy
I1118 01:12:12.582664  4537 net.cpp:103] Top shape: 1 1 1 4 (4)
I1118 01:12:12.582667  4537 net.cpp:172] accuracy does not need backward computation.
I1118 01:12:12.582670  4537 net.cpp:170] loss needs backward computation.
I1118 01:12:12.582674  4537 net.cpp:170] fc8_2_fc8_2_0_split needs backward computation.
I1118 01:12:12.582675  4537 net.cpp:170] fc8_2 needs backward computation.
I1118 01:12:12.582679  4537 net.cpp:170] drop7 needs backward computation.
…
I1118 01:01:34.906093 26872 layer_factory.hpp:78] Creating layer data
I1118 01:01:34.906103 26872 net.cpp:67] Creating Layer data
I1118 01:01:34.906108 26872 net.cpp:356] data -> data
I1118 01:01:34.906116 26872 net.cpp:356] data -> label
I1118 01:01:34.906121 26872 net.cpp:96] Setting up data
I1118 01:01:34.906126 26872 image_data_layer.cpp:34] Opening file /data/ad6813/devCaffe/caffe/data/water_high_o/val.txt
I1118 01:01:34.906386 26872 image_data_layer.cpp:49] A total of 582 images.
I1118 01:01:34.913705 26872 image_data_layer.cpp:78] output data size: 50,3,224,224
I1118 01:01:34.917335 26872 net.cpp:103] Top shape: 50 3 224 224 (7526400)
I1118 01:01:34.917361 26872 net.cpp:103] Top shape: 50 1 1 1 (50)
I1118 01:01:34.917366 26872 layer_factory.hpp:78] Creating layer label_data_1_split
I1118 01:01:34.917383 26872 net.cpp:67] Creating Layer label_data_1_split
I1118 01:01:34.917388 26872 net.cpp:394] label_data_1_split <- label
I1118 01:01:34.917397 26872 net.cpp:356] label_data_1_split -> label_data_1_split_0
I1118 01:01:34.917407 26872 net.cpp:356] label_data_1_split -> label_data_1_split_1
I1118 01:01:34.917412 26872 net.cpp:96] Setting up label_data_1_split
I1118 01:01:34.917417 26872 net.cpp:103] Top shape: 50 1 1 1 (50)
I1118 01:01:34.917419 26872 net.cpp:103] Top shape: 50 1 1 1 (50)
I1118 01:01:34.917423 26872 layer_factory.hpp:78] Creating layer conv1_1
I1118 01:01:34.917429 26872 net.cpp:67] Creating Layer conv1_1
I1118 01:01:34.917433 26872 net.cpp:394] conv1_1 <- data
I1118 01:01:34.917438 26872 net.cpp:356] conv1_1 -> conv1_1
I1118 01:01:34.917445 26872 net.cpp:96] Setting up conv1_1
I1118 01:01:34.917620 26872 net.cpp:103] Top shape: 50 64 224 224 (160563200)
I1118 01:01:34.917635 26872 layer_factory.hpp:78] Creating layer relu1_1
I1118 01:01:34.917641 26872 net.cpp:67] Creating Layer relu1_1
I1118 01:01:34.917644 26872 net.cpp:394] relu1_1 <- conv1_1
I1118 01:01:34.917649 26872 net.cpp:345] relu1_1 -> conv1_1 (in-place)
I1118 01:01:34.917654 26872 net.cpp:96] Setting up relu1_1
I1118 01:01:34.917668 26872 net.cpp:103] Top shape: 50 64 224 224 (160563200)
I1118 01:01:34.917672 26872 layer_factory.hpp:78] Creating layer conv1_2
I1118 01:01:34.917678 26872 net.cpp:67] Creating Layer conv1_2
I1118 01:01:34.917681 26872 net.cpp:394] conv1_2 <- conv1_1
I1118 01:01:34.917686 26872 net.cpp:356] conv1_2 -> conv1_2
I1118 01:01:34.917697 26872 net.cpp:96] Setting up conv1_2
I1118 01:01:34.918716 26872 net.cpp:103] Top shape: 50 64 224 224 (160563200)
I1118 01:01:34.918730 26872 layer_factory.hpp:78] Creating layer relu1_2
I1118 01:01:34.918735 26872 net.cpp:67] Creating Layer relu1_2
I1118 01:01:34.918738 26872 net.cpp:394] relu1_2 <- conv1_2
I1118 01:01:34.918742 26872 net.cpp:345] relu1_2 -> conv1_2 (in-place)
I1118 01:01:34.918747 26872 net.cpp:96] Setting up relu1_2
I1118 01:01:34.918752 26872 net.cpp:103] Top shape: 50 64 224 224 (160563200)
I1118 01:01:34.918756 26872 layer_factory.hpp:78] Creating layer pool1
I1118 01:01:34.918761 26872 net.cpp:67] Creating Layer pool1
I1118 01:01:34.918766 26872 net.cpp:394] pool1 <- conv1_2
I1118 01:01:34.918769 26872 net.cpp:356] pool1 -> pool1
I1118 01:01:34.918774 26872 net.cpp:96] Setting up pool1
I1118 01:01:34.918781 26872 net.cpp:103] Top shape: 50 64 112 112 (40140800)
I1118 01:01:34.918784 26872 layer_factory.hpp:78] Creating layer conv2_1
I1118 01:01:34.918790 26872 net.cpp:67] Creating Layer conv2_1
I1118 01:01:34.918793 26872 net.cpp:394] conv2_1 <- pool1
I1118 01:01:34.918798 26872 net.cpp:356] conv2_1 -> conv2_1
I1118 01:01:34.918803 26872 net.cpp:96] Setting up conv2_1
I1118 01:01:34.920837 26872 net.cpp:103] Top shape: 50 128 112 112 (80281600)
I1118 01:01:34.920851 26872 layer_factory.hpp:78] Creating layer relu2_1
I1118 01:01:34.920857 26872 net.cpp:67] Creating Layer relu2_1
I1118 01:01:34.920861 26872 net.cpp:394] relu2_1 <- conv2_1
I1118 01:01:34.920866 26872 net.cpp:345] relu2_1 -> conv2_1 (in-place)
I1118 01:01:34.920871 26872 net.cpp:96] Setting up relu2_1
I1118 01:01:34.920876 26872 net.cpp:103] Top shape: 50 128 112 112 (80281600)
I1118 01:01:34.920879 26872 layer_factory.hpp:78] Creating layer conv2_2
I1118 01:01:34.920884 26872 net.cpp:67] Creating Layer conv2_2
I1118 01:01:34.920888 26872 net.cpp:394] conv2_2 <- conv2_1
I1118 01:01:34.920892 26872 net.cpp:356] conv2_2 -> conv2_2
I1118 01:01:34.920899 26872 net.cpp:96] Setting up conv2_2
I1118 01:01:34.924568 26872 net.cpp:103] Top shape: 50 128 112 112 (80281600)
I1118 01:01:34.924579 26872 layer_factory.hpp:78] Creating layer relu2_2
I1118 01:01:34.924584 26872 net.cpp:67] Creating Layer relu2_2
I1118 01:01:34.924588 26872 net.cpp:394] relu2_2 <- conv2_2
I1118 01:01:34.924592 26872 net.cpp:345] relu2_2 -> conv2_2 (in-place)
I1118 01:01:34.924597 26872 net.cpp:96] Setting up relu2_2
I1118 01:01:34.924602 26872 net.cpp:103] Top shape: 50 128 112 112 (80281600)
I1118 01:01:34.924605 26872 layer_factory.hpp:78] Creating layer pool2
I1118 01:01:34.924610 26872 net.cpp:67] Creating Layer pool2
I1118 01:01:34.924613 26872 net.cpp:394] pool2 <- conv2_2
I1118 01:01:34.924618 26872 net.cpp:356] pool2 -> pool2
I1118 01:01:34.924623 26872 net.cpp:96] Setting up pool2
I1118 01:01:34.924628 26872 net.cpp:103] Top shape: 50 128 56 56 (20070400)
I1118 01:01:34.924633 26872 layer_factory.hpp:78] Creating layer conv3_1
I1118 01:01:34.924638 26872 net.cpp:67] Creating Layer conv3_1
I1118 01:01:34.924640 26872 net.cpp:394] conv3_1 <- pool2
I1118 01:01:34.924644 26872 net.cpp:356] conv3_1 -> conv3_1
I1118 01:01:34.924650 26872 net.cpp:96] Setting up conv3_1
I1118 01:01:34.931910 26872 net.cpp:103] Top shape: 50 256 56 56 (40140800)
I1118 01:01:34.931922 26872 layer_factory.hpp:78] Creating layer relu3_1
I1118 01:01:34.931928 26872 net.cpp:67] Creating Layer relu3_1
I1118 01:01:34.931932 26872 net.cpp:394] relu3_1 <- conv3_1
I1118 01:01:34.931936 26872 net.cpp:345] relu3_1 -> conv3_1 (in-place)
I1118 01:01:34.931941 26872 net.cpp:96] Setting up relu3_1
I1118 01:01:34.931946 26872 net.cpp:103] Top shape: 50 256 56 56 (40140800)
I1118 01:01:34.931951 26872 layer_factory.hpp:78] Creating layer conv3_2
I1118 01:01:34.931962 26872 net.cpp:67] Creating Layer conv3_2
I1118 01:01:34.931965 26872 net.cpp:394] conv3_2 <- conv3_1
I1118 01:01:34.931970 26872 net.cpp:356] conv3_2 -> conv3_2
I1118 01:01:34.931977 26872 net.cpp:96] Setting up conv3_2
I1118 01:01:34.946604 26872 net.cpp:103] Top shape: 50 256 56 56 (40140800)
I1118 01:01:34.946626 26872 layer_factory.hpp:78] Creating layer relu3_2
I1118 01:01:34.946635 26872 net.cpp:67] Creating Layer relu3_2
I1118 01:01:34.946640 26872 net.cpp:394] relu3_2 <- conv3_2
I1118 01:01:34.946645 26872 net.cpp:345] relu3_2 -> conv3_2 (in-place)
I1118 01:01:34.946651 26872 net.cpp:96] Setting up relu3_2
I1118 01:01:34.946657 26872 net.cpp:103] Top shape: 50 256 56 56 (40140800)
I1118 01:01:34.946660 26872 layer_factory.hpp:78] Creating layer conv3_3
I1118 01:01:34.946671 26872 net.cpp:67] Creating Layer conv3_3
I1118 01:01:34.946674 26872 net.cpp:394] conv3_3 <- conv3_2
I1118 01:01:34.946681 26872 net.cpp:356] conv3_3 -> conv3_3
I1118 01:01:34.946686 26872 net.cpp:96] Setting up conv3_3
I1118 01:01:34.961447 26872 net.cpp:103] Top shape: 50 256 56 56 (40140800)
I1118 01:01:34.961462 26872 layer_factory.hpp:78] Creating layer relu3_3
I1118 01:01:34.961468 26872 net.cpp:67] Creating Layer relu3_3
I1118 01:01:34.961472 26872 net.cpp:394] relu3_3 <- conv3_3
I1118 01:01:34.961479 26872 net.cpp:345] relu3_3 -> conv3_3 (in-place)
I1118 01:01:34.961485 26872 net.cpp:96] Setting up relu3_3
I1118 01:01:34.961491 26872 net.cpp:103] Top shape: 50 256 56 56 (40140800)
I1118 01:01:34.961494 26872 layer_factory.hpp:78] Creating layer pool3
I1118 01:01:34.961500 26872 net.cpp:67] Creating Layer pool3
I1118 01:01:34.961503 26872 net.cpp:394] pool3 <- conv3_3
I1118 01:01:34.961508 26872 net.cpp:356] pool3 -> pool3
I1118 01:01:34.961513 26872 net.cpp:96] Setting up pool3
I1118 01:01:34.961520 26872 net.cpp:103] Top shape: 50 256 28 28 (10035200)
I1118 01:01:34.961524 26872 layer_factory.hpp:78] Creating layer conv4_1
I1118 01:01:34.961530 26872 net.cpp:67] Creating Layer conv4_1
I1118 01:01:34.961534 26872 net.cpp:394] conv4_1 <- pool3
I1118 01:01:34.961540 26872 net.cpp:356] conv4_1 -> conv4_1
I1118 01:01:34.961546 26872 net.cpp:96] Setting up conv4_1
I1118 01:01:34.990681 26872 net.cpp:103] Top shape: 50 512 28 28 (20070400)
I1118 01:01:34.990706 26872 layer_factory.hpp:78] Creating layer relu4_1
I1118 01:01:34.990715 26872 net.cpp:67] Creating Layer relu4_1
I1118 01:01:34.990720 26872 net.cpp:394] relu4_1 <- conv4_1
I1118 01:01:34.990728 26872 net.cpp:345] relu4_1 -> conv4_1 (in-place)
I1118 01:01:34.990736 26872 net.cpp:96] Setting up relu4_1
I1118 01:01:34.990742 26872 net.cpp:103] Top shape: 50 512 28 28 (20070400)
I1118 01:01:34.990746 26872 layer_factory.hpp:78] Creating layer conv4_2
I1118 01:01:34.990752 26872 net.cpp:67] Creating Layer conv4_2
I1118 01:01:34.990756 26872 net.cpp:394] conv4_2 <- conv4_1
I1118 01:01:34.990761 26872 net.cpp:356] conv4_2 -> conv4_2
I1118 01:01:34.990767 26872 net.cpp:96] Setting up conv4_2
I1118 01:01:35.048835 26872 net.cpp:103] Top shape: 50 512 28 28 (20070400)
I1118 01:01:35.048864 26872 layer_factory.hpp:78] Creating layer relu4_2
I1118 01:01:35.048872 26872 net.cpp:67] Creating Layer relu4_2
I1118 01:01:35.048877 26872 net.cpp:394] relu4_2 <- conv4_2
I1118 01:01:35.048883 26872 net.cpp:345] relu4_2 -> conv4_2 (in-place)
I1118 01:01:35.048889 26872 net.cpp:96] Setting up relu4_2
I1118 01:01:35.048895 26872 net.cpp:103] Top shape: 50 512 28 28 (20070400)
I1118 01:01:35.048899 26872 layer_factory.hpp:78] Creating layer conv4_3
I1118 01:01:35.048907 26872 net.cpp:67] Creating Layer conv4_3
I1118 01:01:35.048909 26872 net.cpp:394] conv4_3 <- conv4_2
I1118 01:01:35.048914 26872 net.cpp:356] conv4_3 -> conv4_3
I1118 01:01:35.048924 26872 net.cpp:96] Setting up conv4_3
I1118 01:01:35.106745 26872 net.cpp:103] Top shape: 50 512 28 28 (20070400)
I1118 01:01:35.106773 26872 layer_factory.hpp:78] Creating layer relu4_3
I1118 01:01:35.106782 26872 net.cpp:67] Creating Layer relu4_3
I1118 01:01:35.106787 26872 net.cpp:394] relu4_3 <- conv4_3
I1118 01:01:35.106793 26872 net.cpp:345] relu4_3 -> conv4_3 (in-place)
I1118 01:01:35.106812 26872 net.cpp:96] Setting up relu4_3
I1118 01:01:35.106817 26872 net.cpp:103] Top shape: 50 512 28 28 (20070400)
I1118 01:01:35.106822 26872 layer_factory.hpp:78] Creating layer pool4
I1118 01:01:35.106828 26872 net.cpp:67] Creating Layer pool4
I1118 01:01:35.106832 26872 net.cpp:394] pool4 <- conv4_3
I1118 01:01:35.106837 26872 net.cpp:356] pool4 -> pool4
I1118 01:01:35.106843 26872 net.cpp:96] Setting up pool4
I1118 01:01:35.106852 26872 net.cpp:103] Top shape: 50 512 14 14 (5017600)
I1118 01:01:35.106854 26872 layer_factory.hpp:78] Creating layer conv5_1
I1118 01:01:35.106863 26872 net.cpp:67] Creating Layer conv5_1
I1118 01:01:35.106865 26872 net.cpp:394] conv5_1 <- pool4
I1118 01:01:35.106870 26872 net.cpp:356] conv5_1 -> conv5_1
I1118 01:01:35.106876 26872 net.cpp:96] Setting up conv5_1
I1118 01:01:35.164656 26872 net.cpp:103] Top shape: 50 512 14 14 (5017600)
I1118 01:01:35.164681 26872 layer_factory.hpp:78] Creating layer relu5_1
I1118 01:01:35.164690 26872 net.cpp:67] Creating Layer relu5_1
I1118 01:01:35.164695 26872 net.cpp:394] relu5_1 <- conv5_1
I1118 01:01:35.164700 26872 net.cpp:345] relu5_1 -> conv5_1 (in-place)
I1118 01:01:35.164707 26872 net.cpp:96] Setting up relu5_1
I1118 01:01:35.164713 26872 net.cpp:103] Top shape: 50 512 14 14 (5017600)
I1118 01:01:35.164717 26872 layer_factory.hpp:78] Creating layer conv5_2
I1118 01:01:35.164728 26872 net.cpp:67] Creating Layer conv5_2
I1118 01:01:35.164732 26872 net.cpp:394] conv5_2 <- conv5_1
I1118 01:01:35.164738 26872 net.cpp:356] conv5_2 -> conv5_2
I1118 01:01:35.164746 26872 net.cpp:96] Setting up conv5_2
I1118 01:01:35.222550 26872 net.cpp:103] Top shape: 50 512 14 14 (5017600)
I1118 01:01:35.222575 26872 layer_factory.hpp:78] Creating layer relu5_2
I1118 01:01:35.222584 26872 net.cpp:67] Creating Layer relu5_2
I1118 01:01:35.222589 26872 net.cpp:394] relu5_2 <- conv5_2
I1118 01:01:35.222596 26872 net.cpp:345] relu5_2 -> conv5_2 (in-place)
I1118 01:01:35.222602 26872 net.cpp:96] Setting up relu5_2
I1118 01:01:35.222609 26872 net.cpp:103] Top shape: 50 512 14 14 (5017600)
I1118 01:01:35.222612 26872 layer_factory.hpp:78] Creating layer conv5_3
I1118 01:01:35.222620 26872 net.cpp:67] Creating Layer conv5_3
I1118 01:01:35.222623 26872 net.cpp:394] conv5_3 <- conv5_2
I1118 01:01:35.222628 26872 net.cpp:356] conv5_3 -> conv5_3
I1118 01:01:35.222635 26872 net.cpp:96] Setting up conv5_3
I1118 01:01:35.280792 26872 net.cpp:103] Top shape: 50 512 14 14 (5017600)
I1118 01:01:35.280817 26872 layer_factory.hpp:78] Creating layer relu5_3
I1118 01:01:35.280827 26872 net.cpp:67] Creating Layer relu5_3
I1118 01:01:35.280833 26872 net.cpp:394] relu5_3 <- conv5_3
I1118 01:01:35.280839 26872 net.cpp:345] relu5_3 -> conv5_3 (in-place)
I1118 01:01:35.280848 26872 net.cpp:96] Setting up relu5_3
I1118 01:01:35.280853 26872 net.cpp:103] Top shape: 50 512 14 14 (5017600)
I1118 01:01:35.280858 26872 layer_factory.hpp:78] Creating layer pool5
I1118 01:01:35.280869 26872 net.cpp:67] Creating Layer pool5
I1118 01:01:35.280871 26872 net.cpp:394] pool5 <- conv5_3
I1118 01:01:35.280876 26872 net.cpp:356] pool5 -> pool5
I1118 01:01:35.280882 26872 net.cpp:96] Setting up pool5
I1118 01:01:35.280890 26872 net.cpp:103] Top shape: 50 512 7 7 (1254400)
I1118 01:01:35.280894 26872 layer_factory.hpp:78] Creating layer fc6
I1118 01:01:35.280901 26872 net.cpp:67] Creating Layer fc6
I1118 01:01:35.280905 26872 net.cpp:394] fc6 <- pool5
I1118 01:01:35.280910 26872 net.cpp:356] fc6 -> fc6
I1118 01:01:35.280915 26872 net.cpp:96] Setting up fc6
I1118 01:01:37.743224 26872 net.cpp:103] Top shape: 50 4096 1 1 (204800)
I1118 01:01:37.743257 26872 layer_factory.hpp:78] Creating layer relu6
I1118 01:01:37.743264 26872 net.cpp:67] Creating Layer relu6
I1118 01:01:37.743269 26872 net.cpp:394] relu6 <- fc6
I1118 01:01:37.743278 26872 net.cpp:345] relu6 -> fc6 (in-place)
I1118 01:01:37.743284 26872 net.cpp:96] Setting up relu6
I1118 01:01:37.743298 26872 net.cpp:103] Top shape: 50 4096 1 1 (204800)
I1118 01:01:37.743301 26872 layer_factory.hpp:78] Creating layer drop6
I1118 01:01:37.743321 26872 net.cpp:67] Creating Layer drop6
I1118 01:01:37.743325 26872 net.cpp:394] drop6 <- fc6
I1118 01:01:37.743330 26872 net.cpp:345] drop6 -> fc6 (in-place)
I1118 01:01:37.743335 26872 net.cpp:96] Setting up drop6
I1118 01:01:37.743340 26872 net.cpp:103] Top shape: 50 4096 1 1 (204800)
I1118 01:01:37.743342 26872 layer_factory.hpp:78] Creating layer fc7
I1118 01:01:37.743347 26872 net.cpp:67] Creating Layer fc7
I1118 01:01:37.743350 26872 net.cpp:394] fc7 <- fc6
I1118 01:01:37.743355 26872 net.cpp:356] fc7 -> fc7
I1118 01:01:37.743362 26872 net.cpp:96] Setting up fc7
I1118 01:01:38.151996 26872 net.cpp:103] Top shape: 50 4096 1 1 (204800)
I1118 01:01:38.152027 26872 layer_factory.hpp:78] Creating layer relu7
I1118 01:01:38.152036 26872 net.cpp:67] Creating Layer relu7
I1118 01:01:38.152041 26872 net.cpp:394] relu7 <- fc7
I1118 01:01:38.152050 26872 net.cpp:345] relu7 -> fc7 (in-place)
I1118 01:01:38.152056 26872 net.cpp:96] Setting up relu7
I1118 01:01:38.152070 26872 net.cpp:103] Top shape: 50 4096 1 1 (204800)
I1118 01:01:38.152075 26872 layer_factory.hpp:78] Creating layer drop7
I1118 01:01:38.152079 26872 net.cpp:67] Creating Layer drop7
I1118 01:01:38.152082 26872 net.cpp:394] drop7 <- fc7
I1118 01:01:38.152088 26872 net.cpp:345] drop7 -> fc7 (in-place)
I1118 01:01:38.152093 26872 net.cpp:96] Setting up drop7
I1118 01:01:38.152098 26872 net.cpp:103] Top shape: 50 4096 1 1 (204800)
I1118 01:01:38.152101 26872 layer_factory.hpp:78] Creating layer fc8_2
I1118 01:01:38.152107 26872 net.cpp:67] Creating Layer fc8_2
I1118 01:01:38.152111 26872 net.cpp:394] fc8_2 <- fc7
I1118 01:01:38.152115 26872 net.cpp:356] fc8_2 -> fc8_2
I1118 01:01:38.152122 26872 net.cpp:96] Setting up fc8_2
I1118 01:01:38.152343 26872 net.cpp:103] Top shape: 50 2 1 1 (100)
I1118 01:01:38.152350 26872 layer_factory.hpp:78] Creating layer fc8_2_fc8_2_0_split
I1118 01:01:38.152356 26872 net.cpp:67] Creating Layer fc8_2_fc8_2_0_split
I1118 01:01:38.152360 26872 net.cpp:394] fc8_2_fc8_2_0_split <- fc8_2
I1118 01:01:38.152364 26872 net.cpp:356] fc8_2_fc8_2_0_split -> fc8_2_fc8_2_0_split_0
I1118 01:01:38.152371 26872 net.cpp:356] fc8_2_fc8_2_0_split -> fc8_2_fc8_2_0_split_1
I1118 01:01:38.152380 26872 net.cpp:96] Setting up fc8_2_fc8_2_0_split
I1118 01:01:38.152385 26872 net.cpp:103] Top shape: 50 2 1 1 (100)
I1118 01:01:38.152391 26872 net.cpp:103] Top shape: 50 2 1 1 (100)
I1118 01:01:38.152395 26872 layer_factory.hpp:78] Creating layer loss
I1118 01:01:38.152400 26872 net.cpp:67] Creating Layer loss
I1118 01:01:38.152402 26872 net.cpp:394] loss <- fc8_2_fc8_2_0_split_0
I1118 01:01:38.152411 26872 net.cpp:394] loss <- label_data_1_split_0
I1118 01:01:38.152418 26872 net.cpp:356] loss -> (automatic)
I1118 01:01:38.152422 26872 net.cpp:96] Setting up loss
I1118 01:01:38.152432 26872 net.cpp:103] Top shape: 1 1 1 1 (1)
I1118 01:01:38.152436 26872 net.cpp:109]     with loss weight 1
I1118 01:01:38.152451 26872 layer_factory.hpp:78] Creating layer accuracy
I1118 01:01:38.152462 26872 net.cpp:67] Creating Layer accuracy
I1118 01:01:38.152467 26872 net.cpp:394] accuracy <- fc8_2_fc8_2_0_split_1
I1118 01:01:38.152470 26872 net.cpp:394] accuracy <- label_data_1_split_1
I1118 01:01:38.152477 26872 net.cpp:356] accuracy -> accuracy
I1118 01:01:38.152482 26872 net.cpp:96] Setting up accuracy
I1118 01:01:38.152490 26872 net.cpp:103] Top shape: 1 1 1 4 (4)
I1118 01:01:38.152495 26872 net.cpp:172] accuracy does not need backward computation.
I1118 01:01:38.152498 26872 net.cpp:170] loss needs backward computation.
I1118 01:01:38.152501 26872 net.cpp:170] fc8_2_fc8_2_0_split needs backward computation.
I1118 01:01:38.152504 26872 net.cpp:170] fc8_2 needs backward computation.
I1118 01:01:38.152508 26872 net.cpp:170] drop7 needs backward computation.
…
