…
I1118 01:01:31.547261 26872 net.cpp:275] The NetState phase (0) differed from the phase (1) specified by a rule in layer accuracy
I1118 01:01:31.547472 26872 net.cpp:39] Initializing net from parameters: 
name: "small"
layers {
  top: "data"
  top: "label"
  name: "data"
  type: IMAGE_DATA
  image_data_param {
    source: "/data/ad6813/devCaffe/caffe/data/water_high_o/train.txt"
    batch_size: 8
    new_height: 256
    new_width: 256
  }
  include {
    phase: TRAIN
  }
  transform_param {
    mirror: true
    crop_size: 224
    mean_value: 86.752
    mean_value: 101.46
    mean_value: 104.6
  }
}
layers {
  bottom: "data"
  top: "conv1_1"
  name: "conv1_1"
  type: CONVOLUTION
  convolution_param {
    num_output: 64
    pad: 1
    kernel_size: 3
    weight_filler {
      type: "gaussian"
      std: 0.01
    }
    bias_filler {
      type: "constant"
      value: 0
    }
  }
}
layers {
  bottom: "conv1_1"
  top: "conv1_1"
  name: "relu1_1"
  type: RELU
}
layers {
  bottom: "conv1_1"
  top: "conv1_2"
  name: "conv1_2"
  type: CONVOLUTION
  convolution_param {
    num_output: 64
    pad: 1
    kernel_size: 3
    weight_filler {
      type: "gaussian"
      std: 0.01
    }
    bias_filler {
      type: "constant"
      value: 0
    }
  }
}
layers {
  bottom: "conv1_2"
  top: "conv1_2"
  name: "relu1_2"
  type: RELU
}
layers {
  bottom: "conv1_2"
  top: "pool1"
  name: "pool1"
  type: POOLING
  pooling_param {
    pool: MAX
    kernel_size: 2
    stride: 2
  }
}
layers {
  bottom: "pool1"
  top: "conv2_1"
  name: "conv2_1"
  type: CONVOLUTION
  convolution_param {
    num_output: 128
    pad: 1
    kernel_size: 3
    weight_filler {
      type: "gaussian"
      std: 0.01
    }
    bias_filler {
      type: "constant"
      value: 0
    }
  }
}
layers {
  bottom: "conv2_1"
  top: "conv2_1"
  name: "relu2_1"
  type: RELU
}
layers {
  bottom: "conv2_1"
  top: "conv2_2"
  name: "conv2_2"
  type: CONVOLUTION
  convolution_param {
    num_output: 128
    pad: 1
    kernel_size: 3
    weight_filler {
      type: "gaussian"
      std: 0.01
    }
    bias_filler {
      type: "constant"
      value: 0
    }
  }
}
layers {
  bottom: "conv2_2"
  top: "conv2_2"
  name: "relu2_2"
  type: RELU
}
layers {
  bottom: "conv2_2"
  top: "pool2"
  name: "pool2"
  type: POOLING
  pooling_param {
    pool: MAX
    kernel_size: 2
    stride: 2
  }
}
layers {
  bottom: "pool2"
  top: "conv3_1"
  name: "conv3_1"
  type: CONVOLUTION
  convolution_param {
    num_output: 256
    pad: 1
    kernel_size: 3
    weight_filler {
      type: "gaussian"
      std: 0.01
    }
    bias_filler {
      type: "constant"
      value: 0
    }
  }
}
layers {
  bottom: "conv3_1"
  top: "conv3_1"
  name: "relu3_1"
  type: RELU
}
layers {
  bottom: "conv3_1"
  top: "conv3_2"
  name: "conv3_2"
  type: CONVOLUTION
  convolution_param {
    num_output: 256
    pad: 1
    kernel_size: 3
    weight_filler {
      type: "gaussian"
      std: 0.01
    }
    bias_filler {
      type: "constant"
      value: 0
    }
  }
}
layers {
  bottom: "conv3_2"
  top: "conv3_2"
  name: "relu3_2"
  type: RELU
}
layers {
  bottom: "conv3_2"
  top: "conv3_3"
  name: "conv3_3"
  type: CONVOLUTION
  convolution_param {
    num_output: 256
    pad: 1
    kernel_size: 3
    weight_filler {
      type: "gaussian"
      std: 0.01
    }
    bias_filler {
      type: "constant"
      value: 0
    }
  }
}
layers {
  bottom: "conv3_3"
  top: "conv3_3"
  name: "relu3_3"
  type: RELU
}
layers {
  bottom: "conv3_3"
  top: "pool3"
  name: "pool3"
  type: POOLING
  pooling_param {
    pool: MAX
    kernel_size: 2
    stride: 2
  }
}
layers {
  bottom: "pool3"
  top: "conv4_1"
  name: "conv4_1"
  type: CONVOLUTION
  convolution_param {
    num_output: 512
    pad: 1
    kernel_size: 3
    weight_filler {
      type: "gaussian"
      std: 0.01
    }
    bias_filler {
      type: "constant"
      value: 0
    }
  }
}
layers {
  bottom: "conv4_1"
  top: "conv4_1"
  name: "relu4_1"
  type: RELU
}
layers {
  bottom: "conv4_1"
  top: "conv4_2"
  name: "conv4_2"
  type: CONVOLUTION
  convolution_param {
    num_output: 512
    pad: 1
    kernel_size: 3
    weight_filler {
      type: "gaussian"
      std: 0.01
    }
    bias_filler {
      type: "constant"
      value: 0
    }
  }
}
layers {
  bottom: "conv4_2"
  top: "conv4_2"
  name: "relu4_2"
  type: RELU
}
layers {
  bottom: "conv4_2"
  top: "conv4_3"
  name: "conv4_3"
  type: CONVOLUTION
  convolution_param {
    num_output: 512
    pad: 1
    kernel_size: 3
    weight_filler {
      type: "gaussian"
      std: 0.01
    }
    bias_filler {
      type: "constant"
      value: 0
    }
  }
}
layers {
  bottom: "conv4_3"
  top: "conv4_3"
  name: "relu4_3"
  type: RELU
}
layers {
  bottom: "conv4_3"
  top: "pool4"
  name: "pool4"
  type: POOLING
  pooling_param {
    pool: MAX
    kernel_size: 2
    stride: 2
  }
}
layers {
  bottom: "pool4"
  top: "conv5_1"
  name: "conv5_1"
  type: CONVOLUTION
  convolution_param {
    num_output: 512
    pad: 1
    kernel_size: 3
    weight_filler {
      type: "gaussian"
      std: 0.01
    }
    bias_filler {
      type: "constant"
      value: 0
    }
  }
}
layers {
  bottom: "conv5_1"
  top: "conv5_1"
  name: "relu5_1"
  type: RELU
}
layers {
  bottom: "conv5_1"
  top: "conv5_2"
  name: "conv5_2"
  type: CONVOLUTION
  convolution_param {
    num_output: 512
    pad: 1
    kernel_size: 3
    weight_filler {
      type: "gaussian"
      std: 0.01
    }
    bias_filler {
      type: "constant"
      value: 0
    }
  }
}
layers {
  bottom: "conv5_2"
  top: "conv5_2"
  name: "relu5_2"
  type: RELU
}
layers {
  bottom: "conv5_2"
  top: "conv5_3"
  name: "conv5_3"
  type: CONVOLUTION
  convolution_param {
    num_output: 512
    pad: 1
    kernel_size: 3
    weight_filler {
      type: "gaussian"
      std: 0.01
    }
    bias_filler {
      type: "constant"
      value: 0
    }
  }
}
layers {
  bottom: "conv5_3"
  top: "conv5_3"
  name: "relu5_3"
  type: RELU
}
layers {
  bottom: "conv5_3"
  top: "pool5"
  name: "pool5"
  type: POOLING
  pooling_param {
    pool: MAX
    kernel_size: 2
    stride: 2
  }
}
layers {
  bottom: "pool5"
  top: "fc6"
  name: "fc6"
  type: INNER_PRODUCT
  inner_product_param {
    num_output: 4096
    weight_filler {
      type: "gaussian"
      std: 0.01
    }
    bias_filler {
      type: "constant"
      value: 0
    }
  }
}
layers {
  bottom: "fc6"
  top: "fc6"
  name: "relu6"
  type: RELU
}
layers {
  bottom: "fc6"
  top: "fc6"
  name: "drop6"
  type: DROPOUT
  dropout_param {
    dropout_ratio: 0.5
  }
}
layers {
  bottom: "fc6"
  top: "fc7"
  name: "fc7"
  type: INNER_PRODUCT
  inner_product_param {
    num_output: 4096
    weight_filler {
      type: "gaussian"
      std: 0.01
    }
    bias_filler {
      type: "constant"
      value: 0
    }
  }
}
layers {
  bottom: "fc7"
  top: "fc7"
  name: "relu7"
  type: RELU
}
layers {
  bottom: "fc7"
  top: "fc7"
  name: "drop7"
  type: DROPOUT
  dropout_param {
    dropout_ratio: 0.5
  }
}
layers {
  bottom: "fc7"
  top: "fc8_2"
  name: "fc8_2"
  type: INNER_PRODUCT
  inner_product_param {
    num_output: 2
    weight_filler {
      type: "gaussian"
      std: 0.01
    }
    bias_filler {
      type: "constant"
      value: 0
    }
  }
}
layers {
  bottom: "fc8_2"
  bottom: "label"
  name: "loss"
  type: SOFTMAX_LOSS
}
state {
  phase: TRAIN
}
I1118 01:01:31.547593 26872 layer_factory.hpp:78] Creating layer data
I1118 01:01:31.547615 26872 net.cpp:67] Creating Layer data
I1118 01:01:31.547621 26872 net.cpp:356] data -> data
I1118 01:01:31.547641 26872 net.cpp:356] data -> label
I1118 01:01:31.547648 26872 net.cpp:96] Setting up data
I1118 01:01:31.547657 26872 image_data_layer.cpp:34] Opening file /data/ad6813/devCaffe/caffe/data/water_high_o/train.txt
I1118 01:01:31.548874 26872 image_data_layer.cpp:49] A total of 3289 images.
I1118 01:01:31.557539 26872 image_data_layer.cpp:78] output data size: 8,3,224,224
I1118 01:01:31.558732 26872 net.cpp:103] Top shape: 8 3 224 224 (1204224)
I1118 01:01:31.558743 26872 net.cpp:103] Top shape: 8 1 1 1 (8)
I1118 01:01:31.558748 26872 layer_factory.hpp:78] Creating layer conv1_1
I1118 01:01:31.558775 26872 net.cpp:67] Creating Layer conv1_1
I1118 01:01:31.558783 26872 net.cpp:394] conv1_1 <- data
I1118 01:01:31.558795 26872 net.cpp:356] conv1_1 -> conv1_1
I1118 01:01:31.558806 26872 net.cpp:96] Setting up conv1_1
I1118 01:01:31.745959 26872 net.cpp:103] Top shape: 8 64 224 224 (25690112)
I1118 01:01:31.745995 26872 layer_factory.hpp:78] Creating layer relu1_1
I1118 01:01:31.746007 26872 net.cpp:67] Creating Layer relu1_1
I1118 01:01:31.746012 26872 net.cpp:394] relu1_1 <- conv1_1
I1118 01:01:31.746021 26872 net.cpp:345] relu1_1 -> conv1_1 (in-place)
I1118 01:01:31.746031 26872 net.cpp:96] Setting up relu1_1
I1118 01:01:31.746039 26872 net.cpp:103] Top shape: 8 64 224 224 (25690112)
I1118 01:01:31.746047 26872 layer_factory.hpp:78] Creating layer conv1_2
I1118 01:01:31.746058 26872 net.cpp:67] Creating Layer conv1_2
I1118 01:01:31.746065 26872 net.cpp:394] conv1_2 <- conv1_1
I1118 01:01:31.746080 26872 net.cpp:356] conv1_2 -> conv1_2
I1118 01:01:31.746091 26872 net.cpp:96] Setting up conv1_2
I1118 01:01:31.747233 26872 net.cpp:103] Top shape: 8 64 224 224 (25690112)
I1118 01:01:31.747247 26872 layer_factory.hpp:78] Creating layer relu1_2
I1118 01:01:31.747256 26872 net.cpp:67] Creating Layer relu1_2
I1118 01:01:31.747259 26872 net.cpp:394] relu1_2 <- conv1_2
I1118 01:01:31.747264 26872 net.cpp:345] relu1_2 -> conv1_2 (in-place)
I1118 01:01:31.747270 26872 net.cpp:96] Setting up relu1_2
I1118 01:01:31.747277 26872 net.cpp:103] Top shape: 8 64 224 224 (25690112)
I1118 01:01:31.747280 26872 layer_factory.hpp:78] Creating layer pool1
I1118 01:01:31.747292 26872 net.cpp:67] Creating Layer pool1
I1118 01:01:31.747295 26872 net.cpp:394] pool1 <- conv1_2
I1118 01:01:31.747301 26872 net.cpp:356] pool1 -> pool1
I1118 01:01:31.747308 26872 net.cpp:96] Setting up pool1
I1118 01:01:31.747325 26872 net.cpp:103] Top shape: 8 64 112 112 (6422528)
I1118 01:01:31.747331 26872 layer_factory.hpp:78] Creating layer conv2_1
I1118 01:01:31.747337 26872 net.cpp:67] Creating Layer conv2_1
I1118 01:01:31.747342 26872 net.cpp:394] conv2_1 <- pool1
I1118 01:01:31.747349 26872 net.cpp:356] conv2_1 -> conv2_1
I1118 01:01:31.747359 26872 net.cpp:96] Setting up conv2_1
I1118 01:01:31.749402 26872 net.cpp:103] Top shape: 8 128 112 112 (12845056)
I1118 01:01:31.749415 26872 layer_factory.hpp:78] Creating layer relu2_1
I1118 01:01:31.749421 26872 net.cpp:67] Creating Layer relu2_1
I1118 01:01:31.749424 26872 net.cpp:394] relu2_1 <- conv2_1
I1118 01:01:31.749431 26872 net.cpp:345] relu2_1 -> conv2_1 (in-place)
I1118 01:01:31.749436 26872 net.cpp:96] Setting up relu2_1
I1118 01:01:31.749443 26872 net.cpp:103] Top shape: 8 128 112 112 (12845056)
I1118 01:01:31.749446 26872 layer_factory.hpp:78] Creating layer conv2_2
I1118 01:01:31.749452 26872 net.cpp:67] Creating Layer conv2_2
I1118 01:01:31.749459 26872 net.cpp:394] conv2_2 <- conv2_1
I1118 01:01:31.749466 26872 net.cpp:356] conv2_2 -> conv2_2
I1118 01:01:31.749474 26872 net.cpp:96] Setting up conv2_2
I1118 01:01:31.753358 26872 net.cpp:103] Top shape: 8 128 112 112 (12845056)
I1118 01:01:31.753371 26872 layer_factory.hpp:78] Creating layer relu2_2
I1118 01:01:31.753376 26872 net.cpp:67] Creating Layer relu2_2
I1118 01:01:31.753378 26872 net.cpp:394] relu2_2 <- conv2_2
I1118 01:01:31.753384 26872 net.cpp:345] relu2_2 -> conv2_2 (in-place)
I1118 01:01:31.753389 26872 net.cpp:96] Setting up relu2_2
I1118 01:01:31.753396 26872 net.cpp:103] Top shape: 8 128 112 112 (12845056)
I1118 01:01:31.753398 26872 layer_factory.hpp:78] Creating layer pool2
I1118 01:01:31.753412 26872 net.cpp:67] Creating Layer pool2
I1118 01:01:31.753415 26872 net.cpp:394] pool2 <- conv2_2
I1118 01:01:31.753424 26872 net.cpp:356] pool2 -> pool2
I1118 01:01:31.753430 26872 net.cpp:96] Setting up pool2
I1118 01:01:31.753437 26872 net.cpp:103] Top shape: 8 128 56 56 (3211264)
I1118 01:01:31.753440 26872 layer_factory.hpp:78] Creating layer conv3_1
I1118 01:01:31.753444 26872 net.cpp:67] Creating Layer conv3_1
I1118 01:01:31.753448 26872 net.cpp:394] conv3_1 <- pool2
I1118 01:01:31.753459 26872 net.cpp:356] conv3_1 -> conv3_1
I1118 01:01:31.753468 26872 net.cpp:96] Setting up conv3_1
I1118 01:01:31.760866 26872 net.cpp:103] Top shape: 8 256 56 56 (6422528)
I1118 01:01:31.760881 26872 layer_factory.hpp:78] Creating layer relu3_1
I1118 01:01:31.760887 26872 net.cpp:67] Creating Layer relu3_1
I1118 01:01:31.760895 26872 net.cpp:394] relu3_1 <- conv3_1
I1118 01:01:31.760902 26872 net.cpp:345] relu3_1 -> conv3_1 (in-place)
I1118 01:01:31.760911 26872 net.cpp:96] Setting up relu3_1
I1118 01:01:31.760922 26872 net.cpp:103] Top shape: 8 256 56 56 (6422528)
I1118 01:01:31.760928 26872 layer_factory.hpp:78] Creating layer conv3_2
I1118 01:01:31.760937 26872 net.cpp:67] Creating Layer conv3_2
I1118 01:01:31.760942 26872 net.cpp:394] conv3_2 <- conv3_1
I1118 01:01:31.760948 26872 net.cpp:356] conv3_2 -> conv3_2
I1118 01:01:31.760956 26872 net.cpp:96] Setting up conv3_2
I1118 01:01:31.775643 26872 net.cpp:103] Top shape: 8 256 56 56 (6422528)
I1118 01:01:31.775661 26872 layer_factory.hpp:78] Creating layer relu3_2
I1118 01:01:31.775670 26872 net.cpp:67] Creating Layer relu3_2
I1118 01:01:31.775673 26872 net.cpp:394] relu3_2 <- conv3_2
I1118 01:01:31.775681 26872 net.cpp:345] relu3_2 -> conv3_2 (in-place)
I1118 01:01:31.775687 26872 net.cpp:96] Setting up relu3_2
I1118 01:01:31.775693 26872 net.cpp:103] Top shape: 8 256 56 56 (6422528)
I1118 01:01:31.775698 26872 layer_factory.hpp:78] Creating layer conv3_3
I1118 01:01:31.775704 26872 net.cpp:67] Creating Layer conv3_3
I1118 01:01:31.775708 26872 net.cpp:394] conv3_3 <- conv3_2
I1118 01:01:31.775717 26872 net.cpp:356] conv3_3 -> conv3_3
I1118 01:01:31.775724 26872 net.cpp:96] Setting up conv3_3
I1118 01:01:31.790217 26872 net.cpp:103] Top shape: 8 256 56 56 (6422528)
I1118 01:01:31.790241 26872 layer_factory.hpp:78] Creating layer relu3_3
I1118 01:01:31.790252 26872 net.cpp:67] Creating Layer relu3_3
I1118 01:01:31.790261 26872 net.cpp:394] relu3_3 <- conv3_3
I1118 01:01:31.790267 26872 net.cpp:345] relu3_3 -> conv3_3 (in-place)
I1118 01:01:31.790274 26872 net.cpp:96] Setting up relu3_3
I1118 01:01:31.790280 26872 net.cpp:103] Top shape: 8 256 56 56 (6422528)
I1118 01:01:31.790283 26872 layer_factory.hpp:78] Creating layer pool3
I1118 01:01:31.790289 26872 net.cpp:67] Creating Layer pool3
I1118 01:01:31.790292 26872 net.cpp:394] pool3 <- conv3_3
I1118 01:01:31.790299 26872 net.cpp:356] pool3 -> pool3
I1118 01:01:31.790307 26872 net.cpp:96] Setting up pool3
I1118 01:01:31.790318 26872 net.cpp:103] Top shape: 8 256 28 28 (1605632)
I1118 01:01:31.790323 26872 layer_factory.hpp:78] Creating layer conv4_1
I1118 01:01:31.790329 26872 net.cpp:67] Creating Layer conv4_1
I1118 01:01:31.790336 26872 net.cpp:394] conv4_1 <- pool3
I1118 01:01:31.790348 26872 net.cpp:356] conv4_1 -> conv4_1
I1118 01:01:31.790366 26872 net.cpp:96] Setting up conv4_1
I1118 01:01:31.819407 26872 net.cpp:103] Top shape: 8 512 28 28 (3211264)
I1118 01:01:31.819422 26872 layer_factory.hpp:78] Creating layer relu4_1
I1118 01:01:31.819434 26872 net.cpp:67] Creating Layer relu4_1
I1118 01:01:31.819443 26872 net.cpp:394] relu4_1 <- conv4_1
I1118 01:01:31.819450 26872 net.cpp:345] relu4_1 -> conv4_1 (in-place)
I1118 01:01:31.819457 26872 net.cpp:96] Setting up relu4_1
I1118 01:01:31.819465 26872 net.cpp:103] Top shape: 8 512 28 28 (3211264)
I1118 01:01:31.819469 26872 layer_factory.hpp:78] Creating layer conv4_2
I1118 01:01:31.819478 26872 net.cpp:67] Creating Layer conv4_2
I1118 01:01:31.819480 26872 net.cpp:394] conv4_2 <- conv4_1
I1118 01:01:31.819485 26872 net.cpp:356] conv4_2 -> conv4_2
I1118 01:01:31.819499 26872 net.cpp:96] Setting up conv4_2
I1118 01:01:31.877166 26872 net.cpp:103] Top shape: 8 512 28 28 (3211264)
I1118 01:01:31.877200 26872 layer_factory.hpp:78] Creating layer relu4_2
I1118 01:01:31.877208 26872 net.cpp:67] Creating Layer relu4_2
I1118 01:01:31.877213 26872 net.cpp:394] relu4_2 <- conv4_2
I1118 01:01:31.877219 26872 net.cpp:345] relu4_2 -> conv4_2 (in-place)
I1118 01:01:31.877226 26872 net.cpp:96] Setting up relu4_2
I1118 01:01:31.877233 26872 net.cpp:103] Top shape: 8 512 28 28 (3211264)
I1118 01:01:31.877235 26872 layer_factory.hpp:78] Creating layer conv4_3
I1118 01:01:31.877241 26872 net.cpp:67] Creating Layer conv4_3
I1118 01:01:31.877245 26872 net.cpp:394] conv4_3 <- conv4_2
I1118 01:01:31.877251 26872 net.cpp:356] conv4_3 -> conv4_3
I1118 01:01:31.877257 26872 net.cpp:96] Setting up conv4_3
I1118 01:01:31.935156 26872 net.cpp:103] Top shape: 8 512 28 28 (3211264)
I1118 01:01:31.935183 26872 layer_factory.hpp:78] Creating layer relu4_3
I1118 01:01:31.935189 26872 net.cpp:67] Creating Layer relu4_3
I1118 01:01:31.935194 26872 net.cpp:394] relu4_3 <- conv4_3
I1118 01:01:31.935200 26872 net.cpp:345] relu4_3 -> conv4_3 (in-place)
I1118 01:01:31.935207 26872 net.cpp:96] Setting up relu4_3
I1118 01:01:31.935214 26872 net.cpp:103] Top shape: 8 512 28 28 (3211264)
I1118 01:01:31.935216 26872 layer_factory.hpp:78] Creating layer pool4
I1118 01:01:31.935223 26872 net.cpp:67] Creating Layer pool4
I1118 01:01:31.935226 26872 net.cpp:394] pool4 <- conv4_3
I1118 01:01:31.935232 26872 net.cpp:356] pool4 -> pool4
I1118 01:01:31.935237 26872 net.cpp:96] Setting up pool4
I1118 01:01:31.935245 26872 net.cpp:103] Top shape: 8 512 14 14 (802816)
I1118 01:01:31.935248 26872 layer_factory.hpp:78] Creating layer conv5_1
I1118 01:01:31.935256 26872 net.cpp:67] Creating Layer conv5_1
I1118 01:01:31.935259 26872 net.cpp:394] conv5_1 <- pool4
I1118 01:01:31.935264 26872 net.cpp:356] conv5_1 -> conv5_1
I1118 01:01:31.935272 26872 net.cpp:96] Setting up conv5_1
I1118 01:01:31.993082 26872 net.cpp:103] Top shape: 8 512 14 14 (802816)
I1118 01:01:31.993109 26872 layer_factory.hpp:78] Creating layer relu5_1
I1118 01:01:31.993118 26872 net.cpp:67] Creating Layer relu5_1
I1118 01:01:31.993123 26872 net.cpp:394] relu5_1 <- conv5_1
I1118 01:01:31.993129 26872 net.cpp:345] relu5_1 -> conv5_1 (in-place)
I1118 01:01:31.993136 26872 net.cpp:96] Setting up relu5_1
I1118 01:01:31.993142 26872 net.cpp:103] Top shape: 8 512 14 14 (802816)
I1118 01:01:31.993145 26872 layer_factory.hpp:78] Creating layer conv5_2
I1118 01:01:31.993154 26872 net.cpp:67] Creating Layer conv5_2
I1118 01:01:31.993156 26872 net.cpp:394] conv5_2 <- conv5_1
I1118 01:01:31.993161 26872 net.cpp:356] conv5_2 -> conv5_2
I1118 01:01:31.993170 26872 net.cpp:96] Setting up conv5_2
I1118 01:01:32.051086 26872 net.cpp:103] Top shape: 8 512 14 14 (802816)
I1118 01:01:32.051113 26872 layer_factory.hpp:78] Creating layer relu5_2
I1118 01:01:32.051121 26872 net.cpp:67] Creating Layer relu5_2
I1118 01:01:32.051126 26872 net.cpp:394] relu5_2 <- conv5_2
I1118 01:01:32.051132 26872 net.cpp:345] relu5_2 -> conv5_2 (in-place)
I1118 01:01:32.051139 26872 net.cpp:96] Setting up relu5_2
I1118 01:01:32.051146 26872 net.cpp:103] Top shape: 8 512 14 14 (802816)
I1118 01:01:32.051148 26872 layer_factory.hpp:78] Creating layer conv5_3
I1118 01:01:32.051154 26872 net.cpp:67] Creating Layer conv5_3
I1118 01:01:32.051157 26872 net.cpp:394] conv5_3 <- conv5_2
I1118 01:01:32.051164 26872 net.cpp:356] conv5_3 -> conv5_3
I1118 01:01:32.051172 26872 net.cpp:96] Setting up conv5_3
I1118 01:01:32.109012 26872 net.cpp:103] Top shape: 8 512 14 14 (802816)
I1118 01:01:32.109041 26872 layer_factory.hpp:78] Creating layer relu5_3
I1118 01:01:32.109050 26872 net.cpp:67] Creating Layer relu5_3
I1118 01:01:32.109055 26872 net.cpp:394] relu5_3 <- conv5_3
I1118 01:01:32.109062 26872 net.cpp:345] relu5_3 -> conv5_3 (in-place)
I1118 01:01:32.109069 26872 net.cpp:96] Setting up relu5_3
I1118 01:01:32.109076 26872 net.cpp:103] Top shape: 8 512 14 14 (802816)
I1118 01:01:32.109088 26872 layer_factory.hpp:78] Creating layer pool5
I1118 01:01:32.109096 26872 net.cpp:67] Creating Layer pool5
I1118 01:01:32.109099 26872 net.cpp:394] pool5 <- conv5_3
I1118 01:01:32.109104 26872 net.cpp:356] pool5 -> pool5
I1118 01:01:32.109110 26872 net.cpp:96] Setting up pool5
I1118 01:01:32.109118 26872 net.cpp:103] Top shape: 8 512 7 7 (200704)
I1118 01:01:32.109122 26872 layer_factory.hpp:78] Creating layer fc6
I1118 01:01:32.109135 26872 net.cpp:67] Creating Layer fc6
I1118 01:01:32.109138 26872 net.cpp:394] fc6 <- pool5
I1118 01:01:32.109144 26872 net.cpp:356] fc6 -> fc6
I1118 01:01:32.109156 26872 net.cpp:96] Setting up fc6
I1118 01:01:34.514276 26872 net.cpp:103] Top shape: 8 4096 1 1 (32768)
I1118 01:01:34.514317 26872 layer_factory.hpp:78] Creating layer relu6
I1118 01:01:34.514328 26872 net.cpp:67] Creating Layer relu6
I1118 01:01:34.514331 26872 net.cpp:394] relu6 <- fc6
I1118 01:01:34.514338 26872 net.cpp:345] relu6 -> fc6 (in-place)
I1118 01:01:34.514345 26872 net.cpp:96] Setting up relu6
I1118 01:01:34.514359 26872 net.cpp:103] Top shape: 8 4096 1 1 (32768)
I1118 01:01:34.514363 26872 layer_factory.hpp:78] Creating layer drop6
I1118 01:01:34.514371 26872 net.cpp:67] Creating Layer drop6
I1118 01:01:34.514375 26872 net.cpp:394] drop6 <- fc6
I1118 01:01:34.514380 26872 net.cpp:345] drop6 -> fc6 (in-place)
I1118 01:01:34.514385 26872 net.cpp:96] Setting up drop6
I1118 01:01:34.514389 26872 net.cpp:103] Top shape: 8 4096 1 1 (32768)
I1118 01:01:34.514392 26872 layer_factory.hpp:78] Creating layer fc7
I1118 01:01:34.514397 26872 net.cpp:67] Creating Layer fc7
I1118 01:01:34.514400 26872 net.cpp:394] fc7 <- fc6
I1118 01:01:34.514405 26872 net.cpp:356] fc7 -> fc7
I1118 01:01:34.514412 26872 net.cpp:96] Setting up fc7
I1118 01:01:34.904252 26872 net.cpp:103] Top shape: 8 4096 1 1 (32768)
I1118 01:01:34.904281 26872 layer_factory.hpp:78] Creating layer relu7
I1118 01:01:34.904289 26872 net.cpp:67] Creating Layer relu7
I1118 01:01:34.904294 26872 net.cpp:394] relu7 <- fc7
I1118 01:01:34.904302 26872 net.cpp:345] relu7 -> fc7 (in-place)
I1118 01:01:34.904309 26872 net.cpp:96] Setting up relu7
I1118 01:01:34.904324 26872 net.cpp:103] Top shape: 8 4096 1 1 (32768)
I1118 01:01:34.904327 26872 layer_factory.hpp:78] Creating layer drop7
I1118 01:01:34.904332 26872 net.cpp:67] Creating Layer drop7
I1118 01:01:34.904336 26872 net.cpp:394] drop7 <- fc7
I1118 01:01:34.904341 26872 net.cpp:345] drop7 -> fc7 (in-place)
I1118 01:01:34.904346 26872 net.cpp:96] Setting up drop7
I1118 01:01:34.904356 26872 net.cpp:103] Top shape: 8 4096 1 1 (32768)
I1118 01:01:34.904358 26872 layer_factory.hpp:78] Creating layer fc8_2
I1118 01:01:34.904364 26872 net.cpp:67] Creating Layer fc8_2
I1118 01:01:34.904367 26872 net.cpp:394] fc8_2 <- fc7
I1118 01:01:34.904372 26872 net.cpp:356] fc8_2 -> fc8_2
I1118 01:01:34.904378 26872 net.cpp:96] Setting up fc8_2
I1118 01:01:34.904603 26872 net.cpp:103] Top shape: 8 2 1 1 (16)
I1118 01:01:34.904611 26872 layer_factory.hpp:78] Creating layer loss
I1118 01:01:34.904618 26872 net.cpp:67] Creating Layer loss
I1118 01:01:34.904621 26872 net.cpp:394] loss <- fc8_2
I1118 01:01:34.904625 26872 net.cpp:394] loss <- label
I1118 01:01:34.904635 26872 net.cpp:356] loss -> (automatic)
I1118 01:01:34.904641 26872 net.cpp:96] Setting up loss
I1118 01:01:34.904650 26872 net.cpp:103] Top shape: 1 1 1 1 (1)
I1118 01:01:34.904654 26872 net.cpp:109]     with loss weight 1
I1118 01:01:34.904690 26872 net.cpp:170] loss needs backward computation.
I1118 01:01:34.904693 26872 net.cpp:170] fc8_2 needs backward computation.
I1118 01:01:34.904696 26872 net.cpp:170] drop7 needs backward computation.
I1118 01:01:34.904698 26872 net.cpp:170] relu7 needs backward computation.
I1118 01:01:34.904701 26872 net.cpp:170] fc7 needs backward computation.
…
I1118 01:01:34.905721 26872 net.cpp:275] The NetState phase (1) differed from the phase (0) specified by a rule in layer data
I1118 01:01:34.905948 26872 net.cpp:39] Initializing net from parameters: 
name: "small"
layers {
  top: "data"
  top: "label"
  name: "data"
  type: IMAGE_DATA
  image_data_param {
    source: "/data/ad6813/devCaffe/caffe/data/water_high_o/val.txt"
    batch_size: 50
    new_height: 256
    new_width: 256
  }
  include {
    phase: TEST
  }
  transform_param {
    mirror: true
    crop_size: 224
    mean_value: 86.752
    mean_value: 101.46
    mean_value: 104.6
  }
}
layers {
  bottom: "data"
  top: "conv1_1"
  name: "conv1_1"
  type: CONVOLUTION
  convolution_param {
    num_output: 64
    pad: 1
    kernel_size: 3
    weight_filler {
      type: "gaussian"
      std: 0.01
    }
    bias_filler {
      type: "constant"
      value: 0
    }
  }
}
layers {
  bottom: "conv1_1"
  top: "conv1_1"
  name: "relu1_1"
  type: RELU
}
layers {
  bottom: "conv1_1"
  top: "conv1_2"
  name: "conv1_2"
  type: CONVOLUTION
  convolution_param {
    num_output: 64
    pad: 1
    kernel_size: 3
    weight_filler {
      type: "gaussian"
      std: 0.01
    }
    bias_filler {
      type: "constant"
      value: 0
    }
  }
}
layers {
  bottom: "conv1_2"
  top: "conv1_2"
  name: "relu1_2"
  type: RELU
}
layers {
  bottom: "conv1_2"
  top: "pool1"
  name: "pool1"
  type: POOLING
  pooling_param {
    pool: MAX
    kernel_size: 2
    stride: 2
  }
}
layers {
  bottom: "pool1"
  top: "conv2_1"
  name: "conv2_1"
  type: CONVOLUTION
  convolution_param {
    num_output: 128
    pad: 1
    kernel_size: 3
    weight_filler {
      type: "gaussian"
      std: 0.01
    }
    bias_filler {
      type: "constant"
      value: 0
    }
  }
}
layers {
  bottom: "conv2_1"
  top: "conv2_1"
  name: "relu2_1"
  type: RELU
}
layers {
  bottom: "conv2_1"
  top: "conv2_2"
  name: "conv2_2"
  type: CONVOLUTION
  convolution_param {
    num_output: 128
    pad: 1
    kernel_size: 3
    weight_filler {
      type: "gaussian"
      std: 0.01
    }
    bias_filler {
      type: "constant"
      value: 0
    }
  }
}
layers {
  bottom: "conv2_2"
  top: "conv2_2"
  name: "relu2_2"
  type: RELU
}
layers {
  bottom: "conv2_2"
  top: "pool2"
  name: "pool2"
  type: POOLING
  pooling_param {
    pool: MAX
    kernel_size: 2
    stride: 2
  }
}
layers {
  bottom: "pool2"
  top: "conv3_1"
  name: "conv3_1"
  type: CONVOLUTION
  convolution_param {
    num_output: 256
    pad: 1
    kernel_size: 3
    weight_filler {
      type: "gaussian"
      std: 0.01
    }
    bias_filler {
      type: "constant"
      value: 0
    }
  }
}
layers {
  bottom: "conv3_1"
  top: "conv3_1"
  name: "relu3_1"
  type: RELU
}
layers {
  bottom: "conv3_1"
  top: "conv3_2"
  name: "conv3_2"
  type: CONVOLUTION
  convolution_param {
    num_output: 256
    pad: 1
    kernel_size: 3
    weight_filler {
      type: "gaussian"
      std: 0.01
    }
    bias_filler {
      type: "constant"
      value: 0
    }
  }
}
layers {
  bottom: "conv3_2"
  top: "conv3_2"
  name: "relu3_2"
  type: RELU
}
layers {
  bottom: "conv3_2"
  top: "conv3_3"
  name: "conv3_3"
  type: CONVOLUTION
  convolution_param {
    num_output: 256
    pad: 1
    kernel_size: 3
    weight_filler {
      type: "gaussian"
      std: 0.01
    }
    bias_filler {
      type: "constant"
      value: 0
    }
  }
}
layers {
  bottom: "conv3_3"
  top: "conv3_3"
  name: "relu3_3"
  type: RELU
}
layers {
  bottom: "conv3_3"
  top: "pool3"
  name: "pool3"
  type: POOLING
  pooling_param {
    pool: MAX
    kernel_size: 2
    stride: 2
  }
}
layers {
  bottom: "pool3"
  top: "conv4_1"
  name: "conv4_1"
  type: CONVOLUTION
  convolution_param {
    num_output: 512
    pad: 1
    kernel_size: 3
    weight_filler {
      type: "gaussian"
      std: 0.01
    }
    bias_filler {
      type: "constant"
      value: 0
    }
  }
}
layers {
  bottom: "conv4_1"
  top: "conv4_1"
  name: "relu4_1"
  type: RELU
}
layers {
  bottom: "conv4_1"
  top: "conv4_2"
  name: "conv4_2"
  type: CONVOLUTION
  convolution_param {
    num_output: 512
    pad: 1
    kernel_size: 3
    weight_filler {
      type: "gaussian"
      std: 0.01
    }
    bias_filler {
      type: "constant"
      value: 0
    }
  }
}
layers {
  bottom: "conv4_2"
  top: "conv4_2"
  name: "relu4_2"
  type: RELU
}
layers {
  bottom: "conv4_2"
  top: "conv4_3"
  name: "conv4_3"
  type: CONVOLUTION
  convolution_param {
    num_output: 512
    pad: 1
    kernel_size: 3
    weight_filler {
      type: "gaussian"
      std: 0.01
    }
    bias_filler {
      type: "constant"
      value: 0
    }
  }
}
layers {
  bottom: "conv4_3"
  top: "conv4_3"
  name: "relu4_3"
  type: RELU
}
layers {
  bottom: "conv4_3"
  top: "pool4"
  name: "pool4"
  type: POOLING
  pooling_param {
    pool: MAX
    kernel_size: 2
    stride: 2
  }
}
layers {
  bottom: "pool4"
  top: "conv5_1"
  name: "conv5_1"
  type: CONVOLUTION
  convolution_param {
    num_output: 512
    pad: 1
    kernel_size: 3
    weight_filler {
      type: "gaussian"
      std: 0.01
    }
    bias_filler {
      type: "constant"
      value: 0
    }
  }
}
layers {
  bottom: "conv5_1"
  top: "conv5_1"
  name: "relu5_1"
  type: RELU
}
layers {
  bottom: "conv5_1"
  top: "conv5_2"
  name: "conv5_2"
  type: CONVOLUTION
  convolution_param {
    num_output: 512
    pad: 1
    kernel_size: 3
    weight_filler {
      type: "gaussian"
      std: 0.01
    }
    bias_filler {
      type: "constant"
      value: 0
    }
  }
}
layers {
  bottom: "conv5_2"
  top: "conv5_2"
  name: "relu5_2"
  type: RELU
}
layers {
  bottom: "conv5_2"
  top: "conv5_3"
  name: "conv5_3"
  type: CONVOLUTION
  convolution_param {
    num_output: 512
    pad: 1
    kernel_size: 3
    weight_filler {
      type: "gaussian"
      std: 0.01
    }
    bias_filler {
      type: "constant"
      value: 0
    }
  }
}
layers {
  bottom: "conv5_3"
  top: "conv5_3"
  name: "relu5_3"
  type: RELU
}
layers {
  bottom: "conv5_3"
  top: "pool5"
  name: "pool5"
  type: POOLING
  pooling_param {
    pool: MAX
    kernel_size: 2
    stride: 2
  }
}
layers {
  bottom: "pool5"
  top: "fc6"
  name: "fc6"
  type: INNER_PRODUCT
  inner_product_param {
    num_output: 4096
    weight_filler {
      type: "gaussian"
      std: 0.01
    }
    bias_filler {
      type: "constant"
      value: 0
    }
  }
}
layers {
  bottom: "fc6"
  top: "fc6"
  name: "relu6"
  type: RELU
}
layers {
  bottom: "fc6"
  top: "fc6"
  name: "drop6"
  type: DROPOUT
  dropout_param {
    dropout_ratio: 0.5
  }
}
layers {
  bottom: "fc6"
  top: "fc7"
  name: "fc7"
  type: INNER_PRODUCT
  inner_product_param {
    num_output: 4096
    weight_filler {
      type: "gaussian"
      std: 0.01
    }
    bias_filler {
      type: "constant"
      value: 0
    }
  }
}
layers {
  bottom: "fc7"
  top: "fc7"
  name: "relu7"
  type: RELU
}
layers {
  bottom: "fc7"
  top: "fc7"
  name: "drop7"
  type: DROPOUT
  dropout_param {
    dropout_ratio: 0.5
  }
}
layers {
  bottom: "fc7"
  top: "fc8_2"
  name: "fc8_2"
  type: INNER_PRODUCT
  inner_product_param {
    num_output: 2
    weight_filler {
      type: "gaussian"
      std: 0.01
    }
    bias_filler {
      type: "constant"
      value: 0
    }
  }
}
layers {
  bottom: "fc8_2"
  bottom: "label"
  name: "loss"
  type: SOFTMAX_LOSS
}
layers {
  bottom: "fc8_2"
  bottom: "label"
  top: "accuracy"
  name: "accuracy"
  type: PER_CLASS_ACCURACY
  include {
    phase: TEST
  }
}
state {
  phase: TEST
}
I1118 01:01:34.906093 26872 layer_factory.hpp:78] Creating layer data
I1118 01:01:34.906103 26872 net.cpp:67] Creating Layer data
I1118 01:01:34.906108 26872 net.cpp:356] data -> data
I1118 01:01:34.906116 26872 net.cpp:356] data -> label
I1118 01:01:34.906121 26872 net.cpp:96] Setting up data
I1118 01:01:34.906126 26872 image_data_layer.cpp:34] Opening file /data/ad6813/devCaffe/caffe/data/water_high_o/val.txt
I1118 01:01:34.906386 26872 image_data_layer.cpp:49] A total of 582 images.
I1118 01:01:34.913705 26872 image_data_layer.cpp:78] output data size: 50,3,224,224
I1118 01:01:34.917335 26872 net.cpp:103] Top shape: 50 3 224 224 (7526400)
I1118 01:01:34.917361 26872 net.cpp:103] Top shape: 50 1 1 1 (50)
I1118 01:01:34.917366 26872 layer_factory.hpp:78] Creating layer label_data_1_split
I1118 01:01:34.917383 26872 net.cpp:67] Creating Layer label_data_1_split
I1118 01:01:34.917388 26872 net.cpp:394] label_data_1_split <- label
I1118 01:01:34.917397 26872 net.cpp:356] label_data_1_split -> label_data_1_split_0
I1118 01:01:34.917407 26872 net.cpp:356] label_data_1_split -> label_data_1_split_1
I1118 01:01:34.917412 26872 net.cpp:96] Setting up label_data_1_split
I1118 01:01:34.917417 26872 net.cpp:103] Top shape: 50 1 1 1 (50)
I1118 01:01:34.917419 26872 net.cpp:103] Top shape: 50 1 1 1 (50)
I1118 01:01:34.917423 26872 layer_factory.hpp:78] Creating layer conv1_1
I1118 01:01:34.917429 26872 net.cpp:67] Creating Layer conv1_1
I1118 01:01:34.917433 26872 net.cpp:394] conv1_1 <- data
I1118 01:01:34.917438 26872 net.cpp:356] conv1_1 -> conv1_1
I1118 01:01:34.917445 26872 net.cpp:96] Setting up conv1_1
I1118 01:01:34.917620 26872 net.cpp:103] Top shape: 50 64 224 224 (160563200)
I1118 01:01:34.917635 26872 layer_factory.hpp:78] Creating layer relu1_1
I1118 01:01:34.917641 26872 net.cpp:67] Creating Layer relu1_1
I1118 01:01:34.917644 26872 net.cpp:394] relu1_1 <- conv1_1
I1118 01:01:34.917649 26872 net.cpp:345] relu1_1 -> conv1_1 (in-place)
I1118 01:01:34.917654 26872 net.cpp:96] Setting up relu1_1
I1118 01:01:34.917668 26872 net.cpp:103] Top shape: 50 64 224 224 (160563200)
I1118 01:01:34.917672 26872 layer_factory.hpp:78] Creating layer conv1_2
I1118 01:01:34.917678 26872 net.cpp:67] Creating Layer conv1_2
I1118 01:01:34.917681 26872 net.cpp:394] conv1_2 <- conv1_1
I1118 01:01:34.917686 26872 net.cpp:356] conv1_2 -> conv1_2
I1118 01:01:34.917697 26872 net.cpp:96] Setting up conv1_2
I1118 01:01:34.918716 26872 net.cpp:103] Top shape: 50 64 224 224 (160563200)
I1118 01:01:34.918730 26872 layer_factory.hpp:78] Creating layer relu1_2
I1118 01:01:34.918735 26872 net.cpp:67] Creating Layer relu1_2
I1118 01:01:34.918738 26872 net.cpp:394] relu1_2 <- conv1_2
I1118 01:01:34.918742 26872 net.cpp:345] relu1_2 -> conv1_2 (in-place)
I1118 01:01:34.918747 26872 net.cpp:96] Setting up relu1_2
I1118 01:01:34.918752 26872 net.cpp:103] Top shape: 50 64 224 224 (160563200)
I1118 01:01:34.918756 26872 layer_factory.hpp:78] Creating layer pool1
I1118 01:01:34.918761 26872 net.cpp:67] Creating Layer pool1
I1118 01:01:34.918766 26872 net.cpp:394] pool1 <- conv1_2
I1118 01:01:34.918769 26872 net.cpp:356] pool1 -> pool1
I1118 01:01:34.918774 26872 net.cpp:96] Setting up pool1
I1118 01:01:34.918781 26872 net.cpp:103] Top shape: 50 64 112 112 (40140800)
I1118 01:01:34.918784 26872 layer_factory.hpp:78] Creating layer conv2_1
I1118 01:01:34.918790 26872 net.cpp:67] Creating Layer conv2_1
I1118 01:01:34.918793 26872 net.cpp:394] conv2_1 <- pool1
I1118 01:01:34.918798 26872 net.cpp:356] conv2_1 -> conv2_1
I1118 01:01:34.918803 26872 net.cpp:96] Setting up conv2_1
I1118 01:01:34.920837 26872 net.cpp:103] Top shape: 50 128 112 112 (80281600)
I1118 01:01:34.920851 26872 layer_factory.hpp:78] Creating layer relu2_1
I1118 01:01:34.920857 26872 net.cpp:67] Creating Layer relu2_1
I1118 01:01:34.920861 26872 net.cpp:394] relu2_1 <- conv2_1
I1118 01:01:34.920866 26872 net.cpp:345] relu2_1 -> conv2_1 (in-place)
I1118 01:01:34.920871 26872 net.cpp:96] Setting up relu2_1
I1118 01:01:34.920876 26872 net.cpp:103] Top shape: 50 128 112 112 (80281600)
I1118 01:01:34.920879 26872 layer_factory.hpp:78] Creating layer conv2_2
I1118 01:01:34.920884 26872 net.cpp:67] Creating Layer conv2_2
I1118 01:01:34.920888 26872 net.cpp:394] conv2_2 <- conv2_1
I1118 01:01:34.920892 26872 net.cpp:356] conv2_2 -> conv2_2
I1118 01:01:34.920899 26872 net.cpp:96] Setting up conv2_2
I1118 01:01:34.924568 26872 net.cpp:103] Top shape: 50 128 112 112 (80281600)
I1118 01:01:34.924579 26872 layer_factory.hpp:78] Creating layer relu2_2
I1118 01:01:34.924584 26872 net.cpp:67] Creating Layer relu2_2
I1118 01:01:34.924588 26872 net.cpp:394] relu2_2 <- conv2_2
I1118 01:01:34.924592 26872 net.cpp:345] relu2_2 -> conv2_2 (in-place)
I1118 01:01:34.924597 26872 net.cpp:96] Setting up relu2_2
I1118 01:01:34.924602 26872 net.cpp:103] Top shape: 50 128 112 112 (80281600)
I1118 01:01:34.924605 26872 layer_factory.hpp:78] Creating layer pool2
I1118 01:01:34.924610 26872 net.cpp:67] Creating Layer pool2
I1118 01:01:34.924613 26872 net.cpp:394] pool2 <- conv2_2
I1118 01:01:34.924618 26872 net.cpp:356] pool2 -> pool2
I1118 01:01:34.924623 26872 net.cpp:96] Setting up pool2
I1118 01:01:34.924628 26872 net.cpp:103] Top shape: 50 128 56 56 (20070400)
I1118 01:01:34.924633 26872 layer_factory.hpp:78] Creating layer conv3_1
I1118 01:01:34.924638 26872 net.cpp:67] Creating Layer conv3_1
I1118 01:01:34.924640 26872 net.cpp:394] conv3_1 <- pool2
I1118 01:01:34.924644 26872 net.cpp:356] conv3_1 -> conv3_1
I1118 01:01:34.924650 26872 net.cpp:96] Setting up conv3_1
I1118 01:01:34.931910 26872 net.cpp:103] Top shape: 50 256 56 56 (40140800)
I1118 01:01:34.931922 26872 layer_factory.hpp:78] Creating layer relu3_1
I1118 01:01:34.931928 26872 net.cpp:67] Creating Layer relu3_1
I1118 01:01:34.931932 26872 net.cpp:394] relu3_1 <- conv3_1
I1118 01:01:34.931936 26872 net.cpp:345] relu3_1 -> conv3_1 (in-place)
I1118 01:01:34.931941 26872 net.cpp:96] Setting up relu3_1
I1118 01:01:34.931946 26872 net.cpp:103] Top shape: 50 256 56 56 (40140800)
I1118 01:01:34.931951 26872 layer_factory.hpp:78] Creating layer conv3_2
I1118 01:01:34.931962 26872 net.cpp:67] Creating Layer conv3_2
I1118 01:01:34.931965 26872 net.cpp:394] conv3_2 <- conv3_1
I1118 01:01:34.931970 26872 net.cpp:356] conv3_2 -> conv3_2
I1118 01:01:34.931977 26872 net.cpp:96] Setting up conv3_2
I1118 01:01:34.946604 26872 net.cpp:103] Top shape: 50 256 56 56 (40140800)
I1118 01:01:34.946626 26872 layer_factory.hpp:78] Creating layer relu3_2
I1118 01:01:34.946635 26872 net.cpp:67] Creating Layer relu3_2
I1118 01:01:34.946640 26872 net.cpp:394] relu3_2 <- conv3_2
I1118 01:01:34.946645 26872 net.cpp:345] relu3_2 -> conv3_2 (in-place)
I1118 01:01:34.946651 26872 net.cpp:96] Setting up relu3_2
I1118 01:01:34.946657 26872 net.cpp:103] Top shape: 50 256 56 56 (40140800)
I1118 01:01:34.946660 26872 layer_factory.hpp:78] Creating layer conv3_3
I1118 01:01:34.946671 26872 net.cpp:67] Creating Layer conv3_3
I1118 01:01:34.946674 26872 net.cpp:394] conv3_3 <- conv3_2
I1118 01:01:34.946681 26872 net.cpp:356] conv3_3 -> conv3_3
I1118 01:01:34.946686 26872 net.cpp:96] Setting up conv3_3
I1118 01:01:34.961447 26872 net.cpp:103] Top shape: 50 256 56 56 (40140800)
I1118 01:01:34.961462 26872 layer_factory.hpp:78] Creating layer relu3_3
I1118 01:01:34.961468 26872 net.cpp:67] Creating Layer relu3_3
I1118 01:01:34.961472 26872 net.cpp:394] relu3_3 <- conv3_3
I1118 01:01:34.961479 26872 net.cpp:345] relu3_3 -> conv3_3 (in-place)
I1118 01:01:34.961485 26872 net.cpp:96] Setting up relu3_3
I1118 01:01:34.961491 26872 net.cpp:103] Top shape: 50 256 56 56 (40140800)
I1118 01:01:34.961494 26872 layer_factory.hpp:78] Creating layer pool3
I1118 01:01:34.961500 26872 net.cpp:67] Creating Layer pool3
I1118 01:01:34.961503 26872 net.cpp:394] pool3 <- conv3_3
I1118 01:01:34.961508 26872 net.cpp:356] pool3 -> pool3
I1118 01:01:34.961513 26872 net.cpp:96] Setting up pool3
I1118 01:01:34.961520 26872 net.cpp:103] Top shape: 50 256 28 28 (10035200)
I1118 01:01:34.961524 26872 layer_factory.hpp:78] Creating layer conv4_1
I1118 01:01:34.961530 26872 net.cpp:67] Creating Layer conv4_1
I1118 01:01:34.961534 26872 net.cpp:394] conv4_1 <- pool3
I1118 01:01:34.961540 26872 net.cpp:356] conv4_1 -> conv4_1
I1118 01:01:34.961546 26872 net.cpp:96] Setting up conv4_1
I1118 01:01:34.990681 26872 net.cpp:103] Top shape: 50 512 28 28 (20070400)
I1118 01:01:34.990706 26872 layer_factory.hpp:78] Creating layer relu4_1
I1118 01:01:34.990715 26872 net.cpp:67] Creating Layer relu4_1
I1118 01:01:34.990720 26872 net.cpp:394] relu4_1 <- conv4_1
I1118 01:01:34.990728 26872 net.cpp:345] relu4_1 -> conv4_1 (in-place)
I1118 01:01:34.990736 26872 net.cpp:96] Setting up relu4_1
I1118 01:01:34.990742 26872 net.cpp:103] Top shape: 50 512 28 28 (20070400)
I1118 01:01:34.990746 26872 layer_factory.hpp:78] Creating layer conv4_2
I1118 01:01:34.990752 26872 net.cpp:67] Creating Layer conv4_2
I1118 01:01:34.990756 26872 net.cpp:394] conv4_2 <- conv4_1
I1118 01:01:34.990761 26872 net.cpp:356] conv4_2 -> conv4_2
I1118 01:01:34.990767 26872 net.cpp:96] Setting up conv4_2
I1118 01:01:35.048835 26872 net.cpp:103] Top shape: 50 512 28 28 (20070400)
I1118 01:01:35.048864 26872 layer_factory.hpp:78] Creating layer relu4_2
I1118 01:01:35.048872 26872 net.cpp:67] Creating Layer relu4_2
I1118 01:01:35.048877 26872 net.cpp:394] relu4_2 <- conv4_2
I1118 01:01:35.048883 26872 net.cpp:345] relu4_2 -> conv4_2 (in-place)
I1118 01:01:35.048889 26872 net.cpp:96] Setting up relu4_2
I1118 01:01:35.048895 26872 net.cpp:103] Top shape: 50 512 28 28 (20070400)
I1118 01:01:35.048899 26872 layer_factory.hpp:78] Creating layer conv4_3
I1118 01:01:35.048907 26872 net.cpp:67] Creating Layer conv4_3
I1118 01:01:35.048909 26872 net.cpp:394] conv4_3 <- conv4_2
I1118 01:01:35.048914 26872 net.cpp:356] conv4_3 -> conv4_3
I1118 01:01:35.048924 26872 net.cpp:96] Setting up conv4_3
I1118 01:01:35.106745 26872 net.cpp:103] Top shape: 50 512 28 28 (20070400)
I1118 01:01:35.106773 26872 layer_factory.hpp:78] Creating layer relu4_3
I1118 01:01:35.106782 26872 net.cpp:67] Creating Layer relu4_3
I1118 01:01:35.106787 26872 net.cpp:394] relu4_3 <- conv4_3
I1118 01:01:35.106793 26872 net.cpp:345] relu4_3 -> conv4_3 (in-place)
I1118 01:01:35.106812 26872 net.cpp:96] Setting up relu4_3
I1118 01:01:35.106817 26872 net.cpp:103] Top shape: 50 512 28 28 (20070400)
I1118 01:01:35.106822 26872 layer_factory.hpp:78] Creating layer pool4
I1118 01:01:35.106828 26872 net.cpp:67] Creating Layer pool4
I1118 01:01:35.106832 26872 net.cpp:394] pool4 <- conv4_3
I1118 01:01:35.106837 26872 net.cpp:356] pool4 -> pool4
I1118 01:01:35.106843 26872 net.cpp:96] Setting up pool4
I1118 01:01:35.106852 26872 net.cpp:103] Top shape: 50 512 14 14 (5017600)
I1118 01:01:35.106854 26872 layer_factory.hpp:78] Creating layer conv5_1
I1118 01:01:35.106863 26872 net.cpp:67] Creating Layer conv5_1
I1118 01:01:35.106865 26872 net.cpp:394] conv5_1 <- pool4
I1118 01:01:35.106870 26872 net.cpp:356] conv5_1 -> conv5_1
I1118 01:01:35.106876 26872 net.cpp:96] Setting up conv5_1
I1118 01:01:35.164656 26872 net.cpp:103] Top shape: 50 512 14 14 (5017600)
I1118 01:01:35.164681 26872 layer_factory.hpp:78] Creating layer relu5_1
I1118 01:01:35.164690 26872 net.cpp:67] Creating Layer relu5_1
I1118 01:01:35.164695 26872 net.cpp:394] relu5_1 <- conv5_1
I1118 01:01:35.164700 26872 net.cpp:345] relu5_1 -> conv5_1 (in-place)
I1118 01:01:35.164707 26872 net.cpp:96] Setting up relu5_1
I1118 01:01:35.164713 26872 net.cpp:103] Top shape: 50 512 14 14 (5017600)
I1118 01:01:35.164717 26872 layer_factory.hpp:78] Creating layer conv5_2
I1118 01:01:35.164728 26872 net.cpp:67] Creating Layer conv5_2
I1118 01:01:35.164732 26872 net.cpp:394] conv5_2 <- conv5_1
I1118 01:01:35.164738 26872 net.cpp:356] conv5_2 -> conv5_2
I1118 01:01:35.164746 26872 net.cpp:96] Setting up conv5_2
I1118 01:01:35.222550 26872 net.cpp:103] Top shape: 50 512 14 14 (5017600)
I1118 01:01:35.222575 26872 layer_factory.hpp:78] Creating layer relu5_2
I1118 01:01:35.222584 26872 net.cpp:67] Creating Layer relu5_2
I1118 01:01:35.222589 26872 net.cpp:394] relu5_2 <- conv5_2
I1118 01:01:35.222596 26872 net.cpp:345] relu5_2 -> conv5_2 (in-place)
I1118 01:01:35.222602 26872 net.cpp:96] Setting up relu5_2
I1118 01:01:35.222609 26872 net.cpp:103] Top shape: 50 512 14 14 (5017600)
I1118 01:01:35.222612 26872 layer_factory.hpp:78] Creating layer conv5_3
I1118 01:01:35.222620 26872 net.cpp:67] Creating Layer conv5_3
I1118 01:01:35.222623 26872 net.cpp:394] conv5_3 <- conv5_2
I1118 01:01:35.222628 26872 net.cpp:356] conv5_3 -> conv5_3
I1118 01:01:35.222635 26872 net.cpp:96] Setting up conv5_3
I1118 01:01:35.280792 26872 net.cpp:103] Top shape: 50 512 14 14 (5017600)
I1118 01:01:35.280817 26872 layer_factory.hpp:78] Creating layer relu5_3
I1118 01:01:35.280827 26872 net.cpp:67] Creating Layer relu5_3
I1118 01:01:35.280833 26872 net.cpp:394] relu5_3 <- conv5_3
I1118 01:01:35.280839 26872 net.cpp:345] relu5_3 -> conv5_3 (in-place)
I1118 01:01:35.280848 26872 net.cpp:96] Setting up relu5_3
I1118 01:01:35.280853 26872 net.cpp:103] Top shape: 50 512 14 14 (5017600)
I1118 01:01:35.280858 26872 layer_factory.hpp:78] Creating layer pool5
I1118 01:01:35.280869 26872 net.cpp:67] Creating Layer pool5
I1118 01:01:35.280871 26872 net.cpp:394] pool5 <- conv5_3
I1118 01:01:35.280876 26872 net.cpp:356] pool5 -> pool5
I1118 01:01:35.280882 26872 net.cpp:96] Setting up pool5
I1118 01:01:35.280890 26872 net.cpp:103] Top shape: 50 512 7 7 (1254400)
I1118 01:01:35.280894 26872 layer_factory.hpp:78] Creating layer fc6
I1118 01:01:35.280901 26872 net.cpp:67] Creating Layer fc6
I1118 01:01:35.280905 26872 net.cpp:394] fc6 <- pool5
I1118 01:01:35.280910 26872 net.cpp:356] fc6 -> fc6
I1118 01:01:35.280915 26872 net.cpp:96] Setting up fc6
I1118 01:01:37.743224 26872 net.cpp:103] Top shape: 50 4096 1 1 (204800)
I1118 01:01:37.743257 26872 layer_factory.hpp:78] Creating layer relu6
I1118 01:01:37.743264 26872 net.cpp:67] Creating Layer relu6
I1118 01:01:37.743269 26872 net.cpp:394] relu6 <- fc6
I1118 01:01:37.743278 26872 net.cpp:345] relu6 -> fc6 (in-place)
I1118 01:01:37.743284 26872 net.cpp:96] Setting up relu6
I1118 01:01:37.743298 26872 net.cpp:103] Top shape: 50 4096 1 1 (204800)
I1118 01:01:37.743301 26872 layer_factory.hpp:78] Creating layer drop6
I1118 01:01:37.743321 26872 net.cpp:67] Creating Layer drop6
I1118 01:01:37.743325 26872 net.cpp:394] drop6 <- fc6
I1118 01:01:37.743330 26872 net.cpp:345] drop6 -> fc6 (in-place)
I1118 01:01:37.743335 26872 net.cpp:96] Setting up drop6
I1118 01:01:37.743340 26872 net.cpp:103] Top shape: 50 4096 1 1 (204800)
I1118 01:01:37.743342 26872 layer_factory.hpp:78] Creating layer fc7
I1118 01:01:37.743347 26872 net.cpp:67] Creating Layer fc7
I1118 01:01:37.743350 26872 net.cpp:394] fc7 <- fc6
I1118 01:01:37.743355 26872 net.cpp:356] fc7 -> fc7
I1118 01:01:37.743362 26872 net.cpp:96] Setting up fc7
I1118 01:01:38.151996 26872 net.cpp:103] Top shape: 50 4096 1 1 (204800)
I1118 01:01:38.152027 26872 layer_factory.hpp:78] Creating layer relu7
I1118 01:01:38.152036 26872 net.cpp:67] Creating Layer relu7
I1118 01:01:38.152041 26872 net.cpp:394] relu7 <- fc7
I1118 01:01:38.152050 26872 net.cpp:345] relu7 -> fc7 (in-place)
I1118 01:01:38.152056 26872 net.cpp:96] Setting up relu7
I1118 01:01:38.152070 26872 net.cpp:103] Top shape: 50 4096 1 1 (204800)
I1118 01:01:38.152075 26872 layer_factory.hpp:78] Creating layer drop7
I1118 01:01:38.152079 26872 net.cpp:67] Creating Layer drop7
I1118 01:01:38.152082 26872 net.cpp:394] drop7 <- fc7
I1118 01:01:38.152088 26872 net.cpp:345] drop7 -> fc7 (in-place)
I1118 01:01:38.152093 26872 net.cpp:96] Setting up drop7
I1118 01:01:38.152098 26872 net.cpp:103] Top shape: 50 4096 1 1 (204800)
I1118 01:01:38.152101 26872 layer_factory.hpp:78] Creating layer fc8_2
I1118 01:01:38.152107 26872 net.cpp:67] Creating Layer fc8_2
I1118 01:01:38.152111 26872 net.cpp:394] fc8_2 <- fc7
I1118 01:01:38.152115 26872 net.cpp:356] fc8_2 -> fc8_2
I1118 01:01:38.152122 26872 net.cpp:96] Setting up fc8_2
I1118 01:01:38.152343 26872 net.cpp:103] Top shape: 50 2 1 1 (100)
I1118 01:01:38.152350 26872 layer_factory.hpp:78] Creating layer fc8_2_fc8_2_0_split
I1118 01:01:38.152356 26872 net.cpp:67] Creating Layer fc8_2_fc8_2_0_split
I1118 01:01:38.152360 26872 net.cpp:394] fc8_2_fc8_2_0_split <- fc8_2
I1118 01:01:38.152364 26872 net.cpp:356] fc8_2_fc8_2_0_split -> fc8_2_fc8_2_0_split_0
I1118 01:01:38.152371 26872 net.cpp:356] fc8_2_fc8_2_0_split -> fc8_2_fc8_2_0_split_1
I1118 01:01:38.152380 26872 net.cpp:96] Setting up fc8_2_fc8_2_0_split
I1118 01:01:38.152385 26872 net.cpp:103] Top shape: 50 2 1 1 (100)
I1118 01:01:38.152391 26872 net.cpp:103] Top shape: 50 2 1 1 (100)
I1118 01:01:38.152395 26872 layer_factory.hpp:78] Creating layer loss
I1118 01:01:38.152400 26872 net.cpp:67] Creating Layer loss
I1118 01:01:38.152402 26872 net.cpp:394] loss <- fc8_2_fc8_2_0_split_0
I1118 01:01:38.152411 26872 net.cpp:394] loss <- label_data_1_split_0
I1118 01:01:38.152418 26872 net.cpp:356] loss -> (automatic)
I1118 01:01:38.152422 26872 net.cpp:96] Setting up loss
I1118 01:01:38.152432 26872 net.cpp:103] Top shape: 1 1 1 1 (1)
I1118 01:01:38.152436 26872 net.cpp:109]     with loss weight 1
I1118 01:01:38.152451 26872 layer_factory.hpp:78] Creating layer accuracy
I1118 01:01:38.152462 26872 net.cpp:67] Creating Layer accuracy
I1118 01:01:38.152467 26872 net.cpp:394] accuracy <- fc8_2_fc8_2_0_split_1
I1118 01:01:38.152470 26872 net.cpp:394] accuracy <- label_data_1_split_1
I1118 01:01:38.152477 26872 net.cpp:356] accuracy -> accuracy
I1118 01:01:38.152482 26872 net.cpp:96] Setting up accuracy
I1118 01:01:38.152490 26872 net.cpp:103] Top shape: 1 1 1 4 (4)
I1118 01:01:38.152495 26872 net.cpp:172] accuracy does not need backward computation.
I1118 01:01:38.152498 26872 net.cpp:170] loss needs backward computation.
I1118 01:01:38.152501 26872 net.cpp:170] fc8_2_fc8_2_0_split needs backward computation.
I1118 01:01:38.152504 26872 net.cpp:170] fc8_2 needs backward computation.
I1118 01:01:38.152508 26872 net.cpp:170] drop7 needs backward computation.
…
