…
I1124 17:47:29.549127 13466 net.cpp:275] The NetState phase (0) differed from the phase (1) specified by a rule in layer accuracy
I1124 17:47:29.549479 13466 net.cpp:39] Initializing net from parameters: 
name: "small"
layers {
  top: "data"
  top: "label"
  name: "data"
  type: IMAGE_DATA
  image_data_param {
    source: "/data/ad6813/devCaffe/caffe/data/soil_high_o/train.txt"
    batch_size: 32
    new_height: 256
    new_width: 256
  }
  include {
    phase: TRAIN
  }
  transform_param {
    mirror: true
    crop_size: 224
    mean_value: 86.752
    mean_value: 101.46
    mean_value: 104.6
  }
}
layers {
  bottom: "data"
  top: "conv1_1"
  name: "conv1_1"
  type: CONVOLUTION
  convolution_param {
    num_output: 64
    pad: 1
    kernel_size: 3
    weight_filler {
      type: "gaussian"
      std: 0.01
    }
    bias_filler {
      type: "constant"
      value: 0
    }
  }
}
layers {
  bottom: "conv1_1"
  top: "conv1_1"
  name: "relu1_1"
  type: RELU
}
layers {
  bottom: "conv1_1"
  top: "conv1_2"
  name: "conv1_2"
  type: CONVOLUTION
  convolution_param {
    num_output: 64
    pad: 1
    kernel_size: 3
    weight_filler {
      type: "gaussian"
      std: 0.01
    }
    bias_filler {
      type: "constant"
      value: 0
    }
  }
}
layers {
  bottom: "conv1_2"
  top: "conv1_2"
  name: "relu1_2"
  type: RELU
}
layers {
  bottom: "conv1_2"
  top: "pool1"
  name: "pool1"
  type: POOLING
  pooling_param {
    pool: MAX
    kernel_size: 2
    stride: 2
  }
}
layers {
  bottom: "pool1"
  top: "conv2_1"
  name: "conv2_1"
  type: CONVOLUTION
  convolution_param {
    num_output: 128
    pad: 1
    kernel_size: 3
    weight_filler {
      type: "gaussian"
      std: 0.01
    }
    bias_filler {
      type: "constant"
      value: 0
    }
  }
}
layers {
  bottom: "conv2_1"
  top: "conv2_1"
  name: "relu2_1"
  type: RELU
}
layers {
  bottom: "conv2_1"
  top: "conv2_2"
  name: "conv2_2"
  type: CONVOLUTION
  convolution_param {
    num_output: 128
    pad: 1
    kernel_size: 3
    weight_filler {
      type: "gaussian"
      std: 0.01
    }
    bias_filler {
      type: "constant"
      value: 0
    }
  }
}
layers {
  bottom: "conv2_2"
  top: "conv2_2"
  name: "relu2_2"
  type: RELU
}
layers {
  bottom: "conv2_2"
  top: "pool2"
  name: "pool2"
  type: POOLING
  pooling_param {
    pool: MAX
    kernel_size: 2
    stride: 2
  }
}
layers {
  bottom: "pool2"
  top: "conv3_1"
  name: "conv3_1"
  type: CONVOLUTION
  convolution_param {
    num_output: 256
    pad: 1
    kernel_size: 3
    weight_filler {
      type: "gaussian"
      std: 0.01
    }
    bias_filler {
      type: "constant"
      value: 0
    }
  }
}
layers {
  bottom: "conv3_1"
  top: "conv3_1"
  name: "relu3_1"
  type: RELU
}
layers {
  bottom: "conv3_1"
  top: "conv3_2"
  name: "conv3_2"
  type: CONVOLUTION
  convolution_param {
    num_output: 256
    pad: 1
    kernel_size: 3
    weight_filler {
      type: "gaussian"
      std: 0.01
    }
    bias_filler {
      type: "constant"
      value: 0
    }
  }
}
layers {
  bottom: "conv3_2"
  top: "conv3_2"
  name: "relu3_2"
  type: RELU
}
layers {
  bottom: "conv3_2"
  top: "conv3_3"
  name: "conv3_3"
  type: CONVOLUTION
  convolution_param {
    num_output: 256
    pad: 1
    kernel_size: 3
    weight_filler {
      type: "gaussian"
      std: 0.01
    }
    bias_filler {
      type: "constant"
      value: 0
    }
  }
}
layers {
  bottom: "conv3_3"
  top: "conv3_3"
  name: "relu3_3"
  type: RELU
}
layers {
  bottom: "conv3_3"
  top: "pool3"
  name: "pool3"
  type: POOLING
  pooling_param {
    pool: MAX
    kernel_size: 2
    stride: 2
  }
}
layers {
  bottom: "pool3"
  top: "conv4_1"
  name: "conv4_1"
  type: CONVOLUTION
  convolution_param {
    num_output: 512
    pad: 1
    kernel_size: 3
    weight_filler {
      type: "gaussian"
      std: 0.01
    }
    bias_filler {
      type: "constant"
      value: 0
    }
  }
}
layers {
  bottom: "conv4_1"
  top: "conv4_1"
  name: "relu4_1"
  type: RELU
}
layers {
  bottom: "conv4_1"
  top: "conv4_2"
  name: "conv4_2"
  type: CONVOLUTION
  convolution_param {
    num_output: 512
    pad: 1
    kernel_size: 3
    weight_filler {
      type: "gaussian"
      std: 0.01
    }
    bias_filler {
      type: "constant"
      value: 0
    }
  }
}
layers {
  bottom: "conv4_2"
  top: "conv4_2"
  name: "relu4_2"
  type: RELU
}
layers {
  bottom: "conv4_2"
  top: "conv4_3"
  name: "conv4_3"
  type: CONVOLUTION
  convolution_param {
    num_output: 512
    pad: 1
    kernel_size: 3
    weight_filler {
      type: "gaussian"
      std: 0.01
    }
    bias_filler {
      type: "constant"
      value: 0
    }
  }
}
layers {
  bottom: "conv4_3"
  top: "conv4_3"
  name: "relu4_3"
  type: RELU
}
layers {
  bottom: "conv4_3"
  top: "pool4"
  name: "pool4"
  type: POOLING
  pooling_param {
    pool: MAX
    kernel_size: 2
    stride: 2
  }
}
layers {
  bottom: "pool4"
  top: "conv5_1"
  name: "conv5_1"
  type: CONVOLUTION
  convolution_param {
    num_output: 512
    pad: 1
    kernel_size: 3
    weight_filler {
      type: "gaussian"
      std: 0.01
    }
    bias_filler {
      type: "constant"
      value: 0
    }
  }
}
layers {
  bottom: "conv5_1"
  top: "conv5_1"
  name: "relu5_1"
  type: RELU
}
layers {
  bottom: "conv5_1"
  top: "conv5_2"
  name: "conv5_2"
  type: CONVOLUTION
  convolution_param {
    num_output: 512
    pad: 1
    kernel_size: 3
    weight_filler {
      type: "gaussian"
      std: 0.01
    }
    bias_filler {
      type: "constant"
      value: 0
    }
  }
}
layers {
  bottom: "conv5_2"
  top: "conv5_2"
  name: "relu5_2"
  type: RELU
}
layers {
  bottom: "conv5_2"
  top: "conv5_3"
  name: "conv5_3"
  type: CONVOLUTION
  convolution_param {
    num_output: 512
    pad: 1
    kernel_size: 3
    weight_filler {
      type: "gaussian"
      std: 0.01
    }
    bias_filler {
      type: "constant"
      value: 0
    }
  }
}
layers {
  bottom: "conv5_3"
  top: "conv5_3"
  name: "relu5_3"
  type: RELU
}
layers {
  bottom: "conv5_3"
  top: "pool5"
  name: "pool5"
  type: POOLING
  pooling_param {
    pool: MAX
    kernel_size: 2
    stride: 2
  }
}
layers {
  bottom: "pool5"
  top: "fc6"
  name: "fc6"
  type: INNER_PRODUCT
  inner_product_param {
    num_output: 4096
    weight_filler {
      type: "gaussian"
      std: 0.01
    }
    bias_filler {
      type: "constant"
      value: 0
    }
  }
}
layers {
  bottom: "fc6"
  top: "fc6"
  name: "relu6"
  type: RELU
}
layers {
  bottom: "fc6"
  top: "fc6"
  name: "drop6"
  type: DROPOUT
  dropout_param {
    dropout_ratio: 0.5
  }
}
layers {
  bottom: "fc6"
  top: "fc7"
  name: "fc7"
  type: INNER_PRODUCT
  inner_product_param {
    num_output: 4096
    weight_filler {
      type: "gaussian"
      std: 0.01
    }
    bias_filler {
      type: "constant"
      value: 0
    }
  }
}
layers {
  bottom: "fc7"
  top: "fc7"
  name: "relu7"
  type: RELU
}
layers {
  bottom: "fc7"
  top: "fc7"
  name: "drop7"
  type: DROPOUT
  dropout_param {
    dropout_ratio: 0.5
  }
}
layers {
  bottom: "fc7"
  top: "fc8_2"
  name: "fc8_2"
  type: INNER_PRODUCT
  inner_product_param {
    num_output: 2
    weight_filler {
      type: "gaussian"
      std: 0.01
    }
    bias_filler {
      type: "constant"
      value: 0
    }
  }
}
layers {
  bottom: "fc8_2"
  bottom: "label"
  name: "loss"
  type: SOFTMAX_LOSS
}
state {
  phase: TRAIN
}
I1124 17:47:29.549666 13466 layer_factory.hpp:78] Creating layer data
I1124 17:47:29.549690 13466 net.cpp:67] Creating Layer data
I1124 17:47:29.549702 13466 net.cpp:356] data -> data
I1124 17:47:29.549723 13466 net.cpp:356] data -> label
I1124 17:47:29.549742 13466 net.cpp:96] Setting up data
I1124 17:47:29.549752 13466 image_data_layer.cpp:34] Opening file /data/ad6813/devCaffe/caffe/data/soil_high_o/train.txt
I1124 17:47:29.641437 13466 image_data_layer.cpp:49] A total of 120113 images.
I1124 17:47:29.650065 13466 image_data_layer.cpp:78] output data size: 32,3,224,224
I1124 17:47:29.653218 13466 net.cpp:103] Top shape: 32 3 224 224 (4816896)
I1124 17:47:29.653278 13466 net.cpp:103] Top shape: 32 1 1 1 (32)
I1124 17:47:29.653295 13466 layer_factory.hpp:78] Creating layer conv1_1
I1124 17:47:29.653321 13466 net.cpp:67] Creating Layer conv1_1
I1124 17:47:29.653334 13466 net.cpp:394] conv1_1 <- data
I1124 17:47:29.653360 13466 net.cpp:356] conv1_1 -> conv1_1
I1124 17:47:29.653383 13466 net.cpp:96] Setting up conv1_1
I1124 17:47:30.064687 13466 net.cpp:103] Top shape: 32 64 224 224 (102760448)
I1124 17:47:30.064754 13466 layer_factory.hpp:78] Creating layer relu1_1
I1124 17:47:30.064776 13466 net.cpp:67] Creating Layer relu1_1
I1124 17:47:30.064790 13466 net.cpp:394] relu1_1 <- conv1_1
I1124 17:47:30.064806 13466 net.cpp:345] relu1_1 -> conv1_1 (in-place)
I1124 17:47:30.064823 13466 net.cpp:96] Setting up relu1_1
I1124 17:47:30.064841 13466 net.cpp:103] Top shape: 32 64 224 224 (102760448)
I1124 17:47:30.064854 13466 layer_factory.hpp:78] Creating layer conv1_2
I1124 17:47:30.064870 13466 net.cpp:67] Creating Layer conv1_2
I1124 17:47:30.064889 13466 net.cpp:394] conv1_2 <- conv1_1
I1124 17:47:30.064906 13466 net.cpp:356] conv1_2 -> conv1_2
I1124 17:47:30.064924 13466 net.cpp:96] Setting up conv1_2
I1124 17:47:30.066445 13466 net.cpp:103] Top shape: 32 64 224 224 (102760448)
I1124 17:47:30.066473 13466 layer_factory.hpp:78] Creating layer relu1_2
I1124 17:47:30.066490 13466 net.cpp:67] Creating Layer relu1_2
I1124 17:47:30.066504 13466 net.cpp:394] relu1_2 <- conv1_2
I1124 17:47:30.066519 13466 net.cpp:345] relu1_2 -> conv1_2 (in-place)
I1124 17:47:30.066535 13466 net.cpp:96] Setting up relu1_2
I1124 17:47:30.066551 13466 net.cpp:103] Top shape: 32 64 224 224 (102760448)
I1124 17:47:30.066565 13466 layer_factory.hpp:78] Creating layer pool1
I1124 17:47:30.066586 13466 net.cpp:67] Creating Layer pool1
I1124 17:47:30.066598 13466 net.cpp:394] pool1 <- conv1_2
I1124 17:47:30.066614 13466 net.cpp:356] pool1 -> pool1
I1124 17:47:30.066632 13466 net.cpp:96] Setting up pool1
I1124 17:47:30.066663 13466 net.cpp:103] Top shape: 32 64 112 112 (25690112)
I1124 17:47:30.066678 13466 layer_factory.hpp:78] Creating layer conv2_1
I1124 17:47:30.066692 13466 net.cpp:67] Creating Layer conv2_1
I1124 17:47:30.066704 13466 net.cpp:394] conv2_1 <- pool1
I1124 17:47:30.066722 13466 net.cpp:356] conv2_1 -> conv2_1
I1124 17:47:30.066741 13466 net.cpp:96] Setting up conv2_1
I1124 17:47:30.070161 13466 net.cpp:103] Top shape: 32 128 112 112 (51380224)
I1124 17:47:30.070194 13466 layer_factory.hpp:78] Creating layer relu2_1
I1124 17:47:30.070210 13466 net.cpp:67] Creating Layer relu2_1
I1124 17:47:30.070224 13466 net.cpp:394] relu2_1 <- conv2_1
I1124 17:47:30.070241 13466 net.cpp:345] relu2_1 -> conv2_1 (in-place)
I1124 17:47:30.070256 13466 net.cpp:96] Setting up relu2_1
I1124 17:47:30.070273 13466 net.cpp:103] Top shape: 32 128 112 112 (51380224)
I1124 17:47:30.070286 13466 layer_factory.hpp:78] Creating layer conv2_2
I1124 17:47:30.070302 13466 net.cpp:67] Creating Layer conv2_2
I1124 17:47:30.070317 13466 net.cpp:394] conv2_2 <- conv2_1
I1124 17:47:30.070333 13466 net.cpp:356] conv2_2 -> conv2_2
I1124 17:47:30.070350 13466 net.cpp:96] Setting up conv2_2
I1124 17:47:30.075917 13466 net.cpp:103] Top shape: 32 128 112 112 (51380224)
I1124 17:47:30.075947 13466 layer_factory.hpp:78] Creating layer relu2_2
I1124 17:47:30.075966 13466 net.cpp:67] Creating Layer relu2_2
I1124 17:47:30.075979 13466 net.cpp:394] relu2_2 <- conv2_2
I1124 17:47:30.075994 13466 net.cpp:345] relu2_2 -> conv2_2 (in-place)
I1124 17:47:30.076011 13466 net.cpp:96] Setting up relu2_2
I1124 17:47:30.076027 13466 net.cpp:103] Top shape: 32 128 112 112 (51380224)
I1124 17:47:30.076059 13466 layer_factory.hpp:78] Creating layer pool2
I1124 17:47:30.076076 13466 net.cpp:67] Creating Layer pool2
I1124 17:47:30.076088 13466 net.cpp:394] pool2 <- conv2_2
I1124 17:47:30.076107 13466 net.cpp:356] pool2 -> pool2
I1124 17:47:30.076123 13466 net.cpp:96] Setting up pool2
I1124 17:47:30.076141 13466 net.cpp:103] Top shape: 32 128 56 56 (12845056)
I1124 17:47:30.076155 13466 layer_factory.hpp:78] Creating layer conv3_1
I1124 17:47:30.076170 13466 net.cpp:67] Creating Layer conv3_1
I1124 17:47:30.076182 13466 net.cpp:394] conv3_1 <- pool2
I1124 17:47:30.076201 13466 net.cpp:356] conv3_1 -> conv3_1
I1124 17:47:30.076220 13466 net.cpp:96] Setting up conv3_1
I1124 17:47:30.087327 13466 net.cpp:103] Top shape: 32 256 56 56 (25690112)
I1124 17:47:30.087385 13466 layer_factory.hpp:78] Creating layer relu3_1
I1124 17:47:30.087405 13466 net.cpp:67] Creating Layer relu3_1
I1124 17:47:30.087420 13466 net.cpp:394] relu3_1 <- conv3_1
I1124 17:47:30.087440 13466 net.cpp:345] relu3_1 -> conv3_1 (in-place)
I1124 17:47:30.087457 13466 net.cpp:96] Setting up relu3_1
I1124 17:47:30.087486 13466 net.cpp:103] Top shape: 32 256 56 56 (25690112)
I1124 17:47:30.087501 13466 layer_factory.hpp:78] Creating layer conv3_2
I1124 17:47:30.087517 13466 net.cpp:67] Creating Layer conv3_2
I1124 17:47:30.087529 13466 net.cpp:394] conv3_2 <- conv3_1
I1124 17:47:30.087546 13466 net.cpp:356] conv3_2 -> conv3_2
I1124 17:47:30.087564 13466 net.cpp:96] Setting up conv3_2
I1124 17:47:30.109542 13466 net.cpp:103] Top shape: 32 256 56 56 (25690112)
I1124 17:47:30.109594 13466 layer_factory.hpp:78] Creating layer relu3_2
I1124 17:47:30.109616 13466 net.cpp:67] Creating Layer relu3_2
I1124 17:47:30.109632 13466 net.cpp:394] relu3_2 <- conv3_2
I1124 17:47:30.109648 13466 net.cpp:345] relu3_2 -> conv3_2 (in-place)
I1124 17:47:30.109666 13466 net.cpp:96] Setting up relu3_2
I1124 17:47:30.109683 13466 net.cpp:103] Top shape: 32 256 56 56 (25690112)
I1124 17:47:30.109697 13466 layer_factory.hpp:78] Creating layer conv3_3
I1124 17:47:30.109714 13466 net.cpp:67] Creating Layer conv3_3
I1124 17:47:30.109725 13466 net.cpp:394] conv3_3 <- conv3_2
I1124 17:47:30.109745 13466 net.cpp:356] conv3_3 -> conv3_3
I1124 17:47:30.109762 13466 net.cpp:96] Setting up conv3_3
I1124 17:47:30.131747 13466 net.cpp:103] Top shape: 32 256 56 56 (25690112)
I1124 17:47:30.131798 13466 layer_factory.hpp:78] Creating layer relu3_3
I1124 17:47:30.131824 13466 net.cpp:67] Creating Layer relu3_3
I1124 17:47:30.131839 13466 net.cpp:394] relu3_3 <- conv3_3
I1124 17:47:30.131856 13466 net.cpp:345] relu3_3 -> conv3_3 (in-place)
I1124 17:47:30.131875 13466 net.cpp:96] Setting up relu3_3
I1124 17:47:30.131891 13466 net.cpp:103] Top shape: 32 256 56 56 (25690112)
I1124 17:47:30.131904 13466 layer_factory.hpp:78] Creating layer pool3
I1124 17:47:30.131921 13466 net.cpp:67] Creating Layer pool3
I1124 17:47:30.131932 13466 net.cpp:394] pool3 <- conv3_3
I1124 17:47:30.131950 13466 net.cpp:356] pool3 -> pool3
I1124 17:47:30.131968 13466 net.cpp:96] Setting up pool3
I1124 17:47:30.131989 13466 net.cpp:103] Top shape: 32 256 28 28 (6422528)
I1124 17:47:30.132001 13466 layer_factory.hpp:78] Creating layer conv4_1
I1124 17:47:30.132019 13466 net.cpp:67] Creating Layer conv4_1
I1124 17:47:30.132032 13466 net.cpp:394] conv4_1 <- pool3
I1124 17:47:30.132050 13466 net.cpp:356] conv4_1 -> conv4_1
I1124 17:47:30.132067 13466 net.cpp:96] Setting up conv4_1
I1124 17:47:30.174440 13466 net.cpp:103] Top shape: 32 512 28 28 (12845056)
I1124 17:47:30.174466 13466 layer_factory.hpp:78] Creating layer relu4_1
I1124 17:47:30.174480 13466 net.cpp:67] Creating Layer relu4_1
I1124 17:47:30.174489 13466 net.cpp:394] relu4_1 <- conv4_1
I1124 17:47:30.174501 13466 net.cpp:345] relu4_1 -> conv4_1 (in-place)
I1124 17:47:30.174512 13466 net.cpp:96] Setting up relu4_1
I1124 17:47:30.174522 13466 net.cpp:103] Top shape: 32 512 28 28 (12845056)
I1124 17:47:30.174530 13466 layer_factory.hpp:78] Creating layer conv4_2
I1124 17:47:30.174542 13466 net.cpp:67] Creating Layer conv4_2
I1124 17:47:30.174549 13466 net.cpp:394] conv4_2 <- conv4_1
I1124 17:47:30.174569 13466 net.cpp:356] conv4_2 -> conv4_2
I1124 17:47:30.174582 13466 net.cpp:96] Setting up conv4_2
I1124 17:47:30.232806 13466 net.cpp:103] Top shape: 32 512 28 28 (12845056)
I1124 17:47:30.232843 13466 layer_factory.hpp:78] Creating layer relu4_2
I1124 17:47:30.232859 13466 net.cpp:67] Creating Layer relu4_2
I1124 17:47:30.232868 13466 net.cpp:394] relu4_2 <- conv4_2
I1124 17:47:30.232880 13466 net.cpp:345] relu4_2 -> conv4_2 (in-place)
I1124 17:47:30.232893 13466 net.cpp:96] Setting up relu4_2
I1124 17:47:30.232903 13466 net.cpp:103] Top shape: 32 512 28 28 (12845056)
I1124 17:47:30.232911 13466 layer_factory.hpp:78] Creating layer conv4_3
I1124 17:47:30.232923 13466 net.cpp:67] Creating Layer conv4_3
I1124 17:47:30.232928 13466 net.cpp:394] conv4_3 <- conv4_2
I1124 17:47:30.232944 13466 net.cpp:356] conv4_3 -> conv4_3
I1124 17:47:30.232954 13466 net.cpp:96] Setting up conv4_3
I1124 17:47:30.291345 13466 net.cpp:103] Top shape: 32 512 28 28 (12845056)
I1124 17:47:30.291373 13466 layer_factory.hpp:78] Creating layer relu4_3
I1124 17:47:30.291385 13466 net.cpp:67] Creating Layer relu4_3
I1124 17:47:30.291395 13466 net.cpp:394] relu4_3 <- conv4_3
I1124 17:47:30.291407 13466 net.cpp:345] relu4_3 -> conv4_3 (in-place)
I1124 17:47:30.291419 13466 net.cpp:96] Setting up relu4_3
I1124 17:47:30.291430 13466 net.cpp:103] Top shape: 32 512 28 28 (12845056)
I1124 17:47:30.291437 13466 layer_factory.hpp:78] Creating layer pool4
I1124 17:47:30.291450 13466 net.cpp:67] Creating Layer pool4
I1124 17:47:30.291456 13466 net.cpp:394] pool4 <- conv4_3
I1124 17:47:30.291486 13466 net.cpp:356] pool4 -> pool4
I1124 17:47:30.291496 13466 net.cpp:96] Setting up pool4
I1124 17:47:30.291510 13466 net.cpp:103] Top shape: 32 512 14 14 (3211264)
I1124 17:47:30.291517 13466 layer_factory.hpp:78] Creating layer conv5_1
I1124 17:47:30.291532 13466 net.cpp:67] Creating Layer conv5_1
I1124 17:47:30.291538 13466 net.cpp:394] conv5_1 <- pool4
I1124 17:47:30.291548 13466 net.cpp:356] conv5_1 -> conv5_1
I1124 17:47:30.291561 13466 net.cpp:96] Setting up conv5_1
I1124 17:47:30.353184 13466 net.cpp:103] Top shape: 32 512 14 14 (3211264)
I1124 17:47:30.353214 13466 layer_factory.hpp:78] Creating layer relu5_1
I1124 17:47:30.353226 13466 net.cpp:67] Creating Layer relu5_1
I1124 17:47:30.353241 13466 net.cpp:394] relu5_1 <- conv5_1
I1124 17:47:30.353257 13466 net.cpp:345] relu5_1 -> conv5_1 (in-place)
I1124 17:47:30.353271 13466 net.cpp:96] Setting up relu5_1
I1124 17:47:30.353281 13466 net.cpp:103] Top shape: 32 512 14 14 (3211264)
I1124 17:47:30.353288 13466 layer_factory.hpp:78] Creating layer conv5_2
I1124 17:47:30.353301 13466 net.cpp:67] Creating Layer conv5_2
I1124 17:47:30.353307 13466 net.cpp:394] conv5_2 <- conv5_1
I1124 17:47:30.353317 13466 net.cpp:356] conv5_2 -> conv5_2
I1124 17:47:30.353328 13466 net.cpp:96] Setting up conv5_2
I1124 17:47:30.420969 13466 net.cpp:103] Top shape: 32 512 14 14 (3211264)
I1124 17:47:30.420995 13466 layer_factory.hpp:78] Creating layer relu5_2
I1124 17:47:30.421010 13466 net.cpp:67] Creating Layer relu5_2
I1124 17:47:30.421018 13466 net.cpp:394] relu5_2 <- conv5_2
I1124 17:47:30.421030 13466 net.cpp:345] relu5_2 -> conv5_2 (in-place)
I1124 17:47:30.421041 13466 net.cpp:96] Setting up relu5_2
I1124 17:47:30.421051 13466 net.cpp:103] Top shape: 32 512 14 14 (3211264)
I1124 17:47:30.421056 13466 layer_factory.hpp:78] Creating layer conv5_3
I1124 17:47:30.421069 13466 net.cpp:67] Creating Layer conv5_3
I1124 17:47:30.421077 13466 net.cpp:394] conv5_3 <- conv5_2
I1124 17:47:30.421087 13466 net.cpp:356] conv5_3 -> conv5_3
I1124 17:47:30.421097 13466 net.cpp:96] Setting up conv5_3
I1124 17:47:30.479090 13466 net.cpp:103] Top shape: 32 512 14 14 (3211264)
I1124 17:47:30.479121 13466 layer_factory.hpp:78] Creating layer relu5_3
I1124 17:47:30.479133 13466 net.cpp:67] Creating Layer relu5_3
I1124 17:47:30.479146 13466 net.cpp:394] relu5_3 <- conv5_3
I1124 17:47:30.479157 13466 net.cpp:345] relu5_3 -> conv5_3 (in-place)
I1124 17:47:30.479171 13466 net.cpp:96] Setting up relu5_3
I1124 17:47:30.479182 13466 net.cpp:103] Top shape: 32 512 14 14 (3211264)
I1124 17:47:30.479197 13466 layer_factory.hpp:78] Creating layer pool5
I1124 17:47:30.479208 13466 net.cpp:67] Creating Layer pool5
I1124 17:47:30.479217 13466 net.cpp:394] pool5 <- conv5_3
I1124 17:47:30.479226 13466 net.cpp:356] pool5 -> pool5
I1124 17:47:30.479238 13466 net.cpp:96] Setting up pool5
I1124 17:47:30.479250 13466 net.cpp:103] Top shape: 32 512 7 7 (802816)
I1124 17:47:30.479256 13466 layer_factory.hpp:78] Creating layer fc6
I1124 17:47:30.479275 13466 net.cpp:67] Creating Layer fc6
I1124 17:47:30.479282 13466 net.cpp:394] fc6 <- pool5
I1124 17:47:30.479295 13466 net.cpp:356] fc6 -> fc6
I1124 17:47:30.479305 13466 net.cpp:96] Setting up fc6
I1124 17:47:33.207219 13466 net.cpp:103] Top shape: 32 4096 1 1 (131072)
I1124 17:47:33.207252 13466 layer_factory.hpp:78] Creating layer relu6
I1124 17:47:33.207262 13466 net.cpp:67] Creating Layer relu6
I1124 17:47:33.207269 13466 net.cpp:394] relu6 <- fc6
I1124 17:47:33.207283 13466 net.cpp:345] relu6 -> fc6 (in-place)
I1124 17:47:33.207295 13466 net.cpp:96] Setting up relu6
I1124 17:47:33.207314 13466 net.cpp:103] Top shape: 32 4096 1 1 (131072)
I1124 17:47:33.207321 13466 layer_factory.hpp:78] Creating layer drop6
I1124 17:47:33.207336 13466 net.cpp:67] Creating Layer drop6
I1124 17:47:33.207343 13466 net.cpp:394] drop6 <- fc6
I1124 17:47:33.207353 13466 net.cpp:345] drop6 -> fc6 (in-place)
I1124 17:47:33.207363 13466 net.cpp:96] Setting up drop6
I1124 17:47:33.207370 13466 net.cpp:103] Top shape: 32 4096 1 1 (131072)
I1124 17:47:33.207378 13466 layer_factory.hpp:78] Creating layer fc7
I1124 17:47:33.207389 13466 net.cpp:67] Creating Layer fc7
I1124 17:47:33.207396 13466 net.cpp:394] fc7 <- fc6
I1124 17:47:33.207406 13466 net.cpp:356] fc7 -> fc7
I1124 17:47:33.207417 13466 net.cpp:96] Setting up fc7
I1124 17:47:33.621186 13466 net.cpp:103] Top shape: 32 4096 1 1 (131072)
I1124 17:47:33.621218 13466 layer_factory.hpp:78] Creating layer relu7
I1124 17:47:33.621232 13466 net.cpp:67] Creating Layer relu7
I1124 17:47:33.621244 13466 net.cpp:394] relu7 <- fc7
I1124 17:47:33.621258 13466 net.cpp:345] relu7 -> fc7 (in-place)
I1124 17:47:33.621270 13466 net.cpp:96] Setting up relu7
I1124 17:47:33.621289 13466 net.cpp:103] Top shape: 32 4096 1 1 (131072)
I1124 17:47:33.621295 13466 layer_factory.hpp:78] Creating layer drop7
I1124 17:47:33.621306 13466 net.cpp:67] Creating Layer drop7
I1124 17:47:33.621314 13466 net.cpp:394] drop7 <- fc7
I1124 17:47:33.621325 13466 net.cpp:345] drop7 -> fc7 (in-place)
I1124 17:47:33.621335 13466 net.cpp:96] Setting up drop7
I1124 17:47:33.621343 13466 net.cpp:103] Top shape: 32 4096 1 1 (131072)
I1124 17:47:33.621351 13466 layer_factory.hpp:78] Creating layer fc8_2
I1124 17:47:33.621361 13466 net.cpp:67] Creating Layer fc8_2
I1124 17:47:33.621366 13466 net.cpp:394] fc8_2 <- fc7
I1124 17:47:33.621377 13466 net.cpp:356] fc8_2 -> fc8_2
I1124 17:47:33.621387 13466 net.cpp:96] Setting up fc8_2
I1124 17:47:33.621608 13466 net.cpp:103] Top shape: 32 2 1 1 (64)
I1124 17:47:33.621619 13466 layer_factory.hpp:78] Creating layer loss
I1124 17:47:33.621631 13466 net.cpp:67] Creating Layer loss
I1124 17:47:33.621637 13466 net.cpp:394] loss <- fc8_2
I1124 17:47:33.621646 13466 net.cpp:394] loss <- label
I1124 17:47:33.621659 13466 net.cpp:356] loss -> (automatic)
I1124 17:47:33.621667 13466 net.cpp:96] Setting up loss
I1124 17:47:33.621681 13466 net.cpp:103] Top shape: 1 1 1 1 (1)
I1124 17:47:33.621687 13466 net.cpp:109]     with loss weight 1
I1124 17:47:33.621719 13466 net.cpp:170] loss needs backward computation.
I1124 17:47:33.621728 13466 net.cpp:170] fc8_2 needs backward computation.
I1124 17:47:33.621734 13466 net.cpp:170] drop7 needs backward computation.
I1124 17:47:33.621742 13466 net.cpp:170] relu7 needs backward computation.
I1124 17:47:33.621747 13466 net.cpp:170] fc7 needs backward computation.
…
I1124 17:47:33.622879 13466 net.cpp:275] The NetState phase (1) differed from the phase (0) specified by a rule in layer data
I1124 17:47:33.623086 13466 net.cpp:39] Initializing net from parameters: 
name: "small"
layers {
  top: "data"
  top: "label"
  name: "data"
  type: IMAGE_DATA
  image_data_param {
    source: "/data/ad6813/devCaffe/caffe/data/soil_high_o/val.txt"
    batch_size: 8
    new_height: 256
    new_width: 256
  }
  include {
    phase: TEST
  }
  transform_param {
    mirror: true
    crop_size: 224
    mean_value: 86.752
    mean_value: 101.46
    mean_value: 104.6
  }
}
layers {
  bottom: "data"
  top: "conv1_1"
  name: "conv1_1"
  type: CONVOLUTION
  convolution_param {
    num_output: 64
    pad: 1
    kernel_size: 3
    weight_filler {
      type: "gaussian"
      std: 0.01
    }
    bias_filler {
      type: "constant"
      value: 0
    }
  }
}
layers {
  bottom: "conv1_1"
  top: "conv1_1"
  name: "relu1_1"
  type: RELU
}
layers {
  bottom: "conv1_1"
  top: "conv1_2"
  name: "conv1_2"
  type: CONVOLUTION
  convolution_param {
    num_output: 64
    pad: 1
    kernel_size: 3
    weight_filler {
      type: "gaussian"
      std: 0.01
    }
    bias_filler {
      type: "constant"
      value: 0
    }
  }
}
layers {
  bottom: "conv1_2"
  top: "conv1_2"
  name: "relu1_2"
  type: RELU
}
layers {
  bottom: "conv1_2"
  top: "pool1"
  name: "pool1"
  type: POOLING
  pooling_param {
    pool: MAX
    kernel_size: 2
    stride: 2
  }
}
layers {
  bottom: "pool1"
  top: "conv2_1"
  name: "conv2_1"
  type: CONVOLUTION
  convolution_param {
    num_output: 128
    pad: 1
    kernel_size: 3
    weight_filler {
      type: "gaussian"
      std: 0.01
    }
    bias_filler {
      type: "constant"
      value: 0
    }
  }
}
layers {
  bottom: "conv2_1"
  top: "conv2_1"
  name: "relu2_1"
  type: RELU
}
layers {
  bottom: "conv2_1"
  top: "conv2_2"
  name: "conv2_2"
  type: CONVOLUTION
  convolution_param {
    num_output: 128
    pad: 1
    kernel_size: 3
    weight_filler {
      type: "gaussian"
      std: 0.01
    }
    bias_filler {
      type: "constant"
      value: 0
    }
  }
}
layers {
  bottom: "conv2_2"
  top: "conv2_2"
  name: "relu2_2"
  type: RELU
}
layers {
  bottom: "conv2_2"
  top: "pool2"
  name: "pool2"
  type: POOLING
  pooling_param {
    pool: MAX
    kernel_size: 2
    stride: 2
  }
}
layers {
  bottom: "pool2"
  top: "conv3_1"
  name: "conv3_1"
  type: CONVOLUTION
  convolution_param {
    num_output: 256
    pad: 1
    kernel_size: 3
    weight_filler {
      type: "gaussian"
      std: 0.01
    }
    bias_filler {
      type: "constant"
      value: 0
    }
  }
}
layers {
  bottom: "conv3_1"
  top: "conv3_1"
  name: "relu3_1"
  type: RELU
}
layers {
  bottom: "conv3_1"
  top: "conv3_2"
  name: "conv3_2"
  type: CONVOLUTION
  convolution_param {
    num_output: 256
    pad: 1
    kernel_size: 3
    weight_filler {
      type: "gaussian"
      std: 0.01
    }
    bias_filler {
      type: "constant"
      value: 0
    }
  }
}
layers {
  bottom: "conv3_2"
  top: "conv3_2"
  name: "relu3_2"
  type: RELU
}
layers {
  bottom: "conv3_2"
  top: "conv3_3"
  name: "conv3_3"
  type: CONVOLUTION
  convolution_param {
    num_output: 256
    pad: 1
    kernel_size: 3
    weight_filler {
      type: "gaussian"
      std: 0.01
    }
    bias_filler {
      type: "constant"
      value: 0
    }
  }
}
layers {
  bottom: "conv3_3"
  top: "conv3_3"
  name: "relu3_3"
  type: RELU
}
layers {
  bottom: "conv3_3"
  top: "pool3"
  name: "pool3"
  type: POOLING
  pooling_param {
    pool: MAX
    kernel_size: 2
    stride: 2
  }
}
layers {
  bottom: "pool3"
  top: "conv4_1"
  name: "conv4_1"
  type: CONVOLUTION
  convolution_param {
    num_output: 512
    pad: 1
    kernel_size: 3
    weight_filler {
      type: "gaussian"
      std: 0.01
    }
    bias_filler {
      type: "constant"
      value: 0
    }
  }
}
layers {
  bottom: "conv4_1"
  top: "conv4_1"
  name: "relu4_1"
  type: RELU
}
layers {
  bottom: "conv4_1"
  top: "conv4_2"
  name: "conv4_2"
  type: CONVOLUTION
  convolution_param {
    num_output: 512
    pad: 1
    kernel_size: 3
    weight_filler {
      type: "gaussian"
      std: 0.01
    }
    bias_filler {
      type: "constant"
      value: 0
    }
  }
}
layers {
  bottom: "conv4_2"
  top: "conv4_2"
  name: "relu4_2"
  type: RELU
}
layers {
  bottom: "conv4_2"
  top: "conv4_3"
  name: "conv4_3"
  type: CONVOLUTION
  convolution_param {
    num_output: 512
    pad: 1
    kernel_size: 3
    weight_filler {
      type: "gaussian"
      std: 0.01
    }
    bias_filler {
      type: "constant"
      value: 0
    }
  }
}
layers {
  bottom: "conv4_3"
  top: "conv4_3"
  name: "relu4_3"
  type: RELU
}
layers {
  bottom: "conv4_3"
  top: "pool4"
  name: "pool4"
  type: POOLING
  pooling_param {
    pool: MAX
    kernel_size: 2
    stride: 2
  }
}
layers {
  bottom: "pool4"
  top: "conv5_1"
  name: "conv5_1"
  type: CONVOLUTION
  convolution_param {
    num_output: 512
    pad: 1
    kernel_size: 3
    weight_filler {
      type: "gaussian"
      std: 0.01
    }
    bias_filler {
      type: "constant"
      value: 0
    }
  }
}
layers {
  bottom: "conv5_1"
  top: "conv5_1"
  name: "relu5_1"
  type: RELU
}
layers {
  bottom: "conv5_1"
  top: "conv5_2"
  name: "conv5_2"
  type: CONVOLUTION
  convolution_param {
    num_output: 512
    pad: 1
    kernel_size: 3
    weight_filler {
      type: "gaussian"
      std: 0.01
    }
    bias_filler {
      type: "constant"
      value: 0
    }
  }
}
layers {
  bottom: "conv5_2"
  top: "conv5_2"
  name: "relu5_2"
  type: RELU
}
layers {
  bottom: "conv5_2"
  top: "conv5_3"
  name: "conv5_3"
  type: CONVOLUTION
  convolution_param {
    num_output: 512
    pad: 1
    kernel_size: 3
    weight_filler {
      type: "gaussian"
      std: 0.01
    }
    bias_filler {
      type: "constant"
      value: 0
    }
  }
}
layers {
  bottom: "conv5_3"
  top: "conv5_3"
  name: "relu5_3"
  type: RELU
}
layers {
  bottom: "conv5_3"
  top: "pool5"
  name: "pool5"
  type: POOLING
  pooling_param {
    pool: MAX
    kernel_size: 2
    stride: 2
  }
}
layers {
  bottom: "pool5"
  top: "fc6"
  name: "fc6"
  type: INNER_PRODUCT
  inner_product_param {
    num_output: 4096
    weight_filler {
      type: "gaussian"
      std: 0.01
    }
    bias_filler {
      type: "constant"
      value: 0
    }
  }
}
layers {
  bottom: "fc6"
  top: "fc6"
  name: "relu6"
  type: RELU
}
layers {
  bottom: "fc6"
  top: "fc6"
  name: "drop6"
  type: DROPOUT
  dropout_param {
    dropout_ratio: 0.5
  }
}
layers {
  bottom: "fc6"
  top: "fc7"
  name: "fc7"
  type: INNER_PRODUCT
  inner_product_param {
    num_output: 4096
    weight_filler {
      type: "gaussian"
      std: 0.01
    }
    bias_filler {
      type: "constant"
      value: 0
    }
  }
}
layers {
  bottom: "fc7"
  top: "fc7"
  name: "relu7"
  type: RELU
}
layers {
  bottom: "fc7"
  top: "fc7"
  name: "drop7"
  type: DROPOUT
  dropout_param {
    dropout_ratio: 0.5
  }
}
layers {
  bottom: "fc7"
  top: "fc8_2"
  name: "fc8_2"
  type: INNER_PRODUCT
  inner_product_param {
    num_output: 2
    weight_filler {
      type: "gaussian"
      std: 0.01
    }
    bias_filler {
      type: "constant"
      value: 0
    }
  }
}
layers {
  bottom: "fc8_2"
  bottom: "label"
  name: "loss"
  type: SOFTMAX_LOSS
}
layers {
  bottom: "fc8_2"
  bottom: "label"
  top: "accuracy"
  name: "accuracy"
  type: PER_CLASS_ACCURACY
  include {
    phase: TEST
  }
}
state {
  phase: TEST
}
I1124 17:47:33.623230 13466 layer_factory.hpp:78] Creating layer data
I1124 17:47:33.623245 13466 net.cpp:67] Creating Layer data
I1124 17:47:33.623255 13466 net.cpp:356] data -> data
I1124 17:47:33.623267 13466 net.cpp:356] data -> label
I1124 17:47:33.623278 13466 net.cpp:96] Setting up data
I1124 17:47:33.623286 13466 image_data_layer.cpp:34] Opening file /data/ad6813/devCaffe/caffe/data/soil_high_o/val.txt
I1124 17:47:33.623661 13466 image_data_layer.cpp:49] A total of 967 images.
I1124 17:47:33.631214 13466 image_data_layer.cpp:78] output data size: 8,3,224,224
I1124 17:47:33.632037 13466 net.cpp:103] Top shape: 8 3 224 224 (1204224)
I1124 17:47:33.632066 13466 net.cpp:103] Top shape: 8 1 1 1 (8)
I1124 17:47:33.632081 13466 layer_factory.hpp:78] Creating layer label_data_1_split
I1124 17:47:33.632114 13466 net.cpp:67] Creating Layer label_data_1_split
I1124 17:47:33.632133 13466 net.cpp:394] label_data_1_split <- label
I1124 17:47:33.632153 13466 net.cpp:356] label_data_1_split -> label_data_1_split_0
I1124 17:47:33.632175 13466 net.cpp:356] label_data_1_split -> label_data_1_split_1
I1124 17:47:33.632194 13466 net.cpp:96] Setting up label_data_1_split
I1124 17:47:33.632208 13466 net.cpp:103] Top shape: 8 1 1 1 (8)
I1124 17:47:33.632220 13466 net.cpp:103] Top shape: 8 1 1 1 (8)
I1124 17:47:33.632232 13466 layer_factory.hpp:78] Creating layer conv1_1
I1124 17:47:33.632248 13466 net.cpp:67] Creating Layer conv1_1
I1124 17:47:33.632261 13466 net.cpp:394] conv1_1 <- data
I1124 17:47:33.632277 13466 net.cpp:356] conv1_1 -> conv1_1
I1124 17:47:33.632293 13466 net.cpp:96] Setting up conv1_1
I1124 17:47:33.632557 13466 net.cpp:103] Top shape: 8 64 224 224 (25690112)
I1124 17:47:33.632583 13466 layer_factory.hpp:78] Creating layer relu1_1
I1124 17:47:33.632599 13466 net.cpp:67] Creating Layer relu1_1
I1124 17:47:33.632613 13466 net.cpp:394] relu1_1 <- conv1_1
I1124 17:47:33.632638 13466 net.cpp:345] relu1_1 -> conv1_1 (in-place)
I1124 17:47:33.632661 13466 net.cpp:96] Setting up relu1_1
I1124 17:47:33.632678 13466 net.cpp:103] Top shape: 8 64 224 224 (25690112)
I1124 17:47:33.632691 13466 layer_factory.hpp:78] Creating layer conv1_2
I1124 17:47:33.632707 13466 net.cpp:67] Creating Layer conv1_2
I1124 17:47:33.632719 13466 net.cpp:394] conv1_2 <- conv1_1
I1124 17:47:33.632735 13466 net.cpp:356] conv1_2 -> conv1_2
I1124 17:47:33.632751 13466 net.cpp:96] Setting up conv1_2
I1124 17:47:33.634229 13466 net.cpp:103] Top shape: 8 64 224 224 (25690112)
I1124 17:47:33.634255 13466 layer_factory.hpp:78] Creating layer relu1_2
I1124 17:47:33.634271 13466 net.cpp:67] Creating Layer relu1_2
I1124 17:47:33.634284 13466 net.cpp:394] relu1_2 <- conv1_2
I1124 17:47:33.634300 13466 net.cpp:345] relu1_2 -> conv1_2 (in-place)
I1124 17:47:33.634315 13466 net.cpp:96] Setting up relu1_2
I1124 17:47:33.634331 13466 net.cpp:103] Top shape: 8 64 224 224 (25690112)
I1124 17:47:33.634345 13466 layer_factory.hpp:78] Creating layer pool1
I1124 17:47:33.634361 13466 net.cpp:67] Creating Layer pool1
I1124 17:47:33.634372 13466 net.cpp:394] pool1 <- conv1_2
I1124 17:47:33.634387 13466 net.cpp:356] pool1 -> pool1
I1124 17:47:33.634402 13466 net.cpp:96] Setting up pool1
I1124 17:47:33.634421 13466 net.cpp:103] Top shape: 8 64 112 112 (6422528)
I1124 17:47:33.634435 13466 layer_factory.hpp:78] Creating layer conv2_1
I1124 17:47:33.634452 13466 net.cpp:67] Creating Layer conv2_1
I1124 17:47:33.634465 13466 net.cpp:394] conv2_1 <- pool1
I1124 17:47:33.634481 13466 net.cpp:356] conv2_1 -> conv2_1
I1124 17:47:33.634500 13466 net.cpp:96] Setting up conv2_1
I1124 17:47:33.637467 13466 net.cpp:103] Top shape: 8 128 112 112 (12845056)
I1124 17:47:33.637500 13466 layer_factory.hpp:78] Creating layer relu2_1
I1124 17:47:33.637518 13466 net.cpp:67] Creating Layer relu2_1
I1124 17:47:33.637532 13466 net.cpp:394] relu2_1 <- conv2_1
I1124 17:47:33.637547 13466 net.cpp:345] relu2_1 -> conv2_1 (in-place)
I1124 17:47:33.637563 13466 net.cpp:96] Setting up relu2_1
I1124 17:47:33.637580 13466 net.cpp:103] Top shape: 8 128 112 112 (12845056)
I1124 17:47:33.637593 13466 layer_factory.hpp:78] Creating layer conv2_2
I1124 17:47:33.637609 13466 net.cpp:67] Creating Layer conv2_2
I1124 17:47:33.637621 13466 net.cpp:394] conv2_2 <- conv2_1
I1124 17:47:33.637636 13466 net.cpp:356] conv2_2 -> conv2_2
I1124 17:47:33.637653 13466 net.cpp:96] Setting up conv2_2
I1124 17:47:33.643137 13466 net.cpp:103] Top shape: 8 128 112 112 (12845056)
I1124 17:47:33.643168 13466 layer_factory.hpp:78] Creating layer relu2_2
I1124 17:47:33.643184 13466 net.cpp:67] Creating Layer relu2_2
I1124 17:47:33.643198 13466 net.cpp:394] relu2_2 <- conv2_2
I1124 17:47:33.643215 13466 net.cpp:345] relu2_2 -> conv2_2 (in-place)
I1124 17:47:33.643231 13466 net.cpp:96] Setting up relu2_2
I1124 17:47:33.643247 13466 net.cpp:103] Top shape: 8 128 112 112 (12845056)
I1124 17:47:33.643261 13466 layer_factory.hpp:78] Creating layer pool2
I1124 17:47:33.643276 13466 net.cpp:67] Creating Layer pool2
I1124 17:47:33.643290 13466 net.cpp:394] pool2 <- conv2_2
I1124 17:47:33.643303 13466 net.cpp:356] pool2 -> pool2
I1124 17:47:33.643321 13466 net.cpp:96] Setting up pool2
I1124 17:47:33.643338 13466 net.cpp:103] Top shape: 8 128 56 56 (3211264)
I1124 17:47:33.643353 13466 layer_factory.hpp:78] Creating layer conv3_1
I1124 17:47:33.643371 13466 net.cpp:67] Creating Layer conv3_1
I1124 17:47:33.643384 13466 net.cpp:394] conv3_1 <- pool2
I1124 17:47:33.643400 13466 net.cpp:356] conv3_1 -> conv3_1
I1124 17:47:33.643419 13466 net.cpp:96] Setting up conv3_1
I1124 17:47:33.654217 13466 net.cpp:103] Top shape: 8 256 56 56 (6422528)
I1124 17:47:33.654259 13466 layer_factory.hpp:78] Creating layer relu3_1
I1124 17:47:33.654280 13466 net.cpp:67] Creating Layer relu3_1
I1124 17:47:33.654294 13466 net.cpp:394] relu3_1 <- conv3_1
I1124 17:47:33.654310 13466 net.cpp:345] relu3_1 -> conv3_1 (in-place)
I1124 17:47:33.654326 13466 net.cpp:96] Setting up relu3_1
I1124 17:47:33.654341 13466 net.cpp:103] Top shape: 8 256 56 56 (6422528)
I1124 17:47:33.654363 13466 layer_factory.hpp:78] Creating layer conv3_2
I1124 17:47:33.654391 13466 net.cpp:67] Creating Layer conv3_2
I1124 17:47:33.654404 13466 net.cpp:394] conv3_2 <- conv3_1
I1124 17:47:33.654420 13466 net.cpp:356] conv3_2 -> conv3_2
I1124 17:47:33.654438 13466 net.cpp:96] Setting up conv3_2
I1124 17:47:33.675690 13466 net.cpp:103] Top shape: 8 256 56 56 (6422528)
I1124 17:47:33.675745 13466 layer_factory.hpp:78] Creating layer relu3_2
I1124 17:47:33.675765 13466 net.cpp:67] Creating Layer relu3_2
I1124 17:47:33.675778 13466 net.cpp:394] relu3_2 <- conv3_2
I1124 17:47:33.675798 13466 net.cpp:345] relu3_2 -> conv3_2 (in-place)
I1124 17:47:33.675817 13466 net.cpp:96] Setting up relu3_2
I1124 17:47:33.675832 13466 net.cpp:103] Top shape: 8 256 56 56 (6422528)
I1124 17:47:33.675844 13466 layer_factory.hpp:78] Creating layer conv3_3
I1124 17:47:33.675864 13466 net.cpp:67] Creating Layer conv3_3
I1124 17:47:33.675879 13466 net.cpp:394] conv3_3 <- conv3_2
I1124 17:47:33.675897 13466 net.cpp:356] conv3_3 -> conv3_3
I1124 17:47:33.675915 13466 net.cpp:96] Setting up conv3_3
I1124 17:47:33.697659 13466 net.cpp:103] Top shape: 8 256 56 56 (6422528)
I1124 17:47:33.697712 13466 layer_factory.hpp:78] Creating layer relu3_3
I1124 17:47:33.697732 13466 net.cpp:67] Creating Layer relu3_3
I1124 17:47:33.697747 13466 net.cpp:394] relu3_3 <- conv3_3
I1124 17:47:33.697767 13466 net.cpp:345] relu3_3 -> conv3_3 (in-place)
I1124 17:47:33.697785 13466 net.cpp:96] Setting up relu3_3
I1124 17:47:33.697803 13466 net.cpp:103] Top shape: 8 256 56 56 (6422528)
I1124 17:47:33.697815 13466 layer_factory.hpp:78] Creating layer pool3
I1124 17:47:33.697831 13466 net.cpp:67] Creating Layer pool3
I1124 17:47:33.697844 13466 net.cpp:394] pool3 <- conv3_3
I1124 17:47:33.697861 13466 net.cpp:356] pool3 -> pool3
I1124 17:47:33.697880 13466 net.cpp:96] Setting up pool3
I1124 17:47:33.697898 13466 net.cpp:103] Top shape: 8 256 28 28 (1605632)
I1124 17:47:33.697912 13466 layer_factory.hpp:78] Creating layer conv4_1
I1124 17:47:33.697928 13466 net.cpp:67] Creating Layer conv4_1
I1124 17:47:33.697942 13466 net.cpp:394] conv4_1 <- pool3
I1124 17:47:33.697960 13466 net.cpp:356] conv4_1 -> conv4_1
I1124 17:47:33.697978 13466 net.cpp:96] Setting up conv4_1
I1124 17:47:33.740861 13466 net.cpp:103] Top shape: 8 512 28 28 (3211264)
I1124 17:47:33.740911 13466 layer_factory.hpp:78] Creating layer relu4_1
I1124 17:47:33.740924 13466 net.cpp:67] Creating Layer relu4_1
I1124 17:47:33.740933 13466 net.cpp:394] relu4_1 <- conv4_1
I1124 17:47:33.740947 13466 net.cpp:345] relu4_1 -> conv4_1 (in-place)
I1124 17:47:33.740959 13466 net.cpp:96] Setting up relu4_1
I1124 17:47:33.740970 13466 net.cpp:103] Top shape: 8 512 28 28 (3211264)
I1124 17:47:33.740978 13466 layer_factory.hpp:78] Creating layer conv4_2
I1124 17:47:33.740988 13466 net.cpp:67] Creating Layer conv4_2
I1124 17:47:33.740994 13466 net.cpp:394] conv4_2 <- conv4_1
I1124 17:47:33.741008 13466 net.cpp:356] conv4_2 -> conv4_2
I1124 17:47:33.741019 13466 net.cpp:96] Setting up conv4_2
I1124 17:47:33.798794 13466 net.cpp:103] Top shape: 8 512 28 28 (3211264)
I1124 17:47:33.798833 13466 layer_factory.hpp:78] Creating layer relu4_2
I1124 17:47:33.798849 13466 net.cpp:67] Creating Layer relu4_2
I1124 17:47:33.798857 13466 net.cpp:394] relu4_2 <- conv4_2
I1124 17:47:33.798873 13466 net.cpp:345] relu4_2 -> conv4_2 (in-place)
I1124 17:47:33.798885 13466 net.cpp:96] Setting up relu4_2
I1124 17:47:33.798897 13466 net.cpp:103] Top shape: 8 512 28 28 (3211264)
I1124 17:47:33.798903 13466 layer_factory.hpp:78] Creating layer conv4_3
I1124 17:47:33.798915 13466 net.cpp:67] Creating Layer conv4_3
I1124 17:47:33.798923 13466 net.cpp:394] conv4_3 <- conv4_2
I1124 17:47:33.798933 13466 net.cpp:356] conv4_3 -> conv4_3
I1124 17:47:33.798945 13466 net.cpp:96] Setting up conv4_3
I1124 17:47:33.856974 13466 net.cpp:103] Top shape: 8 512 28 28 (3211264)
I1124 17:47:33.857007 13466 layer_factory.hpp:78] Creating layer relu4_3
I1124 17:47:33.857018 13466 net.cpp:67] Creating Layer relu4_3
I1124 17:47:33.857028 13466 net.cpp:394] relu4_3 <- conv4_3
I1124 17:47:33.857040 13466 net.cpp:345] relu4_3 -> conv4_3 (in-place)
I1124 17:47:33.857063 13466 net.cpp:96] Setting up relu4_3
I1124 17:47:33.857074 13466 net.cpp:103] Top shape: 8 512 28 28 (3211264)
I1124 17:47:33.857080 13466 layer_factory.hpp:78] Creating layer pool4
I1124 17:47:33.857091 13466 net.cpp:67] Creating Layer pool4
I1124 17:47:33.857098 13466 net.cpp:394] pool4 <- conv4_3
I1124 17:47:33.857108 13466 net.cpp:356] pool4 -> pool4
I1124 17:47:33.857118 13466 net.cpp:96] Setting up pool4
I1124 17:47:33.857131 13466 net.cpp:103] Top shape: 8 512 14 14 (802816)
I1124 17:47:33.857137 13466 layer_factory.hpp:78] Creating layer conv5_1
I1124 17:47:33.857151 13466 net.cpp:67] Creating Layer conv5_1
I1124 17:47:33.857156 13466 net.cpp:394] conv5_1 <- pool4
I1124 17:47:33.857167 13466 net.cpp:356] conv5_1 -> conv5_1
I1124 17:47:33.857177 13466 net.cpp:96] Setting up conv5_1
I1124 17:47:33.914883 13466 net.cpp:103] Top shape: 8 512 14 14 (802816)
I1124 17:47:33.914914 13466 layer_factory.hpp:78] Creating layer relu5_1
I1124 17:47:33.914926 13466 net.cpp:67] Creating Layer relu5_1
I1124 17:47:33.914939 13466 net.cpp:394] relu5_1 <- conv5_1
I1124 17:47:33.914954 13466 net.cpp:345] relu5_1 -> conv5_1 (in-place)
I1124 17:47:33.914968 13466 net.cpp:96] Setting up relu5_1
I1124 17:47:33.914979 13466 net.cpp:103] Top shape: 8 512 14 14 (802816)
I1124 17:47:33.914986 13466 layer_factory.hpp:78] Creating layer conv5_2
I1124 17:47:33.914999 13466 net.cpp:67] Creating Layer conv5_2
I1124 17:47:33.915004 13466 net.cpp:394] conv5_2 <- conv5_1
I1124 17:47:33.915017 13466 net.cpp:356] conv5_2 -> conv5_2
I1124 17:47:33.915030 13466 net.cpp:96] Setting up conv5_2
I1124 17:47:33.972978 13466 net.cpp:103] Top shape: 8 512 14 14 (802816)
I1124 17:47:33.973011 13466 layer_factory.hpp:78] Creating layer relu5_2
I1124 17:47:33.973021 13466 net.cpp:67] Creating Layer relu5_2
I1124 17:47:33.973034 13466 net.cpp:394] relu5_2 <- conv5_2
I1124 17:47:33.973047 13466 net.cpp:345] relu5_2 -> conv5_2 (in-place)
I1124 17:47:33.973058 13466 net.cpp:96] Setting up relu5_2
I1124 17:47:33.973069 13466 net.cpp:103] Top shape: 8 512 14 14 (802816)
I1124 17:47:33.973076 13466 layer_factory.hpp:78] Creating layer conv5_3
I1124 17:47:33.973089 13466 net.cpp:67] Creating Layer conv5_3
I1124 17:47:33.973096 13466 net.cpp:394] conv5_3 <- conv5_2
I1124 17:47:33.973108 13466 net.cpp:356] conv5_3 -> conv5_3
I1124 17:47:33.973119 13466 net.cpp:96] Setting up conv5_3
I1124 17:47:34.030936 13466 net.cpp:103] Top shape: 8 512 14 14 (802816)
I1124 17:47:34.030966 13466 layer_factory.hpp:78] Creating layer relu5_3
I1124 17:47:34.030977 13466 net.cpp:67] Creating Layer relu5_3
I1124 17:47:34.030983 13466 net.cpp:394] relu5_3 <- conv5_3
I1124 17:47:34.030997 13466 net.cpp:345] relu5_3 -> conv5_3 (in-place)
I1124 17:47:34.031009 13466 net.cpp:96] Setting up relu5_3
I1124 17:47:34.031021 13466 net.cpp:103] Top shape: 8 512 14 14 (802816)
I1124 17:47:34.031028 13466 layer_factory.hpp:78] Creating layer pool5
I1124 17:47:34.031046 13466 net.cpp:67] Creating Layer pool5
I1124 17:47:34.031054 13466 net.cpp:394] pool5 <- conv5_3
I1124 17:47:34.031065 13466 net.cpp:356] pool5 -> pool5
I1124 17:47:34.031077 13466 net.cpp:96] Setting up pool5
I1124 17:47:34.031090 13466 net.cpp:103] Top shape: 8 512 7 7 (200704)
I1124 17:47:34.031096 13466 layer_factory.hpp:78] Creating layer fc6
I1124 17:47:34.031107 13466 net.cpp:67] Creating Layer fc6
I1124 17:47:34.031115 13466 net.cpp:394] fc6 <- pool5
I1124 17:47:34.031126 13466 net.cpp:356] fc6 -> fc6
I1124 17:47:34.031136 13466 net.cpp:96] Setting up fc6
I1124 17:47:36.576270 13466 net.cpp:103] Top shape: 8 4096 1 1 (32768)
I1124 17:47:36.576304 13466 layer_factory.hpp:78] Creating layer relu6
I1124 17:47:36.576316 13466 net.cpp:67] Creating Layer relu6
I1124 17:47:36.576323 13466 net.cpp:394] relu6 <- fc6
I1124 17:47:36.576345 13466 net.cpp:345] relu6 -> fc6 (in-place)
I1124 17:47:36.576359 13466 net.cpp:96] Setting up relu6
I1124 17:47:36.576377 13466 net.cpp:103] Top shape: 8 4096 1 1 (32768)
I1124 17:47:36.576383 13466 layer_factory.hpp:78] Creating layer drop6
I1124 17:47:36.576402 13466 net.cpp:67] Creating Layer drop6
I1124 17:47:36.576411 13466 net.cpp:394] drop6 <- fc6
I1124 17:47:36.576421 13466 net.cpp:345] drop6 -> fc6 (in-place)
I1124 17:47:36.576431 13466 net.cpp:96] Setting up drop6
I1124 17:47:36.576438 13466 net.cpp:103] Top shape: 8 4096 1 1 (32768)
I1124 17:47:36.576445 13466 layer_factory.hpp:78] Creating layer fc7
I1124 17:47:36.576457 13466 net.cpp:67] Creating Layer fc7
I1124 17:47:36.576462 13466 net.cpp:394] fc7 <- fc6
I1124 17:47:36.576475 13466 net.cpp:356] fc7 -> fc7
I1124 17:47:36.576486 13466 net.cpp:96] Setting up fc7
I1124 17:47:37.017237 13466 net.cpp:103] Top shape: 8 4096 1 1 (32768)
I1124 17:47:37.017292 13466 layer_factory.hpp:78] Creating layer relu7
I1124 17:47:37.017313 13466 net.cpp:67] Creating Layer relu7
I1124 17:47:37.017328 13466 net.cpp:394] relu7 <- fc7
I1124 17:47:37.017344 13466 net.cpp:345] relu7 -> fc7 (in-place)
I1124 17:47:37.017361 13466 net.cpp:96] Setting up relu7
I1124 17:47:37.017385 13466 net.cpp:103] Top shape: 8 4096 1 1 (32768)
I1124 17:47:37.017398 13466 layer_factory.hpp:78] Creating layer drop7
I1124 17:47:37.017413 13466 net.cpp:67] Creating Layer drop7
I1124 17:47:37.017424 13466 net.cpp:394] drop7 <- fc7
I1124 17:47:37.017441 13466 net.cpp:345] drop7 -> fc7 (in-place)
I1124 17:47:37.017456 13466 net.cpp:96] Setting up drop7
I1124 17:47:37.017467 13466 net.cpp:103] Top shape: 8 4096 1 1 (32768)
I1124 17:47:37.017479 13466 layer_factory.hpp:78] Creating layer fc8_2
I1124 17:47:37.017496 13466 net.cpp:67] Creating Layer fc8_2
I1124 17:47:37.017508 13466 net.cpp:394] fc8_2 <- fc7
I1124 17:47:37.017524 13466 net.cpp:356] fc8_2 -> fc8_2
I1124 17:47:37.017539 13466 net.cpp:96] Setting up fc8_2
I1124 17:47:37.017855 13466 net.cpp:103] Top shape: 8 2 1 1 (16)
I1124 17:47:37.017874 13466 layer_factory.hpp:78] Creating layer fc8_2_fc8_2_0_split
I1124 17:47:37.017889 13466 net.cpp:67] Creating Layer fc8_2_fc8_2_0_split
I1124 17:47:37.017900 13466 net.cpp:394] fc8_2_fc8_2_0_split <- fc8_2
I1124 17:47:37.017915 13466 net.cpp:356] fc8_2_fc8_2_0_split -> fc8_2_fc8_2_0_split_0
I1124 17:47:37.017930 13466 net.cpp:356] fc8_2_fc8_2_0_split -> fc8_2_fc8_2_0_split_1
I1124 17:47:37.017946 13466 net.cpp:96] Setting up fc8_2_fc8_2_0_split
I1124 17:47:37.017961 13466 net.cpp:103] Top shape: 8 2 1 1 (16)
I1124 17:47:37.017971 13466 net.cpp:103] Top shape: 8 2 1 1 (16)
I1124 17:47:37.017982 13466 layer_factory.hpp:78] Creating layer loss
I1124 17:47:37.017998 13466 net.cpp:67] Creating Layer loss
I1124 17:47:37.018010 13466 net.cpp:394] loss <- fc8_2_fc8_2_0_split_0
I1124 17:47:37.018023 13466 net.cpp:394] loss <- label_data_1_split_0
I1124 17:47:37.018039 13466 net.cpp:356] loss -> (automatic)
I1124 17:47:37.018053 13466 net.cpp:96] Setting up loss
I1124 17:47:37.018069 13466 net.cpp:103] Top shape: 1 1 1 1 (1)
I1124 17:47:37.018080 13466 net.cpp:109]     with loss weight 1
I1124 17:47:37.018102 13466 layer_factory.hpp:78] Creating layer accuracy
I1124 17:47:37.018116 13466 net.cpp:67] Creating Layer accuracy
I1124 17:47:37.018127 13466 net.cpp:394] accuracy <- fc8_2_fc8_2_0_split_1
I1124 17:47:37.018141 13466 net.cpp:394] accuracy <- label_data_1_split_1
I1124 17:47:37.018157 13466 net.cpp:356] accuracy -> accuracy
I1124 17:47:37.018172 13466 net.cpp:96] Setting up accuracy
I1124 17:47:37.018188 13466 net.cpp:103] Top shape: 1 1 1 4 (4)
I1124 17:47:37.018200 13466 net.cpp:172] accuracy does not need backward computation.
I1124 17:47:37.018210 13466 net.cpp:170] loss needs backward computation.
I1124 17:47:37.018221 13466 net.cpp:170] fc8_2_fc8_2_0_split needs backward computation.
I1124 17:47:37.018232 13466 net.cpp:170] fc8_2 needs backward computation.
I1124 17:47:37.018244 13466 net.cpp:170] drop7 needs backward computation.
…
