…
I1109 09:18:18.719380 12262 net.cpp:275] The NetState phase (0) differed from the phase (1) specified by a rule in layer accuracy
I1109 09:18:18.719740 12262 net.cpp:39] Initializing net from parameters: 
name: "small"
layers {
  top: "data"
  top: "label"
  name: "data"
  type: IMAGE_DATA
  image_data_param {
    source: "/data/ad6813/devCaffe/caffe/data/clamp_1flag_o/train.txt"
    batch_size: 8
    new_height: 256
    new_width: 256
  }
  include {
    phase: TRAIN
  }
  transform_param {
    mirror: true
    crop_size: 224
    mean_value: 86.752
    mean_value: 101.46
    mean_value: 104.6
  }
}
layers {
  bottom: "data"
  top: "conv1_1"
  name: "conv1_1"
  type: CONVOLUTION
  convolution_param {
    num_output: 64
    pad: 1
    kernel_size: 3
    weight_filler {
      type: "gaussian"
      std: 0.01
    }
    bias_filler {
      type: "constant"
      value: 0
    }
  }
}
layers {
  bottom: "conv1_1"
  top: "conv1_1"
  name: "relu1_1"
  type: RELU
}
layers {
  bottom: "conv1_1"
  top: "conv1_2"
  name: "conv1_2"
  type: CONVOLUTION
  convolution_param {
    num_output: 64
    pad: 1
    kernel_size: 3
    weight_filler {
      type: "gaussian"
      std: 0.01
    }
    bias_filler {
      type: "constant"
      value: 0
    }
  }
}
layers {
  bottom: "conv1_2"
  top: "conv1_2"
  name: "relu1_2"
  type: RELU
}
layers {
  bottom: "conv1_2"
  top: "pool1"
  name: "pool1"
  type: POOLING
  pooling_param {
    pool: MAX
    kernel_size: 2
    stride: 2
  }
}
layers {
  bottom: "pool1"
  top: "conv2_1"
  name: "conv2_1"
  type: CONVOLUTION
  convolution_param {
    num_output: 128
    pad: 1
    kernel_size: 3
    weight_filler {
      type: "gaussian"
      std: 0.01
    }
    bias_filler {
      type: "constant"
      value: 0
    }
  }
}
layers {
  bottom: "conv2_1"
  top: "conv2_1"
  name: "relu2_1"
  type: RELU
}
layers {
  bottom: "conv2_1"
  top: "conv2_2"
  name: "conv2_2"
  type: CONVOLUTION
  convolution_param {
    num_output: 128
    pad: 1
    kernel_size: 3
    weight_filler {
      type: "gaussian"
      std: 0.01
    }
    bias_filler {
      type: "constant"
      value: 0
    }
  }
}
layers {
  bottom: "conv2_2"
  top: "conv2_2"
  name: "relu2_2"
  type: RELU
}
layers {
  bottom: "conv2_2"
  top: "pool2"
  name: "pool2"
  type: POOLING
  pooling_param {
    pool: MAX
    kernel_size: 2
    stride: 2
  }
}
layers {
  bottom: "pool2"
  top: "conv3_1"
  name: "conv3_1"
  type: CONVOLUTION
  convolution_param {
    num_output: 256
    pad: 1
    kernel_size: 3
    weight_filler {
      type: "gaussian"
      std: 0.01
    }
    bias_filler {
      type: "constant"
      value: 0
    }
  }
}
layers {
  bottom: "conv3_1"
  top: "conv3_1"
  name: "relu3_1"
  type: RELU
}
layers {
  bottom: "conv3_1"
  top: "conv3_2"
  name: "conv3_2"
  type: CONVOLUTION
  convolution_param {
    num_output: 256
    pad: 1
    kernel_size: 3
    weight_filler {
      type: "gaussian"
      std: 0.01
    }
    bias_filler {
      type: "constant"
      value: 0
    }
  }
}
layers {
  bottom: "conv3_2"
  top: "conv3_2"
  name: "relu3_2"
  type: RELU
}
layers {
  bottom: "conv3_2"
  top: "conv3_3"
  name: "conv3_3"
  type: CONVOLUTION
  convolution_param {
    num_output: 256
    pad: 1
    kernel_size: 3
    weight_filler {
      type: "gaussian"
      std: 0.01
    }
    bias_filler {
      type: "constant"
      value: 0
    }
  }
}
layers {
  bottom: "conv3_3"
  top: "conv3_3"
  name: "relu3_3"
  type: RELU
}
layers {
  bottom: "conv3_3"
  top: "pool3"
  name: "pool3"
  type: POOLING
  pooling_param {
    pool: MAX
    kernel_size: 2
    stride: 2
  }
}
layers {
  bottom: "pool3"
  top: "conv4_1"
  name: "conv4_1"
  type: CONVOLUTION
  convolution_param {
    num_output: 512
    pad: 1
    kernel_size: 3
    weight_filler {
      type: "gaussian"
      std: 0.01
    }
    bias_filler {
      type: "constant"
      value: 0
    }
  }
}
layers {
  bottom: "conv4_1"
  top: "conv4_1"
  name: "relu4_1"
  type: RELU
}
layers {
  bottom: "conv4_1"
  top: "conv4_2"
  name: "conv4_2"
  type: CONVOLUTION
  convolution_param {
    num_output: 512
    pad: 1
    kernel_size: 3
    weight_filler {
      type: "gaussian"
      std: 0.01
    }
    bias_filler {
      type: "constant"
      value: 0
    }
  }
}
layers {
  bottom: "conv4_2"
  top: "conv4_2"
  name: "relu4_2"
  type: RELU
}
layers {
  bottom: "conv4_2"
  top: "conv4_3"
  name: "conv4_3"
  type: CONVOLUTION
  convolution_param {
    num_output: 512
    pad: 1
    kernel_size: 3
    weight_filler {
      type: "gaussian"
      std: 0.01
    }
    bias_filler {
      type: "constant"
      value: 0
    }
  }
}
layers {
  bottom: "conv4_3"
  top: "conv4_3"
  name: "relu4_3"
  type: RELU
}
layers {
  bottom: "conv4_3"
  top: "pool4"
  name: "pool4"
  type: POOLING
  pooling_param {
    pool: MAX
    kernel_size: 2
    stride: 2
  }
}
layers {
  bottom: "pool4"
  top: "conv5_1"
  name: "conv5_1"
  type: CONVOLUTION
  convolution_param {
    num_output: 512
    pad: 1
    kernel_size: 3
    weight_filler {
      type: "gaussian"
      std: 0.01
    }
    bias_filler {
      type: "constant"
      value: 0
    }
  }
}
layers {
  bottom: "conv5_1"
  top: "conv5_1"
  name: "relu5_1"
  type: RELU
}
layers {
  bottom: "conv5_1"
  top: "conv5_2"
  name: "conv5_2"
  type: CONVOLUTION
  convolution_param {
    num_output: 512
    pad: 1
    kernel_size: 3
    weight_filler {
      type: "gaussian"
      std: 0.01
    }
    bias_filler {
      type: "constant"
      value: 0
    }
  }
}
layers {
  bottom: "conv5_2"
  top: "conv5_2"
  name: "relu5_2"
  type: RELU
}
layers {
  bottom: "conv5_2"
  top: "conv5_3"
  name: "conv5_3"
  type: CONVOLUTION
  convolution_param {
    num_output: 512
    pad: 1
    kernel_size: 3
    weight_filler {
      type: "gaussian"
      std: 0.01
    }
    bias_filler {
      type: "constant"
      value: 0
    }
  }
}
layers {
  bottom: "conv5_3"
  top: "conv5_3"
  name: "relu5_3"
  type: RELU
}
layers {
  bottom: "conv5_3"
  top: "pool5"
  name: "pool5"
  type: POOLING
  pooling_param {
    pool: MAX
    kernel_size: 2
    stride: 2
  }
}
layers {
  bottom: "pool5"
  top: "fc6"
  name: "fc6"
  type: INNER_PRODUCT
  inner_product_param {
    num_output: 4096
    weight_filler {
      type: "gaussian"
      std: 0.01
    }
    bias_filler {
      type: "constant"
      value: 0
    }
  }
}
layers {
  bottom: "fc6"
  top: "fc6"
  name: "relu6"
  type: RELU
}
layers {
  bottom: "fc6"
  top: "fc6"
  name: "drop6"
  type: DROPOUT
  dropout_param {
    dropout_ratio: 0.5
  }
}
layers {
  bottom: "fc6"
  top: "fc7"
  name: "fc7"
  type: INNER_PRODUCT
  inner_product_param {
    num_output: 4096
    weight_filler {
      type: "gaussian"
      std: 0.01
    }
    bias_filler {
      type: "constant"
      value: 0
    }
  }
}
layers {
  bottom: "fc7"
  top: "fc7"
  name: "relu7"
  type: RELU
}
layers {
  bottom: "fc7"
  top: "fc7"
  name: "drop7"
  type: DROPOUT
  dropout_param {
    dropout_ratio: 0.5
  }
}
layers {
  bottom: "fc7"
  top: "fc8_2"
  name: "fc8_2"
  type: INNER_PRODUCT
  inner_product_param {
    num_output: 2
    weight_filler {
      type: "gaussian"
      std: 0.01
    }
    bias_filler {
      type: "constant"
      value: 0
    }
  }
}
layers {
  bottom: "fc8_2"
  bottom: "label"
  name: "loss"
  type: SOFTMAX_LOSS
}
state {
  phase: TRAIN
}
I1109 09:18:18.719948 12262 layer_factory.hpp:78] Creating layer data
I1109 09:18:18.719974 12262 net.cpp:67] Creating Layer data
I1109 09:18:18.719986 12262 net.cpp:356] data -> data
I1109 09:18:18.720017 12262 net.cpp:356] data -> label
I1109 09:18:18.720031 12262 net.cpp:96] Setting up data
I1109 09:18:18.720041 12262 image_data_layer.cpp:34] Opening file /data/ad6813/devCaffe/caffe/data/clamp_1flag_o/train.txt
I1109 09:18:18.837329 12262 image_data_layer.cpp:49] A total of 180809 images.
I1109 09:18:18.847982 12262 image_data_layer.cpp:78] output data size: 8,3,224,224
I1109 09:18:18.850276 12262 net.cpp:103] Top shape: 8 3 224 224 (1204224)
I1109 09:18:18.850301 12262 net.cpp:103] Top shape: 8 1 1 1 (8)
I1109 09:18:18.850308 12262 layer_factory.hpp:78] Creating layer conv1_1
I1109 09:18:18.850327 12262 net.cpp:67] Creating Layer conv1_1
I1109 09:18:18.850335 12262 net.cpp:394] conv1_1 <- data
I1109 09:18:18.850354 12262 net.cpp:356] conv1_1 -> conv1_1
I1109 09:18:18.850373 12262 net.cpp:96] Setting up conv1_1
I1109 09:18:18.881114 12262 net.cpp:103] Top shape: 8 64 224 224 (25690112)
I1109 09:18:18.881191 12262 layer_factory.hpp:78] Creating layer relu1_1
I1109 09:18:18.881211 12262 net.cpp:67] Creating Layer relu1_1
I1109 09:18:18.881218 12262 net.cpp:394] relu1_1 <- conv1_1
I1109 09:18:18.881232 12262 net.cpp:345] relu1_1 -> conv1_1 (in-place)
I1109 09:18:18.881247 12262 net.cpp:96] Setting up relu1_1
I1109 09:18:18.881261 12262 net.cpp:103] Top shape: 8 64 224 224 (25690112)
I1109 09:18:18.881268 12262 layer_factory.hpp:78] Creating layer conv1_2
I1109 09:18:18.881278 12262 net.cpp:67] Creating Layer conv1_2
I1109 09:18:18.881283 12262 net.cpp:394] conv1_2 <- conv1_1
I1109 09:18:18.881294 12262 net.cpp:356] conv1_2 -> conv1_2
I1109 09:18:18.881305 12262 net.cpp:96] Setting up conv1_2
I1109 09:18:18.883350 12262 net.cpp:103] Top shape: 8 64 224 224 (25690112)
I1109 09:18:18.883375 12262 layer_factory.hpp:78] Creating layer relu1_2
I1109 09:18:18.883388 12262 net.cpp:67] Creating Layer relu1_2
I1109 09:18:18.883395 12262 net.cpp:394] relu1_2 <- conv1_2
I1109 09:18:18.883404 12262 net.cpp:345] relu1_2 -> conv1_2 (in-place)
I1109 09:18:18.883412 12262 net.cpp:96] Setting up relu1_2
I1109 09:18:18.883422 12262 net.cpp:103] Top shape: 8 64 224 224 (25690112)
I1109 09:18:18.883429 12262 layer_factory.hpp:78] Creating layer pool1
I1109 09:18:18.883440 12262 net.cpp:67] Creating Layer pool1
I1109 09:18:18.883445 12262 net.cpp:394] pool1 <- conv1_2
I1109 09:18:18.883456 12262 net.cpp:356] pool1 -> pool1
I1109 09:18:18.883466 12262 net.cpp:96] Setting up pool1
I1109 09:18:18.883491 12262 net.cpp:103] Top shape: 8 64 112 112 (6422528)
I1109 09:18:18.883498 12262 layer_factory.hpp:78] Creating layer conv2_1
I1109 09:18:18.883507 12262 net.cpp:67] Creating Layer conv2_1
I1109 09:18:18.883512 12262 net.cpp:394] conv2_1 <- pool1
I1109 09:18:18.883524 12262 net.cpp:356] conv2_1 -> conv2_1
I1109 09:18:18.883534 12262 net.cpp:96] Setting up conv2_1
I1109 09:18:18.887255 12262 net.cpp:103] Top shape: 8 128 112 112 (12845056)
I1109 09:18:18.887281 12262 layer_factory.hpp:78] Creating layer relu2_1
I1109 09:18:18.887290 12262 net.cpp:67] Creating Layer relu2_1
I1109 09:18:18.887296 12262 net.cpp:394] relu2_1 <- conv2_1
I1109 09:18:18.887310 12262 net.cpp:345] relu2_1 -> conv2_1 (in-place)
I1109 09:18:18.887320 12262 net.cpp:96] Setting up relu2_1
I1109 09:18:18.887329 12262 net.cpp:103] Top shape: 8 128 112 112 (12845056)
I1109 09:18:18.887336 12262 layer_factory.hpp:78] Creating layer conv2_2
I1109 09:18:18.887353 12262 net.cpp:67] Creating Layer conv2_2
I1109 09:18:18.887361 12262 net.cpp:394] conv2_2 <- conv2_1
I1109 09:18:18.887370 12262 net.cpp:356] conv2_2 -> conv2_2
I1109 09:18:18.887380 12262 net.cpp:96] Setting up conv2_2
I1109 09:18:18.894673 12262 net.cpp:103] Top shape: 8 128 112 112 (12845056)
I1109 09:18:18.894696 12262 layer_factory.hpp:78] Creating layer relu2_2
I1109 09:18:18.894706 12262 net.cpp:67] Creating Layer relu2_2
I1109 09:18:18.894711 12262 net.cpp:394] relu2_2 <- conv2_2
I1109 09:18:18.894722 12262 net.cpp:345] relu2_2 -> conv2_2 (in-place)
I1109 09:18:18.894731 12262 net.cpp:96] Setting up relu2_2
I1109 09:18:18.894742 12262 net.cpp:103] Top shape: 8 128 112 112 (12845056)
I1109 09:18:18.894760 12262 layer_factory.hpp:78] Creating layer pool2
I1109 09:18:18.894768 12262 net.cpp:67] Creating Layer pool2
I1109 09:18:18.894774 12262 net.cpp:394] pool2 <- conv2_2
I1109 09:18:18.894785 12262 net.cpp:356] pool2 -> pool2
I1109 09:18:18.894794 12262 net.cpp:96] Setting up pool2
I1109 09:18:18.894805 12262 net.cpp:103] Top shape: 8 128 56 56 (3211264)
I1109 09:18:18.894811 12262 layer_factory.hpp:78] Creating layer conv3_1
I1109 09:18:18.894819 12262 net.cpp:67] Creating Layer conv3_1
I1109 09:18:18.894825 12262 net.cpp:394] conv3_1 <- pool2
I1109 09:18:18.894835 12262 net.cpp:356] conv3_1 -> conv3_1
I1109 09:18:18.894847 12262 net.cpp:96] Setting up conv3_1
I1109 09:18:18.909276 12262 net.cpp:103] Top shape: 8 256 56 56 (6422528)
I1109 09:18:18.909307 12262 layer_factory.hpp:78] Creating layer relu3_1
I1109 09:18:18.909317 12262 net.cpp:67] Creating Layer relu3_1
I1109 09:18:18.909322 12262 net.cpp:394] relu3_1 <- conv3_1
I1109 09:18:18.909332 12262 net.cpp:345] relu3_1 -> conv3_1 (in-place)
I1109 09:18:18.909340 12262 net.cpp:96] Setting up relu3_1
I1109 09:18:18.909349 12262 net.cpp:103] Top shape: 8 256 56 56 (6422528)
I1109 09:18:18.909355 12262 layer_factory.hpp:78] Creating layer conv3_2
I1109 09:18:18.909369 12262 net.cpp:67] Creating Layer conv3_2
I1109 09:18:18.909375 12262 net.cpp:394] conv3_2 <- conv3_1
I1109 09:18:18.909385 12262 net.cpp:356] conv3_2 -> conv3_2
I1109 09:18:18.909395 12262 net.cpp:96] Setting up conv3_2
I1109 09:18:18.938369 12262 net.cpp:103] Top shape: 8 256 56 56 (6422528)
I1109 09:18:18.938395 12262 layer_factory.hpp:78] Creating layer relu3_2
I1109 09:18:18.938405 12262 net.cpp:67] Creating Layer relu3_2
I1109 09:18:18.938410 12262 net.cpp:394] relu3_2 <- conv3_2
I1109 09:18:18.938419 12262 net.cpp:345] relu3_2 -> conv3_2 (in-place)
I1109 09:18:18.938429 12262 net.cpp:96] Setting up relu3_2
I1109 09:18:18.938438 12262 net.cpp:103] Top shape: 8 256 56 56 (6422528)
I1109 09:18:18.938444 12262 layer_factory.hpp:78] Creating layer conv3_3
I1109 09:18:18.938453 12262 net.cpp:67] Creating Layer conv3_3
I1109 09:18:18.938458 12262 net.cpp:394] conv3_3 <- conv3_2
I1109 09:18:18.938472 12262 net.cpp:356] conv3_3 -> conv3_3
I1109 09:18:18.938482 12262 net.cpp:96] Setting up conv3_3
I1109 09:18:18.966780 12262 net.cpp:103] Top shape: 8 256 56 56 (6422528)
I1109 09:18:18.966804 12262 layer_factory.hpp:78] Creating layer relu3_3
I1109 09:18:18.966815 12262 net.cpp:67] Creating Layer relu3_3
I1109 09:18:18.966821 12262 net.cpp:394] relu3_3 <- conv3_3
I1109 09:18:18.966830 12262 net.cpp:345] relu3_3 -> conv3_3 (in-place)
I1109 09:18:18.966837 12262 net.cpp:96] Setting up relu3_3
I1109 09:18:18.966847 12262 net.cpp:103] Top shape: 8 256 56 56 (6422528)
I1109 09:18:18.966853 12262 layer_factory.hpp:78] Creating layer pool3
I1109 09:18:18.966862 12262 net.cpp:67] Creating Layer pool3
I1109 09:18:18.966867 12262 net.cpp:394] pool3 <- conv3_3
I1109 09:18:18.966876 12262 net.cpp:356] pool3 -> pool3
I1109 09:18:18.966884 12262 net.cpp:96] Setting up pool3
I1109 09:18:18.966898 12262 net.cpp:103] Top shape: 8 256 28 28 (1605632)
I1109 09:18:18.966905 12262 layer_factory.hpp:78] Creating layer conv4_1
I1109 09:18:18.966913 12262 net.cpp:67] Creating Layer conv4_1
I1109 09:18:18.966919 12262 net.cpp:394] conv4_1 <- pool3
I1109 09:18:18.966928 12262 net.cpp:356] conv4_1 -> conv4_1
I1109 09:18:18.966936 12262 net.cpp:96] Setting up conv4_1
I1109 09:18:19.023964 12262 net.cpp:103] Top shape: 8 512 28 28 (3211264)
I1109 09:18:19.023995 12262 layer_factory.hpp:78] Creating layer relu4_1
I1109 09:18:19.024008 12262 net.cpp:67] Creating Layer relu4_1
I1109 09:18:19.024015 12262 net.cpp:394] relu4_1 <- conv4_1
I1109 09:18:19.024024 12262 net.cpp:345] relu4_1 -> conv4_1 (in-place)
I1109 09:18:19.024034 12262 net.cpp:96] Setting up relu4_1
I1109 09:18:19.024044 12262 net.cpp:103] Top shape: 8 512 28 28 (3211264)
I1109 09:18:19.024049 12262 layer_factory.hpp:78] Creating layer conv4_2
I1109 09:18:19.024061 12262 net.cpp:67] Creating Layer conv4_2
I1109 09:18:19.024067 12262 net.cpp:394] conv4_2 <- conv4_1
I1109 09:18:19.024087 12262 net.cpp:356] conv4_2 -> conv4_2
I1109 09:18:19.024098 12262 net.cpp:96] Setting up conv4_2
I1109 09:18:19.137498 12262 net.cpp:103] Top shape: 8 512 28 28 (3211264)
I1109 09:18:19.137548 12262 layer_factory.hpp:78] Creating layer relu4_2
I1109 09:18:19.137564 12262 net.cpp:67] Creating Layer relu4_2
I1109 09:18:19.137573 12262 net.cpp:394] relu4_2 <- conv4_2
I1109 09:18:19.137583 12262 net.cpp:345] relu4_2 -> conv4_2 (in-place)
I1109 09:18:19.137593 12262 net.cpp:96] Setting up relu4_2
I1109 09:18:19.137603 12262 net.cpp:103] Top shape: 8 512 28 28 (3211264)
I1109 09:18:19.137610 12262 layer_factory.hpp:78] Creating layer conv4_3
I1109 09:18:19.137619 12262 net.cpp:67] Creating Layer conv4_3
I1109 09:18:19.137625 12262 net.cpp:394] conv4_3 <- conv4_2
I1109 09:18:19.137636 12262 net.cpp:356] conv4_3 -> conv4_3
I1109 09:18:19.137646 12262 net.cpp:96] Setting up conv4_3
I1109 09:18:19.250663 12262 net.cpp:103] Top shape: 8 512 28 28 (3211264)
I1109 09:18:19.250705 12262 layer_factory.hpp:78] Creating layer relu4_3
I1109 09:18:19.250718 12262 net.cpp:67] Creating Layer relu4_3
I1109 09:18:19.250725 12262 net.cpp:394] relu4_3 <- conv4_3
I1109 09:18:19.250735 12262 net.cpp:345] relu4_3 -> conv4_3 (in-place)
I1109 09:18:19.250746 12262 net.cpp:96] Setting up relu4_3
I1109 09:18:19.250757 12262 net.cpp:103] Top shape: 8 512 28 28 (3211264)
I1109 09:18:19.250763 12262 layer_factory.hpp:78] Creating layer pool4
I1109 09:18:19.250771 12262 net.cpp:67] Creating Layer pool4
I1109 09:18:19.250777 12262 net.cpp:394] pool4 <- conv4_3
I1109 09:18:19.250789 12262 net.cpp:356] pool4 -> pool4
I1109 09:18:19.250799 12262 net.cpp:96] Setting up pool4
I1109 09:18:19.250812 12262 net.cpp:103] Top shape: 8 512 14 14 (802816)
I1109 09:18:19.250818 12262 layer_factory.hpp:78] Creating layer conv5_1
I1109 09:18:19.250830 12262 net.cpp:67] Creating Layer conv5_1
I1109 09:18:19.250836 12262 net.cpp:394] conv5_1 <- pool4
I1109 09:18:19.250844 12262 net.cpp:356] conv5_1 -> conv5_1
I1109 09:18:19.250857 12262 net.cpp:96] Setting up conv5_1
I1109 09:18:19.364970 12262 net.cpp:103] Top shape: 8 512 14 14 (802816)
I1109 09:18:19.365013 12262 layer_factory.hpp:78] Creating layer relu5_1
I1109 09:18:19.365030 12262 net.cpp:67] Creating Layer relu5_1
I1109 09:18:19.365036 12262 net.cpp:394] relu5_1 <- conv5_1
I1109 09:18:19.365047 12262 net.cpp:345] relu5_1 -> conv5_1 (in-place)
I1109 09:18:19.365058 12262 net.cpp:96] Setting up relu5_1
I1109 09:18:19.365068 12262 net.cpp:103] Top shape: 8 512 14 14 (802816)
I1109 09:18:19.365074 12262 layer_factory.hpp:78] Creating layer conv5_2
I1109 09:18:19.365087 12262 net.cpp:67] Creating Layer conv5_2
I1109 09:18:19.365092 12262 net.cpp:394] conv5_2 <- conv5_1
I1109 09:18:19.365102 12262 net.cpp:356] conv5_2 -> conv5_2
I1109 09:18:19.365111 12262 net.cpp:96] Setting up conv5_2
I1109 09:18:19.478261 12262 net.cpp:103] Top shape: 8 512 14 14 (802816)
I1109 09:18:19.478306 12262 layer_factory.hpp:78] Creating layer relu5_2
I1109 09:18:19.478320 12262 net.cpp:67] Creating Layer relu5_2
I1109 09:18:19.478328 12262 net.cpp:394] relu5_2 <- conv5_2
I1109 09:18:19.478338 12262 net.cpp:345] relu5_2 -> conv5_2 (in-place)
I1109 09:18:19.478349 12262 net.cpp:96] Setting up relu5_2
I1109 09:18:19.478360 12262 net.cpp:103] Top shape: 8 512 14 14 (802816)
I1109 09:18:19.478366 12262 layer_factory.hpp:78] Creating layer conv5_3
I1109 09:18:19.478375 12262 net.cpp:67] Creating Layer conv5_3
I1109 09:18:19.478381 12262 net.cpp:394] conv5_3 <- conv5_2
I1109 09:18:19.478392 12262 net.cpp:356] conv5_3 -> conv5_3
I1109 09:18:19.478404 12262 net.cpp:96] Setting up conv5_3
I1109 09:18:19.591502 12262 net.cpp:103] Top shape: 8 512 14 14 (802816)
I1109 09:18:19.591545 12262 layer_factory.hpp:78] Creating layer relu5_3
I1109 09:18:19.591562 12262 net.cpp:67] Creating Layer relu5_3
I1109 09:18:19.591569 12262 net.cpp:394] relu5_3 <- conv5_3
I1109 09:18:19.591580 12262 net.cpp:345] relu5_3 -> conv5_3 (in-place)
I1109 09:18:19.591591 12262 net.cpp:96] Setting up relu5_3
I1109 09:18:19.591601 12262 net.cpp:103] Top shape: 8 512 14 14 (802816)
I1109 09:18:19.591624 12262 layer_factory.hpp:78] Creating layer pool5
I1109 09:18:19.591635 12262 net.cpp:67] Creating Layer pool5
I1109 09:18:19.591641 12262 net.cpp:394] pool5 <- conv5_3
I1109 09:18:19.591650 12262 net.cpp:356] pool5 -> pool5
I1109 09:18:19.591660 12262 net.cpp:96] Setting up pool5
I1109 09:18:19.591672 12262 net.cpp:103] Top shape: 8 512 7 7 (200704)
I1109 09:18:19.591678 12262 layer_factory.hpp:78] Creating layer fc6
I1109 09:18:19.591703 12262 net.cpp:67] Creating Layer fc6
I1109 09:18:19.591711 12262 net.cpp:394] fc6 <- pool5
I1109 09:18:19.591719 12262 net.cpp:356] fc6 -> fc6
I1109 09:18:19.591732 12262 net.cpp:96] Setting up fc6
I1109 09:18:24.488420 12262 net.cpp:103] Top shape: 8 4096 1 1 (32768)
I1109 09:18:24.488464 12262 layer_factory.hpp:78] Creating layer relu6
I1109 09:18:24.488477 12262 net.cpp:67] Creating Layer relu6
I1109 09:18:24.488486 12262 net.cpp:394] relu6 <- fc6
I1109 09:18:24.488495 12262 net.cpp:345] relu6 -> fc6 (in-place)
I1109 09:18:24.488507 12262 net.cpp:96] Setting up relu6
I1109 09:18:24.488528 12262 net.cpp:103] Top shape: 8 4096 1 1 (32768)
I1109 09:18:24.488534 12262 layer_factory.hpp:78] Creating layer drop6
I1109 09:18:24.488550 12262 net.cpp:67] Creating Layer drop6
I1109 09:18:24.488556 12262 net.cpp:394] drop6 <- fc6
I1109 09:18:24.488565 12262 net.cpp:345] drop6 -> fc6 (in-place)
I1109 09:18:24.488574 12262 net.cpp:96] Setting up drop6
I1109 09:18:24.488582 12262 net.cpp:103] Top shape: 8 4096 1 1 (32768)
I1109 09:18:24.488589 12262 layer_factory.hpp:78] Creating layer fc7
I1109 09:18:24.488597 12262 net.cpp:67] Creating Layer fc7
I1109 09:18:24.488602 12262 net.cpp:394] fc7 <- fc6
I1109 09:18:24.488610 12262 net.cpp:356] fc7 -> fc7
I1109 09:18:24.488620 12262 net.cpp:96] Setting up fc7
I1109 09:18:25.289718 12262 net.cpp:103] Top shape: 8 4096 1 1 (32768)
I1109 09:18:25.289762 12262 layer_factory.hpp:78] Creating layer relu7
I1109 09:18:25.289774 12262 net.cpp:67] Creating Layer relu7
I1109 09:18:25.289782 12262 net.cpp:394] relu7 <- fc7
I1109 09:18:25.289795 12262 net.cpp:345] relu7 -> fc7 (in-place)
I1109 09:18:25.289806 12262 net.cpp:96] Setting up relu7
I1109 09:18:25.289829 12262 net.cpp:103] Top shape: 8 4096 1 1 (32768)
I1109 09:18:25.289834 12262 layer_factory.hpp:78] Creating layer drop7
I1109 09:18:25.289842 12262 net.cpp:67] Creating Layer drop7
I1109 09:18:25.289849 12262 net.cpp:394] drop7 <- fc7
I1109 09:18:25.289856 12262 net.cpp:345] drop7 -> fc7 (in-place)
I1109 09:18:25.289866 12262 net.cpp:96] Setting up drop7
I1109 09:18:25.289873 12262 net.cpp:103] Top shape: 8 4096 1 1 (32768)
I1109 09:18:25.289878 12262 layer_factory.hpp:78] Creating layer fc8_2
I1109 09:18:25.289887 12262 net.cpp:67] Creating Layer fc8_2
I1109 09:18:25.289893 12262 net.cpp:394] fc8_2 <- fc7
I1109 09:18:25.289901 12262 net.cpp:356] fc8_2 -> fc8_2
I1109 09:18:25.289911 12262 net.cpp:96] Setting up fc8_2
I1109 09:18:25.290338 12262 net.cpp:103] Top shape: 8 2 1 1 (16)
I1109 09:18:25.290354 12262 layer_factory.hpp:78] Creating layer loss
I1109 09:18:25.290372 12262 net.cpp:67] Creating Layer loss
I1109 09:18:25.290380 12262 net.cpp:394] loss <- fc8_2
I1109 09:18:25.290385 12262 net.cpp:394] loss <- label
I1109 09:18:25.290400 12262 net.cpp:356] loss -> (automatic)
I1109 09:18:25.290407 12262 net.cpp:96] Setting up loss
I1109 09:18:25.290419 12262 net.cpp:103] Top shape: 1 1 1 1 (1)
I1109 09:18:25.290426 12262 net.cpp:109]     with loss weight 1
I1109 09:18:25.290467 12262 net.cpp:170] loss needs backward computation.
I1109 09:18:25.290472 12262 net.cpp:170] fc8_2 needs backward computation.
I1109 09:18:25.290478 12262 net.cpp:170] drop7 needs backward computation.
I1109 09:18:25.290482 12262 net.cpp:170] relu7 needs backward computation.
I1109 09:18:25.290488 12262 net.cpp:170] fc7 needs backward computation.
…
I1109 09:18:25.292323 12262 net.cpp:275] The NetState phase (1) differed from the phase (0) specified by a rule in layer data
I1109 09:18:25.292704 12262 net.cpp:39] Initializing net from parameters: 
name: "small"
layers {
  top: "data"
  top: "label"
  name: "data"
  type: IMAGE_DATA
  image_data_param {
    source: "/data/ad6813/devCaffe/caffe/data/clamp_1flag_o/val.txt"
    batch_size: 8
    new_height: 256
    new_width: 256
  }
  include {
    phase: TEST
  }
  transform_param {
    mirror: true
    crop_size: 224
    mean_value: 86.752
    mean_value: 101.46
    mean_value: 104.6
  }
}
layers {
  bottom: "data"
  top: "conv1_1"
  name: "conv1_1"
  type: CONVOLUTION
  convolution_param {
    num_output: 64
    pad: 1
    kernel_size: 3
    weight_filler {
      type: "gaussian"
      std: 0.01
    }
    bias_filler {
      type: "constant"
      value: 0
    }
  }
}
layers {
  bottom: "conv1_1"
  top: "conv1_1"
  name: "relu1_1"
  type: RELU
}
layers {
  bottom: "conv1_1"
  top: "conv1_2"
  name: "conv1_2"
  type: CONVOLUTION
  convolution_param {
    num_output: 64
    pad: 1
    kernel_size: 3
    weight_filler {
      type: "gaussian"
      std: 0.01
    }
    bias_filler {
      type: "constant"
      value: 0
    }
  }
}
layers {
  bottom: "conv1_2"
  top: "conv1_2"
  name: "relu1_2"
  type: RELU
}
layers {
  bottom: "conv1_2"
  top: "pool1"
  name: "pool1"
  type: POOLING
  pooling_param {
    pool: MAX
    kernel_size: 2
    stride: 2
  }
}
layers {
  bottom: "pool1"
  top: "conv2_1"
  name: "conv2_1"
  type: CONVOLUTION
  convolution_param {
    num_output: 128
    pad: 1
    kernel_size: 3
    weight_filler {
      type: "gaussian"
      std: 0.01
    }
    bias_filler {
      type: "constant"
      value: 0
    }
  }
}
layers {
  bottom: "conv2_1"
  top: "conv2_1"
  name: "relu2_1"
  type: RELU
}
layers {
  bottom: "conv2_1"
  top: "conv2_2"
  name: "conv2_2"
  type: CONVOLUTION
  convolution_param {
    num_output: 128
    pad: 1
    kernel_size: 3
    weight_filler {
      type: "gaussian"
      std: 0.01
    }
    bias_filler {
      type: "constant"
      value: 0
    }
  }
}
layers {
  bottom: "conv2_2"
  top: "conv2_2"
  name: "relu2_2"
  type: RELU
}
layers {
  bottom: "conv2_2"
  top: "pool2"
  name: "pool2"
  type: POOLING
  pooling_param {
    pool: MAX
    kernel_size: 2
    stride: 2
  }
}
layers {
  bottom: "pool2"
  top: "conv3_1"
  name: "conv3_1"
  type: CONVOLUTION
  convolution_param {
    num_output: 256
    pad: 1
    kernel_size: 3
    weight_filler {
      type: "gaussian"
      std: 0.01
    }
    bias_filler {
      type: "constant"
      value: 0
    }
  }
}
layers {
  bottom: "conv3_1"
  top: "conv3_1"
  name: "relu3_1"
  type: RELU
}
layers {
  bottom: "conv3_1"
  top: "conv3_2"
  name: "conv3_2"
  type: CONVOLUTION
  convolution_param {
    num_output: 256
    pad: 1
    kernel_size: 3
    weight_filler {
      type: "gaussian"
      std: 0.01
    }
    bias_filler {
      type: "constant"
      value: 0
    }
  }
}
layers {
  bottom: "conv3_2"
  top: "conv3_2"
  name: "relu3_2"
  type: RELU
}
layers {
  bottom: "conv3_2"
  top: "conv3_3"
  name: "conv3_3"
  type: CONVOLUTION
  convolution_param {
    num_output: 256
    pad: 1
    kernel_size: 3
    weight_filler {
      type: "gaussian"
      std: 0.01
    }
    bias_filler {
      type: "constant"
      value: 0
    }
  }
}
layers {
  bottom: "conv3_3"
  top: "conv3_3"
  name: "relu3_3"
  type: RELU
}
layers {
  bottom: "conv3_3"
  top: "pool3"
  name: "pool3"
  type: POOLING
  pooling_param {
    pool: MAX
    kernel_size: 2
    stride: 2
  }
}
layers {
  bottom: "pool3"
  top: "conv4_1"
  name: "conv4_1"
  type: CONVOLUTION
  convolution_param {
    num_output: 512
    pad: 1
    kernel_size: 3
    weight_filler {
      type: "gaussian"
      std: 0.01
    }
    bias_filler {
      type: "constant"
      value: 0
    }
  }
}
layers {
  bottom: "conv4_1"
  top: "conv4_1"
  name: "relu4_1"
  type: RELU
}
layers {
  bottom: "conv4_1"
  top: "conv4_2"
  name: "conv4_2"
  type: CONVOLUTION
  convolution_param {
    num_output: 512
    pad: 1
    kernel_size: 3
    weight_filler {
      type: "gaussian"
      std: 0.01
    }
    bias_filler {
      type: "constant"
      value: 0
    }
  }
}
layers {
  bottom: "conv4_2"
  top: "conv4_2"
  name: "relu4_2"
  type: RELU
}
layers {
  bottom: "conv4_2"
  top: "conv4_3"
  name: "conv4_3"
  type: CONVOLUTION
  convolution_param {
    num_output: 512
    pad: 1
    kernel_size: 3
    weight_filler {
      type: "gaussian"
      std: 0.01
    }
    bias_filler {
      type: "constant"
      value: 0
    }
  }
}
layers {
  bottom: "conv4_3"
  top: "conv4_3"
  name: "relu4_3"
  type: RELU
}
layers {
  bottom: "conv4_3"
  top: "pool4"
  name: "pool4"
  type: POOLING
  pooling_param {
    pool: MAX
    kernel_size: 2
    stride: 2
  }
}
layers {
  bottom: "pool4"
  top: "conv5_1"
  name: "conv5_1"
  type: CONVOLUTION
  convolution_param {
    num_output: 512
    pad: 1
    kernel_size: 3
    weight_filler {
      type: "gaussian"
      std: 0.01
    }
    bias_filler {
      type: "constant"
      value: 0
    }
  }
}
layers {
  bottom: "conv5_1"
  top: "conv5_1"
  name: "relu5_1"
  type: RELU
}
layers {
  bottom: "conv5_1"
  top: "conv5_2"
  name: "conv5_2"
  type: CONVOLUTION
  convolution_param {
    num_output: 512
    pad: 1
    kernel_size: 3
    weight_filler {
      type: "gaussian"
      std: 0.01
    }
    bias_filler {
      type: "constant"
      value: 0
    }
  }
}
layers {
  bottom: "conv5_2"
  top: "conv5_2"
  name: "relu5_2"
  type: RELU
}
layers {
  bottom: "conv5_2"
  top: "conv5_3"
  name: "conv5_3"
  type: CONVOLUTION
  convolution_param {
    num_output: 512
    pad: 1
    kernel_size: 3
    weight_filler {
      type: "gaussian"
      std: 0.01
    }
    bias_filler {
      type: "constant"
      value: 0
    }
  }
}
layers {
  bottom: "conv5_3"
  top: "conv5_3"
  name: "relu5_3"
  type: RELU
}
layers {
  bottom: "conv5_3"
  top: "pool5"
  name: "pool5"
  type: POOLING
  pooling_param {
    pool: MAX
    kernel_size: 2
    stride: 2
  }
}
layers {
  bottom: "pool5"
  top: "fc6"
  name: "fc6"
  type: INNER_PRODUCT
  inner_product_param {
    num_output: 4096
    weight_filler {
      type: "gaussian"
      std: 0.01
    }
    bias_filler {
      type: "constant"
      value: 0
    }
  }
}
layers {
  bottom: "fc6"
  top: "fc6"
  name: "relu6"
  type: RELU
}
layers {
  bottom: "fc6"
  top: "fc6"
  name: "drop6"
  type: DROPOUT
  dropout_param {
    dropout_ratio: 0.5
  }
}
layers {
  bottom: "fc6"
  top: "fc7"
  name: "fc7"
  type: INNER_PRODUCT
  inner_product_param {
    num_output: 4096
    weight_filler {
      type: "gaussian"
      std: 0.01
    }
    bias_filler {
      type: "constant"
      value: 0
    }
  }
}
layers {
  bottom: "fc7"
  top: "fc7"
  name: "relu7"
  type: RELU
}
layers {
  bottom: "fc7"
  top: "fc7"
  name: "drop7"
  type: DROPOUT
  dropout_param {
    dropout_ratio: 0.5
  }
}
layers {
  bottom: "fc7"
  top: "fc8_2"
  name: "fc8_2"
  type: INNER_PRODUCT
  inner_product_param {
    num_output: 2
    weight_filler {
      type: "gaussian"
      std: 0.01
    }
    bias_filler {
      type: "constant"
      value: 0
    }
  }
}
layers {
  bottom: "fc8_2"
  bottom: "label"
  name: "loss"
  type: SOFTMAX_LOSS
}
layers {
  bottom: "fc8_2"
  bottom: "label"
  top: "accuracy"
  name: "accuracy"
  type: PER_CLASS_ACCURACY
  include {
    phase: TEST
  }
}
state {
  phase: TEST
}
I1109 09:18:25.292930 12262 layer_factory.hpp:78] Creating layer data
I1109 09:18:25.292948 12262 net.cpp:67] Creating Layer data
I1109 09:18:25.292956 12262 net.cpp:356] data -> data
I1109 09:18:25.292969 12262 net.cpp:356] data -> label
I1109 09:18:25.292979 12262 net.cpp:96] Setting up data
I1109 09:18:25.292985 12262 image_data_layer.cpp:34] Opening file /data/ad6813/devCaffe/caffe/data/clamp_1flag_o/val.txt
I1109 09:18:25.293675 12262 image_data_layer.cpp:49] A total of 1000 images.
I1109 09:18:25.308122 12262 image_data_layer.cpp:78] output data size: 8,3,224,224
I1109 09:18:25.309707 12262 net.cpp:103] Top shape: 8 3 224 224 (1204224)
I1109 09:18:25.309725 12262 net.cpp:103] Top shape: 8 1 1 1 (8)
I1109 09:18:25.309732 12262 layer_factory.hpp:78] Creating layer label_data_1_split
I1109 09:18:25.309748 12262 net.cpp:67] Creating Layer label_data_1_split
I1109 09:18:25.309756 12262 net.cpp:394] label_data_1_split <- label
I1109 09:18:25.309766 12262 net.cpp:356] label_data_1_split -> label_data_1_split_0
I1109 09:18:25.309780 12262 net.cpp:356] label_data_1_split -> label_data_1_split_1
I1109 09:18:25.309789 12262 net.cpp:96] Setting up label_data_1_split
I1109 09:18:25.309798 12262 net.cpp:103] Top shape: 8 1 1 1 (8)
I1109 09:18:25.309805 12262 net.cpp:103] Top shape: 8 1 1 1 (8)
I1109 09:18:25.309810 12262 layer_factory.hpp:78] Creating layer conv1_1
I1109 09:18:25.309820 12262 net.cpp:67] Creating Layer conv1_1
I1109 09:18:25.309826 12262 net.cpp:394] conv1_1 <- data
I1109 09:18:25.309834 12262 net.cpp:356] conv1_1 -> conv1_1
I1109 09:18:25.309844 12262 net.cpp:96] Setting up conv1_1
I1109 09:18:25.310199 12262 net.cpp:103] Top shape: 8 64 224 224 (25690112)
I1109 09:18:25.310225 12262 layer_factory.hpp:78] Creating layer relu1_1
I1109 09:18:25.310235 12262 net.cpp:67] Creating Layer relu1_1
I1109 09:18:25.310242 12262 net.cpp:394] relu1_1 <- conv1_1
I1109 09:18:25.310250 12262 net.cpp:345] relu1_1 -> conv1_1 (in-place)
I1109 09:18:25.310259 12262 net.cpp:96] Setting up relu1_1
I1109 09:18:25.310281 12262 net.cpp:103] Top shape: 8 64 224 224 (25690112)
I1109 09:18:25.310288 12262 layer_factory.hpp:78] Creating layer conv1_2
I1109 09:18:25.310298 12262 net.cpp:67] Creating Layer conv1_2
I1109 09:18:25.310304 12262 net.cpp:394] conv1_2 <- conv1_1
I1109 09:18:25.310313 12262 net.cpp:356] conv1_2 -> conv1_2
I1109 09:18:25.310322 12262 net.cpp:96] Setting up conv1_2
I1109 09:18:25.312304 12262 net.cpp:103] Top shape: 8 64 224 224 (25690112)
I1109 09:18:25.312330 12262 layer_factory.hpp:78] Creating layer relu1_2
I1109 09:18:25.312338 12262 net.cpp:67] Creating Layer relu1_2
I1109 09:18:25.312345 12262 net.cpp:394] relu1_2 <- conv1_2
I1109 09:18:25.312352 12262 net.cpp:345] relu1_2 -> conv1_2 (in-place)
I1109 09:18:25.312361 12262 net.cpp:96] Setting up relu1_2
I1109 09:18:25.312371 12262 net.cpp:103] Top shape: 8 64 224 224 (25690112)
I1109 09:18:25.312377 12262 layer_factory.hpp:78] Creating layer pool1
I1109 09:18:25.312386 12262 net.cpp:67] Creating Layer pool1
I1109 09:18:25.312391 12262 net.cpp:394] pool1 <- conv1_2
I1109 09:18:25.312399 12262 net.cpp:356] pool1 -> pool1
I1109 09:18:25.312408 12262 net.cpp:96] Setting up pool1
I1109 09:18:25.312419 12262 net.cpp:103] Top shape: 8 64 112 112 (6422528)
I1109 09:18:25.312425 12262 layer_factory.hpp:78] Creating layer conv2_1
I1109 09:18:25.312434 12262 net.cpp:67] Creating Layer conv2_1
I1109 09:18:25.312439 12262 net.cpp:394] conv2_1 <- pool1
I1109 09:18:25.312448 12262 net.cpp:356] conv2_1 -> conv2_1
I1109 09:18:25.312456 12262 net.cpp:96] Setting up conv2_1
I1109 09:18:25.316423 12262 net.cpp:103] Top shape: 8 128 112 112 (12845056)
I1109 09:18:25.316450 12262 layer_factory.hpp:78] Creating layer relu2_1
I1109 09:18:25.316462 12262 net.cpp:67] Creating Layer relu2_1
I1109 09:18:25.316468 12262 net.cpp:394] relu2_1 <- conv2_1
I1109 09:18:25.316479 12262 net.cpp:345] relu2_1 -> conv2_1 (in-place)
I1109 09:18:25.316489 12262 net.cpp:96] Setting up relu2_1
I1109 09:18:25.316500 12262 net.cpp:103] Top shape: 8 128 112 112 (12845056)
I1109 09:18:25.316506 12262 layer_factory.hpp:78] Creating layer conv2_2
I1109 09:18:25.316516 12262 net.cpp:67] Creating Layer conv2_2
I1109 09:18:25.316521 12262 net.cpp:394] conv2_2 <- conv2_1
I1109 09:18:25.316530 12262 net.cpp:356] conv2_2 -> conv2_2
I1109 09:18:25.316543 12262 net.cpp:96] Setting up conv2_2
I1109 09:18:25.323892 12262 net.cpp:103] Top shape: 8 128 112 112 (12845056)
I1109 09:18:25.323918 12262 layer_factory.hpp:78] Creating layer relu2_2
I1109 09:18:25.323927 12262 net.cpp:67] Creating Layer relu2_2
I1109 09:18:25.323933 12262 net.cpp:394] relu2_2 <- conv2_2
I1109 09:18:25.323942 12262 net.cpp:345] relu2_2 -> conv2_2 (in-place)
I1109 09:18:25.323951 12262 net.cpp:96] Setting up relu2_2
I1109 09:18:25.323961 12262 net.cpp:103] Top shape: 8 128 112 112 (12845056)
I1109 09:18:25.323966 12262 layer_factory.hpp:78] Creating layer pool2
I1109 09:18:25.323978 12262 net.cpp:67] Creating Layer pool2
I1109 09:18:25.323984 12262 net.cpp:394] pool2 <- conv2_2
I1109 09:18:25.323992 12262 net.cpp:356] pool2 -> pool2
I1109 09:18:25.324002 12262 net.cpp:96] Setting up pool2
I1109 09:18:25.324012 12262 net.cpp:103] Top shape: 8 128 56 56 (3211264)
I1109 09:18:25.324018 12262 layer_factory.hpp:78] Creating layer conv3_1
I1109 09:18:25.324029 12262 net.cpp:67] Creating Layer conv3_1
I1109 09:18:25.324035 12262 net.cpp:394] conv3_1 <- pool2
I1109 09:18:25.324043 12262 net.cpp:356] conv3_1 -> conv3_1
I1109 09:18:25.324053 12262 net.cpp:96] Setting up conv3_1
I1109 09:18:25.338544 12262 net.cpp:103] Top shape: 8 256 56 56 (6422528)
I1109 09:18:25.338585 12262 layer_factory.hpp:78] Creating layer relu3_1
I1109 09:18:25.338598 12262 net.cpp:67] Creating Layer relu3_1
I1109 09:18:25.338604 12262 net.cpp:394] relu3_1 <- conv3_1
I1109 09:18:25.338613 12262 net.cpp:345] relu3_1 -> conv3_1 (in-place)
I1109 09:18:25.338624 12262 net.cpp:96] Setting up relu3_1
I1109 09:18:25.338632 12262 net.cpp:103] Top shape: 8 256 56 56 (6422528)
I1109 09:18:25.338639 12262 layer_factory.hpp:78] Creating layer conv3_2
I1109 09:18:25.338661 12262 net.cpp:67] Creating Layer conv3_2
I1109 09:18:25.338668 12262 net.cpp:394] conv3_2 <- conv3_1
I1109 09:18:25.338677 12262 net.cpp:356] conv3_2 -> conv3_2
I1109 09:18:25.338687 12262 net.cpp:96] Setting up conv3_2
I1109 09:18:25.367560 12262 net.cpp:103] Top shape: 8 256 56 56 (6422528)
I1109 09:18:25.367597 12262 layer_factory.hpp:78] Creating layer relu3_2
I1109 09:18:25.367609 12262 net.cpp:67] Creating Layer relu3_2
I1109 09:18:25.367616 12262 net.cpp:394] relu3_2 <- conv3_2
I1109 09:18:25.367630 12262 net.cpp:345] relu3_2 -> conv3_2 (in-place)
I1109 09:18:25.367640 12262 net.cpp:96] Setting up relu3_2
I1109 09:18:25.367650 12262 net.cpp:103] Top shape: 8 256 56 56 (6422528)
I1109 09:18:25.367656 12262 layer_factory.hpp:78] Creating layer conv3_3
I1109 09:18:25.367669 12262 net.cpp:67] Creating Layer conv3_3
I1109 09:18:25.367674 12262 net.cpp:394] conv3_3 <- conv3_2
I1109 09:18:25.367687 12262 net.cpp:356] conv3_3 -> conv3_3
I1109 09:18:25.367697 12262 net.cpp:96] Setting up conv3_3
I1109 09:18:25.396775 12262 net.cpp:103] Top shape: 8 256 56 56 (6422528)
I1109 09:18:25.396812 12262 layer_factory.hpp:78] Creating layer relu3_3
I1109 09:18:25.396829 12262 net.cpp:67] Creating Layer relu3_3
I1109 09:18:25.396837 12262 net.cpp:394] relu3_3 <- conv3_3
I1109 09:18:25.396848 12262 net.cpp:345] relu3_3 -> conv3_3 (in-place)
I1109 09:18:25.396858 12262 net.cpp:96] Setting up relu3_3
I1109 09:18:25.396868 12262 net.cpp:103] Top shape: 8 256 56 56 (6422528)
I1109 09:18:25.396874 12262 layer_factory.hpp:78] Creating layer pool3
I1109 09:18:25.396883 12262 net.cpp:67] Creating Layer pool3
I1109 09:18:25.396889 12262 net.cpp:394] pool3 <- conv3_3
I1109 09:18:25.396898 12262 net.cpp:356] pool3 -> pool3
I1109 09:18:25.396908 12262 net.cpp:96] Setting up pool3
I1109 09:18:25.396919 12262 net.cpp:103] Top shape: 8 256 28 28 (1605632)
I1109 09:18:25.396925 12262 layer_factory.hpp:78] Creating layer conv4_1
I1109 09:18:25.396937 12262 net.cpp:67] Creating Layer conv4_1
I1109 09:18:25.396944 12262 net.cpp:394] conv4_1 <- pool3
I1109 09:18:25.396955 12262 net.cpp:356] conv4_1 -> conv4_1
I1109 09:18:25.396965 12262 net.cpp:96] Setting up conv4_1
I1109 09:18:25.454366 12262 net.cpp:103] Top shape: 8 512 28 28 (3211264)
I1109 09:18:25.454404 12262 layer_factory.hpp:78] Creating layer relu4_1
I1109 09:18:25.454421 12262 net.cpp:67] Creating Layer relu4_1
I1109 09:18:25.454428 12262 net.cpp:394] relu4_1 <- conv4_1
I1109 09:18:25.454438 12262 net.cpp:345] relu4_1 -> conv4_1 (in-place)
I1109 09:18:25.454449 12262 net.cpp:96] Setting up relu4_1
I1109 09:18:25.454460 12262 net.cpp:103] Top shape: 8 512 28 28 (3211264)
I1109 09:18:25.454466 12262 layer_factory.hpp:78] Creating layer conv4_2
I1109 09:18:25.454476 12262 net.cpp:67] Creating Layer conv4_2
I1109 09:18:25.454483 12262 net.cpp:394] conv4_2 <- conv4_1
I1109 09:18:25.454493 12262 net.cpp:356] conv4_2 -> conv4_2
I1109 09:18:25.454504 12262 net.cpp:96] Setting up conv4_2
I1109 09:18:25.567719 12262 net.cpp:103] Top shape: 8 512 28 28 (3211264)
I1109 09:18:25.567772 12262 layer_factory.hpp:78] Creating layer relu4_2
I1109 09:18:25.567786 12262 net.cpp:67] Creating Layer relu4_2
I1109 09:18:25.567795 12262 net.cpp:394] relu4_2 <- conv4_2
I1109 09:18:25.567805 12262 net.cpp:345] relu4_2 -> conv4_2 (in-place)
I1109 09:18:25.567816 12262 net.cpp:96] Setting up relu4_2
I1109 09:18:25.567826 12262 net.cpp:103] Top shape: 8 512 28 28 (3211264)
I1109 09:18:25.567832 12262 layer_factory.hpp:78] Creating layer conv4_3
I1109 09:18:25.567845 12262 net.cpp:67] Creating Layer conv4_3
I1109 09:18:25.567852 12262 net.cpp:394] conv4_3 <- conv4_2
I1109 09:18:25.567862 12262 net.cpp:356] conv4_3 -> conv4_3
I1109 09:18:25.567874 12262 net.cpp:96] Setting up conv4_3
I1109 09:18:25.681581 12262 net.cpp:103] Top shape: 8 512 28 28 (3211264)
I1109 09:18:25.681624 12262 layer_factory.hpp:78] Creating layer relu4_3
I1109 09:18:25.681638 12262 net.cpp:67] Creating Layer relu4_3
I1109 09:18:25.681644 12262 net.cpp:394] relu4_3 <- conv4_3
I1109 09:18:25.681654 12262 net.cpp:345] relu4_3 -> conv4_3 (in-place)
I1109 09:18:25.681680 12262 net.cpp:96] Setting up relu4_3
I1109 09:18:25.681691 12262 net.cpp:103] Top shape: 8 512 28 28 (3211264)
I1109 09:18:25.681699 12262 layer_factory.hpp:78] Creating layer pool4
I1109 09:18:25.681710 12262 net.cpp:67] Creating Layer pool4
I1109 09:18:25.681716 12262 net.cpp:394] pool4 <- conv4_3
I1109 09:18:25.681725 12262 net.cpp:356] pool4 -> pool4
I1109 09:18:25.681735 12262 net.cpp:96] Setting up pool4
I1109 09:18:25.681746 12262 net.cpp:103] Top shape: 8 512 14 14 (802816)
I1109 09:18:25.681752 12262 layer_factory.hpp:78] Creating layer conv5_1
I1109 09:18:25.681764 12262 net.cpp:67] Creating Layer conv5_1
I1109 09:18:25.681771 12262 net.cpp:394] conv5_1 <- pool4
I1109 09:18:25.681779 12262 net.cpp:356] conv5_1 -> conv5_1
I1109 09:18:25.681788 12262 net.cpp:96] Setting up conv5_1
I1109 09:18:25.795012 12262 net.cpp:103] Top shape: 8 512 14 14 (802816)
I1109 09:18:25.795058 12262 layer_factory.hpp:78] Creating layer relu5_1
I1109 09:18:25.795070 12262 net.cpp:67] Creating Layer relu5_1
I1109 09:18:25.795078 12262 net.cpp:394] relu5_1 <- conv5_1
I1109 09:18:25.795097 12262 net.cpp:345] relu5_1 -> conv5_1 (in-place)
I1109 09:18:25.795110 12262 net.cpp:96] Setting up relu5_1
I1109 09:18:25.795121 12262 net.cpp:103] Top shape: 8 512 14 14 (802816)
I1109 09:18:25.795127 12262 layer_factory.hpp:78] Creating layer conv5_2
I1109 09:18:25.795137 12262 net.cpp:67] Creating Layer conv5_2
I1109 09:18:25.795143 12262 net.cpp:394] conv5_2 <- conv5_1
I1109 09:18:25.795155 12262 net.cpp:356] conv5_2 -> conv5_2
I1109 09:18:25.795164 12262 net.cpp:96] Setting up conv5_2
I1109 09:18:25.908757 12262 net.cpp:103] Top shape: 8 512 14 14 (802816)
I1109 09:18:25.908802 12262 layer_factory.hpp:78] Creating layer relu5_2
I1109 09:18:25.908815 12262 net.cpp:67] Creating Layer relu5_2
I1109 09:18:25.908823 12262 net.cpp:394] relu5_2 <- conv5_2
I1109 09:18:25.908836 12262 net.cpp:345] relu5_2 -> conv5_2 (in-place)
I1109 09:18:25.908849 12262 net.cpp:96] Setting up relu5_2
I1109 09:18:25.908859 12262 net.cpp:103] Top shape: 8 512 14 14 (802816)
I1109 09:18:25.908864 12262 layer_factory.hpp:78] Creating layer conv5_3
I1109 09:18:25.908874 12262 net.cpp:67] Creating Layer conv5_3
I1109 09:18:25.908879 12262 net.cpp:394] conv5_3 <- conv5_2
I1109 09:18:25.908888 12262 net.cpp:356] conv5_3 -> conv5_3
I1109 09:18:25.908897 12262 net.cpp:96] Setting up conv5_3
I1109 09:18:26.022369 12262 net.cpp:103] Top shape: 8 512 14 14 (802816)
I1109 09:18:26.022413 12262 layer_factory.hpp:78] Creating layer relu5_3
I1109 09:18:26.022428 12262 net.cpp:67] Creating Layer relu5_3
I1109 09:18:26.022435 12262 net.cpp:394] relu5_3 <- conv5_3
I1109 09:18:26.022445 12262 net.cpp:345] relu5_3 -> conv5_3 (in-place)
I1109 09:18:26.022459 12262 net.cpp:96] Setting up relu5_3
I1109 09:18:26.022470 12262 net.cpp:103] Top shape: 8 512 14 14 (802816)
I1109 09:18:26.022476 12262 layer_factory.hpp:78] Creating layer pool5
I1109 09:18:26.022490 12262 net.cpp:67] Creating Layer pool5
I1109 09:18:26.022496 12262 net.cpp:394] pool5 <- conv5_3
I1109 09:18:26.022505 12262 net.cpp:356] pool5 -> pool5
I1109 09:18:26.022514 12262 net.cpp:96] Setting up pool5
I1109 09:18:26.022526 12262 net.cpp:103] Top shape: 8 512 7 7 (200704)
I1109 09:18:26.022532 12262 layer_factory.hpp:78] Creating layer fc6
I1109 09:18:26.022544 12262 net.cpp:67] Creating Layer fc6
I1109 09:18:26.022550 12262 net.cpp:394] fc6 <- pool5
I1109 09:18:26.022562 12262 net.cpp:356] fc6 -> fc6
I1109 09:18:26.022572 12262 net.cpp:96] Setting up fc6
I1109 09:18:31.047060 12262 net.cpp:103] Top shape: 8 4096 1 1 (32768)
I1109 09:18:31.047108 12262 layer_factory.hpp:78] Creating layer relu6
I1109 09:18:31.047122 12262 net.cpp:67] Creating Layer relu6
I1109 09:18:31.047130 12262 net.cpp:394] relu6 <- fc6
I1109 09:18:31.047140 12262 net.cpp:345] relu6 -> fc6 (in-place)
I1109 09:18:31.047152 12262 net.cpp:96] Setting up relu6
I1109 09:18:31.047173 12262 net.cpp:103] Top shape: 8 4096 1 1 (32768)
I1109 09:18:31.047179 12262 layer_factory.hpp:78] Creating layer drop6
I1109 09:18:31.047196 12262 net.cpp:67] Creating Layer drop6
I1109 09:18:31.047217 12262 net.cpp:394] drop6 <- fc6
I1109 09:18:31.047226 12262 net.cpp:345] drop6 -> fc6 (in-place)
I1109 09:18:31.047235 12262 net.cpp:96] Setting up drop6
I1109 09:18:31.047242 12262 net.cpp:103] Top shape: 8 4096 1 1 (32768)
I1109 09:18:31.047248 12262 layer_factory.hpp:78] Creating layer fc7
I1109 09:18:31.047257 12262 net.cpp:67] Creating Layer fc7
I1109 09:18:31.047262 12262 net.cpp:394] fc7 <- fc6
I1109 09:18:31.047271 12262 net.cpp:356] fc7 -> fc7
I1109 09:18:31.047281 12262 net.cpp:96] Setting up fc7
I1109 09:18:31.858815 12262 net.cpp:103] Top shape: 8 4096 1 1 (32768)
I1109 09:18:31.858860 12262 layer_factory.hpp:78] Creating layer relu7
I1109 09:18:31.858873 12262 net.cpp:67] Creating Layer relu7
I1109 09:18:31.858880 12262 net.cpp:394] relu7 <- fc7
I1109 09:18:31.858893 12262 net.cpp:345] relu7 -> fc7 (in-place)
I1109 09:18:31.858906 12262 net.cpp:96] Setting up relu7
I1109 09:18:31.858927 12262 net.cpp:103] Top shape: 8 4096 1 1 (32768)
I1109 09:18:31.858933 12262 layer_factory.hpp:78] Creating layer drop7
I1109 09:18:31.858942 12262 net.cpp:67] Creating Layer drop7
I1109 09:18:31.858947 12262 net.cpp:394] drop7 <- fc7
I1109 09:18:31.858957 12262 net.cpp:345] drop7 -> fc7 (in-place)
I1109 09:18:31.858965 12262 net.cpp:96] Setting up drop7
I1109 09:18:31.858971 12262 net.cpp:103] Top shape: 8 4096 1 1 (32768)
I1109 09:18:31.858978 12262 layer_factory.hpp:78] Creating layer fc8_2
I1109 09:18:31.858986 12262 net.cpp:67] Creating Layer fc8_2
I1109 09:18:31.858993 12262 net.cpp:394] fc8_2 <- fc7
I1109 09:18:31.859000 12262 net.cpp:356] fc8_2 -> fc8_2
I1109 09:18:31.859010 12262 net.cpp:96] Setting up fc8_2
I1109 09:18:31.859423 12262 net.cpp:103] Top shape: 8 2 1 1 (16)
I1109 09:18:31.859438 12262 layer_factory.hpp:78] Creating layer fc8_2_fc8_2_0_split
I1109 09:18:31.859449 12262 net.cpp:67] Creating Layer fc8_2_fc8_2_0_split
I1109 09:18:31.859455 12262 net.cpp:394] fc8_2_fc8_2_0_split <- fc8_2
I1109 09:18:31.859463 12262 net.cpp:356] fc8_2_fc8_2_0_split -> fc8_2_fc8_2_0_split_0
I1109 09:18:31.859473 12262 net.cpp:356] fc8_2_fc8_2_0_split -> fc8_2_fc8_2_0_split_1
I1109 09:18:31.859484 12262 net.cpp:96] Setting up fc8_2_fc8_2_0_split
I1109 09:18:31.859493 12262 net.cpp:103] Top shape: 8 2 1 1 (16)
I1109 09:18:31.859498 12262 net.cpp:103] Top shape: 8 2 1 1 (16)
I1109 09:18:31.859503 12262 layer_factory.hpp:78] Creating layer loss
I1109 09:18:31.859510 12262 net.cpp:67] Creating Layer loss
I1109 09:18:31.859516 12262 net.cpp:394] loss <- fc8_2_fc8_2_0_split_0
I1109 09:18:31.859524 12262 net.cpp:394] loss <- label_data_1_split_0
I1109 09:18:31.859531 12262 net.cpp:356] loss -> (automatic)
I1109 09:18:31.859537 12262 net.cpp:96] Setting up loss
I1109 09:18:31.859549 12262 net.cpp:103] Top shape: 1 1 1 1 (1)
I1109 09:18:31.859555 12262 net.cpp:109]     with loss weight 1
I1109 09:18:31.859576 12262 layer_factory.hpp:78] Creating layer accuracy
I1109 09:18:31.859591 12262 net.cpp:67] Creating Layer accuracy
I1109 09:18:31.859596 12262 net.cpp:394] accuracy <- fc8_2_fc8_2_0_split_1
I1109 09:18:31.859602 12262 net.cpp:394] accuracy <- label_data_1_split_1
I1109 09:18:31.859613 12262 net.cpp:356] accuracy -> accuracy
I1109 09:18:31.859622 12262 net.cpp:96] Setting up accuracy
I1109 09:18:31.859634 12262 net.cpp:103] Top shape: 1 1 1 4 (4)
I1109 09:18:31.859640 12262 net.cpp:172] accuracy does not need backward computation.
I1109 09:18:31.859645 12262 net.cpp:170] loss needs backward computation.
I1109 09:18:31.859652 12262 net.cpp:170] fc8_2_fc8_2_0_split needs backward computation.
I1109 09:18:31.859657 12262 net.cpp:170] fc8_2 needs backward computation.
I1109 09:18:31.859661 12262 net.cpp:170] drop7 needs backward computation.
…
