…
I1106 16:09:53.344600 21866 net.cpp:275] The NetState phase (0) differed from the phase (1) specified by a rule in layer accuracy
I1106 16:09:53.344827 21866 net.cpp:39] Initializing net from parameters: 
name: "small"
layers {
  top: "data"
  top: "label"
  name: "data"
  type: IMAGE_DATA
  image_data_param {
    source: "/data/ad6813/devCaffe/caffe/data/scrape/train.txt"
    batch_size: 32
    new_height: 256
    new_width: 256
  }
  include {
    phase: TRAIN
  }
  transform_param {
    mirror: true
    crop_size: 224
    mean_value: 86.752
    mean_value: 101.46
    mean_value: 104.6
  }
}
layers {
  bottom: "data"
  top: "conv1_1"
  name: "conv1_1"
  type: CONVOLUTION
  convolution_param {
    num_output: 64
    pad: 1
    kernel_size: 3
    weight_filler {
      type: "gaussian"
      std: 0.01
    }
    bias_filler {
      type: "constant"
      value: 0
    }
  }
}
layers {
  bottom: "conv1_1"
  top: "conv1_1"
  name: "relu1_1"
  type: RELU
}
layers {
  bottom: "conv1_1"
  top: "conv1_2"
  name: "conv1_2"
  type: CONVOLUTION
  convolution_param {
    num_output: 64
    pad: 1
    kernel_size: 3
    weight_filler {
      type: "gaussian"
      std: 0.01
    }
    bias_filler {
      type: "constant"
      value: 0
    }
  }
}
layers {
  bottom: "conv1_2"
  top: "conv1_2"
  name: "relu1_2"
  type: RELU
}
layers {
  bottom: "conv1_2"
  top: "pool1"
  name: "pool1"
  type: POOLING
  pooling_param {
    pool: MAX
    kernel_size: 2
    stride: 2
  }
}
layers {
  bottom: "pool1"
  top: "conv2_1"
  name: "conv2_1"
  type: CONVOLUTION
  convolution_param {
    num_output: 128
    pad: 1
    kernel_size: 3
    weight_filler {
      type: "gaussian"
      std: 0.01
    }
    bias_filler {
      type: "constant"
      value: 0
    }
  }
}
layers {
  bottom: "conv2_1"
  top: "conv2_1"
  name: "relu2_1"
  type: RELU
}
layers {
  bottom: "conv2_1"
  top: "conv2_2"
  name: "conv2_2"
  type: CONVOLUTION
  convolution_param {
    num_output: 128
    pad: 1
    kernel_size: 3
    weight_filler {
      type: "gaussian"
      std: 0.01
    }
    bias_filler {
      type: "constant"
      value: 0
    }
  }
}
layers {
  bottom: "conv2_2"
  top: "conv2_2"
  name: "relu2_2"
  type: RELU
}
layers {
  bottom: "conv2_2"
  top: "pool2"
  name: "pool2"
  type: POOLING
  pooling_param {
    pool: MAX
    kernel_size: 2
    stride: 2
  }
}
layers {
  bottom: "pool2"
  top: "conv3_1"
  name: "conv3_1"
  type: CONVOLUTION
  convolution_param {
    num_output: 256
    pad: 1
    kernel_size: 3
    weight_filler {
      type: "gaussian"
      std: 0.01
    }
    bias_filler {
      type: "constant"
      value: 0
    }
  }
}
layers {
  bottom: "conv3_1"
  top: "conv3_1"
  name: "relu3_1"
  type: RELU
}
layers {
  bottom: "conv3_1"
  top: "conv3_2"
  name: "conv3_2"
  type: CONVOLUTION
  convolution_param {
    num_output: 256
    pad: 1
    kernel_size: 3
    weight_filler {
      type: "gaussian"
      std: 0.01
    }
    bias_filler {
      type: "constant"
      value: 0
    }
  }
}
layers {
  bottom: "conv3_2"
  top: "conv3_2"
  name: "relu3_2"
  type: RELU
}
layers {
  bottom: "conv3_2"
  top: "conv3_3"
  name: "conv3_3"
  type: CONVOLUTION
  convolution_param {
    num_output: 256
    pad: 1
    kernel_size: 3
    weight_filler {
      type: "gaussian"
      std: 0.01
    }
    bias_filler {
      type: "constant"
      value: 0
    }
  }
}
layers {
  bottom: "conv3_3"
  top: "conv3_3"
  name: "relu3_3"
  type: RELU
}
layers {
  bottom: "conv3_3"
  top: "pool3"
  name: "pool3"
  type: POOLING
  pooling_param {
    pool: MAX
    kernel_size: 2
    stride: 2
  }
}
layers {
  bottom: "pool3"
  top: "conv4_1"
  name: "conv4_1"
  type: CONVOLUTION
  convolution_param {
    num_output: 512
    pad: 1
    kernel_size: 3
    weight_filler {
      type: "gaussian"
      std: 0.01
    }
    bias_filler {
      type: "constant"
      value: 0
    }
  }
}
layers {
  bottom: "conv4_1"
  top: "conv4_1"
  name: "relu4_1"
  type: RELU
}
layers {
  bottom: "conv4_1"
  top: "conv4_2"
  name: "conv4_2"
  type: CONVOLUTION
  convolution_param {
    num_output: 512
    pad: 1
    kernel_size: 3
    weight_filler {
      type: "gaussian"
      std: 0.01
    }
    bias_filler {
      type: "constant"
      value: 0
    }
  }
}
layers {
  bottom: "conv4_2"
  top: "conv4_2"
  name: "relu4_2"
  type: RELU
}
layers {
  bottom: "conv4_2"
  top: "conv4_3"
  name: "conv4_3"
  type: CONVOLUTION
  convolution_param {
    num_output: 512
    pad: 1
    kernel_size: 3
    weight_filler {
      type: "gaussian"
      std: 0.01
    }
    bias_filler {
      type: "constant"
      value: 0
    }
  }
}
layers {
  bottom: "conv4_3"
  top: "conv4_3"
  name: "relu4_3"
  type: RELU
}
layers {
  bottom: "conv4_3"
  top: "pool4"
  name: "pool4"
  type: POOLING
  pooling_param {
    pool: MAX
    kernel_size: 2
    stride: 2
  }
}
layers {
  bottom: "pool4"
  top: "conv5_1"
  name: "conv5_1"
  type: CONVOLUTION
  convolution_param {
    num_output: 512
    pad: 1
    kernel_size: 3
    weight_filler {
      type: "gaussian"
      std: 0.01
    }
    bias_filler {
      type: "constant"
      value: 0
    }
  }
}
layers {
  bottom: "conv5_1"
  top: "conv5_1"
  name: "relu5_1"
  type: RELU
}
layers {
  bottom: "conv5_1"
  top: "conv5_2"
  name: "conv5_2"
  type: CONVOLUTION
  convolution_param {
    num_output: 512
    pad: 1
    kernel_size: 3
    weight_filler {
      type: "gaussian"
      std: 0.01
    }
    bias_filler {
      type: "constant"
      value: 0
    }
  }
}
layers {
  bottom: "conv5_2"
  top: "conv5_2"
  name: "relu5_2"
  type: RELU
}
layers {
  bottom: "conv5_2"
  top: "conv5_3"
  name: "conv5_3"
  type: CONVOLUTION
  convolution_param {
    num_output: 512
    pad: 1
    kernel_size: 3
    weight_filler {
      type: "gaussian"
      std: 0.01
    }
    bias_filler {
      type: "constant"
      value: 0
    }
  }
}
layers {
  bottom: "conv5_3"
  top: "conv5_3"
  name: "relu5_3"
  type: RELU
}
layers {
  bottom: "conv5_3"
  top: "pool5"
  name: "pool5"
  type: POOLING
  pooling_param {
    pool: MAX
    kernel_size: 2
    stride: 2
  }
}
layers {
  bottom: "pool5"
  top: "fc6"
  name: "fc6"
  type: INNER_PRODUCT
  inner_product_param {
    num_output: 4096
    weight_filler {
      type: "gaussian"
      std: 0.01
    }
    bias_filler {
      type: "constant"
      value: 0
    }
  }
}
layers {
  bottom: "fc6"
  top: "fc6"
  name: "relu6"
  type: RELU
}
layers {
  bottom: "fc6"
  top: "fc6"
  name: "drop6"
  type: DROPOUT
  dropout_param {
    dropout_ratio: 0.5
  }
}
layers {
  bottom: "fc6"
  top: "fc7"
  name: "fc7"
  type: INNER_PRODUCT
  inner_product_param {
    num_output: 4096
    weight_filler {
      type: "gaussian"
      std: 0.01
    }
    bias_filler {
      type: "constant"
      value: 0
    }
  }
}
layers {
  bottom: "fc7"
  top: "fc7"
  name: "relu7"
  type: RELU
}
layers {
  bottom: "fc7"
  top: "fc7"
  name: "drop7"
  type: DROPOUT
  dropout_param {
    dropout_ratio: 0.5
  }
}
layers {
  bottom: "fc7"
  top: "fc8_2"
  name: "fc8_2"
  type: INNER_PRODUCT
  inner_product_param {
    num_output: 2
    weight_filler {
      type: "gaussian"
      std: 0.01
    }
    bias_filler {
      type: "constant"
      value: 0
    }
  }
}
layers {
  bottom: "fc8_2"
  bottom: "label"
  name: "loss"
  type: SOFTMAX_LOSS
}
state {
  phase: TRAIN
}
I1106 16:09:53.344993 21866 layer_factory.hpp:78] Creating layer data
I1106 16:09:53.345024 21866 net.cpp:67] Creating Layer data
I1106 16:09:53.345036 21866 net.cpp:356] data -> data
I1106 16:09:53.345060 21866 net.cpp:356] data -> label
I1106 16:09:53.345079 21866 net.cpp:96] Setting up data
I1106 16:09:53.345089 21866 image_data_layer.cpp:34] Opening file /data/ad6813/devCaffe/caffe/data/scrape/train.txt
I1106 16:09:53.397686 21866 image_data_layer.cpp:49] A total of 104401 images.
I1106 16:09:53.413337 21866 image_data_layer.cpp:78] output data size: 32,3,224,224
I1106 16:09:53.416007 21866 net.cpp:103] Top shape: 32 3 224 224 (4816896)
I1106 16:09:53.416033 21866 net.cpp:103] Top shape: 32 1 1 1 (32)
I1106 16:09:53.416038 21866 layer_factory.hpp:78] Creating layer conv1_1
I1106 16:09:53.416054 21866 net.cpp:67] Creating Layer conv1_1
I1106 16:09:53.416057 21866 net.cpp:394] conv1_1 <- data
I1106 16:09:53.416070 21866 net.cpp:356] conv1_1 -> conv1_1
I1106 16:09:53.416081 21866 net.cpp:96] Setting up conv1_1
I1106 16:09:53.437639 21866 net.cpp:103] Top shape: 32 64 224 224 (102760448)
I1106 16:09:53.437676 21866 layer_factory.hpp:78] Creating layer relu1_1
I1106 16:09:53.437687 21866 net.cpp:67] Creating Layer relu1_1
I1106 16:09:53.437692 21866 net.cpp:394] relu1_1 <- conv1_1
I1106 16:09:53.437698 21866 net.cpp:345] relu1_1 -> conv1_1 (in-place)
I1106 16:09:53.437707 21866 net.cpp:96] Setting up relu1_1
I1106 16:09:53.437716 21866 net.cpp:103] Top shape: 32 64 224 224 (102760448)
I1106 16:09:53.437719 21866 layer_factory.hpp:78] Creating layer conv1_2
I1106 16:09:53.437726 21866 net.cpp:67] Creating Layer conv1_2
I1106 16:09:53.437728 21866 net.cpp:394] conv1_2 <- conv1_1
I1106 16:09:53.437733 21866 net.cpp:356] conv1_2 -> conv1_2
I1106 16:09:53.437739 21866 net.cpp:96] Setting up conv1_2
I1106 16:09:53.438784 21866 net.cpp:103] Top shape: 32 64 224 224 (102760448)
I1106 16:09:53.438796 21866 layer_factory.hpp:78] Creating layer relu1_2
I1106 16:09:53.438804 21866 net.cpp:67] Creating Layer relu1_2
I1106 16:09:53.438807 21866 net.cpp:394] relu1_2 <- conv1_2
I1106 16:09:53.438812 21866 net.cpp:345] relu1_2 -> conv1_2 (in-place)
I1106 16:09:53.438817 21866 net.cpp:96] Setting up relu1_2
I1106 16:09:53.438822 21866 net.cpp:103] Top shape: 32 64 224 224 (102760448)
I1106 16:09:53.438825 21866 layer_factory.hpp:78] Creating layer pool1
I1106 16:09:53.438832 21866 net.cpp:67] Creating Layer pool1
I1106 16:09:53.438835 21866 net.cpp:394] pool1 <- conv1_2
I1106 16:09:53.438839 21866 net.cpp:356] pool1 -> pool1
I1106 16:09:53.438844 21866 net.cpp:96] Setting up pool1
I1106 16:09:53.438860 21866 net.cpp:103] Top shape: 32 64 112 112 (25690112)
I1106 16:09:53.438868 21866 layer_factory.hpp:78] Creating layer conv2_1
I1106 16:09:53.438874 21866 net.cpp:67] Creating Layer conv2_1
I1106 16:09:53.438879 21866 net.cpp:394] conv2_1 <- pool1
I1106 16:09:53.438884 21866 net.cpp:356] conv2_1 -> conv2_1
I1106 16:09:53.438890 21866 net.cpp:96] Setting up conv2_1
I1106 16:09:53.440794 21866 net.cpp:103] Top shape: 32 128 112 112 (51380224)
I1106 16:09:53.440809 21866 layer_factory.hpp:78] Creating layer relu2_1
I1106 16:09:53.440814 21866 net.cpp:67] Creating Layer relu2_1
I1106 16:09:53.440816 21866 net.cpp:394] relu2_1 <- conv2_1
I1106 16:09:53.440821 21866 net.cpp:345] relu2_1 -> conv2_1 (in-place)
I1106 16:09:53.440827 21866 net.cpp:96] Setting up relu2_1
I1106 16:09:53.440832 21866 net.cpp:103] Top shape: 32 128 112 112 (51380224)
I1106 16:09:53.440835 21866 layer_factory.hpp:78] Creating layer conv2_2
I1106 16:09:53.440841 21866 net.cpp:67] Creating Layer conv2_2
I1106 16:09:53.440845 21866 net.cpp:394] conv2_2 <- conv2_1
I1106 16:09:53.440848 21866 net.cpp:356] conv2_2 -> conv2_2
I1106 16:09:53.440853 21866 net.cpp:96] Setting up conv2_2
I1106 16:09:53.444617 21866 net.cpp:103] Top shape: 32 128 112 112 (51380224)
I1106 16:09:53.444629 21866 layer_factory.hpp:78] Creating layer relu2_2
I1106 16:09:53.444634 21866 net.cpp:67] Creating Layer relu2_2
I1106 16:09:53.444638 21866 net.cpp:394] relu2_2 <- conv2_2
I1106 16:09:53.444643 21866 net.cpp:345] relu2_2 -> conv2_2 (in-place)
I1106 16:09:53.444648 21866 net.cpp:96] Setting up relu2_2
I1106 16:09:53.444653 21866 net.cpp:103] Top shape: 32 128 112 112 (51380224)
I1106 16:09:53.444658 21866 layer_factory.hpp:78] Creating layer pool2
I1106 16:09:53.444669 21866 net.cpp:67] Creating Layer pool2
I1106 16:09:53.444672 21866 net.cpp:394] pool2 <- conv2_2
I1106 16:09:53.444676 21866 net.cpp:356] pool2 -> pool2
I1106 16:09:53.444681 21866 net.cpp:96] Setting up pool2
I1106 16:09:53.444687 21866 net.cpp:103] Top shape: 32 128 56 56 (12845056)
I1106 16:09:53.444690 21866 layer_factory.hpp:78] Creating layer conv3_1
I1106 16:09:53.444696 21866 net.cpp:67] Creating Layer conv3_1
I1106 16:09:53.444700 21866 net.cpp:394] conv3_1 <- pool2
I1106 16:09:53.444705 21866 net.cpp:356] conv3_1 -> conv3_1
I1106 16:09:53.444711 21866 net.cpp:96] Setting up conv3_1
I1106 16:09:53.452093 21866 net.cpp:103] Top shape: 32 256 56 56 (25690112)
I1106 16:09:53.452106 21866 layer_factory.hpp:78] Creating layer relu3_1
I1106 16:09:53.452116 21866 net.cpp:67] Creating Layer relu3_1
I1106 16:09:53.452119 21866 net.cpp:394] relu3_1 <- conv3_1
I1106 16:09:53.452124 21866 net.cpp:345] relu3_1 -> conv3_1 (in-place)
I1106 16:09:53.452128 21866 net.cpp:96] Setting up relu3_1
I1106 16:09:53.452133 21866 net.cpp:103] Top shape: 32 256 56 56 (25690112)
I1106 16:09:53.452136 21866 layer_factory.hpp:78] Creating layer conv3_2
I1106 16:09:53.452143 21866 net.cpp:67] Creating Layer conv3_2
I1106 16:09:53.452147 21866 net.cpp:394] conv3_2 <- conv3_1
I1106 16:09:53.452150 21866 net.cpp:356] conv3_2 -> conv3_2
I1106 16:09:53.452155 21866 net.cpp:96] Setting up conv3_2
I1106 16:09:53.467036 21866 net.cpp:103] Top shape: 32 256 56 56 (25690112)
I1106 16:09:53.467049 21866 layer_factory.hpp:78] Creating layer relu3_2
I1106 16:09:53.467056 21866 net.cpp:67] Creating Layer relu3_2
I1106 16:09:53.467058 21866 net.cpp:394] relu3_2 <- conv3_2
I1106 16:09:53.467062 21866 net.cpp:345] relu3_2 -> conv3_2 (in-place)
I1106 16:09:53.467067 21866 net.cpp:96] Setting up relu3_2
I1106 16:09:53.467073 21866 net.cpp:103] Top shape: 32 256 56 56 (25690112)
I1106 16:09:53.467077 21866 layer_factory.hpp:78] Creating layer conv3_3
I1106 16:09:53.467083 21866 net.cpp:67] Creating Layer conv3_3
I1106 16:09:53.467087 21866 net.cpp:394] conv3_3 <- conv3_2
I1106 16:09:53.467090 21866 net.cpp:356] conv3_3 -> conv3_3
I1106 16:09:53.467095 21866 net.cpp:96] Setting up conv3_3
I1106 16:09:53.481750 21866 net.cpp:103] Top shape: 32 256 56 56 (25690112)
I1106 16:09:53.481762 21866 layer_factory.hpp:78] Creating layer relu3_3
I1106 16:09:53.481770 21866 net.cpp:67] Creating Layer relu3_3
I1106 16:09:53.481773 21866 net.cpp:394] relu3_3 <- conv3_3
I1106 16:09:53.481777 21866 net.cpp:345] relu3_3 -> conv3_3 (in-place)
I1106 16:09:53.481782 21866 net.cpp:96] Setting up relu3_3
I1106 16:09:53.481787 21866 net.cpp:103] Top shape: 32 256 56 56 (25690112)
I1106 16:09:53.481791 21866 layer_factory.hpp:78] Creating layer pool3
I1106 16:09:53.481797 21866 net.cpp:67] Creating Layer pool3
I1106 16:09:53.481801 21866 net.cpp:394] pool3 <- conv3_3
I1106 16:09:53.481804 21866 net.cpp:356] pool3 -> pool3
I1106 16:09:53.481809 21866 net.cpp:96] Setting up pool3
I1106 16:09:53.481817 21866 net.cpp:103] Top shape: 32 256 28 28 (6422528)
I1106 16:09:53.481819 21866 layer_factory.hpp:78] Creating layer conv4_1
I1106 16:09:53.481823 21866 net.cpp:67] Creating Layer conv4_1
I1106 16:09:53.481827 21866 net.cpp:394] conv4_1 <- pool3
I1106 16:09:53.481832 21866 net.cpp:356] conv4_1 -> conv4_1
I1106 16:09:53.481837 21866 net.cpp:96] Setting up conv4_1
I1106 16:09:53.510917 21866 net.cpp:103] Top shape: 32 512 28 28 (12845056)
I1106 16:09:53.510936 21866 layer_factory.hpp:78] Creating layer relu4_1
I1106 16:09:53.510946 21866 net.cpp:67] Creating Layer relu4_1
I1106 16:09:53.510949 21866 net.cpp:394] relu4_1 <- conv4_1
I1106 16:09:53.510956 21866 net.cpp:345] relu4_1 -> conv4_1 (in-place)
I1106 16:09:53.510962 21866 net.cpp:96] Setting up relu4_1
I1106 16:09:53.510967 21866 net.cpp:103] Top shape: 32 512 28 28 (12845056)
I1106 16:09:53.510970 21866 layer_factory.hpp:78] Creating layer conv4_2
I1106 16:09:53.510975 21866 net.cpp:67] Creating Layer conv4_2
I1106 16:09:53.510978 21866 net.cpp:394] conv4_2 <- conv4_1
I1106 16:09:53.510992 21866 net.cpp:356] conv4_2 -> conv4_2
I1106 16:09:53.510998 21866 net.cpp:96] Setting up conv4_2
I1106 16:09:53.568603 21866 net.cpp:103] Top shape: 32 512 28 28 (12845056)
I1106 16:09:53.568630 21866 layer_factory.hpp:78] Creating layer relu4_2
I1106 16:09:53.568639 21866 net.cpp:67] Creating Layer relu4_2
I1106 16:09:53.568644 21866 net.cpp:394] relu4_2 <- conv4_2
I1106 16:09:53.568650 21866 net.cpp:345] relu4_2 -> conv4_2 (in-place)
I1106 16:09:53.568657 21866 net.cpp:96] Setting up relu4_2
I1106 16:09:53.568662 21866 net.cpp:103] Top shape: 32 512 28 28 (12845056)
I1106 16:09:53.568666 21866 layer_factory.hpp:78] Creating layer conv4_3
I1106 16:09:53.568673 21866 net.cpp:67] Creating Layer conv4_3
I1106 16:09:53.568676 21866 net.cpp:394] conv4_3 <- conv4_2
I1106 16:09:53.568682 21866 net.cpp:356] conv4_3 -> conv4_3
I1106 16:09:53.568688 21866 net.cpp:96] Setting up conv4_3
I1106 16:09:53.626190 21866 net.cpp:103] Top shape: 32 512 28 28 (12845056)
I1106 16:09:53.626212 21866 layer_factory.hpp:78] Creating layer relu4_3
I1106 16:09:53.626222 21866 net.cpp:67] Creating Layer relu4_3
I1106 16:09:53.626227 21866 net.cpp:394] relu4_3 <- conv4_3
I1106 16:09:53.626235 21866 net.cpp:345] relu4_3 -> conv4_3 (in-place)
I1106 16:09:53.626241 21866 net.cpp:96] Setting up relu4_3
I1106 16:09:53.626246 21866 net.cpp:103] Top shape: 32 512 28 28 (12845056)
I1106 16:09:53.626250 21866 layer_factory.hpp:78] Creating layer pool4
I1106 16:09:53.626255 21866 net.cpp:67] Creating Layer pool4
I1106 16:09:53.626258 21866 net.cpp:394] pool4 <- conv4_3
I1106 16:09:53.626265 21866 net.cpp:356] pool4 -> pool4
I1106 16:09:53.626271 21866 net.cpp:96] Setting up pool4
I1106 16:09:53.626277 21866 net.cpp:103] Top shape: 32 512 14 14 (3211264)
I1106 16:09:53.626281 21866 layer_factory.hpp:78] Creating layer conv5_1
I1106 16:09:53.626286 21866 net.cpp:67] Creating Layer conv5_1
I1106 16:09:53.626289 21866 net.cpp:394] conv5_1 <- pool4
I1106 16:09:53.626296 21866 net.cpp:356] conv5_1 -> conv5_1
I1106 16:09:53.626303 21866 net.cpp:96] Setting up conv5_1
I1106 16:09:53.684345 21866 net.cpp:103] Top shape: 32 512 14 14 (3211264)
I1106 16:09:53.684367 21866 layer_factory.hpp:78] Creating layer relu5_1
I1106 16:09:53.684376 21866 net.cpp:67] Creating Layer relu5_1
I1106 16:09:53.684381 21866 net.cpp:394] relu5_1 <- conv5_1
I1106 16:09:53.684387 21866 net.cpp:345] relu5_1 -> conv5_1 (in-place)
I1106 16:09:53.684393 21866 net.cpp:96] Setting up relu5_1
I1106 16:09:53.684399 21866 net.cpp:103] Top shape: 32 512 14 14 (3211264)
I1106 16:09:53.684403 21866 layer_factory.hpp:78] Creating layer conv5_2
I1106 16:09:53.684409 21866 net.cpp:67] Creating Layer conv5_2
I1106 16:09:53.684412 21866 net.cpp:394] conv5_2 <- conv5_1
I1106 16:09:53.684417 21866 net.cpp:356] conv5_2 -> conv5_2
I1106 16:09:53.684424 21866 net.cpp:96] Setting up conv5_2
I1106 16:09:53.741919 21866 net.cpp:103] Top shape: 32 512 14 14 (3211264)
I1106 16:09:53.741942 21866 layer_factory.hpp:78] Creating layer relu5_2
I1106 16:09:53.741950 21866 net.cpp:67] Creating Layer relu5_2
I1106 16:09:53.741955 21866 net.cpp:394] relu5_2 <- conv5_2
I1106 16:09:53.741961 21866 net.cpp:345] relu5_2 -> conv5_2 (in-place)
I1106 16:09:53.741969 21866 net.cpp:96] Setting up relu5_2
I1106 16:09:53.741974 21866 net.cpp:103] Top shape: 32 512 14 14 (3211264)
I1106 16:09:53.741978 21866 layer_factory.hpp:78] Creating layer conv5_3
I1106 16:09:53.741983 21866 net.cpp:67] Creating Layer conv5_3
I1106 16:09:53.741986 21866 net.cpp:394] conv5_3 <- conv5_2
I1106 16:09:53.741992 21866 net.cpp:356] conv5_3 -> conv5_3
I1106 16:09:53.741998 21866 net.cpp:96] Setting up conv5_3
I1106 16:09:53.799805 21866 net.cpp:103] Top shape: 32 512 14 14 (3211264)
I1106 16:09:53.799829 21866 layer_factory.hpp:78] Creating layer relu5_3
I1106 16:09:53.799836 21866 net.cpp:67] Creating Layer relu5_3
I1106 16:09:53.799840 21866 net.cpp:394] relu5_3 <- conv5_3
I1106 16:09:53.799847 21866 net.cpp:345] relu5_3 -> conv5_3 (in-place)
I1106 16:09:53.799854 21866 net.cpp:96] Setting up relu5_3
I1106 16:09:53.799860 21866 net.cpp:103] Top shape: 32 512 14 14 (3211264)
I1106 16:09:53.799871 21866 layer_factory.hpp:78] Creating layer pool5
I1106 16:09:53.799877 21866 net.cpp:67] Creating Layer pool5
I1106 16:09:53.799880 21866 net.cpp:394] pool5 <- conv5_3
I1106 16:09:53.799886 21866 net.cpp:356] pool5 -> pool5
I1106 16:09:53.799892 21866 net.cpp:96] Setting up pool5
I1106 16:09:53.799901 21866 net.cpp:103] Top shape: 32 512 7 7 (802816)
I1106 16:09:53.799907 21866 layer_factory.hpp:78] Creating layer fc6
I1106 16:09:53.799921 21866 net.cpp:67] Creating Layer fc6
I1106 16:09:53.799926 21866 net.cpp:394] fc6 <- pool5
I1106 16:09:53.799931 21866 net.cpp:356] fc6 -> fc6
I1106 16:09:53.799935 21866 net.cpp:96] Setting up fc6
I1106 16:09:56.208909 21866 net.cpp:103] Top shape: 32 4096 1 1 (131072)
I1106 16:09:56.208937 21866 layer_factory.hpp:78] Creating layer relu6
I1106 16:09:56.208959 21866 net.cpp:67] Creating Layer relu6
I1106 16:09:56.208966 21866 net.cpp:394] relu6 <- fc6
I1106 16:09:56.208971 21866 net.cpp:345] relu6 -> fc6 (in-place)
I1106 16:09:56.208978 21866 net.cpp:96] Setting up relu6
I1106 16:09:56.208992 21866 net.cpp:103] Top shape: 32 4096 1 1 (131072)
I1106 16:09:56.208995 21866 layer_factory.hpp:78] Creating layer drop6
I1106 16:09:56.209007 21866 net.cpp:67] Creating Layer drop6
I1106 16:09:56.209009 21866 net.cpp:394] drop6 <- fc6
I1106 16:09:56.209013 21866 net.cpp:345] drop6 -> fc6 (in-place)
I1106 16:09:56.209018 21866 net.cpp:96] Setting up drop6
I1106 16:09:56.209023 21866 net.cpp:103] Top shape: 32 4096 1 1 (131072)
I1106 16:09:56.209027 21866 layer_factory.hpp:78] Creating layer fc7
I1106 16:09:56.209033 21866 net.cpp:67] Creating Layer fc7
I1106 16:09:56.209034 21866 net.cpp:394] fc7 <- fc6
I1106 16:09:56.209040 21866 net.cpp:356] fc7 -> fc7
I1106 16:09:56.209046 21866 net.cpp:96] Setting up fc7
I1106 16:09:56.597143 21866 net.cpp:103] Top shape: 32 4096 1 1 (131072)
I1106 16:09:56.597182 21866 layer_factory.hpp:78] Creating layer relu7
I1106 16:09:56.597192 21866 net.cpp:67] Creating Layer relu7
I1106 16:09:56.597196 21866 net.cpp:394] relu7 <- fc7
I1106 16:09:56.597205 21866 net.cpp:345] relu7 -> fc7 (in-place)
I1106 16:09:56.597213 21866 net.cpp:96] Setting up relu7
I1106 16:09:56.597228 21866 net.cpp:103] Top shape: 32 4096 1 1 (131072)
I1106 16:09:56.597230 21866 layer_factory.hpp:78] Creating layer drop7
I1106 16:09:56.597235 21866 net.cpp:67] Creating Layer drop7
I1106 16:09:56.597239 21866 net.cpp:394] drop7 <- fc7
I1106 16:09:56.597242 21866 net.cpp:345] drop7 -> fc7 (in-place)
I1106 16:09:56.597246 21866 net.cpp:96] Setting up drop7
I1106 16:09:56.597250 21866 net.cpp:103] Top shape: 32 4096 1 1 (131072)
I1106 16:09:56.597254 21866 layer_factory.hpp:78] Creating layer fc8_2
I1106 16:09:56.597260 21866 net.cpp:67] Creating Layer fc8_2
I1106 16:09:56.597264 21866 net.cpp:394] fc8_2 <- fc7
I1106 16:09:56.597268 21866 net.cpp:356] fc8_2 -> fc8_2
I1106 16:09:56.597275 21866 net.cpp:96] Setting up fc8_2
I1106 16:09:56.597487 21866 net.cpp:103] Top shape: 32 2 1 1 (64)
I1106 16:09:56.597496 21866 layer_factory.hpp:78] Creating layer loss
I1106 16:09:56.597506 21866 net.cpp:67] Creating Layer loss
I1106 16:09:56.597512 21866 net.cpp:394] loss <- fc8_2
I1106 16:09:56.597514 21866 net.cpp:394] loss <- label
I1106 16:09:56.597522 21866 net.cpp:356] loss -> (automatic)
I1106 16:09:56.597527 21866 net.cpp:96] Setting up loss
I1106 16:09:56.597535 21866 net.cpp:103] Top shape: 1 1 1 1 (1)
I1106 16:09:56.597540 21866 net.cpp:109]     with loss weight 1
I1106 16:09:56.597569 21866 net.cpp:170] loss needs backward computation.
I1106 16:09:56.597573 21866 net.cpp:170] fc8_2 needs backward computation.
I1106 16:09:56.597575 21866 net.cpp:170] drop7 needs backward computation.
I1106 16:09:56.597579 21866 net.cpp:170] relu7 needs backward computation.
I1106 16:09:56.597580 21866 net.cpp:170] fc7 needs backward computation.
…
I1106 16:09:56.598533 21866 net.cpp:275] The NetState phase (1) differed from the phase (0) specified by a rule in layer data
I1106 16:09:56.598736 21866 net.cpp:39] Initializing net from parameters: 
name: "small"
layers {
  top: "data"
  top: "label"
  name: "data"
  type: IMAGE_DATA
  image_data_param {
    source: "/data/ad6813/devCaffe/caffe/data/scrape/val.txt"
    batch_size: 8
    new_height: 256
    new_width: 256
  }
  include {
    phase: TEST
  }
  transform_param {
    mirror: true
    crop_size: 224
    mean_value: 86.752
    mean_value: 101.46
    mean_value: 104.6
  }
}
layers {
  bottom: "data"
  top: "conv1_1"
  name: "conv1_1"
  type: CONVOLUTION
  convolution_param {
    num_output: 64
    pad: 1
    kernel_size: 3
    weight_filler {
      type: "gaussian"
      std: 0.01
    }
    bias_filler {
      type: "constant"
      value: 0
    }
  }
}
layers {
  bottom: "conv1_1"
  top: "conv1_1"
  name: "relu1_1"
  type: RELU
}
layers {
  bottom: "conv1_1"
  top: "conv1_2"
  name: "conv1_2"
  type: CONVOLUTION
  convolution_param {
    num_output: 64
    pad: 1
    kernel_size: 3
    weight_filler {
      type: "gaussian"
      std: 0.01
    }
    bias_filler {
      type: "constant"
      value: 0
    }
  }
}
layers {
  bottom: "conv1_2"
  top: "conv1_2"
  name: "relu1_2"
  type: RELU
}
layers {
  bottom: "conv1_2"
  top: "pool1"
  name: "pool1"
  type: POOLING
  pooling_param {
    pool: MAX
    kernel_size: 2
    stride: 2
  }
}
layers {
  bottom: "pool1"
  top: "conv2_1"
  name: "conv2_1"
  type: CONVOLUTION
  convolution_param {
    num_output: 128
    pad: 1
    kernel_size: 3
    weight_filler {
      type: "gaussian"
      std: 0.01
    }
    bias_filler {
      type: "constant"
      value: 0
    }
  }
}
layers {
  bottom: "conv2_1"
  top: "conv2_1"
  name: "relu2_1"
  type: RELU
}
layers {
  bottom: "conv2_1"
  top: "conv2_2"
  name: "conv2_2"
  type: CONVOLUTION
  convolution_param {
    num_output: 128
    pad: 1
    kernel_size: 3
    weight_filler {
      type: "gaussian"
      std: 0.01
    }
    bias_filler {
      type: "constant"
      value: 0
    }
  }
}
layers {
  bottom: "conv2_2"
  top: "conv2_2"
  name: "relu2_2"
  type: RELU
}
layers {
  bottom: "conv2_2"
  top: "pool2"
  name: "pool2"
  type: POOLING
  pooling_param {
    pool: MAX
    kernel_size: 2
    stride: 2
  }
}
layers {
  bottom: "pool2"
  top: "conv3_1"
  name: "conv3_1"
  type: CONVOLUTION
  convolution_param {
    num_output: 256
    pad: 1
    kernel_size: 3
    weight_filler {
      type: "gaussian"
      std: 0.01
    }
    bias_filler {
      type: "constant"
      value: 0
    }
  }
}
layers {
  bottom: "conv3_1"
  top: "conv3_1"
  name: "relu3_1"
  type: RELU
}
layers {
  bottom: "conv3_1"
  top: "conv3_2"
  name: "conv3_2"
  type: CONVOLUTION
  convolution_param {
    num_output: 256
    pad: 1
    kernel_size: 3
    weight_filler {
      type: "gaussian"
      std: 0.01
    }
    bias_filler {
      type: "constant"
      value: 0
    }
  }
}
layers {
  bottom: "conv3_2"
  top: "conv3_2"
  name: "relu3_2"
  type: RELU
}
layers {
  bottom: "conv3_2"
  top: "conv3_3"
  name: "conv3_3"
  type: CONVOLUTION
  convolution_param {
    num_output: 256
    pad: 1
    kernel_size: 3
    weight_filler {
      type: "gaussian"
      std: 0.01
    }
    bias_filler {
      type: "constant"
      value: 0
    }
  }
}
layers {
  bottom: "conv3_3"
  top: "conv3_3"
  name: "relu3_3"
  type: RELU
}
layers {
  bottom: "conv3_3"
  top: "pool3"
  name: "pool3"
  type: POOLING
  pooling_param {
    pool: MAX
    kernel_size: 2
    stride: 2
  }
}
layers {
  bottom: "pool3"
  top: "conv4_1"
  name: "conv4_1"
  type: CONVOLUTION
  convolution_param {
    num_output: 512
    pad: 1
    kernel_size: 3
    weight_filler {
      type: "gaussian"
      std: 0.01
    }
    bias_filler {
      type: "constant"
      value: 0
    }
  }
}
layers {
  bottom: "conv4_1"
  top: "conv4_1"
  name: "relu4_1"
  type: RELU
}
layers {
  bottom: "conv4_1"
  top: "conv4_2"
  name: "conv4_2"
  type: CONVOLUTION
  convolution_param {
    num_output: 512
    pad: 1
    kernel_size: 3
    weight_filler {
      type: "gaussian"
      std: 0.01
    }
    bias_filler {
      type: "constant"
      value: 0
    }
  }
}
layers {
  bottom: "conv4_2"
  top: "conv4_2"
  name: "relu4_2"
  type: RELU
}
layers {
  bottom: "conv4_2"
  top: "conv4_3"
  name: "conv4_3"
  type: CONVOLUTION
  convolution_param {
    num_output: 512
    pad: 1
    kernel_size: 3
    weight_filler {
      type: "gaussian"
      std: 0.01
    }
    bias_filler {
      type: "constant"
      value: 0
    }
  }
}
layers {
  bottom: "conv4_3"
  top: "conv4_3"
  name: "relu4_3"
  type: RELU
}
layers {
  bottom: "conv4_3"
  top: "pool4"
  name: "pool4"
  type: POOLING
  pooling_param {
    pool: MAX
    kernel_size: 2
    stride: 2
  }
}
layers {
  bottom: "pool4"
  top: "conv5_1"
  name: "conv5_1"
  type: CONVOLUTION
  convolution_param {
    num_output: 512
    pad: 1
    kernel_size: 3
    weight_filler {
      type: "gaussian"
      std: 0.01
    }
    bias_filler {
      type: "constant"
      value: 0
    }
  }
}
layers {
  bottom: "conv5_1"
  top: "conv5_1"
  name: "relu5_1"
  type: RELU
}
layers {
  bottom: "conv5_1"
  top: "conv5_2"
  name: "conv5_2"
  type: CONVOLUTION
  convolution_param {
    num_output: 512
    pad: 1
    kernel_size: 3
    weight_filler {
      type: "gaussian"
      std: 0.01
    }
    bias_filler {
      type: "constant"
      value: 0
    }
  }
}
layers {
  bottom: "conv5_2"
  top: "conv5_2"
  name: "relu5_2"
  type: RELU
}
layers {
  bottom: "conv5_2"
  top: "conv5_3"
  name: "conv5_3"
  type: CONVOLUTION
  convolution_param {
    num_output: 512
    pad: 1
    kernel_size: 3
    weight_filler {
      type: "gaussian"
      std: 0.01
    }
    bias_filler {
      type: "constant"
      value: 0
    }
  }
}
layers {
  bottom: "conv5_3"
  top: "conv5_3"
  name: "relu5_3"
  type: RELU
}
layers {
  bottom: "conv5_3"
  top: "pool5"
  name: "pool5"
  type: POOLING
  pooling_param {
    pool: MAX
    kernel_size: 2
    stride: 2
  }
}
layers {
  bottom: "pool5"
  top: "fc6"
  name: "fc6"
  type: INNER_PRODUCT
  inner_product_param {
    num_output: 4096
    weight_filler {
      type: "gaussian"
      std: 0.01
    }
    bias_filler {
      type: "constant"
      value: 0
    }
  }
}
layers {
  bottom: "fc6"
  top: "fc6"
  name: "relu6"
  type: RELU
}
layers {
  bottom: "fc6"
  top: "fc6"
  name: "drop6"
  type: DROPOUT
  dropout_param {
    dropout_ratio: 0.5
  }
}
layers {
  bottom: "fc6"
  top: "fc7"
  name: "fc7"
  type: INNER_PRODUCT
  inner_product_param {
    num_output: 4096
    weight_filler {
      type: "gaussian"
      std: 0.01
    }
    bias_filler {
      type: "constant"
      value: 0
    }
  }
}
layers {
  bottom: "fc7"
  top: "fc7"
  name: "relu7"
  type: RELU
}
layers {
  bottom: "fc7"
  top: "fc7"
  name: "drop7"
  type: DROPOUT
  dropout_param {
    dropout_ratio: 0.5
  }
}
layers {
  bottom: "fc7"
  top: "fc8_2"
  name: "fc8_2"
  type: INNER_PRODUCT
  inner_product_param {
    num_output: 2
    weight_filler {
      type: "gaussian"
      std: 0.01
    }
    bias_filler {
      type: "constant"
      value: 0
    }
  }
}
layers {
  bottom: "fc8_2"
  bottom: "label"
  name: "loss"
  type: SOFTMAX_LOSS
}
layers {
  bottom: "fc8_2"
  bottom: "label"
  top: "accuracy"
  name: "accuracy"
  type: PER_CLASS_ACCURACY
  include {
    phase: TEST
  }
}
state {
  phase: TEST
}
I1106 16:09:56.598865 21866 layer_factory.hpp:78] Creating layer data
I1106 16:09:56.598875 21866 net.cpp:67] Creating Layer data
I1106 16:09:56.598878 21866 net.cpp:356] data -> data
I1106 16:09:56.598886 21866 net.cpp:356] data -> label
I1106 16:09:56.598891 21866 net.cpp:96] Setting up data
I1106 16:09:56.598896 21866 image_data_layer.cpp:34] Opening file /data/ad6813/devCaffe/caffe/data/scrape/val.txt
I1106 16:09:56.599588 21866 image_data_layer.cpp:49] A total of 1976 images.
I1106 16:09:56.606345 21866 image_data_layer.cpp:78] output data size: 8,3,224,224
I1106 16:09:56.607004 21866 net.cpp:103] Top shape: 8 3 224 224 (1204224)
I1106 16:09:56.607025 21866 net.cpp:103] Top shape: 8 1 1 1 (8)
I1106 16:09:56.607029 21866 layer_factory.hpp:78] Creating layer label_data_1_split
I1106 16:09:56.607041 21866 net.cpp:67] Creating Layer label_data_1_split
I1106 16:09:56.607044 21866 net.cpp:394] label_data_1_split <- label
I1106 16:09:56.607051 21866 net.cpp:356] label_data_1_split -> label_data_1_split_0
I1106 16:09:56.607059 21866 net.cpp:356] label_data_1_split -> label_data_1_split_1
I1106 16:09:56.607064 21866 net.cpp:96] Setting up label_data_1_split
I1106 16:09:56.607069 21866 net.cpp:103] Top shape: 8 1 1 1 (8)
I1106 16:09:56.607072 21866 net.cpp:103] Top shape: 8 1 1 1 (8)
I1106 16:09:56.607075 21866 layer_factory.hpp:78] Creating layer conv1_1
I1106 16:09:56.607081 21866 net.cpp:67] Creating Layer conv1_1
I1106 16:09:56.607084 21866 net.cpp:394] conv1_1 <- data
I1106 16:09:56.607089 21866 net.cpp:356] conv1_1 -> conv1_1
I1106 16:09:56.607096 21866 net.cpp:96] Setting up conv1_1
I1106 16:09:56.607244 21866 net.cpp:103] Top shape: 8 64 224 224 (25690112)
I1106 16:09:56.607257 21866 layer_factory.hpp:78] Creating layer relu1_1
I1106 16:09:56.607266 21866 net.cpp:67] Creating Layer relu1_1
I1106 16:09:56.607270 21866 net.cpp:394] relu1_1 <- conv1_1
I1106 16:09:56.607275 21866 net.cpp:345] relu1_1 -> conv1_1 (in-place)
I1106 16:09:56.607280 21866 net.cpp:96] Setting up relu1_1
I1106 16:09:56.607291 21866 net.cpp:103] Top shape: 8 64 224 224 (25690112)
I1106 16:09:56.607295 21866 layer_factory.hpp:78] Creating layer conv1_2
I1106 16:09:56.607300 21866 net.cpp:67] Creating Layer conv1_2
I1106 16:09:56.607302 21866 net.cpp:394] conv1_2 <- conv1_1
I1106 16:09:56.607306 21866 net.cpp:356] conv1_2 -> conv1_2
I1106 16:09:56.607312 21866 net.cpp:96] Setting up conv1_2
I1106 16:09:56.608283 21866 net.cpp:103] Top shape: 8 64 224 224 (25690112)
I1106 16:09:56.608295 21866 layer_factory.hpp:78] Creating layer relu1_2
I1106 16:09:56.608299 21866 net.cpp:67] Creating Layer relu1_2
I1106 16:09:56.608304 21866 net.cpp:394] relu1_2 <- conv1_2
I1106 16:09:56.608307 21866 net.cpp:345] relu1_2 -> conv1_2 (in-place)
I1106 16:09:56.608311 21866 net.cpp:96] Setting up relu1_2
I1106 16:09:56.608317 21866 net.cpp:103] Top shape: 8 64 224 224 (25690112)
I1106 16:09:56.608320 21866 layer_factory.hpp:78] Creating layer pool1
I1106 16:09:56.608325 21866 net.cpp:67] Creating Layer pool1
I1106 16:09:56.608327 21866 net.cpp:394] pool1 <- conv1_2
I1106 16:09:56.608331 21866 net.cpp:356] pool1 -> pool1
I1106 16:09:56.608336 21866 net.cpp:96] Setting up pool1
I1106 16:09:56.608343 21866 net.cpp:103] Top shape: 8 64 112 112 (6422528)
I1106 16:09:56.608346 21866 layer_factory.hpp:78] Creating layer conv2_1
I1106 16:09:56.608350 21866 net.cpp:67] Creating Layer conv2_1
I1106 16:09:56.608353 21866 net.cpp:394] conv2_1 <- pool1
I1106 16:09:56.608357 21866 net.cpp:356] conv2_1 -> conv2_1
I1106 16:09:56.608362 21866 net.cpp:96] Setting up conv2_1
I1106 16:09:56.610332 21866 net.cpp:103] Top shape: 8 128 112 112 (12845056)
I1106 16:09:56.610344 21866 layer_factory.hpp:78] Creating layer relu2_1
I1106 16:09:56.610350 21866 net.cpp:67] Creating Layer relu2_1
I1106 16:09:56.610353 21866 net.cpp:394] relu2_1 <- conv2_1
I1106 16:09:56.610358 21866 net.cpp:345] relu2_1 -> conv2_1 (in-place)
I1106 16:09:56.610363 21866 net.cpp:96] Setting up relu2_1
I1106 16:09:56.610368 21866 net.cpp:103] Top shape: 8 128 112 112 (12845056)
I1106 16:09:56.610371 21866 layer_factory.hpp:78] Creating layer conv2_2
I1106 16:09:56.610376 21866 net.cpp:67] Creating Layer conv2_2
I1106 16:09:56.610378 21866 net.cpp:394] conv2_2 <- conv2_1
I1106 16:09:56.610383 21866 net.cpp:356] conv2_2 -> conv2_2
I1106 16:09:56.610388 21866 net.cpp:96] Setting up conv2_2
I1106 16:09:56.614006 21866 net.cpp:103] Top shape: 8 128 112 112 (12845056)
I1106 16:09:56.614017 21866 layer_factory.hpp:78] Creating layer relu2_2
I1106 16:09:56.614022 21866 net.cpp:67] Creating Layer relu2_2
I1106 16:09:56.614025 21866 net.cpp:394] relu2_2 <- conv2_2
I1106 16:09:56.614029 21866 net.cpp:345] relu2_2 -> conv2_2 (in-place)
I1106 16:09:56.614033 21866 net.cpp:96] Setting up relu2_2
I1106 16:09:56.614038 21866 net.cpp:103] Top shape: 8 128 112 112 (12845056)
I1106 16:09:56.614042 21866 layer_factory.hpp:78] Creating layer pool2
I1106 16:09:56.614047 21866 net.cpp:67] Creating Layer pool2
I1106 16:09:56.614049 21866 net.cpp:394] pool2 <- conv2_2
I1106 16:09:56.614053 21866 net.cpp:356] pool2 -> pool2
I1106 16:09:56.614058 21866 net.cpp:96] Setting up pool2
I1106 16:09:56.614063 21866 net.cpp:103] Top shape: 8 128 56 56 (3211264)
I1106 16:09:56.614066 21866 layer_factory.hpp:78] Creating layer conv3_1
I1106 16:09:56.614071 21866 net.cpp:67] Creating Layer conv3_1
I1106 16:09:56.614074 21866 net.cpp:394] conv3_1 <- pool2
I1106 16:09:56.614078 21866 net.cpp:356] conv3_1 -> conv3_1
I1106 16:09:56.614084 21866 net.cpp:96] Setting up conv3_1
I1106 16:09:56.621232 21866 net.cpp:103] Top shape: 8 256 56 56 (6422528)
I1106 16:09:56.621258 21866 layer_factory.hpp:78] Creating layer relu3_1
I1106 16:09:56.621263 21866 net.cpp:67] Creating Layer relu3_1
I1106 16:09:56.621266 21866 net.cpp:394] relu3_1 <- conv3_1
I1106 16:09:56.621271 21866 net.cpp:345] relu3_1 -> conv3_1 (in-place)
I1106 16:09:56.621275 21866 net.cpp:96] Setting up relu3_1
I1106 16:09:56.621280 21866 net.cpp:103] Top shape: 8 256 56 56 (6422528)
I1106 16:09:56.621284 21866 layer_factory.hpp:78] Creating layer conv3_2
I1106 16:09:56.621295 21866 net.cpp:67] Creating Layer conv3_2
I1106 16:09:56.621299 21866 net.cpp:394] conv3_2 <- conv3_1
I1106 16:09:56.621302 21866 net.cpp:356] conv3_2 -> conv3_2
I1106 16:09:56.621307 21866 net.cpp:96] Setting up conv3_2
I1106 16:09:56.635309 21866 net.cpp:103] Top shape: 8 256 56 56 (6422528)
I1106 16:09:56.635320 21866 layer_factory.hpp:78] Creating layer relu3_2
I1106 16:09:56.635337 21866 net.cpp:67] Creating Layer relu3_2
I1106 16:09:56.635341 21866 net.cpp:394] relu3_2 <- conv3_2
I1106 16:09:56.635346 21866 net.cpp:345] relu3_2 -> conv3_2 (in-place)
I1106 16:09:56.635351 21866 net.cpp:96] Setting up relu3_2
I1106 16:09:56.635356 21866 net.cpp:103] Top shape: 8 256 56 56 (6422528)
I1106 16:09:56.635360 21866 layer_factory.hpp:78] Creating layer conv3_3
I1106 16:09:56.635365 21866 net.cpp:67] Creating Layer conv3_3
I1106 16:09:56.635368 21866 net.cpp:394] conv3_3 <- conv3_2
I1106 16:09:56.635373 21866 net.cpp:356] conv3_3 -> conv3_3
I1106 16:09:56.635380 21866 net.cpp:96] Setting up conv3_3
I1106 16:09:56.649592 21866 net.cpp:103] Top shape: 8 256 56 56 (6422528)
I1106 16:09:56.649618 21866 layer_factory.hpp:78] Creating layer relu3_3
I1106 16:09:56.649626 21866 net.cpp:67] Creating Layer relu3_3
I1106 16:09:56.649628 21866 net.cpp:394] relu3_3 <- conv3_3
I1106 16:09:56.649634 21866 net.cpp:345] relu3_3 -> conv3_3 (in-place)
I1106 16:09:56.649641 21866 net.cpp:96] Setting up relu3_3
I1106 16:09:56.649646 21866 net.cpp:103] Top shape: 8 256 56 56 (6422528)
I1106 16:09:56.649648 21866 layer_factory.hpp:78] Creating layer pool3
I1106 16:09:56.649654 21866 net.cpp:67] Creating Layer pool3
I1106 16:09:56.649657 21866 net.cpp:394] pool3 <- conv3_3
I1106 16:09:56.649662 21866 net.cpp:356] pool3 -> pool3
I1106 16:09:56.649667 21866 net.cpp:96] Setting up pool3
I1106 16:09:56.649673 21866 net.cpp:103] Top shape: 8 256 28 28 (1605632)
I1106 16:09:56.649677 21866 layer_factory.hpp:78] Creating layer conv4_1
I1106 16:09:56.649682 21866 net.cpp:67] Creating Layer conv4_1
I1106 16:09:56.649684 21866 net.cpp:394] conv4_1 <- pool3
I1106 16:09:56.649690 21866 net.cpp:356] conv4_1 -> conv4_1
I1106 16:09:56.649695 21866 net.cpp:96] Setting up conv4_1
I1106 16:09:56.678709 21866 net.cpp:103] Top shape: 8 512 28 28 (3211264)
I1106 16:09:56.678736 21866 layer_factory.hpp:78] Creating layer relu4_1
I1106 16:09:56.678745 21866 net.cpp:67] Creating Layer relu4_1
I1106 16:09:56.678750 21866 net.cpp:394] relu4_1 <- conv4_1
I1106 16:09:56.678758 21866 net.cpp:345] relu4_1 -> conv4_1 (in-place)
I1106 16:09:56.678766 21866 net.cpp:96] Setting up relu4_1
I1106 16:09:56.678771 21866 net.cpp:103] Top shape: 8 512 28 28 (3211264)
I1106 16:09:56.678774 21866 layer_factory.hpp:78] Creating layer conv4_2
I1106 16:09:56.678781 21866 net.cpp:67] Creating Layer conv4_2
I1106 16:09:56.678783 21866 net.cpp:394] conv4_2 <- conv4_1
I1106 16:09:56.678789 21866 net.cpp:356] conv4_2 -> conv4_2
I1106 16:09:56.678796 21866 net.cpp:96] Setting up conv4_2
I1106 16:09:56.735534 21866 net.cpp:103] Top shape: 8 512 28 28 (3211264)
I1106 16:09:56.735563 21866 layer_factory.hpp:78] Creating layer relu4_2
I1106 16:09:56.735571 21866 net.cpp:67] Creating Layer relu4_2
I1106 16:09:56.735576 21866 net.cpp:394] relu4_2 <- conv4_2
I1106 16:09:56.735582 21866 net.cpp:345] relu4_2 -> conv4_2 (in-place)
I1106 16:09:56.735591 21866 net.cpp:96] Setting up relu4_2
I1106 16:09:56.735596 21866 net.cpp:103] Top shape: 8 512 28 28 (3211264)
I1106 16:09:56.735600 21866 layer_factory.hpp:78] Creating layer conv4_3
I1106 16:09:56.735606 21866 net.cpp:67] Creating Layer conv4_3
I1106 16:09:56.735610 21866 net.cpp:394] conv4_3 <- conv4_2
I1106 16:09:56.735613 21866 net.cpp:356] conv4_3 -> conv4_3
I1106 16:09:56.735621 21866 net.cpp:96] Setting up conv4_3
I1106 16:09:56.791342 21866 net.cpp:103] Top shape: 8 512 28 28 (3211264)
I1106 16:09:56.791378 21866 layer_factory.hpp:78] Creating layer relu4_3
I1106 16:09:56.791386 21866 net.cpp:67] Creating Layer relu4_3
I1106 16:09:56.791391 21866 net.cpp:394] relu4_3 <- conv4_3
I1106 16:09:56.791399 21866 net.cpp:345] relu4_3 -> conv4_3 (in-place)
I1106 16:09:56.791414 21866 net.cpp:96] Setting up relu4_3
I1106 16:09:56.791420 21866 net.cpp:103] Top shape: 8 512 28 28 (3211264)
I1106 16:09:56.791424 21866 layer_factory.hpp:78] Creating layer pool4
I1106 16:09:56.791429 21866 net.cpp:67] Creating Layer pool4
I1106 16:09:56.791432 21866 net.cpp:394] pool4 <- conv4_3
I1106 16:09:56.791436 21866 net.cpp:356] pool4 -> pool4
I1106 16:09:56.791442 21866 net.cpp:96] Setting up pool4
I1106 16:09:56.791450 21866 net.cpp:103] Top shape: 8 512 14 14 (802816)
I1106 16:09:56.791453 21866 layer_factory.hpp:78] Creating layer conv5_1
I1106 16:09:56.791460 21866 net.cpp:67] Creating Layer conv5_1
I1106 16:09:56.791463 21866 net.cpp:394] conv5_1 <- pool4
I1106 16:09:56.791467 21866 net.cpp:356] conv5_1 -> conv5_1
I1106 16:09:56.791474 21866 net.cpp:96] Setting up conv5_1
I1106 16:09:56.846107 21866 net.cpp:103] Top shape: 8 512 14 14 (802816)
I1106 16:09:56.846143 21866 layer_factory.hpp:78] Creating layer relu5_1
I1106 16:09:56.846150 21866 net.cpp:67] Creating Layer relu5_1
I1106 16:09:56.846155 21866 net.cpp:394] relu5_1 <- conv5_1
I1106 16:09:56.846163 21866 net.cpp:345] relu5_1 -> conv5_1 (in-place)
I1106 16:09:56.846168 21866 net.cpp:96] Setting up relu5_1
I1106 16:09:56.846174 21866 net.cpp:103] Top shape: 8 512 14 14 (802816)
I1106 16:09:56.846179 21866 layer_factory.hpp:78] Creating layer conv5_2
I1106 16:09:56.846184 21866 net.cpp:67] Creating Layer conv5_2
I1106 16:09:56.846186 21866 net.cpp:394] conv5_2 <- conv5_1
I1106 16:09:56.846192 21866 net.cpp:356] conv5_2 -> conv5_2
I1106 16:09:56.846199 21866 net.cpp:96] Setting up conv5_2
I1106 16:09:56.901337 21866 net.cpp:103] Top shape: 8 512 14 14 (802816)
I1106 16:09:56.901374 21866 layer_factory.hpp:78] Creating layer relu5_2
I1106 16:09:56.901383 21866 net.cpp:67] Creating Layer relu5_2
I1106 16:09:56.901387 21866 net.cpp:394] relu5_2 <- conv5_2
I1106 16:09:56.901393 21866 net.cpp:345] relu5_2 -> conv5_2 (in-place)
I1106 16:09:56.901399 21866 net.cpp:96] Setting up relu5_2
I1106 16:09:56.901406 21866 net.cpp:103] Top shape: 8 512 14 14 (802816)
I1106 16:09:56.901408 21866 layer_factory.hpp:78] Creating layer conv5_3
I1106 16:09:56.901415 21866 net.cpp:67] Creating Layer conv5_3
I1106 16:09:56.901418 21866 net.cpp:394] conv5_3 <- conv5_2
I1106 16:09:56.901423 21866 net.cpp:356] conv5_3 -> conv5_3
I1106 16:09:56.901430 21866 net.cpp:96] Setting up conv5_3
I1106 16:09:56.956357 21866 net.cpp:103] Top shape: 8 512 14 14 (802816)
I1106 16:09:56.956394 21866 layer_factory.hpp:78] Creating layer relu5_3
I1106 16:09:56.956403 21866 net.cpp:67] Creating Layer relu5_3
I1106 16:09:56.956408 21866 net.cpp:394] relu5_3 <- conv5_3
I1106 16:09:56.956414 21866 net.cpp:345] relu5_3 -> conv5_3 (in-place)
I1106 16:09:56.956421 21866 net.cpp:96] Setting up relu5_3
I1106 16:09:56.956428 21866 net.cpp:103] Top shape: 8 512 14 14 (802816)
I1106 16:09:56.956430 21866 layer_factory.hpp:78] Creating layer pool5
I1106 16:09:56.956444 21866 net.cpp:67] Creating Layer pool5
I1106 16:09:56.956447 21866 net.cpp:394] pool5 <- conv5_3
I1106 16:09:56.956454 21866 net.cpp:356] pool5 -> pool5
I1106 16:09:56.956459 21866 net.cpp:96] Setting up pool5
I1106 16:09:56.956466 21866 net.cpp:103] Top shape: 8 512 7 7 (200704)
I1106 16:09:56.956470 21866 layer_factory.hpp:78] Creating layer fc6
I1106 16:09:56.956475 21866 net.cpp:67] Creating Layer fc6
I1106 16:09:56.956478 21866 net.cpp:394] fc6 <- pool5
I1106 16:09:56.956483 21866 net.cpp:356] fc6 -> fc6
I1106 16:09:56.956488 21866 net.cpp:96] Setting up fc6
I1106 16:09:59.355424 21866 net.cpp:103] Top shape: 8 4096 1 1 (32768)
I1106 16:09:59.355453 21866 layer_factory.hpp:78] Creating layer relu6
I1106 16:09:59.355463 21866 net.cpp:67] Creating Layer relu6
I1106 16:09:59.355466 21866 net.cpp:394] relu6 <- fc6
I1106 16:09:59.355475 21866 net.cpp:345] relu6 -> fc6 (in-place)
I1106 16:09:59.355484 21866 net.cpp:96] Setting up relu6
I1106 16:09:59.355497 21866 net.cpp:103] Top shape: 8 4096 1 1 (32768)
I1106 16:09:59.355500 21866 layer_factory.hpp:78] Creating layer drop6
I1106 16:09:59.355517 21866 net.cpp:67] Creating Layer drop6
I1106 16:09:59.355520 21866 net.cpp:394] drop6 <- fc6
I1106 16:09:59.355525 21866 net.cpp:345] drop6 -> fc6 (in-place)
I1106 16:09:59.355530 21866 net.cpp:96] Setting up drop6
I1106 16:09:59.355533 21866 net.cpp:103] Top shape: 8 4096 1 1 (32768)
I1106 16:09:59.355536 21866 layer_factory.hpp:78] Creating layer fc7
I1106 16:09:59.355542 21866 net.cpp:67] Creating Layer fc7
I1106 16:09:59.355545 21866 net.cpp:394] fc7 <- fc6
I1106 16:09:59.355551 21866 net.cpp:356] fc7 -> fc7
I1106 16:09:59.355557 21866 net.cpp:96] Setting up fc7
I1106 16:09:59.766453 21866 net.cpp:103] Top shape: 8 4096 1 1 (32768)
I1106 16:09:59.766481 21866 layer_factory.hpp:78] Creating layer relu7
I1106 16:09:59.766491 21866 net.cpp:67] Creating Layer relu7
I1106 16:09:59.766496 21866 net.cpp:394] relu7 <- fc7
I1106 16:09:59.766504 21866 net.cpp:345] relu7 -> fc7 (in-place)
I1106 16:09:59.766510 21866 net.cpp:96] Setting up relu7
I1106 16:09:59.766525 21866 net.cpp:103] Top shape: 8 4096 1 1 (32768)
I1106 16:09:59.766527 21866 layer_factory.hpp:78] Creating layer drop7
I1106 16:09:59.766532 21866 net.cpp:67] Creating Layer drop7
I1106 16:09:59.766535 21866 net.cpp:394] drop7 <- fc7
I1106 16:09:59.766541 21866 net.cpp:345] drop7 -> fc7 (in-place)
I1106 16:09:59.766544 21866 net.cpp:96] Setting up drop7
I1106 16:09:59.766548 21866 net.cpp:103] Top shape: 8 4096 1 1 (32768)
I1106 16:09:59.766551 21866 layer_factory.hpp:78] Creating layer fc8_2
I1106 16:09:59.766557 21866 net.cpp:67] Creating Layer fc8_2
I1106 16:09:59.766561 21866 net.cpp:394] fc8_2 <- fc7
I1106 16:09:59.766566 21866 net.cpp:356] fc8_2 -> fc8_2
I1106 16:09:59.766571 21866 net.cpp:96] Setting up fc8_2
I1106 16:09:59.766782 21866 net.cpp:103] Top shape: 8 2 1 1 (16)
I1106 16:09:59.766789 21866 layer_factory.hpp:78] Creating layer fc8_2_fc8_2_0_split
I1106 16:09:59.766793 21866 net.cpp:67] Creating Layer fc8_2_fc8_2_0_split
I1106 16:09:59.766796 21866 net.cpp:394] fc8_2_fc8_2_0_split <- fc8_2
I1106 16:09:59.766800 21866 net.cpp:356] fc8_2_fc8_2_0_split -> fc8_2_fc8_2_0_split_0
I1106 16:09:59.766806 21866 net.cpp:356] fc8_2_fc8_2_0_split -> fc8_2_fc8_2_0_split_1
I1106 16:09:59.766811 21866 net.cpp:96] Setting up fc8_2_fc8_2_0_split
I1106 16:09:59.766815 21866 net.cpp:103] Top shape: 8 2 1 1 (16)
I1106 16:09:59.766819 21866 net.cpp:103] Top shape: 8 2 1 1 (16)
I1106 16:09:59.766821 21866 layer_factory.hpp:78] Creating layer loss
I1106 16:09:59.766826 21866 net.cpp:67] Creating Layer loss
I1106 16:09:59.766830 21866 net.cpp:394] loss <- fc8_2_fc8_2_0_split_0
I1106 16:09:59.766834 21866 net.cpp:394] loss <- label_data_1_split_0
I1106 16:09:59.766839 21866 net.cpp:356] loss -> (automatic)
I1106 16:09:59.766844 21866 net.cpp:96] Setting up loss
I1106 16:09:59.766849 21866 net.cpp:103] Top shape: 1 1 1 1 (1)
I1106 16:09:59.766856 21866 net.cpp:109]     with loss weight 1
I1106 16:09:59.766870 21866 layer_factory.hpp:78] Creating layer accuracy
I1106 16:09:59.766880 21866 net.cpp:67] Creating Layer accuracy
I1106 16:09:59.766882 21866 net.cpp:394] accuracy <- fc8_2_fc8_2_0_split_1
I1106 16:09:59.766886 21866 net.cpp:394] accuracy <- label_data_1_split_1
I1106 16:09:59.766892 21866 net.cpp:356] accuracy -> accuracy
I1106 16:09:59.766897 21866 net.cpp:96] Setting up accuracy
I1106 16:09:59.766906 21866 net.cpp:103] Top shape: 1 1 1 4 (4)
I1106 16:09:59.766911 21866 net.cpp:172] accuracy does not need backward computation.
I1106 16:09:59.766912 21866 net.cpp:170] loss needs backward computation.
I1106 16:09:59.766916 21866 net.cpp:170] fc8_2_fc8_2_0_split needs backward computation.
I1106 16:09:59.766918 21866 net.cpp:170] fc8_2 needs backward computation.
I1106 16:09:59.766921 21866 net.cpp:170] drop7 needs backward computation.
…
